models/三代目 J SOUL BROTHERS/classifier_fold1.pth (torch, 991011 bytes, 16 tensors)

conv_layers.0.weight f4 [64, 256, 2]
0	0x3ca1f01b	0.019767812
1	0x3d2e59c6	0.042566083
2	0xbc0e9064	-0.008701418
3	0x3d27d520	0.040974736
4	0xbd043516	-0.03227719
5	0xbd66a07c	-0.056305394
6	0xbd99fe66	-0.07519226
7	0x3d479ddf	0.048734542
8	0xbcad3825	-0.021144936
9	0xbd62fdb2	-0.055417724
10	0xbde7581c	-0.112961024
11	0xbdf55d9b	-0.119807445
12	0xbbc9dcdf	-0.006160363
13	0xbb0a1d11	-0.0021074454
14	0x3cd06685	0.02543951
15	0xbd28853b	-0.041142683
16	0x3dbc7c2f	0.09203374
17	0x3d58853c	0.052861437
18	0xbc5875c8	-0.013211675
19	0x3cca15f0	0.024668664
20	0x3cae2d42	0.021261815
21	0xbd454f38	-0.048171252
22	0xbdb408a8	-0.087907135
23	0xbdabc1db	-0.08386584
24	0x3d34a7cc	0.044105336
25	0xbcf86345	-0.030320773
26	0xbbef4d08	-0.007302884
27	0x3c87c54b	0.016573569
28	0x3d345196	0.04402312
29	0xbc359aaa	-0.011084238
30	0x3c0d4b4d	0.00862391
31	0x3c6a27d3	0.014291721
32	0x3d86fd31	0.06591261
33	0x3d911c20	0.070854425
34	0xbd11e8c3	-0.03562237
35	0x3c209906	0.009802109
36	0xbd62d4de	-0.055378787
37	0xbb1e3e5b	-0.0024146053
38	0xbd830a8a	-0.063984945
39	0xbcd9ca5e	-0.026585754
40	0x3d199f30	0.03750533
41	0xbd63f233	-0.0556509
42	0xbc4c0803	-0.012453082
43	0xbd3cc4f7	-0.046086278
44	0x3d75c88a	0.060005702
45	0xbcf33c19	-0.029691743
46	0x3cd0c37f	0.025483845
47	0x3c46dc09	0.012137421
48	0x3cccf63d	0.02501976
49	0x3d694af7	0.056956258
50	0x3dd889b8	0.10573143
51	0x3d3c74e1	0.046009902
52	0x3cd47a05	0.02593709
53	0xbcff84d6	-0.03119127
54	0x3cc6613c	0.024216287
55	0xbc4b3b7b	-0.012404318
56	0x3c1719ce	0.009222461
57	0xbab85054	-0.0014062026
58	0xbe0875a1	-0.13326122
59	0x3beaea6c	0.0071690585
60	0xbc28171c	-0.010259416
61	0x3d549499	0.051899526
62	0x3bf9c6a5	0.007622557
63	0xbd66ebf2	-0.05637736
64	0x3d7053f1	0.058673803
65	0x3dbb6a71	0.091511615
66	0xbb613106	-0.0034361496
67	0x3d5ce141	0.053925756
68	0xbd3dba27	-0.046320107
69	0x3c3d34be	0.011548219
70	0x3c2f5b29	0.010702887
71	0x3d9a7ba7	0.07543116
72	0x3cb35824	0.021892615
73	0xbd11c4e3	-0.035588156
74	0xbcce85cc	-0.025210284
75	0xbd1e23a4	-0.03860821
76	0x3d0dbfc3	0.034606706
77	0xbc4fd40a	-0.012684831
78	0x3d1f238a	0.038852252
79	0xbc9e5ce0	-0.019331396
80	0xbdb3c87b	-0.08778473
81	0x3d9383ac	0.07202849
82	0x3bffcd00	0.0078064203
83	0xbd37d695	-0.044882376
84	0x3b843eba	0.004035798
85	0x3d0508bc	0.032479033
86	0xbd97cc81	-0.07412053
87	0xbd997b0d	-0.07494173
88	0xbdb4bcaa	-0.08825047
89	0x3ca2d14b	0.01987519
90	0x3d498675	0.049200494
91	0xbb7bef0b	-0.0038442041
92	0xbbb365db	-0.0054747886
93	0xbdae7095	-0.08517567
94	0xbb7a4f82	-0.0038194363
95	0x3b5c4641	0.003361121
96	0x3ce6334f	0.028100638
97	0xba95abd1	-0.0011419003
98	0xbdc745bf	-0.097301
99	0x3bb12690	0.0054062083
100	0x3d5c6ae3	0.053812873
101	0xbd5b10b4	-0.053482726
102	0x3c05e39a	0.00817194
103	0xbd3372b8	-0.043810576
104	0xbca794c1	-0.020456674
105	0x3a51654c	0.00079878117
106	0xbcb17a35	-0.021664718
107	0xbd45199e	-0.048120134
108	0x3cef9acd	0.02924862
109	0xbcfe611a	-0.031052161
110	0xbd319130	-0.043351352
111	0xbd079cd4	-0.033108547
112	0x3cbb86c4	0.02289141
113	0xbd0f02da	-0.03491483
114	0x3db3a1d1	0.087710984
115	0x3b2d03c3	0.0026399947
116	0xbd76ae7a	-0.060224988
117	0xbc46afb3	-0.012126851
118	0x3c87eb07	0.016591562
119	0xbc93fa51	-0.018063696
120	0x3d19c546	0.03754165
121	0x3c0a0101	0.008423091
122	0xbd8e9120	-0.06961274
123	0xbdc76c23	-0.09737422
124	0xbcb4e9a2	-0.022084061
125	0x3d554dc5	0.05207612
126	0x3d9b5e87	0.07586389
127	0x3aaa944f	0.001301417
128	0xbcf8f94d	-0.030392313
129	0xbd94b215	-0.07260529
130	0x3be9aa6d	0.007130912
131	0xbb30672f	-0.002691697
132	0x3cfdc333	0.030976867
133	0xbd85910d	-0.06521807
134	0x3c892301	0.016740324
135	0xbd2f6f41	-0.04283071
136	0x3d1627b2	0.03665895
137	0xbda60db1	-0.0810808
138	0xbd6f7804	-0.058464065
139	0x3d4a7b9a	0.049434282
140	0x3da6bedf	0.081418745
141	0xbd961661	-0.07328487
142	0x3d3f3d22	0.04668916
143	0x3c90b10b	0.017662546
144	0xbd2551f5	-0.040361363
145	0xbceb4f3b	-0.028724303
146	0xbb0cffac	-0.0021514697
147	0x3c2266d8	0.009912215
148	0xbd147971	-0.036248628
149	0xbd0b3aa9	-0.03399149
150	0xbd825786	-0.0636435
151	0x3c824057	0.01589982
152	0x3c623cd6	0.01380845
153	0x3ce0ebc5	0.027456174
154	0xbcf259e9	-0.029583888
155	0x3d994deb	0.07485565
156	0xbc25bbe0	-0.010115594
157	0xbd8347f5	-0.06410209
158	0x3b84a98a	0.004048531
159	0x3ce202b7	0.027589185
160	0x3c79d916	0.015249511
161	0xbcad0307	-0.021119608
162	0xbd146343	-0.036227476
163	0xbd6bbc8e	-0.057552867
164	0x3a38aff7	0.0007045264
165	0x3d2133d5	0.03935607
166	0x3cb4a53d	0.022051448
167	0xbcf307d3	-0.029666817
168	0xbd865ab2	-0.065602675
169	0x3cc0d715	0.02354006
170	0x3c16e016	0.0092087
171	0x3cb5b85c	0.022182636
172	0xbd44adc4	-0.04801728
173	0xbc32149c	-0.0108691715
174	0x3d2328d2	0.03983385
175	0xbd4b3814	-0.049614027
176	0xbc58b21d	-0.013226059
177	0xbcb2b47d	-0.02181458
178	0x3dbace01	0.091213234
179	0xbcc2bd27	-0.023771835
180	0x3da83d19	0.082147785
181	0x3d9f95d6	0.07792251
182	0xbce44721	-0.027865948
183	0xbca94a68	-0.020665362
184	0xbbf064d0	-0.0073362365
185	0xbcccd0f4	-0.02500198
186	0x3d4f5163	0.050614726
187	0x3cbf488a	0.023350019
188	0x3cfad670	0.03061983
189	0xbd0cff8e	-0.034423403
190	0xbd428e44	-0.047498956
191	0xbdf7a011	-0.12091077
192	0xbd964b03	-0.07338526
193	0x3c40c059	0.011764609
194	0x3be0de2d	0.006862423
195	0x3d865a23	0.06560161
196	0x3d0e6a30	0.034769237
197	0xbc5313d8	-0.012883149
198	0xba384dc9	-0.0007030634
199	0x3bdf158b	0.006807988
200	0x3c7a3ff8	0.01527404
201	0xbd95fe0d	-0.07323847
202	0x3d87e061	0.06634594
203	0xbd9f92e6	-0.077916905
204	0xba8e45be	-0.0010854525
205	0x3c0bde53	0.008536893
206	0x3d03011a	0.031983472
207	0x3d62702f	0.055282768
208	0x3b88001d	0.004150404
209	0xbcf78fc8	-0.030219927
210	0xbd32352f	-0.04350775
211	0x3d83733d	0.06418464
212	0xbd901b3a	-0.07036443
213	0xbc1eca57	-0.009691796
214	0x3d368847	0.044563558
215	0xbbd25efb	-0.006420014
216	0xbd8049e5	-0.06264094
217	0x3cb834dc	0.022486143
218	0x3db904e9	0.0903414
219	0xbc474c93	-0.012164253
220	0x3c661273	0.014042485
221	0x3caf7031	0.021415802
222	0xbbd210d6	-0.0064106984
223	0x3d2a05fb	0.04150961
224	0xbdd2b81d	-0.10289023
225	0xbc8ebc57	-0.017423792
226	0x3cde9154	0.027168907
227	0x3c7ac19f	0.015304952
228	0x3cafdd37	0.021467788
229	0xbcacd631	-0.021098228
230	0x3ca849ae	0.020542946
231	0x3c98b4a2	0.01864082
232	0x3dbd59df	0.09245657
233	0x3cc79926	0.024365019
234	0x3daa85bd	0.0832629
235	0xbcec5696	-0.028849881
236	0x3c6b2ea8	0.014354385
237	0x3cd5562a	0.026042063
238	0x3d6071f9	0.054796193
239	0x3b480dc9	0.0030525795
240	0xbd9c5208	-0.07632834
241	0x3ce65920	0.02811867
242	0x3d402bb4	0.04691668
243	0x3d119955	0.03554662
244	0x3d4f9536	0.050679408
245	0x3d734882	0.05939532
246	0x3e14f131	0.14545132
247	0xbd074733	-0.033026885
248	0x3d0ea4b4	0.034825042
249	0x3c5c6632	0.0134521
250	0xbcebffd9	-0.028808521
251	0xbd577296	-0.052599512
252	0xbd04f955	-0.032464344
253	0xbc9910ad	-0.01868471
254	0x3d10a54d	0.035313893
255	0x3d211d53	0.039334606

conv_layers.0.bias f4 [64]
0	0xbcbcbb17	-0.02303843
1	0x3dbbdf4a	0.091734484
2	0xbce395cf	-0.027781395
3	0xbd62881f	-0.055305596
4	0x3dc72df7	0.09725564
5	0x3d034995	0.032052595
6	0xbd78d7d9	-0.060752723
7	0xbba4832a	-0.005020519
8	0xbd99c401	-0.07508088
9	0xbdf2cc62	-0.11855389
10	0x3d80a2c9	0.06281049
11	0x3d6348eb	0.055489462
12	0x3cd39848	0.02582945
13	0x3c3cfefb	0.011535401
14	0xbc69bc12	-0.014266031
15	0xbcf1cd0c	-0.02951672
16	0xba28228a	-0.0006413838
17	0x3d1b0941	0.037850622
18	0x3dbfe368	0.09369546
19	0xbce52e64	-0.027976222
20	0x3c6df83b	0.014524515
21	0x3de6f45c	0.112770766
22	0x3bd5003c	0.006500272
23	0x3bae8d16	0.0053268773
24	0x3db2df36	0.0873398
25	0xbd59e498	-0.05319652
26	0x3d13961b	0.036031824
27	0xbcbccd33	-0.023047065
28	0xbd82b566	-0.06382255
29	0xbc82c4b7	-0.015962942
30	0xbc4ffc0a	-0.012694368
31	0x3d0adcee	0.0339021
32	0xbdbf64f9	-0.09345431
33	0x3dd678df	0.10472273
34	0xbd8c8499	-0.068612285
35	0x3d21ea94	0.03953035
36	0x3d9eedf9	0.077602334
37	0xbc111be6	-0.008856749
38	0xbd5570cd	-0.05210953
39	0x3dc9c394	0.09851757
40	0xbc880e34	-0.016608335
41	0xbd9bae78	-0.07601637
42	0x3b01b4d8	0.001979163
43	0xbd0ba0ec	-0.034089014
44	0x3ccb198f	0.02479246
45	0xbaa227d6	-0.0012371491
46	0xbd1d086b	-0.038338106
47	0x3ca5ac3d	0.020223731
48	0xbd78bfb4	-0.060729697
49	0x3ba696b8	0.005083885
50	0x3d3cfaae	0.046137504
51	0x3cbd6458	0.023119137
52	0xbd907a8a	-0.070546225
53	0x3c1c96a5	0.009557401
54	0x3d0d07b8	0.03443119
55	0x3d104ba0	0.03522837
56	0xbd238509	-0.039921794
57	0xbd19a8dd	-0.037514556
58	0x3dcc636e	0.09979902
59	0x3d5c33dc	0.053760394
60	0x3caf0ab2	0.021367405
61	0xbe03c493	-0.12867956
62	0xbc772353	-0.015084106
63	0xbd462941	-0.048379187

conv_layers.1.weight f4 [64, 256, 3]
0	0xbd26dd25	-0.040738244
1	0x3b9daaca	0.0048116194
2	0x3d2a912a	0.041642345
3	0x3d66b886	0.05632832
4	0x3da5c0fa	0.08093448
5	0x3d242760	0.040076613
6	0xbd59256d	-0.053014208
7	0x3d97aae2	0.0740564
8	0x3d4501c3	0.048097383
9	0x3d6b239f	0.057407018
10	0x3c6688c5	0.014070694
11	0xbd121c25	-0.035671372
12	0xbd0f5efc	-0.035002694
13	0xbd06ef8f	-0.032943305
14	0x3d8ac88d	0.06776533
15	0x3dcb0fb2	0.09915103
16	0x3c0702d4	0.00824042
17	0x3c5bb540	0.013409913
18	0xbd43be6a	-0.047789015
19	0xbc9c7dc6	-0.019102942
20	0x3d5247c8	0.051337987
21	0xbd14c483	-0.03632022
22	0x3d107ddd	0.035276283
23	0x3cbd109d	0.02307921
24	0x3c867d11	0.016417058
25	0xbda7ca94	-0.081929356
26	0xbcd4f2b3	-0.025994634
27	0x3d7a55f2	0.06111712
28	0xbc020dca	-0.007937858
29	0xbd383a26	-0.04497733
30	0xbd411a49	-0.047144208
31	0xbe0648aa	-0.13113657
32	0xbd5ae122	-0.05343736
33	0x3d0508a9	0.032478962
34	0xbcd9f4a9	-0.02660592
35	0x3cc43607	0.023951543
36	0xbc0c9507	-0.008580453
37	0x3c4df062	0.012569519
38	0x3db9738a	0.090552405
39	0x3d9b77df	0.07591223
40	0x3bf9cc30	0.007623218
41	0xbd46e79a	-0.048560716
42	0x38dbd5eb	0.00010482579
43	0x3c3e459f	0.011613279
44	0xbc53b808	-0.012922294
45	0x3cdbb05e	0.026817497
46	0x3d81d9aa	0.06340344
47	0xbd1a6cbc	-0.037701353
48	0x3cb0e006	0.021591198
49	0xbce6e56b	-0.028185567
50	0x3cd66fe1	0.026176395
51	0x3d629c73	0.055324983
52	0xbc777572	-0.015103685
53	0x3ccbdbd1	0.02488509
54	0xbcae428d	-0.021271968
55	0xbd59dead	-0.053190876
56	0xbd0af791	-0.033927504
57	0x3c9907be	0.01868045
58	0x3c9f0938	0.019413576
59	0x3d65a93e	0.056069605
60	0xbd641caf	-0.055691417
61	0x3e1c71fa	0.15277854
62	0x3dd4314a	0.10360964
63	0x3d37f8a7	0.044914868
64	0xbd3ee4f5	-0.04660507
65	0xbc3a4ce5	-0.011370872
66	0x3d31338d	0.043262053
67	0xbd138545	-0.036015768
68	0x3d5883bd	0.05286001
69	0xbd4c9a47	-0.049951818
70	0x3d289fad	0.041167904
71	0xbc59e2e3	-0.013298723
72	0xbd866fd9	-0.06564302
73	0x3d75f07d	0.0600438
74	0xbb9ea287	-0.004841152
75	0xbb20437c	-0.0024454286
76	0x3cd80170	0.026367873
77	0x3ae7c7bd	0.0017683428
78	0xbd721e79	-0.059111092
79	0xbd035735	-0.03206559
80	0xbc0d92ee	-0.008640988
81	0x3dae263d	0.08503387
82	0x3cb6134f	0.022226004
83	0xbd441530	-0.04787177
84	0xbcaf357c	-0.021387808
85	0xbcf37853	-0.029720461
86	0xbd9421a4	-0.07232979
87	0x3c8f2da2	0.017477814
88	0x3ca0099b	0.01953583
89	0xbd82a609	-0.06379325
90	0xbc45d577	-0.01207482
91	0x3cd45337	0.025918586
92	0xbd1781c2	-0.03698898
93	0xbcf1f850	-0.02953735
94	0x3d646222	0.05575765
95	0xbc90d1e1	-0.017678203
96	0xbe5b1ae9	-0.21396984
97	0xbba08625	-0.004898804
98	0xbd938abf	-0.07204198
99	0x3d6ed843	0.058311712
100	0x3d32bbbf	0.04363608
101	0xbd184da1	-0.037183408
102	0x3c2f4d03	0.010699513
103	0xbd35f96d	-0.044427324
104	0xbc6a85cb	-0.014314125
105	0xbce242aa	-0.027619679
106	0x3dc69871	0.09697045
107	0x3d10ca6e	0.035349302
108	0xbce87e74	-0.02838061
109	0xbd242d62	-0.040082343
110	0xbce3f1cd	-0.02782526
111	0xbb46ba2e	-0.0030323374
112	0xbd31b473	-0.04338498
113	0x3a0b4257	0.00053123146
114	0xbd2f5587	-0.042806175
115	0x3df02b98	0.11727065
116	0x3d8003b7	0.062507086
117	0x3969048c	0.00022222305
118	0xbcb590f5	-0.022163847
119	0xbc43ed4e	-0.011958433
120	0x3dd81c8c	0.1055232
121	0xbd6e4861	-0.058174495
122	0x3ca54fd0	0.02017966
123	0x3c9978cf	0.018734364
124	0x3c33b891	0.010969297
125	0xbd1250b6	-0.035721503
126	0x3d8e75a4	0.06956032
127	0x3ba0e448	0.0049100257
128	0xbd4b57a8	-0.049644142
129	0xbc62fc61	-0.013854117
130	0xbc122364	-0.008919571
131	0xb992e997	-0.00028021328
132	0xbdbfea41	-0.09370852
133	0xb92e0af4	-0.00016598013
134	0xbd83774f	-0.06419241
135	0x3c11dbc7	0.008902497
136	0x3cf29d21	0.02961594
137	0xbcff63d7	-0.031175537
138	0x3d1e4a3c	0.038645014
139	0x3cf8d8c0	0.030376792
140	0x3d41683d	0.04721855
141	0x3d4ec9f0	0.05048555
142	0x3db5b51d	0.08872435
143	0xbc4fabc2	-0.012675228
144	0xbd14c1a9	-0.0363175
145	0x3c93857e	0.01800799
146	0xbd5f2519	-0.05447874
147	0x3d75f473	0.060047578
148	0x3cc61b8c	0.024183057
149	0xbd944dd6	-0.072414085
150	0xbd2129db	-0.039346557
151	0x3df09909	0.11747939
152	0xbbd09626	-0.0063655553
153	0x3ce9c265	0.028535077
154	0xbd0968eb	-0.033547323
155	0xbc23a438	-0.009987883
156	0xbba2c959	-0.00496785
157	0xbd8a5354	-0.06754175
158	0x3c6d4772	0.014482366
159	0xbd5a01ff	-0.05322456
160	0xbd8724b1	-0.06598795
161	0xbd9560a2	-0.07293822
162	0xbc092681	-0.008370996
163	0x3cce731b	0.025201371
164	0x3d407fa0	0.046996713
165	0xbd9ceb5a	-0.07662077
166	0x3a98b1ef	0.0011649708
167	0xbd7f9ed4	-0.06240733
168	0xbad477cc	-0.0016210019
169	0xbcc3ca5b	-0.023900202
170	0x3d70c5bb	0.05878232
171	0xbd172684	-0.036901966
172	0xbca157e4	-0.01969523
173	0x3c31a87c	0.010843392
174	0x3d8eabc3	0.06966355
175	0x3c864376	0.01638959
176	0x3ac98899	0.0015375792
177	0x3db7fa3b	0.089832745
178	0xbd4c1f2f	-0.049834426
179	0xbbc5410f	-0.0060197185
180	0x3be33f1e	0.0069350144
181	0xbca846b5	-0.020541528
182	0xbd0e4e56	-0.034742676
183	0x3d8346d0	0.06409991
184	0xbdbee10b	-0.09320267
185	0xbc158811	-0.009126679
186	0xbd2b15fa	-0.041769005
187	0xbcac44f5	-0.021028975
188	0xbc8e9c48	-0.017408505
189	0xbbf8ed1c	-0.007596625
190	0xbd7a0df8	-0.061048478
191	0x3bbbf134	0.0057355408
192	0x3cc54867	0.024082376
193	0xbd431e34	-0.047636226
194	0x3b402a59	0.0029322116
195	0x3d9bc77d	0.07606409
196	0x3cd77977	0.026303036
197	0x3cb10cbb	0.021612516
198	0x3bf4aa5b	0.007466597
199	0xbb373b66	-0.0027958988
200	0xbd45fd56	-0.048337303
201	0xbdd1cdf4	-0.102443606
202	0x3c951c41	0.01820195
203	0xbbb58322	-0.005539314
204	0xbc49052d	-0.0122693
205	0x3d941c2d	0.072319366
206	0x3db301ac	0.08740553
207	0x3adfc518	0.0017072288
208	0xbd44e435	-0.048069198
209	0xbdf98e86	-0.12185387
210	0x3c83e4ff	0.016100405
211	0xbd815238	-0.0631451
212	0xbd62c344	-0.055362
213	0x3dd3250e	0.10309802
214	0xbc1f7d4c	-0.009734463
215	0x3bdded18	0.0067726485
216	0x3ca84d34	0.020544626
217	0xbd56057d	-0.052251328
218	0x3d038ba0	0.03211558
219	0x3d8e376e	0.06944166
220	0x3d3c7bd3	0.046016525
221	0xbd5a7775	-0.05333658
222	0xbb300e06	-0.0026863827
223	0xbd1ccada	-0.03827939
224	0xbd1de72a	-0.038550533
225	0xbc89b1af	-0.016808359
226	0xbc3b9e51	-0.01145132
227	0xbce9bdd5	-0.028532902
228	0xbc36bcc0	-0.0111534
229	0x3d634f71	0.055495683
230	0x3d132721	0.035925988
231	0x3d8ab535	0.06772844
232	0xbc210cfa	-0.009829754
233	0xbc32401a	-0.010879541
234	0xbd33b7c8	-0.04387644
235	0x3d810f8a	0.06301792
236	0xbd28006d	-0.04101603
237	0x3c2b22e7	0.010445333
238	0x3d45b21e	0.04826557
239	0xbce7ed4e	-0.028311398
240	0x3c3d6033	0.01155858
241	0x3aa4c794	0.0012571686
242	0xbd9fceee	-0.078031406
243	0x3cf67c82	0.030088667
244	0xbcdae04c	-0.026718281
245	0x3d400d7f	0.04688787
246	0xbccd952a	-0.025095541
247	0x3c8bd27e	0.017068144
248	0xbc7a0dda	-0.0152620915
249	0xbd165805	-0.036705036
250	0x3e126e88	0.14299977
251	0x3cd850a0	0.026405632
252	0x3cd69a52	0.026196633
253	0xbcd1d29e	-0.025613125
254	0x3d98817c	0.07446572
255	0x3bc76eb5	0.0060861954

conv_layers.1.bias f4 [64]
0	0xbe0f8d5e	-0.14018771
1	0xbc655885	-0.0139981555
2	0xbd702fc1	-0.05863929
3	0x3bac16fb	0.005251763
4	0x3c91c142	0.017792348
5	0x3d18a3e2	0.037265666
6	0x3da4730f	0.08029758
7	0x3dc4278a	0.09577854
8	0xbb7b5ee3	-0.0038356117
9	0x3b815c65	0.003947782
10	0xbbbb3e2f	-0.0057142
11	0x3da45625	0.08024243
12	0x3b5d8861	0.0033803212
13	0xbd638201	-0.055543903
14	0xbdb8537a	-0.09000297
15	0xbd45b877	-0.048271623
16	0xbd9a2120	-0.07525849
17	0x3c952762	0.018207256
18	0x3ba182c2	0.0049289176
19	0xbd90d1d2	-0.0707127
20	0x3c65b4b6	0.014020136
21	0xbafb2a11	-0.0019162317
22	0x3de9242e	0.11383854
23	0xbd5d9b38	-0.054103106
24	0x3db1ea0f	0.08687221
25	0x3c8f3c59	0.01748483
26	0x3d5e14ff	0.054219242
27	0xbba3a32e	-0.004993818
28	0x3d951239	0.07278866
29	0x3cc3f2b1	0.023919435
30	0xbd4369bc	-0.047708258
31	0x3cd04e0a	0.025427837
32	0x3d2c9ba7	0.04214063
33	0x3cf34486	0.02969576
34	0xbcda883d	-0.026676292
35	0x39954f41	0.00028478543
36	0xbd40ae16	-0.04704102
37	0x3d7a1c8b	0.061062377
38	0x3d2becfb	0.04197405
39	0x3b8361e7	0.0040094736
40	0xbd45e2d7	-0.048312034
41	0x3b8791fa	0.004137275
42	0x3d25ec3c	0.040508494
43	0x3c6b14dc	0.014348235
44	0x3d2af294	0.041735247
45	0xbcde39eb	-0.027127227
46	0xbc3ba724	-0.011453424
47	0x3d36d332	0.044635005
48	0xbccb9bbb	-0.024854532
49	0x3ce1fe32	0.02758703
50	0x3d86e1af	0.065860145
51	0xbb61fc05	-0.003448249
52	0x3c55e510	0.013055101
53	0xbc53788d	-0.0129071595
54	0x3bc9ae38	0.0061548017
55	0x3cff66f6	0.031177025
56	0x3d96a15b	0.07354995
57	0x3d17321b	0.03691302
58	0xbd322bcc	-0.0434988
59	0xbd8417d3	-0.064498566
60	0x3d6ddb6e	0.058070593
61	0x3d07cc46	0.033153795
62	0xbd56e0d3	-0.052460503
63	0xbdac2a75	-0.084065355

conv_layers.2.weight f4 [64, 256, 4]
0	0x3d02d9a7	0.03194585
1	0xbd8eac85	-0.06966499
2	0xb96c1c08	-0.00022517156
3	0xbb8d3078	-0.0043087564
4	0xbd15baec	-0.036555216
5	0x3e4c92cb	0.19977872
6	0x3d484d70	0.048901975
7	0x3b7ad3a2	0.0038273116
8	0xbd837467	-0.06418686
9	0x3ccf8b58	0.025334999
10	0xba41c03e	-0.0007391012
11	0x3cf8c3b5	0.030366758
12	0x3d81c981	0.06337262
13	0xbd23fc5e	-0.040035598
14	0xbcdd1647	-0.026988162
15	0xbd0693a5	-0.03285565
16	0xbd1808e6	-0.03711786
17	0x3a874211	0.0010319372
18	0xbdc6ee27	-0.09713393
19	0xbd66e26c	-0.056368276
20	0xbca9bbe7	-0.020719482
21	0x3b998316	0.004684816
22	0xbd29264e	-0.041296296
23	0xbd3c1268	-0.04591599
24	0x3d5c85aa	0.05383841
25	0xbb541bb0	-0.0032365136
26	0x3c4fe051	0.012687759
27	0xbb3c6c59	-0.0028751104
28	0x3db9385c	0.09043953
29	0x3d6de294	0.05807741
30	0x3d232b66	0.03983631
31	0xbc430ead	-0.011905354
32	0x3cfa5fdd	0.03056329
33	0xbc724aa9	-0.014788308
34	0xbd8b8000	-0.068115234
35	0xbd1176de	-0.03551375
36	0xbca49dbf	-0.02009475
37	0x3d0f4a59	0.034983013
38	0xbccc8770	-0.024966925
39	0x3d0729f2	0.032998987
40	0x3dbc52d0	0.09195483
41	0x3cc0b19a	0.023522187
42	0xbc46f099	-0.012142324
43	0xbd5b32de	-0.053515308
44	0xbd2107ad	-0.03931396
45	0xbc771aff	-0.01508212
46	0x3cc1fb03	0.023679262
47	0x3cba4ebc	0.022742622
48	0x3c8b4748	0.017001763
49	0x3da010c5	0.078156985
50	0xbda09e51	-0.078426965
51	0x3cccd873	0.025005555
52	0xbd537feb	-0.051635664
53	0x3cabcfaa	0.020973045
54	0x3d89c56f	0.067271106
55	0xbc1d4cb1	-0.009600804
56	0xbd188818	-0.037239164
57	0x3c13e31c	0.009026315
58	0x3d110b0f	0.035410937
59	0xbd8598b7	-0.06523269
60	0x3ae7af3a	0.0017676123
61	0xba13dfa5	-0.00056409306
62	0x3cf0fbd7	0.029416962
63	0x3cba8046	0.022766244
64	0xbd6159fa	-0.05501745
65	0x3cd2f5ae	0.025751915
66	0x3d94c04e	0.07263242
67	0x3d08be61	0.033384684
68	0x3d03a0c6	0.032135747
69	0xbd48916d	-0.048966814
70	0xbceb6efc	-0.028739445
71	0x3cc198ed	0.023632491
72	0xbacb3a35	-0.0015505018
73	0xbaf1566b	-0.0018412595
74	0xbd59e41a	-0.05319605
75	0x3c56dd7e	0.013114331
76	0xbd1e1d5c	-0.038602218
77	0x3d2e3092	0.04252679
78	0xbcc24423	-0.02371413
79	0x3d1e7bd6	0.038692318
80	0xbd9668c4	-0.07344201
81	0x3c9f7118	0.019463107
82	0xbd0eb936	-0.0348446
83	0x3d37c927	0.04486957
84	0xbc45454d	-0.012040448
85	0xbd82ced7	-0.06387108
86	0x3d79f515	0.061024744
87	0x3d499ebe	0.049223654
88	0xbd78d1fb	-0.060747128
89	0x3d2362e2	0.039889224
90	0xbd36839d	-0.04455911
91	0x3d416f5a	0.047225334
92	0x3cd53d11	0.026030095
93	0x3d8b88a9	0.06813175
94	0xbd958562	-0.073008314
95	0xbc8fa436	-0.017534357
96	0xbc751dff	-0.014960765
97	0xbd2e6624	-0.042577878
98	0xbd204f84	-0.039138332
99	0x3dc402f8	0.09570879
100	0x3d027755	0.031852085
101	0xbca75d91	-0.020430358
102	0x3d2bf519	0.04198179
103	0x3ca40e3f	0.020026324
104	0x3ac51cca	0.0015038487
105	0xbdb9ed24	-0.09078434
106	0xbc240913	-0.010011929
107	0x3c162b7a	0.009165639
108	0x3c91de13	0.017806089
109	0xbd4e17a7	-0.050315525
110	0xbd0231f7	-0.03178593
111	0x3d8d4275	0.06897441
112	0xbdcb7d81	-0.09936047
113	0x38a4134d	7.8237244e-05
114	0xbd23be0d	-0.03997617
115	0xbbeeab9a	-0.00728364
116	0xbc91d6b4	-0.017802574
117	0xbd3a048f	-0.045414504
118	0xbd7c039d	-0.061526883
119	0x3d8a4ec5	0.06753305
120	0x3d7955e6	0.060872935
121	0xbd806c06	-0.06270604
122	0x3da2080d	0.07911692
123	0xbd8dc7bf	-0.06922864
124	0xbd01e8eb	-0.03171627
125	0xbd09d7b5	-0.03365298
126	0x3d6a2aad	0.057169605
127	0xbc5c2828	-0.013437308
128	0x3d5540f6	0.052063905
129	0xbd06285b	-0.03275333
130	0xbd0d2be2	-0.034465678
131	0x3cfd53f1	0.030923815
132	0xbc098c95	-0.008395334
133	0x3c651bc2	0.013983669
134	0x3ce20b00	0.027593136
135	0xbbb40096	-0.005493234
136	0x3ce20cd1	0.027594002
137	0xbd5a5d55	-0.053311665
138	0xbd02dd48	-0.03194931
139	0xbcb24bfb	-0.021764746
140	0x3c22c084	0.009933595
141	0xbd31123a	-0.043230273
142	0x3de29d46	0.11065154
143	0xbd1350d1	-0.035965744
144	0xbd30f35b	-0.04320083
145	0x3d49a769	0.04923192
146	0x3d0ed1e0	0.03486812
147	0xbdd02ea8	-0.10165149
148	0xbd800ced	-0.062524654
149	0x3da6930e	0.08133517
150	0xbc802073	-0.015640473
151	0xbdc41fb6	-0.09576361
152	0xbcf25007	-0.029579176
153	0x3d82cbbc	0.063865155
154	0x3d650133	0.055909347
155	0x3d494014	0.049133375
156	0x3c80aeb8	0.015708312
157	0x3d43afdb	0.04777513
158	0xbdad7b80	-0.084708214
159	0xbc4ea91a	-0.012613559
160	0x3caf23d9	0.021379398
161	0x3bf995b9	0.0076167253
162	0x3d29fada	0.041498996
163	0x3bd6ffcf	0.0065612565
164	0xbd67448c	-0.056461856
165	0xbdf9f113	-0.122041844
166	0x3db66a32	0.08906974
167	0xbd2437ce	-0.040092282
168	0xbd81d7e9	-0.0634001
169	0x3cfc4d34	0.030798532
170	0xbc12ec36	-0.00896745
171	0xbd2872a4	-0.041124955
172	0xbc3d4a4a	-0.011553356
173	0xbcc6fcf4	-0.02429054
174	0x3c4e8fac	0.012607496
175	0x3d0629ea	0.032754816
176	0x3d3827b9	0.044959757
177	0x3cba8f2d	0.02277335
178	0x3c052ae8	0.008127905
179	0x3b9463e2	0.0045285085
180	0xbccce1fa	-0.025010098
181	0xbcd2ad4c	-0.0257174
182	0x3daceed0	0.08443987
183	0xbcfe3fa0	-0.031036198
184	0xbcb28364	-0.021791168
185	0x3d701932	0.058617778
186	0xbce597cc	-0.028026484
187	0xba7a67d1	-0.0009552213
188	0xbd2a5606	-0.041585945
189	0x3aeb67bc	0.0017959992
190	0x3dd07943	0.10179379
191	0xbc444bee	-0.011980994
192	0xbd2b09b7	-0.04175731
193	0xbc47187a	-0.012151832
194	0xbd1c324f	-0.038133916
195	0x3c18f613	0.009336012
196	0x3d33a6e1	0.04386032
197	0xbb21fa65	-0.0024715897
198	0x3d3a6414	0.0455056
199	0x3d246069	0.040131006
200	0x3d9f0e3a	0.077663854
201	0xbdb593dd	-0.08866093
202	0xbd9ec650	-0.07752669
203	0x3db253c4	0.08707383
204	0x3d4ac37d	0.04950284
205	0xbb74f9c1	-0.003738031
206	0xbc9da83b	-0.019245258
207	0x3d92c4ca	0.07166441
208	0x3c9fe85b	0.019519975
209	0x3d9115d7	0.07084244
210	0xbc7035f9	-0.014661306
211	0xbdbaa4b8	-0.09113449
212	0x3d0313da	0.032001354
213	0xbdee74d5	-0.11643378
214	0x3c967ab3	0.018369054
215	0xbd53f8d2	-0.051750965
216	0xbcd39ee5	-0.025832603
217	0xbd3b4cbd	-0.04572748
218	0xbc043eb7	-0.008071593
219	0xbc318f89	-0.010837444
220	0x3a2c70f6	0.0006578112
221	0xbd16d6d3	-0.036825966
222	0xbbbcdb0e	-0.005763418
223	0x3d5c38cb	0.0537651
224	0xbbc05f38	-0.005870726
225	0x3cab9a3b	0.020947566
226	0xbd5d9279	-0.054094765
227	0xbc889b91	-0.016675742
228	0xbd8658ca	-0.06559904
229	0xbcda3d9c	-0.026640706
230	0x3d5ce2fd	0.05392741
231	0xbb1a3ca9	-0.0023534691
232	0x3d9140b7	0.070924215
233	0x3ce1ef7a	0.027580012
234	0xbcf02dc4	-0.029318698
235	0x3d83bc96	0.06432454
236	0x3d142276	0.036165677
237	0xbcf43635	-0.029811004
238	0x3dcf4ded	0.10122285
239	0xbd925cbc	-0.07146594
240	0xbcecd73a	-0.028911222
241	0xbcef5593	-0.02921561
242	0xbc8cff3c	-0.017211549
243	0xbd6c66f5	-0.057715375
244	0x3c82ebee	0.01598164
245	0x3d28185f	0.041038867
246	0xbc581370	-0.013188228
247	0x3c8860da	0.016647745
248	0x3be1c32f	0.006889723
249	0xbc00edea	-0.007869223
250	0x3dc394c0	0.09549856
251	0x3c5ace46	0.0133548435
252	0xbc8028a9	-0.015644388
253	0x3c4b6936	0.012415221
254	0x3d8a8cf1	0.06765164
255	0x3d766f73	0.06016488

conv_layers.2.bias f4 [64]
0	0xbdad434d	-0.08460102
1	0x3b9c669c	0.004772974
2	0x3d0925f2	0.033483453
3	0x3d77bd09	0.060483012
4	0xbd844c34	-0.06459847
5	0xbdecb5f0	-0.11558139
6	0xbdc7393a	-0.09727712
7	0x3c7866ed	0.015161258
8	0x3d560290	0.052248538
9	0xbbc57b48	-0.006026659
10	0x3dde6d6d	0.10860715
11	0xbdce4989	-0.100726195
12	0x3c75faec	0.015013438
13	0xbdc3d6e2	-0.0956247
14	0xbd010798	-0.031501383
15	0x3c90eed9	0.017692016
16	0xbd2b23dd	-0.04178225
17	0x3cf73f4b	0.030181548
18	0xbda54e53	-0.0807158
19	0x3b468c55	0.0030296047
20	0xbd72b3e0	-0.059253573
21	0xbda7d581	-0.081950195
22	0x3d4f38db	0.05059133
23	0x3d969f3d	0.07354591
24	0x3d4e4130	0.050355136
25	0xbd1b3606	-0.037893318
26	0xbdc7f46b	-0.09763416
27	0x3cf2e54a	0.02965035
28	0xbd08f126	-0.033433102
29	0x3bfda7f7	0.0077409702
30	0xbdb88fc8	-0.09011799
31	0x3d6b41fd	0.05743598
32	0x3d97580f	0.07389843
33	0x3a87111f	0.0010304785
34	0xbde0997c	-0.10966775
35	0xbd3ccad6	-0.046091877
36	0xbb0692bb	-0.0020534236
37	0xbc349509	-0.011021861
38	0xbd32c814	-0.04364784
39	0xbc68224b	-0.014168332
40	0xbdaa43bd	-0.08313701
41	0x3da55d80	0.08074474
42	0x3c94f6ef	0.018184153
43	0x3c873e12	0.01650909
44	0x3d7e2eed	0.06205647
45	0xbd0c44e1	-0.034245376
46	0xbdeaa8ef	-0.11458003
47	0xbe0a85ce	-0.13527605
48	0x3dac2ae6	0.0840662
49	0xbcc99dd6	-0.024611395
50	0xbd8bff8b	-0.0683585
51	0xbcd634a4	-0.026148148
52	0xbc125444	-0.008931223
53	0x3b8de512	0.004330286
54	0x3d3d8684	0.046270862
55	0x3d979a46	0.07402472
56	0x3d5114c1	0.051045183
57	0x3ccf58fb	0.025310984
58	0xbcdee6cc	-0.027209662
59	0x3ca9bf54	0.020721115
60	0xbc0febd0	-0.008784249
61	0xbd59846e	-0.05310481
62	0x3ccdd39b	0.025125315
63	0x3db299d5	0.087207474

conv_layers.3.weight f4 [64, 256, 5]
0	0x39f4fe17	0.00046728618
1	0xbd7c288f	-0.061562117
2	0xbc5673ce	-0.013089133
3	0xbcf83c2f	-0.030302135
4	0x3ad4daae	0.0016239488
5	0x3bc1b6de	0.005911692
6	0x3ceedc91	0.029157909
7	0xbc0ac241	-0.008469165
8	0x3c8b83d1	0.017030628
9	0xba58f53c	-0.0008276289
10	0x3d730a4c	0.05933599
11	0x3c9cc287	0.019135727
12	0xbd8ba6f2	-0.06818952
13	0x3d3e4c87	0.0464597
14	0xbd3383f0	-0.043826997
15	0xbbc5c116	-0.0060349805
16	0x3bb76050	0.005596198
17	0xbb82efaf	-0.0039958577
18	0xba0afb48	-0.0005301726
19	0xbd31dc5f	-0.043423053
20	0xbaf61379	-0.0018774114
21	0xbc3bc8d7	-0.011461458
22	0xbd08f0b1	-0.033432666
23	0xbc043a05	-0.008070474
24	0xbc470b33	-0.012148666
25	0xbc74da9a	-0.014944697
26	0x3c9f3d8f	0.019438533
27	0x3d86b5ef	0.0657767
28	0xbcdf7350	-0.027276665
29	0xbcca9bd6	-0.024732511
30	0x3cf857ba	0.030315269
31	0x3bc04cbb	0.005868522
32	0x3dac548a	0.08414562
33	0x3c086ef2	0.008327233
34	0xbc8f95d2	-0.017527495
35	0x3d2484fe	0.040165894
36	0x3ceef6fb	0.029170504
37	0x3d11b01d	0.035568345
38	0x3cd3be68	0.025847629
39	0xbd3b8b58	-0.045787185
40	0xbcaec131	-0.021332355
41	0x3d1a04cf	0.037602242
42	0x3a34b2a2	0.00068930734
43	0xbdd2e0c1	-0.10296775
44	0x3d33bc92	0.043881007
45	0x3cebabfb	0.02876853
46	0xbc99e72c	-0.01878699
47	0x3c55e737	0.013055614
48	0x3d6cb9e7	0.057794478
49	0xbd8751d8	-0.06607407
50	0xbd99af2e	-0.07504116
51	0x3c963222	0.018334452
52	0xbd97caef	-0.074117534
53	0x3c01be04	0.007918838
54	0xbd658813	-0.056037974
55	0x3cf83382	0.030297998
56	0x3ce9ed1a	0.028555442
57	0x3b7b4fd8	0.003834715
58	0xbca3c322	-0.019990508
59	0xbb3109b6	-0.0027013845
60	0x3cb92f90	0.022605687
61	0xbda7b965	-0.08189658
62	0x3d81aa48	0.06331307
63	0xbcbbdf20	-0.022933543
64	0xbcc9a7f8	-0.024616227
65	0xbd1cf237	-0.03831693
66	0x3d1b89e3	0.037973296
67	0x3c4710b4	0.012149978
68	0xbc0fe9e9	-0.008783796
69	0xbd4ca7ba	-0.049964644
70	0x3caa3495	0.020777026
71	0x3d61a84e	0.05509215
72	0xbd44b056	-0.04801973
73	0xbda0230e	-0.07819186
74	0xbccdefec	-0.025138818
75	0x3d1c33c5	0.03813531
76	0x3d25e825	0.040504593
77	0xbd7a74a4	-0.061146393
78	0xbda2a7ea	-0.07942183
79	0xbd157332	-0.036486812
80	0xbcc2d791	-0.02378443
81	0xbd8a20fe	-0.06744574
82	0xbba9de81	-0.0051839952
83	0x3d9d2622	0.07673289
84	0xbda868c9	-0.08223111
85	0x3d291fc0	0.041290045
86	0xbc911c2d	-0.01771363
87	0xbd1e1bb8	-0.038600653
88	0xbd96b9dc	-0.073596686
89	0x38bacabd	8.906934e-05
90	0x3d77f7bb	0.06053899
91	0xbd680ca0	-0.056652665
92	0xbd31d996	-0.043420397
93	0x3d119029	0.035537872
94	0x3d747991	0.059686247
95	0x3ceaf15a	0.028679539
96	0xbc21bf85	-0.009872322
97	0xbd6b790a	-0.05748848
98	0xbc9130b4	-0.017723419
99	0x3cb3574d	0.021892214
100	0x3c9bf131	0.019035907
101	0xbc51a42f	-0.012795492
102	0xbcecf438	-0.028925046
103	0x3d9a2497	0.0752651
104	0x3aac439b	0.0013142707
105	0xbd9fead7	-0.07808464
106	0xbc16c4a2	-0.009202154
107	0xbd500dc0	-0.050794363
108	0xbbb4aec7	-0.005513999
109	0xbd977cba	-0.073968366
110	0xbc3e493f	-0.011614143
111	0x3c54da50	0.012991503
112	0xbd6b30a2	-0.057419427
113	0xbd2ec5ec	-0.04266922
114	0xbd059f21	-0.03262246
115	0x3d47174e	0.04860621
116	0x3d1282a8	0.035769135
117	0x3c856b55	0.016286531
118	0x3c8629a0	0.01637727
119	0x3c0d3435	0.008618404
120	0xbd273df4	-0.040830567
121	0x3b6094bd	0.0034268342
122	0xbd4cb4af	-0.049977
123	0x3cc27f2c	0.02374228
124	0xbc8bb77c	-0.017055266
125	0x3d07c932	0.03315086
126	0xbd582f6f	-0.05277961
127	0xbc13d658	-0.0090232715
128	0x3c1c5cf9	0.009543651
129	0xbcb100e9	-0.02160688
130	0x3c8c712a	0.017143805
131	0xbd053bfe	-0.032527916
132	0xbdde2af9	-0.1084804
133	0x3bdbd5c4	0.0067088325
134	0xbd2a4e9e	-0.04157888
135	0xbd2a31a5	-0.04155125
136	0xbd88c73b	-0.06678625
137	0xbcfd7643	-0.03094018
138	0x3bb65eab	0.0055654845
139	0x3c1bfbce	0.009520484
140	0xbd301b40	-0.042994738
141	0xbd172d12	-0.036908217
142	0xbb6e20a3	-0.003633537
143	0x3bf3ba45	0.0074379765
144	0xbb079120	-0.0020685866
145	0xbd31d87f	-0.043419357
146	0x3d4069a9	0.046975765
147	0xbc20541a	-0.009785676
148	0xbbb2d312	-0.0054572904
149	0xbc47d09d	-0.012195733
150	0x3d0f46ec	0.034979746
151	0xbce7844a	-0.028261323
152	0xbba1a8b0	-0.004933439
153	0x3b95641a	0.004559052
154	0xbd823c5d	-0.0635917
155	0x3cc421dd	0.023941929
156	0xbbc097f0	-0.0058774874
157	0xbabd0430	-0.0014420804
158	0x3bfbdead	0.007686457
159	0x3bccc8aa	0.006249507
160	0xbd9c2602	-0.07624437
161	0xbb569d95	-0.0032747735
162	0x3d334680	0.043768406
163	0x3da58272	0.08081521
164	0xbcdc53e8	-0.026895478
165	0x3d823a6e	0.06358801
166	0xbd26aa4e	-0.04068976
167	0xbbf26636	-0.0073974384
168	0x3d0da7e6	0.03458395
169	0x3d22a634	0.039709285
170	0xbd039ca1	-0.032131795
171	0x3d3cc8bd	0.046089876
172	0xbcb48459	-0.022035765
173	0x3d8a9d70	0.0676831
174	0xbd51b9d0	-0.051202595
175	0xbce2cc06	-0.027685177
176	0xbc4d4d1a	-0.0125305895
177	0x3baeb7f6	0.0053319884
178	0xbd790644	-0.06079699
179	0x3d3cf245	0.046129484
180	0xbc92d236	-0.017922502
181	0x3c697b89	0.0142506445
182	0x3c5d4fb9	0.013507777
183	0x3ab84e43	0.001406141
184	0xbd7277f5	-0.05919643
185	0xbd0cde99	-0.034391973
186	0xbd951af8	-0.072805345
187	0x3ca7018c	0.02038648
188	0xbda65bb4	-0.0812296
189	0x3c001215	0.007816811
190	0x3d356a4c	0.044290826
191	0x3c93c1e9	0.0180368
192	0xbb78e2bf	-0.0037976948
193	0xbdb5a9b8	-0.08870262
194	0xbd33921a	-0.043840505
195	0x3cc10a55	0.023564497
196	0x3c0a196a	0.008428911
197	0x3cc17a3b	0.023617854
198	0x3bd7adc7	0.006581995
199	0xba750fe2	-0.0009348375
200	0x3d08f489	0.033436332
201	0x3d3d7e0e	0.046262793
202	0xbb8c1db0	-0.004276
203	0xbd7e8d66	-0.062146567
204	0x3c905c99	0.017622279
205	0x3c821d6a	0.015883166
206	0xbc064b88	-0.008196719
207	0x3d1df565	0.038564105
208	0xbc53c338	-0.012924962
209	0x3d0df83b	0.03466056
210	0x3cf26fd3	0.029594338
211	0x3d149f9d	0.03628503
212	0x3cf65145	0.03006805
213	0x3c0ef6fc	0.008725878
214	0xbd06c381	-0.03290129
215	0x3d06d7a6	0.032920502
216	0xbd75d6f1	-0.060019437
217	0x3cd81fd2	0.02638236
218	0xbd19973f	-0.037497755
219	0x3cc7ec24	0.024404593
220	0x3d679dd2	0.056546994
221	0x3d8d571e	0.06901382
222	0x3d656cfb	0.056012135
223	0x3d4298fc	0.04750918
224	0xbdeb7e47	-0.11498695
225	0xbaca0fda	-0.0015416101
226	0xbc90191b	-0.017590096
227	0xbc7b3c2b	-0.015334169
228	0x3d1a5dbe	0.037687056
229	0xbd01a695	-0.031653006
230	0x3ccf953e	0.025339719
231	0x3d52db31	0.05147857
232	0x3d0f1395	0.034930784
233	0xbc8900c6	-0.016724002
234	0xbcfa5146	-0.030556332
235	0x3dd76867	0.1051796
236	0xbd291528	-0.04127994
237	0x3d7f19e2	0.062280543
238	0x3db53313	0.08847632
239	0xbd20e98e	-0.039285235
240	0xbd235246	-0.039873384
241	0x3d64e4d1	0.05588228
242	0xbafc2a76	-0.0019238729
243	0xbc812fd0	-0.01576987
244	0x391f2bdc	0.0001517976
245	0x3d7736c7	0.060354974
246	0xbcbecd90	-0.02329138
247	0xbc8234b0	-0.015894264
248	0xbd91bb5b	-0.07115813
249	0xbc2cf5dd	-0.010556665
250	0xbc7bdd07	-0.015372521
251	0x3bdc9d77	0.0067326385
252	0xbc82b14e	-0.015953686
253	0x3d579adb	0.052637916
254	0xbd5886db	-0.052862983
255	0xbc8350b3	-0.016029691

conv_layers.3.bias f4 [64]
0	0xbe4c970e	-0.19979498
1	0xbc9c284f	-0.01906219
2	0x3d3d406a	0.04620401
3	0xbdb8b9f3	-0.09019842
4	0xbd013dc7	-0.031553056
5	0x3c08786e	0.008329494
6	0xbd6a41b0	-0.05719155
7	0xbb551a25	-0.0032516804
8	0x3d066651	0.03281242
9	0xbe1aebae	-0.15128967
10	0xbd3c26c8	-0.045935422
11	0x3cdbd9f8	0.026837334
12	0x3ca23e84	0.0198052
13	0xbd02a432	-0.03189487
14	0x3d3074f7	0.043080296
15	0x3be3667e	0.0069397083
16	0xbdb5e2bb	-0.08881136
17	0xbd82c324	-0.06384876
18	0xbe025b04	-0.12730032
19	0xbd8656f3	-0.06559553
20	0xbd15af08	-0.036543876
21	0xbb907383	-0.0044083013
22	0xbc9d9a8f	-0.019238738
23	0x3c7306ba	0.014833147
24	0xbcbb8c16	-0.022893947
25	0xbb42afeb	-0.0029706906
26	0x3d8ac7c7	0.06776386
27	0xbc45e39d	-0.012078193
28	0xbdbcfb3d	-0.092276074
29	0x3bef7579	0.007307705
30	0xbd180796	-0.03711661
31	0x3b840f18	0.0040301196
32	0x3dd23f4b	0.102659784
33	0xbcfb9a6a	-0.030713279
34	0xbb618bba	-0.003441556
35	0x3d8ae674	0.06782237
36	0x3bca42b3	0.006172502
37	0xbc7cd9be	-0.015432773
38	0x3d903cab	0.070428215
39	0xbd8a7f0c	-0.067625135
40	0x3daa0c97	0.083031826
41	0x3c4ace4a	0.012378285
42	0x3c94e409	0.018175142
43	0x3d53ee21	0.05174077
44	0x3d583129	0.052781258
45	0xbdb4ed37	-0.08834308
46	0x3db31d5b	0.087458335
47	0xba777d3e	-0.0009440965
48	0x3d42716f	0.04747146
49	0x3cf7d96d	0.030255044
50	0xbd910b6f	-0.07082259
51	0xbd8f5409	-0.0699845
52	0xbd0bd2a5	-0.034136433
53	0xbe14ef39	-0.14544381
54	0x3d336b08	0.043803245
55	0xbc9fefe6	-0.019523572
56	0xbcb255b9	-0.021769391
57	0xbd2200bd	-0.039551485
58	0x3d15c7b6	0.036567412
59	0xbd4f0894	-0.05054529
60	0x3c6d80c5	0.014496033
61	0xbc23b633	-0.00999217
62	0x3d3eff70	0.046630323
63	0xbb8015d5	-0.0039088526

fc1.weight f4 [64, 256]
0	0xbd26a1a2	-0.04068149
1	0x3c5b8ac7	0.013399786
2	0xbc514e8e	-0.012775077
3	0xbc22e7c8	-0.009942956
4	0xbd836e80	-0.064175606
5	0x3cae0ab0	0.02124533
6	0x3d571794	0.05251272
7	0xbbb9ae52	-0.0056665326
8	0xbd1bb67e	-0.038015835
9	0xbc4b235c	-0.012398567
10	0xbcdb8706	-0.026797783
11	0xbd6707ee	-0.056404047
12	0xbaa9f7bf	-0.0012967511
13	0xbd5e0da8	-0.054212242
14	0x3d1375c1	0.03600097
15	0xbd29a6af	-0.041418727
16	0xbd437962	-0.04772318
17	0xbcaa3db0	-0.020781368
18	0x391e87b1	0.00015118603
19	0x3b9e8d6f	0.0048386375
20	0xbb994052	-0.004676857
21	0x3ca2f7ef	0.019893615
22	0x3ba6dc53	0.0050921827
23	0xbd8e5b0a	-0.06950958
24	0x3c197377	0.009365908
25	0xbd5b5b65	-0.053553957
26	0x3d3c4d1b	0.04597197
27	0xbd1518dc	-0.03640066
28	0x3cb1c148	0.021698609
29	0x3c2731e3	0.010204765
30	0xbd783fa9	-0.060607586
31	0xbc22ac87	-0.009928829
32	0xbd2642b3	-0.040590953
33	0xbc57f4fe	-0.013180969
34	0xbd8de38c	-0.06928167
35	0x3ce8b626	0.028407168
36	0xbb2716a4	-0.0025495673
37	0xbd981a68	-0.074269116
38	0xbd8259f3	-0.06364813
39	0x3cda9ff8	0.026687607
40	0xbb0c3e9d	-0.0021399625
41	0xbc09a8b6	-0.00840204
42	0x3d6c1d1e	0.057644956
43	0xbcc68822	-0.024234835
44	0xbd20a199	-0.03921661
45	0xbcec118f	-0.028816966
46	0x3c8b0450	0.01696983
47	0xbcbf99d9	-0.02338879
48	0xbda312a5	-0.079625405
49	0xba2af234	-0.00065210764
50	0xbccd11ff	-0.025032995
51	0xbd20792c	-0.03917806
52	0xbd102225	-0.035188813
53	0x3cb6518d	0.022255683
54	0x3d36c2ce	0.044619374
55	0xbcdd0eab	-0.026984533
56	0xbc82e2f3	-0.015977358
57	0x3d437766	0.04772129
58	0x3c7ba27e	0.015358565
59	0x3c8dfa00	0.017331123
60	0x3be82023	0.007083909
61	0xbd94758a	-0.07248981
62	0xbcdd50ea	-0.027016122
63	0x3cd0b8a7	0.025478674
64	0xbd02ac3f	-0.031902548
65	0x3c546ffa	0.01296615
66	0x3d15e072	0.036591
67	0xbd63b5c0	-0.055593252
68	0xbc005a74	-0.007834066
69	0x3ccc25ff	0.024920462
70	0xbd64759e	-0.05577623
71	0x3c24476d	0.010026795
72	0xbc60f1e6	-0.013729548
73	0xbd154ae6	-0.03644838
74	0xbcb5f835	-0.02221308
75	0xbd1db1f4	-0.038499787
76	0x3ae405b3	0.0017396718
77	0x3d178c66	0.03699913
78	0xbcde29be	-0.027119514
79	0x3d0a07eb	0.033698957
80	0x3cfa6ca2	0.030569378
81	0xbd21802b	-0.03942887
82	0x3be10fd9	0.0068683443
83	0xbd486023	-0.048919808
84	0xbc70836e	-0.014679773
85	0x3d09dd64	0.0336584
86	0x3c2bb64f	0.0104804775
87	0x3c400fbc	0.011722501
88	0xbccd8e80	-0.025092363
89	0x3c3410a8	0.010990299
90	0x3cdd93fd	0.027048105
91	0xbd4624c5	-0.04837491
92	0xba5ef10c	-0.0008504547
93	0xbd7c78bf	-0.06163859
94	0xbc6edf3e	-0.014579592
95	0x3d674f21	0.056471948
96	0x3ceecbf6	0.02914999
97	0x3d54d5ed	0.051961828
98	0xbd31bea8	-0.043394715
99	0xbc208067	-0.0097962385
100	0x3c93ce84	0.01804281
101	0xbd1addb5	-0.037809093
102	0x3cad2b44	0.021138795
103	0x3bf416f0	0.0074490234
104	0x3c38ecc8	0.011286922
105	0x3d4c5fd6	0.049896084
106	0xbd972597	-0.073802166
107	0xbd6cce07	-0.05781367
108	0x3af552a8	0.001871665
109	0xbc645c7d	-0.013938067
110	0xbd3d9dba	-0.046292998
111	0xbca09fb6	-0.019607406
112	0xbba6edad	-0.005094251
113	0x3c7b2992	0.015329735
114	0x3c39de4e	0.0113445055
115	0xb9083960	-0.00012991345
116	0xbd815987	-0.06315904
117	0x3c57127f	0.013126968
118	0xbcca34f5	-0.024683455
119	0xbbaed0ba	-0.0053349407
120	0xbcc133b4	-0.023584224
121	0xbd3283ba	-0.043582655
122	0x3c8827aa	0.016620476
123	0x3cd1a96f	0.025593488
124	0xbd1e2b01	-0.03861523
125	0xbd61ed87	-0.055158164
126	0x3be20586	0.006897631
127	0xbca6fcf7	-0.020384295
128	0xbd7f1cac	-0.062283203
129	0x3d2a44d7	0.041569557
130	0xbbcb825a	-0.0062106075
131	0x3cc134c9	0.02358474
132	0xbd5a7f74	-0.053344205
133	0xbd80d64b	-0.06290873
134	0xbcb92001	-0.022598268
135	0x3d22c11b	0.03973494
136	0x3cb23ae0	0.02175659
137	0xbd42b5c5	-0.04753663
138	0x3bb0a8b9	0.005391207
139	0x3c0e9735	0.008703043
140	0xbd9ad5c7	-0.07560306
141	0xbc2da6cb	-0.010598849
142	0x3af1baff	0.001844257
143	0xbca64e61	-0.020301046
144	0x3d3805c5	0.044927377
145	0x3d4391cb	0.04774646
146	0x3d2b554f	0.041829403
147	0x3d04937f	0.032367226
148	0xbbaabbcc	-0.0052103754
149	0x3b383549	0.0028107932
150	0xbd757383	-0.059924614
151	0xbd076762	-0.033057578
152	0xbd66e279	-0.056368325
153	0x3c3a61a8	0.011375822
154	0xbcbcbac8	-0.023038283
155	0xbb80806a	-0.003921558
156	0xbc943b29	-0.018094616
157	0xbd842ecc	-0.06454238
158	0x3d0df820	0.03466046
159	0xbd420d90	-0.047376215
160	0x3d480e04	0.04884149
161	0x3d20309a	0.03910885
162	0xbd0243bf	-0.03180289
163	0xbcb83909	-0.022488134
164	0xbd2b9a1b	-0.041895013
165	0xbd65fb1a	-0.056147672
166	0xbc33199d	-0.0109314
167	0xbd811e71	-0.06304634
168	0x3d28f7f3	0.041252088
169	0x3c175285	0.009235983
170	0xbd5482e4	-0.05188264
171	0xbca87f4c	-0.020568512
172	0xbd23c4e9	-0.03998271
173	0xbc86be11	-0.016448053
174	0xbd6a3f0e	-0.05718904
175	0x3d6f59ee	0.058435373
176	0xbcd75183	-0.026283985
177	0x3bb10aeb	0.005402913
178	0xbcb54a16	-0.022130053
179	0x3d089a92	0.033350535
180	0x3c2368c6	0.00997371
181	0xbc9e4b98	-0.019323155
182	0x3cff1c6d	0.031141484
183	0xbd3f3bec	-0.046688005
184	0xbd1c9e78	-0.038237065
185	0xbd89f429	-0.06736023
186	0xbcc47f0e	-0.023986366
187	0xbd85ef3b	-0.0653977
188	0xbd93a7bc	-0.07209727
189	0x3bfea404	0.007771017
190	0xbb431f04	-0.0029773125
191	0x3bb23c6d	0.005439332
192	0x3c8b59bf	0.017010568
193	0xbd00007c	-0.031250462
194	0xbdaa55f4	-0.083171755
195	0xbd13d49c	-0.036091432
196	0xbd0ea07a	-0.03482101
197	0xbd72814b	-0.059205335
198	0xbc66e3d2	-0.0140924025
199	0xb9f57621	-0.00046818054
200	0x3c10bedc	0.008834567
201	0xbd815ed9	-0.06316919
202	0xbb921f55	-0.0044593015
203	0x3d1b37d7	0.03789505
204	0x3d45156f	0.048116144
205	0xbd81beff	-0.06335258
206	0xbcacf315	-0.021112004
207	0x3bd61c43	0.006534131
208	0xbbea4d85	-0.0071503543
209	0x3a2a9acb	0.00065080513
210	0x3b9cd600	0.004786253
211	0x3d520140	0.051270723
212	0x3bd2567a	0.006419
213	0xbdb1fd61	-0.08690906
214	0x39c0fab2	0.00036807876
215	0xbd8a5333	-0.0675415
216	0x3c4bc874	0.0124379285
217	0xbb94bd49	-0.004539166
218	0xbced9943	-0.029003745
219	0xbd0effef	-0.034912046
220	0x3d16cb30	0.03681487
221	0x3c0db32d	0.008648676
222	0x3d4c6f26	0.049910687
223	0xbc6e876c	-0.014558654
224	0x3c6fe9de	0.014643161
225	0x3d23f9e3	0.040033232
226	0xbcd87207	-0.02642156
227	0xbd2ea3cd	-0.04263668
228	0xbd37d1bd	-0.044877756
229	0x3bdc7549	0.0067278487
230	0xbd9b0e0d	-0.07571039
231	0x3c65bb5b	0.01402172
232	0xbcbd468d	-0.02310493
233	0x3c2af769	0.010434964
234	0xbd371f5d	-0.044707645
235	0xbccde0a9	-0.02513154
236	0xbd0cb5a0	-0.0343529
237	0xbcc2d9d7	-0.023785515
238	0x3b9844e4	0.0046468843
239	0xbd46ac6e	-0.048504286
240	0x3ccbb841	0.024868133
241	0xbd23fe0e	-0.040037207
242	0xba189f5f	-0.0005822088
243	0xbd37cd80	-0.044873714
244	0xbd374fc3	-0.0447538
245	0xbd10997e	-0.03530263
246	0x3ce00b83	0.02734924
247	0x3d55802d	0.05212419
248	0xbcb8d055	-0.022560278
249	0xbce35e22	-0.027754847
250	0xbd383331	-0.044970695
251	0xbd7867e6	-0.06064596
252	0x3d555d65	0.05209102
253	0xbd282ec9	-0.041060243
254	0x3d1d9ca2	0.038479455
255	0x3bb50ec8	0.0055254437

fc1.bias f4 [64]
0	0xbd4c5def	-0.04989427
1	0xbd745e69	-0.05966035
2	0x3c784e3c	0.015155371
3	0x3cbe68c5	0.023243317
4	0x3d5d887a	0.054085232
5	0x3ceea5fe	0.029131886
6	0x3db5ce1b	0.08877202
7	0x3dded2c2	0.108800426
8	0x3bafd364	0.005365776
9	0x3dbbda71	0.09172524
10	0x3cb2c4b7	0.021822317
11	0x3da01e09	0.07818229
12	0xbd576a10	-0.052591383
13	0x3d146b34	0.03623505
14	0x3c9f3eaa	0.01943906
15	0x3d23acc8	0.0399597
16	0xbc950804	-0.018192299
17	0x3bf95e85	0.0076101446
18	0x3d7424a4	0.059605256
19	0x3db54ea4	0.0885289
20	0xbbcf2b16	-0.006322275
21	0x3c101143	0.008793178
22	0x3de3c185	0.11120895
23	0x3d03f322	0.03221429
24	0xbd5f6feb	-0.054550093
25	0x3d327e27	0.04357734
26	0x3a8abc0e	0.0010584609
27	0x3ca68b41	0.020330073
28	0x3ddfc8fb	0.10927006
29	0xbd3463dc	-0.044040546
30	0xbd6de6d9	-0.05808148
31	0x3c4134ac	0.011792343
32	0xbc030221	-0.007996113
33	0x3dede8cc	0.11616668
34	0xbdafd816	-0.08586137
35	0x3dabaa45	0.08382086
36	0xbc2d46d2	-0.010575967
37	0xbd1c61a8	-0.03817907
38	0x3d8c0f51	0.06838859
39	0xbc21f8bb	-0.009885962
40	0x3c4f9045	0.012668674
41	0xbb814387	-0.0039448175
42	0x3c914cb9	0.01773678
43	0x3c16b220	0.009197742
44	0x3e023ab3	0.12717704
45	0xbd781d11	-0.060574595
46	0xbce8121c	-0.028328948
47	0x3de9a982	0.11409284
48	0x3dd1cf51	0.102446206
49	0xbd8ca482	-0.06867315
50	0x3cd16935	0.025562862
51	0xbd92ebae	-0.071738586
52	0x3cd8c171	0.026459428
53	0x3d4b7790	0.04967457
54	0x3c90b1da	0.017662931
55	0x3d3e1657	0.046408024
56	0x3cf5a663	0.029986566
57	0x3de4173f	0.11137246
58	0xbd68a455	-0.056797344
59	0x3d746c99	0.05967388
60	0x3d63019d	0.05542146
61	0x3cd70d2d	0.0262514
62	0xbd690a9c	-0.056894884
63	0xbc2dd583	-0.010609987

batch_norm.weight f4 [64]
0	0x3f7780bf	0.96680826
1	0x3f7e0f23	0.99241847
2	0x3f7e766f	0.99399465
3	0x3fd74761	1.6818658
4	0x3fdac80e	1.7092302
5	0x3fe07d05	1.7538153
6	0x3fdd9677	1.7311543
7	0x3fd2f6d5	1.6481577
8	0x3f77f938	0.9686465
9	0x3fdddc70	1.7332897
10	0x3f7be481	0.98395544
11	0x3fedd007	1.857911
12	0x3f7e5e1c	0.9936235
13	0x3fe56180	1.792038
14	0x3f7d26c8	0.988873
15	0x3f7e766f	0.99399465
16	0x3f7e4327	0.99321216
17	0x3f7e758e	0.99398124
18	0x3fdb6de8	1.7142916
19	0x3fcb836a	1.5899479
20	0x3fd90354	1.6954141
21	0x3fd14d43	1.6351703
22	0x3fce17ea	1.6101048
23	0x3f7b38ab	0.98133343
24	0x3f7da8bf	0.9908561
25	0x3fe25ab6	1.7683933
26	0x3f7d83ab	0.99029034
27	0x3f788c0e	0.97088706
28	0x3fd36ba0	1.651722
29	0x3f800000	1.0
30	0x3f7e4fec	0.993407
31	0x3f7ddd75	0.9916604
32	0x3ff4958e	1.910814
33	0x3fd54fe1	1.6665002
34	0x3f7893e7	0.9710068
35	0x3fda75e5	1.7067229
36	0x3fd532dd	1.6656147
37	0x3f7e766d	0.99399453
38	0x3fcbb85f	1.591564
39	0x3f7b0b20	0.9806385
40	0x3f809bbc	1.0047526
41	0x3fd81f85	1.6884619
42	0x3fd5c74e	1.6701448
43	0x3fd87fee	1.6914041
44	0x3fc96e96	1.5736873
45	0x3f7c8709	0.9864355
46	0x3f800000	1.0
47	0x3fcf7005	1.6206061
48	0x3fdf61e6	1.7451751
49	0x3f7c9616	0.9866651
50	0x3f7de138	0.9917178
51	0x3f7cfb9e	0.9882144
52	0x3f7e31da	0.9929482
53	0x3f800000	1.0
54	0x3f7d1ef2	0.98875344
55	0x3fca7d6c	1.5819526
56	0x3f7e8019	0.9941421
57	0x3fd1e3a1	1.6397592
58	0x3f7ae710	0.98008823
59	0x3fced5b2	1.6158965
60	0x3fd8af6a	1.6928532
61	0x3f7e7672	0.99399483
62	0x3f7d08a7	0.9884133
63	0x3f7e2e59	0.9928947

batch_norm.bias f4 [64]
0	0x3deaaf0d	0.114591695
1	0xbe0df99e	-0.13864753
2	0xbe2dfa2b	-0.16989963
3	0x3bb9cb2a	0.005669971
4	0xbe5dd9d5	-0.21665128
5	0xbd001c71	-0.031277124
6	0xbda1bc96	-0.07897298
7	0x3c458d9a	0.012057686
8	0xbdf63bc6	-0.1202312
9	0x3dc3ece6	0.09566669
10	0x3e4b884c	0.19876212
11	0x3de27e0f	0.110592
12	0x3deaa264	0.11456755
13	0x3d59bd10	0.05315882
14	0xbe08709e	-0.1332421
15	0xbe411de7	-0.18859063
16	0xbe3a30a3	-0.18182616
17	0x3e1e20fd	0.15442272
18	0xbe323a84	-0.17405134
19	0x3df8cb77	0.12148183
20	0xbc9e1720	-0.019298136
21	0x3d9d6459	0.076851554
22	0x3c5e169f	0.013555198
23	0xbe155258	-0.14582193
24	0x3de56a0c	0.112018675
25	0x3db713fe	0.0893936
26	0x3e26298b	0.16226785
27	0xbe2ccfea	-0.16876188
28	0xbe8420a0	-0.2580614
29	0xbe251f95	-0.16125329
30	0xbe184ba6	-0.14872608
31	0xbe47fbb6	-0.19529614
32	0xbd2889be	-0.041146986
33	0xbd678c39	-0.05653021
34	0xbe205d02	-0.1566048
35	0xbbcf804b	-0.0063324324
36	0xbe69563f	-0.22786807
37	0x3e23f8bf	0.16012858
38	0xbcf9a7bb	-0.030475488
39	0x3ac2d21d	0.0014863644
40	0xbe29df57	-0.16589104
41	0xbd922f67	-0.071379475
42	0xbe108869	-0.14114536
43	0xbd696818	-0.056984037
44	0xbe052901	-0.13003923
45	0xbe14a214	-0.14514953
46	0x3dfd47d6	0.12367217
47	0x3c140823	0.009035143
48	0xbbb25bf8	-0.0054430924
49	0xbdcdf157	-0.100557975
50	0xbe01e86b	-0.12686317
51	0x3e22e6fb	0.15908425
52	0x3e1e2a6e	0.15445873
53	0x3df59d22	0.11992861
54	0xbe045b4c	-0.12925452
55	0x3dc0c1ea	0.09411986
56	0xbe044f8d	-0.12920971
57	0x3ddf6c88	0.109093726
58	0x3e481463	0.19539027
59	0x3d0504d9	0.032475326
60	0x3db47d3b	0.08812948
61	0x3e13c96f	0.1443231
62	0x3e5868fc	0.21133798
63	0x3de2c3b4	0.11072484

batch_norm.running_mean f4 [64]
0	0x24b3ff10	7.806097e-17
1	0x00000004	6e-45
2	0x00000004	6e-45
3	0x406dec06	3.7175307
4	0x40349a2c	2.82191
5	0x3d811ebe	0.06304692
6	0x3ca4b815	0.020107308
7	0x3ffd950d	1.9811112
8	0x00000004	6e-45
9	0x4048eef4	3.1395845
10	0x00000004	6e-45
11	0x40075b64	2.114953
12	0x00000004	6e-45
13	0x3f691825	0.91052467
14	0x00000004	6e-45
15	0x00000004	6e-45
16	0x00000004	6e-45
17	0x00000004	6e-45
18	0x40654221	3.5821612
19	0x4021b8c5	2.5269024
20	0x4089de78	4.308407
21	0x4082a463	4.0825667
22	0x3f813c70	1.0096569
23	0x00000004	6e-45
24	0x00000004	6e-45
25	0x3fccc016	1.599612
26	0x00000004	6e-45
27	0x00000004	6e-45
28	0x408439d5	4.1320596
29	0x00000000	0.0
30	0x00000004	6e-45
31	0x00000004	6e-45
32	0x402ad0c5	2.6689923
33	0x4022fb45	2.5465863
34	0x1b468229	1.6420233e-22
35	0x3fb61865	1.4226195
36	0x409650cf	4.6973643
37	0x00000004	6e-45
38	0x4026ccce	2.6062503
39	0x00000004	6e-45
40	0x0613be3d	2.7787392e-35
41	0x407e65ad	3.9749558
42	0x4007d905	2.1226208
43	0x3ee1867d	0.4404792
44	0x3e48cb27	0.19608746
45	0x00000004	6e-45
46	0x00000000	0.0
47	0x4027b70a	2.6205468
48	0x408a399a	4.3195314
49	0x00000004	6e-45
50	0x00000004	6e-45
51	0x00000004	6e-45
52	0x00000004	6e-45
53	0x00000000	0.0
54	0x00000004	6e-45
55	0x3f89f92d	1.0779167
56	0x00000004	6e-45
57	0x403f3435	2.9875615
58	0x00000004	6e-45
59	0x400b8824	2.1801844
60	0x3e6303da	0.22169438
61	0x00000004	6e-45
62	0x00000004	6e-45
63	0x00000004	6e-45

batch_norm.running_var f4 [64]
0	0x22cfb2d0	5.6296788e-18
1	0x00000004	6e-45
2	0x00000004	6e-45
3	0x3fa973df	1.3238486
4	0x3fb6db62	1.42857
5	0x3d3e99fa	0.046533562
6	0x3c1aa2b7	0.009438208
7	0x3f532f57	0.8249411
8	0x00000004	6e-45
9	0x3f990439	1.1954414
10	0x00000004	6e-45
11	0x4001026d	2.015773
12	0x00000004	6e-45
13	0x3f8bf78e	1.0934923
14	0x00000004	6e-45
15	0x00000004	6e-45
16	0x00000004	6e-45
17	0x00000004	6e-45
18	0x3f9e3585	1.2360083
19	0x3f96e2ea	1.1787999
20	0x3f460704	0.77354455
21	0x3f9ccffd	1.2250973
22	0x3f154bfe	0.5831908
23	0x00000004	6e-45
24	0x00000004	6e-45
25	0x3f9f4a03	1.2444462
26	0x00000004	6e-45
27	0x00000004	6e-45
28	0x3fa04a3a	1.2522652
29	0x00000004	6e-45
30	0x00000004	6e-45
31	0x00000004	6e-45
32	0x3fcd829b	1.6055483
33	0x3f99733f	1.1988295
34	0x1b030241	1.0836794e-22
35	0x3f91e62d	1.1398369
36	0x3f8a6620	1.0812416
37	0x00000004	6e-45
38	0x3f76b6eb	0.9637286
39	0x00000004	6e-45
40	0x05522556	9.88101e-36
41	0x3fadd629	1.3580981
42	0x3f4dc246	0.8037456
43	0x3eb64db2	0.35606152
44	0x3e452955	0.19254048
45	0x00000004	6e-45
46	0x00000004	6e-45
47	0x3f82dca2	1.0223582
48	0x3f657b23	0.89641017
49	0x00000004	6e-45
50	0x00000004	6e-45
51	0x00000004	6e-45
52	0x00000004	6e-45
53	0x00000004	6e-45
54	0x00000004	6e-45
55	0x3fa62b50	1.2981968
56	0x00000004	6e-45
57	0x3f83af64	1.02879
58	0x00000004	6e-45
59	0x3f80e4fd	1.0069882
60	0x3e586147	0.21130858
61	0x00000004	6e-45
62	0x00000004	6e-45
63	0x00000004	6e-45
