models/嵐/classifier_fold3.pth (torch, 991011 bytes, 16 tensors)

conv_layers.0.weight f4 [64, 256, 2]
000000 8f fd c6 3b 96 0c 6e 3d e1 49 b5 bc 62 78 3f 3d
       0.006072707 0.05811747 -0.022129955 0.046745665
000010 15 81 bc bc 98 ae 34 bd c7 80 9d bd 7c 5c 82 3d
       -0.02301077 -0.044111818 -0.07690578 0.06365296
000020 61 38 8e bc 28 21 29 bd 22 83 cf bd d2 22 02 be
       -0.017360868 -0.041291386 -0.101324335 -0.12708595
000030 50 80 91 bc ba c5 0b bb b5 7d fa 3c 9a 96 cf bc
       -0.01776138 -0.002132757 0.03057752 -0.025340367
000040 fa 68 9f 3d 30 a6 6b 3d ad 01 ad bb b3 e3 c7 3c
       0.077836946 0.057531536 -0.005279741 0.024400568
000050 f5 4c e2 3c 80 61 56 bd a7 92 a3 bd 5f 59 b6 bd
       0.027624587 -0.052339077 -0.07986956 -0.08903765
000060 f6 16 33 3d 05 a4 92 bc 5f 57 8c bb d1 8f b0 3c
       0.04372307 -0.017900476 -0.0042828764 0.021552952
000070 5a 4a a0 3c 9a 92 7d bc a4 8d a2 3b 2f fb 0e 3c
       0.019566704 -0.015476847 0.0049607325 0.008726879
000080 5e 5f 96 3d c9 17 a7 3d bc dd 0e bd e9 37 6f 3c
       0.073424086 0.081588335 -0.03487943 0.014600732
000090 d0 d7 1c bd af f8 1f 3c c2 d3 4c bd f7 81 0d bd
       -0.038291752 0.009763881 -0.050006635 -0.034547772
0000a0 de e5 68 3d c9 54 0f bd fb 4b fd bc 4b 47 4d bd
       0.056859843 -0.034992967 -0.03092002 -0.05011682
0000b0 dc 52 31 3d 33 8e 8c bc 71 31 1d 3d f3 bd f7 3c
       0.04329191 -0.01715765 0.03837723 0.030241942
0000c0 09 ca 0a 3d 4a a4 78 3d 3c c2 be 3d ca 53 3c 3d
       0.033884082 0.060703553 0.09314391 0.045978345
0000d0 d2 53 0d 3d ea 1c b9 bc 42 be 19 3c 86 19 e6 bb
       0.034503765 -0.022596795 0.00938374 -0.0070220856
0000e0 f6 9e 99 3c 19 78 02 bc 1b f7 0a be 58 92 15 bc
       0.018752556 -0.007963204 -0.13570826 -0.009129129
0000f0 fe a1 05 bd 48 b0 1c 3d 88 3a 42 3c da f3 68 bd
       -0.03262519 0.038254052 0.011854775 -0.05687318
000100 a0 63 83 3d af 10 99 3d 68 34 96 3c af 5c a7 3d
       0.06415486 0.07473885 0.018335536 0.08171975
000110 46 df 7c bd 88 91 ca 3b ac 81 d4 3c 3e 4b 80 3d
       -0.061736368 0.0061818995 0.025940739 0.06264351
000120 e0 c7 65 3c 80 2e 38 bd af 63 18 bc bd 79 1f bd
       0.014024705 -0.04496622 -0.00930111 -0.038934458
000130 b4 c0 1f 3d d2 8f 27 bb b3 af a1 3c 2b d8 25 bc
       0.039002135 -0.0025567901 0.0197371 -0.010122339
000140 56 e2 7b bd 9f dc ab 3d fb 07 a1 3c f4 20 38 bd
       -0.061495148 0.083916895 0.019657126 -0.0449533
000150 3d 08 92 bc cc 48 3f 3d 68 14 86 bd da 9e c5 bd
       -0.017826194 0.046700284 -0.06546861 -0.09649439
000160 b5 c2 d2 bd 24 21 88 3c 7c fe 50 3d 2c 0f fe 3c
       -0.10291044 0.016617365 0.051023945 0.031013094
000170 7e 78 8a 3b 36 c7 86 bd 65 a4 c0 bb 2c cf a7 3b
       0.0042257896 -0.06580965 -0.0058789724 0.0051211324
000180 99 97 03 3d 78 ca a2 3b 90 2b cf bd f6 4f 55 3c
       0.032126997 0.004967984 -0.10115731 0.013019552
000190 7f 64 d0 3c ba ac 84 bd 87 16 bf 3c 3d 9f 22 bd
       0.025438545 -0.064782575 0.023326172 -0.039702643
0001a0 29 ed 10 bd a1 5e 56 3c 86 5c cd bc 54 ef ce bc
       -0.035382424 0.013084085 -0.025068533 -0.025260605
0001b0 4f 68 05 3d db cb 15 bd d9 63 fe bc 7f 73 25 bd
       0.03257018 -0.036571365 -0.03105347 -0.04039335
0001c0 8d dc 0c 3d a1 24 d5 bc 42 e6 a2 3d 5b e3 d0 bb
       0.03439002 -0.026018443 0.079540744 -0.006374759
0001d0 19 4d 55 bd 6b 9e d1 bc f8 69 e2 3c c9 7c ac 3b
       -0.05207548 -0.025588235 0.02763842 0.005263899
0001e0 77 a0 2c 3d 85 38 1e 3d 46 70 5e bd 72 2e db bd
       0.04214522 0.03862812 -0.05430629 -0.10702218
0001f0 76 9e 34 bd 57 cd 47 3d 8e 1c ad 3d e1 34 a1 3b
       -0.044096433 0.04877981 0.08452712 0.0049196337
000200 2f 79 47 bd ee 6b 37 bd 1d 12 27 3c 71 7b af bb
       -0.048699554 -0.044780664 0.01019719 -0.0053552915
000210 1b 5e 4c 3d 1f b6 89 bd 78 2d af 3c 23 5f 15 bd
       0.049894433 -0.0672419 0.021383986 -0.036467683
000220 ce 4e 2c 3d ee 78 93 bd 6f 8f 60 bd 0b fe 5b 3d
       0.04206734 -0.072008 -0.05482429 0.05370907
000230 60 f1 d1 3d 8d 43 84 bd 69 86 25 3d 22 14 30 bc
       0.10251117 -0.06458197 0.040411387 -0.010746988
000240 30 ee 0f bd 8f 7d d7 bc ad f6 2e 3b bd 67 c5 3a
       -0.035139263 -0.026304988 0.0026697323 0.0015060824
000250 e4 66 65 bd c1 c8 ac bc f6 89 8e bd 13 44 82 3c
       -0.056006327 -0.02109182 -0.06959908 0.015901601
000260 4f 74 0d 3c 90 fb b6 3c ec 9a 09 bd 15 31 c3 3d
       0.008633687 0.022336751 -0.03359501 0.09530846
000270 7c 18 88 3b 32 30 92 bd 01 76 9d bc 84 31 42 3d
       0.0041533094 -0.07138099 -0.019221308 0.047410503
000280 e2 93 86 3c 4f 12 e9 bc 6f b4 92 bd 20 c7 64 bd
       0.016427938 -0.028451113 -0.07163321 -0.055853963
000290 f7 14 c5 bb 2d cd 29 3d 3d dd 1a 3c a5 1d ee bc
       -0.006014462 0.041455436 0.009452161 -0.02906687
0002a0 3a 83 9f bd 5a 72 3a 3d d6 32 c5 3c 78 8c 92 3c
       -0.07788701 0.04551921 0.024072092 0.017889246
0002b0 1b 98 4a bd 3c 97 4a bc 1b 20 42 3d c4 72 cf bc
       -0.049461465 -0.012365159 0.0473939 -0.02532328
0002c0 06 84 23 bc 71 86 26 bd b0 9b a9 3d 30 6c 4a bd
       -0.009980207 -0.040655557 0.08281648 -0.049419582
0002d0 79 ae c5 3d 03 f6 81 3d 2d 0c e9 bc 19 e4 8b bc
       0.09652419 0.06345751 -0.028448189 -0.017076539
0002e0 2d db 6f bb e2 3c 90 bc 43 18 17 3d 72 12 0c 3d
       -0.0036599145 -0.017607156 0.036888372 0.03419728
0002f0 51 d0 46 3c 70 c8 c1 bc f6 c9 42 bd 8c 7f ce bd
       0.012134627 -0.023655146 -0.047555886 -0.100829214
000300 c5 6c 84 bd f6 c9 5f bc 06 d8 5e bb 65 2b 81 3d
       -0.06466059 -0.013658991 -0.0034003272 0.06307105
000310 7d 69 c1 3c 94 45 c1 bb 69 58 da bc 37 37 46 3c
       0.023609871 -0.005898187 -0.026653485 0.012098125
000320 6a db b6 3c 12 d9 6c bd c5 aa 8c 3d 4e 3b 98 bd
       0.022321422 -0.057824202 0.06868509 -0.074331865
000330 83 46 08 3c 09 6a 4d 3c 2c fc 82 3d 9d be 6f 3d
       0.008317593 0.012537488 0.06395754 0.058531392
000340 f6 44 89 bc 4d c3 2c bd e1 fa f1 bc b4 bd b3 3d
       -0.016756516 -0.04217844 -0.029538574 0.087764174
000350 d5 26 aa bd d3 74 7f 3c 6a be 42 3d d1 c5 d5 bc
       -0.08308188 0.015591818 0.047544874 -0.026095303
000360 4c cc 97 bd 0a aa 72 3c c8 59 c0 3d 45 1c 82 bc
       -0.074120134 0.014811048 0.093921244 -0.01588262
000370 e3 89 db 3b 8e 05 bc 3c 87 bb 37 3c b3 f0 11 3d
       0.006699787 0.022951867 0.011214144 0.03562994
000380 7f 37 f6 bd 2c c4 8f bc 8b 66 da 3c 0e 04 c7 3c
       -0.12022304 -0.017549597 0.026660224 0.024293926
000390 e1 36 15 3d 91 d7 41 bd a9 fb c2 3c cc dc 8c 3c
       0.03642929 -0.04732472 0.023801642 0.017195128
0003a0 75 13 c2 3d 75 25 a5 3c 7d 31 c0 3d ee c6 a2 bc
       0.094763674 0.020159462 0.09384439 -0.019870248
0003b0 f8 ab d3 3b 18 09 c2 3c e7 4e 60 3d e8 8b 83 3c
       0.0064597093 0.023685977 0.054762747 0.016057923
0003c0 94 3a 88 bd 80 b2 8a 3c b1 d7 53 3d 18 9a 74 3d
       -0.06651798 0.016930819 0.05171937 0.059717268
0003d0 95 c1 4f 3d 8a 6b 6f 3d a0 ce 04 3e 09 5e 01 bd
       0.050721724 0.058452167 0.12969446 -0.03158382
0003e0 1d c1 34 bb 6f 29 c2 3c 79 ac 20 bd 44 66 77 bd
       -0.0027580925 0.023701398 -0.039226983 -0.060400262
0003f0 77 ba 2b bd c4 4b 21 bd a1 83 17 3d 13 81 db 3c
       -0.041925874 -0.039378896 0.036990765 0.026794946

conv_layers.0.bias f4 [64]
000000 a0 5f 52 bc 61 81 c2 3d c1 61 a0 bc ca ec 67 bd
       -0.012840182 0.09497333 -0.019577863 -0.056622304
000010 56 f4 d2 3d e9 07 26 3d bd bc 8a bd 79 cb d2 3a
       0.1030051 0.040534887 -0.0677428 0.0016082368
000020 15 ac 97 bd 52 62 0e be 62 a8 4e 3d 56 34 7d 3d
       -0.07405869 -0.13904694 0.05045355 0.06181749
000030 da bb a8 3c 00 6e a4 3b 2d 9b 19 bc c3 b3 1c bd
       0.020597387 0.005017996 -0.009375376 -0.03825737
000040 f1 10 09 bc a4 3d 1e 3d 8c 65 bc 3d 8f 8f aa bc
       -0.008365856 0.038633004 0.09199056 -0.020820407
000050 66 4a 8f 3c 35 39 f8 3d 56 1e bf 3b 94 72 e9 ba
       0.01749153 0.121202864 0.0058324737 -0.0017810636
000060 8f 0d c3 3d e5 e6 73 bd 4d 0e 0f 3d a3 e0 9d bc
       0.095240705 -0.05954637 0.034925748 -0.019272154
000070 25 09 99 bd cd b0 51 bc c2 0a 9f bc c6 7f 0c 3d
       -0.07472447 -0.0127985 -0.01941431 0.03430154
000080 96 1b c0 bd 41 70 ed 3d ba d9 a1 bd 09 e0 2b 3d
       -0.093802616 0.11593676 -0.07902856 0.041961703
000090 40 c3 97 3d 98 82 1f bc 0a 4e 5a bd c3 a7 e9 3d
       0.07410288 -0.009735726 -0.05329708 0.11408951
0000a0 c0 83 77 bc b5 2e a4 bd 35 0b 5c bb 44 49 cd bc
       -0.015107095 -0.08016721 -0.0033576016 -0.02505935
0000b0 49 e0 a4 3c b8 43 29 bc 9e 96 1f bd 55 9f c9 3c
       0.020126479 -0.010331087 -0.038962 0.024612108
0000c0 c0 21 84 bd d0 29 a8 ba 32 59 74 3d 6b ea e3 3c
       -0.0645175 -0.0012829844 0.059655376 0.02782174
0000d0 03 12 90 bd 06 b1 04 3c ba 9d 15 3d 3b 2d 05 3d
       -0.070346855 0.008098846 0.036527373 0.03251384
0000e0 21 61 30 bd e2 82 11 bd a9 25 c7 3d ca 12 48 3d
       -0.04306138 -0.03552521 0.0972398 0.048846044
0000f0 7d 5e 3c 3c 87 3b 08 be b0 92 d8 bb ca 5d 49 bd
       0.011497137 -0.13303958 -0.0066092834 -0.04916171

conv_layers.1.weight f4 [64, 256, 3]
000000 c3 17 4d bd d3 4f 53 3c b8 73 34 3d 19 a6 70 3d
       -0.05007149 0.01289745 0.04405567 0.058752153
000010 62 09 8d 3d 8b 94 b6 3c 6c cd 63 bd 78 f7 47 3d
       0.06886555 0.022287628 -0.055615827 0.04881999
000020 77 fd 68 3d ed a8 4a 3d 27 1a f8 bb 2c 82 31 bd
       0.056882348 0.049477506 -0.007571477 -0.043337032
000030 9b a7 1c bd a0 ce 8a bc 69 6f 8d 3d 77 1f d8 3d
       -0.03824578 -0.01694423 0.069060154 0.105528764
000040 4f e9 6e 3b ce e0 cd 3c d0 ab 7e bd de 08 cd bc
       0.003645498 0.02513161 -0.062175572 -0.025028642
000050 fe d8 0a 3d e5 e6 c6 bc fa 5d fc 3b 71 37 c7 3c
       0.033898346 -0.024280021 0.0077016326 0.024318429
000060 77 52 61 3c 5d b3 b5 bd cf 38 f8 bc ac 38 65 3d
       0.013752571 -0.088721015 -0.030300526 0.05596225
000070 d5 5b 93 3c 2d f0 3b bd 92 55 2e bd 66 e7 de bd
       0.017988125 -0.045883346 -0.042562075 -0.108839795
000080 7a 8b 72 bd aa d6 13 3c 16 c8 77 bc 16 bc 30 3d
       -0.059215046 0.009023348 -0.015123388 0.043148123
000090 d2 77 e9 bb b9 91 cf 3c 09 83 b3 3d 2b cd 88 3d
       -0.0071248794 0.02533804 0.08765227 0.06679758
0000a0 9b 5b f2 3b f7 10 41 bd 76 05 81 3c d1 fd a4 3c
       0.007396174 -0.04713532 0.015749674 0.02014056
0000b0 19 a9 09 bd 9f b2 7c 3c 8f 32 66 3d 01 d8 f6 bc
       -0.03360853 0.015423446 0.05620056 -0.030132296
0000c0 44 26 47 bc 82 78 64 bd c9 8a d5 3c 21 f3 7c 3d
       -0.012155119 -0.055778988 0.026067154 0.061755303
0000d0 a2 57 b6 bc e8 31 09 3d 6a e2 b3 b9 b8 3e 56 bd
       -0.022258583 0.03349486 -0.00034310232 -0.052305907
0000e0 85 0a 4c bd d7 d4 d7 3c ea a9 21 3d c2 73 88 3d
       -0.04981472 0.026346607 0.039468683 0.06662704
0000f0 5e 0b 15 bd 2f 4c 1b 3e c1 4d b8 3d 6b 93 20 3d
       -0.036387794 0.1516578 0.089992054 0.03920309
000100 dc 9c 81 bd 53 08 eb ba dd 42 e4 3c 60 d8 1f bd
       -0.06328747 -0.0017931558 0.027863914 -0.03902471
000110 02 d7 f5 3c 23 05 40 bd 1d 78 25 3d 36 28 ba bb
       0.03000975 -0.0468799 0.040397752 -0.005681063
000120 8f 8b 44 bd c7 d4 79 3d 27 30 32 ba 84 7c d1 bc
       -0.047984656 0.060993936 -0.00067973364 -0.025572069
000130 a3 ea fd 3c 19 a3 24 bc 8f b3 93 bd e6 16 17 bd
       0.030995673 -0.010048651 -0.072119825 -0.036887072
000140 d7 18 5e bc 4a ca 8b 3d de 1e bd 3c e4 ed 5a bd
       -0.013555727 0.06825693 0.023086008 -0.053449526
000150 d3 b3 b1 bc 44 cf 81 bc b2 e7 9d bd ed bb ce ba
       -0.021692192 -0.015845902 -0.07710208 -0.0015772559
000160 80 22 a7 3c ad 7a 7f bd 97 07 b3 bc 82 31 b5 3c
       0.020402193 -0.062372852 -0.021854205 0.022118334
000170 dd ec c3 bc 2e 2e b0 bc 74 72 01 3d fb 61 85 bc
       -0.023916656 -0.021506395 0.03160329 -0.016282072
000180 0f 39 50 be 36 b8 d7 bb 4d 14 a1 bd 51 89 37 3d
       -0.20334266 -0.006583239 -0.078652 0.04480869
000190 be 0a a9 3c 08 b5 40 bd d9 b0 bd 3a 33 58 fa bc
       0.020635005 -0.047047645 0.001447226 -0.030559635
0001a0 f0 70 81 3c 53 1a 05 bd 7c 9a c9 3d 9b 6e 48 3d
       0.015800923 -0.032495808 0.09843919 0.048933607
0001b0 20 f1 e4 bc ad 92 d0 bc 2e 9f 3f bd 54 c5 ca 3b
       -0.027947009 -0.025460565 -0.046782665 0.006188074
0001c0 d7 df 2c bc 40 f3 78 bb 5a d1 9b bc 7c 01 e4 3d
       -0.010551414 -0.0037986785 -0.019020725 0.111330956
0001d0 30 55 81 3d 7e 2e 18 3c d5 4d a8 bc dd 1b a9 bb
       0.06315076 0.009288428 -0.020544926 -0.0051607923
0001e0 2f aa d0 3d ac 5c 97 bd 39 fc 9e 3c bd a6 a6 3c
       0.1018871 -0.07390723 0.019407379 0.020343179
0001f0 63 f0 69 bc 03 42 1f bd ef 32 98 3d 93 4e c2 bb
       -0.014278504 -0.038881313 0.0743159 -0.005929777
000200 01 57 04 bd 66 3a 93 bc 09 31 e2 bc 62 3a 9d 3b
       -0.032309536 -0.017972182 -0.027611272 0.0047982195
000210 e8 b5 c1 bd 10 19 11 3c 10 02 53 bd 73 76 df 3c
       -0.09458524 0.008856073 -0.05151564 0.02727816
000220 da 56 d7 3c 80 d4 54 bd e9 7c b2 3c dd 4f 91 3c
       0.026286531 -0.05196047 0.021788077 0.017738277
000230 77 35 2e 3d 98 c2 7d 3d ba 96 a2 3d bd 6d e2 bb
       0.042531457 0.061953157 0.07938905 -0.0069100545
000240 05 76 d4 bc 41 ce 15 3a 93 33 f9 bc 5d 1e 5d 3d
       -0.025935182 0.0005714633 -0.0304201 0.053984035
000250 65 2b 6d 3c bb 8d 34 bd e0 22 33 bd 9e 04 0e 3e
       0.014475678 -0.044080477 -0.04373443 0.13868949
000260 fa ab c3 39 cd 08 a0 3b 30 31 02 bd 48 d3 82 bc
       0.0003732143 0.0048838616 -0.03178519 -0.015969887
000270 9b e9 1c b9 6e 13 85 bd ca f8 51 3c 64 38 1c bd
       -0.00014964344 -0.064978465 0.012815664 -0.038139716
000280 bf f8 61 bd 76 9d b6 bd a8 cd 28 3c 57 ec f1 3c
       -0.055168863 -0.08916752 0.0103029385 0.029531641
000290 73 ec 44 3d 30 66 b1 bd 65 55 79 ba 91 e7 7c bd
       0.048077058 -0.08662069 -0.0009511321 -0.061744276
0002a0 3d bd a0 bb 6c 1e d2 bc 1a 50 78 3d ef ca 2f bd
       -0.0049053715 -0.025649272 0.060623266 -0.042918142
0002b0 08 67 09 bd cc 81 a8 3a 6f 49 6d 3d 58 10 92 3c
       -0.033545524 0.0012856065 0.05793136 0.017830059
0002c0 36 f3 a7 3b 2b 7f d8 3d e8 0e 93 bd 57 b7 39 bc
       0.0051254285 0.1057113 -0.071805775 -0.0113352155
0002d0 94 9a 94 3c 64 fc ee bc ab 58 2e bd 6b 4d 8c 3d
       0.018140115 -0.029173084 -0.04256503 0.06850704
0002e0 09 01 d2 bd ce 17 ef bc d2 08 1e bd 97 71 84 bc
       -0.10254104 -0.029186156 -0.03858263 -0.016167445
0002f0 bd 06 1f bc c3 2a d9 b8 b2 54 28 bd 5c ac 74 bc
       -0.009706196 -0.00010355331 -0.041096397 -0.014933672
000300 e6 cc 55 3d f7 d8 38 bd 48 01 8e bc 8c 47 84 3d
       0.05219736 -0.04512879 -0.017334595 0.06458959
000310 2a ce d9 3c 62 27 20 3d d8 3d 02 bc f1 60 28 bc
       0.026587564 0.03910006 -0.007949315 -0.010277019
000320 22 57 1a bd c7 7d d7 bd 28 82 8d 3c 9b ca 07 bc
       -0.037680753 -0.10522037 0.017273977 -0.008288051
000330 ee b5 e0 bc 9d ed 70 3d e1 f4 d3 3d 54 ba 55 3c
       -0.0274305 0.058820356 0.10349441 0.013044912
000340 5d 4c cf bc af c9 c9 bd ae 8c 36 3c b2 d6 75 bd
       -0.025304968 -0.09852921 0.011141939 -0.060019203
000350 b5 d4 30 bd c4 2b c6 3d 58 1d aa ba 9e e0 86 3c
       -0.043171603 0.096763164 -0.0012978716 0.016464528
000360 b4 3d af 3c 7c 9c 4a bd 84 b0 23 3d f9 ab 94 3d
       0.021391727 -0.04946564 0.03996326 0.07259364
000370 04 06 d2 3c 6a 6e 12 bd a2 03 0c bc 0d 34 1c bd
       0.025637634 -0.03574983 -0.008545788 -0.038135577
000380 1c c7 3f bd 16 f6 44 bc cc af 5f ba f3 6b ed bc
       -0.046820745 -0.012021562 -0.00085329707 -0.028982138
000390 65 4f 37 bc db 36 55 3d 36 0e f7 3c b6 03 63 3d
       -0.011188363 0.052054267 0.030158143 0.05542346
0003a0 27 34 01 bb 4f 87 64 bc 2b 86 29 bd 1c 25 68 3d
       -0.0019714923 -0.013948276 -0.04138772 0.056676015
0003b0 61 db d8 bc 98 9e cb bb f9 a4 78 3d 78 5f 0a bd
       -0.026471796 -0.006213974 0.060704205 -0.033782452
0003c0 ad ac 50 3c f1 2f b2 3b 27 af 98 bd de a4 87 3c
       0.012736482 0.005437844 -0.07455283 0.016558107
0003d0 64 01 42 bd 2b 71 6d 3d a0 e7 dc bc ae 15 f2 3b
       -0.047364607 0.057969254 -0.026965916 0.0073878383
0003e0 5c 17 98 bb a6 03 29 bd ad 64 f9 3d ef f1 07 3c
       -0.0046414565 -0.041263245 0.121774055 0.008297428
0003f0 d7 a7 dd 3c f2 42 bb bc 8b 2e a6 3d 77 c9 90 3c
       0.027057571 -0.02285907 0.08114346 0.01767419

conv_layers.1.bias f4 [64]
000000 5c 0a 18 be c4 c5 17 bc 45 b8 4f bd 08 59 63 bb
       -0.14847702 -0.00926346 -0.050712842 -0.0034690518
000010 43 b8 ed 3c 57 fc f1 3c 57 c2 b2 3d df 95 cd 3d
       0.029018527 0.02953927 0.08728474 0.10038351
000020 d6 c8 24 bb 27 19 a9 ba bf 2c 95 3b ac 4b b1 3d
       -0.0025144122 -0.0012901173 0.0045524533 0.086570114
000030 67 dd 42 3c 3d c7 4f bd 8f 34 af bd 64 fb 6d bd
       0.011893607 -0.050727118 -0.08554947 -0.058101073
000040 58 72 a0 bd 0b 3e 91 3c 64 66 68 3b 58 81 b7 bd
       -0.07834309 0.01772978 0.003546142 -0.08960217
000050 23 62 66 3c 13 4b 5a 3c 6a 95 09 3e a9 5d 4e bd
       0.014061484 0.013323563 0.13435903 -0.05038229
000060 ac 22 bb 3d 15 24 07 3d fe f5 8a 3d 6c 42 e1 bb
       0.091374725 0.032993395 0.067852005 -0.006874373
000070 73 a7 a4 3d b9 e3 d0 3c f0 93 4e bd 11 f0 ba 3c
       0.08039751 0.025499212 -0.050434053 0.02281955
000080 a9 66 57 3d 3c ed c5 3c 6c 63 2d bd dd a4 65 bb
       0.05258814 0.024160974 -0.042331144 -0.0035040893
000090 bf f5 1b bd 8d 45 95 3d 86 c0 56 3d 96 d1 1e bb
       -0.03807616 0.072886564 0.0524297 -0.002423381
0000a0 7e 92 7d bd 95 c0 4a 3b 58 26 01 3d a2 db 4b 3c
       -0.061907284 0.0030937542 0.031530708 0.012442501
0000b0 94 ac 7e 3d 2c 78 aa bc 9d 9d 86 bc 74 e6 46 3d
       0.062176302 -0.020809256 -0.016432578 0.04855962
0000c0 9a 6d fb bc c0 7e f2 3c 0f 5f 86 3d 70 86 da bb
       -0.03069191 0.029601455 0.065611 -0.006668858
0000d0 56 26 80 3b bb 88 c5 bc 4d 0e 07 3c 2e 2f 02 3d
       0.00391082 -0.02411305 0.008243156 0.031783275
0000e0 03 cd aa 3d b2 7b 39 3d 93 f6 1a bd d9 98 6f bd
       0.08339884 0.04528398 -0.037832808 -0.058495376
0000f0 83 41 84 3d da 85 09 3d 54 39 82 bd 82 06 a3 bd
       0.06457808 0.033574916 -0.06358591 -0.07960226

conv_layers.2.weight f4 [64, 256, 4]
000000 47 65 e7 3c 80 0c 86 bd 2f 03 52 3c 6d e0 aa 3b
       0.028246535 -0.06545353 0.012818142 0.005214742
000010 38 a8 08 bd 84 9d 45 3e 82 a2 67 3d 2f 82 71 3c
       -0.03336355 0.19298369 0.056551464 0.014740511
000020 b6 06 9e bd b0 8e 9d 3c 26 ce 6c 3c b9 f7 bb 3c
       -0.07716124 0.019233078 0.0144534465 0.022945272
000030 9f 6f 85 3d 63 12 0d bd 56 4d fc bc f3 7b 04 bd
       0.06515431 -0.034441363 -0.030798595 -0.03234477
000040 c1 a9 3f bd 4a 15 37 3c e2 63 b5 bd 74 88 17 bd
       -0.04679275 0.011174509 -0.08856942 -0.036995366
000050 34 3d 0c bd d8 8e 89 3c 78 e2 33 bd 52 ff 22 bd
       -0.034238055 0.016791746 -0.04391715 -0.039794274
000060 9e aa 8c 3d 6e 3d d2 bb cf e9 22 3d 7a 1a fe bb
       0.0686848 -0.0064160144 0.03977376 -0.007754621
000070 98 cf a6 3d bf 9c 75 3d 89 ec 17 3d 76 d1 e1 bb
       0.08145064 0.059963938 0.037090812 -0.006891425
000080 50 63 01 3d 52 29 f7 bb 76 72 81 bd 43 08 45 bc
       0.031588852 -0.0075427676 -0.0632066 -0.0120258955
000090 37 5e 02 bd 41 0d 18 3d df 4f 51 bd f5 d8 2b 3d
       -0.03182813 0.037122015 -0.05110156 0.041954953
0000a0 b4 52 b8 3d 76 9f d8 3b e7 d7 1b bb d4 99 72 bd
       0.09000149 0.006610806 -0.002377981 -0.059228733
0000b0 3f b9 64 bd cd 0e 47 bc 7d 26 3f ba 98 df d7 3b
       -0.055840727 -0.012149525 -0.0007291807 0.0065879337
0000c0 82 90 1c 3c ec ad 7a 3d 6a 42 64 bd cf 7a 17 3d
       0.009555938 0.06120102 -0.0557274 0.036982354
0000d0 f6 62 38 bd 87 d9 03 3d 57 ba 8c 3d a6 2d 9f bc
       -0.04501625 0.032189872 0.06871479 -0.019430947
0000e0 22 cd 2c bd 94 31 6a 3a cf 92 80 3c 0f e3 7e bd
       -0.042187817 0.00089337793 0.015695004 -0.06222826
0000f0 6c ff 48 3b 52 e0 20 3c 48 1f ce 3c 49 89 18 bc
       0.0030669821 0.009819107 0.0251614 -0.009310075
000100 a4 8f 93 bd 8f 12 03 3d 1c 1f 97 3d 76 80 f5 3c
       -0.07205132 0.03200012 0.073789805 0.029968482
000110 f4 4e c0 3c 93 1e 39 bd f6 b9 12 bd 86 b3 d3 3c
       0.023475148 -0.045195173 -0.035821877 0.02584244
000120 f8 90 9c bc 9f fd 79 bb 2f fb 2d bd 13 20 b0 3c
       -0.019112095 -0.0038145555 -0.042475875 0.02149967
000130 42 14 00 bd 10 37 a2 3c 20 90 de bc e9 2a 21 3d
       -0.03126932 0.019801646 -0.027168334 0.039347563
000140 09 0e 90 bd a1 14 9e 3c 44 e3 a1 bc 60 d9 4b 3d
       -0.07033927 0.019296946 -0.019761689 0.04976785
000150 b2 71 07 bd 44 da 75 bd 47 99 9a 3d cc 5f 0f 3d
       -0.033067413 -0.060022607 0.075487666 0.03500347
000160 62 ff 53 bd 6f ba 17 3d dd f7 23 bd 30 2e e6 3c
       -0.051757224 0.03704303 -0.040031303 0.028098196
000170 f2 8e 01 3d 8e 86 9b 3d 9b 3c 9a bd 63 38 6c bc
       0.031630464 0.07594024 -0.07531091 -0.0144177405
000180 65 0a fb bc f0 cc df bc af ae 1b bd e2 47 d1 3d
       -0.030644605 -0.027319402 -0.038008388 0.10218789
000190 e7 49 4e 3c d0 3f a2 bc 58 c4 e5 3c 4b fe be 3c
       0.012590862 -0.019805819 0.028047726 0.023314616
0001a0 66 51 b1 bb 63 61 90 bd df cc bd bc 3c 66 44 3d
       -0.005411315 -0.07049825 -0.02316898 0.04794906
0001b0 3b 2a d4 3c 38 af 59 bd a9 e2 4b bd a7 56 9b 3d
       0.025899043 -0.053145617 -0.049776707 0.07584887
0001c0 45 f9 cb bd 74 03 52 3c a3 5f 7e bd 3a a4 25 bc
       -0.09959654 0.012818206 -0.062102925 -0.010109955
0001d0 cc 57 b5 bc b1 0d 1f bd 8f 32 cc bd aa 1f 52 3d
       -0.022136591 -0.038831417 -0.09970581 0.05129973
0001e0 80 ee a4 3d 86 97 9e bd a4 a3 95 3d e9 32 9f bd
       0.08053303 -0.077437446 0.073066026 -0.07773382
0001f0 34 4b e9 bc ac 21 96 bc 79 3f 55 3d 88 33 ab bc
       -0.028478242 -0.018326603 0.052062485 -0.020898595
000200 36 14 43 3d 5b 80 0e bd 5c f0 34 bd 08 60 29 3d
       0.047626697 -0.034790378 -0.044174537 0.04135135
000210 37 b9 9d 3a a9 3f fa 3c aa 3e dc 3c b9 f3 75 bb
       0.0012033348 0.030547934 0.02688535 -0.0037529303
000220 ec 4d bd 3c 72 3e 38 bd 5c 8b c1 bc fe 2a da bc
       0.023108445 -0.044981427 -0.023626022 -0.026631828
000230 62 47 9b 3c e3 0a 2e bd 2c 2c d5 3d af 0a 67 bd
       0.018954936 -0.04249085 0.10408816 -0.056406673
000240 b8 d8 31 bd b7 39 55 3d 8e ea 24 3d 3b d1 f1 bd
       -0.04341957 0.052056994 0.04026275 -0.11807486
000250 5e f3 5a bd c4 fd 84 3d d2 5b b5 ba 8a 1d b6 bd
       -0.05345475 0.064937145 -0.0013836569 -0.08892353
000260 db 1c f1 bc 00 a4 65 3d 7e 08 51 3d da 5d 86 3d
       -0.029432705 0.056064606 0.05103349 0.065608695
000270 be b1 bf 3c 53 bd 54 3d 01 f5 a8 bd 41 a0 8f bc
       0.023400184 0.051938366 -0.08249856 -0.01753247
000280 10 29 84 3c 22 80 6f 3a da c4 12 3d 09 5f c1 3c
       0.016132861 0.000913622 0.035832264 0.023604887
000290 a5 36 8e bd 38 11 d8 bd df 83 a6 3d 28 21 24 bd
       -0.06944016 -0.10550159 0.08130621 -0.040070683
0002a0 dc 7e 82 bd 02 c5 e3 3c c8 ba fe 3b f9 f8 2a bd
       -0.06371853 0.027803902 0.007773731 -0.041741345
0002b0 3b 9c a9 bc 4c aa 66 bc c1 7a 47 3b de 51 a3 3c
       -0.02070438 -0.014078688 0.0030438157 0.019936498
0002c0 1a fc 35 3d d6 15 b8 3b f2 35 d8 3b b2 1e ba 3c
       0.044429876 0.0056178374 0.0065982277 0.022719715
0002d0 0c 12 c8 bc 3a 7d 0e bd b2 5d a3 3d 85 05 39 3a
       -0.024422668 -0.034787394 0.07976855 0.00070580124
0002e0 99 f4 d1 bc 6f fa 9a 3d 88 a9 fe bb e9 c3 a8 3c
       -0.025629329 0.07567298 -0.0077716745 0.02060123
0002f0 55 e5 3a bd 53 f8 a1 3a db ea 94 3d 9d 83 60 bc
       -0.045628864 0.0012357332 0.072713576 -0.013703254
000300 38 35 62 bd a9 2e 87 bb f2 a6 d8 bc 58 3a 0d 3c
       -0.055226535 -0.0041254354 -0.026446793 0.008619867
000310 aa 1c 24 3d 34 d8 8e 3b e4 64 e1 3c af 9a ab 3c
       0.0400664 0.0043592695 0.027513929 0.020947782
000320 21 23 94 3d dc 35 90 bd 9a 41 c3 bd 5c 32 bb 3d
       0.07233263 -0.07041523 -0.09533997 0.09140465
000330 0f 26 4f 3d ce 92 ec 3b d9 fc 3a bb 8d ea 79 3d
       0.050573405 0.007219649 -0.0028532057 0.0610147
000340 76 41 ee 3c 86 3b b8 3d cd a1 d3 3a 4e ec c9 bd
       0.029083949 0.08995728 0.0016146243 -0.09859525
000350 cb 39 a5 3c 7a 70 ee bd ce 79 72 3c 5a e5 35 bd
       0.02016916 -0.11642547 0.014799548 -0.04440818
000360 51 6e 16 bd 2a 2b 20 bd d0 2f e9 bc d5 ab 02 bd
       -0.0367263 -0.039103664 -0.028465182 -0.031902153
000370 bd 5c 23 bc 0b 5a dc bc 65 2a 57 bb dd a3 59 3d
       -0.009970841 -0.026898405 -0.0032831666 0.053134788
000380 0c ac 13 bc 12 a9 4e 3c e1 8d 8a bd 6d 17 00 bc
       -0.009013187 0.012613552 -0.067653425 -0.007818085
000390 98 ed 89 bd ba 35 a6 bc 82 41 63 3d 4f ed d5 3b
       -0.067347705 -0.02028929 0.055482395 0.0065285335
0003a0 34 8f 9f 3d 08 00 3d 3d 42 fb fa bc 11 6c 92 3d
       0.07790986 0.046142608 -0.030637387 0.07149518
0003b0 5e 99 32 3d 44 03 40 bd 67 62 cf 3d 72 30 76 bd
       0.043603294 -0.046878114 0.10126191 -0.060104795
0003c0 93 dd 43 bd 44 39 31 bc e6 22 23 bc 3a b5 64 bd
       -0.04781873 -0.010816876 -0.009957051 -0.055836894
0003d0 38 3d 58 3c 3a 28 b6 3c 40 95 1d bd 31 46 b1 3c
       0.013198189 0.022235978 -0.038472414 0.021639915
0003e0 03 0f d6 3b a7 c5 87 3c a6 8b 93 3d 80 b2 f4 3c
       0.0065325513 0.01657374 0.0720437 0.029870272
0003f0 69 75 3d bc 3b cd bb 3c e7 28 70 3d 29 d5 9d 3d
       -0.011563637 0.02292501 0.058632758 0.07706673

conv_layers.2.bias f4 [64]
000000 4a 63 c4 bd 08 0a 3e 3c 45 d7 31 3d 8b b3 6d 3d
       -0.095892504 0.011599071 0.043418188 0.058032554
000010 88 97 9a bd 8d d8 f4 bd 23 a8 d8 bd 1c 0f 1d 3c
       -0.075484335 -0.11955366 -0.105789445 0.009586122
000020 f2 e3 5f 3d d4 ce a4 3a ff da f6 3d 79 93 e2 bd
       0.054660745 0.0012573847 0.12053489 -0.110632844
000030 61 17 ec 3c 21 55 e1 bd 28 73 ff bc dd fe c3 3c
       0.028819742 -0.11002565 -0.03118284 0.02392524
000040 31 ec 1a bd ec 37 2b 3d 8d 4d ab bd e2 83 7d bb
       -0.037822906 0.041801378 -0.08364401 -0.0038683345
000050 07 df 9d bd fc 48 a0 bd d4 5a 7a 3d b1 eb a8 3d
       -0.07708555 -0.07826421 0.061121777 0.082480796
000060 7b 80 63 3d bb d7 e6 bc 0e 8c d9 bd a2 ee 0e 3d
       0.05554245 -0.02817904 -0.106224164 0.034895547
000070 dc a5 01 bd 4f 41 93 3c 67 e0 ab bd 77 0c 7c 3d
       -0.031652316 0.017975478 -0.08392411 0.061535325
000080 2d aa ac 3d 9a 42 3c 3c cb 53 00 be df d5 2e bd
       0.08430896 0.011490488 -0.12531964 -0.042684432
000090 92 f0 23 3b 93 a5 f4 bb a3 31 1b bd 93 34 d5 bc
       0.0025015217 -0.007466027 -0.037889134 -0.026026046
0000a0 c4 de b6 bd 54 9a 99 3d 83 0f 62 3c 57 60 24 3c
       -0.08929208 0.07500139 0.013797644 0.010032735
0000b0 62 1b 8b 3d ad c1 61 bd 2c 26 f0 bd 0c 66 10 be
       0.06792332 -0.055116344 -0.11726031 -0.14101428
0000c0 48 20 b4 3d b6 f7 0f bd b8 52 99 bd a1 02 85 bc
       0.0879522 -0.035148345 -0.074864805 -0.016236605
0000d0 96 f0 17 bc f4 20 14 3c 17 80 54 3d 04 8d 97 3d
       -0.009273669 0.00904106 0.05187997 0.073999435
0000e0 dc 60 54 3d 4a 29 e7 3c 2c 16 08 bd 62 79 5f 3c
       0.051850185 0.02821793 -0.03322427 0.01363978
0000f0 e4 45 9b bc 22 96 41 bd ba e8 b8 3c 3b 83 bd 3d
       -0.018954225 -0.04726232 0.02257191 0.09253546

conv_layers.3.weight f4 [64, 256, 5]
000000 8b 92 07 bc 67 0a 87 bd 85 fb 9c bb 4a 33 82 bc
       -0.008274685 -0.06593781 -0.0047907257 -0.015893597
000010 1e ed d2 3c ac fb 2c 3c 31 4f 75 3c 9a d3 b8 bb
       0.025747832 0.01055805 0.014972494 -0.0056404592
000020 38 d4 ee 3c 1a ae 3e 3c e4 29 40 3d 2d 57 90 3c
       0.029153928 0.011638189 0.04691495 0.017619694
000030 5e 6d 76 bd c5 62 0c 3d 3b ad 2b bd 5d 96 63 bc
       -0.060162894 0.03427388 -0.041913252 -0.01389083
000040 5b 4b 82 bc 2a 4d 25 bc 2a 7e a3 bc d0 3c 0f bd
       -0.015905073 -0.010089198 -0.01995762 -0.034970105
000050 21 ed 4a 3c f8 85 20 ba 23 77 f8 bc 39 a6 69 3b
       0.0123856375 -0.00061234785 -0.030330246 0.0035652055
000060 44 0d 6a bb ac 76 a8 bc 1a 77 86 3c 44 af 6c 3d
       -0.0035713473 -0.0205644 0.016414214 0.057784334
000070 14 ad 4b bc 63 b7 05 bd c1 9c 0e 3d 0e 0e 91 3c
       -0.012431402 -0.032645594 0.03481746 0.017706897
000080 95 a5 82 3d 1e 5b 97 3c bc 9e 05 bd c2 48 13 3d
       0.063792385 0.018476065 -0.032622084 0.03595806
000090 15 09 1e 3d b2 30 6b 3d 68 92 92 3c 1a 08 32 bd
       0.03858288 0.057419486 0.017892078 -0.043464758
0000a0 c9 95 cc bc c9 0c ec 3c 00 01 5d 3b c1 bd bd bd
       -0.024973767 0.02881469 0.003372252 -0.09264708
0000b0 94 0b 0f 3d 86 c3 1a 3d d5 05 47 bc 18 6b b9 3a
       0.03492315 0.037784122 -0.012147387 0.0014146296
0000c0 fe 52 5f 3d 2a 1e 7f bd 64 9e 98 bd d5 ed a1 3c
       0.054522507 -0.062284626 -0.074520856 0.019766727
0000d0 9a 5e 84 bd 73 f6 6a bb 31 86 2a bd af a3 c4 3c
       -0.06463356 -0.0035852462 -0.04163188 0.024003832
0000e0 10 c6 af 3c 60 99 ad bc f1 8f b5 bc 49 b8 19 3b
       0.021456748 -0.021191299 -0.022163363 0.002345579
0000f0 9e 4c 14 3d b9 02 a2 bd c4 77 5a 3d 5d 84 01 bd
       0.03620588 -0.079106756 0.053336874 -0.031620372
000100 08 1e 09 bd 61 f4 fb bc a8 95 86 3d 80 89 50 3b
       -0.033475906 -0.030756177 0.065715134 0.0031820238
000110 14 2f 9b bb 58 51 4c bd 7d 90 a3 3c 21 40 76 3d
       -0.0047358368 -0.049882263 0.019966358 0.06011975
000120 e2 50 dd bc 2c ef 98 bd b9 81 c3 bc 53 1c 17 3c
       -0.027016107 -0.074674934 -0.023865568 0.009223062
000130 f7 74 a6 3c 9e 43 39 bd e9 52 bb bd e7 43 06 bd
       0.020319445 -0.0452305 -0.09146673 -0.0327796
000140 56 9b f7 bc 09 3b 93 bd c3 31 82 3c 03 a3 b7 3d
       -0.030225437 -0.071889944 0.015892869 0.08966639
000150 57 e4 72 bd c5 b1 47 3d 2b f0 fa bc 2b ae 0d bd
       -0.059299793 0.04875352 -0.0306321 -0.034589928
000160 04 f9 bf bd fb 9e ee 3b 98 53 80 3d c6 b8 0c bd
       -0.09373668 0.0072821355 0.06265944 -0.0343559
000170 18 57 84 bc 4e ec c2 3c de fb 92 3d b9 1d b9 3c
       -0.01615481 0.02379432 0.07176946 0.02259718
000180 84 32 86 bb 83 bb 53 bd 75 01 65 bc 21 3a 31 39
       -0.0040953774 -0.051692497 -0.013977398 0.0001690169
000190 2e 18 97 3c ca d2 48 bc 2a 0b 3b bd 24 8c 2c 3d
       0.018444147 -0.012257287 -0.045664944 0.042125836
0001a0 08 c6 77 3c ec 88 83 bd f5 58 08 bd cf 17 5e bd
       0.015122898 -0.064226 -0.03328796 -0.054221924
0001b0 ee c4 a6 3b 96 de 8b bd 2e e0 1a bd 6e 5b 03 3c
       0.005089394 -0.06829564 -0.03781145 0.008017404
0001c0 65 ba 48 bd 29 b3 52 bd 7c 1b ab bc 2f d2 05 3d
       -0.049005885 -0.05144039 -0.020887129 0.03267115
0001d0 06 d5 b3 3c f9 a7 50 bc a3 34 bc 3b 80 87 4e 3c
       0.021952163 -0.01273536 0.0057435795 0.012605548
0001e0 99 92 13 bd 6c e3 fc bc ad 36 58 bd 24 8c 03 3d
       -0.03602848 -0.030870162 -0.052786518 0.03211607
0001f0 54 59 f1 bb ad 56 29 3d f1 40 67 bd 5a 62 77 bc
       -0.007365385 0.041342426 -0.056458417 -0.015099132
000200 11 a3 e9 3c 85 5f 1f bd 62 5b d7 3c ab 1e c9 bc
       0.028520139 -0.038909454 0.026288692 -0.024550756
000210 fb c3 be bd 90 e0 ca 3b f9 89 61 bd a3 d9 26 bd
       -0.09314724 0.0061913207 -0.05506322 -0.0407349
000220 60 27 97 bd a3 4c 50 bd 03 3c 33 3b 70 7b 64 bb
       -0.07380557 -0.050854336 0.0027349002 -0.0034863614
000230 a4 5a 22 bd 6a 84 37 bd 6e 6d 64 3c 24 db 4f ba
       -0.039637223 -0.044804014 0.013942106 -0.0007929078
000240 09 11 af 3b f7 da 43 bd 7c 64 48 3d e6 7e 81 3b
       0.005342607 -0.047816243 0.048923954 0.003951895
000250 55 7d 02 bc 2f f0 1b bd 9e 18 12 3d de 2d 8b bc
       -0.007964452 -0.038070854 0.035668008 -0.016989645
000260 b3 09 29 ba 0b 2a 47 3c 24 c1 77 bd 2b 3f 0f 3d
       -0.00064482837 0.01215602 -0.060486928 0.03497235
000270 a6 f5 d4 bb 71 26 d0 3b a3 f4 14 bc 64 15 41 3c
       -0.00649901 0.006352239 -0.009091529 0.011784885
000280 35 76 70 bd 04 f0 4d ba df 1b 40 3d 89 4c 8c 3d
       -0.05870648 -0.00078558945 0.04690158 0.068505354
000290 7b 84 53 bc 1d a2 a6 3d 42 44 49 bd 20 63 d8 3a
       -0.012910004 0.081363894 -0.04913736 0.0016509034
0002a0 c0 44 05 3d 9e cb 0f 3d 31 e2 00 bd 92 af 1a 3d
       0.03253627 0.035106294 -0.031465713 0.037765093
0002b0 4a bc 28 bd 4e 56 8b 3d 55 e7 37 bd 09 93 01 bd
       -0.04119519 0.06803571 -0.04489835 -0.031634364
0002c0 d2 bb 0d bb 59 8b f0 3b 54 24 48 bd d5 e4 86 3d
       -0.0021626842 0.0073408303 -0.04886277 0.06586615
0002d0 07 bf 40 bc 59 14 6d 3c e9 f9 01 3d 21 fc 93 bc
       -0.0117642945 0.014470183 0.031732474 -0.01806456
0002e0 9a 2c 35 bd bc 49 bf bc d1 56 99 bd 40 58 42 3c
       -0.04423199 -0.023350589 -0.07487262 0.011861861
0002f0 3c 7e a4 bd 66 55 0a bc 44 a5 b4 3c 90 46 37 3c
       -0.0803189 -0.008443212 0.022051461 0.011186257
000300 60 be c5 ba f8 f4 a9 bd 12 45 52 bd fd 7e 0e 3c
       -0.0015086643 -0.08298677 -0.0513354 0.008697269
000310 32 88 ce 3b 12 bb 04 3d 1d 43 a6 3b 02 29 42 bc
       0.006302857 0.032404967 0.0050739185 -0.011850597
000320 5e 93 b0 3c 71 73 1f 3d d1 f7 41 bc ce 3d 3f bd
       0.021554645 0.038928453 -0.011838869 -0.0466898
000330 e3 05 59 3c c6 81 9f 3c cf e2 7b bc 87 70 6c 3d
       0.013246032 0.01947106 -0.0153739 0.057724502
000340 ea 73 bc bc 9c 4e 5f 3c 49 51 c7 3c ed d4 a1 3c
       -0.02300449 0.013629582 0.024330752 0.019754851
000350 0d 5f 8b 3c 49 dd 8e bc 12 c9 00 bd 0e 4a 15 3d
       0.017013097 -0.017439501 -0.031441756 0.036447577
000360 fc 1d 66 bd 2e 47 08 3c a3 cd a7 bc b1 95 b8 3c
       -0.05618094 0.008317752 -0.020483797 0.022532316
000370 9d 6e 64 3d 5d 3d 82 3d 33 cf 02 3d 75 93 5b 3d
       0.05576955 0.0635936 0.03193588 0.053607423
000380 90 87 d9 bd 64 f7 bf 3c 14 9c 88 bc 5e 84 31 bc
       -0.106215596 0.023433395 -0.016675986 -0.010834781
000390 b7 90 4c 3d f8 9a 22 bd 6a 72 94 3c b4 b3 49 3d
       0.0499427 -0.03969857 0.018120963 0.049243644
0003a0 ed be d5 3c 63 6d 01 bd 6a ad 03 bc 6a d5 bd 3d
       0.026092017 -0.03159846 -0.008036951 0.09269221
0003b0 7e df 09 bd c2 dd 66 3d ec 41 c5 3d 52 73 63 bd
       -0.033660404 0.05636383 0.09631714 -0.0555299
0003c0 37 47 6a bd bf bc 58 3d 82 f4 f7 bc bc c5 87 bc
       -0.057196822 0.052914377 -0.030267958 -0.01657378
0003d0 f8 87 88 3c 7d b6 52 3d 2c 0f f0 bc 33 36 b9 bc
       0.016666397 0.051443566 -0.02930411 -0.022608852
0003e0 fd a7 b2 bd a8 75 3b bb 2b ba a8 bc f0 51 b6 3b
       -0.087234475 -0.0028604064 -0.020596584 0.005563967
0003f0 93 b9 a3 3b 85 4c 52 3d f9 6d 61 bd 24 fe 47 bc
       0.0049964874 0.051342506 -0.05503652 -0.012206588

conv_layers.3.bias f4 [64]
000000 16 82 59 be 6d fe e1 bc b1 8f 4d 3d 15 41 c8 bd
       -0.2124103 -0.02758714 0.050185863 -0.097780384
000010 41 ff 45 bd 98 9d 13 3c 3d 00 84 bd 68 95 02 bc
       -0.048339132 0.009009741 -0.06445358 -0.007970192
000020 69 44 f2 3c 7c 04 22 be a4 09 27 bd d2 b8 b9 3c
       0.029573636 -0.15822023 -0.04078068 0.022671137
000030 76 f6 1a 3c 84 3f c5 bc b6 ef 6d 3d f5 4d 96 3c
       0.009458175 -0.024078138 0.058089934 0.01834772
000040 99 02 d4 bd 0a 8d 75 bd 28 94 04 be 3e c7 65 bd
       -0.10352058 -0.05994896 -0.12947142 -0.056098215
000050 6b a7 00 bd 93 cf 09 bc 8b 3b b2 bc 24 17 48 3c
       -0.031409662 -0.008411306 -0.021756908 0.012212548
000060 cf a0 9f bc 17 61 4f bc 24 5b 79 3d 24 c6 a0 bc
       -0.01948586 -0.012657425 0.060877934 -0.01962573
000070 a6 c5 c4 bd b4 a3 90 3c d5 71 12 bd be 8e ce 3a
       -0.09608011 0.017656185 -0.03575309 0.0015759093
000080 1f 0b e3 3d af b9 22 bd 36 e7 f1 3b 4c c5 97 3d
       0.110861056 -0.039727863 0.007382299 0.07410678
000090 ff 5f 81 3c ff 25 f7 bc e7 4f 8d 3d b6 2a 7f bd
       0.015792845 -0.030169485 0.06900006 -0.06229659
0000a0 2c 45 bf 3d f1 4a 82 3c 01 7c ea 3b fa dd 3c 3d
       0.09339365 0.015904875 0.0071558957 0.04611013
0000b0 ce 29 64 3d ff 0c b5 bd ad 0d c9 3d 3b f0 fc ba
       0.05570393 -0.088403694 0.098170616 -0.0019297668
0000c0 02 ca 56 3d 54 5a fd 3c 7f 61 7f bd 3b f2 9b bd
       0.052438743 0.03092686 -0.06234884 -0.07614561
0000d0 48 50 19 bd 6f 40 17 be e5 af 0c 3d 8a e3 c6 bc
       -0.037430078 -0.14770673 0.034347434 -0.024278421
0000e0 ca 77 9b bc 81 6b fe bc 8f 16 3a 3d 03 f4 70 bd
       -0.018978018 -0.031057121 0.04543167 -0.058826458
0000f0 2c 97 c8 3c 75 c0 01 bb 90 a4 46 3d b4 f5 2c bb
       0.024486147 -0.0019798551 0.048496783 -0.0026391568

fc1.weight f4 [64, 256]
000000 a2 a1 26 bd c7 8a 5b 3c 8e 4e 51 bc c8 e7 22 bc
       -0.04068149 0.013399786 -0.012775077 -0.009942956
000010 80 6e 83 bd b0 0a ae 3c 94 17 57 3d 52 ae b9 bb
       -0.064175606 0.02124533 0.05251272 -0.0056665326
000020 7e b6 1b bd 5c 23 4b bc 06 87 db bc ee 07 67 bd
       -0.038015835 -0.012398567 -0.026797783 -0.056404047
000030 bf f7 a9 ba a8 0d 5e bd c1 75 13 3d af a6 29 bd
       -0.0012967511 -0.054212242 0.03600097 -0.041418727
000040 62 79 43 bd b0 3d aa bc b1 87 1e 39 6f 8d 9e 3b
       -0.04772318 -0.020781368 0.00015118603 0.0048386375
000050 52 40 99 bb ef f7 a2 3c 53 dc a6 3b 0a 5b 8e bd
       -0.004676857 0.019893615 0.0050921827 -0.06950958
000060 77 73 19 3c 65 5b 5b bd 1b 4d 3c 3d dc 18 15 bd
       0.009365908 -0.053553957 0.04597197 -0.03640066
000070 48 c1 b1 3c e3 31 27 3c a9 3f 78 bd 87 ac 22 bc
       0.021698609 0.010204765 -0.060607586 -0.009928829
000080 b3 42 26 bd fe f4 57 bc 8c e3 8d bd 26 b6 e8 3c
       -0.040590953 -0.013180969 -0.06928167 0.028407168
000090 a4 16 27 bb 68 1a 98 bd f3 59 82 bd f8 9f da 3c
       -0.0025495673 -0.074269116 -0.06364813 0.026687607
0000a0 9d 3e 0c bb b6 a8 09 bc 1e 1d 6c 3d 22 88 c6 bc
       -0.0021399625 -0.00840204 0.057644956 -0.024234835
0000b0 99 a1 20 bd 8f 11 ec bc 50 04 8b 3c d9 99 bf bc
       -0.03921661 -0.028816966 0.01696983 -0.02338879
0000c0 a5 12 a3 bd 34 f2 2a ba ff 11 cd bc 2c 79 20 bd
       -0.079625405 -0.00065210764 -0.025032995 -0.03917806
0000d0 25 22 10 bd 8d 51 b6 3c ce c2 36 3d ab 0e dd bc
       -0.035188813 0.022255683 0.044619374 -0.026984533
0000e0 f3 e2 82 bc 66 77 43 3d 7e a2 7b 3c 00 fa 8d 3c
       -0.015977358 0.04772129 0.015358565 0.017331123
0000f0 23 20 e8 3b 8a 75 94 bd ea 50 dd bc a7 b8 d0 3c
       0.007083909 -0.07248981 -0.027016122 0.025478674
000100 3f ac 02 bd fa 6f 54 3c 72 e0 15 3d c0 b5 63 bd
       -0.031902548 0.01296615 0.036591 -0.055593252
000110 74 5a 00 bc ff 25 cc 3c 9e 75 64 bd 6d 47 24 3c
       -0.007834066 0.024920462 -0.05577623 0.010026795
000120 e6 f1 60 bc e6 4a 15 bd 35 f8 b5 bc f4 b1 1d bd
       -0.013729548 -0.03644838 -0.02221308 -0.038499787
000130 b3 05 e4 3a 66 8c 17 3d be 29 de bc eb 07 0a 3d
       0.0017396718 0.03699913 -0.027119514 0.033698957
000140 a2 6c fa 3c 2b 80 21 bd d9 0f e1 3b 23 60 48 bd
       0.030569378 -0.03942887 0.0068683443 -0.048919808
000150 6e 83 70 bc 64 dd 09 3d 4f b6 2b 3c bc 0f 40 3c
       -0.014679773 0.0336584 0.0104804775 0.011722501
000160 80 8e cd bc a8 10 34 3c fd 93 dd 3c c5 24 46 bd
       -0.025092363 0.010990299 0.027048105 -0.04837491
000170 0c f1 5e ba bf 78 7c bd 3e df 6e bc 21 4f 67 3d
       -0.0008504547 -0.06163859 -0.014579592 0.056471948
000180 f6 cb ee 3c ed d5 54 3d a8 be 31 bd 67 80 20 bc
       0.02914999 0.051961828 -0.043394715 -0.0097962385
000190 84 ce 93 3c b5 dd 1a bd 44 2b ad 3c f0 16 f4 3b
       0.01804281 -0.037809093 0.021138795 0.0074490234
0001a0 c8 ec 38 3c d6 5f 4c 3d 97 25 97 bd 07 ce 6c bd
       0.011286922 0.049896084 -0.073802166 -0.05781367
0001b0 a8 52 f5 3a 7d 5c 64 bc ba 9d 3d bd b6 9f a0 bc
       0.001871665 -0.013938067 -0.046292998 -0.019607406
0001c0 ad ed a6 bb 92 29 7b 3c 4e de 39 3c 60 39 08 b9
       -0.005094251 0.015329735 0.0113445055 -0.00012991345
0001d0 87 59 81 bd 7f 12 57 3c f5 34 ca bc ba d0 ae bb
       -0.06315904 0.013126968 -0.024683455 -0.0053349407
0001e0 b4 33 c1 bc ba 83 32 bd aa 27 88 3c 6f a9 d1 3c
       -0.023584224 -0.043582655 0.016620476 0.025593488
0001f0 01 2b 1e bd 87 ed 61 bd 86 05 e2 3b f7 fc a6 bc
       -0.03861523 -0.055158164 0.006897631 -0.020384295
000200 ac 1c 7f bd d7 44 2a 3d 5a 82 cb bb c9 34 c1 3c
       -0.062283203 0.041569557 -0.0062106075 0.02358474
000210 74 7f 5a bd 4b d6 80 bd 01 20 b9 bc 1b c1 22 3d
       -0.053344205 -0.06290873 -0.022598268 0.03973494
000220 e0 3a b2 3c c5 b5 42 bd b9 a8 b0 3b 35 97 0e 3c
       0.02175659 -0.04753663 0.005391207 0.008703043
000230 c7 d5 9a bd cb a6 2d bc ff ba f1 3a 61 4e a6 bc
       -0.07560306 -0.010598849 0.001844257 -0.020301046
000240 c5 05 38 3d cb 91 43 3d 4f 55 2b 3d 7f 93 04 3d
       0.044927377 0.04774646 0.041829403 0.032367226
000250 cc bb aa bb 49 35 38 3b 83 73 75 bd 62 67 07 bd
       -0.0052103754 0.0028107932 -0.059924614 -0.033057578
000260 79 e2 66 bd a8 61 3a 3c c8 ba bc bc 6a 80 80 bb
       -0.056368325 0.011375822 -0.023038283 -0.003921558
000270 29 3b 94 bc cc 2e 84 bd 20 f8 0d 3d 90 0d 42 bd
       -0.018094616 -0.06454238 0.03466046 -0.047376215
000280 04 0e 48 3d 9a 30 20 3d bf 43 02 bd 09 39 b8 bc
       0.04884149 0.03910885 -0.03180289 -0.022488134
000290 1b 9a 2b bd 1a fb 65 bd 9d 19 33 bc 71 1e 81 bd
       -0.041895013 -0.056147672 -0.0109314 -0.06304634
0002a0 f3 f7 28 3d 85 52 17 3c e4 82 54 bd 4c 7f a8 bc
       0.041252088 0.009235983 -0.05188264 -0.020568512
0002b0 e9 c4 23 bd 11 be 86 bc 0e 3f 6a bd ee 59 6f 3d
       -0.03998271 -0.016448053 -0.05718904 0.058435373
0002c0 83 51 d7 bc eb 0a b1 3b 16 4a b5 bc 92 9a 08 3d
       -0.026283985 0.005402913 -0.022130053 0.033350535
0002d0 c6 68 23 3c 98 4b 9e bc 6d 1c ff 3c ec 3b 3f bd
       0.00997371 -0.019323155 0.031141484 -0.046688005
0002e0 78 9e 1c bd 29 f4 89 bd 0e 7f c4 bc 3b ef 85 bd
       -0.038237065 -0.06736023 -0.023986366 -0.0653977
0002f0 bc a7 93 bd 04 a4 fe 3b 04 1f 43 bb 6d 3c b2 3b
       -0.07209727 0.007771017 -0.0029773125 0.005439332
000300 bf 59 8b 3c 7c 00 00 bd f4 55 aa bd 9c d4 13 bd
       0.017010568 -0.031250462 -0.083171755 -0.036091432
000310 7a a0 0e bd 4b 81 72 bd d2 e3 66 bc 21 76 f5 b9
       -0.03482101 -0.059205335 -0.0140924025 -0.00046818054
000320 dc be 10 3c d9 5e 81 bd 55 1f 92 bb d7 37 1b 3d
       0.008834567 -0.06316919 -0.0044593015 0.03789505
000330 6f 15 45 3d ff be 81 bd 15 f3 ac bc 43 1c d6 3b
       0.048116144 -0.06335258 -0.021112004 0.006534131
000340 85 4d ea bb cb 9a 2a 3a 00 d6 9c 3b 40 01 52 3d
       -0.0071503543 0.00065080513 0.004786253 0.051270723
000350 7a 56 d2 3b 61 fd b1 bd b2 fa c0 39 33 53 8a bd
       0.006419 -0.08690906 0.00036807876 -0.0675415
000360 74 c8 4b 3c 49 bd 94 bb 43 99 ed bc ef ff 0e bd
       0.0124379285 -0.004539166 -0.029003745 -0.034912046
000370 30 cb 16 3d 2d b3 0d 3c 26 6f 4c 3d 6c 87 6e bc
       0.03681487 0.008648676 0.049910687 -0.014558654
000380 de e9 6f 3c e3 f9 23 3d 07 72 d8 bc cd a3 2e bd
       0.014643161 0.040033232 -0.02642156 -0.04263668
000390 bd d1 37 bd 49 75 dc 3b 0d 0e 9b bd 5b bb 65 3c
       -0.044877756 0.0067278487 -0.07571039 0.01402172
0003a0 8d 46 bd bc 69 f7 2a 3c 5d 1f 37 bd a9 e0 cd bc
       -0.02310493 0.010434964 -0.044707645 -0.02513154
0003b0 a0 b5 0c bd d7 d9 c2 bc e4 44 98 3b 6e ac 46 bd
       -0.0343529 -0.023785515 0.0046468843 -0.048504286
0003c0 41 b8 cb 3c 0e fe 23 bd 5f 9f 18 ba 80 cd 37 bd
       0.024868133 -0.040037207 -0.0005822088 -0.044873714
0003d0 c3 4f 37 bd 7e 99 10 bd 83 0b e0 3c 2d 80 55 3d
       -0.0447538 -0.03530263 0.02734924 0.05212419
0003e0 55 d0 b8 bc 22 5e e3 bc 31 33 38 bd e6 67 78 bd
       -0.022560278 -0.027754847 -0.044970695 -0.06064596
0003f0 65 5d 55 3d c9 2e 28 bd a2 9c 1d 3d c8 0e b5 3b
       0.05209102 -0.041060243 0.038479455 0.0055254437

fc1.bias f4 [64]
000000 ef 5d 4c bd 69 5e 74 bd 3c 4e 78 3c 81 aa c3 3c
       -0.04989427 -0.05966035 0.015155371 0.023885014
000010 55 d5 0d 3d 28 47 94 3c 04 79 d5 3d 68 f8 e6 3d
       0.034627277 0.018100336 0.104234725 0.112778485
000020 64 d3 af 3b 98 7a c0 3d b7 c4 b2 3c 45 11 bf 3d
       0.005365776 0.09398383 0.021822317 0.09329466
000030 10 6a 57 bd 51 21 fa 3c aa 3e 9f 3c c8 ac 23 3d
       -0.052591383 0.030533465 0.01943906 0.0399597
000040 04 08 95 bc 85 5e f9 3b 5f 6d 88 3d 6d 68 b9 3d
       -0.018192299 0.0076101446 0.06661486 0.09053121
000050 e1 b0 0b bc 73 5a 60 3c df 55 ea 3d 22 f3 03 3d
       -0.008526058 0.01369344 0.1144216 0.03221429
000060 eb 6f 5f bd 4f 9c 54 3d 0e bc 8a 3a 41 8b a6 3c
       -0.054550093 0.05190688 0.0010584609 0.020330073
000070 6c fa f6 3d dc 63 34 bd d9 e6 6d bd ac 34 41 3c
       0.12059483 -0.044040546 -0.05808148 0.011792343
000080 15 2b 22 bc d4 40 0a 3e 16 d8 af bd 13 16 be 3d
       -0.009897967 0.13501292 -0.08586137 0.09281554
000090 a3 0a b9 bb a8 61 1c bd 3e 97 a4 3d bb f8 21 bc
       -0.00564702 -0.03817907 0.0803666 -0.009885962
0000a0 45 90 4f 3c fc cf 91 bc 64 00 d4 3c 0e 83 03 3c
       0.012668674 -0.01779937 0.025879093 0.008026851
0000b0 06 f5 15 3e 11 1d 78 bd 1c 12 e8 bc 6b 14 ef 3d
       0.1464425 -0.060574595 -0.028328948 0.11673816
0000c0 f4 8c ab 3d 82 a4 8c bd 35 69 d1 3c ae eb 92 bd
       0.08376494 -0.06867315 0.025562862 -0.071738586
0000d0 71 c1 d8 3c 90 77 4b 3d da b1 90 3c 51 41 3d 3d
       0.026459428 0.04967457 0.017662931 0.04620487
0000e0 63 a6 f5 3c 3c 4a c7 3d 55 a4 68 bd e2 9f 5d 3d
       0.029986566 0.09730956 -0.056797344 0.054107554
0000f0 fe 3b 6a 3d 2d 0d d7 3c 9c 0a 69 bd 83 d5 2d bc
       0.05718612 0.0262514 -0.056894884 -0.010609987

batch_norm.weight f4 [64]
000000 bf 80 77 3f 23 0f 7e 3f 6f 76 7e 3f 18 72 d9 3f
       0.96680826 0.99241847 0.99399465 1.6987944
000010 e5 77 d6 3f a5 61 df 3f f1 99 e2 3f 68 ad d9 3f
       1.6755339 1.7451674 1.7703229 1.7006044
000020 38 f9 77 3f 94 9a df 3f 81 e4 7b 3f 4b 00 ee 3f
       0.9686465 1.7469049 0.98395544 1.859384
000030 1c 5e 7e 3f 13 68 e3 3f c8 26 7d 3f 6f 76 7e 3f
       0.9936235 1.7766136 0.988873 0.99399465
000040 27 43 7e 3f 8e 75 7e 3f 40 19 db 3f 9e a0 ce 3f
       0.99321216 0.99398124 1.7117081 1.6142766
000050 42 09 dd 3f 5f 16 ce 3f 3d 5e c9 3f ab 38 7b 3f
       1.726845 1.6100577 1.5731884 0.98133343
000060 bf a8 7d 3f ad 2c e3 3f ab 83 7d 3f 0e 8c 78 3f
       0.9908561 1.7748009 0.99029034 0.97088706
000070 02 83 d1 3f 00 00 80 3f ec 4f 7e 3f 75 dd 7d 3f
       1.6368105 1.0 0.993407 0.9916604
000080 b6 20 f5 3f 43 6a d5 3f e7 93 78 3f 86 48 da 3f
       1.9150608 1.6673054 0.9710068 1.7053382
000090 e6 88 d4 3f 6d 76 7e 3f a7 8e cc 3f 20 0b 7b 3f
       1.6604278 0.99399453 1.5981034 0.9806385
0000a0 bc 9b 80 3f 51 33 d8 3f 4b c9 d7 3f 72 50 d3 3f
       1.0047526 1.689066 1.6858305 1.6508925
0000b0 12 d0 c9 3f 09 87 7c 3f 00 00 80 3f 3c bd ce 3f
       1.5766623 0.9864355 1.0 1.61515
0000c0 7e 15 dc 3f 16 96 7c 3f 38 e1 7d 3f 9e fb 7c 3f
       1.7194059 0.9866651 0.9917178 0.9882144
0000d0 da 31 7e 3f 00 00 80 3f f2 1e 7d 3f d2 10 c9 3f
       0.9929482 1.0 0.98875344 1.5708258
0000e0 19 80 7e 3f 88 1a cf 3f 10 e7 7a 3f 24 17 d4 3f
       0.9941421 1.6179972 0.98008823 1.6569562
0000f0 e5 8e d6 3f 72 76 7e 3f a7 08 7d 3f 59 2e 7e 3f
       1.6762358 0.99399483 0.9884133 0.9928947

batch_norm.bias f4 [64]
000000 b5 d0 ee 3d e3 ab 0e be 19 d2 24 be 19 12 b5 bc
       0.116609015 -0.13932757 -0.16095771 -0.022103356
000010 b0 d6 5c be 95 37 19 bd 75 f1 bd bd 3c cd 86 3c
       -0.21566272 -0.037406523 -0.0927457 0.016455285
000020 d4 c8 e9 bd 41 1b e9 3d 4d fc 4e 3e b7 c4 ff 3d
       -0.11415258 0.113821514 0.20213433 0.12488692
000030 59 aa e9 3d 8a c4 32 3d de 72 06 be 56 fd 43 be
       0.11409444 0.043644466 -0.13129756 -0.19139609
000040 3f b8 3c be 47 91 21 3e 7d 17 37 be 52 14 fa 3d
       -0.1842966 0.15778075 -0.17880054 0.12210907
000050 43 83 b8 bc 5c 39 ae 3d 08 49 84 3c c3 68 0f be
       -0.022523528 0.08507034 0.016148105 -0.14004807
000060 25 e0 e9 3d 42 77 c1 3d fd d2 25 3e 26 11 30 be
       0.11419705 0.09446575 0.16193767 -0.17194042
000070 11 73 80 be a3 eb 10 be e9 55 1b be 52 b2 3e be
       -0.2508779 -0.14152388 -0.15169491 -0.18622711
000080 c0 15 0e bd cd 7f 4b bd 14 50 1d be 46 47 83 bc
       -0.03468871 -0.049682427 -0.15362579 -0.016025197
000090 36 09 62 be 93 77 23 3e b1 2e 05 bd e2 de 61 bb
       -0.22073826 0.15963583 -0.03251523 -0.0034465124
0000a0 73 46 2c be c3 e1 76 bd bd 55 11 be d0 cb 7e bd
       -0.16823749 -0.060273897 -0.14192863 -0.06220609
0000b0 c0 a4 f8 bd 8a d5 12 be 75 f5 f4 3d e5 7b 88 3c
       -0.121407986 -0.14339271 0.1196088 0.01666064
0000c0 f5 9f d4 bb 7d 2e cd bd f3 22 f4 bd 0a 26 17 3e
       -0.006488795 -0.100186326 -0.119207285 0.14760605
0000d0 c4 96 17 3e 90 f5 e2 3d 95 9d 10 be f3 04 a3 3d
       0.14803606 0.110819936 -0.14122613 0.07959928
0000e0 fd f3 08 be bd 50 ef 3d 74 b6 38 3e 3d 6d 00 3d
       -0.13374324 0.116853215 0.1803835 0.031354178
0000f0 09 42 b0 3d 3e 1a 19 3e 53 75 5e 3e 45 5f e1 3d
       0.08606345 0.14951417 0.21724443 0.11004499

batch_norm.running_mean f4 [64]
000000 ab 45 aa 21 04 00 00 00 04 00 00 00 b9 32 92 40
       1.1538089e-18 6e-45 6e-45 4.5686917
000010 0b b8 17 39 61 82 7d 39 48 23 85 40 04 ea 39 40
       0.00014469044 0.0002417653 4.160557 2.9049082
000020 04 00 00 00 40 6b 95 40 04 00 00 00 f6 7b 03 40
       6e-45 4.669342 6e-45 2.054441
000030 04 00 00 00 c0 95 cc 3a 04 00 00 00 04 00 00 00
       6e-45 0.0015608594 6e-45 6e-45
000040 04 00 00 00 04 00 00 00 58 92 9c 40 ae 78 15 40
       6e-45 6e-45 4.892864 2.3354907
000050 08 ea e2 3f 32 e0 f5 40 6e 94 06 41 04 00 00 00
       1.7727671 7.6836176 8.411238 6e-45
000060 04 00 00 00 74 ac 8a 40 04 00 00 00 04 00 00 00
       6e-45 4.3335514 6e-45 6e-45
000070 ce 7b 5b 40 00 00 00 00 04 00 00 00 04 00 00 00
       3.4294314 0.0 6e-45 6e-45
000080 ab 40 2e 40 30 a8 2c 40 b7 c8 3b 18 00 8b 8b 40
       2.722697 2.6977654 2.4270519e-24 4.360718
000090 b6 b5 89 40 04 00 00 00 d2 8b 24 40 04 00 00 00
       4.3034315 6e-45 2.571034 6e-45
0000a0 e6 c2 0b 03 2b 19 ab 40 b1 5f 1d 40 92 b8 e8 3e
       4.107216e-37 5.3468223 2.4589655 0.45453316
0000b0 a2 6b 3e 40 04 00 00 00 00 00 00 00 ce 16 40 40
       2.9753194 6e-45 0.0 3.001392
0000c0 d3 ec 27 3d 04 00 00 00 04 00 00 00 04 00 00 00
       0.040997338 6e-45 6e-45 6e-45
0000d0 04 00 00 00 00 00 00 00 04 00 00 00 b2 03 1c 40
       6e-45 0.0 6e-45 2.4377255
0000e0 04 00 00 00 4e aa d3 40 04 00 00 00 16 cb 55 40
       6e-45 6.614539 6e-45 3.3405204
0000f0 28 30 f8 40 04 00 00 00 04 00 00 00 04 00 00 00
       7.7558784 6e-45 6e-45 6e-45
