models/YOASOBI/classifier_fold4.pth (torch, 991011 bytes, 16 tensors)

conv_layers.0.weight f4 [64, 256, 2]
00000000: 1206 853d 1e7b 373d dccc 173b c22e 3b3d
00000010: 5b0b abbc 9f53 acbb 2d7b 10bc 0c9d a83d
00000020: 52a4 e3bc 2c3c 2fbd 5afc 4abd 90d6 e7bc
00000030: ee13 a8ba b612 a73c adf7 e63c dec0 fdbc
00000040: 6ca3 a33c d0e1 d4bc 0024 5fbd 8d19 a43c
00000050: f82b 99bc 99f4 fa3b 1823 5cbd 2c9d 6a3c
00000060: 16fa 8f3d 56c0 17bd 6e20 f73c e065 1bbd
00000070: 0ec4 f53c 19ec c83b a75c 443d c12d a63d
00000080: 3a90 093d c137 4a3d 541b a8bc 3f95 22bc
00000090: 8c5c 7fbd 3fab a2bc b073 7bbd b83e 13bb
000000a0: f74b 05bd e68a cf39 5899 ac3c 1e5b 25bd
000000b0: 826d 29bb 1a03 b93c 919d fe3c 0799 1a3d
000000c0: e529 f03b 8ada 513c fee6 423c 1be5 073c
000000d0: 4131 da3c 5763 27bd 56a7 fabc d36b f5bc
000000e0: 7a3a 03bd 55fd f63c bb46 a6bd 47cf d2bb
000000f0: 0c49 173d 1dfe 973d 18ad afbd 8c21 d4bc
00000100: de04 02bd ef8e afbb 6e80 11bd 3d7a 68bb
00000110: 384e bebb dd4a 04bd c8b6 57bc b4bd 7f3c
00000120: 668e cabc bde0 6cbd 9f3c 0f3c 6754 3a3d
00000130: 73f4 efbb 9133 5abc 1bbf 0e3d 596b 04bd
00000140: 91a1 d8bc 535c 5b3a fec0 12bc e82b 8dbc
00000150: 4f83 7b3d 9a55 93bd 387e 84bd 7556 41bd
00000160: 7e73 81bb a240 3d3c 0275 133d 50f8 803c
00000170: ae63 22bd 422d 5cbd ceb6 f9b9 d2f0 95bc
00000180: 09e1 aabd 791c d3bc 6c32 93bd 3dad c53c
00000190: 9424 183d 9dda 1a3d fdf9 8e3c 4c77 2fbd
000001a0: 4457 0f3c 56b7 f23c 14de 08bc 83c1 163a
000001b0: 3594 dcbc 4cd9 98bc 31f9 a53c b130 28bd
000001c0: f079 523d 9800 ddbc 99cc 943d 3e2a 283d
000001d0: a087 b93b 84ce c03c c3d3 6f3c 1e78 713c
000001e0: f8e7 3c3c f976 4cbc f0e3 7fbc e2ec 6bbc
000001f0: 03b0 753d 0de6 2c3d 7c46 cb3c 3818 bbbc
00000200: 5e2e 01bd c002 b9bd 5db7 5c3d f427 c3bc
00000210: 7d50 163d 1bfd b6bc 58d5 c33c 7cf4 ba3b
00000220: f49b 22bd 4f14 c039 d10b 22bd aed1 2a3d
00000230: f472 e03c bff5 35bd 7cbf 4c3d 1c40 6f3d
00000240: 0277 e83c b434 cf3c a288 cabc 6680 b23c
00000250: 298b 2dbd 7b34 183b 9c66 00bd 2c29 c43c
00000260: 1d07 3b3d 14ad 133c e635 eeb9 b78c 013c
00000270: 3e5c 063d bbd5 693c 1484 0d3d f311 0c3d
00000280: 54ef 063d 42bd a7bc 579f 203c 7371 1cbd
00000290: 8132 b43a 15c4 0e3d de0a a83c 79a6 6cbd
000002a0: 1f13 d2bb 229b e4bc d977 e03b 6b87 14bd
000002b0: 01b4 04bc 87f8 5c3c 7894 1d3d 3032 76bb
000002c0: 1cd2 8ebd 293a 98bb a248 cc3c f9b8 00be
000002d0: f575 c23c 3978 0c3d d3f0 cf3c ba75 a3bb
000002e0: bb4d 223c 505c a2bd 97c4 c8bb bad3 d93c
000002f0: f58b 3cbd 550c 133d 1114 f4bb cc2c 02bd
00000300: 01b6 87bd 684a 7f3d 6905 babc 0a86 f139
00000310: 540b 243c 45c9 70bd 13ee fabb 4815 a63c
00000320: 9c11 b93b 7a86 cfbc 5443 043d 9aeb 85bd
00000330: b968 89bd 05c5 223d 4eb3 8b3c 9b9e b93d
00000340: ab3c 94bc 4563 d7bc 8193 45bd 9919 93bc
00000350: 4e18 03bc ed4e 933c a2bf 023d b2ec 4ebd
00000360: 1da1 5abd 1ff7 683d 5799 543b 0c8c 233d
00000370: 40ff 603d a018 2d3d d724 3a3d 2929 583d
00000380: 1529 f8bc 6016 11bd a404 c03d 8525 c63c
00000390: ce80 dcbc 20ff cabc eeac 7439 ada4 87bc
000003a0: c2f6 4d3d fa36 43bc 7d94 9b3c 5817 3c3d
000003b0: 1f2d 2abc 123a 0d3d 8770 273c f36e 39bb
000003c0: 4f87 38bd 1b93 ce3c e327 b63a 3810 023d
000003d0: 03c9 9b3d d80b 57bc 9361 dc3c f9f0 10bc
000003e0: c5f2 7ebb dfd1 1dbb 8687 f5bc f81e 08bd
000003f0: e5dc 2a3d 623a 78bd 4754 2b3d d507 3d3c
0.064952984 0.044795148 0.0023162877 0.04569889 -0.020879438 -0.005258992 -0.00881843 0.08233079
-0.027788315 -0.042781994 -0.049557067 -0.028300554 -0.0012823322 0.020394664 0.028194273 -0.030975755
0.019975387 -0.025986582 -0.05447769 0.020031715 -0.018697724 0.007658553 -0.053744406 0.014319699
0.07030122 -0.03704866 0.03016683 -0.037938952 0.030000713 0.0061316607 0.047939923 0.081141956
0.03358481 0.049369577 -0.020520844 -0.009923278 -0.06234412 -0.019857047 -0.061389625 -0.0022467803
-0.03254315 0.00039585604 0.021069214 -0.0403701 -0.0025852625 0.022584487 0.031080993 0.037743594
0.007329213 0.012808451 0.011895893 0.008294369 0.026634814 -0.040866222 -0.03059737 -0.029958641
-0.03203819 0.030150095 -0.081189595 -0.006433401 0.036934897 0.07421515 -0.08577937 -0.025894903
-0.031742923 -0.005357615 -0.03552287 -0.003547325 -0.0058076642 -0.032297958 -0.013166137 0.015609194
-0.024726104 -0.057831515 0.008742481 0.04549065 -0.007322842 -0.013317958 0.03485022 -0.032328937
-0.026444228 0.00083679444 -0.008957146 -0.01723285 0.061404523 -0.071940616 -0.06469387 -0.047201592
-0.0039505353 0.011551054 0.03600026 0.015743405 -0.039645843 -0.0537541 -0.0004762918 -0.018303309
-0.08343703 -0.025770413 -0.071873516 0.024130458 0.03714426 0.037806142 0.017453188 -0.04283838
0.008748833 0.029628437 -0.008353729 0.00057508814 -0.02692614 -0.018658303 0.020260425 -0.04106206
0.05138582 -0.026977822 0.072655864 0.04105591 0.0056619197 0.023535974 0.01463789 0.014738111
0.011529915 -0.012479537 -0.015618309 -0.014399739 0.05998231 0.04221158 0.024813883 -0.022838697
-0.03153836 -0.09033728 0.053885806 -0.023822762 0.036697853 -0.022337487 0.023905441 0.0057054143
-0.03969951 0.00036636225 -0.03956205 0.041703872 0.027398564 -0.044423815 0.0499873 0.05841075
0.02837706 0.025293685 -0.024723355 0.02178974 -0.04236904 0.002322464 -0.031347856 0.023945414
0.04566108 0.009013433 -0.00045435055 0.007907084 0.032802813 0.014272149 0.034549788 0.034196805
0.032943085 -0.020475987 0.009803615 -0.03819413 0.0013747961 0.034854967 0.020512994 -0.05777595
-0.006410971 -0.027906004 0.0068502245 -0.036261957 -0.008099557 0.013486988 0.03847167 -0.0037566535
-0.06973669 -0.004645605 0.024936978 -0.12570561 0.023737887 0.03429434 0.025383389 -0.0049883993
0.009906228 -0.079277635 -0.006126951 0.026590217 -0.04603191 0.035900433 -0.007448681 -0.031781003
-0.06626511 0.06232682 -0.022707658 0.0004606697 0.010012466 -0.058785696 -0.007657775 0.02027382
0.005647851 -0.025332678 0.03229077 -0.06539078 -0.067094274 0.039738674 0.017053273 0.09063455
-0.018095335 -0.026292453 -0.048236374 -0.017956542 -0.0080014 0.01798197 0.031921037 -0.0505187
-0.053376306 0.056876298 0.003244003 0.03992848 0.054930925 0.042259812 0.04544529 0.05277363
-0.030293027 -0.03542173 0.09375885 0.024187813 -0.026916888 -0.024779856 0.00023334075 -0.016558016
0.050284155 -0.011914963 0.018991703 0.0459207 -0.010386734 0.03447921 0.0102197 -0.002829489
-0.045050915 0.02521663 0.0013897385 0.03175375 0.07606699 -0.013125382 0.026901996 -0.008846515
-0.0038902026 -0.0024081392 -0.02997185 -0.03323266 0.041714568 -0.060602553 0.04182842 0.011537512

conv_layers.0.bias f4 [64]
00000000: 2e69 3e3b 0c7e aa3c 9e1a a3bc 30c3 9dbc
00000010: 2c14 ac3c 438c 923c 7b1f 54bd c8f2 8bbd
00000020: fece 6abd 0831 55bd a55e 9bbc e99a 763d
00000030: 8d6a 8f3c caf5 f5bb 5053 363b 3aee e8bc
00000040: f705 b33b fa84 f73c 80d7 143d f16b 083c
00000050: f3dc 653d 8037 9d3d 898e cf3b 544f d93b
00000060: 5c0c de3c 5a4c 29bc bdd2 8239 1bc5 42bd
00000070: 8e41 a339 b73e 7f3c cb28 123d 06ea 933d
00000080: bb0a 56bc 7000 0d3d 24ac 05bc 3ef2 07bc
00000090: 6efb b33d db1d d43c a1c2 77bd 9190 9d3d
000000a0: fada acbd c828 76bd 8b52 6ebd f3c3 1dbd
000000b0: dc41 8bba a3e2 2f3d 8015 02bc 19c5 5236
000000c0: 3340 54bd d94a 8c3c 417d 3d3b bdc3 25bc
000000d0: 3413 d0bc 31de 96bd 8ac3 cb3b a599 2d3c
000000e0: 4b32 88bb 1fc6 19bd a8fb 5dbc eb16 1dbc
000000f0: 8b03 9abc ecd8 38bd 6d51 50bd 349a 98bc
0.0029054391 0.020812057 -0.019910153 -0.019258112 0.021005712 0.017889148 -0.051787835 -0.06833416
-0.05732631 -0.052048713 -0.018966028 0.060206328 0.017506862 -0.007506107 0.0027820654 -0.028433908
0.0054633575 0.030214775 0.03633833 0.0083265165 0.056118917 0.076766014 0.00633413 0.006631771
0.027105503 -0.010333145 0.00024952544 -0.047551256 0.00031138625 0.015578917 0.035683434 0.07222371
-0.013064082 0.034424245 -0.008158717 -0.008297501 0.08788191 0.025893142 -0.060488347 0.076935895
-0.08440204 -0.060097486 -0.058184188 -0.03851695 -0.0010624486 0.042940747 -0.007939696 3.1407164e-06
-0.051819038 0.017125534 0.0028913768 -0.010117468 -0.025399782 -0.073665984 0.0062183784 0.010595714
-0.004156386 -0.03754246 -0.013548769 -0.009587984 -0.018800518 -0.045128748 -0.050858904 -0.018628217

conv_layers.1.weight f4 [64, 256, 3]
00000000: dca8 0abc ce5f 78bc b407 a93b 02bf 713d
00000010: 6ca0 f13b d5d1 7c3d b4b6 84bd 9ab5 353d
00000020: af1f 373d c188 76bc 7264 24bc 74d4 923b
00000030: 19d4 e43a ba0e 73bb 2e65 db3c 2678 0cbc
00000040: 4fa4 383c 7f7b 133d 6781 d4bc 4d0c 91bc
00000050: 1441 033d 15fa 4cbd 0de0 b33c f29c dd3c
00000060: dcbc f239 d455 c43c 830f a7bc e442 acbc
00000070: 30e4 553d 765e 8838 80cc 8bbd 2c06 2abd
00000080: 93cd 013b e974 8c3c 5373 0b3b 4cb2 9b3c
00000090: aa49 fdbc cb4f 8c3d 01a0 8d3d 87d7 18bc
000000a0: d067 903c 97d7 36bd 67d0 ed3c d47a 583d
000000b0: 9174 d13c 6a5b afbc 3360 863d b409 71bb
000000c0: c9de aa3c cc97 6ebd b135 253d 0943 9d3c
000000d0: 2df2 b5bb 9f03 343b da2b 963c 34a0 08bd
000000e0: dc83 a6bc 944d 8a3d 5450 233d ec7b 873d
000000f0: 3cb6 29bd bbf5 643d f672 6e3d 9a6a 33bd
00000100: ac2b ce3c 1a9e 3fbb 0994 0c3d 8c9f fcbc
00000110: 4761 103d f1b8 f8bc 8477 353b 8b3e d3ba
00000120: a105 5ebd 288a 0d3d 8123 df3c 3577 2b3d
00000130: 57e7 813d e87c 62bc ad05 1dbd 0b0c b8bb
00000140: c052 bf3c 5f83 01bc 4e4b af3c 7fe4 4bbc
00000150: 6d23 a53c acad 673b aa59 573b 4b59 c8bc
00000160: cfae 1d3d 132a 97bd 136b 2d3c 3163 b4bb
00000170: 3e0a 893b d678 3a3d e7c4 0f3d 2f37 3cbd
00000180: cb70 54bd 18c6 2bbc 45e8 8fbd f3af 4b3d
00000190: 2b46 7b3b da10 21bd b882 003d f239 debc
000001a0: be2b 963b eb39 df3c 1abd 973d cfdf 81bb
000001b0: f0ab 24bc 6dd6 39bc e314 c63b 4748 b13c
000001c0: d08b d63c 73bf ef3c 02ee 31bb 8d7d 733d
000001d0: 7ff1 463d b044 523c b213 06bd c135 493d
000001e0: 4378 d83c 0029 1cbd 36ef 0d3d ca81 f1bc
000001f0: edec d13b 2ff6 b9bc f416 843d 0def a8bc
00000200: 83ae ab3c bfb9 55bd 3d24 7b3d d171 c93c
00000210: 3420 b4bc ac16 803c 3bbc 8b3c 6779 aabb
00000220: 5686 233c d4af 30bd 3d7b 3d3c 911e 2e3d
00000230: 0b68 2e3c 0009 893c 6797 4a3d eeae a7bb
00000240: 024c 0dbd 1f91 a4bc 8fd9 033d 0df2 0e3b
00000250: 45cd 6c3d bc0f 6cbd 17cb 66bd 565b 27bc
00000260: 5e67 093d 5d81 583c 2f90 413b 5a26 1abd
00000270: 7821 bd3c 1207 61bc f36d debb 28bb 95bd
00000280: be29 91bd a38b b4bc dd60 bfbc 0292 923c
00000290: 8a55 593d 7a31 5fbd 780a dd3c 17e5 c6bc
000002a0: 0e79 00bc bc17 0abd 2a65 823c a3a7 4c3c
000002b0: 63a1 0c3c 8522 02bb fcf5 953d 1993 dcbc
000002c0: aac4 d2bb bb63 063d 59bf d2bc 834d 01bd
000002d0: 18b5 ddbb 8575 1b3d 772c 353c f922 b63b
000002e0: b278 4fbd 5f24 88bc 669c 20bd 558b 74bc
000002f0: 282f ffbc 2630 28bd 3453 40bd f409 01bd
00000300: c676 40bc 391b 99bc 3b15 a23a d878 2f3d
00000310: e424 593d 340a 42bb f940 65bd 15f4 d33c
00000320: da80 2cbd b94f 85bd cf7b fbba 7388 bc3c
00000330: 8c1f 803c 9eca 413d bbc4 4c3d 3e6a 0a3d
00000340: 4b20 43bd da29 82bd da44 e738 bb4c b9bd
00000350: b3eb 17bc 76ea d13c 8f55 5cbb c912 b0bb
00000360: ccd6 523d ffcf 84bd 3750 313c 316d 513d
00000370: 005d 493c ca43 08bc 7f2d c7bc f70d f0ba
00000380: ca9d 06bd 4427 45bc 4be9 dfbc 174e 90bd
00000390: 9154 da3c 3011 373d 3b1a 98bc 064a 1a39
000003a0: 948b 10bd 1b92 c1bc 3316 0d3d b470 ee3c
000003b0: 4f1e aabc a7c5 6fba 82dd 6a3d 2601 75bd
000003c0: 10db 823c 70f2 863c 32cc 90bc 8003 643d
000003d0: ad21 dfbc 76b2 883d afd2 07bd 2638 593d
000003e0: 85a6 8dbc 3673 56bd faa6 263d 554f 013c
000003f0: cd64 913c 365d 813d 6718 dd3c 2f32 2bbd
-0.008463111 -0.01515956 0.005158389 0.05902005 0.00737386 0.06172355 -0.0648016 0.044362642
0.04470795 -0.015047253 -0.010033714 0.004480893 0.001745823 -0.0037087635 0.026781645 -0.0085735675
0.011269643 0.036006447 -0.02594061 -0.01770606 0.032044485 -0.050043184 0.021957422 0.027052376
0.00046298548 0.023966707 -0.020393139 -0.02102799 0.05221957 6.50258e-05 -0.06826115 -0.041509792
0.001980637 0.01714559 0.0021278455 0.019005917 -0.030918915 0.06851157 0.06915284 -0.0093287295
0.017627627 -0.044639196 0.029030038 0.052851513 0.025568279 -0.021405894 0.06561317 -0.0036779465
0.020858185 -0.058250234 0.040334407 0.019197004 -0.0055525512 0.0027467979 0.018331457 -0.033355907
-0.020326547 0.06753078 0.03987153 0.06615433 -0.041433558 0.05589841 0.058215104 -0.043802835
0.025167309 -0.0029238523 0.034320865 -0.030837797 0.03524902 -0.030361624 0.0027689645 -0.0016116662
-0.054204587 0.034555584 0.02723861 0.04186173 0.06342953 -0.013823725 -0.03833549 -0.00561667
0.023354888 -0.0079048565 0.021398213 -0.012444614 0.020158494 0.003535132 0.003285984 -0.02445664
0.03849679 -0.07381072 0.0105846105 -0.0055049886 0.004182129 0.045525394 0.03509989 -0.045951065
-0.05186538 -0.010484241 -0.07026724 0.049728345 0.0038341384 -0.03932271 0.031374663 -0.02712724
0.004582851 0.027249297 0.07409115 -0.0039634476 -0.010050759 -0.011342627 0.0060449704 0.02164091
0.026189715 0.029266095 -0.002714992 0.059445906 0.048570152 0.012833759 -0.032733627 0.04912353
0.026424533 -0.03812504 0.034651957 -0.029480834 0.0064064176 -0.022700397 0.064496905 -0.0206218
0.020957237 -0.052179094 0.061313856 0.024590405 -0.021988012 0.01563581 0.017057529 -0.0052024606
0.009980759 -0.043136433 0.011565027 0.04250962 0.010644923 0.016727924 0.049460795 -0.005117289
-0.034496315 -0.02008873 0.032189902 0.0021811754 0.057812948 -0.057632193 -0.056346025 -0.010214647
0.033545844 0.013214436 0.0029535403 -0.03763423 0.023087248 -0.013734596 -0.0067880093 -0.07311088
-0.0708804 -0.02203924 -0.023361618 0.017891888 0.053060092 -0.054490544 0.026982531 -0.02427916
-0.007841362 -0.03371404 0.01591738 0.01249114 0.0085833995 -0.0019857 0.073223084 -0.02692561
-0.0064321356 0.032809954 -0.025726007 -0.03156806 -0.006765973 0.037953872 0.0110579645 0.0055583683
-0.050652213 -0.016618906 -0.039211653 -0.0149257975 -0.031150416 -0.041061543 -0.04695435 -0.031503633
-0.011747068 -0.018689739 0.0012365946 0.042839855 0.053013697 -0.0029608132 -0.055970166 0.025873223
-0.04211507 -0.065093465 -0.0019186678 0.023014283 0.015640043 0.04731237 0.049992304 0.033792727
-0.04763822 -0.06355639 0.00011027763 -0.09047838 -0.009272504 0.025624495 -0.0033620333 -0.005373333
0.051474378 -0.064849846 0.010822347 0.051129524 0.012290239 -0.008316943 -0.024313686 -0.0018314709
-0.032865323 -0.012033287 -0.027332922 -0.070461445 0.026651653 0.044694126 -0.018567195 0.0001471416
-0.035289362 -0.023629239 0.034445 0.029106475 -0.020766405 -0.0009146579 0.057340153 -0.05981555
0.015973598 0.016473025 -0.017675493 0.0556674 -0.027237738 0.06674664 -0.033159908 0.053032063
-0.017291317 -0.052355967 0.040686585 0.007892449 0.01774826 0.06316607 0.026989175 -0.041795906

conv_layers.1.bias f4 [64]
00000000: 86de b4bb b73a 66bd 00f0 d0bc c3dc fbbc
00000010: c444 88bb 2612 e93c f2e6 0d3d fa76 063d
00000020: 954c 6d3b 7ad3 44bb 506c 4e3b 7d70 ea3c
00000030: 501d b1bc 95da 8abc 50a7 04bd f329 203b
00000040: db80 23bd aa1f b83d 51af 1abd e510 cabc
00000050: 3ccb c3bc 8a7b 8d3b 4c45 cb3c 3937 b1bc
00000060: f572 033d 4fb9 653c 3dcc c13c 45ad 3d3c
00000070: 793b 733d bbea 0bbd fec4 ff39 49d2 2d3b
00000080: e8fe 1a3d be96 fb3c 49fc bdbc 1650 303b
00000090: 6483 bfbb 61c7 3c3d 593e 743a 48b3 653d
000000a0: 4168 47bd 2dc3 4abd 13ea 003d d1fb 15bc
000000b0: 663b de3c defd eabc ca41 09bd 99c4 dd3c
000000c0: fd3e 2fbd 6365 583d ef21 193d 74e1 563c
000000d0: 288d a6bc 97d2 153d 172b 653c 124e 77bd
000000e0: d32d 1d3d 370e ab3b e2e8 cbbb c419 24bd
000000f0: 611c 2f3d b641 45ba 4cbb 07bd 1950 77bd
-0.005519691 -0.05620834 -0.025505066 -0.030744916 -0.004158588 0.028451037 0.034644075 0.03282831
0.0036208977 -0.0030033276 0.0031497665 0.028618092 -0.021620423 -0.016949931 -0.032386124 0.0024439066
-0.039917808 0.089904144 -0.03776485 -0.024666259 -0.02390062 0.0043177055 0.024813317 -0.021632778
0.032092053 0.014021232 0.023656959 0.011576955 0.05938289 -0.034159403 0.0004878416 0.0026523045
0.037840754 0.030711528 -0.023191588 0.0026903204 -0.0058445204 0.04608858 0.0009317152 0.05607918
-0.04868341 -0.04950254 0.03147323 -0.009154276 0.027127933 -0.028685506 -0.033510007 0.027071284
-0.04278468 0.052831065 0.037385877 0.013115276 -0.02033098 0.036577787 0.013987324 -0.060377188
0.03837378 0.0052202004 -0.00622283 -0.040063635 0.042751674 -0.00075247453 -0.033137605 -0.06037912

conv_layers.2.weight f4 [64, 256, 4]
00000000: fb15 c83c d1e2 eebc 6ec9 b93c cbbc 2c3d
00000010: 5263 42bd 83f6 903d 3e64 f83b 17d5 2b3c
00000020: fdce 98bc eb0a 903d 4514 973c dec1 9dbb
00000030: ffb0 36bc 08bc 453c cd9b d6bc 6445 93bc
00000040: 8a8b b5bc d7f2 2f3d 3245 92bc bf21 f5bc
00000050: ed31 2b3d 8900 e93c e1e3 06bd b839 89bd
00000060: 3673 493c d37c ddbb 53f9 d73b d524 01bd
00000070: 82a6 3d3d 6471 f8bb 6e16 9b3c c7e3 463c
00000080: 5fbd 6e3b 5b7f 1a3d 4fa4 92bc 67ba 9d3c
00000090: e516 8ebd f8a9 09bc 6d86 83bb 4d02 22bd
000000a0: 45fb 033d 13fd 9c3c b059 21bd c12e 12bd
000000b0: b08c 87bb 17d4 01bd 7438 16bc b678 50bc
000000c0: 5d5b c23b 1225 33bb d531 99bd 88c7 a93c
000000d0: 7d91 323c d16a 0d38 f007 37bd bee7 e4bc
000000e0: 4f96 9f3b f014 9b3c 87b8 29bd 00a1 c1bb
000000f0: 7172 f2bc 68a3 84bb 3349 dd3b aa44 8b3c
00000100: 5a71 843d cdfd 18bd 828a 613d 9cd4 f43b
00000110: 2f90 263d 9018 d03c eee0 853c 6ac1 443d
00000120: b801 cdbc cbb0 393d ec39 9bbc 4833 a63c
00000130: 2a1a aebc 7393 883c e7d1 65bc 3847 e2bc
00000140: 5197 68bc 2d69 103d 506e 3abd 9c78 00bd
00000150: 5ef0 87bc 58ab e63c 12ea e9ba d57f 34bb
00000160: 6a9f 84bc bce7 a0bc 3002 40bd 3749 7a3d
00000170: 5bc3 c9bc ccc3 543c 64ac f2bc 3577 0fbd
00000180: 27ca 5cbc 1273 19bd adab 1cb9 8e39 0d3d
00000190: f87b a9bb d1c9 a9bc 1e9c ce3c 44b9 12bd
000001a0: 972b 5d3d dd2e 51bd 036e 363d eadb 4c3c
000001b0: edc7 3539 292f dbbc 7e32 adbc f975 32bc
000001c0: ef45 833c 93f0 03bb 45cd 703c d8e1 023d
000001d0: 4034 c53c 87d0 68bc 495f 3abb 9e28 903c
000001e0: 3e99 f53c 70cb 06bd e85f b5bc f22a 50bd
000001f0: 8a9b 763c 425c 95bd 1e1e 543d 8120 903d
00000200: e356 ef3c 0952 0d3c 81be 30bd 3949 383a
00000210: c76a 31bd 6653 4a3d 8acb 3e3d d20c 083d
00000220: ba85 67bc a139 20bc 9fe3 22bc 9620 fc3c
00000230: fabd edbc 44b6 80bd 4caf 693b 8376 f13b
00000240: 15be 853c 1914 99bb d6ee d9ba 3535 04bd
00000250: 9996 58bd 63ec 393c ebfc 8c3d e681 a4bc
00000260: d85d 25bc 8dd7 ec3c 7d5c 25bc 6026 9a3b
00000270: aff8 ec3b e2e3 113d 04d8 36bd 71b7 41bc
00000280: 0b1f d83c 8c10 e63c a07c 4c3d 9ba9 2d3d
00000290: f15f 963b 37b8 18bd e811 513d 7d6c 42bc
000002a0: f038 d1bc 43c8 dd3c 2f74 ce3c 6741 c73b
000002b0: 9298 323d a0cb 403d 81d7 05bd 915e 073d
000002c0: 7a6f 91bd 7c39 203c 1a66 4abb fdc4 233c
000002d0: ee6b 1dbc 9237 a33d 1b6b 0c3d 9d2a cb39
000002e0: 9990 f9bc 67fe 93bb b526 ac3d 76d0 2a3c
000002f0: a41b 3bbc e453 39bc 909b 993c 7690 433b
00000300: 3494 cabc e20c 58bb a52c a9bc 4e2a 923d
00000310: f0e0 babc 2507 763d bd1f 14bd dbf7 413d
00000320: 7f41 803c 1f46 8cbd d655 89bc 8ec0 63bc
00000330: f4a1 9cbc a00f d2bb 0e26 0ebd fd3d 9cbc
00000340: 84e7 753d 56e0 253c 50a7 513c c77a 0c3b
00000350: 9d14 aa3c d864 0ebd 8174 f6bc f304 f3bc
00000360: 33f0 13bc 0cd1 f1bc 863a 073c 4258 2b3c
00000370: 1d3f 8e3d cd70 4cbd 3a6e 653d aff5 303d
00000380: 1298 9c3c 18db 5e3d 15c3 e8bc 8b3c a73c
00000390: ee78 47bd 3491 683c 0245 a7bc 1b16 8c3c
000003a0: f35d 4b3b 51eb a23b 2bbe 333a 3f22 783c
000003b0: ffdc 97bb 5353 36bd 774e 26bc 4733 d23c
000003c0: 200e 863c 3fb8 b8bb 8bc5 9bbd ae49 b33b
000003d0: 14a4 5bbc 5eeb e03c 44c9 efbc 3a3e a53b
000003e0: 147b ccbc 1b56 453d ca5a a53d 703d fa3b
000003f0: d58c 56bd 9c9a 08bd 515e 623c 0c1d 073c
0.024424544 -0.029160889 0.022679057 0.042172235 -0.047458 0.070782684 0.007580309 0.010487816
-0.018653387 0.070333324 0.018442282 -0.0048143705 -0.011150598 0.012068756 -0.026197338 -0.017977424
-0.022161264 0.0429562 -0.01785526 -0.029923318 0.04179566 0.028442638 -0.032932166 -0.06700462
0.012295535 -0.006759265 0.006591001 -0.031529266 0.046301372 -0.0075818766 0.018931594 0.012139267
0.0036428792 0.037719112 -0.017900614 0.019253923 -0.069379605 -0.00840234 -0.0040138275 -0.039552975
0.03222205 0.019163644 -0.039392173 -0.03568912 -0.0041366443 -0.031696405 -0.009168733 -0.012724092
0.0059313015 -0.0027335328 -0.07480208 0.020725027 0.010898945 3.37165e-05 -0.044685304 -0.027942535
0.004870213 0.018930882 -0.041435745 -0.0059090853 -0.029595586 -0.0040478 0.006753111 0.017000515
0.064669326 -0.03735142 0.055063732 0.007471634 0.040664848 0.025402337 0.016342606 0.048036017
-0.025025234 0.04533462 -0.018948518 0.020288125 -0.02125271 0.016671872 -0.014027095 -0.02762185
-0.014196233 0.035256553 -0.04551536 -0.031365022 -0.016594108 0.028157875 -0.0017846248 -0.0027542014
-0.016189296 -0.01964175 -0.046877086 0.06110498 -0.024629286 0.012986135 -0.029623218 -0.035025794
-0.013475931 -0.037463255 -0.00014941274 0.034478717 -0.005172249 -0.020726116 0.025220927 -0.035821214
0.05399665 -0.051070083 0.04453851 0.0125036035 0.00017335983 -0.026755886 -0.02114224 -0.010892385
0.016024558 -0.0020132407 0.014697378 0.031953663 0.024072766 -0.014209873 -0.0028438142 0.017597493
0.029980298 -0.032908857 -0.022140458 -0.050822206 0.015051732 -0.072929874 0.051786534 0.0703745
0.029216236 0.008625516 -0.04315043 0.0007029954 -0.04331472 0.04939594 0.04658083 0.03321535
-0.014131004 -0.009779365 -0.009941964 0.030777257 -0.029021252 -0.062847644 0.0035657464 0.007368864
0.01632599 -0.0046715853 -0.0016626965 -0.032277305 -0.052877996 0.011347863 0.06884178 -0.020081472
-0.010093175 0.028911376 -0.010092852 0.0047042817 0.007231794 0.035617717 -0.044639602 -0.011823521
0.02638199 0.028084062 0.04992354 0.042398077 0.004589074 -0.037285056 0.051042467 -0.011866686
-0.025539845 0.027073031 0.025201885 0.0060807946 0.043602534 0.047069192 -0.032676224 0.03304917
-0.071013406 0.00977933 -0.0030883611 0.009995696 -0.009608252 0.079695836 0.03428183 0.00038750927
-0.030464457 -0.004516411 0.0840582 0.0104256775 -0.011420164 -0.011311505 0.018750936 0.0029840744
-0.024728872 -0.0032966663 -0.020651171 0.07136975 -0.022812337 0.060065407 -0.03616308 0.047355514
0.015656231 -0.06849312 -0.016764563 -0.013900889 -0.019120194 -0.006410554 -0.03470426 -0.019072527
0.060035244 0.010124287 0.012796238 0.0021435486 0.020761782 -0.03476414 -0.03008485 -0.029665446
-0.009029436 -0.029518627 0.008253699 0.010458054 0.06945632 -0.049912263 0.056013323 0.043203052
0.019115482 0.054408163 -0.028413335 0.020414611 -0.048699312 0.014194775 -0.020418648 0.017100384
0.003103134 0.0049718996 0.00068566453 0.015144884 -0.004634499 -0.044513058 -0.010150543 0.025659217
0.016364157 -0.005637198 -0.07606038 0.00547143 -0.0134058185 0.027455982 -0.029270776 0.0050428184
-0.024961032 0.04817782 0.08073957 0.0076367185 -0.0523804 -0.033350572 0.013816432 0.008246671

conv_layers.2.bias f4 [64]
00000000: 77aa 6abc 79b0 283c 234a c9bc 08a1 c2bc
00000010: d4d1 fbbc 6e01 ddbc a319 f7bb ffc0 463c
00000020: 7b85 97ba 9f08 713d 7d0f 243d 0843 32bb
00000030: f1dc f4bc 21e7 193b c7aa 6cbc 6b16 a6bc
00000040: ff35 dbbc b53c 2abc 727b 68bd 258a 773c
00000050: 9bf4 4cbd 5279 20bd cc72 a43d 7deb 073d
00000060: 7420 ccbd 2ae0 25bc 8cf2 5ebb 020c 3abd
00000070: 275d 923d 39c9 4c3d d611 88bc 6d94 e63b
00000080: 68d0 023d a342 2abb 7566 ea3a 0c1b e3bb
00000090: a38c aebc f7ba 623d c916 4639 8c94 91bb
000000a0: e804 cebc 9ea4 023d 7c38 81bd 2e14 ad3b
000000b0: d33b 6c3d 8a69 2a3d 56d9 ebbc c0da 5cbc
000000c0: 48d5 a93c 5f36 d53b f3ba 143d d8ed ce3a
000000d0: e511 ac3b bb42 58bd 25f1 56bc b908 0fbd
000000e0: 3291 343d 359b c2bb c49c 353d 412b 053c
000000f0: 3870 60bc 0eba 4abc 4ec9 173d 7f9e 133d
-0.014322869 0.010295981 -0.024571484 -0.023758426 -0.030739702 -0.02697822 -0.007540898 0.012130975
-0.0011560166 0.058846112 0.040053833 -0.0027200598 -0.02989051 0.002348371 -0.014445013 -0.020274362
-0.026759146 -0.01039045 -0.05675835 0.01510862 -0.05003796 -0.0391782 0.08029708 0.033183564
-0.099671274 -0.010124246 -0.003401908 -0.045421608 0.07146674 0.04999659 -0.016610067 0.0070367367
0.031937033 -0.002597966 0.0017883318 -0.0069307145 -0.021307295 0.055354085 0.0001889124 -0.004442757
-0.025148824 0.031895272 -0.06309602 0.0052819466 0.05767424 0.041604556 -0.028790157 -0.013479888
0.020731583 0.0065067257 0.0363111 0.0015787436 0.0052511566 -0.052798014 -0.013119017 -0.034920428
0.04408378 -0.0059389123 0.044338956 0.008127988 -0.01369863 -0.01237346 0.037057213 0.036039826

conv_layers.3.weight f4 [64, 256, 5]
00000000: 7212 7b3c d71f 9e3c 79ae 863c 6465 bdbc
00000010: 7338 2d3d 68ef c2bc 8002 e53b 491c 1aba
00000020: 7722 d33a 7632 8c3c abfa 6a3d 4f61 73ba
00000030: 1529 efbc 13ce f83c a92b 36bd 8912 843c
00000040: b44a 1bbd e248 813d cfe0 99bc cca5 6f3c
00000050: 0fd3 293a c6b4 8dbd 4c1b aebc 851c 2c3c
00000060: 0303 e4bc 3c17 9a3c 451f 343d 8c0a 963d
00000070: 7547 133d 1bfb a1bc 7c2d 813d 5c56 f9bb
00000080: 025f 353d 8e96 b63d 65c6 eabc 375c 9c3c
00000090: ee00 21bb 11c5 b8bb 0b81 293c 8f28 59bd
000000a0: c9cf 39bd 5142 a03c d0ca 943a bdf3 673c
000000b0: 327c 8b3d 8101 263d ad32 1e3c c3b4 2ebd
000000c0: 78a0 3c3d 17de d5bc a589 293b e13e d8bc
000000d0: 6672 28bd 048d 293d 63ed e3bb e4ec 76bc
000000e0: fc15 7e3d 4c08 863c 4fb5 553b f496 98bc
000000f0: 3778 f23c 82be 45bd 5e59 203d ad08 3cbd
00000100: c912 b83c 90ca 42bb c9b3 ca3c 9a6b 49bc
00000110: fc22 9c3c f5f7 69bc 9922 fb3a d416 58bb
00000120: fbfa 0bbd 09ae 11bd 3bb8 bcbc c035 bd3c
00000130: c27b 093d bc72 d9bb 9d9a b93c d76c 90bb
00000140: 0418 30bd 0734 833c 44b5 91bc bd37 553d
00000150: 6210 36bd f46a c9bc 9a9b 31bd 1095 a6bb
00000160: 02cc c7bc 9d41 de3c 4947 39bd b354 f1bc
00000170: 7a1d 023a 8751 b9bc 207c 04bb 0dd4 c73b
00000180: 8f4a 4abc 9769 d9bc 6a43 573d 7ebc 493d
00000190: a844 773d 3130 6ebd a676 f33b 9d97 983c
000001a0: 85fc 9eba 84ed c8bc 58ad c13c 124e a2bd
000001b0: 585f 043d c289 dabc fcb2 50bd e630 62bd
000001c0: cea8 81bd 1583 a6bd d3cf c3bc bf46 5e3c
000001d0: 5ad1 013d 8656 1abd a292 0e3d f219 fe3b
000001e0: c66b 73bc 423a e03c 37e1 0cbd f459 37bc
000001f0: e19c acbb b6c6 2e3d 10e0 4dbc f3b1 b83c
00000200: 6993 de3c 9e20 a53d 2368 1fbd 3517 b6bc
00000210: a0a3 0ebd 0c67 83bc 1cb9 2dbd 10d7 40bd
00000220: 1620 7dbc 7d7e 62bd 02a7 c53c f1fd 5e3b
00000230: b947 113c f292 1fbd fcb9 fabc 5073 0abd
00000240: e5e5 88bc c490 47bc 2652 e43c e9b8 07bd
00000250: 79c2 2b3d 3ab7 90bc 0f34 a73b d81f bebc
00000260: 780a 04bd d0a2 29bb f004 24bd b69e 0bbc
00000270: 3242 20bd 62ce 373c 1cbc 29bd 105f 98bc
00000280: 60b5 78bc 758c 2e3c 3e54 cabc 2d86 db3c
00000290: 7f15 f13c c730 9d3c 3b1d abbc 2744 323d
000002a0: ee41 ca3c a479 05bc fe49 d53c fde1 033d
000002b0: 5f4d 74bc 50e2 7d3b e5b3 99bc 761e 92bc
000002c0: 21de b83c 0bf0 62bc e5bb 113d ebc3 24bc
000002d0: 70cf d6bc 79bb 8b3d 58bb 5dbb 459a 32ba
000002e0: 587b 29bd 0a7d 60bd 41ab c2bc 036c 2cbd
000002f0: d3a2 03bd cc68 bd3c 1cac f13c 54b1 3fbb
00000300: 7e35 53bb 6442 9c3c a937 1cbd 8ef0 b53d
00000310: 6beb 1ebd dbc0 2abd 7375 3abd 8ea1 243d
00000320: 42f2 97bc 149f 48bc 2b87 04bd 4ae1 77bd
00000330: cb82 833c e142 9039 adfd 24bd b105 113c
00000340: dc85 9e3c 65e2 5e3c 16cd cebb 7c50 603c
00000350: 647e 87bc 3d4a 603c 7a8b 03bd 43fd e23c
00000360: 4ef8 afbc 2e71 833c 2d3e 8abb a6e3 29bd
00000370: f785 8d3d 94ed df3c 9a62 0bbd c74f e8bb
00000380: 4b7e 03bd 47bd ed3c c007 c9bc f312 27bb
00000390: 2308 423d 7cb4 8bbc 1272 1cbd 0b87 4a3d
000003a0: 6449 8d3c 0a1f 243d 1a2e 52bd c02a 5e3d
000003b0: e956 ad3b 4079 4b3d 9d2a 063d b076 94ba
000003c0: e702 05bd 600c a13c 3b3e 1a3b 24c8 ccbb
000003d0: ca8b 7fbc cb21 03bc 974f 69bc 4311 e2bc
000003e0: 0e3b f33c d942 913c aff8 88bc 3dcf aa3c
000003f0: 1137 ac3c ec8c 29bc 5d84 75bd 22a8 8fba
0.015324222 0.019302292 0.016440617 -0.023119636 0.042290162 -0.023795798 0.0069888234 -0.00058788486
0.0016108294 0.017113905 0.05736796 -0.00092842145 -0.029194394 0.030371701 -0.04447523 0.01612212
-0.03791304 0.063127294 -0.018783955 0.014626931 0.00064782886 -0.069192454 -0.02125325 0.010504846
-0.027833467 0.018809907 0.043975133 0.073262304 0.03595682 -0.019773057 0.063075036 -0.007609172
0.04428006 0.08915435 -0.028659055 0.01908694 -0.0024567205 -0.0056387265 0.010345708 -0.053017195
-0.045364175 0.019562872 0.0011351947 0.014157233 0.06810798 0.040528778 0.009655637 -0.042652857
0.046051472 -0.026106877 0.0025869396 -0.02639717 -0.041124724 0.04139425 -0.006955789 -0.015071128
0.062032685 0.016361378 0.003260929 -0.018626668 0.029598339 -0.048277386 0.039147727 -0.04590671
0.022469895 -0.0029722787 0.024743931 -0.012293721 0.01905965 -0.014280309 0.0019160091 -0.003297259
-0.0341749 -0.035566363 -0.023037067 0.023096919 0.03356529 -0.006635992 0.022656733 -0.004407506
-0.042991653 0.01601602 -0.01778663 0.05205511 -0.044449218 -0.024587132 -0.043361284 -0.0050836876
-0.02438927 0.027130896 -0.045234 -0.029459333 0.0004963499 -0.022621883 -0.0020215586 0.0060982765
-0.012346878 -0.026539607 0.052554525 0.049252026 0.06036821 -0.058151428 0.0074299155 0.018626982
-0.00121297 -0.024527319 0.023642227 -0.07925047 0.03231749 -0.026677016 -0.050951943 -0.055222414
-0.06331025 -0.08130471 -0.02390281 0.013566672 0.031693794 -0.03768017 0.03480781 0.0077545578
-0.014857238 0.02737153 -0.03439447 -0.01119088 -0.005267725 0.042669974 -0.012565628 0.02254579
0.0271699 0.08062862 -0.038917672 -0.022227863 -0.034824014 -0.016040348 -0.042412862 -0.0470801
-0.015449544 -0.05529641 0.024127487 0.0034025873 0.008867198 -0.038958497 -0.030606262 -0.033801377
-0.016711185 -0.012180511 0.027871203 -0.03313533 0.04193351 -0.017665494 0.0051026414 -0.023208544
-0.032236546 -0.0025884397 -0.04004377 -0.008521726 -0.03912563 0.011218639 -0.04143916 -0.018600017
-0.015179962 0.010653605 -0.024698373 0.026797378 0.029429195 0.019188298 -0.020887962 0.043522026
0.02468964 -0.008146677 0.026036259 0.03219794 -0.014911025 0.003873963 -0.018762538 -0.01783679
0.022566857 -0.013851176 0.03557958 -0.010056476 -0.02622196 0.06822867 -0.003383359 -0.0006813149
-0.041377395 -0.054806747 -0.0237633 -0.042095196 -0.032137703 0.02312126 0.029501013 -0.0029249983
-0.0032227929 0.019074626 -0.03813902 0.08883773 -0.03879873 -0.041687828 -0.045522165 0.040193133
-0.018548135 -0.012244958 -0.03235547 -0.060517587 0.016053578 0.0002751565 -0.040280987 0.008851455
0.019350938 0.013603781 -0.0063110692 0.013691064 -0.01653976 0.013689575 -0.032115437 0.027708655
-0.021480706 0.01604518 -0.0042188377 -0.041476868 0.069103174 0.027334966 -0.03402958 -0.0070895883
-0.032102864 0.029020919 -0.024539828 -0.0025493472 0.04737104 -0.017053835 -0.038194723 0.049445193
0.01724691 0.040068664 -0.051313497 0.05423999 0.0052899015 0.04967618 0.032755483 -0.0011326876
-0.03247347 0.019659221 0.0023535627 -0.0062494446 -0.015597293 -0.008003662 -0.014240167 -0.027596122
0.029691245 0.01773207 -0.016720144 0.020850772 0.021022351 -0.01034854 -0.059940685 -0.0010960142

conv_layers.3.bias f4 [64]
00000000: 0b7c dbbd 4535 a0bc 6287 62bd bf38 3cbc
00000010: 17e3 27bd d94f 0ebb 8f02 073c 1646 ddbd
00000020: f70d f73c 5c44 3b3d a8a6 a03a bdf3 533d
00000030: 160d acba 46ab b4bc a21a 713d ed7d 973c
00000040: 7e2f b2bd aacd 69bc ba28 f0bc 89e2 abbc
00000050: 9e8f c6bb 2396 4c3a e307 08bd 4082 75bb
00000060: 0c8c 843c 15cf 8abd 02eb c43d a892 f53c
00000070: 599d 3dbc 8eda 60bd 5d18 d6bc 04ce ad3c
00000080: 2834 243d 7a56 d2ba bb46 6ebd 2e3a 063d
00000090: 77fd f0ba efef 1dbd 5702 d2bc 2300 d5bc
000000a0: 7582 b43c 8b5f 22bc 6b65 eeba e64a 9c3c
000000b0: b241 14bc 6554 bebb 0926 d3bc ae96 e8bc
000000c0: 59fd 58bc 34d0 e43b a881 23bd 481e a8bc
000000d0: 8f57 163d 6001 52bc 8e4a 1cbd 6134 72bd
000000e0: af12 bebc e3ec 0cbd 9513 203d 5bff 47bd
000000f0: cb42 7b3c 88d0 97bc d011 55bd b740 04bd
-0.10717019 -0.01955665 -0.055304892 -0.011488139 -0.040988054 -0.0021715073 0.008240356 -0.108043835
0.030158026 0.04571949 0.0012256699 0.05174612 -0.0013126459 -0.022054326 0.05886329 0.018492663
-0.08700465 -0.014270226 -0.029316295 -0.020982044 -0.006059601 0.00078043545 -0.033210646 -0.0037461668
0.01618006 -0.06777779 0.09615137 0.029977158 -0.011573159 -0.05489593 -0.026134664 0.0212164
0.040088803 -0.00160475 -0.058172923 0.03277033 -0.0018386085 -0.038558897 -0.025635881 -0.026001042
0.022034863 -0.0099104745 -0.0018188184 0.019078683 -0.009048866 -0.0058084005 -0.025774973 -0.028392162
-0.013243997 0.0069828276 -0.03991857 -0.020522252 0.036704596 -0.012817711 -0.03815704 -0.059131984
-0.023202268 -0.0344056 0.039081175 -0.04882751 0.015335749 -0.018532053 -0.05201894 -0.03228828

fc1.weight f4 [64, 256]
00000000: 0631 10bd a05e d73c b401 84bc 400c 0b3c
00000010: 4ae7 7fbd 3048 cb3c dcd1 783d 00d6 b43b
00000020: e033 e3bc 185a 63bc a856 4ebc b05e 18bd
00000030: 6082 873b 1873 57bd eac9 743d 18e9 55bc
00000040: 10bf 2cbd 443a a7bc c057 c83a 304b 3b3c
00000050: 00c0 3aba 3e04 283d 907c c13b f6eb 7fbd
00000060: 6617 053d de3e 19bd 9c22 473d 3618 12bd
00000070: 867c 133d 04b1 d13c deb2 5bbd 0818 44bc
00000080: 703e b7bc d02a 9dbb b497 55bd 5c0a 163d
00000090: c0e8 8aba f4f7 5bbd 2a8b 69bd fcf5 ed3c
000000a0: 80b4 95ba 38ae 2fbc 0ac8 6f3d 2cf1 9fbc
000000b0: e404 fabc 804a 3dbc 3897 143d d4d4 babc
000000c0: 8e77 77bd a073 be3b d8ed cdbc 66d8 16bd
000000d0: 08ab 4fbc b419 c13c b679 763d 60f0 74bc
000000e0: 3008 86bc 5c9e 3b3d a425 b33c ac9e ed3c
000000f0: 1c75 f23c 24ae 75bd 489f 70bc 04f9 0d3d
00000100: 8c45 e7bc 8817 653c 2c1a 4b3d 2c75 6bbd
00000110: c096 03bb bc63 f33c 1611 68bd 0c78 c73c
00000120: 60cb 6e3b c277 21bd 685b afbc 1413 25bd
00000130: c84e 193c d45c 693d bc0d f8bc e499 133d
00000140: 600d 093d 68d8 30bd 848e 9b3c dc9a 2ebd
00000150: 4047 8abb 3e43 363d d05a 2e3c 3078 433c
00000160: e078 f5bc f0cd 743c 345c d73c b09a 1abd
00000170: 80b4 2d3a 2e10 3fbd c42a 913c 26ad 7d3d
00000180: 68d0 d03c 3eb0 6d3d b086 15bd e071 1ebb
00000190: 24ef 9f3c 6024 c5bc 5e2b 083d 204b 043c
000001a0: 0818 b83c f2f1 4e3d 649f 59bd 405b 61bd
000001b0: 9883 493c d82f 6ebc d4cb 02bd 300d e9bb
000001c0: 00c0 96b6 f04c 7a3c a486 ea3c 007c 37b9
000001d0: 3638 2cbd 988e e03c 2039 78bb 80f5 bdbb
000001e0: d886 99bc a8ab e6bc b8ba 4e3c f01e 223d
000001f0: 6014 f9bc 76e3 2ebd c85a 393c 5ce2 93bc
00000200: 84fe 4ebd e875 493d 9413 963c 7c5b f63c
00000210: ec07 46bd b013 67bd c00c 3fbb f6b9 1a3d
00000220: 940c f23c c41e 43bd 585a 083c 78bf 7f3c
00000230: ec6a 36bd 0082 0e3c 0033 f63a a431 8bbc
00000240: 2a0c 5e3d 7e68 233d 98e8 463d 9a50 093d
00000250: e076 9abb c0c9 f8ba 2660 74bd 08cf 1ebc
00000260: ea4b 68bd 10b7 6b3c 781f 60bc 60e5 01bb
00000270: 606f 70bc 62a9 72bd d471 073d 82db 20bd
00000280: 1832 473d ce01 493d f8a6 b1bc b805 6cbc
00000290: 7cdb 24bd 821e 59bd e0c9 19bc 4a63 5dbd
000002a0: 56ef 3f3d 906a 093c 0a2b 33bd 384f 75bc
000002b0: fc2f d8bc e43f 8abc 9eca 68bd 986f 623d
000002c0: 24a6 afbc e4da be3c 2050 44bc b482 023d
000002d0: 4060 423c f018 21bc 007a 0f3d 18b7 b3bc
000002e0: 3c01 35bd 56df 60bd c08c 5bbb 58d8 40bd
000002f0: 98f7 72bd 502f 913c e0ae 853b 088a 213c
00000300: cc7f a53c 2484 01bd aea9 43bd a26d 1bbd
00000310: 4cc8 b6bc 569c 60bd 2837 07bc 9ce7 d73c
00000320: d078 623c 94be 5bbd 8046 6d3a 62f7 253d
00000330: ba37 433d 888e 6cbd 08d4 1ebc 641f 913c
00000340: c0a9 8d3b e869 6a3c 7059 bc3b 50d1 6e3d
00000350: c0cf 7f3c 5c04 6abd 4023 2c3b 3ecd 2bbd
00000360: ec19 a43c 00af ccb9 c471 f5bc b876 f2bc
00000370: c808 023d 68a7 6d3c 0281 5f3d a4ba 91bc
00000380: bced 993c 722c 233d c8bb cfbc c680 2dbd
00000390: 6659 0abd 08c1 733c 8216 6bbd a458 aa3c
000003a0: 1049 cebc 2cb8 933c 0e3a 48bd c874 9abc
000003b0: a8fb dfbc 00db fbbb a0ea 8f3b 96e3 36bd
000003c0: 04af 1d3d de18 14bd 0075 083b 581b 26bd
000003d0: f4bb 38bd 5883 63bc da65 203d dc92 6d3d
000003e0: a0d1 d9bc 2060 4e3b baa4 29bd d602 7ebd
000003f0: 6c96 673d fc18 1fbd 8a3f 203d 52c0 173d
-0.035203002 0.026290238 -0.016114093 0.008486807 -0.062476434 0.024814695 0.060747012 0.005518675
-0.027734697 -0.0138764605 -0.012593903 -0.037199676 0.004135415 -0.052599996 0.059762873 -0.013056062
-0.0421744 -0.020413525 0.0015284941 0.0114315 -0.0007123947 0.04101967 0.0059047416 -0.06248089
0.032493018 -0.03741347 0.04861699 -0.03566762 0.036007427 0.025597103 -0.053637378 -0.01196862
-0.02236864 -0.0047963634 -0.05214663 0.036630973 -0.0010597929 -0.053703263 -0.057017483 0.029047959
-0.0011421591 -0.010722689 0.05854038 -0.01952418 -0.03051991 -0.011553407 0.036277026 -0.022806562
-0.06041675 0.0058121234 -0.025137827 -0.036827467 -0.012675054 0.023571827 0.060174666 -0.014949888
-0.016361326 0.04580532 0.021868534 0.029006325 0.029596858 -0.059980527 -0.014686413 0.034661308
-0.028231405 0.013982661 0.049585506 -0.05748479 -0.0020078868 0.029710643 -0.05665692 0.024349235
0.003643714 -0.03942085 -0.02140589 -0.040301397 0.009357162 0.056973293 -0.030279987 0.036035433
0.03346002 -0.04317513 0.018988855 -0.042628154 -0.0042199194 0.04449772 0.010641769 0.01193051
-0.029964864 0.014941677 0.026289083 -0.037745178 0.0006626323 -0.04664629 0.017720588 0.061932705
0.02549 0.058029406 -0.0365054 -0.0024176762 0.01952321 -0.024065197 0.033244483 0.008074552
0.022472396 0.050523706 -0.053130522 -0.055018663 0.012299441 -0.014537774 -0.031932667 -0.007112168
-4.4927e-06 0.015277132 0.028628655 -0.00017498434 -0.042045794 0.027411744 -0.0037875846 -0.005797088
-0.018741056 -0.028158024 0.012617759 0.039580286 -0.030405223 -0.042697392 0.011313148 -0.018052272
-0.050535694 0.04918471 0.018319882 0.03007292 -0.0483474 -0.05641526 -0.0029151887 0.037775002
0.029547013 -0.047636762 0.008322321 0.015609615 -0.044535562 0.008697987 0.001878351 -0.016991444
0.05421082 0.039894573 0.048561662 0.033524133 -0.004713878 -0.0018981025 -0.059662007 -0.009692915
-0.056713022 0.014386907 -0.013679378 -0.0019820556 -0.014674991 -0.059243567 0.03306754 -0.03927184
0.048631757 0.049073987 -0.021686062 -0.01440566 -0.04024838 -0.05300761 -0.00938651 -0.054049768
0.046859108 0.008387223 -0.043742217 -0.0149725005 -0.026390068 -0.016876169 -0.056833856 0.055282205
-0.021441527 0.023297735 -0.011981994 0.03186293 0.011863768 -0.009832606 0.035028458 -0.021937892
-0.04419063 -0.05490049 -0.0033500642 -0.04708132 -0.059318155 0.017722756 0.0040796846 0.009859569
0.02020254 -0.03162016 -0.04776924 -0.03794635 -0.022312306 -0.054836594 -0.008252896 0.026355557
0.013822749 -0.053648546 0.0009051338 0.040519126 0.047660567 -0.057753116 -0.009694107 0.017715164
0.0043232143 0.014307477 0.0057479665 0.058305085 0.015613496 -0.057133064 0.0026266128 -0.04194378
0.020031892 -0.00039040297 -0.029961474 -0.029597625 0.031746656 0.014505245 0.05456639 -0.017789192
0.018790118 0.03983731 -0.025358096 -0.042359136 -0.033776663 0.014877565 -0.057394512 0.02079422
-0.025181323 0.018032156 -0.04888349 -0.018854514 -0.027341679 -0.007686019 0.004391983 -0.044650637
0.038496986 -0.036156528 0.002082169 -0.04055342 -0.04510112 -0.013886295 0.039159633 0.058001384
-0.026589215 0.00314904 -0.04141686 -0.062014423 0.056539938 -0.038842186 0.039123096 0.037048645

fc1.bias f4 [64]
00000000: 6007 4fbd 3e70 513c 31f7 2f3c b5fc 99bb
00000010: d6d8 813b be4d ba3c 79a5 92bb ebed 3f3d
00000020: 00b7 763c ab55 bf3c 1844 813d fde6 823d
00000030: 6a4b 3dbd dc34 c33b d4eb 943c 1610 953d
00000040: 90e9 3d3d a8d4 213d 694c af3d 1948 9dbb
00000050: 4960 efbc e6da 67bd 9482 f73d 76ef 093d
00000060: f472 43bd 4f81 4ebc 0d32 243b c3d8 903c
00000070: e13f 4a3d dc63 34bd 12ee 49bc 2e82 053d
00000080: bbc6 84bd a19a 9b3d 0d0c 5abd 91f0 e93c
00000090: 8c51 56bd e2e3 63bc 1f84 373d d389 163d
000000a0: 74e0 a53c cb7f a0bd 8f3b d23c 5d37 ee3c
000000b0: e7b1 b83d 052a 52bd b8b6 44bc c3bd b43d
000000c0: aba0 0e3d d399 5abd c53e ed3c 194e 88bd
000000d0: b602 953d 9077 4b3d e469 bb3d ee7a 47bb
000000e0: b25e e13c 0b4d ca3d ea1b 4abd 8aa4 00bb
000000f0: 6bb2 483d 2e6c ce3b 1dd4 61bd 3c3e 24bc
-0.050544143 0.012783108 0.010740087 -0.0046993145 0.0039626164 0.022742148 -0.0044752923 0.046857756
0.015058279 0.02335628 0.06311816 0.06391714 -0.0462145 0.005957229 0.018178858 0.07278459
0.04636532 0.039509445 0.08559496 -0.0047998545 -0.029220717 -0.056605242 0.12085453 0.033675633
-0.04771705 -0.012604072 0.0025054247 0.017681485 0.049377326 -0.044040546 -0.012324827 0.032594852
-0.06483217 0.075978525 -0.05323415 0.028557094 -0.052323863 -0.013909312 0.044803735 0.036752533
0.02024863 -0.078368746 0.025663165 0.029079134 0.09018307 -0.051309604 -0.012006454 0.08825257
0.034821194 -0.053369354 0.028960595 -0.06655521 0.07275908 0.04967457 0.091510564 -0.0030438262
0.027510975 0.09877976 -0.049343027 -0.0019629323 0.048998278 0.006299517 -0.055133928 -0.010024603

batch_norm.weight f4 [64]
00000000: 0000 803f 9147 b33f 1a55 7d3f 0580 aa3f
00000010: aec8 7d3f 5341 b43f 52fd 7c3f c8b9 ad3f
00000020: 6f76 7e3f a57e af3f 1162 af3f df2c b33f
00000030: 0000 803f 6645 b73f 2cd4 7c3f cd26 a83f
00000040: 188d af3f 3468 b33f d679 b53f 6552 aa3f
00000050: 6c76 7e3f 6c76 7e3f 6518 b03f 3d0d 7f3f
00000060: 0000 803f 36f5 7d3f 23a6 7d3f 3699 7d3f
00000070: a828 a93f 0000 803f aa5a ac3f e5f8 af3f
00000080: 1a2b 7e3f e795 b03f bd25 ad3f 99eb af3f
00000090: b10c b13f 9f63 af3f da77 ae3f e9a3 b33f
000000a0: ab75 7e3f 66c7 793f 8be3 ad3f 49b4 ab3f
000000b0: 8d2e a83f 3aa2 7e3f da0c af3f 7a0a a93f
000000c0: df77 7e3f eb05 a13f 66e1 7d3f 79d9 7d3f
000000d0: 2ea9 b63f 0000 803f 07ed b43f 7881 b23f
000000e0: 715d 7d3f 67ec a43f 6c76 7e3f 2fa1 ab3f
000000f0: 99da ae3f 815a 793f ab5d 7e3f 7276 7e3f
1.0 1.4006215 0.9895798 1.3320318 0.9913434 1.4082435 0.98824036 1.3572321
0.99399465 1.3710524 1.3701802 1.3998069 1.0 1.4318054 0.9876125 1.3136841
1.3714933 1.4016175 1.4177806 1.3306395 0.9939945 0.9939945 1.3757445 0.99629575
1.0 0.9920229 0.9908163 0.99061906 1.3215532 1.0 1.3465168 1.3747832
0.9928452 1.3795747 1.3527142 1.3743774 1.3831998 1.3702277 1.3630326 1.4034396
0.993983 0.9756988 1.3585066 1.3414394 1.3139206 0.9946629 1.3675797 1.3206322
0.9940166 1.2579931 0.99172056 0.9915996 1.427038 1.0 1.4134835 1.3945761
0.98970705 1.2884644 0.9939945 1.3408564 1.3660461 0.97403723 0.99361676 0.99399483

batch_norm.bias f4 [64]
00000000: 2235 f53d a8f3 18be 22fb 453e e512 133d
00000010: fdd3 423e ba46 47bd ef2c 36be d30e 6bbd
00000020: 4c6b 35be 28f5 913d a9c3 2a3d 9ea1 8f3d
00000030: e75c 2e3e 9c3a 8bbc 2849 353e 3fb0 ccbd
00000040: 55ed 24be 7c84 e9bd 600a 19be 00f4 1abd
00000050: a79e ab3d 0fbe 223e a41f 0b3d 4f52 fabd
00000060: c63e cf3d e87c 20be fba5 113d 40cf 1d3e
00000070: d7d2 31be 5e84 0cbe 7ae7 cebc 0434 ca3d
00000080: c475 2abe 94e1 babd 1923 adbd aed9 a5bd
00000090: f64f 94bd d104 073e 1875 cd3c f1bd 06bd
000000a0: 2f0e 33be 5a43 293e a87a cebd c1b8 433d
000000b0: ad07 e3bd 136e 1fbe 58de 1e3e dce1 22bc
000000c0: 654c 26be 8b8a f6bd b14e 2cbe 70b9 2a3e
000000d0: 050c 0d3d 0a07 183e 16a2 6abc 0106 8a3d
000000e0: da59 24be 5948 f33d 6653 133e 2713 533d
000000f0: 571c 0f3e 88e7 1c3e a728 713e 2734 fa3d
0.11973025 -0.14936697 0.19334081 0.03590669 0.1902618 -0.048651434 -0.17790578 -0.057387184
-0.17716712 0.07126838 0.041690502 0.07013248 0.17027627 -0.01699572 0.17703688 -0.09994554
-0.1610616 -0.114022225 -0.14945364 -0.037830353 0.0837987 0.15892814 0.03396572 -0.1222273
0.10119395 -0.15672648 0.035558682 0.15411091 -0.17365585 -0.13722369 -0.025256861 0.098732024
-0.16646487 -0.09125057 -0.0845396 -0.0809816 -0.07241814 0.13185431 0.025080249 -0.032895986
-0.1748588 0.16529599 -0.100819886 0.047783617 -0.110854484 -0.15569334 0.15514505 -0.009941544
-0.1624008 -0.12038144 -0.16826893 0.16672301 0.03443529 0.14846435 -0.014320871 0.067394264
-0.160499 0.118790336 0.14387283 0.051531937 0.13975655 0.15322697 0.23550664 0.122169785

batch_norm.running_mean f4 [64]
00000000: 0000 0000 7260 8640 e57e 3c0d 0132 4e40
00000010: 1b3a 830a 5128 c63f eaa6 0509 f36a cc3f
00000020: 6edd 5204 00b1 3540 a6f1 dd40 fee0 5e40
00000030: 0000 0000 9cb3 3640 f6b9 3310 3270 6f40
00000040: bf86 8b40 5e97 6b40 3462 3340 a5ee 9f3f
00000050: d15f 0805 92d0 a007 8a61 ab40 986e 1407
00000060: 0000 0000 5e88 8308 25fb c90a 4a43 be07
00000070: 6d83 5240 0000 0000 f20c 4540 bb8a a13f
00000080: 47a2 010a 3447 793f 2834 9b3f 812c 7a40
00000090: 07c2 7f3f 4456 8a3f 87fb 593f fca1 6d3f
000000a0: fed1 e507 6a14 1f2f a79f 5d40 666b b540
000000b0: 4166 b83f 05d2 b607 61f1 5940 2fb7 8340
000000c0: 366f 0208 dab8 283c 909a 8a07 fdfd 5f09
000000d0: 03f6 943f 0000 0000 d45d a23f 5314 d33f
000000e0: b7ec c206 f85a bc40 5c48 1e06 c3fd fc3f
000000f0: 660b 903f c41c 9e2a 458f c306 f4f5 cc03
0.0 4.199273 5.8084716e-31 3.221802 1.2636698e-32 1.5481054 1.6087775e-33 1.5970138
2.4787057e-36 2.8389282 6.935748 3.4824824 0.0 2.8547125 3.5444785e-29 3.7412229
4.3601985 3.6811137 2.8028688 1.2494704 6.412288e-36 2.419671e-34 5.3556566 1.1166783e-34
0.0 7.9163355e-34 1.9450066e-32 2.8627572e-34 3.2892716 0.0 3.078915 1.2620462
6.241645e-33 0.9737427 1.2125292 3.9089663 0.9990544 1.0807576 0.85149425 0.92825294
3.4579513e-34 1.4468218e-10 3.4628694 5.66936 1.4406205 2.7507755e-34 3.4053576 4.1161113
3.925118e-34 0.010297978 2.0854776e-34 2.6962073e-33 1.1637577 0.0 1.2684884 1.6490577
7.332251e-35 5.8861046 2.9769658e-35 1.9764942 1.1253479 2.8086398e-13 7.3561363e-35 1.204651e-36

batch_norm.running_var f4 [64]
00000000: 34e4 c30c bdc5 d83f 2627 fe0c 0ef6 903f
00000010: 649a c40c c16c 8d3f ab06 c40c a55a 943f
00000020: 34e4 c30c 07b5 6f3f 2936 ed3f a8da 653f
00000030: 34e4 c30c 9633 a13f 2246 160e f7da a33f
00000040: 41b5 723f 5cf4 643f 2a82 873f e604 a73f
00000050: 34e4 c30c bfe9 c30c f470 b13f fce5 c30c
00000060: 34e4 c30c 69f9 c30c b759 c50c 9aed c30c
00000070: 53d5 893f 34e4 c30c c0f6 973f bb92 893f
00000080: 6140 c40c 54d9 413f 2f7e 993f 4e13 423f
00000090: 526f 613f 6992 5d3f a4ad 1c3f ecb6 543f
000000a0: 32ec c30c 5257 142e ba62 8e3f a00d a33f
000000b0: b172 793f c1ea c30c e308 a63f 2d0c d43f
000000c0: 08ed c30c 15f0 8f3c a6e9 c30c 8420 c40c
000000d0: ce7e 5a3f 34e4 c30c 068c 9d3f 656c 853f
000000e0: c6e6 c30c 2385 f23f f1e4 c30c 16c3 333f
000000f0: 7c59 7c3f ea94 2629 61e8 c30c 34e4 c30c
3.0181852e-31 1.6935345 3.9158458e-31 1.132509 3.0291502e-31 1.1048814 3.0202595e-31 1.1590163
3.0181852e-31 0.936356 1.8532153 0.8978677 3.0181852e-31 1.2593868 1.8522695e-30 1.2801198
0.9480782 0.8943536 1.0586598 1.304837 3.0181852e-31 3.0185188e-31 1.3862596 3.0182924e-31
3.0181852e-31 3.0194615e-31 3.040665e-31 3.0187508e-31 1.0768226 3.0181852e-31 1.1872177 1.0747904
3.0237328e-31 0.7572224 1.1991633 0.75810707 0.88060486 0.8655153 0.61202455 0.83091617
3.0186662e-31 3.372886e-11 1.1123879 1.2738533 0.9744063 3.0185795e-31 1.2971462 1.6566216
3.0187165e-31 0.017570535 3.018513e-31 3.021815e-31 0.8534974 3.0181852e-31 1.2308357 1.0423704
3.01834e-31 1.894688 3.0182296e-31 0.7021955 0.9857404 3.6988567e-14 3.0184365e-31 3.0181852e-31

fc2.weight f4 [2, 64]
00000000: c287 443d c04e c6bd 93a5 26ba 4fcc 18be
00000010: d23d 9f3c 3296 a13d 55c3 da3d 41dc 9b3d
00000020: 9bb8 193d 72d5 b83d b63a d0bd e13f a1bd
00000030: 051b 05bd ccc7 1dbe 0a4d ddbc 09b4 9fbd
00000040: 9205 2039 894d 1dbe cc8e fc3d 7505 88bd
00000050: 726f c33c 44c4 b83d 3bd1 143c aa72 53bd
00000060: 1cff 8e3d b028 f83c 7f15 f1bd 71c7 25bd
00000070: f489 b3ba c534 0c3d c554 363d 1e2f 16be
00000080: 6b4c b9bd b7c2 023e d2f0 fbbd b4ab 953d
00000090: 6263 b9bd a4be bebd bd2b 9c3d 29d8 be3d
000000a0: ba69 d73d 5867 02be 29e3 35bd ce05 b4bd
000000b0: 047e c53a 8e80 c3bc 12fe e1bd ae10 983d
000000c0: 45bd 0abd f680 ba3d 6c40 013c dc1a 38bd
000000d0: 844d 1d3e e774 ebbc 81d7 ad3d 4424 c0bc
000000e0: d047 473c 0efa bbbd 4995 bf3c 51cb edbc
000000f0: 07b5 c63d d900 acbd a8f1 10be b637 b63d
00000100: e5fa f2bc 9433 033e afa4 2f3d a7fb a93b
00000110: b566 cd3d 3fe2 b33c 4cbf 2e3d 08e5 a1bd
00000120: bba0 6abd 5aa5 aebd 1284 a6bd 48d7 b7bd
00000130: 4670 a43d 9804 383b 2f21 a13d 6d6a da3d
00000140: 413a 013d 2196 293c 77f9 613d f64c d03d
00000150: 60eb 98bd 18ac 8ebd 319e 033e d840 9b3c
00000160: b80a aebd b809 adbd b571 433c cbf5 bf3d
00000170: c49f d73d 8f8b 453d 7435 2e3c e28a 04bb
00000180: 9fce eabb 1c79 963d afb1 0e3e b5ef e33d
00000190: 9370 e63d 6acd 313b ec53 92bd 257e f4bd
000001a0: 2818 263d 9e79 3dbc 9d08 ae3d 006e ce3d
000001b0: e5a8 dbbd ac4e 703d fef9 d43d 6c2f d3bd
000001c0: 0b3a e9bd 741e 6b3c 5b6d bdbc 6121 783d
000001d0: 4e2b cb3b 9cb1 87bb 1d54 0fbd 6c83 aebd
000001e0: 2237 febd bf1a 643c 77ed 57bd 5f05 9abd
000001f0: a60e 1b3d 9719 8dbd 2788 b9bd b0d2 523b
0.04798103 -0.09682989 -0.000635707 -0.14921688 0.019438658 0.078899756 0.10681788 0.076103695
0.03752957 0.090250865 -0.10167448 -0.07873512 -0.03249647 -0.15408248 -0.027014274 -0.07798011
0.00015260864 -0.15361609 0.12331924 -0.06641666 0.023856852 0.0902181 0.009083088 -0.051623024
0.06982252 0.030292839 -0.11771678 -0.040473405 -0.001369773 0.034230012 0.044514436 -0.14666411
-0.09047779 0.1276959 -0.12301792 0.073081404 -0.09052159 -0.093137056 0.0762553 0.09318573
0.105182126 -0.12734735 -0.04440609 -0.0879017 0.0015067463 -0.02386501 -0.11034788 0.074250564
-0.033871908 0.091066286 0.0078888945 -0.04494749 0.15361601 -0.028742267 0.0848837 -0.023454793
0.0121631175 -0.091785535 0.023386614 -0.029027613 0.09702497 -0.08398599 -0.14154685 0.08897345
-0.029660651 0.12812644 0.042881664 0.00518747 0.100293554 0.021958468 0.042662904 -0.07905012
-0.05728219 -0.08527632 -0.08130659 -0.089766085 0.08029227 0.002807891 0.078676574 0.1066483
0.031549696 0.010350735 0.05516955 0.10170929 -0.07466769 -0.06966418 0.12853314 0.018951818
-0.08498138 -0.08449119 0.011928965 0.09373053 0.1052852 0.048228797 0.010632861 -0.0020224382
-0.0071657444 0.073473185 0.13934968 0.11129705 0.112519406 0.0027130493 -0.07144913 -0.11938123
0.04055038 -0.01156464 0.084977366 0.100795746 -0.107255735 0.058668777 0.10399245 -0.103117794
-0.11388024 0.014350522 -0.023123434 0.060578708 0.0062002307 -0.0041410457 -0.034992326 -0.085211605
-0.124128595 0.013922392 -0.0527167 -0.07520556 0.037855767 -0.068896465 -0.09059172 0.0032169037

fc2.bias f4 [2]
00000000: c8d9 543d ad34 393d
0.051965505 0.04521625
