models/Mr.Children/classifier_fold3.pth (torch, 991011 bytes, 16 tensors)

conv_layers.0.weight f4 [64, 256, 2]
0.05085911 0.06186268 -0.00087130675 0.07956305 0.014559605 0.0059794863 -0.0062119034 0.088404775
-0.008423918 -0.0407309 -0.041372176 -0.042588454 0.00024146115 0.038897604 0.021342758 -0.0059392527
0.025814915 -0.025851866 -0.037861273 0.032920092 0.0023463594 0.01132094 -0.06400297 0.0052574915
0.072554745 -0.028739149 0.03964068 -0.031438056 0.015808385 -0.003840323 0.052210376 0.029423168
0.052016247 0.05005581 -0.0050943163 -0.023681372 -0.043063696 0.018772675 -0.060310554 -0.017499903
-0.015730908 0.010931969 0.0044189943 -0.009574913 0.014400802 0.07415889 0.051157545 0.035546888
0.023948845 -0.0069939247 -0.02548676 0.049755394 0.032367036 -0.059539825 -0.034242634 -0.055494253
-0.00458188 0.041331623 -0.091759406 -0.015496296 0.025573775 0.06066115 -0.077371925 -0.016286995
-0.042137563 -0.0072334167 -0.03696705 0.017774362 0.002002009 -0.026448747 0.0038881602 0.028211448
-0.011086899 -0.037889443 0.014743641 0.05274212 -0.030059975 0.017631713 0.028579025 -0.03616508
-0.04149146 0.018976187 -0.00986171 -0.052727442 0.046860524 -0.053598527 -0.06724922 -0.028638268
0.011227335 0.0023467292 0.071314886 0.024903793 -0.010699011 -0.0722749 -0.0003173879 -0.042248324
-0.07916755 -0.033145577 -0.07665947 0.014817561 0.021660509 0.03850221 0.022013973 -0.030509016
0.021308107 0.020519633 -0.012490415 0.040009808 -0.033637505 -0.017769419 -0.011229836 -0.024175147
0.07050237 0.0018143232 0.06690378 0.02094328 0.02855235 0.015955953 0.012991807 0.0069568492
0.005643447 0.017517585 -0.015438136 -0.023655483 0.05253605 0.051586866 0.032274716 -0.021930914
-0.03846777 -0.086332224 0.047432825 -0.042974487 0.041768163 -0.042988755 0.042144492 -0.0040954542
-0.019032508 -0.00473914 -0.006991827 0.03132955 0.03757517 -0.04852056 0.044881336 0.0140977735
0.01758011 0.032439265 -0.021283986 0.027204676 -0.0277361 -0.013649522 -0.071997 0.055125736
0.0364301 0.0076152105 0.0024030095 -0.003488367 0.05469022 0.0022705474 0.03112241 0.018254647
0.038608618 -0.05713211 -0.0036597557 -0.033653956 -0.001903323 0.047528386 -0.01822513 -0.056893144
-0.033293553 -0.047194544 0.005671636 -0.004672347 -0.01158936 0.020166244 0.04937005 -0.011272993
-0.05725089 -0.010001249 0.046938527 -0.14127581 0.029658496 0.04349675 0.0286554 0.017126422
-0.013292371 -0.04205318 0.025386993 0.010806306 -0.00409049 -0.008024968 0.0040413374 -0.039617166
-0.05439125 0.07138555 -0.052090935 -0.011838574 0.014497512 -0.07469718 -0.04027067 0.031391714
0.005701047 -0.040042024 0.04007712 -0.06768533 -0.016947621 0.048229113 0.0016602048 0.07760291
-0.021891803 -0.0011501948 -0.037600342 -0.0120453825 -0.016510205 -0.0004824527 0.036968794 -0.062146515
-0.04889933 0.07997483 0.00049218815 0.040916543 0.053418618 0.05622898 0.058975216 0.061459016
-0.025834916 -0.033943724 0.071391374 0.02174993 -0.022505015 0.0050250655 0.034233816 -0.0036937667
0.027249979 -0.004560932 0.032082792 0.03126846 0.004833672 0.0282094 0.031943057 0.010966109
-0.06751481 0.03070045 0.008010017 0.06830294 0.037599448 -0.009809149 -0.006289465 0.011204665
-0.0099665 -0.00072289375 -0.01926024 -0.04036315 0.044626668 -0.057079155 0.043809358 -0.02563541
00000000: a451 503d b963 7d3d 6868 64ba f4f1 a23d
00000010: 698b 6e3c 91ef c33b 398d cbbb 900d b53d
00000020: 7904 0abc 72d5 26bd df75 29bd 3b71 2ebd
00000030: bc30 7d39 1853 1f3d 02d7 ae3c 109e c2bb
00000040: cd79 d33c 4bc7 d3bc 6c14 1bbd 38d7 063d
00000050: 61c5 193b 777b 393c fd13 83bd 0947 ac3b
00000060: 9597 943d 5d6e ebbc 445e 223d 31c5 00bd
00000070: 9680 813c eead 7bbb 8cda 553d db08 f13c
00000080: fd0e 553d 5207 4d3d 39ee a6bb 70ff c1bc
00000090: 8f63 30bd 27c9 993c 3308 77bd f55b 8fbc
000000a0: 1bde 80bc 001c 333c 36cd 903b 19e0 1cbc
000000b0: 57f1 6b3c 9ee0 973d 938a 513d 9d99 113d
000000c0: 5e30 c43c 4b2d e5bb 9cc9 d0bc 50cc 4b3d
000000d0: 4c93 043d 08e0 73bd 0142 0cbd f14d 63bd
000000e0: 9823 96bb 594b 293d 5bec bbbd 2de4 7dbc
000000f0: 1880 d13c d377 783d 2c75 9ebd 4e6c 85bc
00000100: 7098 2cbd 4c06 edbb c36a 17bd 8a9b 913c
00000110: 2334 033b 0bab d8bc 81d0 7e3b b21b e73c
00000120: d3a5 35bc f631 1bbd 508f 713c 1f08 583d
00000130: 5640 f6bc 6270 903c 8f1e ea3c d621 14bd
00000140: f3f2 29bd f373 9b3c 0293 21bc bbf8 57bd
00000150: d2f0 3f3d 218a 5bbd f6b9 89bd cd9a eabc
00000160: dbf2 373c 95cb 193b 8a0d 923d 0a03 cc3c
00000170: e84a 2fbc dd04 94bd 1567 a6b9 940c 2dbd
00000180: 9922 a2bd a8c3 07bd a4ff 9cbd 5bc5 723c
00000190: 6171 b13c 7eb4 1d3d a656 b43c 0bee f9bc
000001a0: 578e ae3c ca18 a83c 99a4 4cbc 53e1 233d
000001b0: 7bc7 09bd 2c91 91bc 59fd 37bc f50a c6bc
000001c0: 8c63 903d 96ce ed3a d904 893d 3e91 ab3c
000001d0: 9ee6 e93c 0fb6 823c 97db 543c 48f6 e33b
000001e0: aaec b83b 0a81 8f3c 3cf0 7cbc 25c9 c1bc
000001f0: 0b30 573d c04c 533d 7e32 043d 76a8 b3bc
00000200: 6190 1dbd f3ce b0bd ec48 423d 0406 30bd
00000210: 1815 2b3d fa14 30bd b49f 2c3d 2933 86bb
00000220: 10ea 9bbc ca4a 9bbb b21b e5bb 6a53 003d
00000230: 6ce8 193d 7fbd 46bd 7ed5 373d 59fa 663c
00000240: 2a04 903c 09df 043d c15b aebc 57dc de3c
00000250: d136 e3bc 3fa2 5fbc 2a73 93bd 86cb 613d
00000260: bb37 153d 0489 f93b cf7b 1d3b 169d 64bb
00000270: da02 603d 77cd 143b 6df4 fe3c c58a 953c
00000280: 1224 1e3d 5c03 6abd 83d8 6fbb bbd8 09bd
00000290: ec78 f9ba 20ad 423d de4c 95bc c908 69bd
000002a0: d25e 08bd 114f 41bd 22d9 b93b 7d1a 99bb
000002b0: 4de1 3dbc ae33 a53c 4038 4a3d 5cb2 38bc
000002c0: e97f 6abd 47dc 23bc 9d42 403d 9baa 10be
000002d0: 60f6 f23c a629 323d bbbe ea3c b64c 8c3c
000002e0: 3fc8 59bc f53f 2cbd 62f8 cf3c ef0c 313c
000002f0: 8409 86bb 287b 03bc 326d 843b 9c45 22bd
00000300: 5cc9 5ebd 9632 923d 4e5d 55bd 94f6 41bc
00000310: f986 6d3c d6fa 98bd dcf2 24bd 9994 003d
00000320: d9cf ba3b 1b03 24bd e827 243d 9b9e 8abd
00000330: bdd5 8abc e48b 453d 3b9b d93a 46ee 9e3d
00000340: 7056 b3bc 22c2 96ba d102 1abd ff59 45bc
00000350: 6940 87bc b5f1 fcb9 976c 173d 588d 7ebd
00000360: aa4a 48bd d8c9 a33d 3006 013a 1b98 273d
00000370: 7bcd 5a3d 5c50 663d ff8f 713d 73bc 7b3d
00000380: bfa3 d3bc 9308 0bbd a435 923d e92c b23c
00000390: 705c b8bc 4ea9 a43b c238 0c3d 1f13 72bb
000003a0: 593b df3c df73 95bb 3f69 033d 5b13 003d
000003b0: c863 9e3b 6617 e73c b9d6 023d 32ab 333c
000003c0: 3445 8abd 837f fb3c 723c 033c 69e2 8b3d
000003d0: e101 1a3d 8eb6 20bc db17 cebb c593 373c
000003e0: 884a 23bc 9480 3dba a7c7 9dbc d553 25bd
000003f0: 74ca 363d d5cb 69bd 7171 333d 5a01 d2bc

conv_layers.0.bias f4 [64]
0.019819673 0.0013813458 -0.028861143 -0.004186736 0.045102935 -0.0060423687 -0.06780057 -0.07872003
-0.08695439 -0.04576602 0.013162752 0.040000178 0.003134499 -0.013234691 -0.036869824 -0.053944875
0.02850854 0.024918968 0.062042095 -0.020569557 0.07452871 0.054002155 -0.011963391 0.00401566
0.010330772 -0.0016463132 0.03604423 -0.04324992 0.016093208 -0.003293829 0.038871665 0.072942115
-0.04219117 0.0132581815 -0.0015563013 0.013353599 0.05792609 0.036500726 -0.07076266 0.09513675
-0.12587795 -0.060225587 -0.016473027 -0.044938695 0.009942688 0.07920699 -0.022494923 0.01261656
-0.020540345 0.017425919 0.0008919448 -0.017022386 0.013287296 -0.085439935 -0.0056980546 0.044613548
-0.048649937 -0.054169998 0.007070253 -0.0044281334 0.004463717 -0.060503747 -0.06450646 -0.014797201
00000000: de5c a23c 460e b53a 346e ecbc e330 89bb
00000010: dbbd 383d 10ff c5bb 06db 8abd f837 a1bd
00000020: 2515 b2bd 2675 3bbd 95a8 573c 3ad7 233d
00000030: 2b6c 4d3b 51d6 58bc d004 17bd 4df5 5cbd
00000040: be8a e93c dd22 cc3c da1f 7e3d 7d81 a8bc
00000050: 82a2 983d 5d31 5d3d 1902 44bc cc95 833b
00000060: 6642 293c 1bc9 d7ba 1da3 133d d426 31bd
00000070: e7d5 833c 48dd 57bb e537 1f3d ad62 953d
00000080: a6d0 2cbd d838 593c cefc cbba 0ec9 5a3c
00000090: e843 6d3d c981 153d 03ec 90bd 0ed7 c23d
000000a0: 26e6 00be 1baf 76bd 71f2 86bc a311 38bd
000000b0: a8e6 223c 4637 a23d 4647 b8bc b0b5 4e3c
000000c0: 3a44 a8bc cdc0 8e3c 67d1 693a 8872 8bbc
000000d0: f5b2 593c 22fb aebd bfb6 babb b2bc 363d
000000e0: 2845 47bd 5ce1 5dbd 95ad e73b e019 91bb
000000f0: 5f44 923b c7d2 77bd f71b 84bd f66f 72bc

conv_layers.1.weight f4 [64, 256, 3]
-0.02203106 0.00032521627 0.015680244 0.059579648 0.0063814954 0.04861419 -0.04203874 0.05464638
0.027799748 0.017016105 -0.013917423 -0.0119865695 -0.014408689 -0.008856225 0.037296735 0.01242728
0.0042379294 0.026397295 -0.040254906 -0.021526754 0.038071655 -0.06920693 -0.010953845 0.014278728
-0.019148206 0.04353573 -0.0198866 -0.04614921 0.04914456 0.011410958 -0.056086835 -0.028127635
0.012858778 0.0063779815 0.0076107336 0.023679908 -0.03586807 0.06725701 0.0961064 -0.0065683117
0.015886944 -0.037610818 0.016387967 0.03696884 0.0114114145 0.006582233 0.049468424 -0.01869863
0.015987614 -0.041912064 0.033669166 -0.005366185 -0.018099936 -0.036583927 0.0072790217 -0.054678522
0.011136376 0.038793385 0.018688047 0.08925689 -0.02704665 0.05856888 0.056230582 -0.020064337
0.027753027 -0.011243436 0.040066376 -0.010679199 0.012616318 -0.040332366 0.013674306 -0.007493134
-0.056994375 0.0465275 0.0039438857 0.02957215 0.0833322 -0.0071863392 -0.029583002 -0.0060311393
0.023773104 0.0027265756 0.025481964 -0.0119728055 0.02526171 -0.007346533 -0.0038533085 0.0028359497
0.025291255 -0.10734997 -0.008865711 0.022710098 0.008477226 0.041439135 0.027982047 -0.048293173
-0.04128899 -0.0073819044 -0.094430186 0.048186604 0.014947444 -0.04150555 0.05867267 -0.0076964344
0.0145580275 0.03157538 0.11419909 -0.012944502 -0.0010197412 -0.009852463 0.021011574 0.019374762
0.027593182 0.036472213 -0.023393286 0.07203795 0.0504217 -0.0031048004 -0.02455583 0.070919745
0.0075166617 -0.0047915196 0.04265456 -0.04599622 0.013815982 -0.056781292 0.0831841 -0.031023594
0.02013973 -0.07391607 0.06679982 0.00866133 -0.0036817053 0.021151584 0.00977877 0.0062780534
0.005210117 -0.043163452 0.041025523 0.072275884 0.0053530466 0.003389298 0.014208947 -0.011141047
-0.052346133 -0.014284505 0.04075676 -0.013374219 0.042548325 -0.07782507 -0.066089764 -0.020334652
0.027209122 0.03164387 -0.013363299 -0.021186007 0.045923255 -0.025109386 0.0041330797 -0.09355012
-0.046343543 0.0017629209 -0.046462554 0.012001654 0.059796114 -0.052337185 0.04895485 -0.021580743
0.0027984416 -0.047653947 0.021787541 0.019736268 0.022704015 -0.0020788896 0.057616957 -0.038126208
-0.007933914 0.04901465 -0.018294169 -0.038017098 0.010327535 0.0223659 0.0201786 -0.006147356
-0.045388315 -0.014942916 -0.03955093 -0.008288178 -0.03550748 -0.0148868505 -0.048381735 -0.023395568
-0.0130777275 -0.02716169 0.009204761 0.05289807 0.06303771 0.000380353 -0.032111324 0.02543616
-0.038217653 -0.074124664 0.008353521 0.01840711 0.023033854 0.051403075 0.045080923 0.0060561006
-0.04374689 -0.08034838 -0.010845591 -0.061918054 -0.027729256 0.02506551 0.0079991 0.004934205
0.04679283 -0.069503866 -0.006817775 0.05373436 0.03222355 -0.00212641 -0.04415757 0.032589093
-0.022035658 -0.02279274 -0.05543295 -0.069980554 -0.008084348 0.061786573 -0.010965908 0.02680258
-0.038082384 -0.023006348 0.022850411 0.0068722363 -0.020671124 0.0068174615 0.04510812 -0.08925941
0.0033800309 0.0058454657 -0.026240615 0.07219308 -0.018440617 0.08303149 -0.03963476 0.052076504
-0.017080935 -0.047572244 0.04077819 0.01467572 0.03184918 0.057592455 0.01840379 -0.038982928
00000000: 7b7a b4bc ca81 aa39 db73 803c ca09 743d
00000010: dd1b d13b ac1f 473d d030 2cbd e2d4 5f3d
00000020: 4cbc e33c 5c65 8b3c e705 64bc 5163 44bc
00000030: 6c12 6cbc b319 11bc 76c4 183d ca9b 4b3c
00000040: 54de 8a3b 243f d83c 54e2 24bd e058 b0bc
00000050: 06f1 1b3d 5dbc 8dbd c277 33bc 53f1 693c
00000060: b3dc 9cbc 8652 323d 39e9 a2bc f406 3dbd
00000070: ce4b 493d 07f5 3a3c 4fbb 65bd ed6b e6bc
00000080: a0ad 523c 63fe d03b 7663 f93b 5efc c13c
00000090: 66ea 12bd 0bbe 893d 6fd3 c43d fe3a d7bb
000000a0: 5625 823c cd0d 1abd 0f40 863c a36c 173d
000000b0: f1f6 3a3c c6af d73b 679f 4a3d df2d 99bc
000000c0: 75f8 823c fcab 2bbd aee8 093d d3d6 afbb
000000d0: 5146 94bc 07d9 15bd dc84 ee3b 96f6 5fbd
000000e0: 5975 363c d0e5 1e3d ad17 993c 51cc b63d
000000f0: f090 ddbc ece5 6f3d 0a52 663d f75d a4bc
00000100: 515a e33c 6336 38bc a41c 243d cff7 2ebc
00000110: acb4 4e3c 8d33 25bd 320a 603c f788 f5bb
00000120: ef72 69bd 9f93 3e3d b63b 813b 4b41 f23c
00000130: 13aa aa3d 627b ebbb 0d58 f2bc dda0 c5bb
00000140: d0bf c23c 59b0 323b 8dbf d03c 9629 44bc
00000150: a5f1 ce3c 2fbb f0bb ca87 7cbb 57db 393b
00000160: 9b2f cf3c 4dda dbbd 7d41 11bc 870a ba3c
00000170: 10e4 0a3c 15bc 293d 9b3a e53c 10cf 45bd
00000180: a51e 29bd e7e3 f1bb 9d64 c1bd 515f 453d
00000190: 20e6 743c b901 2abd c152 703d 5f32 fcbb
000001a0: cb84 6e3c 3055 013d 36e1 e93d 2d15 54bc
000001b0: d6a8 85ba 3a6c 21bc 7720 ac3c d2b7 9e3c
000001c0: 190b e23c e363 153d 47a3 bfbc a288 933d
000001d0: fc86 4e3d e879 4bbb 4f29 c9bc 5f3e 913d
000001e0: 544e f63b 2e02 9dbb 8cb6 2e3d 8866 3cbd
000001f0: 6e5c 623c 8093 68bd 6d5c aa3d 3125 febc
00000200: 13fc a43c 4f61 97bd 58ce 883d 40e8 0d3c
00000210: c448 71bb 1646 ad3c 2237 203c 21b8 cd3b
00000220: a1b9 aa3b 29cc 30bd 610a 283d 6105 943d
00000230: 9c68 af3b fc1e 5e3b a5cc 683c f088 36bc
00000240: e668 56bd 8e09 6abc 8ff0 263d 8a1f 5bbc
00000250: 2747 2e3d c062 9fbd 125a 87bd db94 a6bc
00000260: aae5 de3c 019d 013d bdf1 5abc 478e adbc
00000270: 061a 3c3d 33b2 cdbc c96e 873b 3597 bfbd
00000280: bad2 3dbd cf11 e73a 854f 3ebd 96a2 443c
00000290: c5ec 743d 845f 56bd e184 483d 19ca b0bc
000002a0: 0f66 373b c930 43bd c97b b23c f4ad a13c
000002b0: c5fd b93c fb3d 08bb c2ff 6b3d 3a2a 1cbd
000002c0: 3ffd 01bc 96c3 483d a7dd 95bc d1b7 1bbd
000002d0: d234 293c b138 b73c 974d a53c c26f c9bb
000002e0: 19e9 39bd 22d3 74bc 2800 22bd 23cb 07bc
000002f0: 4b70 11bd fae7 73bc ed2b 46bd 10a8 bfbc
00000300: f743 56bc 3182 debc 91cf 163c a6ab 583d
00000310: ea19 813d 1e6a c739 2a87 03bd 7e5f d03c
00000320: 1d8a 1cbd acce 97bd 35dd 083c 82ca 963c
00000330: 7eb1 bc3c 088c 523d c6a6 383d 4172 c63b
00000340: f02f 33bd b18d a4bd b5b1 31bc c99d 7dbd
00000350: 7728 e3bc 2f56 cd3c a80e 033c 1daf a13b
00000360: d7a9 3f3d 0b58 8ebd a467 dfbb 8f18 5c3d
00000370: d7fc 033d 3d5b 0bbb 91de 34bd 247c 053d
00000380: 2084 b4bc d7b7 babc a90d 63bd f751 8fbd
00000390: 3774 04bc eb13 7d3d 5aaa 33bc 1691 db3c
000003a0: 46fc 1bbd cf77 bcbc c930 bb3c 7f30 e13b
000003b0: 7d56 a9bc 0365 df3b 4bc3 383d a3cd b6bd
000003c0: 8283 5d3b 528b bf3b 8ff6 d6bc f7d9 933d
000003d0: c710 97bc 6a0c aa3d 0f58 22bd 2c4e 553d
000003e0: 51ed 8bbc 1ddb 42bd 0807 273d 6e72 703c
000003f0: 4974 023d 11e6 6b3d 8cc3 963c 90ac 1fbd

conv_layers.1.bias f4 [64]
0.007457913 -0.04833689 -0.01809334 -0.0007474083 -0.028386954 0.032415133 0.018592924 0.06487621
-0.012395533 -0.022644093 0.013151685 -0.015751168 0.010986652 -0.02383078 -0.016814059 0.028406622
-0.03588607 0.076042086 -0.016829021 -0.03111395 0.0060084243 0.009909315 0.007076411 -0.024435643
0.029978098 0.04471648 0.0022744427 0.049039733 0.047323894 -0.014413547 0.004675607 -0.004495344
0.01645081 0.06405061 -0.03354692 -0.034172136 -0.050205205 0.025051324 -0.017559927 0.080693066
-0.033384494 -0.028053116 -0.0009155736 -0.020774197 0.022994729 -0.02772808 -0.014352566 0.06926
-0.02908007 0.015260502 0.04135099 0.0061892215 -0.003087845 0.06269038 0.018712359 -0.05148777
0.0337671 0.008214545 -0.015824253 -0.03955146 0.008012867 0.022154476 -0.024990201 -0.059711058
00000000: 8261 f43b e7fc 45bd 7c38 94bc b9ed 43ba
00000010: c28b e8bc bbc5 043d 3050 983c d2dd 843d
00000020: a216 4bbc 1b80 b9bc 2a7a 573c 9808 81bc
00000030: 5c01 343c c538 c3bc a3bd 89bc 01b5 e83c
00000040: 46fd 12bd f4bb 9b3d 04dd 89bc afe2 febc
00000050: 51e2 c43b ae5a 223c 3de1 e73b 422d c8bc
00000060: a194 f53c a128 373d d10e 153b e3dd 483d
00000070: b3d6 413d cc26 6cbc d635 993b ae4d 93bb
00000080: d9c3 863c f72c 833d 7f68 09bd 15f8 0bbd
00000090: f9a3 4dbd 6f38 cd3c d6d9 8fbc 6842 a53d
000000a0: 2ebe 08bd a6cf e5bc 1b03 70ba a62e aabc
000000b0: 715f bc3c 0026 e3bc 0627 6bbc 30d8 8d3d
000000c0: 5439 eebc 2f07 7a3c a85f 293d f4ce ca3b
000000d0: 715d 4abb d063 803d a94a 993c d7e4 52bd
000000e0: 5f4f 0a3d 4d96 063c dda1 81bc b600 22bd
000000f0: 6648 033c 4e7d b53c 40b8 ccbc 9593 74bd

conv_layers.2.weight f4 [64, 256, 4]
0.036410797 -0.04147857 0.011838378 0.04937969 -0.030476455 0.06221529 -0.021335639 0.01329246
-0.037020635 0.07218915 0.008018954 -0.00794462 0.018643465 0.021056924 -0.0318823 -0.023803093
-0.031498395 -0.0042581162 -0.02272209 -0.029978823 0.050632324 0.01076818 -0.029752264 -0.09809097
-0.011732768 0.013589457 -0.015970604 -0.040239114 0.059050225 -0.030089764 0.018559117 0.01991977
0.024592333 0.03638731 -0.0017762255 0.019655833 -0.05421603 -0.011866259 -0.00980694 -0.053565506
0.0498778 0.014169611 -0.043820165 -0.035251632 -0.006727771 -0.029522764 -0.008677667 -0.011321608
0.010070104 0.007690896 -0.057502348 0.025568139 0.0008399234 -0.0018525912 -0.022014042 -0.03129677
0.0013876931 0.019190906 -0.030066557 -6.227959e-05 -0.032579776 0.02847505 0.02441255 0.017031403
0.061844062 -0.05246881 0.0720768 0.018547086 0.06708017 0.04340436 0.05106105 0.058337823
-0.018548263 0.037796263 -0.004568414 0.022420403 -0.016497754 0.024993826 -0.020424234 -0.025500441
-0.008275408 0.03915643 -0.030628437 -0.047215074 -0.006170309 0.04830512 -0.0038818682 -0.010090169
-0.025832014 -0.05713959 -0.04084824 0.07750044 0.01761199 0.009199016 -0.026242273 -0.019271605
-0.0018739316 -0.050690584 0.022152375 0.027719315 0.01790531 -0.03474012 -0.0012250989 -0.05066775
0.051092252 -0.041185856 0.06986783 -0.00059291814 0.031169135 -0.025103204 -0.011058456 -0.016907414
-0.034751933 -0.01184494 0.028141575 0.03190896 0.014790909 -0.034544606 -0.0036705947 0.01250893
0.047121342 -0.035121147 -0.0066617858 -0.049212717 0.027004022 -0.062277544 0.025252685 0.08430562
0.039497603 -0.026422378 -0.03567898 -0.0090222955 -0.05344832 0.048760217 0.027425421 0.038255624
-0.01340036 -0.026376871 -0.007484431 0.03968456 0.0075818636 -0.04104458 0.021116529 0.02303793
0.013090736 0.014495203 0.018418258 -0.009713604 -0.07755869 0.021888616 0.07351754 -0.01999615
0.015177106 0.013712268 -0.003549059 0.02027548 0.0378124 0.06159139 -0.04307919 -0.0022657595
-0.0027627042 0.031530827 0.049574617 0.05582609 -0.017979456 -0.055767458 0.036565088 -0.022657515
-0.023499466 0.008768099 0.04042697 0.005783207 0.049135186 0.049682166 -0.027152035 0.024142314
-0.08139998 0.0064087673 -0.016820243 -0.007318839 -0.030457769 0.12505394 0.022465099 0.006809466
-0.0021074596 0.009129919 0.076746665 0.01444669 -0.045608364 -0.014717319 0.011446063 -0.005214634
-0.06955398 0.0059675393 -0.046687722 0.06693521 -0.004295416 0.04978043 -0.013621958 0.046332397
0.025645135 -0.0450427 -0.018710203 -0.026661646 -0.006317734 -0.016273417 -0.04815309 -0.020442259
0.060104344 0.036730178 0.0102837095 0.008890734 0.031385172 -0.04538187 -0.038225308 -0.028717631
0.014936261 -0.023183566 0.044391956 0.008510278 0.078311786 -0.0431365 0.033384286 0.0580615
0.032505583 0.040196568 -0.013952225 0.021828718 -0.040511727 0.004431077 -0.020973792 0.03768029
0.038445707 -0.019198928 -0.0052653714 -0.024560248 -0.024512509 -0.028786305 -0.0023581136 0.048694015
0.022692498 0.022152605 -0.07173262 0.012115694 0.022687139 0.016569747 -0.01803783 -0.0018959251
-0.014863323 0.04240003 0.07984423 -0.0025076752 -0.032698113 -0.02795367 0.016948698 0.014576318
00000000: 7d23 153d 6fe5 29bd c2f5 413c 5c42 4a3d
00000010: c2a9 f9bc 76d5 7e3d 14c8 aebc 9ec8 593c
00000020: f3a2 17bd e8d7 933d ee61 033c 272a 02bc
00000030: 2eba 983c 927f ac3c 0497 02bd b4fe c2bc
00000040: 7604 01bd ab87 8bbb ad23 babc 2696 f5bc
00000050: d763 4f3d 056d 303c 05bb f3bc ebe3 c8bd
00000060: cc3a 40bc 50a6 5e3c c9d4 82bc c5d1 24bd
00000070: a6de 713d cf7e f6bc 4a09 983c c92e a33c
00000080: dc75 c93c dc0a 153d 3dd0 e8ba 4505 a13c
00000090: a111 5ebd b36a 42bc 4aad 20bc 8167 5bbd
000000a0: aa4c 4c3d a827 683c c67c 33bd 0464 10bd
000000b0: a274 dcbb b9d9 f1bc c62c 0ebc 447e 39bc
000000c0: 14fd 243c e903 fc3b 9587 6bbd 4674 d13c
000000d0: 4e2e 5c3a a5d2 f2ba cb56 b4bc 0b31 00bd
000000e0: 41e3 b53a 3f36 9d3c 244e f6bc 1a9c 82b8
000000f0: 5f72 05bd 8244 e93c d4fc c73c 7185 8b3c
00000100: 3350 7d3d 89e9 56bd 009d 933d 0ff0 973c
00000110: 5461 893d c5c8 313d 6425 513d a4f3 6e3d
00000120: 87f2 97bc 41d0 1a3d a2b2 95bb feaa b73c
00000130: 4c26 87bc dabf cc3c b950 a7bc 4de6 d0bc
00000140: 9495 07bc 7e62 203d 7de8 fabc 9864 41bd
00000150: 4e30 cabb 97db 453d f166 7ebb 3c51 25bc
00000160: a99d d3bc 340b 6abd 7c50 27bd 8db8 9e3d
00000170: 0547 903c 78b7 163c 09fa d6bc 7cdf 9dbc
00000180: b69e f5ba eea0 4fbd e678 b53c 9e13 e33c
00000190: 28ae 923c a84b 0ebd 7f93 a0ba fd88 4fbd
000001a0: 1c46 513d 80b2 28bd dd16 8f3d 106e 1bba
000001b0: 6a56 ff3c 3ca5 cdbc 872e 35bc 6b81 8abc
000001c0: 0b58 0ebd 4711 42bc 2989 e63c f8b2 023d
000001d0: 9255 723c a57e 0dbd 5c8e 70bb 41f2 4c3c
000001e0: 4f02 413d 31db 0fbd 1c4b dabb 4693 49bd
000001f0: 8a37 dd3c bd16 7fbd b8de ce3c 6da8 ac3d
00000200: 3dc8 213d be73 d8bc 1f24 12bd 40d2 13bc
00000210: a0ec 5abd cbb8 473d 47ab e03c eeb1 1c3d
00000220: 2f8d 5bbc 4f14 d8bc f53f f5bb 478c 223d
00000230: 4871 f83b 5d1e 28bd 92fc ac3c 0aba bc3c
00000240: 877a 563c 4a7d 6d3c e3e1 963c cf25 1fbc
00000250: 17d7 9ebd c14f b33c 5d90 963d f7ce a3bc
00000260: 65a9 783c 6ca9 603c 5497 68bb c318 a63c
00000270: 2de1 1a3d 4147 7c3d ce73 30bd 237d 14bb
00000280: 7c0e 35bb 7826 013d c10e 4b3d e6a9 643d
00000290: a749 93bc 6b6c 64bd 46c5 153d 419c b9bc
000002a0: f481 c0bc 13a8 0f3c c096 253d 0e81 bd3b
000002b0: fa41 493d 877f 4b3d f26d debc 1ac6 c53c
000002c0: 08b5 a6bd a300 d23b 9bca 89bc dfd2 efbb
000002d0: 9282 f9bc 240e 003e ba08 b83c f121 df3b
000002e0: 4e1d 0abb a895 153c 5b2d 9d3d cfb1 6c3c
000002f0: d6cf 3abd e920 71bc 4588 3b3c 85df aabb
00000300: 5172 8ebd 598b c33b a03b 3fbd 5415 893d
00000310: 90c0 8cbb 90e6 4b3d a22e 5fbc 0ac7 3d3d
00000320: bf15 d23c b27e 38bd 2446 99bc 8669 dabc
00000330: fe04 cfbb d44f 85bc 2d3c 45bd 8676 a7bc
00000340: f92f 763d 6272 163d 017d 283c 71aa 113c
00000350: bd8d 003d 57e2 39bd 2492 1cbd 3d41 ebbc
00000360: 38b7 743c 76eb bdbc 57d4 353d b16e 0b3c
00000370: ee61 a03d e6af 30bd f6bd 083d e5d1 6d3d
00000380: 9324 053d 28a5 243d e097 64bc 24d2 b23c
00000390: a0ef 25bd 9132 913b 3bd1 abbc a656 1a3d
000003a0: 3f79 1d3d 1247 9dbc 2389 acbb 9332 c9bc
000003b0: 75ce c8bc 42d1 ebbc 958a 1abb 6073 473d
000003c0: 9ee5 b93c 6179 b53c 8de8 92bd e780 463c
000003d0: 61da b93c 47bd 873c 12c4 93bc b180 f8ba
000003e0: 4c85 73bc a7ab 2d3d 5f85 a33d cf57 24bb
000003f0: 75ee 05bd 18ff e4bc ffd7 8a3c 82d1 6e3c

conv_layers.2.bias f4 [64]
0.019427817 0.025708428 -0.005738962 -0.03126015 -0.058872037 -0.033877626 -0.025330575 0.0007662455
0.019351518 0.039065257 0.054693177 -0.0126861315 -0.043188352 0.012346861 -0.039869245 -0.045018855
-0.020509344 -0.00073584 -0.011596877 0.04843665 -0.049657226 -0.04920898 0.049354937 0.03672674
-0.0904814 0.007573865 -0.019541962 -0.054423798 0.04918391 0.023286691 -0.032170847 -0.028465208
0.0067314464 0.03997783 0.027203683 -0.038420323 -0.02967372 0.04810518 0.01213969 0.004904344
-0.0068771723 0.053550467 -0.05105333 -0.0049100686 0.07529021 0.073176704 -0.04331397 -0.032147884
0.017044418 0.04497915 0.04288803 -0.009942141 -0.02469042 -0.043791253 -0.024473693 -0.042246044
0.026723877 0.014470412 0.009067383 0.003993502 0.0048774197 -0.014002834 0.03834222 0.042468622
00000000: 1627 9f3c 7b9a d23c e70d bcbb a50a 00bd
00000010: ce23 71bd 44c3 0abd 1182 cfbc dddd 483a
00000020: 1387 9e3c e402 203d f405 603d 7ed9 4fbc
00000030: 45e6 30bd 7d4a 4a3c ef4d 23bd b165 38bd
00000040: 3603 a8bc 63e5 40ba d400 3ebc 8265 463d
00000050: 6065 4bbd 5b8f 49bd 6728 4a3d c76e 163d
00000060: 504e b9bd 2f2e f83b 7716 a0bc 7deb 5ebd
00000070: 1175 493d bbc3 be3c 94c5 03bd de2f e9bc
00000080: 7793 dc3b cbbf 233d 42da de3c a15e 1dbd
00000090: 4d16 f3bc f009 453d 8de5 463c 9fb4 a03b
000000a0: e759 e1bb bc57 5b3d 4c1d 51bd a4e4 a0bb
000000b0: c131 9a3d abdd 953d fd69 31bd 80ad 03bd
000000c0: bca0 8b3c 0f3c 383d 5cab 2f3d 5de4 22bc
000000d0: 9043 cabc 755e 33bd 0e7d c8bc 300a 2dbd
000000e0: 08ec da3c 4f15 6d3c 5c8f 143c ecdb 823b
000000f0: c3d2 9f3b 256c 65bc bb0c 1d3d 94f3 2d3d

conv_layers.3.weight f4 [64, 256, 5]
0.015357156 0.052578885 -0.0020921896 -0.019831978 0.035428233 -0.039692175 -0.0119226985 -0.005125429
0.019636493 0.01313686 0.055310074 0.014483641 -0.03733327 0.0484893 -0.021229388 0.03596588
-0.025789067 0.08114012 -0.05322368 0.0010238496 -0.00042566244 -0.029148502 -0.02650305 0.0059705493
-0.039023295 0.025239347 0.056996025 0.08546912 0.04906332 -0.03474206 0.0522518 -0.0004052794
0.07176992 0.104117565 -0.0132642975 0.0035434323 0.0019427764 -0.009545349 0.02406182 -0.048890933
-0.032294385 0.034551226 -0.0064981743 0.0060354234 0.078153074 0.05955934 -0.008107021 -0.014838568
0.03783389 0.00050011283 -0.0006398373 -0.013217158 -0.06481786 0.027388383 -0.0034668266 -0.023742635
0.040425472 0.023843322 0.006552401 -0.020091169 0.031822853 -0.057755172 -0.00025826733 -0.049231034
0.039163154 -0.0038451892 0.032841146 -0.0064498195 0.026223034 -0.0043233074 0.0017830833 -0.0030381526
-0.054049004 -0.07262111 -0.029624714 0.018232392 0.027623683 0.007946109 0.01513114 0.019611793
-0.057193276 -0.011235497 -0.022548873 0.048424013 -0.059838705 -0.028395139 -0.050064377 0.015651857
-0.020468278 0.037851565 -0.059834577 -0.0008335782 0.0067885653 -0.0123373065 0.017039659 0.0039669997
-0.0006431565 -0.024479259 0.050783217 0.08650965 0.061895672 -0.029064737 0.009005171 0.02844051
-0.0012534237 -0.023016501 0.03532996 -0.08570644 0.041839156 -0.027047338 -0.050177306 -0.05270078
-0.055701207 -0.07217291 -0.04183252 0.023359144 0.0017388987 -0.05489262 0.041092575 0.022490641
-0.031195264 0.032236192 -0.0100948475 -0.03631131 -0.030217947 0.038644955 -0.009119105 0.016282411
0.019042911 0.061055474 -0.03534312 -0.02237728 -0.031967845 -0.028792914 -0.056199703 -0.039508313
-0.023340063 -0.057693306 0.012128789 -0.014146549 -0.0142833935 -0.02806852 -0.00010341539 -0.02096222
-0.032084163 0.00033786858 0.026556047 -0.03860133 0.05130136 -0.016226422 -0.015162463 -0.015267922
-0.049794927 -0.004609755 -0.026907949 -0.03427401 -0.054025 0.00021119324 -0.02046605 -0.030425046
-0.029083459 0.021284277 -0.012842578 0.044474762 -0.0058976193 0.011540929 -0.029806372 0.015361072
0.03717234 -0.009734701 0.020212872 0.021004789 -0.032364085 0.0016542748 -0.018169332 -0.030705657
0.009179769 -0.004391663 0.040636905 -0.014357653 -0.027755838 0.082626 0.024555748 0.013185523
-0.04658334 -0.053200744 -0.022173738 -0.051063176 -0.029551683 0.022654708 0.03352887 0.022442613
-0.00296284 0.012073888 -0.03499594 0.11156053 -0.022040151 -0.048345808 -0.049629528 0.054970603
-0.024254223 -0.007286866 -0.033091173 -0.04535539 0.038267314 -0.022766517 -0.032331046 0.0008534361
0.029827282 0.014266819 0.006749813 0.011914198 0.009620107 0.00821994 -0.024265474 0.044099543
-0.0062931906 0.033816084 -0.022755496 -0.04991827 0.08457196 0.014435867 -0.048359144 0.018684719
-0.045624647 -0.0059644016 -0.028042875 0.0047089695 0.035126347 -0.01779231 0.0010065064 0.039417136
0.036395013 0.00978087 -0.06870556 0.062046804 -0.008658852 0.046786945 0.039040864 -0.0014963512
-0.014168236 0.0055305967 0.0076971445 -0.02471939 0.016586011 0.00862582 0.0012595904 -0.006128196
0.01588047 -0.004871089 -0.01875107 0.012291632 0.01387394 -0.030998169 -0.055067874 0.014480563
00000000: 959c 7b3c f55c 573d 1e1d 09bb ac76 a2bc
00000010: 321d 113d 4394 22bd 6c57 43bc 37f3 a7bb
00000020: b6dc a03c fc3b 573c d18c 623d cb4c 6d3c
00000030: c5ea 18bd b79c 463d 41e9 adbc f550 133d
00000040: 9843 d3bc cb2c a63d 1301 5abd b132 863a
00000050: 722b dfb9 d7c8 eebc ed1c d9bc 99a4 c33b
00000060: e4d6 1fbd bfc2 ce3c aa74 693d 6f0a af3d
00000070: 9ff6 483d b14d 0ebd fc05 563d ae7b d4b9
00000080: 1cfc 923d 973b d53d 7f52 59bc ee38 683b
00000090: c2a4 fe3a 1864 1cbc 4b1d c53c dc41 48bd
000000a0: 1e47 04bd 9685 0d3d a3ee d4bb cdc4 c53b
000000b0: b80e a03d 7ff4 733d 50d3 04bc 771d 73bc
000000c0: b6f7 1a3d 011a 033a c1ba 27ba c78c 58bc
000000d0: 3abf 84bd 9a5d e03c b333 63bb ea7f c2bc
000000e0: 2e95 253d 1253 c33c 86b5 d63b 3c96 a4bc
000000f0: ae58 023d b090 6cbd 0e68 87b9 7ba6 49bd
00000100: 8b69 203d 92ff 7bbb 7084 063d 0259 d3bb
00000110: b0d1 d63c 88aa 8dbb 59b6 e93a be1b 47bb
00000120: 7d62 5dbd 60ba 94bd 87af f2bc 195c 953c
00000130: 104b e23c 6630 023c 9ae8 773c e9a8 a03c
00000140: 7f43 6abd 1715 38bc 6ab8 b8bc 4258 463d
00000150: 6e19 75bd ec9c e8bc 4e10 4dbd 5338 803c
00000160: 17ad a7bc 3e0a 1b3d 1a15 75bd 7c84 5aba
00000170: 9d72 de3b 6a22 4abc c196 8b3c 9bfd 813b
00000180: 8199 28ba ba88 c8bc 1002 503d f92b b13d
00000190: 5186 7d3d 2c19 eebc 6d8a 133c 13fc e83c
000001a0: ec49 a4ba 1a8d bcbc 26b6 103d dc86 afbd
000001b0: 895f 2b3d 6192 ddbc b886 4dbd c6dc 57bd
000001c0: f326 64bd 64cf 93bd 9458 2bbd ad5b bf3c
000001d0: c2eb e33a 15d7 60bd b050 283d 4b3e b83c
000001e0: 368d ffbc 190a 043d dc64 25bc 2bbb 14bd
000001f0: a18b f7bc 2c4a 1e3d 4c68 15bc b162 853c
00000200: e1ff 9b3c 4e15 7a3d f3c3 10bd 8f50 b7bc
00000210: b7f0 02bd 1edf ebbc a931 66bd 78d3 21bd
00000220: a933 bfbc d14f 6cbd d4b7 463c edc6 67bc
00000230: e504 6abc f4ef e5bc b7e0 d8b8 f6b8 abbc
00000240: af6a 03bd f423 b139 118c d93c 6e1c 1ebd
00000250: 6021 523d 46ed 84bc fb6b 78bc 4e26 7abc
00000260: c4f5 4bbd 6d0d 97bb 0f6e dcbc e862 0cbd
00000270: 5249 5dbd c173 5d39 6ba8 a7bc f23d f9bc
00000280: 6f40 eebc 5d5c ae3c ad69 52bc 2b2b 363d
00000290: d140 c1bb 2a16 3d3c 7e2c f4bc 01ad 7b3c
000002a0: 0642 183d 4c7e 1fbc 7795 a53c 3c12 ac3c
000002b0: 3490 04bd 40d4 d83a dad7 94bc 6e8a fbbc
000002c0: be66 163c f0e7 8fbb e272 263d 5d3c 6bbc
000002d0: 3660 e3bc d237 a93d 2329 c93c 1808 583c
000002e0: 2cce 3ebd 06e9 59bd b3a5 b5bc 9f27 51bd
000002f0: 5f16 f2bc 5e96 b93c 9255 093d 92d9 b73c
00000300: 352c 42bb 8fd1 453c e757 0fbd d979 e43d
00000310: 8c8d b4bc 4106 46bd 5548 4bbd db28 613d
00000320: cbb0 c6bc aac6 eebb 9c8a 07bd 93c6 39bd
00000330: 30be 1c3d d980 babc 8f6d 04bd 21b9 5f3a
00000340: 5858 f43c 60bf 693c 892d dd3b c533 433c
00000350: a79d 1d3c edac 063c 63c8 c6bc b9a1 343d
00000360: 1c37 cebb bc82 0a3d bc69 babc 1a77 4cbd
00000370: 1034 ad3d 6a84 6c3c 3d14 46bd b210 993c
00000380: e9e0 3abd 0771 c3bb 2cba e5bc b34d 9a3b
00000390: a5e0 0f3d 2ec1 91bc c0ec 833a dd73 213d
000003a0: f012 153d f13f 203c 80b5 8cbd ca24 7e3d
000003b0: dcdd 0dbc aba3 3f3d 50e9 1f3d 3721 c4ba
000003c0: e421 68bc 023a b53b 5438 fc3b 5180 cabc
000003d0: 63df 873c 5053 0d3c d718 a53a 09cf c8bb
000003e0: c217 823c a89d 9fbb d89b 99bc d762 493c
000003f0: 864f 633c dfef fdbc da8e 61bd e23f 6d3c

conv_layers.3.bias f4 [64]
-0.088384874 -0.005821424 -0.068581276 0.0074831457 -0.06251551 0.002303906 0.0032415178 -0.08659949
0.014363792 0.033157244 -0.04009603 0.025109569 0.0057762917 -0.036416736 0.084585264 0.029695868
-0.09174181 0.0019930562 -0.051195968 -0.030224526 0.016899318 0.033911314 -0.022514394 -0.012250519
0.039975483 -0.076037966 0.0879169 0.02962716 0.018406197 -0.07922747 -0.05579048 0.0132901445
0.052063692 0.03337142 -0.054780107 -0.00046392533 -0.025648283 -0.04245303 -0.010747968 -0.04928327
0.013242585 -0.020030571 0.0013836442 0.020636594 0.0007332387 -0.026022533 -0.03007217 -0.026366496
-0.0011333791 0.015080768 -0.032858375 -0.024631308 0.014558407 0.0018149011 -0.010152032 -0.062027298
-0.05866373 -0.034197044 0.01979999 -0.047231305 -0.013321975 -0.04196421 -0.026009124 -0.04131348
00000000: 2103 b5bd a5c1 bebb 5774 8cbd 2d35 f53b
00000010: 2208 80bd 21fd 163b a56f 543b 135b b1bd
00000020: 1c56 6b3c e4cf 073d bc3b 24bd 95b2 cd3c
00000030: 0c47 bd3b b729 15bd 0a3b ad3d c044 f33c
00000040: 21e3 bbbd ef9d 023b ddb2 51bd 6d99 f7bc
00000050: 7070 8a3c 97e6 0a3d 1b70 b8bc 67b6 48bc
00000060: 55bd 233d cbb9 9bbd c70d b43d a8b4 f23c
00000070: 98c8 963c 0342 a2bd 8f84 64bd e8be 593c
00000080: bd40 553d 78b0 083d 1b61 60bd 013b f3b9
00000090: 591c d2bc 3ae3 2dbd 3f18 30bc 41dd 49bd
000000a0: 6df7 583c 2717 a4bc 655b b53a 130e a93c
000000b0: d136 403a 352d d5bc e959 f6bc 8dfe d7bc
000000c0: e48d 94ba 5315 773c 8196 06bd 99c7 c9bc
000000d0: 6286 6e3c fae1 ed3a b554 26bc 5610 7ebd
000000e0: 6149 70bd 3312 0cbd 9733 a23c 9d75 41bd
000000f0: 6a44 5abc aae2 2bbd 1611 d5bc 5338 29bd

fc1.weight f4 [64, 256]
-0.053985074 0.03851505 0.0070942887 -0.0054744976 -0.05785561 0.03334987 0.08837751 0.024158392
-0.0043317536 -0.012162248 -0.017217532 -0.036437895 -0.010130841 -0.04869987 0.06124448 0.0033057574
-0.031412464 -0.035706066 -0.02564009 0.007554813 0.013432191 0.05871868 -0.0013852305 -0.036169734
0.026639683 -0.020784743 0.037906215 -0.026585763 0.044872154 0.01748705 -0.052976247 -0.0024248709
-0.023471028 0.0021987418 -0.05953082 0.032280847 -0.016223907 -0.06484873 -0.043287303 0.027301917
0.00760049 0.0088336505 0.028437063 -0.038357433 -0.023699736 0.012421494 0.050415438 -0.013745756
-0.03371321 0.015941719 -0.02004212 -0.015381939 -0.03276281 0.049438152 0.062240604 -0.04124371
-0.021799559 0.049972586 0.011400761 0.03409178 0.052884094 -0.03847181 0.010848272 0.029453145
-0.0027276 -0.014439435 0.079445206 -0.059423663 0.016308343 0.01852454 -0.025844999 0.009453855
0.008394608 -0.03168221 0.0070000207 -0.023138836 -0.0074482225 0.051809337 -0.027862124 0.02611311
0.044054355 -0.029834937 0.06673933 -0.034122467 -0.018101284 0.037730604 0.020760031 0.0014864549
-0.04062317 0.009759134 0.043628693 -0.042946454 0.032977723 -0.06124429 0.03184415 0.078723066
0.03429237 0.06532051 -0.016864548 0.011397305 0.00930137 -0.036227055 0.05195091 -0.0005685296
0.031986933 0.033993337 -0.023936316 -0.055704404 0.022404911 0.00031144507 -0.0058400887 0.009251092
0.01807136 0.036628354 0.02492276 0.037328806 -0.019718608 0.0070588193 0.0059797084 -0.034934197
-0.015314015 -0.01421358 0.03973523 0.046606526 -0.01759806 -0.03331648 -0.009286427 -0.04416578
-0.022845779 0.039657205 0.00039804395 0.004232607 -0.06985094 -0.028201763 0.0032300663 0.058505338
0.02958175 -0.015234055 0.00071847154 -0.0060411543 -0.024924899 -0.015415423 0.014612379 -0.0043429276
0.07967523 0.024102831 0.045004606 0.04387576 0.019481339 0.009997144 -0.05919196 0.016732303
-0.059110776 0.025165536 -0.0013084621 -0.012472082 -0.0065240283 -0.034219977 0.055923734 -0.055342555
0.034590114 0.032032516 -0.013519216 0.01670918 -0.011330351 -0.049335778 -0.027288703 -0.06205464
0.046933804 0.019733628 -0.06977608 -0.004147162 -0.036576156 -0.01673304 -0.027863845 0.06688821
-0.020809384 0.00946907 0.0019111653 0.05282148 0.010282734 0.026650174 0.0546868 -0.026858997
-0.045763005 -0.053332724 0.025842238 -0.026576879 -0.06705939 0.02449397 0.0026329525 0.0017716236
0.01601327 -0.04289326 -0.078985125 -0.051003546 -0.00747429 -0.06469696 -0.044555858 0.042637847
0.022327036 -0.048947014 0.023250224 0.044586547 0.015015952 -0.01198547 -0.03081061 0.039908104
-0.026377754 0.021161692 0.016402245 0.05342585 0.026626768 -0.07439938 0.017870268 -0.022579322
0.0131517835 0.044770814 -0.03887133 -0.020360962 0.023668397 0.036354266 0.06738127 -0.027981838
0.0050129388 0.006830681 0.009506599 -0.02630521 -0.034696758 0.026566138 -0.036743905 0.047657877
0.0063973432 0.038696352 -0.057750218 -0.033762943 -0.04138438 -0.030779714 0.02888061 -0.034959126
0.011761669 -0.05224611 0.01431937 -0.057121556 -0.02080907 -0.032713775 0.0054790108 0.066887766
0.0068108565 0.028996002 -0.018966084 -0.03102626 0.07745846 -0.04457332 0.022683358 0.054078333
00000000: 741f 5dbd f5c1 1d3d 3577 e83b 6a63 b3bb
00000010: 01fa 6cbd e099 083d 45ff b43d d2e7 c53c
00000020: 62f1 8dbb 2a44 47bc c80b 8dbc e73f 15bd
00000030: d4fb 25bc 8479 47bd 7edb 7a3d 68a5 583b
00000040: 5baa 00bd 8640 12bd 2b0b d2bc 5d8e f73b
00000050: b112 5c3c 0083 703d 9f90 b5ba b726 14bd
00000060: 773b da3c c444 aabc 8c43 1b3d 63ca d9bc
00000070: ddcb 373d 0041 8f3c 9ffd 58bd 95ea 1ebb
00000080: 5046 c0bc c418 103b 97d6 73bd ec38 043d
00000090: 00e8 84bc 69cf 84bd 074e 31bd 45a8 df3c
000000a0: 880d f93b 04bb 103c d8f4 e83c af1c 1dbd
000000b0: f325 c2bc 8683 4b3c 6b80 4e3d e135 61bc
000000c0: dd16 0abd 3598 823c 5f2f a4bc 8704 7cbc
000000d0: 4c32 06bd a97f 4a3d 01f0 7e3d 2aef 28bd
000000e0: fd94 b2bc 0eb0 4c3d 42ca 3a3c d3a3 0b3d
000000f0: fe9c 583d 9e94 1dbd f3bc 313c b947 f13c
00000100: 89c1 32bb 6193 6cbc 2bb4 a23d 3a66 73bd
00000110: 1399 853c c7c0 973c e4b8 d3bc 58e4 1a3c
00000120: 8a89 093c 34c5 01bd 6e60 e53b a88d bdbc
00000130: 3810 f4bb 0736 543d 1c3f e4bc 29eb d53c
00000140: 5772 343d 6668 f4bc a1ae 883d 00c4 0bbd
00000150: 2549 94bc 688b 1a3d f110 aa3c 26d5 c23a
00000160: 7b64 26bd c6e4 1f3c 00b4 323d 9fe8 2fbd
00000170: a613 073d 4bdb 7abd 036f 023d 8f39 a13d
00000180: 2876 0c3d c2c6 853d 8527 8abc c3bb 3a3c
00000190: c664 183c d262 14bd 7aca 543d 6009 15ba
000001a0: bb04 033d 993c 0b3d 1816 c4bc 4d2a 64bd
000001b0: 818a b73c 7349 a339 375e bfbb e491 173c
000001c0: 640a 943c 9d07 163d d12a cc3c 17e6 183d
000001d0: eb88 a1bc ab4d e73b 6ef1 c33b 2917 0fbd
000001e0: a2e7 7abc 13e0 68bc 69c1 223d 7ce6 3e3d
000001f0: cf29 90bc dd76 08bd 1926 18bc 2de7 34bd
00000200: 1227 bbbc 986f 223d 8eb0 d039 aeb1 8a3b
00000210: 020e 8fbd 6207 e7bc 85af 533b 4ba3 6f3d
00000220: 6d55 f23c 4298 79bc cf57 3c3a e0f4 c5bb
00000230: 4d2f ccbc f890 7cbc c268 6f3c 1e4f 8ebb
00000240: c42c a33d 4d73 c53c c056 383d 12b7 333d
00000250: 5497 9f3c 10cb 233c 4573 72bd 2f12 893c
00000260: 241e 72bd f427 ce3c b480 abba b457 4cbc
00000270: 84c7 d5bb 3f2a 0cbd 4910 653d e0ae 62bd
00000280: 5dae 0d3d 8734 033d b47f 5dbc b1e1 883c
00000290: f0a2 39bc 5014 4abd 8f8c dfbc 022d 7ebd
000002a0: a93d 403d 6ba8 a13c c3e6 8ebd ebe4 87bb
000002b0: e1d0 15bd ba13 89bc b842 e4bc b0fc 883d
000002c0: 7178 aabc 2824 1b3c 1180 fa3a 565b 583d
000002d0: ea78 283c 7751 da3c 44ff 5f3d 6607 dcbc
000002e0: fd71 3bbd 6a73 5abd 1ab3 d33c c1b7 d9bc
000002f0: 6f56 89bd 94a7 c83c 9d8d 2c3b d335 e83a
00000300: 432e 833c d8b0 2fbd f4c2 a1bd 18e9 50bd
00000310: e4ea f4bb d77f 84bd 3480 36bd 06a5 2e3d
00000320: 30e7 b63c aa7c 48bd 4177 be3c 62a0 363d
00000330: 7805 763c b45e 44bc 8866 fcbc ae76 233d
00000340: 2916 d8bc 495b ad3c 005e 863c 10d5 5a3d
00000350: 6120 da3c b45e 98bd ab64 923c 45f8 b8bc
00000360: 947a 573c 9a61 373d 8b37 1fbd 08cc a6bc
00000370: 3ae4 c13c 36e8 143d 31ff 893d 2b3a e5bc
00000380: 9443 a43b e8d3 df3b 91c1 1b3c 067e d7bc
00000390: 301e 0ebd 3ba1 d93c c780 16bd e834 433d
000003a0: cea0 d13b 1180 1e3d 7e8b 6cbd 034b 0abd
000003b0: ab82 29bd bd25 fcbc 0797 ec3c 4d31 0fbd
000003c0: 04b4 403c 0400 56bd ca9b 6a3c 4bf8 69bd
000003d0: c877 aabc e1fe 05bd 4689 b33b 74fc 883d
000003e0: 9b2d df3b 0689 ed3c c35e 9bbc c92a febc
000003f0: 8ba2 9e3d 8392 36bd 73d2 b93c 3e81 5d3d

fc1.bias f4 [64]
-0.04043524 -0.21433276 0.010740087 -0.0052837194 0.0039626164 0.0019296195 -0.0044752923 -0.057490695
0.015058279 -0.025999619 0.03732038 0.06056001 -0.05245072 -0.1256617 0.018178858 0.074663304
0.06844717 0.03140837 0.056049082 0.0050533516 -0.029220717 -0.056605242 0.084333 0.033675633
-0.04771705 -0.012604072 0.0025054247 0.011438864 0.045521107 -0.02986704 -0.024172537 0.0561871
-0.06483217 -0.0040903743 -0.056135915 0.0150585985 -0.06923744 -0.02403683 0.048259534 -0.015864108
0.02024863 -0.078368746 -0.002464612 0.00021681386 0.08664484 -0.051309604 -0.018877089 0.070029296
0.034821194 -0.057658847 0.028960595 -0.06655521 0.07575186 0.04967457 0.0673171 -0.023834482
0.027510975 0.11157841 -0.049343027 -0.019210491 0.04793332 0.006299517 -0.055133928 -0.010024603
00000000: 6c9f 25bd 0c7a 5bbe 31f7 2f3c 0d23 adbb
00000010: d6d8 813b 49eb fc3a 79a5 92bb 5d7b 6bbd
00000020: 00b7 763c 27fd d4bc 41dd 183d c60d 783d
00000030: 91d6 56bd 76ad 00be d4eb 943c 13e9 983d
00000040: 082e 8c3d 10a6 003d b993 653d 9696 a53b
00000050: 4960 efbc e6da 67bd c8b6 ac3d 76ef 093d
00000060: f472 43bd 4f81 4ebc 0d32 243b 136a 3b3c
00000070: 5774 3a3d b9ab f4bc 7c05 c6bc 7224 663d
00000080: bbc6 84bd 8c08 86bb c6ee 65bd 57b8 763c
00000090: 5ccc 8dbd e3e8 c4bc caab 453d 72f5 81bc
000000a0: 74e0 a53c cb7f a0bd 5485 21bb 8758 6339
000000b0: da72 b13d 052a 52bd 20a4 9abc 856b 8f3d
000000c0: aba0 0e3d af2b 6cbd c53e ed3c 194e 88bd
000000d0: cb23 9b3d 9077 4b3d 8cdd 893d 8840 c3bc
000000e0: b25e e13c 3983 e43d ea1b 4abd 525f 9dbc
000000f0: bb55 443d 2e6c ce3b 1dd4 61bd 3c3e 24bc

batch_norm.weight f4 [64]
1.0780833 1.4866352 0.9895798 1.4397333 0.9913434 1.5355959 0.98824036 1.4292748
0.99399465 1.3883798 1.5057913 1.5390486 0.99375737 1.5027496 0.9876125 1.3753486
1.3775265 1.4775534 1.5337647 1.3808067 0.9939945 0.9939945 1.5031168 0.99629575
1.0 0.9920229 0.9908163 0.984384 1.3024163 1.15996 1.5030625 1.4594924
0.9928452 1.5051268 1.387701 1.513469 1.3678217 1.510918 1.3700683 1.4038923
0.993983 0.9756988 1.3626356 1.4148011 1.4289323 0.9946629 1.4128363 1.322866
0.9940166 1.2452822 0.99172056 0.9915996 1.4312332 1.0 1.5361183 1.4997768
0.98970705 1.4149158 0.9939945 1.534568 1.3986189 0.97403723 0.99361676 0.99399483
00000000: a2fe 893f 104a be3f 1a55 7d3f 2e49 b83f
00000010: aec8 7d3f 688e c43f 52fd 7c3f 7af2 b63f
00000020: 6f76 7e3f 6eb6 b13f c5bd c03f 8bff c43f
00000030: e266 7e3f 195a c03f 2cd4 7c3f 6c0b b03f
00000040: ca52 b03f 7820 bd3f 6752 c43f 46be b03f
00000050: 6c76 7e3f 6c76 7e3f 2266 c03f 3d0d 7f3f
00000060: 0000 803f 36f5 7d3f 23a6 7d3f 9700 7c3f
00000070: 94b5 a63f 9279 943f 5a64 c03f a6d0 ba3f
00000080: 1a2b 7e3f ffa7 c03f 30a0 b13f 5ab9 c13f
00000090: c814 af3f c365 c13f 665e af3f beb2 b33f
000000a0: ab75 7e3f 66c7 793f d86a ae3f 3418 b53f
000000b0: 41e7 b63f 3aa2 7e3f d2d7 b43f ac53 a93f
000000c0: df77 7e3f 6865 9f3f 66e1 7d3f 79d9 7d3f
000000d0: a632 b73f 0000 803f 869f c43f b0f8 bf3f
000000e0: 715d 7d3f f61b b53f 6c76 7e3f b96c c43f
000000f0: f205 b33f 815a 793f ab5d 7e3f 7276 7e3f

batch_norm.bias f4 [64]
0.11734495 -0.15349628 0.15552013 0.027827187 0.18099369 -0.04312297 -0.18226637 -0.055042155
-0.16172464 0.08062328 0.039830387 0.037239302 0.15570702 -0.020814866 0.15888652 -0.09997524
-0.15492535 -0.11982415 -0.12720974 -0.03695276 0.089345425 0.13696358 0.025914263 -0.12058086
0.09439045 -0.15087825 0.034211487 0.15002768 -0.17264567 -0.13713785 -0.0029016382 0.0755952
-0.16465093 -0.092460655 -0.0953406 -0.07156208 -0.07681938 0.104695536 0.032078274 -0.021636192
-0.16047914 0.14944969 -0.10660909 0.054392375 -0.0981129 -0.16495755 0.1553 -0.0057253465
-0.14295636 -0.12647632 -0.17443354 0.17006022 0.054408528 0.13094458 0.018395206 0.07307771
-0.13985913 0.114303626 0.1522436 0.043386724 0.13932556 0.13719201 0.2171704 0.1198935
00000000: 8d52 f03d 212e 1dbe ab40 1f3e d7f5 e33c
00000010: 6956 393e b6a1 30bd 09a4 3abe e273 61bd
00000020: 259b 25be d11d a53d 3025 233d 3d88 183d
00000030: a971 1f3e f083 aabc 26b3 223e d2bf ccbd
00000040: c0a4 1ebe 5d66 f5bd 4543 02be c75b 17bd
00000050: bcfa b63d 2e40 0c3e 264a d43c 19f3 f6bd
00000060: c84f c13d d47f 1abe 5821 0c3d dba0 193e
00000070: 07ca 30be dd6d 0cbe 6929 3ebb a8d1 9a3d
00000080: 419a 28be 035c bdbd ef41 c3bd 248f 92bd
00000090: 7b53 9dbd 9d6a d63d 8264 033d 623e b1bc
000000a0: a554 24be 5709 193e de55 dabd 8aca 5e3d
000000b0: 6bef c8bd a2ea 28be f706 1f3e b09b bbbb
000000c0: 2763 12be 0283 01be b59e 32be 4424 2e3e
000000d0: 7adb 5e3d 5616 063e 8bb1 963c c4a9 953d
000000e0: 3b37 0fbe 0518 ea3d bfe5 1b3e 47b6 313d
000000f0: 5cab 0e3e 107c 0c3e eb61 5e3e b98a f53d

batch_norm.running_mean f4 [64]
1.1672173 0.8518957 6e-45 0.8767846 6e-45 3.9551844e-18 6e-45 8.085202e-18
6e-45 4.1226504e-18 3.398295e-18 2.732528e-18 9.26983e-39 1.6101065 6e-45 2.787961
5.266441 3.6515718 0.9344954 1.0010356 6e-45 6e-45 1.0102499 6e-45
0.0 6e-45 6e-45 6.21208e-40 2.8207678e-18 0.83512235 5.5057448e-18 3.981165
6e-45 1.5402588 3.0037777 3.3090556e-18 1.46525435e-36 0.9184292 7.579853e-18 2.6320834
6e-45 6e-45 2.8887815e-18 0.881153 1.133693 6e-45 0.96613836 1.7894738e-36
6e-45 0.00031831118 6e-45 6e-45 1.0666912 0.0 1.0378796 7.58437e-18
6e-45 0.8989536 6e-45 3.040774e-18 4.364602e-18 6e-45 6e-45 6e-45
00000000: 6067 953f d615 5a3f 0400 0000 f574 603f
00000010: 0400 0000 a9eb 9122 0400 0000 4925 1523
00000020: 0400 0000 5519 9822 fabf 7a22 ff9f 4922
00000030: 84f0 6400 f817 ce3f 0400 0000 f46d 3240
00000040: af86 a840 5ab3 6940 173b 6f3f ef21 803f
00000050: 0400 0000 0400 0000 de4f 813f 0400 0000
00000060: 0000 0000 0400 0000 0400 0000 adc3 0600
00000070: cc22 5022 94ca 553f 4a20 cb22 68cb 7e40
00000080: 0400 0000 3327 c53f e53d 4040 4b2a 7422
00000090: d44c f903 2d1e 6b3f d8d2 0b23 0e74 2840
000000a0: 0400 0000 0400 0000 8a27 5522 3e93 613f
000000b0: da1c 913f 0400 0000 d854 773f 4a3b 1804
000000c0: 0400 0000 01e3 a639 0400 0000 0400 0000
000000d0: 5689 883f 0000 0000 3dd9 843f 2de8 0b23
000000e0: 0400 0000 d321 663f 0400 0000 995e 6022
000000f0: 8006 a122 0400 0000 0400 0000 0400 0000

batch_norm.running_var f4 [64]
0.5060132 0.72992206 6e-45 0.75031066 6e-45 3.1022412e-18 6e-45 3.978039e-18
6e-45 3.0707717e-18 2.6382082e-18 2.2513184e-18 3.874966e-39 0.9869151 6e-45 0.9530656
0.80521405 0.8853186 0.8006975 0.82143956 6e-45 6e-45 0.8591826 6e-45
6e-45 6e-45 6e-45 1.7401e-41 1.7666708e-18 0.55197996 4.028683e-18 1.1401294
6e-45 0.8106747 1.0091003 2.7388835e-18 1.2210566e-36 0.778824 5.004536e-18 1.111152
6e-45 6e-45 2.1961275e-18 0.69310355 0.8723926 6e-45 0.7036042 1.4196098e-36
6e-45 0.00023291096 6e-45 6e-45 0.77326876 6e-45 0.9974105 5.2958762e-18
6e-45 0.69612694 6e-45 2.7737666e-18 3.2953883e-18 6e-45 6e-45 6e-45
00000000: 158a 013f 2cdc 3a3f 0400 0000 5c14 403f
00000010: 0400 0000 aee7 6422 0400 0000 84c3 9222
00000020: 0400 0000 3d95 6222 58aa 4222 341e 2622
00000030: d431 2a00 78a6 7c3f 0400 0000 1bfc 733f
00000040: 8222 4e3f 3da4 623f 83fa 4c3f dd49 523f
00000050: 0400 0000 0400 0000 64f3 5b3f 0400 0000
00000060: 0400 0000 0400 0000 0400 0000 8230 0000
00000070: 785b 0222 8f4e 0d3f d6a1 9422 c3ef 913f
00000080: 0400 0000 6188 4f3f 332a 813f 0c18 4a22
00000090: 84c0 cf03 0261 473f 82a2 b822 3b3a 8e3f
000000a0: 0400 0000 0400 0000 ad0b 2222 3c6f 313f
000000b0: 1f55 5f3f 0400 0000 681f 343f ba88 f103
000000c0: 0400 0000 8f39 7439 0400 0000 0400 0000
000000d0: f1f4 453f 0400 0000 4b56 7f3f 2362 c322
000000e0: 0400 0000 6035 323f 0400 0000 f8aa 4c22
000000f0: 2028 7322 0400 0000 0400 0000 0400 0000

fc2.weight f4 [2, 64]
0.11505799 -0.16725232 0.012067102 -0.23616129 0.027628463 0.14968488 0.11080946 0.1139288
0.023979789 0.10449017 -0.13018776 -0.044902723 -0.01590299 -0.21334095 -0.00947791 -0.13058765
-0.011648653 -0.21099818 0.15969285 -0.108386114 0.029534735 0.067472674 -0.08789805 -0.049760908
0.062927656 0.024742609 -0.11599142 -0.036351405 0.018482544 -0.07675759 0.11452483 -0.21467148
-0.088654 0.028605638 -0.15550026 0.0018946402 -0.06116718 -0.18920454 0.08101926 0.092626676
0.09444988 -0.11231121 -0.045542907 -0.1472603 0.079796396 -0.03391571 -0.14543946 0.064273514
-0.05033484 0.077888615 0.015445255 -0.048725728 0.1590874 -0.025289493 0.17496102 0.027291186
-0.008505892 -0.19296211 0.031709418 0.026484422 0.11948132 -0.084624656 -0.13043821 0.08696106
-0.09673766 0.19854891 0.030178618 0.09213177 0.092103586 -0.048826437 0.038671516 -0.11687516
-0.043732185 -0.09951564 -0.052793194 -0.1235985 0.063698575 0.0620664 0.06113999 0.15925573
0.04335099 0.06773285 0.018795907 0.14367871 -0.08034578 -0.046918917 0.22551447 0.01708993
-0.07808671 -0.07894071 0.010203475 0.08960829 0.08543286 0.15921654 -0.059377667 0.06598502
-0.00898929 0.17256358 0.17183197 0.18248367 0.083165064 0.09878045 -0.07621312 -0.11882213
0.051282838 -0.026600922 0.0861143 0.16015443 -0.18554533 0.06871963 0.13908406 -0.09314057
-0.097416975 0.027528327 -0.030679584 0.0643567 0.0007286318 -0.007594036 -0.12506947 -0.13595763
-0.10345939 0.115099065 -0.061039627 -0.13071758 0.01539945 -0.06825805 -0.10170068 0.005229097
00000000: 86a3 eb3d 3144 2bbe 18b5 453c 44d4 71be
00000010: 1655 e23c fe46 193e 12f0 e23d 8153 e93d
00000020: 4371 c43c f1fe d53d f14f 05be ebeb 37bd
00000030: fd46 82bc 0d76 5abe 3c49 1bbc c5b8 05be
00000040: fed9 3ebc e80f 58be 8686 233e 8af9 ddbd
00000050: d4f2 f13c 1d2f 8a3d e503 b4bd 18d2 4bbd
00000060: 37e0 803d 03b1 ca3c e98c edbd 36e5 14bd
00000070: b468 973c 1533 9dbd fe8b ea3d d7d2 5bbe
00000080: 3a90 b5bd 5f56 ea3c 763b 1fbe 9355 f83a
00000090: 708a 7abd d6be 41be 6ded a53d 0eb3 bd3d
000000a0: f06e c13d 6b03 e6bd 338b 3abd 67cb 16be
000000b0: 4b6c a33d 33eb 0abd 15ee 14be d5a1 833d
000000c0: e82b 4ebd 1184 9f3d 180e 7d3c a194 47bd
000000d0: cfe7 223e e92b cfbc fb28 333e c491 df3c
000000e0: 4c5c 0bbc dc97 45be bce1 013d dcf5 d83c
000000f0: 9fb2 f43d b14f adbd 9891 05be a418 b23d
00000100: 651e c6bd 6850 4b3e 2639 f73c 95af bc3d
00000110: cea0 bc3d 3bfe 47bd 0666 1e3d 3e5c efbd
00000120: 8520 33bd dbce cbbd ad3d 58bd 3621 fdbd
00000130: 6674 823d 5639 7e3d ed6d 7a3d ef13 233e
00000140: cf90 313d 85b7 8a3d e0f9 993c 8320 133e
00000150: 548c a4bd 0d2e 40bd 44ed 663e 2e00 8c3c
00000160: edeb 9fbd abab a1bd 7a2c 273c 8d84 b73d
00000170: 6cf7 ae3d a909 233e ff35 73bd 2723 873d
00000180: d147 13bc 82b4 303e b8f4 2f3e 00dd 3a3e
00000190: 7252 aa3d 684d ca3d a015 9cbd 0459 f3bd
000001a0: f40d 523d 2dea d9bc b25c b03d 86ff 233e
000001b0: 98ff 3dbe e1bc 8c3d 0d6c 0e3e 7cc0 bebd
000001c0: 8d82 c7bd 1683 e13c c053 fbbc 72cd 833d
000001d0: a701 3f3a 64d7 f8bb 3612 00be 7a38 0bbe
000001e0: 84e2 d3bd 0fb9 eb3d b004 7abd d4da 05be
000001f0: fa4d 7c3c e0ca 8bbd 7248 d0bd d858 ab3b

fc2.bias f4 [2]
0.061396264 0.035785217
00000000: a67a 7b3d 8593 123d
