models/BUMP OF CHICKEN/classifier_fold1.pth (torch, 991011 bytes, 16 tensors)

conv_layers.0.weight f4 [64, 256, 2]
0	0x3d0f8564	0.03503932
1	0x3d5baf88	0.053634197
2	0xbcbb1ed7	-0.022841854
3	0x3da19565	0.07889823
4	0x3c36ac1b	0.011149432
5	0x3c81460e	0.015780475
6	0xbd64a309	-0.055819545
7	0x3d9d4c72	0.076805964
8	0x3bcff867	0.0063467505
9	0x3cb77200	0.022393227
10	0xbd1c4189	-0.038148437
11	0xbd8d123b	-0.06888243
12	0x3d1e4934	0.03864403
13	0x3ca9dbb3	0.020734644
14	0x3cda7b9d	0.026670272
15	0x3cbe8697	0.023257537
16	0x3dfd1356	0.12357204
17	0xbcb45b12	-0.022016082
18	0xbd32dba0	-0.043666482
19	0x3d922755	0.07136408
20	0x3d1ab775	0.037772615
21	0x3c8ce8e0	0.017200887
22	0xbd5df3f8	-0.054187745
23	0x3c9b0361	0.01892251
24	0xbc373bb5	-0.011183669
25	0xbda89125	-0.08230809
26	0xbc007fb1	-0.007842944
27	0xbd99d541	-0.07511378
28	0x3cae21b3	0.021256303
29	0x3d4a31eb	0.04936401
30	0x3d48c7b3	0.049018573
31	0x3d3cadd9	0.04606423
32	0x3d0ea2d2	0.034823246
33	0x3d840744	0.06446698
34	0x3c5d27a7	0.013498223
35	0xbd45ea14	-0.048318937
36	0xbd8b2b27	-0.0679534
37	0xbd079374	-0.033099607
38	0xbd8d4dd8	-0.06899613
39	0xbd504b40	-0.050853014
40	0xbcf0bfd1	-0.02938834
41	0x3bec028d	0.0072024525
42	0x3abbbdaa	0.0014323492
43	0xbccd9c07	-0.025098814
44	0xbc80ce13	-0.015723264
45	0x3d075efc	0.03304957
46	0x3d0353c3	0.032062303
47	0x3d8cfe26	0.068844125
48	0x3d11fac4	0.03563954
49	0x3c20a81d	0.009805706
50	0xbc0e7a29	-0.008696117
51	0x3cceb949	0.025234835
52	0x3d0dc8fe	0.03461551
53	0xbde1bdd3	-0.11022534
54	0x3b43aaea	0.0029856511
55	0xbd3781e6	-0.044801615
56	0x3c676811	0.014123932
57	0x3bd0052a	0.006348272
58	0xbd9dd66a	-0.07706912
59	0xbb2d16fc	-0.0026411405
60	0x3a17885e	0.0005780513
61	0x3d031faf	0.032012638
62	0xbdb52ffa	-0.088470414
63	0xbbe48bf7	-0.006974693
64	0xbce8a306	-0.028398048
65	0xbcb9ced2	-0.022681627
66	0xbd699b78	-0.057033032
67	0x3d0ac3ce	0.03387814
68	0x3bfbd196	0.0076848967
69	0xbc9f9937	-0.019482238
70	0x3cd0c0f5	0.025482634
71	0x3c798188	0.015228637
72	0x3caa471c	0.02078586
73	0xbd2039d5	-0.039117653
74	0x3d14eddc	0.036359653
75	0x3d53de3c	0.05172561
76	0xbbc16642	-0.0059020827
77	0xbca88c88	-0.020574823
78	0xbac04e04	-0.0014671688
79	0xbd0ba798	-0.034095377
80	0xbd04e462	-0.032444365
81	0xbbb81891	-0.005618163
82	0xbd23ef8c	-0.04002337
83	0xbd65644b	-0.05600385
84	0x3dd93dda	0.106075004
85	0xbdb324a0	-0.0874722
86	0xbd901af9	-0.070363946
87	0x3ba2a200	0.0049631596
88	0x3c966dda	0.018362928
89	0x3c0f4e5e	0.008746712
90	0x3d9c9968	0.076464474
91	0x3daa970f	0.083295934
92	0x3d5835fb	0.052785855
93	0xbd8b9b2d	-0.06816707
94	0x3c9ea147	0.019364012
95	0x3c4e2026	0.012580907
96	0xbc9c3de0	-0.019072473
97	0xbd4bc0ad	-0.049744297
98	0xbab9a715	-0.0014164174
99	0x3cfb6a28	0.030690268
100	0x3d06368b	0.03276686
101	0x3d9166cd	0.07099686
102	0xbd534204	-0.05157663
103	0xbd460571	-0.048345033
104	0x3c337705	0.010953669
105	0xbc020426	-0.007935559
106	0xbb4ba4a0	-0.0031073466
107	0x3d15f623	0.036611687
108	0xbd42927c	-0.04750298
109	0xbd667ac7	-0.056269433
110	0x3d11d33a	0.035601832
111	0xbd2a77f2	-0.041618295
112	0x3d2bce73	0.041944932
113	0x3ca414cb	0.020029446
114	0x3d6ceced	0.057843138
115	0xbcf6046d	-0.030031407
116	0xbaacf5f9	-0.0013195864
117	0x3cc11465	0.023569295
118	0x3bcd24b8	0.0062604807
119	0xbcf8ede6	-0.030386876
120	0x3c42a63e	0.011880456
121	0x3c5ac284	0.01335204
122	0xbc9b9ff3	-0.018997168
123	0xbd81324d	-0.06308422
124	0x3caae06e	0.02085897
125	0x3d80e44a	0.06293543
126	0x3c165099	0.009174489
127	0x3c55ba1a	0.013044858
128	0xbd2ac731	-0.04169387
129	0xbd930742	-0.07179119
130	0x3d752b58	0.05985579
131	0xbd716677	-0.05893561
132	0xbcb4df5e	-0.022079166
133	0xbd7d11a7	-0.061784413
134	0x3d74e9d5	0.059793312
135	0x3c74cb5f	0.014941066
136	0x3d591da1	0.053006772
137	0x3a82b916	0.0009973373
138	0x3c5f3bf7	0.013625137
139	0x3c70b0c0	0.014690578
140	0x3dc580d9	0.09643716
141	0xbbe60195	-0.0070192316
142	0x3c10c2bf	0.008835494
143	0x3d0c2785	0.034217376
144	0xb9883837	-0.00025981825
145	0x3d9f458e	0.077769384
146	0xbbb00aa0	-0.0053723603
147	0x3d13c85c	0.03607975
148	0xbdaa2316	-0.08307473
149	0xbccba8ca	-0.024860758
150	0xbda85a1c	-0.08220312
151	0x3db349b7	0.08754294
152	0x3db946d8	0.090467155
153	0xbc0e17ac	-0.008672636
154	0xbaec1f92	-0.001801478
155	0x3d0c27b5	0.034217555
156	0x3d693576	0.05693575
157	0x3b87b7be	0.004141777
158	0x3bed9e96	0.007251571
159	0x3d37f981	0.04491568
160	0x3d8275ca	0.06370123
161	0xbcf95a1b	-0.030438473
162	0x3d593daf	0.05303734
163	0xbcb76086	-0.022384893
164	0xbd8cca7e	-0.0687456
165	0x3c8f7af7	0.017514689
166	0xbd101ae5	-0.0351819
167	0xbcfaaa52	-0.030598793
168	0xbc400e48	-0.011722155
169	0xbd3414d7	-0.043965187
170	0x3c2239e3	0.009901497
171	0xbd331566	-0.04372158
172	0xbd263a3c	-0.04058288
173	0x3d938da6	0.07204752
174	0x3b300a7b	0.0026861716
175	0x3c10af40	0.008830845
176	0xbdc00e79	-0.093777604
177	0xbcb1cd23	-0.021704262
178	0x3d3856a3	0.0450045
179	0xbe0f03b2	-0.13966253
180	0x3d6a724a	0.0572379
181	0x3d1c6961	0.038186435
182	0x3d45029f	0.048098203
183	0xbd097627	-0.033559944
184	0xbcffb6e4	-0.031215139
185	0xbb956dea	-0.004560222
186	0xbd237504	-0.039906517
187	0xbaf3c1c8	-0.001859718
188	0xbc14838a	-0.0090645645
189	0x3b768d21	0.003762074
190	0x3d0b783a	0.034050204
191	0xbdb46e7e	-0.08810137
192	0xbdafa0d7	-0.085756
193	0x3db19694	0.086712986
194	0xbd1607cc	-0.03662853
195	0xbd26165c	-0.040548667
196	0x3d6c1cc9	0.05764464
197	0xbd326556	-0.043553673
198	0xbdf35eb7	-0.118833
199	0x3d2ffffc	0.042968735
200	0x3b4b23c9	0.0030996671
201	0x3b821454	0.0039697085
202	0x3ca5aa7b	0.020222893
203	0xbd8d9cb1	-0.06914652
204	0xbd37708c	-0.044785067
205	0x3d716e09	0.05894283
206	0x3b88fb4c	0.0041803475
207	0x3d402b0b	0.04691605
208	0xbca78c8b	-0.020452758
209	0xba002a7c	-0.0004889143
210	0xbd90d84f	-0.070725076
211	0xbd26986a	-0.040672697
212	0xbbeb9edb	-0.007190568
213	0x3d5e8bc4	0.05433251
214	0x3dad4073	0.08459558
215	0xbd5ccd89	-0.05390695
216	0xbc409d8a	-0.01175631
217	0x3d2cf041	0.04222131
218	0x3d8c6f96	0.06857221
219	0x3c587512	0.0132115055
220	0x3d2c7538	0.042103976
221	0x3d51f554	0.051259354
222	0x3b932282	0.0044901976
223	0x3df1d2df	0.118077986
224	0xbd81f1f4	-0.06344977
225	0xbcc20092	-0.023681913
226	0x3da6de49	0.08147866
227	0x3c2bd825	0.010488545
228	0xbd706175	-0.058686692
229	0x3bd17ebc	0.0063932817
230	0xbba59410	-0.005053051
231	0xbd20e254	-0.039278343
232	0x3d157f5b	0.03649841
233	0xbcb4f22a	-0.02208813
234	0x3d4419e3	0.04787625
235	0x3ce91368	0.028451636
236	0x3c603e5d	0.013686744
237	0x3be84052	0.0070877457
238	0x3cf4a943	0.029865867
239	0xbc2e9890	-0.010656491
240	0xbdaff87a	-0.08592315
241	0x3d51a3f3	0.051181745
242	0x3c295677	0.010335556
243	0x3d2458ee	0.040123872
244	0x3dab6917	0.08369654
245	0x3cfcba34	0.030850507
246	0xbd629e51	-0.055326764
247	0xbcc572fc	-0.02410268
248	0x3d2218e7	0.03957453
249	0xbd56e3ec	-0.052463457
250	0xbd14c7c7	-0.036323335
251	0x3a99acb6	0.0011724446
252	0x3dce210e	0.100648984
253	0xbd84cebc	-0.06484744
254	0x3dc0509e	0.093903765
255	0xbd9ba0a6	-0.07599001

conv_layers.0.bias f4 [64]
0	0x3d8b2325	0.06793813
1	0xbce67b1d	-0.028134877
2	0xbd6ddcc9	-0.058071885
3	0xbb215c4b	-0.0024621661
4	0xbd15ab23	-0.03654016
5	0xbcac84da	-0.021059442
6	0xbc936628	-0.017993048
7	0xbdb8c703	-0.090223335
8	0xbe02b4ab	-0.12764232
9	0xbd0164d6	-0.031590305
10	0xbd1eef89	-0.038802657
11	0x3dcda51a	0.10041256
12	0x3d83c9da	0.064349845
13	0x3d649614	0.05580719
14	0x3c8b905e	0.017036613
15	0xba9e28d2	-0.0012066609
16	0x3d8855a6	0.06656961
17	0x3ce72f68	0.028220847
18	0x3c314ea9	0.010821977
19	0x3d078c1b	0.0330926
20	0x3c2a3ff9	0.010391229
21	0x3dad0ec2	0.084500805
22	0xbbed5cce	-0.007243729
23	0x3d876018	0.06610125
24	0x3d19291e	0.037392728
25	0xbd4805ae	-0.04883354
26	0xbd34d976	-0.0441527
27	0x3b6a2b12	0.0035731238
28	0x3c4e0149	0.012573549
29	0xbc65b558	-0.0140202865
30	0x3da3dea7	0.08001452
31	0xbb451c87	-0.0030076818
32	0x3b936f5f	0.0044993605
33	0x3d97a4d0	0.07404482
34	0xbc7a4809	-0.015275964
35	0x3d5e7127	0.05430713
36	0x3d514ed2	0.05110056
37	0x3df8be25	0.12145642
38	0xbd40dded	-0.047086645
39	0x3d06610d	0.0328074
40	0xbce5c95a	-0.028050113
41	0xbdc87a3a	-0.09788938
42	0xbd15609d	-0.03646909
43	0xbd7907ea	-0.060798563
44	0xbd6fd01e	-0.058548085
45	0x3d6ca54e	0.057774834
46	0x3d327725	0.043570656
47	0x3cdd29e7	0.02699752
48	0xbdbda16d	-0.09259305
49	0xbc58e164	-0.013237331
50	0xbca9d857	-0.020733042
51	0x3d753c34	0.059871867
52	0x3d59d44b	0.053180974
53	0xbd0886e9	-0.033331785
54	0xbcff4dba	-0.031164993
55	0xbc0cd338	-0.00859528
56	0xbd940a16	-0.07228486
57	0xbd26aa1d	-0.040689576
58	0x3d900713	0.07032599
59	0x3c0defdb	0.008663143
60	0x3dcb09e8	0.09913999
61	0xbc8ffa0d	-0.017575288
62	0xbd99428e	-0.074833974
63	0xbcb4c531	-0.022066684

conv_layers.1.weight f4 [64, 256, 3]
0	0x3c30b178	0.010784499
1	0x3c301ad3	0.010748583
2	0xbca33f88	-0.019927755
3	0x3ce17fbf	0.027526734
4	0xbd40c772	-0.047065206
5	0x3d277cbb	0.040890437
6	0xbc9048ec	-0.017612897
7	0x3d9e9c25	0.07744626
8	0x3c546637	0.012963823
9	0xbb36b041	-0.0027876052
10	0xbbf373c4	-0.007429572
11	0xbc7fd7e3	-0.015615436
12	0x3d3f1084	0.04664661
13	0xbba6e502	-0.005093218
14	0x3b57357b	0.0032838273
15	0x3cb4b3e5	0.022058437
16	0xbc1f8720	-0.009736806
17	0x3d546e08	0.051862746
18	0xbd5693ba	-0.052386977
19	0x3af415d5	0.0018622229
20	0xbc1aa101	-0.0094378
21	0xbd87a4e6	-0.06623249
22	0xb98156fb	-0.00024669603
23	0x3ba02876	0.004887636
24	0x3a49739a	0.00076847675
25	0x3c979cc2	0.018507365
26	0xbd3f7111	-0.046738688
27	0xbd9c65d1	-0.076366074
28	0x3d940ded	0.07229219
29	0x3c428e6b	0.011874775
30	0xbda2afca	-0.07943685
31	0xbd1f0343	-0.03882147
32	0xbcfd5406	-0.030923855
33	0x3cd24075	0.025665501
34	0x3c9974f5	0.018732527
35	0x3d823d9f	0.063594095
36	0xbce50b80	-0.027959585
37	0x3c953c02	0.01821709
38	0x3d0a1a9d	0.033716787
39	0xbd7f8dc5	-0.06239106
40	0x3c991bc3	0.018689996
41	0xbc8a3d0f	-0.016874818
42	0x3cecf4cb	0.02892532
43	0x3d781e8a	0.060576
44	0x3cbe3ec3	0.023223286
45	0xbc615efd	-0.013755557
46	0x3d7ffdcf	0.06249791
47	0xbb5d8151	-0.0033799002
48	0x3d0b5d93	0.034024786
49	0xbd022fe5	-0.031783957
50	0x3d87be23	0.066280626
51	0xbd96bc46	-0.07360129
52	0x3d7326e8	0.059363276
53	0x3d2e19f2	0.042505212
54	0x3bd2e994	0.006436536
55	0xbd1afa93	-0.037836622
56	0xbc9775f4	-0.018488862
57	0xbc42bcc1	-0.011885823
58	0xbcd9d7a8	-0.02659209
59	0x3d94c535	0.07264177
60	0xbd53d995	-0.051721174
61	0xbc70603d	-0.0146713825
62	0x3d96ab2d	0.07356868
63	0xbd66509e	-0.056229226
64	0x3d812cb8	0.063073575
65	0x3bb9b9aa	0.005667885
66	0x3d65fc91	0.05614907
67	0x3c548c5e	0.012972919
68	0xba941037	-0.0011296336
69	0xbcab5386	-0.02091385
70	0xbd1b5345	-0.03792121
71	0x39f93350	0.00047531212
72	0xbc934718	-0.017978236
73	0x3d953eb5	0.07287351
74	0x3ce42ed9	0.02785437
75	0x3d09080b	0.033454936
76	0x3deddcea	0.11614402
77	0x3d22609a	0.039642908
78	0xbda13588	-0.078715384
79	0xbbf34354	-0.0074237976
80	0x3d886666	0.06660156
81	0x3c1b1eb2	0.009467768
82	0x3dbc6105	0.091981925
83	0x3d028bfc	0.03187178
84	0x3cee91f3	0.029122328
85	0xbcbcf3a8	-0.023065403
86	0x3c5be009	0.013420113
87	0xbd8c88ce	-0.06862031
88	0x3cef5222	0.029213969
89	0xbda38570	-0.079844356
90	0xbd66b5ce	-0.056325726
91	0x3d2336be	0.039847128
92	0x3c87c725	0.016574452
93	0x3d712980	0.058877468
94	0x3d1b8e6b	0.037977617
95	0x3c5cdf5d	0.013480988
96	0xbd8e0c00	-0.069358826
97	0xbc8c63b9	-0.017137395
98	0xbd6d2368	-0.057895094
99	0x3d51f416	0.05125817
100	0xbc91b8af	-0.01778826
101	0xbc089787	-0.008336908
102	0x3cde47d3	0.027133858
103	0xbbf53d4f	-0.007484115
104	0x3d3c0d47	0.0459111
105	0x3dadba5e	0.08482812
106	0x3dde905a	0.108673766
107	0xbc2a38e2	-0.0103895385
108	0xbc6c53eb	-0.0144243045
109	0x3c9780df	0.018494068
110	0x3d1b1c28	0.03786865
111	0x3cf8929a	0.030343343
112	0x3d4d4dcf	0.050123032
113	0x3cfa12cc	0.030526541
114	0xbbae33d0	-0.005316235
115	0x3daa8c63	0.08327558
116	0x3d207d8e	0.03918224
117	0x3b9f8db3	0.004869187
118	0x3c2c885f	0.01053056
119	0x3cd71100	0.026253223
120	0x3cc9140b	0.02454569
121	0x3d01bb1a	0.031672575
122	0x3cfe9c6c	0.031080447
123	0xbd79f6ca	-0.061026372
124	0x3c9187db	0.017764976
125	0xbd0a3a40	-0.033746958
126	0x3deb0d4a	0.11477144
127	0xbd671ab6	-0.056421958
128	0x3cd68520	0.026186526
129	0xbc43d3c5	-0.011952345
130	0x3d5946ac	0.053045914
131	0x3d2cee7b	0.04221962
132	0xbd0d37a8	-0.034476906
133	0xbcb91ccf	-0.022596745
134	0x3ccbc01f	0.024871884
135	0xbc0f3366	-0.008740282
136	0xbcd6f8c2	-0.026241664
137	0xbc28d4ee	-0.010304673
138	0x3d8d87bf	0.06910657
139	0x3c97e62b	0.01854237
140	0xbc78a9a1	-0.015177161
141	0xbc882e6b	-0.016623696
142	0x3d886e27	0.06661635
143	0xbd1bbeba	-0.038023688
144	0x3bedae33	0.007253432
145	0x3be9ee9f	0.0071390416
146	0x3cba0b95	0.0227106
147	0x3d70c46e	0.05878108
148	0x3c85badd	0.016324455
149	0xbd8c32b1	-0.06845606
150	0xbd67c69f	-0.056585904
151	0xbcc4cce6	-0.024023484
152	0x3c0b2fb0	0.008495256
153	0x3d6c5db7	0.05770656
154	0xbc08f32a	-0.008358756
155	0xbd1665d8	-0.03671822
156	0x3c76c6b0	0.015062019
157	0x3b9fef38	0.004880812
158	0x3b9d700c	0.004804617
159	0xbd9c9305	-0.07645229
160	0x3cdd7ac7	0.027036084
161	0xbd4f23f6	-0.050571404
162	0xbc521810	-0.01282312
163	0x3d3e4d17	0.046460237
164	0x3d508708	0.050910026
165	0xbc138dd9	-0.009005987
166	0x3db3b31f	0.08774399
167	0xbce74ab9	-0.028233873
168	0xb79adaa3	-1.8460041e-05
169	0xbd1409b8	-0.03614208
170	0x3d8c5b07	0.068532996
171	0x3d538ae7	0.05164614
172	0x3ccacec1	0.024756791
173	0xbca73a2e	-0.020413484
174	0x3d6fa5de	0.058507793
175	0xbcdb4b2b	-0.026769241
176	0xbd11e50e	-0.035618834
177	0x3dd87218	0.10568637
178	0xbd201038	-0.039077967
179	0xbd295df1	-0.041349355
180	0x3d670c2f	0.056408104
181	0x3d4dd6de	0.05025374
182	0x3d800f3f	0.06252908
183	0x3c1bebf5	0.009516706
184	0x3aa3b4b0	0.0012489762
185	0x3c4d7ba0	0.0125416815
186	0xbd0ef3f9	-0.03490064
187	0xbd940075	-0.0722665
188	0xbd8bb4bf	-0.06821584
189	0xbc01c34a	-0.007920096
190	0xbd587e3f	-0.052854773
191	0xbd80665e	-0.06269525
192	0xbd74e6c0	-0.059790373
193	0xbcfee62a	-0.03111561
194	0xbc0289f9	-0.007967466
195	0x3dd7d497	0.10538595
196	0x3e118d2e	0.14214012
197	0xbc91f754	-0.01781813
198	0x3bb466b8	0.005505409
199	0x3d2c83a2	0.042117722
200	0x3c0fb8d6	0.008772096
201	0xbdfa18de	-0.12211774
202	0x3c20a63f	0.009805261
203	0xbd745348	-0.059649736
204	0x3c9927e8	0.018695787
205	0x3c4d063b	0.0125136925
206	0x3d31f33a	0.04344485
207	0x3a824b27	0.000994061
208	0xbd273c7c	-0.040829167
209	0xbd7327ec	-0.059364244
210	0x3c8c82bd	0.017152185
211	0xbda6cd62	-0.081446424
212	0xbc6cdb12	-0.014456527
213	0x3d32da73	0.04366536
214	0x3bdc9e34	0.0067327265
215	0x3d433af7	0.047663655
216	0x3d3c6149	0.045991216
217	0xbd5c10e9	-0.053727064
218	0xba018fff	-0.00049424166
219	0x3db3d7f9	0.08781428
220	0x3cdc99bd	0.026928777
221	0x3c4b0c9f	0.012393146
222	0xbd2f1e23	-0.04275335
223	0x3d5dd7f8	0.054161042
224	0x3c9a78ef	0.018856494
225	0xbb52d718	-0.0032171663
226	0xbcdccc08	-0.026952758
227	0xbd25f1b7	-0.04051372
228	0xbb3d7fcb	-0.0028915282
229	0x3da2215a	0.079165176
230	0x3c1bd3cd	0.009510946
231	0x3d01af0f	0.03166109
232	0xbd470d9c	-0.048596963
233	0xbd0d0579	-0.034429047
234	0x3d758cb7	0.05994865
235	0x3cd443d3	0.025911247
236	0xbda8dd49	-0.08245332
237	0x3a813f7b	0.0009860838
238	0x3cdee2ff	0.02720785
239	0xbcbc94d2	-0.023020182
240	0x3c08ad6e	0.00834213
241	0x3d225c69	0.03963891
242	0xbd022161	-0.031770114
243	0x3db4fe42	0.08837558
244	0xbd1cdaa9	-0.038294468
245	0x3d9d7dd2	0.07690014
246	0xbd8230cd	-0.06356964
247	0x3daaf28f	0.08347046
248	0xbcb184de	-0.021669801
249	0xbd5c96bd	-0.053854693
250	0x3db9a929	0.09065468
251	0x3d7bafa5	0.061446805
252	0xbb673c43	-0.0035283722
253	0x3dbb5c8a	0.0914851
254	0x3d496d02	0.049176224
255	0xbc3dbd47	-0.011580772

conv_layers.1.bias f4 [64]
0	0xbd063cea	-0.032772936
1	0xbdcbb92c	-0.09947428
2	0x3bd230ef	0.0064145247
3	0xbc7ac903	-0.015306714
4	0x3d6bac82	0.057537563
5	0xbb9661a9	-0.0045892787
6	0x3cc981f0	0.024598092
7	0x3dda7d8b	0.10668477
8	0x3d529adf	0.051417228
9	0x3d7fb3ce	0.062427334
10	0x3c5a1680	0.0133110285
11	0xbc1eb56e	-0.009686811
12	0xbd323941	-0.043511633
13	0xbcaa2bb8	-0.0207728
14	0xbd151884	-0.036400333
15	0x3c9617cb	0.018321892
16	0x3c5024df	0.012704103
17	0xbca6f7d6	-0.02038185
18	0xbd651a29	-0.05593315
19	0xbbbf0bd4	-0.0058302674
20	0xbbff0b47	-0.007783327
21	0x3ba3bb54	0.0049966965
22	0x3d0f798a	0.035028018
23	0xbd5c298d	-0.053750563
24	0xbcbaeaa0	-0.022816956
25	0xbdaec60a	-0.08533867
26	0xbd32cb47	-0.04365089
27	0xbd5ca2d1	-0.05386621
28	0xbd6da1ab	-0.058015507
29	0xbdab6ee3	-0.08370759
30	0xbb36124a	-0.0027781897
31	0x3cd85125	0.02640588
32	0x3d6cf1c5	0.057847757
33	0x3d465251	0.048418347
34	0xbcb9b54c	-0.022669457
35	0xbc73cc53	-0.014880258
36	0xbce26431	-0.027635666
37	0x3d3ecb3a	0.04658053
38	0xbc6f66f4	-0.014611948
39	0x3d61be5b	0.055113178
40	0xbde156d3	-0.110028885
41	0xbd440a30	-0.047861278
42	0x3c44c188	0.012009032
43	0x3d89139d	0.06693194
44	0x3da00a0d	0.07814417
45	0xbc59a0ba	-0.013282949
46	0xbd492ef5	-0.049117047
47	0x3d9324ab	0.07184728
48	0xbd012db5	-0.03153773
49	0x3caa02bd	0.020753259
50	0xbc88ee15	-0.016715089
51	0x3c8324e5	0.016008804
52	0xbd118f67	-0.03553715
53	0x3dc3367c	0.095318764
54	0x3d79efcf	0.061019715
55	0xbde5b615	-0.1121637
56	0x3c674fb3	0.014118123
57	0x3d19bb97	0.037532415
58	0xb97dc165	-0.00024200005
59	0xbd89f6dd	-0.067365386
60	0x3d3aaa06	0.045572303
61	0x3d0a23de	0.033725612
62	0x3d0ac2cb	0.033877175
63	0xbd585094	-0.05281122

conv_layers.2.weight f4 [64, 256, 4]
0	0x3d913066	0.070893094
1	0xbd32eda4	-0.043683663
2	0x3b25d07f	0.0025301275
3	0xbd02bb9c	-0.0319172
4	0x3b2f5478	0.0026753228
5	0x3dadce81	0.08486653
6	0x3cf736ae	0.03017744
7	0xbc90d9db	-0.017682007
8	0xbd1c3b52	-0.03814251
9	0x3d678d39	0.056531165
10	0xbc95cc46	-0.018285882
11	0x3cf37597	0.029719157
12	0x3d09a7c1	0.03360725
13	0x3d26d67d	0.040731896
14	0xbda5da23	-0.08098247
15	0x39e28f32	0.00043212768
16	0xbd6f9b7b	-0.058497887
17	0x3cb06928	0.021534517
18	0x3bf72692	0.0075424397
19	0xbd1dadf9	-0.03849599
20	0x3d9ab78b	0.07554539
21	0xbd0598ab	-0.0326163
22	0xbd202cd8	-0.039105266
23	0xbcbccf93	-0.023048198
24	0xbb35585a	-0.002767107
25	0x3c327f38	0.010894589
26	0xbd88cf16	-0.066801235
27	0xbce43614	-0.027857818
28	0x3d95f318	0.07321757
29	0x3d2d390e	0.04229074
30	0xbbdabe61	-0.006675527
31	0x3d26504b	0.040603917
32	0x3cb8e2a4	0.022569008
33	0x3da36c05	0.079795875
34	0xbb30f9d1	-0.002700437
35	0x3ce69d78	0.028151259
36	0xbdb4b725	-0.088239945
37	0xbbe2dd5a	-0.00692336
38	0xbd29412c	-0.04132192
39	0xbd5e766b	-0.05431215
40	0x3d12ea79	0.03586814
41	0xbc41a654	-0.011819441
42	0xbcca8396	-0.024720948
43	0xbc95fc20	-0.0183087
44	0x3d2ddec0	0.04244876
45	0xbdf5e222	-0.12006022
46	0x3bfbcef0	0.007684581
47	0xbbe48f4d	-0.0069750906
48	0x3d0607a0	0.032722116
49	0xbd2d7416	-0.042347036
50	0xbca6803a	-0.020324815
51	0xbbf53f03	-0.007484318
52	0xbcba27b8	-0.022724018
53	0xbd80dd03	-0.06292155
54	0xbca14b91	-0.019689353
55	0xbcd2ba5a	-0.025723625
56	0xbd63f767	-0.055655863
57	0x3b3f45f8	0.0029185992
58	0xbd5c3e45	-0.053770322
59	0x3d3f2b0b	0.04667191
60	0xbc84b8ee	-0.016201463
61	0x3c5ebbde	0.013594596
62	0xbb882f5f	-0.0041560377
63	0x3ce78894	0.028263368
64	0x3d419628	0.04726234
65	0xbd57f816	-0.052726828
66	0x3a7ed212	0.0009720634
67	0xbd2ff1b7	-0.042955127
68	0x3d91bc2f	0.07115971
69	0xbbb8ebf7	-0.0056433636
70	0x3d0b2d90	0.033979
71	0x3da851b7	0.08218711
72	0xbd252a87	-0.04032376
73	0xbc830e72	-0.015998099
74	0xbccc0420	-0.02490431
75	0xbbc699e1	-0.0060608243
76	0x3c2904cd	0.010316086
77	0x3d29e597	0.04147872
78	0x3d848aae	0.064717636
79	0xbd14fa40	-0.03637147
80	0xbd9fad6f	-0.07796752
81	0x3d1cde96	0.038298212
82	0xbd94cd6d	-0.07265744
83	0xbc76fe5f	-0.015075295
84	0xbbc1a424	-0.0059094597
85	0x3ce82fa6	0.028343033
86	0xbcb47fb9	-0.02203356
87	0x3c154926	0.009111678
88	0xbd55807c	-0.052124485
89	0xbd6aea35	-0.057352263
90	0xbdb9c574	-0.09070864
91	0x3d908ada	0.07057734
92	0x3d90413f	0.07043695
93	0xb9a2457d	-0.0003095082
94	0xbdac416c	-0.08410916
95	0x3c2fb6d7	0.010724745
96	0x3d2955a4	0.04134144
97	0xbdd7a086	-0.10528664
98	0x3cc71a31	0.024304481
99	0x3a72e20d	0.00092652516
100	0xbb8bbe52	-0.0042646313
101	0xbd8883ba	-0.0666575
102	0xbbf203e5	-0.007385718
103	0xbd8f703b	-0.07003828
104	0x3d7ea38f	0.0621677
105	0xbce9157f	-0.028452633
106	0x3bff9699	0.007799935
107	0x3d2681ce	0.040651135
108	0x3d88c637	0.066784315
109	0xbca76a45	-0.020436415
110	0xbd06ee5e	-0.03294217
111	0xbca7d9da	-0.020489622
112	0x3c6011e9	0.013676145
113	0xbc943667	-0.018092347
114	0xbc6beb2c	-0.014399331
115	0x3d4f57ac	0.05062072
116	0x3cf24b82	0.02957702
117	0xbbad84c9	-0.0052953702
118	0x3cb03676	0.021510344
119	0x3cff771f	0.031184731
120	0x3ca2a6c6	0.019854914
121	0xbc23b2a0	-0.009991318
122	0x3ce78ab3	0.02826438
123	0xbdb59e1a	-0.08868046
124	0x3d4de575	0.050267655
125	0xbd0f6e3d	-0.03501724
126	0x3d552e83	0.05204631
127	0x3d93b010	0.07211316
128	0xbb309410	-0.002694372
129	0x3c3f3306	0.01166988
130	0xbccf3583	-0.025294071
131	0xbd2b9d3a	-0.04189799
132	0xbd8a5711	-0.06754888
133	0x3d8603fa	0.06543727
134	0x3cf66326	0.030076575
135	0xbac5b71e	-0.001508448
136	0xbcff74d3	-0.031183636
137	0xbd462bb9	-0.04838154
138	0xbc8998e7	-0.016796542
139	0x3ccdec6b	0.025137147
140	0xbcc65fc8	-0.024215594
141	0xbdcbc727	-0.09950095
142	0x3da83baf	0.08214509
143	0x3a17b222	0.0005786737
144	0x3c6dddd6	0.014518222
145	0x3ca159ce	0.019696143
146	0xbb6c4041	-0.003604904
147	0xbd8d5c68	-0.06902391
148	0xbe026c80	-0.12736702
149	0x3c609fbf	0.013709961
150	0x3dc88a90	0.09792054
151	0xbd2ac465	-0.041691203
152	0xbc3c1041	-0.011478485
153	0x3d38b4a0	0.045094132
154	0xbc521a85	-0.012823706
155	0xbca46cac	-0.02007135
156	0x3cd11482	0.025522474
157	0x3d0149d8	0.031564564
158	0x3acf1192	0.0015798083
159	0xbcc9ee40	-0.02464974
160	0x3c35eec6	0.011104291
161	0x3cc818ce	0.02442589
162	0x3d8371f7	0.064182214
163	0x3d9cee0d	0.07662592
164	0xbc97776a	-0.018489558
165	0xbd8e0031	-0.0693363
166	0x3d9b97e0	0.07597327
167	0xbcc74198	-0.02432327
168	0xbccf79c9	-0.025326626
169	0x3c9459b8	0.018109187
170	0x3cebe5a0	0.028796017
171	0xbc736b5a	-0.014857138
172	0x3d0c37b3	0.034232806
173	0x3c49ba80	0.0123125315
174	0xbc82f6d4	-0.015986837
175	0x3d4776ab	0.048697155
176	0xbd159d6c	-0.036527082
177	0xbca44eb7	-0.020057065
178	0xbb5eab6e	-0.0033976692
179	0xbd044c62	-0.032299407
180	0xbc9ccf94	-0.01914195
181	0x3e3221a4	0.17395645
182	0xbac6e301	-0.0015173854
183	0xbc94ffbb	-0.018188348
184	0xbd0766a4	-0.03305687
185	0xbb71d842	-0.0036902581
186	0x3d478939	0.04871485
187	0x3c04ed47	0.008113212
188	0xbabb82be	-0.0014305932
189	0xbd702b17	-0.058634844
190	0xbcb3033f	-0.021852134
191	0xba8b1ccc	-0.001061344
192	0x3c0a47fc	0.008440014
193	0xbd21156b	-0.039327066
194	0xbd4104b7	-0.047123637
195	0x3d2b7d5b	0.041867595
196	0xbc95ca92	-0.01828507
197	0x3d2e9510	0.042622626
198	0xbd563381	-0.05229521
199	0x3d3b53a0	0.045734048
200	0x3d1841db	0.03717218
201	0xbdcc4aac	-0.0997518
202	0xbd61c53a	-0.05511973
203	0x3c088983	0.008333567
204	0xbcd512e1	-0.026009979
205	0xbc3f72e0	-0.011685103
206	0xbdad9328	-0.084753335
207	0xbc75c8cc	-0.015001487
208	0x3de3f4ae	0.11130653
209	0x3d9efb4e	0.07762776
210	0x3c04a1b2	0.008095192
211	0x3cbfb692	0.023402486
212	0xbc14d7c0	-0.009084642
213	0xbd089ee4	-0.033354655
214	0xbdbd0da5	-0.09231118
215	0xbd603117	-0.054734316
216	0xbc30bc2a	-0.010787049
217	0x3ab52a18	0.0013821749
218	0x3cc63251	0.024193915
219	0x3c6ebf3b	0.01457196
220	0x3d60d492	0.054890223
221	0x3c425b65	0.0118626105
222	0x3d05003b	0.032470923
223	0x3d3a3827	0.045463707
224	0x3d33ba9d	0.04387914
225	0x3d977414	0.07395187
226	0xbd05ce4f	-0.032667454
227	0x3ccc6b92	0.024953637
228	0xbd6d97f6	-0.05800625
229	0x3c939418	0.018014953
230	0xbd0fa1f5	-0.035066564
231	0xbb44f767	-0.003005469
232	0x3c9db220	0.019249976
233	0x3c7dd42c	0.01549248
234	0xbcf82cd7	-0.030294819
235	0x3d737a4f	0.059442814
236	0x3d7e1a34	0.062036708
237	0xbc59bed0	-0.013290122
238	0xbcc98218	-0.024598166
239	0x3c482542	0.012215914
240	0x3d8c143c	0.06839797
241	0x3c88a633	0.016680812
242	0xbc8d891c	-0.017277293
243	0xbca16310	-0.019700557
244	0x3c9239a9	0.01784976
245	0xbc0ba510	-0.008523241
246	0xbcab6f1a	-0.020927
247	0xbbfaee63	-0.0076578124
248	0x3d56736a	0.05235616
249	0x3d952f8e	0.07284461
250	0x3d650fda	0.05592332
251	0x3ab93887	0.0014131226
252	0xbd87440a	-0.06604774
253	0xbd26f35c	-0.04075943
254	0x3d4e1ab1	0.050318424
255	0x3ce78cf1	0.028265448

conv_layers.2.bias f4 [64]
0	0x3d47332c	0.048632786
1	0xbcaa3e1f	-0.020781575
2	0xbd692865	-0.05692329
3	0xbcf05d61	-0.029341402
4	0xbd8f5ca8	-0.07000095
5	0x3ad05bcc	0.0015896498
6	0xbc2eb8a6	-0.010664141
7	0x3cd4c73a	0.025973905
8	0x3b85d8e2	0.0040846923
9	0x3da491e2	0.080356374
10	0xbb80db53	-0.0039323955
11	0x3c1154e0	0.008870333
12	0xbad7ecc0	-0.0016473755
13	0xbb51418f	-0.0031929945
14	0x3c7955d3	0.015218216
15	0xbd662696	-0.056189142
16	0xbc54a38e	-0.012978448
17	0x3d373fb4	0.044738486
18	0xbd9ad836	-0.0756077
19	0xbd3ca6b9	-0.046057437
20	0xbd928295	-0.07153813
21	0xba582ac2	-0.00082461175
22	0x3d3285b6	0.043584548
23	0x3d6c0b6b	0.057628077
24	0xbe0da887	-0.1383382
25	0x3cd8c5bd	0.026461476
26	0x3ca21c42	0.019788865
27	0x3d2acd26	0.04169955
28	0x3dafda0e	0.085865125
29	0x3d54eb48	0.051982194
30	0xbd84498b	-0.0645934
31	0x3c2e2497	0.010628841
32	0x3d4a1022	0.04933179
33	0xbc8b8f32	-0.017036054
34	0x3d4fdc2b	0.050747078
35	0xbba76438	-0.0051083826
36	0xbd038072	-0.032104917
37	0x3d7f1b6f	0.062282022
38	0xba083c0a	-0.0005196935
39	0xbc8996c9	-0.016795533
40	0xbceb6b33	-0.02873764
41	0x3dc1164c	0.09428081
42	0xbdabc5a7	-0.083873086
43	0x3de08204	0.109622985
44	0xbc686437	-0.014184049
45	0x3ce48ace	0.027898218
46	0x3c4f1f21	0.012641699
47	0xbd332d90	-0.043744624
48	0x3de5561a	0.11198063
49	0x3d86cc6f	0.06581961
50	0x3b9bfce5	0.004760372
51	0xbcb7c380	-0.022432089
52	0xbaf37ee7	-0.0018577249
53	0xbcb55c3f	-0.022138713
54	0x3cb08a8b	0.021550437
55	0xbd3c718d	-0.046006728
56	0x3d0efa93	0.034906935
57	0xbba5afdb	-0.005056364
58	0x3c93d61c	0.018046431
59	0x3a1d1c17	0.00059932604
60	0x3c794d75	0.015216221
61	0x3cad7682	0.021174673
62	0x3c5440ca	0.0129549
63	0x3d9b11f5	0.075717844

conv_layers.3.weight f4 [64, 256, 5]
0	0x3d539362	0.051654227
1	0x3d4ba79f	0.049720403
2	0x3c0d6354	0.008629639
3	0xbd364de3	-0.044507872
4	0x3d4a7b71	0.04943413
5	0xbd8c5540	-0.06852198
6	0x3d9fbc32	0.07799567
7	0xbd133fd9	-0.03594956
8	0x3ceb2b15	0.028707067
9	0x3d5a563c	0.053304896
10	0x3d058ee7	0.032606985
11	0x3c597ba6	0.013274109
12	0xbd838beb	-0.064231716
13	0x3dd1a2f5	0.1023616
14	0xbc953fb7	-0.018218858
15	0x3d22ced6	0.039748035
16	0xbc8c90fd	-0.01715898
17	0x3df08af9	0.11745257
18	0x3cbce415	0.023057977
19	0xbbff7a28	-0.0077965446
20	0x3b4a6c82	0.003088743
21	0xbdacd4a8	-0.084389985
22	0xbdb07602	-0.08616258
23	0x3d080c33	0.03321476
24	0xbd2c5b63	-0.04207934
25	0x3d886c3d	0.0666127
26	0x3d1208bc	0.03565286
27	0x3d178d4f	0.036999997
28	0x3c207358	0.009793125
29	0xbcb916aa	-0.022593815
30	0x3cd8ba65	0.026456067
31	0xbd0f582b	-0.034996193
32	0x3d4f962b	0.05068032
33	0x3df75dc9	0.12078435
34	0x3cd6d4e2	0.026224557
35	0x3c7e38bf	0.015516459
36	0x3d54d297	0.051958647
37	0x3b0a549c	0.002110756
38	0x3d74155f	0.059590694
39	0xbc5c75b9	-0.013455802
40	0xbd79f8bb	-0.061028223
41	0x3965be09	0.00021909935
42	0xbd9472a9	-0.07248432
43	0x3b4b3a14	0.003100996
44	0x3da3450e	0.079721555
45	0x3d54aa99	0.051920507
46	0xba8de3a7	-0.0010825292
47	0xbc5e48d0	-0.013567165
48	0x3d50c314	0.05096729
49	0x3d19ee09	0.037580524
50	0x3c2196b6	0.009862592
51	0xbc4b192b	-0.012396137
52	0xbdbbd3d4	-0.091712624
53	0x3d323f0f	0.04351717
54	0xbd3cbca6	-0.046078347
55	0xbba82e84	-0.005132498
56	0x3c67ddd5	0.01415201
57	0xbb3cc333	-0.0028802871
58	0xbd183e04	-0.037168518
59	0xbd850fdf	-0.06497168
60	0xb947dee3	-0.0001906115
61	0xbd0a4163	-0.033753764
62	0x3cff0c17	0.031133695
63	0xbd212b62	-0.039348014
64	0x3d5d573e	0.05403828
65	0xbba368c4	-0.0049868543
66	0x3d07cc06	0.033153556
67	0x3d1a0e5e	0.037611358
68	0x3d693c97	0.05694255
69	0xbd0628d3	-0.032753777
70	0x3d2918b0	0.04128331
71	0x3c4c9294	0.012486119
72	0xbd49ea6b	-0.049295824
73	0xbdf35b3c	-0.11882636
74	0xbce01aa8	-0.02735646
75	0xbb60efdf	-0.0034322662
76	0x3cd230f0	0.0256581
77	0x3d3e453b	0.046452742
78	0x3c238fec	0.009983044
79	0xbcec85e8	-0.028872445
80	0xbcb86d2a	-0.022512991
81	0xbc4226f2	-0.011850106
82	0x3cb93804	0.022609718
83	0x3d73c72f	0.05951613
84	0xbcfe586b	-0.03104802
85	0xbc2a108d	-0.010379923
86	0xbd4d0157	-0.050050106
87	0x3d1959ec	0.03743927
88	0x3d2a4b5f	0.041575786
89	0x3b4a8d9a	0.0030907155
90	0xbcaec2bd	-0.021333093
91	0x3c9a2904	0.018818386
92	0xbbb4507f	-0.00550276
93	0xbcae87ca	-0.021304984
94	0x3bfa9031	0.0076465835
95	0x3d24563f	0.040121313
96	0x3d39ea96	0.045389734
97	0xbcaaa3bd	-0.02083003
98	0x3d376646	0.04477527
99	0x3d23dd8a	0.040006198
100	0x3d4f7203	0.05064584
101	0xbdbc3387	-0.091895156
102	0x3d699004	0.05702211
103	0x3d7ab799	0.06121025
104	0xbc8c4686	-0.017123472
105	0xbbf1f180	-0.0073835254
106	0x3c618cb1	0.013766454
107	0xbdcc15eb	-0.09965118
108	0x3cdc52ff	0.026895044
109	0x3b0d8ab0	0.0021597557
110	0x3cad0254	0.021119274
111	0xbd1fbaaf	-0.038996395
112	0x3c1e5733	0.009664345
113	0xbd4db8f6	-0.05022522
114	0xbc887b50	-0.016660362
115	0xbc4ad825	-0.012380634
116	0x3d847ffe	0.06469725
117	0xbd3c9ed6	-0.046049915
118	0x3d1c4bcb	0.03815822
119	0x3c4fad99	0.012675666
120	0xbd8ca4c3	-0.06867363
121	0x3cc070b4	0.023491241
122	0xbc9ed5dd	-0.019389087
123	0xbb9435ea	-0.0045230286
124	0xbd5c13b2	-0.05372972
125	0x3d6323c3	0.055454027
126	0x3cfce4d9	0.030870842
127	0x3d804851	0.06263793
128	0x3cff6556	0.03117625
129	0x3dc38983	0.09547713
130	0xbc93a99c	-0.018025212
131	0x3c134358	0.008988224
132	0xbc67da85	-0.01415122
133	0xbd8413d6	-0.06449096
134	0x3ccde752	0.025134716
135	0xbd3b4a98	-0.045725435
136	0xbb5135bf	-0.0031922904
137	0xbdd00b52	-0.10158409
138	0xbc32d74c	-0.010915589
139	0xbc147e7f	-0.009063362
140	0x3baf743d	0.005354433
141	0xbd2bcd24	-0.041943684
142	0xbca8c4b3	-0.020601606
143	0xbcff9e6c	-0.031203471
144	0xbdacac50	-0.084313035
145	0xbcb9e7af	-0.022693483
146	0x3c09e116	0.008415481
147	0xbca8c78e	-0.020602968
148	0x3d28ed72	0.04124207
149	0xbd92c546	-0.07166533
150	0x3ce31279	0.02771877
151	0xbce9666e	-0.028491225
152	0xbca76401	-0.020433428
153	0xbc7715f9	-0.015080922
154	0xbdaa63a4	-0.08319786
155	0xbccb5f83	-0.024825817
156	0xbcc79317	-0.02436213
157	0x3d0e9db6	0.034818374
158	0xbcaa8417	-0.020814938
159	0xbd6690c5	-0.056290407
160	0x3c14a825	0.009073292
161	0xbd0d070a	-0.03443054
162	0xbc8fd770	-0.017558783
163	0x3ceedb25	0.02915723
164	0xbc53725e	-0.012905685
165	0xbcad8811	-0.021183046
166	0xbd7f7a32	-0.062372394
167	0x3cb3a030	0.02192697
168	0x3d8a6c7b	0.06758972
169	0xbd131a9d	-0.035914052
170	0xbce07eb2	-0.027404163
171	0xbcd5f438	-0.02611743
172	0xbc3e6427	-0.011620558
173	0xbb85af04	-0.0040797014
174	0xbd554089	-0.0520635
175	0xbbbffbe9	-0.0058588875
176	0x3ca490d4	0.02008859
177	0xbd1c0125	-0.03808703
178	0x3cfad625	0.03061969
179	0xbced964f	-0.029002337
180	0xbce9717d	-0.028496498
181	0x3d6a638b	0.057223838
182	0x3cf52941	0.029926898
183	0x3d1235e8	0.03569594
184	0xbce9ec6f	-0.028555123
185	0xbd935c56	-0.07195346
186	0xbc7b2476	-0.015328517
187	0xbd3c8567	-0.04602566
188	0xbc081464	-0.008305643
189	0x3db37d0b	0.087640844
190	0xbc74e3c3	-0.014946881
191	0x3cb9f50e	0.022699859
192	0x3cf3de56	0.029769104
193	0x3d07da53	0.033167195
194	0xbbcfe728	-0.0063446946
195	0x3df29d66	0.118464276
196	0xbcf7bf2c	-0.030242525
197	0xbd6b8bbc	-0.057506308
198	0x3c5ded42	0.013545336
199	0x3d215ef1	0.039397184
200	0xbb91f907	-0.004454735
201	0x3cb9bd1f	0.022673188
202	0xbd0b4d85	-0.034009475
203	0xbd1d9519	-0.03847227
204	0x3d62aa85	0.0553384
205	0x3d012184	0.031526104
206	0xbc71e53a	-0.0147641245
207	0xbcb64691	-0.022250446
208	0x3d09ab04	0.03361036
209	0xbc34e9eb	-0.0110420985
210	0xbc7b5a2a	-0.015341321
211	0x3cac83c1	0.021058919
212	0xbd1010f7	-0.03517243
213	0x3c80fa46	0.01574434
214	0xbce1d948	-0.027569428
215	0x3d800716	0.062513515
216	0xbb994bc7	-0.004678223
217	0xbd8207c3	-0.06349137
218	0xbd979fe6	-0.07403545
219	0xbd852c57	-0.06502598
220	0x3d50e669	0.051000986
221	0x3abbc9bc	0.0014327089
222	0xbdd9c304	-0.106328994
223	0xbd15d287	-0.036577728
224	0xbd9af4c9	-0.0756622
225	0xbd0c752c	-0.03429143
226	0xbd265ab8	-0.04061386
227	0xbb0cdcfe	-0.0021494026
228	0x3d3dc2fc	0.04632853
229	0xbd150d2d	-0.03638952
230	0x3c4c6d5b	0.012477244
231	0x3d0288c7	0.031868722
232	0x3d99e6cf	0.07514726
233	0x3d680101	0.056641582
234	0xbd81f91c	-0.06346342
235	0xba470709	-0.0007592296
236	0x3a69efa0	0.00089239515
237	0x3d2ef101	0.042710308
238	0x3d13cf31	0.036086265
239	0xba85d428	-0.0010210322
240	0xbbe97cef	-0.007125489
241	0xbca074a4	-0.019586869
242	0x3d17893d	0.036996115
243	0xbbb9c44e	-0.0056691533
244	0xbcce5c26	-0.025190424
245	0xbac7bf1f	-0.0015239454
246	0xbd80f067	-0.06295853
247	0xbbcc7fa4	-0.006240802
248	0xbb030bc7	-0.0019996034
249	0xbca20251	-0.019776495
250	0xbcc96643	-0.024584895
251	0x3d8754bd	0.066079594
252	0x3d44bf3b	0.048033934
253	0x3d29ea65	0.0414833
254	0xbd081d0b	-0.033230823
255	0x3c871f18	0.016494319

conv_layers.3.bias f4 [64]
0	0xbe141461	-0.14460899
1	0xbd844077	-0.06457608
2	0xbddc9aac	-0.10771689
3	0xbcdce71a	-0.026965667
4	0xbda64d88	-0.08120257
5	0xbd1316e6	-0.03591051
6	0xbd1ff9f0	-0.03905672
7	0xbdd4e0ef	-0.10394465
8	0x3c875a83	0.016522652
9	0xbb499779	-0.003076045
10	0xbc804bbf	-0.015661119
11	0x3d1233b3	0.035693835
12	0xbc8c0b1c	-0.017095141
13	0xbd3b0acd	-0.045664597
14	0x3d703331	0.05864257
15	0x3d54bf31	0.051940147
16	0xbda3fb20	-0.08006883
17	0x3d1b2ae0	0.037882686
18	0x3c265b83	0.010153654
19	0x3c33b83e	0.01096922
20	0xbcba7369	-0.02276011
21	0xbcd85396	-0.026407044
22	0xbd3dda49	-0.04635075
23	0x3d08cb5d	0.033397067
24	0x3ce8f351	0.028436335
25	0xbdb382be	-0.087651715
26	0x3d05cfa3	0.03266872
27	0x3d6452aa	0.055742897
28	0xbc8ea348	-0.017411843
29	0xbd53debf	-0.0517261
30	0xbce388c9	-0.027775185
31	0x3c06006f	0.008178814
32	0x3d3797b3	0.044822406
33	0x3c3f6c6f	0.011683567
34	0xbda407cc	-0.080093
35	0xbcc1d30c	-0.023660205
36	0x3c3f7867	0.011686421
37	0xbc08145e	-0.008305637
38	0xbd773983	-0.06035758
39	0xbbe842b0	-0.007088028
40	0x3bf82ce2	0.00757371
41	0xbd15c6a7	-0.036566403
42	0xbcc24420	-0.023714125
43	0xbca3ed08	-0.020010486
44	0xbd84ecf0	-0.06490505
45	0x3cee4bea	0.029088933
46	0x3cc28f03	0.023749834
47	0x3bc93655	0.00614051
48	0xbd8abc89	-0.067742415
49	0xbd056c5b	-0.03257404
50	0x3c90d139	0.01767789
51	0xbc984292	-0.01858643
52	0x3d171fe9	0.036895666
53	0xbcc69d99	-0.02424507
54	0xbceb552a	-0.028727133
55	0xbd925c7a	-0.07146545
56	0xbac54486	-0.0015050329
57	0x3c4e8b5c	0.012606468
58	0x3d7b1cfa	0.06130693
59	0xbd19256e	-0.03738921
60	0x3bf324c0	0.0074201524
61	0xbcb90843	-0.022586947
62	0xbd9bdc8c	-0.07610425
63	0x3a9923f1	0.0011683685

fc1.weight f4 [64, 256]
0	0xbd30ab1f	-0.043131944
1	0x3cb85f47	0.02250637
2	0xbcb71977	-0.02235101
3	0xbacf47ec	-0.0015814281
4	0xbd90a30d	-0.070623495
5	0x3cf060ff	0.029343126
6	0x3d9a48db	0.07533427
7	0x3aef74bb	0.0018269041
8	0xbceb08c8	-0.02869071
9	0xbce2e950	-0.027699143
10	0xbcdb091c	-0.026737742
11	0xbd30a3e4	-0.04312505
12	0xbc05755e	-0.008145658
13	0xbd81ebb1	-0.06343783
14	0x3d2b08f5	0.04175659
15	0xbc4cd0ef	-0.0125009855
16	0xbd7181b6	-0.058961593
17	0xbcf6bbfe	-0.030118939
18	0xbc16545d	-0.009175387
19	0xbbcc090b	-0.006226664
20	0xbb9050d9	-0.004404169
21	0x3d0489eb	0.03235809
22	0xbba476ee	-0.0050190603
23	0xbd9152c1	-0.07095862
24	0x3b943c5e	0.004523798
25	0xbd1bce59	-0.038038585
26	0x3d44e0e5	0.04806604
27	0xbd3625f0	-0.044469774
28	0x3cb5e47f	0.022203682
29	0x3b65382c	0.0034976108
30	0xbd8f600d	-0.07000742
31	0xbc8e76bc	-0.017390601
32	0xbce42a1f	-0.027852116
33	0xbcc3afc9	-0.023887532
34	0xbd78dca1	-0.060757283
35	0x3d0e5ebb	0.03475831
36	0xbc45e7dd	-0.012079206
37	0xbd9f43d8	-0.07776612
38	0xbd8beb5a	-0.06831999
39	0x3d0098ce	0.031395726
40	0xbc7c3a9c	-0.015394833
41	0xbc8794d5	-0.01655046
42	0x3d3f36c1	0.046683077
43	0xbce4ac00	-0.027914047
44	0xbd0dabcc	-0.034587666
45	0xbcb71180	-0.022347212
46	0x3cb31e7c	0.021865122
47	0xbd08e0e3	-0.033417594
48	0xbd92ea7e	-0.07173632
49	0x3acb501e	0.0015511548
50	0xbd013f81	-0.031554703
51	0xbd0c4e30	-0.034254253
52	0xbcd9de98	-0.026595399
53	0x3cb5d5d5	0.02219669
54	0x3d78b923	0.060723435
55	0xbd08dd74	-0.03341432
56	0xbce6c7aa	-0.02817138
57	0x3cff9fbe	0.0312041
58	0x3c2e6e13	0.010646361
59	0x3bf9ce57	0.0076234746
60	0x3cc4da2e	0.024029817
61	0xbd863d2a	-0.06554635
62	0xbcca1a4c	-0.024670742
63	0x3cf24241	0.029572608
64	0xbd201c62	-0.039089568
65	0xbbd24fcc	-0.006418204
66	0x3d4a0bca	0.04932765
67	0xbd93a5c3	-0.07209351
68	0xbc602953	-0.013681727
69	0x3c50c2d5	0.012741764
70	0xbd86cc72	-0.065819636
71	0x3c49a080	0.012306333
72	0xbc30a60f	-0.010781779
73	0xbd47bc3c	-0.0487635
74	0xbca80a14	-0.020512618
75	0xbd1030dc	-0.035202846
76	0xbc294815	-0.010332127
77	0x3d389d36	0.045071803
78	0xbd3a408f	-0.045471724
79	0x3cbd61e9	0.023117976
80	0x3cd8a423	0.026445454
81	0xbd5de76f	-0.05417579
82	0x3c859637	0.01630698
83	0xbd5eed99	-0.05442581
84	0xbc8a5762	-0.01688737
85	0x3d104a66	0.035227202
86	0x3b78f0fc	0.0037985435
87	0x3c4c6a61	0.012476535
88	0xbd015c7c	-0.03158234
89	0x3ada611c	0.0016661021
90	0x3cd91146	0.026497494
91	0xbd42e575	-0.04758211
92	0x3be68e48	0.007036004
93	0xbd5149e5	-0.051095862
94	0x3b0aae5f	0.0021161062
95	0x3d4597d8	0.048240513
96	0x3c7c4fc3	0.015399876
97	0x3d46af76	0.048507176
98	0xbd36212c	-0.04446523
99	0xb9ac2918	-0.00032837014
100	0x3baa57b3	0.005198443
101	0xbd14b856	-0.03630861
102	0x3ce6f5f5	0.028193453
103	0x3aaa8786	0.001301036
104	0x3c89939d	0.01679402
105	0x3d425ab8	0.047449797
106	0xbd5a7d30	-0.053342044
107	0xbd8da178	-0.06915563
108	0x3bd13afa	0.0063852044
109	0xbcc8c819	-0.024509476
110	0xbd1711cd	-0.03688221
111	0xbc8f2fde	-0.01747888
112	0xbc5b3201	-0.013378621
113	0x3c0b2920	0.008493692
114	0x3cb6bb22	0.022306029
115	0xba488d5e	-0.000765046
116	0xbd727f49	-0.05920342
117	0x3b8c533d	0.0042823837
118	0xbc090a6e	-0.008364303
119	0xbc740de3	-0.014895889
120	0xbce8e951	-0.028431566
121	0xbd1c02d0	-0.03808862
122	0x3c09cd93	0.008410829
123	0x3d1eeb97	0.038798895
124	0xbd307db8	-0.043088645
125	0xbd433d9c	-0.047666177
126	0xbc1a8d61	-0.009433121
127	0xbcd426de	-0.02589744
128	0xbd5bb8d6	-0.05364307
129	0x3d16c761	0.036811236
130	0x3c0f043e	0.008729039
131	0x3c25c2e7	0.010117269
132	0xbd779bc0	-0.06045127
133	0xbd88e960	-0.06685138
134	0xbc5de30d	-0.013542903
135	0x3d13cbea	0.03608314
136	0x3cb4d24f	0.02207294
137	0xbd6f4e89	-0.058424506
138	0xbb111ff3	-0.0022144287
139	0xb95aa82e	-0.00020852752
140	0xbd34eea9	-0.044172917
141	0xbc0c5605	-0.0085654305
142	0x3b673e75	0.003528503
143	0xbc994b42	-0.018712644
144	0x3d5004b0	0.05078572
145	0x3d2ac223	0.04168905
146	0x3d22bec3	0.039732706
147	0x3ce10510	0.027468234
148	0xbc3763d6	-0.011193236
149	0xbc9569fe	-0.018239018
150	0xbd85b64b	-0.0652891
151	0xbc9da94f	-0.019245772
152	0xbd9620d5	-0.07330481
153	0x3c10d395	0.008839508
154	0xbc9c18bc	-0.019054763
155	0xbc7d1c53	-0.015448648
156	0xbc8c7226	-0.017144274
157	0xbd81437c	-0.063117
158	0x3d1d2976	0.03836962
159	0xbd4c4da2	-0.049878724
160	0x3d142819	0.036171053
161	0x3d27b0f6	0.040940247
162	0xbcbe10ae	-0.023201313
163	0xbc8c5888	-0.017132059
164	0xbd275b72	-0.040858693
165	0xbd6510e5	-0.055924315
166	0xbcd84c8a	-0.026403684
167	0xbd67545f	-0.056476947
168	0x3cfe0ae0	0.031011045
169	0x3c507301	0.012722732
170	0xbd7a0b42	-0.061045893
171	0xbc5d8a87	-0.013521797
172	0xbce96503	-0.028490549
173	0xbd097c0c	-0.033565566
174	0xbd7d8bcc	-0.0619009
175	0x3d48e24d	0.049043942
176	0xbcee8e38	-0.02912055
177	0x3c29948b	0.010350357
178	0xbc62209f	-0.013801723
179	0x3cd5dd16	0.026106399
180	0x3c09983d	0.008398113
181	0xbc3e550d	-0.011616957
182	0x3d0d1cb4	0.0344512
183	0xbcd257d5	-0.025676647
184	0xbd590fbb	-0.052993517
185	0xbd7ac309	-0.061221156
186	0xbbfed4c0	-0.0077768266
187	0xbd49acd3	-0.049237084
188	0xbd8918bd	-0.066941716
189	0x3c5ca2c1	0.013466538
190	0xbaf5db9d	-0.0018757466
191	0xb9cde643	-0.00039272205
192	0x3bdc3f6e	0.0067214286
193	0xbd2d17e6	-0.04225912
194	0xbd5fb3e1	-0.054614905
195	0xbd7464f2	-0.05966658
196	0xbcea1140	-0.028572679
197	0xbd86291a	-0.06550808
198	0xbd534105	-0.05157568
199	0x3ccb3c13	0.024808919
200	0x3c1944bb	0.0093547655
201	0xbd5c9739	-0.053855155
202	0xbb998a1f	-0.004685655
203	0x3d01aa15	0.031656343
204	0x3d1b8f0c	0.037978217
205	0xbd4c59f8	-0.04989049
206	0xbcf94a5e	-0.030430969
207	0x3c2f2dcc	0.010692071
208	0xbba48754	-0.005021015
209	0x3c6220ac	0.013801735
210	0x3bd4369c	0.0064762365
211	0x3d3e220a	0.04641918
212	0x3c6e98da	0.01456281
213	0xbd92fa72	-0.07176675
214	0xbc906abd	-0.017629022
215	0xbd460979	-0.048348878
216	0x3cabd524	0.020975657
217	0x3c361339	0.0111129815
218	0xbd09813b	-0.03357051
219	0xbd05f7b8	-0.032706946
220	0x3cc0d3d5	0.02353851
221	0x3c815c52	0.015791092
222	0x3d628491	0.055302206
223	0xbcce6390	-0.02519396
224	0x3c2be02b	0.0104904575
225	0x3c05740e	0.008145345
226	0xbcd48a04	-0.025944717
227	0xbd3ca16d	-0.046052385
228	0xbd273eee	-0.0408315
229	0x3c03067e	0.007997153
230	0xbd85627e	-0.065129265
231	0x3cc87e2c	0.024474226
232	0xbca56c05	-0.02019311
233	0x3c9012b4	0.017587043
234	0xbd8a69b0	-0.067584395
235	0xbd0456a7	-0.0323092
236	0xbd091fee	-0.033477716
237	0xbc72b13a	-0.014812762
238	0x3b323a3f	0.0027195362
239	0xbd51bcb6	-0.05120536
240	0x3d034062	0.032043822
241	0xbd5860e9	-0.052826796
242	0x3a2af14a	0.000652094
243	0xbd4a7475	-0.04942747
244	0xbd5a908d	-0.05336051
245	0xbc9f1823	-0.019420689
246	0x3c90813d	0.01763975
247	0x3d49df7a	0.04928539
248	0xbcbb05e5	-0.02282996
249	0x39e94fa4	0.0004450056
250	0xbd458b52	-0.04822857
251	0xbd7865ba	-0.06064389
252	0x3d6585b8	0.056035727
253	0xbd2cd537	-0.042195525
254	0x3cf08be6	0.029363584
255	0x3cde4b5b	0.027135542

fc1.bias f4 [64]
0	0xbd64bfd2	-0.055846997
1	0xbe092cef	-0.13396047
2	0x3c2ff731	0.010740087
3	0xbb909215	-0.0044119456
4	0x3c46b9bf	0.012129246
5	0xbe21c6b6	-0.15798458
6	0xbb92a579	-0.0044752923
7	0xbd87a941	-0.066240795
8	0x3c76b700	0.015058279
9	0x3d444a3d	0.04792236
10	0x3d35167d	0.0442109
11	0x3de647da	0.11244173
12	0xbd56d691	-0.05245072
13	0xbd373942	-0.04473234
14	0x3c94ebd4	0.018178858
15	0xbba32317	-0.0049785483
16	0x3d1c9279	0.038225625
17	0x3c7a8675	0.015290846
18	0x3ce929e3	0.028462356
19	0xbcacaafb	-0.021077624
20	0xbd884548	-0.06653839
21	0xbd81ab80	-0.06331539
22	0x3dd69769	0.10478098
23	0x3d09ef76	0.033675633
24	0xbd59a63b	-0.053137045
25	0xbc4e814f	-0.012604072
26	0x3b24320d	0.0025054247
27	0x3b5658a3	0.003270664
28	0x3d3bc9c7	0.045846727
29	0xbcfad583	-0.030619388
30	0xbd6a4e00	-0.057203293
31	0xbc6d8191	-0.014496223
32	0xbd84c6bb	-0.06483217
33	0x3d6a24c6	0.057163976
34	0xbd41b8b0	-0.047295272
35	0x3c8d3ead	0.0172418
36	0xbd94f6bb	-0.072736226
37	0xbca9d9e7	-0.020733787
38	0x3d2b64af	0.041844066
39	0xbdbb86d3	-0.09156575
40	0x3c557f60	0.013030857
41	0xbda07fcb	-0.078368746
42	0xba9f1c92	-0.0012139252
43	0x3cdd805b	0.027038744
44	0x3d7f8ada	0.06238828
45	0xbd522a05	-0.051309604
46	0xbcdea3d6	-0.027177732
47	0x3d7297c9	0.059226785
48	0x3d0ea0ab	0.034821194
49	0xbd6acb08	-0.057322532
50	0x3ced3ec5	0.028960595
51	0xbd884e19	-0.06655521
52	0x3d7f619e	0.062348954
53	0x3d4b7790	0.04967457
54	0x3d860c45	0.06545309
55	0xbcdcb88f	-0.026943473
56	0x3ce15eb2	0.027510975
57	0x3dd3f397	0.103491955
58	0xbd4a1bea	-0.049343027
59	0xbd4123d4	-0.04715331
60	0x3e03b270	0.12861037
61	0x3bce6c2e	0.006299517
62	0xbd726328	-0.059176594
63	0x3b01a898	0.0019784328

batch_norm.weight f4 [64]
0	0x3f8088cc	1.0041747
1	0x3fc02d4c	1.5013824
2	0x3f7d551a	0.9895798
3	0x3fc327b7	1.5246495
4	0x3fad8d6d	1.3558785
5	0x3fd9fa92	1.7029593
6	0x3f7cfd52	0.98824036
7	0x3fb4e543	1.4132465
8	0x3f7e766f	0.99399465
9	0x3fdf2ff5	1.743651
10	0x3fc6eb49	1.5540553
11	0x3ffa599b	1.9558595
12	0x3f7e66e2	0.99375737
13	0x3fc183e7	1.5118378
14	0x3f7cd42c	0.9876125
15	0x3fb0efca	1.3823178
16	0x3fce7605	1.6129767
17	0x3fbd1e0b	1.4774793
18	0x3fc3090d	1.5237137
19	0x3fc76de6	1.5580413
20	0x3f9f55a0	1.2448006
21	0x3f7cbf1d	0.98729116
22	0x3fbf0490	1.4923267
23	0x3f7f0d3d	0.99629575
24	0x3f7e9cda	0.99458086
25	0x3f7df536	0.9920229
26	0x3f7da623	0.9908163
27	0x3f8c9b67	1.0984925
28	0x3fa6af48	1.3022242
29	0x3f9842cb	1.1895384
30	0x3fdcc44d	1.7247406
31	0x3fbbda0c	1.4675918
32	0x3f7e2b1a	0.9928452
33	0x3fc32fc7	1.5248955
34	0x3faea9a2	1.3645518
35	0x3fcb4017	1.5878934
36	0x3fb3d070	1.4047985
37	0x3fbfc4fe	1.4981992
38	0x3fae5ee9	1.3622714
39	0x3fb335ea	1.4000828
40	0x3f81fd89	1.0155498
41	0x3f79c766	0.9756988
42	0x3fb4fddc	1.4139972
43	0x3fb459c7	1.4089898
44	0x3fcc8899	1.5979186
45	0x3f7ea23a	0.9946629
46	0x3fad1c10	1.3524189
47	0x3fa7f207	1.3120736
48	0x3f7e77df	0.9940166
49	0x3fa45eca	1.2841427
50	0x3f7de166	0.99172056
51	0x3f7dd979	0.9915996
52	0x3fc8963d	1.5670849
53	0x3f800000	1.0
54	0x3fbde23e	1.4834669
55	0x3fc1c190	1.5137196
56	0x3f7d5d71	0.98970705
57	0x3fb4b75a	1.4118454
58	0x3f7e766c	0.9939945
59	0x3fdfc4fa	1.7481987
60	0x3fe792db	1.8091692
61	0x3f795a81	0.97403723
62	0x3f7cee08	0.98800707
63	0x3fb761cd	1.4326721

batch_norm.bias f4 [64]
0	0x3e0386e8	0.12844431
1	0xbd7e0137	-0.062012877
2	0x3df12500	0.11774635
3	0xbb174f13	-0.0023087903
4	0x3dba219b	0.09088441
5	0x3c715130	0.014728829
6	0xbe120a34	-0.14261705
7	0xbc99f720	-0.018794596
8	0xbe072f82	-0.13201717
9	0x3dd7a44a	0.105293825
10	0xbd117393	-0.03551061
11	0x3daf2dd4	0.08553663
12	0x3e0545f2	0.13014963
13	0xbc8c954e	-0.017161038
14	0x3db1879b	0.08668443
15	0xbd3634b8	-0.04448387
16	0xbdaccd8d	-0.08437643
17	0xbd41f599	-0.04735336
18	0xbda4830b	-0.08032807
19	0xbd2f01c5	-0.042726297
20	0x3d8b0ce4	0.06789568
21	0x3e08c044	0.13354594
22	0xbb8d02a9	-0.0043032956
23	0xbde05509	-0.10953719
24	0x3dba0e82	0.090847984
25	0xbdbb6194	-0.09149471
26	0x3c347955	0.011015256
27	0x3da2d1ae	0.079501495
28	0xbe2f6dba	-0.17131701
29	0xbda78b77	-0.08180898
30	0x3cdc18f5	0.02686737
31	0x3c89b381	0.016809227
32	0xbe0d7121	-0.13812687
33	0xbd8d33fb	-0.0689468
34	0xbd84cb6c	-0.06484112
35	0xbd7eb62c	-0.06218545
36	0xbd6e68fc	-0.05820559
37	0x3d64d9f9	0.055871937
38	0x3d203011	0.03910834
39	0xbc37b728	-0.011213101
40	0xbe07081b	-0.13186686
41	0x3dc9d49c	0.09855005
42	0xbdb08176	-0.08618443
43	0x3ba4e9c1	0.0050327484
44	0x3c1a0eea	0.00940297
45	0xbe222429	-0.15834107
46	0x3da00ccd	0.078149416
47	0x3c20be97	0.009811065
48	0xbe01f5f7	-0.12691484
49	0xbb101cf1	-0.0021989907
50	0xbd88814f	-0.06665289
51	0x3df7a38e	0.120917425
52	0x3d48430f	0.048892077
53	0x3d94b8b0	0.07261789
54	0x3cedc077	0.029022438
55	0x3d7d1334	0.06178589
56	0xbdb2eef2	-0.087369815
57	0x3d240d6a	0.040051855
58	0x3deb0a67	0.114765935
59	0x3d3f190c	0.046654746
60	0x3e013d7c	0.1262111
61	0x3de9aa1c	0.11409399
62	0x3e2f1105	0.17096336
63	0x3d89ce9b	0.0672886

batch_norm.running_mean f4 [64]
0	0x145252ed	1.0618645e-26
1	0x00000004	6e-45
2	0x00000004	6e-45
3	0x00000004	6e-45
4	0x40c44764	6.1337147
5	0x15869333	5.435441e-26
6	0x00000004	6e-45
7	0x00000004	6e-45
8	0x00000004	6e-45
9	0x41286567	10.524756
10	0x00000004	6e-45
11	0x412678e3	10.404513
12	0x00000004	6e-45
13	0x00000004	6e-45
14	0x00000004	6e-45
15	0x00000004	6e-45
16	0x00000004	6e-45
17	0x00000004	6e-45
18	0x00000004	6e-45
19	0x37cdaa58	2.4517227e-05
20	0x00000004	6e-45
21	0x00000004	6e-45
22	0x00000004	6e-45
23	0x00000004	6e-45
24	0x00000004	6e-45
25	0x00000004	6e-45
26	0x00000004	6e-45
27	0x00000004	6e-45
28	0x00000004	6e-45
29	0x00000004	6e-45
30	0x00000004	6e-45
31	0x00000004	6e-45
32	0x00000004	6e-45
33	0x00000004	6e-45
34	0x00000004	6e-45
35	0x00000004	6e-45
36	0x00000004	6e-45
37	0x00000004	6e-45
38	0x00000194	5.66e-43
39	0x00000004	6e-45
40	0x0b45c5c3	3.80896e-32
41	0x00000004	6e-45
42	0x00000004	6e-45
43	0x00000004	6e-45
44	0x00000004	6e-45
45	0x00000004	6e-45
46	0x00000004	6e-45
47	0x00000004	6e-45
48	0x00000004	6e-45
49	0x00000004	6e-45
50	0x00000004	6e-45
51	0x00000004	6e-45
52	0x00000004	6e-45
53	0x00000000	0.0
54	0x00000004	6e-45
55	0x000056a9	3.1088e-41
56	0x00000004	6e-45
57	0x00000004	6e-45
58	0x00000004	6e-45
59	0x0000007f	1.78e-43
60	0x414156f0	12.083725
61	0x00000004	6e-45
62	0x00000004	6e-45
63	0x29964128	6.672641e-14

batch_norm.running_var f4 [64]
0	0x11ad3401	2.7326637e-28
1	0x00000004	6e-45
2	0x00000004	6e-45
3	0x00000004	6e-45
4	0x4118582f	9.521529
5	0x15273b62	3.3772226e-26
6	0x00000004	6e-45
7	0x00000004	6e-45
8	0x00000004	6e-45
9	0x41931d13	18.389196
10	0x00000004	6e-45
11	0x419f0693	19.87821
12	0x00000004	6e-45
13	0x00000004	6e-45
14	0x00000004	6e-45
15	0x00000004	6e-45
16	0x00000004	6e-45
17	0x00000004	6e-45
18	0x00000004	6e-45
19	0x37ae411a	2.0772732e-05
20	0x00000004	6e-45
21	0x00000004	6e-45
22	0x00000004	6e-45
23	0x00000004	6e-45
24	0x00000004	6e-45
25	0x00000004	6e-45
26	0x00000004	6e-45
27	0x00000004	6e-45
28	0x00000004	6e-45
29	0x00000004	6e-45
30	0x00000004	6e-45
31	0x00000004	6e-45
32	0x00000004	6e-45
33	0x00000004	6e-45
34	0x00000004	6e-45
35	0x00000004	6e-45
36	0x00000004	6e-45
37	0x00000004	6e-45
38	0x00000010	2.2e-44
39	0x00000004	6e-45
40	0x0c016f2f	9.971257e-32
41	0x00000004	6e-45
42	0x00000004	6e-45
43	0x00000004	6e-45
44	0x00000004	6e-45
45	0x00000004	6e-45
46	0x00000004	6e-45
47	0x00000004	6e-45
48	0x00000004	6e-45
49	0x00000004	6e-45
50	0x00000004	6e-45
51	0x00000004	6e-45
52	0x00000004	6e-45
53	0x00000004	6e-45
54	0x00000004	6e-45
55	0x00009b2f	5.567e-41
56	0x00000004	6e-45
57	0x00000004	6e-45
58	0x00000004	6e-45
59	0x0000000b	1.5e-44
60	0x41af08a8	21.879227
61	0x00000004	6e-45
62	0x00000004	6e-45
63	0x29d85139	9.606417e-14
