models/Ado/classifier_fold3.pth (torch, 991712 bytes, 16 tensors)

conv_layers.0.weight f4 [64, 256, 2]
00000000: 272f 953c 8f11 783d 874e 90bc 432b 413d
00000010: f4d9 cabc 4a5a 7fbd 8508 a0bd fe4d 5b3d
00000020: 7f2c 97bc c17e 0ebd f7c5 b7bd b78e d1bd
00000030: 6ffd 76bb 7b90 593c 1e86 163d 442d 0ebd
00000040: 5223 bd3d f7d4 143d 46c1 73bc 56f4 0fba
00000050: 8d78 133d 76df 4cbd 04f9 9abd 3d16 abbd
00000060: 71bb 4a3d 99db 1dbd 8821 df3b a5b7 fd3c
00000070: 986f 3f3b 944b 9d3b 40e4 fa3c 7f2f 14bc
00000080: c3f2 8a3d 32c2 9a3d 4cce 56bd ccff c8bb
00000090: 632f 8ebd 62d8 7e3b a819 2fbd dd6e 08bd
000000a0: 7bb8 f93c 44c4 47bd 0c0e a1bc 5cda 4cbd
000000b0: 99e3 043d a823 0fbd df00 3e3d ecf4 ae3c
000000c0: f823 0e3d 9f5c ae3d 12b5 d93d 2baa 2e3d
000000d0: 4ccb 0f3c 5893 5abd 1f51 123d 8410 ffbb
000000e0: dac9 bcbb 8d7a fbbb ae96 19be f863 a5bc
000000f0: 42c2 c73b b6dc c63b 5b16 e23b a33e 95bd
00000100: d3cc 953d 25ff 6b3d 705f 3a3b 5d36 393d
00000110: b623 31bd a20e bf3c 9e57 463c c84b a83d
00000120: db3b 823c 2f2c 94bd 6466 a7bc 420d 05bd
00000130: c8c1 1f3d 26de 5cbb 5abd 063d e7ac 4dbc
00000140: ae70 c9bd a277 8a3d 10b2 f4bb 1dab 20bd
00000150: b714 40bc 2634 f93c 8ad7 91bd cef7 88bd
00000160: 33f9 afbd e233 003d 710a a73c ac09 023c
00000170: 7438 e13c 1cce a3bd c975 3cbc 4eba 743a
00000180: 495a bd3c 8b41 2a3c 13f9 d4bd bd84 043d
00000190: a506 d03c c1fe 3fbd 0262 cbbc 88e9 08bd
000001a0: 94f6 2ebd ce71 aa3c 0a30 11bd 4b7d b7bc
000001b0: aff5 903c 6a39 59bd 9453 33bd 90f8 09bd
000001c0: bfb8 043d ede8 30bd c98f 9b3d b4ec 7d39
000001d0: 0323 47bd ab62 c8bc 4319 be3b b72e 15bb
000001e0: 2fa9 e23c be5e 8f3c b495 a7bd 94c8 ddbd
000001f0: 703e e7bc 5516 283d ba47 7c3d e178 c8bc
00000200: 3038 f9bc 14c9 4abd 8c24 093b afb8 cd3c
00000210: bad1 ed3c 5b4f 60bd eeb9 873c 6d61 f7bc
00000220: d8f4 2d3d 6c60 50bd 1ae1 edbc 9951 713d
00000230: e44f be3d c20f 7fbd f332 503d 48a1 57bc
00000240: 6f13 36bd 9c5e c8bc cd21 b63b 326d 9b3b
00000250: 25e1 5ebd 0534 c6bc cb87 a0bd 365c 6cbb
00000260: f673 38bb 11b6 c93c 24e3 58bd 8ae5 c53d
00000270: 160a 36bc 885e 9dbd 6a4c 4abb dcdf 5d3c
00000280: a2df c13c 7d2c c5bc 6090 21bd e0bc 58bd
00000290: 25ac 253c 650b 193d c1d8 fcba 96af 03bd
000002a0: 3d07 c3bd 0918 283d e4c2 943c 0f38 353d
000002b0: 63cd 5cbc be83 97bc 045e fa3c d8cb 86bc
000002c0: 2dbc 23bc cfdc babc c954 d93d 178a cfbc
000002d0: a4f5 c73d 72de a43d 898c 1bbd 0e4d 1abc
000002e0: 8a97 edbc fa9a 21bd 0872 873d 30fa e03c
000002f0: 0bbc 173d bb4e 24bd aeb8 77bd d8e0 c5bd
00000300: 5d2d 19bd 4852 5c3b 083d 28bc 33f4 733d
00000310: 94b7 333d 9153 89bc 1ef0 72bc b8ce 5f3a
00000320: 0dba 6f3c 735f a0bd 5b43 803d b897 a3bd
00000330: 265f 8d3c 4f25 aa3c a40b eb3c 3c80 a53d
00000340: 13b8 5dbc 0926 0dbd 3ca0 32bd b925 493d
00000350: d945 81bd b802 8d3c b6d9 833d 0786 abbc
00000360: c2f6 abbd ca42 1f3d 3ced 903d 1663 0fbc
00000370: 666d 9cba 5bc8 893c b2bc e23c e5ed 0f3d
00000380: c0ef 01be 750f fabc 8615 053d 9f76 a7bb
00000390: a62c 283c 6f75 54bd 31ac 113d ade1 cf3c
000003a0: fe5e 963d a60f b53c dbb5 b53d 3ed1 4ebd
000003b0: 11b5 423c 87b2 e63c 0d0a 813d 11e3 93bc
000003c0: 50c8 b9bd c74c 5b3c 9366 563d a144 583d
000003d0: ecef 743d 291d 843d 6ea1 1f3e 3f29 0bbd
000003e0: 581a 31bb 7829 883c bbee 33bd 97c3 25bd
000003f0: 0287 1ebd 4b70 84bc 6904 003d 881d 2d3d
0.01821096 0.06056362 -0.01761557 0.0471604 -0.024762131 -0.062341966 -0.07814125 0.053541176
-0.018453835 -0.03478885 -0.08973306 -0.10232299 -0.003768768 0.013279076 0.036748998 -0.034711137
0.092352524 0.03633591 -0.014877623 -0.0005491426 0.036003638 -0.050017796 -0.07567027 -0.08353851
0.049495164 -0.038539503 0.006809417 0.030971358 0.0029210802 0.0048002694 0.030626416 -0.009044527
0.067845844 0.07556571 -0.052442834 -0.006134009 -0.06942632 0.0038886298 -0.042749077 -0.033308852
0.030483475 -0.048771158 -0.019660018 -0.05001293 0.032443617 -0.034946114 0.04638755 0.021357022
0.03470227 0.0851376 0.106302395 0.042642754 0.008776497 -0.053363174 0.035721894 -0.0077839512
-0.0057613673 -0.0076745213 -0.14998886 -0.02018927 0.0060961554 0.0060687913 0.0068996376 -0.07287338
0.07314458 0.05761637 0.0028438233 0.04521786 -0.043246947 0.023322407 0.0121058505 0.08217579
0.015897682 -0.0723499 -0.020434566 -0.032483347 0.039003164 -0.0033701747 0.032895423 -0.01255343
-0.09835945 0.067610994 -0.0074675158 -0.039225686 -0.011723689 0.030420374 -0.07121189 -0.0668789
-0.08592453 0.03129948 0.020390721 0.007936876 0.02749274 -0.079982966 -0.011502692 0.0009335623
0.02311434 0.010391603 -0.1039907 0.03235315 0.025393793 -0.04687381 -0.024827007 -0.033425838
-0.042715624 0.02080622 -0.035446204 -0.022398612 0.017695276 -0.05303327 -0.04378088 -0.033684313
0.03240275 -0.043190885 0.07595784 0.00024216139 -0.048617374 -0.024461111 0.0058013513 -0.002276344
0.027668564 0.017501231 -0.081828505 -0.10829273 -0.028228015 0.041036922 0.06159184 -0.024471702
-0.0304223 -0.04950817 0.0020926325 0.025112478 0.02903067 -0.05476318 0.01656815 -0.030197823
0.04246983 -0.050873205 -0.029038 0.05891571 0.09292582 -0.062270887 0.05082984 -0.013161011
-0.044452127 -0.024459176 0.0055582286 0.0047432417 -0.054413933 -0.024194727 -0.078384005 -0.0036065704
-0.002814529 0.024622949 -0.052950993 0.09662922 -0.011110803 -0.07684046 -0.00308683 0.013542142
0.023666207 -0.024069065 -0.039444327 -0.0529145 0.010111843 0.037364382 -0.0019290672 -0.032149874
-0.09522865 0.041038547 0.018159337 0.044242915 -0.013476702 -0.018495437 0.030562408 -0.016454622
-0.009993595 -0.022810368 0.106118746 -0.025334401 0.09763649 0.080502406 -0.03797582 -0.009417785
-0.029002924 -0.039454438 0.066135466 0.027463049 0.037044566 -0.040114146 -0.06047886 -0.09662026
-0.037396777 0.003361838 -0.010268457 0.05955906 0.043876246 -0.01676348 -0.014827756 0.00085375784
0.01463176 -0.078307055 0.06262847 -0.079879224 0.017257284 0.020769743 0.028692074 0.080810994
-0.013532656 -0.0344601 -0.043609843 0.04910824 -0.063121505 0.01721321 0.064380094 -0.020937933
-0.08396675 0.038882054 0.07076499 -0.008751651 -0.0011934459 0.01681917 0.027677868 0.035138983
-0.12689114 -0.030524949 0.03249123 -0.0051105763 0.010264551 -0.051869806 0.035564605 0.025376165
0.07342337 0.022102188 0.08872577 -0.050492518 0.01188399 0.0281613 0.06300745 -0.01805261
-0.0907141 0.013385004 0.052343916 0.052799825 0.05979912 0.06450874 0.15588924 -0.033974882
-0.0027023759 0.016621336 -0.043928843 -0.040469732 -0.038702972 -0.016166827 0.031254206 0.04226449

conv_layers.0.bias f4 [64]
00000000: cadd 8ebc 6133 b93d 6fc9 b4bc a2dd 47bd
00000010: baf4 c63d e393 2d3d 48cd 77bd 6c4b 73bb
00000020: d346 89bd 46bf 00be 336c 5a3d 4fb6 693d
00000030: 62fd ba3c 7843 013c 7b7f 19bc d818 09bd
00000040: a7c2 3fbc 078c 1e3d 644b b53d 6873 babc
00000050: cddd 583c b8f0 eb3d 3133 9b3b 4d55 fe3b
00000060: 270a b33d 8ba6 58bd 1f95 2a3d 13c5 9bbc
00000070: b5e2 8fbd de56 97bc 3759 8ebc 39e3 183d
00000080: 79c3 cdbd 8575 d23d fc9b 93bd 0a6f 373d
00000090: da0b aa3d d279 63bb b389 50bd b251 d63d
000000a0: 2bc7 afbc 4709 94bd 6483 ae39 06c5 0ebd
000000b0: 5d95 d23c b2b3 8eba df54 06bd b506 9b3c
000000c0: a75d 56bd 61e0 223c 98fb 383d 6f46 be3c
000000d0: 5a01 85bd 6e6a 063c fcae 1b3d 943d aa3c
000000e0: 5b56 3bbd b920 19bd f2ad bc3d a698 333d
000000f0: 41be 9c3c 9eb8 07be b4cd 5dbc 4cb0 55bd
-0.017439742 0.09043003 -0.022068707 -0.04879535 0.09714647 0.042377364 -0.060498506 -0.0037123812
-0.06702962 -0.12572965 0.053325843 0.05705863 0.0228259 0.007889621 -0.009368773 -0.03347096
-0.011704124 0.03870776 0.0885227 -0.022760108 0.013236475 0.11520523 0.004736327 0.0077616335
0.08742171 -0.052893203 0.04164612 -0.01901487 -0.07025663 -0.018474039 -0.017376525 0.03732607
-0.10047049 0.10276321 -0.07207486 0.04478363 0.08303042 -0.0034710062 -0.05091257 0.10464801
-0.021457275 -0.07228332 0.0003328576 -0.034855865 0.025705988 -0.0010887294 -0.032795783 0.018924097
-0.052335408 0.009941191 0.045161813 0.023226945 -0.064943984 0.008204086 0.038008675 0.020781316
-0.045736652 -0.037384722 0.09212865 0.04384675 0.019133689 -0.1325402 -0.013537813 -0.052170083

conv_layers.1.weight f4 [64, 256, 3]
00000000: 8a74 3abd 25e5 913c 8294 063d 1f6a 6f3d
00000010: e9e0 9c3d a0b0 ce3c a4cb 5dbd 5e4e 323d
00000020: ae8f 813d 5742 993d 5c96 eb3c 57b1 a2bc
00000030: 1cdc 05bd e25c fdbc b9ba 8e3d 826f b93d
00000040: 0c30 c7bb c1de 863a 4660 62bd bebc afbc
00000050: 390d 323d a424 6fbc 314c 063c affd 413d
00000060: ef7b 3f3d 6cee 90bd 2cf7 2fbd 5df0 8a3d
00000070: 56c5 a33c e4af 40bd 0edb 1dbd dd1a 05be
00000080: f1c3 86bd c966 923c d48a 1dbd 3761 763c
00000090: 22da 29bc 575e 063d 60a3 b13d 5c53 973d
000000a0: 8fc3 fe3b ad3b 65bd 1472 4abc abe9 ed3c
000000b0: b484 42bc f1d0 003d 1945 a53d de68 08bd
000000c0: 0548 a73c 5aa6 eabc 46b6 793c dfc4 753d
000000d0: f0f4 f7bc dead 013d 1165 f1bb 26bd 4bbd
000000e0: e69b e4bc b09c 5b3a 2ee6 ae3c 8824 463d
000000f0: e757 46bd a368 213e f38d d13d ebd8 d13c
00000100: 1592 04bd 624d 2dbc 042a d43c 6ce6 57bc
00000110: 0814 843d 8d32 5fbd d2f0 103d 151d cdbc
00000120: 723d 80bd 963b 543d 52f2 e1bb 2c8c 083c
00000130: 2711 c63c 9b90 74bb ecf3 a5bd f991 71bd
00000140: 99ed 643b 9aba 963d 0fe0 c13c c945 59bd
00000150: 94d3 f9bc 8431 81bc 964b 5fbd 091d 253c
00000160: 695e 583c 834c 66bd 98df 39bc a2ff a13c
00000170: c993 d5bc 1276 abbc 7b4b 603d db79 523b
00000180: feb5 53be cb7d 39bc 499e 4cbd b07d 1b3d
00000190: 7d3f c73c a86c 2bbd 784a 713c 1b20 82bc
000001a0: f677 3c3b febf 63bc c424 e03d ee20 203d
000001b0: ab93 ebbc 7902 10bd a266 e6bc 341a 5c3b
000001c0: 695f b9bc 897d 543c a6dc 15bd 83ff c53d
000001d0: 589d 583d 0ca2 80bc 09f6 9ebc b5f4 17bc
000001e0: 8430 9a3d 9ba0 63bd 432e 573c 1b16 bc3c
000001f0: e131 88bc b8c8 4dbd 504c 963d f863 b9bb
00000200: 15ce 6abd 8924 7cbc 11fa 29bc 6dc1 a8bb
00000210: b72e d3bd fd98 d63c a2da 55bd 1737 f639
00000220: 7e94 f23c a99d f1bc 6dd7 383d d29e dd3c
00000230: a54c 023d 6a4e df3c 4026 bd3d 707d be3a
00000240: 0456 0dbd 0968 e93b 5f4a 24bd bf8a 893d
00000250: df78 333c 83f4 a8bd a005 76bd 383d 033e
00000260: cf94 08bc 3b48 f43c 809e 2cbd 2f17 99bc
00000270: b8f5 153b 64fe a8bd e710 a13c d549 6cbd
00000280: cc44 19bd 60d2 b7bd 2710 2e3b f706 713c
00000290: a89a 4c3d c9be 90bd 8669 143c ad7f 6dbd
000002a0: 4b9e 9d3b c1cb dfbb ffcd 273d 9b45 1fbd
000002b0: cd0f bbbc 89c2 623c 3004 8e3d 9189 c33c
000002c0: 3164 c83b 1da2 c63d 5562 86bd 31db f8bb
000002d0: 2630 a63c 1b40 82bc f427 23bd 4500 853d
000002e0: 4007 dabd 4e7a bcbb 99c0 50bd 764c aabb
000002f0: 3a2c 903a 82c7 fabb 1d83 22bd 756e d53b
00000300: 3ab4 f63c 40fa 42bd c7aa 1f3c 50e2 993d
00000310: fdb8 593c 34f4 b23c 5aba c93a 4f72 c43b
00000320: 9640 37bd cfc0 eabd b6e5 143c 12c8 b3bc
00000330: 3e55 d3bc a03a 8d3d e544 a63d 40d3 b73c
00000340: 1064 24bd 96cd f8bd c77b a63c 953d 6ebd
00000350: e3b3 5abd f2ac e63d 7a23 ffbc 80a9 a53c
00000360: 3edd ae3c 5410 3ebd 5517 2c3d e640 a43d
00000370: 74b5 0d3d 5eeb 62bd ef45 563c d4de 55bd
00000380: 33eb 43bd d905 e7bc 5e12 343c d472 aabc
00000390: d280 a93b 7c4a 3c3d c1ef ed3c a98f 203d
000003a0: c222 d5b9 b4fa 08bc e121 2cbd 9618 353d
000003b0: 2712 d1bc d091 683c 37e9 703d 49e6 0bbd
000003c0: 66ec 363c f5ba e8b9 cab5 acbd efc8 0f3d
000003d0: 0cc0 15bd 2f08 0c3d 8f0a e6bc 1777 f53c
000003e0: f4d1 b8bc 8750 d7bc 5acf db3d 9c2a dd3c
000003f0: e09d 9e3c 54fb d2bc 53a4 a53d 75c5 483b
-0.045521297 0.01780946 0.03285647 0.058450814 0.07660086 0.025230706 -0.054149285 0.043531768
0.06326233 0.074833564 0.02875822 -0.019859953 -0.032680616 -0.030928079 0.06969208 0.090544716
-0.0060787257 0.0010289775 -0.055267595 -0.021452304 0.04346964 -0.014596138 0.008196876 0.047361072
0.04674905 -0.07076725 -0.04296033 0.06784127 0.019991558 -0.047042742 -0.038538985 -0.12998529
-0.065803416 0.017871277 -0.038462475 0.015037826 -0.010366948 0.032804813 0.086737394 0.073889464
0.0077747772 -0.055965114 -0.0123563 0.029042086 -0.011872459 0.031449262 0.0806982 -0.033303134
0.020420084 -0.028643776 0.015241211 0.060002204 -0.030268162 0.031659953 -0.0073667844 -0.049740933
-0.02790637 0.0008377535 0.021349993 0.048374683 -0.048423674 0.15762572 0.10232153 0.02561613
-0.032365877 -0.0105775315 0.02589894 -0.013177495 0.06449133 -0.05449157 0.035385914 -0.025038281
-0.0626172 0.051814638 -0.006895342 0.008334201 0.0241781 -0.0037317637 -0.08103165 -0.0589771
0.0034931658 0.0735981 0.02366641 -0.053045068 -0.030496396 -0.015770681 -0.054515444 0.010077723
0.013206103 -0.05622531 -0.011344813 0.019775216 -0.026071446 -0.020930324 0.054759484 0.0032116089
-0.20674893 -0.011321495 -0.04995564 0.03796166 0.024322266 -0.04185167 0.014727227 -0.01588445
0.0028758026 -0.013900755 0.109445125 0.039093904 -0.028756937 -0.035158608 -0.028125111 0.0033584954
-0.022628503 0.012969383 -0.03658738 0.096678756 0.05288443 -0.01570227 -0.019404428 -0.009274651
0.07528785 -0.055573087 0.013133588 0.02295976 -0.016625347 -0.05024025 0.07338774 -0.005657669
-0.05732544 -0.01538957 -0.010374562 -0.0051500113 -0.103116445 0.026195997 -0.052210458 0.00046961821
0.029611822 -0.029494124 0.04512732 0.02705327 0.031811375 0.02725907 0.09235811 0.0014533233
-0.03450586 0.0071229977 -0.04010999 0.06715917 0.010954111 -0.08249762 -0.06006396 0.12816322
-0.00833626 0.029819598 -0.042143345 -0.018687813 0.0022882055 -0.08251646 0.01966138 -0.0576876
-0.037419125 -0.08975673 0.002655992 0.014711133 0.04995218 -0.070676394 0.009058362 -0.05798309
0.0048101298 -0.0068297093 0.040967938 -0.03888474 -0.022834683 0.013840326 0.069343925 0.023869308
0.0061154594 0.096988894 -0.06561724 -0.007594489 0.02028663 -0.015899708 -0.039833024 0.06494192
-0.10645914 -0.0057518845 -0.050964925 -0.005197103 0.0010999509 -0.0076531777 -0.03967582 0.0065134116
0.030115236 -0.04760194 0.009745306 0.07513869 0.013288734 0.02184496 0.001539062 0.005995072
-0.04473933 -0.114625566 0.0090879705 -0.021945987 -0.025797483 0.068959475 0.08118609 0.022439599
-0.04013449 -0.121485874 0.020322694 -0.058164198 -0.05339421 0.112634555 -0.031144846 0.020222425
0.02134573 -0.04640229 0.04201444 0.08020191 0.034596875 -0.055400245 0.013078197 -0.05221446
-0.047831725 -0.02820103 0.010990707 -0.020806707 0.0051728273 0.04596947 0.029044988 0.039199505
-0.00040652422 -0.0083605535 -0.042024497 0.0442129 -0.025521351 0.014194921 0.05881616 -0.034155164
0.01116476 -0.00044389782 -0.08433111 0.035103735 -0.036560103 0.034187492 -0.028081207 0.029964013
-0.022561051 -0.026283516 0.107329085 0.026997857 0.01936239 -0.025754608 0.08087983 0.0030635272

conv_layers.1.bias f4 [64]
00000000: a349 0cbe cc34 8cbc cab2 4abd 9561 0fbb
00000010: e8b8 e93c d8bb 103d 7acf ac3d 1bc0 c33d
00000020: c9b5 0dbb ce93 a13b d5d3 3939 c04c 9c3d
00000030: b46f f23b 004e 5bbd 0532 c0bd 7272 4abd
00000040: 00cb 98bd 002c a13c 83c8 a6bb a783 a2bd
00000050: 83f8 cf3c f15c 5e3b 2d98 f43d 223a 6cbd
00000060: 832f bf3d 7faa bf3c e1a0 793d 1f28 99bc
00000070: aad9 953d 8cb3 ec3c ae29 5fbd 2542 bd3c
00000080: 69c7 3d3d 663c da3c 771e d1bc 65fb 853a
00000090: dad0 23bd 9ca9 863d a7cc 283d b5f9 6c3a
000000a0: 35f5 4ebd 81df 533b 7396 233d bc09 673c
000000b0: d1e3 3b3d fa8d 02bd f235 5ebc d7aa 123d
000000c0: e63f bfbc cb18 d43c 4e97 723d a1e5 09bc
000000d0: 9134 213c 5d49 94bc 3e15 793c 1698 bb3c
000000e0: ffcb a73d 14ee 1d3d c9fd 22bd 619b a1bd
000000f0: d804 6a3d 7b9b 063d a99c 60bd 90eb 9dbd
-0.13699965 -0.01711502 -0.049486913 -0.0021878232 0.028530553 0.03533539 0.084380105 0.095581256
-0.0021623245 0.00493095 0.00017721888 0.076318264 0.00739857 -0.053541183 -0.093845405 -0.04942555
-0.07460594 0.019674301 -0.005089821 -0.07935267 0.025387054 0.003392991 0.11943088 -0.057672627
0.09335234 0.023396729 0.06094444 -0.018695889 0.07316907 0.028894208 -0.05448311 0.02310283
0.04633275 0.026640128 -0.025527222 0.0010222016 -0.0399941 0.06575319 0.041210797 0.0009039895
-0.050526816 0.0032329264 0.0399384 0.014101442 0.04587156 -0.03187368 -0.013562666 0.035807457
-0.023345899 0.025890728 0.059226327 -0.008416564 0.009839193 -0.018101389 0.015202818 0.022899669
0.08193206 0.038557127 -0.03979281 -0.07890964 0.057133526 0.03286312 -0.054836903 -0.077109456

conv_layers.2.weight f4 [64, 256, 4]
00000000: 233e 0a3d 9728 7fbd 8f98 e13b 99d0 19bc
00000010: fb6b 45bd c9f6 353e cabb 883d 0777 df3a
00000020: bf3b 2dbd 3499 983c 611b 05bc 7aae aa3c
00000030: d689 a43d 2638 81bd 07df 2dbd 9aa0 61bd
00000040: 5e0e 7ebd 0ab7 fc3b af48 c8bd 1d36 3dbd
00000050: 7c6c dcbb 06a1 f6bb 55c5 5ebd c6bc 61bd
00000060: 8ee0 553d 1e78 313b d915 d93c e823 a63c
00000070: b4fd d63d c084 4e3d 856c 133d a328 123a
00000080: 596e 573d 080c 29bc d20a 86bd 34b8 a3bb
00000090: 00c7 07ba 082c 373d 24a9 0cbd 29cc ec3c
000000a0: f7ae a73d 3d26 803c a135 6f3c 11be 9bbd
000000b0: 03b0 5dbd ab6b e1ba 26a7 323c 14b3 853c
000000c0: 4b1f 843c 89f2 4a3d 9d0c 94bd 6550 0c3d
000000d0: 13c8 32bd 43af dc3c b40f c03d 8180 7cbc
000000e0: 5d4e ddbc 8249 073c be31 123c b76c 96bd
000000f0: 2932 033b e7d4 84ba e92c c93c 457c 423b
00000100: bbcd 60bd e352 133d 425b a23d 538a 353d
00000110: 6a0d 233c dfd6 01bd 1cf1 bebc 24e2 033d
00000120: 3f94 eebc 6e09 a93b 2979 3ebd f19f 783c
00000130: 7367 fabc 71e8 fb3c f5cd 05bd 83c2 0a3d
00000140: 8855 a8bd 6898 073c d064 5abc 7518 5b3d
00000150: 138c 9dbc 7293 8fbd c210 af3d 366c 3f3d
00000160: 479a 81bd 1ac1 003d 0e3d 66bd a068 353d
00000170: 9696 823c 8f3f 823d be63 a6bd 8522 e9bc
00000180: 0fe5 20bd 8d4f 4dbd f7c0 2abd 3572 c23d
00000190: 9181 f13c de77 00bd 4e1e 133d de04 2c3d
000001a0: b615 f4ba aba0 b7bd c2c4 3ebd 6dd1 2d3d
000001b0: 100d d13c 8c91 82bd 0591 e7bc 5e4e aa3d
000001c0: df77 bcbd 44cb b6bb 1978 44bd efed 0f3c
000001d0: 988f 31bc f6f1 68bd 9767 a1bd 281c 553d
000001e0: 86ed 733d 89eb 4dbd 78ee 563d d149 76bd
000001f0: 26eb 96bc 31bb 3ebd 51e7 7b3d 4c2d c1bc
00000200: 8317 ca3c be1f 4fbd 46d3 c0bc 6127 4b3d
00000210: 0e3a 36bc 0ad5 233c 1657 433d 9524 6abc
00000220: 9963 d63c fa2c 32bd 5321 12bd 83e0 c5bc
00000230: 6229 ce3b 141d 83bc f9c9 bd3d b49b 37bd
00000240: 54c5 62bd 2729 4c3d 8473 2a3d b382 e4bd
00000250: 71ef 54bd 8157 9c3d 041a cfbb 17af b5bd
00000260: 6050 2dbd b47d 5a3d 055b 993d 644e 673d
00000270: 4c09 413c 3ae6 033d dd27 b6bd 1335 40bb
00000280: c577 0b3d 4f03 e83b 5b5e 4a3d 64ad 783b
00000290: 0d1e 8cbd d25d d6bd f1ca a83d d6ec 0bbd
000002a0: 888e 73bd 2ca7 ce3c 04ff 363c 9dcd 4dbd
000002b0: 2bcc 5dbb 3254 7bbc 32b0 a43b a3fe db3c
000002c0: 3c91 863d 70af f93b 86bf 543c 4beb 693c
000002d0: 98a5 bbbc 0adb ffbc 4322 c43d 0bc6 0cbb
000002e0: cfdb 52bb 5496 8b3d 3e88 e7bc 4f85 bfb9
000002f0: 7d80 10bd 5404 a13c d731 b63d 6fe6 a2bc
00000300: e715 94bd c8cb 013c e699 d5bc 71c0 863b
00000310: 59d6 5d3d 2842 883b 8f73 303d 1767 013d
00000320: babb ab3d bb32 99bd e25b c5bd 9ca2 d13d
00000330: 83be 3b3d 4436 a9bb 9520 bebc 32c8 4f3d
00000340: 57d3 773c 133f 933d 810c 0b3c e001 bfbd
00000350: 3bc3 333d 8b91 f9bd de2b ca3c 191c 54bd
00000360: ad4e cbbc 90b1 20bd 542b 95bc a462 bb3b
00000370: df1c a53b 6903 6bbd 1127 abbc 961e 813d
00000380: 4af2 453c 1806 e63c 5c60 2dbd 4213 80bb
00000390: a0fc 7abd 8432 05bd 3ac2 323d fd20 5d3b
000003a0: 60c3 893d 819f 393d 0916 3abd 83f0 8b3d
000003b0: 99c6 ee3c 03be 22bd b1ec ea3d ebaf 77bd
000003c0: a6e0 33bd ccf3 dfbc f67f 8bbc bbaf 89bd
000003d0: 921d f13b 1c06 463d 2930 3dbd 559d bb3c
000003e0: 8700 f93c b5ad 90ba 55c9 bf3d 791b 90ba
000003f0: 5d66 c5bc 022a 283c cb0b 833d f34a 103d
0.033750664 -0.06229457 0.0068846415 -0.009388112 -0.04819868 0.17769922 0.06676443 0.0017049023
-0.042293306 0.01862774 -0.008124203 0.02083515 0.080341026 -0.063095376 -0.042449024 -0.055084802
-0.06202542 0.0077122496 -0.09779488 -0.046194185 -0.0067267995 -0.0075265197 -0.05438741 -0.05511167
0.052216105 0.0027079652 0.026499676 0.020280793 0.10497609 0.05041957 0.035992164 0.00055755134
0.05259547 -0.01031781 -0.065450326 -0.004996324 -0.00051794946 0.044719726 -0.034340993 0.028905945
0.08187669 0.015643233 0.0146001885 -0.07604612 -0.054122936 -0.0017198225 0.010904109 0.016320743
0.016128203 0.049547706 -0.07228968 0.034256358 -0.043647837 0.02693904 0.09377995 -0.015411497
-0.027014906 0.008257272 0.008922992 -0.073449545 0.0020018911 -0.0010134251 0.024557548 0.0029676121
-0.0548837 0.03596772 0.07927562 0.04432137 0.009951929 -0.031699058 -0.02330833 0.032198086
-0.029123424 0.005158595 -0.046502266 0.015174852 -0.030566907 0.030750485 -0.03266712 0.033876907
-0.08219439 0.008276083 -0.0133297 0.05349012 -0.019231832 -0.07010545 0.08548118 0.046734057
-0.06328254 0.031434156 -0.05621057 0.04428923 0.015940946 0.06359779 -0.08124493 -0.028458843
-0.039280947 -0.050124694 -0.041687932 0.094944395 0.029480727 -0.031364314 0.035917573 0.04199683
-0.0018622193 -0.08966192 -0.04657436 0.042436052 0.025518924 -0.06375417 -0.028267393 0.083157286
-0.09202551 -0.0055784304 -0.047966097 0.008784755 -0.010837458 -0.056871377 -0.07881086 0.052028805
0.059552692 -0.050273452 0.052473515 -0.06012899 -0.018422674 -0.04656524 0.061499897 -0.02358117
0.024669414 -0.05056738 -0.023538243 0.0495981 -0.01112224 0.009999523 0.047690473 -0.014290948
0.026170539 -0.043499924 -0.03567631 -0.024154907 0.0062915543 -0.016005076 0.09267039 -0.044826224
-0.055363968 0.049843933 0.04161407 -0.111577414 -0.05198616 0.076338775 -0.00632024 -0.08871286
-0.04231298 0.053342536 0.07488064 0.056471244 0.011782002 0.032201983 -0.08894322 -0.002932851
0.034049768 0.0070804725 0.04940639 0.0037945146 -0.06841669 -0.104671136 0.08241833 -0.03416141
-0.0594621 0.025226198 0.011169199 -0.050244916 -0.0033843617 -0.015339898 0.005025887 0.026854819
0.0657067 0.0076197907 0.012985116 0.01427729 -0.02290611 -0.031232376 0.095768474 -0.0021480347
-0.0032174473 0.06815782 -0.028263208 -0.00036529682 -0.035278786 0.019655384 0.08896225 -0.01988527
-0.0723074 0.00792212 -0.026074361 0.0041122963 0.054159496 0.004158277 0.043078955 0.031592455
0.083854154 -0.07480379 -0.09636666 0.102360934 0.045835983 -0.0051639397 -0.023208896 0.05072803
0.015126071 0.07189765 0.008486868 -0.093265295 0.04388736 -0.12185963 0.02467912 -0.05178461
-0.024817789 -0.039231837 -0.018209137 0.005718546 0.005038842 -0.0573763 -0.020892652 0.06304662
0.012081692 0.028079078 -0.042328224 -0.0039085457 -0.06127608 -0.03251888 0.04364226 0.0033741586
0.06726718 0.04531813 -0.04543117 0.06832983 0.029147433 -0.03973199 0.114709266 -0.060470503
-0.043915413 -0.027337931 -0.01702879 -0.06722971 0.0073582614 0.04834567 -0.046188507 0.02290217
0.03039576 -0.0011038097 0.09364573 -0.0010994516 -0.024096662 0.010263922 0.06398734 0.035227727

conv_layers.2.bias f4 [64]
00000000: ae36 a8bd f243 fc3b 99f3 1b3d 3a3b 803d
00000010: bbda 84bd eba4 cbbd 0973 cabd eba7 563c
00000020: b71c 5a3d 8c1a 9bbb 6ef8 e83d d2ca d4bd
00000030: d45f ab3c d690 cebd 9995 fdbc bce8 923c
00000040: 36dd 48bd ed0e f93c 84a9 aabd 50e7 3737
00000050: e310 7dbd 9f5c b6bd 3397 5a3d 0305 a03d
00000060: 629f 703d 44a2 f5bc 2da7 ccbd c9a6 fd3c
00000070: d2f6 02bd 2c55 ed3b c8b9 bcbd 0800 613d
00000080: 0a2f 8f3d 4214 9db7 4747 e4bd f51b 86bd
00000090: 0dc2 8abb dcae bcbc f947 37bd 0467 1abc
000000a0: 7add 9ebd eea5 a03d 9a46 7d3c 2ec0 133c
000000b0: c501 653d 4656 2fbd 5eda efbd 5a37 0ebe
000000c0: 7333 b13d 762d 0ebd aec4 9fbd 163e f7bc
000000d0: 40b3 4b3b 475b c13a f90b 2e3d c064 8d3d
000000e0: 8629 393d 3cfd d23c da11 17bd 7b8b af3c
000000f0: fd27 2abc 8edb 52bd c3af c23c 0748 ba3d
-0.08213554 0.0076985294 0.03807411 0.062612966 -0.06487032 -0.09943565 -0.098852225 0.013101558
0.05325004 -0.0047333892 0.11375509 -0.103902474 0.020919718 -0.10086219 -0.030955123 0.017933242
-0.04903909 0.030402625 -0.08333114 1.0961507e-05 -0.061783683 -0.08904385 0.05336685 0.07813456
0.05874575 -0.0299846 -0.09992824 0.030963318 -0.031973667 0.0072428193 -0.092151225 0.05493167
0.06991394 -1.8725292e-05 -0.111464076 -0.06548301 -0.0042345584 -0.023032598 -0.044746373 -0.009423975
-0.07757087 0.078441486 0.015458727 0.009017987 0.05590989 -0.042806886 -0.11711572 -0.13888302
0.08652391 -0.034711324 -0.078011855 -0.030180972 0.0031082183 0.0014751934 0.042491887 0.06903982
0.045205615 0.025755517 -0.03688226 0.021428814 -0.0103855105 -0.051478915 0.02376545 0.090957694

conv_layers.3.weight f4 [64, 256, 5]
00000000: 78e5 45bc 01e2 75bd 4001 23bc fd27 8fbc
00000010: 29b0 133c 40d7 0e3c 599c d43c b2af 89bc
00000020: 5fef 0f3d 3b44 a93c ac6f 723d 1e9e 333c
00000030: a683 43bd d2fd b53c 00c1 50bd 31f9 1bbc
00000040: 35e6 84bc 1b6d c2bb cfdc 82bc 3fed 25bd
00000050: 0af3 24bb 1cbd 693b bfc2 21bd 7c70 73bb
00000060: e0b0 63bc c1e9 69bc 7645 903c e857 903d
00000070: 96d7 e5bc 00c8 16bd 46d8 0e3d 9f33 c83b
00000080: c441 973d 67cd 323c 0a51 8cbc f86a 103d
00000090: 45d0 fa3c b58a 603d 86b1 463c 4016 43bd
000000a0: 2e83 2abd 4b2a 413d 1237 66bc af9e 9cbd
000000b0: f399 d83c ff42 063d 130a 97bc 3192 873c
000000c0: defa 7b3d bfbf 80bd 2383 b7bd a11d b83c
000000d0: 0f91 9bbd e22a 2a3c a585 53bd 7bd0 053d
000000e0: 203c 3b3d 0986 49bc 2b4d 86bc 49ce 183b
000000f0: 53a2 db3c 3be3 9bbd 791c 4c3d a75f afbc
00000100: 4e5d c5bc 16dd 08bd 0b11 0d3d ae33 213c
00000110: 1973 4c3a 3867 66bd cbb6 e63c 6224 583d
00000120: ccde 40bd dd50 92bd 53ce d8bc f1bf da3c
00000130: 129e 203d 53f9 45bd ca1c b8bd 564f e2bc
00000140: a4ef 06bc 354a 7bbd fdf9 973c ca9d a03d
00000150: 57b8 7abd c8c1 063d b7c4 a4bc 910f 61bd
00000160: 9dbc b0bd d9f6 e8ba 05de 783d c1e2 48bd
00000170: e74a 15bd 0bea cf3c b0f8 663d e838 fc3c
00000180: d5ac 233c 5e52 6abd 83ea a1bc fe44 7f3c
00000190: 2a27 eb3b e403 c7bc d9eb 0abd 2afb 903d
000001a0: 772c 663c 50fb 87bd 2a04 d7bb 43db 20bd
000001b0: b14f 823b b723 97bd 3c73 3bbc a2b1 7a3c
000001c0: 7c66 52bd 09fa 36bd 0abe b8bc df1b 563d
000001d0: e383 3a3d df91 503c ab56 b23c a3e9 df3c
000001e0: 0605 17bd a388 0cba 5d20 6ebd eac7 993c
000001f0: 513d 40bc ecf2 263d c5af 78bd dd8a debb
00000200: 399e cf3c 7b18 e3bc 6e3a d73c d443 7fbc
00000210: 4df8 b5bd db76 bcbb ff1e 36bd 373c 39bd
00000220: cb9b 8ebd f3e2 28bd 5dce c0bb f6eb 0abc
00000230: dffb 11bd 852c 4ebd f9a9 d53a a654 a2bb
00000240: e18d 57bb 2e49 2dbd 5181 673d 3288 243c
00000250: 5c3e 9bbc 27e7 81bc 0ac6 4d3d e278 20bd
00000260: ba19 00bc 352e b1ba f634 8ebd bb5b 163d
00000270: e1a6 053c 91f9 f13b 8abf 0437 d10d 0d3c
00000280: ff0e 9bbd 39db 37bc 8aa2 643d d34a 843d
00000290: 830e 23bc 4d2d 8c3d 8892 48bd 71b0 993b
000002a0: 626b 443d 9c7c 3b3d 2016 12bd bad7 b63c
000002b0: 3b1b 00bd 8fd2 783d 3217 0ebd 234f 0fbd
000002c0: 5dfe f4bb 1c46 43bb 5047 82bd f6be 383d
000002d0: 52b9 9abc b53f 6c3c 9f98 843c 39a9 23bc
000002e0: c3b7 57bd 1279 3abd 2ad4 9ebd cc0b 633c
000002f0: a826 adbd 7c80 893c 2fde 233d 3d12 6a3c
00000300: cb11 18bb 1224 a1bd 5197 0dbd 91d4 a23c
00000310: 701a 953c 6bc9 083d 82a5 25ba 1534 1fbc
00000320: 6be8 703c 39ae 183d 0328 68bb c9d8 5cbd
00000330: a152 6d3c 8f94 a43c 7a09 85bb d2cd 2d3d
00000340: cf77 3cbc 4a04 d73c dd0b 013d 8ec1 af3c
00000350: d23e ab3c ceff 6a3b 7c18 f6bc 9ae8 c73c
00000360: c9d1 74bd 96ee 043d 4194 21bd 32c4 083c
00000370: c9b4 1b3d 1911 5f3d d7d6 353d 6eb5 1e3d
00000380: 727a e9bd a073 203c 538d b4bc b5c4 12bc
00000390: eeae e63c 3960 3ebd 1494 ab3c dcc6 513d
000003a0: 4873 053d d613 2abc ed13 3ebc f5f6 c33d
000003b0: 496b 0cbd 8f98 823d fb14 d33d 8ab5 18bd
000003c0: c969 2cbd 8692 583d e043 19bc 010d 96bc
000003d0: 6d75 1c3c dedf 963d c41d 9cbc 5906 f1bc
000003e0: c819 a8bd 7761 56bc e38f c8bb fd2f eebb
000003f0: 3723 893a 2021 633d 7f9d 5abd 12b8 c8bc
-0.012078635 -0.060029987 -0.0099490285 -0.017475123 0.009014168 0.008718312 0.025953459 -0.01680741
0.03514039 0.020662418 0.05918853 0.010962991 -0.04773297 0.022215758 -0.05096531 -0.009519861
-0.016223053 -0.0059334165 -0.01597443 -0.04050946 -0.0025169277 0.0035665696 -0.039492365 -0.0037145903
-0.013897151 -0.014276923 0.017611247 0.07048017 -0.028056901 -0.03681183 0.034874223 0.0061096693
0.07385591 0.01091323 -0.017128486 0.035258263 0.030616889 0.05481978 0.012127286 -0.04762864
-0.04162901 0.047159474 -0.014051216 -0.07647454 0.026440596 0.032778736 -0.018437421 0.016549202
0.061518542 -0.06286573 -0.08960559 0.022475066 -0.07596027 0.010386201 -0.051641125 0.032669526
0.045711637 -0.012300023 -0.016394218 0.0023316315 0.0268108 -0.076117 0.04983184 -0.021407915
-0.024092343 -0.03341397 0.03444008 0.009838982 0.00077991333 -0.05625078 0.028163334 0.052769072
-0.047087476 -0.0714433 -0.02646557 0.026702853 0.039213248 -0.048333477 -0.08989866 -0.027625721
-0.008235846 -0.061350066 0.01855182 0.07842596 -0.061210956 0.032899648 -0.020113332 -0.054946486
-0.08629725 -0.0017773762 0.06075861 -0.049044374 -0.036448386 0.025380155 0.05638951 0.030788854
0.009989937 -0.057207458 -0.019765144 0.015580414 0.0071762996 -0.024293847 -0.033916328 0.07079156
0.014048687 -0.06639731 -0.0065617757 -0.039271604 0.003976785 -0.07379859 -0.011441048 0.01530114
-0.051367268 -0.044672046 -0.022551555 0.052272674 0.045535933 0.012730091 0.021769842 0.027333086
-0.036870025 -0.00053609366 -0.058136333 0.018772084 -0.011733369 0.040759012 -0.060714502 -0.006791456
0.025344001 -0.027721634 0.026272979 -0.015580136 -0.0888525 -0.0057514734 -0.044463154 -0.04522344
-0.06963309 -0.04123206 -0.0058839754 -0.008479109 -0.035640594 -0.050335426 0.0016301266 -0.0049539385
-0.0032890963 -0.042306118 0.05651981 0.010042237 -0.018950634 -0.015857292 0.050237693 -0.039177783
-0.007818634 -0.0013517799 -0.06943695 0.036708575 0.008157463 0.007384487 7.912409e-06 0.008609251
-0.0757122 -0.0112217 0.05581907 0.06459584 -0.00995219 0.06844578 -0.048967868 0.004690223
0.04795397 0.045773134 -0.03566563 0.022319663 -0.03127597 0.06074768 -0.03469009 -0.03498758
-0.0074766115 -0.0029796427 -0.06361258 0.04510399 -0.018887196 0.014419486 0.016186057 -0.009989076
-0.052665483 -0.045525618 -0.07755311 0.013857793 -0.08454639 0.016784899 0.040006813 0.014286575
-0.0023203965 -0.07868208 -0.034568135 0.01987675 0.018201083 0.033395212 -0.0006318913 -0.009717007
0.01470385 0.037275527 -0.003542424 -0.05391768 0.014485032 0.02009037 -0.0040599676 0.042432614
-0.011503174 0.026247162 0.031505454 0.021454599 0.020903978 0.0035858038 -0.030040972 0.024402905
-0.05977038 0.032454096 -0.039448027 0.008347558 0.038014207 0.054459665 0.04439434 0.038747244
-0.11400308 0.009793192 -0.022040045 -0.008958031 0.028159585 -0.046478484 0.020944633 0.051215038
0.032580644 -0.010380706 -0.01160143 0.09568588 -0.034282003 0.063767545 0.10306736 -0.037282504
-0.042093072 0.05287411 -0.009354562 -0.018316748 0.009549481 0.07366918 -0.019057162 -0.029421972
-0.082080424 -0.013084761 -0.0061206683 -0.0072689042 0.0010462765 0.055451512 -0.053372856 -0.024501834

conv_layers.3.bias f4 [64]
00000000: 8a69 4dbe 8416 b8bc d600 3a3d ee5b babd
00000010: 1b60 19bd b355 143c 58ae 4ebd 42c2 ffbb
00000020: 99a6 003d 02f5 19be 0f4f 45bd f897 083d
00000030: 579a 8d3c 08b1 e5bc 3b72 223d 9f8b ac3b
00000040: d9b4 c4bd 5804 92bd 2a55 01be f28a 88bd
00000050: b634 1ebd cdeb efbb b323 0abd 19ff 2d3c
00000060: 5eb0 d9bc 5e7a 41bc 978a 883d ab71 6bbc
00000070: 1106 b5bd c931 633c 3ab3 3cbd fda4 043a
00000080: 6ffd c83d 5e4c 13bd 0846 6d3a f879 8e3d
00000090: 76ee 613c e826 4dbc 0552 7a3d cc4b 88bd
000000a0: 9e9a b83d 14c0 8a3b 9f08 783c 2d13 533d
000000b0: cf4b 593d dec6 b9bd 541c bc3d 80a4 19bc
000000c0: d170 533d c262 f33c 46f8 96bd 1481 89bd
000000d0: ef48 0abd 9456 11be ab27 1d3d 0e7d c4bc
000000e0: edf4 ecbc 6ad1 12bd 7562 123d 4dd0 0ebd
000000f0: 0cc7 b03c a41c 8bbc 2f54 343d a106 91bb
-0.20059791 -0.022471674 0.045410953 -0.090995654 -0.03744517 0.009053635 -0.050459236 -0.0078051398
0.03140888 -0.1503487 -0.0481711 0.033348054 0.017285509 -0.028038517 0.03965972 0.0052656676
-0.096048065 -0.07129735 -0.12630144 -0.06667127 -0.038624488 -0.007321811 -0.03372545 0.010619902
-0.026573356 -0.01180896 0.06667059 -0.014370362 -0.08839048 0.01386685 -0.04606936 0.00050599856
0.098139636 -0.0359615 0.0009051268 0.069568574 0.013789764 -0.012521483 0.061113376 -0.06655082
0.09013866 0.0042343233 0.015138774 0.05153196 0.053050812 -0.09071134 0.09185091 -0.009377599
0.051621262 0.029710177 -0.07371573 -0.06714073 -0.03376096 -0.14193183 0.03836791 -0.023985412
-0.028925383 -0.035844244 0.035738427 -0.03486662 0.021579288 -0.01698143 0.044025596 -0.004425839

fc1.weight f4 [64, 256]
00000000: a2a1 26bd c78a 5b3c 8e4e 51bc c8e7 22bc
00000010: 806e 83bd b00a ae3c 9417 573d 52ae b9bb
00000020: 7eb6 1bbd 5c23 4bbc 0687 dbbc ee07 67bd
00000030: bff7 a9ba a80d 5ebd c175 133d afa6 29bd
00000040: 6279 43bd b03d aabc b187 1e39 6f8d 9e3b
00000050: 5240 99bb eff7 a23c 53dc a63b 0a5b 8ebd
00000060: 7773 193c 655b 5bbd 1b4d 3c3d dc18 15bd
00000070: 48c1 b13c e331 273c a93f 78bd 87ac 22bc
00000080: b342 26bd fef4 57bc 8ce3 8dbd 26b6 e83c
00000090: a416 27bb 681a 98bd f359 82bd f89f da3c
000000a0: 9d3e 0cbb b6a8 09bc 1e1d 6c3d 2288 c6bc
000000b0: 99a1 20bd 8f11 ecbc 5004 8b3c d999 bfbc
000000c0: a512 a3bd 34f2 2aba ff11 cdbc 2c79 20bd
000000d0: 2522 10bd 8d51 b63c cec2 363d ab0e ddbc
000000e0: f3e2 82bc 6677 433d 7ea2 7b3c 00fa 8d3c
000000f0: 2320 e83b 8a75 94bd ea50 ddbc a7b8 d03c
00000100: 3fac 02bd fa6f 543c 72e0 153d c0b5 63bd
00000110: 745a 00bc ff25 cc3c 9e75 64bd 6d47 243c
00000120: e6f1 60bc e64a 15bd 35f8 b5bc f4b1 1dbd
00000130: b305 e43a 668c 173d be29 debc eb07 0a3d
00000140: a26c fa3c 2b80 21bd d90f e13b 2360 48bd
00000150: 6e83 70bc 64dd 093d 4fb6 2b3c bc0f 403c
00000160: 808e cdbc a810 343c fd93 dd3c c524 46bd
00000170: 0cf1 5eba bf78 7cbd 3edf 6ebc 214f 673d
00000180: f6cb ee3c edd5 543d a8be 31bd 6780 20bc
00000190: 84ce 933c b5dd 1abd 442b ad3c f016 f43b
000001a0: c8ec 383c d65f 4c3d 9725 97bd 07ce 6cbd
000001b0: a852 f53a 7d5c 64bc ba9d 3dbd b69f a0bc
000001c0: aded a6bb 9229 7b3c 4ede 393c 6039 08b9
000001d0: 8759 81bd 7f12 573c f534 cabc bad0 aebb
000001e0: b433 c1bc ba83 32bd aa27 883c 6fa9 d13c
000001f0: 012b 1ebd 87ed 61bd 8605 e23b f7fc a6bc
00000200: ac1c 7fbd d744 2a3d 5a82 cbbb c934 c13c
00000210: 747f 5abd 4bd6 80bd 0120 b9bc 1bc1 223d
00000220: e03a b23c c5b5 42bd b9a8 b03b 3597 0e3c
00000230: c7d5 9abd cba6 2dbc ffba f13a 614e a6bc
00000240: c505 383d cb91 433d 4f55 2b3d 7f93 043d
00000250: ccbb aabb 4935 383b 8373 75bd 6267 07bd
00000260: 79e2 66bd a861 3a3c c8ba bcbc 6a80 80bb
00000270: 293b 94bc cc2e 84bd 20f8 0d3d 900d 42bd
00000280: 040e 483d 9a30 203d bf43 02bd 0939 b8bc
00000290: 1b9a 2bbd 1afb 65bd 9d19 33bc 711e 81bd
000002a0: f3f7 283d 8552 173c e482 54bd 4c7f a8bc
000002b0: e9c4 23bd 11be 86bc 0e3f 6abd ee59 6f3d
000002c0: 8351 d7bc eb0a b13b 164a b5bc 929a 083d
000002d0: c668 233c 984b 9ebc 6d1c ff3c ec3b 3fbd
000002e0: 789e 1cbd 29f4 89bd 0e7f c4bc 3bef 85bd
000002f0: bca7 93bd 04a4 fe3b 041f 43bb 6d3c b23b
00000300: bf59 8b3c 7c00 00bd f455 aabd 9cd4 13bd
00000310: 7aa0 0ebd 4b81 72bd d2e3 66bc 2176 f5b9
00000320: dcbe 103c d95e 81bd 551f 92bb d737 1b3d
00000330: 6f15 453d ffbe 81bd 15f3 acbc 431c d63b
00000340: 854d eabb cb9a 2a3a 00d6 9c3b 4001 523d
00000350: 7a56 d23b 61fd b1bd b2fa c039 3353 8abd
00000360: 74c8 4b3c 49bd 94bb 4399 edbc efff 0ebd
00000370: 30cb 163d 2db3 0d3c 266f 4c3d 6c87 6ebc
00000380: dee9 6f3c e3f9 233d 0772 d8bc cda3 2ebd
00000390: bdd1 37bd 4975 dc3b 0d0e 9bbd 5bbb 653c
000003a0: 8d46 bdbc 69f7 2a3c 5d1f 37bd a9e0 cdbc
000003b0: a0b5 0cbd d7d9 c2bc e444 983b 6eac 46bd
000003c0: 41b8 cb3c 0efe 23bd 5f9f 18ba 80cd 37bd
000003d0: c34f 37bd 7e99 10bd 830b e03c 2d80 553d
000003e0: 55d0 b8bc 225e e3bc 3133 38bd e667 78bd
000003f0: 655d 553d c92e 28bd a29c 1d3d c80e b53b
-0.04068149 0.013399786 -0.012775077 -0.009942956 -0.064175606 0.02124533 0.05251272 -0.0056665326
-0.038015835 -0.012398567 -0.026797783 -0.056404047 -0.0012967511 -0.054212242 0.03600097 -0.041418727
-0.04772318 -0.020781368 0.00015118603 0.0048386375 -0.004676857 0.019893615 0.0050921827 -0.06950958
0.009365908 -0.053553957 0.04597197 -0.03640066 0.021698609 0.010204765 -0.060607586 -0.009928829
-0.040590953 -0.013180969 -0.06928167 0.028407168 -0.0025495673 -0.074269116 -0.06364813 0.026687607
-0.0021399625 -0.00840204 0.057644956 -0.024234835 -0.03921661 -0.028816966 0.01696983 -0.02338879
-0.079625405 -0.00065210764 -0.025032995 -0.03917806 -0.035188813 0.022255683 0.044619374 -0.026984533
-0.015977358 0.04772129 0.015358565 0.017331123 0.007083909 -0.07248981 -0.027016122 0.025478674
-0.031902548 0.01296615 0.036591 -0.055593252 -0.007834066 0.024920462 -0.05577623 0.010026795
-0.013729548 -0.03644838 -0.02221308 -0.038499787 0.0017396718 0.03699913 -0.027119514 0.033698957
0.030569378 -0.03942887 0.0068683443 -0.048919808 -0.014679773 0.0336584 0.0104804775 0.011722501
-0.025092363 0.010990299 0.027048105 -0.04837491 -0.0008504547 -0.06163859 -0.014579592 0.056471948
0.02914999 0.051961828 -0.043394715 -0.0097962385 0.01804281 -0.037809093 0.021138795 0.0074490234
0.011286922 0.049896084 -0.073802166 -0.05781367 0.001871665 -0.013938067 -0.046292998 -0.019607406
-0.005094251 0.015329735 0.0113445055 -0.00012991345 -0.06315904 0.013126968 -0.024683455 -0.0053349407
-0.023584224 -0.043582655 0.016620476 0.025593488 -0.03861523 -0.055158164 0.006897631 -0.020384295
-0.062283203 0.041569557 -0.0062106075 0.02358474 -0.053344205 -0.06290873 -0.022598268 0.03973494
0.02175659 -0.04753663 0.005391207 0.008703043 -0.07560306 -0.010598849 0.001844257 -0.020301046
0.044927377 0.04774646 0.041829403 0.032367226 -0.0052103754 0.0028107932 -0.059924614 -0.033057578
-0.056368325 0.011375822 -0.023038283 -0.003921558 -0.018094616 -0.06454238 0.03466046 -0.047376215
0.04884149 0.03910885 -0.03180289 -0.022488134 -0.041895013 -0.056147672 -0.0109314 -0.06304634
0.041252088 0.009235983 -0.05188264 -0.020568512 -0.03998271 -0.016448053 -0.05718904 0.058435373
-0.026283985 0.005402913 -0.022130053 0.033350535 0.00997371 -0.019323155 0.031141484 -0.046688005
-0.038237065 -0.06736023 -0.023986366 -0.0653977 -0.07209727 0.007771017 -0.0029773125 0.005439332
0.017010568 -0.031250462 -0.083171755 -0.036091432 -0.03482101 -0.059205335 -0.0140924025 -0.00046818054
0.008834567 -0.06316919 -0.0044593015 0.03789505 0.048116144 -0.06335258 -0.021112004 0.006534131
-0.0071503543 0.00065080513 0.004786253 0.051270723 0.006419 -0.08690906 0.00036807876 -0.0675415
0.0124379285 -0.004539166 -0.029003745 -0.034912046 0.03681487 0.008648676 0.049910687 -0.014558654
0.014643161 0.040033232 -0.02642156 -0.04263668 -0.044877756 0.0067278487 -0.07571039 0.01402172
-0.02310493 0.010434964 -0.044707645 -0.02513154 -0.0343529 -0.023785515 0.0046468843 -0.048504286
0.024868133 -0.040037207 -0.0005822088 -0.044873714 -0.0447538 -0.03530263 0.02734924 0.05212419
-0.022560278 -0.027754847 -0.044970695 -0.06064596 0.05209102 -0.041060243 0.038479455 0.0055254437

fc1.bias f4 [64]
00000000: ef5d 4cbd 695e 74bd 3c4e 783c c71d 973c
00000010: ffed 503d 0d1d 023d 2c99 b03d 16ed b53d
00000020: 64d3 af3b 67ed b83d b7c4 b23c 2e9d b93d
00000030: 106a 57bd e42c 0b3d aa3e 9f3c c8ac 233d
00000040: 0408 95bc 855e f93b bd00 733d b6a1 b23d
00000050: 4669 febb f70c 27b9 9039 b23d 22f3 033d
00000060: eb6f 5fbd afe4 3b3d 0ebc 8a3a 418b a63c
00000070: 3a18 f63d dc63 34bd d9e6 6dbd ac34 413c
00000080: 5f11 4bbc c4c9 f93d 16d8 afbd 6e42 a23d
00000090: c56f f6bb a861 1cbd 94ed 883d bbf8 21bc
000000a0: 4590 4f3c 60d4 5ebb 9110 873c cb90 073c
000000b0: 0af5 003e 111d 78bd 1c12 e8bc f5c1 f03d
000000c0: 79f9 db3d 82a4 8cbd 3569 d13c aeeb 92bd
000000d0: 71c1 d83c 9077 4b3d dab1 903c 120a 263d
000000e0: 63a6 f53c cf56 e43d 55a4 68bd a674 673d
000000f0: 6532 1a3d 2d0d d73c 9c0a 69bd 83d5 2dbc
-0.04989427 -0.05966035 0.015155371 0.018446816 0.05100822 0.031765986 0.08622965 0.08883111
0.005365776 0.09029656 0.021822317 0.09063183 -0.052591383 0.033978358 0.01943906 0.0399597
-0.018192299 0.0076101446 0.059326876 0.0872225 -0.0077640144 -0.00015931191 0.087023854 0.03221429
-0.054550093 0.045872387 0.0010584609 0.020330073 0.120163396 -0.044040546 -0.05808148 0.011792343
-0.012394278 0.12196687 -0.08586137 0.07922827 -0.007520648 -0.03817907 0.066859394 -0.009885962
0.012668674 -0.0034001097 0.016487392 0.008274267 0.12593475 -0.060574595 -0.028328948 0.11755744
0.107409425 -0.06867315 0.025562862 -0.071738586 0.026459428 0.04967457 0.017662931 0.040536948
0.029986566 0.1114937 -0.056797344 0.05650773 0.037645716 0.0262514 -0.056894884 -0.010609987

batch_norm.weight f4 [64]
00000000: bf80 773f 230f 7e3f 6f76 7e3f b5ac e13f
00000010: e252 dd3f cde5 e63f c514 e83f f1bd d13f
00000020: 38f9 773f 310d d93f 81e4 7b3f ae80 f33f
00000030: 1c5e 7e3f 379b e83f c826 7d3f 6f76 7e3f
00000040: 2743 7e3f 8e75 7e3f c127 de3f 3344 d03f
00000050: ea39 e53f bccc da3f 8397 d53f ab38 7b3f
00000060: bfa8 7d3f c23e e53f ab83 7d3f 0e8c 783f
00000070: 701d db3f 0000 803f ec4f 7e3f 75dd 7d3f
00000080: ec7f f53f 3577 d43f e793 783f f92b d93f
00000090: 22d5 d43f 6d76 7e3f c466 c53f 200b 7b3f
000000a0: bc9b 803f a546 d73f 36b5 d73f fa18 df3f
000000b0: 4971 cc3f 0987 7c3f 0000 803f e3d5 d73f
000000c0: a8d2 de3f 1696 7c3f 38e1 7d3f 9efb 7c3f
000000d0: da31 7e3f 0000 803f f21e 7d3f 4cec ce3f
000000e0: 1980 7e3f b8e1 db3f 10e7 7a3f 56bf d83f
000000f0: 4a49 e23f 7276 7e3f a708 7d3f 592e 7e3f
0.96680826 0.99241847 0.99399465 1.7630831 1.7290919 1.803888 1.8131338 1.638609
0.9686465 1.6957151 0.98395544 1.9023645 0.9936235 1.8172368 0.988873 0.99399465
0.99321216 0.99398124 1.7355882 1.6270813 1.7908299 1.709373 1.6686863 0.98133343
0.9908561 1.7909777 0.99029034 0.97088706 1.7118359 1.0 0.993407 0.9916604
1.9179664 1.6598879 0.9710068 1.6966544 1.6627543 0.99399453 1.5421987 0.9806385
1.0047526 1.6818434 1.6852176 1.7429497 1.5972072 0.9864355 1.0 1.6862148
1.7408037 0.9866651 0.9917178 0.9882144 0.9929482 1.0 0.98875344 1.6165862
0.9941421 1.7178259 0.98008823 1.6933391 1.7678616 0.99399483 0.9884133 0.9928947

batch_norm.bias f4 [64]
00000000: 7f75 fa3d b44b 09be 0d37 24be 13b5 4b3b
00000010: bc66 5fbe c196 03bd 851c b0bd 4276 deba
00000020: e74c eabd b4cd dc3d 388b 563e 5288 fd3d
00000030: bc82 e83d 624c 363d cc63 0ebe c72a 48be
00000040: 5037 38be c226 263e d524 38be 1e2a da3d
00000050: b407 d5bb dd12 b23d afa9 6b3c 319b 0bbe
00000060: 0df0 ee3d 8da8 d43d bb37 2f3e 2059 36be
00000070: fc42 79be d425 18be 2692 1cbe 393b 3cbe
00000080: 3b90 2cbd ef0d 5abd 3be3 1abe 102b 1ebc
00000090: 60e9 5dbe b2da 1f3e c35a 92bc 2ccf 69bb
000000a0: 5c36 26be 0f3f 50bd 9a91 13be 9bb5 72bd
000000b0: 00db e8bd d60f 0bbe bd81 f93d c6c0 783c
000000c0: afc9 e7b9 1e7f cbbd 7690 f8bd 6aff 1b3e
000000d0: fbe6 133e 8d3c ff3d 8a83 0bbe 0d06 ad3d
000000e0: 3e25 f3bd 2066 ce3d cca5 383e 4679 083d
000000f0: a63e 923d e975 0c3e 5184 5b3e 1093 e03d
0.12229442 -0.13407785 -0.16036625 0.003108327 -0.21816534 -0.032126192 -0.0859919 -0.00169725
-0.11440449 0.10781422 0.20951545 0.12379517 0.113530606 0.044506438 -0.13905257 -0.19547568
-0.1798985 0.16225722 -0.179828 0.106525645 -0.0065011624 0.08695004 0.014383717 -0.1363342
0.1166688 0.10383711 0.17111103 -0.17807436 -0.24341959 -0.1485818 -0.15290126 -0.18381967
-0.042129736 -0.053235944 -0.15125744 -0.009653822 -0.21671057 0.1561077 -0.017865544 -0.0035676463
-0.16231674 -0.050841387 -0.14411011 -0.059255224 -0.11369896 -0.1358026 0.12182949 0.0151826795
-0.0004421002 -0.09936355 -0.12136929 0.15234151 0.14443581 0.12462721 -0.13624397 0.0844842
-0.11872338 0.100780725 0.18031996 0.03331878 0.071408555 0.13716854 0.21437193 0.1096555

batch_norm.running_mean f4 [64]
00000000: 5b83 a61c 0400 0000 0400 0000 1427 fb3f
00000010: 4a90 3340 e00a 0b40 43d8 a23f a8fa 7e35
00000020: 0400 0000 1d56 c83f 0400 0000 f935 c040
00000030: 0400 0000 8759 2440 0400 0000 0400 0000
00000040: 0400 0000 0400 0000 d42a 7940 aed6 d93f
00000050: 87dc 2040 3acb 993f 766d 8940 0400 0000
00000060: 0400 0000 ce49 ab3f 0400 0000 0400 0000
00000070: dde4 6d40 0000 0000 0400 0000 0400 0000
00000080: 3af7 b23f c543 f83f 71a3 3713 1b44 3440
00000090: 0321 2640 0400 0000 df53 bd3f 0400 0000
000000a0: 6945 0400 031e 2640 fb15 0640 6207 2140
000000b0: 5f2b f23f 0400 0000 0000 0000 859d 9c3f
000000c0: 3db3 1240 0400 0000 0400 0000 0400 0000
000000d0: 0400 0000 0000 0000 0400 0000 fefd 8140
000000e0: 0400 0000 fafc 0140 0400 0000 1a8a f93f
000000f0: 4876 9140 0400 0000 0400 0000 0400 0000
1.1018913e-21 6e-45 6e-45 1.9621301 2.8056817 2.1725388 1.2722248 9.4987126e-07
6e-45 1.565128 6e-45 6.0065885 6e-45 2.5679643 6e-45 6e-45
6e-45 6e-45 3.893239 1.701864 2.51346 1.2015145 4.294612 6e-45
6e-45 1.3381898 6e-45 6e-45 3.7170937 0.0 6e-45 6e-45
1.3981698 1.9395682 2.317843e-27 2.8166568 2.5957649 6e-45 1.479122 6e-45
3.92242e-40 2.5955818 2.0950916 2.5160756 1.8919486 6e-45 0.0 1.2235571
2.2921898 6e-45 6e-45 6e-45 6e-45 0.0 6e-45 4.062255
6e-45 2.0310655 6e-45 1.949527 4.5456886 6e-45 6e-45 6e-45

batch_norm.running_var f4 [64]
00000000: e123 c01a 0400 0000 0400 0000 1681 6440
00000010: 90c4 a73f d651 743f 3975 ba3f 3485 e934
00000020: 0400 0000 ca58 703f 0400 0000 1cff 5440
00000030: 0400 0000 5efe 1440 0400 0000 0400 0000
00000040: 0400 0000 0400 0000 ec8a 0a40 34a3 f13f
00000050: 3b42 0f40 f5cd 823f ed93 0e40 0400 0000
00000060: 0400 0000 08ae db3f 0400 0000 0400 0000
00000070: 3040 3040 0400 0000 0400 0000 0400 0000
00000080: 7050 de3f 0ae9 ab3f e863 f212 53dd fe3f
00000090: 9127 943f 0400 0000 efd3 133f 0400 0000
000000a0: cf84 0100 ced2 1940 6c73 903f 1109 cd3f
000000b0: 595e 933f 0400 0000 0400 0000 d27e 7b3f
000000c0: 6e4e 523f 0400 0000 0400 0000 0400 0000
000000d0: 0400 0000 0400 0000 0400 0000 f1fc 1240
000000e0: 0400 0000 50e0 e13f 0400 0000 2dae ac3f
000000f0: d623 3140 0400 0000 0400 0000 0400 0000
7.9467304e-23 6e-45 6e-45 3.5703788 1.3106861 0.9543737 1.4567024 4.349655e-07
6e-45 0.9388548 6e-45 3.3280706 6e-45 2.3280253 6e-45 6e-45
6e-45 6e-45 2.164729 1.8877931 2.2384174 1.0219103 2.2277787 6e-45
6e-45 1.7162485 6e-45 6e-45 2.7539177 6e-45 6e-45 6e-45
1.7368298 1.3430493 1.5296976e-27 1.9911293 1.1574575 6e-45 0.5774526 6e-45
1.39478e-40 2.4034915 1.1285224 1.6018392 1.1513168 6e-45 6e-45 0.9824039
0.82150924 6e-45 6e-45 6e-45 6e-45 6e-45 6e-45 2.2966883
6e-45 1.764658 6e-45 1.3490654 2.7678123 6e-45 6e-45 6e-45

fc2.weight f4 [2, 64]
00000000: 8e5b acbd 3029 79bc 1abd cdbd 500a c3bc
00000010: e9dc 323d 72b0 be3d c0a7 3fbc 20b1 a7bd
00000020: 1217 57bd f4eb 95bd a9b7 b6bd 3d26 40bd
00000030: 8838 ae3d c0ba 9b3d 0ddd ac3d ad44 62bd
00000040: c20b 98bd e0d9 4a3c e06d d83d d49e f43d
00000050: b3ff a83c 8d60 dcbd d35a f43c 1e52 473d
00000060: 4f9e babc 09bf 17be d88a 833d d5ab 6d3c
00000070: 63ca 86bd c877 f2bd 3fc2 9fbd fadd a0bb
00000080: d037 c1bd 954a 23bd f346 00bd 0a63 d53d
00000090: 6d94 87bd 8cbf aabd 8458 983d b388 b9bc
000000a0: 4f25 af3d 90a4 883d 547c cb3c 90a2 233e
000000b0: 39ed 8fbd 9dcb 2fbd 5c79 8ebd 2ae7 dbbd
000000c0: 4d57 923d 5e87 9f3d 3a96 43ba cbe2 3e3d
000000d0: 3bee 2fbd 0a23 9abb bf8c 8abd 0a5a 103e
000000e0: 52a7 e7bd ed2a c2bd 150a 18bd d3ab a63c
000000f0: a20f f63d d249 be3b 83e7 dfbd c5c6 ee3d
00000100: ceeb 4bbd 133f c33d 8f4e bf3d 57ad 06be
00000110: 15c2 13bc be3b 96bb 0b9d d13d 0072 aebd
00000120: 597d 063d bd87 cb3c c853 923c 58fe 463d
00000130: 4efc ab3d 0a77 18be 97f6 413c e9e1 9ebd
00000140: 23e4 d0bd 419b 103d 0276 c1bd 6b1b 93bd
00000150: 14ba d8bd 9807 ed3d 29cb 0abe eb2b b23d
00000160: b40a 41bd 627d 1c3d 0d0e edbd 5abd f13d
00000170: 6d7a e93d 704f 1c3d 6c27 d4bd 232d cb3d
00000180: dcab e13d 9dd8 aa3d 75aa c03d d6c3 a4bd
00000190: cedd 6abc 3d34 c93d 5fff ca3d 6233 abbd
000001a0: 0ac3 b03b 764a 703d 9815 dabd af23 42bd
000001b0: 3360 923d 73cc 8ebd 166a bc3d 4340 153d
000001c0: b965 dc3d e56b e23c dc68 84bd 27b4 2bbc
000001d0: 68ea d8bd 1e96 c43d c910 c33d c753 fdbd
000001e0: 1fe6 393d f218 993d 7d25 52bd 2715 17be
000001f0: 397f aabd 5eec 8a3c 505b b9bd 214d 78bd
-0.084159 -0.015207574 -0.10045834 -0.023808628 0.043667708 0.09310998 -0.01169771 -0.08188081
-0.052512236 -0.07320395 -0.08921749 -0.046911467 0.08506876 0.07603979 0.084405996 -0.055241276
-0.074241176 0.012381047 0.10567832 0.119443566 0.02062974 -0.10760603 0.029828465 0.048662297
-0.022780566 -0.14818968 0.06422967 0.0145063 -0.06581571 -0.11839253 -0.078007214 -0.004909274
-0.094344735 -0.03986605 -0.031317662 0.10419281 -0.06620107 -0.08337316 0.07438758 -0.022648191
0.08552038 0.06672013 0.024839558 0.15979981 -0.070276685 -0.04291879 -0.06956741 -0.107374504
0.071455576 0.07789491 -0.0007461045 0.046603005 -0.042951804 -0.004703884 -0.067651264 0.14096847
-0.11311211 -0.09480844 -0.03711899 0.020345604 0.120147005 0.00580714 -0.10932829 0.11659006
-0.049785428 0.09533515 0.09341156 -0.13152061 -0.009018441 -0.0045847585 0.10235032 -0.085178375
0.032834385 0.024844998 0.017862216 0.048582405 0.08397733 -0.1488916 0.011838577 -0.07757933
-0.101997636 0.03530431 -0.09446336 -0.07182964 -0.105823666 0.11573714 -0.13554062 0.08699783
-0.047129348 0.038205512 -0.115749456 0.11803694 0.11400304 0.038161695 -0.103590816 0.099207185
0.11019108 0.08342097 0.09407512 -0.08045165 -0.014335109 0.09824417 0.099119894 -0.0835941
0.005394344 0.05866476 -0.1064865 -0.04739731 0.07147255 -0.06972589 0.09199922 0.036438238
0.107615896 0.027639339 -0.06465313 -0.010479963 -0.105915844 0.09598945 0.09524686 -0.12369495
0.045385476 0.07475461 -0.051305283 -0.14754163 -0.08325047 0.016958412 -0.090506196 -0.06062043

fc2.bias f4 [2]
00000000: 32c2 42bd 3692 943d
-0.04754848 0.0725445
