models/Mrs. GREEN APPLE/classifier_fold5.pth (torch, 991712 bytes, 16 tensors)

conv_layers.0.weight f4 [64, 256, 2]
0	0x3b2eac8e	0.0026653144
1	0x3d44f8a0	0.04808867
2	0xbbb2c5a8	-0.0054556914
3	0x3cf64237	0.03006087
4	0xbce96d90	-0.028494626
5	0xbd7b07ab	-0.06128661
6	0xbd9ca766	-0.07649116
7	0x3d241811	0.040062014
8	0xbca82087	-0.020523323
9	0xbd478010	-0.048706114
10	0xbdd5924f	-0.10428297
11	0xbdd39ad9	-0.10332269
12	0xbcc359c0	-0.023846507
13	0xba1188a6	-0.0005551673
14	0x3d0c645a	0.03427539
15	0xbd414e36	-0.04719373
16	0x3dafb452	0.08579315
17	0x3d33d09e	0.043900125
18	0xbc14dfcc	-0.00908656
19	0x3c80ce51	0.01572338
20	0x3cd56cf5	0.026052931
21	0xbd52e659	-0.051489208
22	0xbdcb3afd	-0.099233605
23	0xbd8b8b20	-0.06813645
24	0x3cf7994f	0.03022447
25	0xbc8f795f	-0.017513929
26	0x3c3856c5	0.011251156
27	0x3cf1b4b2	0.029505108
28	0x3ce436e8	0.027858213
29	0xbbe9163d	-0.0071132467
30	0x3c671cc9	0.014105984
31	0x3bfb8d03	0.007676722
32	0x3d9afc14	0.07567611
33	0x3daac4ba	0.08338304
34	0xbcef1e4c	-0.029189251
35	0x3b6deb7b	0.0036303687
36	0xbd691176	-0.056901418
37	0x3b9d97fe	0.0048093786
38	0xbd5d1864	-0.05397834
39	0xbca5ebbe	-0.020254012
40	0x3cf2f388	0.02965714
41	0xbd0e0c7d	-0.03467988
42	0xbc7c2cb6	-0.015391519
43	0xbd556243	-0.052095663
44	0x3d6fe47a	0.0585675
45	0xbc863d8e	-0.016386773
46	0x3d1424e1	0.036167983
47	0x3ca77b57	0.020444555
48	0x3d0749b8	0.033029288
49	0x3da0bc60	0.0784843
50	0x3dce490b	0.100725256
51	0x3cd9e2b9	0.026597368
52	0x3cc50e58	0.024054691
53	0xbd2672b7	-0.040636744
54	0x3cd51e38	0.026015386
55	0xbc851cef	-0.016249148
56	0xbb37c2e7	-0.0028039755
57	0x3b40b621	0.0029405432
58	0xbe007c2c	-0.12547368
59	0xb9d9fda5	-0.00041578445
60	0xbbbccd0c	-0.005761748
61	0x3d157892	0.036491938
62	0x3b27f2db	0.002562693
63	0xbd896708	-0.06709105
64	0x3d50ece7	0.051007178
65	0x3d8c7167	0.06857567
66	0xbbaceb54	-0.0052770767
67	0x3d911829	0.07084686
68	0xbd16fd6b	-0.036862772
69	0x3ce6d9dd	0.028180057
70	0x3c927bc8	0.01788129
71	0x3d9abf9d	0.075560786
72	0x3b8de353	0.0043300777
73	0xbd2f0155	-0.04272588
74	0xbd212540	-0.039342165
75	0xbd2d5176	-0.042314015
76	0x3d38499b	0.04499207
77	0xbc5cc129	-0.013473787
78	0x3c9545f3	0.018221831
79	0xbc8d8616	-0.017275851
80	0xbd859bf2	-0.06523885
81	0x3d8ffbe4	0.07030466
82	0xbb92abcb	-0.0044760457
83	0xbcef9b3f	-0.029248832
84	0xbad96ef6	-0.0016588855
85	0x3d2f281d	0.042762864
86	0xbd7f0a65	-0.062265772
87	0xbd97264e	-0.07380353
88	0xbdb591e7	-0.08865719
89	0x3cc486f8	0.02399014
90	0x3cdfe947	0.027332915
91	0x3c8e600f	0.017379789
92	0x3afe7acd	0.001941526
93	0xbd98c171	-0.07458771
94	0x3b84b4af	0.0040498595
95	0x3bba6c26	0.005689162
96	0x3d071a1c	0.032983884
97	0xbb8e8bbb	-0.0043501533
98	0xbdb20e40	-0.08694124
99	0x3ce8bf62	0.028411571
100	0x3d01640c	0.031589553
101	0xbd6d9400	-0.058002472
102	0xbc092b22	-0.0083721
103	0xbd5d3c64	-0.05401267
104	0xbd0264a5	-0.031834263
105	0x3caa1de9	0.020766215
106	0xbc560b0e	-0.013064159
107	0xbd237d2e	-0.039914303
108	0x3cec2695	0.028826991
109	0xbd1574b1	-0.03648824
110	0xbd261250	-0.040544808
111	0xbce67fc9	-0.028137105
112	0x3d052dbd	0.032514323
113	0xbccee80c	-0.025257133
114	0x3d9eeb17	0.077596836
115	0xbc3fae12	-0.011699216
116	0xbd2956b6	-0.04134246
117	0xbce0da1c	-0.027447753
118	0x3ca0acdb	0.019613674
119	0xbc3012ba	-0.010746652
120	0x3d296bf0	0.041362703
121	0x3ccc4139	0.024933444
122	0xbd985ae5	-0.07439212
123	0xbdfe4b8b	-0.124167524
124	0xbceb9331	-0.02875671
125	0x3d2559b0	0.040368736
126	0x3d7a2844	0.061073557
127	0xbbe3d3bc	-0.006952731
128	0xbd101ce9	-0.03518382
129	0xbda14588	-0.0787459
130	0x3c94c4ff	0.018160341
131	0x3a7cf351	0.0009649294
132	0x3d06c8af	0.03290623
133	0xbd8a06b1	-0.067395575
134	0x3cb81a6f	0.022473542
135	0xbd197111	-0.037461344
136	0x3cfbf3a6	0.030755829
137	0xbd8b36bd	-0.0679755
138	0xbd3ac8a7	-0.045601513
139	0x3d923e32	0.07140769
140	0x3d8c9be8	0.06865674
141	0xbda61fe5	-0.08111552
142	0x3d2efd19	0.04272184
143	0xbbc061df	-0.005871042
144	0xbcfef250	-0.031121403
145	0xbcd01aef	-0.025403468
146	0x3c3a0bf5	0.01135539
147	0x3c351940	0.011053383
148	0xbd4c8661	-0.04993284
149	0xbcfab453	-0.030603563
150	0xbd8f7699	-0.070050426
151	0x3c003a5b	0.007826413
152	0x3a5c3ca8	0.00084013725
153	0x3c8b8c98	0.017034814
154	0xbcb90c8e	-0.022588994
155	0x3dbefb51	0.093252786
156	0xbba18e03	-0.004930259
157	0xbd8f7730	-0.07005155
158	0xbc909b6a	-0.017652232
159	0x3c9a6164	0.018845268
160	0x3ca6c8ce	0.020359423
161	0xbc9be3ec	-0.01902958
162	0xbd2b3a7f	-0.041803833
163	0xbd5e2fc6	-0.05424478
164	0x3bbdd645	0.005793365
165	0x3d3c2e25	0.045942444
166	0x3b95daf1	0.004573219
167	0xbd167eac	-0.036741897
168	0xbd90423a	-0.07043882
169	0x3d18dd98	0.037320703
170	0x3bb2277d	0.0054368363
171	0x3d0aed98	0.033917993
172	0xbd45a4b5	-0.04825278
173	0xbc4afa7f	-0.0123888245
174	0x3d3f35fd	0.046682347
175	0xbca118cc	-0.019665144
176	0xbab78918	-0.0014002649
177	0xbc41ceb4	-0.011829067
178	0x3db13097	0.08651846
179	0xbcf0b0bd	-0.02938115
180	0x3d9f9dd8	0.07793778
181	0x3d9ad029	0.07559235
182	0xbc6e3d75	-0.01454102
183	0xbceb7533	-0.028742408
184	0xbc9bc847	-0.019016398
185	0xbcd05e7c	-0.025435679
186	0x3d83f1a3	0.06442573
187	0x3d049bb5	0.032375056
188	0x3ce29128	0.027657107
189	0xbc8c46c0	-0.01712358
190	0xbd63339e	-0.055469148
191	0xbdd757b4	-0.10514775
192	0xbd682bfd	-0.056682575
193	0xbc0dbf66	-0.00865159
194	0xbbde096e	-0.0067760265
195	0x3d4477f3	0.047965955
196	0x3cef5d55	0.029219309
197	0xbbc47a00	-0.005995989
198	0xbbf5bb35	-0.0074991235
199	0x3b820bfa	0.003968713
200	0x3c6c4efa	0.014423126
201	0xbd81595e	-0.063158736
202	0x3d59374e	0.05303126
203	0xbd99ea35	-0.075153746
204	0x3c479e08	0.012183674
205	0x3cb51bc4	0.022107966
206	0x3d261154	0.04054387
207	0x3da90575	0.08252994
208	0xbb80f762	-0.0039357403
209	0xbd1241f7	-0.03570744
210	0xbd2bf44e	-0.041981034
211	0x3d920912	0.07130636
212	0xbd81c3d3	-0.06336179
213	0x3cb06ae5	0.021535346
214	0x3d6f2110	0.05838114
215	0xbc86df4d	-0.0164639
216	0xbd8a52f8	-0.06754106
217	0x3c421b22	0.011847289
218	0x3d86ec3b	0.06588026
219	0xbc9c6d35	-0.019095043
220	0x3c6fa033	0.014625597
221	0x3b3323e4	0.0027334625
222	0x3c42fe95	0.011901517
223	0x3ca2ba50	0.019864231
224	0xbde1a08d	-0.11016951
225	0xbcf87914	-0.030331172
226	0x3cd9a480	0.026567698
227	0x3be99c04	0.007129194
228	0x3cb44bb7	0.02200876
229	0xbcf8e4a9	-0.030382471
230	0x3d0ae915	0.03391369
231	0x3c33fabd	0.010985074
232	0x3da0d8df	0.07853865
233	0x3cc062d6	0.023484629
234	0x3da460db	0.08026286
235	0xbd4d1c23	-0.05007566
236	0x3cef4903	0.02920962
237	0x3d17af50	0.037032425
238	0x3d8039c7	0.0626102
239	0xbbfc740b	-0.007704263
240	0xbd8ca593	-0.06867518
241	0x3cb872db	0.022515705
242	0x3d4e1416	0.050312124
243	0x3d167c1c	0.036739454
244	0x3d55ff8f	0.052245673
245	0x3d7b7de1	0.061399344
246	0x3e04bcf6	0.12962708
247	0xbd1760c0	-0.036957502
248	0x3c319af8	0.01084017
249	0x3ca36d38	0.01994954
250	0xbd12d420	-0.03584683
251	0xbd167f04	-0.036742225
252	0xbd172c66	-0.036907576
253	0xbc9e0ce2	-0.019293252
254	0x3cdf895f	0.027287183
255	0x3d0c33f9	0.034229252

conv_layers.0.bias f4 [64]
0	0xbcb3e4c7	-0.021959675
1	0x3dc9d538	0.098551214
2	0xbcb94734	-0.02261696
3	0xbd60fffc	-0.054931626
4	0x3dd150e9	0.102205105
5	0x3d49c925	0.049264092
6	0xbd4b2194	-0.04959257
7	0xbbd10420	-0.0063786656
8	0xbda12b45	-0.07869581
9	0xbe01a2be	-0.12659737
10	0x3d68516d	0.05671828
11	0x3d937530	0.07200086
12	0x3ce2d5d5	0.027689854
13	0x3c8ee191	0.017441543
14	0xbc88231b	-0.016618302
15	0xbd042665	-0.03226318
16	0xbc7b2a5f	-0.015329926
17	0x3d437864	0.047722235
18	0x3dcf8dac	0.10134444
19	0xbcfdfb6f	-0.031003682
20	0x3c281673	0.010259259
21	0x3e024771	0.12722565
22	0x3c84929d	0.016183192
23	0xbb2aee32	-0.0026081917
24	0x3dafe8df	0.085893385
25	0xbd821a1c	-0.06352636
26	0x3d253628	0.04033485
27	0xbcd401ad	-0.025879705
28	0xbd9c29f1	-0.07625187
29	0xbc623097	-0.01380553
30	0xbc01dbf1	-0.007925973
31	0x3d0f9bd5	0.035060722
32	0xbdca6178	-0.09881872
33	0x3dd71b79	0.10503287
34	0xbd9701f9	-0.07373423
35	0x3d364c8a	0.044506587
36	0x3d8dfa2f	0.06932484
37	0xbc862d53	-0.016379034
38	0xbd371b28	-0.044703633
39	0x3de0eca0	0.10982633
40	0xbc9238c0	-0.017849326
41	0xbd80b216	-0.06283967
42	0x3b0fc5af	0.0021937897
43	0xbccfc480	-0.025362253
44	0x3c508a62	0.0127283055
45	0xbb1536c6	-0.0022768243
46	0xbd267091	-0.040634695
47	0x3c8d130d	0.017220998
48	0xbd832de7	-0.064052396
49	0xb9e5fef4	-0.0004386824
50	0x3d7c54cb	0.061604302
51	0x3ccd76fe	0.025081154
52	0xbd9a5478	-0.075356424
53	0x3c7cb604	0.015424255
54	0x3cf62952	0.030049
55	0x3d20dc28	0.039272457
56	0xbd2bd95d	-0.04195534
57	0xbd332a10	-0.043741286
58	0x3dd3c3f8	0.103401124
59	0x3d40650f	0.046971377
60	0x3c2f4fc1	0.010700167
61	0xbde943cb	-0.113898836
62	0xbc815982	-0.015789751
63	0xbd23c436	-0.039982043

conv_layers.1.weight f4 [64, 256, 3]
0	0xbd1f977f	-0.038962837
1	0x3c52e511	0.0128719965
2	0x3d04fbaf	0.032466587
3	0x3d196687	0.037451293
4	0x3dae8d9a	0.08523102
5	0x3d1ffa6c	0.03905718
6	0xbd86e8e9	-0.06587393
7	0x3d184558	0.037175506
8	0x3d4655c8	0.04842165
9	0x3d436aa0	0.047709107
10	0x3c37dfcd	0.011222792
11	0xbd7211d5	-0.059099037
12	0xbd0e0c57	-0.034679737
13	0xbcead1a6	-0.028664421
14	0x3da20921	0.079118975
15	0x3debf70c	0.1152173
16	0xbca8de71	-0.02061388
17	0x3c8f3dd3	0.017485535
18	0xbd6bc166	-0.057557486
19	0xbd2b7696	-0.04186114
20	0x3d1d7b59	0.03844771
21	0xbcba21d3	-0.022721207
22	0xbc2275a5	-0.009915744
23	0x3ca0df5f	0.019637762
24	0x3d34066e	0.043951444
25	0xbd60b63d	-0.054861296
26	0xbd3b812e	-0.045777492
27	0x3d7bc36b	0.061465662
28	0x3c539eeb	0.012916307
29	0xbcf87ce5	-0.030332992
30	0xbd395ec7	-0.045256402
31	0xbdf5c562	-0.120005384
32	0xbd676e51	-0.05650169
33	0x3ce74dc8	0.028235331
34	0xbc170347	-0.00921709
35	0x3cd75933	0.02628765
36	0xbc06d43a	-0.00822931
37	0x3c732008	0.01483918
38	0x3da6abed	0.08138261
39	0x3d67e71c	0.056616887
40	0x3bcbaa34	0.006215358
41	0xbd58993f	-0.052880522
42	0x3bcf7419	0.0063309786
43	0x3ce1c8f7	0.027561648
44	0xbc3726e6	-0.011178708
45	0x3caaad2b	0.020834526
46	0x3da5e8eb	0.08101066
47	0xbcf45202	-0.02982426
48	0x3c471842	0.01215178
49	0xbd399d15	-0.04531582
50	0x3c730369	0.014832356
51	0x3d76a309	0.060214076
52	0xbc654a5b	-0.0139947785
53	0x3d154fe2	0.036453135
54	0xbc264066	-0.01014719
55	0xbd55ca17	-0.05219468
56	0xbcd06920	-0.025440753
57	0x3cb253b1	0.021768423
58	0x3cd5296b	0.026020726
59	0x3d3f6192	0.04672391
60	0xbd298250	-0.04138404
61	0x3e22eba8	0.15910208
62	0x3dfe29fe	0.12410353
63	0x3d7d8cab	0.06190173
64	0xbcfaf7b4	-0.030635692
65	0xbc81f3c8	-0.015863314
66	0x3ce09a4a	0.02741732
67	0xbcda9d21	-0.026686253
68	0x3d08a174	0.0333571
69	0xbd6f8ddf	-0.05848491
70	0x3d827434	0.0636982
71	0xbc1e8795	-0.00967588
72	0xbd55bf35	-0.052184302
73	0x3dbcd751	0.09220756
74	0xbca7811a	-0.020447303
75	0xbc06dd95	-0.00823154
76	0x3cb82a2c	0.022481047
77	0xbb0ecb42	-0.0021788632
78	0xbd60e7c0	-0.054908514
79	0xbd34c29d	-0.04413091
80	0xbc889e0e	-0.016676929
81	0x3d80c9c3	0.06288483
82	0x3c914d1a	0.01773696
83	0xbd13541e	-0.035968892
84	0xbcdaacd6	-0.026693743
85	0xbc3179f1	-0.010832296
86	0xbd7b5973	-0.061364602
87	0x3beb5d2a	0.007182737
88	0x3d155401	0.036457065
89	0xbd951625	-0.07279614
90	0xbc21ede3	-0.009883377
91	0x3c3d636a	0.011559347
92	0xbc8681b0	-0.016419262
93	0xbd135f20	-0.03597939
94	0x3d13d1b2	0.036088653
95	0xbbdf64c9	-0.0068174344
96	0xbe5838e2	-0.21115449
97	0x3cb64816	0.02225117
98	0xbd9738a5	-0.07383851
99	0x3ce8e437	0.028429134
100	0x3d4394f1	0.047749463
101	0xbd37669c	-0.04477559
102	0x3b8328e9	0.0040026796
103	0xbd22789a	-0.039665796
104	0xbca78e24	-0.02045352
105	0xbbfdab0e	-0.0077413386
106	0x3ddbf12e	0.10739361
107	0x3d2c91b0	0.042131126
108	0xbd291f42	-0.041289575
109	0xbd0dd8e5	-0.034630675
110	0xbd410b3a	-0.047129847
111	0x3bbc6107	0.0057488712
112	0xbcd6a4a2	-0.02620155
113	0x3c7e0e03	0.01550627
114	0xbc8cf357	-0.017205877
115	0x3df40840	0.11915636
116	0x3d870de6	0.06594448
117	0xbb97e7e2	-0.004635797
118	0xbcd1a3db	-0.025590828
119	0xbc53ca0f	-0.0129265925
120	0x3da143b4	0.078742415
121	0xbd46af17	-0.048506822
122	0xbb9e7256	-0.0048354072
123	0x3c7e93fd	0.015538213
124	0x3c00b9ee	0.007856829
125	0xbd57c17e	-0.052674763
126	0x3dd1bc45	0.10240988
127	0xbb8fcf4b	-0.004388725
128	0xbd8801e6	-0.06640987
129	0xbc516b81	-0.012781979
130	0xba6707b8	-0.0008813101
131	0xbc9b1997	-0.0189331
132	0xbdbcc4cc	-0.092172235
133	0x3c7ff204	0.015621666
134	0xbd2a9b8d	-0.04165225
135	0x3b7d0c78	0.0038612168
136	0x3cc9e25b	0.024644068
137	0xbd4b60fc	-0.04965304
138	0x3d4b7fee	0.04968255
139	0x3c9fe9ad	0.019520605
140	0x3ce9a639	0.028521644
141	0x3d3a17d5	0.045432884
142	0x3d99caa3	0.07509353
143	0xbc17d058	-0.009265982
144	0xbc5d0510	-0.0134899765
145	0xbba0f619	-0.0049121496
146	0xbd4bbc51	-0.04974014
147	0x3dacff5a	0.08447142
148	0x3bcf4a73	0.0063260137
149	0xbdbd8a4b	-0.09254893
150	0xbce8348b	-0.028345367
151	0x3dfa4cbb	0.122216664
152	0x3ba939ca	0.0051643597
153	0x3c7211a7	0.014774716
154	0xbd7993b4	-0.060931876
155	0xbb33dfa9	-0.0027446544
156	0x3cb2a9e2	0.021809522
157	0xbd8304fb	-0.06397434
158	0x3b06e943	0.0020585812
159	0xbd0eeace	-0.034891896
160	0xbd82a828	-0.063797295
161	0xbdd8b377	-0.10581105
162	0x3b9d2c18	0.004796516
163	0x3d482673	0.048864793
164	0x3d6b34f8	0.05742356
165	0xbd89c345	-0.06726698
166	0x3c8ebcc9	0.017424004
167	0xbd7ee13f	-0.06222653
168	0x3c5b0719	0.013368391
169	0xbc5c9244	-0.013462607
170	0x3d78d649	0.060751233
171	0xbd30c7d6	-0.04315933
172	0xbcf804af	-0.03027567
173	0x3b1f7b90	0.0024335124
174	0x3da606a1	0.08106733
175	0x3c53bf2e	0.012923999
176	0x3c857e0a	0.016295452
177	0x3ddf8817	0.10914629
178	0xbd90713b	-0.07052847
179	0xbc398e10	-0.011325374
180	0x3ad46389	0.001620398
181	0xbc249dcf	-0.01004739
182	0xbd55950d	-0.0521441
183	0x3d62f343	0.055407774
184	0xbdfbb2c7	-0.122899584
185	0xbc9800cf	-0.018555073
186	0xbd3cf4fb	-0.04613207
187	0xb9815e59	-0.00024675092
188	0xbc9e2a6c	-0.019307338
189	0x3cbf4a95	0.023350993
190	0xbd09a17f	-0.03360128
191	0x3a9a0890	0.0011751819
192	0x3d05812f	0.032593902
193	0xbd5c790f	-0.053826388
194	0xbc2bb87f	-0.010480999
195	0x3db435e5	0.08799342
196	0x3c4a2a5b	0.0123392
197	0x3d44c818	0.048042387
198	0xbc83c5c3	-0.016085511
199	0xba9bbb34	-0.0011881352
200	0xbd5c886a	-0.053841032
201	0xbde76945	-0.112993754
202	0x3bf28f2b	0.007402321
203	0xbc9cb7e4	-0.019130655
204	0xbcdc0c05	-0.0268612
205	0x3da25fe9	0.0792845
206	0x3d97c9ba	0.07411523
207	0x3c45e44c	0.012078356
208	0xbd3cb5fb	-0.046071988
209	0xbdc21ab9	-0.09477753
210	0x3a735767	0.00092827383
211	0xbd95c654	-0.07313219
212	0xbd8527fc	-0.06501767
213	0x3de5f5e7	0.11228543
214	0xbb704a4b	-0.0036665376
215	0x3b26b01f	0.0025434566
216	0x3ccd5f04	0.025069721
217	0xbce01e45	-0.027358184
218	0x3d5c6e62	0.053816207
219	0x3db8c096	0.09021108
220	0x3d1e4c66	0.038647078
221	0xbd52166b	-0.05129091
222	0x3bd78b46	0.006577882
223	0xbcf7efbd	-0.030265683
224	0xbd0478fe	-0.03234195
225	0xbbe6c7e7	-0.007042873
226	0x3bd50336	0.006500627
227	0xbcb00508	-0.021486774
228	0xbc2e71a5	-0.010647212
229	0x3d68e290	0.05685669
230	0x3d3591c3	0.044328462
231	0x3d9816b3	0.074262045
232	0xb9581985	-0.00020608872
233	0xbc852b78	-0.01625608
234	0xbd6172ba	-0.055041052
235	0x3d618b25	0.05506434
236	0xbd102d92	-0.03519971
237	0x3c091ca9	0.0083686495
238	0x3d653817	0.055961695
239	0xbd07cc29	-0.033153687
240	0x39a9ec14	0.00032410084
241	0xbc329a26	-0.01090101
242	0xbd849dd4	-0.06475416
243	0x3cd463b7	0.025926454
244	0xbd2fbf1a	-0.042906858
245	0x3d30e462	0.043186553
246	0xbd0ec95d	-0.034860004
247	0x3ca14f66	0.01969118
248	0xbc2f10ef	-0.01068519
249	0xbd5f5b86	-0.054530643
250	0x3dfa6627	0.12226515
251	0x3cc1209a	0.023575116
252	0x3d0b9c9d	0.034084905
253	0xbc206a62	-0.009790989
254	0x3d9a1b3d	0.075247265
255	0x3cb935d1	0.02260867

conv_layers.1.bias f4 [64]
0	0xbe213d3d	-0.15746017
1	0xbc410b9e	-0.011782555
2	0xbda1132a	-0.078649834
3	0x3c81bc1a	0.015836764
4	0x3d07256a	0.032994665
5	0x3d078308	0.033083946
6	0x3da5010d	0.08056841
7	0x3dd64635	0.1046261
8	0xbbe4dd79	-0.0069844094
9	0x3ae5ce24	0.0017532748
10	0x3abbfcc1	0.0014342294
11	0x3db0bfd9	0.08630342
12	0x39e677ee	0.00043958373
13	0xbd48d5b1	-0.049031917
14	0xbdb3dd96	-0.087824985
15	0xbd536bbe	-0.051616423
16	0xbda259b8	-0.07927269
17	0x3cebd544	0.028788216
18	0xbad7355e	-0.0016419103
19	0xbd996a96	-0.07491033
20	0xbb284150	-0.0025673695
21	0x3af1664a	0.0018417325
22	0x3e0417cc	0.12899703
23	0xbd6ba1bb	-0.057527285
24	0x3dd3e027	0.10345488
25	0x3d0d1412	0.03444297
26	0x3d58660f	0.052831706
27	0xbbd51022	-0.0065021673
28	0x3d86fb87	0.06590944
29	0x3d0165e7	0.031591322
30	0xbd74c392	-0.059756823
31	0x3cff876f	0.03119251
32	0x3d1d5e3a	0.03841994
33	0x3d009a37	0.03139707
34	0xbc84fde8	-0.016234353
35	0x3c305c4a	0.010764191
36	0xbd2febc3	-0.04294945
37	0x3d8c1aa9	0.068410225
38	0x3d3bb436	0.04582616
39	0xbc84b104	-0.016197689
40	0xbd6b4ceb	-0.0574464
41	0x3b2256b5	0.002477092
42	0x3d34beed	0.044127394
43	0x3c991258	0.018685505
44	0x3d3c4b62	0.04597033
45	0xbc826b15	-0.015920201
46	0xbba67e30	-0.0050809607
47	0x3d451de5	0.048124213
48	0xbcd8cadf	-0.026463924
49	0x3d10e684	0.035376087
50	0x3d926499	0.07148094
51	0xbc2604a0	-0.010132939
52	0x3c37d3f2	0.011219965
53	0xbc1d1321	-0.00958708
54	0x3b47b226	0.0030471175
55	0x3d0120c7	0.0315254
56	0x3d9ea217	0.0774576
57	0x3d24bae1	0.040217284
58	0xbd1a69e3	-0.037698638
59	0xbd9585b2	-0.07300891
60	0x3d881adc	0.06645748
61	0x3cebf630	0.028803915
62	0xbd408ac4	-0.047007337
63	0xbdba6e8d	-0.09103117

conv_layers.2.weight f4 [64, 256, 4]
0	0x3cdaaa97	0.026692672
1	0xbd85add5	-0.065272965
2	0xbc440ab8	-0.011965446
3	0x3b5148d5	0.003193428
4	0xbd2be79e	-0.041968934
5	0x3e451a59	0.19248332
6	0x3d4b3145	0.049607534
7	0x3a660b60	0.0008775499
8	0xbd73b0b5	-0.059494693
9	0x3c8b946b	0.017038545
10	0x3c2a303f	0.010387479
11	0x3c65c3cd	0.014023733
12	0x3d887406	0.06662755
13	0xbcef0fba	-0.029182304
14	0xbd203c76	-0.03912016
15	0xbd19004a	-0.03735379
16	0xbd4a959f	-0.049459096
17	0x3c08c6b9	0.00834816
18	0xbdd66f28	-0.1047042
19	0xbd3bd5b4	-0.0458581
20	0xbd059498	-0.032612413
21	0x3c88cae3	0.016698306
22	0xbd245167	-0.040116694
23	0xbd33e402	-0.043918617
24	0x3d5c4b35	0.05378266
25	0x3c63f858	0.01391419
26	0x3cb9e4e8	0.022692159
27	0x3bbcb61d	0.0057590143
28	0x3db44535	0.08802263
29	0x3d71480d	0.058906604
30	0x3d20aef6	0.039229356
31	0xbc8534f3	-0.0162606
32	0x3d61ff1b	0.05517493
33	0xbcd21e29	-0.025649147
34	0xbd84dfb8	-0.064879835
35	0xbd1938d7	-0.037407722
36	0xba9887ea	-0.0011637185
37	0x3c6b0f78	0.01434695
38	0xbcdd5d8a	-0.027022142
39	0x3d1ad60a	0.03780178
40	0x3dab3a7e	0.08360766
41	0x3c4b2199	0.012398147
42	0x3c0d3f99	0.00862112
43	0xbd9ffc2b	-0.07811769
44	0xbd776691	-0.06040055
45	0xbc85daf2	-0.016339753
46	0x3d096bda	0.03355012
47	0x3ca70977	0.020390255
48	0x3c1bea36	0.009516289
49	0x3d677d25	0.05651583
50	0xbd941ed6	-0.07232444
51	0x3d05e3f1	0.032688085
52	0xbd08ac8d	-0.033367682
53	0x3d367607	0.044546153
54	0x3d91f3ec	0.071266025
55	0xbd23da16	-0.040002905
56	0xbd600460	-0.054691672
57	0x3c9541a0	0.018219769
58	0x3d25a206	0.04043772
59	0xbd9c2b83	-0.07625487
60	0xbc04ffc5	-0.008117621
61	0xbbb160d8	-0.005413156
62	0x3d677205	0.056505222
63	0x3cd02f07	0.02541305
64	0xbd8b7541	-0.06809474
65	0x3c7b0b2c	0.015322488
66	0x3d7e94a7	0.062153485
67	0x3d25e3ce	0.040500455
68	0x3ccb29a2	0.024800126
69	0xbd16d37b	-0.036822777
70	0xbd1559b7	-0.036462512
71	0x3d04bed4	0.03240855
72	0xbc938dfe	-0.018012043
73	0xbc180f8e	-0.009281052
74	0xbd316b3b	-0.043315154
75	0x3c677ead	0.014129323
76	0xbd184484	-0.037174717
77	0x3cfd2013	0.030899083
78	0xbd26fa7c	-0.040766224
79	0x3cf3636d	0.029710496
80	0xbdb750d7	-0.08950966
81	0x3cb5be84	0.022185571
82	0xbc1efba2	-0.009703549
83	0x3d1816e0	0.03713119
84	0xbc4c9edf	-0.01248905
85	0xbd2497fc	-0.040184006
86	0x3db2df93	0.0873405
87	0x3d2b3889	0.041801963
88	0xbd58b6c4	-0.052908674
89	0x3d0e2dbf	0.034711596
90	0xbd3c5661	-0.045980815
91	0x3d10e6d1	0.035376374
92	0x3c86dc9c	0.016462617
93	0x3d697a91	0.057001654
94	0xbd7456bb	-0.059653025
95	0xbcf533d1	-0.029931935
96	0xbca0e0f4	-0.019638516
97	0xbd2bd0a4	-0.041947022
98	0xbcbc0534	-0.0229517
99	0x3db87b84	0.09007934
100	0x3d47a430	0.048740566
101	0xbcaaf451	-0.020868452
102	0x3cb2c3c3	0.021821862
103	0x3ca8b6d6	0.020594995
104	0xbbf77813	-0.0075521558
105	0xbda7ba2c	-0.08189806
106	0xbcc85e06	-0.024458896
107	0x3d276c9b	0.04087506
108	0x3b61de2a	0.0034464695
109	0xbd4eb22d	-0.05046289
110	0xbcd7d56e	-0.026346888
111	0x3d917130	0.07101667
112	0xbdd08545	-0.10181669
113	0xbc16e18c	-0.009209048
114	0xbd74898c	-0.059701487
115	0xbc3f9d0f	-0.0116951605
116	0xbb559e3f	-0.0032595543
117	0xbd491878	-0.0490956
118	0xbd938bfc	-0.07204434
119	0x3d2351e1	0.039873008
120	0x3d809d2e	0.0627998
121	0xbd95f6d9	-0.07322473
122	0x3d9b3f2f	0.07580411
123	0xbd9ad4c8	-0.07560116
124	0xbd10ecbe	-0.035382025
125	0xbc7c753c	-0.01540881
126	0x3d5fc90e	0.0546351
127	0xbce0bb62	-0.027433101
128	0x3d07ea6a	0.03318254
129	0xbcdb90a0	-0.026802361
130	0xbcaa9a40	-0.020825505
131	0x3d3d4d45	0.046216268
132	0xbbd8edb5	-0.0066201338
133	0x3c5c02dd	0.013428417
134	0x3cec777c	0.028865568
135	0xbb917906	-0.004439476
136	0x3d01bb5f	0.03167283
137	0xbd19a693	-0.037512373
138	0xbd319d80	-0.043363094
139	0xbcb7cd5e	-0.022436794
140	0x3c2dfe1d	0.010619667
141	0xbd32c422	-0.043644078
142	0x3dd4e74a	0.103956774
143	0xbd2982c6	-0.04138448
144	0xbcf82267	-0.030289842
145	0x3d34d031	0.04414386
146	0x3cf02b9b	0.029317668
147	0xbdbe1a21	-0.092823274
148	0xbd5c0620	-0.05371678
149	0x3db843fb	0.08997341
150	0xbce1d93a	-0.027569402
151	0xbda3cdaa	-0.07998212
152	0xbd3d720e	-0.04625135
153	0x3d98ab3a	0.07454534
154	0x3d831e4f	0.06402265
155	0x3d7e687a	0.062111355
156	0x3d28b1b7	0.041185107
157	0x3d490918	0.049080938
158	0xbdaba87c	-0.08381745
159	0xba5236df	-0.00080190407
160	0x3d16f7b0	0.036857307
161	0xbbdb3f77	-0.006690915
162	0x3d2bdde0	0.041959643
163	0x3a04e256	0.0005069127
164	0xbd79de80	-0.06100321
165	0xbdf724f6	-0.120675966
166	0x3d9b54d0	0.07584536
167	0xbd10205c	-0.03518711
168	0xbd8fb266	-0.07016449
169	0x3abf5613	0.0014597796
170	0x3a4a7d2c	0.00077243405
171	0xbd425ce0	-0.047451854
172	0xbc226abd	-0.009913144
173	0xb9d865a8	-0.0004127447
174	0x3cfd5132	0.030922506
175	0x3d121f35	0.035674293
176	0x3d5f2842	0.054481752
177	0x3c1c8fb5	0.009555747
178	0x3c5bc2f2	0.013413178
179	0x3cbb24ad	0.022844637
180	0xbd01563c	-0.03157638
181	0xbc3f8cda	-0.0116912965
182	0x3d9d62a6	0.07684831
183	0xbcbcfa2b	-0.023068508
184	0xbb62ba36	-0.0034595854
185	0x3d648c7a	0.05579803
186	0xbcaf6154	-0.021408714
187	0x3b4ba9c5	0.0031076532
188	0xbd01625b	-0.03158794
189	0xbc91763e	-0.017756578
190	0x3dc86675	0.09785167
191	0x39d43641	0.00040476213
192	0xbd84fa49	-0.064930506
193	0xbcc3bd95	-0.02389411
194	0xbcd57d57	-0.026060743
195	0x3c9d08da	0.01916926
196	0x3d80c722	0.062879816
197	0xbb802752	-0.0039109373
198	0x3d229067	0.039688494
199	0x3d3db8bf	0.046318766
200	0x3d923d9b	0.071406566
201	0xbdbd3f02	-0.092405334
202	0xbd933b40	-0.071890354
203	0x3daaaa08	0.08333212
204	0x3d116832	0.03549976
205	0x3c3429ed	0.010996324
206	0xbc6a0642	-0.014283719
207	0x3d7660f1	0.060151044
208	0x3ce34403	0.027742391
209	0x3d8fbb42	0.070181385
210	0xbb2eb86c	-0.0026660217
211	0xbdc40db2	-0.09572925
212	0x3d25a36f	0.040439066
213	0xbdeb82cd	-0.11499558
214	0x3b34871b	0.002754635
215	0xbd70a5b0	-0.058751762
216	0xbcab1c86	-0.020887624
217	0xbd236bd6	-0.039897762
218	0xbc9b0445	-0.018922934
219	0xbc17298a	-0.009226212
220	0xbb99e881	-0.004696906
221	0xbd0b7670	-0.034048498
222	0xbcf7c48c	-0.030245088
223	0x3d40f433	0.047107887
224	0x3b0d4074	0.002155331
225	0x3c4971dd	0.0122952135
226	0xbd712c12	-0.05887992
227	0xbc109766	-0.008825159
228	0xbda9069f	-0.08253216
229	0xbc7a6d74	-0.015284885
230	0x3d4c1b7c	0.0498309
231	0x3c9bbbf1	0.019010516
232	0x3d4c4acb	0.049876016
233	0x3cb94b98	0.022619054
234	0xbd5d1af6	-0.05398079
235	0x3d636508	0.055516273
236	0x3cce619c	0.025193028
237	0xbca0e17f	-0.019638775
238	0x3dd1c526	0.10242681
239	0xbd886855	-0.06660525
240	0xbd0f96eb	-0.035056036
241	0xbd1831b7	-0.037156787
242	0xbcb8a45e	-0.022539314
243	0xbd45b778	-0.048270673
244	0xbb8e817e	-0.0043489328
245	0x3d52a257	0.05142435
246	0xbcbd734a	-0.023126263
247	0x3ce4739c	0.027887158
248	0x3c0f750e	0.008755935
249	0x3c31dfc9	0.010856577
250	0x3daf1f61	0.08550907
251	0x3cb2ef39	0.021842586
252	0xbc9241ce	-0.017853644
253	0x3c92d6f5	0.017924765
254	0x3d9db0e1	0.076997526
255	0x3d6848d8	0.056710094

conv_layers.2.bias f4 [64]
0	0xbdc2116b	-0.094759785
1	0x3bf7279d	0.007542564
2	0x3d317a00	0.04332924
3	0x3d8eb3d0	0.0696789
4	0xbd8e35ff	-0.06943893
5	0xbde3d2fc	-0.111242265
6	0xbdfeeac7	-0.12447124
7	0x3c7ec46f	0.015549763
8	0x3d6a84a0	0.057255387
9	0xbc2e9db8	-0.01065772
10	0x3dfa950a	0.12235458
11	0xbdccf4e0	-0.10007644
12	0x3ccc259a	0.024920274
13	0xbdc23e73	-0.094845675
14	0xbc8e86a2	-0.017398182
15	0x3c4e7986	0.012602216
16	0xbd1eb878	-0.03875014
17	0x3d23737b	0.039905053
18	0xbda4eba4	-0.080527574
19	0xbb3d370a	-0.0028871917
20	0xbd73ca1e	-0.059518926
21	0xbda7d887	-0.08195596
22	0x3d2bb2be	0.04191851
23	0x3dabd30a	0.08389862
24	0x3d589a2a	0.052881397
25	0xbd08c853	-0.03339417
26	0xbdc54eeb	-0.09634193
27	0x3d1a0203	0.037599575
28	0xbd1ae706	-0.037817977
29	0x3bf41ec7	0.007449958
30	0xbdaf6258	-0.085636795
31	0x3d74e95b	0.059792858
32	0x3dacb47a	0.08432861
33	0xbad53e03	-0.0016269091
34	0xbde71779	-0.11283774
35	0xbd6f7e43	-0.058470022
36	0x3adc6875	0.0016815799
37	0xb8d205f4	-0.00010014689
38	0xbd456b94	-0.048198298
39	0xbcfb3dbb	-0.030669084
40	0xbda29a35	-0.07939569
41	0x3db38bb8	0.087668836
42	0x3cb2b46a	0.021814544
43	0x3c999740	0.01874888
44	0x3d84718c	0.0646697
45	0xbd2f0520	-0.042729497
46	0xbdf3b235	-0.11899225
47	0xbe16164a	-0.1465694
48	0x3db5058f	0.08838951
49	0xbd1621ab	-0.036653202
50	0xbd934d8d	-0.07192526
51	0xbcf24c43	-0.02957738
52	0x3bbf0a57	0.00583009
53	0x3b964278	0.0045855604
54	0x3d239b4c	0.039943025
55	0x3da50ec3	0.08059456
56	0x3d5c006f	0.05371135
57	0x3c6cdf1c	0.01445749
58	0xbadcd28d	-0.0016847417
59	0x3cd34b3e	0.025792714
60	0xbbfc35cf	-0.007696844
61	0xbd3c007c	-0.0458989
62	0x3c9fef7f	0.01952338
63	0x3dbc1060	0.09182811

conv_layers.3.weight f4 [64, 256, 5]
0	0xbc632834	-0.013864566
1	0xbd7f7bc8	-0.062373906
2	0xba990933	-0.0011675715
3	0xbcd2049f	-0.02563697
4	0xbb55c615	-0.0032619287
5	0xbc675877	-0.014120213
6	0x3cc20f30	0.023688883
7	0xbbc7f329	-0.006101985
8	0x3cfd1b3f	0.030896781
9	0x3c8d63f2	0.017259572
10	0x3d846f44	0.06466535
11	0xb9a5252e	-0.00031498953
12	0xbd48fc88	-0.049068958
13	0x3ce93d34	0.028471567
14	0xbd352cdd	-0.044232238
15	0xbb10e68c	-0.0022110073
16	0xbc3f9ea5	-0.011695539
17	0xbc4f5411	-0.01265432
18	0xbbcbea89	-0.006223027
19	0xbd0b519d	-0.03401338
20	0xbada214b	-0.0016642002
21	0x3c873038	0.016502485
22	0xbcfc4547	-0.030794753
23	0xbbbd5f2b	-0.005779167
24	0xbc8845dd	-0.016634876
25	0xbcb4ddaf	-0.022078363
26	0x3c32dc21	0.010916741
27	0x3d74c8e7	0.059761908
28	0xbd1283cb	-0.03577022
29	0xbd17eb2d	-0.037089515
30	0x3d25c275	0.04046865
31	0x3d13fe81	0.036131386
32	0x3d9327c9	0.07185323
33	0x3c9244c6	0.01785506
34	0xbcebb7f7	-0.028774245
35	0x3d1fef81	0.039046768
36	0x3cd94b07	0.026525034
37	0x3d2bd04f	0.041946705
38	0x3c4ad161	0.012379021
39	0xbd4d88d1	-0.050179306
40	0xbd30629a	-0.043062784
41	0x3d39d973	0.04537339
42	0x3b50433b	0.0031778354
43	0xbdd1ab23	-0.1023772
44	0x3d232176	0.039826833
45	0x3d48e7ee	0.04904931
46	0xbcde62f2	-0.02714679
47	0xbbfd4d4c	-0.007730162
48	0x3d422853	0.047401737
49	0xbd650798	-0.055915445
50	0xbd8ebcf4	-0.06969634
51	0x3ca56da7	0.020193888
52	0xbd8c41ce	-0.06848489
53	0x3c34720b	0.011013518
54	0xbd3f98c4	-0.046776548
55	0x3d262148	0.040559083
56	0x3d10a416	0.035312735
57	0x3bcd4eae	0.006265483
58	0xbc5e4c08	-0.013567932
59	0xbb216712	-0.0024628085
60	0x3ca56669	0.020190435
61	0xbd891ede	-0.066953406
62	0x3d6141cc	0.05499439
63	0xbc85c654	-0.016329922
64	0xbd3a3ad4	-0.04546626
65	0xbcbb3b6a	-0.02285548
66	0x3d0a8801	0.03382111
67	0x3c8e87ca	0.017398734
68	0xbc5184f1	-0.012788043
69	0xbd113376	-0.035449468
70	0x3cdf8454	0.027284779
71	0x3d9e547b	0.07730957
72	0xbd50fe40	-0.05102372
73	0xbdb72827	-0.08943205
74	0xbd0242a5	-0.03180184
75	0x3c52782f	0.012846037
76	0x3d0840e7	0.03326502
77	0xbd5a5b89	-0.05330995
78	0xbdb21825	-0.086960115
79	0xbd7446b6	-0.059637748
80	0xbcd19fe2	-0.025588933
81	0xbd44eea6	-0.048079155
82	0x3bd9bbe5	0.006644713
83	0x3db16dd3	0.086635254
84	0xbd79c059	-0.060974453
85	0x3d182872	0.037147947
86	0xbd24f4dd	-0.040272582
87	0xbd0d37d4	-0.03447707
88	0xbd9e7519	-0.07737178
89	0xbb270873	-0.0025487214
90	0x3d57410b	0.052552264
91	0xbd32102d	-0.043472458
92	0xbd12750f	-0.035756167
93	0x3d037506	0.032094024
94	0x3d8f2096	0.06988637
95	0x3c95cd1a	0.018286277
96	0xbc5a233e	-0.013314066
97	0xbd83c5cf	-0.06434213
98	0xbcc27623	-0.023737973
99	0x3ba1ef53	0.0049418597
100	0x3d04276a	0.03226415
101	0xbce34fc7	-0.027748002
102	0xbd2647e3	-0.0405959
103	0x3d2af9ed	0.041742254
104	0x3c4639e8	0.012098767
105	0xbd93f105	-0.07223705
106	0xbcb915ba	-0.022593368
107	0xbd354f49	-0.044265065
108	0x3be2f725	0.0069264346
109	0xbd8e58aa	-0.06950505
110	0xbcb234a3	-0.021753615
111	0x3cabaf50	0.020957619
112	0xbd4064db	-0.046971183
113	0xbd186a2a	-0.03721062
114	0xbcfc2838	-0.030780897
115	0x3d234609	0.039861713
116	0x3d286cbf	0.041119333
117	0x3cb067fe	0.021533962
118	0x3c83d0c9	0.016090767
119	0x3ba5bf59	0.005058211
120	0xbd7e57e6	-0.062095545
121	0x3926392d	0.00015852293
122	0xbd384654	-0.044988945
123	0x3cdcba60	0.02694434
124	0xbb98f09e	-0.0046673557
125	0x3cfc67ff	0.030811308
126	0xbd78425c	-0.06061016
127	0xbb20eda6	-0.0024555712
128	0x3cf6c65c	0.030123882
129	0xbd3aeb17	-0.045634355
130	0x3ce7a87f	0.028278587
131	0xbcf7e024	-0.030258246
132	0xbde8701e	-0.1134951
133	0xbcade39c	-0.021226697
134	0xbd74c5ea	-0.059759058
135	0xbd13a2b6	-0.036043845
136	0xbd97c1ce	-0.07410012
137	0xbd78f28e	-0.060778193
138	0x3c16245c	0.009163942
139	0x3c2eb1ba	0.0106624905
140	0xbc8d4281	-0.017243626
141	0xbd6bcc70	-0.057568014
142	0xbb25eaee	-0.002531703
143	0x3c388d98	0.011264227
144	0xbb8beb76	-0.0042700125
145	0xbd27a875	-0.040932138
146	0x3d1e70f9	0.038681958
147	0xbc35ec7b	-0.011103745
148	0xbbbaaef2	-0.0056971246
149	0xbd02ad20	-0.031903386
150	0x3d7b5a04	0.061365142
151	0xbd1c4d97	-0.038159933
152	0xbb8d1a66	-0.0043061255
153	0xb9d15c37	-0.00039932292
154	0xbd8085c2	-0.06275512
155	0x3ce953fa	0.028482426
156	0x3b9c110d	0.004762775
157	0x3cd1748d	0.025568271
158	0x3c72534b	0.014790366
159	0xbb7cbfac	-0.0038566394
160	0xbd9064b3	-0.07050457
161	0x3a771c65	0.00094265334
162	0x3d52c828	0.051460415
163	0x3d7a5391	0.06111485
164	0xbc829230	-0.015938848
165	0x3db347a7	0.08753901
166	0xbd34ef81	-0.04417372
167	0x3a34f513	0.0006902974
168	0x3cff9d2f	0.03120288
169	0x3d1bd02d	0.03804033
170	0xbcca4670	-0.02469179
171	0x3cfa5971	0.030560227
172	0xbd098e1b	-0.033582788
173	0x3d8725ba	0.06598993
174	0xbd031599	-0.03200302
175	0xbd322d3f	-0.04350018
176	0x3c620d6f	0.013797148
177	0xbc1616f3	-0.009160745
178	0xbd2d7c05	-0.042354602
179	0x3d464e89	0.04841474
180	0xbd1cca2e	-0.03827875
181	0xbc343150	-0.010998085
182	0x3cc62f54	0.02419249
183	0x39d31aaa	0.00040264922
184	0xbd75573c	-0.059897646
185	0xbd33ec0e	-0.04392629
186	0xbd92fe46	-0.07177405
187	0x3bb72284	0.0055888314
188	0xbd927b49	-0.07152421
189	0x3c2da324	0.010597978
190	0x3d4d7c16	0.050167166
191	0x3ce65cd9	0.028120445
192	0x3ca3a30f	0.019975213
193	0xbdaa230c	-0.08307466
194	0xbd25c4e8	-0.040470988
195	0x3c7d9569	0.015477517
196	0x3c6474c1	0.013943852
197	0x3d0f55b9	0.03499386
198	0x3c1e2bd0	0.009654
199	0xbca42e7f	-0.020041702
200	0x3ce3efa7	0.027824236
201	0x3d50f18a	0.0510116
202	0xba6e5f2c	-0.0009093161
203	0xbd4cd30f	-0.05000597
204	0x3ca2526d	0.019814694
205	0x3cf6741c	0.030084662
206	0xbc3ec279	-0.011643046
207	0x3d50dd5c	0.050992355
208	0xbcd176af	-0.025569288
209	0x3c30850e	0.01077391
210	0x3d188c60	0.037243247
211	0x3c5662b3	0.013085055
212	0x3bce0a8a	0.0062878774
213	0x3a94ae85	0.0011343515
214	0xbd29450f	-0.041325625
215	0x3c2de8c9	0.010614582
216	0xbd5149a4	-0.05109562
217	0x3c04c1ec	0.008102875
218	0xbd200de3	-0.039075743
219	0x3c092e71	0.008372889
220	0x3d0555a6	0.032552384
221	0x3d89a08f	0.06720077
222	0x3d2a9803	0.041648876
223	0x3d795f43	0.060881864
224	0xbdd14ad6	-0.10219352
225	0x3b4d34e2	0.0031312038
226	0xbcc653ac	-0.02420982
227	0xbc39886d	-0.01132403
228	0x3d22a766	0.039710425
229	0xbd21df5b	-0.03951965
230	0x3c8e6f0e	0.01738694
231	0x3d4f9926	0.050683163
232	0x3cd09773	0.025462842
233	0xbcb1f7bc	-0.021724574
234	0xbc78097b	-0.015138979
235	0x3dd18cc3	0.10231926
236	0xbcd60c22	-0.026128832
237	0x3d5f2f0a	0.05448822
238	0x3dc856cc	0.0978218
239	0xbd1d0a6a	-0.03834001
240	0xbd4dc069	-0.050232325
241	0x3d63718c	0.05552821
242	0xbc97469c	-0.018466286
243	0xbd010289	-0.03149656
244	0x3c1cbf46	0.0095670875
245	0x3d4a133e	0.049334757
246	0xbcd6d7a0	-0.026225865
247	0xbd0673c7	-0.032825258
248	0xbdbd68a7	-0.092484765
249	0xb8affb94	-8.39151e-05
250	0x3b8332ac	0.0040038433
251	0xbbce9eac	-0.0063055363
252	0xbd0f0ed1	-0.03492624
253	0x3d3b4cf6	0.045727693
254	0xbd49e32a	-0.049288906
255	0xbae27e21	-0.0017280021

conv_layers.3.bias f4 [64]
0	0xbe4e32db	-0.20136587
1	0xbc659510	-0.01401259
2	0x3d541f6c	0.05178778
3	0xbdc8df38	-0.098082006
4	0xbd32b869	-0.0436329
5	0x3cb51c6f	0.022108285
6	0xbd787830	-0.060661495
7	0xbc8e096e	-0.01733848
8	0x3d229168	0.03968945
9	0xbe16958d	-0.14705487
10	0xbd51060e	-0.051031165
11	0x3cd6c40d	0.026216531
12	0x3c86d019	0.01645665
13	0xbd1442a4	-0.036196366
14	0x3d4caefd	0.04997157
15	0xb9e9e3e8	-0.00044611027
16	0xbdbe4d7b	-0.09292122
17	0xbd78d89a	-0.060753442
18	0xbe104470	-0.14088607
19	0xbd8ef9b5	-0.069812216
20	0xbd082c9c	-0.033245668
21	0x39bcb8a0	0.0003599571
22	0xbc93a1d4	-0.018021502
23	0x3c93b344	0.018029816
24	0xbcf91271	-0.030404301
25	0xbbb58055	-0.00553898
26	0x3d8713b6	0.065955564
27	0xbc7b8fd5	-0.015354116
28	0xbdc49560	-0.095988035
29	0x3cab9215	0.02094368
30	0xbd4aa5cf	-0.049474534
31	0x3cc9a58e	0.024615075
32	0x3ddef1c9	0.108859606
33	0xbd1d4342	-0.03839422
34	0xbb46ca47	-0.003033297
35	0x3d904d55	0.07046
36	0x3c2d1b1f	0.010565548
37	0xbceb7b19	-0.028745221
38	0x3d900bd1	0.07033504
39	0xbd8086fb	-0.062757455
40	0x3dc8ce00	0.098049164
41	0x3c1ba9eb	0.009500961
42	0x3b86cad2	0.0041135335
43	0x3d5e282e	0.054237537
44	0x3d65ae2a	0.0560743
45	0xbdae1a18	-0.08501071
46	0x3dbfafb9	0.09359688
47	0x3bc27159	0.0059339222
48	0x3d6ab45a	0.057300903
49	0x3cf6f81b	0.030147603
50	0xbd97e36e	-0.07416426
51	0xbd92d5d3	-0.0716969
52	0xbc9eec83	-0.019399887
53	0xbe1955f0	-0.14974189
54	0x3d30c522	0.04315675
55	0xbc95d4ab	-0.018289885
56	0xbcd76fc8	-0.026298419
57	0xbd309d70	-0.043118894
58	0x3d1dcb4d	0.03852396
59	0xbd990346	-0.074713275
60	0x3bd1f042	0.006406815
61	0xbc822405	-0.015886316
62	0x3d6374b9	0.055531237
63	0xbbaa8979	-0.0052043763

fc1.weight f4 [64, 256]
0	0xbd26a1a2	-0.04068149
1	0x3c5b8ac7	0.013399786
2	0xbc514e8e	-0.012775077
3	0xbc22e7c8	-0.009942956
4	0xbd836e80	-0.064175606
5	0x3cae0ab0	0.02124533
6	0x3d571794	0.05251272
7	0xbbb9ae52	-0.0056665326
8	0xbd1bb67e	-0.038015835
9	0xbc4b235c	-0.012398567
10	0xbcdb8706	-0.026797783
11	0xbd6707ee	-0.056404047
12	0xbaa9f7bf	-0.0012967511
13	0xbd5e0da8	-0.054212242
14	0x3d1375c1	0.03600097
15	0xbd29a6af	-0.041418727
16	0xbd437962	-0.04772318
17	0xbcaa3db0	-0.020781368
18	0x391e87b1	0.00015118603
19	0x3b9e8d6f	0.0048386375
20	0xbb994052	-0.004676857
21	0x3ca2f7ef	0.019893615
22	0x3ba6dc53	0.0050921827
23	0xbd8e5b0a	-0.06950958
24	0x3c197377	0.009365908
25	0xbd5b5b65	-0.053553957
26	0x3d3c4d1b	0.04597197
27	0xbd1518dc	-0.03640066
28	0x3cb1c148	0.021698609
29	0x3c2731e3	0.010204765
30	0xbd783fa9	-0.060607586
31	0xbc22ac87	-0.009928829
32	0xbd2642b3	-0.040590953
33	0xbc57f4fe	-0.013180969
34	0xbd8de38c	-0.06928167
35	0x3ce8b626	0.028407168
36	0xbb2716a4	-0.0025495673
37	0xbd981a68	-0.074269116
38	0xbd8259f3	-0.06364813
39	0x3cda9ff8	0.026687607
40	0xbb0c3e9d	-0.0021399625
41	0xbc09a8b6	-0.00840204
42	0x3d6c1d1e	0.057644956
43	0xbcc68822	-0.024234835
44	0xbd20a199	-0.03921661
45	0xbcec118f	-0.028816966
46	0x3c8b0450	0.01696983
47	0xbcbf99d9	-0.02338879
48	0xbda312a5	-0.079625405
49	0xba2af234	-0.00065210764
50	0xbccd11ff	-0.025032995
51	0xbd20792c	-0.03917806
52	0xbd102225	-0.035188813
53	0x3cb6518d	0.022255683
54	0x3d36c2ce	0.044619374
55	0xbcdd0eab	-0.026984533
56	0xbc82e2f3	-0.015977358
57	0x3d437766	0.04772129
58	0x3c7ba27e	0.015358565
59	0x3c8dfa00	0.017331123
60	0x3be82023	0.007083909
61	0xbd94758a	-0.07248981
62	0xbcdd50ea	-0.027016122
63	0x3cd0b8a7	0.025478674
64	0xbd02ac3f	-0.031902548
65	0x3c546ffa	0.01296615
66	0x3d15e072	0.036591
67	0xbd63b5c0	-0.055593252
68	0xbc005a74	-0.007834066
69	0x3ccc25ff	0.024920462
70	0xbd64759e	-0.05577623
71	0x3c24476d	0.010026795
72	0xbc60f1e6	-0.013729548
73	0xbd154ae6	-0.03644838
74	0xbcb5f835	-0.02221308
75	0xbd1db1f4	-0.038499787
76	0x3ae405b3	0.0017396718
77	0x3d178c66	0.03699913
78	0xbcde29be	-0.027119514
79	0x3d0a07eb	0.033698957
80	0x3cfa6ca2	0.030569378
81	0xbd21802b	-0.03942887
82	0x3be10fd9	0.0068683443
83	0xbd486023	-0.048919808
84	0xbc70836e	-0.014679773
85	0x3d09dd64	0.0336584
86	0x3c2bb64f	0.0104804775
87	0x3c400fbc	0.011722501
88	0xbccd8e80	-0.025092363
89	0x3c3410a8	0.010990299
90	0x3cdd93fd	0.027048105
91	0xbd4624c5	-0.04837491
92	0xba5ef10c	-0.0008504547
93	0xbd7c78bf	-0.06163859
94	0xbc6edf3e	-0.014579592
95	0x3d674f21	0.056471948
96	0x3ceecbf6	0.02914999
97	0x3d54d5ed	0.051961828
98	0xbd31bea8	-0.043394715
99	0xbc208067	-0.0097962385
100	0x3c93ce84	0.01804281
101	0xbd1addb5	-0.037809093
102	0x3cad2b44	0.021138795
103	0x3bf416f0	0.0074490234
104	0x3c38ecc8	0.011286922
105	0x3d4c5fd6	0.049896084
106	0xbd972597	-0.073802166
107	0xbd6cce07	-0.05781367
108	0x3af552a8	0.001871665
109	0xbc645c7d	-0.013938067
110	0xbd3d9dba	-0.046292998
111	0xbca09fb6	-0.019607406
112	0xbba6edad	-0.005094251
113	0x3c7b2992	0.015329735
114	0x3c39de4e	0.0113445055
115	0xb9083960	-0.00012991345
116	0xbd815987	-0.06315904
117	0x3c57127f	0.013126968
118	0xbcca34f5	-0.024683455
119	0xbbaed0ba	-0.0053349407
120	0xbcc133b4	-0.023584224
121	0xbd3283ba	-0.043582655
122	0x3c8827aa	0.016620476
123	0x3cd1a96f	0.025593488
124	0xbd1e2b01	-0.03861523
125	0xbd61ed87	-0.055158164
126	0x3be20586	0.006897631
127	0xbca6fcf7	-0.020384295
128	0xbd7f1cac	-0.062283203
129	0x3d2a44d7	0.041569557
130	0xbbcb825a	-0.0062106075
131	0x3cc134c9	0.02358474
132	0xbd5a7f74	-0.053344205
133	0xbd80d64b	-0.06290873
134	0xbcb92001	-0.022598268
135	0x3d22c11b	0.03973494
136	0x3cb23ae0	0.02175659
137	0xbd42b5c5	-0.04753663
138	0x3bb0a8b9	0.005391207
139	0x3c0e9735	0.008703043
140	0xbd9ad5c7	-0.07560306
141	0xbc2da6cb	-0.010598849
142	0x3af1baff	0.001844257
143	0xbca64e61	-0.020301046
144	0x3d3805c5	0.044927377
145	0x3d4391cb	0.04774646
146	0x3d2b554f	0.041829403
147	0x3d04937f	0.032367226
148	0xbbaabbcc	-0.0052103754
149	0x3b383549	0.0028107932
150	0xbd757383	-0.059924614
151	0xbd076762	-0.033057578
152	0xbd66e279	-0.056368325
153	0x3c3a61a8	0.011375822
154	0xbcbcbac8	-0.023038283
155	0xbb80806a	-0.003921558
156	0xbc943b29	-0.018094616
157	0xbd842ecc	-0.06454238
158	0x3d0df820	0.03466046
159	0xbd420d90	-0.047376215
160	0x3d480e04	0.04884149
161	0x3d20309a	0.03910885
162	0xbd0243bf	-0.03180289
163	0xbcb83909	-0.022488134
164	0xbd2b9a1b	-0.041895013
165	0xbd65fb1a	-0.056147672
166	0xbc33199d	-0.0109314
167	0xbd811e71	-0.06304634
168	0x3d28f7f3	0.041252088
169	0x3c175285	0.009235983
170	0xbd5482e4	-0.05188264
171	0xbca87f4c	-0.020568512
172	0xbd23c4e9	-0.03998271
173	0xbc86be11	-0.016448053
174	0xbd6a3f0e	-0.05718904
175	0x3d6f59ee	0.058435373
176	0xbcd75183	-0.026283985
177	0x3bb10aeb	0.005402913
178	0xbcb54a16	-0.022130053
179	0x3d089a92	0.033350535
180	0x3c2368c6	0.00997371
181	0xbc9e4b98	-0.019323155
182	0x3cff1c6d	0.031141484
183	0xbd3f3bec	-0.046688005
184	0xbd1c9e78	-0.038237065
185	0xbd89f429	-0.06736023
186	0xbcc47f0e	-0.023986366
187	0xbd85ef3b	-0.0653977
188	0xbd93a7bc	-0.07209727
189	0x3bfea404	0.007771017
190	0xbb431f04	-0.0029773125
191	0x3bb23c6d	0.005439332
192	0x3c8b59bf	0.017010568
193	0xbd00007c	-0.031250462
194	0xbdaa55f4	-0.083171755
195	0xbd13d49c	-0.036091432
196	0xbd0ea07a	-0.03482101
197	0xbd72814b	-0.059205335
198	0xbc66e3d2	-0.0140924025
199	0xb9f57621	-0.00046818054
200	0x3c10bedc	0.008834567
201	0xbd815ed9	-0.06316919
202	0xbb921f55	-0.0044593015
203	0x3d1b37d7	0.03789505
204	0x3d45156f	0.048116144
205	0xbd81beff	-0.06335258
206	0xbcacf315	-0.021112004
207	0x3bd61c43	0.006534131
208	0xbbea4d85	-0.0071503543
209	0x3a2a9acb	0.00065080513
210	0x3b9cd600	0.004786253
211	0x3d520140	0.051270723
212	0x3bd2567a	0.006419
213	0xbdb1fd61	-0.08690906
214	0x39c0fab2	0.00036807876
215	0xbd8a5333	-0.0675415
216	0x3c4bc874	0.0124379285
217	0xbb94bd49	-0.004539166
218	0xbced9943	-0.029003745
219	0xbd0effef	-0.034912046
220	0x3d16cb30	0.03681487
221	0x3c0db32d	0.008648676
222	0x3d4c6f26	0.049910687
223	0xbc6e876c	-0.014558654
224	0x3c6fe9de	0.014643161
225	0x3d23f9e3	0.040033232
226	0xbcd87207	-0.02642156
227	0xbd2ea3cd	-0.04263668
228	0xbd37d1bd	-0.044877756
229	0x3bdc7549	0.0067278487
230	0xbd9b0e0d	-0.07571039
231	0x3c65bb5b	0.01402172
232	0xbcbd468d	-0.02310493
233	0x3c2af769	0.010434964
234	0xbd371f5d	-0.044707645
235	0xbccde0a9	-0.02513154
236	0xbd0cb5a0	-0.0343529
237	0xbcc2d9d7	-0.023785515
238	0x3b9844e4	0.0046468843
239	0xbd46ac6e	-0.048504286
240	0x3ccbb841	0.024868133
241	0xbd23fe0e	-0.040037207
242	0xba189f5f	-0.0005822088
243	0xbd37cd80	-0.044873714
244	0xbd374fc3	-0.0447538
245	0xbd10997e	-0.03530263
246	0x3ce00b83	0.02734924
247	0x3d55802d	0.05212419
248	0xbcb8d055	-0.022560278
249	0xbce35e22	-0.027754847
250	0xbd383331	-0.044970695
251	0xbd7867e6	-0.06064596
252	0x3d555d65	0.05209102
253	0xbd282ec9	-0.041060243
254	0x3d1d9ca2	0.038479455
255	0x3bb50ec8	0.0055254437

fc1.bias f4 [64]
0	0xbd4c5def	-0.04989427
1	0xbd745e69	-0.05966035
2	0x3c784e3c	0.015155371
3	0x3cc74631	0.024325462
4	0x3d6b664f	0.057470616
5	0x3cd1d2f1	0.02561328
6	0x3dd34067	0.10315018
7	0x3df8087c	0.12110993
8	0x3bafd364	0.005365776
9	0x3dc4d534	0.09610978
10	0x3cb2c4b7	0.021822317
11	0x3db17f94	0.08666912
12	0xbd576a10	-0.052591383
13	0x3d247328	0.040148884
14	0x3c9f3eaa	0.01943906
15	0x3d23acc8	0.0399597
16	0xbc950804	-0.018192299
17	0x3bf95e85	0.0076101446
18	0x3d50ccaa	0.050976433
19	0x3dc4743d	0.09592483
20	0xbbf7a21d	-0.007557167
21	0x3c96872e	0.018375006
22	0x3df6866e	0.12037359
23	0x3d03f322	0.03221429
24	0xbd5f6feb	-0.054550093
25	0x3d21e604	0.039526
26	0x3a8abc0e	0.0010584609
27	0x3ca68b41	0.020330073
28	0x3dd9a870	0.1062783
29	0xbd3463dc	-0.044040546
30	0xbd6de6d9	-0.05808148
31	0x3c4134ac	0.011792343
32	0xbc1eb845	-0.009687488
33	0x3dff206a	0.12457354
34	0xbdafd816	-0.08586137
35	0x3dbe74bb	0.09299608
36	0xbba96ab8	-0.0051701926
37	0xbd1c61a8	-0.03817907
38	0x3d8ad143	0.06778195
39	0xbc21f8bb	-0.009885962
40	0x3c4f9045	0.012668674
41	0xbc2d74e6	-0.010586953
42	0x3cd3e0b8	0.02586399
43	0x3c209a99	0.009802484
44	0x3e0a4ebd	0.13506599
45	0xbd781d11	-0.060574595
46	0xbce8121c	-0.028328948
47	0x3df9f41c	0.12204763
48	0x3dde836f	0.10864913
49	0xbd8ca482	-0.06867315
50	0x3cd16935	0.025562862
51	0xbd92ebae	-0.071738586
52	0x3cd8c171	0.026459428
53	0x3d4b7790	0.04967457
54	0x3c90b1da	0.017662931
55	0x3d470011	0.048584048
56	0x3cf5a663	0.029986566
57	0x3dda4bb5	0.10658971
58	0xbd68a455	-0.056797344
59	0x3d4d845d	0.05017506
60	0x3d7c1b6a	0.06154958
61	0x3cd70d2d	0.0262514
62	0xbd690a9c	-0.056894884
63	0xbc2dd583	-0.010609987

batch_norm.weight f4 [64]
0	0x3f7780bf	0.96680826
1	0x3f7e0f23	0.99241847
2	0x3f7e766f	0.99399465
3	0x3fe326c8	1.774621
4	0x3fdf2592	1.743334
5	0x3fe8085c	1.8127551
6	0x3fdf38ea	1.7439244
7	0x3fe17851	1.7614843
8	0x3f77f938	0.9686465
9	0x3fd75a63	1.6824459
10	0x3f7be481	0.98395544
11	0x3fea4d47	1.8304833
12	0x3f7e5e1c	0.9936235
13	0x3fe45d46	1.7840965
14	0x3f7d26c8	0.988873
15	0x3f7e766f	0.99399465
16	0x3f7e4327	0.99321216
17	0x3f7e758e	0.99398124
18	0x3fe47721	1.7848855
19	0x3fcbdb3c	1.592628
20	0x3fe5537c	1.7916102
21	0x3fce919a	1.6138184
22	0x3fd74031	1.6816465
23	0x3f7b38ab	0.98133343
24	0x3f7da8bf	0.9908561
25	0x3fe78931	1.8088742
26	0x3f7d83ab	0.99029034
27	0x3f788c0e	0.97088706
28	0x3fde1a71	1.7351819
29	0x3f800000	1.0
30	0x3f7e4fec	0.993407
31	0x3f7ddd75	0.9916604
32	0x3ff01072	1.8755019
33	0x3fd1878a	1.6369488
34	0x3f7893e7	0.9710068
35	0x3fd3d8e7	1.6550568
36	0x3fde0184	1.7344213
37	0x3f7e766d	0.99399453
38	0x3fc5c726	1.54514
39	0x3f7b0b20	0.9806385
40	0x3f809bbc	1.0047526
41	0x3fd7441a	1.6817658
42	0x3fcf5552	1.6197913
43	0x3fde7a28	1.7381029
44	0x3fcc2652	1.5949194
45	0x3f7c8709	0.9864355
46	0x3f800000	1.0
47	0x3fd974fc	1.6988826
48	0x3fe8a839	1.8176337
49	0x3f7c9616	0.9866651
50	0x3f7de138	0.9917178
51	0x3f7cfb9e	0.9882144
52	0x3f7e31da	0.9929482
53	0x3f800000	1.0
54	0x3f7d1ef2	0.98875344
55	0x3fcbe93d	1.5930554
56	0x3f7e8019	0.9941421
57	0x3fdb7a2c	1.7146659
58	0x3f7ae710	0.98008823
59	0x3fd9a3be	1.7003095
60	0x3fe49002	1.7856448
61	0x3f7e7672	0.99399483
62	0x3f7d08a7	0.9884133
63	0x3f7e2e59	0.9928947

batch_norm.bias f4 [64]
0	0x3df1a36e	0.1179875
1	0xbe072a94	-0.13199836
2	0xbe337c39	-0.17527856
3	0xbb3ae4b1	-0.0028517658
4	0xbe683a5d	-0.22678514
5	0xbd1122c6	-0.035433553
6	0xbdb8b288	-0.09018427
7	0xbbf1c2b1	-0.0073779454
8	0xbdf851e0	-0.121249914
9	0x3dcbac86	0.099450156
10	0x3e52bce0	0.20579863
11	0x3e0613ed	0.13093539
12	0x3df140e0	0.11779952
13	0x3d3afdb9	0.045652125
14	0xbe11cb98	-0.14237821
15	0xbe41e8ee	-0.18936512
16	0xbe355fd8	-0.17712343
17	0x3e1f0c8a	0.15532127
18	0xbe2b9021	-0.167542
19	0x3dedc386	0.11609559
20	0xbbc4e42f	-0.006008647
21	0x3db8cd57	0.090235405
22	0x3c08439f	0.008316903
23	0xbe10216e	-0.14075252
24	0x3de0f083	0.10983374
25	0x3db6741f	0.08908867
26	0x3e26ae67	0.16277467
27	0xbe2d7e75	-0.16942771
28	0xbe8163a1	-0.25271323
29	0xbe0cf538	-0.13765419
30	0xbe1badeb	-0.15203063
31	0xbe3f4de6	-0.1868206
32	0xbd09cbc1	-0.03364158
33	0xbd5ed4fe	-0.054402344
34	0xbe1a9a17	-0.15097843
35	0xbba11341	-0.0049156253
36	0xbe651bd6	-0.223739
37	0x3e1a2f37	0.15057074
38	0xbcd517a5	-0.026012251
39	0x3ba9eaed	0.005185476
40	0xbe2d09dd	-0.16898294
41	0xbd827d4d	-0.063715555
42	0xbe2229ba	-0.1583623
43	0xbd7d0140	-0.06176877
44	0xbe04c3ba	-0.12965289
45	0xbe14c422	-0.14527944
46	0x3dfaa777	0.12238973
47	0x3c8036f1	0.015651198
48	0xbb74fe47	-0.0037383006
49	0xbdd27121	-0.10275484
50	0xbdfbc979	-0.12294287
51	0x3e1ee13a	0.15515605
52	0x3e1653ef	0.14680456
53	0x3de7221a	0.11285801
54	0xbe05ae4e	-0.13054773
55	0x3daf18e5	0.0854967
56	0xbdff3469	-0.12461168
57	0x3de87bd2	0.11351742
58	0x3e453bec	0.1926114
59	0x3d266926	0.04062762
60	0x3db8ee4a	0.09029825
61	0x3e113a86	0.14182481
62	0x3e5dd02f	0.21661447
63	0x3de6c4cd	0.112680055

batch_norm.running_mean f4 [64]
0	0x1eb2f868	1.8949221e-20
1	0x00000004	6e-45
2	0x00000004	6e-45
3	0x4047f420	3.1242752
4	0x4007d4a3	2.1223533
5	0x407fe612	3.9984174
6	0x407fb51a	3.9954286
7	0x3fd74ffc	1.6821284
8	0x00000004	6e-45
9	0x4065ef85	3.592744
10	0x00000004	6e-45
11	0x40adfa87	5.436832
12	0x00000004	6e-45
13	0x4077422b	3.8634136
14	0x00000004	6e-45
15	0x00000004	6e-45
16	0x00000004	6e-45
17	0x00000004	6e-45
18	0x4040f489	3.0149252
19	0x3f9d168d	1.2272507
20	0x404cd861	3.2007067
21	0x4053700d	3.303714
22	0x4093e7a2	4.6220255
23	0x00000004	6e-45
24	0x00000004	6e-45
25	0x40013278	2.0187054
26	0x00000004	6e-45
27	0x00000004	6e-45
28	0x3fe2a711	1.7707235
29	0x00000000	0.0
30	0x00000004	6e-45
31	0x00000004	6e-45
32	0x4026351c	2.5969915
33	0x3fee22da	1.8604386
34	0x15456077	3.985993e-26
35	0x40ae3816	5.4443464
36	0x3ff677fe	1.9255369
37	0x00000004	6e-45
38	0x3ffe5163	1.9868587
39	0x00000004	6e-45
40	0x0049734f	6.745356e-39
41	0x41302887	11.009894
42	0x40a92f9d	5.287062
43	0x405624b7	3.345991
44	0x4001a9ac	2.025981
45	0x00000004	6e-45
46	0x00000000	0.0
47	0x3ff66378	1.9249105
48	0x4001a542	2.0257115
49	0x00000004	6e-45
50	0x00000004	6e-45
51	0x00000004	6e-45
52	0x00000004	6e-45
53	0x00000000	0.0
54	0x00000004	6e-45
55	0x40995d5f	4.792648
56	0x00000004	6e-45
57	0x3f82be69	1.0214359
58	0x00000004	6e-45
59	0x402ad93d	2.6695092
60	0x407ac4dc	3.9182653
61	0x00000004	6e-45
62	0x00000004	6e-45
63	0x00000004	6e-45

batch_norm.running_var f4 [64]
0	0x1cce83bc	1.3665989e-21
1	0x00000004	6e-45
2	0x00000004	6e-45
3	0x4022f688	2.546297
4	0x3f8433c4	1.0328298
5	0x3fa3599f	1.2761725
6	0x3f5fed0c	0.8747108
7	0x3fd2fbf5	1.6483141
8	0x00000004	6e-45
9	0x3f996232	1.1983092
10	0x00000004	6e-45
11	0x3f9418dc	1.1570086
12	0x00000004	6e-45
13	0x3fb3da2f	1.4050959
14	0x00000004	6e-45
15	0x00000004	6e-45
16	0x00000004	6e-45
17	0x00000004	6e-45
18	0x400cc9b2	2.1998105
19	0x3f796103	0.97413653
20	0x401c2787	2.4399126
21	0x3f933a2d	1.1502129
22	0x3ffc758b	1.9723371
23	0x00000004	6e-45
24	0x00000004	6e-45
25	0x4000b830	2.011242
26	0x00000004	6e-45
27	0x00000004	6e-45
28	0x4007b431	2.120373
29	0x00000004	6e-45
30	0x00000004	6e-45
31	0x00000004	6e-45
32	0x3fa21dc0	1.2665329
33	0x3f6dbb05	0.92863494
34	0x15024312	2.63062e-26
35	0x3faeb760	1.3649712
36	0x3f81a8ba	1.0129616
37	0x00000004	6e-45
38	0x3f583358	0.84453344
39	0x00000004	6e-45
40	0x001a1e57	2.398607e-39
41	0x4037829f	2.8673475
42	0x3f34ecec	0.70674014
43	0x3fde2034	1.7353578
44	0x3f799629	0.9749475
45	0x00000004	6e-45
46	0x00000004	6e-45
47	0x3f862cba	1.04824
48	0x3fadbdee	1.3573587
49	0x00000004	6e-45
50	0x00000004	6e-45
51	0x00000004	6e-45
52	0x00000004	6e-45
53	0x00000004	6e-45
54	0x00000004	6e-45
55	0x3fb9482b	1.4475149
56	0x00000004	6e-45
57	0x3f4d5b0f	0.8021707
58	0x00000004	6e-45
59	0x3fa4fc6a	1.2889531
60	0x3fefcbc6	1.8734062
61	0x00000004	6e-45
62	0x00000004	6e-45
63	0x00000004	6e-45
