models/Mrs. GREEN APPLE/classifier_fold2.pth (torch, 991712 bytes, 16 tensors)

conv_layers.0.weight f4 [64, 256, 2]
-0.0052339644 0.05600465 -0.008009269 0.034645468 -0.024569249 -0.051766835 -0.086737454 0.03554921
-0.023689317 -0.039429005 -0.0970244 -0.10613459 -0.018928904 -0.0049838857 0.027897684 -0.041795585
0.09533608 0.02861868 -0.019955765 0.0122255115 0.015650878 -0.039742853 -0.09764583 -0.084641196
0.040198114 -0.024798661 0.00054579624 0.022638785 0.031114016 -0.00067798106 0.018367782 0.0030196344
0.069011845 0.0758201 -0.043444887 -0.008830988 -0.05183799 -0.0025072026 -0.047310386 -0.028987024
0.04167061 -0.033855952 -0.02063947 -0.043117497 0.041836686 -0.019808693 0.019864134 0.017080555
0.023717321 0.08254828 0.10698707 0.025486847 0.006697622 -0.042318176 0.027979326 0.0015551059
0.006929336 -0.008917544 -0.13026181 -0.01202742 -0.005601477 0.03864339 0.010098275 -0.048271958
0.068004645 0.07741838 0.004483314 0.062991306 -0.040354613 0.027060866 0.020368375 0.07457045
0.002930259 -0.043185994 -0.02206785 -0.026738923 0.046483714 0.013069834 0.011048321 -0.027947655
-0.0736929 0.06703889 0.004913061 -0.039584633 -0.0030270307 0.044529464 -0.060795724 -0.062249597
-0.07305523 0.0052830568 0.037911255 0.020008938 0.008469776 -0.06953426 -0.016017014 -0.0019010577
0.029982042 0.0031162647 -0.09132565 0.027846009 0.032667123 -0.050108463 -0.008210639 -0.04821776
-0.04445174 0.0076882155 -0.033422306 -0.034540452 0.023635274 -0.05238228 -0.041674823 -0.027662758
0.025017554 -0.03413265 0.07307366 0.0038359836 -0.04887632 -0.022938447 0.023401361 -0.00086575566
0.044648048 0.02935037 -0.076363474 -0.1159676 -0.013960907 0.039718222 0.05770304 -0.005214208
-0.020358603 -0.06460769 0.004897351 0.016135817 0.021007648 -0.058305483 0.0031996362 -0.046689294
0.029603444 -0.05992896 -0.049505547 0.04769873 0.08337545 -0.05858223 0.0499227 -0.004293003
-0.036285814 -0.011807683 -0.010291647 0.017484836 -0.051624134 -0.04162852 -0.0607565 0.015135495
-0.0010331038 0.0065262523 -0.02544575 0.08897585 -0.011608859 -0.076411895 -0.008705008 -0.0019041119
0.0241262 -0.009850567 -0.03923941 -0.039535504 0.013982965 0.032828372 0.01209757 -0.03687618
-0.066530704 0.03282845 0.0068434486 0.021153033 -0.027724136 -0.025845943 0.024243578 -0.023479868
-0.008707603 -0.025220914 0.10499277 -0.042502064 0.07524368 0.066495374 -0.03073379 -0.037155602
-0.028746337 -0.045136664 0.059940133 0.02386239 0.028426738 -0.030497748 -0.043594282 -0.10132714
-0.054111708 -0.00955406 -0.002133456 0.061190445 0.028746486 0.009005664 0.005434356 -0.0051734336
0.006205908 -0.060653128 0.055793975 -0.05769193 0.00570865 0.022653174 0.037294306 0.07957585
-0.009959272 -0.037146546 -0.06816562 0.05141575 -0.052197233 0.003479835 0.061462793 -0.014808365
-0.0732041 0.022981482 0.07547071 -0.02117353 0.00080959004 0.026939968 0.0034305023 0.021090878
-0.105617575 -0.019185182 0.038389187 0.00625589 0.024594154 -0.04031402 0.015318986 0.0057659457
0.060950067 0.006822379 0.08342452 -0.04411101 0.005915819 0.031871326 0.07057386 0.007556568
-0.089392975 0.024972532 0.061971236 0.05373768 0.061107885 0.055018187 0.14272031 -0.036280215
0.025181321 0.025076248 -0.04151967 -0.040341977 -0.03630426 -0.03087316 0.022449108 0.03195047
00000000: ad81 abbb 2265 653d 4f39 03bc 68e8 0d3d
00000010: 7345 c9bc 7609 54bd 68a3 b1bd 0c9c 113d
00000020: 1910 c2bc 4f80 21bd bbb4 c6bd 185d d9bd
00000030: ca10 9bbc dd4f a3bb af89 e43c d931 2bbd
00000040: 903f c33d b971 ea3c 467a a3bc 834d 483c
00000050: 4536 803c 67c9 22bd 89fa c7bd 5d58 adbd
00000060: c7a6 243d 9026 cbbc c413 0f3a f974 b93c
00000070: d2e2 fe3c 8aba 31ba 0878 963c 0fe5 453b
00000080: 1556 8d3d 9247 9b3d 44f3 31bd d9af 10bc
00000090: 1254 54bd e14f 24bb 89c8 41bd 3276 edbc
000000a0: cdae 2a3d 8aac 0abd 1b14 a9bc f99b 30bd
000000b0: f25c 2b3d d745 a2bc 1cba a23c 85ec 8b3c
000000c0: d44a c23c 130f a93d 091c db3d cbc9 d03c
000000d0: ba77 db3b d355 2dbd e634 e53c b2d4 cb3a
000000e0: 7c0f e33b e41a 12bc 5a63 05be a80e 45bc
000000f0: 988c b7bb 8848 1e3d 3c73 253c d1b8 45bd
00000100: 0546 8b3d 878d 9e3d c4e8 923b 9601 813d
00000110: e14a 25bd c0ae dd3c 94db a63c 64b8 983d
00000120: 9709 403b cce3 30bd a3c7 b4bc 960b dbbc
00000130: b565 3e3d db22 563c 0404 353c 7bf2 e4bc
00000140: 4eec 96bd b04b 893d befd a03b 7f23 22bd
00000150: 2661 46bb 8764 363d f004 79bd 6ff9 7ebd
00000160: fb9d 95bd 7e1d ad3b d548 1b3d c9e9 a33c
00000170: d1c4 0a3c fa67 8ebd 1d36 83bc e92c f9ba
00000180: e69c f53c 3f3a 4c3b f108 bbbd 501d e43c
00000190: f6cd 053d 883e 4dbd ea85 06bc fc7f 45bd
000001a0: 0713 36bd 6ded fb3b d4e5 08bd 4a7a 0dbd
000001b0: c39e c13c cd8e 56bd 38b3 2abd 029d e2bc
000001c0: 9df1 cc3c adce 0bbd a5a7 953d 2065 7b3b
000001d0: 8932 48bd 69e9 bbbc 36b4 bf3c e1f3 62ba
000001e0: dfe0 363d 3070 f03c 7464 9cbd 6c80 edbd
000001f0: 4abc 64bc 93af 223d 065a 6c3d f2db aabb
00000200: 16c7 a6bc 0951 84bd f579 a03b 432f 843c
00000210: 3b18 ac3c bbd1 6ebd fdb0 513b 463d 3fbd
00000220: ec82 f23c 1278 75bd 54c6 4abd be5f 433d
00000230: bfc0 aa3d ecf3 6fbd bf7b 4c3d 52ac 8cbb
00000240: 6fa0 14bd 0375 41bc 4c9e 28bc 5c3c 8f3c
00000250: d473 53bd ab82 2abd cfdb 78bd defa 773c
00000260: 3669 87ba 2cda d53b 9b73 d0bc f838 b63d
00000270: 1533 3ebc d77d 9cbd 739f 0ebc 6593 f9ba
00000280: 4fa4 c53c 4664 21bc 81b9 20bd fbef 21bd
00000290: ce18 653c 0b77 063d e334 463c 7a0b 17bd
000002a0: 4041 88bd 2077 063d 023f e03b 2049 ad3c
000002b0: ba1d e3bc dfba d3bc 789a c63c da58 c0bc
000002c0: 56aa 0ebc 179c cebc 7306 d73d a516 2ebd
000002d0: 5c19 9a3d ba2e 883d 6ec5 fbbc 7930 18bd
000002e0: 707d ebbc 39e1 38bd c983 753d 0f7b c33c
000002f0: 31df e83c 6ad6 f9bc eb8f 32bd 9b84 cfbd
00000300: 3da4 5dbd a288 1cbc 74d1 0bbb d5a2 7a3d
00000310: c07d eb3c 7e8c 133c af12 b23b e885 a9bb
00000320: ee5a cb3b 6a6f 78bd 3988 643d 604e 6cbd
00000330: a10f bb3b 2693 b93c eac1 183d aaf8 a23d
00000340: 372c 23bc fa26 18bd 6b9a 8bbd 5299 523d
00000350: c4cc 55bd f20d 643b 69c0 7b3d c99e 72bc
00000360: 08ec 95bd a943 bc3c 6390 9a3d 1c74 adbc
00000370: ab3a 543a 35b1 dc3c 47d2 603b c7c6 ac3c
00000380: 074e d8bd 3e2a 9dbc fb3d 1d3d 35fe cc3b
00000390: ae79 c93c 5020 25bd 7cfc 7a3c 42f0 bc3b
000003a0: c7a6 793d 438e df3b 7ada aa3d bfad 34bd
000003b0: 7dd9 c13b 828b 023d 0789 903d 169d f73b
000003c0: aa13 b7bd 3293 cc3c 8dd5 7d3d 0b1c 5c3d
000003d0: 434c 7a3d c05a 613d 4625 123e 909a 14bd
000003e0: 0f49 ce3c b46c cd3c 8810 2abd a13d 25bd
000003f0: c7b3 14bd b6e9 fcbc 31e7 b73c 7fde 023d

conv_layers.0.bias f4 [64]
-0.028638802 0.0892998 -0.021889655 -0.058611434 0.09730928 0.032928105 -0.06113789 -0.004252447
-0.07409689 -0.112511665 0.06269742 0.067761265 0.020281665 0.01606833 -0.015673954 -0.02630286
-0.0011655184 0.041148905 0.09214554 -0.028054256 0.015793575 0.11650297 0.01384456 0.0024749958
0.08396942 -0.06006308 0.03530662 -0.032028154 -0.06490925 -0.017203653 -0.0073302304 0.032511856
-0.100465976 0.097037785 -0.06535262 0.03748416 0.074096836 -0.017366413 -0.04880907 0.098697625
-0.019810257 -0.0699678 0.0033673907 -0.03811592 0.025709756 0.0043128706 -0.048045285 0.01652741
-0.061110675 0.00770707 0.046715673 0.02428798 -0.073831744 0.009257009 0.028900092 0.0326064
-0.036456406 -0.04331393 0.10924489 0.05161256 0.027223561 -0.10353353 -0.020053443 -0.027964443
00000000: ec9b eabc d0e2 b63d ef51 b3bc 8b12 70bd
00000010: 164a c73d 9fdf 063d b96b 7abd 1c58 8bbb
00000020: 1cc0 97bd 846c e6bd 8167 803d 6bc6 8a3d
00000030: bc25 a63c bba1 833c aa66 80bc 1879 d7bc
00000040: 4fc4 98ba c18b 283d cdb6 bc3d 0ad2 e5bc
00000050: 8761 813c 1c99 ee3d 4bd4 623c 8a33 223b
00000060: 29f8 ab3d b404 76bd ad9d 103d f42f 03bd
00000070: 24ef 84bd adee 8cbc 6e32 f0bb 272b 053d
00000080: 1bc1 cdbd bfbb c63d 98d7 85bd fe88 193d
00000090: 15c0 973d 0244 8ebc 05ec 47bd fb21 ca3d
000000a0: 1f49 a2bc 474b 8fbd 71af 5c3b 701f 1cbd
000000b0: 449d d23c fb52 8d3b 22cb 44bd 7e64 873c
000000c0: 304f 7abd 978b fc3b ef58 3f3d 96f7 c63c
000000d0: 1935 97bd b6aa 173c e3bf ec3c 4a8e 053d
000000e0: 5053 15bd f369 31bd c9bb df3d b167 533d
000000f0: f203 df3c 6309 d4bd 1e47 a4bc b015 e5bc

conv_layers.1.weight f4 [64, 256, 3]
-0.03694226 0.009607008 0.011705465 0.0395235 0.07896302 0.04550766 -0.049014565 0.04168156
0.066423066 0.05333356 0.0001895001 -0.054725498 -0.039381947 -0.044353347 0.08812092 0.11139839
-0.014357194 -0.00055551983 -0.055840403 -0.047407832 0.061314717 -0.039622262 0.0018726893 0.0060564103
0.029077776 -0.07184392 -0.047211718 0.06016575 0.01200867 -0.04628325 -0.06157923 -0.11782026
-0.07552586 0.032613553 -0.035064433 0.04400319 0.013647237 0.027915128 0.09681661 0.06418489
0.011194255 -0.044644736 0.024418179 0.033196513 -0.02415303 0.029885834 0.0813154 -0.031947166
0.0075639174 -0.027365766 0.0035640665 0.06284845 -0.021700386 0.033872705 -0.0011000761 -0.053463403
-0.020394405 0.012478266 0.04496806 0.048530113 -0.042386256 0.15547742 0.119920075 0.041788105
-0.03670566 0.0015598183 0.043427832 -0.035682738 0.018303242 -0.054243293 0.052108373 -0.003145837
-0.04821697 0.07605556 0.0067809853 -0.0053445967 0.011092218 0.011407095 -0.05134295 -0.047766276
-0.021109905 0.079523236 0.028724464 -0.04168114 -0.013944798 -0.00295135 -0.0566225 0.0069469223
0.028605612 -0.08435043 -0.011373392 0.011190501 -0.0021681513 -0.034583736 0.042366486 0.0053133434
-0.21800648 0.0030395228 -0.09026032 0.03109441 0.045812823 -0.050052933 -0.0017074704 -0.031984065
-0.029505152 -0.023963831 0.104119316 0.057978667 -0.02959591 -0.022760987 -0.04046292 0.030346433
-0.021137357 0.014114703 -0.033029206 0.11484188 0.09171465 -0.000259923 -0.0130904075 -0.01596264
0.08416648 -0.061017267 -0.0021229568 0.020210082 0.0012480288 -0.045867108 0.0976915 0.00093165215
-0.043784887 -0.017838959 -0.0098038055 -0.008048291 -0.09074804 0.00313273 -0.03738242 -0.011484128
0.02953404 -0.032124687 0.028464383 0.017400973 0.053510856 0.030382859 0.07906206 -0.004848023
-0.041636366 0.0010937406 -0.06270193 0.07005989 0.016512487 -0.08260749 -0.03417003 0.13819867
-0.009584215 0.018629152 -0.04486889 0.005285295 0.020108562 -0.06658144 0.0034377808 -0.041861363
-0.056768797 -0.08654271 0.0056276075 0.032981038 0.066621065 -0.080610745 -0.0017175905 -0.069916874
0.0031240922 -0.012886421 0.051159803 -0.05348623 -0.03562048 0.00940805 0.06210095 0.017227167
0.010126709 0.09373863 -0.06735496 0.0019588433 0.0065645776 -0.017588217 -0.06262299 0.07982011
-0.121039174 -0.03776151 -0.04596437 -0.004026049 -0.018028764 0.011405421 -0.0351775 0.005407447
0.044107668 -0.047941905 -0.004610198 0.07949086 0.011802906 0.031946596 0.007815418 -0.0007648331
-0.043086454 -0.10555556 0.014121622 -0.019643439 -0.035369605 0.058517903 0.08253406 0.011424309
-0.048760153 -0.10637453 0.0036331103 -0.06820881 -0.049824685 0.110799484 -0.023316767 0.0027002122
0.023107357 -0.03748778 0.041187335 0.06339599 0.028765561 -0.047959384 -0.0070560398 -0.048330784
-0.056128047 -0.01550874 0.005004011 -0.03497434 -0.0057361596 0.06251047 0.039160687 0.061355844
0.015475226 -0.01970144 -0.05642042 0.052951705 -0.039352905 0.005215596 0.051870935 -0.024996927
0.007455817 -0.004459494 -0.07898186 0.027022233 -0.047731325 0.04433071 -0.030085651 0.015221693
-0.017059017 -0.06704145 0.086494185 0.040978428 0.015791232 0.007676156 0.10259608 0.034107383
00000000: c450 17bd b666 1d3c 47c8 3f3c 65e3 213d
00000010: 5db7 a13d 3d66 3a3d 7fc3 48bd 49ba 2a3d
00000020: d108 883d 4a74 5a3d 8cb4 4639 d827 60bd
00000030: f74e 21bd dbab 35bd be78 b43d d724 e43d
00000040: 703a 6bbc 4ea0 11ba e8b8 64bd b72e 42bd
00000050: 2425 7b3d f44a 22bd 0775 f53a da74 c63b
00000060: 8434 ee3c e822 93bd 1361 41bd 5d70 763d
00000070: 03c0 443c 8193 3dbd 813a 7cbd c04b f1bd
00000080: 4dad 9abd ca95 053d b99f 0fbd b03c 343d
00000090: a998 5f3c 44ae e43c c947 c63d 5e73 833d
000000a0: 1c68 373c 66dd 36bd a208 c83c 11f9 073d
000000b0: 93dc c5bc 23d3 f43c b088 a63d 08db 02bd
000000c0: bdda f73b 2c2e e0bc 1d93 693b b0b6 803d
000000d0: 02c5 b1bc 1bbe 0a3d 6e30 90ba 71fc 5abd
000000e0: 2b12 a7bc a471 4c3c 6e30 383d 83c7 463d
000000f0: 369d 2dbd 7935 1f3e a898 f53d 012a 2b3d
00000100: ad58 16bd d172 cc3a 62e1 313d 1028 12bd
00000110: aef0 953c 372e 5ebd 976f 553d 632a 4ebb
00000120: 287f 45bd 04c3 9b3d 0733 de3b ba21 afbb
00000130: 22bc 353c d3e4 3a3c fc4c 52bd 92a6 43bd
00000140: aeee acbc 14dd a23d 914f eb3c d8b9 2abd
00000150: b978 64bc 706b 41bb ffec 67bd 02a3 e33b
00000160: 5156 ea3c ebbf acbd 7757 3abc 5d58 373c
00000170: 8b17 0ebb ada7 0dbd 7b88 2d3d 8e1b ae3b
00000180: 173d 5fbe bb32 473b 67da b8bd b4b9 fe3c
00000190: 3aa6 3b3d 4e04 4dbd 33cd dfba b901 03bd
000001a0: cab4 f1bc cc4f c4bc 823c d53d 0a7b 6d3d
000001b0: 1f73 f2bc 4075 babc 72bc 25bd 1599 f83c
000001c0: 4028 adbc 5b41 673c a249 07bd 3832 eb3d
000001d0: e4d4 bb3d 4646 88b9 2679 56bc 15c4 82bc
000001e0: 7a5f ac3d 3eed 79bd 4e21 0bbb 9d8f a53c
000001f0: e694 a33a 26df 3bbd 7b12 c83d 1e3a 743a
00000200: c857 33bd 0223 92bc 24a0 20bc fbdc 03bc
00000210: 1cda b9bd 7d4e 4d3b 4f1e 19bd ed27 3cbc
00000220: 5ff1 f13c 2d95 03bd 232e e93c 7c8c 8e3c
00000230: 332e 5b3d 79e5 f83c 4aeb a13d 2adc 9ebb
00000240: e58a 2abd d85b 8f3a df69 80bd 8f7b 8f3d
00000250: 3245 873c 1e2e a9bd e0f5 0bbd f483 0d3e
00000260: 1c07 1dbc 2a9c 983c 71c8 37bd 4530 ad3b
00000270: b6ba a43c da5b 88bd 644c 613b d276 2bbd
00000280: 6686 68bd 4e3d b1bd cb67 b83b 2017 073d
00000290: a070 883d 3f17 a5bd c620 e1ba 9430 8fbd
000002a0: 92bd 4c3b 9121 53bc f18c 513d 6114 5bbd
000002b0: c8e6 11bd 3924 1a3c 915d 7e3d fd1f 8d3c
000002c0: 7fea 253c 0afa bf3d 66f1 89bd f05f 003b
000002d0: ab1b d73b 2a15 90bc 7b40 80bd ba78 a33d
000002e0: 63e3 f7bd d0ab 1abd 2345 3cbd f2ec 83bb
000002f0: 0fb1 93bc cedd 3a3c 4816 10bd f430 b13b
00000300: 3eaa 343d bb5e 44bd 2511 97bb 1bcc a23d
00000310: fa60 413c 6fda 023d 3d0c 003c 157f 48ba
00000320: 6c7b 30bd 832d d8bd 605e 673c 47eb a0bc
00000330: b8df 10bd 78b0 6f3d 9e07 a93d 062d 3b3c
00000340: bab8 47bd e4da d9bd 7a19 6e3b 10b1 8bbd
00000350: f814 4cbd d7ea e23d ce02 bfbc 0bf6 303b
00000360: a44b bd3c c98c 19bd 0db4 283d c2d5 813d
00000370: c1a5 eb3c 0f71 44bd 5a36 e7bb 80f6 45bd
00000380: 86e6 65bd 5f18 7ebc b0f8 a33b 4141 0fbd
00000390: 65f6 bbbb 7d05 803d f566 203d 4450 7b3d
000003a0: cd8b 7d3c ea64 a1bc 1919 67bd e3e3 583d
000003b0: 8330 21bd 97e7 aa3b 9e76 543d 5bc6 ccbc
000003c0: ed4f f43b f220 92bb 3ec1 a1bd bb5d dd3c
000003d0: ec81 43bd 1e94 353d 2f76 f6bc 6864 793c
000003e0: 5abf 8bbc 074d 89bd dd23 b13d ffd8 273d
000003f0: 9d5c 813c 4388 fb3b e51d d23d 2fb4 0b3d

conv_layers.1.bias f4 [64]
-0.13303173 -0.016019069 -0.06722517 0.007255159 0.022375723 0.035063658 0.07337896 0.09644959
-0.016094219 0.008034856 -0.001261307 0.077917956 -0.005137438 -0.050180685 -0.09319127 -0.037241165
-0.07549715 0.016708057 0.0023690867 -0.066063404 0.0146305775 -0.010113717 0.11949778 -0.050995197
0.09287283 0.022970578 0.05138972 -0.004955088 0.06670594 0.02422169 -0.05090342 0.038564898
0.04189592 0.026799101 -0.023627952 -0.0012630704 -0.032824963 0.07017456 0.02797155 -0.00051515136
-0.052526418 0.0057716174 0.045700364 0.015419315 0.04325297 -0.03129786 -0.0031526892 0.049241308
-0.023394056 0.025487116 0.06552182 -0.0076692444 0.019493265 -0.01159145 0.0064050695 0.034788765
0.060353532 0.027619822 -0.044185765 -0.08341669 0.06740832 0.024918757 -0.04701838 -0.083484985
00000000: 7839 08be 6c3a 83bc 5aad 89bd afbc ed3b
00000010: 4b4d b73c e99e 0f3d b547 963d 5d87 c53d
00000020: 06d8 83bc a1a4 033c 7152 a5ba 7393 9f3d
00000030: f457 a8bb 438a 4dbd 11db bebd 318a 18bd
00000040: 409e 9abd 56df 883c ae42 1b3b 404c 87bd
00000050: 17b5 6f3c 01b4 25bc 41bb f43d 57e0 50bd
00000060: 1c34 be3d cb2c bc3c 077e 523d 4a5e a2bb
00000070: 209d 883d 916c c63c 1b80 50bd 3af6 1d3d
00000080: 0e9b 2b3d ca89 db3c 688f c1bc 9c8d a5ba
00000090: 7873 06bd aeb7 8f3d 9824 e53c 390b 07ba
000000a0: f125 57bd d61f bd3b 4e30 3b3d 4ba1 7c3c
000000b0: 072a 313d 2f32 00bd 599d 4ebb 41b1 493d
000000c0: e4a4 bfbc 5bca d03c 4e30 863d 494e fbbb
000000d0: 57b0 9f3c 11ea 3dbc 9ee1 d13b aa7e 0e3d
000000e0: 4435 773d f742 e23c 22fc 34bd 5fd6 aabd
000000f0: 600d 8a3d 6c22 cc3c 5896 40bd 2dfa aabd

conv_layers.2.weight f4 [64, 256, 4]
0.016109945 -0.05623347 -0.0037035628 0.004809915 -0.058234908 0.21156728 0.057392437 0.015496864
-0.073057905 0.025099259 -0.0068304455 0.021961238 0.06500737 -0.028989615 -0.035007294 -0.02415215
-0.03585759 -0.008065783 -0.101117864 -0.047685508 -0.019808808 0.013556013 -0.036626842 -0.034129713
0.045629792 -0.0037157186 0.019690886 -0.0017867961 0.082286224 0.05917943 0.033570442 -0.0058489684
0.031207377 -0.01807375 -0.06372497 -0.014550973 0.0043002693 0.018390704 -0.038541622 0.039822087
0.079052806 0.016874906 -0.014165004 -0.06319801 -0.046107303 -0.01285507 0.011414001 0.009931596
0.013578694 0.0613843 -0.06447947 0.037146922 -0.031793505 0.037683237 0.074344456 -0.020380449
-0.040041693 -0.004456866 0.029379006 -0.06823908 0.0024029012 0.0030333688 0.033898395 0.019530745
-0.074468754 0.020274986 0.058017634 0.045955185 0.02403561 -0.034562662 -0.033326734 0.017591527
-0.015837692 -0.001453348 -0.056169815 0.009293036 -0.027991548 0.04600668 -0.040157314 0.0358523
-0.078786485 0.019902185 0.0027480738 0.049975194 -0.024288377 -0.06231323 0.081112586 0.04832866
-0.060141716 0.033720355 -0.05602537 0.05348877 0.020453254 0.061791085 -0.07864383 -0.01804826
-0.015496476 -0.044752963 -0.016388232 0.092560224 0.02698903 -0.019302247 0.028733822 0.031434163
0.007363553 -0.078786895 -0.030827185 0.034892324 0.012482875 -0.050694928 -0.03187162 0.061301384
-0.099295646 0.0064546927 -0.053106695 0.00056250556 -0.0038065582 -0.053699333 -0.077824734 0.06986836
0.07518924 -0.07057447 0.06956657 -0.062813096 -0.012726712 -0.014847373 0.055229995 -0.026654072
0.026523372 -0.030957785 -0.029501805 0.0484809 -0.013232842 0.018913819 0.03342788 -0.0012059504
0.017081402 -0.043925643 -0.03375085 -0.028920233 0.026926653 -0.03631083 0.09708846 -0.048340898
-0.013727537 0.048565626 0.037262406 -0.102628805 -0.044920165 0.064431444 -0.01028399 -0.094433635
-0.020828798 0.068588436 0.0774803 0.05847252 0.014303884 0.055547286 -0.08859249 -0.0037973048
0.016929016 0.008291524 0.04918042 0.012269496 -0.06172374 -0.1170752 0.08247627 -0.030937988
-0.0538008 0.005070024 0.00029313896 -0.025443854 -0.014637859 -0.014420715 0.02324289 0.029196652
0.062301327 0.007076755 0.01023602 0.01841003 -0.027199361 -0.030280262 0.091888964 -0.046623614
0.0022229939 0.052605 -0.016448565 0.0046660258 -0.03475208 -0.00934005 0.09707166 0.009715921
-0.061127402 -0.0057634357 -0.01775869 0.0053355196 0.04075337 0.007681353 0.039349746 0.039057836
0.06507076 -0.07864991 -0.08889796 0.09615558 0.046352923 -0.0033666221 -0.016114658 0.051676095
0.022939498 0.07565518 -0.0017502457 -0.08619018 0.04213084 -0.12283501 0.007216596 -0.063866705
-0.009896204 -0.0451382 -0.017671049 -0.0153593775 -0.01318376 -0.046910826 -0.032884005 0.045524746
-0.0073122634 0.02026487 -0.0646422 -0.025799306 -0.07870406 -0.019334568 0.059356127 -0.0073727733
0.0570742 0.025620425 -0.061555933 0.073094696 0.046949163 -0.022893451 0.10106927 -0.07658613
-0.048302423 -0.025913915 -0.02477013 -0.0452698 0.0012987276 0.042380568 -0.029296206 0.013301389
0.010151488 0.0009883498 0.09350731 0.012530711 -0.02291722 0.012261229 0.070297964 0.057029482
00000000: 01f9 833c 1155 66bd 79b7 72bb 7e9c 9d3b
00000010: ba87 6ebd 18a5 583e 5514 6b3d 8fe6 7d3c
00000020: 629f 95bd f69c cd3c eed1 dfbb 0ee8 b33c
00000030: 9622 853d a17b edbc cf63 0fbd bbda c5bc
00000040: 69df 12bd 5926 04bc e216 cfbd e151 43bd
00000050: 1546 a2bc 0a1a 5e3c 0706 16bd 99cb 0bbd
00000060: 4ee6 3a3d 6a83 73bb c84e a13c ee32 eaba
00000070: ae85 a83d 2166 723d 2981 093d b4a8 bfbb
00000080: 9da6 ff3c 670f 94bc 3d82 82bd 3467 6ebc
00000090: 46e9 8c3b 1aa8 963c d2dd 1dbd 7c1c 233d
000000a0: 70e6 a13d 3e3d 8a3c 5514 68bc f56d 81bd
000000b0: 03db 3cbd 129e 52bc ca01 3b3c 22b8 223c
000000c0: 2c79 5e3c 1b6e 7b3d d00d 84bd 5f27 183d
000000d0: e839 02bd bd59 1a3d e841 983d e6f4 a6bc
000000e0: c202 24bd e70a 92bb 3eac f03c eec0 8bbd
000000f0: fe79 1d3b 7ccb 463b 0bd9 0a3d f1fe 9f3c
00000100: 1383 98bd ba17 a63c e6a3 6d3d 813b 3c3d
00000110: 54e6 c43c 9491 0dbd 9d81 08bd 1b1c 903c
00000120: 0cbe 81bc 447e beba 5212 66bd d141 183c
00000130: 884e e5bc 8071 3c3d ff7b 24bd dcd9 123d
00000140: cf5a a1bd e809 a33c 0719 343b cab2 4c3d
00000150: 6bf8 c6bc 283c 7fbd 5b1e a63d 46f4 453d
00000160: 2957 76bd 5b1e 0a3d dc7a 65bd 0a17 5b3d
00000170: 958d a73c a618 7d3d 0410 a1bd f2d9 93bc
00000180: eee4 7dbc e24e 37bd 9d40 86bc 3790 bd3d
00000190: 1918 dd3c bf1f 9ebc 3163 eb3c 1cc1 003d
000001a0: f649 f13b 065b a1bd 4b89 fcbc 41eb 0e3d
000001b0: f984 4c3c 7ca5 4fbd d18b 02bd 2917 7b3d
000001c0: 845b cbbd e381 d33b 6886 59bd 1c75 133a
000001d0: 7377 79bb d5f3 5bbd 9362 9fbd 2517 8f3d
000001e0: d1fc 993d 5989 90bd eb78 8e3d 27a4 80bd
000001f0: b383 50bc 6542 73bc d938 623d a459 dabc
00000200: 8b47 d93c 2e9b fdbc c5ad f1bc e893 463d
00000210: 90ce 58bc 27f1 9a3c aceb 083d fb10 9eba
00000220: 4cee 8b3c 60eb 33bd 553e 0abd 20ea ecbc
00000230: 4995 dc3c aaba 14bd 51d6 c63d 1b01 46bd
00000240: 77e9 60bc c0ec 463d 77a0 183d 0d2f d2bd
00000250: 35fe 37bd a2f4 833d 2e7e 28bc 6c66 c1bd
00000260: 28a1 aabc 1878 8c3d fead 9e3d e280 6f3d
00000270: d65a 6a3c 8d85 633d fb6f b5bd 34dc 78bb
00000280: b8ae 8a3c 2cd9 073c 6871 493d ff05 493c
00000290: 08d2 7cbd 1fc5 efbd 52e9 a83d aa71 fdbc
000002a0: 3a5e 5cbd 7222 a63b 72b0 9939 a16f d0bc
000002b0: a1d3 6fbc dd44 6cbc e067 be3c d12d ef3c
000002c0: ad2f 7f3d 20e4 e73b fbb4 273c a2d0 963c
000002d0: 32d1 debc 500e f8bc 4830 bc3d 67f8 3ebd
000002e0: a6af 113b 5778 573d 24bf 86bc 76e5 983b
000002f0: 3258 0ebd 0207 19bc 82cd c63d 872f 1f3c
00000300: ba60 7abd 34db bcbb ac7a 91bc 95d5 ae3b
00000310: 01ed 263d dcb3 fb3b 332d 213d 1cfb 1f3d
00000320: d243 853d 3413 a1bd 2210 b6bd 37ed c43d
00000330: 90dc 3d3d 8ca2 5cbb e302 84bc 50aa 533d
00000340: 9deb bb3c 1af1 9a3d 8068 e5ba 7a84 b0bd
00000350: 6391 2c3d ec90 fbbd 3279 ec3b 8ccc 82bd
00000360: b023 22bc d5e2 38bd e0c2 90bc e6a5 7bbc
00000370: b300 58bc 9125 40bd 61b1 06bd 2878 3a3d
00000380: b69b efbb 8302 a63c 2163 84bd 1159 d3bc
00000390: 982f a1bd 8763 9ebc 691f 733d 4e97 f1bb
000003a0: a3c6 693d ede1 d13c 1322 7cbd acb2 953d
000003b0: c44d 403d 0c8b bbbc 68fd ce3d 30d9 9cbd
000003c0: c3d8 45bd 6b49 d4bc baea cabc d36c 39bd
000003d0: 113a aa3a 3f97 2d3d 99fe efbc 12ee 593c
000003e0: 6d52 263c 848b 813a c380 bf3d 9c4d 4d3c
000003f0: e5bc bbbc 52e3 483c 61f8 8f3d bf97 693d

conv_layers.2.bias f4 [64]
-0.084240496 0.00562857 0.029908199 0.062949136 -0.061395455 -0.111234695 -0.11437362 0.012635009
0.054898996 -0.004481881 0.10454857 -0.10021546 0.01936357 -0.0921956 -0.022028323 0.010796638
-0.04456986 0.030414622 -0.07893413 0.0017166467 -0.060070463 -0.07945428 0.036597513 0.07014796
0.05060044 -0.038700666 -0.08924222 0.026526187 -0.03450373 0.00759445 -0.092175454 0.057811547
0.070902936 0.0019350584 -0.104532 -0.052012473 0.0010891518 -0.013014213 -0.03624208 -0.028423328
-0.07385021 0.07846902 0.014441243 0.014350748 0.057503693 -0.035048135 -0.121190056 -0.13061722
0.07941814 -0.031010574 -0.07318153 -0.038350724 -0.0017517516 -0.0036435158 0.03404677 0.07050929
0.057204068 0.0028696172 -0.02067009 0.025112517 -0.009772149 -0.056202333 0.022595111 0.08581082
00000000: 4886 acbd de6f b83b 0a02 f53c 7aeb 803d
00000010: cd79 7bbd 04cf e3bd b73c eabd 1203 4f3c
00000020: c5dd 603d bedc 92bb 901d d63d c33d cdbd
00000030: 59a0 9e3c 0cd1 bcbd be74 b4bc 62e4 303c
00000040: e38e 36bd 1628 f93c 38a8 a1bd 1b01 e13a
00000050: 720c 76bd edb8 a2bd 46e7 153d bca9 8f3d
00000060: 6842 4f3d 9784 1ebd a0c4 b6bd 724d d93c
00000070: c853 0dbd ddda f83b 7cc6 bcbd cdcb 6c3d
00000080: 8f35 913d c9a1 fd3a e014 d6bd 080b 55bd
00000090: dfc1 8e3a 9139 55bc 9372 14bd 0ad8 e8bc
000000a0: c73e 97bd 5eb4 a03d f79a 6c3c 661f 6b3c
000000b0: fe88 6b3d a28e 0fbd 7e32 f8bd 85c0 05be
000000c0: faa5 a23d e309 febc 33e0 95bd a615 1dbd
000000d0: 089b e5ba 0dc8 6ebb a074 0b3d 2d67 903d
000000e0: d04e 6a3d 3010 3c3b 5254 a9bc c4b8 cd3c
000000f0: 5d1b 20bc 6b34 66bd 6219 b93c 95bd af3d

conv_layers.3.weight f4 [64, 256, 5]
-0.0080991695 -0.066611215 0.0041427375 -0.011541029 0.0053903493 -0.007960165 0.005989173 -0.00092696777
0.0320228 0.022621065 0.05872804 0.026409449 -0.06691455 0.03604899 -0.033117097 0.0004680327
-0.010424018 -0.018253215 0.0016850604 -0.043324284 -0.0035712244 -0.003685309 -0.031389352 -0.003438622
-0.019350654 -0.028504781 0.005316714 0.080563925 -0.016086452 -0.035056267 0.03944847 0.026654953
0.07446311 -0.005696855 -0.027977204 0.042581104 0.027799167 0.051357098 0.017401982 -0.04522836
-0.05038658 0.04994851 0.008649955 -0.09218432 0.023727503 0.051530614 -0.0155137805 -0.0014366712
0.05702747 -0.06681841 -0.07883159 0.0070836646 -0.06800634 0.010466013 -0.05637541 0.038418923
0.0343302 -0.0012371001 -0.022035116 0.0006093758 0.0095152855 -0.07517892 0.060234386 -0.020062298
-0.020117082 -0.035266604 0.043222748 0.016953316 -0.017710578 -0.050138082 0.009160437 0.07303525
-0.05279607 -0.06851412 -0.04036282 0.027656492 0.037713233 -0.064482056 -0.09371073 -0.043792717
-0.015515525 -0.061895255 0.0120351575 0.08798148 -0.04818407 0.0422471 -0.029950414 -0.04479573
-0.0889325 0.0003277507 0.060245115 -0.04847464 -0.009920742 0.035808932 0.05677831 0.028042248
-0.009301202 -0.06243729 -0.021216556 0.012159881 0.02184203 -0.011973368 -0.051231798 0.05492751
0.00875688 -0.06778801 -0.041063968 -0.047976088 -0.010619455 -0.063477635 -0.03644956 0.017420521
-0.044719175 -0.031632163 -0.032307617 0.04920961 0.02986205 -0.0020715229 0.0124855945 0.012223768
-0.06426431 0.0014637506 -0.052804735 0.013107968 -0.003158494 0.024358049 -0.066834606 -0.0036309261
0.025919389 -0.030874098 0.019723838 -0.042062197 -0.100402355 -0.008271188 -0.056594472 -0.045545254
-0.06285837 -0.046400025 -0.004684308 0.0069417073 -0.02267727 -0.044405703 0.011320291 0.012953985
-0.008143803 -0.038847446 0.052503314 -0.014160452 -0.030611208 -0.029258626 0.065147035 -0.035847723
-0.022622732 0.008738461 -0.07553922 0.04171155 -0.0060657626 0.010381944 0.007979484 0.0048626163
-0.06995145 0.0028331033 0.049381554 0.05355095 -0.012030911 0.10186708 -0.04808963 0.0068536876
0.025326908 0.038604368 -0.019111179 0.039824907 -0.011454882 0.076905884 -0.021795483 -0.04122076
0.008225008 0.008213877 -0.03193353 0.049359307 -0.024345592 0.0042635356 0.01669436 -0.00029341993
-0.05817465 -0.048089206 -0.06475895 0.020043187 -0.07814762 0.018903244 0.034050412 0.011797584
0.0060615754 -0.06387013 -0.044566277 0.014706465 0.012987963 0.05288613 0.014506498 -0.020448826
0.009797699 0.05709145 -0.009248378 -0.066458344 0.022216221 0.011552088 -0.011002119 0.053086787
-0.036914576 0.01102311 0.038049933 0.030258613 0.013211965 -0.004121997 -0.032956675 0.017752878
-0.066720225 0.02820442 -0.040495593 0.013323456 0.04150067 0.057980258 0.058778215 0.060114376
-0.12869333 0.009355271 -0.03461273 -0.0032541652 0.04491445 -0.047070608 0.021794617 0.050963882
0.025277104 -0.0171002 -0.016474709 0.10202033 -0.02460948 0.05996989 0.10042324 -0.042345464
-0.03693691 0.06366942 -0.021783097 -0.028325316 0.0050582313 0.054556143 -0.03909312 -0.031195665
-0.07595482 -0.0069459467 0.006370117 0.0063603795 -0.023174582 0.051912256 -0.057046738 -0.013343569
00000000: 61b2 04bc 766b 88bd cdbf 873b 9616 3dbc
00000010: 87a1 b03b 5a6b 02bc d340 c43b c1ff 72ba
00000020: 572a 033d d04f b93c d08c 703d a158 d83c
00000030: 7f0a 89bd 1ba8 133d cba5 07bd 4962 f539
00000040: 80c9 2abc c487 95bc 3fdd dc3a ce74 31bd
00000050: 340b 6abb 3a85 71bb 1f92 00bd 815a 61bb
00000060: 4385 9ebc dc82 e9bc d437 ae3b b3fe a43d
00000070: bcc7 83bc 2997 0fbd b894 213d 7d5b da3c
00000080: 1d80 983d afac babb 7330 e5bc 8669 2e3d
00000090: 14bb e33c d25b 523d 9a8e 8e3c 5f41 39bd
000000a0: 2962 4ebd cf96 4c3d 8ab8 0d3c 22cb bcbd
000000b0: 2e60 c23c c411 533d 832d 7ebc b04e bcba
000000c0: a395 693d 17d8 88bd 7572 a1bd 161e e83b
000000d0: e846 8bbd a479 2b3c e7e9 66bd 295d 1d3d
000000e0: d39d 0c3d 3126 a2ba fd82 b4bc 85be 1f3a
000000f0: 00e6 1b3c 68f7 99bd 55b8 763d b059 a4bc
00000100: 94cc a4bc b773 10bd 560a 313d aee1 8a3c
00000110: c615 91bc 975d 4dbd a815 163c 8193 953d
00000120: b140 58bd 2251 8cbd 7c53 25bd de8f e23c
00000130: 3179 1a3d 2b0f 84bd 69eb bfbd fe5f 33bd
00000140: d434 7ebc e185 7dbd 1c2f 453c a22f b43d
00000150: a95c 45bd 4c0b 2d3d 925a f5bc ba7b 37bd
00000160: 3e22 b6bd f4d5 ab39 95c3 763d 588d 46bd
00000170: 9c8a 22bc 63ac 123d 6090 683d dbb8 e53c
00000180: 1264 18bc 3ebe 7fbd 58ce adbc 3d3a 473c
00000190: 0fee b23c f22b 44bc 6fd8 51bd abfb 603d
000001a0: 0479 0f3c 71d4 8abd b132 28bd 9382 44bd
000001b0: 39fd 2dbc 9000 82bd 224c 15bd 7bb5 8e3c
000001c0: 742b 37bd ba90 01bd fe54 04bd 0490 493d
000001d0: 42a1 f43c 63c2 07bb 6190 4c3c 3346 483c
000001e0: 029d 83bd 52db bf3a c749 58bd cdc2 563c
000001f0: bcfe 4ebb 888a c73c 95e0 88bd d5f4 6dbb
00000200: e654 d43c adeb fcbc e393 a13c 6949 2cbd
00000210: c09f cdbd e083 07bc 9bcf 67bd a98d 3abd
00000220: e4bb 80bd f40d 3ebd d37e 99bb 4377 e33b
00000230: afc5 b9bc c1e2 35bd be78 393c f33c 543c
00000240: 966d 05bc 801e 1fbd b70d 573d 3e01 68bc
00000250: 5bc4 fabc c9af efbc cf6b 853d 10d5 12bd
00000260: 4f53 b9bc c32b 0f3c 4eb4 9abd bbd9 2a3d
00000270: 4ec3 c6bb 0719 2a3c 62bc 023c 9556 9f3b
00000280: b542 8fbd 96ab 393b 5044 4a3d 3e58 5b3d
00000290: 4c1d 45bc b09f d03d a2f9 44bd e694 e03b
000002a0: 607a cf3c 9d1f 1e3d 0c8f 9cbc 711f 233d
000002b0: 42ad 3bbc d580 9d3d 718c b2bc 1ad7 28bd
000002c0: 2fc2 063c 7f93 063c bccc 02bd fc2c 4a3d
000002d0: 6870 c7bc 21b5 8b3b 9cc2 883c 28d6 99b9
000002e0: 8b48 6ebd 30f9 44bd 57a0 84bd 9c31 a43c
000002f0: dc0b a0bd fada 9a3c 7278 0b3d a74a 413c
00000300: 2ea0 c63b 58ce 82bd 218b 36bd 63f3 703c
00000310: 77cb 543c 209f 583d aaac 6d3c 4c84 a7bc
00000320: 8786 203c b9d8 693d 8286 17bc 501b 88bd
00000330: cbfe b53c f844 3d3c 3b42 34bc 8871 593d
00000340: bd33 17bd 469a 343c 3fda 1b3d e9e0 f73c
00000350: ff76 583c d111 87bb 94fd 06bd 7c6e 913c
00000360: 9da4 88bd f50c e73c b5de 25bd a04a 5a3c
00000370: 9bfc 293d b57c 6d3d 6dc1 703d 7e3a 763d
00000380: 2fc8 03be da46 193c 14c6 0dbd d543 55bb
00000390: 37f8 373d 1ccd 40bd a08a b23c 81bf 503d
000003a0: ee11 cf3c b815 8cbc f8f5 86bc 09f0 d03d
000003b0: d299 c9bc fda2 753d b3aa cd3d 7072 2dbd
000003c0: 284b 17bd 1d65 823d 7772 b2bc 7e0a e8bc
000003d0: 85bf a53b 4376 5f3d 1b20 20bd 0d8e ffbc
000003e0: 338e 9bbd d39a e3bb 6abc d03b bb6a d03b
000003f0: 9fd8 bdbc f2a1 543d d7a9 69bd fc9e 5abc

conv_layers.3.bias f4 [64]
-0.20132071 -0.020630762 0.05027696 -0.08700264 -0.034344405 0.019051488 -0.055819396 -0.011107808
0.038800385 -0.1584289 -0.056440063 0.02420293 0.021701695 -0.03371579 0.042832755 0.00060418097
-0.08746146 -0.063530244 -0.12841311 -0.07114757 -0.045983844 -0.0029096769 -0.0050768913 0.009183249
-0.01586367 0.0036587268 0.062172834 -0.009172088 -0.09079101 0.004728654 -0.038425606 0.0139127085
0.10505772 -0.035748657 -0.007373173 0.067914486 -0.002074584 -0.021909516 0.06932221 -0.07552434
0.08295952 0.010970271 0.029414827 0.058512133 0.052787397 -0.088327035 0.0854898 0.00076562306
0.04933596 0.025319392 -0.06787473 -0.064321905 -0.024461703 -0.1421618 0.036130898 -0.021850295
-0.019327298 -0.042445663 0.028599657 -0.06381962 0.00583327 -0.016669072 0.04888121 -0.006821671
00000000: 0427 4ebe d801 a9bc 37ef 4d3d 712e b2bd
00000010: b8ac 0cbd de11 9c3c e1a2 64bd 86fd 35bc
00000020: 27ed 1e3d 303b 22be b22d 67bd 3945 c63c
00000030: c1c7 b13c 9119 0abd 6671 2f3d e661 1e3a
00000040: fe1e b3bd 251c 82bd ba7e 03be d1b5 91bd
00000050: 8e59 3cbd 47b0 3ebb 0d5c a6bb 5775 163c
00000060: 87f4 81bc 40c7 6f3b f1a8 7e3d 8646 16bc
00000070: a3f0 b9bd d3f2 9a3b 2b64 1dbd 21f2 633c
00000080: 8028 d73d 2f6d 12bd a89a f1bb c016 8b3d
00000090: bef5 07bb 967b b3bc cef8 8d3d 81ac 9abd
000000a0: aee6 a93d a7bc 333c 5df7 f03c 6baa 6f3d
000000b0: 9937 583d cee4 b4bd 4715 af3d 18b4 483a
000000c0: 8114 4a3d 9d6a cf3c e801 8bbd 34bb 83bd
000000d0: e963 c8bc dd92 11be fefd 133d 64ff b2bc
000000e0: 4854 9ebc 81db 2dbd d449 ea3c dcb3 82bd
000000f0: 0425 bf3b 948d 88bc aa37 483d 5388 dfbb

fc1.weight f4 [64, 256]
-0.04068149 0.013399786 -0.012775077 -0.009942956 -0.064175606 0.02124533 0.05251272 -0.0056665326
-0.038015835 -0.012398567 -0.026797783 -0.056404047 -0.0012967511 -0.054212242 0.03600097 -0.041418727
-0.04772318 -0.020781368 0.00015118603 0.0048386375 -0.004676857 0.019893615 0.0050921827 -0.06950958
0.009365908 -0.053553957 0.04597197 -0.03640066 0.021698609 0.010204765 -0.060607586 -0.009928829
-0.040590953 -0.013180969 -0.06928167 0.028407168 -0.0025495673 -0.074269116 -0.06364813 0.026687607
-0.0021399625 -0.00840204 0.057644956 -0.024234835 -0.03921661 -0.028816966 0.01696983 -0.02338879
-0.079625405 -0.00065210764 -0.025032995 -0.03917806 -0.035188813 0.022255683 0.044619374 -0.026984533
-0.015977358 0.04772129 0.015358565 0.017331123 0.007083909 -0.07248981 -0.027016122 0.025478674
-0.031902548 0.01296615 0.036591 -0.055593252 -0.007834066 0.024920462 -0.05577623 0.010026795
-0.013729548 -0.03644838 -0.02221308 -0.038499787 0.0017396718 0.03699913 -0.027119514 0.033698957
0.030569378 -0.03942887 0.0068683443 -0.048919808 -0.014679773 0.0336584 0.0104804775 0.011722501
-0.025092363 0.010990299 0.027048105 -0.04837491 -0.0008504547 -0.06163859 -0.014579592 0.056471948
0.02914999 0.051961828 -0.043394715 -0.0097962385 0.01804281 -0.037809093 0.021138795 0.0074490234
0.011286922 0.049896084 -0.073802166 -0.05781367 0.001871665 -0.013938067 -0.046292998 -0.019607406
-0.005094251 0.015329735 0.0113445055 -0.00012991345 -0.06315904 0.013126968 -0.024683455 -0.0053349407
-0.023584224 -0.043582655 0.016620476 0.025593488 -0.03861523 -0.055158164 0.006897631 -0.020384295
-0.062283203 0.041569557 -0.0062106075 0.02358474 -0.053344205 -0.06290873 -0.022598268 0.03973494
0.02175659 -0.04753663 0.005391207 0.008703043 -0.07560306 -0.010598849 0.001844257 -0.020301046
0.044927377 0.04774646 0.041829403 0.032367226 -0.0052103754 0.0028107932 -0.059924614 -0.033057578
-0.056368325 0.011375822 -0.023038283 -0.003921558 -0.018094616 -0.06454238 0.03466046 -0.047376215
0.04884149 0.03910885 -0.03180289 -0.022488134 -0.041895013 -0.056147672 -0.0109314 -0.06304634
0.041252088 0.009235983 -0.05188264 -0.020568512 -0.03998271 -0.016448053 -0.05718904 0.058435373
-0.026283985 0.005402913 -0.022130053 0.033350535 0.00997371 -0.019323155 0.031141484 -0.046688005
-0.038237065 -0.06736023 -0.023986366 -0.0653977 -0.07209727 0.007771017 -0.0029773125 0.005439332
0.017010568 -0.031250462 -0.083171755 -0.036091432 -0.03482101 -0.059205335 -0.0140924025 -0.00046818054
0.008834567 -0.06316919 -0.0044593015 0.03789505 0.048116144 -0.06335258 -0.021112004 0.006534131
-0.0071503543 0.00065080513 0.004786253 0.051270723 0.006419 -0.08690906 0.00036807876 -0.0675415
0.0124379285 -0.004539166 -0.029003745 -0.034912046 0.03681487 0.008648676 0.049910687 -0.014558654
0.014643161 0.040033232 -0.02642156 -0.04263668 -0.044877756 0.0067278487 -0.07571039 0.01402172
-0.02310493 0.010434964 -0.044707645 -0.02513154 -0.0343529 -0.023785515 0.0046468843 -0.048504286
0.024868133 -0.040037207 -0.0005822088 -0.044873714 -0.0447538 -0.03530263 0.02734924 0.05212419
-0.022560278 -0.027754847 -0.044970695 -0.06064596 0.05209102 -0.041060243 0.038479455 0.0055254437
00000000: a2a1 26bd c78a 5b3c 8e4e 51bc c8e7 22bc
00000010: 806e 83bd b00a ae3c 9417 573d 52ae b9bb
00000020: 7eb6 1bbd 5c23 4bbc 0687 dbbc ee07 67bd
00000030: bff7 a9ba a80d 5ebd c175 133d afa6 29bd
00000040: 6279 43bd b03d aabc b187 1e39 6f8d 9e3b
00000050: 5240 99bb eff7 a23c 53dc a63b 0a5b 8ebd
00000060: 7773 193c 655b 5bbd 1b4d 3c3d dc18 15bd
00000070: 48c1 b13c e331 273c a93f 78bd 87ac 22bc
00000080: b342 26bd fef4 57bc 8ce3 8dbd 26b6 e83c
00000090: a416 27bb 681a 98bd f359 82bd f89f da3c
000000a0: 9d3e 0cbb b6a8 09bc 1e1d 6c3d 2288 c6bc
000000b0: 99a1 20bd 8f11 ecbc 5004 8b3c d999 bfbc
000000c0: a512 a3bd 34f2 2aba ff11 cdbc 2c79 20bd
000000d0: 2522 10bd 8d51 b63c cec2 363d ab0e ddbc
000000e0: f3e2 82bc 6677 433d 7ea2 7b3c 00fa 8d3c
000000f0: 2320 e83b 8a75 94bd ea50 ddbc a7b8 d03c
00000100: 3fac 02bd fa6f 543c 72e0 153d c0b5 63bd
00000110: 745a 00bc ff25 cc3c 9e75 64bd 6d47 243c
00000120: e6f1 60bc e64a 15bd 35f8 b5bc f4b1 1dbd
00000130: b305 e43a 668c 173d be29 debc eb07 0a3d
00000140: a26c fa3c 2b80 21bd d90f e13b 2360 48bd
00000150: 6e83 70bc 64dd 093d 4fb6 2b3c bc0f 403c
00000160: 808e cdbc a810 343c fd93 dd3c c524 46bd
00000170: 0cf1 5eba bf78 7cbd 3edf 6ebc 214f 673d
00000180: f6cb ee3c edd5 543d a8be 31bd 6780 20bc
00000190: 84ce 933c b5dd 1abd 442b ad3c f016 f43b
000001a0: c8ec 383c d65f 4c3d 9725 97bd 07ce 6cbd
000001b0: a852 f53a 7d5c 64bc ba9d 3dbd b69f a0bc
000001c0: aded a6bb 9229 7b3c 4ede 393c 6039 08b9
000001d0: 8759 81bd 7f12 573c f534 cabc bad0 aebb
000001e0: b433 c1bc ba83 32bd aa27 883c 6fa9 d13c
000001f0: 012b 1ebd 87ed 61bd 8605 e23b f7fc a6bc
00000200: ac1c 7fbd d744 2a3d 5a82 cbbb c934 c13c
00000210: 747f 5abd 4bd6 80bd 0120 b9bc 1bc1 223d
00000220: e03a b23c c5b5 42bd b9a8 b03b 3597 0e3c
00000230: c7d5 9abd cba6 2dbc ffba f13a 614e a6bc
00000240: c505 383d cb91 433d 4f55 2b3d 7f93 043d
00000250: ccbb aabb 4935 383b 8373 75bd 6267 07bd
00000260: 79e2 66bd a861 3a3c c8ba bcbc 6a80 80bb
00000270: 293b 94bc cc2e 84bd 20f8 0d3d 900d 42bd
00000280: 040e 483d 9a30 203d bf43 02bd 0939 b8bc
00000290: 1b9a 2bbd 1afb 65bd 9d19 33bc 711e 81bd
000002a0: f3f7 283d 8552 173c e482 54bd 4c7f a8bc
000002b0: e9c4 23bd 11be 86bc 0e3f 6abd ee59 6f3d
000002c0: 8351 d7bc eb0a b13b 164a b5bc 929a 083d
000002d0: c668 233c 984b 9ebc 6d1c ff3c ec3b 3fbd
000002e0: 789e 1cbd 29f4 89bd 0e7f c4bc 3bef 85bd
000002f0: bca7 93bd 04a4 fe3b 041f 43bb 6d3c b23b
00000300: bf59 8b3c 7c00 00bd f455 aabd 9cd4 13bd
00000310: 7aa0 0ebd 4b81 72bd d2e3 66bc 2176 f5b9
00000320: dcbe 103c d95e 81bd 551f 92bb d737 1b3d
00000330: 6f15 453d ffbe 81bd 15f3 acbc 431c d63b
00000340: 854d eabb cb9a 2a3a 00d6 9c3b 4001 523d
00000350: 7a56 d23b 61fd b1bd b2fa c039 3353 8abd
00000360: 74c8 4b3c 49bd 94bb 4399 edbc efff 0ebd
00000370: 30cb 163d 2db3 0d3c 266f 4c3d 6c87 6ebc
00000380: dee9 6f3c e3f9 233d 0772 d8bc cda3 2ebd
00000390: bdd1 37bd 4975 dc3b 0d0e 9bbd 5bbb 653c
000003a0: 8d46 bdbc 69f7 2a3c 5d1f 37bd a9e0 cdbc
000003b0: a0b5 0cbd d7d9 c2bc e444 983b 6eac 46bd
000003c0: 41b8 cb3c 0efe 23bd 5f9f 18ba 80cd 37bd
000003d0: c34f 37bd 7e99 10bd 830b e03c 2d80 553d
000003e0: 55d0 b8bc 225e e3bc 3133 38bd e667 78bd
000003f0: 655d 553d c92e 28bd a29c 1d3d c80e b53b

fc1.bias f4 [64]
-0.04989427 -0.05966035 0.015155371 0.024364091 0.05835864 0.028183952 0.09603045 0.103293315
0.005365776 0.08793694 0.021822317 0.076066636 -0.052591383 0.031541824 0.01943906 0.0399597
-0.018192299 0.0076101446 0.061319266 0.09047308 -0.008271024 0.018138258 0.11326348 0.03221429
-0.054550093 0.033487663 0.0010584609 0.020330073 0.10729011 -0.044040546 -0.05808148 0.011792343
-0.012983915 0.1384184 -0.08586137 0.07009131 -0.014597604 -0.03817907 0.056856267 -0.009885962
0.012668674 -0.0074593215 0.015713755 0.011325216 0.12596375 -0.060574595 -0.028328948 0.11775061
0.095463976 -0.06867315 0.025562862 -0.071738586 0.026459428 0.04967457 0.017662931 0.045142908
0.029986566 0.09999954 -0.056797344 0.032416448 0.011514687 0.0262514 -0.056894884 -0.010609987
00000000: ef5d 4cbd 695e 74bd 3c4e 783c 3497 c73c
00000010: 7809 6f3d 08e2 e63c 9dab c43d 728b d33d
00000020: 64d3 af3b 4818 b43d b7c4 b23c d3c8 9b3d
00000030: 106a 57bd 0032 013d aa3e 9f3c c8ac 233d
00000040: 0408 95bc 855e f93b e929 7b3d f349 b93d
00000050: 3083 07bc af96 943c aff6 e73d 22f3 033d
00000060: eb6f 5fbd 5c2a 093d 0ebc 8a3a 418b a63c
00000070: ebba db3d dc63 34bd d9e6 6dbd ac34 413c
00000080: 7dba 54bc 8ebd 0d3e 16d8 afbd 088c 8f3d
00000090: ca2a 6fbc a861 1cbd 1ee2 683d bbf8 21bc
000000a0: 4590 4f3c 536d f4bb 22ba 803c 668d 393c
000000b0: a4fc 003e 111d 78bd 1c12 e8bc 3b27 f13d
000000c0: 9e82 c33d 82a4 8cbd 3569 d13c aeeb 92bd
000000d0: 71c1 d83c 9077 4b3d dab1 903c c5e7 383d
000000e0: 63a6 f53c 8fcc cc3d 55a4 68bd 1cc7 043d
000000f0: 19a8 3c3c 2d0d d73c 9c0a 69bd 83d5 2dbc

batch_norm.weight f4 [64]
0.96680826 0.99241847 0.99399465 1.8223294 1.7878352 1.8444037 1.7632333 1.8134722
0.9686465 1.6880088 0.98395544 1.8761593 0.9936235 1.7970686 0.988873 0.99399465
0.99321216 0.99398124 1.8075311 1.6160709 1.8205154 1.6116421 1.7072905 0.98133343
0.9908561 1.8421267 0.99029034 0.97088706 1.7648655 1.0 0.993407 0.9916604
1.9031736 1.6427459 0.9710068 1.6657925 1.7570598 0.99399453 1.573446 0.9806385
1.0047526 1.6853834 1.6196029 1.773153 1.6154134 0.9864355 1.0 1.7093813
1.8511311 0.9866651 0.9917178 0.9882144 0.9929482 1.0 0.98875344 1.5993339
0.9941421 1.7450967 0.98008823 1.7347245 1.7995023 0.99399483 0.9884133 0.9928947
00000000: bf80 773f 230f 7e3f 6f76 7e3f 1742 e93f
00000010: c9d7 e43f 6c15 ec3f a1b1 e13f db1f e83f
00000020: 38f9 773f ac10 d83f 81e4 7b3f fd25 f03f
00000030: 1c5e 7e3f 5806 e63f c826 7d3f 6f76 7e3f
00000040: 2743 7e3f 8e75 7e3f 2e5d e73f 69db ce3f
00000050: a606 e93f 4a4a ce3f 7f88 da3f ab38 7b3f
00000060: bfa8 7d3f cfca eb3f ab83 7d3f 0e8c 783f
00000070: 1de7 e13f 0000 803f ec4f 7e3f 75dd 7d3f
00000080: 319b f33f 7f45 d23f e793 783f b038 d53f
00000090: 56e7 e03f 6d76 7e3f ae66 c93f 200b 7b3f
000000a0: bc9b 803f a5ba d73f 264f cf3f adf6 e23f
000000b0: dec5 ce3f 0987 7c3f 0000 803f 02cd da3f
000000c0: ddf1 ec3f 1696 7c3f 38e1 7d3f 9efb 7c3f
000000d0: da31 7e3f 0000 803f f21e 7d3f f9b6 cc3f
000000e0: 1980 7e3f 545f df3f 10e7 7a3f 740b de3f
000000f0: 1756 e63f 7276 7e3f a708 7d3f 592e 7e3f

batch_norm.bias f4 [64]
0.10972482 -0.14048344 -0.16978566 0.00023912196 -0.21330895 -0.032556437 -0.096082345 -0.0050310674
-0.120933235 0.10987971 0.2039711 0.10299597 0.099254176 0.033448085 -0.13563353 -0.1914947
-0.18480046 0.16005209 -0.16583222 0.112567775 -0.004819542 0.07841205 0.022396134 -0.1356753
0.1167783 0.095863074 0.16218297 -0.15723951 -0.24683054 -0.14573407 -0.15673113 -0.17814983
-0.045836993 -0.048766393 -0.15117152 -0.011573032 -0.21461335 0.16150455 -0.020705814 -0.0059950035
-0.16280496 -0.058543436 -0.1480214 -0.06625279 -0.12522018 -0.15363517 0.12541018 0.011942134
0.0020061487 -0.10694945 -0.124613255 0.15566564 0.14243108 0.11842878 -0.13918884 0.08807814
-0.12939072 0.11254085 0.18864928 0.039817013 0.08987569 0.13894513 0.20815696 0.09764455
00000000: 68b7 e03d e4da 0fbe 4bdc 2dbe d0bc 7a39
00000010: a96d 5abe e659 05bd d2c6 c4bd a7db a4bb
00000020: d8ab f7bd 9d08 e13d cddd 503e 8def d23d
00000030: c645 cb3d dc00 093d 84e3 0abe 3017 44be
00000040: 553c 3dbe b2e4 233e eccf 29be ef89 e63d
00000050: 40ed 9dbb 7f96 a03d 1978 b73c 77ee 0abe
00000060: 7629 ef3d dc53 c43d 4b13 263e 6503 21be
00000070: 25c1 7cbe 503b 15be 207e 20be e96c 36be
00000080: 92bf 3bbd 45bf 47bd b5cc 1abe d09c 3dbc
00000090: 9ac3 5bbe 7361 253e 3d9f a9bc bc71 c4bb
000000a0: 58b6 26be 3ecb 6fbd ec92 17be 8baf 87bd
000000b0: b839 00be 8a52 1dbe 876b 003e f1a8 433c
000000c0: 9779 033b 5008 dbbd 3c35 ffbd d066 1f3e
000000d0: 74d9 113e ca8a f23d 8587 0ebe 5062 b43d
000000e0: 007f 04be d17b e63d 472d 413e 2a17 233d
000000f0: bf10 b83d a247 0e3e 1927 553e def9 c73d

batch_norm.running_mean f4 [64]
3.6132973e-26 6e-45 6e-45 1.4513446 1.22818 1.2216699 2.46595 1.3769262
6e-45 1.4352738 6e-45 1.7949958 6e-45 2.34212 6e-45 6e-45
6e-45 6e-45 1.4683353 1.2681352 1.4367044 2.0367873 1.1819023 6e-45
6e-45 1.2230912 6e-45 6e-45 1.4688158 0.0 6e-45 6e-45
1.3597906 1.6153558 7.600617e-32 3.609834 1.188586 6e-45 0.9091684 6e-45
1.3e-44 3.1459165 3.3293865 2.527301 1.2378429 6e-45 0.0 1.1091156
1.9565923 6e-45 6e-45 6e-45 6e-45 0.0 6e-45 1.8664904
6e-45 0.9611803 6e-45 1.3780007 3.195333 6e-45 6e-45 6e-45
00000000: fceb 3215 0400 0000 0400 0000 a9c5 b93f
00000010: 0135 9d3f ae5f 9c3f 20d2 1d40 1e3f b03f
00000020: 0400 0000 0db7 b73f 0400 0000 6cc2 e53f
00000030: 0400 0000 4be5 1540 0400 0000 0400 0000
00000040: 0400 0000 0400 0000 69f2 bb3f 4152 a23f
00000050: eee5 b73f b95a 0240 9348 973f 0400 0000
00000060: 0400 0000 418e 9c3f 0400 0000 0400 0000
00000070: 2802 bc3f 0000 0000 0400 0000 0400 0000
00000080: 9e0d ae3f fbc3 ce3f c452 c50b 8507 6740
00000090: 9623 983f 0400 0000 43bf 683f 0400 0000
000000a0: 0900 0000 b256 4940 ab14 5540 4dbf 2140
000000b0: a371 9e3f 0400 0000 0000 0000 80f7 8d3f
000000c0: 9e71 fa3f 0400 0000 0400 0000 0400 0000
000000d0: 0400 0000 0000 0000 0400 0000 28e9 ee3f
000000e0: 0400 0000 ea0f 763f 0400 0000 5462 b03f
000000f0: 5680 4c40 0400 0000 0400 0000 0400 0000

batch_norm.running_var f4 [64]
2.6058735e-27 6e-45 6e-45 2.075469 1.1656208 1.0593549 0.8662531 1.7453336
6e-45 0.88677955 6e-45 1.1628815 6e-45 1.615777 6e-45 6e-45
6e-45 6e-45 1.8658941 1.2548859 1.8789169 0.9476964 1.4132838 6e-45
6e-45 1.4677677 6e-45 6e-45 1.9811153 6e-45 6e-45 6e-45
1.2591852 0.977491 5.016151e-32 1.4864687 0.9411945 6e-45 0.7522965 6e-45
6e-45 1.9071484 0.60157156 1.8091326 1.0476325 6e-45 6e-45 0.885111
1.5125047 6e-45 6e-45 6e-45 6e-45 6e-45 6e-45 1.3459939
6e-45 0.7826538 6e-45 1.3440475 2.1141872 6e-45 6e-45 6e-45
00000000: 6575 4e13 0400 0000 0400 0000 7cd4 0440
00000010: 1033 953f f198 873f c3c2 5d3f 1767 df3f
00000020: 0400 0000 fc03 633f 0400 0000 4dd9 943f
00000030: 0400 0000 c8d1 ce3f 0400 0000 0400 0000
00000040: 0400 0000 0400 0000 9ed5 ee3f 1aa0 a03f
00000050: 5980 f03f 3b9c 723f 7ce6 b43f 0400 0000
00000060: 0400 0000 d0df bb3f 0400 0000 0400 0000
00000070: 3095 fd3f 0400 0000 0400 0000 0400 0000
00000080: fb2c a13f da3c 7a3f 0b3a 820b 9b44 be3f
00000090: 1ff2 703f 0400 0000 8196 403f 0400 0000
000000a0: 0400 0000 701d f43f 9800 1a3f a891 e73f
000000b0: d218 863f 0400 0000 0400 0000 a296 623f
000000c0: c199 c13f 0400 0000 0400 0000 0400 0000
000000d0: 0400 0000 0400 0000 0400 0000 8749 ac3f
000000e0: 0400 0000 005c 483f 0400 0000 c009 ac3f
000000f0: d84e 0740 0400 0000 0400 0000 0400 0000

fc2.weight f4 [2, 64]
-0.07054916 -0.0216963 -0.109935 0.0063486514 -0.033488993 0.11597472 0.08141304 -0.17517492
-0.05936599 -0.064755745 -0.083949134 0.03141267 0.0859747 0.058974016 0.08105568 -0.058461893
-0.06843631 0.014068253 0.16079396 0.110757895 0.034154594 -0.018630438 0.05158321 0.049230687
-0.021619158 -0.18912084 0.05525708 0.035253115 -0.10304415 -0.115576416 -0.07264282 0.0006783716
-0.082582496 -0.022789648 -0.03134056 0.077612415 -0.1564687 -0.088880636 0.12283522 -0.022505375
0.08640068 0.08205846 -0.051076964 0.17870842 -0.08545299 -0.02352506 -0.07321013 -0.12186377
0.03329398 0.08565833 0.0022962715 0.049947027 -0.045153797 0.0014047821 -0.070640855 0.12555389
-0.12389195 -0.098500155 -0.027067373 0.047071885 0.13941528 0.0014008031 -0.10543233 0.10458021
-0.063395284 0.10182391 0.10288825 -0.16167778 0.068138234 -0.027449561 0.00923963 0.008115709
0.039688148 0.016396793 0.0125939045 -0.029741727 0.08307139 -0.13182575 0.015188882 -0.07435875
-0.10780246 0.033617087 -0.14957897 -0.06314397 -0.11934849 0.026761534 -0.15729545 0.08642949
-0.04829076 0.07913668 -0.106776856 0.0972902 0.15123151 0.03534562 -0.1089552 0.093619555
0.09842881 0.066344574 0.094098024 -0.053871226 0.07593254 0.103751615 0.050672285 -0.08373687
0.0045141387 0.04332643 -0.030569984 -0.06630599 0.08664886 -0.08911953 0.09564188 0.050927494
0.14577748 0.01987598 -0.06769551 -0.013824012 -0.1037138 0.089880735 0.09823651 -0.108280316
0.056165315 0.07844632 -0.06135694 -0.174268 -0.10251872 0.021364734 -0.09440218 -0.048610605
00000000: 147c 90bd 70bc b1bc 9a25 e1bd 5908 d03b
00000010: c12b 09bd 2784 ed3d e1bb a63d 0e61 33be
00000020: c129 73bd a99e 84bd 86ed abbd 92aa 003d
00000030: 8113 b03d bd8e 713d 8500 a63d bd75 6fbd
00000040: 5628 8cbd 887e 663c 2ca7 243e 09d5 e23d
00000050: b0e5 0b3d dc9e 98bc ea48 533d 1ea6 493d
00000060: a91a b1bc e5a8 41be 3f55 623d 9265 103d
00000070: d008 d3bd 54b3 ecbd c2c5 94bd bfd4 313a
00000080: 0321 a9bd 5bb1 babc f65e 00bd 42f3 9e3d
00000090: 5539 20be 0d07 b6bd 0891 fb3d 315d b8bc
000000a0: d7f2 b03d 440e a83d 1436 51bd 57ff 363e
000000b0: fa01 afbd a0b7 c0bc 31ef 95bd b693 f9bd
000000c0: 455f 083d a26d af3d 0b7d 163b 4195 4c3d
000000d0: 30f3 38bd aa20 b83a 27ac 90bd 3391 003e
000000e0: 10bb fdbd 73ba c9bd 65bc ddbc 73ce 403d
000000f0: e1c2 0e3e 279b b73a e8ec d7bd 262e d63d
00000100: 63d5 81bd 0e89 d03d 13b7 d23d dc8e 25be
00000110: 0f8c 8b3d e7dd e0bc d161 173c c0f7 043c
00000120: 0a90 223d 9152 863c aa56 4e3c eca4 f3bc
00000130: 5521 aa3d 54fd 06be cada 783c 6649 98bd
00000140: 89c7 dcbd 12b2 093d 3b2b 19be a051 81bd
00000150: fb6c f4bd 013b db3c 0f12 21be f201 b13d
00000160: 88cc 45bd 6912 a23d d3ad dabd 1640 c73d
00000170: 6fdc 1a3e 92c6 103d e723 dfbd 9cbb bf3d
00000180: 0b95 c93d aadf 873d 77b6 c03d 13a8 5cbd
00000190: 8582 9b3d ba7b d43d be8d 4f3d 3c7e abbd
000001a0: 57eb 933b 0e77 313d e76d fabc 6fcb 87bd
000001b0: f574 b13d 4d84 b6bd e4df c33d 5999 503d
000001c0: b146 153e f4d2 a23c f2a3 8abd 1c7e 62bc
000001d0: e767 d4bd 6413 b83d 3930 c93d 12c2 ddbd
000001e0: 9a0d 663d 77a8 a03d 6a51 7bbd 5073 32be
000001f0: 56f5 d1bd 1805 af3c ee55 c1bd ea1b 47bd

fc2.bias f4 [2]
-0.04575964 0.07075565
00000000: 766e 3bbd 57e8 903d
