models/Mrs. GREEN APPLE/classifier_fold2.pth (torch, 991712 bytes, 16 tensors)

conv_layers.0.weight f4 [64, 256, 2]
-0.025640124 0.116054066 0.03868785 0.040102284 0.037831146 -0.08707799 -0.11525746 0.09269671
-0.030773696 -0.08153387 -0.110320315 -0.11797693 -0.06758795 0.014074629 -0.019670123 0.0016642644
0.10843812 0.050383534 -0.007961598 -0.037222415 0.041130103 -0.07591967 -0.06618207 -0.05633892
0.043610524 -0.0125471 -0.0036334882 0.021832805 0.049149748 0.0011440222 -0.016622763 0.00024196459
0.06363935 0.12610707 -0.042297095 -0.017897783 -0.032968488 0.0239356 -0.056591313 -0.017222239
0.048805345 -0.02229328 -0.0265147 -0.068232164 0.06864622 -0.024744764 0.032660667 0.034701392
0.07646692 0.089422844 0.1565376 0.07381787 0.04386068 -0.010247793 -0.0069223284 0.0028913815
0.02853981 -0.06669265 -0.1210185 -0.008450628 0.00883361 0.09881924 0.010988475 -0.06701668
0.07910754 0.120091826 0.03830386 0.06878483 -0.09212336 0.0013342692 0.019981634 0.08422613
-0.01352714 -0.04957993 -0.06472232 -0.076574236 0.0127215525 0.026959825 0.016382951 0.031068046
-0.1068078 0.105742104 -0.0050793984 -0.0340839 0.024307832 0.05687115 -0.08320027 -0.08175376
-0.032826878 0.005202999 0.041983828 -0.002200115 -0.031466275 -0.044575483 0.015398714 -0.04560666
0.0529242 0.050943013 -0.12179651 0.02671386 0.055470433 -0.051587094 -0.005569813 -0.07121032
-0.016787663 0.034989167 0.015631415 -0.036970865 0.010789382 -0.04225046 -0.055037804 -0.01839738
0.07897626 -0.026519194 0.047453247 0.023118587 -0.07101321 -0.038151197 0.033492383 0.0016934134
0.08549266 0.020799747 -0.09272893 -0.114814475 -0.07647812 0.04814936 0.038809437 0.07033041
-0.0070060166 -0.054650664 0.038073525 0.0076704593 0.06536688 -0.055219103 0.04894655 -0.07266165
-0.0014121777 -0.05446169 -0.07338844 0.078739494 0.13248126 -0.123097636 0.05450509 0.03229941
-0.06309405 -0.04147303 0.04091498 -0.0056951432 -0.04047232 -0.0016555113 -0.09322429 0.053755756
0.018861331 -0.016429383 -0.015915183 0.07315789 0.04267646 -0.026028141 -0.053866323 0.002211271
-0.016552659 -0.0041733887 -0.08112542 -0.050633166 -0.0054053543 0.045346275 -0.0053597074 -0.013675167
-0.10000434 0.044562608 0.02702431 0.0251674 -0.080317885 0.06477695 0.050536208 -0.041296642
0.032906204 -0.03916728 0.13940378 -0.002046822 0.09690029 0.06530974 -0.04172461 -0.020597177
-0.014066313 -0.004071437 0.07365125 0.031216362 0.07307506 0.00011116118 -0.108513385 -0.12988666
-0.08513267 0.008777466 -0.018200455 0.06966921 -0.015424012 0.010951565 0.008606452 0.005999828
0.044895876 -0.04942363 0.03377784 -0.05844899 -0.026742138 0.02712584 0.03619006 0.079419225
-0.007959987 -0.073026694 -0.046678793 0.045545083 -0.06553012 0.01213047 0.06343207 -0.07132555
-0.046918366 0.01803509 0.14149816 0.017761357 -0.06981591 0.052797753 -0.013218419 0.053191103
-0.122569874 -0.05121956 0.0573184 -0.005623013 0.031170102 -0.04640279 0.014407864 0.023294328
0.13766472 0.027212624 0.076087 -0.040223822 0.0069720563 0.03362462 0.07123512 -0.044428203
-0.077541545 0.036723327 0.073529445 0.03231375 0.03245175 0.114784546 0.17709348 -0.029524356
-0.014277735 -0.008495891 -0.053490244 -0.026948124 -0.014098739 -0.020057058 -0.007287103 0.06865147
00000000: 3d0b d2bc c1ad ed3d 2777 1e3d 4b42 243d
00000010: d5f4 1a3d f255 b2bd 1a0c ecbd c6d7 bd3d
00000020: 1e19 fcbc 3bfb a6bd 9eef e1bd e49d f1bd
00000030: 8d6b 8abd 4699 663c 3d23 a1bc 7223 da3a
00000040: ce14 de3d f75e 4e3d 5d71 02bc 8876 18bd
00000050: 0a78 283d c67b 9bbd 778a 87bd a4c3 66bd
00000060: f3a0 323d 5a92 4dbc d11f 6ebb b6da b23c
00000070: 3f51 493d 04f3 953a 762c 88bc e0b7 7d39
00000080: 5955 823d 3622 013e b83f 2dbd 5f9e 92bc
00000090: f709 07bd 9714 c43c 4bcc 67bd a715 8dbc
000000a0: 1de8 473d 66a0 b6bc 5b35 d9bc 4ebd 8bbd
000000b0: 6496 8c3d 88b5 cabc 31c7 053d 0c23 0e3d
000000c0: b09a 9c3d 5323 b73d 654b 203e d32d 973d
000000d0: 42a7 333d 5ce6 27bc b3d4 e2bb 557d 3d3b
000000e0: 52cc e93c 2896 88bd 8cd8 f7bd 8174 0abc
000000f0: d9ba 103c be61 ca3d 0109 343c 0b40 89bd
00000100: 2203 a23d b4f2 f53d 82e4 1c3d 10df 8c3d
00000110: 2cab bcbd a5e2 ae3a 86b0 a33c c07e ac3d
00000120: f0a0 5dbc 5314 4bbd 238d 84bd f4d2 9cbd
00000130: 0f6e 503c dada dc3c 8a35 863c 6a82 fe3c
00000140: 0cbe dabd 518f d83d 1571 a6bb 8f9b 0bbd
00000150: 3821 c73c b9f1 683d e764 aabd 846e a7bd
00000160: 7a75 06bd eb7d aa3b 3cf7 2b3d ce2f 10bb
00000170: c8e2 00bd c894 36bd e34a 7c3c 0dce 3abd
00000180: 0cc7 583d 9fa9 503d 7370 f9bd 06d7 da3c
00000190: f734 633d fd4c 53bd fa82 b6bb b7d6 91bd
000001a0: 4886 89bc cd50 0f3d 740d 803c c36e 17bd
000001b0: f3c5 303c d10e 2dbd 526f 61bd 1ab6 96bc
000001c0: 4ebe a13d c83e d9bc 565e 423d 3163 bd3c
000001d0: 606f 91bd 6e44 1cbd 4f2f 093d 86f5 dd3a
000001e0: c716 af3d 3b64 aa3c aae8 bdbd da23 ebbd
000001f0: 90a0 9cbd 4338 453d a5f6 1e3d 6409 903d
00000200: ba92 e5bb 60d9 5fbd fcf2 1b3d 7a58 fb3b
00000210: 12df 853d 6d2d 62bd 2d7c 483d a2cf 94bd
00000220: d218 b9ba 3913 5fbd ae4c 96bd 2c42 a13d
00000230: 2ba9 073e 9d1a fcbd bb40 5f3d 634c 043d
00000240: 7437 81bd a0df 29bd 7796 273d 539e babb
00000250: 4ec6 25bd befd d8ba 60ec bebd ff2e 5c3d
00000260: 1483 9a3c ea96 86bc 8f60 82bc ced3 953d
00000270: 83cd 2e3d f838 d5bc efa2 5cbd f9ea 103b
00000280: 7199 87bc ecc0 88bb 1625 a6bd b964 4fbd
00000290: 661f b1bb 04bd 393d 7ca0 afbb cf0d 60bc
000002a0: 13cf ccbd 4887 363d 1662 dd3c dd2b ce3c
000002b0: b47d a4bd c7a9 843d 0eff 4e3d ab26 29bd
000002c0: a8c8 063d df6d 20bd ddbf 0e3e fa23 06bb
000002d0: a973 c63d 1dc1 853d 6de7 2abd 69bb a8bc
000002e0: 6576 66bc b069 85bb 77d6 963d 75b9 ff3c
000002f0: 61a8 953d 341f e938 443c debd 0201 05be
00000300: 0a5a aebd 5ccf 0f3c 1f19 95bc bbae 8e3d
00000310: ffb4 7cbc 316e 333c 1302 0d3c 359a c43b
00000320: bde4 373d 6f70 4abd a25a 0a3d 3568 6fbd
00000330: 5412 dbbc 0237 de3c 073c 143d 8ca6 a23d
00000340: 9b6a 02bc 058f 95bd 4332 3fbd 7b8d 3a3d
00000350: a834 86bd e1be 463c ace8 813d 2113 92bd
00000360: 792d 40bd 53be 933c e5e4 103e 4480 913c
00000370: a5fb 8ebd 7542 583d 1192 58bc eade 593d
00000380: ea05 fbbd 9acb 51bd b3c6 6a3d 4041 b8bb
00000390: 7158 ff3c da10 3ebd f60e 6c3c bfd3 be3c
000003a0: fbf7 0c3e 02ed de3c 80d3 9b3d bcc1 24bd
000003b0: d975 e43b f8b9 093d b8e3 913d 59fa 35bd
000003c0: 1ace 9ebd 336b 163d 9b96 963d 6c5b 043d
000003d0: 20ec 043d 2914 eb3d fe57 353e 10dd f1bc
000003e0: 29ed 69bc 5932 0bbc 9618 5bbd 50c2 dcbc
000003f0: 66fe 66bc b34e a4bc a7c8 eebb 2499 8c3d

conv_layers.0.bias f4 [64]
-0.07295676 0.04451577 -0.050112955 -0.024306584 0.11713867 0.027326472 -0.112630695 0.00939602
-0.034984805 -0.1013577 0.035563715 0.029196678 -0.08031227 -0.013065814 0.03370544 -0.020856576
-0.0024107522 -0.02645711 0.04027628 -0.0063524 -0.049291108 0.08374889 0.007860583 0.016442733
0.0693846 -0.12534222 0.04277322 -0.011329808 -0.114301704 -0.017123666 0.0021167628 0.041584037
-0.11951437 0.12795518 -0.04074035 0.053865235 0.07834663 -0.034728885 -0.030737128 0.032646213
0.0061121485 -0.077800095 0.049404435 -0.06358639 0.009218967 -0.013944525 -0.0076805507 0.021475911
-0.017794315 -0.0016313994 0.0018254668 -0.018889282 -0.022485763 -0.03793647 0.009460362 -0.06423233
-0.064255156 -0.043673437 0.05592068 -0.08689718 0.05725433 -0.0787654 -0.013527073 -0.07492367
00000000: 5b6a 95bd 2b56 363d 3e43 4dbd 9a1e c7bc
00000010: 66e6 ef3d c4db df3c ecaa e6bd c4f1 193c
00000020: 3a4c 0fbd a094 cfbd 42ab 113d df2d ef3c
00000030: c27a a4bd ff11 56bc b70e 0a3d 69db aabc
00000040: b6fd 1dbb 95bc d8bc bef8 243d cb27 d0bb
00000050: 79e5 49bd 8a84 ab3d adc9 003c e9b2 863c
00000060: 8319 8e3d b659 00be f932 2f3d a9a0 39bc
00000070: 0317 eabd ee46 8cbc 63b9 0a3b 0654 2a3d
00000080: f3c3 f4bd af06 033e 5adf 26bd cba1 5c3d
00000090: 3374 a03d e03f 0ebd 6ecc fbbc 09b8 053d
000000a0: 6b48 c83b a855 9fbd 4e5c 4a3d 9539 82bd
000000b0: 260b 173c 9477 64bc 21ad fbbb 40ee af3c
000000c0: 62c5 91bc aed4 d5ba 8044 ef3a b2bd 9abc
000000d0: 1034 b8bc 4663 1bbd a2ff 1a3c 3d8c 83bd
000000e0: 3598 83bd ebe2 32bd 150d 653d 26f7 b1bd
000000f0: 8483 6a3d c14f a1bd a8a0 5dbc 9571 99bd

conv_layers.1.weight f4 [64, 256, 3]
-0.038733263 0.0104362 0.042981222 0.01976293 0.040557195 0.06676657 0.0167005 -0.0038744279
0.081871055 -0.0024168177 0.06395438 0.017428707 0.015299825 -0.07876941 0.063157976 0.0739296
-0.031371467 0.02214815 0.0176328 0.046657227 0.030298103 0.0045425384 0.019957786 0.054532655
-0.007774119 -0.10688437 -0.086273186 0.08700768 -0.00052424235 -0.033511102 -0.03889617 -0.09789965
-0.12776588 0.076673165 -0.00012380628 0.080565505 -0.06222301 0.06044369 0.05683005 0.078928
0.013215652 -0.07080942 0.019445121 0.039347187 -0.05005598 0.051053848 0.03219327 0.024232725
-0.0029640608 -0.08199811 0.031041369 0.055684287 -0.018741477 0.050448537 0.047458604 -0.034186445
-0.023915175 -0.0060205017 -0.045235924 0.03193638 0.026128756 0.19400346 0.11919842 0.088850036
-0.05355223 0.002042851 0.05445444 -0.03302227 0.04639333 -0.051162176 0.10734212 -0.06380102
-0.05066313 0.026396532 -0.04983705 0.042206015 -0.0018167474 -0.04165154 -0.05284202 -0.01619213
0.020318575 0.005491312 0.024834307 -0.08419148 0.0052779596 -0.042823397 -0.013591862 -0.048352826
-0.014009238 -0.0977574 0.030588385 -0.0076822424 0.022086527 -0.041049577 0.0053612012 0.020934239
-0.26799625 0.027826121 -0.108865075 0.064725466 0.029547134 -0.032942876 -0.026840655 0.018744472
0.020787932 -0.04163869 0.12824082 0.02162124 -0.06647778 -0.11415093 -0.049057223 0.016951874
0.01569904 -0.014222933 -0.062028058 0.023918917 0.13066106 -0.04874602 -0.0058153546 -0.023740042
0.14746246 -0.060010802 0.031163158 0.031543378 0.00720715 0.011095055 0.12960799 0.02728739
-0.029912893 -0.009319171 -0.03229155 -0.01557272 -0.12600312 0.04368658 -0.040350217 -0.005707671
-0.02402303 -0.048959468 0.090275995 -0.03290849 0.010271252 -0.017676271 0.07854058 -0.037621565
0.029686492 0.045319196 -0.09919908 0.07119954 0.0019918932 -0.03731827 -0.062892064 0.095217794
-0.050063998 -0.08009328 -0.064903334 -0.059714973 -0.016853198 -0.07547725 0.00442247 -0.048915457
-0.035962883 -0.13388948 -0.012034753 0.04759797 0.0357292 -0.093944326 0.0061877985 -0.05448005
0.011173407 0.0021976617 0.10706522 -0.07718727 0.027289357 0.06686355 0.10606879 0.020056618
0.008344709 0.06657172 -0.014564797 -0.037636947 0.035748977 -0.05688462 -0.025730256 0.06402279
-0.14715351 -0.040436544 -0.054432772 0.06747937 -0.04270753 -0.014894579 -0.014076128 0.037093453
0.012055605 -0.033498015 -0.047262143 0.114537075 0.0059649926 -0.014422815 -0.004272925 -0.048041396
0.002692688 -0.07584921 0.049757235 -0.054165207 -0.012056153 0.06868319 0.12438564 -0.013604659
-0.059982162 -0.10139874 0.0034659067 -0.08621258 -0.09703978 0.13415304 0.024331048 -0.006147842
0.07717768 -0.09791516 -0.023463268 0.08537552 0.03045442 -0.04452659 -0.011800792 -0.08177215
0.016127331 -0.052731678 -0.048268657 -0.04704283 -0.041826934 0.12959266 0.035463568 0.081412405
0.04711393 -0.0116696665 -0.048477147 0.04513323 -0.048219137 0.015841078 0.05322575 -0.05536119
-0.048692774 0.002874933 -0.052772515 0.01324715 -0.03313908 0.06132504 -0.017473554 0.053465564
0.018517734 -0.052662063 0.09576705 0.05068266 0.07478069 -0.07221023 0.03348859 0.039119564
00000000: c5a6 1ebd 98fc 2a3c 140d 303d dee5 a13c
00000010: 4d1f 263d e9bc 883d 7dcf 883c 1dea 7dbb
00000020: 03ac a73d 7963 1ebb 84fa 823d a6c6 8e3c
00000030: 1eac 7a3c db51 a1bd f858 813d 6768 973d
00000040: 5e7f 00bd 0970 b53c a972 903c a61b 3f3d
00000050: ba33 f83c 93d9 943b 837e a33c a25d 5f3d
00000060: 09be febb 31e6 dabd ffaf b0bd 1531 b23d
00000070: 4f6d 09ba f042 09bd 9751 1fbd 9d7f c8bd
00000080: 0fd5 02be d206 9d3d ffd1 01b9 87ff a43d
00000090: 8edd 7ebd cd93 773d a0c6 683d 01a5 a13d
000000a0: 7686 583c 8704 91bd 604b 9f3c 842a 213d
000000b0: 8007 4dbd d71d 513d 17dd 033d b583 c63c
000000c0: b040 42bb a0ee a7bd 784a fe3c 3515 643d
000000d0: ba87 99bc 20a3 4e3d f463 423d 1607 0cbd
000000e0: c2e9 c3bc a147 c5bb 4e49 39bd b9cf 023d
000000f0: f90b d63c d8a8 463e 4d1e f43d 02f7 b53d
00000100: 9559 5bbd 5ae1 053b 9e0b 5f3d 5c42 07bd
00000110: ef06 3e3d 6e8f 51bd 2fd6 db3d 1caa 82bd
00000120: 2484 4fbd 8a3d d83c ef21 4cbd 37e0 2c3d
00000130: ed1f eeba ce9a 2abd e070 58bd 5ca5 84bc
00000140: 2473 a63c 77f0 b33b 5171 cb3c 956c acbd
00000150: bcf2 ac3b 9667 2fbd 67b0 5ebc 9d0d 46bd
00000160: 0187 65bc 0835 c8bd 7e94 fa3c 52bb fbbb
00000170: ceee b43c 9a23 28bd 04ad af3b 487e ab3c
00000180: ce36 89be 9bf3 e33c a7f4 debd c98e 843d
00000190: d50c f23c 1cef 06bd efe0 dbbc 028e 993c
000001a0: 744b aa3c 558d 2abd 9051 033e 071f b13c
000001b0: 8125 88bd f6c7 e9bd 3af0 48bd a8de 8a3c
000001c0: 469b 803c 4e07 69bc 2211 7ebd 9bf1 c33c
000001d0: 03cc 053e e8a9 47bd bb8e bebb 7a7a c2bc
000001e0: 6600 173e e3cd 75bd e149 ff3c a133 013d
000001f0: f529 ec3b 09c8 353c f5b7 043e ce89 df3c
00000200: e20b f5bc 70af 18bc 2544 04bd b924 7fbc
00000210: f606 01be b3f0 323d 4546 25bd 6a07 bbbb
00000220: f2cb c4bc b989 48bd 9fe2 b83d 0ecb 06bd
00000230: c148 283c d4cd 90bc e2d9 a03d 1219 1abd
00000240: 1631 f33c 9fa0 393d e328 cbbd 10d1 913d
00000250: 6c8a 023b 0bdb 18bd 8ecd 80bd 8c01 c33d
00000260: e80f 4dbd f207 a4bd 0aec 84bd b097 74bd
00000270: b80f 8abc d193 9abd 5eea 903b 935b 48bd
00000280: d14d 13bd 531a 09be 6a2d 45bc 17f6 423d
00000290: c858 123d e265 c0bd 04c3 ca3b 7926 5fbd
000002a0: aa10 373c a506 103b 0345 db3d 5c14 9ebd
000002b0: ee8d df3c c2ef 883d 983a d93d c74d a43c
000002c0: 3fb8 083c c156 883d 30a1 6ebc 3329 1abd
000002d0: 856d 123d d9ff 68bd 42c8 d2bc 611e 833d
000002e0: 69af 16be caa0 25bd e6f4 5ebd a032 8a3d
000002f0: 17ee 2ebd 6408 74bc 8f9f 66bc 4eef 173d
00000300: df84 453c 3735 09bd f395 41bd 6a92 ea3d
00000310: fc75 c33b ac4d 6cbc e503 8cbb 0ec7 44bd
00000320: cf77 303b d556 9bbd 3ece 4b3d 56dc 5dbd
00000330: 2c87 45bc c6a9 8c3d e6bd fe3d 13e6 5ebc
00000340: dbaf 75bd 25aa cfbd 4424 633b 3990 b0bd
00000350: cbbc c6bd 6a5f 093e e851 c73c d673 c9bb
00000360: 550f 9e3d be87 c8bd 0a36 c0bc 5cd9 ae3d
00000370: 8c7b f93c 8361 36bd 1c58 41bc 2878 a7bd
00000380: 771d 843c 2cfd 57bd 5bb5 45bd fcaf 40bd
00000390: b852 2bbd f0b3 043e 3f42 113d 8cbb a63d
000003a0: 89fa 403d 2132 3fbc f98f 46bd 9fdd 383d
000003b0: 6e81 45bd 26c5 813c 3e03 5a3d 6ac2 62bd
000003c0: 1372 47bd 5f69 3c3b fe27 58bd 930a 593c
000003d0: d8bc 07bd f72f 7b3d b324 8fbc b5fe 5a3d
000003e0: 81b2 973c 2db4 57bd 8421 c43d 9f98 4f3d
000003f0: 9e26 993d f5e2 93bd 552b 093d d63b 203d

conv_layers.1.bias f4 [64]
-0.10441939 0.0036109274 -0.021152833 -0.025219914 -0.008527133 0.030262629 0.0461388 0.12498982
0.010079037 0.03472746 0.015829988 0.06152751 -0.07472111 -0.041471522 -0.10821505 -0.05533142
-0.049999613 -0.043985087 0.012846096 -0.031609114 0.05153997 -0.053099778 0.06410667 -0.08428629
0.07545755 -0.0053554485 0.033013772 -0.03886133 0.07763986 -0.011811483 -0.06966198 0.045468543
0.06952855 -0.005530076 -0.056970853 0.030472618 -0.0926096 0.08582235 0.012827253 0.0010897708
-0.04155253 0.05850719 0.021080058 0.02481392 0.059467416 -0.020902885 -0.07024993 0.024767086
-0.010143681 0.02536581 0.041315228 -0.002582173 -0.009089781 0.029016491 0.04661825 0.045827165
0.062457353 0.002047877 -0.07398199 -0.08560862 0.03709905 0.038927004 -0.03486881 -0.07800602
00000000: d5d9 d5bd 4fa5 6c3b b548 adbc fe99 cebc
00000010: 63b5 0bbc 55e9 f73c 0afc 3c3d aafa ff3d
00000020: 8c22 253c 623e 0e3d e4ad 813c 4504 7c3d
00000030: 6207 99bd 0bde 29bd da9f ddbd 33a3 62bd
00000040: 65cc 4cbd b529 34bd 6f78 523c 8f78 01bd
00000050: 931b 533d 277f 59bd 5c4a 833d 4a9e acbd
00000060: 7d89 9a3d c27c afbb 7339 073d 0f2d 1fbd
00000070: a601 9f3d f384 41bc f1aa 8ebd 393d 3a3d
00000080: fc64 8e3d a435 b5bb 455a 69bd b6a1 f93c
00000090: 1aaa bdbd a1c3 af3d 6629 523c a4d6 8e3a
000000a0: fc32 2abd 3ca5 6f3d 16b0 ac3c 9046 cb3c
000000b0: 1b94 733d 873c abbc 32df 8fbd 58e4 ca3c
000000c0: af31 26bc f6cb cf3c 283a 293d ad39 29bb
000000d0: 4eed 14bc feb3 ed3c c7f2 3e3d 44b5 3b3d
000000e0: 48d3 7f3d ad35 063b df83 97bd 9253 afbd
000000f0: 2cf5 173d ec71 1f3d 99d2 0ebd 9fc1 9fbd

conv_layers.2.weight f4 [64, 256, 4]
0.011719759 -0.10312244 0.0470626 -0.0040177642 -0.029556904 0.16977777 0.05691312 -0.00080134656
0.007471498 -0.005034819 -0.04551763 -0.012798153 0.08662994 -0.08318656 -0.043238558 -0.04230787
-0.073981516 -0.051666826 -0.09858991 -0.05043095 -0.026187489 0.008020299 0.021254323 -0.09845323
0.076624975 -0.008480034 0.042940784 0.044695046 0.062505774 0.034195513 0.055039987 -0.0042357445
0.029720476 -0.044642393 -0.104280844 0.020159328 -0.004953425 0.0044697565 -0.09861108 0.046238914
0.10612451 0.011799767 0.063223 -0.032615732 -0.00387707 -0.0143514965 0.029722031 0.03813918
-0.040221345 0.03511697 -0.051830128 0.044763297 -0.07048767 0.018936383 0.092266195 -0.017049162
-0.05408695 0.042151604 -0.011460384 -0.039616972 0.043489818 0.046413813 0.024408652 0.04352439
-0.08589107 0.044223215 0.07502285 0.040205978 -0.034523822 -0.07550796 -0.046128895 0.031676497
-0.028016638 0.029860858 0.0033614973 0.050187506 -0.056714848 0.02267622 -0.09008437 0.07071336
-0.047807008 0.0066706305 -0.029719528 0.10925781 -0.024167402 -0.070259094 0.09691704 0.07236661
-0.077907436 0.078404 -0.007940574 0.07688775 0.06225818 0.09840643 -0.08292582 -0.05092491
-0.028359989 -0.041889105 -0.0053370595 0.056219116 0.029182585 -0.07639027 0.071657605 0.037648756
0.037908804 -0.08632516 0.0035825202 0.10512715 0.020884352 -0.091271654 -0.05866129 0.116616026
-0.13437958 0.01968982 -0.06969093 -0.061663967 -0.01534276 -0.05072887 -0.08340512 0.12415127
0.052181087 -0.054827187 0.0999265 -0.04468318 -0.07992896 0.000327442 0.035153862 0.029812139
0.105872065 0.030967735 -0.019348748 0.04836764 -0.05726088 0.05549774 -0.009378371 -0.0045276666
-0.019643724 -0.022762703 -0.04209888 -0.039991464 -0.01119497 0.019410694 0.121276185 -0.101458274
-0.05900957 0.11019384 0.048233833 -0.13374664 -0.053733256 0.062341027 -0.03928652 -0.12745589
-0.06524872 0.07109544 0.071261205 0.11649344 0.023605427 0.06457014 -0.05911389 0.001390285
0.03611361 0.040659107 0.06678936 0.011657246 -0.010820688 -0.11060734 0.043337002 0.0063819485
-0.055838 0.07913904 -0.038528606 -0.051984277 -0.017202374 -0.0047333543 -0.017114777 0.06377243
0.06538074 0.03661552 0.016463757 0.012095935 -0.04827646 -0.017704664 0.011982156 0.028052218
-0.0022883255 -0.0064465776 -0.0007362086 0.01525742 -0.014100571 -0.027741842 0.14588128 -0.018272717
-0.018297508 0.046745203 -0.026948182 0.02938238 -0.005534355 0.050765697 0.0059584063 0.016997853
0.114525914 -0.09473101 -0.07534721 0.064983435 0.02085272 0.0033327506 0.048607897 0.025183663
0.0029519352 0.04513267 -0.01759631 -0.000677496 -0.010841848 -0.08909759 0.05332623 -0.07812365
0.060323708 -0.047253676 -0.01972046 -0.06309675 -0.021815937 -0.09108942 0.028097853 0.051140107
-0.024092985 0.04478791 -0.08001051 -0.0023879989 -0.10136961 0.038325805 0.038563896 0.011943393
0.055859637 0.051927008 -0.04254032 0.08663551 0.061370846 0.012234327 0.104752816 -0.042657997
-0.06725556 0.042496145 -0.06822278 -0.04771405 -0.01115627 0.053695682 0.060936913 0.06450299
-0.04281789 0.01879783 0.05851509 0.007591416 0.05320275 -0.018026853 0.076144814 0.10944325
00000000: 3b04 403c dc31 d3bd b6c4 403d 73a7 83bb
00000010: 5221 f2bc 39da 2d3e bb1d 693d 7511 52ba
00000020: 78d3 f43b 1ffb a4bb b270 3abd 58af 51bc
00000030: 0a6b b13d b75d aabd ea1a 31bd 044b 2dbd
00000040: 9f83 97bd 98a0 53bd 82e9 c9bd af90 4ebd
00000050: 2587 d6bc 9267 033c 8c1d ae3c d9a1 c9bd
00000060: 8eed 9c3d d7ef 0abc ade2 2f3d 2712 373d
00000070: 0703 803d 9810 0c3d 9c71 613d 00cc 8abb
00000080: 5b78 f33c f1da 36bd 3291 d5bd 2d25 a53c
00000090: 5750 a2bb 0977 923b 9bf4 c9bd 0465 3d3d
000000a0: cf57 d93d cf53 413c 0f7b 813d 1398 05bd
000000b0: 7116 7ebb 8a22 6bbc 9e7b f33c d437 1c3d
000000c0: 23bf 24bd d0d6 0f3d d44b 54bd b859 373d
000000d0: d75b 90bd 7920 9b3c 0ff6 bc3d afaa 8bbc
000000e0: 478a 5dbd 29a7 2c3d 56c4 3bbc 6845 22bd
000000f0: 6122 323d 691c 3e3d a7f4 c73c a146 323d
00000100: a8e7 afbd 6723 353d 94a5 993d 06af 243d
00000110: da68 0dbd eba3 9abd a7f1 3cbd 37bf 013d
00000120: 2683 e5bc c29e f43c 914c 5c3b 6a91 4d3d
00000130: d44d 68bd 7bc3 b93c 277e b8bd 2bd2 903d
00000140: 48d1 43bd 4e95 da3b 5e76 f3bc 8fc2 df3d
00000150: b7fa c5bc 00e4 8fbd 717c c63d f234 943d
00000160: ef8d 9fbd 4792 a03d 2e19 02bc 5377 9d3d
00000170: 6f02 7f3d 4f89 c93d 03d5 a9bd a396 50bd
00000180: 3553 e8bc e993 2bbd 80e2 aebb 0446 663d
00000190: 5110 ef3c 8072 9cbd 39c1 923d 9535 1a3d
000001a0: 4346 1b3d 3fcb b0bd b7c8 6a3b e74c d73d
000001b0: a915 ab3c a2ec babd d246 70bd 62d4 ee3d
000001c0: cd9a 09be 8c4c a13c 1eba 8ebd 5b93 7cbd
000001d0: 3360 7bbc 13c9 4fbd 4ed0 aabd 0543 fe3d
000001e0: d6bb 553d 7992 60bd 44a6 cc3d b605 37bd
000001f0: cbb1 a3bd 85ac ab39 7ffd 0f3d 9638 f43c
00000200: 74d3 d83d 0cb0 fd3c 4481 9ebc 251d 463d
00000210: 628a 6abd 9951 633d bda7 19bc d25c 94bb
00000220: e0eb a0bc d978 babc e06f 2cbd 17ce 23bd
00000230: 1c6b 37bc 2d03 9f3c a65f f83d 5bc9 cfbd
00000240: 05b4 71bd 4fad e13d d790 453d e1f4 08be
00000250: 6717 5cbd 4e59 7f3d e7ea 20bd cc83 02be
00000260: 1fa1 85bd 7c9a 913d 65f1 913d 1d94 ee3d
00000270: 2b60 c13c 593d 843d 6821 72bd 393a b63a
00000280: ddeb 133d 2a8a 263d dcc8 883d 09fe 3e3c
00000290: 4149 31bc 1a86 e2bd 2482 313d aa1f d13b
000002a0: 63b6 64bd a613 a23d 2cd0 1dbd 77ed 54bd
000002b0: feeb 8cbc 411a 9bbb 4a34 8cbc 1f9b 823d
000002c0: 56e6 853d 28fa 153d 00df 863c 072e 463c
000002d0: 8abd 45bd 5f09 91bc ce50 443c c4cd e53c
000002e0: bbf7 15bb d03d d3bb 1ffe 40ba 42fa 793c
000002f0: 1506 67bc dc42 e3bc e761 153e aab0 95bc
00000300: a8e4 95bc e677 3f3d 6fc2 dcbc 51b3 f03c
00000310: 8959 b5bb b1ef 4f3d bc3e c33b 153f 8b3c
00000320: 908c ea3d 5502 c2bd a34f 9abd 0916 853d
00000330: 53d3 aa3c 476a 5a3b 1319 473d f84d ce3c
00000340: 4175 413b 09dd 383d 2326 90bc fd99 31ba
00000350: 02a2 31bc cc78 b6bd 9b6c 5a3d 4bff 9fbd
00000360: fe15 773d 128d 41bd cd8c a1bc de38 81bd
00000370: 56b7 b2bc 178d babd 782d e63c 4a78 513d
00000380: a75e c5bc 8773 373d 8ddc a3bd f97f 1cbb
00000390: df9a cfbd 85fb 1c3d 2df5 1d3d 39ae 433c
000003a0: 13cd 643d 6ab1 543d c23e 2ebd f56d b13d
000003b0: ff5f 7b3d 7d72 483c a588 d63d 27ba 2ebd
000003c0: 48bd 89bd 7010 2e3d 63b8 8bbd cf6f 43bd
000003d0: cac8 36bc 01f0 5b3d fc98 793d 251a 843d
000003e0: d061 2fbd e8fd 993c 85ad 6f3d 6ac1 f83b
000003f0: 20eb 593d 0dad 93bc d0f1 9b3d c823 e03d

conv_layers.2.bias f4 [64]
-0.049718067 -0.035601348 -0.00432439 -0.028683359 -0.032347742 -0.032845836 -0.047132146 0.04274
0.009997926 0.01263701 0.08775741 -0.106013134 0.007657613 -0.09092523 -0.046280134 0.0021292388
-0.058434457 0.015148185 -0.15669328 -0.0028072265 -0.035539072 -0.06974468 0.054403897 0.07334997
0.06207641 0.013014745 -0.0060557057 -0.03353611 -0.0018473498 0.025860747 -0.09987429 0.038524196
-0.09449703 -0.015026848 -0.07217021 -0.026571065 -0.038629383 0.02062298 -0.1042713 -0.028487097
-0.0641227 0.045148443 -0.0019640494 0.03021817 0.047421902 -0.032079045 -0.13952063 -0.11209666
0.08946614 -0.026109705 -0.07487167 -0.055814464 -0.14677417 -0.009332708 0.021572426 0.040663213
-0.011571416 0.0058696736 -0.09431039 0.018593363 -0.020648688 -0.014106211 0.08331217 0.034065854
00000000: 2ca5 4bbd b8d2 11bd 9db3 8dbb 5df9 eabc
00000010: 117f 04bd 5b89 06bd a30d 41bd 2310 2f3d
00000020: 57ce 233c 760b 4f3c 28ba b33d 6a1d d9bd
00000030: b7ec fa3b 0237 babd 3d90 3dbd b38a 0b3b
00000040: f858 6fbd 1830 783c 3474 20be 72f9 37bb
00000050: 6b91 11bd 4cd6 8ebd 9fd6 5e3d 8238 963d
00000060: d543 7e3d cc3b 553c f16e c6bb 295d 09bd
00000070: c622 f2ba ebd9 d33c e48a ccbd 8ccb 1d3d
00000080: a987 c1bd 2b33 76bc facd 93bd 90ab d9bc
00000090: d839 1ebd 86f1 a83c 318c d5bd c65d e9bc
000000a0: c352 83bd 93ed 383d 48b7 00bb 188c f73c
000000b0: 783d 423d 5165 03bd 7fde 0ebe ef92 e5bd
000000c0: 063a b73d 05e4 d5bc 5156 99bd b59d 64bd
000000d0: f84b 16be 37e8 18bc a8b8 b03c 788e 263d
000000e0: 0996 3dbc 6456 c03b ce25 c1bd 1c51 983c
000000f0: 7027 a9bc bd1d 67bc 929f aa3d a388 0b3d

conv_layers.3.weight f4 [64, 256, 5]
-0.033020418 -0.040119678 0.013270072 -0.05604362 0.053566467 0.03715837 0.06539496 -0.043600336
0.06703356 0.06061996 0.049727894 0.03670227 -0.06537366 0.011189961 -0.09758513 -0.01200889
-0.038646687 -0.06454146 0.05541766 -0.058704082 -0.0010144904 -0.02581892 0.015328795 0.033502974
0.0326275 -0.06180299 -0.0011090344 0.099470735 -0.007700617 -0.074339874 0.029648066 0.01926013
0.050874982 0.009329957 -0.069717795 -0.019530352 -0.035492428 -0.007085838 0.08305485 -0.051730517
-0.0035574553 -0.057660874 0.07285935 -0.15254603 0.0619222 -0.047183894 -0.055961896 0.06251205
0.10190312 -0.08256629 -0.07895422 -0.0029250742 -0.05187254 0.031329896 -0.0012998581 0.021684553
0.074009314 0.026745291 0.035890993 -0.015636323 0.009509249 -0.11304442 0.0678161 0.038027667
-0.018585304 -0.013019722 0.029327774 -0.015362474 0.02073574 -0.08094664 -0.0027470032 0.065559365
-0.034964874 -0.010237776 -0.00077905634 0.017724428 0.049318507 -0.08949283 -0.11669905 -0.07358786
0.030323474 -0.06821551 0.049783595 0.030327134 -0.10999707 0.12552138 0.01420262 -0.013956267
-0.018288631 0.041690335 0.07335582 -0.04353306 -0.015549066 0.003057585 0.12108722 0.050032485
-0.0072325217 -0.077518895 0.018292384 -0.0033687968 -0.036914393 0.030703865 -0.13282186 0.13732149
0.054683473 -0.03173017 0.0092005525 -0.011622522 -0.01660332 -0.107787386 -0.00844439 0.005234937
-0.03633119 -0.02629701 -0.084221415 0.023575207 0.035811312 -0.0005349915 0.06985681 0.104644425
-0.006960108 0.05132416 -0.01304344 0.04307607 -0.04822312 -0.009206168 -0.15528268 0.02974632
-0.004014437 -0.10790847 -0.019949907 -0.07254787 -0.054197866 0.018417893 -0.09354521 -0.017608918
-0.062044088 -0.095105596 -0.0062807426 -0.07795597 -0.10470446 -0.01661018 -0.029070137 0.033911902
-0.07081312 0.010859294 0.01151994 -0.035491753 -0.014990796 -0.06373099 0.05470031 -0.007196758
0.03674649 0.009101921 -0.052262202 0.077675544 0.013759366 0.013423309 -0.0341363 -0.046603464
-0.07923201 0.016480781 0.061960656 0.08080568 0.015021987 0.020102352 -0.12367591 0.022175917
-0.0012160895 0.10789788 -0.063367 0.050260063 -0.050391875 0.05022669 -0.03128177 -0.024941912
0.051300693 -0.019140854 -0.1036654 0.040402595 -0.0464468 0.0413718 -0.015500613 -0.032696854
-0.017592898 -0.08014206 -0.034225225 -0.018666934 -0.059797224 -0.017210735 0.056918416 0.06470042
-0.0136528695 -0.08896811 -0.07879543 0.038994815 0.026899345 0.036127675 0.039742805 -0.024169365
0.050747007 0.101149075 0.005592867 -0.0005170232 0.018979592 0.026001215 -0.048928715 0.04918052
0.0016335661 -0.017621541 0.093707 0.0337872 -0.0003552235 0.04240445 -0.081822015 0.028042883
-0.035904136 0.050770808 -0.015627109 -0.073539235 0.118417375 0.044590563 0.07033933 0.054967314
-0.13961098 0.06896967 -0.047449335 -0.038173143 -0.014141773 -0.003494234 0.07791361 0.061758615
0.018003933 -0.010084609 -0.03911019 0.092778 -0.07526705 0.07498563 0.11926611 -0.08844329
-0.044976596 -0.008002354 -0.014864762 0.012979807 0.05412844 0.08265571 -0.045255065 -0.026160074
-0.1266207 -0.07621227 0.025021866 -0.019881047 -0.114627905 0.09241366 -0.007945995 0.035890896
00000000: 6b40 07bd 8854 24bd b76a 593c ff8d 65bd
00000010: 8368 5b3d 6033 183d cbed 853d 4496 32bd
00000020: e448 893d a34c 783d 7aaf 4b3d 1f55 163d
00000030: a0e2 85bd 1956 373c b6da c7bd efc0 44bc
00000040: fd4b 1ebd 502e 84bd a1fd 623d b173 70bd
00000050: a6f8 84ba 3382 d3bc a025 7b3c 6a3a 093d
00000060: 6aa4 053d 2225 7dbd 055d 91ba 50b7 cb3d
00000070: 7555 fcbb 813f 98bd 80e0 f23c 6cc7 9d3c
00000080: 4962 503d addc 183c 34c8 8ebd 1efe 9fbc
00000090: 8260 11bd 5130 e8bb a918 aa3d 61e3 53bd
000000a0: 3224 69bb cf2d 6cbd 4837 953d 0735 1cbe
000000b0: 22a2 7d3d e643 41bd 4d38 65bd 5106 803d
000000c0: 95b2 d03d 8418 a9bd c0b2 a1bd 9ab2 3fbb
000000d0: 4d78 54bd c753 003d 0060 aaba cea3 b13c
000000e0: 3292 973d f118 db3c 6f02 133d bf17 80bc
000000f0: aecc 1b3c d583 e7bd 2be3 8a3d e6c2 1b3d
00000100: 3540 98bc ac50 55bc cd40 f03c e3b2 7bbc
00000110: 00de a93c 5ac7 a5bd 1107 34bb fd43 863d
00000120: 5437 0fbd 58bc 27bc 9639 4cba d232 913c
00000130: 3402 4a3d 0448 b7bd e9ff eebd 3bb5 96bd
00000140: ef68 f83c 93b4 8bbd e2e9 4b3d 9c70 f83c
00000150: 2546 e1bd ad88 003e 1bb2 683c d4a8 64bc
00000160: 0ad2 95bc 7cc3 2a3d 933b 963d b94f 32bd
00000170: 82c1 7ebc c461 483b 94fc f73d ddee 4c3d
00000180: cafe ecbb 3ac2 9ebd e9d9 953c 08c7 5cbb
00000190: 8c33 17bd ac86 fb3c 7402 08be 019e 0c3e
000001a0: c7fb 5f3d 7ff7 01bd eabd 163c 646c 3ebc
000001b0: b003 88bc a2bf dcbd 575a 0abc d689 ab3b
000001c0: 04d0 14bd d46c d7bc 477c acbd cb20 c13c
000001d0: e2ae 123d ac3e 0cba 1611 8f3d d14f d63d
000001e0: 9e11 e4bb 4839 523d 27b4 55bc 8870 303d
000001f0: 9b85 45bd 78d5 16bc 6c02 1fbe 8eae f33c
00000200: 8a8b 83bb 1eff dcbd fd6d a3bc fa93 94bd
00000210: 95fe 5dbd 1fe1 963c a294 bfbd 9440 90bc
00000220: f121 7ebd b9c6 c2bd b0ce cdbb 61a7 9fbd
00000230: 4b6f d6bd 1212 88bc 7f24 eebc 35e7 0a3d
00000240: 7806 91bd 2eeb 313c 21be 3c3c cd5f 11bd
00000250: f59b 75bc 6585 82bd 6f0d 603d c8d2 ebbb
00000260: 7d83 163d 3920 153c e410 56bd 5b14 9f3d
00000270: f76e 613c 70ed 5b3c 81d2 0bbd 46e3 3ebd
00000280: 6444 a2bd b402 873c 75ca 7d3d 737d a53d
00000290: c81e 763c b0ad a43c cc49 fdbd 45aa b53c
000002a0: 3165 9fba 90f9 dc3d 8fc6 81bd 7fdd 4d3d
000002b0: b667 4ebd 80ba 4d3d 5021 00bd fb52 ccbc
000002c0: ad20 523d 48cd 9cbc 864e d4bd 317d 253d
000002d0: 003f 3ebd 7a75 293d 48f6 7dbc 23ed 05bd
000002e0: fb1e 90bc 8521 a4bd c02f 0cbd 66eb 98bc
000002f0: efed 74bd 87fd 8cbc 4923 693d a781 843d
00000300: 49b0 5fbc ea34 b6bd 805f a1bd 07b9 1f3d
00000310: 045c dc3c 9dfa 133d 5ac9 223d d5fe c5bc
00000320: 18dc 4f3d 3f27 cf3d 5e44 b73b d788 07ba
00000330: 177b 9b3c 8000 d53c 7a69 48bd 8371 493d
00000340: 621d d63a 0d5b 90bc 75e9 bf3d 7264 0a3d
00000350: 4b3d bab9 4ab0 2d3d 4d92 a7bd 30ba e53c
00000360: 3710 13bd 0df5 4f3d 6c04 80bc bd9b 96bd
00000370: cf84 f23d 98a4 363d 110e 903d 6825 613d
00000380: 2ef6 0ebe f83f 8d3d 3c5a 42bd 715b 1cbd
00000390: e5b2 67bc 85ff 64bb 2c91 9f3d 9af6 7c3d
000003a0: fc7c 933c ea39 25bc 0232 20bd 6402 be3d
000003b0: 9c25 9abd 1192 993d ca41 f43d c121 b5bd
000003c0: 6139 38bd 4e1c 03bc 558b 73bc 42a9 543c
000003d0: c8b5 5d3d 6647 a93d 605d 39bd a74d d6bc
000003e0: dba8 01be 2e15 9cbd a8fa cc3c 94dd a2bc
000003f0: 09c2 eabd 5f43 bd3d eb2f 02bc 5502 133d

conv_layers.3.bias f4 [64]
-0.17413948 -0.023870096 0.0029573562 -0.07386915 -0.0043279817 0.0025402182 -0.05005148 -0.041441422
-0.016660903 -0.16014124 -0.04146301 0.011642631 0.013137918 -0.038571086 -0.0523934 -0.019325893
-0.075168066 -0.08805465 -0.02465622 -0.119667865 -0.06659189 -0.02187035 -0.010691349 -0.001312988
-0.011106744 -0.019372903 0.026170982 0.030066926 -0.11259038 0.00222053 0.007432838 -0.020605443
0.07491375 -0.011097043 -0.001281095 -0.009864604 -0.042184774 0.012514783 -0.0053481846 -0.058549505
0.06290684 -0.05364036 0.10074913 0.06979388 0.05195193 -0.12224665 0.0767924 -0.010535199
0.0049841623 0.023677452 -0.035677765 -0.05629039 -0.02117742 -0.18657225 0.052503582 -0.046211492
0.014302438 -0.072422475 0.022693021 0.020979146 0.029860355 -0.04344789 -0.06238206 -0.011908829
00000000: 9f51 32be 388b c3bc 34d0 413b b548 97bd
00000010: bed1 8dbb ca79 263b c802 4dbd 7bbe 29bd
00000020: 727c 88bc 11fc 23be 1ed5 29bd bcc0 3e3c
00000030: 6c40 573c b7fc 1dbd 769a 56bd 5651 9ebc
00000040: b7f1 99bd ff55 b4bd d7fb c9bc 6d14 f5bd
00000050: 5461 88bd 7329 b3bc c52a 2fbc 9118 acba
00000060: 10f9 35bc ecb3 9ebc 8764 d63c ea4e f63c
00000070: c995 e6bd 5086 113b 2a8f f33b bfcc a8bc
00000080: 616c 993d 5fd0 35bc 6aea a7ba 269f 21bc
00000090: f1c9 2cbd ce0a 4d3c d33f afbb 9bd1 6fbd
000000a0: 4dd5 803d feb5 5bbd 8f55 ce3d 18f0 8e3d
000000b0: 8ccb 543d 745c fabd 5545 9d3d d49b 2cbc
000000c0: 2f52 a33b 37f7 c13c d922 12bd c190 66bd
000000d0: 457c adbc cc0c 3fbe ff0d 573d 4348 3dbd
000000e0: c654 6a3c 3c52 94bd b7e6 b93c 75dc ab3c
000000f0: b49d f43c 6af6 31bd 5584 7fbd 401d 43bc

fc1.weight f4 [64, 256]
-0.04068149 0.013399786 -0.012775077 -0.009942956 -0.064175606 0.02124533 0.05251272 -0.0056665326
-0.038015835 -0.012398567 -0.026797783 -0.056404047 -0.0012967511 -0.054212242 0.03600097 -0.041418727
-0.04772318 -0.020781368 0.00015118603 0.0048386375 -0.004676857 0.019893615 0.0050921827 -0.06950958
0.009365908 -0.053553957 0.04597197 -0.03640066 0.021698609 0.010204765 -0.060607586 -0.009928829
-0.040590953 -0.013180969 -0.06928167 0.028407168 -0.0025495673 -0.074269116 -0.06364813 0.026687607
-0.0021399625 -0.00840204 0.057644956 -0.024234835 -0.03921661 -0.028816966 0.01696983 -0.02338879
-0.079625405 -0.00065210764 -0.025032995 -0.03917806 -0.035188813 0.022255683 0.044619374 -0.026984533
-0.015977358 0.04772129 0.015358565 0.017331123 0.007083909 -0.07248981 -0.027016122 0.025478674
-0.031902548 0.01296615 0.036591 -0.055593252 -0.007834066 0.024920462 -0.05577623 0.010026795
-0.013729548 -0.03644838 -0.02221308 -0.038499787 0.0017396718 0.03699913 -0.027119514 0.033698957
0.030569378 -0.03942887 0.0068683443 -0.048919808 -0.014679773 0.0336584 0.0104804775 0.011722501
-0.025092363 0.010990299 0.027048105 -0.04837491 -0.0008504547 -0.06163859 -0.014579592 0.056471948
0.02914999 0.051961828 -0.043394715 -0.0097962385 0.01804281 -0.037809093 0.021138795 0.0074490234
0.011286922 0.049896084 -0.073802166 -0.05781367 0.001871665 -0.013938067 -0.046292998 -0.019607406
-0.005094251 0.015329735 0.0113445055 -0.00012991345 -0.06315904 0.013126968 -0.024683455 -0.0053349407
-0.023584224 -0.043582655 0.016620476 0.025593488 -0.03861523 -0.055158164 0.006897631 -0.020384295
-0.062283203 0.041569557 -0.0062106075 0.02358474 -0.053344205 -0.06290873 -0.022598268 0.03973494
0.02175659 -0.04753663 0.005391207 0.008703043 -0.07560306 -0.010598849 0.001844257 -0.020301046
0.044927377 0.04774646 0.041829403 0.032367226 -0.0052103754 0.0028107932 -0.059924614 -0.033057578
-0.056368325 0.011375822 -0.023038283 -0.003921558 -0.018094616 -0.06454238 0.03466046 -0.047376215
0.04884149 0.03910885 -0.03180289 -0.022488134 -0.041895013 -0.056147672 -0.0109314 -0.06304634
0.041252088 0.009235983 -0.05188264 -0.020568512 -0.03998271 -0.016448053 -0.05718904 0.058435373
-0.026283985 0.005402913 -0.022130053 0.033350535 0.00997371 -0.019323155 0.031141484 -0.046688005
-0.038237065 -0.06736023 -0.023986366 -0.0653977 -0.07209727 0.007771017 -0.0029773125 0.005439332
0.017010568 -0.031250462 -0.083171755 -0.036091432 -0.03482101 -0.059205335 -0.0140924025 -0.00046818054
0.008834567 -0.06316919 -0.0044593015 0.03789505 0.048116144 -0.06335258 -0.021112004 0.006534131
-0.0071503543 0.00065080513 0.004786253 0.051270723 0.006419 -0.08690906 0.00036807876 -0.0675415
0.0124379285 -0.004539166 -0.029003745 -0.034912046 0.03681487 0.008648676 0.049910687 -0.014558654
0.014643161 0.040033232 -0.02642156 -0.04263668 -0.044877756 0.0067278487 -0.07571039 0.01402172
-0.02310493 0.010434964 -0.044707645 -0.02513154 -0.0343529 -0.023785515 0.0046468843 -0.048504286
0.024868133 -0.040037207 -0.0005822088 -0.044873714 -0.0447538 -0.03530263 0.02734924 0.05212419
-0.022560278 -0.027754847 -0.044970695 -0.06064596 0.05209102 -0.041060243 0.038479455 0.0055254437
00000000: a2a1 26bd c78a 5b3c 8e4e 51bc c8e7 22bc
00000010: 806e 83bd b00a ae3c 9417 573d 52ae b9bb
00000020: 7eb6 1bbd 5c23 4bbc 0687 dbbc ee07 67bd
00000030: bff7 a9ba a80d 5ebd c175 133d afa6 29bd
00000040: 6279 43bd b03d aabc b187 1e39 6f8d 9e3b
00000050: 5240 99bb eff7 a23c 53dc a63b 0a5b 8ebd
00000060: 7773 193c 655b 5bbd 1b4d 3c3d dc18 15bd
00000070: 48c1 b13c e331 273c a93f 78bd 87ac 22bc
00000080: b342 26bd fef4 57bc 8ce3 8dbd 26b6 e83c
00000090: a416 27bb 681a 98bd f359 82bd f89f da3c
000000a0: 9d3e 0cbb b6a8 09bc 1e1d 6c3d 2288 c6bc
000000b0: 99a1 20bd 8f11 ecbc 5004 8b3c d999 bfbc
000000c0: a512 a3bd 34f2 2aba ff11 cdbc 2c79 20bd
000000d0: 2522 10bd 8d51 b63c cec2 363d ab0e ddbc
000000e0: f3e2 82bc 6677 433d 7ea2 7b3c 00fa 8d3c
000000f0: 2320 e83b 8a75 94bd ea50 ddbc a7b8 d03c
00000100: 3fac 02bd fa6f 543c 72e0 153d c0b5 63bd
00000110: 745a 00bc ff25 cc3c 9e75 64bd 6d47 243c
00000120: e6f1 60bc e64a 15bd 35f8 b5bc f4b1 1dbd
00000130: b305 e43a 668c 173d be29 debc eb07 0a3d
00000140: a26c fa3c 2b80 21bd d90f e13b 2360 48bd
00000150: 6e83 70bc 64dd 093d 4fb6 2b3c bc0f 403c
00000160: 808e cdbc a810 343c fd93 dd3c c524 46bd
00000170: 0cf1 5eba bf78 7cbd 3edf 6ebc 214f 673d
00000180: f6cb ee3c edd5 543d a8be 31bd 6780 20bc
00000190: 84ce 933c b5dd 1abd 442b ad3c f016 f43b
000001a0: c8ec 383c d65f 4c3d 9725 97bd 07ce 6cbd
000001b0: a852 f53a 7d5c 64bc ba9d 3dbd b69f a0bc
000001c0: aded a6bb 9229 7b3c 4ede 393c 6039 08b9
000001d0: 8759 81bd 7f12 573c f534 cabc bad0 aebb
000001e0: b433 c1bc ba83 32bd aa27 883c 6fa9 d13c
000001f0: 012b 1ebd 87ed 61bd 8605 e23b f7fc a6bc
00000200: ac1c 7fbd d744 2a3d 5a82 cbbb c934 c13c
00000210: 747f 5abd 4bd6 80bd 0120 b9bc 1bc1 223d
00000220: e03a b23c c5b5 42bd b9a8 b03b 3597 0e3c
00000230: c7d5 9abd cba6 2dbc ffba f13a 614e a6bc
00000240: c505 383d cb91 433d 4f55 2b3d 7f93 043d
00000250: ccbb aabb 4935 383b 8373 75bd 6267 07bd
00000260: 79e2 66bd a861 3a3c c8ba bcbc 6a80 80bb
00000270: 293b 94bc cc2e 84bd 20f8 0d3d 900d 42bd
00000280: 040e 483d 9a30 203d bf43 02bd 0939 b8bc
00000290: 1b9a 2bbd 1afb 65bd 9d19 33bc 711e 81bd
000002a0: f3f7 283d 8552 173c e482 54bd 4c7f a8bc
000002b0: e9c4 23bd 11be 86bc 0e3f 6abd ee59 6f3d
000002c0: 8351 d7bc eb0a b13b 164a b5bc 929a 083d
000002d0: c668 233c 984b 9ebc 6d1c ff3c ec3b 3fbd
000002e0: 789e 1cbd 29f4 89bd 0e7f c4bc 3bef 85bd
000002f0: bca7 93bd 04a4 fe3b 041f 43bb 6d3c b23b
00000300: bf59 8b3c 7c00 00bd f455 aabd 9cd4 13bd
00000310: 7aa0 0ebd 4b81 72bd d2e3 66bc 2176 f5b9
00000320: dcbe 103c d95e 81bd 551f 92bb d737 1b3d
00000330: 6f15 453d ffbe 81bd 15f3 acbc 431c d63b
00000340: 854d eabb cb9a 2a3a 00d6 9c3b 4001 523d
00000350: 7a56 d23b 61fd b1bd b2fa c039 3353 8abd
00000360: 74c8 4b3c 49bd 94bb 4399 edbc efff 0ebd
00000370: 30cb 163d 2db3 0d3c 266f 4c3d 6c87 6ebc
00000380: dee9 6f3c e3f9 233d 0772 d8bc cda3 2ebd
00000390: bdd1 37bd 4975 dc3b 0d0e 9bbd 5bbb 653c
000003a0: 8d46 bdbc 69f7 2a3c 5d1f 37bd a9e0 cdbc
000003b0: a0b5 0cbd d7d9 c2bc e444 983b 6eac 46bd
000003c0: 41b8 cb3c 0efe 23bd 5f9f 18ba 80cd 37bd
000003d0: c34f 37bd 7e99 10bd 830b e03c 2d80 553d
000003e0: 55d0 b8bc 225e e3bc 3133 38bd e667 78bd
000003f0: 655d 553d c92e 28bd a29c 1d3d c80e b53b

fc1.bias f4 [64]
-0.04989427 -0.01578507 0.015155371 -0.05112367 0.05648509 0.047791526 0.08467504 0.13367741
0.005365776 0.053459313 0.021822317 0.016979054 -0.052591383 0.02245844 0.01943906 0.0399597
-0.018192299 0.04745352 -0.11647235 0.071465485 0.00025218222 -0.1016714 0.11701819 0.03221429
-0.054550093 0.008926119 0.0010584609 0.020330073 -0.0100496495 -0.05139666 -0.05808148 0.03733156
-0.021619158 0.062194634 -0.08586137 0.10087772 -0.008894877 -0.03817907 0.07056606 -0.009885962
0.012668674 -0.05966907 -2.6982465e-05 -0.0007551548 0.09828298 -0.060574595 -0.028328948 0.09410936
0.04839087 -0.06867315 0.025562862 -0.071738586 0.026459428 0.04967457 0.017662931 0.027048748
0.029986566 0.057807844 -0.056797344 0.056712575 0.03012224 0.0262514 -0.06203825 -0.010609987
00000000: ef5d 4cbd b14f 81bc 3c4e 783c 0e67 51bd
00000010: e95c 673d 0cc1 433d 1b6a ad3d bbe2 083e
00000020: 64d3 af3b 27f8 5a3d b7c4 b23c a817 8b3c
00000030: 106a 57bd c3fa b73c aa3e 9f3c c8ac 233d
00000040: 0408 95bc 9f5e 423d 0e89 eebd 7f5c 923d
00000050: 5337 8439 1839 d0bd 3ca7 ef3d 22f3 033d
00000060: eb6f 5fbd db3e 123c 0ebc 8a3a 418b a63c
00000070: 49a7 24bc 4e85 52bd d9e6 6dbd fae8 183d
00000080: a91a b1bc cdbf 7e3d 16d8 afbd fa98 ce3d
00000090: d1bb 11bc a861 1cbd f084 903d bbf8 21bc
000000a0: 4590 4f3c 8e67 74bd 6758 e2b7 95f5 45ba
000000b0: 9648 c93d 111d 78bd 1c12 e8bc 68bc c03d
000000c0: 8135 463d 82a4 8cbd 3569 d13c aeeb 92bd
000000d0: 71c1 d83c 9077 4b3d dab1 903c 5695 dd3c
000000e0: 63a6 f53c ebc7 6c3d 55a4 68bd 724b 683d
000000f0: eac2 f63c 2d0d d73c d21b 7ebd 83d5 2dbc

batch_norm.weight f4 [64]
0.96680826 1.5477716 0.99399465 1.828018 1.885206 2.26462 2.0277817 1.6545036
0.9686465 1.7537546 0.98395544 1.8217331 0.9936235 1.767344 0.988873 0.99399465
0.99321216 1.4028541 2.3553376 1.6450335 1.8825566 2.0303564 2.3549569 0.98133343
0.9908561 1.6946888 0.99029034 0.97088706 1.7048422 0.9926446 0.993407 1.3963485
2.2573988 1.6306571 0.9710068 1.8763834 2.1276047 0.99399453 2.0798266 0.9806385
1.0047526 1.9155649 1.6353097 1.8091018 1.8528223 0.9864355 1.0 1.8257802
1.9425035 0.9866651 0.9917178 0.9882144 0.9929482 1.0 0.98875344 1.8066672
0.9941421 1.8372368 0.98008823 1.9325069 2.0262442 0.99399483 0.983259 0.9928947
00000000: bf80 773f 611d c63f 6f76 7e3f 7efc e93f
00000010: 6e4e f13f 89ef 1040 2dc7 0140 c6c6 d33f
00000020: 38f9 773f 087b e03f 81e4 7b3f 8d2e e93f
00000030: 1c5e 7e3f 5438 e23f c826 7d3f 6f76 7e3f
00000040: 2743 7e3f b990 b33f dabd 1640 7590 d23f
00000050: 9df7 f03f 5cf1 0140 9db7 1640 ab38 7b3f
00000060: bfa8 7d3f 90eb d83f ab83 7d3f 0e8c 783f
00000070: 4538 da3f f51d 7e3f ec4f 7e3f 8cbb b23f
00000080: 3979 1040 5fb9 d03f e793 783f 552d f03f
00000090: ad2a 0840 6d76 7e3f e11b 0540 200b 7b3f
000000a0: bc9b 803f 3b31 f53f d451 d13f a690 e73f
000000b0: 4829 ed3f 0987 7c3f 0000 803f 2ab3 e93f
000000c0: f4a3 f83f 1696 7c3f 38e1 7d3f 9efb 7c3f
000000d0: da31 7e3f 0000 803f f21e 7d3f df40 e73f
000000e0: 1980 7e3f 932a eb3f 10e7 7a3f 635c f73f
000000f0: fcad 0140 7276 7e3f ddb6 7b3f 592e 7e3f

batch_norm.bias f4 [64]
0.10442719 -0.0017598243 -0.045254793 0.025824042 0.03748733 0.0020901957 -0.00395077 -0.0005343507
-0.0045952387 0.056197334 0.15247563 0.02646402 -0.017139595 0.063497074 -0.029222568 -0.08428984
-0.12148039 0.066626415 0.008232994 0.0508041 -0.016416388 -0.008898828 0.12122064 -0.12019741
-1.9599349e-05 -5.75657e-06 0.079586685 -0.10134922 -0.049394343 -0.081191584 -0.043708067 -0.109844364
-0.0012929155 0.012075651 2.467784e-05 0.029502058 -0.006193586 0.14024574 0.007256777 -0.0007609491
-0.04862212 -0.013205014 -0.002056108 -0.021841355 -0.03286638 -0.08801746 0.07355314 0.048544336
0.018217925 8.665506e-06 -0.08169546 0.067974605 0.06542453 0.0011888886 -0.00031177947 0.050800912
-0.039562058 0.044689585 0.11893725 0.012131246 0.046281114 0.0751228 0.08264896 0.028976979
00000000: ecdd d53d e8a9 e6ba 175d 39bd f18c d33c
00000010: 518c 193d aafb 083b 7675 81bb ab13 0cba
00000020: a893 96bb 2d2f 663d 9222 1c3e 13cb d83c
00000030: 5668 8cbc c10a 823d 2b64 efbc 27a0 acbd
00000040: b6ca f8bd 6e73 883d aee3 063c f617 503d
00000050: a97b 86bc 64cc 11bc 8742 f83d 0f2a f6bd
00000060: 4869 a4b7 8f28 c1b6 58fe a23d 2e90 cfbd
00000070: b951 4abd c647 a6bd 3b07 33bd 15f6 e0bd
00000080: 0c77 a9ba f4d8 453c 4203 cf37 4dae f13c
00000090: 91f3 cabb 949c 0f3e 42ca ed3b 6e7a 47ba
000000a0: fd27 47bd d859 58bc c5bf 06bb a4ec b2bc
000000b0: e69e 06bd 8042 b4bd 07a3 963d 6dd6 463d
000000c0: c23d 953c 1162 1137 f34f a7bd 4536 8b3d
000000d0: 4cfd 853d 7bd4 9b3a 5576 a3b9 9e14 503d
000000e0: d30b 22bd 6d0c 373d 5f95 f33d 22c2 463c
000000f0: 4491 3d3d fcd9 993d dc43 a93d 2161 ed3c

batch_norm.running_mean f4 [64]
6e-45 3.758868e-16 6e-45 6.6788786e-20 2.5051e-41 6e-45 6e-45 6e-45
6e-45 6e-45 6e-45 6e-45 6e-45 6e-45 6e-45 6e-45
6e-45 2.310937 2.68106e-40 2.9920485e-19 6e-45 6e-45 10.121912 6e-45
6e-45 6e-45 6e-45 6e-45 6e-45 6e-45 6e-45 1.6993015
6e-45 2.5539488e-15 6e-45 6e-45 2.1298e-41 6e-45 6e-45 6e-45
6e-45 6e-45 1.03571955e-20 6e-45 6e-45 6e-45 0.0 6e-45
6e-45 6e-45 6e-45 6e-45 6e-45 0.0 6e-45 6e-45
6e-45 6e-45 6e-45 6e-45 6e-45 6e-45 4.3378056e-20 6e-45
00000000: 0400 0000 1aaf d825 0400 0000 58b3 9d1f
00000010: d545 0000 0400 0000 0400 0000 0400 0000
00000020: 0400 0000 0400 0000 0400 0000 0400 0000
00000030: 0400 0000 0400 0000 0400 0000 0400 0000
00000040: 0400 0000 64e6 1340 5feb 0200 8f9e b020
00000050: 0400 0000 0400 0000 5af3 2141 0400 0000
00000060: 0400 0000 0400 0000 0400 0000 0400 0000
00000070: 0400 0000 0400 0000 0400 0000 b682 d93f
00000080: 0400 0000 0a08 3827 0400 0000 0400 0000
00000090: 5f3b 0000 0400 0000 0400 0000 0400 0000
000000a0: 0400 0000 0400 0000 53a4 431e 0400 0000
000000b0: 0400 0000 0400 0000 0000 0000 0400 0000
000000c0: 0400 0000 0400 0000 0400 0000 0400 0000
000000d0: 0400 0000 0000 0000 0400 0000 0400 0000
000000e0: 0400 0000 0400 0000 0400 0000 0400 0000
000000f0: 0400 0000 0400 0000 dad8 4c1f 0400 0000

batch_norm.running_var f4 [64]
6e-45 9.917342e-16 6e-45 2.2904765e-20 7.65768e-40 6e-45 6e-45 6e-45
6e-45 6e-45 6e-45 6e-45 6e-45 6e-45 6e-45 6e-45
6e-45 4.7779665 1.539499e-39 2.1728538e-19 6e-45 6e-45 12.418085 6e-45
6e-45 6e-45 6e-45 6e-45 6e-45 6e-45 6e-45 2.5752568
6e-45 3.4626463e-15 6e-45 6e-45 5.5977e-40 6e-45 6e-45 6e-45
6e-45 6e-45 5.5081136e-22 6e-45 6e-45 6e-45 6e-45 6e-45
8e-45 6e-45 6e-45 6e-45 6e-45 6e-45 6e-45 3.2e-44
6e-45 6e-45 6e-45 6e-45 6e-45 6e-45 9.661805e-21 6e-45
00000000: 0400 0000 89ec 8e26 0400 0000 5354 d81e
00000010: a656 0800 0400 0000 0400 0000 0400 0000
00000020: 0400 0000 0400 0000 0400 0000 0400 0000
00000030: 0400 0000 0400 0000 0400 0000 0400 0000
00000040: 0400 0000 1ae5 9840 7fc3 1000 3d43 8020
00000050: 0400 0000 0400 0000 7ab0 4641 0400 0000
00000060: 0400 0000 0400 0000 0400 0000 0400 0000
00000070: 0400 0000 0400 0000 0400 0000 02d1 2440
00000080: 0400 0000 8d82 7927 0400 0000 0400 0000
00000090: 6918 0600 0400 0000 0400 0000 0400 0000
000000a0: 0400 0000 0400 0000 f778 261c 0400 0000
000000b0: 0400 0000 0400 0000 0400 0000 0400 0000
000000c0: 0600 0000 0400 0000 0400 0000 0400 0000
000000d0: 0400 0000 0400 0000 0400 0000 1700 0000
000000e0: 0400 0000 0400 0000 0400 0000 0400 0000
000000f0: 0400 0000 0400 0000 9f81 361e 0400 0000

fc2.weight f4 [2, 64]
0.013751605 -0.41786757 -0.016490754 -0.18910603 -0.119929805 0.14976831 0.17002764 0.08491879
0.041603025 -0.009094516 0.06547358 0.01708059 0.021156045 -0.025149265 -0.018933319 -0.027436398
-0.062495872 -0.35702485 -0.41887763 -0.06273689 -0.009826644 0.16763179 0.67015857 0.03649292
0.039715856 0.06786929 0.06215996 -0.045702964 -0.013495836 -0.08381738 0.02243697 -0.39305803
0.16512813 0.03110511 -0.012600622 -0.25392008 -0.3340787 0.0010420526 -0.44794357 -0.07131412
-0.015397272 -0.056652315 -0.10098044 0.099858426 0.19843313 -0.03960457 -0.009359916 -0.20476584
-0.24797146 -0.015391961 0.048309226 -0.00049538363 -0.029572023 0.06736767 -0.09285277 -0.14936145
-0.044019967 -0.042924944 -0.071055576 0.2338005 -0.22628874 -0.017428633 -0.010387311 0.0019638992
0.075435504 0.58118445 -0.031064278 0.21897458 0.17593685 -0.23081124 -0.23094466 0.08613202
0.04480238 -0.12077317 0.07476764 0.00046725842 -0.01311208 -0.0986724 -0.072913915 -0.047765873
-0.098176934 0.28713334 0.44814858 -0.004545012 -0.074732326 -0.1918338 -0.6989985 -0.058590107
0.03978314 0.06784111 0.07631163 -0.009648729 -0.035852414 -0.10105633 -0.0038919644 0.20623882
-0.018663561 0.0108807525 -0.012504688 0.19637884 0.32938346 0.10204565 0.4435521 -0.07289689
-0.027670654 -0.13313067 -0.10233731 -0.07765178 -0.021579286 -0.06955223 0.07207812 -0.040374495
0.15806106 -0.015374297 0.002234167 0.00791993 -0.0013364526 0.069634095 -0.09334912 -0.010936889
-0.08734325 0.07987738 -0.040153638 -0.22090179 0.026459577 0.00060262124 0.012911555 -0.007528483
00000000: 694e 613c bdf2 d5be 9e17 87bc 03a5 41be
00000010: c29d f5bd dd5c 193e ba1b 2e3e e7e9 ad3d
00000020: ef67 2a3d 2a01 15bc 0317 863d 98ec 8b3c
00000030: 714f ad3c d505 cebc 0c1a 9bbc 4cc2 e0bc
00000040: acfb 7fbd f6cb b6be 2177 d6be 337c 80bd
00000050: efff 20bc aba7 2b3e 838f 2b3f 9a79 153d
00000060: 18ad 223d 0eff 8a3d 719b 7e3d 0833 3bbd
00000070: a41d 5dbc 72a8 abbd bdcd b73c e73e c9be
00000080: 5917 293e 25d0 fe3c d772 4ebc d001 82be
00000090: 5d0c abbe 7c95 883a dc58 e5be 230d 92bd
000000a0: d744 7cbc 420c 68bd d5ce cebd 9382 cc3d
000000b0: 0e32 4b3e 6738 22bd 555a 19bc 23ae 51be
000000c0: 3bec 7dbe 902e 7cbc e5df 453d a2dc 01ba
000000d0: 0741 f2bc 10f8 893d 9829 bebd 35f2 18be
000000e0: 484e 34bd 11d2 2fbd 9685 91bd 6669 6f3e
000000f0: 3cb8 67be 7ec6 8ebc 8a2f 2abc c3b4 003b
00000100: ee7d 9a3d 81c8 143f 837a febc df3a 603e
00000110: ca28 343e c859 6cbe c27c 6cbe fc65 b03d
00000120: b382 373d ec57 f7bd c71f 993d 5dfa f439
00000130: 0dd4 56bc c114 cabd e453 95bd 26a6 43bd
00000140: fd10 c9bd 2403 933e bb73 e53e 53ee 94bb
00000150: 430d 99bd 1470 44be 91f1 32bf 2efc 6fbd
00000160: a5f3 223d 48f0 8a3d 4649 9c3d b415 1ebc
00000170: fbd9 12bd 9ff6 cebd 5410 7fbb 4530 533e
00000180: 53e4 98bc 2f45 323c 77e0 4cbc 8917 493e
00000190: f3a4 a83e 4ffd d03d 4319 e33e f74a 95bd
000001a0: 91ad e2bc 6853 08be 3996 d1bd e507 9fbd
000001b0: 0bc7 b0bc 6671 8ebd b29d 933d ba5f 25bd
000001c0: c2da 213e 7ae4 7bbc 1a6b 123b 98c2 013c
000001d0: e82b afba 529c 8e3d d32d bfbd a330 33bc
000001e0: 05e1 b2bd c096 a33d 2478 24bd 1434 62be
000001f0: c1c1 d83c 3af9 1d3a fd8a 533c 7eb1 f6bb

fc2.bias f4 [2]
0.04488282 -0.0423631
00000000: 0cd7 373d ee84 2dbd
