models/あいみょん/classifier_fold1.pth (torch, 991011 bytes, 16 tensors)

conv_layers.0.weight f4 [64, 256, 2]
-0.016297307 0.074208565 0.030377759 0.05599383 0.008471022 -0.059485372 -0.08156571 0.07656933
-0.024923759 -0.038656726 -0.10352893 -0.14163743 -0.05099687 0.00046337483 -0.019697703 -0.004097357
0.11877829 0.06495495 0.0045640985 0.036416877 0.017045777 -0.05695812 -0.04726305 -0.07796125
0.04175611 0.013680897 -0.006257784 0.007806622 0.03420118 -0.004642496 0.019783685 0.03021333
0.08970343 0.13440467 -0.04466537 -0.045823663 -0.020085802 -0.009480395 -0.08006883 -0.021749752
0.035142656 -0.021897309 -0.034393307 -0.074628785 0.05766226 -0.008255886 0.055334467 0.022613583
0.0665002 0.09104805 0.09311191 0.05193034 0.03465995 -0.0059423265 0.0010116536 -0.003436562
0.037496675 -0.03824029 -0.12913854 0.007845288 -0.030193774 0.07770163 0.022825746 -0.0632283
0.061242938 0.10540152 0.032993797 0.052012302 -0.09492217 -0.036993135 0.037738796 0.06795604
-0.021278843 -0.054679822 -0.044733953 -0.063640624 0.040116914 0.045052093 0.012658067 0.00045544349
-0.09260328 0.07700987 0.00257474 -0.031895023 0.002050338 0.034016784 -0.081820644 -0.08453274
-0.062601306 -0.006012341 0.023687866 -0.0071519995 -0.030815752 -0.047192715 0.024666065 -0.048058126
0.03706552 0.02929374 -0.13360037 0.0442917 0.06120439 -0.0554178 -0.0074592815 -0.04668149
-0.013758236 0.025713025 0.0046006567 -0.041697342 -0.01042113 -0.03860051 -0.060236983 -0.049707063
0.066419 -0.02539361 0.025521507 0.015778333 -0.066928744 -0.03465825 0.036556445 -0.0040735183
0.09389627 0.033567578 -0.08513424 -0.10462992 -0.060880028 0.05149885 0.037156057 0.040738087
5.1341267e-05 -0.07660758 0.025470544 0.011403877 0.05978362 -0.080025226 0.05473456 -0.07380857
0.006839685 -0.057755575 -0.06450741 0.052920595 0.099691786 -0.09451075 0.05025522 0.019764282
-0.024179712 -0.034424674 0.015289552 -0.020947516 -0.06789296 -0.0119065065 -0.11469061 0.041362297
0.037951745 -0.00081782055 -0.0063115703 0.07175946 0.018342761 -0.09151477 -0.053244367 0.008318079
-0.021733094 -0.011295587 -0.09315503 -0.059118036 0.009406795 0.05994035 -0.007046583 -0.008997347
-0.0800809 0.052694887 0.018996831 0.004016215 -0.07401746 0.016644191 0.04104072 -0.040654283
0.0121001545 -0.035521917 0.09514796 -0.014044852 0.104662314 0.036955822 -0.03216405 -0.012180887
-0.03884204 -0.02614619 0.062803164 0.018232116 0.04333114 0.006578328 -0.06435397 -0.08931762
-0.060612828 0.015741872 -0.024778957 0.042419877 -0.010481279 0.032804523 -0.0033962845 -0.0047674268
0.031313464 -0.051221814 0.03645249 -0.062951155 -0.0002743664 0.04871956 0.04513914 0.061682306
-0.022201173 -0.043630827 -0.032877214 0.07981904 -0.054917738 -0.006704547 0.054341417 -0.0437294
-0.028799338 0.017906249 0.09804263 -0.0030600138 -0.033006527 0.07015133 0.014311763 0.045100752
-0.13624947 -0.06508758 0.03851168 -0.011265529 0.010127652 -0.07722678 0.025126178 -0.0046171066
0.1159738 0.0015344155 0.052366614 -0.052657623 0.016059656 0.028123569 0.04397327 -0.038190596
-0.07387587 0.012182439 0.055698507 0.053667933 0.07358362 0.061321754 0.16252868 -0.044263143
-0.019756382 0.037105672 -0.026657399 -0.06327059 -0.018743603 -0.0352991 0.0141524905 0.03698294
00000000: ee81 85bc a9fa 973d c7da f83c c959 653d
00000010: 0bca 0a3c efa6 73bd ec0b a7bd 62d0 9c3d
00000020: e92c ccbc 8456 1ebd fa06 d4bd 6709 11be
00000030: 18e2 50bd 1ef1 f239 145d a1bc 1f43 86bb
00000040: 0842 f33d 1a07 853d 6f8e 953b dd29 153d
00000050: 96a3 8b3c eb4c 69bd e696 41bd 26aa 9fbd
00000060: 7408 2b3d d725 603c 190e cdbb b1ce ff3b
00000070: 8916 0c3d 1420 98bb 6511 a23c f281 f73c
00000080: 6fb6 b73d 61a1 093e 09f3 36bd 98b1 3bbd
00000090: fb8a a4bc a953 1bbc 20fb a3bd 892c b2bc
000000a0: bff1 0f3d fc61 b3bc ffdf 0cbd fad6 98bd
000000b0: 432f 6c3d b243 07bc 65a6 623d 1f40 b93c
000000c0: 4231 883d 6677 ba3d 75b1 be3d e8b4 543d
000000d0: 97f7 0d3d d9b7 c2bb 7699 843a f137 61bb
000000e0: 1d96 193d daa1 1cbd e53c 04be 8689 003c
000000f0: ef58 f7bc 0822 9f3d 0ffd ba3c d77d 81bd
00000100: e0d9 7a3d c1dc d73d 8124 073d da0a 553d
00000110: 8e66 c2bd 1d86 17bd ff93 1a3d 892c 8b3d
00000120: f850 aebc f3f7 5fbd f33a 37bd 0456 82bd
00000130: a251 243d 8b88 383d c863 4f3c 97c8 ee39
00000140: caa6 bdbd 5ab7 9d3d f8bc 283b 5ba4 02bd
00000150: f75e 063b 2f55 0b3d 9591 a7bd 801f adbd
00000160: 1d35 80bd 2c03 c5bb 0e0d c23c 525b eabb
00000170: 5171 fcbc 264d 41bd 7d10 ca3c 99d8 44bd
00000180: 04d2 173d 6df9 ef3c 89ce 08be 376b 353d
00000190: 74b1 7a3d c6fd 62bd fd6c f4bb 1735 3fbd
000001a0: 396a 61bc 1fa4 d23c 1bc1 963b d5ca 2abd
000001b0: 63bd 2abc 921b 1ebd 0ebb 76bd a299 4bbd
000001c0: af06 883d 4306 d0bc 7b12 d13c 9041 813c
000001d0: f011 89bd cff5 0dbd 36bc 153d 267b 85bb
000001e0: b04c c03d 287e 093d dc5a aebd 3648 d6bd
000001f0: 565d 79bd 75f0 523d f330 183d fbdc 263d
00000200: 4457 5738 6fe4 9cbd 9aa7 d03c 54d7 3a3c
00000210: abdf 743d 44e4 a3bd 5931 603d f328 97bd
00000220: 701f e03b 1c91 6cbd 761c 84bd 44c3 583d
00000230: 352b cc3d da8e c1bd 6bd8 4d3d b4e8 a13c
00000240: 8814 c6bc e300 0dbd 0781 7a3c 209a abbc
00000250: 770b 8bbd 8213 43bc e9e2 eabd 836b 293d
00000260: 4a73 1b3d 0263 56ba 4ad1 cebb a0f6 923d
00000270: 8f43 963c 196c bbbd c416 5abd 8d48 083c
00000280: 9a09 b2bc 2011 39bc 10c8 bebd c125 72bd
00000290: f51e 1a3c 0384 753d 06e7 e6bb 9c69 13bc
000002a0: 7401 a4bd 98d6 573d 3e9f 9b3c 749a 833b
000002b0: 7796 97bd 6659 883c 501a 283d 1b85 26bd
000002c0: ba3f 463c 6e7f 11bd efdc c23d 611c 66bc
000002d0: 3259 d63d fd5e 173d 73be 03bd 5892 47bc
000002e0: d518 1fbd 8930 d6bc f29e 803d 855b 953c
000002f0: fe7b 313d 048f d73b 04cc 83bd 28ec b6bd
00000300: 2845 78bd 19f5 803c 3dfd cabc 77c0 2d3d
00000310: acb9 2bbc 095e 063d 3394 5ebb 1338 9cbb
00000320: 8c42 003d f7cd 51bd 354f 153d 89ec 80bd
00000330: d6d8 8fb9 298e 473d d2e3 383d 96a6 7c3d
00000340: 3cdf b5bc 3db6 32bd 42aa 06bd 2a78 a33d
00000350: 6cf1 60bd d1b1 dbbb 1b95 5e3d 991d 33bd
00000360: 97ec ebbc 20b0 923c 93ca c83d 838a 48bb
00000370: da31 07bd 80ab 8f3d e37b 6a3c 91bb 383d
00000380: fb84 0bbe a34c 85bd 6cbe 1d3d 0e93 38bc
00000390: 74ee 253c 1329 9ebd 6ad5 cd3c 194b 97bb
000003a0: ac83 ed3d 711e c93a 607e 563d 85af 57bd
000003b0: 8a8f 833c 6663 e63c 511d 343d be6d 1cbd
000003c0: 3b4c 97bd da98 473c 1e24 643d e8d2 5b3d
000003d0: 02b3 963d 852c 7b3d eb6d 263e 454d 35bd
000003e0: 23d8 a1bc 1efc 173d 9e60 dabc 0394 81bd
000003f0: 2f8c 99bc ca95 10bd d9df 673c 6c7b 173d

conv_layers.0.bias f4 [64]
-0.016721154 0.10435815 -0.026768623 -0.05218293 0.10477807 -0.022746384 -0.074710436 -0.017215539
-0.02279211 -0.11693281 0.04539261 0.016258955 -0.037690364 -0.0241724 -0.05711791 -0.037567392
0.015314121 -0.0050769276 0.09121872 -0.03508185 0.00629215 0.09607063 -0.03884482 -0.040332604
0.08880307 -0.044388488 0.023370858 -0.018034639 -0.06823842 -0.0010716425 -0.023117505 -0.0022165438
-0.07563513 0.12392687 -0.06866367 0.05367443 0.042874306 0.04020713 -0.036231965 0.09544194
-0.008539755 -0.056775674 -0.01892239 -0.043968182 0.03514205 0.039708126 -0.059751917 -0.012282401
-0.0722497 -0.0037030687 0.052327584 0.049564388 -0.053102706 0.0065005855 0.025768297 0.03376449
-0.056508936 -0.047422238 0.091429226 0.062473405 0.006516772 -0.08382961 0.010107476 -0.08251203
00000000: cdfa 88bc bab9 d53d df49 dbbc c5bd 55bd
00000010: e295 d63d a056 babc c901 99bd 9a07 8dbc
00000020: 85b6 babc 787a efbd 9aed 393d 8031 853c
00000030: 3661 1abd 3205 c6bc 78f4 69bd 44e0 19bd
00000040: 14e8 7a3c 5b5c a6bb e1d0 ba3d fcb1 0fbd
00000050: 612e ce3b aec0 c43d bf1b 1fbd cd33 25bd
00000060: 62de b53d b4d0 35bd 3e74 bf3c 61bd 93bc
00000070: 96c0 8bbd 5b76 8cba ec60 bdbc 6f43 11bb
00000080: 97e6 9abd 5fcd fd3d 8a9f 8cbd b8d9 5b3d
00000090: f89c 2f3d 3bb0 243d f867 14bd 1077 c33d
000000a0: 54ea 0bbc 9c8d 68bd 2103 9bbc fb17 34bd
000000b0: 1cf1 0f3d fda4 223d 6dbe 74bd 203c 49bc
000000c0: a7f7 93bd 2faf 72bb 7355 563d 0704 4b3d
000000d0: 3982 59bd dd02 d53b 0918 d33c a24c 0a3d
000000e0: ea75 67bd d23d 42bd 3f3f bb3d 1de4 7f3d
000000f0: a58a d53b dcae abbd d499 253c 11fc a8bd

conv_layers.1.weight f4 [64, 256, 3]
-0.063233614 0.026641684 -0.011167372 0.04523964 0.06344868 0.05169225 -0.006153444 0.052187696
0.03867868 0.031456295 0.03412395 -0.013543381 -0.037515417 -0.058783293 0.066233255 0.06011835
-0.018658513 0.036542248 -0.0076548774 -0.014926829 0.060388852 -0.008564749 0.012786271 0.020959934
0.040929515 -0.05616006 -0.077050194 0.07685739 0.02269384 -0.0013532152 -0.042350486 -0.09536451
-0.042225543 0.029773695 -0.021046445 0.044555735 -0.033385195 0.0691617 0.09742303 0.07633515
0.032338124 -0.040708054 0.033628017 -5.9197795e-05 -0.038021807 0.00858516 0.06397008 0.0013666446
-0.006994626 -0.06186505 0.034712538 0.090751536 -0.014609839 0.0224848 0.00514155 -0.042411342
-0.06517018 -0.033295304 0.0119690085 0.08592057 -0.006528036 0.13140896 0.11166912 0.06065738
-0.042553376 0.0566855 0.014772438 -0.04138047 0.027480192 -0.08848947 0.058383733 0.0017933872
-0.031750236 0.064874426 -0.030804014 -0.0037135 -0.01780252 -0.025356695 -0.06770867 -0.0015379842
-0.033367977 0.042551804 0.03852937 -0.040345054 -0.038471244 -0.022598622 -0.030601425 -0.015956517
0.006217966 -0.07006544 -0.00468288 -0.017259922 -0.009361845 -0.023597078 0.008740888 -0.00048818713
-0.20243753 -0.008690819 -0.08953043 0.06487373 0.05056335 -0.046475247 -0.052876994 0.012404788
0.016017329 -0.035733033 0.11827152 0.056670647 -0.082629204 -0.048327968 -0.06336007 -0.011165717
0.016324265 0.022515005 -0.012621734 0.057906367 0.08611934 -0.015573158 -0.017114356 -0.037535615
0.10819992 -0.03796929 0.04515508 0.05375783 -0.05036389 -0.038940765 0.09477946 0.0051711556
-0.020555627 -0.029766897 -0.0050668023 0.0332191 -0.0896613 0.0432223 -0.05788215 0.0008730727
0.014561805 -0.06426533 0.028078347 0.0013056833 0.055785816 -0.009440352 0.12251536 -0.05118419
-0.024027357 0.02151336 -0.06058751 0.02636508 0.024619173 -0.056735735 -0.024395313 0.08695552
0.010421442 -0.022449505 -0.028967163 -0.02157261 -0.010757161 -0.060858842 0.007674745 -0.034569185
-0.06068488 -0.103255466 -0.021618983 0.040892962 0.038521085 -0.08170723 0.007465983 -0.0554305
0.06551768 -0.04452886 0.074692555 -0.08804913 0.008580409 0.0051548034 0.090907276 0.01073165
-0.0030396155 0.07425675 -0.0204028 -0.044878952 0.01624484 -0.0051821917 -0.038504105 0.10114917
-0.13645653 -0.028112013 -0.04594212 0.011595279 -0.029739935 0.0028879803 -0.04699743 -0.03355097
0.019757926 -0.05375671 -0.041033763 0.05759081 -0.0025071714 0.024088077 0.0317029 0.0029897618
-0.019674119 -0.09602231 0.057411622 -0.010645072 0.015272959 0.06033297 0.08761585 0.023234118
-0.02617982 -0.09975193 0.009323735 -0.025173344 -0.052385844 0.11272585 -0.006531763 0.0384949
0.061106704 -0.06899519 0.0064889854 0.10246655 0.06192509 -0.044609614 -0.0169681 -0.059446875
-0.03783721 -0.006224047 -0.025312237 -0.07482553 -0.025450898 0.060238358 0.036480177 0.056339003
0.01847945 0.01569107 -0.034021657 0.03001969 -0.02735206 -0.0057410127 0.075462796 -0.03398981
-0.0073101735 -0.00054859533 -0.07675844 -0.016729994 -0.033392683 0.088536665 0.00080731104 0.07524877
0.019419905 -0.047414735 0.11530381 0.0057641543 0.025719661 -0.056040447 0.08394497 0.018513065
00000000: a080 81bd a93f da3c 5af7 36bc 334d 393d
00000010: 62f1 813d 41bb 533d d4a2 c9bb c4c2 553d
00000020: 896d 1e3d 51d8 003d 8ec5 0b3d 0fe5 5dbc
00000030: c4a9 19bd c0c6 70bd 4da5 873d a93e 763d
00000040: bdd9 98bc 53ad 153d c4d5 fabb a98f 74bc
00000050: 4d5a 773d 2953 0cbc 827d 513c 2bb4 ab3c
00000060: b5a5 273d 1708 66bd 7ecc 9dbd 6867 9d3d
00000070: 6fe8 b93c 5e5e b1ba b477 2dbd 784e c3bd
00000080: b1f4 2cbd f7e7 f33c 9869 acbc 1380 363d
00000090: eabe 08bd a6a4 8d3d ba85 c73d 9a55 9c3d
000000a0: fb74 043d 7dbd 26bd 88bd 093d 264b 78b8
000000b0: c1bc 1bbd c5a8 0c3c bf02 833d fc20 b33a
000000c0: 2d33 e5bb 3566 7dbd bc2e 0e3d f1db b93d
000000d0: 1b5e 6fbc 0b32 b83c 737a a83b 84b7 2dbd
000000e0: f177 85bd a860 08bd a919 443c 20f7 af3d
000000f0: 23e9 d5bb 1290 063e c8b2 e43d df73 783d
00000100: 734c 2ebd 0e2f 683d 1908 723c 917e 29bd
00000110: 241e e13c f839 b5bd c823 6f3d 1710 eb3a
00000120: 890c 02bd e2dc 843d b358 fcbc 315e 73bb
00000130: 97d6 91bc d8b8 cfbc d8aa 8abd 3096 c9ba
00000140: dcac 08bd cd4a 2e3d f9d0 1d3d db40 25bd
00000150: 0694 1dbd bf20 b9bc d7af fabc 3eb7 82bc
00000160: 14c0 cb3b 787e 8fbd d872 99bb ae64 8dbc
00000170: 6d62 19bc a94e c1bc f135 0f3c 5ef3 ffb9
00000180: c94b 4fbe f063 0ebc bb5b b7bd 85dc 843d
00000190: 841b 4f3d d45c 3ebd 8c95 58bd 743d 4b3c
000001a0: c636 833c cd5c 12bd 5738 f23d 7b1f 683d
000001b0: 8039 a9bd 8cf3 45bd edc2 81bd 69f0 36bc
000001c0: 77ba 853c 6371 b83c 64cb 4ebc 3a2f 6d3d
000001d0: 565f b03d 8f26 7fbc 6833 8cbc f2be 19bd
000001e0: eb97 dd3d b085 1bbd 88f4 383d 2c31 5c3d
000001f0: 5e4a 4ebd 5a80 1fbd bc1b c23d cc72 a93b
00000200: 4664 a8bc b5d9 f3bc 6b07 a6bb c010 083d
00000210: 58a0 b7bd de09 313d d515 6dbd ebde 643a
00000220: a394 6e3c 8b9d 83bd 9004 e63c 7623 ab3a
00000230: ab7f 643d b5ab 1abc 55e9 fa3d 83a6 51bd
00000240: 05d5 c4bc c93c b03c 9c2a 78bd 95fb d73c
00000250: 26ae c93c bb63 68bd aed8 c7bc bc15 b23d
00000260: b2be 2a3c 06e8 b7bc 8b4c edbc 0bb9 b0bc
00000270: ce3e 30bc 1f47 79bd 6d7c fb3b 6b98 0dbd
00000280: b590 78bd 9a77 d3bd 4b1a b1bc 617f 273d
00000290: 49c8 1d3d 1f56 a7bd 34a5 f43b 180b 63bd
000002a0: 222e 863d e563 36bd 69f8 983d 1a53 b4bd
000002b0: d894 0c3c a0e9 a83b 982d ba3d cdd3 2f3c
000002c0: 4934 47bb ec13 983d c623 a7bc fed2 37bd
000002d0: e613 853c 60cf a9bb 7bb6 1dbd 4c27 cf3d
000002e0: 43bb 0bbe 2a4b e6bc ce2d 3cbd 20fa 3d3c
000002f0: 2aa1 f3bc 4544 3d3b 6180 40bd be6c 09bd
00000300: 60db a13c ff2f 5cbd 0513 28bd 57e4 6b3d
00000310: 5b4f 24bb 5c54 c53c e6da 013d e1ef 433b
00000320: 9e2b a1bc 58a7 c4bd 7328 6b3d ab68 2ebc
00000330: 6f3b 7a3c b41f 773d f06f b33d 7a55 be3c
00000340: 1077 d6bc bd4a ccbd 94c2 183c 5438 cebc
00000350: 8a92 56bd cfdc e63d 6608 d6bb d4ac 1d3d
00000360: 064b 7a3d 5a4d 8dbd 8ea1 d43b fcd9 d13d
00000370: 2aa5 7d3d 92b8 36bd af00 8bbc 917e 73bd
00000380: 31fb 1abd 17f3 cbbb 9c5b cfbc 213e 99bd
00000390: 677e d0bc 7fbc 763d 3d6c 153d bac3 663d
000003a0: 3762 973c 8f8a 803c 4b5a 0bbd daeb f53c
000003b0: 6d11 e0bc 1b1f bcbb 3d8c 9a3d e638 0bbd
000003c0: 2e8a efbb 9ccf 0fba 8733 9dbd 570d 89bc
000003d0: c4c6 08bd b652 b53d baa1 533a 071c 9a3d
000003e0: 7e16 9f3c f435 42bd 6724 ec3d 3be1 bc3b
000003f0: 0ab2 d23c ab8a 65bd 57eb ab3d b6a8 973c

conv_layers.1.bias f4 [64]
-0.14959703 -0.011048891 -0.030879134 0.020177146 -0.00093082985 0.053949904 0.09027932 0.08115841
-0.00053851615 0.0055060787 -0.0016845684 0.08282826 -0.01749025 -0.101307884 -0.056990303 -0.059719868
-0.079316534 0.01944969 0.021852389 -0.05321724 0.0471303 -0.03438743 0.06620072 -0.08124962
0.042504795 0.0076817176 0.055799324 -0.022253951 0.059631687 0.016560365 -0.06796255 0.032967556
0.076173164 -0.0051258923 -0.02607509 -0.013716081 -0.09780082 0.06721111 0.04893402 -0.003215514
-0.03595205 0.00093834277 -0.0073861643 0.02385553 0.017872263 -0.012968989 -0.025375562 0.053161174
-0.032992885 0.009341186 0.038328756 0.0054824455 -0.012670417 0.00092182495 0.018082857 0.025472982
0.04631456 0.043566477 -0.037405193 -0.049233895 0.038951013 0.02458479 -0.058000226 -0.060065597
00000000: f72f 19be 6806 35bc 3df6 fcbc 8b4a a53c
00000010: ef02 74ba 93fa 5c3d 5de4 b83d 6136 a63d
00000020: 352b 0dba 566c b43b bccc dcba dda1 a93d
00000030: b647 8fbc 827a cfbd aa6e 69bd d29c 74bd
00000040: b570 a2bd f554 9f3c c803 b33c 52fa 59bd
00000050: b40b 413d d5d9 0cbd 3e94 873d 3366 a6bd
00000060: 8219 2e3d ebb6 fb3b d58d 643d eb4d b6bc
00000070: 5b40 743d 9aa9 873c f32f 8bbd fd08 073d
00000080: ad00 9c3d 1af7 a7bb 6d9b d5bc 6ab9 60bc
00000090: cc4b c8bd faa5 893d 0a6f 483d 5fbb 52bb
000000a0: 7542 13bd 1efb 753a a307 f2bb ac6c c33c
000000b0: da68 923c e27b 54bc 69e0 cfbc 88bf 593d
000000c0: 8c23 07bd c60b 193c 9dfe 1c3d 16a6 b33b
000000d0: 9597 4fbc a0a6 713a 8022 943c b7ac d03c
000000e0: 56b4 3d3d c372 323d 3036 19bd 7ba9 49bd
000000f0: 198b 1f3d 0b66 c93c a591 6dbd 5807 76bd

conv_layers.2.weight f4 [64, 256, 4]
0.025080288 -0.105409615 0.04259401 -0.034368254 -0.049816124 0.13958794 0.04090661 -0.022568783
-0.020596005 0.005715941 -0.039104782 0.021783652 0.10058553 -0.07160876 -0.051614825 -0.040478952
-0.08987547 -0.007083294 -0.0911568 -0.048322313 -0.04500662 0.0070037837 0.013153359 -0.060218673
0.09519241 -0.007749859 0.048318565 0.025206579 0.078530826 0.02308058 0.041190602 -0.023406014
0.021199267 -0.023226494 -0.086678185 0.01819923 0.01488176 0.022119503 -0.06629881 0.0603425
0.10392129 0.0065488424 0.023587417 -0.065028116 -0.013263694 -0.044277452 0.02556318 0.0076859
-0.024789365 0.04623855 -0.10789393 0.035337172 -0.052339144 0.048838038 0.10302386 -0.0012606735
-0.0612922 0.026193425 0.011572973 -0.06667853 -0.0013026409 0.044047754 0.049192194 0.01766992
-0.07674505 0.047686107 0.08512696 0.01266196 -0.017706499 -0.094401814 -0.04610424 0.024517503
0.00097079476 0.024380218 -0.009450323 0.027329909 -0.06372445 0.02451114 -0.07118161 0.06904751
-0.06071427 -0.005739432 0.01190964 0.09995723 -0.009506841 -0.06218814 0.07377034 0.02862323
-0.07121388 0.038307182 -0.04163805 0.069144405 0.055912863 0.07650126 -0.10561753 -0.06947544
-0.018612564 -0.020185499 -0.02728792 0.0750332 0.043895 -0.036010876 0.046237722 0.028949466
0.05198365 -0.10202177 -0.0004523933 0.097228445 0.02716966 -0.04812717 -0.07132046 0.099452995
-0.13278507 0.026187778 -0.06885561 -0.03256207 -0.010303224 -0.023132185 -0.06951182 0.090654254
0.071292594 -0.05427785 0.10724686 -0.037053224 -0.070188716 -0.03880023 0.026130388 -0.009374251
0.08584815 -0.0032068775 -0.065473855 0.06175437 -0.06167783 0.013058133 0.004180092 0.019740038
0.010906491 -0.040488925 -0.08178079 -0.02068326 -0.014533282 0.01206602 0.111780934 -0.0977549
-0.082586676 0.09275829 0.03280596 -0.13652274 -0.04544697 0.08166924 -0.035846494 -0.10187004
-0.09085131 0.060349207 0.093632534 0.07096429 0.014890623 0.06847775 -0.07831839 -0.00067309436
0.01582938 0.045523364 0.024954574 0.021050107 -0.052518174 -0.10421542 0.08568834 0.010282823
-0.057758063 0.049538165 -0.049471814 -0.02876615 -0.04262317 -0.0024226338 -0.008770652 0.033636056
0.05111043 0.01940528 0.04347529 0.004476812 -0.05158371 -0.013892705 0.047359932 0.006290372
0.016442176 0.024972495 -0.019587321 0.037189983 -0.018603347 -0.029428568 0.11987186 -0.0360606
-0.009934064 0.019086115 -0.04140306 0.01971234 0.0034762688 0.038920958 0.03862242 -0.004807095
0.09148969 -0.08263437 -0.057653163 0.08094881 0.043041915 -0.011541488 0.034076583 0.043155283
0.025873497 0.045135096 -0.0021510136 -0.033085607 -0.025768775 -0.06876984 0.045066908 -0.08018555
0.015739337 -0.015084757 -0.0049680145 -0.059037246 -0.005976244 -0.076065436 -0.014525316 0.013232755
-0.01412787 0.0020147592 -0.056809537 0.012416262 -0.12736295 0.016432218 0.059414543 0.03135108
0.064358704 0.071581334 -0.015793966 0.07814468 0.05017861 0.010841618 0.11093636 -0.030094035
-0.09190927 0.004646893 -0.079016075 -0.08136613 -0.009363932 0.0788568 0.025213195 0.04591846
-0.019145707 0.018304799 0.067236766 0.02157395 0.031880897 -0.008983762 0.05108101 0.090019196
00000000: 2d75 cd3c ffe0 d7bd 0e77 2e3d bac5 0cbd
00000010: fe0b 4cbd 24f0 0e3e b18d 273d 2be2 b8bc
00000020: f4b8 a8bc ca4c bb3b 562c 20bd a173 b23c
00000030: c9ff cd3d 9da7 92bd 116a 53bd 42cd 25bd
00000040: a110 b8bd fa1a e8bb 6bb0 babd 9eed 45bd
00000050: dd58 38bd ff7f e53b 3081 573c dba7 76bd
00000060: 3df4 c23d 87f2 fdbb b0e9 453d 077e ce3c
00000070: c5d4 a03d 7c13 bd3c 7ab7 283d f8bd bfbc
00000080: 16aa ad3c 7d45 bebc 5584 b1bd 8d16 953c
00000090: a0d2 733c f633 b53c acc7 87bd b329 773d
000000a0: afd4 d43d ac97 d63b 663a c13c 762d 85bd
000000b0: f74f 59bc 465c 35bd e069 d13c 01da fb3b
000000c0: 1113 cbbc a264 3d3d 7ef7 dcbd b6bd 103d
000000d0: 9261 56bd 650a 483d 2cfe d23d 2f3d a5ba
000000e0: 880d 7bbd 9893 d63c 919c 3d3c c18e 88bd
000000f0: 60bd aaba 6b6b 343d c17d 493d 82c0 903c
00000100: 822c 9dbd 8252 433d 0b57 ae3d 1c74 4f3c
00000110: 380d 91bc bd55 c1bd cdd7 3cbd eed8 c83c
00000120: ef7c 7e3a 06b9 c73c 87d5 1abc f9e2 df3c
00000130: f781 82bd 96cb c83c aac7 91bd c868 8d3d
00000140: 87af 78bd d811 bcbb a720 433c 60b6 cc3d
00000150: 95c2 1bbc feb8 7ebd e714 973d 447b ea3c
00000160: 95d8 91bd fee7 1c3d a98c 2abd 959b 8d3d
00000170: e304 653d b1ac 9c3d 014e d8bd 2449 8ebd
00000180: 6079 98bc 0f5c a5bc ea8a dfbc 02ab 993d
00000190: 3ecb 333d 2480 13bd c463 3d3d 6e27 ed3c
000001a0: cfec 543d caf0 d0bd 332f edb9 b51f c73d
000001b0: e892 de3c ff20 45bd 7610 92bd 03ae cb3d
000001c0: cff8 07be c087 d63c 2c04 8dbd ce5f 05bd
000001d0: dbce 28bc b57f bdbc 375c 8ebd f0a8 b93d
000001e0: da01 923d 7352 5ebd 3ea4 db3d 1fc5 17bd
000001f0: 1abf 8fbd fdec 1ebd 650f d63c 7596 19bc
00000200: 28d1 af3d 7a2a 52bb 2817 86bd 26f2 7c3d
00000210: e4a1 7cbd c8f1 553c 27f9 883b dcb5 a13c
00000220: 24b1 323c b7d7 25bd b07c a7bd f16f a9bc
00000230: 011d 6ebc 8eb0 453c 67ed e43d b933 c8bd
00000240: 3423 a9bd 0ff8 bd3d 8b5f 063d 9ecc 0bbe
00000250: 9a26 3abd 3442 a73d c6d3 12bd 3da1 d0bd
00000260: 4010 babd bb30 773d 6ac2 bf3d ba55 913d
00000270: cdf7 733c 103e 8c3d 6465 a0bd 9972 30ba
00000280: 9eac 813c b576 3a3d 896d cc3c 4671 ac3c
00000290: 4c1d 57bd e56e d5bd 5e7d af3d 4979 283c
000002a0: b893 6cbd 88e8 4a3d f5a2 4abd fda6 ebbc
000002b0: a295 2ebd 0dc5 1ebb c8b2 0fbc f6c5 093d
000002c0: 2c59 513d d2f7 9e3c 2513 323d 39b2 923b
000002d0: 7149 53bd 3a9e 63bc 7dfc 413d 771f ce3b
000002e0: beb1 863c 1e93 cc3c 9775 a0bc 8654 183d
000002f0: 0c66 98bc 2e14 f1bc 617f f53d 48b4 13bd
00000300: 7cc2 22bc 7c5a 9c3c 4196 29bd c67b a13c
00000310: 1dd2 633b 956b 1f3d 8b32 1e3d d684 9dbb
00000320: f25e bb3d 353c a9bd b925 6cbd 7dc8 a53d
00000330: b84c 303d 8218 3dbc e393 0b3d 98c3 303d
00000340: a8f4 d33c 94df 383d 05f8 0cbb c684 07bd
00000350: 0a19 d3bc 34d7 8cbd 1498 383d 5238 a4bd
00000360: c8ef 803c 0e26 77bc baca a2bb 0ad1 71bd
00000370: 5ed4 c3bb 32c8 9bbd 97fb 6dbc 32ce 583c
00000380: 9578 67bc 0d0a 043b 1eb1 68bd 946d 4b3c
00000390: 6f6b 02be dc9c 863c aa5c 733d fd69 003d
000003a0: 7fce 833d 3c99 923d 5962 81bc 510a a03d
000003b0: 1688 4d3d 0ba1 313c 9a32 e33d c487 f6bc
000003c0: ed3a bcbd f744 983b 2ed3 a1bd 49a3 a6bd
000003d0: 2d6b 19bc ad7f a13d e78b ce3c ff14 3c3d
000003e0: 75d7 9cbc f2f3 953c 6eb3 893d dabb b03c
000003f0: 8b95 023d a130 13bc 523a 513d fc5b b83d

conv_layers.2.bias f4 [64]
-0.036104277 0.004957448 0.03652052 0.009501535 -0.0573373 -0.1102065 -0.12827015 0.015866246
0.04975154 -0.017763015 0.09362386 -0.12140295 -0.009644507 -0.11467013 -0.046493266 -0.01581624
-0.04173028 0.0100058345 -0.0733486 0.0046252706 -0.04315548 -0.072002806 0.040556833 0.07673493
0.033068586 -0.035994664 -0.072295554 -0.019275336 -0.0347097 0.040873326 -0.07635842 0.028880987
0.019962413 -0.022176465 -0.12002006 -0.01404045 -0.039444923 0.00068158825 -0.10339982 -0.03324852
-0.08818976 0.051105868 -0.010203126 -0.010849581 0.05287395 -0.014961151 -0.10337351 -0.13517782
0.09462288 -0.010583165 -0.095814034 -0.031787362 -0.050632726 -0.008341972 0.046566837 0.06712006
0.06581892 0.013958633 -0.06440387 0.005403899 -0.020248247 -0.05276793 0.024585884 0.055076078
00000000: 14e2 13bd 1772 a23b 8a96 153d 54ac 1b3c
00000010: 84da 6abd f2b3 e1bd 4059 03be eef9 813c
00000020: 45c8 4b3d be83 91bc debd bf3d 1ca2 f8bd
00000030: ff03 1ebc 2cd8 eabd b96f 3ebd 0f91 81bc
00000040: 5fed 2abd 83ef 233c ca37 96bd 958f 973b
00000050: cdc3 30bd 3576 93bd ec1e 263d 3427 9d3d
00000060: ed72 073d 246f 13bd b10f 94bd 4fe7 9dbc
00000070: c22b 0ebd ca6a 273d ce61 9cbd d297 ec3c
00000080: 3788 a33c 6bab b5bc 14cd f5bd ea09 66bc
00000090: 0091 21bd 9dac 323a 49c3 d3bd 9a2f 08bd
000000a0: d59c b4bd 6354 513d 032b 27bc 71c2 31bc
000000b0: 5b92 583d 9e1f 75bc 7eb5 d3bd 0e6c 0abe
000000c0: a4c9 c13d 0365 2dbc 263a c4bd 7733 02bd
000000d0: 4364 4fbd c4ac 08bc debc 3e3d 3e76 893d
000000e0: 12cc 863d c0b2 643c 2de6 83bd 3113 b13b
000000f0: a7df a5bc 2f23 58bd 5668 c93c 7497 613d

conv_layers.3.weight f4 [64, 256, 5]
0.0055442806 -0.062127143 0.013613832 -0.021243243 0.04091642 0.06409535 0.055796362 0.002306715
0.050771467 0.052123304 0.05595169 0.045907557 -0.046686206 0.06592337 -0.08225696 0.029999651
-0.038816318 -0.036289953 0.058458406 -0.036303926 0.010689659 0.003846161 -0.053702205 -0.0069963695
-0.0039333263 -0.04552845 0.028239833 0.06344559 -0.009584307 -0.036250185 0.040398344 0.035495363
0.071556985 0.00784415 -0.058537066 -0.016477074 0.024011252 0.017522056 0.06533787 -0.037303872
-0.016182652 0.010644443 0.044500303 -0.098874226 0.056029025 -0.018660776 -0.027028324 0.05012176
0.07591777 -0.0574393 -0.104820445 0.027064733 -0.082820445 0.003307319 -0.009249077 0.051824745
0.05242764 0.0008903108 0.01390908 -0.030240064 0.038978726 -0.11237718 0.06877105 0.00044798097
-0.02191658 -0.027457856 0.036457624 0.009537448 -0.03953897 -0.04735096 0.017878568 0.028851805
-0.04292098 -0.053008135 -0.002714798 0.020321159 0.036220066 -0.10102501 -0.054168135 -0.06670762
-0.014350786 -0.08274533 0.025934428 0.07876781 -0.085440315 0.09843087 0.029193731 -0.022705577
-0.051923744 0.023987718 0.056746595 -0.038574487 0.0018740951 0.04084988 0.08413381 0.10611661
0.008783298 -0.061669577 -0.0043761004 0.045556236 -0.030870454 0.0018132157 -0.12233324 0.103368804
0.030597398 -0.071188435 0.0045963577 -0.056641847 0.024433466 -0.06567734 -0.052150343 -0.0018337746
-0.060947243 -0.081792444 -0.08620726 0.041444853 0.05330481 -0.0456601 0.057709705 0.06340663
-0.031363823 0.016327543 -0.024484012 0.034291174 -0.005102154 0.02164496 -0.11776692 0.019638771
0.043786496 -0.06979198 -0.013653438 -0.0689287 -0.067215264 -0.008774214 -0.05126954 -0.048675407
-0.07492804 -0.06738016 0.0060462523 -0.0030572426 -0.087119535 -0.025508376 -0.0009371737 0.019179562
-0.038325913 -0.016354002 0.03292522 -0.012791666 -0.01575523 -0.0302713 0.043691717 -0.01782339
0.025832416 0.022080874 -0.069608964 0.084275626 0.015438974 0.00572321 0.009380312 -0.052737143
-0.05768724 -0.015657222 0.018125286 0.058739707 -0.0041641337 0.055066094 -0.07699383 0.0074888133
0.046926647 0.07651947 -0.021269815 0.02553152 -0.019600475 0.008019553 -0.044845935 -0.055235587
0.037639707 0.011424695 -0.12592293 0.026230797 -0.02239232 0.0017040404 0.008893141 0.009100442
-0.07023049 -0.059187826 -0.084529914 0.009796211 -0.09596057 0.025193654 0.019477285 0.04597213
-0.0007067639 -0.04715554 -0.06478478 0.03812853 0.01870793 0.03337716 0.006551677 -0.038779534
0.018786151 0.06441619 -0.0012537913 -0.047147173 0.040879812 0.010966519 -0.030159889 0.053307198
-0.02953502 -0.0009756378 0.05744167 0.022754984 0.019577505 0.0114710005 -0.046891995 0.027050307
-0.04807441 0.02531459 -0.04615226 -0.050780512 0.07355378 0.061347 0.08512035 0.023114074
-0.1190919 0.03637971 -0.02504007 -0.028079076 0.029589752 -0.017563982 0.015603584 0.034185506
0.010415046 0.022760823 -0.010256263 0.051466238 -0.03897031 0.037552375 0.07292207 -0.060867637
-0.058013406 0.022111587 -0.03541536 -0.01880717 0.030132467 0.05475116 -0.061822824 -0.059991494
-0.08897479 -0.045884248 0.013959109 -0.015649658 -0.046299644 0.06165708 -0.020208959 -0.0085630715
00000000: ccac b53b 0879 7ebd 8d0c 5f3c 4f06 aebc
00000010: fa97 273d 6c44 833d ba8a 643d 412c 173b
00000020: bef5 4f3d 3f7f 553d 992d 653d 9009 3c3d
00000030: 093a 3fbd d502 873d 5676 a8bd d4c1 f53c
00000040: dcfd 1ebd c6a4 14bd 1572 6f3d 6db3 14bd
00000050: ae23 2f3c e00f 7c3b d8f6 5bbd cd41 e5bb
00000060: 22e3 80bb 0a7c 3abd 3957 e73c c3ef 813d
00000070: 7f07 1dbc 137b 14bd bc78 253d 9663 113d
00000080: 788c 923d c084 003c 90c4 6fbd eefa 86bc
00000090: 3fb3 c43c 6a8a 8f3c dccf 853d f2cb 18bd
000000a0: 7b91 84bc 0866 2e3c f345 363d 927e cabd
000000b0: b17e 653d 7cde 98bc 816a ddbc 7a4c 4d3d
000000c0: c77a 9b3d 7945 6bbd 1aac d6bd dcb6 dd3c
000000d0: c49d a9bd 9bbf 583b 7189 17bc 2f46 543d
000000e0: 5dbe 563d bf63 693a e9e2 633c 03ba f7bc
000000f0: 28a8 1f3d 0226 e6bd d6d7 8c3d fdde ea39
00000100: 668a b3bc 4cef e0bc 9754 153d f542 1c3c
00000110: 9df3 21bd 15f3 41bd 1376 923c 9f5a ec3c
00000120: e9cd 2fbd 0f1f 59bd c1ea 31bb 8f78 a63c
00000130: 7e5b 143d 33e6 cebd 68df 5dbd 019e 88bd
00000140: 8f1f 6bbc 6276 a9bd 7074 d43c 0451 a13d
00000150: 55fb aebd 2096 c93d b127 ef3c 0c01 babc
00000160: fead 54bd e481 c43c 1e6f 683d 4800 1ebd
00000170: 32a4 f53a 3452 273d 594e ac3d aa53 d93d
00000180: d2e7 0f3c 3d99 7cbd 6465 8fbb 2d99 3a3d
00000190: 09e4 fcbc 6ca9 ed3a da89 fabd 06b3 d33d
000001a0: 65a7 fa3c 3ecb 91bd 0b9d 963b 4801 68bd
000001b0: b128 c83c d781 86bd 999b 55bd 445b f0ba
000001c0: d1a3 79bd cc82 a7bd 6f8d b0bd 14c2 293d
000001d0: 2556 5a3d 1606 3bbd 0361 6c3d 56db 813d
000001e0: 5a77 00bd 57c1 853c b292 c8bc e774 0c3d
000001f0: f82f a7bb c550 b13c c82f f1bd 7de1 a03c
00000200: 7859 333d 19ef 8ebd abb2 5fbc 7e2a 8dbd
00000210: 28a8 89bd b9c1 0fbc 0200 52bd dd5f 47bd
00000220: df73 99bd 9cfe 89bd a41f c63b 055c 48bb
00000230: ba6b b2bd f1f6 d0bc aaac 75ba 751e 9d3c
00000240: a2fb 1cbd d4f8 85bc 98dc 063d 2394 51bc
00000250: 1d11 81bc 84fb f7bc 16f6 323d 5c02 92bc
00000260: 819e d33c f3e2 b43c 258f 8ebd b398 ac3d
00000270: c0f3 7c3c c489 bb3b e1af 193c e702 58bd
00000280: 7549 6cbd 9343 80bc 7b7b 943c 0c99 703d
00000290: 4973 88bb fc8c 613d f1ae 9dbd b864 f53b
000002a0: 2836 403d 3db6 9c3d 093e aebc 7a27 d13c
000002b0: 2d91 a0bc 7164 033c 5fb0 37bd b63e 62bd
000002c0: 182c 1a3d a52e 3b3c f1f1 00be f8e1 d63c
000002d0: 1970 b7bc 1c5a df3a 89b4 113c 051a 153c
000002e0: 01d5 8fbd ef6e 72bd 051e adbd 4980 203c
000002f0: fa86 c4bd ec62 ce3c d48e 9f3c 464d 3c3d
00000300: 1f46 39ba 2b26 41bd e2ad 84bd a92c 1c3d
00000310: 5f41 993c 7db6 083d 73af d63b 4ad7 1ebd
00000320: 6ae5 993c a3ec 833d 4156 a4ba 651d 41bd
00000330: 9771 273d eaac 333c df11 f7bc a658 5a3d
00000340: 6df3 f1bc f2c1 7fba f547 6b3d a968 ba3c
00000350: 0161 a03c ddf0 3b3c d211 40bd 9b98 dd3c
00000360: ace9 44bd 8b60 cf3c 270a 3dbd 3aff 4fbd
00000370: 5da3 963d fe46 7b3d 9453 ae3d ba59 bd3c
00000380: 74e6 f3bd e402 153d d520 cdbc 1706 e6bc
00000390: 3566 f23c 57e2 8fbc 2da6 7f3c 1a06 0c3d
000003a0: dea3 2a3c e874 ba3c e309 28bc 43ce 523d
000003b0: 559f 1fbd 85d0 193d 2b58 953d 5850 79bd
000003c0: 779f 6dbd 5c23 b53c b20f 11bd 7f11 9abc
000003d0: 5dd8 f63c c142 603d ee39 7dbd a4b9 75bd
000003e0: 6a38 b6bd 1ff1 3bbd bfb4 643c b633 80bc
000003f0: b2a4 3dbd 228c 7c3d 428d a5bc 204c 0cbc

conv_layers.3.bias f4 [64]
-0.18375094 -0.038961105 0.024856305 -0.10506272 -0.010264389 -0.01587182 -0.039717104 -0.051196173
0.0029490346 -0.15855664 -0.049609724 0.01200464 -0.0004965039 -0.06282826 0.042091556 0.015236533
-0.091428824 -0.055305596 -0.10257207 -0.07896118 -0.06978954 -0.06589745 -0.01504972 0.02586754
-0.017962288 -0.02510053 0.031099726 0.0011961503 -0.113498196 -0.029691601 0.0043352395 -0.03993328
0.09876253 -0.011280857 0.016858699 0.04185887 -0.01618783 0.0021220695 0.049013652 -0.04479802
0.05358839 -0.02514946 0.030222105 0.015896013 0.031442963 -0.12371107 0.08811605 -0.056994315
0.0041620824 0.016493449 -0.04246599 -0.058564126 -0.045265976 -0.14037716 0.04314165 -0.05004317
-0.0233464 -0.039776146 0.03817236 -0.031268142 0.028244214 -0.03177674 0.06597505 -0.012483438
00000000: 3529 3cbe ae95 1fbd 739f cb3c 202b d7bd
00000010: f82b 28bc 9e05 82bc 67ae 22bd 14b3 51bd
00000020: 9744 413b ac5c 22be 9133 4bbd 1caf 443c
00000030: d027 02ba 1aac 80bd 3268 2c3d a7a2 793c
00000040: 093f bbbd 1f88 62bd 4e11 d2bd 66b6 a1bd
00000050: d1ed 8ebd 3ef5 86bd 1a93 76bc 2ae8 d33c
00000060: a625 93bc a09f cdbc dac4 fe3c 25c8 9c3a
00000070: be71 e8bd cd3b f3bc a00e 8e3b 1491 23bd
00000080: 0244 ca3d 58d3 38bc 411b 8a3c 3574 2b3d
00000090: 579c 84bc 6b12 0b3b 8ac2 483d 217e 37bd
000000a0: 807f 5b3d 3e06 cebc 5994 f73c 5b38 823c
000000b0: 56ca 003d 3b5c fdbd 3076 b43d df72 69bd
000000c0: 1462 883b 451d 873c d1f0 2dbd f0e0 6fbd
000000d0: d168 39bd 08bf 0fbe 4cb5 303d 11fa 4cbd
000000e0: f340 bfbc 50ec 22bd 9f5a 1c3d 0613 00bd
000000f0: 6960 e73c 5428 02bd ed1d 873d 5587 4cbc

fc1.weight f4 [64, 256]
-0.04068149 0.013399786 -0.012775077 -0.009942956 -0.064175606 0.02124533 0.05251272 -0.0056665326
-0.038015835 -0.012398567 -0.026797783 -0.056404047 -0.0012967511 -0.054212242 0.03600097 -0.041418727
-0.04772318 -0.020781368 0.00015118603 0.0048386375 -0.004676857 0.019893615 0.0050921827 -0.06950958
0.009365908 -0.053553957 0.04597197 -0.03640066 0.021698609 0.010204765 -0.060607586 -0.009928829
-0.040590953 -0.013180969 -0.06928167 0.028407168 -0.0025495673 -0.074269116 -0.06364813 0.026687607
-0.0021399625 -0.00840204 0.057644956 -0.024234835 -0.03921661 -0.028816966 0.01696983 -0.02338879
-0.079625405 -0.00065210764 -0.025032995 -0.03917806 -0.035188813 0.022255683 0.044619374 -0.026984533
-0.015977358 0.04772129 0.015358565 0.017331123 0.007083909 -0.07248981 -0.027016122 0.025478674
-0.031902548 0.01296615 0.036591 -0.055593252 -0.007834066 0.024920462 -0.05577623 0.010026795
-0.013729548 -0.03644838 -0.02221308 -0.038499787 0.0017396718 0.03699913 -0.027119514 0.033698957
0.030569378 -0.03942887 0.0068683443 -0.048919808 -0.014679773 0.0336584 0.0104804775 0.011722501
-0.025092363 0.010990299 0.027048105 -0.04837491 -0.0008504547 -0.06163859 -0.014579592 0.056471948
0.02914999 0.051961828 -0.043394715 -0.0097962385 0.01804281 -0.037809093 0.021138795 0.0074490234
0.011286922 0.049896084 -0.073802166 -0.05781367 0.001871665 -0.013938067 -0.046292998 -0.019607406
-0.005094251 0.015329735 0.0113445055 -0.00012991345 -0.06315904 0.013126968 -0.024683455 -0.0053349407
-0.023584224 -0.043582655 0.016620476 0.025593488 -0.03861523 -0.055158164 0.006897631 -0.020384295
-0.062283203 0.041569557 -0.0062106075 0.02358474 -0.053344205 -0.06290873 -0.022598268 0.03973494
0.02175659 -0.04753663 0.005391207 0.008703043 -0.07560306 -0.010598849 0.001844257 -0.020301046
0.044927377 0.04774646 0.041829403 0.032367226 -0.0052103754 0.0028107932 -0.059924614 -0.033057578
-0.056368325 0.011375822 -0.023038283 -0.003921558 -0.018094616 -0.06454238 0.03466046 -0.047376215
0.04884149 0.03910885 -0.03180289 -0.022488134 -0.041895013 -0.056147672 -0.0109314 -0.06304634
0.041252088 0.009235983 -0.05188264 -0.020568512 -0.03998271 -0.016448053 -0.05718904 0.058435373
-0.026283985 0.005402913 -0.022130053 0.033350535 0.00997371 -0.019323155 0.031141484 -0.046688005
-0.038237065 -0.06736023 -0.023986366 -0.0653977 -0.07209727 0.007771017 -0.0029773125 0.005439332
0.017010568 -0.031250462 -0.083171755 -0.036091432 -0.03482101 -0.059205335 -0.0140924025 -0.00046818054
0.008834567 -0.06316919 -0.0044593015 0.03789505 0.048116144 -0.06335258 -0.021112004 0.006534131
-0.0071503543 0.00065080513 0.004786253 0.051270723 0.006419 -0.08690906 0.00036807876 -0.0675415
0.0124379285 -0.004539166 -0.029003745 -0.034912046 0.03681487 0.008648676 0.049910687 -0.014558654
0.014643161 0.040033232 -0.02642156 -0.04263668 -0.044877756 0.0067278487 -0.07571039 0.01402172
-0.02310493 0.010434964 -0.044707645 -0.02513154 -0.0343529 -0.023785515 0.0046468843 -0.048504286
0.024868133 -0.040037207 -0.0005822088 -0.044873714 -0.0447538 -0.03530263 0.02734924 0.05212419
-0.022560278 -0.027754847 -0.044970695 -0.06064596 0.05209102 -0.041060243 0.038479455 0.0055254437
00000000: a2a1 26bd c78a 5b3c 8e4e 51bc c8e7 22bc
00000010: 806e 83bd b00a ae3c 9417 573d 52ae b9bb
00000020: 7eb6 1bbd 5c23 4bbc 0687 dbbc ee07 67bd
00000030: bff7 a9ba a80d 5ebd c175 133d afa6 29bd
00000040: 6279 43bd b03d aabc b187 1e39 6f8d 9e3b
00000050: 5240 99bb eff7 a23c 53dc a63b 0a5b 8ebd
00000060: 7773 193c 655b 5bbd 1b4d 3c3d dc18 15bd
00000070: 48c1 b13c e331 273c a93f 78bd 87ac 22bc
00000080: b342 26bd fef4 57bc 8ce3 8dbd 26b6 e83c
00000090: a416 27bb 681a 98bd f359 82bd f89f da3c
000000a0: 9d3e 0cbb b6a8 09bc 1e1d 6c3d 2288 c6bc
000000b0: 99a1 20bd 8f11 ecbc 5004 8b3c d999 bfbc
000000c0: a512 a3bd 34f2 2aba ff11 cdbc 2c79 20bd
000000d0: 2522 10bd 8d51 b63c cec2 363d ab0e ddbc
000000e0: f3e2 82bc 6677 433d 7ea2 7b3c 00fa 8d3c
000000f0: 2320 e83b 8a75 94bd ea50 ddbc a7b8 d03c
00000100: 3fac 02bd fa6f 543c 72e0 153d c0b5 63bd
00000110: 745a 00bc ff25 cc3c 9e75 64bd 6d47 243c
00000120: e6f1 60bc e64a 15bd 35f8 b5bc f4b1 1dbd
00000130: b305 e43a 668c 173d be29 debc eb07 0a3d
00000140: a26c fa3c 2b80 21bd d90f e13b 2360 48bd
00000150: 6e83 70bc 64dd 093d 4fb6 2b3c bc0f 403c
00000160: 808e cdbc a810 343c fd93 dd3c c524 46bd
00000170: 0cf1 5eba bf78 7cbd 3edf 6ebc 214f 673d
00000180: f6cb ee3c edd5 543d a8be 31bd 6780 20bc
00000190: 84ce 933c b5dd 1abd 442b ad3c f016 f43b
000001a0: c8ec 383c d65f 4c3d 9725 97bd 07ce 6cbd
000001b0: a852 f53a 7d5c 64bc ba9d 3dbd b69f a0bc
000001c0: aded a6bb 9229 7b3c 4ede 393c 6039 08b9
000001d0: 8759 81bd 7f12 573c f534 cabc bad0 aebb
000001e0: b433 c1bc ba83 32bd aa27 883c 6fa9 d13c
000001f0: 012b 1ebd 87ed 61bd 8605 e23b f7fc a6bc
00000200: ac1c 7fbd d744 2a3d 5a82 cbbb c934 c13c
00000210: 747f 5abd 4bd6 80bd 0120 b9bc 1bc1 223d
00000220: e03a b23c c5b5 42bd b9a8 b03b 3597 0e3c
00000230: c7d5 9abd cba6 2dbc ffba f13a 614e a6bc
00000240: c505 383d cb91 433d 4f55 2b3d 7f93 043d
00000250: ccbb aabb 4935 383b 8373 75bd 6267 07bd
00000260: 79e2 66bd a861 3a3c c8ba bcbc 6a80 80bb
00000270: 293b 94bc cc2e 84bd 20f8 0d3d 900d 42bd
00000280: 040e 483d 9a30 203d bf43 02bd 0939 b8bc
00000290: 1b9a 2bbd 1afb 65bd 9d19 33bc 711e 81bd
000002a0: f3f7 283d 8552 173c e482 54bd 4c7f a8bc
000002b0: e9c4 23bd 11be 86bc 0e3f 6abd ee59 6f3d
000002c0: 8351 d7bc eb0a b13b 164a b5bc 929a 083d
000002d0: c668 233c 984b 9ebc 6d1c ff3c ec3b 3fbd
000002e0: 789e 1cbd 29f4 89bd 0e7f c4bc 3bef 85bd
000002f0: bca7 93bd 04a4 fe3b 041f 43bb 6d3c b23b
00000300: bf59 8b3c 7c00 00bd f455 aabd 9cd4 13bd
00000310: 7aa0 0ebd 4b81 72bd d2e3 66bc 2176 f5b9
00000320: dcbe 103c d95e 81bd 551f 92bb d737 1b3d
00000330: 6f15 453d ffbe 81bd 15f3 acbc 431c d63b
00000340: 854d eabb cb9a 2a3a 00d6 9c3b 4001 523d
00000350: 7a56 d23b 61fd b1bd b2fa c039 3353 8abd
00000360: 74c8 4b3c 49bd 94bb 4399 edbc efff 0ebd
00000370: 30cb 163d 2db3 0d3c 266f 4c3d 6c87 6ebc
00000380: dee9 6f3c e3f9 233d 0772 d8bc cda3 2ebd
00000390: bdd1 37bd 4975 dc3b 0d0e 9bbd 5bbb 653c
000003a0: 8d46 bdbc 69f7 2a3c 5d1f 37bd a9e0 cdbc
000003b0: a0b5 0cbd d7d9 c2bc e444 983b 6eac 46bd
000003c0: 41b8 cb3c 0efe 23bd 5f9f 18ba 80cd 37bd
000003d0: c34f 37bd 7e99 10bd 830b e03c 2d80 553d
000003e0: 55d0 b8bc 225e e3bc 3133 38bd e667 78bd
000003f0: 655d 553d c92e 28bd a29c 1d3d c80e b53b

fc1.bias f4 [64]
-0.04989427 -0.05966035 0.015155371 -0.04596881 0.057967566 0.057613883 0.09464864 0.12971099
0.005365776 0.053459313 0.021822317 0.016979054 -0.052591383 0.023505544 0.01943906 0.0399597
-0.018192299 0.018905554 -0.085662946 0.080305055 0.00025218222 -0.081122294 0.20774402 0.03221429
-0.054550093 0.008926119 0.0010584609 0.020330073 0.013917401 -0.05139666 -0.05808148 0.011792343
-0.021619158 0.0951179 -0.08586137 0.10087772 -0.01884385 -0.03817907 0.1042388 -0.009885962
0.012668674 -0.05966907 0.005128463 -0.0007551548 0.09828298 -0.060574595 -0.028328948 0.098764025
0.050815 -0.06867315 0.025562862 -0.071738586 0.026459428 0.04967457 0.017662931 0.028129736
0.029986566 0.057807844 -0.056797344 0.0826932 0.046575114 0.0262514 -0.056894884 -0.010609987
00000000: ef5d 4cbd 695e 74bd 3c4e 783c ca49 3cbd
00000010: 666f 6d3d 89fc 6b3d 25d7 c13d f5d2 043e
00000020: 64d3 af3b 27f8 5a3d b7c4 b23c a817 8b3c
00000030: 106a 57bd b38e c03c aa3e 9f3c c8ac 233d
00000040: 0408 95bc d2df 9a3c 0e70 afbd fa76 a43d
00000050: 5337 8439 7223 a6bd d9ba 543e 22f3 033d
00000060: eb6f 5fbd db3e 123c 0ebc 8a3a 418b a63c
00000070: d005 643c 4e85 52bd d9e6 6dbd ac34 413c
00000080: a91a b1bc 2ccd c23d 16d8 afbd fa98 ce3d
00000090: 6b5e 9abc a861 1cbd 277b d53d bbf8 21bc
000000a0: 4590 4f3c 8e67 74bd aa0c a83b 95f5 45ba
000000b0: 9648 c93d 111d 78bd 1c12 e8bc cb44 ca3d
000000c0: 6423 503d 82a4 8cbd 3569 d13c aeeb 92bd
000000d0: 71c1 d83c 9077 4b3d dab1 903c 5570 e63c
000000e0: 63a6 f53c ebc7 6c3d 55a4 68bd 0d5b a93d
000000f0: 8cc5 3e3d 2d0d d73c 9c0a 69bd 83d5 2dbc

batch_norm.weight f4 [64]
0.96680826 0.99241847 0.99399465 1.8331734 1.9434651 2.2844818 2.038509 1.649019
0.9686465 1.7537546 0.98395544 1.8217331 0.9936235 1.7910329 0.988873 0.99399465
0.99321216 0.9834206 2.4031887 1.6569089 1.8825566 2.050254 2.2485318 0.98133343
0.9908561 1.6946888 0.99029034 0.97088706 1.7285458 0.9926446 0.993407 0.9916604
2.2573988 1.6522171 0.9710068 1.8763834 2.194973 0.99399453 2.0818338 0.9806385
1.0047526 1.9155649 1.6404631 1.8091018 1.8528223 0.9864355 1.0 1.8496121
1.9663378 0.9866651 0.9917178 0.9882144 0.9929482 1.0 0.98875344 1.8418826
0.9941421 1.8372368 0.98008823 1.9620973 2.0500784 0.99399483 0.9884133 0.9928947
00000000: bf80 773f 230f 7e3f 6f76 7e3f 6da5 ea3f
00000010: 77c3 f83f f334 1240 ee76 0240 0e13 d33f
00000020: 38f9 773f 087b e03f 81e4 7b3f 8d2e e93f
00000030: 1c5e 7e3f 9140 e53f c826 7d3f 6f76 7e3f
00000040: 2743 7e3f 74c1 7b3f d8cd 1940 9715 d43f
00000050: 9df7 f03f 5d37 0340 f2e7 0f40 ab38 7b3f
00000060: bfa8 7d3f 90eb d83f ab83 7d3f 0e8c 783f
00000070: fd40 dd3f f51d 7e3f ec4f 7e3f 75dd 7d3f
00000080: 3979 1040 da7b d33f e793 783f 552d f03f
00000090: 707a 0c40 6d76 7e3f c43c 0540 200b 7b3f
000000a0: bc9b 803f 3b31 f53f b2fa d13f a690 e73f
000000b0: 4829 ed3f 0987 7c3f 0000 803f 17c0 ec3f
000000c0: f5b0 fb3f 1696 7c3f 38e1 7d3f 9efb 7c3f
000000d0: da31 7e3f 0000 803f f21e 7d3f cfc2 eb3f
000000e0: 1980 7e3f 932a eb3f 10e7 7a3f 0126 fb3f
000000f0: 7c34 0340 7276 7e3f a708 7d3f 592e 7e3f

batch_norm.bias f4 [64]
0.10088007 -0.13034211 -0.15239643 -0.022925025 -0.010979571 0.042624153 0.038269125 0.009531373
-0.06274487 0.0749986 0.18276086 0.10235455 0.072480366 -0.0033969544 -0.0906705 -0.13382171
-0.1285613 0.09028008 -0.025487166 0.03983053 0.029933354 0.03820271 0.12680055 -0.08977925
0.028957821 0.019116893 0.12662287 -0.13371243 -0.10457579 -0.111900456 -0.0672306 -0.1922148
0.011800218 -0.031735856 -0.05971057 0.007241852 -0.010687418 0.10542594 0.026359051 0.0070688846
-0.12292502 -0.0071988204 -0.07169227 -0.007879364 -0.041999336 -0.113931894 0.0659112 0.06605936
-0.03431546 -0.044642493 -0.0880891 0.0907974 0.0860695 0.033473365 -0.07842213 0.035902027
-0.08595661 0.044618312 0.1232758 0.052133285 0.005939977 0.10726914 0.102323174 0.08797421
00000000: 369a ce3d 6778 05be cf0d 1cbe 43cd bbbc
00000010: a9e3 33bc aa96 2e3d 16c0 1c3d 7a29 1c3c
00000020: 6280 80bd de98 993d aa25 3b3e 439f d13d
00000030: 9670 943d 709f 5ebb 75b1 b9bd 8f08 09be
00000040: 93a5 03be c3e4 b83d 76ca d0bc 5625 233d
00000050: cb36 f53c 727a 1c3d 01d8 013e 2fde b7bd
00000060: f438 ed3c 089b 9c3c 6da9 013e e9eb 08be
00000070: d52b d6bd 112c e5bd 32b0 89bd f5d3 44be
00000080: b455 413c 75fd 01bd 1293 74bd 0f4d ed3b
00000090: 481a 2fbc 8ee9 d73d f0ee d73c 1aa2 e73b
000000a0: 1dc0 fbbd 15e4 ebbb 66d3 92bd 7318 01bc
000000b0: 7f07 2cbd 2055 e9bd 74fc 863d 214a 873d
000000c0: 5e8e 0cbd 0cdb 36bd 0f68 b4bd fdf3 b93d
000000d0: 3545 b03d 5e1b 093d c89b a0bd 010e 133d
000000e0: 050a b0bd b1c1 363d 0678 fc3d b689 553d
000000f0: 23a4 c23b ecaf db3d d08e d13d d32b b43d

batch_norm.running_mean f4 [64]
6e-45 6e-45 6e-45 6e-45 0.0049247313 0.00409777 0.0013633949 1.5698271e-06
6e-45 6e-45 6e-45 6e-45 6e-45 6e-45 6e-45 6e-45
6e-45 6e-45 4.8625417 0.0026834228 6e-45 0.00072946085 7.348678 6e-45
6e-45 6e-45 6e-45 6e-45 6e-45 6e-45 6e-45 6e-45
6e-45 0.001423293 6e-45 6e-45 0.00770805 6e-45 1.1169081 6e-45
6e-45 6e-45 6e-45 6e-45 6e-45 6e-45 0.0 6e-45
6e-45 6e-45 6e-45 6e-45 6e-45 0.0 6e-45 6e-45
6e-45 6e-45 6e-45 0.41021395 6e-45 6e-45 6e-45 6e-45
00000000: 0400 0000 0400 0000 0400 0000 0400 0000
00000010: a45f a13b 9646 863b f1b3 b23a d9b2 d235
00000020: 0400 0000 0400 0000 0400 0000 0400 0000
00000030: 0400 0000 0400 0000 0400 0000 0400 0000
00000040: 0400 0000 0400 0000 f199 9b40 5ddc 2f3b
00000050: 0400 0000 4a39 3f3a 5f28 eb40 0400 0000
00000060: 0400 0000 0400 0000 0400 0000 0400 0000
00000070: 0400 0000 0400 0000 0400 0000 0400 0000
00000080: 0400 0000 ca8d ba3a 0400 0000 0400 0000
00000090: cf93 fc3b 0400 0000 d8f6 8e3f 0400 0000
000000a0: 0400 0000 0400 0000 0400 0000 0400 0000
000000b0: 0400 0000 0400 0000 0000 0000 0400 0000
000000c0: 0400 0000 0400 0000 0400 0000 0400 0000
000000d0: 0400 0000 0000 0000 0400 0000 0400 0000
000000e0: 0400 0000 0400 0000 0400 0000 9007 d23e
000000f0: 0400 0000 0400 0000 0400 0000 0400 0000

batch_norm.running_var f4 [64]
6e-45 6e-45 6e-45 6e-45 0.031044748 0.02976976 0.002749557 9.3286485e-07
6e-45 6e-45 6e-45 6e-45 6e-45 6e-45 6e-45 6e-45
6e-45 6e-45 10.873721 0.009539706 6e-45 0.0011534574 25.661886 6e-45
6e-45 6e-45 6e-45 6e-45 6e-45 6e-45 6e-45 6e-45
6e-45 0.0029434063 6e-45 6e-45 0.06590023 6e-45 2.858067 6e-45
6e-45 6e-45 6e-45 6e-45 6e-45 6e-45 6e-45 6e-45
6e-45 6e-45 6e-45 6e-45 6e-45 6e-45 6e-45 6e-45
6e-45 6e-45 6e-45 2.946453 6e-45 6e-45 6e-45 6e-45
00000000: 0400 0000 0400 0000 0400 0000 0400 0000
00000010: 8e51 fe3c b6df f33c e931 343b fc69 7a35
00000020: 0400 0000 0400 0000 0400 0000 0400 0000
00000030: 0400 0000 0400 0000 0400 0000 0400 0000
00000040: 0400 0000 0400 0000 c3fa 2d41 6d4c 1c3c
00000050: 0400 0000 9c2f 973a 8b4b cd41 0400 0000
00000060: 0400 0000 0400 0000 0400 0000 0400 0000
00000070: 0400 0000 0400 0000 0400 0000 0400 0000
00000080: 0400 0000 2ae6 403b 0400 0000 0400 0000
00000090: b3f6 863d 0400 0000 92ea 3640 0400 0000
000000a0: 0400 0000 0400 0000 0400 0000 0400 0000
000000b0: 0400 0000 0400 0000 0400 0000 0400 0000
000000c0: 0400 0000 0400 0000 0400 0000 0400 0000
000000d0: 0400 0000 0400 0000 0400 0000 0400 0000
000000e0: 0400 0000 0400 0000 0400 0000 b092 3c40
000000f0: 0400 0000 0400 0000 0400 0000 0400 0000

fc2.weight f4 [2, 64]
0.024293851 0.0986671 -0.043913953 -0.23466258 -0.16153865 0.23002195 0.25198978 0.090564296
0.036656614 0.00967592 0.07685206 0.09159553 0.046102278 -0.062414296 -0.06607796 -0.026559552
-0.07869308 -0.029637987 -0.5187366 -0.052803528 0.03501106 0.24994269 0.56779337 0.001835395
0.04297304 0.08522113 0.08998229 -0.047528964 -0.025464615 -0.07923797 0.013263064 -0.084195375
0.19896795 -0.02585682 -0.022031212 -0.23771445 -0.50808823 0.048238173 -0.4796322 -0.06314945
-0.03941581 -0.032509167 -0.11162987 0.11887172 0.21313962 -0.032017235 0.003293363 -0.22871645
-0.3168269 -0.03895006 0.045860816 0.0088199545 -0.018627265 0.08501006 -0.101585805 -0.15037856
-0.08089574 -0.044274293 -0.055128485 0.31735277 -0.21027815 -0.030258674 0.0035971045 0.023770632
0.06489343 0.064649194 -0.0036412452 0.26453128 0.21754593 -0.31106478 -0.31290698 0.080486596
0.049748633 -0.13954346 0.063389376 -0.07404743 -0.038058348 -0.061407182 -0.025769383 -0.048642922
-0.08197986 -0.04025348 0.54800737 -0.01447825 -0.11957015 -0.2741447 -0.5966333 -0.023932764
0.03652599 0.05048926 0.048489377 -0.007822924 -0.023883855 -0.10563598 0.005281791 -0.10262377
-0.05250345 0.06784281 -0.003074224 0.18017288 0.5033933 0.05484968 0.4752407 -0.08106155
-0.003652313 -0.15727408 -0.09168799 -0.09666533 -0.0362861 -0.07713984 0.059425104 -0.016423605
0.22691707 0.008183731 0.004682414 -0.0013952061 -0.01228098 0.051991742 -0.0846162 -0.009919339
-0.050467744 0.08122688 -0.056080483 -0.30445373 0.010449168 0.013432892 -0.0010726576 -0.029334988
00000000: e603 c73c fa11 ca3d 1edf 33bd 634b 70be
00000010: 636a 25be e08a 6b3e ce04 813e c679 b93d
00000020: 3f25 163d c087 1e3c 9d64 9d3d 7096 bb3d
00000030: bed5 3c3d 22a6 7fbd e253 87bd 6b93 d9bc
00000040: d629 a1bd 5dcb f2bc eccb 04bf 8348 58bd
00000050: c267 0f3d faf0 7f3e e85a 113f a391 f03a
00000060: 8004 303d 6a88 ae3d a348 b83d bbad 42bd
00000070: 2b9b d0bc 8447 a2bd 534d 593c a06e acbd
00000080: 41be 4b3e afd1 d3bc cd7a b4bc 6b6b 73be
00000090: 1212 02bf 6495 453d 5a92 f5be 8054 81bd
000000a0: 7972 21bd 5528 05bd 349e e4bd 0473 f33d
000000b0: 4641 5a3e 8124 03bd 76d5 573b a534 6abe
000000c0: 2337 a2be 198a 1fbd 8dd8 3b3d 9281 103c
000000d0: 3598 98bc c119 ae3d 380c d0bd d6fc 19be
000000e0: aaac a5bd f658 35bd 68ce 61bd 107c a23e
000000f0: 2853 57be 0ae1 f7bc 66bd 6b3b a1ba c23c
00000100: d9e6 843d cc66 843d f5a1 6ebb a570 873e
00000110: 5cc4 5e3e e243 9fbe 5835 a0be 28d6 a43d
00000120: 39c5 4b3d 7be4 0ebe 4ad2 813d 2ea6 97bd
00000130: 12e3 1bbd 1986 7bbd 501a d3bc cd3d 47bd
00000140: 0fe5 a7bd d5e0 24bd 364a 0c3f 2f36 6dbc
00000150: 32e1 f4bd b25c 8cbe f6bc 18bf a50e c4bc
00000160: 479c 153d d4cd 4e3d cc9c 463d b92b 00bc
00000170: 13a8 c3bc ad57 d8bd e012 ad3b 692c d2bd
00000180: dc0d 57bd 2cf1 8a3d ec78 49bb 3d7f 383e
00000190: 62de 003f 0faa 603d c052 f33e 9903 a6bd
000001a0: a55b 6fbb 750c 21be eac6 bbbd 79f8 c5bd
000001b0: bca0 14bd 7efb 9dbd bd67 733d cc8a 86bc
000001c0: f35c 683e 0e15 063c ef6e 993b 59df b6ba
000001d0: 2a36 49bc 4bf5 543d 424b adbd b984 22bc
000001e0: 44b7 4ebd 475a a63d a6b4 65bd 5ce1 9bbe
000001f0: fd32 2b3c a215 5c3c 6b98 8cba ee4f f0bc

fc2.bias f4 [2]
0.08303421 -0.0805143
00000000: d70d aa3d aee4 a4bd
