models/back number/classifier_fold2.pth (torch, 991011 bytes, 16 tensors)

conv_layers.0.weight f4 [64, 256, 2]
0	0x3cdf1055	0.027229467
1	0x3d68d661	0.056845073
2	0xbc3ae2ce	-0.0114066135
3	0x3dcc3aee	0.099721774
4	0x3a53bfba	0.0008077581
5	0x3cd91fef	0.026504485
6	0xbce67867	-0.028133584
7	0x3d83a7a1	0.06428457
8	0x3ae0445e	0.0017110219
9	0x3c8cbf44	0.017181046
10	0xbd07da11	-0.03316695
11	0xbd8b0f27	-0.067899995
12	0x3cd0efa0	0.025504887
13	0x3d087a0c	0.033319518
14	0xbc53ccf8	-0.012927286
15	0x3b1c4051	0.0023842047
16	0x3de35eb8	0.111020505
17	0xbcfd4a28	-0.03091915
18	0xbd1ee1d6	-0.038789593
19	0x3d97cdf8	0.07412332
20	0x3c7e8c84	0.015536431
21	0x3c6549e5	0.013994669
22	0xbd6b186e	-0.057396345
23	0x3c7ef6a4	0.015561733
24	0x3b10c13a	0.0022087828
25	0xbda33abc	-0.07970187
26	0x3b3703a6	0.0027925759
27	0xbd64ab7e	-0.05582761
28	0x3c90f501	0.017694952
29	0x3c82166e	0.015879836
30	0x3d6b6886	0.05747273
31	0x3d46882b	0.048469704
32	0x3d569bd5	0.052394707
33	0x3d38e65c	0.045141563
34	0x3b76793e	0.0037608887
35	0xbca2a25e	-0.019852813
36	0xbd33e66b	-0.043920916
37	0xbc065357	-0.008198581
38	0xbd626d76	-0.05528017
39	0xbd4a0192	-0.049317904
40	0xbd5c3d3d	-0.05376934
41	0x3cd469e7	0.025929404
42	0x3c450f54	0.01202758
43	0xbc60a6c6	-0.013711637
44	0xbc313580	-0.010815978
45	0x3d21bb9c	0.03948556
46	0x3ca3fc8f	0.02001789
47	0x3d217437	0.03941747
48	0x3d0d7f1e	0.034545057
49	0x3ca0ef98	0.019645497
50	0x3c9d0c8d	0.019171024
51	0x3ce96115	0.028488675
52	0x3d01c6ed	0.03168385
53	0xbdd99778	-0.106245935
54	0x3b876bcb	0.004132723
55	0xbd5e8b55	-0.054332096
56	0x3c9bf093	0.019035613
57	0x3cc63248	0.024193898
58	0xbd883346	-0.06650405
59	0xbc9bb568	-0.0190074
60	0x3c5351e8	0.012897946
61	0x3d210792	0.03931386
62	0xbdb231f5	-0.08700935
63	0xbcff2bd4	-0.031148829
64	0xbd0f1044	-0.03492762
65	0xbcaec193	-0.021332538
66	0xbd4e349c	-0.05034314
67	0x3c47a782	0.012185933
68	0xbca1e959	-0.01976459
69	0xbd034a8f	-0.032053526
70	0x3c997d0f	0.01873639
71	0x3c814c0b	0.01578333
72	0x3cf94d51	0.030432375
73	0xbcbcd89e	-0.02305251
74	0x3d390f53	0.04518063
75	0x3d89dd47	0.067316584
76	0x3b9d6c78	0.0048041902
77	0x3c04f6ea	0.0081155095
78	0x3d0a7ae8	0.03380862
79	0xbd188337	-0.03723451
80	0xbd3156ad	-0.04329555
81	0xbbee42ea	-0.0072711604
82	0xbca55a1d	-0.02018457
83	0xbd22bc80	-0.03973055
84	0x3dd56212	0.10419096
85	0xbda0e252	-0.07855667
86	0xbdd180e5	-0.10229663
87	0x3c7534b1	0.014966176
88	0xbbd4fde6	-0.0064999936
89	0xba84c664	-0.0010129926
90	0x3da04894	0.07826343
91	0x3daa6822	0.08320643
92	0x3d7f4a1f	0.062326547
93	0xbd935894	-0.07194629
94	0x3c534d87	0.012896902
95	0x3cf480da	0.029846597
96	0xbcfe2467	-0.031023217
97	0xbcee6c71	-0.029104443
98	0xbc7d13b0	-0.015446588
99	0x3c9aecbb	0.01891171
100	0x3c8d53bc	0.017251842
101	0x3d60ac87	0.054852035
102	0xbd3b7d89	-0.045774017
103	0xbd2426a8	-0.040075928
104	0xbc66153d	-0.01404315
105	0xbae1b5d9	-0.0017220333
106	0xbb551d62	-0.0032518734
107	0x3cd21f51	0.025649698
108	0xbd2279d0	-0.03966695
109	0xbcf57c5a	-0.029966522
110	0x3c9c363c	0.01906883
111	0xbd4d0f94	-0.050063685
112	0x3cf8455f	0.030306516
113	0x3cb75204	0.022377975
114	0x3d840b32	0.06447448
115	0x3c0796b9	0.008275681
116	0xbb9a39b8	-0.0047065876
117	0x3c2931f5	0.010326852
118	0x39d293bc	0.00040164392
119	0xbd1452d6	-0.03621181
120	0x3c682692	0.014169352
121	0x3c3557c2	0.011068286
122	0xbc369683	-0.011144283
123	0xbd2323bb	-0.039828997
124	0x3c880d29	0.016607838
125	0x3d4ff4e1	0.050770644
126	0x3c89af62	0.016807262
127	0x3c5e2840	0.013559401
128	0xbd24502f	-0.04011553
129	0xbd945a13	-0.07243743
130	0x3d6f6330	0.058444202
131	0xbd7c3da5	-0.061582226
132	0xbcbe9fd7	-0.023269577
133	0xbd26e100	-0.04074192
134	0x3d8c6bbc	0.06856486
135	0xbc119904	-0.008886579
136	0x3d8400aa	0.06445439
137	0xbc1e25fa	-0.009652609
138	0x3ca12e54	0.019675411
139	0x3cdee9b4	0.027211048
140	0x3dc9d19b	0.09854432
141	0xbce0cbed	-0.02744099
142	0x3ca7a404	0.020463951
143	0x3ca13457	0.019678278
144	0x3c364905	0.011125808
145	0x3d9f9caf	0.07793557
146	0x3a26e81d	0.0006366985
147	0x3d38855f	0.045049068
148	0xbd940fa2	-0.07229544
149	0xbc40e6e4	-0.011773799
150	0xbd93b8cd	-0.07212982
151	0x3d9e61cb	0.07733496
152	0x3dd27e3a	0.10277982
153	0x3b084e6a	0.0020798692
154	0xb90d741f	-0.00013490066
155	0x3c422e77	0.011851898
156	0x3d915f4d	0.07098255
157	0xbc370378	-0.011170261
158	0x3c7b858d	0.015351665
159	0x3d1a873d	0.03772663
160	0x3d30e675	0.04318853
161	0xbcd14a96	-0.02554826
162	0x3d3e66d6	0.04648479
163	0xbd6c3b55	-0.05767377
164	0xbd4df83d	-0.050285567
165	0x3c6743c6	0.01411528
166	0xbd166c6f	-0.036724504
167	0xbd024899	-0.031807516
168	0xbca5ec9d	-0.020254428
169	0xbc9f4f79	-0.019447075
170	0xbbc05be5	-0.0058703297
171	0xbd45bd24	-0.04827608
172	0xbc8d12ef	-0.017220942
173	0x3d5d36dc	0.054007396
174	0x3ce533cb	0.027978798
175	0x3c2ed7ca	0.010671565
176	0xbdb0fb38	-0.08641666
177	0x3af12aee	0.0018399635
178	0x3d514c29	0.051098023
179	0xbdfb3df3	-0.12267675
180	0x3d4f5a01	0.050622944
181	0x3d4e1ecd	0.050322343
182	0x3d5a602f	0.053314384
183	0xbd09399b	-0.033502202
184	0xbc92b0eb	-0.017906627
185	0xbb3a600a	-0.0028438591
186	0xbbade811	-0.0053072055
187	0x3c14dddb	0.009086098
188	0xbc1316c6	-0.008977598
189	0xbc3fa98c	-0.011698138
190	0x3d3679f3	0.044549894
191	0xbda4f684	-0.080548316
192	0xbd8f08f8	-0.069841325
193	0x3dc5f72f	0.09666287
194	0xbd82eff3	-0.06393423
195	0xbd3d445a	-0.046207763
196	0x3d94b59e	0.07261203
197	0xbd5a0f88	-0.053237468
198	0xbdbc8aca	-0.092061594
199	0x3c8faa2c	0.017537199
200	0x3ce89315	0.028390447
201	0xbbc59fac	-0.0060309973
202	0x3c393037	0.011302999
203	0xbd890834	-0.06691018
204	0xbc959038	-0.018257245
205	0x3cf639c5	0.030056844
206	0x3bc01d70	0.005862884
207	0x3d63b42b	0.055591743
208	0xbca1e77f	-0.019763706
209	0xbb815155	-0.003946463
210	0xbd6aa2c6	-0.05728414
211	0xbd2549a6	-0.04035344
212	0xbc0b78ce	-0.008512689
213	0x3d661e19	0.056181047
214	0x3dc9324b	0.09824046
215	0xbd0f4d55	-0.03498586
216	0xbccda22f	-0.02510175
217	0x3d3573d7	0.044299927
218	0x3d7d6e8e	0.06187301
219	0x3ca1817b	0.019715061
220	0x3d81f8b9	0.06346268
221	0x3d91fc84	0.07128242
222	0x3b870786	0.00412077
223	0x3dc9a83a	0.0984654
224	0xbd91d680	-0.07120991
225	0xbd0d32fd	-0.034472454
226	0x3dd9923b	0.106235944
227	0x3c979af8	0.018506512
228	0xbd3cf16e	-0.046128683
229	0xbbef7754	-0.007307926
230	0xbc582600	-0.013192654
231	0xbc993059	-0.018699812
232	0x3d3c18eb	0.0459222
233	0xbd07b636	-0.033132754
234	0x3d0fa44b	0.03506879
235	0x3c526d11	0.012843386
236	0x3ca2ff4b	0.019897124
237	0x3c8d2a58	0.017232105
238	0x3d4c882b	0.049934547
239	0xbaf0afac	-0.0018362901
240	0xbd38d473	-0.045124482
241	0x3ca692d2	0.020333681
242	0xbc0583c9	-0.008149096
243	0x3ccc9028	0.024971083
244	0x3dc50d95	0.09621731
245	0xba57e7d9	-0.0008236147
246	0xbd599127	-0.053116944
247	0xbcfad4f3	-0.03061912
248	0x3d22a96d	0.03971236
249	0xbcd81e64	-0.026381679
250	0xbda10b6a	-0.07863505
251	0x3bf220aa	0.0073891478
252	0x3da16ce2	0.07882096
253	0xbd8a4146	-0.06750731
254	0x3da075d0	0.07834971
255	0xbd73606d	-0.05941813

conv_layers.0.bias f4 [64]
0	0x3d466b29	0.04844204
1	0xbd0a7d74	-0.033811048
2	0xbd0e88bd	-0.034798373
3	0x3bed2120	0.007236615
4	0xbb6d3d05	-0.00361997
5	0xbd2d306e	-0.042282514
6	0xbd5c9c8a	-0.053860225
7	0xbd5becd3	-0.05369265
8	0xbe1d1d2c	-0.1534316
9	0x3d009cc6	0.03139951
10	0xbc86a232	-0.016434763
11	0x3d8e83c2	0.069587246
12	0x3d3fa077	0.04678389
13	0x3d5c1f50	0.0537408
14	0xbcd43c20	-0.025907576
15	0xbd815ff6	-0.06317131
16	0x3d98c51e	0.07459472
17	0x3c09d567	0.0084126955
18	0x3d5a4888	0.053291827
19	0xbcfb7abb	-0.03069817
20	0xbc1021a4	-0.008797083
21	0x3d7b9702	0.06142331
22	0xbbf8b148	-0.007589493
23	0x3d17634f	0.036959942
24	0x3d56749b	0.052357297
25	0xbba11cd7	-0.004916768
26	0xbd07a5c9	-0.03311709
27	0xbc95cbb3	-0.018285608
28	0xbcd159e2	-0.025555555
29	0xbcf9956d	-0.03046676
30	0x3d843bf3	0.06456747
31	0x3c848dba	0.016180862
32	0xbac10811	-0.0014727135
33	0x3d3846b4	0.044989303
34	0x3c9c66ea	0.019092042
35	0x3cf35fee	0.029708829
36	0x3d1c9c28	0.03823486
37	0x3d95d75d	0.07316468
38	0xbd99b8ad	-0.07505927
39	0x3d0fe728	0.035132557
40	0xbd4fec1e	-0.05076229
41	0xbdc1b844	-0.09458974
42	0xbbf139d8	-0.007361632
43	0xbd6ee197	-0.058320608
44	0xbd153747	-0.03642967
45	0x3d073e1a	0.03301821
46	0xbb45ba1b	-0.0030170742
47	0x3d25947d	0.040424813
48	0xbd845ed8	-0.064634025
49	0x3ca221c4	0.019791491
50	0xbd47bc29	-0.048763428
51	0x3af58eff	0.0018734633
52	0x3d1485d7	0.036260452
53	0xbda0ed02	-0.07857706
54	0xbd203504	-0.03911306
55	0x3b1e40aa	0.002414743
56	0xbdbebcbb	-0.09313341
57	0xbd8d060a	-0.068859175
58	0x3d793032	0.06083698
59	0x3aa6c9ba	0.0012724914
60	0x3d94e380	0.07269955
61	0xbd3b9aed	-0.045802046
62	0xbd91b710	-0.071149945
63	0xbcffa17d	-0.031204933

conv_layers.1.weight f4 [64, 256, 3]
0	0xbae988c0	-0.0017817244
1	0x3b2e6142	0.0026608263
2	0xbc650fcb	-0.013980816
3	0x3cb01e89	0.021498935
4	0xbd32d5a1	-0.043660764
5	0x3d3fd8e2	0.046837695
6	0x3c4f0cda	0.012637341
7	0x3d938915	0.07203881
8	0x3bcfb363	0.0063385232
9	0x3c5d52cb	0.013508509
10	0xbc2e0c14	-0.010622997
11	0xbd000aef	-0.031260427
12	0x3d87ecd2	0.06636967
13	0xbcadf0fa	-0.02123307
14	0x3c80a244	0.015702374
15	0x3d0941af	0.033509906
16	0xbca03243	-0.019555217
17	0x3d8f8500	0.070077896
18	0xbd28fe18	-0.041257948
19	0x3c343493	0.010998863
20	0xbc3f529f	-0.011677413
21	0xbd4b772e	-0.049674205
22	0xbd06681a	-0.032814123
23	0x3b517576	0.0031960881
24	0x3ccd86e9	0.025088744
25	0x3bcb8095	0.0062103965
26	0xbd5fec55	-0.054668743
27	0xbda2d1a4	-0.07950142
28	0x3d637c77	0.05553862
29	0x3cf35428	0.029703215
30	0xbd4c5120	-0.049882054
31	0xbcf49b63	-0.02985925
32	0xbcfdedca	-0.030997176
33	0xbb773c8e	-0.0037725302
34	0x3cb7e058	0.022445843
35	0x3d8dfc66	0.06932907
36	0xbc5d904c	-0.013523173
37	0x3c94c26f	0.01815912
38	0x3d0a71d2	0.033799954
39	0xbd0f77ee	-0.035026483
40	0x3ca6780a	0.020320911
41	0xbc3ef0ca	-0.011654088
42	0x3cdc5eae	0.026900616
43	0x3d6939d7	0.056939926
44	0x3d2d93a4	0.04237713
45	0xbc7742d5	-0.015091618
46	0x3d8cbebb	0.068723164
47	0xbb045347	-0.0020191239
48	0x3b48ab8f	0.0030619835
49	0xbc867899	-0.016414927
50	0x3d8af9d8	0.06785935
51	0xbda63667	-0.08115845
52	0x3d3bd839	0.045860503
53	0x3d0745eb	0.033025663
54	0x3c90ba6c	0.017667018
55	0xbd2e7d2f	-0.042599853
56	0xbc5e4813	-0.0135669885
57	0xbc0eefd6	-0.0087241735
58	0xbcce6ce7	-0.025198413
59	0x3daa85cb	0.083263
60	0xbd1b09a8	-0.037851006
61	0xbbc88f50	-0.0061206
62	0x3dabeafc	0.08394429
63	0xbd3df784	-0.046378627
64	0x3d77ddc9	0.060514245
65	0x3bf47c5e	0.007461115
66	0x3d33f141	0.04393125
67	0x3c66044e	0.014039112
68	0x3cb55621	0.022135796
69	0xbd36280a	-0.044471778
70	0xbd0e11c8	-0.034684926
71	0xb9571af0	-0.00020514033
72	0xbd127913	-0.035759997
73	0x3d91afb5	0.071135916
74	0x3c63999a	0.013891602
75	0x3d454f4d	0.04817133
76	0x3df783ab	0.120856605
77	0x3d205ab2	0.039148994
78	0xbd86ee8f	-0.0658847
79	0x3c0f1fe4	0.008735631
80	0x3d6d3baa	0.05791823
81	0xbc808f22	-0.015693251
82	0x3dab7373	0.083716296
83	0x3d529126	0.051407956
84	0x3d4b511b	0.049637895
85	0xbc114ede	-0.008868901
86	0x3c9420f3	0.018082118
87	0xbd6f8aac	-0.058481857
88	0x3ce23552	0.027613316
89	0xbdadf0ee	-0.08493219
90	0xbd81d5f5	-0.06339637
91	0x3d1adb9f	0.037807103
92	0x3ac86035	0.0015287461
93	0x3d39f47a	0.045399167
94	0x3c907bc7	0.017637147
95	0x3c6dc72d	0.014512819
96	0xbd8104f3	-0.06299772
97	0xbb3c335c	-0.0028717136
98	0xbd570ba1	-0.052501325
99	0x3d37f2df	0.044909354
100	0x3c2217f9	0.009893411
101	0xbc95823d	-0.018250579
102	0x3c9fe864	0.019519992
103	0xbc1a49d9	-0.009417021
104	0x3d045257	0.032305088
105	0x3d70ccbf	0.05878901
106	0x3dcfd776	0.10148518
107	0xbb93b930	-0.00450816
108	0xbc93c974	-0.018040396
109	0x3c353e7f	0.0110622635
110	0x3d424340	0.047427416
111	0x3d05064a	0.0324767
112	0x3d5e93fa	0.05434034
113	0x3d0d0654	0.034429863
114	0xbc40b2aa	-0.011761347
115	0x3db28a29	0.08717758
116	0x3d07bfc3	0.033141863
117	0xbc87d1ed	-0.016579593
118	0x3c2117da	0.009832347
119	0x3d10e415	0.035373766
120	0x3d2d3fdd	0.042297233
121	0x3d44c381	0.04803801
122	0x3cf4e425	0.029893944
123	0xbd75ed96	-0.060041033
124	0x3ba7f836	0.0051260246
125	0xbd66fde4	-0.056394473
126	0x3dce9f2e	0.10088955
127	0xbd3867cb	-0.04502086
128	0x3c973278	0.018456683
129	0xbcb94396	-0.022615235
130	0x3d6c8734	0.057746127
131	0x3d458a94	0.04822786
132	0xbcaebe95	-0.021331111
133	0xbcc85819	-0.02445607
134	0x3cc7fb56	0.024411839
135	0x3c3afc29	0.011412659
136	0x3b4b9b11	0.0031067769
137	0xbcec4121	-0.02883965
138	0x3d972a1b	0.07381078
139	0x3c7844e1	0.015153141
140	0xbac7047e	-0.0015183834
141	0xbabbef9c	-0.0014338377
142	0x3d4a3629	0.049368057
143	0xbcf793a3	-0.030221766
144	0xbb893286	-0.004186931
145	0x3b16b96b	0.0022998701
146	0x3ccedfed	0.02525326
147	0x3d1a1da2	0.037625916
148	0x3bb94b86	0.005654755
149	0xbd52b254	-0.0514396
150	0xbd31d1d1	-0.043412987
151	0xbd0a6a28	-0.033792645
152	0x3c9d3793	0.019191539
153	0x3d7eb6fd	0.06218623
154	0xbb928d16	-0.004472385
155	0xbca06a7c	-0.019582026
156	0x3bbf8458	0.005844634
157	0x3c6fdee4	0.014640544
158	0xbb1c8aa6	-0.0023886352
159	0xbd629559	-0.05531821
160	0x3cef6008	0.029220596
161	0xbca20dca	-0.019781966
162	0xbbea0cdd	-0.0071426467
163	0x3cfa75cb	0.030573746
164	0x3d00fa84	0.03148891
165	0x3bd7289c	0.0065661203
166	0x3db9019a	0.090335086
167	0xbc5584c2	-0.01303214
168	0x3c59e600	0.013299465
169	0xbd6956dc	-0.0569676
170	0x3d6320f9	0.055451367
171	0x3d54e7ad	0.051978756
172	0x3cff8b26	0.03119428
173	0xbbb2103d	-0.0054340647
174	0x3d5ae4fe	0.05344104
175	0xbd164116	-0.036683165
176	0xbd3601d6	-0.044435345
177	0x3de0c108	0.10974318
178	0xbcd2d4fa	-0.02573632
179	0xbd1b56da	-0.037924625
180	0x3d4f3b10	0.050593436
181	0x3ce85fd4	0.028366007
182	0x3d8a4764	0.06751898
183	0x3bedff37	0.00726309
184	0xbc83af95	-0.016074935
185	0x3cb4a575	0.022051552
186	0xbcaae311	-0.020860227
187	0xbd7d6c35	-0.061870772
188	0xbd8e2ee3	-0.06942537
189	0x3b98311d	0.0046445266
190	0xbd109cab	-0.03530566
191	0xbd62a095	-0.055328924
192	0xbd33e929	-0.04392353
193	0xbd0c1128	-0.03419605
194	0xbc875c01	-0.016523363
195	0x3dc016b4	0.0937933
196	0x3e00fe9d	0.12597127
197	0xbc4a372b	-0.012342255
198	0x3ae9134e	0.0017782243
199	0x3d02ea27	0.031961586
200	0x3c8cf417	0.017206235
201	0xbdcd67d1	-0.10029567
202	0x3c544034	0.01295476
203	0xbd331f8b	-0.043731254
204	0x3bbf587d	0.005839406
205	0x3d01d41b	0.03169642
206	0x3d0f7753	0.035025906
207	0xb98d7a0e	-0.00026984554
208	0xbd266bea	-0.04063026
209	0xbd80c949	-0.06288392
210	0xba502bca	-0.00079410954
211	0xbd9f0fc4	-0.07766679
212	0x3b85f153	0.004087606
213	0x3c62e158	0.013847671
214	0xbc77b7d0	-0.015119508
215	0x3d57b5e9	0.052663717
216	0x3d83e56e	0.064402446
217	0xbd5339a1	-0.05156863
218	0xbb48c777	-0.0030636468
219	0x3d7a4402	0.061100014
220	0x3cbab7c8	0.022792712
221	0x3bf329cb	0.0074207536
222	0xbd39e74b	-0.045386594
223	0x3d5d73de	0.054065578
224	0x3c882a6c	0.01662179
225	0xbc89285e	-0.016742881
226	0xbd0dd17f	-0.03462362
227	0xbd5770d9	-0.052597854
228	0xbd1d0cc5	-0.038342256
229	0x3dbcbdc5	0.09215883
230	0x3c9c88fb	0.019108286
231	0x3d1cdeb0	0.03829831
232	0xbd5c4506	-0.053776763
233	0xbcbed8f8	-0.023296818
234	0x3d4702e6	0.04858675
235	0x3c8a2898	0.01686506
236	0xbdb67e3b	-0.08910795
237	0x3ca62e1e	0.020285662
238	0x3d0f9c67	0.035061266
239	0xbcaca296	-0.02107362
240	0x3bce2344	0.006290825
241	0x3d04078b	0.032233756
242	0xbd12dbd8	-0.03585419
243	0x3d8de5b4	0.06928578
244	0xbd3f490d	-0.046700526
245	0x3d9476be	0.07249211
246	0xbd35b8de	-0.044365756
247	0x3db554b2	0.08854045
248	0xbc0e0528	-0.0086682215
249	0xbd01ba51	-0.031671826
250	0x3d993473	0.07480707
251	0x3d85a9a6	0.065264985
252	0x3ad76f12	0.00164363
253	0x3d9d6efe	0.07687186
254	0x3cdbab83	0.026815182
255	0x3a31f9b4	0.0006789223

conv_layers.1.bias f4 [64]
0	0xbd664a1a	-0.056223013
1	0xbdc158f7	-0.09440797
2	0x3d39679e	0.045264833
3	0x3bb9a3e0	0.0056652874
4	0x3c195627	0.009358919
5	0x3cf17451	0.02947441
6	0x3c6c44ad	0.01442067
7	0x3d8c7864	0.068589
8	0x3d531d4f	0.051541623
9	0x3d27c54d	0.040959645
10	0xbc4918f4	-0.012274016
11	0xbcd87567	-0.02642317
12	0x3cafc82e	0.021457758
13	0xbcf22635	-0.029559234
14	0xbd0a38e3	-0.033745658
15	0x3d1a01ad	0.037599254
16	0xbc8265df	-0.015917717
17	0x3cb6f27e	0.022332426
18	0xbd0dc43b	-0.034610968
19	0x3b7de8c6	0.003874348
20	0x3c503c5c	0.012709703
21	0x3c7b81ec	0.0153508
22	0x3b8cd018	0.0042972676
23	0xbd00ec91	-0.031475607
24	0x3bd73258	0.0065672807
25	0xbd63a2ae	-0.055575065
26	0xbd34190f	-0.04396921
27	0xbcf4c0d4	-0.029877104
28	0xbc85bc20	-0.016325057
29	0xbd7c17eb	-0.061546247
30	0xbc9a37d0	-0.018825442
31	0x3c043bc3	0.008070889
32	0x3d7ab620	0.061208844
33	0x3cbeca88	0.023289934
34	0xbd632399	-0.05545387
35	0xbc8e8e66	-0.017401885
36	0xbd4ebbdf	-0.050472137
37	0x3cac0f94	0.021003522
38	0xbcbff62c	-0.023432814
39	0x3d8d59da	0.069019035
40	0xbda32a77	-0.07967084
41	0xbd60e3b7	-0.054904666
42	0xbcc9f3b9	-0.024652349
43	0x3d092763	0.033484828
44	0x3c850065	0.01623554
45	0xbbfcf87f	-0.0077200527
46	0xbd51f9fa	-0.051263787
47	0x3d61fae6	0.055170916
48	0xbc8d9b5f	-0.017286
49	0x3bd1f59f	0.006407454
50	0x3c5e59d4	0.013571221
51	0xba75b454	-0.0009372879
52	0xbc178248	-0.00924737
53	0x3daef415	0.08542649
54	0x3d517f75	0.051146943
55	0xbd8dc810	-0.069229245
56	0x3d4fe56b	0.0507559
57	0x3c0d8f1c	0.008640077
58	0xbc934c59	-0.017980741
59	0xbc12729f	-0.008938461
60	0x3ceb5212	0.028725658
61	0xbbc484c1	-0.005997271
62	0x3bf448f2	0.007454985
63	0xbd4d4530	-0.05011481

conv_layers.2.weight f4 [64, 256, 4]
0	0x3d2ab9f4	0.041681245
1	0xbd47a820	-0.04874432
2	0xbc47461c	-0.0121627115
3	0x3ba6158b	0.005068486
4	0x3b377198	0.002799129
5	0x3d76cdbd	0.0602548
6	0x3c97d2d1	0.018533142
7	0xbbc2e08f	-0.0059471796
8	0xbd4f344b	-0.05058698
9	0x3d2f6402	0.042819984
10	0xbc30bb38	-0.010786824
11	0x3c9bc403	0.019014364
12	0xba4dc1ef	-0.0007849028
13	0x3d1bdfc2	0.03805519
14	0xbd6c4a5c	-0.057688102
15	0xbcdc62ae	-0.026902523
16	0xbd5c9796	-0.0538555
17	0x3c5fdf17	0.013664029
18	0x3b524ca2	0.0032089134
19	0xbcdb7683	-0.02678991
20	0x3d55e2d8	0.05221829
21	0xbd0d8a1b	-0.034555536
22	0xbd32a0a0	-0.043610215
23	0xbcce66c9	-0.025195496
24	0x3b31052c	0.002701114
25	0x3c97307a	0.018455733
26	0xbd7f10df	-0.06227195
27	0xbd052581	-0.03250647
28	0x3d92c254	0.071659714
29	0x3bb1805a	0.005416912
30	0x3b3c1252	0.0028697443
31	0x3d03fb35	0.03222199
32	0x3d51cc51	0.051220242
33	0x3d850987	0.06495958
34	0xbc88010a	-0.016602058
35	0xbab246e0	-0.0013601445
36	0xbdddafb5	-0.10824529
37	0xbc51950a	-0.012791881
38	0xbcacc4aa	-0.02108987
39	0xbd48b421	-0.04899991
40	0x3cc2d8af	0.023784963
41	0xbc3d9060	-0.011570066
42	0xbba25b37	-0.0049547213
43	0xbd184a73	-0.037180375
44	0x3c8d0d95	0.01721839
45	0xbdb8eb74	-0.09029284
46	0x3a11183d	0.0005534923
47	0x3cf4f911	0.02990392
48	0x3d3ea374	0.0465426
49	0xbd23a023	-0.03994764
50	0xbd0d6dc4	-0.03452851
51	0x3c418c7e	0.011813281
52	0x3b458a97	0.003014242
53	0xbd235b30	-0.039881885
54	0xbc9b66f6	-0.018969994
55	0xbd1ca726	-0.038245343
56	0xbd2d5cb8	-0.04232475
57	0xbc166199	-0.0091785425
58	0xbd4f63fa	-0.050632454
59	0x3d109d58	0.035306305
60	0xbca4c8ff	-0.020115374
61	0x3c0efca3	0.0087272255
62	0xbcff2900	-0.03114748
63	0x3cb2614c	0.02177491
64	0x3d92b2d1	0.07163013
65	0xbd35136a	-0.044207968
66	0x3cfa18b5	0.03052936
67	0xbca5d508	-0.020243183
68	0x3d64db64	0.05587329
69	0x3c4e7899	0.012601995
70	0x3d7826a2	0.060583718
71	0x3d6a73ba	0.05723927
72	0xbcabc7d0	-0.020969301
73	0xbbef90b5	-0.0073109516
74	0xbd3bed99	-0.045880888
75	0xbb1d2f0d	-0.0023984343
76	0xbc39423e	-0.011307297
77	0x3d411844	0.047142282
78	0x3d815e56	0.06316821
79	0xbd2d1f69	-0.042266283
80	0xbd896e78	-0.06710523
81	0x3cc2f244	0.023797162
82	0xbd96e821	-0.07368494
83	0xbb2df894	-0.002654587
84	0xbca09dd5	-0.01960651
85	0x3c9d1d6e	0.019179072
86	0xbcdbce84	-0.026831873
87	0x3c213449	0.009839126
88	0xbd2e3679	-0.042532418
89	0xbd948e83	-0.072537445
90	0xbda4d22c	-0.080478996
91	0x3db0e750	0.08637869
92	0x3d6fb1b1	0.05851907
93	0x3be99ff1	0.007129662
94	0xbdc6aec1	-0.097013004
95	0x3c56f3a2	0.01311961
96	0x3cdc323e	0.026879426
97	0xbe0039fd	-0.12522121
98	0x3c903523	0.017603463
99	0x3c820538	0.01587163
100	0xbc05650d	-0.008141768
101	0xbd355445	-0.04426982
102	0x3b5870d9	0.0033026247
103	0xbd497c6b	-0.04919092
104	0x3d2fa5d1	0.042882744
105	0xbcf88bc3	-0.030340081
106	0x3d068964	0.03284587
107	0x3ccc0ed3	0.024909412
108	0x3d00bfad	0.031432796
109	0xbd00affa	-0.031417824
110	0xbc7e7f0d	-0.015533221
111	0x3987523e	0.00025810482
112	0x3b9698c8	0.0045958497
113	0xbc8218c8	-0.015880957
114	0x3c2a4e21	0.010394604
115	0x3d39d9ee	0.04537385
116	0x3d36dac6	0.044642232
117	0xbc457e34	-0.012054015
118	0x3c923fb4	0.017852642
119	0x3d08f5a1	0.033437375
120	0x3cb39118	0.021919772
121	0x3b1d25e9	0.0023978895
122	0x3d0836f2	0.033255525
123	0xbda45c98	-0.08025473
124	0x3d7a64ae	0.061131172
125	0xbc900255	-0.017579237
126	0x3d33badc	0.043879375
127	0x3db29f2c	0.08721766
128	0xbc062a16	-0.008188745
129	0x3c79e028	0.015251197
130	0xbcd4bbdb	-0.025968483
131	0xbaa90e67	-0.0012897969
132	0xbd085cd5	-0.033291657
133	0x3da21649	0.07914407
134	0x3cd05327	0.025430275
135	0x3b47daf2	0.0030495492
136	0xbd046c6d	-0.032329965
137	0xbd86f297	-0.06589239
138	0xbc9c0ada	-0.019048143
139	0x3d1d8514	0.03845699
140	0xbca1b22f	-0.019738285
141	0xbdc6219a	-0.09674378
142	0x3d558815	0.05213173
143	0x3c409a41	0.011755527
144	0xbbf0bb08	-0.0073465146
145	0xba42bb94	-0.0007428464
146	0xbb366434	-0.0027830722
147	0xbd8cf394	-0.06882396
148	0xbdea8f23	-0.114530824
149	0xbbc1144f	-0.0058923136
150	0x3dbf3b41	0.09337474
151	0xbc0304ea	-0.007996777
152	0xbc88064d	-0.016604567
153	0x3d0fdfd1	0.035125557
154	0x3905d4c0	0.00012763124
155	0xbb958da2	-0.004564003
156	0x3cbb309f	0.022850333
157	0x3d1eef4c	0.03880243
158	0xbbffda60	-0.0078080148
159	0xbc6b6c03	-0.014369014
160	0x3d5bf8cc	0.053704068
161	0x3d2a6445	0.04159953
162	0x3d9619f1	0.07329167
163	0x3dc0ea0c	0.09419641
164	0xbbfbe13d	-0.0076867626
165	0xbd57eb84	-0.05271484
166	0x3dad41d0	0.08459818
167	0xbc8f166c	-0.017466746
168	0xbcedf6d4	-0.02904836
169	0x3c94b12b	0.018150887
170	0x3d31d15a	0.043412544
171	0x3ae5e602	0.0017539861
172	0x3c81c10f	0.015839128
173	0x3cef0231	0.02917585
174	0xbcc6addc	-0.024252824
175	0x3d95f373	0.07321825
176	0xbd544a32	-0.05182857
177	0xbcf22ebe	-0.029563304
178	0xbbb5ba17	-0.0055458653
179	0xbcc088c5	-0.023502717
180	0xbd364641	-0.044500593
181	0x3e26df44	0.16296107
182	0x3bdee360	0.0068020076
183	0xbcdabcf5	-0.02670143
184	0xbd61299b	-0.05497132
185	0x3c7d80eb	0.015472631
186	0x3d89a49d	0.067208506
187	0x3c677f7a	0.014129514
188	0x3ccb4c34	0.02481661
189	0xbd7260d5	-0.059174377
190	0xbc9b9f6b	-0.018996915
191	0xbcb68274	-0.022279002
192	0x3c86e47a	0.016466368
193	0xbc70f1d8	-0.014706098
194	0xbd496818	-0.049171537
195	0x3cfca75f	0.030841528
196	0xbc7926f1	-0.015207038
197	0x3d7721a7	0.060334828
198	0xbc94b0e9	-0.018150764
199	0x3d84a2d2	0.06476368
200	0x3cc57de9	0.02410789
201	0xbdd835f9	-0.105571695
202	0xbd3cb8f6	-0.04607483
203	0xbcb731fc	-0.022362702
204	0xbc9cac9f	-0.01912528
205	0xbd3d6c45	-0.046245832
206	0xbd81f213	-0.06345
207	0x3b57f58d	0.0032952756
208	0x3dbb027c	0.09131333
209	0x3d7789f3	0.060434293
210	0xbbfa85ed	-0.0076453597
211	0xbc4b5e68	-0.012412645
212	0xbc1f3a91	-0.009718553
213	0xbcf2f2cd	-0.029656792
214	0xbd7d26d1	-0.061804596
215	0xbd864b09	-0.065572806
216	0x3c43258c	0.011910807
217	0x3ba22a33	0.004948878
218	0x3cb63820	0.02224356
219	0xbd18e366	-0.03732624
220	0x3d84ce01	0.064846046
221	0xbb5483fa	-0.0032427297
222	0x3c9b9b99	0.018995093
223	0x3d8354bf	0.064126484
224	0x3d32a9e0	0.043619037
225	0x3d8de5a5	0.06928567
226	0xbd28207a	-0.041046597
227	0x3cccede6	0.025015783
228	0xbd956385	-0.072943725
229	0x3ae02716	0.0017101492
230	0x3a0b07c4	0.00053035864
231	0x3ce0e06e	0.027450766
232	0x3c2a4db9	0.010394507
233	0x3ce394bc	0.027780883
234	0xbc71b4fd	-0.014752624
235	0x3d1b0d81	0.037854675
236	0x3d03fad3	0.032221626
237	0xbcbc86ae	-0.023013439
238	0xbaeb11ad	-0.0017934345
239	0x3d65a06a	0.056061186
240	0x3d9c0084	0.07617286
241	0x3c83267d	0.016009564
242	0xbcff0418	-0.031129882
243	0x3b5bdac3	0.003354714
244	0xbc79e967	-0.015253401
245	0x3c4122f7	0.011788121
246	0xbc812417	-0.01576428
247	0xbc4c7472	-0.012478935
248	0x3d109bb2	0.035304733
249	0x3d99acc4	0.075036556
250	0x3d744b56	0.05964216
251	0xbccb0f07	-0.024787439
252	0xbd86d00f	-0.06582653
253	0xbd1aa20b	-0.037752192
254	0x3cd85377	0.026406987
255	0x3cae1512	0.021250281

conv_layers.2.bias f4 [64]
0	0x3ccbff41	0.024901988
1	0x3c394b15	0.011309405
2	0xbd117f7f	-0.03552198
3	0xbca4f135	-0.020134548
4	0xbd1fdb51	-0.039027516
5	0xbd39e878	-0.045387715
6	0x3c67e4eb	0.014153699
7	0xbc02a93a	-0.007974917
8	0x3ce5a2e3	0.028031772
9	0x3d62bcf6	0.05535599
10	0x3c8301d7	0.015992088
11	0xbc9883dc	-0.018617563
12	0xbce77925	-0.028256008
13	0x3b404fba	0.0029344396
14	0xbcd57de8	-0.026061013
15	0xbd3da2bf	-0.046297785
16	0xbc3a8259	-0.011383616
17	0x3cd2e2b7	0.025742872
18	0xbd511643	-0.05104662
19	0xbca299af	-0.019848673
20	0xbd56ffb5	-0.052489955
21	0xbd89010b	-0.06689652
22	0x3d269e6d	0.04067843
23	0x3d3dc30b	0.046328586
24	0xbdd82022	-0.10553004
25	0xbab90e2b	-0.0014118602
26	0x3d37e424	0.044895306
27	0xbbb31f9d	-0.005466415
28	0x3d733878	0.059380025
29	0x3c18ff2d	0.009338182
30	0xbd72bf87	-0.059264686
31	0x3c031af1	0.008002029
32	0x3d64a56d	0.055821825
33	0x3bd4ede0	0.0064980835
34	0x3dd854fc	0.105630845
35	0xbcbda7ba	-0.023151267
36	0xbd68dc86	-0.056850933
37	0x3d23abf5	0.039958913
38	0x3ccb7cea	0.024839837
39	0xbc210117	-0.00982692
40	0x3a9e23bc	0.0012065093
41	0x3d97ccab	0.07412084
42	0xbd7d82d3	-0.06189234
43	0x3d4dde03	0.050260555
44	0x3c447c2b	0.011992495
45	0x3d626f68	0.055282027
46	0xbc9ef7d4	-0.019405283
47	0xbd180a40	-0.03711915
48	0x3db43fad	0.08801208
49	0x3d88370f	0.066511266
50	0x3bff6662	0.0077941874
51	0xbd195d39	-0.03744242
52	0xbcddda8a	-0.027081747
53	0xbd7923a3	-0.060825
54	0x3c150026	0.009094274
55	0xbd72ac49	-0.059246335
56	0x3cc5bda4	0.02413828
57	0x3c4a23c5	0.01233763
58	0xbca13360	-0.019677818
59	0xbcec036e	-0.02881023
60	0x3d0e6186	0.034760974
61	0xbd06f5d5	-0.032949287
62	0x3cc02863	0.023456758
63	0x3d4d61a4	0.050141945

conv_layers.3.weight f4 [64, 256, 5]
0	0x3d06b4fe	0.03288745
1	0x3ca0ff98	0.019653127
2	0xbadd05c9	-0.0016862686
3	0xbd10d86a	-0.03536264
4	0x3d8cc0d6	0.06872718
5	0xbd81b892	-0.06334032
6	0x3db43132	0.08798446
7	0xbd12f1c3	-0.035875093
8	0x3cfbd702	0.030742172
9	0x3d5ddc77	0.05416533
10	0x3d4771a5	0.048692364
11	0x3cb10957	0.021610899
12	0xbd5c7844	-0.05382563
13	0x3db14af9	0.08656878
14	0xbc766d33	-0.015040684
15	0x3d034149	0.032044683
16	0xbc6d3c43	-0.0144797
17	0x3dd53709	0.10410888
18	0x3ba38434	0.004990125
19	0x3c52c4de	0.01286432
20	0xbb8cd081	-0.0042973165
21	0xbd9da2ac	-0.07697043
22	0xbd9086fe	-0.07056998
23	0x3c9c096f	0.019047467
24	0xbc91e83c	-0.017810933
25	0x3d764c8d	0.0601316
26	0x3d136e96	0.035994135
27	0x3d655179	0.0559859
28	0x3c605d3b	0.013694103
29	0xbcca0964	-0.02466268
30	0x3cec7cb8	0.028868064
31	0xbc81222e	-0.015763368
32	0x3d3276a5	0.04357018
33	0x3de24e67	0.1105011
34	0x3cf7b4fe	0.030237671
35	0x3d161c06	0.03664782
36	0x3d8b51d4	0.06802717
37	0x3a8c2c11	0.0010694285
38	0x3d22b97e	0.03972768
39	0xbc2e7f58	-0.010650478
40	0xbd8ea977	-0.069659166
41	0x3c95d1c0	0.018288493
42	0xbd8ea902	-0.069658294
43	0x3c326cb8	0.010890178
44	0x3dc76e1b	0.09737798
45	0x3d902f41	0.07040263
46	0x3ca85265	0.020547101
47	0xbc78f34a	-0.015194723
48	0x3dae71fc	0.085178345
49	0x3d0e7b4f	0.034785565
50	0x3d2e8ede	0.042616718
51	0xbbcfb620	-0.0063388497
52	0xbdae0406	-0.08496861
53	0x3d362c6d	0.04447596
54	0xbc5c1911	-0.013433711
55	0xbcd90815	-0.026493112
56	0x3c95d61f	0.018290577
57	0xb943f876	-0.00018689208
58	0xbd3af577	-0.04564425
59	0xbd992eb9	-0.07479615
60	0x3bccbab4	0.0062478427
61	0xbc8f7e4e	-0.017516281
62	0x3cc41e45	0.023940215
63	0xbd48f972	-0.049066015
64	0x3d4d4bb1	0.050121013
65	0xbc92f286	-0.01793791
66	0x3d15931b	0.036517244
67	0x3cfe377e	0.03103232
68	0x3d303fff	0.04302978
69	0xbd2e6418	-0.042575926
70	0x3cb77e88	0.022399202
71	0x3c1eb892	0.00968756
72	0xbcfc8599	-0.030825423
73	0xbdd6d11f	-0.104891054
74	0xbd324b60	-0.043528914
75	0xba9617d9	-0.0011451199
76	0x3d2f74a8	0.04283586
77	0x3d28f033	0.041244697
78	0x3bc3fc74	0.0059810225
79	0xbbafc134	-0.005363608
80	0xbd2de03a	-0.042450167
81	0xbcecf95b	-0.028927496
82	0xbbbc802d	-0.0057525844
83	0x3d7b0e22	0.061292775
84	0xbd7c396c	-0.0615782
85	0xbc56ec3e	-0.013117848
86	0xbd31b0ae	-0.043381386
87	0x3d1f02d9	0.038821075
88	0x3c58fd70	0.013244018
89	0x3bff54ba	0.0077920826
90	0xbd6ee21d	-0.058321107
91	0xbbd8c40b	-0.006615167
92	0x3cb94455	0.022615591
93	0xbccef089	-0.02526118
94	0x3990a021	0.00027585126
95	0x3c7e9794	0.015539069
96	0x3d25c186	0.04046776
97	0xbc4ff90d	-0.012693656
98	0x3c9b0fdc	0.01892846
99	0x3d8439ed	0.06456361
100	0x3d561f33	0.052275848
101	0xbdb8af95	-0.090178646
102	0x3d5d5a80	0.054041386
103	0x3d99bedd	0.075071074
104	0xbc3c82c6	-0.011505788
105	0x3ba849c0	0.005135745
106	0x3c871715	0.016490499
107	0xbdd15c71	-0.1022271
108	0x3d7d3e68	0.061827093
109	0x3c1f0bea	0.00970743
110	0xbcd4c392	-0.025972161
111	0xbd6a78e1	-0.057244185
112	0xbb8fba08	-0.0043861903
113	0xbd78e8dc	-0.060768947
114	0xbc40afeb	-0.011760692
115	0x3c286a94	0.010279316
116	0x3d847531	0.06467665
117	0xbd31c6ef	-0.04340261
118	0x3d587c7e	0.0528531
119	0x3c3a74ed	0.011380416
120	0xbdb18a80	-0.08668995
121	0x3c90ef91	0.01769236
122	0xbc372d12	-0.011180179
123	0xbc36f04d	-0.011165691
124	0xbd3c4ae9	-0.045969877
125	0x3d4adf8a	0.04952959
126	0x3b025768	0.0019888524
127	0x3d4ac404	0.04950334
128	0x3d63348c	0.055470034
129	0x3db7008a	0.0893565
130	0xbaa7d8bd	-0.0012805682
131	0x3c1cad01	0.009562732
132	0xbc6e8a72	-0.014559375
133	0xbd36e8de	-0.044655673
134	0x3cf0d22a	0.029397089
135	0xbd58ed2e	-0.052960567
136	0xbc221f7d	-0.009895203
137	0xbdde50c1	-0.10855246
138	0x3bfea651	0.0077712913
139	0xbc4a55c6	-0.012349552
140	0x3ccea2e1	0.025224151
141	0xbcb6cf30	-0.022315592
142	0xbd0eac68	-0.03483239
143	0xbcbf44f9	-0.023348318
144	0xbd8168c6	-0.06318812
145	0xbcee3f5d	-0.029082948
146	0x3c91bbdc	0.017789774
147	0xbcfb6ba7	-0.030690981
148	0x3d1fb648	0.038992196
149	0xbd9e59a0	-0.07731938
150	0x3cbc5a24	0.022992201
151	0xbd2eef10	-0.042708457
152	0xbd3fb664	-0.0468048
153	0x3c1b840e	0.0094919335
154	0xbd8686ee	-0.065687045
155	0xbd1c6139	-0.038178656
156	0xbba9fe3c	-0.005187778
157	0x3c9d98f6	0.019237977
158	0xbd03e0f2	-0.032196946
159	0xbd70e704	-0.058814064
160	0xbc21ed85	-0.009883289
161	0xbd594782	-0.05304671
162	0xbcb92355	-0.022599855
163	0x3d1e37c0	0.038627386
164	0xbbfa5538	-0.0076395534
165	0xbbb55648	-0.005533967
166	0xbd7efbf4	-0.062252
167	0x3cfdcf43	0.03098262
168	0x3d802de7	0.06258755
169	0xbd147a83	-0.03624965
170	0xbcaa3de8	-0.020781472
171	0xbc411c9c	-0.011786606
172	0xb9370017	-0.00017452273
173	0x3b1df92a	0.0024104812
174	0xbd0fd3a6	-0.035113953
175	0xbc628728	-0.013826169
176	0x3b32e197	0.0027295107
177	0xbcab924c	-0.020943783
178	0x3d53686a	0.05161325
179	0xbd34b365	-0.044116396
180	0xbd8b41e4	-0.06799677
181	0x3d88988a	0.066697195
182	0x3c566ab9	0.013086968
183	0xbbe684e5	-0.007034885
184	0xbd114214	-0.035463408
185	0xbdad56d0	-0.08463824
186	0xbb368fb4	-0.002785665
187	0xbd30fd6e	-0.04321044
188	0x3c5bd888	0.013418324
189	0x3d8283d8	0.063728034
190	0xbbd48efa	-0.0064867707
191	0x3cc2535b	0.023721388
192	0x3d209044	0.039200082
193	0x3c797564	0.015225742
194	0xbc55dd6a	-0.0130532775
195	0x3dcf36e0	0.101178885
196	0xbd3f1368	-0.046649367
197	0xbd942320	-0.07233262
198	0x3c3d95f4	0.011571396
199	0x3d62a580	0.055333614
200	0xbca45ad7	-0.020062847
201	0x3cc195a2	0.02363092
202	0xbcb4abee	-0.022054639
203	0xbcc395d2	-0.02387515
204	0x3d91eaf7	0.07124894
205	0x3d27797f	0.040887352
206	0xbc075792	-0.0082606245
207	0xbcfbace2	-0.030722085
208	0x3cf9d1ed	0.030495608
209	0x3c574521	0.01313904
210	0x3c18f418	0.00933554
211	0x3d224279	0.039614175
212	0xbc95cba6	-0.018285584
213	0x3cdf46f2	0.027255509
214	0xbd0af678	-0.033926457
215	0x3d6b7459	0.057484005
216	0xbc34913c	-0.011020955
217	0xbd8c9771	-0.06864823
218	0xbd7bf962	-0.061517127
219	0xbd99ec29	-0.07515747
220	0x3d93199e	0.071826205
221	0x3c235099	0.009967946
222	0xbdd835e0	-0.10557151
223	0xbcae00bd	-0.021240586
224	0xbd824126	-0.06360082
225	0xbcaee389	-0.021348732
226	0xbd084a3f	-0.03327393
227	0xbb9e89c4	-0.0048382003
228	0x3d1984b5	0.037480075
229	0xbccd3c4d	-0.025053168
230	0x3c053957	0.008131347
231	0x3d2b5fc2	0.04183937
232	0x3d75d106	0.060013793
233	0x3d6ff94d	0.05858736
234	0xbda0717e	-0.07834147
235	0x3c9a5c37	0.0188428
236	0x3c30ee10	0.010798946
237	0x3d1a4be8	0.037670046
238	0x3d179651	0.037008587
239	0x3b4c6d89	0.0031193218
240	0x3c86dff1	0.016464205
241	0xbc4dd4fb	-0.0125629855
242	0x3cec49db	0.02884381
243	0xbbccba4b	-0.006247794
244	0xbc711b53	-0.014715987
245	0x3c66004d	0.014038158
246	0xbd84b9b8	-0.064807355
247	0xbcb77439	-0.022394286
248	0x3b39ab5e	0.0028330903
249	0xbcec1f6f	-0.028823582
250	0xbc071fe8	-0.008247353
251	0x3d5cc218	0.05389604
252	0x3d243f1a	0.04009924
253	0x3d255f89	0.040374313
254	0xbcf26196	-0.029587548
255	0x3d07c3dc	0.03314577

conv_layers.3.bias f4 [64]
0	0xbde96e31	-0.113979705
1	0xbd4c2b9a	-0.04984627
2	0xbdca701c	-0.098846644
3	0xbc34a436	-0.011025479
4	0xbdb97256	-0.09055011
5	0xbcb43f2c	-0.022002779
6	0xbbc183b0	-0.005905591
7	0xbdb16a6b	-0.08662876
8	0xbca025f1	-0.019549342
9	0x3c9946e7	0.018710567
10	0xbd335cbe	-0.043789618
11	0x3c90a077	0.01765464
12	0xbb19f811	-0.0023493806
13	0xbd58c98f	-0.052926596
14	0x3d96a39a	0.07355423
15	0x3c470938	0.012148194
16	0xbd80e594	-0.062937886
17	0x3cb21d14	0.021742381
18	0xbc779a4a	-0.015112469
19	0x3d6116a2	0.054953225
20	0xbcbb5519	-0.022867726
21	0xbc9cee11	-0.019156488
22	0xbcca5855	-0.024700323
23	0xbb85d273	-0.0040839254
24	0x3c588ec9	0.013217636
25	0xbdc331d0	-0.09530985
26	0x3d3e850d	0.046513606
27	0x3caa66b1	0.02080092
28	0x3c7211f5	0.014774789
29	0xbd9f586f	-0.07780539
30	0xbd1ef522	-0.038807996
31	0x3c89c195	0.01681594
32	0x3d8f31e3	0.06991937
33	0x3d01d84e	0.031700425
34	0xbdbcdb83	-0.09221556
35	0xbd34bf37	-0.04412767
36	0xbc58e3fb	-0.0132379485
37	0xbceeb6a9	-0.029139834
38	0xbd09f107	-0.033677127
39	0xbd2dc80c	-0.042427108
40	0xbc85c721	-0.016330304
41	0xbd3fe70a	-0.046851195
42	0x3aaa3166	0.0012984693
43	0xbbbad4c3	-0.0057016327
44	0xbd1d769d	-0.038443197
45	0xbbda0a90	-0.006654091
46	0xbc8b2d32	-0.016989324
47	0xbcf67718	-0.030086085
48	0xbd1b5238	-0.037920207
49	0xbc6f6c1a	-0.014613176
50	0xbc679b18	-0.014136098
51	0x3cc6cb7a	0.024266947
52	0xbbbd3b22	-0.0057748714
53	0xbca11238	-0.019662008
54	0xbc562a62	-0.013071628
55	0xbdcc6523	-0.09980228
56	0xbcb5fed1	-0.022216232
57	0xbc7e691d	-0.015527991
58	0x3d09a684	0.033606067
59	0xbd282ebf	-0.041060206
60	0xbc803854	-0.01565186
61	0xbc203ce2	-0.009780141
62	0xbd5070c3	-0.050888788
63	0xbcbed78d	-0.023296142

fc1.weight f4 [64, 256]
0	0xbd30ab1f	-0.043131944
1	0x3ce4561a	0.027873088
2	0xbc8b22a4	-0.016984291
3	0xbacf47ec	-0.0015814281
4	0xbd90a30d	-0.070623495
5	0x3d0e2be7	0.034709837
6	0x3d9a48db	0.07533427
7	0x3bebb874	0.0071936194
8	0xbceb08c8	-0.02869071
9	0xbcb6f27d	-0.022332424
10	0xbcaf1249	-0.021371024
11	0xbd1aa87c	-0.037758335
12	0xbb361ee9	-0.002778942
13	0xbd6ddc02	-0.058071144
14	0x3d41045d	0.0471233
15	0xbc4cd0ef	-0.0125009855
16	0xbd5b864e	-0.05359488
17	0xbcf6bbfe	-0.030118939
18	0xbc16545d	-0.009175387
19	0xba616e09	-0.00085994654
20	0xbb9050d9	-0.004404169
21	0x3d1a8553	0.037724804
22	0x39b645dd	0.00034765797
23	0xbd86550f	-0.065591924
24	0x3c220bd4	0.009890515
25	0xbd05d2f1	-0.032671873
26	0x3d44e0e5	0.04806604
27	0xbd202a88	-0.03910306
28	0x3ce1db51	0.027570399
29	0x3c113bb1	0.008864329
30	0xbd84625b	-0.06464072
31	0xbc44ffd5	-0.012023886
32	0xbce42a1f	-0.027852116
33	0xbc97b8f6	-0.018520813
34	0xbd78dca1	-0.060757283
35	0x3d0e5ebb	0.03475831
36	0xbc45e7dd	-0.012079206
37	0xbd94462e	-0.07239948
38	0xbd80eda8	-0.06295329
39	0x3d169436	0.03676244
40	0xbc244cfa	-0.010028118
41	0xbc373c0b	-0.011183749
42	0x3d3f36c1	0.046683077
43	0xbce4ac00	-0.027914047
44	0xbd0dabcc	-0.034587666
45	0xbc8b1aae	-0.016980495
46	0x3cdf154f	0.02723184
47	0xbce5caf6	-0.02805088
48	0xbd87eccc	-0.06636962
49	0x3be2af58	0.0069178753
50	0xbcd68830	-0.026187986
51	0xbceca590	-0.02888754
52	0xbcade7c5	-0.02122868
53	0x3ce1cca8	0.027563408
54	0x3d78b923	0.060723435
55	0xbd08dd74	-0.03341432
56	0xbcbad0d7	-0.02280466
57	0x3d15cb46	0.03657081
58	0x3c2e6e13	0.010646361
59	0x3c54d4cf	0.012990191
60	0x3cf0d101	0.029396536
61	0xbd767ef4	-0.060179666
62	0xbc9e2379	-0.019304024
63	0x3d0f1c8a	0.034939326
64	0xbd201c62	-0.039089568
65	0xba89d20b	-0.0010514868
66	0x3d600732	0.054694362
67	0xbd88a811	-0.06672681
68	0xbc083baf	-0.008315011
69	0x3c94583d	0.018108482
70	0xbd779d82	-0.060452946
71	0x3c49a080	0.012306333
72	0xbbb170d2	-0.0054150606
73	0xbd47bc3c	-0.0487635
74	0xbca80a14	-0.020512618
75	0xbd1030dc	-0.035202846
76	0xbc294815	-0.010332127
77	0x3d4e989e	0.050438516
78	0xbd244528	-0.040105015
79	0x3ce958bc	0.028484695
80	0x3d024d7b	0.031812172
81	0xbd47ec07	-0.048809078
82	0x3c859637	0.01630698
83	0xbd48f231	-0.049059097
84	0xbc3cc132	-0.011520671
85	0x3d104a66	0.035227202
86	0x3c1629e6	0.009165263
87	0x3c922bff	0.017843245
88	0xbcd6c229	-0.02621563
89	0x3ada611c	0.0016661021
90	0x3cd91146	0.026497494
91	0xbd42e575	-0.04758211
92	0x3be68e48	0.007036004
93	0xbd5149e5	-0.051095862
94	0x3bf5327e	0.007482826
95	0x3d5b9340	0.053607225
96	0x3caa1eb4	0.020766594
97	0x3d5caade	0.05387389
98	0xbd2025c4	-0.039098516
99	0xb9ac2918	-0.00032837014
100	0x3c2d197d	0.010565159
101	0xbd14b856	-0.03630861
102	0x3d097663	0.033560168
103	0x3aaa8786	0.001301036
104	0x3c89939d	0.01679402
105	0x3d425ab8	0.047449797
106	0xbd4481c8	-0.04797533
107	0xbd82a3c6	-0.063788936
108	0x3c408b22	0.011751922
109	0xbcc8c819	-0.024509476
110	0xbd1711cd	-0.03688221
111	0xbc8f2fde	-0.01747888
112	0xbc5b3201	-0.013378621
113	0x3c6316c2	0.013860406
114	0x3cb6bb22	0.022306029
115	0x3b96c8d5	0.0046015778
116	0xbd5c83e2	-0.05383671
117	0x3c1e1741	0.009649099
118	0xbc090a6e	-0.008364303
119	0xbc740de3	-0.014895889
120	0xbcbcf27e	-0.023064848
121	0xbd060768	-0.032721907
122	0x3c61bb38	0.013777547
123	0x3d1eeb97	0.038798895
124	0xbd307db8	-0.043088645
125	0xbd2d4236	-0.04229947
126	0xbb853f7d	-0.0040664063
127	0xbca83012	-0.020530734
128	0xbd5bb8d6	-0.05364307
129	0x3d2cc2c9	0.04217795
130	0x3c0f043e	0.008729039
131	0x3c7db08a	0.015483985
132	0xbd779bc0	-0.06045127
133	0xbd7bd75b	-0.061484676
134	0xbc5de30d	-0.013542903
135	0x3d13cbea	0.03608314
136	0x3ce0c922	0.027439658
137	0xbd595321	-0.053057794
138	0x3b4e96a4	0.0031522894
139	0xb95aa82e	-0.00020852752
140	0xbd1ef342	-0.038806207
141	0xbb51a17d	-0.0031987124
142	0x3b673e75	0.003528503
143	0xbc994b42	-0.018712644
144	0x3d660018	0.056152433
145	0x3d2ac223	0.04168905
146	0x3d22bec3	0.039732706
147	0x3d067df1	0.03283495
148	0xbbbeec6d	-0.005826524
149	0xbc9569fe	-0.018239018
150	0xbd85b64b	-0.0652891
151	0xbc6364f8	-0.013879053
152	0xbd9620d5	-0.07330481
153	0x3c68c138	0.014206223
154	0xbc6043d1	-0.013688044
155	0xbc252eaf	-0.010081931
156	0xbc40f6ad	-0.011777562
157	0xbd6c8b98	-0.057750314
158	0x3d1d2976	0.03836962
159	0xbd4c4da2	-0.049878724
160	0x3d2a2381	0.041537765
161	0x3d27b0f6	0.040940247
162	0xbc9219db	-0.017834594
163	0xbc8c5888	-0.017132059
164	0xbd275b72	-0.040858693
165	0xbd6510e5	-0.055924315
166	0xbcac55ba	-0.021036971
167	0xbd67545f	-0.056476947
168	0x3d1500d8	0.036377758
169	0x3c507301	0.012722732
170	0xbd7a0b42	-0.061045893
171	0xbc5d8a87	-0.013521797
172	0xbce96503	-0.028490549
173	0xbce70147	-0.028198851
174	0xbd679066	-0.056534193
175	0x3d5eddb4	0.05441065
176	0xbcc29765	-0.023753831
177	0x3c29948b	0.010350357
178	0xbc0a3300	-0.008435011
179	0x3cd5dd16	0.026106399
180	0x3c6185e0	0.013764828
181	0xbbccced4	-0.006250242
182	0x3d23181b	0.03981791
183	0xbcd257d5	-0.025676647
184	0xbd431455	-0.047626812
185	0xbd7ac309	-0.061221156
186	0xbbfed4c0	-0.0077768266
187	0xbd49acd3	-0.049237084
188	0xbd7c3614	-0.06157501
189	0x3c9a4831	0.018833252
190	0xbaf5db9d	-0.0018757466
191	0x3ba2fce5	0.004973995
192	0x3bdc3f6e	0.0067214286
193	0xbd2d17e6	-0.04225912
194	0xbd5fb3e1	-0.054614905
195	0xbd7464f2	-0.05966658
196	0xbcea1140	-0.028572679
197	0xbd86291a	-0.06550808
198	0xbd534105	-0.05157568
199	0x3ccb3c13	0.024808919
200	0x3c71325e	0.014721481
201	0xbd469bd1	-0.04848844
202	0x3a328966	0.0006810635
203	0x3d17a57c	0.037023053
204	0x3d1b8f0c	0.037978217
205	0xbd4c59f8	-0.04989049
206	0xbcf94a5e	-0.030430969
207	0x3c2f2dcc	0.010692071
208	0xbba48754	-0.005021015
209	0x3c6220ac	0.013801735
210	0x3c4208f2	0.011842953
211	0x3d541d72	0.051785894
212	0x3c6e98da	0.01456281
213	0xbd92fa72	-0.07176675
214	0xbc906abd	-0.017629022
215	0xbd300e11	-0.042982165
216	0x3cabd524	0.020975657
217	0x3c361339	0.0111129815
218	0xbd09813b	-0.03357051
219	0xbd05f7b8	-0.032706946
220	0x3cc0d3d5	0.02353851
221	0x3c815c52	0.015791092
222	0x3d628491	0.055302206
223	0xbcce6390	-0.02519396
224	0x3c2be02b	0.0104904575
225	0x3c05740e	0.008145345
226	0xbcd48a04	-0.025944717
227	0xbd3ca16d	-0.046052385
228	0xbd273eee	-0.0408315
229	0x3c5af422	0.01336387
230	0xbd85627e	-0.065129265
231	0x3cc87e2c	0.024474226
232	0xbca56c05	-0.02019311
233	0x3c9012b4	0.017587043
234	0xbd7ed7fb	-0.062217694
235	0xbd0456a7	-0.0323092
236	0xbd091fee	-0.033477716
237	0xbc1ac395	-0.009446044
238	0x3b323a3f	0.0027195362
239	0xbd51bcb6	-0.05120536
240	0x3d034062	0.032043822
241	0xbd5860e9	-0.052826796
242	0x3a2af14a	0.000652094
243	0xbd34790d	-0.044060756
244	0xbd449525	-0.047993798
245	0xbc9f1823	-0.019420689
246	0x3cbc7810	0.023006469
247	0x3d49df7a	0.04928539
248	0xbcbb05e5	-0.02282996
249	0x3bbe7049	0.0058117253
250	0xbd2f8fea	-0.042861857
251	0xbd7865ba	-0.06064389
252	0x3d7b8120	0.06140244
253	0xbd2cd537	-0.042195525
254	0x3cf08be6	0.029363584
255	0x3d052117	0.03250226

fc1.bias f4 [64]
0	0xbd4ec46a	-0.050480284
1	0xbe092cef	-0.13396047
2	0x3c2ff731	0.010740087
3	0xbb909215	-0.0044119456
4	0x3b81d8d6	0.0039626164
5	0xbe279ad5	-0.16367657
6	0xbb92a579	-0.0044752923
7	0xbd87a941	-0.066240795
8	0x3c76b700	0.015058279
9	0x3d57a242	0.052644975
10	0x3d35167d	0.0442109
11	0x3dcb4cc1	0.09926749
12	0xbd56d691	-0.05245072
13	0xbd373942	-0.04473234
14	0x3c94ebd4	0.018178858
15	0xbba32317	-0.0049785483
16	0x3d1c9279	0.038225625
17	0x3c7a8675	0.015290846
18	0x3ce929e3	0.028462356
19	0xbcb91e97	-0.022597594
20	0xbd884548	-0.06653839
21	0xbd81ab80	-0.06331539
22	0x3dd69769	0.10478098
23	0x3d09ef76	0.033675633
24	0xbd59a63b	-0.053137045
25	0xbc4e814f	-0.012604072
26	0x3b24320d	0.0025054247
27	0x3b5658a3	0.003270664
28	0x3d3bc9c7	0.045846727
29	0xbcfad583	-0.030619388
30	0xbd6a4e00	-0.057203293
31	0xbc6d8191	-0.014496223
32	0xbd84c6bb	-0.06483217
33	0x3d6a24c6	0.057163976
34	0xbd41b8b0	-0.047295272
35	0x3c8d3ead	0.0172418
36	0xbd94f6bb	-0.072736226
37	0xbca9d9e7	-0.020733787
38	0x3d2b64af	0.041844066
39	0xbdbb86d3	-0.09156575
40	0x3c557f60	0.013030857
41	0xbda07fcb	-0.078368746
42	0xba9f1c92	-0.0012139252
43	0x3cdd805b	0.027038744
44	0x3d7f8ada	0.06238828
45	0xbd522a05	-0.051309604
46	0xbcdea3d6	-0.027177732
47	0x3d7297c9	0.059226785
48	0x3d0ea0ab	0.034821194
49	0xbd6acb08	-0.057322532
50	0x3ced3ec5	0.028960595
51	0xbd884e19	-0.06655521
52	0x3d7f619e	0.062348954
53	0x3d4b7790	0.04967457
54	0x3d860c45	0.06545309
55	0xbcdcb88f	-0.026943473
56	0x3cb2bc8f	0.021818427
57	0x3dd3f397	0.103491955
58	0xbd4a1bea	-0.049343027
59	0xbd4123d4	-0.04715331
60	0x3daa095d	0.08302567
61	0x3bce6c2e	0.006299517
62	0xbd726328	-0.059176594
63	0x3d1da583	0.038487922

batch_norm.weight f4 [64]
0	0x3f8138a4	1.009541
1	0x3fc02d4c	1.5013824
2	0x3f7d551a	0.9895798
3	0x3fc327b7	1.5246495
4	0x3f7dc8ae	0.9913434
5	0x3fd9400a	1.6972668
6	0x3f7cfd52	0.98824036
7	0x3fb4e543	1.4132465
8	0x3f7e766f	0.99399465
9	0x3fdbe405	1.7178961
10	0x3fc6eb49	1.5540553
11	0x3ff3a171	1.9033643
12	0x3f7e66e2	0.99375737
13	0x3fc183e7	1.5118378
14	0x3f7cd42c	0.9876125
15	0x3fb0efca	1.3823178
16	0x3fce7605	1.6129767
17	0x3fbd1e0b	1.4774793
18	0x3fc3090d	1.5237137
19	0x3faf39aa	1.3689473
20	0x3f9f55a0	1.2448006
21	0x3f7cbf1d	0.98729116
22	0x3fbf0490	1.4923267
23	0x3f7f0d3d	0.99629575
24	0x3f7e9cda	0.99458086
25	0x3f7df536	0.9920229
26	0x3f7da623	0.9908163
27	0x3f8c9b67	1.0984925
28	0x3fa6af48	1.3022242
29	0x3f9842cb	1.1895384
30	0x3fdcc44d	1.7247406
31	0x3fbbda0c	1.4675918
32	0x3f7e2b1a	0.9928452
33	0x3fc32fc7	1.5248955
34	0x3faea9a2	1.3645518
35	0x3fcb4017	1.5878934
36	0x3fb3d070	1.4047985
37	0x3fbfc4fe	1.4981992
38	0x3fae5ee9	1.3622714
39	0x3fb335ea	1.4000828
40	0x3f81fd89	1.0155498
41	0x3f79c766	0.9756988
42	0x3fb4fddc	1.4139972
43	0x3fb459c7	1.4089898
44	0x3fcc8899	1.5979186
45	0x3f7ea23a	0.9946629
46	0x3fad1c10	1.3524189
47	0x3fa7f207	1.3120736
48	0x3f7e77df	0.9940166
49	0x3fa45eca	1.2841427
50	0x3f7de166	0.99172056
51	0x3f7dd979	0.9915996
52	0x3fc8963d	1.5670849
53	0x3f800000	1.0
54	0x3fbde23e	1.4834669
55	0x3fc1c190	1.5137196
56	0x3f7be862	0.98401463
57	0x3fb4b75a	1.4118454
58	0x3f7e766c	0.9939945
59	0x3fdfc4fa	1.7481987
60	0x3fe3a004	1.7783208
61	0x3f795a81	0.97403723
62	0x3f7cee08	0.98800707
63	0x3fb9916c	1.4497504

batch_norm.bias f4 [64]
0	0x3dfa1753	0.1221148
1	0xbdb4e731	-0.08833159
2	0x3e0a398a	0.13498512
3	0x3b66a7ef	0.003519531
4	0x3e145277	0.14484583
5	0x3c803e26	0.015654635
6	0xbe0ddf14	-0.13854629
7	0xbcd43467	-0.025903894
8	0xbdfbab2a	-0.12288506
9	0x3d591311	0.0529967
10	0xbd252bcd	-0.040324975
11	0x3d389075	0.04505964
12	0x3e07e2dd	0.13270135
13	0xbc99a986	-0.018757593
14	0x3de06c75	0.109581865
15	0xbd8fa009	-0.07012946
16	0xbdbfdb57	-0.09368008
17	0xbd726159	-0.05917487
18	0xbdaaae8a	-0.08334072
19	0xbd4a065a	-0.049322464
20	0x3d956f90	0.072966695
21	0x3e250fab	0.16119258
22	0xbbba7c68	-0.0056911
23	0xbdec648e	-0.11542617
24	0x3dad2791	0.08454812
25	0xbdd61d69	-0.10454828
26	0x3b532d95	0.0032223214
27	0x3db74bf6	0.08950035
28	0xbe33b1cb	-0.17548291
29	0xbdbbb7de	-0.09165929
30	0x3d0a3375	0.03374048
31	0x3c840b88	0.01611878
32	0xbe2385a0	-0.15968943
33	0xbd8e711e	-0.06955169
34	0xbd823996	-0.0635864
35	0xbd7d148a	-0.061787166
36	0xbd8652cc	-0.06558761
37	0x3d78ebc4	0.06077172
38	0x3d3a6cfa	0.045514084
39	0xbc216656	-0.009851059
40	0xbe0a40b8	-0.1350125
41	0x3dd4c8d0	0.103898644
42	0xbdbf813f	-0.093508236
43	0xbb9054fd	-0.0044046626
44	0x3cba8fb6	0.022773605
45	0xbe30be3e	-0.17260072
46	0x3da10be6	0.078635976
47	0x3c1d540b	0.009602557
48	0xbe02244a	-0.12709156
49	0xbcbe6778	-0.023242697
50	0xbda52b00	-0.08064842
51	0x3df48800	0.119400024
52	0x3d743d02	0.059628494
53	0x3dcfedbd	0.10152767
54	0x3d03286e	0.03202098
55	0x3d9cb188	0.07651049
56	0xbdcab54e	-0.098978624
57	0x3d28b7f5	0.04119106
58	0x3df87777	0.12132161
59	0x3d7d959f	0.061910268
60	0x3dbf7076	0.09347622
61	0x3dddf9f9	0.10838694
62	0x3e460c99	0.19340743
63	0x3db262af	0.08710229

batch_norm.running_mean f4 [64]
0	0x00000004	6e-45
1	0x00000004	6e-45
2	0x00000004	6e-45
3	0x040acf1e	1.6316926e-36
4	0x00000004	6e-45
5	0x36bc82c8	5.6180616e-06
6	0x00000004	6e-45
7	0x00000004	6e-45
8	0x00000004	6e-45
9	0x40c5c5fe	6.180419
10	0x00000004	6e-45
11	0x411b3337	9.700004
12	0x00000004	6e-45
13	0x10095356	2.7082686e-29
14	0x00000004	6e-45
15	0x00000004	6e-45
16	0x102d3705	3.416062e-29
17	0x00000004	6e-45
18	0x00000004	6e-45
19	0x103108fa	3.491401e-29
20	0x00000013	2.7e-44
21	0x0f483077	9.870095e-30
22	0x00000004	6e-45
23	0x00000004	6e-45
24	0x00000004	6e-45
25	0x00000004	6e-45
26	0x00000004	6e-45
27	0x151afe24	3.1300534e-26
28	0x00000004	6e-45
29	0x00000004	6e-45
30	0x1186beb4	2.1259002e-28
31	0x00000004	6e-45
32	0x00000004	6e-45
33	0x00000004	6e-45
34	0x083abf45	5.6197175e-34
35	0x00000004	6e-45
36	0x00000004	6e-45
37	0x00000004	6e-45
38	0x193515e9	9.3619054e-24
39	0x00000004	6e-45
40	0x2b312c35	6.294438e-13
41	0x00000004	6e-45
42	0x0ed81a62	5.3273517e-30
43	0x00000004	6e-45
44	0x0ac8e223	1.9344363e-32
45	0x00000004	6e-45
46	0x00000004	6e-45
47	0x00000004	6e-45
48	0x00000004	6e-45
49	0x00000004	6e-45
50	0x00000004	6e-45
51	0x00000004	6e-45
52	0x00000004	6e-45
53	0x00000000	0.0
54	0x00000004	6e-45
55	0x1c1b4321	5.137196e-22
56	0x35533958	7.868707e-07
57	0x00000004	6e-45
58	0x00000004	6e-45
59	0x1863babd	2.9433341e-24
60	0x3e38c716	0.18044695
61	0x00000004	6e-45
62	0x00000004	6e-45
63	0x40ccbe8f	6.3982615

batch_norm.running_var f4 [64]
0	0x00000004	6e-45
1	0x00000004	6e-45
2	0x00000004	6e-45
3	0x01ccc9c9	7.522731e-38
4	0x00000004	6e-45
5	0x3603d4de	1.9644426e-06
6	0x00000004	6e-45
7	0x00000004	6e-45
8	0x00000004	6e-45
9	0x419161af	18.172697
10	0x00000004	6e-45
11	0x41a16443	20.173956
12	0x00000004	6e-45
13	0x0eaf6719	4.324011e-30
14	0x00000004	6e-45
15	0x00000004	6e-45
16	0x0f3f66fe	9.436863e-30
17	0x00000004	6e-45
18	0x00000004	6e-45
19	0x0e8b6d93	3.437166e-30
20	0x0000001a	3.6e-44
21	0x0c197dc7	1.1824541e-31
22	0x00000004	6e-45
23	0x00000004	6e-45
24	0x00000004	6e-45
25	0x00000004	6e-45
26	0x00000004	6e-45
27	0x15220336	3.2718172e-26
28	0x00000004	6e-45
29	0x00000004	6e-45
30	0x108b2062	5.4875727e-29
31	0x00000004	6e-45
32	0x00000004	6e-45
33	0x00000004	6e-45
34	0x0831c398	5.349392e-34
35	0x00000004	6e-45
36	0x00000004	6e-45
37	0x00000004	6e-45
38	0x16ec4355	3.817035e-25
39	0x00000004	6e-45
40	0x2be7e7c6	1.6477867e-12
41	0x00000004	6e-45
42	0x0c4376ea	1.5058038e-31
43	0x00000004	6e-45
44	0x0b1bb184	2.9985462e-32
45	0x00000004	6e-45
46	0x00000004	6e-45
47	0x00000004	6e-45
48	0x00000004	6e-45
49	0x00000004	6e-45
50	0x00000004	6e-45
51	0x00000004	6e-45
52	0x00000004	6e-45
53	0x00000004	6e-45
54	0x00000004	6e-45
55	0x1c8b0580	9.19967e-22
56	0x3327e1cc	3.908808e-08
57	0x00000004	6e-45
58	0x00000004	6e-45
59	0x169b9717	2.5136952e-25
60	0x3f5d0790	0.86339664
61	0x00000004	6e-45
62	0x00000004	6e-45
63	0x4154aadf	13.291717
