models/back number/classifier_fold1.pth (torch, 991712 bytes, 16 tensors)

conv_layers.0.weight f4 [64, 256, 2]
0	0x3c81b77c	0.015834562
1	0x3d438a25	0.047739167
2	0xbca1aa0a	-0.019734401
3	0x3d45aa56	0.048258148
4	0xbd017977	-0.03160998
5	0xbd487a6a	-0.04894487
6	0xbda4c777	-0.080458574
7	0x3d9acb30	0.07558286
8	0xbc923b7d	-0.017850632
9	0xbd71a846	-0.05899837
10	0xbdcd920e	-0.10037623
11	0xbdd38d28	-0.10329658
12	0xbb6f3fe4	-0.0036506588
13	0xbb91ce8f	-0.0044496725
14	0x3d13d9e0	0.036096454
15	0xbd223c78	-0.03960845
16	0x3db984a3	0.090585016
17	0x3d4dbd2c	0.050229236
18	0xbbeade4d	-0.0071676136
19	0x3c8695dd	0.016428882
20	0x3c9421da	0.018082548
21	0xbd3bdc06	-0.045864128
22	0xbd873943	-0.06602719
23	0xbdc15de3	-0.094417356
24	0x3d40a83d	0.047035445
25	0xbcbf77e4	-0.023372598
26	0x3c084e09	0.008319386
27	0x3cbf01bf	0.023316262
28	0x3ce2e3b0	0.02769646
29	0x3b070766	0.0020603775
30	0x3b150359	0.002273759
31	0xbb54e94f	-0.0032487696
32	0x3da1ca23	0.07899883
33	0x3da24ff9	0.0792541
34	0xbd49394e	-0.049126916
35	0x3b95c461	0.0045705293
36	0xbd61027d	-0.054934014
37	0x3b50bbfd	0.003185033
38	0xbd7889d5	-0.060678322
39	0xbd115f95	-0.035491545
40	0x3d081bd9	0.033229683
41	0xbd046672	-0.032324262
42	0xbc1d5172	-0.009601938
43	0xbd197926	-0.03746905
44	0x3d59aa7e	0.05314111
45	0xbcc140b3	-0.023590421
46	0x3cdcd6fb	0.02695798
47	0x3d091a7b	0.03347252
48	0x3cdbe3db	0.026842048
49	0x3da17e4a	0.07885416
50	0x3df956b7	0.12174743
51	0x3d0157a2	0.031577714
52	0x3ccb360e	0.024806049
53	0xbca24ee5	-0.01981301
54	0x3d2326e5	0.039832015
55	0xbbe93a56	-0.00711755
56	0x3b5d9166	0.0033808588
57	0xbc093df1	-0.008376584
58	0xbe006a43	-0.12540536
59	0xbc66e86b	-0.014093499
60	0xbc52d322	-0.012867721
61	0x3cfdb6da	0.03097098
62	0x3b855cd8	0.0040699057
63	0xbd3ec0f5	-0.046570737
64	0x3d388a98	0.04505405
65	0x3d8a3424	0.06748226
66	0x3c96407b	0.018341294
67	0x3d79472c	0.06085889
68	0xbd66f740	-0.05638814
69	0x3ce1b275	0.027550915
70	0xbb62a91a	-0.0034585656
71	0x3d7b481a	0.06134806
72	0x3bdeeb7d	0.0068029747
73	0xbd587e9e	-0.052855127
74	0xbc34bbd4	-0.01103111
75	0xbd3f726a	-0.046739973
76	0x3d23cb4f	0.039988812
77	0x3b364411	0.0027811567
78	0x3cd05278	0.02542995
79	0xbd134ec7	-0.0359638
80	0xbdb41406	-0.08792882
81	0x3d7bbb57	0.061457958
82	0x3cb0ab53	0.021566069
83	0xbd1d1116	-0.038346373
84	0x3ad9f8c4	0.0016629924
85	0x3d29faa2	0.041498788
86	0xbd977f52	-0.07397331
87	0xbdae4679	-0.08509535
88	0xbdc9d5e6	-0.09855251
89	0x3cba9fce	0.022781279
90	0x3d0c5b92	0.034267016
91	0x3ca10ab7	0.01965843
92	0xbcc75e6f	-0.024337022
93	0xbd867b9d	-0.06566546
94	0xba0b51ec	-0.00053146365
95	0x3bb1ae41	0.005422384
96	0x3d3a3185	0.04545738
97	0xbc452878	-0.012033574
98	0xbdbcf522	-0.09226443
99	0x3ba1de19	0.004939806
100	0x3d1de210	0.038545668
101	0xbd50daad	-0.050989795
102	0x3bd03d4d	0.006354964
103	0xbd675fa2	-0.056487687
104	0xbc815224	-0.015786238
105	0x3cddc16e	0.027069774
106	0xbc6c96cc	-0.01444025
107	0xbd395611	-0.045248095
108	0x3c6ebcd6	0.014571389
109	0xbceac5db	-0.028658798
110	0xbd57a3c5	-0.052646417
111	0xbd3449b0	-0.044015586
112	0x3cfea0d9	0.031082558
113	0xbb1732fa	-0.0023071156
114	0x3da4100a	0.08010872
115	0xbc380684	-0.011232022
116	0xbd54c2b3	-0.051943492
117	0xbd1b6614	-0.037939146
118	0x3d3cc4dc	0.046086177
119	0xbc6dddd0	-0.014518216
120	0x3d1de3ff	0.038547512
121	0x3d0e9dd7	0.034818497
122	0xbd82b4df	-0.06382155
123	0xbdebd140	-0.11514521
124	0xbd285348	-0.04109505
125	0x3d35fd14	0.044430807
126	0x3d8a2ea5	0.06747178
127	0xbb6ff056	-0.0036611757
128	0xbcb1ce55	-0.021704832
129	0xbd910ad4	-0.070821434
130	0x3c406d79	0.01174485
131	0xbae0caf2	-0.0017150326
132	0x3d044371	0.03229088
133	0xbd7a4795	-0.061103422
134	0x3d004ae7	0.031321432
135	0xbd22d8ea	-0.039757647
136	0x3d1257d9	0.03572831
137	0xbd811667	-0.06303101
138	0xbd708aa2	-0.05872596
139	0x3d40a02a	0.047027744
140	0x3d959d27	0.07305365
141	0xbd994a1f	-0.074848406
142	0x3d2193c4	0.03944756
143	0x3b8ba317	0.004261385
144	0xbd3da7f2	-0.046302743
145	0xbce24df6	-0.027625065
146	0x3c9880f1	0.018616172
147	0xbb1b70f3	-0.0023718446
148	0xbd323ddb	-0.04351602
149	0xbcf2b784	-0.029628523
150	0xbd81c6c2	-0.06336738
151	0x3c89b7b5	0.016811231
152	0x3c53c12b	0.012924473
153	0x3c67aa22	0.014139684
154	0xbd42cc88	-0.047558337
155	0x3db2e548	0.08735138
156	0x3aa34cdc	0.0012458819
157	0xbd8b93bc	-0.068152875
158	0xbc25ad6e	-0.01011215
159	0x3c9577fd	0.018245691
160	0x3bcc7916	0.0062400205
161	0xbc0c2118	-0.008552812
162	0xbd419df8	-0.04726979
163	0xbd3657fa	-0.044517495
164	0x3c781d30	0.015143678
165	0x3d2bc08c	0.041931674
166	0x3cc1730a	0.023614425
167	0xbd28b9b8	-0.04119274
168	0xbd9a9915	-0.07548729
169	0x3d3ce276	0.046114407
170	0x3c3507ea	0.01104925
171	0x3d255b1a	0.040370084
172	0xbd3bf571	-0.045888368
173	0xbbe91934	-0.0071136
174	0x3d039824	0.032127514
175	0xbc71a964	-0.0147498585
176	0xbb4439fe	-0.0029941793
177	0xbcf44877	-0.02981971
178	0x3dcac5af	0.099009864
179	0xbd0ff663	-0.035147082
180	0x3d9937e2	0.07481362
181	0x3d9bd4b9	0.07608933
182	0xbcd80d27	-0.026373459
183	0xbcd14476	-0.02554534
184	0xbc8c9293	-0.017159736
185	0xbcbdd544	-0.023172982
186	0x3d3e7ddf	0.04650676
187	0x3d03b2a4	0.032152787
188	0x3ce12185	0.027481804
189	0xbce963c5	-0.028489957
190	0xbd85a375	-0.065253176
191	0xbde9bdf5	-0.114131846
192	0xbd925592	-0.071452275
193	0xbc07bc2c	-0.00828461
194	0x3ab8e2d7	0.001410569
195	0x3d56d061	0.05244482
196	0x3cb46218	0.022019431
197	0xbd04dcfb	-0.032437306
198	0x3c54a616	0.012979051
199	0x3a3d825a	0.0007229202
200	0x3ce7eee7	0.02831216
201	0xbd8007fa	-0.062515214
202	0x3d12d350	0.035846055
203	0xbd862930	-0.06550825
204	0xbc37e8d2	-0.011224942
205	0x3c8bef5c	0.017081909
206	0x3d2b5a20	0.041833997
207	0x3d97f3dd	0.0741956
208	0x39552756	0.00020327917
209	0xbd20a9e2	-0.039224513
210	0xbcf6740f	-0.030084638
211	0x3d7091fa	0.058732964
212	0xbd94bab4	-0.07262173
213	0x3ba7654c	0.005108511
214	0x3d46cd79	0.048535798
215	0xbd0c3b6a	-0.03423635
216	0xbd8df5d5	-0.06931654
217	0x3c967824	0.018367834
218	0x3db8ddca	0.09026678
219	0xbcff05b9	-0.031130658
220	0x3b2305c1	0.0024875256
221	0x3c8d4807	0.01724626
222	0x3ba5c319	0.005058658
223	0x3cd9d0e8	0.026588872
224	0xbdfe370f	-0.12412845
225	0xbcf71147	-0.030159606
226	0x3d6d71e6	0.05796995
227	0x3c6856b0	0.014180824
228	0x3c743795	0.01490583
229	0xbd1d059d	-0.03833543
230	0x3cf6bab3	0.030118322
231	0x3cb6a531	0.022295566
232	0x3d9f4f9d	0.07778857
233	0x3c6e2da5	0.01453725
234	0x3dc8542c	0.097816795
235	0xbd5e336c	-0.05424826
236	0x3b380108	0.0028076787
237	0x3d47cf03	0.048781406
238	0x3d77dd41	0.06051374
239	0xbbe9e2d2	-0.007137635
240	0xbda823ac	-0.08209929
241	0x3cd5eeb4	0.0261148
242	0x3d53da7c	0.051722035
243	0x3d0527f4	0.032508805
244	0x3d94c3b8	0.07263893
245	0x3d46415c	0.048402175
246	0x3e195d9d	0.14977117
247	0xbd00229b	-0.031283002
248	0x3bc0e709	0.0058869165
249	0x3c86f887	0.016475929
250	0xbd0be8ce	-0.034157567
251	0xbd1ff381	-0.039050583
252	0xbd536681	-0.051611427
253	0xbccf0c00	-0.025274277
254	0x3cb7998c	0.022412084
255	0x3cee4eed	0.02909037

conv_layers.0.bias f4 [64]
0	0xbcdf43c5	-0.027253995
1	0x3db013db	0.08597537
2	0xbccf937f	-0.025338886
3	0xbd6d0584	-0.05786659
4	0x3d9a7052	0.07540955
5	0x3d39b387	0.045337226
6	0xbd524995	-0.051339705
7	0xba2351e2	-0.0006230158
8	0xbd7efec9	-0.0622547
9	0xbdf613d7	-0.12015503
10	0x3d8357a7	0.06413203
11	0x3d529085	0.051407356
12	0x3cf65bef	0.030073134
13	0x3c407711	0.011747138
14	0xbc6a874a	-0.014314482
15	0xbc9bf025	-0.019035408
16	0xba70b02c	-0.0009181525
17	0x3d62f3e0	0.05540836
18	0x3dd5930d	0.10428438
19	0xbd0ce3fc	-0.03439711
20	0x3c062e7d	0.008189795
21	0x3df99ff7	0.12188714
22	0x3c95be76	0.018279295
23	0x3c35735d	0.011074868
24	0x3db016c5	0.08598093
25	0xbd830e70	-0.06399238
26	0x3d127fbb	0.035766345
27	0xbcaad22d	-0.020852173
28	0xbd8512c9	-0.064977236
29	0xbc6c4ba4	-0.014422331
30	0x3c0af590	0.008481398
31	0x3ce5438d	0.027986312
32	0xbdb54c31	-0.08852423
33	0x3dcb8f41	0.09939433
34	0xbd8c4032	-0.06848182
35	0x3d041839	0.032249663
36	0x3d9e37b9	0.07725472
37	0xbc5aaa56	-0.013346275
38	0xbd267dcd	-0.040647317
39	0x3dccf391	0.10007394
40	0xbc23bb5e	-0.009993402
41	0xbd74d223	-0.059770714
42	0x3cac4c6c	0.021032535
43	0xbd18b2dd	-0.037279952
44	0x3c4c3384	0.012463454
45	0x3b2ed40b	0.002667668
46	0xbd0be830	-0.034156978
47	0x3c602e35	0.013682892
48	0xbd970514	-0.073740155
49	0x3c4befa7	0.012447274
50	0x3d2daa1f	0.04239857
51	0x3cafa62c	0.021441542
52	0xbd88dead	-0.06683097
53	0x3bd30329	0.0064395857
54	0x3cfe3998	0.031033322
55	0x3d373414	0.0447274
56	0xbd066069	-0.032806788
57	0xbd3923a9	-0.045200024
58	0x3dd2f771	0.10301102
59	0x3d55a905	0.052163143
60	0x3c9e72c0	0.019341826
61	0xbe0058ba	-0.12533846
62	0xbcefa294	-0.029252328
63	0xbd0eba27	-0.034845497

conv_layers.1.weight f4 [64, 256, 3]
0	0xbd7cbc12	-0.061702795
1	0xbbc368f4	-0.005963439
2	0x3d32fb5e	0.043696754
3	0x3d4b3ba0	0.04961741
4	0x3daede82	0.08538534
5	0x3cf4ad4d	0.029867793
6	0xbd2f775f	-0.04283845
7	0x3d87db97	0.0663368
8	0x3cf9e811	0.030506166
9	0x3cecfe2f	0.028929798
10	0xbb8428ad	-0.0040331692
11	0xbd785c15	-0.06063469
12	0xbbf905c4	-0.0075995643
13	0xbd6abb0b	-0.057307284
14	0x3db2e459	0.0873496
15	0x3d90daad	0.07072959
16	0xbce21aee	-0.027600732
17	0xba8b0de0	-0.0010608993
18	0xbd8b0df8	-0.06789774
19	0xbcae3bdc	-0.021268778
20	0x3d7f064e	0.062261872
21	0xbc2b034d	-0.010437799
22	0x3c5180cd	0.012787056
23	0x3ce94d4b	0.028479239
24	0x3cf2a5f4	0.029620148
25	0xbd9a5072	-0.07534875
26	0xbd026b54	-0.031840637
27	0x3d944d28	0.07241279
28	0x3c79ed42	0.015254321
29	0xbd337af5	-0.043818433
30	0xbd1677ec	-0.03673546
31	0xbe110d42	-0.14165214
32	0xbd894e3f	-0.067043774
33	0x3cc53f87	0.024078144
34	0xbcb6c12d	-0.02230891
35	0x3d51a70c	0.0511847
36	0x3d0adace	0.033900075
37	0xbbad2cd6	-0.005284886
38	0x3db6682b	0.08906587
39	0x3ddc970e	0.10770999
40	0x3ba812ed	0.0051292093
41	0xbd6f1315	-0.058367807
42	0xbb7a1685	-0.0038160395
43	0x3c50d5d7	0.012746296
44	0xbcb50c2b	-0.022100529
45	0x3cda5cf5	0.026655653
46	0x3d4fab57	0.05070051
47	0xbca889b7	-0.02057348
48	0xbcc99835	-0.02460871
49	0xbd4b8c3d	-0.04969429
50	0x3cf94795	0.03042964
51	0x3d34754a	0.044057168
52	0xbc3024a2	-0.010750921
53	0x3d0e6e03	0.034772884
54	0x3c5e0a6e	0.013552291
55	0xbccb751c	-0.024836116
56	0xbd1d66d4	-0.038428143
57	0xbc100c30	-0.008791968
58	0x3cf87ad2	0.030332003
59	0x3d408c18	0.047008604
60	0xbcbf68e2	-0.023365442
61	0x3e264b29	0.16239609
62	0x3dfc795c	0.12327835
63	0x3d177b90	0.036983073
64	0xbd647932	-0.055779643
65	0xbb1b88c3	-0.002373264
66	0x3d081829	0.033226166
67	0xbd21dfa9	-0.03951994
68	0x3d6eb2a1	0.058275823
69	0xbd87f6e2	-0.06638886
70	0x3d4a87d8	0.049445957
71	0xbba13a23	-0.0049202605
72	0xbd89e75c	-0.067335814
73	0x3d66a919	0.056313608
74	0xbcb8a473	-0.022539353
75	0xbcc1b6bb	-0.023646703
76	0x3cb85d97	0.022505565
77	0xbc5f4eee	-0.013629658
78	0xbdbaa4dc	-0.09113476
79	0xbd43d5be	-0.047811262
80	0x3b3396bb	0.0027403075
81	0x3d707997	0.058709707
82	0x3cceaf67	0.025230123
83	0xbd57f503	-0.052723896
84	0xbbb53ae4	-0.005530702
85	0xbd0c68d4	-0.03427966
86	0xbd86b9a7	-0.06578379
87	0xbcbf73fb	-0.023370733
88	0x3c01306a	0.007885078
89	0xbd786892	-0.0606466
90	0x3c5f5d6e	0.013633115
91	0x3ca82a39	0.020527946
92	0x3bfedc5a	0.007777733
93	0xbd28806d	-0.0411381
94	0x3d05a5f9	0.032628987
95	0xbc62643c	-0.013817843
96	0xbe6f95ef	-0.23397039
97	0xb92badbc	-0.00016372552
98	0xbd70de40	-0.058805704
99	0x3d3fa79b	0.0467907
100	0x3d54715b	0.051865917
101	0xbd188de1	-0.03724468
102	0x3c605199	0.013691329
103	0xbd2d9754	-0.042380646
104	0xbbc2e4a1	-0.005947665
105	0xbcbd8843	-0.023136264
106	0x3d9d1b67	0.07671242
107	0x3d30c354	0.04315503
108	0xbd11d92e	-0.03560751
109	0xbcdfe8e5	-0.027332732
110	0xbd1e1121	-0.038590554
111	0x3c92f3f1	0.017938586
112	0xbd06987e	-0.03286027
113	0x3c2a17ff	0.010381698
114	0xbd043e3b	-0.03228591
115	0x3dcc247d	0.09967897
116	0x3d8baba8	0.0681985
117	0x3ad04f64	0.0015892801
118	0xbc4fd118	-0.012684129
119	0xbce8b887	-0.028408302
120	0x3dd45f5d	0.103697516
121	0xbd636467	-0.055515673
122	0xbc856db1	-0.016287657
123	0x3c6e112b	0.01453046
124	0xbcd6fb12	-0.026242767
125	0xbccc12b9	-0.024911271
126	0x3da8ff5e	0.082518324
127	0x3cd1de01	0.025618555
128	0xbd225bd7	-0.039638367
129	0xbd02a1e2	-0.031892665
130	0xbce23422	-0.02761275
131	0xbbca36f3	-0.0061711012
132	0xbda6bb49	-0.081411906
133	0x3c230cdc	0.009951796
134	0xbd4c6118	-0.049897283
135	0x3b69b595	0.003566121
136	0x3d1550b5	0.03645392
137	0xbd1a2fd2	-0.03764326
138	0x3cc70842	0.02429593
139	0x3ca22e88	0.019797578
140	0x3d5e5406	0.05427935
141	0x3d661e06	0.056180976
142	0x3d6f53ed	0.058429647
143	0xbcb3aa51	-0.0219318
144	0xbc82e50a	-0.015978355
145	0x3cf273a8	0.029596165
146	0xbd56aea0	-0.05241263
147	0x3d0c7bed	0.034297872
148	0x3cb69ec5	0.022292504
149	0xbd53d28d	-0.05171447
150	0xbd954791	-0.07289041
151	0x3e1de494	0.15419227
152	0xbc19353e	-0.009351073
153	0x3d538a75	0.051645715
154	0xbd4111bf	-0.047136065
155	0xbb3eebea	-0.0029132315
156	0x3d4933b3	0.04912157
157	0xbd686bce	-0.056743436
158	0x3c31bcb5	0.010848214
159	0xbd06f692	-0.03294999
160	0xbd557819	-0.052116487
161	0xbdbbb83e	-0.09166001
162	0x3cb31100	0.021858692
163	0x3d08ac6f	0.03336757
164	0x3cf292d5	0.02961103
165	0xbd7f202d	-0.062286545
166	0xbc8cab72	-0.017171595
167	0xbd4fc086	-0.050720714
168	0x3c11368d	0.008863104
169	0x3bb8d973	0.0056411563
170	0x3d74503e	0.059646837
171	0xbd74a29b	-0.059725385
172	0xbd057826	-0.032585286
173	0x3bda5ada	0.0066636624
174	0x3d69c080	0.057068348
175	0x3bcf42d7	0.0063251066
176	0x3c615301	0.0137527
177	0x3db1ca7c	0.08681199
178	0xbd81c039	-0.06335492
179	0xbccaf057	-0.024772806
180	0x3c9e5b41	0.019330623
181	0xbb48d40e	-0.0030643973
182	0xbd75ebec	-0.060039446
183	0x3d390838	0.045173854
184	0xbdd76616	-0.10517518
185	0xbce6e741	-0.028186442
186	0xbd357d41	-0.044308905
187	0xbc610e16	-0.0137362685
188	0xbb61f109	-0.0034475944
189	0x3c66713e	0.014065085
190	0xbd5510de	-0.05201804
191	0xbb9a8a84	-0.0047162194
192	0x3d332806	0.04373934
193	0xbd59d0e4	-0.05317773
194	0xbc2fa0d8	-0.0107195005
195	0x3d9704d7	0.0737397
196	0x3c2395bc	0.00998443
197	0x3d0b7421	0.034046296
198	0xbc119380	-0.008885264
199	0xbc76b490	-0.015057698
200	0xbd5938c0	-0.053032637
201	0xbd9d2ed2	-0.07674946
202	0x3cb51eac	0.022109352
203	0xbaf43f23	-0.0018634539
204	0xbcf69ff9	-0.030105578
205	0x3d986454	0.07441011
206	0x3dca6331	0.098822005
207	0x3c45a786	0.0120638665
208	0xbd2d12c5	-0.04225423
209	0xbdd1e891	-0.10249437
210	0x3cd149dc	0.025547914
211	0xbd1d1eb5	-0.038359363
212	0xbd29bdd5	-0.041440804
213	0x3de3b7c0	0.11119032
214	0xbc3721e4	-0.011177514
215	0x3af4a2b2	0.001866421
216	0xbc48619d	-0.012230304
217	0xbd3b6f31	-0.045760337
218	0x3d4bdeaa	0.049772896
219	0x3d8d29c8	0.06892735
220	0x3d8fa815	0.07014481
221	0xbd60bdd0	-0.05486852
222	0xbc88bd43	-0.01669181
223	0xbdb17d4b	-0.08666476
224	0xbd35373c	-0.04424213
225	0xbce63a72	-0.02810404
226	0x3cd9818d	0.026551032
227	0xbd5b221b	-0.053499322
228	0xbc8e88c8	-0.017399207
229	0x3d751820	0.05983746
230	0x3c1f0350	0.00970538
231	0x3d73da30	0.05953425
232	0xbc988f53	-0.01862303
233	0xbc987d80	-0.01861453
234	0xbd374ee6	-0.044752978
235	0x3d35a773	0.044349145
236	0xbd5833ba	-0.052783705
237	0xbc336569	-0.010949471
238	0x3d9c0477	0.07618039
239	0xbd09d720	-0.033652425
240	0x3c2586d4	0.010102946
241	0xbcc7b04b	-0.024376055
242	0xbd81da6f	-0.06340491
243	0x3b2a9082	0.0026026075
244	0xbd3e3b9d	-0.04644357
245	0x3d691f70	0.056914747
246	0xbca327ee	-0.0199165
247	0x3aee1e1a	0.001816693
248	0xbbf78300	-0.007553458
249	0xbd6bd7d2	-0.05757887
250	0x3df721fb	0.12067028
251	0x3caa8a85	0.020818004
252	0x3c8bce47	0.017066134
253	0xbce90fe7	-0.028449966
254	0x3db409b1	0.08790911
255	0x3d47816e	0.04870742

conv_layers.1.bias f4 [64]
0	0xbe0c3810	-0.13693261
1	0xbc4a19ae	-0.012335224
2	0xbda05cfa	-0.07830234
3	0xba4f4b85	-0.00079076766
4	0x3c58b844	0.013227526
5	0x3d2ce43b	0.042209845
6	0x3d80191b	0.062547885
7	0x3dd1f57f	0.10251903
8	0xbb2da9ec	-0.0026498986
9	0x3c090001	0.008361817
10	0xbc7b8f8c	-0.015354048
11	0x3db06ebe	0.086148724
12	0xbb642348	-0.0034811068
13	0xbd67eecc	-0.05662422
14	0xbdb24402	-0.08704378
15	0xbd1d0a26	-0.038339756
16	0xbd7e9e8a	-0.062162913
17	0x3ca534c3	0.02016676
18	0xbb70f6c3	-0.0036768175
19	0xbd96938b	-0.0735236
20	0x3c00d1b8	0.007862501
21	0xbb814b55	-0.003945748
22	0x3de587f4	0.112075716
23	0xbd882a8f	-0.066487424
24	0x3dc482d6	0.095952675
25	0x3c6d31ba	0.014477188
26	0x3d25bee5	0.040465254
27	0xbb8862d5	-0.0041621723
28	0x3d89aeee	0.06722818
29	0x3cba6502	0.022753242
30	0xbd616807	-0.05503085
31	0x3caf6a1c	0.021412902
32	0x3d36dc5d	0.04464375
33	0x3d1fdea3	0.039030682
34	0xbc4e3439	-0.012585693
35	0x3c7aa376	0.015297761
36	0xbd53631c	-0.05160819
37	0x3d4b7bb6	0.049678527
38	0x3d0b7dac	0.034055397
39	0x3c368276	0.011139503
40	0xbd5d5219	-0.054033373
41	0x3bec5f36	0.0072134985
42	0x3d2adc78	0.04171416
43	0x3b99e3ad	0.0046963305
44	0x3d307076	0.043076
45	0xbcf05adf	-0.029340206
46	0xbc23003e	-0.009948788
47	0x3d177210	0.036974013
48	0xbcddd021	-0.027076783
49	0x3d1f7730	0.038932025
50	0x3d9e427e	0.07727526
51	0xbc71764f	-0.01473768
52	0x3ca03511	0.019556554
53	0x3abf618d	0.0014601216
54	0x3a869eca	0.0010270712
55	0x3d207540	0.03917432
56	0x3d8c7665	0.068585195
57	0x3c9e5bf6	0.01933096
58	0xbd6ee0ac	-0.058319733
59	0xbd955528	-0.07291633
60	0x3d820457	0.06348484
61	0x3cfac252	0.030610237
62	0xbd471031	-0.048599426
63	0xbdb42aa3	-0.08797195

conv_layers.2.weight f4 [64, 256, 4]
0	0x3c6a87e0	0.014314622
1	0xbd7254c4	-0.05916287
2	0x3b176c52	0.0023105335
3	0x39fc13ec	0.00048080029
4	0xbd36cfe4	-0.044631854
5	0x3e3e0f71	0.18560578
6	0x3d60c7ba	0.054877974
7	0xbb57cc00	-0.003292799
8	0xbd7913bb	-0.060809832
9	0x3c738f79	0.0148657495
10	0x3bd467ae	0.006482086
11	0x3d0ec2bd	0.034853686
12	0x3d7f1ad4	0.062281445
13	0xbcf7dd29	-0.030256825
14	0xbcefaa8b	-0.029256126
15	0xbcff2eca	-0.03115024
16	0xbd50bf3c	-0.050963625
17	0xbb5fd260	-0.0034152493
18	0xbdd37df4	-0.10326758
19	0xbd1c0b0e	-0.03809648
20	0xbce17918	-0.027523562
21	0xba154c11	-0.00056952337
22	0xbd51f7af	-0.0512616
23	0xbd4c3902	-0.049859054
24	0x3d40c356	0.047061287
25	0xbb9165f0	-0.0044372007
26	0x3cd2c45e	0.0257284
27	0x3bc9ddcb	0.006160473
28	0x3db40ba6	0.08791284
29	0x3d771c32	0.060329624
30	0x3d349245	0.044084806
31	0xbc1d78d7	-0.00961133
32	0x3ce983ff	0.028505323
33	0xbcc05c61	-0.02348155
34	0xbd901261	-0.070347555
35	0xbcb53ccb	-0.022123715
36	0xbbe44016	-0.0069656475
37	0x3d1893f8	0.03725049
38	0xbcb1877b	-0.021671047
39	0x3d154191	0.036439482
40	0x3db33d20	0.08751893
41	0x3cf0baec	0.029386006
42	0xbc0b18f3	-0.008489835
43	0xbd53f038	-0.051742762
44	0xbd36e771	-0.044654313
45	0xbc43d68d	-0.011953008
46	0x3c007f61	0.0078428695
47	0x3c409ceb	0.011756162
48	0x3bee98b3	0.0072813868
49	0x3d946325	0.07245473
50	0xbd7d8b46	-0.0619004
51	0x3d11ffe9	0.035644446
52	0xbd28a288	-0.041170627
53	0x3cf2a3d3	0.029619133
54	0x3d9d34cb	0.07676085
55	0xbceb5d3c	-0.028730981
56	0xbce213b9	-0.027597295
57	0x3c89735c	0.01677864
58	0x3c944023	0.018096989
59	0xbd878d05	-0.06618694
60	0x3c0dd9f0	0.008657917
61	0xb9a9c36b	-0.0003237979
62	0x3d28d367	0.041217234
63	0x3cd25519	0.025675343
64	0xbd668642	-0.056280382
65	0x3cd08448	0.025453702
66	0x3d8fe557	0.07026165
67	0x3d2ffa26	0.04296317
68	0x3cf124d3	0.029436504
69	0xbd3b6b4f	-0.045756634
70	0xbc8ffcad	-0.01757654
71	0x3caa7999	0.020809935
72	0xbcc54842	-0.024082307
73	0xb82dcef2	-4.1439147e-05
74	0xbd222c02	-0.03959275
75	0x3c8074cd	0.015680695
76	0xbd4d798e	-0.05016475
77	0x3d4e53cc	0.050372884
78	0xbcea642e	-0.028612223
79	0x3d153d6f	0.03643554
80	0xbd7f939a	-0.062396623
81	0x3cae3850	0.021267086
82	0xbcf3ee1a	-0.029776622
83	0x3d41c1d1	0.04730398
84	0xbcb115f2	-0.02161691
85	0xbd63d644	-0.05562426
86	0x3db6003b	0.08886763
87	0x3d3d16ea	0.04616443
88	0xbd80484b	-0.06263789
89	0x3d0afeb7	0.03393432
90	0xbd2ac2bb	-0.041689616
91	0x3d13f34a	0.03612069
92	0x3d106830	0.03525561
93	0x3d822b6f	0.063559406
94	0xbdace8f7	-0.08442872
95	0xbc8a76c1	-0.01690233
96	0xbc9d8d23	-0.019232338
97	0xbd3c2c1d	-0.045940507
98	0xbd1bc867	-0.038032915
99	0x3de85bf5	0.113456644
100	0x3c8e8d10	0.017401248
101	0xbd077e93	-0.033079695
102	0x3d19d0e6	0.037552737
103	0x3d0af355	0.033923466
104	0x3c3adc4d	0.011405063
105	0xbdafe312	-0.08588232
106	0xbc45766f	-0.012052163
107	0x3caa4f79	0.020789849
108	0x3ccc826d	0.024964536
109	0xbd6d8328	-0.05798641
110	0xbceda9c8	-0.029011622
111	0x3d934c2d	0.07192264
112	0xbdd4ec5d	-0.10396645
113	0xbc3860c8	-0.011253543
114	0xbd0a0641	-0.03369737
115	0xbb89cbfc	-0.004205225
116	0xbc95aa0a	-0.018269558
117	0xbd602e2f	-0.054731544
118	0xbd86ff3c	-0.06591651
119	0x3d6e42b4	0.05816908
120	0x3d8aab76	0.06770985
121	0xbd71ddca	-0.059049405
122	0x3d78cec7	0.060744073
123	0xbd8d614c	-0.069033235
124	0xbcfc3139	-0.03078519
125	0xbc8cf6f1	-0.017207595
126	0x3d51ee90	0.0512529
127	0xbcde2718	-0.02711825
128	0x3d59e8ef	0.05320066
129	0xbd09c244	-0.03363253
130	0xbd21bafb	-0.03948496
131	0x3d2a08f2	0.041512437
132	0xbcbfc9e9	-0.023411708
133	0x3c4dc74c	0.012559723
134	0x3d339f94	0.043853357
135	0xbc282f85	-0.010265236
136	0x3cd4b8fc	0.025967114
137	0xbd33b4c3	-0.04387356
138	0xbcb1f084	-0.021721132
139	0xbc4afc6a	-0.012389282
140	0x3c29b0c6	0.0103570875
141	0xbd0de6c7	-0.034643915
142	0x3dfa8537	0.1223244
143	0xbd0f7dd5	-0.035032112
144	0xbd1a39b0	-0.03765267
145	0x3d30b606	0.04314234
146	0x3d687301	0.0567503
147	0xbdd856bf	-0.105634205
148	0xbd4de5a4	-0.05026783
149	0x3d9845f8	0.074352205
150	0xbc04b638	-0.008100085
151	0xbdc336bb	-0.095319234
152	0xbd11793c	-0.03551601
153	0x3d709616	0.058736883
154	0x3d91859e	0.071055636
155	0x3d85e8ab	0.065385185
156	0x3c6fea8c	0.014643323
157	0x3d8282f9	0.06372637
158	0xbdb9f5e8	-0.09080106
159	0x3b47dafa	0.003049551
160	0x3bd282fc	0.006424306
161	0xbc0f0e29	-0.008731403
162	0x3d38ce82	0.045118816
163	0x3c6bbacd	0.0143877985
164	0xbd746ef0	-0.05967611
165	0xbe05223c	-0.1300134
166	0x3d9692d1	0.07352222
167	0xbcfcc277	-0.030854447
168	0xbd5e9ea2	-0.054350503
169	0x3d0d50e9	0.03450099
170	0xbba1f020	-0.004941955
171	0xbd27dd03	-0.040982258
172	0xbca2ac3c	-0.019857518
173	0xbc8a0351	-0.016847285
174	0x3c99462a	0.018710215
175	0x3cb41a6e	0.021985259
176	0x3d3285f2	0.04358477
177	0x3cf43320	0.029809535
178	0x3bc5078f	0.006012864
179	0x3c1f1336	0.00970917
180	0xbd1030c6	-0.035202764
181	0xbca83fb1	-0.020538183
182	0x3db7a6f5	0.089673914
183	0xbcd6b6d8	-0.026210234
184	0xbc06fd76	-0.008239141
185	0x3d8d0d34	0.06887284
186	0xbccba4ec	-0.024858914
187	0x3c948606	0.018130314
188	0xbd406712	-0.046973296
189	0xbba88063	-0.005142258
190	0x3dec2feb	0.11532577
191	0xbc4af068	-0.012386419
192	0xbd517e5a	-0.05114589
193	0xbca2d177	-0.019875271
194	0xbcb39b37	-0.021924598
195	0x3c2f115c	0.010685291
196	0x3d393f6e	0.045226507
197	0xbbe603eb	-0.00701951
198	0x3d3aec08	0.045635253
199	0x3d15b3c3	0.036548387
200	0x3d88a9ab	0.066729866
201	0xbdbaf1c7	-0.091281466
202	0xbdbe0af7	-0.09279435
203	0x3dae382e	0.08506809
204	0x3d26a423	0.040683877
205	0x3b05b24e	0.0020400467
206	0xbbf1452b	-0.007362982
207	0x3d90d481	0.07071782
208	0x3cc9e580	0.024645567
209	0x3da5eb9a	0.08101578
210	0x3a54abba	0.00081127475
211	0xbdcfabde	-0.10140203
212	0x3ccd4209	0.025055902
213	0xbde1da80	-0.11028004
214	0x3bde872f	0.0067910175
215	0xbd465a9f	-0.048426267
216	0xbcbeec55	-0.023306051
217	0xbd2c9530	-0.042134464
218	0xbcb15f71	-0.021651955
219	0xbc41ef72	-0.011836873
220	0xbbfc4e3e	-0.007699757
221	0xbd6ee868	-0.05832711
222	0xbcb36bbb	-0.021901956
223	0x3d5b1957	0.053490963
224	0xbbb2b353	-0.005453506
225	0x3c926547	0.017870558
226	0xbd57aa2c	-0.052652523
227	0xbcc15332	-0.02359924
228	0xbd85524f	-0.0650984
229	0xbc32de92	-0.010917323
230	0x3d4564fd	0.048192013
231	0x3cb60b7f	0.022222279
232	0x3d695ee3	0.056975257
233	0x3c779760	0.015111774
234	0xbd360755	-0.044440586
235	0x3da0baaf	0.07848107
236	0x3d0da68a	0.034582652
237	0xbcab4c35	-0.020910362
238	0x3dde68f6	0.108598635
239	0xbd8470c5	-0.064668216
240	0xbd213514	-0.03935726
241	0xbced8adc	-0.028996877
242	0xbcecd98b	-0.028912326
243	0xbd4ecc20	-0.050487638
244	0x3c08ecb4	0.008357216
245	0x3d58b0cc	0.05290298
246	0xbcf1e97e	-0.029530283
247	0x3c9e32f6	0.01931141
248	0x3c1442c1	0.0090491185
249	0xbaa79a87	-0.0012787142
250	0x3db15118	0.086580455
251	0x3c4a7187	0.012356169
252	0xbc9d7aad	-0.019223535
253	0x3be7a28f	0.007068939
254	0x3d913953	0.07091012
255	0x3d81af5c	0.06332275

conv_layers.2.bias f4 [64]
0	0xbda87450	-0.0822531
1	0x3b70719f	0.0036688817
2	0x3d05b66a	0.032644667
3	0x3d8e86e6	0.069593236
4	0xbd696124	-0.056977406
5	0xbde48acf	-0.11159288
6	0xbdde51c1	-0.10855437
7	0x3cbb58bf	0.022869466
8	0x3d816869	0.06318743
9	0xba786b35	-0.00094764243
10	0x3dba287f	0.09089755
11	0xbdca25c1	-0.09870482
12	0x3c2c939d	0.010533241
13	0xbdb4bc5e	-0.08824991
14	0xbbbf71c1	-0.005842418
15	0x3c134737	0.008989147
16	0xbd36f51e	-0.044667356
17	0x3ce3e414	0.027818717
18	0xbdaf0889	-0.0854655
19	0x3993f4c2	0.00028220384
20	0xbd7c575c	-0.06160675
21	0xbd9e7e87	-0.07738977
22	0x3d346db4	0.044049934
23	0x3d9d9d60	0.076960325
24	0x3d4790cd	0.048722077
25	0xbd3786f5	-0.04480644
26	0xbdbb5ac6	-0.09148173
27	0x3d06beaa	0.032896675
28	0xbd134b3a	-0.035960414
29	0x3b389f5c	0.0028171157
30	0xbdb7c941	-0.08973933
31	0x3d646169	0.05575696
32	0x3d98ca86	0.07460503
33	0xbbd24eeb	-0.006418099
34	0xbdd74f3f	-0.10513162
35	0xbd8789f9	-0.06618113
36	0x3b881a22	0.004153506
37	0xbc67814d	-0.014129949
38	0xbd3ed6c8	-0.04659155
39	0xbc3b54af	-0.011433764
40	0xbd94c8de	-0.07264875
41	0x3db81de0	0.08990073
42	0x3cd192c9	0.025582688
43	0x3cc15ac2	0.023602847
44	0x3d70c10e	0.05877786
45	0xbd131571	-0.03590912
46	0xbde4df57	-0.11175411
47	0xbdf774e2	-0.120828405
48	0x3db8f948	0.090319216
49	0xbd2a6eb9	-0.0416095
50	0xbd8e968b	-0.069623075
51	0xbd0c557d	-0.034261215
52	0x3b8bccc0	0.0042663515
53	0x3b1396f2	0.002252039
54	0x3d21b0e9	0.039475355
55	0x3d974e1b	0.07387944
56	0x3d54b664	0.051931754
57	0x3c1e9cd3	0.0096809445
58	0xbc3375e9	-0.010953405
59	0x3c839b84	0.016065367
60	0x3adc4b50	0.0016807113
61	0xbd3e705d	-0.046493877
62	0x3cdab623	0.026698178
63	0x3da45be0	0.08025336

conv_layers.3.weight f4 [64, 256, 5]
0	0xbc8f048b	-0.017458221
1	0xbd9dff57	-0.07714718
2	0xbb8d9a99	-0.004321408
3	0xbb9af68e	-0.0047290986
4	0x3c535de7	0.012900806
5	0x3ca78ad1	0.020451935
6	0x3ce45cf0	0.027876347
7	0x3b403f56	0.0029334626
8	0x3cf7d828	0.030254439
9	0x3ca4ce3e	0.020117875
10	0x3d56a9fa	0.052408196
11	0xbb16abf2	-0.002299067
12	0xbd6b0b55	-0.057383854
13	0x3c8a98c8	0.016918555
14	0xbcf15cdc	-0.029463224
15	0xbb4ff64c	-0.0031732498
16	0xbc4c2799	-0.012460613
17	0xbc505e4a	-0.012717793
18	0xbbcb995f	-0.0062133516
19	0xbccb257b	-0.024798146
20	0xbbaa02fd	-0.0051883445
21	0x3ca661ae	0.02031025
22	0xbcc5bd96	-0.024138253
23	0xbb858a4d	-0.0040753246
24	0xbc497cca	-0.012297818
25	0xbcf5f422	-0.030023638
26	0x3c9e7d6a	0.019346911
27	0x3d82ddc5	0.063899554
28	0xbce8e942	-0.028431538
29	0xbd08eb9c	-0.03342782
30	0x3d0cc4f8	0.03436753
31	0x3c83f1b8	0.016106471
32	0x3d830ed2	0.06399311
33	0x3b3e8a90	0.002907429
34	0xbcca6c71	-0.024709912
35	0x3d2a815e	0.04162728
36	0x3cd4b086	0.02596308
37	0x3d0aed85	0.033917923
38	0x3c74ba79	0.014937037
39	0xbd411a57	-0.04714426
40	0xbcd2005c	-0.025634937
41	0x3d01035c	0.031497344
42	0x3ae4b911	0.0017450174
43	0xbdb2cd2b	-0.08730539
44	0x3d3f214b	0.04666261
45	0x3d32b3f8	0.043628663
46	0xbc0d0e3a	-0.008609349
47	0xbbfcbc0d	-0.007712847
48	0x3d62b6b3	0.055350017
49	0xbd8f2578	-0.069895685
50	0xbdb22752	-0.08698906
51	0x3c9a768f	0.018855361
52	0xbd8ae34d	-0.067816354
53	0xbc50511e	-0.012714652
54	0xbd4ab477	-0.04948851
55	0x3d026777	0.031836953
56	0x3d331bf3	0.043727826
57	0x3c5d160d	0.013494027
58	0xbc626635	-0.013818313
59	0xbc8334c1	-0.016016366
60	0x3c822d3a	0.015890706
61	0xbd9e84a7	-0.07740145
62	0x3d620ee8	0.055189997
63	0xbce14fc2	-0.027503852
64	0xbd2349bc	-0.03986524
65	0xbd0fa615	-0.035070498
66	0x3d5cc2b0	0.053896606
67	0xbb3b6f7f	-0.0028600392
68	0xbc325b86	-0.010886079
69	0xbd4ca632	-0.049963184
70	0x3c9ac493	0.018892562
71	0x3d965a45	0.07341436
72	0xbd25fa40	-0.04052186
73	0xbdb3b8dd	-0.08775494
74	0xbd162765	-0.036658663
75	0x3c262d1d	0.010142592
76	0x3ced00fb	0.028931132
77	0xbd3f3854	-0.046684578
78	0xbdc41f3d	-0.09576271
79	0xbc9e6433	-0.019334888
80	0xbc7cefc2	-0.015438022
81	0xbd911b3f	-0.07085275
82	0x3c5039d7	0.012709103
83	0x3dc3d18b	0.095614515
84	0xbd5e2141	-0.054230932
85	0x3d39b05d	0.04533421
86	0xbd39b51f	-0.045338746
87	0xbd4c97bd	-0.049949396
88	0xbdc7a541	-0.097483166
89	0xbc60e004	-0.0137252845
90	0x3d7ebeff	0.062193867
91	0xbd020cbb	-0.031750422
92	0xbcca0bc4	-0.024663813
93	0x3d02ddf7	0.031949963
94	0x3d43c0ec	0.047791407
95	0x3c985bb6	0.018598419
96	0x3bbffd27	0.0058590355
97	0xbd731780	-0.059348583
98	0xbcfa80de	-0.030579027
99	0x3b89f3e0	0.0042099804
100	0x3c43e7d8	0.011957131
101	0xbd0cf287	-0.03441098
102	0xbd49a98a	-0.04923395
103	0x3d5c892e	0.053841762
104	0x3cb999e3	0.022656387
105	0xbd7f6f5b	-0.062362056
106	0xbcef86ab	-0.02923902
107	0xbd2621cd	-0.04055958
108	0x3c8fdcd1	0.017561348
109	0xbd8ede2b	-0.06975969
110	0xbc7df1cc	-0.015499543
111	0x3c9902a9	0.018678026
112	0xbd2736cf	-0.040823754
113	0xbd55aca9	-0.052166615
114	0xbccf8043	-0.025329715
115	0x3d3e8861	0.04651678
116	0x3d5d6af7	0.054057088
117	0x3bc501fa	0.0060121985
118	0xbbaa8193	-0.0052034347
119	0x3c9cf6ef	0.019160716
120	0xbd33bd17	-0.043881502
121	0xbbde5d1b	-0.0067860014
122	0xbd3b842e	-0.045780353
123	0x3cdd6559	0.027025865
124	0xbc9758a6	-0.018474888
125	0x3d28a972	0.04117722
126	0xbd75ddbd	-0.06002592
127	0xbc39dfad	-0.011344832
128	0x3c9174ef	0.017755954
129	0xbd09dadb	-0.033655982
130	0x3cb3b906	0.021938812
131	0xbc4ba8e3	-0.012430402
132	0xbdd7cb54	-0.10536829
133	0xbc698d0d	-0.0142548205
134	0xbd528c2a	-0.051403202
135	0xbcee5cd6	-0.029097002
136	0xbd8b2084	-0.06793311
137	0xbd0cdf21	-0.03439248
138	0x3c5305ab	0.012879769
139	0xbc652723	-0.013986382
140	0xbce5643d	-0.028001899
141	0xbd24c30e	-0.04022508
142	0xba6d281f	-0.0009046811
143	0xbbb6fc52	-0.005584278
144	0x3c1a57f7	0.0094203865
145	0xbd33baa3	-0.043879163
146	0x3d2f3f1b	0.04278479
147	0x39d13c1f	0.0003990838
148	0x3c4fdae5	0.012686466
149	0xbc686295	-0.01418366
150	0x3d2fa047	0.04287746
151	0xbd1fa1b6	-0.03897258
152	0xbbccbf9b	-0.006248427
153	0xb88ea998	-6.802677e-05
154	0xbd913cd5	-0.07091681
155	0x3d4c03f3	0.049808454
156	0x3cae9a1f	0.021313725
157	0x3c56c191	0.013107673
158	0x3c6c6e76	0.014430633
159	0x3b905664	0.00440483
160	0xbd6c211a	-0.057648756
161	0xbbcea64f	-0.0063064466
162	0x3d3adb8b	0.04561953
163	0x3d96aa35	0.07356683
164	0xbc865106	-0.016396057
165	0x3da3df1c	0.08001539
166	0xbd420eeb	-0.047377508
167	0xbc177291	-0.009243623
168	0x3ce87fd1	0.02838126
169	0x3d47b4b9	0.048756335
170	0xbcf482b0	-0.029847473
171	0x3d27f00c	0.04100041
172	0xbcd52a40	-0.026021123
173	0x3d857bf3	0.06517782
174	0xbcf91c2a	-0.030408937
175	0xbcf6ffd1	-0.03015128
176	0xbae45c85	-0.0017422593
177	0x3cb344fe	0.021883484
178	0xbd3d2669	-0.04617921
179	0x3d1ec2c0	0.038759947
180	0xbc9a7e38	-0.018859014
181	0x3c924b99	0.017858313
182	0x3c865b53	0.016400969
183	0xbc3e7802	-0.011625292
184	0xbd4539ee	-0.04815095
185	0xbcca704d	-0.024711752
186	0xbd8c9429	-0.06864197
187	0x3c8533a6	0.01625998
188	0xbd88211c	-0.0664694
189	0xba359f46	-0.00069283356
190	0x3ce4aba0	0.027913868
191	0xb9f2582d	-0.00046223533
192	0x3bfbd7a4	0.0076856185
193	0xbd9a35e0	-0.07529807
194	0xbd44a2f1	-0.048006956
195	0x3c5a07af	0.013307496
196	0x38437f9c	4.661047e-05
197	0x3d0ecac4	0.03486134
198	0x3baa135d	0.0051902966
199	0xbca7af30	-0.020469278
200	0x3c4f9851	0.012670592
201	0x3d51edf5	0.051252324
202	0x3ae60a6b	0.0017550712
203	0xbd81d6aa	-0.06339772
204	0x3c4994a0	0.012303501
205	0x3d0caebe	0.034346335
206	0xbbd5b4a2	-0.0065217772
207	0x3d54a045	0.051910657
208	0xbd052d71	-0.03251404
209	0x3cf882fb	0.030335894
210	0x3d1a11bf	0.03761458
211	0x3d0d2bc6	0.034465574
212	0x3ba3cf81	0.0049991016
213	0xbca556e8	-0.020183042
214	0xbd044a79	-0.032297585
215	0x3c52818e	0.012848271
216	0xbd48ec4c	-0.049053475
217	0x3d31aa6a	0.04337541
218	0xbca86680	-0.020556688
219	0x3c854a9c	0.016270928
220	0x3d1ebde8	0.038755327
221	0x3d5783fb	0.0526161
222	0x3d343022	0.043991216
223	0x3d3eb97f	0.04656362
224	0xbdc3202e	-0.09527622
225	0x3bd890e3	0.0066090687
226	0xbc48929c	-0.012241986
227	0xbc344159	-0.011001908
228	0x3d0f284f	0.03495055
229	0xbd55a0ec	-0.05215542
230	0x3cb25926	0.021771025
231	0x3d5a9967	0.053368952
232	0x3cf5a9bf	0.029988168
233	0xbcd076d6	-0.02544729
234	0xbc13f1d8	-0.009029828
235	0x3dbc2db3	0.09188404
236	0xbcfc7dad	-0.030821646
237	0x3d72a008	0.05923465
238	0x3dc4a3d3	0.096015595
239	0xbd0e4e5a	-0.03474269
240	0xbd53628f	-0.051607665
241	0x3d812ee7	0.06307774
242	0xbc8c6a92	-0.01714066
243	0xbcd65899	-0.026165294
244	0xbb96ea7e	-0.0046055904
245	0x3d5ace83	0.0534196
246	0xbceb68f6	-0.028736573
247	0xbcb3be37	-0.021941287
248	0xbd932e31	-0.07186545
249	0xbc20d53a	-0.009816462
250	0xbc3dcff6	-0.011585226
251	0x3af17a93	0.0018423371
252	0xbc7d280c	-0.015451442
253	0x3d46a4c6	0.048496984
254	0xbd5c1331	-0.05372924
255	0xbc793124	-0.01520947

conv_layers.3.bias f4 [64]
0	0xbe46782c	-0.1938178
1	0xb9c7a035	-0.000380756
2	0x3d5222b1	0.051302616
3	0xbdb7beef	-0.089719646
4	0xbd0b4eee	-0.03401082
5	0x3cedf861	0.0290491
6	0xbd4b02db	-0.04956327
7	0xbbdeb36c	-0.006796291
8	0x3d46f482	0.048573025
9	0xbe220ced	-0.15825243
10	0xbd318772	-0.04334206
11	0x3d279693	0.040915083
12	0x3cb12947	0.021626128
13	0xbd290260	-0.04126203
14	0x3d31f791	0.04344899
15	0xbc246a60	-0.010035127
16	0xbdbe4c53	-0.092919014
17	0xbd8c20cf	-0.06842195
18	0xbdf9ce6c	-0.12197575
19	0xbd93acdc	-0.07210705
20	0xbd03d0a1	-0.032181386
21	0x3b99d266	0.004694271
22	0xbcc7146e	-0.024301734
23	0x3cad66e1	0.02116722
24	0xbd017cf9	-0.031613324
25	0x3a00bf92	0.00049113587
26	0x3d93de27	0.072201066
27	0xb99b7e44	-0.0002965798
28	0xbd9a8153	-0.07544198
29	0x3c833a37	0.01601897
30	0xbd3f559b	-0.0467125
31	0x3c8b4cc7	0.017004384
32	0x3dbfb2f2	0.09360303
33	0xbd05c2d7	-0.032656517
34	0xbc9656e7	-0.018351985
35	0x3d71a2d5	0.05899318
36	0xbb104af1	-0.0022017325
37	0xbcd357ef	-0.025798766
38	0x3d71f4e6	0.059071444
39	0xbd9b80c2	-0.07592918
40	0x3db82d21	0.08992983
41	0x3b6c23a7	0.0036031993
42	0x3ce1dcda	0.02757113
43	0x3d56b724	0.05242075
44	0x3d5652d8	0.0523251
45	0xbdb5d16c	-0.08877835
46	0x3d9d6969	0.07686121
47	0x3bea8ed5	0.00715814
48	0x3d4b2d08	0.049603492
49	0x3cda26c0	0.026629806
50	0xbdb2f595	-0.08738247
51	0xbd803f64	-0.06262091
52	0xbc9b4f53	-0.018958723
53	0xbe0f1b01	-0.13975145
54	0x3d0dfd75	0.034665544
55	0xbcac6263	-0.021043008
56	0xbcb2c113	-0.02182058
57	0xbd3cc6a0	-0.04608786
58	0x3d0aafce	0.033859067
59	0xbd6d380b	-0.057914775
60	0xb997c0dd	-0.0002894466
61	0xbc3dacbd	-0.011576829
62	0x3d63cba7	0.05561414
63	0xbc3395ff	-0.010961055

fc1.weight f4 [64, 256]
0	0xbd26a1a2	-0.04068149
1	0x3c5b8ac7	0.013399786
2	0xbc514e8e	-0.012775077
3	0xbc22e7c8	-0.009942956
4	0xbd836e80	-0.064175606
5	0x3cae0ab0	0.02124533
6	0x3d571794	0.05251272
7	0xbbb9ae52	-0.0056665326
8	0xbd1bb67e	-0.038015835
9	0xbc4b235c	-0.012398567
10	0xbcdb8706	-0.026797783
11	0xbd6707ee	-0.056404047
12	0xbaa9f7bf	-0.0012967511
13	0xbd5e0da8	-0.054212242
14	0x3d1375c1	0.03600097
15	0xbd29a6af	-0.041418727
16	0xbd437962	-0.04772318
17	0xbcaa3db0	-0.020781368
18	0x391e87b1	0.00015118603
19	0x3b9e8d6f	0.0048386375
20	0xbb994052	-0.004676857
21	0x3ca2f7ef	0.019893615
22	0x3ba6dc53	0.0050921827
23	0xbd8e5b0a	-0.06950958
24	0x3c197377	0.009365908
25	0xbd5b5b65	-0.053553957
26	0x3d3c4d1b	0.04597197
27	0xbd1518dc	-0.03640066
28	0x3cb1c148	0.021698609
29	0x3c2731e3	0.010204765
30	0xbd783fa9	-0.060607586
31	0xbc22ac87	-0.009928829
32	0xbd2642b3	-0.040590953
33	0xbc57f4fe	-0.013180969
34	0xbd8de38c	-0.06928167
35	0x3ce8b626	0.028407168
36	0xbb2716a4	-0.0025495673
37	0xbd981a68	-0.074269116
38	0xbd8259f3	-0.06364813
39	0x3cda9ff8	0.026687607
40	0xbb0c3e9d	-0.0021399625
41	0xbc09a8b6	-0.00840204
42	0x3d6c1d1e	0.057644956
43	0xbcc68822	-0.024234835
44	0xbd20a199	-0.03921661
45	0xbcec118f	-0.028816966
46	0x3c8b0450	0.01696983
47	0xbcbf99d9	-0.02338879
48	0xbda312a5	-0.079625405
49	0xba2af234	-0.00065210764
50	0xbccd11ff	-0.025032995
51	0xbd20792c	-0.03917806
52	0xbd102225	-0.035188813
53	0x3cb6518d	0.022255683
54	0x3d36c2ce	0.044619374
55	0xbcdd0eab	-0.026984533
56	0xbc82e2f3	-0.015977358
57	0x3d437766	0.04772129
58	0x3c7ba27e	0.015358565
59	0x3c8dfa00	0.017331123
60	0x3be82023	0.007083909
61	0xbd94758a	-0.07248981
62	0xbcdd50ea	-0.027016122
63	0x3cd0b8a7	0.025478674
64	0xbd02ac3f	-0.031902548
65	0x3c546ffa	0.01296615
66	0x3d15e072	0.036591
67	0xbd63b5c0	-0.055593252
68	0xbc005a74	-0.007834066
69	0x3ccc25ff	0.024920462
70	0xbd64759e	-0.05577623
71	0x3c24476d	0.010026795
72	0xbc60f1e6	-0.013729548
73	0xbd154ae6	-0.03644838
74	0xbcb5f835	-0.02221308
75	0xbd1db1f4	-0.038499787
76	0x3ae405b3	0.0017396718
77	0x3d178c66	0.03699913
78	0xbcde29be	-0.027119514
79	0x3d0a07eb	0.033698957
80	0x3cfa6ca2	0.030569378
81	0xbd21802b	-0.03942887
82	0x3be10fd9	0.0068683443
83	0xbd486023	-0.048919808
84	0xbc70836e	-0.014679773
85	0x3d09dd64	0.0336584
86	0x3c2bb64f	0.0104804775
87	0x3c400fbc	0.011722501
88	0xbccd8e80	-0.025092363
89	0x3c3410a8	0.010990299
90	0x3cdd93fd	0.027048105
91	0xbd4624c5	-0.04837491
92	0xba5ef10c	-0.0008504547
93	0xbd7c78bf	-0.06163859
94	0xbc6edf3e	-0.014579592
95	0x3d674f21	0.056471948
96	0x3ceecbf6	0.02914999
97	0x3d54d5ed	0.051961828
98	0xbd31bea8	-0.043394715
99	0xbc208067	-0.0097962385
100	0x3c93ce84	0.01804281
101	0xbd1addb5	-0.037809093
102	0x3cad2b44	0.021138795
103	0x3bf416f0	0.0074490234
104	0x3c38ecc8	0.011286922
105	0x3d4c5fd6	0.049896084
106	0xbd972597	-0.073802166
107	0xbd6cce07	-0.05781367
108	0x3af552a8	0.001871665
109	0xbc645c7d	-0.013938067
110	0xbd3d9dba	-0.046292998
111	0xbca09fb6	-0.019607406
112	0xbba6edad	-0.005094251
113	0x3c7b2992	0.015329735
114	0x3c39de4e	0.0113445055
115	0xb9083960	-0.00012991345
116	0xbd815987	-0.06315904
117	0x3c57127f	0.013126968
118	0xbcca34f5	-0.024683455
119	0xbbaed0ba	-0.0053349407
120	0xbcc133b4	-0.023584224
121	0xbd3283ba	-0.043582655
122	0x3c8827aa	0.016620476
123	0x3cd1a96f	0.025593488
124	0xbd1e2b01	-0.03861523
125	0xbd61ed87	-0.055158164
126	0x3be20586	0.006897631
127	0xbca6fcf7	-0.020384295
128	0xbd7f1cac	-0.062283203
129	0x3d2a44d7	0.041569557
130	0xbbcb825a	-0.0062106075
131	0x3cc134c9	0.02358474
132	0xbd5a7f74	-0.053344205
133	0xbd80d64b	-0.06290873
134	0xbcb92001	-0.022598268
135	0x3d22c11b	0.03973494
136	0x3cb23ae0	0.02175659
137	0xbd42b5c5	-0.04753663
138	0x3bb0a8b9	0.005391207
139	0x3c0e9735	0.008703043
140	0xbd9ad5c7	-0.07560306
141	0xbc2da6cb	-0.010598849
142	0x3af1baff	0.001844257
143	0xbca64e61	-0.020301046
144	0x3d3805c5	0.044927377
145	0x3d4391cb	0.04774646
146	0x3d2b554f	0.041829403
147	0x3d04937f	0.032367226
148	0xbbaabbcc	-0.0052103754
149	0x3b383549	0.0028107932
150	0xbd757383	-0.059924614
151	0xbd076762	-0.033057578
152	0xbd66e279	-0.056368325
153	0x3c3a61a8	0.011375822
154	0xbcbcbac8	-0.023038283
155	0xbb80806a	-0.003921558
156	0xbc943b29	-0.018094616
157	0xbd842ecc	-0.06454238
158	0x3d0df820	0.03466046
159	0xbd420d90	-0.047376215
160	0x3d480e04	0.04884149
161	0x3d20309a	0.03910885
162	0xbd0243bf	-0.03180289
163	0xbcb83909	-0.022488134
164	0xbd2b9a1b	-0.041895013
165	0xbd65fb1a	-0.056147672
166	0xbc33199d	-0.0109314
167	0xbd811e71	-0.06304634
168	0x3d28f7f3	0.041252088
169	0x3c175285	0.009235983
170	0xbd5482e4	-0.05188264
171	0xbca87f4c	-0.020568512
172	0xbd23c4e9	-0.03998271
173	0xbc86be11	-0.016448053
174	0xbd6a3f0e	-0.05718904
175	0x3d6f59ee	0.058435373
176	0xbcd75183	-0.026283985
177	0x3bb10aeb	0.005402913
178	0xbcb54a16	-0.022130053
179	0x3d089a92	0.033350535
180	0x3c2368c6	0.00997371
181	0xbc9e4b98	-0.019323155
182	0x3cff1c6d	0.031141484
183	0xbd3f3bec	-0.046688005
184	0xbd1c9e78	-0.038237065
185	0xbd89f429	-0.06736023
186	0xbcc47f0e	-0.023986366
187	0xbd85ef3b	-0.0653977
188	0xbd93a7bc	-0.07209727
189	0x3bfea404	0.007771017
190	0xbb431f04	-0.0029773125
191	0x3bb23c6d	0.005439332
192	0x3c8b59bf	0.017010568
193	0xbd00007c	-0.031250462
194	0xbdaa55f4	-0.083171755
195	0xbd13d49c	-0.036091432
196	0xbd0ea07a	-0.03482101
197	0xbd72814b	-0.059205335
198	0xbc66e3d2	-0.0140924025
199	0xb9f57621	-0.00046818054
200	0x3c10bedc	0.008834567
201	0xbd815ed9	-0.06316919
202	0xbb921f55	-0.0044593015
203	0x3d1b37d7	0.03789505
204	0x3d45156f	0.048116144
205	0xbd81beff	-0.06335258
206	0xbcacf315	-0.021112004
207	0x3bd61c43	0.006534131
208	0xbbea4d85	-0.0071503543
209	0x3a2a9acb	0.00065080513
210	0x3b9cd600	0.004786253
211	0x3d520140	0.051270723
212	0x3bd2567a	0.006419
213	0xbdb1fd61	-0.08690906
214	0x39c0fab2	0.00036807876
215	0xbd8a5333	-0.0675415
216	0x3c4bc874	0.0124379285
217	0xbb94bd49	-0.004539166
218	0xbced9943	-0.029003745
219	0xbd0effef	-0.034912046
220	0x3d16cb30	0.03681487
221	0x3c0db32d	0.008648676
222	0x3d4c6f26	0.049910687
223	0xbc6e876c	-0.014558654
224	0x3c6fe9de	0.014643161
225	0x3d23f9e3	0.040033232
226	0xbcd87207	-0.02642156
227	0xbd2ea3cd	-0.04263668
228	0xbd37d1bd	-0.044877756
229	0x3bdc7549	0.0067278487
230	0xbd9b0e0d	-0.07571039
231	0x3c65bb5b	0.01402172
232	0xbcbd468d	-0.02310493
233	0x3c2af769	0.010434964
234	0xbd371f5d	-0.044707645
235	0xbccde0a9	-0.02513154
236	0xbd0cb5a0	-0.0343529
237	0xbcc2d9d7	-0.023785515
238	0x3b9844e4	0.0046468843
239	0xbd46ac6e	-0.048504286
240	0x3ccbb841	0.024868133
241	0xbd23fe0e	-0.040037207
242	0xba189f5f	-0.0005822088
243	0xbd37cd80	-0.044873714
244	0xbd374fc3	-0.0447538
245	0xbd10997e	-0.03530263
246	0x3ce00b83	0.02734924
247	0x3d55802d	0.05212419
248	0xbcb8d055	-0.022560278
249	0xbce35e22	-0.027754847
250	0xbd383331	-0.044970695
251	0xbd7867e6	-0.06064596
252	0x3d555d65	0.05209102
253	0xbd282ec9	-0.041060243
254	0x3d1d9ca2	0.038479455
255	0x3bb50ec8	0.0055254437

fc1.bias f4 [64]
0	0xbd4c5def	-0.04989427
1	0xbd745e69	-0.05966035
2	0x3c784e3c	0.015155371
3	0x3d126cb4	0.0357482
4	0x3d42d9c6	0.047570966
5	0x3cf2908a	0.029609937
6	0x3db39c47	0.08770042
7	0x3de6cd58	0.11269635
8	0x3bafd364	0.005365776
9	0x3d9275a0	0.071513414
10	0x3cb2c4b7	0.021822317
11	0x3d8959c4	0.067065746
12	0xbd576a10	-0.052591383
13	0x3d3795ec	0.04482071
14	0x3c9f3eaa	0.01943906
15	0x3d23acc8	0.0399597
16	0xbc950804	-0.018192299
17	0x3bf95e85	0.0076101446
18	0x3d475d15	0.048672754
19	0x3dbc8f6a	0.092070416
20	0xbb0f9dba	-0.002191408
21	0x3cabcaa7	0.020970656
22	0x3ddca80f	0.10774242
23	0x3d03f322	0.03221429
24	0xbd5f6feb	-0.054550093
25	0x3d52981d	0.051414598
26	0x3a8abc0e	0.0010584609
27	0x3ca68b41	0.020330073
28	0x3dc9055c	0.09815475
29	0xbd3463dc	-0.044040546
30	0xbd6de6d9	-0.05808148
31	0x3c4134ac	0.011792343
32	0xbc2d4396	-0.010575196
33	0x3e01f0c9	0.12689508
34	0xbdafd816	-0.08586137
35	0x3d903e4a	0.07043131
36	0xbc6bcf79	-0.014392727
37	0xbd1c61a8	-0.03817907
38	0x3d92f94c	0.07176456
39	0xbc21f8bb	-0.009885962
40	0x3c4f9045	0.012668674
41	0xbc3fa7f6	-0.01169776
42	0x3af1485a	0.0018408403
43	0x3bcc1267	0.0062277797
44	0x3e135501	0.14387895
45	0xbd781d11	-0.060574595
46	0xbce8121c	-0.028328948
47	0x3dec2bb4	0.11531773
48	0x3dd276e7	0.10276585
49	0xbd8ca482	-0.06867315
50	0x3cd16935	0.025562862
51	0xbd92ebae	-0.071738586
52	0x3cd8c171	0.026459428
53	0x3d4b7790	0.04967457
54	0x3c90b1da	0.017662931
55	0x3d587271	0.052843515
56	0x3cf5a663	0.029986566
57	0x3dc940f0	0.09826839
58	0xbd68a455	-0.056797344
59	0x3d4c72e0	0.04991424
60	0x3d36483a	0.044502474
61	0x3cd70d2d	0.0262514
62	0xbd690a9c	-0.056894884
63	0xbc2dd583	-0.010609987

batch_norm.weight f4 [64]
0	0x3f7780bf	0.96680826
1	0x3f7e0f23	0.99241847
2	0x3f7e766f	0.99399465
3	0x3fdf1285	1.7427527
4	0x3fdb5fb4	1.7138581
5	0x3fe701a5	1.8047377
6	0x3fde1f9f	1.73534
7	0x3fdef7d8	1.7419386
8	0x3f77f938	0.9686465
9	0x3fd80cee	1.6878946
10	0x3f7be481	0.98395544
11	0x3fe8b80c	1.8181167
12	0x3f7e5e1c	0.9936235
13	0x3fe37c3e	1.7772291
14	0x3f7d26c8	0.988873
15	0x3f7e766f	0.99399465
16	0x3f7e4327	0.99321216
17	0x3f7e758e	0.99398124
18	0x3fe292f7	1.77011
19	0x3fcb3a09	1.5877086
20	0x3fe688de	1.8010519
21	0x3fcf6f60	1.6205864
22	0x3fd79ebd	1.6845318
23	0x3f7b38ab	0.98133343
24	0x3f7da8bf	0.9908561
25	0x3fdd62ac	1.7295737
26	0x3f7d83ab	0.99029034
27	0x3f788c0e	0.97088706
28	0x3fd43516	1.65787
29	0x3f800000	1.0
30	0x3f7e4fec	0.993407
31	0x3f7ddd75	0.9916604
32	0x3fee3940	1.8611221
33	0x3fd1a69c	1.637897
34	0x3f7893e7	0.9710068
35	0x3fd6f55c	1.6793628
36	0x3fe05e5f	1.75288
37	0x3f7e766d	0.99399453
38	0x3fc58cb3	1.5433563
39	0x3f7b0b20	0.9806385
40	0x3f809bbc	1.0047526
41	0x3fd93a40	1.6970901
42	0x3fd03e2e	1.6268976
43	0x3fdec72c	1.7404532
44	0x3fcafadc	1.5857806
45	0x3f7c8709	0.9864355
46	0x3f800000	1.0
47	0x3fd7d116	1.6860683
48	0x3fe905a6	1.8204849
49	0x3f7c9616	0.9866651
50	0x3f7de138	0.9917178
51	0x3f7cfb9e	0.9882144
52	0x3f7e31da	0.9929482
53	0x3f800000	1.0
54	0x3f7d1ef2	0.98875344
55	0x3fcb82de	1.5899312
56	0x3f7e8019	0.9941421
57	0x3fdb0b56	1.7112834
58	0x3f7ae710	0.98008823
59	0x3fd7edb6	1.6869419
60	0x3fe2cdbd	1.7719036
61	0x3f7e7672	0.99399483
62	0x3f7d08a7	0.9884133
63	0x3f7e2e59	0.9928947

batch_norm.bias f4 [64]
0	0x3dce4e73	0.10073557
1	0xbe1bd7ac	-0.15218991
2	0xbe39cc9b	-0.18144457
3	0xbce16e0b	-0.027518293
4	0xbe749247	-0.23883925
5	0xbbc1eae2	-0.005917893
6	0xbd8d2daa	-0.06893475
7	0xbabec53d	-0.0014554631
8	0xbe0828c5	-0.13296802
9	0x3da37588	0.07981402
10	0x3e42d6da	0.19027272
11	0x3e0fc9d8	0.14041841
12	0x3def51f6	0.11685555
13	0x3d6765f1	0.056493703
14	0xbdf97aa0	-0.12181592
15	0xbe425271	-0.18976761
16	0xbe2b1a85	-0.16709335
17	0x3e1bca97	0.15214
18	0xbe223aec	-0.1584279
19	0x3e035fcc	0.12829512
20	0x3c8286f1	0.015933486
21	0x3d8e2bf1	0.06941975
22	0x3d098ee6	0.033583544
23	0xbe1e97a3	-0.15487532
24	0x3e000242	0.12500861
25	0x3db34e6c	0.08755192
26	0x3e2a1b30	0.16611934
27	0xbe355795	-0.17709191
28	0xbe89f1ac	-0.26942194
29	0xbe1630d7	-0.14667068
30	0xbe16c915	-0.14725144
31	0xbe43754d	-0.19087715
32	0xbd51fcec	-0.051266596
33	0xbd79eca0	-0.06101668
34	0xbe21a02d	-0.15783758
35	0x3aca2a2f	0.0015423949
36	0xbe73c633	-0.23806076
37	0x3e25d8d3	0.16195993
38	0xbd26ff05	-0.04077055
39	0x3a00c4ac	0.0004912119
40	0xbe2374da	-0.15962544
41	0xbd805196	-0.06265561
42	0xbe152a8d	-0.14567013
43	0xbd4c4b8b	-0.04987673
44	0xbe09f8e7	-0.13473855
45	0xbe0e6035	-0.13903888
46	0x3df1df16	0.118101284
47	0x3c2a73c4	0.010403577
48	0xbceeafa2	-0.029136483
49	0xbdb51d79	-0.08843512
50	0xbde60cd1	-0.11232913
51	0x3e216e27	0.15764676
52	0x3e1eca0e	0.15506765
53	0x3dd2473a	0.10267492
54	0xbe143c4d	-0.14476128
55	0x3dd24482	0.10266973
56	0xbe092252	-0.13391998
57	0x3dd148ef	0.10218989
58	0x3e3e52a8	0.18586218
59	0x3d38c35c	0.045108184
60	0x3dc2529d	0.094884135
61	0x3e084fb5	0.13311656
62	0x3e4e1fcb	0.20129316
63	0x3dfe3a07	0.124134116

batch_norm.running_mean f4 [64]
0	0x1fd94fdc	9.203519e-20
1	0x00000004	6e-45
2	0x00000004	6e-45
3	0x4056f5cd	3.3587525
4	0x3f818148	1.0117579
5	0x40a24236	5.0705824
6	0x382c0736	4.101471e-05
7	0x3f96541a	1.1744416
8	0x00000004	6e-45
9	0x3ff5e85d	1.9211537
10	0x00000004	6e-45
11	0x39363ce2	0.00017379553
12	0x00000004	6e-45
13	0x40d1d951	6.557778
14	0x00000004	6e-45
15	0x00000004	6e-45
16	0x00000004	6e-45
17	0x00000004	6e-45
18	0x3fa8af8e	1.3178575
19	0x40005afa	2.0055528
20	0x3fd6a9ed	1.6770607
21	0x4044bc36	3.0739875
22	0x3f928060	1.1445427
23	0x00000004	6e-45
24	0x00000004	6e-45
25	0x3fb6f8dd	1.4294697
26	0x00000004	6e-45
27	0x00000004	6e-45
28	0x3fbf8d8c	1.4965072
29	0x00000000	0.0
30	0x00000004	6e-45
31	0x00000004	6e-45
32	0x4060affa	3.5107408
33	0x3fe5639a	1.7921021
34	0x166fa964	1.9359717e-25
35	0x4075d040	3.8408356
36	0x404baea7	3.182535
37	0x00000004	6e-45
38	0x40882e60	4.255661
39	0x00000004	6e-45
40	0x01325f43	3.2761784e-38
41	0x400c5f7f	2.1933286
42	0x3855196c	5.0806833e-05
43	0x3fe0ec36	1.7572086
44	0x405b0074	3.4219027
45	0x00000004	6e-45
46	0x00000000	0.0
47	0x3f8f54b0	1.119772
48	0x3fbeb242	1.489815
49	0x00000004	6e-45
50	0x00000004	6e-45
51	0x00000004	6e-45
52	0x00000004	6e-45
53	0x00000000	0.0
54	0x00000004	6e-45
55	0x40301dfa	2.7518296
56	0x00000004	6e-45
57	0x4070337c	3.7531424
58	0x00000004	6e-45
59	0x3fee0913	1.8596519
60	0x4034c6b6	2.8246284
61	0x00000004	6e-45
62	0x00000004	6e-45
63	0x00000004	6e-45

batch_norm.running_var f4 [64]
0	0x1dfac1d4	6.6374863e-21
1	0x00000004	6e-45
2	0x00000004	6e-45
3	0x3f8f67fc	1.1203609
4	0x3f3afbc6	0.73040426
5	0x3f95cd39	1.1703254
6	0x37c01201	2.2896567e-05
7	0x3f9e4700	1.2365417
8	0x00000004	6e-45
9	0x3fb37244	1.4019246
10	0x00000004	6e-45
11	0x3873270f	5.797209e-05
12	0x00000004	6e-45
13	0x408fb02e	4.4902563
14	0x00000004	6e-45
15	0x00000004	6e-45
16	0x00000004	6e-45
17	0x00000004	6e-45
18	0x3fc205a4	1.5157971
19	0x4002f5df	2.0462568
20	0x3fd90b81	1.6956636
21	0x3fcd9c62	1.6063349
22	0x3fa801e1	1.3125573
23	0x00000004	6e-45
24	0x00000004	6e-45
25	0x3fb2d99e	1.3972661
26	0x00000004	6e-45
27	0x00000004	6e-45
28	0x3fe939ea	1.8220799
29	0x00000004	6e-45
30	0x00000004	6e-45
31	0x00000004	6e-45
32	0x4007ff70	2.1249657
33	0x3f9af42c	1.2105765
34	0x161e2b29	1.2776757e-25
35	0x3fe98439	1.8243476
36	0x3f853594	1.0406976
37	0x00000004	6e-45
38	0x3f736508	0.95076036
39	0x00000004	6e-45
40	0x007edb1e	1.1649877e-38
41	0x3f385938	0.72011137
42	0x38010149	3.0757194e-05
43	0x3fa6ed68	1.3041201
44	0x402b2908	2.6743793
45	0x00000004	6e-45
46	0x00000004	6e-45
47	0x3f62ba6a	0.88565695
48	0x3f9f99be	1.2468793
49	0x00000004	6e-45
50	0x00000004	6e-45
51	0x00000004	6e-45
52	0x00000004	6e-45
53	0x00000004	6e-45
54	0x00000004	6e-45
55	0x404b8479	3.1799605
56	0x00000004	6e-45
57	0x3fc408fc	1.5315242
58	0x00000004	6e-45
59	0x3f8aa542	1.0831683
60	0x3fd586de	1.6681783
61	0x00000004	6e-45
62	0x00000004	6e-45
63	0x00000004	6e-45
