models/サザンオールスターズ/classifier_fold4.pth (torch, 991011 bytes, 16 tensors)

conv_layers.0.weight f4 [64, 256, 2]
0.009528441 0.064223744 -0.0037329523 0.040768173 -0.021579832 -0.045108918 -0.08356345 0.050438553
-0.029305078 -0.031647217 -0.10999257 -0.10459021 -0.006959806 0.0067616785 0.046756037 -0.045965873
0.102778286 0.04310017 0.0008397064 0.020892495 0.029139772 -0.025370372 -0.106519744 -0.058869906
0.047026824 -0.019741116 0.007074217 0.016215658 0.00049904996 0.002101342 0.0050694523 0.0026837536
0.07795071 0.0887327 -0.033534206 -1.0582482e-05 -0.054445006 0.0064920243 -0.058394317 -0.032010857
0.050577503 -0.027770862 -0.023736667 -0.03994315 0.052943897 -0.0058256206 0.031295512 0.03074502
0.03449924 0.07810988 0.11242766 0.018980864 0.010038975 -0.032036267 0.039456826 -0.017302632
-0.0025791372 -0.013122848 -0.11682592 0.004404471 -0.01927813 0.0487741 0.005510045 -0.06080539
0.06564406 0.084526815 0.011678673 0.07138079 -0.044209678 0.010415988 0.014120199 0.073827796
0.015077602 -0.0535976 0.00032105146 -0.041258156 0.05382808 -0.0053780847 0.03249224 -0.008496583
-0.08216036 0.062024117 0.017379425 -0.026312793 -0.011755462 0.035064697 -0.08325154 -0.054273576
-0.09611221 0.021047128 0.038528137 0.017668271 -0.0065028258 -0.06425733 0.0027024592 -0.014201586
0.0145428665 -0.007243481 -0.11055921 0.019579152 0.05218955 -0.04399047 -0.017014828 -0.05032832
-0.045605645 0.011017371 -0.026460877 -0.033284876 0.005986765 -0.051330518 -0.056799456 -0.036736257
0.032414228 -0.04241462 0.063718595 0.0024495486 -0.059458595 -0.018460752 0.0399972 -0.008687071
0.049503047 0.03356932 -0.09181267 -0.107176036 -0.021044374 0.048015345 0.05413882 0.0033210753
-0.03563012 -0.06645767 0.0023268915 0.0043582977 0.009400586 -0.0606564 0.015919529 -0.030942649
0.04037326 -0.07905963 -0.0479215 0.060712278 0.07437686 -0.06940105 0.034070417 0.0020891086
-0.028065559 -0.016410094 0.0054702307 0.0026978408 -0.06370436 -0.023909431 -0.05975942 0.01888488
0.010430993 0.013189158 -0.03785617 0.08778054 -0.013482394 -0.0670611 0.0012058894 0.0295135
0.02071332 -0.036710434 -0.044609647 -0.052999 0.028389517 0.04160578 0.016872557 -0.017024951
-0.07559713 0.033910085 0.0152595015 0.030748237 -0.051131144 -0.009832816 0.011327294 -0.02608965
-0.009347665 -0.02674631 0.094885975 -0.032591734 0.07684232 0.07452064 -0.03131243 -0.029078053
-0.028953988 -0.036572304 0.061003633 0.021740701 0.023763452 -0.02873645 -0.05718928 -0.10360669
-0.071913 -0.0051440666 -0.013035287 0.045097157 0.024403183 -0.024670538 -0.0013978302 0.007912609
0.019009478 -0.05631855 0.053371403 -0.07172595 -0.0034206344 0.023498174 0.043695282 0.075328395
0.0022437978 -0.034790445 -0.038081527 0.054666393 -0.08062588 0.0023497904 0.045215573 -0.027204517
-0.06347403 0.030640041 0.07659969 -0.017830579 -0.0066275205 0.018518193 0.009763343 0.027810704
-0.11740826 -0.02411203 0.048771888 0.0031183283 0.0019290296 -0.029456297 0.029362956 0.00065212423
0.06543069 0.014263401 0.06532156 -0.034924276 0.0142437285 0.038939733 0.07222648 -0.011288163
-0.093738176 0.019777149 0.04979104 0.050593995 0.049641825 0.07623548 0.14841318 -0.037579853
0.02202905 0.020177174 -0.031590026 -0.044856686 -0.04054529 -0.028728854 0.034717612 0.033894263
00000000: 2e1d 1c3c bd87 833d 8ca4 74bb 87fc 263d
00000010: 30c8 b0bc 21c4 38bd 5023 abbd a898 4e3d
00000020: 3411 f0bc 83a0 01bd c943 e1bd 6433 d6bd
00000030: 160f e4bb 1291 dd3b 4283 3f3d b646 3cbd
00000040: 6c7d d23d ce89 303d be1f 5c3a bd26 ab3c
00000050: 88b6 ee3c 87d5 cfbc 0627 dabd 9221 71bd
00000060: 339f 403d 1fb8 a1bc d5ce e73b b3d6 843c
00000070: add2 023a abb6 093b a61d a63b eae1 2f3b
00000080: 9fa4 9f3d 7db9 b53d 2a5b 09bd 6a8b 31b7
00000090: ba01 5fbd 0cbb d43b e12e 6fbd d11d 03bd
000000a0: 5b2a 4f3d b87f e3bc 6673 c2bc 6e9b 23bd
000000b0: b3db 583d d9e4 bebb b92f 003d fbdc fb3c
000000c0: 134f 0d3d 13f8 9f3d 7940 e63d c27d 9b3c
000000d0: 837a 243c 7638 03bd 7b9d 213d 40be 8dbc
000000e0: be06 29bb 3701 57bc 6e42 efbd 6153 903b
000000f0: 2bed 9dbc 5ac7 473d 9c8d b43b 130f 79bd
00000100: 6570 863d 651c ad3d e857 3f3c 1730 923d
00000110: 3515 35bd d2a7 2a3c 6858 673c 0733 973d
00000120: 0c08 773c 2889 5bbd cc52 a839 50fe 28bd
00000130: d57a 5c3d a53a b0bb 9516 053d 4135 0bbc
00000140: b143 a8bd 000d 7e3d 4c5f 8e3c ed8d d7bc
00000150: fb99 40bc 00a0 0f3d c97f aabd f84d 5ebd
00000160: 7ad6 c4bd 076b ac3c aecf 1d3d 0dbd 903c
00000170: a815 d5bb 5999 83bd be1b 313b c5ad 68bc
00000180: 3445 6e3c b95a edbb de6c e2bd 7564 a03c
00000190: b6c4 553d 5a2f 34bd ae62 8bbc 1225 4ebd
000001a0: fccc 3abd 3482 343c 7bc4 d8bc b955 08bd
000001b0: a02c c43b f33f 52bd 8ca6 68bd c278 16bd
000001c0: c8c4 043d f4ba 2dbd e57e 823d 9b88 203b
000001d0: db8a 73bd 013b 97bc 1bd4 233d 3754 0ebc
000001e0: b5c3 4a3d fc7f 093d 4808 bcbd 1c7f dbbd
000001f0: 4065 acbc bdab 443d abc0 5d3d 66a6 593b
00000200: e4f0 11bd f51a 88bd c37e 183b 0dd0 8e3b
00000210: ea04 1a3c d872 78bd ac69 823c 707b fdbc
00000220: 6e5e 253d 04ea a1bd 5649 44bd 70ad 783d
00000230: e552 983d 2322 8ebd 6c8d 0b3d 6de9 083b
00000240: bee9 e5bc 766e 86bc 9f3f b33b 42ce 303b
00000250: 6e77 82bd b6dd c3bc 4bc6 74bd 77b4 9a3c
00000260: c1e6 2a3c 5717 583c 120f 1bbd 49c6 b33d
00000270: 42e5 5cbc 5457 89bd ef0e 9e3a 4cc6 f13c
00000280: fbae a93c ae5d 16bd 9bb8 36bd 7b15 59bd
00000290: 2291 e83c d36a 2a3d 5138 8a3c e977 8bbc
000002a0: abd2 9abd 4de5 0a3d fd02 7a3c bae3 fb3c
000002b0: e46e 51bd d219 21bc 1d96 393c f6b9 d5bc
000002c0: f326 19bc 141b dbbc 9453 c23d e97e 05bd
000002d0: 825f 9d3d 479e 983d 7641 00bd 1935 eebc
000002e0: ea30 edbc d7cc 15bd f2de 793d 8e19 b23c
000002f0: 92ab c23c b468 ebbc 4e3f 6abd bf2f d4bd
00000300: 1f47 93bd 8f8f a8bb f591 55bc ccb7 383d
00000310: 2fe9 c73c de19 cabc 6637 b7ba e3a3 013c
00000320: c4b9 9b3c 48ae 66bd f99b 5a3d 0ee5 92bd
00000330: b92c 60bb 3e7f c03c d3f9 323d c645 9a3d
00000340: ae0c 133b 6d80 0ebd 60fb 1bbd dee9 5f3d
00000350: 2e1f a5bd f1fe 193b f733 393d 02dc debc
00000360: acfe 81bd d300 fb3c 4ce0 9c3d 6f11 92bc
00000370: ac2b d9bb 77b3 973c 6ef6 1f3c 46d3 e33c
00000380: be73 f0bd 9886 c5bc 08c5 473d de5c 4c3b
00000390: 7ed7 fc3a 554e f1bc 958a f03c 51f3 2a3a
000003a0: 8700 863d 0ab1 693c 4fc7 853d c20c 0fbd
000003b0: 875e 693c 457f 1f3d 7aeb 933d fdf1 38bc
000003c0: cdf9 bfbd b003 a23c b1f1 4b3d a63b 4f3d
000003d0: 3a55 4b3d 5921 9c3d a0f9 173e 55ed 19bd
000003e0: 4476 b43c 9a4a a53c 8b64 01bd a5bb 37bd
000003f0: d112 26bd c658 ebbc 0e34 0e3d b6d4 0a3d

conv_layers.0.bias f4 [64]
-0.023015512 0.08872436 -0.03125261 -0.05022646 0.09238205 0.049075592 -0.060144298 -0.0102947205
-0.07313273 -0.12733023 0.057603586 0.05368349 0.03309885 0.01599672 -0.0083227195 -0.030143792
-0.010287247 0.044143517 0.09740012 -0.030227568 0.009358687 0.11962997 0.011360237 0.009838607
0.086083435 -0.05421336 0.046655416 -0.02097372 -0.07263077 -0.006473153 -0.008976982 0.043041714
-0.10186388 0.10327646 -0.07268934 0.04112716 0.07987927 -0.007996693 -0.04283254 0.10052207
-0.017500952 -0.07553361 0.009267268 -0.035212677 0.024316153 -0.00060938613 -0.029968042 0.017932922
-0.060789887 0.009186517 0.049174212 0.015493913 -0.06776289 0.011069086 0.026258972 0.037289605
-0.04117558 -0.03765837 0.09874478 0.045757577 0.020127079 -0.13570884 -0.01250489 -0.04619398
00000000: 078b bcbc 1eb5 b53d bd02 00bd 43ba 4dbd
00000010: cd32 bd3d 7d03 493d de59 76bd 30ab 28bc
00000020: 9dc6 95bd db62 02be bdf1 6b3d 38e3 5b3d
00000030: a992 073d 8e0b 833c 045c 08bc 1df0 f6bc
00000040: d78b 28bc d5cf 343d b779 c73d ce9f f7bc
00000050: 2e55 193c 8f00 f53d 4a20 3a3c 1c32 213c
00000060: 834c b03d d40e 5ebd c019 3f3d 14d1 abbc
00000070: 71bf 94bd be1c d4bb 3114 13bc 824c 303d
00000080: 039e d0bd 9c82 d33d 26de 94bd f474 283d
00000090: be97 a33d 9004 03bc 2c71 2fbd 84de cd3d
000000a0: 285e 8fbc 5eb1 9abd bdd5 173c 2b3b 10bd
000000b0: ab32 c73c 36bf 1fba 8a7f f5bc 10e8 923c
000000c0: d1fe 78bd 0c83 163c e66a 493d 2eda 7d3c
000000d0: 45c7 8abd 1d5b 353c 0e1d d73c fcbc 183d
000000e0: baa7 28bd aa3f 1abd b43a ca3d 4c6c 3b3d
000000f0: 8be1 a43c 42f7 0abe 4fe1 4cbc e635 3dbd

conv_layers.1.weight f4 [64, 256, 3]
-0.031003581 0.0027175474 0.031049324 0.04316637 0.07282513 0.019615835 -0.0717494 0.047345165
0.03461421 0.058113452 0.0004379773 -0.039400496 -0.025058817 -0.03755762 0.07725175 0.09885722
-0.0066517484 0.021228656 -0.046091475 -0.025751956 0.053894572 -0.022708794 0.017705938 0.02315238
0.026756005 -0.08433199 -0.037524432 0.06854114 0.026830439 -0.02836312 -0.057834774 -0.11848497
-0.05113707 0.021122145 -0.031530757 0.040914927 -0.0030624538 0.030382829 0.08492975 0.07913955
0.01781017 -0.04468396 0.0051228157 0.024279935 -0.017886696 0.023346748 0.05729587 -0.023413802
0.009739214 -0.04325962 0.024260353 0.049304772 -0.021933217 0.03628746 -0.0006434347 -0.041187298
-0.042550776 0.025154728 0.02954906 0.06067235 -0.052491743 0.149414 0.11000936 0.03137637
-0.043487545 0.0032211419 0.044746585 -0.029970681 0.042345382 -0.048650414 0.034604136 -0.01267483
-0.060735244 0.04293839 -0.015135887 0.0005783075 0.0168323 0.0010038313 -0.07433051 -0.032834508
-0.012579067 0.06835152 0.018522331 -0.0550576 -0.027658518 -0.009403232 -0.068115294 0.009709747
0.011282891 -0.07115403 -0.004147633 0.019905116 -0.03583724 -0.01498942 0.037618283 -0.006479541
-0.21950532 -0.006706506 -0.06144365 0.04893916 0.035303738 -0.041543007 0.0045339647 -0.032390796
-0.01341965 -0.02605335 0.08494197 0.058083717 -0.024243867 -0.025881654 -0.031858094 0.004374638
-0.0127883395 0.0046390337 -0.040047947 0.1064444 0.06463653 -0.007223761 -0.026404064 -0.029916277
0.0990359 -0.0648683 0.008885563 0.0070179063 -0.017890379 -0.035964064 0.07027823 0.009028461
-0.051904738 -0.022156456 -0.03151392 0.018960202 -0.104365885 0.0036314605 -0.05888987 0.004111478
0.030218035 -0.043909933 0.04956194 0.030992307 0.039112117 0.03740043 0.08726384 -0.014304561
-0.030745573 0.0061966497 -0.03483897 0.061797723 0.011246308 -0.07275185 -0.046423774 0.12912314
-0.0029180516 0.02115187 -0.029837621 -0.013094451 0.006254153 -0.063360445 0.017429411 -0.05087644
-0.05654241 -0.090916224 -0.0042100116 0.015649982 0.059644654 -0.072639704 0.00050850457 -0.049065113
0.01497663 -0.02336419 0.060031995 -0.039768495 -0.038595315 0.011897672 0.07591797 0.002468863
0.011523904 0.10627678 -0.063787706 -0.0015766878 0.009813722 -0.0022797745 -0.04711231 0.07097412
-0.11167021 -0.009572177 -0.042156193 -0.019109504 -0.020496085 0.00061643706 -0.052199937 -0.0024012323
0.018862573 -0.026957601 -0.009239318 0.0776561 0.025849242 0.031144984 -0.007195132 0.001627934
-0.051801223 -0.10392288 0.04027104 -0.02949796 -0.017917965 0.063820444 0.09663782 0.018706094
-0.04287387 -0.11179533 0.008197886 -0.049198188 -0.053295214 0.100333095 -0.02873497 0.012500451
0.012500712 -0.04894378 0.048918203 0.07930634 0.031144476 -0.049511842 -0.005519466 -0.035808332
-0.047267023 -0.02726698 0.0032156873 -0.028561516 -0.005169242 0.059476715 0.04380955 0.056528423
0.005316798 -0.018498344 -0.040078886 0.031348012 -0.033504136 0.014609418 0.052943207 -0.018692797
0.031746436 -0.0051166397 -0.0763789 0.018665776 -0.050896917 0.045279235 -0.035929795 0.016600722
-0.0054087564 -0.053297892 0.11102605 0.015218349 0.02012529 -0.021453142 0.08506094 0.0077496623
00000000: 39fb fdbc e118 323b 275b fe3c 38cf 303d
00000010: 5725 953d 63b1 a03c 59f1 92bd 01ed 413d
00000020: a1c7 0d3d 5f08 6e3d 51a0 e539 6a62 21bd
00000030: 2648 cdbc 05d6 19bd 2a36 9e3d a775 ca3d
00000040: e9f6 d9bb b8e7 ad3c 6aca 3cbd c4f5 d2bc
00000050: 8ec0 5c3d cb07 babc 0b0c 913c 0faa bd3c
00000060: 692f db3c 40b6 acbd 38b3 19bd 4c5f 8c3d
00000070: 82cb db3c c659 e8bc 28e4 6cbd 3fa8 f2bd
00000080: 1b75 51bd 5908 ad3c 6526 01bd 6996 273d
00000090: 73b3 48bb 69e5 f83c a6ef ad3d eb13 a23d
000000a0: a2e6 913c 8706 37bd 4bdd a73b b7e6 c63c
000000b0: 1f87 92bc ae41 bf3c 13af 6a3d 4dce bfbc
000000c0: 3991 1f3c 0031 31bd a6bd c63c cdf3 493d
000000d0: 4aad b3bc 29a2 143d 2cac 28ba 03b4 28bd
000000e0: b949 2ebd 4a11 ce3c df10 f23c 9283 783d
000000f0: 9501 57bd fcff 183e 964c e13d 8284 003d
00000100: ff1f 32bd cb19 533b 3248 373d 1385 f5bc
00000110: 5a72 2d3d a845 47bd 11bd 0d3d 17aa 4fbc
00000120: 85c5 78bd 2ae0 2f3d 83fc 77bc 8f99 173a
00000130: e4e3 893c fd92 833a 983a 98bd 7a7d 06bd
00000140: 6e18 4ebc e2fb 8b3d 25bc 973c 1484 61bd
00000150: 1e94 e2bc 0310 1abc 0880 8bbd a115 1f3c
00000160: e0db 383c 34b9 91bd dee8 87bb 0e10 a33c
00000170: 12ca 12bd 2f96 75bc a115 1a3d 5452 d4bb
00000180: 01c6 60be 40c2 dbbb 56ac 7bbd 6e74 483d
00000190: a79a 103d 0029 2abd a791 943b 36ac 04bd
000001a0: 17de 5bbc d66d d5bc 0ef6 ad3d 31e9 6d3d
000001b0: 139b c6bc c305 d4bc a27d 02bd 2059 8f3b
000001c0: 2f86 51bc 0903 983b 5109 24bd 86ff d93d
000001d0: 2860 843d 4db5 ecbb 564d d8bc fb12 f5bc
000001e0: 55d3 ca3d acd9 84bd c194 113c 77f6 e53b
000001f0: d88e 92bc 0e4f 13bd 08ee 8f3d 1cec 133c
00000200: 109a 54bd 7581 b5bc bd14 01bd 6d52 9b3c
00000210: c8bd d5bd ccfd 6d3b 8136 71bd 94b9 863b
00000220: d08b f73c e7da 33bd 7601 4b3d 94e3 fd3c
00000230: 0734 203d 3131 193d 62b7 b23d ad5d 6abc
00000240: 24de fbbc 440d cb3b 4fb3 0ebd 9c1f 7d3d
00000250: 6f42 383c ecfe 94bd db26 3ebd db38 043e
00000260: c83c 3fbb b046 ad3c 076e f4bc 1c8a 56bc
00000270: a3ef cc3b 1fc3 81bd 20c8 8e3c d063 50bd
00000280: 0499 67bd 4932 babd 23f4 89bb 6434 803c
00000290: f44d 743d 20c4 94bd 2a4d 053a 80f8 48bd
000002a0: 8a60 753c 4266 bfbc 1ce4 753d 4ae4 22bd
000002b0: 1f16 1ebd 74ee 423c e17a 9b3d a6cc 213b
000002c0: c2ce 3c3c a4a7 d93d 21a3 82bd dda8 ceba
000002d0: bcc9 203c 4568 15bb d6f8 40bd e15a 913d
000002e0: 5ab3 e4bd 9fd4 1cbc f9ab 2cbd 898b 9cbc
000002f0: 68e7 a7bc 6498 213a 9acf 55bd fe5d 1dbb
00000300: af85 9a3c 30d6 dcbc 8260 17bc 290a 9f3d
00000310: cac1 d33c c423 ff3c 24c5 ebbb 6760 d53a
00000320: 852d 54bd 85d5 d4bd 3ff3 243d b5a5 f1bc
00000330: b2c8 92bc 4bb4 823d 0dea c53d 863d 993c
00000340: 839c 2fbd f3f4 e4bd 6d50 063c 0a84 49bd
00000350: 154c 5abd 707b cd3d 9a65 ebbc b1ce 4c3c
00000360: c9cf 4c3c 4679 48bd 745e 483d 5d6b a23d
00000370: b322 ff3c eecc 4abd a3dc b4bb c2ab 12bd
00000380: 119b 41bd 005f dfbc 48be 523b d7f9 e9bc
00000390: bf62 a9bb db9d 733d a571 333d 598a 673d
000003a0: 8938 ae3b d789 97bc c229 24bd c666 003d
000003b0: a23b 09bd 575c 6f3c fada 583d a321 99bc
000003c0: 8d08 023d 7ca9 a7bb 8a6c 9cbd f8e8 983c
000003d0: 4979 50bd b876 393d 1f2b 13bd 3dfe 873c
000003e0: f03b b1bb e44e 5abd a061 e33d 6256 793c
000003f0: cbdd a43c 80be afbc 6e34 ae3d e1f0 fd3b

conv_layers.1.bias f4 [64]
-0.14117889 -0.018046012 -0.06574031 0.00097149285 0.024064532 0.040587403 0.07988853 0.09578039
0.00019347924 0.008585036 -0.0018504058 0.082618505 0.00165237 -0.05220991 -0.092900515 -0.05030531
-0.06887922 0.02524367 -0.0038026336 -0.08124651 0.012086635 0.0034120015 0.11846271 -0.059897125
0.09334486 0.02359748 0.05410874 -0.0093591055 0.069011256 0.019910732 -0.048853725 0.016829273
0.034490753 0.034908853 -0.032403614 0.009820829 -0.046892844 0.061179556 0.039916713 -3.6314716e-05
-0.04937581 0.012883842 0.04225666 0.010845781 0.047297824 -0.023505438 -0.0077870246 0.034239877
-0.024155462 0.031350836 0.063783385 -0.009181172 0.015072227 -0.011974239 0.01104214 0.025454417
0.082915254 0.03515911 -0.048145223 -0.07165024 0.06180888 0.028869672 -0.050993886 -0.08922148
00000000: 3391 10be 3bd5 93bc dba2 86bd c8ab 7e3a
00000010: fb22 c53c fa3e 263d 999c a33d 8228 c43d
00000020: b0e0 4a39 40a8 0c3c 5189 f2ba e433 a93d
00000030: 5694 d83a 0fda 55bd a042 bebd f10c 4ebd
00000040: 8c10 8dbd d0cb ce3c 9b35 79bb 9264 a6bd
00000050: 0607 463c e39b 5f3b 949c f23d b056 75bd
00000060: 972b bf3d 814f c13c 20a1 5d3d ef56 19bc
00000070: c655 8d3d d51b a33c d81a 48bd 8bdd 893c
00000080: 2d46 0d3d 96fc 0e3d a7b9 04bd 8be7 203c
00000090: b612 40bd 6a97 7a3d b57f 233d a150 18b8
000000a0: 4a3e 4abd c016 533c 5215 2d3d 81b2 313c
000000b0: 5dbb 413d 7a8e c0bc 4c2a ffbb 1d3f 0c3d
000000c0: ade1 c5bc bc69 003d dda0 823d a06c 16bc
000000d0: 81f1 763c 992f 44bc 18ea 343c c885 d03c
000000e0: 79cf a93d 0003 103d ed33 45bd 5cbd 92bd
000000f0: 4f2b 7d3d 1780 ec3c f7de 50bd c0b9 b6bd

conv_layers.2.weight f4 [64, 256, 4]
0.04308131 -0.07441579 0.0027306334 0.0046783662 -0.05329386 0.20161241 0.06058675 -0.0030826984
-0.0628843 0.028938055 0.0037837431 0.019587072 0.078490034 -0.04774923 -0.020729262 -0.03467126
-0.048491668 0.00017199988 -0.080098696 -0.048515737 -0.027548626 -0.00287743 -0.053264685 -0.03521997
0.055719826 0.016709894 0.030892862 -0.0054844944 0.09168436 0.058285847 0.033975534 -0.028971666
0.043030746 -0.01955151 -0.059062965 -0.026379703 0.0015381961 0.029546184 -0.03016721 0.036278397
0.0834819 0.015011425 0.0022725777 -0.0754892 -0.049159806 -0.019158209 0.012166952 0.012044258
0.01287469 0.06317811 -0.06750475 0.033840436 -0.042730797 0.031100364 0.071830854 -0.017826665
-0.05477363 0.0040062023 0.015258807 -0.064533316 0.00161763 -0.0039051513 0.027176475 0.014571174
-0.0526176 0.026516903 0.048210625 0.031512443 0.023088153 -0.045447383 -0.028180933 0.019397954
-0.017941754 0.0112223765 -0.043266293 0.013271399 -0.03383269 0.034513604 -0.042051096 0.03644631
-0.09063368 0.0074977046 -0.020192213 0.042364165 -0.02110986 -0.056565013 0.07552686 0.03950987
-0.053837724 0.05130812 -0.059421174 0.03604926 0.021998527 0.0628607 -0.0942984 -0.02030879
-0.02247148 -0.030380985 -0.031501103 0.10208749 0.03897104 -0.013419284 0.032123417 0.021923736
0.011700107 -0.08268722 -0.041813634 0.023911087 0.008107122 -0.077166796 -0.051541258 0.077172436
-0.09919475 -0.002216006 -0.052137908 0.0037930445 -0.0066830358 -0.029809915 -0.07635221 0.06927455
0.054031126 -0.076330796 0.06830655 -0.066240996 -0.026714806 -0.03405591 0.054965444 -0.030646324
0.04327138 -0.033384673 -0.041290313 0.03875194 -0.00408443 0.012257859 0.03523844 0.0044536125
0.02945869 -0.035828102 -0.0158851 -0.010545543 0.014794168 -0.026393548 0.10292862 -0.03023291
-0.03729442 0.058639146 0.03896262 -0.09176547 -0.062423598 0.07206367 -0.012426243 -0.09333659
-0.02905516 0.053665623 0.06892422 0.061379235 0.011091157 0.050176248 -0.09400497 0.011635446
0.018000105 0.008751535 0.055081874 0.019534051 -0.06492505 -0.10661926 0.07753094 -0.028229555
-0.055472296 0.018451108 -0.005874488 -0.027773416 -0.02446105 -0.014756629 -0.0051305727 0.022967085
0.057385206 0.01517315 0.011302747 0.015336882 -0.033643022 -0.016128736 0.08303328 -0.02012941
-0.027396515 0.052069284 -0.007643892 0.0050411713 -0.040395256 -0.0016954534 0.1031369 -0.016492777
-0.059652455 0.009014869 -0.031406913 0.009764381 0.039132778 0.0006509863 0.036603544 0.049849827
0.07648192 -0.09245961 -0.09667397 0.08769857 0.04696471 -0.0074235997 -0.013255577 0.057141304
0.03315918 0.073220216 -0.009675021 -0.09272869 0.03712085 -0.112413764 0.02680532 -0.04937201
-0.02050848 -0.04841331 -0.020342005 -0.016829504 -0.00019967441 -0.038265914 -0.017633531 0.059623655
-0.0012123245 0.015137914 -0.060163554 -0.011127104 -0.06689935 -0.019428184 0.04801678 0.023707591
0.071181625 0.03632225 -0.047014005 0.06794079 0.045653492 -0.032988753 0.09122096 -0.06656236
-0.05167268 -0.011926717 -0.029160798 -0.059733912 0.0015595405 0.033488065 -0.03753094 0.0034604543
0.016701229 0.0033721128 0.09629423 0.03184536 -0.012156503 0.019434389 0.048214506 0.049125206
00000000: 0776 303d 4e67 98bd 6df4 323b fb4c 993b
00000010: aa4a 5abd 7c73 4e3e d029 783d 1907 4abb
00000020: 7cc9 80bd 800f ed3c adf8 773b 1175 a03c
00000030: 62bf a03d b294 43bd 6ad0 a9bc 7303 0ebd
00000040: 339f 46bd de5a 3439 c90a a4bd 70b8 46bd
00000050: a8ad e1bc 4493 3cbb 122c 5abd d142 10bd
00000060: 793a 643d 30e3 883c 0713 fd3c 46b7 b3bb
00000070: 02c5 bb3d 24bd 6e3d ee29 0b3d fd55 edbc
00000080: 0241 303d 7d2a a0bc 02ec 71bd 3f1a d8bc
00000090: 4c9d c93a d70a f23c 3a21 f7bc a898 143d
000000a0: 8ff8 aa3d 7bf2 753c 87ef 143b 159a 9abd
000000b0: cb5b 49bd adf1 9cbc e557 473c 4855 453c
000000c0: 5df0 523c 8663 813d ee3f 8abd 459c 0a3d
000000d0: 7d06 2fbd 31c6 fe3c 0e1c 933d 3a09 92bc
000000e0: 505a 60bd 7646 833b 1300 7a3c 0b2a 84bd
000000f0: a806 d43a 91ed 7fbb 33a1 de3c efbb 6e3c
00000100: 8d85 57bd fa39 d93c 8178 453d 3113 013d
00000110: 5e23 bd3c 0927 3abd b3db e6bc 75e8 9e3c
00000120: 96fa 92bc 0fde 373c ff37 31bd 4870 593c
00000130: 2694 0abd 235e 0d3d c53d 2cbd ba48 153d
00000140: 279e b9bd 4eaf f53b 246a a5bc 0c86 2d3d
00000150: 96ee acbc b7b0 67bd d4ad 9a3d 1ad5 213d
00000160: f284 5cbd 7728 523d 9e63 73bd 64a8 133d
00000170: 4136 b43c 1cbd 803d 851f c1bd 9f5e a6bc
00000180: 1c16 b8bc 8be1 f8bc 4d07 01bd 3f13 d13d
00000190: 19a0 1f3d 8edc 5bbc d893 033d 6899 b33c
000001a0: ceb1 3f3c eb57 a9bd c644 2bbd 2fe1 c33c
000001b0: bcd3 043c a009 9ebd ed1c 53bd 950c 9e3d
000001c0: 9e26 cbbd 693a 11bb 8f8e 55bd ba94 783b
000001d0: 5efd dabb ec33 f4bc 8c5e 9cbd d1df 8d3d
000001e0: be4f 5d3d 5253 9cbd 4ee4 8b3d 5ca9 87bd
000001f0: 02d9 dabc 367e 0bbd 7223 613d 000e fbbc
00000200: 553d 313d 5ebe 08bd 0820 29bd 5bba 1e3d
00000210: afd6 85bb 30d5 483c 2f56 103d 9cef 913b
00000220: 5a53 f13c 7dc0 12bd 7821 82bc 37c7 2cbc
00000230: 3d63 723c 4837 d8bc 3ecc d23d 02ab f7bc
00000240: 09c2 18bd 9a2f 703d 4597 1f3d 89ef bbbd
00000250: e3af 7fbd 1e96 933d 7197 4bbc 4127 bfbd
00000260: 1605 eebc 7cd0 5b3d 2428 8d3d cb68 7b3d
00000270: afb7 353c 9c85 4d3d ad85 c0bd 99a2 3e3c
00000280: f574 933c 9962 0f3c 889d 613d e005 a03c
00000290: 6df7 84bd 335b dabd 8bc8 9e3d ab41 e7bc
000002a0: eb36 63bd c726 973c c77e c0bb 1385 e3bc
000002b0: 8a62 c8bc cac5 71bc 5d1e a8bb 7825 bc3c
000002c0: c00c 6b3d ce98 783c 282f 393c 8c47 7b3c
000002d0: 44cd 09bd 6920 84bc 5a0d aa3d 6fe6 a4bc
000002e0: a86e e0bc 9a46 553d 9d79 fabb 6930 a53b
000002f0: 7f75 25bd fa39 deba 7039 d33d dc1b 87bc
00000300: 2256 74bd 1ab3 133c 89a4 00bd c8fa 1f3c
00000310: b149 203d f3a6 2a3a 99ed 153d 552f 4c3d
00000320: 8ea2 9c3d 775b bdbd 01fd c5bd 4f9b b33d
00000330: 115e 403d ab41 f3bb eb2d 59bc 000d 6a3d
00000340: ecd1 073d 7bf4 953d fb83 1ebc 8ae8 bdbd
00000350: 080c 183d 3039 e6bd d596 db3c 4e3a 4abd
00000360: 6601 a8bc 094d 46bd 47a4 a6bc 07de 89bc
00000370: b15f 51b9 b8bc 1cbd 3274 90bc ef37 743d
00000380: dce6 9eba 0305 783c 0f6e 76bd 754e 36bc
00000390: 8702 89bd db27 9fbc 3ead 443d 6c36 c23c
000003a0: acc7 913d a4c6 143d c291 40bd 8a24 8b3d
000003b0: 28ff 3a3d 371f 07bd 0ed2 ba3d d951 88bd
000003c0: bba6 53bd 4768 43bc a0e2 eebc 8cab 74bd
000003d0: 7f69 cc3a c82a 093d 0bba 19bd cac8 623b
000003e0: 04d1 883c aafe 5c3b e935 c53d 4870 023d
000003f0: 122c 47bc de34 9f3c 937c 453d 8337 493d

conv_layers.2.bias f4 [64]
-0.08987766 0.006536847 0.034670815 0.07025069 -0.06472782 -0.11738737 -0.094716355 0.021518344
0.05672498 -0.009866101 0.11173216 -0.10289626 0.016541393 -0.10065973 -0.026041452 0.017742058
-0.041968323 0.033923093 -0.08318135 0.00029086394 -0.05848024 -0.084814735 0.0478468 0.08335204
0.057810854 -0.033029333 -0.09783684 0.03622528 -0.032604873 0.011660636 -0.09308963 0.061265916
0.07189246 0.004609837 -0.11240382 -0.055438597 0.004438653 -0.0133471405 -0.03898295 -0.014365009
-0.08405535 0.083371565 0.023345057 0.017295122 0.051580418 -0.038611855 -0.110167615 -0.13320012
0.08993725 -0.028690401 -0.06366303 -0.028722314 -0.0043721255 0.0073976703 0.044587094 0.07105432
0.051205568 0.019807134 -0.02873126 0.02273884 -0.009296763 -0.0436335 0.023249697 0.083283685
00000000: c711 b8bd 0c33 d63b fc02 0e3d 98df 8f3d
00000010: 0590 84bd ca68 f0bd a6fa c1bd 3d47 b03c
00000020: 7458 683d 6da5 21bc d5d3 e43d 46bb d2bd
00000030: d181 873c b026 cebd e254 d5bc cb57 913c
00000040: fae6 2bbd f1f2 0a3d fc5a aabd 197f 9839
00000050: fa88 6fbd 59b3 adbd 02fb 433d 79b4 aa3d
00000060: 13cb 6c3d c449 07bd ae5e c8bd f660 143d
00000070: b08c 05bd 410c 3f3c c7a5 bebd f8f1 7a3d
00000080: 5b3c 933d 1e0e 973b f933 e6bd 9513 63bd
00000090: 1f72 913b f7ad 5abc 96ac 1fbd 375b 6bbc
000000a0: 3625 acbd b6be aa3d 223e bf3c 80ae 8d3c
000000b0: fd45 533d 7727 1ebd 8f9f e1bd 9d65 08be
000000c0: 0531 b83d 2208 ebbc c361 82bd 0f4b ebbc
000000d0: 0c44 8fbb 2868 f23b f5a0 363d ed84 913d
000000e0: eebc 513d 9242 a23c d25d ebbc ce46 ba3c
000000f0: 7351 18bc 0ab9 32bd 2676 be3c a390 aa3d

conv_layers.3.weight f4 [64, 256, 5]
-0.021556297 -0.05585565 -7.717452e-05 -0.026489573 0.00800823 0.0024045946 0.016739236 -0.016736347
0.033702195 0.01777314 0.05206837 0.00986367 -0.058261987 0.03690462 -0.04507284 -0.015599802
-0.02467296 -0.013850015 0.0029857592 -0.034650084 -0.0024997771 0.014105235 -0.043879192 -0.02212523
-0.029862436 -0.035389792 0.014531837 0.07280186 -0.021773139 -0.029508188 0.028018111 0.01568588
0.08430438 0.008775926 -0.035147212 0.04519694 0.03664111 0.04466572 0.016645884 -0.054251324
-0.037774205 0.04755733 0.013487194 -0.08200586 0.037116095 0.0504388 -0.021454286 0.0067761936
0.05246801 -0.062244862 -0.06863006 0.030183403 -0.06529015 -0.005275965 -0.06711327 0.021340365
0.02523914 0.002814651 -0.02022938 -0.008439975 0.03113693 -0.0721703 0.059057556 -0.03170132
-0.052094895 -0.036355678 0.047715597 0.011374875 -0.0069564655 -0.044619657 0.016254399 0.06929478
-0.04698353 -0.07907803 -0.022144593 0.0074900417 0.035890114 -0.044340212 -0.090951614 -0.036304776
-0.018665202 -0.06791468 0.00034475885 0.0880865 -0.05142948 0.045325097 -0.028233442 -0.043584857
-0.0801199 0.009641847 0.048610117 -0.048882805 -0.03659326 0.029293498 0.051306434 0.04277232
0.002169488 -0.058064573 -0.0057867602 0.01334945 0.025389882 -0.04032119 -0.034594815 0.07023807
0.004453989 -0.06783143 -0.027980357 -0.063891105 0.0052334103 -0.079379104 -0.031109273 0.03043683
-0.044144202 -0.05108978 -0.04063091 0.04661384 0.036859833 0.0069372496 0.01737605 0.007870822
-0.045915645 -0.004326995 -0.04843965 0.027927175 -0.01590412 0.028434083 -0.0622425 0.01397707
0.023721527 -0.035499427 0.026450925 -0.012102435 -0.08259146 -0.002383044 -0.0443876 -0.034961965
-0.061717022 -0.05129523 0.011081131 -0.0058718086 -0.03889945 -0.04237732 0.008534505 0.0068412693
0.005105868 -0.05659028 0.066745676 0.010337592 0.0068085967 -0.011613142 0.05143546 -0.012362249
0.0021436992 0.009889919 -0.068551935 0.03696761 0.017933639 -0.0011109984 0.008455586 -0.010238623
-0.06059667 -0.0033509897 0.047155026 0.062417198 -0.024061467 0.06894053 -0.04767875 -0.0034808016
0.024597477 0.04338072 -0.03322758 0.025890982 -0.014219 0.066296004 -0.036474418 -0.017717194
-0.006166279 -0.016171414 -0.06696125 0.033029795 -0.016811438 0.019822061 0.017179627 0.009213133
-0.052063975 -0.028048217 -0.06625543 -0.0013898694 -0.08233818 -0.000633458 0.0489955 0.011713838
-0.0033568225 -0.07429546 -0.04488495 0.030223923 0.024705471 0.039890155 0.012285882 -0.027397638
0.008815739 0.053044427 0.009328379 -0.05278808 0.024192622 0.00039688783 -0.0051404457 0.06449889
-0.037536167 0.020975407 0.033651657 0.025646023 0.009788609 -0.0034110786 -0.02734321 0.024601884
-0.045305572 0.018237302 -0.041797176 0.011374853 0.049754985 0.05337672 0.04159529 0.036331195
-0.102107875 0.0044633877 -0.0384227 -0.025337266 0.018116722 -0.043707773 0.024380667 0.039731078
0.017889323 -0.0162955 -0.016050128 0.09369488 -0.023931518 0.066956006 0.09824639 -0.041638397
-0.032194603 0.054505534 -0.015276132 0.0005814994 0.0131231705 0.06080381 -0.025116988 -0.02515587
-0.063993216 -0.008808104 -0.0044178986 0.0010078574 -0.0038674783 0.05233276 -0.044097394 -0.015802387
00000000: d596 b0bc e5c8 64bd c1d8 a1b8 a900 d9bc
00000010: f334 033c 6796 1d3b b920 893c aa1a 89bc
00000020: 500b 0a3d fa98 913c a545 553d 3b9b 213c
00000030: 1fa4 6ebd 4c29 173d 4c9e 38bd 5096 7fbc
00000040: f31e cabc 2ceb 62bc baac 433b 3fed 0dbd
00000050: 4dd3 23bb a519 673c abba 33bd f83f b5bc
00000060: 11a2 f4bc e3f4 10bd f116 6e3c 2419 953d
00000070: 955d b2bc 28bb f1bc 3d86 e53c ad7f 803c
00000080: c6a7 ac3d e7c8 0f3c 86f6 0fbd 6d20 393d
00000090: fd14 163d 67f3 363d f35c 883c a336 5ebd
000000a0: 20b9 1abd 7acb 423d 64f9 5c3c b0f2 a7bd
000000b0: 0c07 183d ea98 4e3d e6c0 afbc d50a de3b
000000c0: b2e8 563d 78f4 7ebd eb8d 8cbd 2f43 f73c
000000d0: d8b6 85bd 01e2 acbb af72 89bd fdd1 ae3c
000000e0: 50c2 ce3c 0276 383b 16b8 a5bc d247 0abc
000000f0: e012 ff3c 06ce 93bd 56e6 713d 3ed9 01bd
00000100: 7561 55bd b1e9 14bd 6e71 433d af5d 3a3c
00000110: 10f3 e3bb 1ac3 36bd f227 853c 6cea 8d3d
00000120: cd71 40bd aaf3 a1bd 9468 b5bc 066f f53b
00000130: 8301 133d 159e 35bd d744 babd 51b4 14bd
00000140: c4e7 98bc da16 8bbd c0c0 b439 b266 b43d
00000150: b8a7 52bd cfa6 393d d249 e7bc 0986 32bd
00000160: e715 a4bd d6f8 1d3c 671b 473d 5639 48bd
00000170: d0e2 15bd ebf8 ef3c b226 523d 0732 2f3d
00000180: f82d 0e3b 1ed5 6dbd dd9e bdbb a7b7 5a3c
00000190: 71fe cf3c d527 25bd 4bb3 0dbd fad8 8f3d
000001a0: c5f2 913b 34eb 8abd 1037 e5bc 57d9 82bd
000001b0: 077d ab3b 8391 a2bd e0d8 febc a956 f93c
000001c0: 8dd0 34bd 8443 51bd 996c 26bd 27ee 3e3d
000001d0: 56fa 163d de51 e33b 3858 8e3c 9ff4 003c
000001e0: 0b12 3cbd 77c9 8dbb a868 46bd 88c7 e43c
000001f0: 5b49 82bc 98ee e83c fef1 7ebd 1500 653c
00000200: a653 c23c d967 11bd 9caf d83c 4b49 46bc
00000210: b625 a9bd d82c 1cbb c6cf 35bd 4734 0fbd
00000220: fdca 7cbd f21a 52bd a28d 353c 4d68 c0bb
00000230: 0855 1fbd d793 2dbd 4fd4 0b3c ba2c e03b
00000240: 204f a73b 36cb 67bd f5b1 883d 015f 293c
00000250: a61a df3b 0c45 3ebc fdad 523d 088b 4abc
00000260: 4e7d 0c3b 5409 223c f564 8cbd 596b 173d
00000270: 91e9 923c ec9e 91ba 4c89 0a3c e6bf 27bc
00000280: 3734 78bd 479c 5bbb a125 413d 2da9 7f3d
00000290: 8e1c c5bc b130 8d3d cb4a 43bd 291e 64bb
000002a0: a680 c93c fbaf 313d a519 08bd 5319 d43c
000002b0: cff6 68bc 33c6 873d 3366 15bd a623 91bc
000002c0: 7f0e cabb ea79 84bc fb22 89bd 404a 073d
000002d0: 24b8 89bc e061 a23c 4abc 8c3c aef2 163c
000002e0: 0941 55bd 60c5 e5bc edb0 87bd 472c b6ba
000002f0: eba0 a8bd a60e 26ba 81af 483d 66eb 3f3c
00000300: 23fe 5bbb 3828 98bd 48d9 37bd 2998 f73c
00000310: 2163 ca3c dc63 233d b94a 493c 0371 e0bc
00000320: e46f 103c 1d45 593d 0fd6 183c 5038 58bd
00000330: 9b2f c63c 6215 d039 2f71 a8bb fe17 843d
00000340: 86bf 19bd 9ed4 ab3c 52d6 093d 9c17 d23c
00000350: 6760 203c 678c 5fbb defe dfbc e489 c93c
00000360: 5692 39bd 6566 953c 8433 2bbd 975d 3a3c
00000370: e2cb 4b3d 8ca1 5a3d d35f 2a3d 05d0 143d
00000380: ef1d d1bd 9c41 923b 1f61 1dbd 1990 cfbc
00000390: 8569 943c ec06 33bd f7b9 c73c 0ebd 223d
000003a0: a18c 923c 247e 85bc 8f7b 83bc 1ae3 bf3d
000003b0: 080c c4bc 3b20 893d 6735 c93d 068d 2abd
000003c0: 7dde 03bd 3241 5f3d be48 7abc c46f 183a
000003d0: 9102 573c 6a0d 793d 24c2 cdbc af13 cebc
000003e0: e00e 83bd de4f 10bc 05c4 90bb 151a 843a
000003f0: 8575 7dbb e05a 563d 789f 34bd 0274 81bc

conv_layers.3.bias f4 [64]
-0.20110728 -0.024006652 0.04737673 -0.08723073 -0.0339372 0.014045763 -0.063690096 -0.004105374
0.03532884 -0.14867984 -0.03898388 0.03094675 0.01888102 -0.037020843 0.0396399 0.00646503
-0.09966923 -0.06875545 -0.13234033 -0.059962213 -0.039921798 -0.003356785 -0.02847466 0.016331028
-0.016267344 -0.0066601466 0.06858348 -0.009054389 -0.08937706 0.013824326 -0.03668431 0.0064992425
0.097253 -0.03536295 -0.0051819696 0.061403662 0.0120440535 -0.024094157 0.068200976 -0.07117638
0.10540757 0.005669772 0.015407997 0.051996585 0.05269124 -0.09165017 0.08728687 0.007858155
0.048319302 0.027240124 -0.06787549 -0.057948776 -0.03645618 -0.14309897 0.040123746 -0.019156981
-0.028342832 -0.038600095 0.042766504 -0.045776702 0.013312027 -0.0052076834 0.05242479 -0.008549182
00000000: 11ef 4dbe 99a9 c4bc 1a0e 423d 06a6 b2bd
00000010: bc01 0bbd 3320 663c f46f 82bd 6086 86bb
00000020: f9b4 103d 873f 18be 90ad 1fbd 0a84 fd3c
00000030: 5eac 9a3c 2ba3 17bd 735d 223d 9ad8 d33b
00000040: 621f ccbd a8cf 8cbd 3984 07be f09a 75bd
00000050: 0a85 23bd 82fd 5bbb b143 e9bc a6c8 853c
00000060: 1843 85bc 5c3d dabb 7f75 8c3d dc58 14bc
00000070: 520b b7bd 6d7f 623c 4942 16bd 99f7 d43b
00000080: 952c c73d bed8 10bd 83cd a9bb 6882 7b3d
00000090: 6c54 453c 1c61 c5bc f4ac 8b3d ecc4 91bd
000000a0: eddf d73d 7fc9 b93b d371 7c3c 5ffa 543d
000000b0: c5d2 573d 16b3 bbbd 75c3 b23d 7ebf 003c
000000c0: 76ea 453d ae26 df3c 4e02 8bbd b25b 6dbd
000000d0: 1353 15bd 8988 12be cc58 243d 1aef 9cbc
000000e0: 3a2f e8bc 221b 1ebd ee2b 2f3d 5a80 3bbd
000000f0: b01a 5a3c 37a5 aabb 60bb 563d de11 0cbc

fc1.weight f4 [64, 256]
-0.04068149 0.013399786 -0.012775077 -0.009942956 -0.064175606 0.02124533 0.05251272 -0.0056665326
-0.038015835 -0.012398567 -0.026797783 -0.056404047 -0.0012967511 -0.054212242 0.03600097 -0.041418727
-0.04772318 -0.020781368 0.00015118603 0.0048386375 -0.004676857 0.019893615 0.0050921827 -0.06950958
0.009365908 -0.053553957 0.04597197 -0.03640066 0.021698609 0.010204765 -0.060607586 -0.009928829
-0.040590953 -0.013180969 -0.06928167 0.028407168 -0.0025495673 -0.074269116 -0.06364813 0.026687607
-0.0021399625 -0.00840204 0.057644956 -0.024234835 -0.03921661 -0.028816966 0.01696983 -0.02338879
-0.079625405 -0.00065210764 -0.025032995 -0.03917806 -0.035188813 0.022255683 0.044619374 -0.026984533
-0.015977358 0.04772129 0.015358565 0.017331123 0.007083909 -0.07248981 -0.027016122 0.025478674
-0.031902548 0.01296615 0.036591 -0.055593252 -0.007834066 0.024920462 -0.05577623 0.010026795
-0.013729548 -0.03644838 -0.02221308 -0.038499787 0.0017396718 0.03699913 -0.027119514 0.033698957
0.030569378 -0.03942887 0.0068683443 -0.048919808 -0.014679773 0.0336584 0.0104804775 0.011722501
-0.025092363 0.010990299 0.027048105 -0.04837491 -0.0008504547 -0.06163859 -0.014579592 0.056471948
0.02914999 0.051961828 -0.043394715 -0.0097962385 0.01804281 -0.037809093 0.021138795 0.0074490234
0.011286922 0.049896084 -0.073802166 -0.05781367 0.001871665 -0.013938067 -0.046292998 -0.019607406
-0.005094251 0.015329735 0.0113445055 -0.00012991345 -0.06315904 0.013126968 -0.024683455 -0.0053349407
-0.023584224 -0.043582655 0.016620476 0.025593488 -0.03861523 -0.055158164 0.006897631 -0.020384295
-0.062283203 0.041569557 -0.0062106075 0.02358474 -0.053344205 -0.06290873 -0.022598268 0.03973494
0.02175659 -0.04753663 0.005391207 0.008703043 -0.07560306 -0.010598849 0.001844257 -0.020301046
0.044927377 0.04774646 0.041829403 0.032367226 -0.0052103754 0.0028107932 -0.059924614 -0.033057578
-0.056368325 0.011375822 -0.023038283 -0.003921558 -0.018094616 -0.06454238 0.03466046 -0.047376215
0.04884149 0.03910885 -0.03180289 -0.022488134 -0.041895013 -0.056147672 -0.0109314 -0.06304634
0.041252088 0.009235983 -0.05188264 -0.020568512 -0.03998271 -0.016448053 -0.05718904 0.058435373
-0.026283985 0.005402913 -0.022130053 0.033350535 0.00997371 -0.019323155 0.031141484 -0.046688005
-0.038237065 -0.06736023 -0.023986366 -0.0653977 -0.07209727 0.007771017 -0.0029773125 0.005439332
0.017010568 -0.031250462 -0.083171755 -0.036091432 -0.03482101 -0.059205335 -0.0140924025 -0.00046818054
0.008834567 -0.06316919 -0.0044593015 0.03789505 0.048116144 -0.06335258 -0.021112004 0.006534131
-0.0071503543 0.00065080513 0.004786253 0.051270723 0.006419 -0.08690906 0.00036807876 -0.0675415
0.0124379285 -0.004539166 -0.029003745 -0.034912046 0.03681487 0.008648676 0.049910687 -0.014558654
0.014643161 0.040033232 -0.02642156 -0.04263668 -0.044877756 0.0067278487 -0.07571039 0.01402172
-0.02310493 0.010434964 -0.044707645 -0.02513154 -0.0343529 -0.023785515 0.0046468843 -0.048504286
0.024868133 -0.040037207 -0.0005822088 -0.044873714 -0.0447538 -0.03530263 0.02734924 0.05212419
-0.022560278 -0.027754847 -0.044970695 -0.06064596 0.05209102 -0.041060243 0.038479455 0.0055254437
00000000: a2a1 26bd c78a 5b3c 8e4e 51bc c8e7 22bc
00000010: 806e 83bd b00a ae3c 9417 573d 52ae b9bb
00000020: 7eb6 1bbd 5c23 4bbc 0687 dbbc ee07 67bd
00000030: bff7 a9ba a80d 5ebd c175 133d afa6 29bd
00000040: 6279 43bd b03d aabc b187 1e39 6f8d 9e3b
00000050: 5240 99bb eff7 a23c 53dc a63b 0a5b 8ebd
00000060: 7773 193c 655b 5bbd 1b4d 3c3d dc18 15bd
00000070: 48c1 b13c e331 273c a93f 78bd 87ac 22bc
00000080: b342 26bd fef4 57bc 8ce3 8dbd 26b6 e83c
00000090: a416 27bb 681a 98bd f359 82bd f89f da3c
000000a0: 9d3e 0cbb b6a8 09bc 1e1d 6c3d 2288 c6bc
000000b0: 99a1 20bd 8f11 ecbc 5004 8b3c d999 bfbc
000000c0: a512 a3bd 34f2 2aba ff11 cdbc 2c79 20bd
000000d0: 2522 10bd 8d51 b63c cec2 363d ab0e ddbc
000000e0: f3e2 82bc 6677 433d 7ea2 7b3c 00fa 8d3c
000000f0: 2320 e83b 8a75 94bd ea50 ddbc a7b8 d03c
00000100: 3fac 02bd fa6f 543c 72e0 153d c0b5 63bd
00000110: 745a 00bc ff25 cc3c 9e75 64bd 6d47 243c
00000120: e6f1 60bc e64a 15bd 35f8 b5bc f4b1 1dbd
00000130: b305 e43a 668c 173d be29 debc eb07 0a3d
00000140: a26c fa3c 2b80 21bd d90f e13b 2360 48bd
00000150: 6e83 70bc 64dd 093d 4fb6 2b3c bc0f 403c
00000160: 808e cdbc a810 343c fd93 dd3c c524 46bd
00000170: 0cf1 5eba bf78 7cbd 3edf 6ebc 214f 673d
00000180: f6cb ee3c edd5 543d a8be 31bd 6780 20bc
00000190: 84ce 933c b5dd 1abd 442b ad3c f016 f43b
000001a0: c8ec 383c d65f 4c3d 9725 97bd 07ce 6cbd
000001b0: a852 f53a 7d5c 64bc ba9d 3dbd b69f a0bc
000001c0: aded a6bb 9229 7b3c 4ede 393c 6039 08b9
000001d0: 8759 81bd 7f12 573c f534 cabc bad0 aebb
000001e0: b433 c1bc ba83 32bd aa27 883c 6fa9 d13c
000001f0: 012b 1ebd 87ed 61bd 8605 e23b f7fc a6bc
00000200: ac1c 7fbd d744 2a3d 5a82 cbbb c934 c13c
00000210: 747f 5abd 4bd6 80bd 0120 b9bc 1bc1 223d
00000220: e03a b23c c5b5 42bd b9a8 b03b 3597 0e3c
00000230: c7d5 9abd cba6 2dbc ffba f13a 614e a6bc
00000240: c505 383d cb91 433d 4f55 2b3d 7f93 043d
00000250: ccbb aabb 4935 383b 8373 75bd 6267 07bd
00000260: 79e2 66bd a861 3a3c c8ba bcbc 6a80 80bb
00000270: 293b 94bc cc2e 84bd 20f8 0d3d 900d 42bd
00000280: 040e 483d 9a30 203d bf43 02bd 0939 b8bc
00000290: 1b9a 2bbd 1afb 65bd 9d19 33bc 711e 81bd
000002a0: f3f7 283d 8552 173c e482 54bd 4c7f a8bc
000002b0: e9c4 23bd 11be 86bc 0e3f 6abd ee59 6f3d
000002c0: 8351 d7bc eb0a b13b 164a b5bc 929a 083d
000002d0: c668 233c 984b 9ebc 6d1c ff3c ec3b 3fbd
000002e0: 789e 1cbd 29f4 89bd 0e7f c4bc 3bef 85bd
000002f0: bca7 93bd 04a4 fe3b 041f 43bb 6d3c b23b
00000300: bf59 8b3c 7c00 00bd f455 aabd 9cd4 13bd
00000310: 7aa0 0ebd 4b81 72bd d2e3 66bc 2176 f5b9
00000320: dcbe 103c d95e 81bd 551f 92bb d737 1b3d
00000330: 6f15 453d ffbe 81bd 15f3 acbc 431c d63b
00000340: 854d eabb cb9a 2a3a 00d6 9c3b 4001 523d
00000350: 7a56 d23b 61fd b1bd b2fa c039 3353 8abd
00000360: 74c8 4b3c 49bd 94bb 4399 edbc efff 0ebd
00000370: 30cb 163d 2db3 0d3c 266f 4c3d 6c87 6ebc
00000380: dee9 6f3c e3f9 233d 0772 d8bc cda3 2ebd
00000390: bdd1 37bd 4975 dc3b 0d0e 9bbd 5bbb 653c
000003a0: 8d46 bdbc 69f7 2a3c 5d1f 37bd a9e0 cdbc
000003b0: a0b5 0cbd d7d9 c2bc e444 983b 6eac 46bd
000003c0: 41b8 cb3c 0efe 23bd 5f9f 18ba 80cd 37bd
000003d0: c34f 37bd 7e99 10bd 830b e03c 2d80 553d
000003e0: 55d0 b8bc 225e e3bc 3133 38bd e667 78bd
000003f0: 655d 553d c92e 28bd a29c 1d3d c80e b53b

fc1.bias f4 [64]
-0.04989427 -0.05966035 0.015155371 0.021531375 0.05200953 0.031384423 0.105561554 0.10845048
0.005365776 0.07692983 0.021822317 0.08908247 -0.052591383 0.040755052 0.01943906 0.0399597
-0.018192299 0.0076101446 0.052512743 0.08766974 3.1264488e-05 0.006598688 0.124715924 0.037036836
-0.054550093 0.046270125 0.0010584609 0.020330073 0.110351294 -0.044040546 -0.05808148 0.011792343
-0.009016813 0.124918126 -0.08586137 0.09588221 -0.015821703 -0.03817907 0.06519921 -0.009885962
0.012668674 -0.015432501 0.0206733 0.009272618 0.13214275 -0.060574595 -0.028328948 0.10710094
0.08757919 -0.06867315 0.025562862 -0.071738586 0.026459428 0.04967457 0.017662931 0.048824534
0.029986566 0.11265889 -0.056797344 0.052104242 0.053242657 0.0262514 -0.056894884 -0.010609987
00000000: ef5d 4cbd 695e 74bd 3c4e 783c 9162 b03c
00000010: f207 553d f48c 003d a830 d83d 491b de3d
00000020: 64d3 af3b 638d 9d3d b7c4 b23c df70 b63d
00000030: 106a 57bd c5ee 263d aa3e 9f3c c8ac 233d
00000040: 0408 95bc 855e f93b 9a17 573d 318c b33d
00000050: fd21 0338 cf39 d83b 106b ff3d f0b3 173d
00000060: eb6f 5fbd be85 3d3d 0ebc 8a3a 418b a63c
00000070: dcff e13d dc63 34bd d9e6 6dbd ac34 413c
00000080: 41bb 13bc 13d5 ff3d 16d8 afbd e45d c43d
00000090: 849c 81bc a861 1cbd 2a87 853d bbf8 21bc
000000a0: 4590 4f3c 9ad8 7cbc 0d5b a93c 2eec 173c
000000b0: 6e50 073e 111d 78bd 1c12 e8bc bd57 db3d
000000c0: b85c b33d 82a4 8cbd 3569 d13c aeeb 92bd
000000d0: 71c1 d83c 9077 4b3d dab1 903c 3cfc 473d
000000e0: 63a6 f53c b4b9 e63d 55a4 68bd 426b 553d
000000f0: f914 5a3d 2d0d d73c 9c0a 69bd 83d5 2dbc

batch_norm.weight f4 [64]
0.96680826 0.99241847 0.99399465 1.6924237 1.7053969 1.7977675 1.7420926 1.6757816
0.9686465 1.6787151 0.98395544 1.8626051 0.9936235 1.8249631 0.988873 0.99399465
0.99321216 0.99398124 1.6839192 1.5670115 1.6884197 1.6747774 1.5703237 0.9861586
0.9908561 1.7596647 0.99029034 0.97088706 1.6929258 1.0 0.993407 0.9916604
1.9100718 1.6939839 0.9710068 1.6916497 1.671653 0.99399453 1.5926611 0.9806385
1.0047526 1.6890026 1.6769243 1.655333 1.5945008 0.9864355 1.0 1.6671488
1.7668612 0.9866651 0.9917178 0.9882144 0.9929482 1.0 0.98875344 1.5722526
0.9941421 1.6600109 0.98008823 1.6685584 1.7415388 0.99399483 0.9884133 0.9928947
00000000: bf80 773f 230f 7e3f 6f76 7e3f 57a1 d83f
00000010: 724a da3f 3f1d e63f e4fc de3f 0380 d63f
00000020: 38f9 773f 23e0 d63f 81e4 7b3f d869 ee3f
00000030: 1c5e 7e3f 6498 e93f c826 7d3f 6f76 7e3f
00000040: 2743 7e3f 8e75 7e3f aa8a d73f d593 c83f
00000050: 231e d83f 1b5f d63f 5e00 c93f e474 7c3f
00000060: bfa8 7d3f b13c e13f ab83 7d3f 0e8c 783f
00000070: cbb1 d83f 0000 803f ec4f 7e3f 75dd 7d3f
00000080: 3c7d f43f 77d4 d83f e793 783f fa87 d83f
00000090: baf8 d53f 6d76 7e3f 52dc cb3f 200b 7b3f
000000a0: bc9b 803f 3d31 d83f 75a5 d63f f4e1 d33f
000000b0: 9a18 cc3f 0987 7c3f 0000 803f 2265 d53f
000000c0: 8228 e23f 1696 7c3f 38e1 7d3f 9efb 7c3f
000000d0: da31 7e3f 0000 803f f21e 7d3f 933f c93f
000000e0: 1980 7e3f 3d7b d43f 10e7 7a3f 5293 d53f
000000f0: beea de3f 7276 7e3f a708 7d3f 592e 7e3f

batch_norm.bias f4 [64]
0.1156637 -0.12941952 -0.17548555 -0.010310413 -0.22471438 -0.029311942 -0.080385946 -0.017798858
-0.12752484 0.11031864 0.19891635 0.12881503 0.117765 0.035440564 -0.13244173 -0.19753113
-0.1800775 0.17084853 -0.17340733 0.118577026 -0.01848006 0.07921738 0.016412709 -0.13890518
0.109155856 0.116057 0.16229649 -0.16947626 -0.2678725 -0.15277295 -0.15236087 -0.17854756
-0.04305155 -0.045261174 -0.14716347 -0.019659875 -0.2157665 0.1581869 -0.023635667 -0.0004389593
-0.18560512 -0.05830649 -0.15224132 -0.05946035 -0.122253604 -0.14306717 0.13002738 0.02401817
-0.012661875 -0.09991578 -0.1326433 0.1557993 0.14967757 0.11843972 -0.13749406 0.09334737
-0.122916356 0.12064825 0.18813393 0.02733995 0.0757558 0.14420347 0.21896861 0.10605564
00000000: 17e1 ec3d 8d86 04be 7cb2 33be 02ed 28bc
00000010: 871b 66be 991f f0bc 63a1 a4bd e9ce 91bc
00000020: df95 02be bdee e13d bab0 4b3e 16e8 033e
00000030: c72e f13d 202a 113d ce9e 07be 9a45 4abe
00000040: 3c66 38be ebf2 2e3e b191 31be 83d8 f23d
00000050: 7f63 97bc b93c a23d f273 863c 293d 0ebe
00000060: 1b8d df3d 4baf ed3d 0d31 263e 2f8b 2dbe
00000070: 9626 89be 8370 1cbe 7d04 1cbe 2cd5 36be
00000080: d256 30bd c863 39bd 05b2 16be bf0d a1bc
00000090: e5f1 5cbe bffb 213e 969f c1bc 1f24 e6b9
000000a0: 450f 3ebe c9d2 6ebd 26e5 1bbe b28c 73bd
000000b0: 1960 fabd 3380 12be e625 053e c1c1 c43c
000000c0: c173 4fbc a5a0 ccbd a5d3 07be da89 1f3e
000000d0: 1445 193e 8690 f23d 3ecb 0cbe e82c bf3d
000000e0: 92bb fbbd 6e16 f73d 2ea6 403e 08f8 df3c
000000f0: db25 9b3d 13aa 133e 4f39 603e b333 d93d

batch_norm.running_mean f4 [64]
4.1484792e-17 6e-45 6e-45 4.4203186 6.644345 3.843155 3.680235 1.4357958
6e-45 6.9769764 6e-45 2.3626983 6e-45 4.036007 6e-45 6e-45
6e-45 6e-45 0.22797441 4.6349316 2.886624 2.1343715 3.9852545 5.0598603e-05
6e-45 1.4990134 6e-45 6e-45 3.782622 0.0 6e-45 6e-45
2.639779 2.8781571 8.726383e-23 3.4087937 5.741882 6e-45 1.8536085 6e-45
1.4767356e-35 4.4312997 1.8902231 1.9662404 4.412242 6e-45 0.0 2.2406504
4.6166196 6e-45 6e-45 6e-45 6e-45 0.0 6e-45 3.9972086
6e-45 1.3804373 6e-45 1.341201 2.824578 6e-45 6e-45 6e-45
00000000: 9950 3f24 0400 0000 0400 0000 4073 8d40
00000010: 799e d440 40f6 7540 f888 6b40 28c8 b73f
00000020: 0400 0000 6443 df40 0400 0000 7336 1740
00000030: 0400 0000 f826 8140 0400 0000 0400 0000
00000040: 0400 0000 0400 0000 2072 693e 5c51 9440
00000050: 73be 3840 8b99 0840 690e 7f40 d639 5438
00000060: 0400 0000 acdf bf3f 0400 0000 0400 0000
00000070: 7b16 7240 0000 0000 0400 0000 0400 0000
00000080: 24f2 2840 ba33 3840 b2fd d21a ad29 5a40
00000090: 7fbd b740 0400 0000 0b43 ed3f 0400 0000
000000a0: 9108 9d05 35cd 8d40 d5f2 f13f c4ad fb3f
000000b0: 1631 8d40 0400 0000 0000 0000 d166 0f40
000000c0: 59bb 9340 0400 0000 0400 0000 0400 0000
000000d0: 0400 0000 0000 0000 0400 0000 44d2 7f40
000000e0: 0400 0000 2bb2 b03f 0400 0000 79ac ab3f
000000f0: e3c5 3440 0400 0000 0400 0000 0400 0000

batch_norm.running_var f4 [64]
2.9918418e-18 6e-45 6e-45 1.5970155 1.9314852 1.0229659 1.2111784 0.65502155
6e-45 4.416919 6e-45 2.08586 6e-45 1.8970786 6e-45 6e-45
6e-45 6e-45 0.23063627 1.4585423 0.68513155 0.9806026 1.6961633 1.0442863e-05
6e-45 1.1716511 6e-45 6e-45 1.788381 6e-45 6e-45 6e-45
1.9083308 1.4862338 5.7591156e-23 1.6107906 1.6534297 6e-45 0.96960294 6e-45
5.2511727e-36 0.9114538 0.9000771 0.68845206 1.1544461 6e-45 6e-45 0.78107595
1.6533418 6e-45 6e-45 6e-45 6e-45 6e-45 6e-45 4.094868
6e-45 1.0495789 6e-45 0.6674583 1.2603496 6e-45 6e-45 6e-45
00000000: 4bc2 5c22 0400 0000 0400 0000 016b cc3f
00000010: e83a f73f 8cf0 823f e507 9b3f 7eaf 273f
00000020: 0400 0000 6757 8d40 0400 0000 bb7e 0540
00000030: 0400 0000 79d3 f23f 0400 0000 0400 0000
00000040: 0400 0000 0400 0000 ea2b 6c3e 84b1 ba3f
00000050: c864 2f3f c608 7b3f e11b d93f c133 2f37
00000060: 0400 0000 aaf8 953f 0400 0000 0400 0000
00000070: abe9 e43f 0400 0000 0400 0000 0400 0000
00000080: 2f44 f43f e93c be3f 333f 8b1a 632e ce3f
00000090: 96a3 d33f 0400 0000 e637 783f 0400 0000
000000a0: 355c df04 0955 693f 746b 663f 653e 303f
000000b0: e4c4 933f 0400 0000 0400 0000 98f4 473f
000000c0: b4a0 d33f 0400 0000 0400 0000 0400 0000
000000d0: 0400 0000 0400 0000 0400 0000 2909 8340
000000e0: 0400 0000 9a58 863f 0400 0000 8cde 2a3f
000000f0: 2353 a13f 0400 0000 0400 0000 0400 0000

fc2.weight f4 [2, 64]
-0.07833345 -0.010614471 -0.11565502 -0.054924052 0.04962813 0.0963253 0.012358198 -0.05976029
-0.0657314 -0.05197435 -0.078522325 -0.036801897 0.07835132 0.08497795 0.07792118 -0.052693583
-0.07318191 0.0047797994 0.055654965 0.07190202 -0.052338444 -0.08282379 -0.054071203 0.044273354
-0.030274894 -0.12907499 0.05536971 0.02281135 -0.0560433 -0.12266058 -0.07811415 0.0004302473
-0.09064724 -0.07029884 -0.027292406 0.10157883 -0.079564 -0.08552574 0.033767734 -0.028916769
0.10904711 0.044497307 0.021488942 0.08480232 -0.06708827 -0.034019683 -0.07779959 -0.095318824
0.1265592 0.07845483 0.010561956 0.0498563 -0.038031247 0.0015808047 -0.06893469 0.096866705
-0.11731865 -0.05857731 -0.028679445 0.003774271 0.10115792 -0.0032052249 -0.11384383 0.11300261
-0.05561091 0.09074201 0.10860822 -0.10040517 -0.014978863 -0.007800058 0.07829442 -0.1072989
0.046053533 0.0036153584 0.007167101 0.03847284 0.09069481 -0.15782966 0.018323384 -0.08012708
-0.10305691 0.04290558 -0.04443999 -0.024288107 -0.032855455 0.0909549 -0.051641 0.09138673
-0.039634984 0.019090813 -0.10688946 0.1097319 0.10423062 0.042429723 -0.103483915 0.09386764
0.106493585 0.11385379 0.09004981 -0.07783769 -0.0009722018 0.10039674 0.13973977 -0.07732547
-0.018132418 0.080887586 -0.10313587 0.02760013 0.06828413 -0.07862496 0.10023139 0.02438259
0.0525123 0.02707943 -0.075961195 -0.01373323 -0.11083638 0.0897048 0.096530266 -0.079593144
0.049591992 0.038523518 -0.059744842 -0.13097028 -0.0642614 0.0259708 -0.08599062 -0.05703297
00000000: 4a6d a0bd 51e8 2dbc 8adc ecbd 0bf8 60bd
00000010: de46 4b3d 3346 c53d 0a7a 4a3c 35c7 74bd
00000020: 2f9e 86bd 0ee3 54bd 50d0 a0bd 96bd 16bd
00000030: a876 a03d eb08 ae3d 2495 9f3d 3ad5 57bd
00000040: 66e0 95bd dd9f 9c3b 76f6 633d 5e41 933d
00000050: d660 56bd 859f a9bd c479 5dbd fa57 353d
00000060: 0e03 f8bc 3c2c 04be 59cb 623d dede ba3c
00000070: a98d 65bd 7835 fbbd 50fa 9fbd d192 e139
00000080: 43a5 b9bd d7f8 8fbd 5394 dfbc 9008 d03d
00000090: 73f2 a2bd 1f28 afbd 0950 0a3d dce2 ecbc
000000a0: 1754 df3d cf42 363d 9409 b03c d7ac ad3d
000000b0: 9365 89bd 3958 0bbd 6455 9fbd 8436 c3bd
000000c0: bc98 013e edac a03d 0e0c 2d3c 1f36 4c3d
000000d0: a7c6 1bbd 0133 cf3a a12d 8dbd 0d62 c63d
000000e0: c344 f0bd c3ee 6fbd 28f1 eabc c359 773b
000000f0: e22b cf3d c00e 52bb f426 e9bd ea6d e73d
00000100: 44c8 63bd f2d6 b93d fd6d de3d 3aa1 cdbd
00000110: e869 75bc a197 ffbb d358 a03d 87bf dbbd
00000120: a1a2 3c3d a6ef 6c3b 00da ea3b b295 1d3d
00000130: 33be b93d 199e 21be ec1a 963c ab19 a4bd
00000140: 800f d3bd c3bd 2f3d b506 36bd daf7 c6bc
00000150: 7193 06bd 9046 ba3d 8385 53bd f728 bb3d
00000160: 4b58 22bd 5664 9c3c dce8 dabd 1ebb e03d
00000170: dd76 d53d caca 2d3d 60ef d3bd ad3d c03d
00000180: 4f19 da3d 2d2c e93d 096c b83d 5e69 9fbd
00000190: 5cdb 7eba ce9c cd3d f117 0f3e d15c 9ebd
000001a0: 708a 94bc 64a8 a53d e638 d3bd ab19 e23c
000001b0: 8dd8 8b3d 1f06 a1bd 1d46 cd3d ffbd c73c
000001c0: 2317 573d aed5 dd3c 8b91 9bbd 5701 61bc
000001d0: 2ffe e2bd 26b7 b73d a9b1 c53d bb01 a3bd
000001e0: f920 4b3d d6ca 1d3d 02b7 74bd 131d 06be
000001f0: 7b9b 83bd b7c0 d43c da1b b0bd 679b 69bd

fc2.bias f4 [2]
-0.047248114 0.07224419
00000000: 3d87 41bd c3f4 933d
