models/B_z/classifier_fold5.pth (torch, 991011 bytes, 16 tensors)

conv_layers.0.weight f4 [64, 256, 2]
0.020712854 0.05724128 -0.05627711 0.074124105 -0.0076200506 -0.002168322 -0.08979807 0.069819644
0.010920958 0.048104707 -0.017024228 -0.053640604 0.029546736 0.012840234 -0.008304767 0.04694313
0.10256512 -0.025511667 0.0053095785 0.03379516 0.026040873 -0.01192686 -0.058271244 0.059322868
-0.0071971174 -0.012440971 -0.010207967 -0.08357708 0.036415134 0.023738703 0.03241806 0.08271665
0.03930778 0.05203154 -0.008516491 -0.051742665 -0.054275934 -0.060656734 -0.0666778 -0.054589275
-0.024756722 0.010661584 0.007759338 0.019195512 -0.040367287 -0.012803286 0.008554964 0.049592394
-0.008741763 0.034951374 -0.018243203 0.06713529 0.0100480765 -0.09122037 -0.052649867 -0.039874088
-0.0077244206 0.01607917 -0.07662471 0.040184315 0.010928892 0.06561979 -0.09682216 0.008698554
0.0123951 0.017546952 -0.028000265 0.017900007 0.021180985 -0.039820183 0.05218116 -0.01661014
0.02404831 -0.0591716 0.034119017 0.01754818 -0.050621938 0.025591327 0.04386927 -0.04395215
-0.028549353 0.0007350053 -0.064009756 -0.06221597 0.11854505 -0.06649886 -0.096515335 0.024410851
0.06737079 0.056841683 0.049639467 0.07754863 -0.0013963798 -0.05993263 -0.0024595582 0.025579724
-0.027877355 -0.06565028 -0.023583565 0.06501764 0.03738299 0.032998264 -0.065240696 -0.02558691
0.0057959664 -0.017690027 -0.0015385472 0.06342899 -0.015006375 -0.020754257 0.027900916 0.0012930273
0.032943666 -0.012866671 0.05245328 0.028669832 0.034412485 0.04968349 0.009526241 -0.011702475
0.036104795 0.027766831 0.018852046 -0.0023224826 0.04562121 0.07089369 0.057884563 -0.015430423
-0.04659255 -0.056790538 0.07206013 -0.04130932 -0.003003224 -0.04302184 0.026982058 -0.004020595
0.0063856663 0.0018035865 0.03728095 -0.0018948778 0.06355809 0.039007302 0.027161147 0.009854497
-0.017099822 0.064622924 -0.016726414 0.08105157 -0.058278076 -0.021460656 -0.034684792 0.09166902
0.1411119 0.010760904 -0.024768962 0.006180221 0.060321916 0.0011020091 0.03138364 0.08336078
0.07006631 -0.037554856 0.059160806 0.01930503 -0.03143732 0.045213632 -0.033950374 -0.0043028453
-0.009202967 -0.042435527 0.046977922 -0.0123097645 -0.05009457 0.06624081 -0.030873815 0.015282545
-0.096148655 -0.03550326 0.0563464 -0.12596606 0.04688367 0.04902034 -0.008911467 0.006271977
-0.0016342454 9.6784664e-05 -0.026113125 -0.014580293 -0.032009225 -0.014039424 0.045608163 -0.070991956
-0.060073625 0.065224454 -0.02190168 -0.05614645 0.06665049 -0.031232199 -0.121218346 0.10150667
-0.024675643 -0.0018555538 0.03771733 -0.057108276 -0.029634211 0.084135145 0.0015483123 0.080455214
-0.041251495 -0.0009140182 -0.059717324 -0.052577406 0.01027156 0.059799075 0.0598778 -0.08918408
-0.032792855 0.036693353 0.017835451 0.037739925 0.033614807 0.06150973 0.033761024 0.08704893
-0.0271277 -0.015932938 0.07011326 0.008713129 -0.0050979606 0.0006972958 -0.03611545 -0.038002066
0.029403923 0.024668017 0.08396735 0.0042826245 -0.025806444 0.031719115 0.03546204 -0.019842716
-0.08827576 0.0245454 0.021515472 0.040205657 0.0750928 0.028635575 -0.07054865 -0.043702662
0.0060575223 0.004739246 -0.023752304 0.01636971 0.11003297 -0.07420363 0.04422809 -0.0049334257
00000000: 01ae a93c d575 6a3d d482 66bd 61ce 973d
00000010: 9eb1 f9bb 681a 0ebb 0de8 b7bd 9afd 8e3d
00000020: d1ed 323c 7109 453d 6576 8bbc 40b6 5bbd
00000030: ff0b f23c d85f 523c b810 08bc 7147 403d
00000040: a90d d23d d8fd d0bc f9fb ad3b cb6c 0a3d
00000050: ab53 d53c e068 43bc d4ad 6ebd 89fc 723d
00000060: ccd5 ebbb 37d5 4bbc 513f 27bc 762a abbd
00000070: 0928 153d ab77 c23c cdc8 043d 5967 a93d
00000080: 3201 213d 061f 553d c188 0bbc 1ef0 53bd
00000090: 7150 5ebd 3273 78bd 5f8e 88bd 0199 5fbd
000000a0: 9cce cabc edad 2e3c 0b42 fe3b e83f 9d3c
000000b0: 2b58 25bd e0c4 51bc 1f2a 0c3c 6521 4b3d
000000c0: 9d39 0fbc 2c29 0f3d c572 95bc 3a7e 893d
000000d0: b0a0 243c bfd1 babd 63a7 57bd 0353 23bd
000000e0: 231d fdbb 77b8 833c 6aed 9cbd 4f98 243d
000000f0: 180f 333c ab63 863d b24a c6bd 6184 0e3c
00000100: d114 4b3c a0be 8f3c d060 e5bc 09a3 923c
00000110: bf83 ad3c 7d1a 23bd e9bb 553d fd11 88bc
00000120: f600 c53c eb5d 72bd 62c0 0b3d 33c1 8f3c
00000130: f358 4fbd e7a4 d13c 43b0 333d 2b07 34bd
00000140: 55e0 e9bc 5fad 403a 8c17 83bd 2cd6 7ebd
00000150: bfc7 f23d 8e30 88bd d5a9 c5bd 44f9 c73c
00000160: b2f9 893d d3d2 683d c152 4b3d d1d1 9e3d
00000170: bb06 b7ba eb7b 75bd 8a30 21bb 928c d13c
00000180: 0d5f e4bc a773 86bd 5232 c1bc f827 853d
00000190: e81e 193d 3029 073d ea9c 85bd a49b d1bc
000001a0: 17ec bd3b adea 90bc 14a9 c9ba 0fe7 813d
000001b0: 4cdd 75bc d504 aabc 7690 e43c cc7a a93a
000001c0: f0ef 063d bbce 52bc 40d9 563d ffdc ea3c
000001d0: 1bf4 0c3d ea80 4b3d f313 1c3c bdbb 3fbc
000001e0: 9fe2 133d 4477 e33c 9b6f 9a3c cb34 18bb
000001f0: 4edd 3a3d b630 913d 5d18 6d3d e3cf 7cbc
00000200: d4d7 3ebd 329d 68bd 4394 933d f633 29bd
00000210: bdd1 44bb ab37 30bd 7a09 dd3c 32bf 83bb
00000220: da3e d13b 5266 ec3a e9b3 183d 8c5d f8ba
00000230: be2a 823d 1fc6 1f3d 0e81 de3c c274 213c
00000240: ed14 8cbc 0659 843d d505 89bc 5efe a53d
00000250: feb4 6ebd 42ce afbc a411 0ebd f8bc bb3d
00000260: a37f 103e 814e 303c 47e8 cabc 7483 ca3b
00000270: 1d14 773d 4a71 903a 228c 003d 0eb9 aa3d
00000280: ed7e 8f3d 1fd3 19bd 9a52 723d 9525 9e3c
00000290: 6bc4 00bd ee31 393d 8c0f 0bbd e2fe 8cbb
000002a0: 0bc8 16bc e0d0 2dbd ec6b 403d e5ae 49bc
000002b0: f72f 4dbd 43a9 873d 15eb fcbc a463 7a3c
000002c0: 96e9 c4bd de6b 11bd 7ccb 663d 3ffd 00be
000002d0: 1709 403d 8dc9 483d 6701 12bc 2885 cd3b
000002e0: 2d34 d6ba dff8 ca38 31eb d5bc 2ee2 6ebc
000002f0: 1b1c 03bd 9d05 66bc a0cf 3a3d 3b64 91bd
00000300: c30f 76bd 6694 853d 276b b3bc d2f9 65bd
00000310: 0d80 883d abda ffbc 5341 f8bd bbe2 cf3d
00000320: 9324 cabc 0e36 f3ba 7d7d 1a3d 5eea 69bd
00000330: 72c3 f2bc 0c4f ac3d bdf0 ca3a b4c5 a43d
00000340: 54f7 28bd b99a 6fba 279a 74bd 685b 57bd
00000350: 0c4a 283c e0ef 743d 6d42 753d 25a6 b6bd
00000360: cd51 06bd c54b 163d a71b 923c 2e95 1a3d
00000370: aeaf 093d a0f1 7b3d 0049 0a3d b646 b23d
00000380: e93a debc cb85 82bc 8a97 8f3d 83c1 0e3c
00000390: cb0c a7bb bbca 363a cbed 13bd 0ea8 1bbd
000003a0: 7fe0 f03c 9514 ca3c 13f7 ab3d 4255 8c3b
000003b0: 0968 d3bc e7eb 013d a540 113d 318d a2bc
000003c0: ecc9 b4bd 6f13 c93c 3741 b03c b0ae 243d
000003d0: 41ca 993d 2795 ea3c d07b 90bd 9001 33bd
000003e0: 2e7e c63b ad4b 9b3b 3194 c2bc c519 863c
000003f0: f758 e13d 13f8 97bd 8428 353d 93a8 a1bb

conv_layers.0.bias f4 [64]
0.047224574 -0.06657938 -0.021339195 -0.029196747 -0.025203401 -0.051859412 -0.056011684 -0.081299536
-0.108614296 -0.047433846 -0.05924115 0.07377186 0.049296573 0.0063390196 -0.01841028 -0.0017975927
0.08730776 0.05231798 0.032755174 0.03322321 0.03171361 0.07829218 -0.015310935 0.058869112
0.017507289 -0.030912964 -0.059974242 -0.023370245 -0.018267527 -0.041874744 0.06147397 0.009875722
0.0009934528 0.04584872 -0.011025085 0.038561452 0.039268844 0.118029624 -0.06212803 0.005423304
-0.0099785095 -0.09561841 -0.05828282 -0.062310006 -0.08356897 0.04407029 0.037265927 -0.0329849
-0.07444917 0.014369202 -0.02245277 0.04835034 0.04363319 -0.06595087 0.024846012 -0.017966455
-0.024159707 -0.071224414 0.030785121 -0.008726214 0.053535365 -0.039805543 -0.06135321 -0.017883362
00000000: 8e6e 413d c55a 88bd 89cf aebc 042e efbc
00000010: 5d77 cebc 896a 54bd 826c 65bd 5f80 a6bd
00000020: 2c71 debd fe49 42bd d9a6 72bd b315 973d
00000030: 34eb 493d 8db7 cf3b 28d1 96bc 349d ebba
00000040: 69ce b23d 614b 563d 4a2a 063d 1015 083d
00000050: 21e6 013d a757 a03d b7da 7abc bd20 713d
00000060: 726b 8f3c 2f3d fdbc 8da7 75bd f572 bfbc
00000070: c8a5 95bc da84 2bbd 21cc 7b3d c8cd 213c
00000080: bf36 823a decb 3b3d 8fa2 34bc 9df2 1d3d
00000090: 5ed8 203d 84b9 f13d f679 7ebd f9b5 b13b
000000a0: e77c 23bc 96d3 c3bd f7b9 6ebd c738 7fbd
000000b0: 3526 abbd 0c83 343d 28a4 183d 2d1b 07bd
000000c0: ce78 98bd cd6c 6b3c dfee b7bc 020b 463d
000000d0: b7b8 323d 4011 87bd dd89 cb3c 632e 93bc
000000e0: 94ea c5bc 1bde 91bd 1431 fc3c 65f8 0ebc
000000f0: e647 5b3d 230b 23bd 814d 7bbd 2180 92bc

conv_layers.1.weight f4 [64, 256, 3]
-0.010747617 0.025174463 0.020740924 -0.015687255 -0.03286089 0.054870687 -0.001479428 0.07870616
-0.0045215734 -0.009252799 0.015318177 -0.033781894 0.07151573 -0.0022589385 0.034352984 -0.005722979
-0.012808081 0.07838748 -0.03647894 0.036224306 -0.025772654 -0.09966971 -0.046935838 -0.022346241
0.0538988 0.007563552 -0.06188978 -0.085384026 0.05969331 0.0035867738 -0.022140998 -0.013038318
-0.015748808 0.011767164 -0.008668648 0.09432663 -0.020931957 -0.004355804 0.02924851 -0.0051706904
0.042916045 -0.026935734 0.013003414 0.0008409616 0.04178862 -0.0061257146 0.06207549 0.017790293
-0.009921182 -0.014922965 0.054424327 -0.083979666 0.0675183 0.05726939 0.01793595 -0.036475778
-0.026016926 -0.011098504 -0.04704868 0.0727333 -0.03829064 -0.03739404 0.040477987 -0.07065085
0.08247372 -0.0030770036 0.023697898 0.029114634 0.004833989 -0.056558777 -0.076837234 0.0070221047
-0.05165422 0.09881296 0.029212447 0.022736685 0.1723691 0.0046784277 -0.051366273 -0.0056712385
0.021972504 -0.020054538 0.09284671 0.01202704 0.08346328 -0.0045617023 0.015172903 -0.08276108
0.047893535 -0.083702974 -0.053704754 0.06818092 0.00846271 0.0017485433 0.015865237 0.011973575
-0.08677161 0.024723487 -0.06490935 0.053786375 -0.032564227 -0.03478698 0.028417584 0.0359292
-7.216817e-05 0.050804663 0.10676472 -0.03590689 -0.011638979 0.039368115 0.054118976 0.017354859
0.09393633 0.00486267 -0.064301044 0.1004577 0.015830738 -0.014315895 -0.021397788 0.013554256
0.038795754 0.06430799 -0.0022933758 -0.05226666 0.0009061526 -0.060050447 0.095899306 -0.052754335
0.00905211 -0.028973464 0.10508498 0.032835573 -0.0031497458 -0.03522422 0.024746664 0.024947207
-0.0044852877 -0.01076324 0.06422617 -0.0020053324 0.023495473 0.0058409595 0.082764246 -0.010366583
0.050802298 0.012248767 0.010290338 0.024229 -0.004249077 -0.03137874 -0.04090131 -0.07933317
0.037537143 0.0583132 0.0074128597 0.004638713 0.040085234 0.034560364 -0.01147666 -0.06484251
0.06614402 0.013591865 -0.0010047745 0.01790986 0.03554479 0.01933587 0.107625395 -0.038743276
-0.007737272 -0.05571859 0.0320549 0.030272624 0.04974067 -0.012332639 0.08511336 -0.043613445
-0.025817495 0.07098951 -0.060204208 -0.066217706 0.025209082 0.009987826 0.06486519 0.027028514
-0.022052925 0.037587393 -0.027612966 -0.07360767 -0.025530064 0.02860535 -0.08734189 -0.086806625
-0.03046492 -0.047784403 -0.020285398 0.09780849 0.12916018 0.0022507883 -8.3930696e-05 0.03672839
0.0070014824 -0.11339137 0.056496833 -0.03914643 0.021358382 0.025806125 0.015120527 0.014680315
-0.026270311 -0.0805611 0.023580758 -0.083809644 0.04516185 -0.0028534757 -0.016707141 0.009690017
0.062201854 -0.063692585 0.010440202 0.038623042 0.030267388 0.012451499 -0.05935983 0.1166333
0.0010326284 -0.005515018 -0.051564045 -0.08427978 -0.00073341554 0.09261035 0.022079052 0.045783985
-0.073836856 -0.058383785 0.05480193 0.002770418 -0.06378583 0.04106118 0.064682595 -0.013239781
-0.0028858501 0.05332231 -0.03579019 0.046376992 -0.0544836 0.053156786 -0.040456653 0.13022088
-0.031966526 -0.061044995 0.09322378 0.060015026 0.007090938 0.14534456 0.034105 0.0005849719
00000000: c616 30bc ad3a ce3c dfe8 a93c 8f82 80bc
00000010: 2499 06bd 16c0 603d 5ee9 c1ba b230 a13d
00000020: b529 94bb 0d99 17bc 17f9 7a3c e25e 0abd
00000030: d776 923d b30a 14bb b7b5 0c3d d487 bbbb
00000040: fcd8 51bc 9d89 a03d f16a 15bd f05f 143d
00000050: 2c21 d3bc a21f ccbd cb3f 40bd 770f b7bc
00000060: fdc4 5c3d acd7 f73b 2380 7dbd d2dd aebd
00000070: f980 743d 1410 6b3b 0a61 b5bc ab9e 55bc
00000080: a503 81bc 10cb 403c f206 0ebc 522e c13d
00000090: 7f79 abbc 22bb 8ebb 929a ef3c e56e a9bb
000000a0: bcc8 2f3d 54a8 dcbc 450c 553c fa73 5c3a
000000b0: 8b2a 2b3d 38ba c8bb de42 7e3d f3bc 913c
000000c0: 748c 22bc 747f 74bc 0bec 5e3d 88fd abbd
000000d0: 0947 8a3d 4f93 6a3d 6aee 923c a067 15bd
000000e0: 7321 d5bc 80d6 35bc 1eb6 40bd 32f5 943d
000000f0: a5d6 1cbd 7e2a 19bd 3fcc 253d 65b1 90bd
00000100: fbe7 a83d 8ea7 49bb 1822 c23c d081 ee3c
00000110: 7066 9e3b 2daa 67bd d75c 9dbd af19 e63b
00000120: 6093 53bd 735e ca3d f14e ef3c 4942 ba3c
00000130: 8681 303e 7f4d 993b 7165 52bd ccd5 b9bb
00000140: aeff b33c 6a49 a4bc 6a26 be3d 100d 453c
00000150: ccee aa3d 557a 95bb c597 783c a47e a9bd
00000160: 032c 443d 776c abbd 84f9 5bbd 70a2 8b3d
00000170: 2ea7 0a3c 612f e53a d0f7 813c d02c 443c
00000180: 50b5 b1bd e988 ca3c 31ef 84bd 1a4f 5c3d
00000190: 1162 05bd cb7c 0ebd fecb e83c 7f2a 133d
000001a0: fe58 97b8 8d18 503d 76a7 da3d 1a13 13bd
000001b0: 6bb1 3ebc 7640 213d dcab 5d3d c72b 8e3c
000001c0: b161 c03d 0857 9f3b 44b0 83bd c4bc cd3d
000001d0: 77af 813c 378d 6abc 6a4a afbc ac12 5e3c
000001e0: 4ce8 1e3d e8b3 833d 764c 16bb 9115 56bd
000001f0: df8a 6d3a 75f7 75bd db66 c43d ee14 58bd
00000200: 4d4f 143c c259 edbc cb36 d73d 987e 063d
00000210: f76b 4ebb 4647 10bd 84b9 ca3c 165e cc3c
00000220: 52f9 92bb 4d58 30bc 0389 833d e56b 03bb
00000230: 9479 c03c 8565 bf3b 4d80 a93d 9ad8 29bc
00000240: 1216 503d 0daf 483c ce98 283c e57b c63c
00000250: d73b 8bbb fe86 00bd 2288 27bd 6e79 a2bd
00000260: 8cc0 193d d2d9 6e3d 93e7 f23b 5800 983b
00000270: 6a30 243d 2b8f 0d3d 9a08 3cbc 26cc 84bd
00000280: 8476 873d 6ab0 5e3c a3b2 83ba b3b7 923c
00000290: 6a97 113d 4266 9e3c b46a dc3d 45b1 1ebd
000002a0: f188 fdbb 2d39 64bd 004c 033d 4bfe f73c
000002b0: dfbc 4b3d d60e 4abc ea4f ae3d 03a4 32bd
000002c0: 367f d3bc f362 913d b098 76bd 269d 87bd
000002d0: 4783 ce3c fba3 233c 0ad8 843d e76a dd3c
000002e0: 56a8 b4bc 3df5 193d 9634 e2bc 9ebf 96bd
000002f0: 6d24 d1bc c455 ea3c 4ee0 b2bd acc7 b1bd
00000300: 9191 f9bc 94b9 43bd 902d a6bc d14f c83d
00000310: 9142 043e f681 133b f303 b0b8 8270 163d
00000320: b16c e53b bc39 e8bd 3969 673d 0258 20bd
00000330: c6f7 ae3c 5e67 d33c 16bc 773c b485 703c
00000340: d634 d7bc 38fd a4bd 6f2c c13c 64a4 abbd
00000350: a2fb 383d 6101 3bbb 6add 88bc e1c2 1e3c
00000360: 5fc7 7e3d 4271 82bd 620d 2b3c 3233 1e3d
00000370: 50f3 f73c 5f01 4c3c 4b23 73bd 71dd ee3d
00000380: 4259 873a 53b7 b4bb d234 53bd e19a acbd
00000390: af42 40ba 7faa bd3d 21df b43c fd87 3b3d
000003a0: c737 97bd d623 6fbd fd77 603d e78f 353b
000003b0: 25a2 82bd c52f 283d 4f78 843d abeb 58bc
000003c0: 8820 3dbb 7f68 5a3d bc98 12bd cdf5 3d3d
000003d0: 322a 5fbd eeba 593d e0b5 25bd 9f58 053e
000003e0: 55ef 02bd 510a 7abd 1cec be3d 51d2 753d
000003f0: 195b e83b 34d5 143e afb1 0b3d cd58 193a

conv_layers.1.bias f4 [64]
-0.10711916 -0.10508186 0.013030279 -0.016487012 0.07445185 0.02982542 0.020656154 0.09363053
0.085418604 0.057125147 0.005202827 -0.023480853 -0.04302706 -0.039023813 -0.017698254 0.037541334
-0.008662278 0.012335427 -0.068348005 -0.03537881 0.023119511 -0.021917054 0.066722624 -0.06383914
-0.0005877715 -0.08439033 -0.03421237 -0.05407703 -0.085882045 -0.10141566 0.00853677 -0.008064811
0.064407505 0.040383775 -0.06522487 0.019826509 -0.05166594 0.04977151 0.00051936717 0.025822354
-0.091434464 -0.017321901 -0.011015818 0.06120949 0.073597476 -0.034907516 -0.0665988 0.07884568
-0.024343975 0.011341802 -0.031201469 0.008069288 -0.030684058 0.08160508 0.081291586 -0.09059685
-0.016882306 0.008249197 -0.0032920889 -0.05085984 0.001996345 0.016843943 0.009049229 -0.043909144
00000000: 4a61 dbbd 2935 d7bd f47c 553c c50f 87bc
00000010: 367a 983d 7054 f43c 1837 a93c 5dc1 bf3d
00000020: f3ef ae3d 0ffc 693d 7a7c aa3b eb5a c0bc
00000030: 243d 30bd 6fd7 1fbd eefb 90bc f1c4 193d
00000040: 3aec 0dbc 881a 4a3c 0afa 8bbd 5fe9 10bd
00000050: 2165 bd3c 658b b3bc dfa5 883d 18be 82bd
00000060: ad14 1aba d6d4 acbd 4522 0cbd e07f 5dbd
00000070: ede2 afbd 03b3 cfbd cfdd 0b3c 4522 04bc
00000080: 15e8 833d 7569 253d 9e94 85bd 346b a23c
00000090: aa9f 53bd 36dd 4b3d 2426 083a 6789 d33c
000000a0: fe41 bbbd a9e6 8dbc b17b 34bc cdb6 7a3d
000000b0: 46ba 963d 2ffb 0ebd f464 88bd d879 a13d
000000c0: 046d c7bc f7d2 393c 399a ffbc 0c35 043c
000000d0: 225d fbbc 9020 a73d 347c a63d d78a b9bd
000000e0: c34c 8abc a427 073c 16c0 57bb 6852 50bd
000000f0: 1cd5 023b 4ffc 893c 3843 143c 13da 33bd

conv_layers.2.weight f4 [64, 256, 4]
0.09052567 -0.03863014 -0.028082104 -0.01811993 -0.012167444 0.060213618 0.027894156 -0.005821821
-0.03654347 0.032500677 -0.0148039935 0.056064215 0.018913293 0.01029479 -0.05796263 0.004033007
-0.017682249 0.024784641 0.0030878088 -0.06584256 0.07365034 -0.043087006 -0.02407622 -0.07945806
0.039707687 0.030445868 -0.06785273 -0.038721338 0.06500598 0.04424856 -0.04944012 0.037012663
0.027499858 0.05726327 -0.0034833401 0.023372913 -0.103870176 0.003407233 -0.03955504 -0.051347315
0.019333024 0.008542179 -0.00079014787 -0.03459648 0.043783974 -0.11415089 0.028514057 0.0060991794
0.028175557 -0.020387648 -0.023968803 -0.013999415 -0.07486765 -0.074626185 -0.028899623 -0.007328616
-0.032740805 0.0019488394 -0.044053674 0.03309139 -0.0010176846 -0.009691623 0.016886123 0.036348462
0.06908197 -0.048830528 0.020519083 -0.062982395 0.0296356 -0.032146495 0.056435972 0.10198318
-0.04589051 -0.019580867 -0.03723257 -0.0026209424 -0.0031701582 0.023464728 0.06645474 -0.06428881
-0.05553324 -0.015794333 -0.03260233 -0.010230384 0.0062835356 -0.005205032 -0.037858054 -0.03459512
-0.036867026 -0.044386975 -0.06784958 0.046634357 0.046036378 0.01131412 -0.083059765 -0.025208768
0.06147319 -0.105290875 0.054054126 -0.004706985 0.044095773 -0.027034543 0.014331509 -0.06787563
0.08454467 -0.015827674 0.014425528 0.016621161 0.052803252 -0.042371023 -0.052520867 0.013000422
0.02167026 0.0016285414 -0.0048631863 0.062075194 0.03942736 0.03876079 0.027070092 0.004761615
0.057225257 0.019709745 0.04286588 -0.07035384 0.0456717 -0.056854352 0.06287789 0.10754388
0.022638703 -0.021249374 -0.028862616 -0.06821084 -0.061468747 0.070967436 0.05974008 -0.022648854
-0.06250606 -0.05194681 -0.05080611 0.040178996 -0.029141543 -0.1187238 0.11090605 0.016934896
-0.0072529 -0.01424283 -0.006243213 -0.08523795 -0.12915394 0.017142482 0.09218259 -0.04632135
0.020488657 0.048576675 -0.019205613 -0.014190468 -0.041591 0.0450779 -0.014432491 -0.0013481011
0.01704075 0.057928663 0.047586974 0.04597363 -0.0054915687 -0.06402989 0.09060478 -0.04843328
-0.051080436 0.0150264725 0.042399492 -4.386889e-05 0.049507998 -0.0061399043 -0.0007870998 0.06036533
0.019386213 -0.04289444 0.004583198 -0.061620068 -0.005652309 0.15654448 0.013504687 -0.056505293
-0.054267045 0.0014253457 0.046494633 -0.009614276 0.0628199 1.6966085e-05 -0.029219463 -0.005913428
-0.0054662786 0.017346958 -0.05147119 0.0070741847 -0.013402866 0.044673957 -0.05508147 0.07254544
0.055664457 -0.11243371 -0.02195955 0.025713583 -0.035485573 -0.006890579 -0.10098783 -0.01330542
0.068631485 0.03453565 0.0045495965 0.045703065 0.0024796566 -0.01123977 -0.11939161 -0.07807183
-0.0072987513 0.039068878 0.0007211071 -0.0027720255 0.037781376 0.033725616 0.0070378296 0.009055579
0.06876544 0.074630015 -0.017878141 0.048254386 -0.062908225 0.0048321043 -0.020035882 0.014443417
0.048841182 0.027086886 -0.009872496 0.08276412 0.059044555 0.0036069392 0.0069986936 0.0012186451
0.049808405 0.00570217 0.010193851 -0.011024042 0.033624806 0.024440471 -0.061884087 -0.011280553
0.054383833 0.068617 0.073067896 0.0007727124 -0.081363104 -0.036801305 0.040386546 0.05364427
00000000: 8665 b93d a33a 1ebd 710c e6bc 3f70 94bc
00000010: f659 47bc 8ea2 763d 4982 e43c f9c4 bebb
00000020: 9bae 15bd 6e1f 053d 738c 72bc 97a3 653d
00000030: 0df0 9a3c 7bab 283c 396a 6dbd 5127 843b
00000040: 5dda 90bc 2909 cb3c d65c 4a3b 77d8 86bd
00000050: fdd5 963d 007c 30bd 7e3b c5bc e8ba a2bd
00000060: 87a4 223d 9d69 f93c 5ff6 8abd 449a 1ebd
00000070: db21 853d fa3d 353d b981 4abd 979a 173d
00000080: 6247 e13c e48c 6a3d c048 64bb 8d78 bf3c
00000090: e3b9 d4bd e24b 5f3b 7704 22bd 9051 52bd
000000a0: 4a60 9e3c 7ff4 0b3c ed21 4fba 0ab5 0dbd
000000b0: d356 333d f1c7 e9bd 5096 e93c a0db c73b
000000c0: 6dd0 e63c ff03 a7bc 395a c4bc cd5d 65bc
000000d0: 3654 99bd 9dd5 98bd e7be ecbc e324 f0bb
000000e0: 391b 06bd 3370 ff3a a071 34bd d68a 073d
000000f0: d463 85ba 9dc9 1ebc c454 8a3c 20e2 143d
00000100: d97a 8d3d 8502 48bd a317 a83c eafc 80bd
00000110: 5cc6 f23c 0bac 03bd 6829 673d 8fdc d03d
00000120: b0f7 3bbd 0e68 a0bc 2e81 18bd 1ec4 2bbb
00000130: 6ec2 4fbb 1a39 c03c 6c19 883d daa9 83bd
00000140: d376 63bd 1e63 81bc 058a 05bd 579d 27bc
00000150: 1ee6 cd3b f98e aabb 0c11 1bbd 9db3 0dbd
00000160: e101 17bd 1ecf 35bd b8f4 8abd ab03 3f3d
00000170: a490 3c3d dc5e 393c 3d1b aabd 9e82 cebc
00000180: 50cb 7b3d bea2 d7bd dc67 5d3d 0d3d 9abb
00000190: c59d 343d 8c77 ddbc b5ce 6a3c 6102 8bbd
000001a0: c225 ad3d 0aa9 81bc 0d59 6c3c 1a29 883c
000001b0: 3948 583d 3d8d 2dbd 1f20 57bd b9ff 543c
000001c0: d485 b13c c874 d53a 5d5b 9fbb 8f42 7e3d
000001d0: 957e 213d a2c3 1e3d 19c2 dd3c 5207 9c3b
000001e0: 0865 6a3d 5576 a13c 2294 2f3d ad15 90bd
000001f0: 4012 3b3d 1ce0 68bd 20c6 803d f73f dc3d
00000200: cd74 b93c 2b13 aebc 4b71 ecbc 20b2 8bbd
00000210: a7c6 7bbd 6057 913d 04b2 743d 178a b9bc
00000220: 2d03 80bd 2ec6 54bd 111a 50bd bb92 243d
00000230: 3fba eebc 7725 f3bd b622 e33d 0dbb 8a3c
00000240: bca9 edbb c25a 69bc de93 ccbb 3c91 aebd
00000250: ee40 04be 646e 8c3c 3aca bc3d 75bb 3dbd
00000260: d4d7 a73c 56f8 463d 1755 9dbc 237f 68bc
00000270: 535b 2abd 9ba3 383d 4176 6cbc c4b2 b0ba
00000280: 0b99 8b3c 9b46 6d3d 8fea 423d d84e 3c3d
00000290: 9ef2 b3bb 1a22 83bd 008f b93d fa61 46bd
000002a0: b839 51bd 9831 763c 17ab 2d3d ddff 37b8
000002b0: e6c8 4a3d 4031 c9bb 6055 4eba a341 773d
000002c0: d6cf 9e3c 15b2 2fbd a72e 963b 5365 7cbd
000002d0: 0137 b9bb 324d 203e c342 5d3c 1872 67bd
000002e0: 1f47 5ebd aad2 ba3a 2871 3e3d 3285 1dbc
000002f0: b8a7 803d 6452 8e37 a85d efbc 6ec5 c1bb
00000300: 781e b3bb 351b 8e3c 74d3 52bd 90ce e73b
00000310: b297 5bbc 0afc 363d 1c9d 61bd b492 943d
00000320: 6a00 643d a543 e6bd 84e4 b3bc 4ba5 d23c
00000330: 5259 11bd 5eca e1bb b5d2 cebd fafe 59bc
00000340: aa8e 8c3d 4175 0d3d c814 953b 2333 3b3d
00000350: bc81 223b 0327 38bc 9783 f4bd 20e4 9fbd
00000360: 5d2a efbb b006 203d ae08 3d3a dfaa 35bb
00000370: a5c0 1a3d df23 0a3d 989d e63b da5d 143c
00000380: e5d4 8c3d 9fd7 983d 2e75 92bc 64a6 453d
00000390: 07d6 80bd a156 9e3b 4a22 a4bc 15a4 6c3c
000003a0: b10d 483d 51e5 dd3c 40c0 21bc 3c80 a93d
000003b0: b4d8 713d 6662 6c3b 4c55 e53b f2ba 9f3a
000003c0: e603 4c3d 45d9 ba3b 1c04 273c 2f9e 34bc
000003d0: 2aba 093d 6237 c83c 2b7a 7dbd 12d2 38bc
000003e0: 95c1 5e3d 1287 8c3d 9fa4 953d da8f 4a3a
000003f0: b3a1 a6bd f7bc 16bd 5d6c 253d 18ba 5b3d

conv_layers.2.bias f4 [64]
0.052827418 -0.022973478 -0.037923623 -0.06227273 -0.09330026 -0.02046544 0.004873163 0.04269568
0.013108016 0.030261803 0.005379515 -0.00028826893 -0.014079624 -0.0060005616 0.047761373 -0.036563776
-0.073450044 0.046823006 -0.083636105 -0.09301218 -0.059120256 -0.026204824 0.028935235 0.040943142
-0.10837319 0.026948476 0.07444318 -0.035961073 0.063907586 0.026250232 -0.043692365 0.028423488
0.029995011 -0.023135152 0.059418272 0.012279904 0.015720503 0.06272013 -0.005891205 -0.012132556
-0.005657776 0.0935371 -0.08993351 0.113652475 -0.04116193 0.056701336 -0.0028395397 -0.028638247
0.0992646 0.036364116 0.10060387 -0.06926273 0.007678771 -0.05793793 0.036083996 -0.06320268
-0.00043142412 0.0012242146 0.00846866 0.0028859377 0.029570026 0.022068793 0.009204371 0.04987248
00000000: 9061 583d e032 bcbc cd55 1bbd b111 7fbd
00000010: 3514 bfbd 23a7 a7bc 0eaf 9f3b aae1 2e3d
00000020: 01c3 563c 9ae7 f73c a446 b03b cd22 97b9
00000030: 39ae 66bc 5ca0 c4bb 6ea1 433d e6c3 15bd
00000040: fa6c 96bd 7bc9 3f3d 6849 abbd 2b7d bebd
00000050: 1528 72bd 80ab d6bc 9609 ed3c ffb3 273d
00000060: c3f2 ddbd 0dc3 dc3c aa75 983d eb4b 13bd
00000070: fbe1 823d ba0a d73c c4f6 32bd 60d8 e83c
00000080: 19b8 f53c ee85 bdbc 9360 733d a731 493c
00000090: 49c8 803c 6973 803d 020b c1bb a1c7 46bc
000000a0: dd64 b9bb 6190 bf3d 0f2f b8bd a1c2 e83d
000000b0: 6999 28bd a93f 683d 9217 3abb c29a eabc
000000c0: 3d4b cb3d 8af2 143d 6709 ce3d 9ed9 8dbd
000000d0: 339e fb3b 5350 6dbd d0cc 133d 6870 81bd
000000e0: c430 e2b9 d375 a03a 22c0 0a3c 0022 3d3b
000000f0: d73c f23c 9dc9 b43c eecd 163c 1647 4c3d

conv_layers.3.weight f4 [64, 256, 5]
0.05093019 0.032746702 0.009123314 -0.048963457 0.077028014 -0.055730473 0.06703506 -0.03721654
0.028811136 0.05060786 0.027482647 0.016268814 -0.06300647 0.08258474 -0.03642615 0.018856663
-0.025141325 0.10562422 -0.02443189 -0.024867654 -0.00031055717 -0.060437232 -0.06994032 0.026876116
-0.05666836 0.035348877 0.053075314 0.061340783 0.025903678 -0.050647743 0.017589636 -0.036069334
0.052783716 0.10970517 -0.0009101682 0.046569046 0.03053918 0.001937255 0.03281301 0.005276998
-0.033928677 0.025803313 -0.03734276 -0.0024112097 0.11548063 0.06301221 0.011505894 -0.0029823168
0.07605229 0.047756717 0.012611699 -0.0037122613 -0.09231981 0.023260636 -0.017198233 0.0115074515
0.0064998046 -0.02426397 -0.036922995 -0.116563916 -0.029855018 0.015007005 0.03566608 -0.055905227
0.044669826 -0.039767653 0.042126875 0.046800766 0.07528526 -0.044682365 0.060550056 0.009964173
-0.04029867 -0.06710841 -0.032608002 -0.010938773 0.03883582 0.0454413 -0.04707571 -0.029055394
-0.008682768 0.022674967 -0.015685206 0.06629637 -0.07340656 0.007467695 -0.020490935 0.019267984
0.04442301 0.019713731 -0.03970067 0.039367717 -0.005228582 -0.005921758 0.015074313 0.0713721
0.04467984 -0.024283396 0.06743751 0.09490664 0.055602532 -0.11846065 0.03400168 0.092914626
-0.03720806 0.026359558 0.0072111166 -0.07580176 0.024475245 -0.026950082 0.051478397 -0.072391845
0.0448556 -0.05951543 0.0042298785 -0.0037107721 0.05722276 -0.033069152 -0.0012596847 0.002240983
-0.05632573 0.014871896 -0.0133952135 -0.0025108058 -0.08076985 0.06592491 0.033318914 0.06413235
-7.1054565e-05 0.13251509 -0.015121559 0.006963527 -0.011199976 -0.010126279 0.016103486 -0.0628245
-0.010656098 -0.0923128 -0.018409709 0.010889784 -0.0003713922 -0.01054534 -0.03475259 -0.018658092
-0.09827545 -0.04073489 0.011280404 0.0076751844 0.057355627 -0.090777025 0.07376781 -0.01603933
0.0036271978 -0.01481547 -0.074951306 -0.023161588 -0.01494634 0.044585023 -0.04863993 -0.049927223
0.031643648 -0.02437227 0.0013774495 0.035220467 0.02554007 -0.0015633594 -0.09622761 0.010568892
0.052434277 -0.033615697 -0.010684733 -0.028714828 -0.02340981 0.004027645 -0.053001236 0.04024184
0.010505169 -0.025199896 -0.024413254 -0.04792265 -0.01371108 0.06477518 0.035254538 0.0037817215
-0.0055907997 -0.029318204 -0.029188514 -0.016151117 -0.016685579 0.08009912 -0.039957955 0.022017092
0.053184856 0.04992282 -0.021435594 0.11537766 -0.043037884 -0.038845416 -0.024397364 0.05416544
0.038315143 0.015030127 -0.031335853 -0.037325077 0.06116449 0.043369107 -0.017793763 0.0018845475
0.06608867 0.0039337827 -0.0060595884 0.026080221 -0.021037823 0.018033303 -0.040339448 0.08425563
0.009562387 -0.06294161 -0.11585447 -0.080388896 0.08368735 -0.002089517 -0.10287539 -0.026666533
-0.106104925 -0.043753084 -0.006516542 -0.023565048 0.01616354 -0.017179683 -0.0036121346 0.04782481
0.06537834 0.060747914 -0.074406564 -0.0148985 -0.010551398 0.03922899 0.00926486 0.018337447
0.010290972 -0.024721455 0.059125546 0.016248284 -0.022763263 0.004226517 -0.0032953252 0.01885452
-0.0067290803 -0.027022228 -0.055673104 0.0235068 0.03479711 0.04708521 -0.031889603 0.017071137
00000000: 2d9c 503d 6821 063d f479 153c e88d 48bd
00000010: ddc0 9d3d a345 64bd ad49 893d 5f70 18bd
00000020: 5505 ec3c 304a 4f3d 4a23 e13c 2d46 853c
00000030: 8909 81bd 3022 a93d 9633 15bd 4a79 9a3c
00000040: 2ef5 cdbc 8351 d83d 6325 c8bc 40b7 cbbc
00000050: 47d2 a2b9 088d 77bd df3c 8fbd 4d2b dc3c
00000060: 151d 68bd fcc9 103d 8065 593d 7940 7b3d
00000070: f333 d43c 0274 4fbd 2418 903c 70bd 13bd
00000080: bd33 583d 1bad e03d 5b98 6eba 2fbf 3e3d
00000090: 4d2d fa3c 7eeb fd3a ef66 063d abea ac3b
000000a0: ccf8 0abd 7861 d33c b9f4 18bd 6305 1ebb
000000b0: 1c81 ec3d 8c0c 813d 3883 3c3c f972 43bb
000000c0: 4ec1 9b3d 8c9c 433d 4da1 4e3c 6949 73bb
000000d0: 2b12 bdbd 178d be3c 4fe3 8cbc c089 3c3c
000000e0: 50fc d43b 3cc5 c6bc 913c 17bd 10b9 eebd
000000f0: 8392 f4bc f1df 753c 9816 123d e1fc 64bd
00000100: b5f7 363d 68e3 22bd 3b8d 2c3d 29b2 3f3d
00000110: 292f 9a3d db04 37bd 5603 783d c540 233c
00000120: 3810 25bd 2270 89bd f88f 05bd 8a38 33bc
00000130: 4f12 1f3d a820 3a3d 76d2 40bd 9405 eebc
00000140: 2b42 0ebc dac0 b93c 437e 80bc 64c6 873d
00000150: 2e56 96bd 91b3 f43b 9bdc a7bc e4d7 9d3c
00000160: e7f4 353d b17e a13c 2b9d 22bd 0b40 213d
00000170: 8654 abbb 4e0b c2bb 40fa 763c 892b 923d
00000180: 3502 373d f9ed c6bc ad1c 8a3d 6a5e c23d
00000190: 7bbf 633d 7f9b f2bd 5845 0b3d 064a be3d
000001a0: 7b67 18bd 00f0 d73c 3b4b ec3b f43d 9bbd
000001b0: 4f80 c83c 6bc6 dcbc 03db 523d 2d42 94bd
000001c0: 81ba 373d 74c6 73bd cb9a 8a3b 6d30 73bb
000001d0: 6a62 6a3d 8573 07bd 011c a5ba 75dd 123b
000001e0: cfb5 66bd 41a9 733c 9977 5bbc 558c 24bb
000001f0: aa6a a5bd a403 873d 6a79 083d d257 833d
00000200: 2103 95b8 09b2 073e 6ac0 77bc 4c2e e43b
00000210: 1b80 37bc b1e8 25bc 75eb 833c 22aa 80bd
00000220: ea96 2ebc 7e0e bdbd f5cf 96bc 116b 323c
00000230: 6bb7 c2b9 5dc6 2cbc bb58 0ebd dbd8 98bc
00000240: a444 c9bd a1d9 26bd 72d1 383c 1d80 fb3b
00000250: bced 6a3d 4ee9 b9bd 9413 973d ea64 83bc
00000260: 48b6 6d3b 96bc 72bc 1280 99bd 5fbd bdbc
00000270: 7ee1 74bc c99e 363d aa3a 47bd 7d80 4cbd
00000280: c59c 013d 5ba8 c7bc 898b b43a 5643 103d
00000290: 6939 d13c a3e9 ccba fb12 c5bd 2529 2d3c
000002a0: 53c5 563d 9db0 09bd 050f 2fbc 5c3b ebbc
000002b0: eec5 bfbc 56fa 833b d317 59bd a1d4 243d
000002c0: df1d 2c3c 0370 cebc 4efe c7bc 8a4a 44bd
000002d0: 70a4 60bc d9a8 843d 1067 103d c2d6 773b
000002e0: 0733 b7bb bb2c f0bc c01c efbc 594f 84bc
000002f0: 32b0 88bc 020b a43d f4aa 23bd 305d b43c
00000300: 5dd8 593d df7b 4c3d b399 afbc 1f4b ec3d
00000310: 7e48 30bd 5f1c 1fbd fbdc c7bc 95dc 5d3d
00000320: 57f0 1c3d ec40 763c 065a 00bd 2ee2 18bd
00000330: 9e87 7a3d cea3 313d 3ac4 91bc ec02 f73a
00000340: 7f59 873d f6e6 803b 838f c6bb 30a6 d53c
00000350: 8357 acbc 94ba 933c fa3a 25bd 378e ac3d
00000360: 8fab 1c3c 88e7 80bd 1c45 edbd efa2 a4bd
00000370: 4664 ab3d 47f0 08bb 55b0 d2bd c673 dabc
00000380: 8a4d d9bd 6f36 33bd b788 d5bb 7d0b c1bc
00000390: 6669 843c 68bc 8cbc 90b9 6cbb f3e3 433d
000003a0: 14e5 853d ced2 783d 7862 98bd d718 74bc
000003b0: c5df 2cbc 94ae 203d a4cb 173c 6a38 963c
000003c0: 779b 283c a684 cabc a12d 723d 1f1b 853c
000003d0: 067a babc 987e 8a3b 62f6 57bb cb74 9a3c
000003e0: 9e7f dcbb b85d ddbc 7b09 64bd 5591 c03c
000003f0: 6a87 0e3d 6cdc 403d ac9e 02bd c5d8 8b3c

conv_layers.3.bias f4 [64]
-0.1808524 -0.07885991 -0.102220334 -0.03489671 -0.090402886 -0.06257087 -0.022194123 -0.1027812
0.030446392 0.029609462 -0.036007926 0.037765495 -0.051292323 -0.01204356 0.040875643 0.034738235
-0.09040202 0.07673875 0.040730547 0.047847606 -0.026934871 -0.0701657 -0.060463674 0.006442409
0.028677942 -0.07730944 0.025973063 0.07098076 -0.038359467 -0.060941298 -0.027244536 0.0074505894
0.046044253 0.011799031 -0.04709458 -0.010379492 0.015999965 -0.011760965 -0.069350705 -0.034827016
0.014817259 -0.05379052 -0.06860759 -0.041126084 -0.069563866 0.0071372436 0.024467142 0.048173845
-0.06282344 -0.07596085 0.038545504 0.012072285 0.012628482 -0.034380868 -0.033473685 -0.08076949
0.0050392314 -0.016288444 0.10388807 -0.051306218 0.026567208 -0.010655918 -0.089525975 -0.024753598
00000000: 5f31 39be 4e81 a1bd e558 d1bd daef 0ebd
00000010: 2625 b9bd 2825 80bd 73d0 b5bc f37e d2bd
00000020: b66a f93c 8b8f f23c 0c7d 13bd feaf 1a3d
00000030: e617 52bd 5a52 45bc 386d 273d ae49 0e3d
00000040: b224 b9bd 3529 9d3d 13d5 263d dafb 433d
00000050: 85a6 dcbc 09b3 8fbd c2a8 77bd d81a d33b
00000060: 01ee ea3c 6954 9ebd 76c5 d43c 5c5e 913d
00000070: d11e 1dbd 959d 79bd ef2f dfbc 1324 f43b
00000080: e698 3c3d b950 413c 3fe6 40bd bf0e 2abc
00000090: 5c12 833c 10b1 40bc be07 8ebd c6a6 0ebd
000000a0: 17c4 723c 7353 5cbd 2382 8cbd d373 28bd
000000b0: 8077 8ebd 8adf e93b 516f c83c f051 453d
000000c0: 93a9 80bd 5d91 9bbd e4e1 1d3d d5ca 453c
000000d0: b1e7 4e3c f4d2 0cbd b41b 09bd 796a a5bd
000000e0: 2320 a53b 586f 85bc 45c3 d43d 7826 52bd
000000f0: 79a3 d93c 2996 2ebc 6559 b7bd 0fc8 cabc

fc1.weight f4 [64, 256]
-0.043131944 0.02250637 -0.02235101 -0.0015814281 -0.070623495 0.029343126 0.07533427 0.0018269041
-0.02869071 -0.027699143 -0.026737742 -0.04312505 -0.008145658 -0.06343783 0.04175659 -0.0125009855
-0.058961593 -0.030118939 -0.009175387 -0.006226664 -0.004404169 0.03235809 -0.0050190603 -0.07095862
0.004523798 -0.038038585 0.04806604 -0.044469774 0.022203682 0.0034976108 -0.07000742 -0.017390601
-0.027852116 -0.023887532 -0.060757283 0.03475831 -0.012079206 -0.07776612 -0.06831999 0.031395726
-0.015394833 -0.01655046 0.046683077 -0.027914047 -0.034587666 -0.022347212 0.021865122 -0.033417594
-0.07173632 0.0015511548 -0.031554703 -0.034254253 -0.026595399 0.02219669 0.060723435 -0.03341432
-0.02817138 0.0312041 0.010646361 0.0076234746 0.024029817 -0.06554635 -0.024670742 0.029572608
-0.039089568 -0.006418204 0.04932765 -0.07209351 -0.013681727 0.012741764 -0.065819636 0.012306333
-0.010781779 -0.0487635 -0.020512618 -0.035202846 -0.010332127 0.045071803 -0.045471724 0.023117976
0.026445454 -0.05417579 0.01630698 -0.05442581 -0.01688737 0.035227202 0.0037985435 0.012476535
-0.03158234 0.0016661021 0.026497494 -0.04758211 0.007036004 -0.051095862 0.0021161062 0.048240513
0.015399876 0.048507176 -0.04446523 -0.00032837014 0.005198443 -0.03630861 0.028193453 0.001301036
0.01679402 0.047449797 -0.053342044 -0.06915563 0.0063852044 -0.024509476 -0.03688221 -0.01747888
-0.013378621 0.008493692 0.022306029 -0.000765046 -0.05920342 0.0042823837 -0.008364303 -0.014895889
-0.028431566 -0.03808862 0.008410829 0.038798895 -0.043088645 -0.047666177 -0.009433121 -0.02589744
-0.05364307 0.036811236 0.008729039 0.010117269 -0.06045127 -0.06685138 -0.013542903 0.03608314
0.02207294 -0.058424506 -0.0022144287 -0.00020852752 -0.044172917 -0.0085654305 0.003528503 -0.018712644
0.05078572 0.04168905 0.039732706 0.027468234 -0.011193236 -0.018239018 -0.0652891 -0.019245772
-0.07330481 0.008839508 -0.019054763 -0.015448648 -0.017144274 -0.063117 0.03836962 -0.049878724
0.036171053 0.040940247 -0.023201313 -0.017132059 -0.040858693 -0.055924315 -0.026403684 -0.056476947
0.031011045 0.012722732 -0.061045893 -0.013521797 -0.028490549 -0.033565566 -0.0619009 0.049043942
-0.02912055 0.010350357 -0.013801723 0.026106399 0.008398113 -0.011616957 0.0344512 -0.025676647
-0.052993517 -0.061221156 -0.0077768266 -0.049237084 -0.066941716 0.013466538 -0.0018757466 -0.00039272205
0.0067214286 -0.04225912 -0.054614905 -0.05966658 -0.028572679 -0.06550808 -0.05157568 0.024808919
0.0093547655 -0.053855155 -0.004685655 0.031656343 0.037978217 -0.04989049 -0.030430969 0.010692071
-0.005021015 0.013801735 0.0064762365 0.04641918 0.01456281 -0.07176675 -0.017629022 -0.048348878
0.020975657 0.0111129815 -0.03357051 -0.032706946 0.02353851 0.015791092 0.055302206 -0.02519396
0.0104904575 0.008145345 -0.025944717 -0.046052385 -0.0408315 0.007997153 -0.065129265 0.024474226
-0.02019311 0.017587043 -0.067584395 -0.0323092 -0.033477716 -0.014812762 0.0027195362 -0.05120536
0.032043822 -0.052826796 0.000652094 -0.04942747 -0.05336051 -0.019420689 0.01763975 0.04928539
-0.02282996 0.0004450056 -0.04822857 -0.06064389 0.056035727 -0.042195525 0.029363584 0.027135542
00000000: 1fab 30bd 475f b83c 7719 b7bc ec47 cfba
00000010: 0da3 90bd ff60 f03c db48 9a3d bb74 ef3a
00000020: c808 ebbc 50e9 e2bc 1c09 dbbc e4a3 30bd
00000030: 5e75 05bc b1eb 81bd f508 2b3d efd0 4cbc
00000040: b681 71bd febb f6bc 5d54 16bc 0b09 ccbb
00000050: d950 90bb eb89 043d ee76 a4bb c152 91bd
00000060: 5e3c 943b 59ce 1bbd e5e0 443d f025 36bd
00000070: 7fe4 b53c 2c38 653b 0d60 8fbd bc76 8ebc
00000080: 1f2a e4bc c9af c3bc a1dc 78bd bb5e 0e3d
00000090: dde7 45bc d843 9fbd 5aeb 8bbd ce98 003d
000000a0: 9c3a 7cbc d594 87bc c136 3f3d 00ac e4bc
000000b0: ccab 0dbd 8011 b7bc 7c1e b33c e3e0 08bd
000000c0: 7eea 92bd 1e50 cb3a 813f 01bd 304e 0cbd
000000d0: 98de d9bc d5d5 b53c 23b9 783d 74dd 08bd
000000e0: aac7 e6bc be9f ff3c 136e 2e3c 57ce f93b
000000f0: 2eda c43c 2a3d 86bd 4c1a cabc 4142 f23c
00000100: 621c 20bd cc4f d2bb ca0b 4a3d c3a5 93bd
00000110: 5329 60bc d5c2 503c 72cc 86bd 80a0 493c
00000120: 0fa6 30bc 3cbc 47bd 140a a8bc dc30 10bd
00000130: 1548 29bc 369d 383d 8f40 3abd e961 bd3c
00000140: 23a4 d83c 6fe7 5dbd 3796 853c 99ed 5ebd
00000150: 6257 8abc 664a 103d fcf0 783b 616a 4c3c
00000160: 7c5c 01bd 1c61 da3a 4611 d93c 75e5 42bd
00000170: 488e e63b e549 51bd 5fae 0a3b d897 453d
00000180: c34f 7c3c 76af 463d 2c21 36bd 1829 acb9
00000190: b357 aa3b 56b8 14bd f5f5 e63c 8687 aa3a
000001a0: 9d93 893c b85a 423d 307d 5abd 78a1 8dbd
000001b0: fa3a d13b 19c8 c8bc cd11 17bd de2f 8fbc
000001c0: 0132 5bbc 2029 0b3c 22bb b63c 5e8d 48ba
000001d0: 497f 72bd 3d53 8c3b 6e0a 09bc e30d 74bc
000001e0: 51e9 e8bc d002 1cbd 93cd 093c 97eb 1e3d
000001f0: b87d 30bd 9c3d 43bd 618d 1abc de26 d4bc
00000200: d6b8 5bbd 61c7 163d 3e04 0f3c e7c2 253c
00000210: c09b 77bd 60e9 88bd 0de3 5dbc eacb 133d
00000220: 4fd2 b43c 894e 6fbd f31f 11bb 2ea8 5ab9
00000230: a9ee 34bd 0556 0cbc 753e 673b 424b 99bc
00000240: b004 503d 23c2 2a3d c3be 223d 1005 e13c
00000250: d663 37bc fe69 95bc 4bb6 85bd 4fa9 9dbc
00000260: d520 96bd 95d3 103c bc18 9cbc 531c 7dbc
00000270: 2672 8cbc 7c43 81bd 7629 1d3d a24d 4cbd
00000280: 1928 143d f6b0 273d ae10 bebc 8858 8cbc
00000290: 725b 27bd e510 65bd 8a4c d8bc 5f54 67bd
000002a0: e00a fe3c 0173 503c 420b 7abd 878a 5dbc
000002b0: 0365 e9bc 0c7c 09bd cc8b 7dbd 4de2 483d
000002c0: 388e eebc 8b94 293c 9f20 62bc 16dd d53c
000002d0: 3d98 093c 0d55 3ebc b41c 0d3d d557 d2bc
000002e0: bb0f 59bd 09c3 7abd c0d4 febb d3ac 49bd
000002f0: bd18 89bd c1a2 5c3c 9ddb f5ba 43e6 cdb9
00000300: 6e3f dc3b e617 2dbd e1b3 5fbd f264 74bd
00000310: 4011 eabc 1a29 86bd 0541 53bd 133c cb3c
00000320: bb44 193c 3997 5cbd 1f8a 99bb 15aa 013d
00000330: 0c8f 1b3d f859 4cbd 5e4a f9bc cc2d 2f3c
00000340: 5487 a4bb ac20 623c 9c36 d43b 0a22 3e3d
00000350: da98 6e3c 72fa 92bd bd6a 90bc 7909 46bd
00000360: 24d5 ab3c 3913 363c 3b81 09bd b8f7 05bd
00000370: d5d3 c03c 525c 813c 9184 623d 9063 cebc
00000380: 2be0 2b3c 0e74 053c 048a d4bc 6da1 3cbd
00000390: ee3e 27bd 7e06 033c 7e62 85bd 2c7e c83c
000003a0: 056c a5bc b412 903c b069 8abd a756 04bd
000003b0: ee1f 09bd 3ab1 72bc 3f3a 323b b6bc 51bd
000003c0: 6240 033d e960 58bd 4af1 2a3a 7574 4abd
000003d0: 8d90 5abd 2318 9fbc 3d81 903c 7adf 493d
000003e0: e505 bbbc a44f e939 528b 45bd ba65 78bd
000003f0: b885 653d 37d5 2cbd e68b f03c 5b4b de3c

fc1.bias f4 [64]
-0.055846997 -0.13396047 0.010740087 -0.0044119456 -0.036808003 -0.16915941 -0.0044752923 -0.066240795
0.015058279 -0.06227953 0.0442109 0.054027524 -0.05245072 -0.04473234 0.018178858 -0.0049785483
0.038225625 0.015290846 0.028462356 -0.022079377 -0.06653839 -0.06331539 0.10478098 0.033675633
-0.053137045 -0.012604072 0.0025054247 0.003270664 0.045846727 -0.030619388 -0.057203293 -0.014496223
-0.06483217 0.057163976 -0.047295272 0.0172418 -0.072736226 -0.020733787 0.041844066 -0.09156575
0.013030857 -0.078368746 -0.0012139252 0.027038744 0.05685555 -0.051309604 -0.027177732 0.059226785
0.034821194 -0.057322532 0.028960595 -0.06655521 0.062348954 0.04967457 0.06545309 -0.032920256
0.027510975 0.103491955 -0.049343027 -0.04715331 0.14511581 0.006299517 -0.059176594 -0.004260264
00000000: d2bf 64bd ef2c 09be 31f7 2f3c 1592 90bb
00000010: fdc3 16bd 2038 2dbe 79a5 92bb 41a9 87bd
00000020: 00b7 763c d218 7fbd 7d16 353d f74b 5d3d
00000030: 91d6 56bd 4239 37bd d4eb 943c 1723 a3bb
00000040: 7992 1c3d 7586 7a3c e329 e93c cfdf b4bc
00000050: 4845 88bd 80ab 81bd 6997 d63d 76ef 093d
00000060: 3ba6 59bd 4f81 4ebc 0d32 243b a358 563b
00000070: c7c9 3b3d 83d5 fabc 004e 6abd 9181 6dbc
00000080: bbc6 84bd c624 6a3d b0b8 41bd ad3e 8d3c
00000090: bbf6 94bd e7d9 a9bc af64 2b3d d386 bbbd
000000a0: 607f 553c cb7f a0bd 921c 9fba 5b80 dd3c
000000b0: 5de1 683d 052a 52bd d6a3 debc c997 723d
000000c0: aba0 0e3d 08cb 6abd c53e ed3c 194e 88bd
000000d0: 9e61 7f3d 9077 4b3d 450c 863d 64d7 06bd
000000e0: b25e e13c 97f3 d33d ea1b 4abd d423 41bd
000000f0: 3d99 143e 2e6c ce3b 2863 72bd af99 8bbb

batch_norm.weight f4 [64]
1.0041747 1.5013824 0.9895798 1.5246495 1.3458949 1.698487 0.98824036 1.4132465
0.99399465 1.8191786 1.5540553 2.10008 0.99375737 1.5118378 0.9876125 1.3823178
1.6129767 1.4774793 1.5237137 1.5495486 1.2448006 0.98729116 1.4923267 0.99629575
0.99458086 0.9920229 0.9908163 1.0984925 1.3022242 1.1895384 1.7247406 1.4675918
0.9928452 1.5248955 1.3645518 1.5878934 1.4047985 1.4981992 1.3622714 1.4000828
1.0155498 0.9756988 1.4139972 1.4089898 1.592191 0.9946629 1.3524189 1.3120736
0.9940166 1.2841427 0.99172056 0.9915996 1.5670849 1.0 1.4834669 1.5077443
0.98970705 1.4118454 0.9939945 1.7481987 1.8977802 0.97403723 0.98800707 1.4264292
00000000: cc88 803f 4c2d c03f 1a55 7d3f b727 c33f
00000010: 4946 ac3f 0668 d93f 52fd 7c3f 43e5 b43f
00000020: 6f76 7e3f d8da e83f 49eb c63f b667 0640
00000030: e266 7e3f e783 c13f 2cd4 7c3f caef b03f
00000040: 0576 ce3f 0b1e bd3f 0d09 c33f 9c57 c63f
00000050: a055 9f3f 1dbf 7c3f 9004 bf3f 3d0d 7f3f
00000060: da9c 7e3f 36f5 7d3f 23a6 7d3f 679b 8c3f
00000070: 48af a63f cb42 983f 4dc4 dc3f 0cda bb3f
00000080: 1a2b 7e3f c72f c33f a2a9 ae3f 1740 cb3f
00000090: 70d0 b33f fec4 bf3f e95e ae3f ea35 b33f
000000a0: 89fd 813f 66c7 793f dcfd b43f c759 b43f
000000b0: eacc cb3f 3aa2 7e3f 101c ad3f 07f2 a73f
000000c0: df77 7e3f ca5e a43f 66e1 7d3f 79d9 7d3f
000000d0: 3d96 c83f 0000 803f 3ee2 bd3f c4fd c03f
000000e0: 715d 7d3f 5ab7 b43f 6c76 7e3f fac4 df3f
000000f0: 76ea f23f 815a 793f 08ee 7c3f 3b95 b63f

batch_norm.bias f4 [64]
0.08564732 -0.03328796 0.10126339 0.0021386493 0.03833409 -0.008412793 -0.12760854 -0.034721218
-0.13864462 0.041342363 -0.0505524 0.06624185 0.129163 0.0044958265 0.096518286 -0.04543755
-0.008662367 0.0017721234 -0.06797507 -0.0009368448 0.03661503 0.10549838 -0.0021998829 -0.0051275
0.05878083 -0.07178579 0.016839903 0.07488189 -0.094841756 -0.029428674 -0.0026545778 0.019603895
-0.10242742 -0.0388463 -0.013088782 -0.038576256 -0.03479494 0.05839496 -0.011104362 -0.020968346
-0.14595939 0.093477085 -0.022951188 0.02225018 -0.005147883 -0.08548239 0.082570486 0.0051318617
-0.12501664 -0.00024940076 -0.07598188 0.13591766 0.011313521 0.011351685 0.015839025 0.0595633
-0.0831971 0.049181823 0.05482685 0.0071655284 0.05526815 0.030866927 0.16129155 0.013260062
00000000: dd67 af3d f558 08bd 2e63 cf3d 9528 0c3b
00000010: 3504 1d3d d0d5 09bc d0ab 02be d637 0ebd
00000020: dbf8 0dbe 9c56 293d 0910 4fbd cfa9 873d
00000030: 4e43 043e ba51 933b 61ab c53d b91c 3abd
00000040: 9aec 0dbc 9846 e83a 8336 8bbd 9796 75ba
00000050: a4f9 153d 890f d83d e92b 10bb 9604 a8bb
00000060: 2bc4 703d 6e04 93bd d6f3 893c ad5b 993d
00000070: 653c c2bd 6714 f1bc 6df8 2dbb 5998 a03c
00000080: 78c5 d1bd 4c1d 1fbd 5572 56bc 2302 1ebd
00000090: 2485 0ebd 8e2f 6f3d 12ef 35bc cfc5 abbc
000000a0: 6176 15be ea70 bf3d 2104 bcbc 0246 b63c
000000b0: 93af a8bb 6411 afbd b71a a93d 2d29 a83b
000000c0: 5d04 00be 01c2 82b9 639c 9bbd 002e 0b3e
000000d0: 595c 393c 6bfc 393c d8c0 813c a6f8 733d
000000e0: 3e63 aabd e172 493d 1e92 603d cfcc ea3b
000000f0: db60 623d a3dc fc3c 9d29 253e bb40 593c

batch_norm.running_mean f4 [64]
6e-45 6e-45 6e-45 6e-45 6e-45 6e-45 6e-45 6e-45
6e-45 7.945093 6e-45 0.0025213943 6e-45 6e-45 6e-45 6e-45
6e-45 6e-45 6e-45 6e-45 6e-45 6e-45 6e-45 6e-45
6e-45 6e-45 6e-45 6e-45 6e-45 6e-45 6e-45 6e-45
6e-45 6e-45 6e-45 6e-45 6e-45 6e-45 6e-45 6e-45
6e-45 6e-45 6e-45 6e-45 5.0997993e-38 6e-45 6e-45 6e-45
6e-45 6e-45 6e-45 6e-45 6e-45 0.0 6e-45 6e-45
6e-45 6e-45 6e-45 6e-45 9.186099 6e-45 6e-45 6e-45
00000000: 0400 0000 0400 0000 0400 0000 0400 0000
00000010: 0400 0000 0400 0000 0400 0000 0400 0000
00000020: 0400 0000 343e fe40 0400 0000 fa3d 253b
00000030: 0400 0000 0400 0000 0400 0000 0400 0000
00000040: 0400 0000 0400 0000 0400 0000 0400 0000
00000050: 0400 0000 0400 0000 0400 0000 0400 0000
00000060: 0400 0000 0400 0000 0400 0000 0400 0000
00000070: 0400 0000 0400 0000 0400 0000 0400 0000
00000080: 0400 0000 0400 0000 0400 0000 0400 0000
00000090: 0400 0000 0400 0000 0400 0000 0400 0000
000000a0: 0400 0000 0400 0000 0400 0000 0400 0000
000000b0: 6ad4 8a01 0400 0000 0400 0000 0400 0000
000000c0: 0400 0000 0400 0000 0400 0000 0400 0000
000000d0: 0400 0000 0000 0000 0400 0000 0400 0000
000000e0: 0400 0000 0400 0000 0400 0000 0400 0000
000000f0: 43fa 1241 0400 0000 0400 0000 0400 0000

batch_norm.running_var f4 [64]
6e-45 6e-45 6e-45 6e-45 6e-45 6e-45 6e-45 6e-45
6e-45 5.836863 6e-45 0.005813023 6e-45 6e-45 6e-45 6e-45
6e-45 6e-45 6e-45 6e-45 6e-45 6e-45 6e-45 6e-45
6e-45 6e-45 6e-45 6e-45 6e-45 6e-45 6e-45 6e-45
6e-45 6e-45 6e-45 6e-45 6e-45 6e-45 6e-45 6e-45
6e-45 6e-45 6e-45 6e-45 2.837493e-38 6e-45 6e-45 6e-45
6e-45 6e-45 6e-45 6e-45 6e-45 6e-45 6e-45 6e-45
6e-45 6e-45 6e-45 6e-45 7.004836 6e-45 6e-45 6e-45
00000000: 0400 0000 0400 0000 0400 0000 0400 0000
00000010: 0400 0000 0400 0000 0400 0000 0400 0000
00000020: 0400 0000 95c7 ba40 0400 0000 2c7b be3b
00000030: 0400 0000 0400 0000 0400 0000 0400 0000
00000040: 0400 0000 0400 0000 0400 0000 0400 0000
00000050: 0400 0000 0400 0000 0400 0000 0400 0000
00000060: 0400 0000 0400 0000 0400 0000 0400 0000
00000070: 0400 0000 0400 0000 0400 0000 0400 0000
00000080: 0400 0000 0400 0000 0400 0000 0400 0000
00000090: 0400 0000 0400 0000 0400 0000 0400 0000
000000a0: 0400 0000 0400 0000 0400 0000 0400 0000
000000b0: e17c 1a01 0400 0000 0400 0000 0400 0000
000000c0: 0400 0000 0400 0000 0400 0000 0400 0000
000000d0: 0400 0000 0400 0000 0400 0000 0400 0000
000000e0: 0400 0000 0400 0000 0400 0000 0400 0000
000000f0: 9e27 e040 0400 0000 0400 0000 0400 0000

fc2.weight f4 [2, 64]
0.03334755 -0.079771765 0.015765404 -0.24745886 0.278236 0.26295137 0.07735707 0.0792148
0.019426078 0.46860513 -0.14211404 0.3554146 0.0019301864 -0.11283682 -0.0029733519 -0.109461024
-0.070963874 -0.084932156 0.10679457 -0.17122915 0.16163813 0.037095852 0.0064402795 -0.015372762
0.030766936 -0.037723705 -0.08659619 -0.08110358 0.052612208 -0.025713379 0.24324371 -0.16284965
-0.06841876 0.0456276 -0.0632898 -0.033125516 -0.06920316 -0.1374207 0.03428882 0.081667334
0.11515714 -0.085996956 -0.024868118 -0.1031942 0.14204712 0.009379838 -0.03667482 0.00025666773
-0.052817535 0.05244045 0.020781484 -0.025282694 0.17910916 -0.019858344 0.040751018 0.02211813
-0.047094487 -0.12226986 -0.01861531 0.12692602 0.5137071 -0.07105844 -0.13023475 0.38507345
-0.01502752 0.11106869 0.026479898 0.1034289 -0.15850526 -0.16209193 0.07212437 -0.082160786
-0.03917801 -0.46363062 -0.040866993 -0.52391654 0.045865063 -0.03843796 0.054635018 0.13812931
0.10266672 -0.058332514 0.07169478 0.20652191 -0.21244971 -0.016542582 0.13117532 -0.017297817
-0.045926332 -0.016473915 -0.019191962 0.1343602 0.0513037 0.10817261 -0.18809703 0.014162606
-0.02922422 0.15554136 0.07962198 0.21750449 0.0912019 0.0469968 -0.029482769 -0.107862845
0.030575838 -0.052915744 0.06543984 0.11608793 -0.24779591 0.025424575 0.030319072 -0.029123358
-0.094933584 0.052976567 -0.036015328 0.040913202 -0.01929371 -0.013025588 0.009140651 -0.13078481
-0.06487048 0.044406462 -0.010715315 -0.23115908 -0.37882686 -0.08182462 -0.101904795 -0.29288408
00000000: 7197 083d 615f a3bd 7326 813c db65 7dbe
00000010: f374 8e3e 90a1 863e 626d 9e3d 5e3b a23d
00000020: 7023 9f3c 03ed ef3e 5886 11be e7f8 b53e
00000030: 4ffe fc3a fe16 e7bd 91dc 42bb 1a2d e0bd
00000040: 8255 91bd e9f0 adbd 1db7 da3d b256 2fbe
00000050: 7784 253e d2f1 173d fb08 d33b 0ade 7bbc
00000060: f10a fc3c 2c84 1abd 5859 b1bd a219 a6bd
00000070: e67f 573d dda4 d2bc e114 793e 0fc2 26be
00000080: 231f 8cbd 02e4 3a3d 159e 81bd 9fae 07bd
00000090: 63ba 8dbd 03b8 0cbe 6f72 0c3d 3441 a73d
000000a0: 82d7 eb3d 2c1f b0bd 39b8 cbbc 7b57 d3bd
000000b0: cd74 113e e4ad 193c 5638 16bd 5c91 8639
000000c0: 3357 58bd cccb 563d ee3d aa3c a71d cfbc
000000d0: 6468 373e f7ad a2bc 8aea 263d 1531 b53c
000000e0: 26e6 40bd 9f68 fabd 227f 98bc e5f8 013e
000000f0: 4f82 033f 1687 91bd 425c 05be 5928 c53e
00000100: fd35 76bc fb77 e33d 5fec d83c 88d2 d33d
00000110: 344f 22be 6dfb 25be f1b5 933d ea43 a8bd
00000120: 1f79 20bd fe60 edbe 2664 27bd 651f 06bf
00000130: 01dd 3b3d 1f71 1dbd f8c8 5f3d c571 0d3e
00000140: ee42 d23d 13ee 6ebd b6d4 923d 7b7a 533e
00000150: 6b8c 59be 4f84 87bc d352 063e 27b4 8dbc
00000160: 401d 3cbd 4ef4 86bc 7638 9dbc b895 093e
00000170: d423 523d 9a89 dd3d 829c 40be 460a 683c
00000180: a267 efbc 3c46 1f3e d910 a33d 7fb9 5e3e
00000190: 10c8 ba3d b77f 403d d985 f1bc 32e7 dcbd
000001a0: 2e7a fa3c 2ebe 58bd 5305 863d 82bf ed3d
000001b0: 36be 7dbe 3347 d03c b45f f83c 1c94 eebc
000001c0: 8a6c c2bd f5fd 583d cf84 13bd 9a94 273d
000001d0: d80d 9ebc 4769 55bc abc2 153c 74ec 05be
000001e0: d0da 84bd 8de3 353d 4a8f 2fbc f7b4 6cbe
000001f0: 98f5 c1be ab93 a7bd 76b3 d0bd e7f4 95be

fc2.bias f4 [2]
0.043419056 0.05376199
00000000: 2ed8 313d 8835 5c3d
