models/安室奈美恵/classifier_fold3.pth (torch, 991011 bytes, 16 tensors)

conv_layers.0.weight f4 [64, 256, 2]
000000 79 63 a1 3a a6 fd 6c 3d 18 52 91 bc 0c ef 54 3d
       0.001231297 0.057859086 -0.01773934 0.051985785
000010 93 76 f6 bc a8 df 23 bd 56 cb b0 bd 5a 32 5c 3d
       -0.030085837 -0.040008217 -0.08632533 0.053758956
000020 c1 dc 73 bc b9 d5 f1 bc 28 24 c9 bd 42 25 ee bd
       -0.014884175 -0.029520856 -0.098213494 -0.116282
000030 7e fe 2a bc 30 0a 4f bc 3a d6 2d 3c f0 9a e5 bc
       -0.010436652 -0.012636706 0.010610158 -0.028027982
000040 b9 e9 9f 3d 9c b7 06 3d db f1 97 bc ee 88 ca 3c
       0.07808251 0.032889947 -0.018547943 0.024723496
000050 0d 98 e1 3c c0 f3 23 bd 40 73 bc bd c0 4d 90 bd
       0.027538324 -0.04002738 -0.0920167 -0.0704608
000060 86 49 03 3d a6 13 13 bd 1e eb 66 bb 11 98 36 3c
       0.03205254 -0.03590741 -0.0035235356 0.011144654
000070 e6 4b 20 3d 95 cc 48 3c 0b fe 25 3c e0 02 d3 bb
       0.039134882 0.012255807 0.010131369 -0.0064395517
000080 d1 90 84 3d 38 91 b5 3d 8e 0e 32 bd 8c b7 4f bc
       0.06472934 0.08865589 -0.04347091 -0.012678038
000090 3d ca 45 bd 4c 13 d7 bb d9 51 4c bd b4 5a 35 bd
       -0.048288573 -0.0065635797 -0.049882744 -0.044275954
0000a0 25 b3 2b 3d af 6c ae bc c2 01 b8 bc 12 4b 2b bd
       0.041918892 -0.021292059 -0.022461776 -0.04181964
0000b0 87 3b 24 3d df 5d 13 bc ad a4 21 3d a2 12 05 3d
       0.040095832 -0.008994549 0.039463688 0.032488473
0000c0 8c f8 7b 3c f5 32 b2 3d 6b 35 ec 3d eb 43 89 3c
       0.015379082 0.087011255 0.11533626 0.016756019
0000d0 b6 32 74 3c 8b 6d 0f bd d0 23 eb 3c e3 87 5e bb
       0.014904669 -0.035016578 0.0287036 -0.0033955507
0000e0 f3 c9 06 3c 45 34 29 bc 0b 3b f7 bd 5d 7b 95 bc
       0.008226859 -0.010327403 -0.120718084 -0.0182473
0000f0 b5 da 02 bc 22 96 ec 3c 7d 55 0b 3c 0f 84 72 bd
       -0.007986714 0.028880183 0.008504269 -0.059207972
000100 5f 92 89 3d 31 fe b3 3d 54 4a 66 3c 76 2a a4 3d
       0.06717371 0.087887175 0.014055807 0.08015911
000110 4a a8 3a bd 9a bd 8f 3c d5 6b 04 3d 32 b1 87 3d
       -0.04557065 0.017546464 0.0323294 0.06625594
000120 33 43 91 3c ae a5 53 bd 55 84 13 bd c3 89 0e bd
       0.017732238 -0.051671676 -0.036014874 -0.03479935
000130 96 2e 16 3d 9d 9a 0b 3a 09 3c af 3c 4d 3b c0 bc
       0.03666552 0.00053254684 0.021390932 -0.023465777
000140 7b 0a ba bd a4 4c 74 3d 4f 3c 8b 3b cc 06 18 bd
       -0.0908403 0.059643403 0.0042491327 -0.037115857
000150 63 66 8e bb bf 85 56 3d 47 31 89 bd 17 f7 9a bd
       -0.0043457015 0.052373644 -0.06698852 -0.0756666
000160 f3 f1 97 bd 87 86 db 3c b4 15 1c 3d 8d 3c c8 3c
       -0.07419195 0.026797546 0.038106635 0.024442935
000170 73 4a ff bb bf ba 85 bd aa 23 a4 bc 58 91 7d bc
       -0.0077908575 -0.065297596 -0.020036537 -0.015476547
000180 47 6d bb 3c 57 cf 7a 3c c3 7b cd bd db 54 b5 3c
       0.022879256 0.015308223 -0.10033371 0.022135189
000190 54 b5 6b 3d 71 75 6f bd 91 a9 d8 bb 52 83 18 bd
       0.057545975 -0.05846161 -0.0066120108 -0.03723461
0001a0 60 f8 d5 bc fc 4e 48 3c d9 29 a1 bc 48 2e fa bc
       -0.026119411 0.012225863 -0.019673275 -0.030539647
0001b0 cb 70 57 3c 53 e4 73 bd 05 a3 4f bd 37 7e f1 bc
       0.0131494505 -0.05954392 -0.050692577 -0.02947913
0001c0 df ad 24 3d 86 49 1c bd 77 77 9f 3d 9b fd 6d 3c
       0.04020488 -0.038156055 0.07786458 0.014525796
0001d0 ef 12 3a bd 4d f8 7d bc e2 ac 5a 3c 86 a6 21 39
       -0.045428213 -0.015501094 0.013346883 0.00015416191
0001e0 43 84 2f 3d cb d0 44 3d 6b f0 89 bd 02 2a d9 bd
       0.042850744 0.048050683 -0.06735309 -0.106037155
0001f0 fe 4b c3 bc 21 bd 37 3d aa 1a 8e 3d 38 05 92 3c
       -0.023839947 0.0448581 0.069386795 0.017824754
000200 e0 d1 e3 bc d5 30 72 bd 8e d9 3a 3c 7e 03 19 3c
       -0.027810037 -0.0591286 0.011404408 0.0093392115
000210 19 a7 0c 3d e8 50 4f bd 42 ac 98 3c 9a a7 29 bd
       0.034339044 -0.050614268 0.018636826 -0.041419603
000220 9c d3 91 3c 04 3d 8a bd cb b3 26 bd 3f 98 69 3d
       0.017801099 -0.06749919 -0.040698808 0.05702996
000230 c2 f8 9a 3d df b0 6a bd 3c 70 35 3d 47 68 4a bb
       0.07566978 -0.057297584 0.04429649 -0.0030884908
000240 e8 8a 1a bd 1c 78 d2 bc 0b ff f0 bb 79 01 4e bb
       -0.037730128 -0.025692038 -0.0073546222 -0.0031433983
000250 22 69 57 bd f0 d8 de bc e2 67 82 bd e2 c9 be 3c
       -0.052590497 -0.027203053 -0.0636747 0.023289625
000260 2f 65 85 3c ad eb 94 3c 8c 38 eb bc f3 8e ab 3d
       0.0162836 0.018178785 -0.028713487 0.08376875
000270 a0 e6 51 bc 87 5d 77 bd 54 6b b2 3a 6a 03 e9 3b
       -0.012811333 -0.06039193 0.0013612309 0.0071110027
000280 68 ec e4 3c e3 55 b6 bc f5 d2 42 bd 0e cb 37 bd
       0.027944759 -0.02225775 -0.047564466 -0.044871382
000290 ed 8d 8a 3b 33 3e e9 3c 18 63 c0 3c d0 f3 f0 bc
       0.0042283447 0.028472042 0.023484752 -0.029413134
0002a0 68 e9 94 bd 59 4d 38 3d b3 02 81 3c fa 80 25 3d
       -0.07271081 0.04499564 0.015748357 0.040406205
0002b0 87 23 1b bd 58 5a 8b bc 0b 60 e8 3c b9 f9 ca bc
       -0.03787568 -0.017010853 0.02836611 -0.02477728
0002c0 bc ba 4d ba 4b 17 08 bd a9 10 cd 3d 19 cd 45 bd
       -0.0007847955 -0.03322534 0.10012943 -0.0482913
0002d0 e2 06 a4 3d 00 f3 ae 3d d7 82 30 bd 3f 92 15 bd
       0.08009125 0.08542442 -0.04309353 -0.036516424
0002e0 e5 f4 b5 bc 1d d3 38 bd 24 4b 53 3d 41 17 ad 3c
       -0.022211501 -0.04512321 0.05158533 0.021129252
0002f0 50 cd 03 3d b2 6a 93 bc f0 46 30 bd 94 2e b2 bd
       0.032178223 -0.017995212 -0.0430364 -0.0870029
000300 6e 0b 6d bd 1d 78 95 bc 0c 70 ca bb ad 16 39 3d
       -0.05787223 -0.018245751 -0.006177908 0.04518764
000310 ae 23 0e 3d e6 87 92 bc 96 c0 b3 3b 52 1a 96 3c
       0.034701996 -0.017887067 0.0054856045 0.018323097
000320 ba 10 cc 3c f5 25 84 bd c8 58 33 3d 26 bd 87 bd
       0.02491032 -0.06452552 0.04378584 -0.06627874
000330 35 95 aa 3b d0 41 f2 3b 30 87 2e 3d e7 36 8f 3d
       0.005205775 0.0073930994 0.042609394 0.06992894
000340 cc 23 6d ba ec 9a 2c bd 80 c3 64 bd 3c 92 4e 3d
       -0.00090461667 -0.042139933 -0.055850506 0.05043243
000350 2a a3 6e bd b9 25 9b 3c 6c ea 4c 3d b1 7f cb bb
       -0.058261074 0.018938886 0.05002825 -0.0062102904
000360 99 4a 93 bd 08 78 d9 3c ad 9e ad 3d a3 92 38 bc
       -0.07191963 0.026546493 0.08477531 -0.01126543
000370 c2 a8 bf 3b bf cd e0 3c 16 b5 65 3c 32 ff cf 3c
       0.005848975 0.027441857 0.014020225 0.025390241
000380 60 b3 dc bd 6a 36 22 bc 34 23 95 3c c6 23 13 3b
       -0.107764006 -0.009900669 0.018205263 0.0022451743
000390 de 88 d2 3c 84 09 55 bd 15 4d e0 3c 97 c1 1c bb
       0.025700029 -0.052011028 0.027380506 -0.00239191
0003a0 e4 9e 95 3d 89 83 cb 3b 1c 60 95 3d 0a 5f 0a bd
       0.073056966 0.0062107486 0.07293722 -0.033782043
0003b0 92 35 0b 3c bc 2b 42 3d f3 cf 81 3d 3f 29 3c bc
       0.008496659 0.04740499 0.06338491 -0.011484443
0003c0 ca e7 a8 bd 4a 04 91 3c 7d 7d 73 3d 54 65 6d 3d
       -0.08247335 0.01770224 0.059445847 0.057957962
0003d0 25 14 45 3d fb aa 8f 3d 94 78 10 3e 4a df b4 bc
       0.048114914 0.07015034 0.14108497 -0.022079129
0003e0 99 a8 ad 3c 3b c7 d8 3c f5 85 0f bd 77 f1 5f bd
       0.021198558 0.026462188 -0.03503986 -0.05467364
0003f0 b4 a6 eb bc 96 ee fa bc 9c ea ac 3c fb a4 0c 3d
       -0.028766014 -0.030631345 0.021107964 0.034337025

conv_layers.0.bias f4 [64]
000000 f9 c0 e7 bc 87 1b b4 3d f2 80 ce bc 37 52 62 bd
       -0.028290259 0.08794313 -0.02520797 -0.055254187
000010 3c 98 bb 3d 3a c2 28 3d a9 d6 71 bd fb 96 04 ba
       0.09159896 0.041200854 -0.059042607 -0.0005057898
000020 58 43 92 bd 48 ff ff bd 46 c9 6b 3d 55 c1 69 3d
       -0.07141751 -0.12499863 0.057564996 0.05706914
000030 3e 1a c2 3c a0 49 08 3c f5 ad ef bb 8a 33 e3 bc
       0.023694154 0.008318335 -0.0073144385 -0.027734537
000040 03 e6 cf ba 83 ae 27 3d a0 f8 c6 3d f9 fd eb bc
       -0.0015861396 0.04093791 0.0971539 -0.028807627
000050 9b d4 57 3c 34 ea f9 3d 86 ac 0d 3c 1d a2 c0 3b
       0.013173248 0.12202874 0.00864709 0.0058787004
000060 c0 73 b2 3d a5 23 63 bd 7b f5 1a 3d eb 0b ee bc
       0.08713484 -0.055453915 0.037831765 -0.029058417
000070 ff 4e 93 bd 02 d1 90 bc b0 8a 7c bc a6 d1 0e 3d
       -0.07192802 -0.017677788 -0.015413925 0.034867905
000080 2f e6 d8 bd 5c ec ca 3d a0 30 86 bd eb 91 16 3d
       -0.10590779 0.09908363 -0.06552243 0.036760252
000090 e7 c1 9f 3d 59 be bb bc c4 eb 40 bd c1 39 ce 3d
       0.07800656 -0.022917913 -0.047099844 0.100696094
0000a0 71 ee 6a bc 14 5d 8b bd c0 68 e4 3b d6 07 f9 bc
       -0.014339075 -0.068048626 0.006970495 -0.030399244
0000b0 14 76 bb 3c a0 f8 66 bb 3f d1 1a bd 72 e4 87 3c
       0.022883452 -0.0035243407 -0.03779721 0.016588423
0000c0 cc 0e 82 bd 1a 33 c8 3b 32 97 2a 3d f6 74 c2 3c
       -0.063504785 0.0061096074 0.041648097 0.023737412
0000d0 c0 b6 94 bd 38 a8 25 3c 2d b4 03 3d fb 91 1d 3d
       -0.07261419 0.010110907 0.03215425 0.038469296
0000e0 0c 5d 1d bd 12 b1 33 bd e1 21 c8 3d 71 4f 44 3d
       -0.038418815 -0.04387004 0.09772087 0.047927324
0000f0 22 51 af 3c 27 21 fd bd 3f c8 97 bc 92 f9 3d bd
       0.021400992 -0.12359839 -0.018528102 -0.046380587

conv_layers.1.weight f4 [64, 256, 3]
000000 cb 64 19 bd 0d 36 1a 3c 9b 6a b7 3c 20 d7 3e 3d
       -0.03744964 0.009412301 0.0223897 0.046591878
000010 e9 fb 98 3d 6c 75 be 3c b2 7f 81 bd 62 db 32 3d
       0.07469923 0.02324935 -0.06323184 0.04366625
000020 0d bf 36 3d 3d 5c 81 3d bf 67 19 3b b4 53 04 bd
       0.044615794 0.06316421 0.0023407785 -0.032306388
000030 d2 bd 61 bc c9 75 25 bd aa 7f 8c 3d f4 b9 c6 3d
       -0.013778167 -0.04039553 0.068602875 0.097034365
000040 32 43 26 3c 66 92 2c 3c 60 c4 46 bd 78 fd cd bc
       0.010147857 0.010532951 -0.04852712 -0.025145277
000050 9e 46 5b 3d 58 66 58 3a 44 b8 c6 3c 5d 38 29 3d
       0.053534143 0.00082549965 0.024257787 0.041313518
000060 23 40 49 3d c3 a7 a4 bd 56 dd 00 bd 7a 4d 72 3d
       0.04913343 -0.080398105 -0.031461082 0.05915592
000070 50 d5 0d 3c dc 6e 2f bd c7 4c 5e bd ee 74 09 be
       0.008656815 -0.042830333 -0.05427244 -0.13423511
000080 8a 39 68 bd 7e c4 c5 3c 59 fe 0c bd a9 a3 d3 3c
       -0.0566955 0.024141546 -0.034422252 0.025834875
000090 a2 c7 3c bc c6 f3 43 3c a8 89 b3 3d 60 d4 a2 3d
       -0.011522206 0.011959976 0.0876649 0.079506636
0000a0 4a d7 df 3b d2 e4 7c bd 96 4e a1 3b b9 91 a3 3c
       0.0068310844 -0.061741658 0.0049226983 0.019966947
0000b0 84 99 f2 bc f1 84 9d 3c 60 50 7b 3d 73 05 04 bd
       -0.029614218 0.01922843 0.06135595 -0.03223176
0000c0 d2 72 17 3c cf 4a e5 bc 20 ff bf 3c 62 87 65 3d
       0.009243684 -0.027989773 0.023437083 0.056037314
0000d0 86 bd 3d bc 32 af ee 3c 56 d5 92 bc e2 db 0f bd
       -0.01158083 0.029136274 -0.017923992 -0.035121806
0000e0 84 ca 26 bd 80 74 52 3c 7c 52 0d 3d 54 a5 7d 3d
       -0.040720478 0.012845159 0.03450249 0.061925247
0000f0 0b b3 06 bd c1 ce 10 3e 16 2e dd 3d df 64 31 3d
       -0.032885592 0.1414137 0.10799806 0.04330909
000100 4f 99 29 bd df 92 1a bc d5 6b 3f 3d 16 3a 1e bd
       -0.041405972 -0.009434431 0.046733696 -0.038629614
000110 81 fb 35 3d 10 f1 61 bd 9e 0a 1b 3d 0f 20 9d bc
       0.044429306 -0.055161536 0.037851922 -0.019180326
000120 a9 15 50 bd 10 64 88 3d c4 a9 4e bc 99 66 08 3c
       -0.050801907 0.066597104 -0.0126137175 0.008325242
000130 37 a4 1d 3d a5 b4 0d 3b 6c c8 8f bd 48 92 14 bd
       0.038486686 0.0021622565 -0.07020649 -0.036272317
000140 0b 3f 88 3b e9 4f ab 3d 73 34 02 3d 61 79 52 bd
       0.004157906 0.08364851 0.0317883 -0.051385287
000150 9f 79 84 bc c5 69 a9 bc 9a 2e 8e bd c6 dc 13 3c
       -0.016171275 -0.020680318 -0.06942482 0.009024804
000160 28 ed d8 3c 31 c4 94 bd c1 f1 5a 3a 2e 36 32 3c
       0.026480272 -0.07263983 0.0008352064 0.010877175
000170 11 8c 1e bd 30 31 9f bc 0b 6a 0f 3d 72 3c 1c bc
       -0.038707796 -0.019432634 0.03501324 -0.009535896
000180 a9 cf 59 be 69 0d 76 3b 61 9a 9b bd 9a f1 0c 3d
       -0.21270622 0.0037544614 -0.07597805 0.034410097
000190 a2 eb 2b 3d 1a f1 21 bd 81 be e0 b9 ff 1a d2 bc
       0.041972764 -0.039536573 -0.00042866546 -0.025647638
0001a0 f6 6f cd bb 1e 95 08 bd ea 4d c7 3d bc 72 4d 3d
       -0.0062694503 -0.033345334 0.09731658 0.050158247
0001b0 99 8c 0e bd c7 51 f0 bc dd 64 1e bd 2d 1a 9f 3b
       -0.034802053 -0.02933587 -0.03867041 0.0048554153
0001c0 3d f1 01 bd 7d 93 6e 3c 14 23 e4 bc 36 f9 e6 3d
       -0.031724203 0.014561531 -0.027848758 0.11278002
0001d0 72 07 8e 3d 3d d8 09 bc da df af bc 94 2c 50 bc
       0.06935014 -0.008413372 -0.021469045 -0.012705941
0001e0 cf cd b1 3d 7c 47 79 bd 05 b2 0a 3c f2 97 bf 3c
       0.08681833 -0.06085919 0.008465295 0.023387883
0001f0 46 50 a4 3a 8d 7f 28 bd ab 45 96 3d fe b6 4c 3b
       0.001253613 -0.041137267 0.07337507 0.0031237002
000200 d8 7d 34 bd d5 ab db bc 6e 5c 58 bc 50 62 b7 bb
       -0.044065326 -0.026815334 -0.013205631 -0.0055964366
000210 cf 42 cf bd 01 9d 22 3c 52 51 7b bd e7 cc 6c 3b
       -0.101201646 0.009925128 -0.06135685 0.0036132874
000220 df f8 10 3d 08 fc 12 bd 48 13 1d 3d cd fa b0 3c
       0.035393592 -0.035884887 0.038348466 0.021603966
000230 23 62 06 3d 56 7c 26 3d 81 ed c5 3d bc 46 01 ba
       0.032808434 0.04064592 0.09664441 -0.00049315
000240 3d 37 dc bc b3 38 a7 3c c4 48 c5 bc fd 54 5a 3d
       -0.026881808 0.020412778 -0.024082549 0.053303707
000250 24 ac ed 3c a6 67 82 bd 41 a5 27 bd e1 d0 06 3e
       0.029012747 -0.063674256 -0.040929083 0.13165618
000260 af 0b 9f 3b 92 e3 fc 3c ef 65 3e bd a8 56 42 bc
       0.0048536877 0.030870233 -0.04648393 -0.011861481
000270 8a d9 db 3c 4b d5 8b bd b9 78 86 3c 99 0c 4a bd
       0.02683713 -0.06827792 0.016414987 -0.04932842
000280 aa 72 40 bd 0f 4c aa bd f5 d2 30 3c 8a 16 b3 3c
       -0.046984352 -0.08315288 0.010792484 0.021861333
000290 63 a1 58 3d ce 09 59 bd 1a df e4 ba 22 d9 70 bd
       0.052888285 -0.052987866 -0.0017461509 -0.058800824
0002a0 8a 35 2e 3c bb 37 88 bc 8d ef 48 3d ac c0 63 bd
       0.010632882 -0.016628137 0.04905658 -0.055603668
0002b0 30 de bf bc 61 32 9c 3b a9 bf 9c 3d 40 50 3d 3c
       -0.023421377 0.004766748 0.07653744 0.011554778
0002c0 df 06 54 3c 10 43 bf 3d 85 50 61 bd 30 58 e6 bb
       0.012941091 0.09338963 -0.05500843 -0.0070295557
0002d0 57 c6 67 3c 72 4a bd bc 0e 38 e2 bc 70 af 65 3d
       0.014146409 -0.023106787 -0.02761462 0.056075513
0002e0 42 f8 bd bd 6b 73 d9 bb 74 7c 1f bd d8 2d 04 bc
       -0.09275867 -0.0066360733 -0.038937047 -0.008067571
0002f0 86 18 c4 bb d7 12 19 3c 44 13 34 bd 04 be ad 3a
       -0.0059843687 0.009342871 -0.043963686 0.0013255482
000300 ca b9 1c 3d 02 64 23 bd 79 6b ea 3b 56 75 b7 3d
       0.03826312 -0.039890297 0.007153925 0.08957927
000310 db 9c 8b 3c cf 65 1c 3d 63 2c c9 bb 98 ac ab bb
       0.017042568 0.03818303 -0.0061393245 -0.0052390806
000320 7b 9e 44 bd 8b 76 db bd 06 86 b5 3c 1e 82 05 bc
       -0.0480027 -0.1071597 0.022158634 -0.008148698
000330 1d 82 e1 bc 76 7b a9 3d 88 8c c8 3d 3c ee 2e 3c
       -0.027527863 0.082755014 0.09792429 0.010676917
000340 e3 bb d4 bc 94 ba fe bd 04 e2 a1 bc 34 af 81 bd
       -0.025968498 -0.12437931 -0.019761093 -0.063322455
000350 b2 9c 4a bd c2 34 cf 3d 56 0a cb bc 76 09 8e 3b
       -0.049465843 0.10117485 -0.024785202 0.004334624
000360 70 bd 98 3b 09 dd 5f bd d9 f5 14 3d 02 bc 8f 3d
       0.0046612546 -0.054654155 0.03636727 0.070182815
000370 bf be 3b 3d c6 cd 61 bd 7d 9e 8b 3c 8f aa 0c bd
       0.045836207 -0.05512788 0.017043347 -0.034342345
000380 47 ed 49 bd 82 43 d7 bc 88 4b 25 bc 89 4d ce bc
       -0.04929855 -0.026277307 -0.010088809 -0.025183456
000390 9f 82 82 ba ce 78 84 3d 5f 9a 05 3d 50 bf 75 3d
       -0.0009957141 0.06468354 0.032617923 0.059996903
0003a0 9c bb 5c bb 28 1a 6b bc 93 bc 36 bd 9d 29 38 3d
       -0.003368116 -0.014349498 -0.044613432 0.04496156
0003b0 2f b7 1e bd db af fd 3b 40 9e 54 3d 46 06 13 bd
       -0.038748916 0.007741911 0.05190873 -0.035894655
0003c0 53 68 9f 3c f3 36 08 3c 75 ae 92 bd 4a 92 d3 3c
       0.019458925 0.008313882 -0.07162181 0.025826592
0003d0 de 2d 21 bd 76 22 57 3d 53 39 99 bc 3d a5 a4 3c
       -0.039350383 0.0525231 -0.018704092 0.020098323
0003e0 15 ed a0 bc 91 a2 12 bd 5f eb 00 3e 73 b3 57 3c
       -0.0196443 -0.035799567 0.12589787 0.013165343
0003f0 db 00 c6 3c cc 94 dc bc ff 32 a7 3d e3 d1 88 3c
       0.02417033 -0.02692642 0.081640236 0.016701644

conv_layers.1.bias f4 [64]
000000 b7 fe 0b be 36 3d 63 bc de fe 79 bd af 2a f8 3a
       -0.13671385 -0.013869574 -0.061034076 0.0018933619
000010 92 78 aa 3c eb 13 07 3d 02 80 9e 3d f7 8b cd 3d
       0.020809446 0.03297798 0.07739259 0.10036462
000020 a0 c1 b0 bb 42 e5 28 3c 9e 64 64 bb b3 49 a4 3d
       -0.0053941756 0.010308566 -0.0034850012 0.080218695
000030 f6 d3 3a 3b e1 6a 55 bd 7e 00 bb bd 80 60 4c bd
       0.0028507686 -0.05210388 -0.09130953 -0.049896717
000040 7f c7 90 bd dd ff 72 3c 8b 94 93 3b 30 6f 9e bd
       -0.07069301 0.01483151 0.0045037917 -0.07736051
000050 66 f3 49 3c fa 52 d0 ba 7e 67 ec 3d 45 92 7b bd
       0.012326097 -0.001589387 0.11543177 -0.06141879
000060 83 12 b6 3d c4 c3 26 3c 58 1e 61 3d 92 9e 24 bc
       0.088902496 0.01017851 0.05496058 -0.010047572
000070 3c f1 93 3d c8 e3 95 3c 1f 6f 54 bd 0b 41 cc 3c
       0.07223746 0.018297091 -0.051863786 0.024933359
000080 39 9b 3c 3d 4d 52 f0 3c fe e1 0e bd 72 96 54 3b
       0.04604647 0.02933612 -0.03488349 0.0032438305
000090 8a 8f 3b bd c6 ef 88 3d e2 21 38 3d b4 5a ca 3b
       -0.045791186 0.06686358 0.04495419 0.0061753634
0000a0 4a a7 51 bd 65 7a 32 3c 4f 86 25 3d c9 c2 92 3c
       -0.05118493 0.010893439 0.04041129 0.017915146
0000b0 36 4f 35 3d 3a 2d dc bc e3 9f 0a bc ec 60 18 3d
       0.044264995 -0.026877034 -0.0084609715 0.037201807
0000c0 f9 9c bb bc 31 c1 02 3d 45 19 8b 3d e8 42 47 bb
       -0.022901999 0.031922523 0.06791929 -0.003040487
0000d0 1a f4 2d 3c 69 5f 4e bc 6d 7f e9 3b 0f 70 0f 3d
       0.01061728 -0.01259599 0.007125786 0.035018977
0000e0 e9 a7 9b 3d 05 21 15 3d ad 70 26 bd d4 28 8e bd
       0.07600386 0.036408443 -0.0406348 -0.06941381
0000f0 c9 2a 79 3d 81 22 c2 3c ab 38 51 bd 81 9a ab bd
       0.06083182 0.023698093 -0.051079433 -0.08379079

conv_layers.2.weight f4 [64, 256, 4]
000000 ee 91 09 3d c7 2c 86 bd e4 ab 55 bb 47 d6 9c 3a
       0.033586435 -0.06551509 -0.0032603675 0.0011965715
000010 8e cf ce bc 15 cf 47 3e 09 21 8e 3d 0e 27 e0 3b
       -0.025245454 0.1951259 0.06939895 0.006840593
000020 8c 0c 93 bd 9b 5f 32 3c b8 92 80 3c 2e fb 88 3c
       -0.071801275 0.010887052 0.015694961 0.016721334
000030 b6 0f 63 3d ad bc 1c bd a1 1e 14 bd 5a c1 fb bc
       0.055434905 -0.038265873 -0.036162023 -0.030731846
000040 cd 81 37 bd 30 ab 83 3c 38 ee d9 bd 5e e6 30 bd
       -0.044801522 0.01607284 -0.1064114 -0.043188445
000050 9a 09 e2 bc eb 21 cb 3b b3 34 2a bd 4e 23 54 bd
       -0.027592469 0.0061991117 -0.041554164 -0.05179148
000060 8d 8b 2a 3d e3 7d 23 3c dc c9 ca 3c 09 0b 66 3c
       0.041636992 0.009978744 0.024754457 0.014040717
000070 36 02 a0 3d 23 58 79 3d 3a 54 1a 3d 2b 85 0b bc
       0.07812922 0.06087507 0.03767798 -0.008515636
000080 e3 b0 40 3d 62 7f fb bb 46 d2 8b bd 86 c4 31 bc
       0.047043692 -0.0076750973 -0.06827216 -0.0108500775
000090 e0 51 8b bc 5d fd b9 3c 15 ac 18 bd cc 2c 68 3d
       -0.017006814 0.02270382 -0.037273485 0.056683347
0000a0 42 5b ad 3d 69 f6 4d 3c fc 6d a4 3b e1 b7 a2 bd
       0.08464672 0.012570956 0.005017994 -0.07945228
0000b0 19 99 53 bd 4d ca 8f bc 93 2e 1a 3d 57 44 43 3c
       -0.051659677 -0.01755252 0.037642073 0.011918149
0000c0 fc ac b6 3a a5 62 59 3d 2b cf 89 bd 3a d6 e5 3c
       0.0013937051 0.05307259 -0.06728967 0.028056253
0000d0 41 ac 5b bd 6c 4b e0 3c fc dd a5 3d 60 2a 7f bc
       -0.05363107 0.027379714 0.08098981 -0.015574068
0000e0 80 8b b6 bc d6 0c 32 3c 48 65 bf 3c cc 4a 73 bd
       -0.022283316 0.010867318 0.023363724 -0.059397504
0000f0 f4 41 d3 ba 57 ab 44 bc ce d2 26 3d b2 74 b6 3c
       -0.0016117678 -0.012003741 0.040728383 0.022272442
000100 92 a3 53 bd 9c cb e0 3c ec ae 99 3d ee 2a 25 3d
       -0.051669665 0.027440839 0.07504067 0.040324144
000110 00 15 e3 3c da a9 2f bd 42 69 f5 bc 45 7a b0 3c
       0.027719975 -0.042886592 -0.029957417 0.021542678
000120 90 b7 9b bc 14 1a a6 3b 58 28 30 bd a3 b8 9f 3c
       -0.019008428 0.0050690267 -0.043007225 0.019497221
000130 01 cb ce bc bd 83 c3 3c db 89 23 bd 92 d3 b1 3c
       -0.025243284 0.023866529 -0.03992639 0.02170733
000140 fb 09 a2 bd b3 df 9e 3c 28 26 9e bc 9c 45 74 3d
       -0.0791206 0.019393777 -0.019305304 0.059636697
000150 f4 89 b4 bc d1 85 6d bd fb ba 98 3d e5 85 59 3d
       -0.022038437 -0.057988945 0.07457539 0.053106207
000160 24 73 8a bd 3f 34 22 3d fa 6d 1c bd 84 37 28 3d
       -0.067602426 0.039600607 -0.03819082 0.04106857
000170 ba 21 e4 3c b6 e5 88 3d e9 d9 a1 bd ac d2 b8 bc
       0.027848113 0.06684439 -0.07902891 -0.022561394
000180 9b a4 a2 bc f9 5e 25 bd 0b a3 9a bc c4 cb ac 3d
       -0.01985388 -0.040373776 -0.018876573 0.08437303
000190 cc aa ec 3c 0e 79 ae bc 6e 52 20 3d d1 c6 31 3d
       0.028890036 -0.021297958 0.03914111 0.043402497
0001a0 42 35 30 3b bd 5f a4 bd 15 6f ab bc 89 f1 22 3d
       0.0026887213 -0.08026073 -0.020926991 0.039781127
0001b0 97 eb 56 3c 37 d9 7b bd 03 4d 3a bd 9e 99 9d 3d
       0.013117692 -0.06148645 -0.0454836 0.07695316
0001c0 88 7d d1 bd c2 eb f0 bb da e3 6b bd 44 30 fd bb
       -0.10229021 -0.0073523233 -0.057590343 -0.007726701
0001d0 9d a7 98 bc 6d b1 5c bd 18 0d a2 bd 56 e1 60 3d
       -0.018634612 -0.053880144 -0.07912654 0.054902397
0001e0 4d d0 5e 3d c9 84 83 bd d3 3e 8b 3d 9e 88 8b bd
       0.05439787 -0.06421811 0.06799092 -0.06813167
0001f0 f7 b7 fd bc c2 05 75 bc c6 2a 2c 3d e9 10 a2 bc
       -0.03097151 -0.014954986 0.04203298 -0.019783454
000200 0c cd 13 3d a5 41 fc bc 36 be 3d bd a5 b5 2e 3d
       0.03608422 -0.03079302 -0.046323977 0.0426537
000210 77 d8 3c bc 94 b8 ac 3c 8c 2d b3 3c c9 d5 f2 3b
       -0.011526219 0.021084107 0.021872304 0.007410739
000220 73 8e c8 3c 49 b0 10 bd e6 13 d1 bc d2 17 05 bd
       0.024481988 -0.03532437 -0.025522184 -0.03249342
000230 a2 5a f5 3b f9 d7 10 bd d8 1a e5 3d f5 e7 2d bd
       0.007487611 -0.035362218 0.11186761 -0.04245754
000240 0c fd 2e bd 94 ad 68 3d 3b ad e2 3c 99 3e eb bd
       -0.042721793 0.056806162 0.027670493 -0.11486549
000250 05 b0 3b bd ba d2 8b 3d f4 ac b2 bc 86 e0 be bd
       -0.045822162 0.06827302 -0.021810986 -0.09320168
000260 e7 3e 0d bd 54 45 73 3d f3 70 8a 3d de 59 99 3d
       -0.034483816 0.05939229 0.067598246 0.07487844
000270 9a 37 10 3c 89 21 64 3d 8d 62 ab bd a3 51 fe bb
       0.008802319 0.055696044 -0.083684064 -0.0077611967
000280 bb 40 7e 3c 8d 47 96 bb ec 36 35 3d 30 d6 31 3b
       0.015518363 -0.0045861662 0.04424183 0.0027135722
000290 12 62 66 bd 0d 62 e5 bd ab db 98 3d 85 34 17 bd
       -0.05624587 -0.11200342 0.07463773 -0.03691532
0002a0 b0 12 6a bd 2b 31 ab 3c 80 6c b3 bc 92 80 eb bc
       -0.057146728 0.020897469 -0.021902323 -0.02874783
0002b0 cb c3 7a bb ad da 63 bc 71 50 37 3c 59 a4 9d 3c
       -0.0038263674 -0.013907117 0.011188612 0.019243406
0002c0 12 88 6e 3d 0a 5a 99 3c e9 10 59 3c d6 28 7e 3c
       0.058235236 0.018719692 0.013248661 0.015512666
0002d0 b7 52 92 bc d1 ae a1 bc 63 68 a4 3d 4e 68 ad bc
       -0.017861707 -0.01973668 0.08027723 -0.0211679
0002e0 a0 16 b6 bc d9 a6 8b 3d a6 ac a9 bc a2 2e ae 3c
       -0.022227585 0.06818933 -0.020712208 0.02126247
0002f0 27 a1 12 bd 5f 61 24 bc 5d 10 bd 3d 2f 4e 48 bb
       -0.035798218 -0.010032981 0.09231637 -0.003056418
000300 36 b9 44 bd 86 76 5c 3a 95 a5 f8 bc 32 ee 18 bb
       -0.048028193 0.00084099954 -0.030352393 -0.0023335335
000310 7b 94 3f 3d 0d 26 45 bb c6 01 cf 3c d5 f4 eb 3c
       0.04677246 -0.0030082494 0.0252694 0.028803268
000320 3b 5d b7 3d d9 9e b5 bd 2a b8 91 bd ae 5c ba 3d
       0.08953329 -0.088681884 -0.07115205 0.090997085
000330 19 1f 28 3d a7 f3 48 3c ac f6 88 bc 23 fc 8c 3d
       0.041045282 0.0122651225 -0.016719185 0.06884029
000340 41 1d 02 3d 40 29 a4 3d 48 38 8a 3b af eb bd bd
       0.03176618 0.0801568 0.004218135 -0.09273469
000350 61 f1 2e 3d 0d ac f8 bd b2 c8 94 3c ed b3 46 bd
       0.042710666 -0.12142191 0.018162105 -0.048511434
000360 95 9b d7 bc 37 a7 34 bd b2 7d 8a bc d3 e7 9f bc
       -0.026319304 -0.04410478 -0.01690564 -0.019519722
000370 ac 3d 1e 3b 19 e1 fe bc 23 88 75 bc 8d f0 5d 3d
       0.0024145646 -0.031113194 -0.014986071 0.054184485
000380 41 86 49 38 4b f6 83 3c 93 27 82 bd 09 39 c0 3b
       4.8047168e-05 0.016108653 -0.063552044 0.005866174
000390 b1 bc 98 bd 00 96 38 bc 33 a6 22 3d 93 78 84 3b
       -0.07457865 -0.011266232 0.03970928 0.004042694
0003a0 a4 48 86 3d 4d 46 b4 3c d7 3f 36 bd 58 d6 a4 3d
       0.06556824 0.022006178 -0.044494476 0.08048695
0003b0 9a b6 03 3d c8 6d 0e bd 08 87 c1 3d a2 22 79 bd
       0.032156564 -0.034772664 0.09449583 -0.060824044
0003c0 3a 3b 4a bd 4c b3 50 bc 38 7d 75 bc b1 a0 75 bd
       -0.04937289 -0.01273806 -0.014983468 -0.0599677
0003d0 e8 97 d3 3b e0 93 52 3d 30 1e f2 bc 48 2c b2 3c
       0.0064573176 0.051410556 -0.02955541 0.02174963
0003e0 cb f0 7b 3c 57 ce b7 3a 7c f1 a0 3d a4 4d 5e 3b
       0.015377234 0.0014023286 0.078585595 0.003392079
0003f0 3b 83 c4 bc d1 4d 11 3c a7 e1 98 3d 1f 36 83 3d
       -0.023988357 0.0088686505 0.07464915 0.06406807

conv_layers.2.bias f4 [64]
000000 53 d4 b0 bd 57 78 9c 3b 1b b1 f9 3c 45 0c 7b 3d
       -0.08634248 0.004775088 0.030479958 0.061290998
000010 55 9d 7e bd 15 2d e1 bd 96 be ca bd c8 55 97 3c
       -0.062161762 -0.10994927 -0.09899633 0.01847352
000020 9b 4b 5a 3d 15 8b 3d bb c8 74 e3 3d e2 80 cc bd
       0.05329476 -0.002892201 0.11106259 -0.0998552
000030 14 34 7d 3c 99 25 d2 bd 26 68 e1 bc c5 70 60 3c
       0.015454311 -0.102610774 -0.027515482 0.013698761
000040 06 00 2f bd 61 f5 de 3c 6e 0e ab bd 04 79 3f 3b
       -0.04272463 0.027216615 -0.083523616 0.0029216418
000050 03 f4 75 bd 86 a9 aa bd 6d 6d 57 3d 3d 84 90 3d
       -0.06004716 -0.08333115 0.05259459 0.070564725
000060 81 00 5d 3d 44 73 0a bd 35 c9 c9 bd 2e 4f 07 3d
       0.05395556 -0.033801332 -0.0985283 0.033034496
000070 93 6a 0a bd 93 aa c3 3b ae 29 b7 bd 6d eb 74 3d
       -0.033793043 0.0059712618 -0.08943497 0.059794832
000080 f6 b7 9a 3d ee e4 c7 3a 22 b3 dd bd 43 84 41 bd
       0.07554619 0.0015250721 -0.108251825 -0.047245275
000090 40 59 3d bb 71 71 61 bc f2 d9 24 bd 52 b9 88 bc
       -0.0028892308 -0.013759957 -0.04024691 -0.01668993
0000a0 d0 4e 9d bd f7 ae ad 3d 1b 3e a5 3c e2 8f a0 3c
       -0.07681048 0.084806375 0.020171216 0.019599859
0000b0 a3 b1 81 3d 79 14 18 bd 90 88 f7 bd a9 34 08 be
       0.0633271 -0.0371289 -0.12086594 -0.13301338
0000c0 5d 1d a7 3d df 6e e1 bc 0e 8c 8e bd 1f a7 f6 bc
       0.081598975 -0.027518688 -0.06960307 -0.030108986
0000d0 b3 74 31 bc 2b 8e 8c 38 bc 20 2d 3d 3a a8 99 3d
       -0.010831046 6.702201e-05 0.042267546 0.0750279
0000e0 c7 50 4a 3d 90 58 9d 3c 58 6a b8 bc f5 a2 cb 3c
       0.04939344 0.019207269 -0.022511646 0.024857977
0000f0 9d 24 56 bc 86 21 3c bd 4a 15 ea 3c 8e c8 a7 3d
       -0.013070253 -0.045930408 0.028574605 0.0819255

conv_layers.3.weight f4 [64, 256, 5]
000000 76 91 ae ba 02 5e 6f bd a2 fb f1 ba 47 13 b8 bc
       -0.0013318497 -0.058439262 -0.0018461833 -0.02247013
000010 69 6f 8c 3c cd 4e d3 bb 17 3c 87 3c ce c9 77 bc
       0.017142968 -0.006448603 0.016508145 -0.015123798
000020 7c 20 00 3d 84 28 2e 3c 9f b3 81 3d b2 f2 6e 3c
       0.03128098 0.010629777 0.06333088 0.01458423
000030 99 05 59 bd c9 d9 fc 3c f9 49 75 bd d9 13 86 bc
       -0.052983854 0.030865567 -0.059885 -0.016366886
000040 0b 11 84 bb ec 06 08 bc f9 d5 c9 3a 8c c8 40 bd
       -0.004030352 -0.008302432 0.0015398852 -0.047066256
000050 24 a6 b3 bb b2 2f a0 39 85 e0 21 bd b0 1c 80 bc
       -0.005482452 0.00030553114 -0.03952076 -0.01563868
000060 9a 93 c7 bc fb 2a 58 bc 72 e4 65 3c d7 c5 94 3d
       -0.024362374 -0.013193841 0.014031516 0.072642975
000070 f3 25 8c bc 5d 45 cb bc cd 06 2f 3d fd c5 84 3c
       -0.01710794 -0.024813348 0.042731095 0.01620769
000080 87 0a 8b 3d 7c 43 8a 3b 3d 25 7a bc 83 6f 64 3d
       0.06789117 0.0042194705 -0.015267667 0.05577041
000090 4c 5b d7 3c b0 c4 59 3d 06 b4 28 3c ec ca 27 bd
       0.02628865 0.05316609 0.010296827 -0.040965006
0000a0 1b 9e 5e bd 67 fa 20 3d 4c 36 27 3c a4 4e be bd
       -0.05435 0.039301302 0.0102058165 -0.09292343
0000b0 b6 ac 57 3d 1b 4d 18 3d 7c 7c 64 bc 24 94 7c 3c
       0.052654944 0.03718291 -0.013945695 0.015416179
0000c0 24 4d 32 3d c2 6b 73 bd f3 f4 ab bd a8 78 59 3c
       0.0435306 -0.059428938 -0.0839633 0.013273396
0000d0 17 29 72 bd b2 23 1f 3c 7b 55 2e bd 84 a2 b1 3c
       -0.059121218 0.0097131 -0.04256199 0.021683939
0000e0 d1 dd 28 3d ea e6 1d bc db e7 84 bc c1 af cc bb
       0.041227166 -0.009637574 -0.016223839 -0.0062465374
0000f0 f5 8a 73 3b 9d ea 9d bd 50 5e 63 3d 9f 79 0f bd
       0.0037161682 -0.077107646 0.055509865 -0.035028096
000100 ec 83 2a bd be 67 20 bd f4 59 41 3d df 53 28 3c
       -0.041629717 -0.039161436 0.047204927 0.010273903
000110 39 80 da bb e4 cc 51 bd 5e a6 92 3c 00 68 8f 3d
       -0.0066681174 -0.05122079 0.017901596 0.07002258
000120 aa d5 08 bd df 69 85 bd 11 36 11 bd 2d c6 c5 3c
       -0.03340689 -0.06514334 -0.035451952 0.02414235
000130 2a 6e 1a 3d 4d 57 38 bd 96 ba b4 bd 2d 78 38 bd
       0.037702717 -0.04500513 -0.08824651 -0.045036484
000140 5f 33 a5 bc ff 34 8b bd ed 1e d1 3c 4f df a9 3d
       -0.020166097 -0.067972176 0.025527442 0.08294546
000150 59 b0 87 bd b2 a8 58 3d 1f e0 b4 bc 3f 14 04 bd
       -0.066254325 0.052895255 -0.022079526 -0.03224587
000160 be 21 9c bd fa 9e 95 3c 25 91 69 3d 39 5b 22 bd
       -0.07623623 0.018264282 0.057023186 -0.039637778
000170 c5 b1 e1 bc bf 17 ad 3c 3e 65 48 3d 09 15 e1 3c
       -0.027550587 0.021129487 0.048924677 0.02747585
000180 a6 5a 17 bc 91 82 62 bd 2b 12 9b bc 7e ab 67 3c
       -0.009237921 -0.0553003 -0.018929562 0.014140008
000190 11 81 e2 3b be fb 91 bc cb e7 36 bd 64 aa 68 3d
       0.0069123586 -0.017820235 -0.04465465 0.056803122
0001a0 c0 d8 77 ba c5 4b 81 bd e4 1c 7f bc b5 c4 77 bd
       -0.00094546005 -0.0631328 -0.015570853 -0.06049033
0001b0 a2 c1 ec bb 75 f3 88 bd e2 49 f4 bc 53 03 ce 3c
       -0.0072252313 -0.06687061 -0.029820386 0.02514807
0001c0 10 7d 47 bd 80 a1 0f bd 98 79 f3 bc 58 5a 0f 3d
       -0.048703253 -0.035066128 -0.029721066 0.034998268
0001d0 de 56 2d 3d ef 94 5f 3b cb 1f 97 3c 97 9f 28 3c
       0.04231917 0.003411587 0.018447777 0.010291955
0001e0 bc 5c 5b bd 96 b9 9d bb 42 a8 81 bd 9e b1 cc 3c
       -0.053555235 -0.0048133833 -0.06330921 0.024987038
0001f0 af 56 97 bc 46 5e 10 3d 6d 30 88 bd cf 83 45 bc
       -0.018473951 0.035246156 -0.066498615 -0.012055351
000200 3a d8 a1 3c d6 2c 0a bd e9 f4 c7 3c e9 f2 ee bc
       0.019756425 -0.033734165 0.024408774 -0.029168563
000210 92 b6 b4 bd c5 5c c1 3b d5 e6 39 bd 41 8e 67 bd
       -0.08823885 0.0059009516 -0.045386154 -0.05653215
000220 67 2c 6f bd 9a 34 3d bd 35 73 d6 3b fe 47 ea b8
       -0.058391955 -0.046192743 0.0065444955 -0.00011171399
000230 25 dd aa bc 9e 4e 58 bd 94 c5 80 3b 1a 6b 36 3c
       -0.020857403 -0.05280935 0.003929803 0.011133933
000240 5a 2c f0 bb 4e 1e 5e bd 43 f6 62 3d d5 09 c0 3b
       -0.007329506 -0.05422812 0.055410635 0.005860547
000250 22 d8 60 3b 0b fe ea bb 55 99 58 3d 14 96 fe bc
       0.0034308513 -0.0071713976 0.052880604 -0.031077422
000260 c5 6e 4c bc 66 b4 48 3c 12 39 4d bd 72 a4 38 3d
       -0.012477581 0.012250042 -0.050103255 0.045078702
000270 48 0d 8d ba 3c 0a 6b 3c ac c8 f1 bb 36 b9 87 3b
       -0.0010761404 0.014345702 -0.0073786583 0.004141952
000280 b0 29 a7 bd 16 90 1b 3c fe 3b 2e 3d a4 7b 96 3d
       -0.08162248 0.009494802 0.04253768 0.07347801
000290 7e 18 86 bc 5f a1 a6 3d 99 45 61 bd 68 37 9a 3c
       -0.0163691 0.08136248 -0.054998014 0.018825248
0002a0 36 b0 e5 3c d9 3e 6c 3d ec 2f 01 bd aa 33 06 3d
       0.028038125 0.057677124 -0.031539842 0.032764114
0002b0 d7 39 b3 bc 01 ea 9e 3d c6 09 07 bd 05 8e 09 bd
       -0.021878166 0.077594765 -0.032968305 -0.033582706
0002c0 6a bc b4 ba 43 c8 69 3b 59 a4 3d bd c8 ce fb 3c
       -0.0013789062 0.0035672344 -0.046299312 0.03073825
0002d0 22 56 e2 bc 6a 44 97 3c cc 80 ab 3c fa f4 3c bc
       -0.027628962 0.01846524 0.020935439 -0.011533016
0002e0 e5 48 69 bd bb d0 22 bd 70 17 8a bd 8f d2 05 3c
       -0.056954283 -0.039749842 -0.067427516 0.008167877
0002f0 5e 11 96 bd dc 2c 09 bc 1d 21 00 3d 22 50 92 3c
       -0.07327531 -0.008372512 0.03128158 0.017860476
000300 c5 b9 75 3b 37 d5 b8 bd 62 61 22 bd 49 b1 a5 3c
       0.003749476 -0.090250425 -0.039643653 0.020226138
000310 c2 10 8d 3c c9 85 07 3d 85 80 85 3b 33 ce 33 bc
       0.017219905 0.03308657 0.0040741586 -0.010974455
000320 8a 5c b0 3c 03 15 54 3d 1e fc 02 bc 2f 63 62 bd
       0.021528501 0.05177785 -0.00799468 -0.05527037
000330 7e 28 c2 3c 42 71 c5 3b 50 0d e4 bb 4f b6 48 3d
       0.023700949 0.0060254643 -0.006959595 0.049001988
000340 15 15 a6 bc 75 60 f3 3c 1a 0f 26 3d 1e 51 06 3d
       -0.020273725 0.02970908 0.040541746 0.032792203
000350 63 04 b1 3c 12 0e a4 bb 61 5f 15 bd 1a 33 5b 3c
       0.021608537 -0.00500656 -0.036467914 0.013378883
000360 60 70 84 bd 53 69 a1 3c de cd 9c bc 8c 0e 71 3c
       -0.06466746 0.019703543 -0.019141134 0.014712941
000370 f3 0b fc 3c ef 19 6f 3d b1 7c 24 3d 39 ba 66 3d
       0.030767417 0.05837434 0.040157977 0.05632994
000380 cd 00 e4 bd 62 fc c4 3b b6 73 de bc 1e 4b e2 bc
       -0.11132965 0.0060115317 -0.027154785 -0.02762371
000390 22 a5 c3 3c 29 f7 c2 bc 82 88 bf 3c af 1e 62 3d
       0.023882452 -0.023799496 0.023380522 0.055205043
0003a0 38 b3 d9 3c 84 d5 9d bc 90 20 2d bc fc 47 d1 3d
       0.026574716 -0.019266851 -0.010566846 0.10218808
0003b0 67 5f b9 bc b9 01 78 3d e9 0a c2 3d a2 f2 cd bc
       -0.0226285 0.060548518 0.09474737 -0.02514011
0003c0 39 ee 01 bd c9 78 4d 3d b0 ae 1b bc da 28 54 bc
       -0.031721327 0.050164018 -0.009502098 -0.012949193
0003d0 c7 da 76 3c 2c d3 86 3d a3 03 c8 bc bf 3b 81 bc
       0.015066809 0.065832466 -0.024415797 -0.01577556
0003e0 f0 63 b5 bd 22 83 c4 bc 81 79 d6 3a 94 47 a4 bb
       -0.08856952 -0.02398831 0.0016363115 -0.0050134156
0003f0 3b 57 9a ba b2 0b 6b 3d d6 34 62 bd 89 52 1a 3b
       -0.0011775264 0.0573842 -0.05522617 0.002354773

conv_layers.3.bias f4 [64]
000000 18 f0 4d be c7 86 90 bc 03 88 4b 3d 3a 9a bc bd
       -0.2011112 -0.017642392 0.049690258 -0.09209104
000010 4d c3 15 bd 87 02 25 3c 89 14 6f bd c8 ab a5 bb
       -0.036563206 0.010071403 -0.058369193 -0.0050558783
000020 af d3 13 3d 97 dd 1a be c4 75 3d bd 50 f9 da 3c
       0.03609055 -0.15123592 -0.04625489 0.02673021
000030 a6 42 a2 3c 1e 3b 09 bd 80 d6 31 3d 3e 60 ec 3b
       0.019807171 -0.033503644 0.043417454 0.0072136214
000040 4a 5e b6 bd fa 91 88 bd 96 6d fd bd 19 73 8a bd
       -0.08904703 -0.06668468 -0.123744175 -0.067602344
000050 5d 08 28 bd 70 b3 59 b9 f6 68 e4 bc a4 8b 5d 3c
       -0.0410236 -0.00020761578 -0.02788208 0.013522062
000060 a6 25 bb bc e7 1f 96 bb 74 01 8f 3d 0f d1 2d bc
       -0.0228451 -0.00458144 0.06982699 -0.0106089255
000070 82 d9 b5 bd f9 5c 5d 3c 7d 7a 2e bd 20 7e c3 3b
       -0.08879377 0.013510936 -0.042597283 0.005965963
000080 4a ac cc 3d 03 5e fb bc 08 07 83 bb b0 d3 8b 3d
       0.09993799 -0.030684477 -0.003998641 0.068274856
000090 3e ba c8 3b 4c a9 97 bc 1a 56 92 3d 1b 18 8c bd
       0.0061257174 -0.018513344 0.07145329 -0.06840535
0000a0 f4 b3 bd 3d 80 31 4e 3c df 49 a6 3c 28 49 57 3d
       0.09262839 0.012585044 0.020298896 0.05256
0000b0 f3 95 62 3d 08 19 ae bd 43 7e ad 3d 31 31 48 bb
       0.055318784 -0.08500868 0.08471348 -0.0030546898
0000c0 f7 c2 64 3d cc f3 e5 3c 5f 5a 92 bd ab bf 8b bd
       0.055849995 0.028070353 -0.07146143 -0.06823667
0000d0 70 0f f8 bc e3 46 11 be 52 c5 29 3d c1 07 5e bc
       -0.030280799 -0.14187197 0.041447945 -0.013551653
0000e0 0a 79 aa bc 22 b7 27 bd 27 03 1f 3d 7f 84 2c bd
       -0.020809669 -0.040946133 0.038821366 -0.042118546
0000f0 77 96 23 3c 5f fe 62 bc d6 31 44 3d ee 88 10 bc
       0.009984604 -0.013854592 0.04789909 -0.008821709

fc1.weight f4 [64, 256]
000000 a2 a1 26 bd c7 8a 5b 3c 8e 4e 51 bc c8 e7 22 bc
       -0.04068149 0.013399786 -0.012775077 -0.009942956
000010 80 6e 83 bd b0 0a ae 3c 94 17 57 3d 52 ae b9 bb
       -0.064175606 0.02124533 0.05251272 -0.0056665326
000020 7e b6 1b bd 5c 23 4b bc 06 87 db bc ee 07 67 bd
       -0.038015835 -0.012398567 -0.026797783 -0.056404047
000030 bf f7 a9 ba a8 0d 5e bd c1 75 13 3d af a6 29 bd
       -0.0012967511 -0.054212242 0.03600097 -0.041418727
000040 62 79 43 bd b0 3d aa bc b1 87 1e 39 6f 8d 9e 3b
       -0.04772318 -0.020781368 0.00015118603 0.0048386375
000050 52 40 99 bb ef f7 a2 3c 53 dc a6 3b 0a 5b 8e bd
       -0.004676857 0.019893615 0.0050921827 -0.06950958
000060 77 73 19 3c 65 5b 5b bd 1b 4d 3c 3d dc 18 15 bd
       0.009365908 -0.053553957 0.04597197 -0.03640066
000070 48 c1 b1 3c e3 31 27 3c a9 3f 78 bd 87 ac 22 bc
       0.021698609 0.010204765 -0.060607586 -0.009928829
000080 b3 42 26 bd fe f4 57 bc 8c e3 8d bd 26 b6 e8 3c
       -0.040590953 -0.013180969 -0.06928167 0.028407168
000090 a4 16 27 bb 68 1a 98 bd f3 59 82 bd f8 9f da 3c
       -0.0025495673 -0.074269116 -0.06364813 0.026687607
0000a0 9d 3e 0c bb b6 a8 09 bc 1e 1d 6c 3d 22 88 c6 bc
       -0.0021399625 -0.00840204 0.057644956 -0.024234835
0000b0 99 a1 20 bd 8f 11 ec bc 50 04 8b 3c d9 99 bf bc
       -0.03921661 -0.028816966 0.01696983 -0.02338879
0000c0 a5 12 a3 bd 34 f2 2a ba ff 11 cd bc 2c 79 20 bd
       -0.079625405 -0.00065210764 -0.025032995 -0.03917806
0000d0 25 22 10 bd 8d 51 b6 3c ce c2 36 3d ab 0e dd bc
       -0.035188813 0.022255683 0.044619374 -0.026984533
0000e0 f3 e2 82 bc 66 77 43 3d 7e a2 7b 3c 00 fa 8d 3c
       -0.015977358 0.04772129 0.015358565 0.017331123
0000f0 23 20 e8 3b 8a 75 94 bd ea 50 dd bc a7 b8 d0 3c
       0.007083909 -0.07248981 -0.027016122 0.025478674
000100 3f ac 02 bd fa 6f 54 3c 72 e0 15 3d c0 b5 63 bd
       -0.031902548 0.01296615 0.036591 -0.055593252
000110 74 5a 00 bc ff 25 cc 3c 9e 75 64 bd 6d 47 24 3c
       -0.007834066 0.024920462 -0.05577623 0.010026795
000120 e6 f1 60 bc e6 4a 15 bd 35 f8 b5 bc f4 b1 1d bd
       -0.013729548 -0.03644838 -0.02221308 -0.038499787
000130 b3 05 e4 3a 66 8c 17 3d be 29 de bc eb 07 0a 3d
       0.0017396718 0.03699913 -0.027119514 0.033698957
000140 a2 6c fa 3c 2b 80 21 bd d9 0f e1 3b 23 60 48 bd
       0.030569378 -0.03942887 0.0068683443 -0.048919808
000150 6e 83 70 bc 64 dd 09 3d 4f b6 2b 3c bc 0f 40 3c
       -0.014679773 0.0336584 0.0104804775 0.011722501
000160 80 8e cd bc a8 10 34 3c fd 93 dd 3c c5 24 46 bd
       -0.025092363 0.010990299 0.027048105 -0.04837491
000170 0c f1 5e ba bf 78 7c bd 3e df 6e bc 21 4f 67 3d
       -0.0008504547 -0.06163859 -0.014579592 0.056471948
000180 f6 cb ee 3c ed d5 54 3d a8 be 31 bd 67 80 20 bc
       0.02914999 0.051961828 -0.043394715 -0.0097962385
000190 84 ce 93 3c b5 dd 1a bd 44 2b ad 3c f0 16 f4 3b
       0.01804281 -0.037809093 0.021138795 0.0074490234
0001a0 c8 ec 38 3c d6 5f 4c 3d 97 25 97 bd 07 ce 6c bd
       0.011286922 0.049896084 -0.073802166 -0.05781367
0001b0 a8 52 f5 3a 7d 5c 64 bc ba 9d 3d bd b6 9f a0 bc
       0.001871665 -0.013938067 -0.046292998 -0.019607406
0001c0 ad ed a6 bb 92 29 7b 3c 4e de 39 3c 60 39 08 b9
       -0.005094251 0.015329735 0.0113445055 -0.00012991345
0001d0 87 59 81 bd 7f 12 57 3c f5 34 ca bc ba d0 ae bb
       -0.06315904 0.013126968 -0.024683455 -0.0053349407
0001e0 b4 33 c1 bc ba 83 32 bd aa 27 88 3c 6f a9 d1 3c
       -0.023584224 -0.043582655 0.016620476 0.025593488
0001f0 01 2b 1e bd 87 ed 61 bd 86 05 e2 3b f7 fc a6 bc
       -0.03861523 -0.055158164 0.006897631 -0.020384295
000200 ac 1c 7f bd d7 44 2a 3d 5a 82 cb bb c9 34 c1 3c
       -0.062283203 0.041569557 -0.0062106075 0.02358474
000210 74 7f 5a bd 4b d6 80 bd 01 20 b9 bc 1b c1 22 3d
       -0.053344205 -0.06290873 -0.022598268 0.03973494
000220 e0 3a b2 3c c5 b5 42 bd b9 a8 b0 3b 35 97 0e 3c
       0.02175659 -0.04753663 0.005391207 0.008703043
000230 c7 d5 9a bd cb a6 2d bc ff ba f1 3a 61 4e a6 bc
       -0.07560306 -0.010598849 0.001844257 -0.020301046
000240 c5 05 38 3d cb 91 43 3d 4f 55 2b 3d 7f 93 04 3d
       0.044927377 0.04774646 0.041829403 0.032367226
000250 cc bb aa bb 49 35 38 3b 83 73 75 bd 62 67 07 bd
       -0.0052103754 0.0028107932 -0.059924614 -0.033057578
000260 79 e2 66 bd a8 61 3a 3c c8 ba bc bc 6a 80 80 bb
       -0.056368325 0.011375822 -0.023038283 -0.003921558
000270 29 3b 94 bc cc 2e 84 bd 20 f8 0d 3d 90 0d 42 bd
       -0.018094616 -0.06454238 0.03466046 -0.047376215
000280 04 0e 48 3d 9a 30 20 3d bf 43 02 bd 09 39 b8 bc
       0.04884149 0.03910885 -0.03180289 -0.022488134
000290 1b 9a 2b bd 1a fb 65 bd 9d 19 33 bc 71 1e 81 bd
       -0.041895013 -0.056147672 -0.0109314 -0.06304634
0002a0 f3 f7 28 3d 85 52 17 3c e4 82 54 bd 4c 7f a8 bc
       0.041252088 0.009235983 -0.05188264 -0.020568512
0002b0 e9 c4 23 bd 11 be 86 bc 0e 3f 6a bd ee 59 6f 3d
       -0.03998271 -0.016448053 -0.05718904 0.058435373
0002c0 83 51 d7 bc eb 0a b1 3b 16 4a b5 bc 92 9a 08 3d
       -0.026283985 0.005402913 -0.022130053 0.033350535
0002d0 c6 68 23 3c 98 4b 9e bc 6d 1c ff 3c ec 3b 3f bd
       0.00997371 -0.019323155 0.031141484 -0.046688005
0002e0 78 9e 1c bd 29 f4 89 bd 0e 7f c4 bc 3b ef 85 bd
       -0.038237065 -0.06736023 -0.023986366 -0.0653977
0002f0 bc a7 93 bd 04 a4 fe 3b 04 1f 43 bb 6d 3c b2 3b
       -0.07209727 0.007771017 -0.0029773125 0.005439332
000300 bf 59 8b 3c 7c 00 00 bd f4 55 aa bd 9c d4 13 bd
       0.017010568 -0.031250462 -0.083171755 -0.036091432
000310 7a a0 0e bd 4b 81 72 bd d2 e3 66 bc 21 76 f5 b9
       -0.03482101 -0.059205335 -0.0140924025 -0.00046818054
000320 dc be 10 3c d9 5e 81 bd 55 1f 92 bb d7 37 1b 3d
       0.008834567 -0.06316919 -0.0044593015 0.03789505
000330 6f 15 45 3d ff be 81 bd 15 f3 ac bc 43 1c d6 3b
       0.048116144 -0.06335258 -0.021112004 0.006534131
000340 85 4d ea bb cb 9a 2a 3a 00 d6 9c 3b 40 01 52 3d
       -0.0071503543 0.00065080513 0.004786253 0.051270723
000350 7a 56 d2 3b 61 fd b1 bd b2 fa c0 39 33 53 8a bd
       0.006419 -0.08690906 0.00036807876 -0.0675415
000360 74 c8 4b 3c 49 bd 94 bb 43 99 ed bc ef ff 0e bd
       0.0124379285 -0.004539166 -0.029003745 -0.034912046
000370 30 cb 16 3d 2d b3 0d 3c 26 6f 4c 3d 6c 87 6e bc
       0.03681487 0.008648676 0.049910687 -0.014558654
000380 de e9 6f 3c e3 f9 23 3d 07 72 d8 bc cd a3 2e bd
       0.014643161 0.040033232 -0.02642156 -0.04263668
000390 bd d1 37 bd 49 75 dc 3b 0d 0e 9b bd 5b bb 65 3c
       -0.044877756 0.0067278487 -0.07571039 0.01402172
0003a0 8d 46 bd bc 69 f7 2a 3c 5d 1f 37 bd a9 e0 cd bc
       -0.02310493 0.010434964 -0.044707645 -0.02513154
0003b0 a0 b5 0c bd d7 d9 c2 bc e4 44 98 3b 6e ac 46 bd
       -0.0343529 -0.023785515 0.0046468843 -0.048504286
0003c0 41 b8 cb 3c 0e fe 23 bd 5f 9f 18 ba 80 cd 37 bd
       0.024868133 -0.040037207 -0.0005822088 -0.044873714
0003d0 c3 4f 37 bd 7e 99 10 bd 83 0b e0 3c 2d 80 55 3d
       -0.0447538 -0.03530263 0.02734924 0.05212419
0003e0 55 d0 b8 bc 22 5e e3 bc 31 33 38 bd e6 67 78 bd
       -0.022560278 -0.027754847 -0.044970695 -0.06064596
0003f0 65 5d 55 3d c9 2e 28 bd a2 9c 1d 3d c8 0e b5 3b
       0.05209102 -0.041060243 0.038479455 0.0055254437

fc1.bias f4 [64]
000000 ef 5d 4c bd 69 5e 74 bd 3c 4e 78 3c 59 65 d8 3c
       -0.04989427 -0.05966035 0.015155371 0.026415514
000010 00 a7 54 3d e5 3a c0 3c 23 31 c2 3d f8 e2 ff 3d
       0.051917076 0.023465583 0.09482028 0.12494463
000020 64 d3 af 3b af 67 ba 3d b7 c4 b2 3c 9f 3c c2 3d
       0.005365776 0.09101807 0.021822317 0.09484219
000030 10 6a 57 bd 12 70 18 3d aa 3e 9f 3c c8 ac 23 3d
       -0.052591383 0.037216254 0.01943906 0.0399597
000040 04 08 95 bc 85 5e f9 3b 78 1f 61 3d c0 89 c2 3d
       -0.018192299 0.0076101446 0.05496165 0.0949893
000050 fc 38 7a bc 44 ed 7b 3b a7 4f ef 3d 22 f3 03 3d
       -0.015272375 0.0038440982 0.11685114 0.03221429
000060 eb 6f 5f bd f9 c0 55 3d 0e bc 8a 3a 41 8b a6 3c
       -0.054550093 0.052185986 0.0010584609 0.020330073
000070 ca f6 fa 3d dc 63 34 bd d9 e6 6d bd ac 34 41 3c
       0.122541025 -0.044040546 -0.05808148 0.011792343
000080 4b 43 13 bc ca c0 03 3e 16 d8 af bd c0 05 a9 3d
       -0.008988212 0.12866512 -0.08586137 0.0825305
000090 8a 05 33 bc a8 61 1c bd 45 d4 8c 3d bb f8 21 bc
       -0.010926614 -0.03817907 0.06876425 -0.009885962
0000a0 45 90 4f 3c 37 a5 9c bc 5d 91 a1 3c 92 ec 8c 3c
       0.012668674 -0.01912175 0.019722635 0.01720265
0000b0 3a 2f 0c 3e 11 1d 78 bd 1c 12 e8 bc 90 de f1 3d
       0.1368989 -0.060574595 -0.028328948 0.118100286
0000c0 d4 66 d5 3d 82 a4 8c bd 35 69 d1 3c ae eb 92 bd
       0.104200035 -0.06867315 0.025562862 -0.071738586
0000d0 71 c1 d8 3c 90 77 4b 3d da b1 90 3c fd 94 48 3d
       0.026459428 0.04967457 0.017662931 0.04897021
0000e0 63 a6 f5 3c 53 8d db 3d 55 a4 68 bd 41 a2 6b 3d
       0.029986566 0.10720315 -0.056797344 0.057527784
0000f0 30 e6 45 3d 2d 0d d7 3c 9c 0a 69 bd 83 d5 2d bc
       0.048315227 0.0262514 -0.056894884 -0.010609987

batch_norm.weight f4 [64]
000000 bf 80 77 3f 23 0f 7e 3f 6f 76 7e 3f b0 92 d5 3f
       0.96680826 0.99241847 0.99399465 1.668539
000010 f1 8e d9 3f ca 95 e1 3f f5 4a db 3f a3 13 d7 3f
       1.6996747 1.7623837 1.713225 1.6802868
000020 38 f9 77 3f 5e a6 da 3f 81 e4 7b 3f 5b cb ea 3f
       0.9686465 1.7082021 0.98395544 1.8343309
000030 1c 5e 7e 3f 2a bb e5 3f c8 26 7d 3f 6f 76 7e 3f
       0.9936235 1.7947743 0.988873 0.99399465
000040 27 43 7e 3f 8e 75 7e 3f 6e 92 da 3f 70 48 c7 3f
       0.99321216 0.99398124 1.7075937 1.5568981
000050 9a cc dc 3f d4 2f d5 3f 6c cc cb 3f ab 38 7b 3f
       1.724994 1.6655221 1.592176 0.98133343
000060 bf a8 7d 3f 25 b0 dc 3f ab 83 7d 3f 0e 8c 78 3f
       0.9908561 1.7241255 0.99029034 0.97088706
000070 eb a8 d1 3f 00 00 80 3f ec 4f 7e 3f 75 dd 7d 3f
       1.6379675 1.0 0.993407 0.9916604
000080 2b 26 f0 3f c1 c8 d7 3f e7 93 78 3f bd b0 d7 3f
       1.8761648 1.685814 0.9710068 1.6850811
000090 23 61 d6 3f 6d 76 7e 3f ce 6d c7 3f 20 0b 7b 3f
       1.6748394 0.99399453 1.5580385 0.9806385
0000a0 bc 9b 80 3f 4a 8c d8 3f ee 1c d4 3f e5 5b d9 3f
       1.0047526 1.6917813 1.6571329 1.6981169
0000b0 44 e6 c9 3f 09 87 7c 3f 00 00 80 3f 68 34 cf 3f
       1.5773396 0.9864355 1.0 1.6187868
0000c0 ec 59 dc 3f 16 96 7c 3f 38 e1 7d 3f 9e fb 7c 3f
       1.7214942 0.9866651 0.9917178 0.9882144
0000d0 da 31 7e 3f 00 00 80 3f f2 1e 7d 3f 4b 6b cb 3f
       0.9929482 1.0 0.98875344 1.5892118
0000e0 19 80 7e 3f 8c 13 d4 3f 10 e7 7a 3f ae fb ce 3f
       0.9941421 1.6568465 0.98008823 1.6170557
0000f0 40 7f dd 3f 72 76 7e 3f a7 08 7d 3f 59 2e 7e 3f
       1.7304459 0.99399483 0.9884133 0.9928947

batch_norm.bias f4 [64]
000000 89 b9 f4 3d 5b 26 07 be 33 4f 34 be 92 3f 6f bb
       0.119494505 -0.13198225 -0.17608337 -0.0036506397
000010 b3 b5 62 be 54 9b a3 bc 63 ad b0 bd f3 50 d8 bb
       -0.22139625 -0.019971527 -0.08626821 -0.006601447
000020 91 91 01 be fd 88 c2 3d 7e 92 50 3e 34 4a f6 3d
       -0.12653185 0.09498785 0.20368382 0.12025872
000030 62 a7 e8 3d 2a b5 46 3d 03 c9 07 be ca b8 46 be
       0.11360051 0.048512615 -0.13260274 -0.19406429
000040 9b 01 35 be 18 0c 17 3e d4 bb 34 be 24 a1 e8 3d
       -0.17676394 0.14750707 -0.17649776 0.1135886
000050 b9 5d 98 bb 9a 38 9b 3d 79 80 79 3c a2 59 0e be
       -0.0046498445 0.07579155 0.015228384 -0.1390138
000060 48 9d ea 3d 17 d7 bf 3d 40 12 28 3e 17 7a 26 be
       0.1145578 0.09367197 0.16413212 -0.16257511
000070 73 34 82 be 61 7e 1b be ec 0a 1d be 90 5d 49 be
       -0.2543064 -0.15184928 -0.15336198 -0.19664598
000080 14 28 40 bd 97 5b 67 bd bd fc 23 be 54 f1 08 bc
       -0.04691322 -0.05648383 -0.16014381 -0.008358318
000090 96 e7 68 be 56 15 1a 3e 03 5d 19 bd bc 3c 8c ba
       -0.22744593 0.15047202 -0.03744222 -0.0010699253
0000a0 8f be 2d be 5b fc 8c bd 1e 10 11 be e1 45 98 bd
       -0.16967224 -0.068840705 -0.14166304 -0.07435203
0000b0 e5 84 ff bd da ea 11 be d3 36 f9 3d 2d 4d df 3c
       -0.124765195 -0.14249745 0.1216866 0.02725848
0000c0 f0 73 00 bc 7b da d0 bd eb f9 03 be c9 0c 19 3e
       -0.007840142 -0.10197922 -0.12888305 0.14946283
0000d0 94 6e 25 3e 27 41 eb 3d 94 ed 0c be 5f 6b ae 3d
       0.16155463 0.11487036 -0.13762504 0.08516573
0000e0 b7 45 08 be 01 83 db 3d c0 5a 40 3e 9a 3b 26 3d
       -0.13307844 0.107183464 0.18784618 0.040584184
0000f0 7b df a7 3d d1 10 19 3e 96 34 56 3e 59 09 e3 3d
       0.081969224 0.14947821 0.20918497 0.11085767

batch_norm.running_mean f4 [64]
000000 f6 fe c7 24 04 00 00 00 04 00 00 00 5c 95 b7 40
       8.6734414e-17 6e-45 6e-45 5.7369823
000010 79 47 7c 40 01 44 8c 3c 51 24 b5 3c cd 4b 54 40
       3.9418623 0.01712227 0.022112044 3.3171265
000020 04 00 00 00 08 02 1b 40 04 00 00 00 bb ab 6a 40
       6e-45 2.421999 6e-45 3.6667316
000030 04 00 00 00 db 59 d4 3f 04 00 00 00 04 00 00 00
       6e-45 1.6589922 6e-45 6e-45
000040 04 00 00 00 04 00 00 00 e6 a8 3a 40 80 4e 3a 40
       6e-45 6e-45 2.9165587 2.9110413
000050 ef 2a 8c 3f 5e 7c de 3f da d0 92 40 04 00 00 00
       1.0950602 1.7381704 4.5879946 6e-45
000060 04 00 00 00 90 12 7a 40 04 00 00 00 04 00 00 00
       6e-45 3.907383 6e-45 6e-45
000070 d1 52 a0 40 00 00 00 00 04 00 00 00 04 00 00 00
       5.0101094 0.0 6e-45 6e-45
000080 d2 78 7e 40 94 80 c0 3f a0 90 5c 1b d8 8e 02 40
       3.9761243 1.5039239 1.8244704e-22 2.0399685
000090 bf f9 37 40 04 00 00 00 67 68 87 40 04 00 00 00
       2.8746183 6e-45 4.2314944 6e-45
0000a0 b6 28 24 06 83 5d 5c 40 9a 89 38 40 25 f9 b1 3f
       3.0874881e-35 3.4432075 2.8833985 1.3904158
0000b0 42 d3 c3 40 04 00 00 00 00 00 00 00 e7 c8 7d 40
       6.1195383 6e-45 0.0 3.965387
0000c0 88 75 52 40 04 00 00 00 04 00 00 00 04 00 00 00
       3.2884235 6e-45 6e-45 6e-45
0000d0 04 00 00 00 00 00 00 00 04 00 00 00 35 65 58 40
       6e-45 0.0 6e-45 3.3811772
0000e0 04 00 00 00 d7 d0 d2 3f 04 00 00 00 bc 19 0a 41
       6e-45 1.6469983 6e-45 8.631283
0000f0 e7 ed 1f 40 04 00 00 00 04 00 00 00 04 00 00 00
       2.4988954 6e-45 6e-45 6e-45
