models/Perfume/classifier_fold5.pth (torch, 991712 bytes, 16 tensors)

conv_layers.0.weight f4 [64, 256, 2]
0	0x3ca55f81	0.020187141
1	0x3d804b18	0.06264323
2	0xbcbea19e	-0.023270424
3	0x3cf62df0	0.030051202
4	0xbd34da9a	-0.044153787
5	0xbd8b066f	-0.067883365
6	0xbda01ba2	-0.078177705
7	0x3d245a9f	0.040125486
8	0xbca5656f	-0.020189969
9	0xbd273228	-0.040819317
10	0xbdbb185c	-0.091355056
11	0xbe00e36b	-0.12586753
12	0xbc802ae6	-0.015645456
13	0x3c4998f5	0.012304534
14	0x3d13ecd6	0.036114536
15	0xbcfc7419	-0.030817078
16	0x3db98f81	0.09060574
17	0x3d4b256a	0.049596228
18	0xbc86f1b2	-0.016472671
19	0x3cbc42ea	0.022981126
20	0x3cef6a79	0.029225575
21	0xbd719c2f	-0.05898684
22	0xbdc167e5	-0.094436444
23	0xbd8dc507	-0.069223456
24	0x3c860b15	0.016362706
25	0xbc469aba	-0.012121851
26	0x3c11784c	0.008878779
27	0x3c6f7107	0.01461435
28	0x3cd2c910	0.02573064
29	0xbc50743b	-0.012723024
30	0x3c8668b5	0.01640735
31	0x3bd39bc3	0.006457777
32	0x3d401564	0.0468954
33	0x3d9166b3	0.070996664
34	0xbd7e9390	-0.062152445
35	0xbc85f66b	-0.016352853
36	0xbd1d4f83	-0.038405906
37	0x3b03ef31	0.0020131583
38	0xbd7f8c5f	-0.062389728
39	0xbcf020eb	-0.029312572
40	0x3cf88966	0.030338954
41	0xbcda3481	-0.026636364
42	0xbcd9764a	-0.026545662
43	0xbd241746	-0.040061258
44	0x3d3db8bd	0.04631876
45	0xbce5ba36	-0.028042894
46	0x3d5a4c85	0.05329563
47	0x3cc422d3	0.023942387
48	0x3ce1f757	0.027583761
49	0x3da76811	0.08174146
50	0x3dee61ed	0.116397716
51	0x3cb32ffa	0.021873463
52	0x3c0606f7	0.0081803715
53	0xbd44dcb3	-0.048062038
54	0x3d0c6f68	0.034285933
55	0x3be02c23	0.006841199
56	0x3a0376e5	0.000501497
57	0xbc443ef1	-0.011977897
58	0xbe195e9c	-0.14977497
59	0xbc767f6b	-0.015045027
60	0xbb9d8358	-0.004806917
61	0x3cfa453c	0.030550592
62	0x3caf4b03	0.021398073
63	0xbd8838d0	-0.06651461
64	0x3d4da064	0.05020179
65	0x3da1b845	0.07896475
66	0x3c2068c3	0.009790602
67	0x3d5e7522	0.054310925
68	0xbd19d732	-0.037558742
69	0x3cd5341f	0.02602583
70	0x3cf8769a	0.030329991
71	0x3d8e6140	0.06952143
72	0xbc96203e	-0.018325921
73	0xbcfb5456	-0.030679863
74	0xbd2608ce	-0.04053574
75	0xbd085f27	-0.03329387
76	0x3d40ad0e	0.047040038
77	0x3ca85a92	0.020551
78	0x3d1064fb	0.035252552
79	0xbbbd7fcb	-0.0057830564
80	0xbda08c48	-0.078392565
81	0x3da0cfc2	0.07852127
82	0x3c0b45a6	0.008500492
83	0xbd2c95b1	-0.042134944
84	0x3bccc0d2	0.006248572
85	0x3d4b91d1	0.04969961
86	0xbd8792df	-0.0661981
87	0xbd8bf4bf	-0.06833791
88	0xbd9b9a9f	-0.07597851
89	0x3c9c1da7	0.019057108
90	0x3ce485c0	0.027895808
91	0x3cd2e1e7	0.025742484
92	0x3c4c1c88	0.012457974
93	0xbd960c4a	-0.07326563
94	0x3c4d8f36	0.012546351
95	0xbc83e425	-0.016099999
96	0x3d1156cd	0.03548317
97	0x3c2d5755	0.010579904
98	0xbd99667e	-0.07490252
99	0x3d16d994	0.036828592
100	0x3d2e1a6b	0.042505663
101	0xbd8d274c	-0.06892261
102	0xbc3f95da	-0.011693442
103	0xbd185aa6	-0.037195824
104	0xbd1a3605	-0.037649173
105	0x3c5a3596	0.01331844
106	0xbc29dae8	-0.010367133
107	0xbd3c611f	-0.04599106
108	0x3c0a7c7b	0.00845253
109	0xbd5da856	-0.054115616
110	0xbc84e645	-0.016223082
111	0xbc3a2a61	-0.011362643
112	0x3d0f6aef	0.03501409
113	0xbcfd07f6	-0.030887585
114	0x3d9dd4a3	0.07706573
115	0x3bf1e3e6	0.007381904
116	0xbd3b6301	-0.045748714
117	0xbc887877	-0.016659005
118	0x3cb9862a	0.022646982
119	0xbb0cfb79	-0.0021512194
120	0x3d1eb5ea	0.038747706
121	0x3d05d483	0.03267337
122	0xbdb18458	-0.08667821
123	0xbdd89fec	-0.10577378
124	0xbcc6ee5f	-0.024283586
125	0x3d212d62	0.03934992
126	0x3d7aac10	0.061199248
127	0xbbc218a7	-0.005923349
128	0xbd23fabd	-0.040034045
129	0xbd80d18d	-0.06289969
130	0x3d00fefb	0.03149317
131	0x3c45c461	0.012070746
132	0x3cfe9dcc	0.031081103
133	0xbd788315	-0.060671885
134	0xbbb4025f	-0.0054934467
135	0xbd1aeb76	-0.03782221
136	0x3cce2ff3	0.025169348
137	0xbd8ee474	-0.06977168
138	0xbd6ed0f0	-0.058304727
139	0x3d6b2133	0.057404708
140	0x3dbe63ac	0.09296355
141	0xbd51dd36	-0.051236354
142	0x3d236d45	0.03989913
143	0x3b26578a	0.0025381767
144	0xbd1b4264	-0.037905112
145	0xbcc6a2f6	-0.024247628
146	0x3c90c123	0.01767022
147	0xbb10e3d4	-0.0022108452
148	0xbd87d04d	-0.06631527
149	0xbd27cee7	-0.0409688
150	0xbda4ea59	-0.08052511
151	0x3bc78464	0.0060887802
152	0xb96e0a4d	-0.00022701286
153	0x3c5ecd91	0.013598816
154	0xbd2224a0	-0.03958571
155	0x3d9fab16	0.07796304
156	0xbc823f94	-0.015899457
157	0xbdb3263c	-0.08747527
158	0x3bef0b04	0.0072950143
159	0x3be4e8cf	0.0069857608
160	0x3cc8e3d8	0.024522707
161	0xbc79874d	-0.015230012
162	0xbd072ee2	-0.033003695
163	0xbd494c93	-0.049145292
164	0x3bbb5992	0.0057174647
165	0x3d23c2a7	0.039980557
166	0xbbcd8051	-0.0062714
167	0xbd067467	-0.032825854
168	0xbd9b6970	-0.0758847
169	0x3d3424a5	0.04398026
170	0xbbb4c146	-0.005516204
171	0x3cf7da97	0.030255599
172	0xbd3b7ab0	-0.0457713
173	0xbcec5b6d	-0.028852189
174	0x3d047785	0.032340545
175	0xbce94549	-0.02847542
176	0x3a2caa5c	0.0006586665
177	0xbc871a8e	-0.016492154
178	0x3dcd7803	0.10032656
179	0xbce77f96	-0.02825908
180	0x3db3ad53	0.08773293
181	0x3d9a1c10	0.07524884
182	0xbc84b104	-0.016197689
183	0xbd2c11a8	-0.042009026
184	0xbc5c92cd	-0.013462734
185	0xbd173f5a	-0.03692565
186	0x3d488d93	0.04896314
187	0x3c7efd12	0.015563266
188	0x3ccaeb59	0.024770426
189	0xbca0a7e0	-0.019611299
190	0xbd29591d	-0.04134475
191	0xbda65c59	-0.08123083
192	0xbd57acf4	-0.052655175
193	0xbcbb68be	-0.022877093
194	0xbc7fa6ae	-0.015603704
195	0x3d59234b	0.053012174
196	0x3c4c2b41	0.012461484
197	0xbad4372a	-0.0016190757
198	0xbc407030	-0.011745498
199	0xbb8580a0	-0.004074171
200	0x3d008a18	0.031381696
201	0xbd98e1f7	-0.074649744
202	0x3d57a2ea	0.0526456
203	0xbd8b76f4	-0.06809798
204	0x3cb75b98	0.022382542
205	0x3c1f2767	0.009713984
206	0x3d043ff9	0.03228757
207	0x3d76b14a	0.06022767
208	0x3bd7494f	0.0065700184
209	0xbd1f841a	-0.03894434
210	0xbd6130d9	-0.054978225
211	0x3d5fda34	0.054651454
212	0xbd755243	-0.059892904
213	0x3bbc5405	0.0057473206
214	0x3d0c9eaf	0.03433102
215	0xbc0b839d	-0.008515266
216	0xbda2c416	-0.07947557
217	0x3c85ed65	0.01634855
218	0x3dd05edc	0.10174343
219	0xba2eb7c9	-0.00066649594
220	0xb9b804ff	-0.00035098937
221	0x3ca84822	0.020542208
222	0x3cbda65f	0.023150621
223	0x3d35886f	0.044319566
224	0xbdf62b56	-0.120199844
225	0xbc8bd326	-0.017068457
226	0x3d0496ac	0.032370254
227	0x3ca7d1d0	0.020485789
228	0x3d1ced5b	0.038312297
229	0xbd38f1fb	-0.045152646
230	0x3cbc149f	0.022959052
231	0x3b07feb3	0.0020751178
232	0x3d8803f0	0.06641376
233	0x3bc9e928	0.0061618276
234	0x3daa9226	0.08328657
235	0xbd0c0052	-0.034179993
236	0x3cd542ea	0.026032884
237	0x3d125542	0.03572584
238	0x3d9fe039	0.07806439
239	0xbb905464	-0.0044045914
240	0xbdb3c172	-0.08777131
241	0x3b6ddd23	0.0036295138
242	0x3d897f2f	0.067137115
243	0x3d70dd25	0.05880465
244	0x3d4006b0	0.046881378
245	0x3d69c903	0.057076465
246	0x3e1b415c	0.15161651
247	0xbcfcc0ec	-0.030853711
248	0x3d010622	0.03149999
249	0x3d07cdc5	0.03315522
250	0xbce45665	-0.027873227
251	0xbd1dec27	-0.03855529
252	0xbd4e271a	-0.05033026
253	0xbcc3a1db	-0.02388089
254	0x3d2c7f83	0.042113792
255	0x3d4ce5f3	0.050023984

conv_layers.0.bias f4 [64]
0	0xbcaf4e02	-0.021399502
1	0x3dbd3bae	0.092398986
2	0xbcc6b944	-0.024258263
3	0xbd573b5e	-0.05254685
4	0x3dc19aa1	0.09453321
5	0x3d0694e1	0.032856826
6	0xbd768c1a	-0.060192205
7	0x3948df9c	0.00019156787
8	0xbd833542	-0.064066425
9	0xbe01c783	-0.12673764
10	0x3d88243a	0.06647535
11	0x3d658207	0.056032207
12	0x3c9df328	0.019280985
13	0x3c294070	0.0103303045
14	0xbbd11e73	-0.0063818037
15	0xbcedfbc0	-0.029050708
16	0xbab6048e	-0.0013886855
17	0x3d3a5c88	0.0454984
18	0x3dcbf54e	0.099588975
19	0xbcff2cf6	-0.031149369
20	0x3c943d6d	0.018095696
21	0x3df5a9f4	0.119953066
22	0x3c16cdc2	0.00920433
23	0x3b6f6577	0.0036528984
24	0x3daa6574	0.08320132
25	0xbd71f33c	-0.059069857
26	0x3d134745	0.03595664
27	0xbcd5934c	-0.026071213
28	0xbdb1fc04	-0.08690646
29	0xbbf0cfa1	-0.00734897
30	0xbc36ee38	-0.011165194
31	0x3d0d7026	0.03453078
32	0xbda63442	-0.08115436
33	0x3dd8becd	0.10583267
34	0xbd8c0e4c	-0.068386644
35	0x3cd7476f	0.02627918
36	0x3d9e457b	0.07728096
37	0xbc445e29	-0.01198534
38	0xbd4057c1	-0.04695869
39	0x3dce6ae6	0.10078983
40	0xbcae95f5	-0.02131174
41	0xbd60dd3d	-0.05489849
42	0x3b9dc9aa	0.0048153
43	0xbd12805d	-0.035766948
44	0x3ce0ae00	0.02742672
45	0x3b11d78b	0.0022253718
46	0xbd0e3386	-0.034717105
47	0x3ca02f81	0.019553902
48	0xbd8f7277	-0.07004254
49	0x3c31f94f	0.010862662
50	0x3d2d27f8	0.042274445
51	0x3cde4c34	0.027135946
52	0xbd900d83	-0.07033827
53	0x3bebf7ee	0.0072011864
54	0x3d0bdaf1	0.034144346
55	0x3d4234b9	0.04741356
56	0xbd25fea3	-0.040526044
57	0xbd6193e6	-0.055072688
58	0x3de09288	0.109654486
59	0x3d535c78	0.051601857
60	0x3ca7da69	0.020489888
61	0xbdf61d2c	-0.12017283
62	0xbc336a0e	-0.010950578
63	0xbd27b66f	-0.040945467

conv_layers.1.weight f4 [64, 256, 3]
0	0xbd22f00e	-0.039779715
1	0x3b34125c	0.0027476763
2	0x3d2ac31b	0.041689973
3	0x3d5db843	0.054130804
4	0x3da36d18	0.07979792
5	0x3cf5baab	0.029996237
6	0xbd71514d	-0.058915425
7	0x3d2fa233	0.042879295
8	0x3d68633d	0.056735266
9	0x3d8ebf47	0.06970077
10	0xba8d112e	-0.0010762566
11	0xbd29e530	-0.041478336
12	0xbd3c6919	-0.045998666
13	0xbd5aa4e9	-0.053379927
14	0x3daa8183	0.08325484
15	0x3dd6bbc1	0.1048503
16	0xbb8879ca	-0.004164909
17	0x3c836d8c	0.016043447
18	0xbd6fae33	-0.05851574
19	0xbd23f6cf	-0.040030297
20	0x3d370166	0.044679068
21	0xbd00ae69	-0.03141633
22	0x3c4351c1	0.011921347
23	0x3d0d9dff	0.034574505
24	0x3d0ea25a	0.0348228
25	0xbdb06c50	-0.08614409
26	0xbd174264	-0.03692855
27	0x3d6a4888	0.057198077
28	0x3cc62f68	0.024192527
29	0xbd150044	-0.036377206
30	0xbd368a95	-0.044565756
31	0xbdfa0d8c	-0.12209615
32	0xbd24478b	-0.04010729
33	0x3ce86821	0.028369965
34	0xbd102428	-0.03519073
35	0x3d350e48	0.044203073
36	0xbc0de485	-0.00866044
37	0x3d03072d	0.031989265
38	0x3dc0fcfb	0.09423252
39	0x3d9498a7	0.072556786
40	0x3b22dfdd	0.0024852671
41	0xbd595e2e	-0.053068332
42	0x3b8ac940	0.0042354167
43	0x3cca0bad	0.02466377
44	0xbcfe3933	-0.031033134
45	0x3ca5f258	0.02025716
46	0x3d8ca396	0.06867139
47	0xbd0170d2	-0.031601734
48	0x3ca3a5b6	0.019976478
49	0xbcb4926c	-0.022042476
50	0x3d07f694	0.03319414
51	0x3d4a3b98	0.04937324
52	0xbce5356c	-0.027979575
53	0x3d04f44f	0.032459553
54	0xbc96ea0e	-0.018422153
55	0xbd611b37	-0.054957595
56	0xbd1b80d4	-0.037964657
57	0x3cf2016b	0.029541692
58	0x3cea913e	0.02863371
59	0x3d8f9b4f	0.07012045
60	0xbd311d6a	-0.043240942
61	0x3e1775ec	0.14791077
62	0x3dbb0d92	0.09133448
63	0x3d3c6a1c	0.04599963
64	0xbd2e89b4	-0.042611793
65	0xbc630b3b	-0.013857658
66	0x3d12e697	0.03586444
67	0xbca56e34	-0.02019415
68	0x3d39658e	0.045262866
69	0xbd188cf1	-0.037243787
70	0x3d5f6461	0.05453909
71	0xbc1a40f6	-0.009414902
72	0xbd46b680	-0.04851389
73	0x3d75f41f	0.060047265
74	0xbbd62da7	-0.006536204
75	0x3c21b92c	0.009870809
76	0x3c4d90d4	0.012546737
77	0xbbb5a624	-0.005543487
78	0xbd80eaa5	-0.06294755
79	0xbd32114d	-0.04347353
80	0xbc97b556	-0.018519085
81	0x3d9c1d27	0.07622748
82	0x3ce1735b	0.027520826
83	0xbd40f70e	-0.04711061
84	0xbcbbe908	-0.022938266
85	0xbcccd898	-0.025005624
86	0xbd8a5d7a	-0.067561105
87	0x3bb5ed4e	0.0055519706
88	0x3cdc7b35	0.026914218
89	0xbd8deb78	-0.06929678
90	0xbad6a72f	-0.0016376729
91	0x3b1d59d3	0.0024009838
92	0xbcfcb0e8	-0.030846074
93	0xbd235160	-0.039872527
94	0x3d01fc2a	0.031734623
95	0xbb9809bd	-0.004639833
96	0xbe6a6792	-0.22891071
97	0x3b90926a	0.004411985
98	0xbd8fcd98	-0.07021636
99	0x3d41c496	0.04730662
100	0x3d2af0db	0.041733604
101	0xbd1321fc	-0.035921082
102	0x3b60f52e	0.0034325826
103	0xbd0e047a	-0.034672238
104	0xbc44bf94	-0.012008566
105	0xbcb5df2c	-0.022201143
106	0x3dd73d72	0.10509767
107	0x3d4d32e2	0.050097354
108	0xbd070230	-0.03296107
109	0xbc5826be	-0.013192831
110	0xbd50436c	-0.05084555
111	0xbb89fde6	-0.0042111753
112	0xbc9ae9d5	-0.018910328
113	0x3c1d2154	0.009590466
114	0xbd1bc297	-0.038027372
115	0x3dd51197	0.104037456
116	0x3d87e89d	0.06636164
117	0x3a83e90e	0.0010063963
118	0xbcaad0c1	-0.020851495
119	0xbbabc1b6	-0.005241598
120	0x3dae6d04	0.08516887
121	0xbd5eb79b	-0.05437432
122	0x3c696a63	0.014246556
123	0x3cd7734b	0.026300093
124	0xbca97775	-0.020686844
125	0xbd460da5	-0.048352856
126	0x3da57c6c	0.08080372
127	0x3ca2201b	0.0197907
128	0xbd41a81e	-0.04727947
129	0xbbda515f	-0.006662532
130	0xbc878884	-0.016544588
131	0x3b0905ab	0.002090792
132	0xbdb274dd	-0.08713696
133	0x3c0b2b99	0.008494281
134	0xbd8e7fde	-0.069579825
135	0xbac901e3	-0.0015335645
136	0x3ccf6126	0.025314879
137	0xbd07d2c9	-0.033160005
138	0x3cd881a4	0.026429005
139	0x3c84ed0e	0.016226318
140	0x3d1da84e	0.038490586
141	0x3cee4764	0.029086776
142	0x3db5005e	0.08837961
143	0xbc71d31a	-0.014759803
144	0xbc5966db	-0.013269152
145	0x3c3058eb	0.010763387
146	0xbd3b7ade	-0.045771472
147	0x3d768c7e	0.060192578
148	0x3d14de63	0.036344897
149	0xbd981861	-0.07426525
150	0xbd2cba1b	-0.04216967
151	0x3de83792	0.11338724
152	0xba37a18f	-0.000700497
153	0x3cac025c	0.020997219
154	0xbd37fa4b	-0.044916432
155	0xbbea45ce	-0.0071494346
156	0x3c828144	0.01593078
157	0xbd47b797	-0.04875907
158	0x3c805efb	0.01567029
159	0xbd6b491f	-0.05744278
160	0xbd58d0f3	-0.052933645
161	0xbda457d1	-0.08024562
162	0x3bca8d0f	0.0061813663
163	0x3c20ca4a	0.0098138545
164	0x3d6ce3d5	0.057834465
165	0xbd9d15a5	-0.07670144
166	0x3b25539c	0.0025226837
167	0xbd6ebbf8	-0.05828473
168	0xbb3668b1	-0.0027833397
169	0xbccb36a2	-0.024806324
170	0x3d6e5cbc	0.058193907
171	0xbd4cd413	-0.050006937
172	0xbd1aaa53	-0.03776009
173	0x3bd0f51c	0.0063768756
174	0x3d9e5774	0.07731524
175	0x3b9dbbd3	0.00481365
176	0xbbaaee02	-0.005216361
177	0x3dbd81cc	0.092532724
178	0xbd3cb040	-0.046066523
179	0xbad0f253	-0.0015941359
180	0x3c6d4480	0.014481664
181	0xbc3a3e03	-0.011367324
182	0xbcfd05bd	-0.030886525
183	0x3d833149	0.06405885
184	0xbdb9e2b9	-0.09076447
185	0xbccba7b5	-0.024860242
186	0xbd22bd3a	-0.03973124
187	0xbbd1e26e	-0.0064051664
188	0xbcac951a	-0.02106719
189	0xba828a39	-0.0009959406
190	0xbd51144a	-0.05104474
191	0xbaee2fe5	-0.0018172233
192	0x3cf9eecc	0.030509375
193	0xbd2e728f	-0.04258972
194	0xb93f187a	-0.00018224298
195	0x3da3a3d2	0.079902306
196	0x3c735ad6	0.0148532
197	0x3c9cddb0	0.019148678
198	0xbaa24e24	-0.0012382907
199	0x3b955576	0.004557307
200	0xbd52411f	-0.051331636
201	0xbdcf2e57	-0.101162605
202	0x3ca3c0a2	0.019989315
203	0xbc2a8b3d	-0.010409174
204	0xbc45e80b	-0.012079249
205	0x3d64cb59	0.05585799
206	0x3dbe5f45	0.09295515
207	0x3c7d488f	0.015459194
208	0xbd0e117d	-0.034684647
209	0xbdd7d49d	-0.105386
210	0x3b4be338	0.0031110775
211	0xbd214065	-0.039368052
212	0xbd4b186d	-0.04958384
213	0x3dc29098	0.09500235
214	0xbc71a095	-0.014747758
215	0x3c9d8a6e	0.019231047
216	0x3c503c53	0.012709695
217	0xbd2d1b16	-0.04226216
218	0x3d32a20f	0.043611582
219	0x3da72af2	0.08162488
220	0x3d3a8a0a	0.0455418
221	0xbd64d79d	-0.055869687
222	0x3b6ef303	0.0036460764
223	0xbd4a9a53	-0.04946358
224	0xbd2c1403	-0.042011272
225	0xbcb06dbb	-0.021536699
226	0xbb9268cd	-0.0044680596
227	0xbcdf12f9	-0.027230727
228	0x3b593b11	0.0033146779
229	0x3d74ced0	0.059767544
230	0x3cc3c6a6	0.023898434
231	0x3d80a4a1	0.062814005
232	0xbc162719	-0.009164595
233	0xbc431576	-0.011906972
234	0xbd2bbffc	-0.041931137
235	0x3d127f98	0.035766214
236	0xbd033169	-0.032029543
237	0x3c20344f	0.009778096
238	0x3d46b4a1	0.048512105
239	0xbd2a0c9c	-0.04151593
240	0x3c4265fc	0.011865135
241	0xbc8249a1	-0.01590425
242	0xbdb9c531	-0.090708144
243	0x3cd8d14d	0.02646699
244	0xbd22aaef	-0.039713796
245	0x3d404e57	0.04694971
246	0xbcecbeb7	-0.028899534
247	0x3c714c76	0.014727702
248	0xbb075e60	-0.0020655617
249	0xbd2528c6	-0.040322088
250	0x3dd89953	0.10576119
251	0x3cb599e3	0.022168105
252	0x3cfa9736	0.030589681
253	0xbc966e67	-0.01836319
254	0x3d8ed888	0.06974894
255	0x3c95a72b	0.018268188

conv_layers.1.bias f4 [64]
0	0xbe102bdd	-0.14079233
1	0xbc3dc859	-0.011583411
2	0xbd8eb7d2	-0.06968655
3	0xba0f65ab	-0.0005470167
4	0x3ca5db0c	0.020246051
5	0x3d2884d2	0.041142292
6	0x3d9bd16d	0.07608304
7	0x3dd0bb18	0.10191935
8	0xbc4fe89c	-0.012689736
9	0x3bc4d233	0.006006503
10	0xbbe4da91	-0.006984063
11	0x3db8cbf8	0.09023279
12	0x3b6b2820	0.003588207
13	0xbd6c80b4	-0.05773993
14	0xbdbdc145	-0.09265379
15	0xbd3b69f6	-0.04575535
16	0xbd931112	-0.0718099
17	0x3c52bd7f	0.012862562
18	0xba6602e1	-0.00087742327
19	0xbd8aafcc	-0.06771812
20	0x3ad1477a	0.0015966736
21	0xba8e2b1b	-0.0010846587
22	0x3df78ab3	0.12087002
23	0xbd61e862	-0.05515326
24	0x3dc1c9ed	0.094623424
25	0x3c407cec	0.011748534
26	0x3d7552fe	0.0598936
27	0xb940f71e	-0.00018402605
28	0x3d97931d	0.074011065
29	0x3c98e6b4	0.018664695
30	0xbd4b33b8	-0.04960987
31	0x3cbafde3	0.02282614
32	0x3d49548d	0.0491529
33	0x3cf2911e	0.029610213
34	0xbd107bb2	-0.035274215
35	0x39a39df3	0.00031207464
36	0xbd33e99b	-0.043923955
37	0x3d8496ce	0.06474076
38	0x3d232e3d	0.039839018
39	0x3c170cd3	0.009219366
40	0xbd655b25	-0.055995125
41	0x3c5b015d	0.013367024
42	0x3d34b15f	0.044114467
43	0x3c32c086	0.010910159
44	0x3d1357f0	0.035972536
45	0xbcfc9140	-0.03083098
46	0xbb2d54b2	-0.0026448187
47	0x3d26cabc	0.040720686
48	0xbcc05a35	-0.023480514
49	0x3d1859db	0.037195068
50	0x3d8c0eda	0.0683877
51	0xbc407527	-0.011746681
52	0x3c5102ec	0.012757044
53	0xbc82a9e8	-0.015950158
54	0x3c29634f	0.010338618
55	0x3d2712a2	0.040789254
56	0x3d8ea195	0.06964413
57	0x3d09749c	0.033558473
58	0xbd3431e8	-0.043992907
59	0xbd8573d6	-0.065162346
60	0x3d8efa33	0.069813155
61	0x3cdbf5aa	0.02685054
62	0xbd44d516	-0.048054777
63	0xbda503f0	-0.08057392

conv_layers.2.weight f4 [64, 256, 4]
0	0x3cc629be	0.024189826
1	0xbd6e0d9e	-0.058118455
2	0x3b7d0235	0.0038606052
3	0x3c6c77ac	0.014432829
4	0xbd398eb4	-0.045302108
5	0x3e46c09f	0.19409417
6	0x3d8a4906	0.06752209
7	0x3c840a5d	0.016118223
8	0xbd97ad3f	-0.07406091
9	0x3c0dd604	0.008656982
10	0xbb8eb53b	-0.0043551004
11	0x3c9a2452	0.018816147
12	0x3d6f2b51	0.05839092
13	0xbcb3bb36	-0.021939855
14	0xbcc7e5a5	-0.024401495
15	0xbceb1cdb	-0.028700283
16	0xbd36e669	-0.04465333
17	0x3c29ebd2	0.010371165
18	0xbda8245a	-0.082100585
19	0xbd5670d6	-0.052353702
20	0xbcaecae9	-0.02133699
21	0x3ca86116	0.020554107
22	0xbd100a07	-0.035165813
23	0xbd5c737b	-0.05382107
24	0x3d3f085b	0.046638828
25	0x3a93219a	0.0011225224
26	0x3cbc0a72	0.0229542
27	0x3bbe1537	0.005800869
28	0x3db8bc7a	0.09020324
29	0x3d5030a4	0.050827637
30	0x3d03f36d	0.03221457
31	0xbc55c4a8	-0.013047375
32	0x3d18b12a	0.03727833
33	0xbc180fcc	-0.00928111
34	0xbd67a1ef	-0.056550916
35	0xbc08d5e7	-0.00835178
36	0x3b36edb7	0.0027912685
37	0x3c82e18d	0.015976692
38	0xbd080754	-0.033210114
39	0x3d18faa6	0.037348412
40	0x3db592d4	0.08865896
41	0x3cdb3ef0	0.02676341
42	0x3b9d1222	0.0047934214
43	0xbd7f1c6a	-0.062282957
44	0xbd401675	-0.046896417
45	0xbc39d2c9	-0.011341759
46	0x3ca05429	0.01957138
47	0x3c1c0f00	0.009525061
48	0x3b51cdb3	0.0032013475
49	0x3d735488	0.059406787
50	0xbd76b143	-0.060227644
51	0x3cddc54b	0.027071616
52	0xbd1de83d	-0.038551558
53	0x3cc5444a	0.024080414
54	0x3d9970e6	0.07492237
55	0xbcf3e474	-0.02977202
56	0xbcfb4f19	-0.030677365
57	0xba85d416	-0.0010210301
58	0x3cc43701	0.02395201
59	0xbd810e7a	-0.06301589
60	0xbc02c28c	-0.007980954
61	0xbc265c51	-0.010153846
62	0x3cc6b230	0.024254888
63	0x3bc82b0a	0.0061086463
64	0xbd9bdbb5	-0.07610265
65	0x3d0f8ff7	0.035049405
66	0x3d8ff022	0.070282236
67	0x3d55b4f3	0.05217452
68	0x3d01347b	0.03154419
69	0xbd04b17d	-0.03239583
70	0xbcf1b4ca	-0.029505152
71	0x3c5d262f	0.013497873
72	0xbb6468f4	-0.0034852596
73	0xbbf770fe	-0.0075513115
74	0xbd1230cf	-0.03569108
75	0x3c8a136e	0.016854968
76	0xbd2b7f8e	-0.041869693
77	0x3cbd8b3c	0.023137681
78	0xbd304fa2	-0.043044694
79	0x3d409188	0.04701379
80	0xbd935366	-0.07193641
81	0x3cbff2bd	0.023431176
82	0xbb3ed16b	-0.0029116522
83	0x3d3ffc3e	0.046871416
84	0xbc916e37	-0.01775275
85	0xbd3af9f5	-0.045648534
86	0x3da96b88	0.08272463
87	0x3d20c6b8	0.039252013
88	0xbd964557	-0.07337444
89	0x3d2f7b6e	0.04284232
90	0xbd479dde	-0.04873454
91	0x3d30e7e3	0.043189894
92	0x3ca5a541	0.0202204
93	0x3d6021dd	0.054719795
94	0xbd9690f2	-0.07351865
95	0xbcb5cc5c	-0.022192173
96	0xbb089295	-0.0020839323
97	0xbd3f95f3	-0.046773862
98	0xbceb7947	-0.028744353
99	0x3dbd4f08	0.0924359
100	0x3ce0248f	0.027361182
101	0xbca6219c	-0.020279698
102	0x3d216b8a	0.039409198
103	0x3d1adcc8	0.03780821
104	0x3c77d9bb	0.015127595
105	0xbd73ea8b	-0.05954985
106	0xbd1e76a2	-0.038687356
107	0x3ca106fa	0.019656647
108	0x3cbc19ba	0.022961486
109	0xbd536824	-0.051612988
110	0xbd2b9212	-0.04188735
111	0x3d8c9b85	0.068656005
112	0xbdb851b2	-0.08999957
113	0xbcab30e7	-0.020897342
114	0xbd7adace	-0.061243825
115	0xbc2e5b62	-0.010641905
116	0xbce4a9d9	-0.02791302
117	0xbd7d6b3a	-0.061869837
118	0xbdb5b01b	-0.0887148
119	0x3d825708	0.06364256
120	0x3d9d1539	0.076700635
121	0xbd790d23	-0.060803544
122	0x3d9872a2	0.074437395
123	0xbd923e7c	-0.07140824
124	0xbd2e840a	-0.04260639
125	0xbcbc7d3b	-0.023008933
126	0x3d81c6e3	0.06336763
127	0xbc5f9800	-0.0136470795
128	0x3d424852	0.04743225
129	0xbce48d1f	-0.027899323
130	0xbd0f71e7	-0.035020735
131	0x3cfba8de	0.03072017
132	0xbc4ba959	-0.012430512
133	0x3c9cdb2f	0.019147484
134	0x3cec51d4	0.028847612
135	0x3aab99bb	0.001309208
136	0x3cc0e392	0.023546014
137	0xbd4c8707	-0.04993346
138	0xbcbe8036	-0.023254495
139	0xbc6be814	-0.014398593
140	0x3c100733	0.008790779
141	0xbd222340	-0.0395844
142	0x3dcf9739	0.10136265
143	0xbd4f7930	-0.050652683
144	0xbd014146	-0.03155639
145	0x3d10a901	0.035317425
146	0x3cf0411f	0.029327927
147	0xbdd5fd11	-0.10448659
148	0xbd1f97c3	-0.03896309
149	0x3d9b6db1	0.07589281
150	0xbce4f70a	-0.027949829
151	0xbdb99848	-0.090622485
152	0xbca83b5e	-0.020536121
153	0x3d9480b8	0.07251114
154	0x3d9aa0fb	0.07550236
155	0x3d7c968d	0.061667014
156	0x3cb9a910	0.022663623
157	0x3d430d65	0.047620196
158	0xbdae424d	-0.085087396
159	0xbc206ace	-0.009791089
160	0x3c289dc9	0.010291525
161	0xbba6a4bf	-0.0050855572
162	0x3d1804df	0.03711402
163	0xba3f0e08	-0.00072881626
164	0xbd8c5573	-0.06852236
165	0xbe003512	-0.12520245
166	0x3da72a16	0.08162324
167	0xbcf7223b	-0.03016769
168	0xbd509918	-0.05092725
169	0x3cea65bb	0.028612962
170	0xbc277f6c	-0.010223251
171	0xbce411a2	-0.02784044
172	0xbb9767cb	-0.0046205274
173	0xbc095d01	-0.00838399
174	0x3c56acaa	0.01310269
175	0x3d137ff1	0.036010686
176	0x3d5e0af4	0.054209664
177	0x3ce76ace	0.02824917
178	0x3c4dcaeb	0.012560586
179	0xb9490997	-0.00019172426
180	0xbd2040b4	-0.039124206
181	0xbcd7eb79	-0.0263574
182	0x3db4f378	0.088355005
183	0xbcda65d4	-0.026659884
184	0xbc780007	-0.015136725
185	0x3d733b15	0.059382517
186	0xbcc7fd11	-0.024412664
187	0x3c67bee3	0.014144632
188	0xbd2ee5d9	-0.04269967
189	0xbc2284ad	-0.009919328
190	0x3dbe9383	0.093054794
191	0xbc8b726a	-0.01702233
192	0xbd09313b	-0.033494215
193	0x3acaeb22	0.0015481452
194	0xbcfa3c32	-0.030546281
195	0x3bbeb80e	0.005820281
196	0x3d20f457	0.03929552
197	0xb9acc7f3	-0.0003295537
198	0x3cf20fb8	0.02954851
199	0x3d201095	0.039078314
200	0x3d966007	0.073425345
201	0xbdaee1fd	-0.085391976
202	0xbd9e9bc7	-0.07744556
203	0x3dc6146d	0.09671865
204	0x3d36d37f	0.044635292
205	0x3b378bea	0.002800698
206	0xbba4a3b9	-0.0050244
207	0x3d6a85b0	0.0572564
208	0x3c7e3ef1	0.015517936
209	0x3d867531	0.06565321
210	0x3bf19d22	0.007373468
211	0xbda77187	-0.081759505
212	0x3ce2a001	0.027664186
213	0xbdef2b22	-0.11678149
214	0x3c89cf04	0.016822346
215	0xbd456b70	-0.048198164
216	0xbca89ced	-0.02058264
217	0xbd35a54c	-0.044347093
218	0xbcbc8028	-0.023010328
219	0xbcfb268b	-0.030658027
220	0xbb961115	-0.004579673
221	0xbd40011f	-0.04687607
222	0xbc6f68aa	-0.014612356
223	0x3d8206c0	0.06348944
224	0x3ba2b8a4	0.0049658585
225	0x3cc349b6	0.023838859
226	0xbd839454	-0.06424776
227	0x3b64e906	0.0034928932
228	0xbda1c3b0	-0.078986526
229	0xbc07f28b	-0.008297573
230	0x3d6f03ce	0.058353238
231	0x3ca5cddf	0.020239769
232	0x3d6140cf	0.054993447
233	0x3cec769e	0.028865155
234	0xbd60b68e	-0.054861598
235	0x3da1cf53	0.07900872
236	0x3cdf4198	0.027252957
237	0xbccb0f9f	-0.024787722
238	0x3dc44f92	0.09585489
239	0xbda2a636	-0.079418585
240	0xbd428ace	-0.047495656
241	0xbcc4cc53	-0.02402321
242	0xbcbfa619	-0.023394631
243	0xbd4a6630	-0.04941386
244	0xbb0bc304	-0.0021325955
245	0x3d610a5c	0.05494152
246	0xbd0f3893	-0.034966063
247	0x3b88f18b	0.004179185
248	0xbb268a94	-0.002541219
249	0x3cd4f65f	0.025996385
250	0x3dbdaa87	0.09261041
251	0x3cb69f97	0.022292895
252	0xbbc3a907	-0.0059710774
253	0x3c8a02ec	0.016847096
254	0x3d8447ed	0.06459031
255	0x3d8d8d9f	0.06911778

conv_layers.2.bias f4 [64]
0	0xbdbc18ad	-0.09184394
1	0x3c41a144	0.011818234
2	0x3d02df31	0.031951133
3	0x3d7200af	0.059082683
4	0xbd7abbf3	-0.0612144
5	0xbded8462	-0.11597516
6	0xbdb31d8a	-0.087458685
7	0x3c58cb1a	0.013232017
8	0x3d724782	0.059150226
9	0xbb22387f	-0.0024752913
10	0x3de13f7b	0.10998436
11	0xbdd62a65	-0.10457305
12	0x3c8638cf	0.01638451
13	0xbdc9e7da	-0.09858675
14	0xbd04a584	-0.03238441
15	0x3c79aae9	0.015238502
16	0xbd188e64	-0.03724517
17	0x3ce5a076	0.028030615
18	0xbd99b15c	-0.07504532
19	0x3b71caae	0.0036894488
20	0xbd916be1	-0.071006544
21	0xbda48374	-0.08032885
22	0x3d45dd23	0.048306596
23	0x3d8a4dcb	0.06753119
24	0x3d637386	0.055530094
25	0xbd14b7ca	-0.036308087
26	0xbdbeaf4e	-0.093107805
27	0x3d06f6cc	0.032950208
28	0xbcf869f5	-0.030323962
29	0x3b425721	0.0029653984
30	0xbdc217ee	-0.094772205
31	0x3d8656eb	0.06559547
32	0x3d9e6310	0.077337384
33	0x3c008646	0.007844513
34	0xbde0b477	-0.10971921
35	0xbd50f75e	-0.051017158
36	0x3c692b30	0.014231488
37	0xbcabffce	-0.020996
38	0xbd51aecd	-0.051192094
39	0xbc87f822	-0.016597811
40	0xbd8dc91c	-0.06923124
41	0x3daefa88	0.08543879
42	0x3c8232bc	0.015893333
43	0x3c60a773	0.013711798
44	0x3d889a1e	0.066700205
45	0xbd390417	-0.045169916
46	0xbdf74b1a	-0.12074871
47	0xbe0b6992	-0.1361449
48	0x3da35abb	0.0797629
49	0xbd1099ac	-0.035302803
50	0xbd84c94c	-0.06483707
51	0xbcc575b5	-0.024103979
52	0xbc617455	-0.013760646
53	0xb94d4620	-0.00019576447
54	0x3d090840	0.033455133
55	0x3d9ca974	0.07649508
56	0x3d342c08	0.043987304
57	0x3cac208b	0.021011611
58	0xbc7519f9	-0.014959806
59	0x3cb169dc	0.021656923
60	0xbc77ff21	-0.015136511
61	0xbd613a0d	-0.054987002
62	0x3cd7adae	0.026327934
63	0x3da6464f	0.08118879

conv_layers.3.weight f4 [64, 256, 5]
0	0xbc62e097	-0.013847492
1	0xbd989314	-0.07449928
2	0xbbfc9019	-0.0077076075
3	0xbc44602e	-0.011985822
4	0x3ca8040a	0.020509738
5	0x3bbfc45f	0.0058522667
6	0x3c9f1ffa	0.019424427
7	0x3c1111f4	0.008854378
8	0x3ce6057f	0.028078793
9	0x3c9ede2e	0.019393053
10	0x3d766fb8	0.060165137
11	0x3c627870	0.01382266
12	0xbd51e88d	-0.05124717
13	0x3d1a4cd4	0.037670925
14	0xbd0c694b	-0.034280103
15	0xbb1a0465	-0.0023501155
16	0xbc93aa56	-0.018025558
17	0xbcbcdacd	-0.023053551
18	0xbb77bd43	-0.0037802018
19	0xbcfb069e	-0.030642804
20	0x3bc31b5c	0.005954189
21	0x3c4d5c7d	0.012534258
22	0xbcf9e737	-0.03050576
23	0x3c8aa71a	0.016925383
24	0xbc573a0f	-0.013136401
25	0xbc447b58	-0.011992298
26	0x3af52316	0.0018702473
27	0x3d82e95a	0.063921645
28	0xbd220d64	-0.03956355
29	0xbd207867	-0.039177325
30	0x3d17a1d1	0.037019555
31	0x3ca35666	0.019938659
32	0x3d83a2e3	0.064275526
33	0x3d21bdb2	0.03948755
34	0xbd2a4085	-0.041565437
35	0x3cdc8fe6	0.026924085
36	0x3d1be6ae	0.03806179
37	0x3d60fe6e	0.054930143
38	0x3cdccdaa	0.026953537
39	0xbd394a15	-0.045236666
40	0xbd195e60	-0.03744352
41	0x3d0fb093	0.035080504
42	0xba87490b	-0.0010321451
43	0xbdb51ddb	-0.08843585
44	0x3d11b0a9	0.035568867
45	0x3d35a429	0.04434601
46	0xb8054640	-3.1775096e-05
47	0x3c6e46dc	0.014543261
48	0x3d5cc29b	0.053896528
49	0xbd8827ad	-0.066481926
50	0xbdb2f5ec	-0.08738312
51	0x3c454262	0.012039753
52	0xbd7cdd65	-0.061734576
53	0x3937c7ea	0.00017526714
54	0xbd2226e9	-0.03958789
55	0x3ca2701c	0.019828849
56	0x3d19baa6	0.037531517
57	0x3ac499cb	0.0014999447
58	0xbcf15950	-0.029461533
59	0xbb1798b7	-0.0023131797
60	0x3be504ac	0.0069890823
61	0xbdb9b18f	-0.0906707
62	0x3d896f05	0.067106284
63	0xbd24629a	-0.040133096
64	0xbce6f4a8	-0.028192833
65	0xbd02eb4f	-0.03196269
66	0x3d1a7899	0.037712667
67	0x3a40ea2b	0.00073591125
68	0xb8662694	-5.4872202e-05
69	0xbd562067	-0.052276995
70	0x3ccb7846	0.024837624
71	0x3d7337b3	0.05937929
72	0xbd251e31	-0.040311996
73	0xbdba3d32	-0.09093703
74	0xbd0cc1ab	-0.034364384
75	0x3c8bc4e3	0.017061656
76	0x3d11561d	0.035482515
77	0xbd7c1002	-0.061538704
78	0xbdcb0b4a	-0.099142626
79	0xbd13b956	-0.036065422
80	0xbc8eb26b	-0.01741906
81	0xbd918c9a	-0.07106896
82	0x3b59c582	0.0033229296
83	0x3daab185	0.083346404
84	0xbd978b33	-0.07399597
85	0x3d303fc8	0.043029577
86	0xbcfb0a2a	-0.030644495
87	0xbd51c1ce	-0.051210217
88	0xbdadf614	-0.08494201
89	0x3b72f89e	0.0037074457
90	0x3d85c3b0	0.06531465
91	0xbd279797	-0.04091605
92	0xbd0c973f	-0.034323927
93	0x3d26a845	0.040687818
94	0x3d5f3fc1	0.05450416
95	0x3c8a017a	0.016846407
96	0xbc15de57	-0.009147248
97	0xbd8a1606	-0.06742482
98	0xbcdaa72c	-0.026691042
99	0x3cb247b3	0.021762704
100	0x3c490e5d	0.012271491
101	0xbcd02d4b	-0.025412222
102	0xbd3748e8	-0.044747263
103	0x3d7108cc	0.05884628
104	0x3b0f5e8c	0.0021876423
105	0xbd896982	-0.06709577
106	0xbd1596bc	-0.036520705
107	0xbd774970	-0.06037277
108	0xbb78dd82	-0.0037973826
109	0xbd944c7a	-0.07241149
110	0xbcab09db	-0.020878723
111	0x3cc25a8f	0.023724822
112	0xbd39568b	-0.04524855
113	0xbd654f2a	-0.0559837
114	0xbcd50698	-0.02600412
115	0x3c3e1395	0.011601348
116	0x3d6392c9	0.055559907
117	0x3c53a8ba	0.0129186455
118	0x3bdf13ce	0.006807781
119	0x3c42414f	0.011856391
120	0xbd5fa503	-0.054600727
121	0xb9b5e4b0	-0.00034693396
122	0xbd33d195	-0.043901045
123	0x3c349934	0.011022855
124	0xbcf13902	-0.029446129
125	0x3d0c1ecb	0.034209054
126	0xbd8ad091	-0.06778062
127	0xbb06357e	-0.0020478661
128	0x3ce423a6	0.02784903
129	0xbd257b1b	-0.040400606
130	0x3c5005b6	0.012696674
131	0xbd109a45	-0.035303373
132	0xbdc91db6	-0.0982012
133	0xba8d9134	-0.001080072
134	0xbd1991f4	-0.037492707
135	0xbd1e9c2d	-0.03872316
136	0xbd8e4b56	-0.06947963
137	0xbd2ec983	-0.042672645
138	0xbbb5e169	-0.0055505526
139	0x3c1eb701	0.009687186
140	0xbd569a52	-0.052393265
141	0xbd2e5c20	-0.042568326
142	0x3c421153	0.011844951
143	0x3b17dee6	0.002317363
144	0x3a95fe0d	0.0011443511
145	0xbcf5feaf	-0.03002867
146	0x3d76f872	0.06029553
147	0xbb306f60	-0.0026921853
148	0xbaa568f6	-0.0012619782
149	0xbc3a248c	-0.0113612525
150	0x3d5b1e3b	0.053495627
151	0xbd427f0e	-0.04748445
152	0xbc381c88	-0.011237271
153	0x3c30e017	0.010795615
154	0xbd65d3ab	-0.056110065
155	0x3d4fc122	0.050721295
156	0x3b5a02aa	0.0033265748
157	0x3c49ba8c	0.012312543
158	0x3c170237	0.009216837
159	0xbb966171	-0.0045892526
160	0xbd9dbd46	-0.07702117
161	0x3c8affda	0.016967703
162	0x3d5b2502	0.05350209
163	0x3d8c7fe4	0.06860331
164	0xbcb0ed2a	-0.021597464
165	0x3d74fdf6	0.05981251
166	0xbd37552b	-0.044758957
167	0xba0644b6	-0.0005121933
168	0x3d6228d3	0.055214714
169	0x3d0c23a0	0.034213662
170	0xbd2a49f0	-0.04157442
171	0x3d13bfb6	0.0360715
172	0xbc5e2df0	-0.013560757
173	0x3d8fa459	0.07013769
174	0xbd2e7105	-0.042588253
175	0xbd61f29f	-0.055163022
176	0xbb288b4d	-0.0025717795
177	0x3bbcb85e	0.005759283
178	0xbd816bff	-0.06319427
179	0x3d38b41b	0.045093637
180	0xbc25f612	-0.0101294685
181	0x3cb7b88b	0.022426864
182	0x3c819ded	0.015822375
183	0x3b771fba	0.003770812
184	0xbd60743d	-0.054798353
185	0xbd44df4f	-0.048064526
186	0xbdae42ea	-0.085088566
187	0x3ce40511	0.027834447
188	0xbd9bf28f	-0.07614624
189	0x3c9aae10	0.018881828
190	0x3d1abd07	0.037777927
191	0x3b97155d	0.004610701
192	0xbb2bb309	-0.0026199243
193	0xbda8e265	-0.08246306
194	0xbd441788	-0.047874004
195	0x3cafd114	0.021462
196	0x3c5a5291	0.013325349
197	0x3d388fe0	0.045059085
198	0x3c9328b3	0.017963743
199	0xbcbb4a48	-0.022862568
200	0x3ca5e4ba	0.020250667
201	0x3d119357	0.035540905
202	0x3ba0b573	0.004904443
203	0xbd789105	-0.060685176
204	0x3cf77c66	0.030210685
205	0x3c89eaac	0.016835533
206	0xbc02d200	-0.007984638
207	0x3d2d5999	0.042321775
208	0xbcb184ed	-0.02166983
209	0x3ced6a7a	0.028981436
210	0x3ced5f40	0.028976083
211	0x3c82b737	0.015956504
212	0xbb2879eb	-0.0025707434
213	0x3ae969e4	0.0017808047
214	0xbd16460d	-0.0366879
215	0x3c9615ab	0.018320879
216	0xbd6cb698	-0.057791322
217	0x3cbf8b60	0.023381889
218	0xbd1b73af	-0.03795212
219	0x3b88a4aa	0.00417002
220	0x3d4ccd08	0.05000022
221	0x3d6b16f2	0.05739493
222	0x3d4d0b14	0.050059393
223	0x3cd285f0	0.025698632
224	0xbddf3f6e	-0.1090077
225	0x3b94f2a7	0.004545528
226	0xbc418204	-0.011810783
227	0xbca613aa	-0.020273048
228	0x3d40126d	0.046892572
229	0xbd2f18d3	-0.042748284
230	0x3ccdbd05	0.025114546
231	0x3d692f40	0.056929827
232	0x3d3039e4	0.04302396
233	0xbc833b9a	-0.016019631
234	0xbcbd8a4a	-0.02313723
235	0x3dcd446a	0.100228146
236	0xbce6f00b	-0.028190633
237	0x3d84aa6b	0.06477817
238	0x3dce04e6	0.10059528
239	0xbd21e27b	-0.03952263
240	0xbd4ba5b6	-0.04971858
241	0x3d63f543	0.05565382
242	0xbcb0b52b	-0.021570763
243	0xbc8a11bb	-0.016854158
244	0xbc364c6b	-0.011126618
245	0x3d652e2e	0.055952244
246	0xbcd9d5e4	-0.026591249
247	0xbd016f31	-0.03160018
248	0xbdaa2f24	-0.083097726
249	0xbc9d635b	-0.019212415
250	0xbbfcb9b6	-0.007712568
251	0xba8026a3	-0.000977714
252	0xbc1a29c3	-0.009409371
253	0x3d35f1fc	0.044420227
254	0xbd30fe54	-0.043211296
255	0x3aa93906	0.0012910671

conv_layers.3.bias f4 [64]
0	0xbe5057ca	-0.20345989
1	0xbca7b984	-0.020474203
2	0x3d475a0d	0.048669863
3	0xbdafe0bb	-0.08587786
4	0xbd0f61df	-0.035005447
5	0x3c2b6812	0.010461824
6	0xbd4a65d4	-0.049413517
7	0x3a7b3f55	0.00095843273
8	0x3d244977	0.040109124
9	0xbe112550	-0.1417439
10	0xbd3636ef	-0.044485983
11	0x3ce6d9bf	0.028180001
12	0x3cb56357	0.022142095
13	0xbd1756bb	-0.036947947
14	0x3d37add2	0.044843502
15	0x3ba3a190	0.004993625
16	0xbdc4bb2b	-0.09606012
17	0xbd8c3a7e	-0.06847094
18	0xbe0639f0	-0.13108039
19	0xbd9b3784	-0.07578948
20	0xbd0c3063	-0.034225833
21	0x3b9937c3	0.004675837
22	0xbcddae6d	-0.027060712
23	0x3bb7f8c5	0.0056143724
24	0xbcbf58d1	-0.02335778
25	0x3ab75b09	0.0013988923
26	0x3d92c24d	0.07165966
27	0xbc0faaa4	-0.008768711
28	0xbda18eb3	-0.07888546
29	0x3c37d26f	0.011219605
30	0xbd4086cf	-0.047003563
31	0x3c329345	0.01089937
32	0x3dd799ed	0.10527406
33	0xbcabb883	-0.020962005
34	0xbb3f36fe	-0.0029177065
35	0x3d9681ee	0.07349001
36	0x3bec99ad	0.007220468
37	0xbca15655	-0.019694487
38	0x3d965b9c	0.07341692
39	0xbd9145f0	-0.07093418
40	0x3dc046b3	0.09388485
41	0x3c3edc15	0.011649151
42	0x3c98f2cb	0.01867046
43	0x3d6c82df	0.057741996
44	0x3d606240	0.0547812
45	0xbdbc1c9e	-0.09185146
46	0x3daa4ad5	0.08315054
47	0xbb1eae19	-0.0024212657
48	0x3d632cbf	0.055462595
49	0x3ce4887c	0.027897112
50	0xbda5b77f	-0.0809164
51	0xbd903f69	-0.070433445
52	0xbd0784b1	-0.03308553
53	0xbe1328c8	-0.14371026
54	0x3d3514ed	0.04420941
55	0xbc6ccdfd	-0.014453408
56	0xbc85eeb6	-0.016349178
57	0xbd266ee7	-0.04063311
58	0x3d14872a	0.036261715
59	0xbd4af584	-0.04955055
60	0x3c09cd5d	0.008410779
61	0xbcab39d0	-0.02090159
62	0x3d3df6a2	0.046377786
63	0xbc42e541	-0.011895479

fc1.weight f4 [64, 256]
0	0xbd26a1a2	-0.04068149
1	0x3c5b8ac7	0.013399786
2	0xbc514e8e	-0.012775077
3	0xbc22e7c8	-0.009942956
4	0xbd836e80	-0.064175606
5	0x3cae0ab0	0.02124533
6	0x3d571794	0.05251272
7	0xbbb9ae52	-0.0056665326
8	0xbd1bb67e	-0.038015835
9	0xbc4b235c	-0.012398567
10	0xbcdb8706	-0.026797783
11	0xbd6707ee	-0.056404047
12	0xbaa9f7bf	-0.0012967511
13	0xbd5e0da8	-0.054212242
14	0x3d1375c1	0.03600097
15	0xbd29a6af	-0.041418727
16	0xbd437962	-0.04772318
17	0xbcaa3db0	-0.020781368
18	0x391e87b1	0.00015118603
19	0x3b9e8d6f	0.0048386375
20	0xbb994052	-0.004676857
21	0x3ca2f7ef	0.019893615
22	0x3ba6dc53	0.0050921827
23	0xbd8e5b0a	-0.06950958
24	0x3c197377	0.009365908
25	0xbd5b5b65	-0.053553957
26	0x3d3c4d1b	0.04597197
27	0xbd1518dc	-0.03640066
28	0x3cb1c148	0.021698609
29	0x3c2731e3	0.010204765
30	0xbd783fa9	-0.060607586
31	0xbc22ac87	-0.009928829
32	0xbd2642b3	-0.040590953
33	0xbc57f4fe	-0.013180969
34	0xbd8de38c	-0.06928167
35	0x3ce8b626	0.028407168
36	0xbb2716a4	-0.0025495673
37	0xbd981a68	-0.074269116
38	0xbd8259f3	-0.06364813
39	0x3cda9ff8	0.026687607
40	0xbb0c3e9d	-0.0021399625
41	0xbc09a8b6	-0.00840204
42	0x3d6c1d1e	0.057644956
43	0xbcc68822	-0.024234835
44	0xbd20a199	-0.03921661
45	0xbcec118f	-0.028816966
46	0x3c8b0450	0.01696983
47	0xbcbf99d9	-0.02338879
48	0xbda312a5	-0.079625405
49	0xba2af234	-0.00065210764
50	0xbccd11ff	-0.025032995
51	0xbd20792c	-0.03917806
52	0xbd102225	-0.035188813
53	0x3cb6518d	0.022255683
54	0x3d36c2ce	0.044619374
55	0xbcdd0eab	-0.026984533
56	0xbc82e2f3	-0.015977358
57	0x3d437766	0.04772129
58	0x3c7ba27e	0.015358565
59	0x3c8dfa00	0.017331123
60	0x3be82023	0.007083909
61	0xbd94758a	-0.07248981
62	0xbcdd50ea	-0.027016122
63	0x3cd0b8a7	0.025478674
64	0xbd02ac3f	-0.031902548
65	0x3c546ffa	0.01296615
66	0x3d15e072	0.036591
67	0xbd63b5c0	-0.055593252
68	0xbc005a74	-0.007834066
69	0x3ccc25ff	0.024920462
70	0xbd64759e	-0.05577623
71	0x3c24476d	0.010026795
72	0xbc60f1e6	-0.013729548
73	0xbd154ae6	-0.03644838
74	0xbcb5f835	-0.02221308
75	0xbd1db1f4	-0.038499787
76	0x3ae405b3	0.0017396718
77	0x3d178c66	0.03699913
78	0xbcde29be	-0.027119514
79	0x3d0a07eb	0.033698957
80	0x3cfa6ca2	0.030569378
81	0xbd21802b	-0.03942887
82	0x3be10fd9	0.0068683443
83	0xbd486023	-0.048919808
84	0xbc70836e	-0.014679773
85	0x3d09dd64	0.0336584
86	0x3c2bb64f	0.0104804775
87	0x3c400fbc	0.011722501
88	0xbccd8e80	-0.025092363
89	0x3c3410a8	0.010990299
90	0x3cdd93fd	0.027048105
91	0xbd4624c5	-0.04837491
92	0xba5ef10c	-0.0008504547
93	0xbd7c78bf	-0.06163859
94	0xbc6edf3e	-0.014579592
95	0x3d674f21	0.056471948
96	0x3ceecbf6	0.02914999
97	0x3d54d5ed	0.051961828
98	0xbd31bea8	-0.043394715
99	0xbc208067	-0.0097962385
100	0x3c93ce84	0.01804281
101	0xbd1addb5	-0.037809093
102	0x3cad2b44	0.021138795
103	0x3bf416f0	0.0074490234
104	0x3c38ecc8	0.011286922
105	0x3d4c5fd6	0.049896084
106	0xbd972597	-0.073802166
107	0xbd6cce07	-0.05781367
108	0x3af552a8	0.001871665
109	0xbc645c7d	-0.013938067
110	0xbd3d9dba	-0.046292998
111	0xbca09fb6	-0.019607406
112	0xbba6edad	-0.005094251
113	0x3c7b2992	0.015329735
114	0x3c39de4e	0.0113445055
115	0xb9083960	-0.00012991345
116	0xbd815987	-0.06315904
117	0x3c57127f	0.013126968
118	0xbcca34f5	-0.024683455
119	0xbbaed0ba	-0.0053349407
120	0xbcc133b4	-0.023584224
121	0xbd3283ba	-0.043582655
122	0x3c8827aa	0.016620476
123	0x3cd1a96f	0.025593488
124	0xbd1e2b01	-0.03861523
125	0xbd61ed87	-0.055158164
126	0x3be20586	0.006897631
127	0xbca6fcf7	-0.020384295
128	0xbd7f1cac	-0.062283203
129	0x3d2a44d7	0.041569557
130	0xbbcb825a	-0.0062106075
131	0x3cc134c9	0.02358474
132	0xbd5a7f74	-0.053344205
133	0xbd80d64b	-0.06290873
134	0xbcb92001	-0.022598268
135	0x3d22c11b	0.03973494
136	0x3cb23ae0	0.02175659
137	0xbd42b5c5	-0.04753663
138	0x3bb0a8b9	0.005391207
139	0x3c0e9735	0.008703043
140	0xbd9ad5c7	-0.07560306
141	0xbc2da6cb	-0.010598849
142	0x3af1baff	0.001844257
143	0xbca64e61	-0.020301046
144	0x3d3805c5	0.044927377
145	0x3d4391cb	0.04774646
146	0x3d2b554f	0.041829403
147	0x3d04937f	0.032367226
148	0xbbaabbcc	-0.0052103754
149	0x3b383549	0.0028107932
150	0xbd757383	-0.059924614
151	0xbd076762	-0.033057578
152	0xbd66e279	-0.056368325
153	0x3c3a61a8	0.011375822
154	0xbcbcbac8	-0.023038283
155	0xbb80806a	-0.003921558
156	0xbc943b29	-0.018094616
157	0xbd842ecc	-0.06454238
158	0x3d0df820	0.03466046
159	0xbd420d90	-0.047376215
160	0x3d480e04	0.04884149
161	0x3d20309a	0.03910885
162	0xbd0243bf	-0.03180289
163	0xbcb83909	-0.022488134
164	0xbd2b9a1b	-0.041895013
165	0xbd65fb1a	-0.056147672
166	0xbc33199d	-0.0109314
167	0xbd811e71	-0.06304634
168	0x3d28f7f3	0.041252088
169	0x3c175285	0.009235983
170	0xbd5482e4	-0.05188264
171	0xbca87f4c	-0.020568512
172	0xbd23c4e9	-0.03998271
173	0xbc86be11	-0.016448053
174	0xbd6a3f0e	-0.05718904
175	0x3d6f59ee	0.058435373
176	0xbcd75183	-0.026283985
177	0x3bb10aeb	0.005402913
178	0xbcb54a16	-0.022130053
179	0x3d089a92	0.033350535
180	0x3c2368c6	0.00997371
181	0xbc9e4b98	-0.019323155
182	0x3cff1c6d	0.031141484
183	0xbd3f3bec	-0.046688005
184	0xbd1c9e78	-0.038237065
185	0xbd89f429	-0.06736023
186	0xbcc47f0e	-0.023986366
187	0xbd85ef3b	-0.0653977
188	0xbd93a7bc	-0.07209727
189	0x3bfea404	0.007771017
190	0xbb431f04	-0.0029773125
191	0x3bb23c6d	0.005439332
192	0x3c8b59bf	0.017010568
193	0xbd00007c	-0.031250462
194	0xbdaa55f4	-0.083171755
195	0xbd13d49c	-0.036091432
196	0xbd0ea07a	-0.03482101
197	0xbd72814b	-0.059205335
198	0xbc66e3d2	-0.0140924025
199	0xb9f57621	-0.00046818054
200	0x3c10bedc	0.008834567
201	0xbd815ed9	-0.06316919
202	0xbb921f55	-0.0044593015
203	0x3d1b37d7	0.03789505
204	0x3d45156f	0.048116144
205	0xbd81beff	-0.06335258
206	0xbcacf315	-0.021112004
207	0x3bd61c43	0.006534131
208	0xbbea4d85	-0.0071503543
209	0x3a2a9acb	0.00065080513
210	0x3b9cd600	0.004786253
211	0x3d520140	0.051270723
212	0x3bd2567a	0.006419
213	0xbdb1fd61	-0.08690906
214	0x39c0fab2	0.00036807876
215	0xbd8a5333	-0.0675415
216	0x3c4bc874	0.0124379285
217	0xbb94bd49	-0.004539166
218	0xbced9943	-0.029003745
219	0xbd0effef	-0.034912046
220	0x3d16cb30	0.03681487
221	0x3c0db32d	0.008648676
222	0x3d4c6f26	0.049910687
223	0xbc6e876c	-0.014558654
224	0x3c6fe9de	0.014643161
225	0x3d23f9e3	0.040033232
226	0xbcd87207	-0.02642156
227	0xbd2ea3cd	-0.04263668
228	0xbd37d1bd	-0.044877756
229	0x3bdc7549	0.0067278487
230	0xbd9b0e0d	-0.07571039
231	0x3c65bb5b	0.01402172
232	0xbcbd468d	-0.02310493
233	0x3c2af769	0.010434964
234	0xbd371f5d	-0.044707645
235	0xbccde0a9	-0.02513154
236	0xbd0cb5a0	-0.0343529
237	0xbcc2d9d7	-0.023785515
238	0x3b9844e4	0.0046468843
239	0xbd46ac6e	-0.048504286
240	0x3ccbb841	0.024868133
241	0xbd23fe0e	-0.040037207
242	0xba189f5f	-0.0005822088
243	0xbd37cd80	-0.044873714
244	0xbd374fc3	-0.0447538
245	0xbd10997e	-0.03530263
246	0x3ce00b83	0.02734924
247	0x3d55802d	0.05212419
248	0xbcb8d055	-0.022560278
249	0xbce35e22	-0.027754847
250	0xbd383331	-0.044970695
251	0xbd7867e6	-0.06064596
252	0x3d555d65	0.05209102
253	0xbd282ec9	-0.041060243
254	0x3d1d9ca2	0.038479455
255	0x3bb50ec8	0.0055254437

fc1.bias f4 [64]
0	0xbd4c5def	-0.04989427
1	0xbd745e69	-0.05966035
2	0x3c784e3c	0.015155371
3	0x3c36cac7	0.011156744
4	0x3d399383	0.045306694
5	0x3cac0096	0.020996373
6	0x3dca1b5b	0.09868499
7	0x3dd55e84	0.10418418
8	0x3bafd364	0.005365776
9	0x3d9685d2	0.07349743
10	0x3cb2c4b7	0.021822317
11	0x3d9abb19	0.07555217
12	0xbd576a10	-0.052591383
13	0x3d1dfb7e	0.03856992
14	0x3c9f3eaa	0.01943906
15	0x3d23acc8	0.0399597
16	0xbc950804	-0.018192299
17	0x3bf95e85	0.0076101446
18	0x3d5ed976	0.054406606
19	0x3da49075	0.080353655
20	0xbbc5d4e1	-0.00603734
21	0x3bd6c007	0.006553653
22	0x3ded309e	0.115815386
23	0x3d03f322	0.03221429
24	0xbd5f6feb	-0.054550093
25	0x3d23ee11	0.04002196
26	0x3a8abc0e	0.0010584609
27	0x3ca68b41	0.020330073
28	0x3dd99be8	0.1062544
29	0xbd3463dc	-0.044040546
30	0xbd6de6d9	-0.05808148
31	0x3c4134ac	0.011792343
32	0xbc00c07c	-0.007858392
33	0x3e090000	0.13378906
34	0xbdafd816	-0.08586137
35	0x3db35343	0.08756115
36	0xbc6549a9	-0.013994613
37	0xbd1c61a8	-0.03817907
38	0x3d818a73	0.06325235
39	0xbc21f8bb	-0.009885962
40	0x3c4f9045	0.012668674
41	0xbc19ee8a	-0.009395251
42	0x3ccfe8ce	0.025379565
43	0x3c8b7105	0.017021665
44	0x3df80442	0.12110187
45	0xbd781d11	-0.060574595
46	0xbce8121c	-0.028328948
47	0x3de485e3	0.11158349
48	0x3dc59aba	0.096486524
49	0xbd8ca482	-0.06867315
50	0x3cd16935	0.025562862
51	0xbd92ebae	-0.071738586
52	0x3cd8c171	0.026459428
53	0x3d4b7790	0.04967457
54	0x3c90b1da	0.017662931
55	0x3d56be7d	0.052427758
56	0x3cf5a663	0.029986566
57	0x3dde874b	0.10865649
58	0xbd68a455	-0.056797344
59	0x3d6ec401	0.058292393
60	0x3d79a84b	0.060951512
61	0x3cd70d2d	0.0262514
62	0xbd690a9c	-0.056894884
63	0xbc2dd583	-0.010609987

batch_norm.weight f4 [64]
0	0x3f7780bf	0.96680826
1	0x3f7e0f23	0.99241847
2	0x3f7e766f	0.99399465
3	0x3fdb9800	1.7155762
4	0x3fdbf4ba	1.718406
5	0x3fdf13df	1.7427939
6	0x3fda6e7f	1.7064971
7	0x3fda86cc	1.7072387
8	0x3f77f938	0.9686465
9	0x3fdfb065	1.7475706
10	0x3f7be481	0.98395544
11	0x3fef1450	1.8678074
12	0x3f7e5e1c	0.9936235
13	0x3fe9a14a	1.8252347
14	0x3f7d26c8	0.988873
15	0x3f7e766f	0.99399465
16	0x3f7e4327	0.99321216
17	0x3f7e758e	0.99398124
18	0x3fdb337a	1.7125084
19	0x3fccd26d	1.6001717
20	0x3fd8d731	1.6940671
21	0x3fd6c652	1.6779273
22	0x3fcf3da3	1.6190685
23	0x3f7b38ab	0.98133343
24	0x3f7da8bf	0.9908561
25	0x3fe29b15	1.7703577
26	0x3f7d83ab	0.99029034
27	0x3f788c0e	0.97088706
28	0x3fd9d4eb	1.7018102
29	0x3f800000	1.0
30	0x3f7e4fec	0.993407
31	0x3f7ddd75	0.9916604
32	0x3ff599ee	1.9187601
33	0x3fd12e44	1.6342244
34	0x3f7893e7	0.9710068
35	0x3fd3b08f	1.6538256
36	0x3fd570aa	1.6675007
37	0x3f7e766d	0.99399453
38	0x3fc6c0cb	1.5527586
39	0x3f7b0b20	0.9806385
40	0x3f809bbc	1.0047526
41	0x3fda2016	1.7041042
42	0x3fcf7416	1.6207302
43	0x3fd39646	1.6530235
44	0x3fd22662	1.6417964
45	0x3f7c8709	0.9864355
46	0x3f800000	1.0
47	0x3fd4994e	1.6609285
48	0x3fe2031a	1.7657197
49	0x3f7c9616	0.9866651
50	0x3f7de138	0.9917178
51	0x3f7cfb9e	0.9882144
52	0x3f7e31da	0.9929482
53	0x3f800000	1.0
54	0x3f7d1ef2	0.98875344
55	0x3fcd9fa3	1.6064342
56	0x3f7e8019	0.9941421
57	0x3fd383dd	1.6524616
58	0x3f7ae710	0.98008823
59	0x3fd0e953	1.6321205
60	0x3fde0b0b	1.734712
61	0x3f7e7672	0.99399483
62	0x3f7d08a7	0.9884133
63	0x3f7e2e59	0.9928947

batch_norm.bias f4 [64]
0	0x3df92187	0.12164598
1	0xbe08a9d6	-0.13346037
2	0xbe2927e9	-0.16519131
3	0xbac72806	-0.0015194423
4	0xbe64d0d5	-0.22345288
5	0xbd0c6bdd	-0.034282554
6	0xbdb5b06e	-0.08871542
7	0xbbd2819a	-0.006424141
8	0xbe014f3f	-0.12627886
9	0x3ddbeab9	0.10738129
10	0x3e59bcf1	0.21263482
11	0x3df15633	0.11784019
12	0x3def7db7	0.116939
13	0x3d45bedb	0.048277717
14	0xbe13e178	-0.14441478
15	0xbe4a170a	-0.19735351
16	0xbe41814d	-0.1889698
17	0x3e289c97	0.16465984
18	0xbe3dc28a	-0.18531242
19	0x3de1d0fa	0.11026187
20	0xbc44c024	-0.0120087005
21	0x3db5e84a	0.08882196
22	0x3cc8ab0e	0.024495628
23	0xbe0be5cb	-0.13661878
24	0x3ddf197a	0.10893531
25	0x3dc25f58	0.094908416
26	0x3e247e96	0.16063914
27	0xbe2886af	-0.16457628
28	0xbe802981	-0.25031665
29	0xbe15be38	-0.14623344
30	0xbe240efc	-0.16021341
31	0xbe360992	-0.17777088
32	0xbd198c47	-0.037487295
33	0xbd4e251a	-0.05032835
34	0xbe173c6e	-0.14769146
35	0xbc2b1453	-0.010441857
36	0xbe59c0c3	-0.21264939
37	0x3e22ec87	0.1591054
38	0xbd3234c0	-0.043507338
39	0xbc49ea7e	-0.012323974
40	0xbe2c94f7	-0.168537
41	0xbd87a3b3	-0.0662302
42	0xbe1e4477	-0.15455805
43	0xbd8c039e	-0.068366274
44	0xbde8bfdb	-0.113647185
45	0xbe0fead8	-0.1405443
46	0x3df02ac6	0.117269084
47	0x3cb99bcf	0.022657303
48	0x3c01e42b	0.007927935
49	0xbdcd58ac	-0.100266784
50	0xbe05b6dd	-0.13058038
51	0x3e23f3a4	0.1601091
52	0x3e159198	0.14606321
53	0x3df78f51	0.12087882
54	0xbe0d6bcb	-0.13810651
55	0x3daed7a5	0.08537225
56	0xbdf6f364	-0.12058142
57	0x3ded80dc	0.115968436
58	0x3e3d52fe	0.1848869
59	0x3d12a759	0.035804126
60	0x3dab6233	0.083683394
61	0x3e1bf84f	0.15231441
62	0x3e5ae169	0.2137505
63	0x3de657f2	0.11247243

batch_norm.running_mean f4 [64]
0	0x241af70b	3.360268e-17
1	0x00000004	6e-45
2	0x00000004	6e-45
3	0x3ffb7997	1.9646481
4	0x3fd7b2d7	1.6851453
5	0x3bfdbe10	0.0077436045
6	0x3f3a7545	0.7283519
7	0x3fda5910	1.705843
8	0x00000004	6e-45
9	0x3fa36fa2	1.2768443
10	0x00000004	6e-45
11	0x3fe0554e	1.7526033
12	0x00000004	6e-45
13	0x4037912e	2.868236
14	0x00000004	6e-45
15	0x00000004	6e-45
16	0x00000004	6e-45
17	0x00000004	6e-45
18	0x3fc5fb31	1.5467283
19	0x3fa0ac2e	1.2552545
20	0x40a5dca4	5.1831837
21	0x3fb44051	1.4082128
22	0x3ffa1744	1.953835
23	0x00000004	6e-45
24	0x00000004	6e-45
25	0x3fb5fbc0	1.4217453
26	0x00000004	6e-45
27	0x00000004	6e-45
28	0x3fb63ba2	1.4236948
29	0x00000000	0.0
30	0x00000004	6e-45
31	0x00000004	6e-45
32	0x3fb2f222	1.3980143
33	0x40bf1217	5.970958
34	0x1aaae717	7.06837e-23
35	0x4002600b	2.037112
36	0x407ae682	3.920319
37	0x00000004	6e-45
38	0x40623373	3.5343902
39	0x00000004	6e-45
40	0x057e64ea	1.19615576e-35
41	0x4045b77d	3.0893242
42	0x40ff98d2	7.987405
43	0x409d1f86	4.910098
44	0x3fe93bb0	1.822134
45	0x00000004	6e-45
46	0x00000000	0.0
47	0x3fe1a4ab	1.7628378
48	0x3fdaa96f	1.7082957
49	0x00000004	6e-45
50	0x00000004	6e-45
51	0x00000004	6e-45
52	0x00000004	6e-45
53	0x00000000	0.0
54	0x00000004	6e-45
55	0x40570077	3.3594034
56	0x00000004	6e-45
57	0x3fb82cc7	1.4388665
58	0x00000004	6e-45
59	0x406bcfaa	3.6845498
60	0x406c3bd5	3.6911519
61	0x00000004	6e-45
62	0x00000004	6e-45
63	0x00000004	6e-45

batch_norm.running_var f4 [64]
0	0x2232d093	2.4233917e-18
1	0x00000004	6e-45
2	0x00000004	6e-45
3	0x3fe330e3	1.7749294
4	0x3fcec96c	1.6155219
5	0x3b4ef2b8	0.0031577777
6	0x3eb90a43	0.36140642
7	0x3fa5fce8	1.2967806
8	0x00000004	6e-45
9	0x3f8cf83b	1.1013254
10	0x00000004	6e-45
11	0x4010e99f	2.264259
12	0x00000004	6e-45
13	0x40141328	2.3136692
14	0x00000004	6e-45
15	0x00000004	6e-45
16	0x00000004	6e-45
17	0x00000004	6e-45
18	0x3fc0379c	1.5016971
19	0x3f9bf372	1.2183669
20	0x3f83cb3c	1.0296397
21	0x3f7394ad	0.95148736
22	0x3f9a3d4c	1.2049956
23	0x00000004	6e-45
24	0x00000004	6e-45
25	0x3fb5090b	1.4143385
26	0x00000004	6e-45
27	0x00000004	6e-45
28	0x3fcda86d	1.6067024
29	0x00000004	6e-45
30	0x00000004	6e-45
31	0x00000004	6e-45
32	0x3fbc705e	1.4721792
33	0x3fd484ed	1.6603066
34	0x1a619476	4.6648835e-23
35	0x3f946604	1.1593633
36	0x3f9f439a	1.2442505
37	0x00000004	6e-45
38	0x3f624800	0.88391113
39	0x00000004	6e-45
40	0x04b4ebf7	4.2534496e-36
41	0x3f5d1065	0.8635314
42	0x3fd2954c	1.6451812
43	0x3f7ed089	0.9953695
44	0x3f9532c3	1.1656116
45	0x00000004	6e-45
46	0x00000004	6e-45
47	0x3f5041f0	0.8135061
48	0x3f8754c0	1.0572739
49	0x00000004	6e-45
50	0x00000004	6e-45
51	0x00000004	6e-45
52	0x00000004	6e-45
53	0x00000004	6e-45
54	0x00000004	6e-45
55	0x4004a439	2.0725234
56	0x00000004	6e-45
57	0x3f83b05d	1.0288197
58	0x00000004	6e-45
59	0x3f50ff71	0.8163977
60	0x3fb1cbff	1.389038
61	0x00000004	6e-45
62	0x00000004	6e-45
63	0x00000004	6e-45
