models/RADWIMPS/classifier_fold3.pth (torch, 991712 bytes, 16 tensors)

conv_layers.0.weight f4 [64, 256, 2]
000000 b9 d8 46 3a e7 d6 45 3d df 75 49 bc 86 03 f2 3c
       0.0007585395 0.04830065 -0.012296169 0.029542696
000010 a8 02 b4 bc d4 e3 03 bd 62 cc ac bd 42 97 42 3d
       -0.021973923 -0.032199696 -0.084374204 0.047507532
000020 57 27 da bc ec 7f 16 bd e6 20 aa bd 38 00 07 be
       -0.026630087 -0.03674309 -0.08307056 -0.13183677
000030 f7 84 67 bb 10 ac 5b bb cb 52 3e 3d 49 f7 00 bd
       -0.0035327056 -0.0033519305 0.046465676 -0.03148583
000040 2f de a0 3d e7 fc 37 3d 3b 02 63 bb 35 a6 f6 3c
       0.07854878 0.04491892 -0.003463878 0.03010855
000050 0d a7 9a 3c 13 fa fc bc 5f 4b b3 bd 78 e2 aa bd
       0.018878484 -0.030880963 -0.0875461 -0.08343977
000060 e9 39 f2 3c 1d f8 a7 bc f5 3e b5 3c 4e ef 1f 3c
       0.02956863 -0.020504052 0.022124747 0.0097616445
000070 ae ae 99 3c a8 f0 ee 3b 67 97 5d 3c 0b b9 bc 3b
       0.018760052 0.007291872 0.013524867 0.0057593635
000080 2e af 92 3d d6 1d 91 3d 01 f1 65 bd 52 9e da ba
       0.07162319 0.07085769 -0.056138042 -0.0016679263
000090 13 af 33 bd c8 87 76 3b 9b 41 76 bd f8 75 e1 bc
       -0.043868136 0.0037617553 -0.06012116 -0.027522072
0000a0 f6 68 0c 3d 5b 34 84 bc f3 2a ff bc f5 19 27 bd
       0.034279786 -0.016138246 -0.03114841 -0.04079624
0000b0 a2 fc 26 3d a7 5b 85 bc a6 00 c9 3c fc 4a c3 3c
       0.040768273 -0.016279055 0.024536442 0.023839466
0000c0 fa 2d 7b 3c 42 56 82 3d 59 76 e3 3d 91 ff b3 3c
       0.015330786 0.063641086 0.111065574 0.02197245
0000d0 29 af df 3c e3 0d de bc 10 9f d8 3c 86 1b d0 bb
       0.027305203 -0.027106231 0.026443034 -0.0063509373
0000e0 de aa 89 3c 99 cb 4c bc f5 4f e0 bd 99 53 3b bc
       0.016805109 -0.012499713 -0.109527506 -0.011433505
0000f0 4b fa 15 bc f6 c6 17 3d 4d 83 34 bc 17 fe 5c bd
       -0.009153913 0.03705498 -0.011017633 -0.053953256
000100 1d 5a 4f 3d 0c e3 8b 3d 56 8a 82 bc d5 31 a9 3d
       0.050623048 0.06830415 -0.015935104 0.08261458
000110 43 57 59 bd ac db 52 bc 9e e1 8e 3c 23 d8 92 3d
       -0.053061735 -0.012869757 0.017441567 0.07170131
000120 5c 87 68 3b 91 cf 0b bd 03 c5 b6 bc 68 ed d3 bc
       0.003548107 -0.034133498 -0.02231074 -0.02587004
000130 5c da 2c 3d cf 10 ad ba ea 4e 10 3d 42 e6 03 bc
       0.04220043 -0.0013203862 0.03523151 -0.008050503
000140 a0 16 a8 bd 6a 46 85 3d 59 94 62 3c d9 eb 24 bd
       -0.082074404 0.06507571 0.013829314 -0.040263984
000150 ea 8d fc bb d0 90 48 3d aa 24 7f bd 6e 0e 8d bd
       -0.007707347 0.04896623 -0.062290825 -0.06887518
000160 54 bf c3 bd 6e ef f9 3b 40 57 e9 3c ce 8c 1e 3d
       -0.09557977 0.007627419 0.028483987 0.0387085
000170 26 5e 88 ba 23 8b 89 bd 29 57 eb 3a b5 d1 7c ba
       -0.0010404035 -0.06715991 0.0017955053 -0.0009644286
000180 81 38 1e 3d ba a2 c3 3b 57 cf be bd 89 e9 96 3c
       0.038628105 0.0059703263 -0.09316891 0.018421905
000190 d2 55 75 3d 68 03 34 bd 94 60 b9 ba da 56 43 bd
       0.059896298 -0.04394856 -0.0014143162 -0.04769025
0001a0 05 8f a2 bc 5e db f4 3b 4b 86 40 bd f7 ea d3 bc
       -0.019843588 0.0074724397 -0.04700307 -0.025868876
0001b0 fe 32 b0 3b 55 c1 d0 bc d7 49 8d bc f7 45 41 bd
       0.0053771725 -0.025482813 -0.017247124 -0.047185864
0001c0 96 2f 20 3d 7c 5f 27 bd 4a 6a ba 3d 9b a2 9b 39
       0.03910788 -0.040862545 0.09102304 0.00029685054
0001d0 50 30 24 bd 60 9c ba bc 39 57 d4 3c e6 b4 2c 3b
       -0.040085137 -0.022779644 0.025920497 0.002635294
0001e0 8b 90 35 3d 23 90 0d 3d cc 7d 73 bd f9 cb dc bd
       0.0443273 0.034561288 -0.05944614 -0.10781092
0001f0 eb cf f2 bc 23 a6 56 3d de fa 38 3d 24 09 87 3c
       -0.029640159 0.052404534 0.04516112 0.01648385
000200 1f 5a 25 bd c2 fc 40 bd 99 9d e9 bb f7 20 e5 3a
       -0.04036915 -0.04711605 -0.007129383 0.0017481138
000210 8a c5 f9 3c 2a 73 70 bd b5 2e 8a 3c 9b e2 3a bd
       0.030489702 -0.05870358 0.016867975 -0.045626264
000220 64 ea 0e 3d 95 be 97 bd d4 67 65 bd 8c d9 44 3d
       0.0348915 -0.074093975 -0.05600722 0.04805903
000230 18 d9 a9 3d ce 32 9d bd 59 bf 5e 3d cc 4e 20 3a
       0.082933605 -0.07675706 0.054381702 0.0006115257
000240 90 0f 4f bd 4e 3d 65 bc 80 51 70 bc 52 50 fe b9
       -0.05055195 -0.013991667 -0.014667869 -0.000485065
000250 7d 22 2c bd 31 f8 22 bd 2d f4 8f bd 9e ad a3 3c
       -0.042025078 -0.039787475 -0.07028995 0.019980248
000260 99 d1 d7 3c 6b 20 09 ba 3e 52 c7 bc 42 e5 90 3d
       0.026345061 -0.0005230966 -0.024331208 0.070749775
000270 a6 5d 06 bc cb 70 91 bd 4f b5 a9 bc 4b 0a 07 3d
       -0.008201038 -0.07101592 -0.020716337 0.0329688
000280 62 ff 10 3d c7 c3 3a bd ec fb 16 bd c2 64 86 bd
       0.035399802 -0.045596864 -0.036861345 -0.06562187
000290 39 7b b7 3c b2 b7 0f 3d e6 02 94 3c 45 16 ef bc
       0.022397624 0.035087295 0.018067788 -0.029185424
0002a0 55 88 98 bd 6c 29 2e 3d f2 b1 05 3d 9d f2 d8 3c
       -0.07447878 0.04251997 0.032640405 0.026482875
0002b0 82 36 1e bd 7b 8e 24 bc e6 8f ac 3c 16 e5 ae bc
       -0.0386262 -0.010043736 0.02106471 -0.021349471
0002c0 00 81 23 bc cc 98 c3 bc f3 a4 d4 3d 20 5d 28 bd
       -0.009979486 -0.02387657 0.10383024 -0.041104436
0002d0 e5 45 c3 3d 0e bf 96 3d 5e 68 d1 bc 83 f7 0c bd
       0.09534816 0.073606595 -0.025562461 -0.034415733
0002e0 76 28 e6 bc 6b 40 24 bd 87 6d 20 3d f4 5c 36 3c
       -0.028095465 -0.040100496 0.039166953 0.01113056
0002f0 d8 f8 36 3c 23 72 10 bd 96 b0 50 bd 69 93 ca bd
       0.011167727 -0.0352651 -0.050949655 -0.098913975
000300 52 99 75 bd 33 5d 42 bb c9 55 23 bc 6e bf 2a 3d
       -0.05996067 -0.0029657602 -0.009969183 0.041686468
000310 57 ff 01 3d 81 63 01 3b c2 d4 81 bb 10 27 83 3a
       0.03173765 0.0019743147 -0.0039621303 0.0010006148
000320 32 05 97 3c a0 e5 7f bd 7e c3 1b 3d 70 f4 94 bd
       0.018435095 -0.062474847 0.038028233 -0.07273185
000330 13 c5 a7 3b 44 64 5b 3c 59 94 4c 3d da ff 7a 3d
       0.0051199286 0.013390604 0.049946163 0.061279155
000340 34 15 a1 3b df ca 2f bd dc 17 4c bd 1a 2b 92 3d
       0.0049158577 -0.042918082 -0.04982744 0.07137127
000350 e4 85 49 bd 84 04 40 3c d6 64 3c 3d 02 c3 12 bd
       -0.049199954 0.011719827 0.045994602 -0.035830505
000360 c4 87 8a bd cc 92 20 3c 21 16 94 3d d9 c9 75 bc
       -0.067641765 0.009800624 0.07230783 -0.0150017375
000370 d7 52 4e 3c 29 6c c7 3c 21 78 97 ba 98 4d fb 3c
       0.012592993 0.024343567 -0.0011556187 0.030676648
000380 05 d4 f3 bd 29 f8 39 bc b5 2a 09 3d b6 38 f3 3c
       -0.11905674 -0.01135067 0.033487994 0.029690128
000390 45 bf 18 3d 7c b0 39 bd 0b 21 0c 3d 79 0c 25 3c
       0.037291784 -0.045334324 0.0342112 0.0100737745
0003a0 1d ad 73 3d e7 77 1b 3c 0c 66 b1 3d f6 a1 ec bc
       0.059491266 0.009489036 0.08662042 -0.028885823
0003b0 b7 5b a9 3c 4b d8 e0 3c e4 b1 94 3d 85 a8 75 3c
       0.020673616 0.027446887 0.072604924 0.0149937915
0003c0 c2 5b aa bd 24 1c c4 3c 1d a7 53 3d c3 62 8b 3d
       -0.08318283 0.0239392 0.051673044 0.06805947
0003d0 8a e5 85 3d de a6 63 3d 70 d1 0c 3e dc e8 5a bc
       0.06537922 0.05557906 0.13751769 -0.013361182
0003e0 63 55 a0 3c e0 1d 93 3c 14 00 d9 bc be 2e 2f bd
       0.019571966 0.017958581 -0.026489295 -0.042769186
0003f0 b1 f7 ee bc fd 14 04 bd 2d ee 37 3d b6 a0 0c 3d
       -0.029170843 -0.03224658 0.044904877 0.034332953

conv_layers.0.bias f4 [64]
000000 05 56 42 bd 3c c8 ec 3d c2 3f 33 bd d1 7f 6d bd
       -0.047445316 0.11561629 -0.043761976 -0.057983223
000010 40 e7 c9 3d 3f 60 d5 3c 8e d3 2c bd b0 ba 04 bc
       0.098585606 0.02604687 -0.04219394 -0.00810115
000020 f9 3c 9f bd f6 4b e1 bd 30 24 8f 3d 6c e1 80 3d
       -0.077753015 -0.110008165 0.06989324 0.06292996
000030 28 aa e6 3c 66 3b d7 3b 46 66 78 bc 3b f1 6f bc
       0.028157309 0.00656836 -0.015161103 -0.014644916
000040 7c 76 d8 3a 19 a7 37 3d 3b 9d cb 3d cd 4b 30 bd
       0.0016514803 0.04483709 0.09942099 -0.04304104
000050 51 57 4f 3c f1 21 03 3e ab 47 fb 3b 2e 44 c3 3c
       0.012655095 0.12805916 0.0076684556 0.023836222
000060 09 d2 bf 3d 20 9c 21 bd 09 83 18 3d 3d c6 53 bd
       0.09366233 -0.039455533 0.03723434 -0.051702727
000070 55 4c 93 bd ae 69 4b bc 73 44 31 bc 63 6f 3a 3d
       -0.071922936 -0.012415333 -0.010819542 0.045516383
000080 9e d6 cc bd 01 d3 e7 3d d9 09 87 bd 36 07 d0 3c
       -0.100018725 0.11319543 -0.06593675 0.025394063
000090 ea f9 a5 3d f6 2c 83 bc cf 37 20 bd 39 28 b2 3d
       0.08104308 -0.01601265 -0.039115723 0.08699078
0000a0 44 64 d7 bc ab cf 93 bd c6 11 35 3c ea 5c 2f bd
       -0.026292928 -0.07217344 0.011051601 -0.04281322
0000b0 d3 f9 08 3d d4 a6 06 3c 92 bf 3d bd 33 c0 d6 3b
       0.033441376 0.008218486 -0.046325274 0.0065536737
0000c0 01 48 81 bd ed 35 5d 3b 3c 1d 32 3d 1e 4a d8 3b
       -0.06312562 0.0033754066 0.04348491 0.0066006323
0000d0 c0 8e 82 bd 9a 72 84 3c 9f 43 23 3d 22 03 7a 3d
       -0.06374884 0.016167928 0.03985941 0.061038144
0000e0 ff 4d f5 bc 11 de 4d bd a4 a7 ec 3d 05 cd 72 3d
       -0.029944418 -0.050260607 0.115554124 0.059277553
0000f0 ba 50 27 3d 27 14 16 be 84 f5 1c bd 34 4b 4e bd
       0.04084847 -0.14656125 -0.03832008 -0.050364688

conv_layers.1.weight f4 [64, 256, 3]
000000 00 32 41 bd b5 84 d7 3c 78 6f 2b 3d 9d aa 33 3d
       -0.047166824 0.026308397 0.04185435 0.04386388
000010 31 48 bc 3d 3c f4 0e 3d 3e 4a 93 bd 90 2f 43 3d
       0.09193457 0.03490089 -0.07191895 0.04765278
000020 35 d4 fd 3c 86 17 82 3d ad 88 a2 3b 95 d2 2a bd
       0.030984977 0.06352143 0.0049601407 -0.041704733
000030 8c ca 16 bd a1 66 0d bd dc 74 a2 3d 9d 5e e3 3d
       -0.036814258 -0.034521703 0.079324454 0.111020304
000040 dc 31 27 bc 10 d8 9d 3c 5a e2 93 bd 76 08 d0 bc
       -0.0102047585 0.019268066 -0.072209075 -0.02539466
000050 3a 25 34 3d be e1 f1 bc 4a d1 b2 3c d9 83 20 3d
       0.043980815 -0.029526588 0.021828312 0.03918824
000060 9d 53 dc 3c 59 39 a0 bd 02 40 0a bd 15 7e 87 3d
       0.026895339 -0.07823438 -0.03375245 0.06615845
000070 72 18 b9 bb d5 a8 c1 bc 02 4f 08 bd 63 09 eb bd
       -0.005648666 -0.023640076 -0.033278473 -0.114764
000080 2d 94 55 bd c0 6d ff 3c a9 0d f9 bc 81 da f4 3c
       -0.052143265 0.031180263 -0.030402021 0.029889347
000090 78 0a ce bb 26 23 68 3c e1 e5 cd 3d 19 49 89 3d
       -0.006287869 0.014168536 0.100536115 0.067033954
0000a0 f9 35 bf bb 7d 90 4f bd d0 74 a4 3c c7 10 43 3b
       -0.0058352915 -0.050674904 0.020075232 0.0029764639
0000b0 b8 74 fa bb 66 ce 04 3d f2 79 67 3d c6 fd 28 bd
       -0.0076433085 0.0324234 0.05651278 -0.041257642
0000c0 4e f3 92 3c cd 26 34 bd ba 18 e4 3c aa fc 89 3d
       0.017938282 -0.043982316 0.027843822 0.06737645
0000d0 7b 90 44 bb 7a bc 88 3c ba 76 da bc 49 80 25 bd
       -0.0029993344 0.016691435 -0.026667941 -0.040405545
0000e0 ac 97 20 bd a1 b3 9d 3c 5e be a4 3c 88 de 21 3d
       -0.039207146 0.019250693 0.020110305 0.039518863
0000f0 27 87 45 bd c1 ed 20 3e 30 e2 be 3d 7d 80 39 3d
       -0.048224594 0.15715696 0.093204856 0.04528855
000100 cd 4b 79 bd c6 f4 e0 bb 7f 70 1b 3d e0 26 2c bd
       -0.060863305 -0.006865117 0.03794908 -0.04202926
000110 aa be 71 3d ba 5e 31 bd ec 6c f2 3c 34 60 7f bc
       0.059019722 -0.04330323 0.029592954 -0.015586901
000120 19 33 73 bd 0b 47 48 3d d4 d8 4f 3c fd 35 80 bc
       -0.059374902 0.048895877 0.012685973 -0.015650744
000130 65 8f 19 3c 01 63 4e bc 6e a3 5a bd 88 d7 13 bd
       0.009372567 -0.012596847 -0.053378515 -0.03609422
000140 2e 06 7d bc 40 53 9b 3d 95 57 9a 3b 23 56 c8 bc
       -0.015443368 0.07584238 0.0047101476 -0.024455136
000150 a0 ad 69 bc d8 a0 9a bc 0c a5 76 bd af 7f 06 3c
       -0.014262587 -0.018875524 -0.060215995 0.008209153
000160 a7 22 56 3c e2 29 9d bd 79 6c 7f 3b b1 60 9e 3c
       0.013069785 -0.07674004 0.0038974567 0.019333215
000170 6e 9c fb bc 22 ed 43 bd 44 bc ff 3c 3b 02 22 3c
       -0.03071424 -0.04783357 0.031217702 0.009888227
000180 d6 28 6a be 4d c1 16 3c bb fb 2b bd 37 de 31 3d
       -0.2286714 0.00920136 -0.041988116 0.04342481
000190 a3 e8 40 3d 48 10 42 bd ed f9 8b 3b 3b 29 e4 bc
       0.04709686 -0.04737881 0.004271737 -0.027851691
0001a0 61 00 88 3a 0e f7 8d bc b2 70 ab 3d cf 7a 40 3d
       0.001037609 -0.017329719 0.08371104 0.04699212
0001b0 69 c6 0d bd 88 fd 9f bc fc bb 22 bd ee 06 86 bb
       -0.034613047 -0.019530073 -0.039730057 -0.0040901816
0001c0 e4 4c df bc 4e e4 eb 3c d2 ea 30 bd 14 2e c5 3d
       -0.027258344 0.028795388 -0.043192692 0.09627929
0001d0 1a 10 b2 3d 79 5a 43 bc 0d 75 1b bd 48 e6 17 3b
       0.086944774 -0.011923426 -0.037953425 0.002317803
0001e0 fd bd a1 3d ff 8b 8a bd e4 84 53 3c 50 fd 0f 3c
       0.078975655 -0.067649834 0.012910102 0.008788422
0001f0 0c da 89 bc 4a cd 32 bd e9 37 c1 3d 0b 4c b6 ba
       -0.016827606 -0.04365281 0.09434492 -0.0013908161
000200 ac b4 3c bd f6 6f a4 bc 01 d8 92 bb 38 95 30 3c
       -0.04607074 -0.020072918 -0.004481316 0.010777764
000210 ad 14 aa bd 18 8e b2 ba 74 15 7c bd 9c fe a3 b9
       -0.08304725 -0.001362267 -0.061543897 -0.00031279481
000220 a0 f0 0f 3d 01 76 33 bd 2c 62 d1 3c 24 ca 65 3c
       0.035141587 -0.04381371 0.025559507 0.014025245
000230 06 9f 70 3d 68 29 38 3d 53 13 97 3d b1 44 a5 bb
       0.058745407 0.044961363 0.07376733 -0.005043589
000240 87 93 b8 bc ba 10 a9 3c 4e 60 6f bd 53 15 87 3d
       -0.022531284 0.020637859 -0.058441453 0.06595864
000250 ab 25 a7 3c 60 cc 84 bd 97 87 47 bd c4 3b 08 3e
       0.020403704 -0.06484294 -0.048713293 0.13304049
000260 de 91 b7 bb b1 7b 12 3d de 31 20 bd f4 76 c8 b9
       -0.0056021055 0.035762493 -0.039110057 -0.000382356
000270 f5 31 8b 3c 4b b7 7b bd 1e 9b 92 3c d3 90 2a bd
       0.016991595 -0.0614541 0.017896231 -0.04164202
000280 59 f2 70 bd 72 61 99 bd 3c c9 a9 3b 41 ca 01 3d
       -0.05882487 -0.07489289 0.0051814597 0.031687025
000290 63 e3 5f 3d 48 03 a6 bd 56 c6 7d 3b 8e 0f 4b bd
       0.054660212 -0.081060946 0.0038722954 -0.04957538
0002a0 1a 76 1a 3c e7 18 94 bc c3 34 26 3d 08 15 86 bd
       0.009427572 -0.01807828 0.04057766 -0.0654698
0002b0 92 1a 01 bd 35 38 74 3c 65 fd a7 3d 78 a7 23 3c
       -0.03151948 0.014905979 0.08202628 0.009988658
0002c0 00 6d eb 3b de 34 98 3d a4 3e 4b bd aa 59 06 bc
       0.0071846247 0.074319586 -0.049620286 -0.0082000885
0002d0 51 c3 e2 3a 75 0f 18 3c b7 ad d6 bc bc e9 46 3d
       0.001730064 0.009281029 -0.02620588 0.04856275
0002e0 4a 80 00 be 19 22 df bc 97 d7 31 bd 98 80 01 bc
       -0.12548938 -0.027237939 -0.043418493 -0.007904194
0002f0 fb 7c 81 bc ec 73 80 bc ea 65 2d bd 8b af 57 3c
       -0.015806666 -0.015680276 -0.04233352 0.013164411
000300 cb 51 d9 3c bb e2 0b bd a2 c1 74 bb 72 96 b4 3d
       0.02652826 -0.034151774 -0.003734686 0.08817758
000310 0e 93 ce 3c e7 37 a5 3c c3 b8 bc b8 0a 52 8e bb
       0.025216606 0.020168258 -8.998953e-05 -0.004343276
000320 68 67 47 bd 9f 1a d4 bd b1 2d 80 3c be be 63 bc
       -0.0486826 -0.1035664 0.015646787 -0.013900457
000330 21 4c 24 bd 97 ba a3 3d a7 1c c5 3d 75 37 5b 3c
       -0.040111665 0.079945736 0.096246056 0.013379921
000340 d4 07 f8 bc 45 8e d4 bd ad d2 9f 3c 80 e7 4f bd
       -0.03027717 -0.10378698 0.019509638 -0.050757885
000350 9d db 5e bd 5c 07 ca 3d 4c 11 ef bc 96 45 a5 3c
       -0.05440866 0.09864685 -0.029183052 0.020174783
000360 d5 a5 9f 3c 06 b1 1b bd 58 7b fe 3c 10 c4 8f 3d
       0.019488255 -0.03801062 0.031064674 0.07019818
000370 ca 6e 34 3d ff 25 3b bd 9a 31 9c 3b 53 84 de bc
       0.04405097 -0.045690533 0.004766655 -0.027162706
000380 80 8b 4b bd 95 56 0f bc 64 16 a0 3c 46 bb d5 bc
       -0.049693584 -0.00874867 0.019541927 -0.026090275
000390 2a a2 79 ba f0 63 50 3d 45 b3 e9 3c 24 ab 7c 3d
       -0.00095227605 0.050876558 0.028527865 0.06168665
0003a0 12 56 a1 bc 48 fa 6c bc 2e 8e 4e bd ea 4c 44 3d
       -0.019694362 -0.014463969 -0.050428562 0.047924913
0003b0 8e 8f ea bc a9 c1 a8 3c 5c f5 88 3d 83 61 53 bd
       -0.028632905 0.020600157 0.066874236 -0.051606666
0003c0 cf df c1 ba 57 37 21 bb 61 74 83 bd 51 a7 de 3c
       -0.0014791432 -0.0024599636 -0.06418682 0.027179392
0003d0 ce 8b 35 bd b5 9a 80 3d 9a 74 eb bc bc cc ef 3c
       -0.04432278 0.06279508 -0.028742123 0.02927243
0003e0 2a 5f 57 3a 9e 40 50 bd af bf f7 3d ff e1 ff 3b
       0.00082157797 -0.050842874 0.120971076 0.0078089233
0003f0 bb 03 12 3d ce 90 2c bd 5e 17 95 3d 52 c5 89 3c
       0.03564809 -0.042130284 0.072798476 0.016817722

conv_layers.1.bias f4 [64]
000000 b3 b0 09 be 60 eb ee bc 16 8b 8d bd 3a 1b 52 3b
       -0.13446312 -0.02916497 -0.06911294 0.0032059685
000010 6a be d4 3b c6 a7 32 3d b8 79 97 3d d7 4b 04 3e
       0.0064924257 0.043617032 0.07396263 0.12919556
000020 cd 17 c6 bc 1a 80 ad 3b a1 b4 24 bc d6 ed 8f 3d
       -0.024181271 0.005294812 -0.010052831 0.070277855
000030 44 6c f1 3b 30 a4 80 bd 04 0e b3 bd af 05 26 bd
       0.0073676426 -0.06281316 -0.08742908 -0.040532764
000040 19 45 ac bd 8b e0 94 3c e1 11 1f bb ac 25 b0 bd
       -0.08411617 0.018173477 -0.0024272131 -0.08600935
000050 f1 64 90 ba 70 da c0 bb 40 ef 1e 3e 7f 2a 61 bd
       -0.0011016411 -0.005885415 0.15520954 -0.054972168
000060 fc f4 c9 3d 98 ca cc 3c 22 a1 77 3d 58 0a 25 3c
       0.0986118 0.024998948 0.060456403 0.010073267
000070 3a 5d 95 3d 8f 5c d5 3c d7 c5 51 bd 44 0f cc 3c
       0.07293172 0.026045112 -0.051214065 0.024909623
000080 d6 6c ed 3c 80 c6 fa 3c 44 d9 ca bc 12 33 d6 3b
       0.028982561 0.03061223 -0.024761803 0.00653685
000090 51 2c 89 bd 80 6f 92 3d 38 a8 14 3d 3a 94 13 3c
       -0.06697906 0.07150173 0.03629324 0.009007508
0000a0 eb 63 1d bd eb 31 31 3c 35 bc 46 3d 41 d4 f3 3c
       -0.038425367 0.010815124 0.048519332 0.029764296
0000b0 0f e7 f0 3c fd 14 f7 bc bf 32 41 3c d6 16 49 3d
       0.029407052 -0.030161375 0.011791884 0.049094044
0000c0 08 49 a5 bc f1 a2 b1 3c 13 25 84 3d 0b 70 b7 3a
       -0.020176426 0.021684142 0.06452384 0.0013995183
0000d0 ec 0f 10 3c 07 d0 3c bb ca 1c 1d 3c 61 42 b5 3c
       0.008792859 -0.0028810517 0.009589383 0.022126378
0000e0 dd e7 b1 3d 7f f6 22 3d 5e 61 3e bd 7b ca 93 bd
       0.086868025 0.03978586 -0.046479575 -0.072163545
0000f0 de f7 74 3d 65 87 1e 3d 36 c0 66 bd e6 0e ad bd
       0.059806697 0.03870334 -0.05633565 -0.08450107

conv_layers.2.weight f4 [64, 256, 4]
000000 87 ce 13 3d 20 21 40 bd 9b 3a b6 3c 35 dd 8d 3b
       0.03608563 -0.04690659 0.022244742 0.0043293484
000010 c7 46 ed bc 8b 43 48 3e d3 23 93 3d 4b d5 6e bc
       -0.028964413 0.19557016 0.07184567 -0.01457722
000020 c5 ad 7b bd d3 4d da 3c 85 22 d7 bb a5 83 a1 3c
       -0.061445016 0.026648438 -0.0065653943 0.019716093
000030 c1 fe 42 3d 63 5e 1f bd a5 b2 19 bd 71 9e 41 bc
       0.047606234 -0.038908374 -0.037523884 -0.0118175605
000040 b6 36 27 bd a4 dc 16 bb b1 8a e8 bd 03 a4 09 bd
       -0.04082366 -0.0023019696 -0.11354578 -0.03360368
000050 ee a5 ae bc 50 64 d1 3c 22 dc c9 bc fa 6f 3b bd
       -0.021319356 0.025560528 -0.0246411 -0.045761086
000060 9a c6 75 3d 32 48 8e 3c 7a 78 ea 3b 47 62 f1 3b
       0.060003854 0.01736841 0.007155475 0.007366452
000070 d5 37 a1 3d bc 4f 76 3d 28 19 85 3d fe 77 8e bb
       0.07871977 0.060134634 0.06498939 -0.0043478003
000080 fa 70 69 3d 6d 10 07 bd bd c2 68 bd 92 25 6e bc
       0.05699251 -0.03297465 -0.056826342 -0.014535325
000090 e4 1a 8c bc b2 8b e2 3b a1 dd 00 bd 8e f0 0d 3d
       -0.017102666 0.0069136256 -0.03146136 0.03465324
0000a0 1e 05 96 3d d2 d1 f4 3c e2 0e 9c 3b 11 e8 88 bd
       0.07325195 0.029885206 0.0047625164 -0.06684888
0000b0 49 f9 78 bd 65 0b 5b bb d6 cb 51 3b 28 f8 b2 3c
       -0.06078461 -0.003342354 0.0032012365 0.021846846
0000c0 30 a6 6f 3c e7 e6 42 3d 75 1c bc bd 18 ee 25 3d
       0.0146270245 0.047583487 -0.09185115 0.040510267
0000d0 64 d0 03 bd 11 07 5a 3d af e0 97 3d 2c c2 96 bc
       -0.03218116 0.053229395 0.07415902 -0.018403135
0000e0 56 67 aa bc 0a df d4 3a 78 cd 04 3d f7 e9 35 bd
       -0.020801228 0.0016240787 0.032422513 -0.04441258
0000f0 9c 5a 6f 3b 7e 98 64 bc 97 99 40 3d b1 cc 6c 3c
       0.0036522513 -0.013952373 0.047021475 0.014453099
000100 30 8a 6b bd 8e d2 cd 3c 4f b5 a7 3d be 96 f5 3c
       -0.057504833 0.025124814 0.08188879 0.029979106
000110 b0 57 ce 3c 86 30 04 bd 30 4f 58 bc 97 d7 ff 3c
       0.025188297 -0.032272838 -0.0132024735 0.031230731
000120 f3 de 30 bc 17 43 c2 3b 91 70 75 bb 05 c0 1b 3d
       -0.010795343 0.005928408 -0.0037451128 0.03802492
000130 13 dd 4f bd 0e e4 d6 3c ed aa 15 bd 9d 5c b6 3c
       -0.050747942 0.026231792 -0.03653996 0.022260958
000140 41 4c 72 bd ec 65 d8 3c ec c9 e8 bc a2 be 4c 3d
       -0.059154753 0.026415788 -0.028416596 0.04998649
000150 b6 48 99 bc 2e 95 66 bd 45 12 ce 3d 5b 13 4e 3d
       -0.01871143 -0.056294613 0.100620784 0.050311428
000160 4f c7 3f bd 6d 21 4d 3d 15 29 7e bc ba b6 c0 3c
       -0.046820935 0.050080705 -0.015512724 0.02352463
000170 f3 db 21 3c b6 42 da 3c df c2 bb bd b0 88 20 bd
       0.0098791 0.026643138 -0.09168028 -0.039192855
000180 ff e2 32 bd 10 a0 44 bd 7b bb 23 bd 03 66 c7 3d
       -0.04367351 -0.04800421 -0.039973717 0.09736254
000190 81 b0 1e 3d 12 f0 40 bd 72 27 a6 3c d2 9c 0a 3d
       0.038742546 -0.04710395 0.02028248 0.03384096
0001a0 9c 5c 50 3b 36 dd 7d bd 60 a6 fb bc 0a f9 ac 3c
       0.003179348 -0.06197854 -0.030718982 0.021114845
0001b0 1f 48 8e 3c 16 66 72 bd a2 20 24 bd 82 a6 7f 3d
       0.017368374 -0.059179388 -0.040070184 0.062414654
0001c0 f1 25 d2 bd 6a 28 35 bc eb b3 81 bd 0d 8a 63 bb
       -0.10261143 -0.011056999 -0.06333145 -0.0034719736
0001d0 c5 86 b3 bc 4d f0 02 bd b1 c2 7c bd e8 67 6c 3d
       -0.021914849 -0.03196745 -0.06170911 0.05771628
0001e0 82 f6 66 3d fd f6 66 bd 1c ed a8 3d bd 3d 73 bd
       0.056387432 -0.05638789 0.0824835 -0.05938505
0001f0 15 e6 07 bd 67 32 c1 bc db 2d 87 3d 6f 2b 63 bc
       -0.033178408 -0.023583604 0.06600543 -0.013865336
000200 88 26 de 3c 2d 79 2b bd 23 96 12 bd 7f 4b 00 3d
       0.027117983 -0.04186361 -0.035787713 0.031322
000210 18 06 40 bc de 25 a2 3a 74 e3 cf 3c 92 c6 9a bc
       -0.011720203 0.0012370904 0.025377013 -0.018893514
000220 81 77 36 3d b8 35 5b bd 08 13 37 bd d2 d3 ca bc
       0.04454756 -0.053518027 -0.044695884 -0.024759207
000230 82 66 96 3b 30 d7 5d bd d6 98 dc 3d 58 51 75 bd
       0.0045898566 -0.054160297 0.10771339 -0.05989203
000240 d1 78 0f bd 90 4c cb 3c c2 53 b6 3c 66 87 ba bd
       -0.03502733 0.024816781 0.022256736 -0.091078565
000250 2c c2 58 bd 35 32 68 3d 9e c1 e5 bc 94 1c b3 bd
       -0.05291955 0.056688506 -0.028046425 -0.08745685
000260 d9 66 b3 bc 9a aa 9d 3d c2 4c bf 3d f3 fa 76 3d
       -0.021899628 0.07698555 0.09340812 0.060297918
000270 b4 2d 90 3c d4 b1 31 3d 2a 6f 9e bd c9 58 de 39
       0.017599918 0.04338248 -0.077360466 0.0004240929
000280 16 fd 0c 3d b4 33 f5 3b 82 92 88 3d 98 04 97 bb
       0.03442105 0.00748297 0.06668569 -0.004608702
000290 5f 7b 57 bd 4d 6b d9 bd 77 ee af 3d cd 5e f2 bb
       -0.05260789 -0.10616169 0.085904054 -0.007396555
0002a0 f5 2d 50 bd 8a 44 3a 3c 33 9d 7c 3c 3a 7d 1e bd
       -0.050825078 0.01136888 0.015418339 -0.038693644
0002b0 bc 00 18 bc cd d4 06 3c 35 1a 60 3b 78 43 08 3d
       -0.009277519 0.008229447 0.0034195308 0.03326747
0002c0 8d 30 a6 3c 16 bd e3 3c 3e fa 74 3c a7 0c ba 3c
       0.020286823 0.027800124 0.0149522405 0.022711111
0002d0 fb c3 5f bd 86 b0 03 bd e2 00 95 3d be a3 ab bc
       -0.05463026 -0.032150768 0.07275559 -0.020952102
0002e0 d3 69 be bc 95 33 80 3d c4 4c e8 bc 74 dc cd ba
       -0.02324382 0.062598385 -0.028356917 -0.0015705959
0002f0 93 23 28 bd 87 6c ed 38 2c 78 bc 3d 86 84 95 bc
       -0.04104955 0.000113212554 0.092026085 -0.018251669
000300 a6 71 6f bd 6b f1 a0 b9 9f d3 30 bd a2 20 a2 3c
       -0.058457993 -0.00030697449 -0.043170568 0.019790951
000310 f5 2e 72 3d 2f 5b 1c bc 41 ae c2 3c 94 37 7a 3d
       0.059126813 -0.009543224 0.023764731 0.06108816
000320 c0 90 91 3d 94 7d 9e bd 67 64 81 bd 3c 5d e8 3d
       0.07107687 -0.07738796 -0.06317978 0.11345908
000330 81 16 3f 3d 5e bd 87 bc d5 35 30 3c 6c c8 6a 3d
       0.04665232 -0.01656979 0.010755022 0.057320043
000340 e0 71 15 3d f0 29 6d 3d a6 1b 16 bc af 54 b3 bd
       0.036485553 0.057901323 -0.009161865 -0.087563865
000350 3e e9 26 3d c1 df e5 bd e0 41 df 3c c8 ec 81 bd
       0.04074978 -0.11224318 0.027253091 -0.063439906
000360 4d f4 fa bc fe e3 36 bd bb 40 81 bc 67 64 b9 bc
       -0.03063407 -0.044651024 -0.015777936 -0.022630883
000370 78 69 3f 3c 66 d7 79 bd 27 44 1e bc 5f 68 37 3d
       0.011682861 -0.060996436 -0.0096598035 0.04477727
000380 25 b5 9f bb 91 25 e5 3c c8 5b e9 bc 36 6a fc 3b
       -0.004873889 0.027972015 -0.028486148 0.007703091
000390 53 a9 8d bd f2 4f 20 bc 2d b2 8a 3d 54 72 08 3c
       -0.06917062 -0.009784685 0.067722656 0.008328039
0003a0 c2 bb 72 3d 2b ad c2 3c 90 11 bf bc 22 b7 9b 3d
       0.05926109 0.023764214 -0.023323804 0.07603289
0003b0 fb cb 97 3c 4d 59 00 bd 5c 37 e2 3d cb a3 6d bd
       0.018529883 -0.031335164 0.11045715 -0.058017533
0003c0 4e 8d 56 bd 69 f4 c2 bc 93 25 e8 bc 76 65 80 bd
       -0.052380852 -0.023798184 -0.02833823 -0.06269352
0003d0 af 14 38 bc 8d 70 51 3d 94 5b cd bc db 2e 06 3d
       -0.0112354 0.051132727 -0.025068082 0.03275953
0003e0 63 4a 07 3c f2 c5 8e 3b dd e7 8f 3d 8a eb 34 3c
       0.008257481 0.004357093 0.07026646 0.011042485
0003f0 c2 8a 5d bc 72 3b ec ba 98 a0 83 3d b4 f5 8b 3d
       -0.013521852 -0.0018023087 0.06427115 0.068339735

conv_layers.2.bias f4 [64]
000000 a8 72 d6 bd 94 fa 55 bc bd 34 a4 3c fb 2e ae 3d
       -0.10471088 -0.013060231 0.020044679 0.085050546
000010 43 8b 6b bd cb ad e7 bd 08 43 d6 bd 5d 79 c1 3c
       -0.057505857 -0.11312445 -0.10462004 0.02361744
000020 8e db 69 3d 6f a6 ca bc ae ad de 3d 42 29 a8 bd
       0.05709415 -0.024737565 0.108729705 -0.08210994
000030 76 eb a5 3b 6e 17 b4 bd d7 20 02 bd ee e0 e3 3b
       0.0050634695 -0.08793531 -0.0317696 0.006954304
000040 71 a7 bc bc 0a 20 71 3c dd 01 ae bd fc c5 f5 3c
       -0.023029061 0.014717111 -0.08496449 0.030001633
000050 1a 4f 8a bd ae e2 d8 bd 6f 81 17 3d c8 d4 90 3d
       -0.06753369 -0.10590111 0.036988672 0.07071835
000060 7f 05 58 3d 69 2d 6d bd d3 13 cd bd 6b 79 5b 3d
       0.052739616 -0.057904635 -0.10013547 0.05358259
000070 ab 18 30 bd d1 30 35 bc de bc c8 bd 08 28 53 3d
       -0.042992275 -0.011059002 -0.098016486 0.05155185
000080 b4 c9 a3 3d fa 48 80 bc 13 65 ea bd e3 2e 80 bd
       0.07997456 -0.015659798 -0.114450596 -0.06258943
000090 4e da a4 3b 1a 2e f4 bc cf 14 2f bd 0f ed 53 bc
       0.0050309068 -0.02980714 -0.042744454 -0.012934937
0000a0 84 e2 b5 bd a1 09 cd 3d f9 59 2a 3d 65 eb e3 3c
       -0.08881095 0.10011602 0.04158971 0.027822206
0000b0 30 c8 88 3d a9 3b 32 bd 06 54 01 be d5 c4 1b be
       0.06678808 -0.043513928 -0.12629709 -0.15211804
0000c0 81 89 a2 3d 09 5c ca bc c3 95 8b bd 34 86 3b bd
       0.07936383 -0.024702089 -0.06815674 -0.045782283
0000d0 b4 fb bd 3c ea 3d 62 bc f7 a6 3c 3d df 9b d3 3d
       0.02319131 -0.013808707 0.046057668 0.103324644
0000e0 8d dc 43 3d b1 26 bd 3c 03 3c db bc 52 0f af 3c
       0.047817755 0.023089739 -0.026762014 0.02136961
0000f0 34 a7 be bc 02 ff 71 bd d9 b2 b4 3c e6 88 bf 3d
       -0.023273088 -0.059081085 0.022057937 0.09352283

conv_layers.3.weight f4 [64, 256, 5]
000000 76 13 14 bc 00 b8 6e bd 80 cd bd 3b 87 22 c3 bc
       -0.009037843 -0.058280945 0.00579232 -0.023820175
000010 52 00 e1 3c 9f 18 3a 3b 71 95 27 3d 51 65 22 bc
       0.027465973 0.0028396023 0.040914003 -0.009911851
000020 1b c3 83 3d 3a df 14 3d 1f e8 95 3d d6 8d 75 3b
       0.06433698 0.036345698 0.07319664 0.0037468574
000030 30 b1 80 bd 8f 00 bb 3c 3c a5 2c bd a2 2b 30 bb
       -0.06283796 0.022827415 -0.042149767 -0.0026881476
000040 67 87 be bc b6 83 b9 3b 70 39 a7 3b 13 75 d1 bc
       -0.023257924 0.005661453 0.0051032826 -0.02556852
000050 03 52 36 3b 45 32 2e 3b 20 44 82 bd 9f 94 aa bc
       0.002781988 0.0026580256 -0.0636065 -0.020822821
000060 59 d7 80 bc 6c 04 ee bc 40 79 9e 3c 83 aa bc 3d
       -0.015727686 -0.029054843 0.019344926 0.0921221
000070 78 19 f7 bc 14 b1 79 bd 2a 53 12 3d 0a da 80 3c
       -0.030163512 -0.06095989 0.035723843 0.01572897
000080 cd 51 70 3d cc ea 33 3c cc 86 17 bd 12 c0 ab 3c
       0.05867176 0.010981273 -0.036993787 0.02096561
000090 33 63 f7 3c a5 0b 6d 3d 58 a5 66 3c b6 87 15 bd
       0.030198669 0.057872433 0.014077507 -0.036506377
0000a0 4c 93 64 bc fa 86 4e 3d b9 84 d8 bb b4 74 b3 bd
       -0.013951134 0.050421692 -0.0066076186 -0.08762494
0000b0 00 f4 b8 3c c2 67 2a 3d 89 71 c9 bc c7 6b 74 3c
       0.022577286 0.041602857 -0.02459027 0.014918274
0000c0 51 50 43 3d 4d 14 92 bd 2e b9 81 bd e3 88 c9 3b
       0.047684018 -0.07132778 -0.06334148 0.0061503514
0000d0 06 6c 92 bd 21 66 97 bc d6 44 81 bd c7 2e cc 3c
       -0.0714951 -0.018481316 -0.063119575 0.024924649
0000e0 ab 60 68 3d 0a 56 10 ba 5f b5 e8 bc f6 c2 8b 3c
       0.056732815 -0.0005505985 -0.028406797 0.017060738
0000f0 0d dd e7 3c c5 52 9a bd 82 60 3d 3d f2 70 bb bc
       0.028303647 -0.07535318 0.046234615 -0.022881005
000100 62 7c b9 bc 11 f9 98 bc 7b 11 08 3d 7f 24 fa bb
       -0.022642318 -0.018673452 0.033219796 -0.007633745
000110 50 b7 9c bc cc a1 7f bd d3 5e e3 3c fe 3b 91 3d
       -0.019130379 -0.06241016 0.027755177 0.07091521
000120 c3 7a 01 bd dd 28 ae bd 9c 13 b4 bc f8 e7 84 3c
       -0.031611215 -0.08503888 -0.021982007 0.016223893
000130 ba d7 36 3d 76 ab 65 bd 43 79 b2 bd 5a b7 0f bd
       0.044639327 -0.05607172 -0.08714535 -0.035086967
000140 e5 84 17 bc 34 e0 73 bd c5 10 9c 3c 5a fb d4 3d
       -0.009247993 -0.05953999 0.019050965 0.10399504
000150 a9 00 81 bd 1f ff 26 3d 4c e0 ad bc 06 60 dc bc
       -0.06298954 0.040770646 -0.021225117 -0.026901256
000160 de 78 98 bd ab 6a 8d b7 c8 95 4e 3d 0a b3 7c bd
       -0.074449286 -1.6858181e-05 0.05043581 -0.061694182
000170 1b 42 ec bc c8 57 f0 3c 46 6e 68 3d cc 2c 01 3d
       -0.028840115 0.029338732 0.05674579 0.031536862
000180 37 27 5f bc 31 f6 91 bd 78 86 a1 bc 89 df 9c 3c
       -0.013620189 -0.071270354 -0.01971744 0.019149559
000190 9b 4b d0 3c fc 45 4a bc 10 b8 45 bd dc a9 5c 3d
       0.025426676 -0.012345787 -0.04827124 0.053872928
0001a0 1e cb 88 3b 60 d3 7f bd a6 e5 c3 bc aa 0b 05 bd
       0.004174604 -0.062457442 -0.023913216 -0.032481827
0001b0 15 49 3c bc 81 e8 6c bd 96 38 dc bc c7 68 67 3c
       -0.0114920335 -0.05783892 -0.026882451 0.014124102
0001c0 d9 93 5b bd 13 1a 46 bd 6e c2 5d bd f4 68 51 3d
       -0.053607795 -0.04836471 -0.0541405 0.05112548
0001d0 d7 e7 22 3d 9e 26 9b 3b d3 b7 5c 3c bf 2c bb 3c
       0.03977188 0.004734828 0.0134715615 0.022848485
0001e0 18 c1 6e bd 6f 00 9b 3a 2d fb 89 bd 46 ec 30 3d
       -0.058289617 0.0011825691 -0.06737361 0.043194078
0001f0 c9 a1 18 bc 0e 08 18 3d 32 60 88 bd 55 d4 46 bb
       -0.009315916 0.037117057 -0.06658973 -0.0030338962
000200 b7 c3 a2 3c d5 02 c5 bc c2 f2 0f 3d 09 98 2b bd
       0.019868715 -0.024049202 0.03514362 -0.04189304
000210 40 d3 b5 bd 10 4e 33 bc ad 88 73 bd 32 af 50 bd
       -0.08878183 -0.0109439045 -0.059456516 -0.05094833
000220 f2 a0 45 bd 0e 67 13 bd 7e dc f8 bb a4 b8 b9 3b
       -0.048249193 -0.035986952 -0.007594644 0.005667763
000230 1e c1 56 bd ad 9c 65 bd c6 70 dc bb c5 f8 80 3c
       -0.052430265 -0.05605762 -0.006727311 0.015743623
000240 f9 36 7e bb 69 f0 c9 bc 1b 5c 3b 3d 5f 5d 0c bc
       -0.003879009 -0.02465077 0.045742135 -0.008567183
000250 a3 f2 46 3b 8d 76 1b bd cb ee 2e 3d 5a 61 0b bd
       0.0030357025 -0.037954856 0.0427082 -0.03402839
000260 b7 a6 ba 3c 7b 9f 8b bc 41 00 76 bd d8 d8 c2 3c
       0.022784574 -0.01704382 -0.060058836 0.02378504
000270 0d ab ac 3c bd 49 36 3c 16 93 95 3b 4a 61 e6 3b
       0.021077657 0.011125979 0.004564653 0.0070306407
000280 0e ec 6e bd 96 43 b1 ba 2d b7 59 3d ca 24 9f 3d
       -0.058330588 -0.001352417 0.053153206 0.07770689
000290 6b d1 12 bc ab 9b 72 3d fe 48 43 bd 4c 69 12 3c
       -0.008961062 0.059230488 -0.047677033 0.008936238
0002a0 97 91 54 3d 18 ba 46 3d a7 95 3e bd e3 68 02 3d
       0.051896658 0.048517317 -0.04652944 0.03183831
0002b0 89 9c d1 bc ee bc 59 3d b2 f9 63 bd a7 d4 dc bc
       -0.025587337 0.053158693 -0.05565805 -0.02695687
0002c0 9c 4c 4f bc c3 64 10 3c be 3f 6c bd 90 96 51 3d
       -0.012652542 0.008813086 -0.057677977 0.05116898
0002d0 e6 0c e8 bc 79 6a 62 3c cf 9a 06 3c f3 ba 8a 3b
       -0.028326463 0.01381933 0.00821562 0.004233712
0002e0 0c f2 50 bd ed b7 77 bd fa a7 82 bd 3c 59 b3 bb
       -0.051012084 -0.06047814 -0.06379695 -0.005473284
0002f0 08 58 a3 bd 3f 1f 96 3c 0a 0b 29 3d a0 13 f2 3b
       -0.07975775 0.018325446 0.041270293 0.0073875934
000300 24 a3 83 bc ce fd af bd bc b9 95 bc 2a 76 b4 3c
       -0.016069002 -0.08593331 -0.018277042 0.022029001
000310 4d 78 b0 3c 42 dd 16 3d d7 fa 1c 3c 69 8c 38 3c
       0.021541739 0.0368321 0.009581289 0.011263945
000320 fd 9e d2 3c 14 95 87 3d f1 fa 35 bc 89 2b 87 bd
       0.025710577 0.06620231 -0.011107192 -0.066001005
000330 e2 cf 19 3d 61 da 84 3c 55 68 28 3b 55 48 01 3d
       0.037551768 0.016217412 0.0025696952 0.03156312
000340 57 cb 83 bc b6 7f 82 3c be 47 d2 3c 04 9a 12 3d
       -0.01608817 0.015930038 0.025668975 0.035791412
000350 96 74 9f 3c d5 91 12 bc 37 d7 05 bd 03 bc ec 3c
       0.019464772 -0.008945902 -0.032675948 0.028898245
000360 a9 13 5a bd c8 1f 06 3d cf 1e d5 bc 69 0e 39 b9
       -0.053241406 0.032745153 -0.026015667 -0.00017648343
000370 53 7e 37 3d b6 2a 97 3d d1 20 44 3d ee d4 80 3d
       0.044798207 0.07381193 0.04788286 0.06290613
000380 86 fa e2 bd 62 fb 06 3c 6c c8 a4 bc 20 2f fe bc
       -0.1108294 0.008238645 -0.0201151 -0.03102833
000390 63 83 00 3d 68 80 eb bc 7f 89 d5 3c 97 e6 80 3d
       0.0313753 -0.028747752 0.02606654 0.062939815
0003a0 27 26 1e 3d f4 92 20 bc 91 c7 07 bd 45 ff a1 3d
       0.038610604 -0.009800661 -0.033149306 0.07910017
0003b0 50 5b 25 bd 7f 32 6d 3d 8b f4 cf 3d bd 1d 2b bd
       -0.040370286 0.057909485 0.10154065 -0.041776408
0003c0 be 94 73 bd b3 55 67 3d ff 43 48 bc 22 69 bc bb
       -0.059468023 0.056478214 -0.012223243 -0.0057498375
0003d0 d9 f8 ba 3b ce 58 50 3d fe ef a6 bc 06 e6 a0 3b
       0.0057059345 0.05086594 -0.020378109 0.0049102334
0003e0 29 28 a2 bd 1a 86 35 bc e9 34 4e bb 37 ed 2f bc
       -0.07917816 -0.011079336 -0.0031464642 -0.010737709
0003f0 d6 95 82 bb 1b 77 6c 3d 38 ee 87 bd 72 ec 83 bc
       -0.003985147 0.057730775 -0.066372335 -0.016103957

conv_layers.3.bias f4 [64]
000000 e3 0f 41 be 36 dd 3c bc 50 e5 1f 3d 4d 14 a4 bd
       -0.18853717 -0.01152735 0.03903705 -0.080116846
000010 27 8c 6d bc 5e 31 cd 3b 5f 40 5a bd 3d a5 2a 3b
       -0.014498747 0.0062619885 -0.053284045 0.002603843
000020 40 c5 35 3d 80 b1 1c be 34 04 83 bd a6 e0 f1 3c
       0.044377565 -0.15302086 -0.06397286 0.029526066
000030 f9 39 35 3d 7d d9 07 bd a3 30 2c 3d bf 3b d8 ba
       0.04424474 -0.033166397 0.04203857 -0.0016497298
000040 5b 7d b6 bd 9d d0 98 bd a1 b7 08 be e9 30 7e bd
       -0.089106284 -0.07461665 -0.13351299 -0.062058363
000050 c0 62 df bc f4 2c c1 bb 4e 4e 03 bd db 14 79 3c
       -0.027268767 -0.0058952514 -0.0320571 0.015202726
000060 a7 34 10 bd 4b 29 90 3c d7 7b c5 3d 48 08 14 3c
       -0.035206463 0.017597815 0.09642761 0.0090351775
000070 1e cf cd bd 35 96 ea ba 6b 90 39 bd 7b fc e6 3b
       -0.1004927 -0.0017897548 -0.045303743 0.007049141
000080 73 47 b6 3d 94 62 4e b9 1e 6a 05 bc 4f 3e ac 3d
       0.089003466 -0.00019682414 -0.008142976 0.08410322
000090 f2 51 98 bb 1b 5b cc bc 5b 82 b4 3d aa 07 b2 bd
       -0.0046484405 -0.024945786 0.08813926 -0.08692868
0000a0 16 06 b9 3d 97 12 aa 3c be 3d 93 3c 7e b5 81 3d
       0.09034364 0.020760817 0.017973777 0.06333445
0000b0 01 f9 a1 3d 1a ba b3 bd f1 9b 96 3d eb dc 33 bb
       0.07908822 -0.087757304 0.07353962 -0.002744491
0000c0 3d 07 95 3d c9 44 0c 3d d0 1e 9a bd 04 50 93 bd
       0.07276771 0.034245286 -0.07525408 -0.07192996
0000d0 fb 51 17 bd e0 26 2c be 61 b3 75 3d 67 08 af bb
       -0.036943417 -0.16811705 0.059985522 -0.005341578
0000e0 49 fa fe bc a9 ff 58 bd 82 ae be 3c d3 74 6b bd
       -0.031125205 -0.05297819 0.023276571 -0.05748446
0000f0 5f 4a da 39 d1 a7 cf bc a5 07 1d 3d 86 23 0d bc
       0.0004163561 -0.025348576 0.03833737 -0.0086144265

fc1.weight f4 [64, 256]
000000 a2 a1 26 bd c7 8a 5b 3c 8e 4e 51 bc c8 e7 22 bc
       -0.04068149 0.013399786 -0.012775077 -0.009942956
000010 80 6e 83 bd b0 0a ae 3c 94 17 57 3d 52 ae b9 bb
       -0.064175606 0.02124533 0.05251272 -0.0056665326
000020 7e b6 1b bd 5c 23 4b bc 06 87 db bc ee 07 67 bd
       -0.038015835 -0.012398567 -0.026797783 -0.056404047
000030 bf f7 a9 ba a8 0d 5e bd c1 75 13 3d af a6 29 bd
       -0.0012967511 -0.054212242 0.03600097 -0.041418727
000040 62 79 43 bd b0 3d aa bc b1 87 1e 39 6f 8d 9e 3b
       -0.04772318 -0.020781368 0.00015118603 0.0048386375
000050 52 40 99 bb ef f7 a2 3c 53 dc a6 3b 0a 5b 8e bd
       -0.004676857 0.019893615 0.0050921827 -0.06950958
000060 77 73 19 3c 65 5b 5b bd 1b 4d 3c 3d dc 18 15 bd
       0.009365908 -0.053553957 0.04597197 -0.03640066
000070 48 c1 b1 3c e3 31 27 3c a9 3f 78 bd 87 ac 22 bc
       0.021698609 0.010204765 -0.060607586 -0.009928829
000080 b3 42 26 bd fe f4 57 bc 8c e3 8d bd 26 b6 e8 3c
       -0.040590953 -0.013180969 -0.06928167 0.028407168
000090 a4 16 27 bb 68 1a 98 bd f3 59 82 bd f8 9f da 3c
       -0.0025495673 -0.074269116 -0.06364813 0.026687607
0000a0 9d 3e 0c bb b6 a8 09 bc 1e 1d 6c 3d 22 88 c6 bc
       -0.0021399625 -0.00840204 0.057644956 -0.024234835
0000b0 99 a1 20 bd 8f 11 ec bc 50 04 8b 3c d9 99 bf bc
       -0.03921661 -0.028816966 0.01696983 -0.02338879
0000c0 a5 12 a3 bd 34 f2 2a ba ff 11 cd bc 2c 79 20 bd
       -0.079625405 -0.00065210764 -0.025032995 -0.03917806
0000d0 25 22 10 bd 8d 51 b6 3c ce c2 36 3d ab 0e dd bc
       -0.035188813 0.022255683 0.044619374 -0.026984533
0000e0 f3 e2 82 bc 66 77 43 3d 7e a2 7b 3c 00 fa 8d 3c
       -0.015977358 0.04772129 0.015358565 0.017331123
0000f0 23 20 e8 3b 8a 75 94 bd ea 50 dd bc a7 b8 d0 3c
       0.007083909 -0.07248981 -0.027016122 0.025478674
000100 3f ac 02 bd fa 6f 54 3c 72 e0 15 3d c0 b5 63 bd
       -0.031902548 0.01296615 0.036591 -0.055593252
000110 74 5a 00 bc ff 25 cc 3c 9e 75 64 bd 6d 47 24 3c
       -0.007834066 0.024920462 -0.05577623 0.010026795
000120 e6 f1 60 bc e6 4a 15 bd 35 f8 b5 bc f4 b1 1d bd
       -0.013729548 -0.03644838 -0.02221308 -0.038499787
000130 b3 05 e4 3a 66 8c 17 3d be 29 de bc eb 07 0a 3d
       0.0017396718 0.03699913 -0.027119514 0.033698957
000140 a2 6c fa 3c 2b 80 21 bd d9 0f e1 3b 23 60 48 bd
       0.030569378 -0.03942887 0.0068683443 -0.048919808
000150 6e 83 70 bc 64 dd 09 3d 4f b6 2b 3c bc 0f 40 3c
       -0.014679773 0.0336584 0.0104804775 0.011722501
000160 80 8e cd bc a8 10 34 3c fd 93 dd 3c c5 24 46 bd
       -0.025092363 0.010990299 0.027048105 -0.04837491
000170 0c f1 5e ba bf 78 7c bd 3e df 6e bc 21 4f 67 3d
       -0.0008504547 -0.06163859 -0.014579592 0.056471948
000180 f6 cb ee 3c ed d5 54 3d a8 be 31 bd 67 80 20 bc
       0.02914999 0.051961828 -0.043394715 -0.0097962385
000190 84 ce 93 3c b5 dd 1a bd 44 2b ad 3c f0 16 f4 3b
       0.01804281 -0.037809093 0.021138795 0.0074490234
0001a0 c8 ec 38 3c d6 5f 4c 3d 97 25 97 bd 07 ce 6c bd
       0.011286922 0.049896084 -0.073802166 -0.05781367
0001b0 a8 52 f5 3a 7d 5c 64 bc ba 9d 3d bd b6 9f a0 bc
       0.001871665 -0.013938067 -0.046292998 -0.019607406
0001c0 ad ed a6 bb 92 29 7b 3c 4e de 39 3c 60 39 08 b9
       -0.005094251 0.015329735 0.0113445055 -0.00012991345
0001d0 87 59 81 bd 7f 12 57 3c f5 34 ca bc ba d0 ae bb
       -0.06315904 0.013126968 -0.024683455 -0.0053349407
0001e0 b4 33 c1 bc ba 83 32 bd aa 27 88 3c 6f a9 d1 3c
       -0.023584224 -0.043582655 0.016620476 0.025593488
0001f0 01 2b 1e bd 87 ed 61 bd 86 05 e2 3b f7 fc a6 bc
       -0.03861523 -0.055158164 0.006897631 -0.020384295
000200 ac 1c 7f bd d7 44 2a 3d 5a 82 cb bb c9 34 c1 3c
       -0.062283203 0.041569557 -0.0062106075 0.02358474
000210 74 7f 5a bd 4b d6 80 bd 01 20 b9 bc 1b c1 22 3d
       -0.053344205 -0.06290873 -0.022598268 0.03973494
000220 e0 3a b2 3c c5 b5 42 bd b9 a8 b0 3b 35 97 0e 3c
       0.02175659 -0.04753663 0.005391207 0.008703043
000230 c7 d5 9a bd cb a6 2d bc ff ba f1 3a 61 4e a6 bc
       -0.07560306 -0.010598849 0.001844257 -0.020301046
000240 c5 05 38 3d cb 91 43 3d 4f 55 2b 3d 7f 93 04 3d
       0.044927377 0.04774646 0.041829403 0.032367226
000250 cc bb aa bb 49 35 38 3b 83 73 75 bd 62 67 07 bd
       -0.0052103754 0.0028107932 -0.059924614 -0.033057578
000260 79 e2 66 bd a8 61 3a 3c c8 ba bc bc 6a 80 80 bb
       -0.056368325 0.011375822 -0.023038283 -0.003921558
000270 29 3b 94 bc cc 2e 84 bd 20 f8 0d 3d 90 0d 42 bd
       -0.018094616 -0.06454238 0.03466046 -0.047376215
000280 04 0e 48 3d 9a 30 20 3d bf 43 02 bd 09 39 b8 bc
       0.04884149 0.03910885 -0.03180289 -0.022488134
000290 1b 9a 2b bd 1a fb 65 bd 9d 19 33 bc 71 1e 81 bd
       -0.041895013 -0.056147672 -0.0109314 -0.06304634
0002a0 f3 f7 28 3d 85 52 17 3c e4 82 54 bd 4c 7f a8 bc
       0.041252088 0.009235983 -0.05188264 -0.020568512
0002b0 e9 c4 23 bd 11 be 86 bc 0e 3f 6a bd ee 59 6f 3d
       -0.03998271 -0.016448053 -0.05718904 0.058435373
0002c0 83 51 d7 bc eb 0a b1 3b 16 4a b5 bc 92 9a 08 3d
       -0.026283985 0.005402913 -0.022130053 0.033350535
0002d0 c6 68 23 3c 98 4b 9e bc 6d 1c ff 3c ec 3b 3f bd
       0.00997371 -0.019323155 0.031141484 -0.046688005
0002e0 78 9e 1c bd 29 f4 89 bd 0e 7f c4 bc 3b ef 85 bd
       -0.038237065 -0.06736023 -0.023986366 -0.0653977
0002f0 bc a7 93 bd 04 a4 fe 3b 04 1f 43 bb 6d 3c b2 3b
       -0.07209727 0.007771017 -0.0029773125 0.005439332
000300 bf 59 8b 3c 7c 00 00 bd f4 55 aa bd 9c d4 13 bd
       0.017010568 -0.031250462 -0.083171755 -0.036091432
000310 7a a0 0e bd 4b 81 72 bd d2 e3 66 bc 21 76 f5 b9
       -0.03482101 -0.059205335 -0.0140924025 -0.00046818054
000320 dc be 10 3c d9 5e 81 bd 55 1f 92 bb d7 37 1b 3d
       0.008834567 -0.06316919 -0.0044593015 0.03789505
000330 6f 15 45 3d ff be 81 bd 15 f3 ac bc 43 1c d6 3b
       0.048116144 -0.06335258 -0.021112004 0.006534131
000340 85 4d ea bb cb 9a 2a 3a 00 d6 9c 3b 40 01 52 3d
       -0.0071503543 0.00065080513 0.004786253 0.051270723
000350 7a 56 d2 3b 61 fd b1 bd b2 fa c0 39 33 53 8a bd
       0.006419 -0.08690906 0.00036807876 -0.0675415
000360 74 c8 4b 3c 49 bd 94 bb 43 99 ed bc ef ff 0e bd
       0.0124379285 -0.004539166 -0.029003745 -0.034912046
000370 30 cb 16 3d 2d b3 0d 3c 26 6f 4c 3d 6c 87 6e bc
       0.03681487 0.008648676 0.049910687 -0.014558654
000380 de e9 6f 3c e3 f9 23 3d 07 72 d8 bc cd a3 2e bd
       0.014643161 0.040033232 -0.02642156 -0.04263668
000390 bd d1 37 bd 49 75 dc 3b 0d 0e 9b bd 5b bb 65 3c
       -0.044877756 0.0067278487 -0.07571039 0.01402172
0003a0 8d 46 bd bc 69 f7 2a 3c 5d 1f 37 bd a9 e0 cd bc
       -0.02310493 0.010434964 -0.044707645 -0.02513154
0003b0 a0 b5 0c bd d7 d9 c2 bc e4 44 98 3b 6e ac 46 bd
       -0.0343529 -0.023785515 0.0046468843 -0.048504286
0003c0 41 b8 cb 3c 0e fe 23 bd 5f 9f 18 ba 80 cd 37 bd
       0.024868133 -0.040037207 -0.0005822088 -0.044873714
0003d0 c3 4f 37 bd 7e 99 10 bd 83 0b e0 3c 2d 80 55 3d
       -0.0447538 -0.03530263 0.02734924 0.05212419
0003e0 55 d0 b8 bc 22 5e e3 bc 31 33 38 bd e6 67 78 bd
       -0.022560278 -0.027754847 -0.044970695 -0.06064596
0003f0 65 5d 55 3d c9 2e 28 bd a2 9c 1d 3d c8 0e b5 3b
       0.05209102 -0.041060243 0.038479455 0.0055254437

fc1.bias f4 [64]
000000 ef 5d 4c bd 69 5e 74 bd 3c 4e 78 3c aa b2 85 3c
       -0.04989427 -0.05966035 0.015155371 0.016320545
000010 3b 40 86 3d 04 a1 35 3d 0a 3b cc 3d b0 f4 02 3e
       0.0655522 0.04434301 0.09972198 0.12788653
000020 64 d3 af 3b 27 7e c3 3d b7 c4 b2 3c 8b 08 b1 3d
       0.005365776 0.09545546 0.021822317 0.086442076
000030 10 6a 57 bd 48 8e 39 3d aa 3e 9f 3c c8 ac 23 3d
       -0.052591383 0.045301706 0.01943906 0.0399597
000040 04 08 95 bc 85 5e f9 3b f5 32 36 3c 6b 78 ba 3d
       -0.018192299 0.0076101446 0.011120548 0.09104999
000050 d2 ba af 3a 8c e9 b0 3c b6 8b fd 3d bd 8d 4c 3d
       0.0013407117 0.021595739 0.12380163 0.04993986
000060 eb 6f 5f bd 6a 26 43 3d 0e bc 8a 3a 41 8b a6 3c
       -0.054550093 0.047644056 0.0010584609 0.020330073
000070 8c 4d ca 3d dc 63 34 bd d9 e6 6d bd ac 34 41 3c
       0.09878072 -0.044040546 -0.05808148 0.011792343
000080 d5 39 30 bc 6f bc 0b 3e 16 d8 af bd 71 0d b3 3d
       -0.010755976 0.136461 -0.08586137 0.08742798
000090 5d b2 c6 bb a8 61 1c bd 1d f5 69 3d bb f8 21 bc
       -0.006063743 -0.03817907 0.057118524 -0.009885962
0000a0 45 90 4f 3c 8f 92 76 bc ee 67 12 3c 5c 0e 0a bb
       0.012668674 -0.015049591 0.008935912 -0.0021065688
0000b0 ca d0 0e 3e 11 1d 78 bd 1c 12 e8 bc cf 82 e9 3d
       0.13946834 -0.060574595 -0.028328948 0.11401903
0000c0 b1 82 f5 3d 82 a4 8c bd 35 69 d1 3c ae eb 92 bd
       0.11987818 -0.06867315 0.025562862 -0.071738586
0000d0 71 c1 d8 3c 90 77 4b 3d da b1 90 3c 97 2e 49 3d
       0.026459428 0.04967457 0.017662931 0.049116697
0000e0 63 a6 f5 3c 63 f1 ca 3d 55 a4 68 bd bf b6 56 3d
       0.029986566 0.09909322 -0.056797344 0.052420374
0000f0 74 95 55 3d 2d 0d d7 3c 9c 0a 69 bd 83 d5 2d bc
       0.052144483 0.0262514 -0.056894884 -0.010609987

batch_norm.weight f4 [64]
000000 bf 80 77 3f 23 0f 7e 3f 6f 76 7e 3f b6 3d e3 3f
       0.96680826 0.99241847 0.99399465 1.7753208
000010 4d ac e1 3f ff a4 ef 3f 72 16 de 3f 31 80 e5 3f
       1.7630707 1.8722228 1.73506 1.7929746
000020 38 f9 77 3f e6 c5 e4 3f 81 e4 7b 3f 47 c9 f3 3f
       0.9686465 1.7872894 0.98395544 1.90458
000030 1c 5e 7e 3f 8c 42 e1 3f c8 26 7d 3f 6f 76 7e 3f
       0.9936235 1.7598433 0.988873 0.99399465
000040 27 43 7e 3f 8e 75 7e 3f 04 f0 e4 3f 4b 44 d7 3f
       0.99321216 0.99398124 1.7885747 1.6817716
000050 5c 1e ea 3f c2 b5 d0 3f fd b4 da 3f 6a 14 7e 3f
       1.8290515 1.6305468 1.7086483 0.992499
000060 bf a8 7d 3f 0d da d9 3f ab 83 7d 3f 0e 8c 78 3f
       0.9908561 1.7019669 0.99029034 0.97088706
000070 5e 04 d1 3f 00 00 80 3f ec 4f 7e 3f 75 dd 7d 3f
       1.6329458 1.0 0.993407 0.9916604
000080 40 74 ec 3f 3f 0a d0 3f e7 93 78 3f 44 50 d9 3f
       1.8472977 1.6253127 0.9710068 1.697762
000090 d5 15 d4 3f 6d 76 7e 3f d4 e3 c7 3f 20 0b 7b 3f
       1.6569163 0.99399453 1.5616403 0.9806385
0000a0 bc 9b 80 3f c8 e7 e4 3f cd 6c e0 3f 38 88 d8 3f
       1.0047526 1.7883234 1.7533203 1.6916571
0000b0 c3 eb d0 3f 09 87 7c 3f 00 00 80 3f b6 ed dd 3f
       1.6321949 0.9864355 1.0 1.7338169
0000c0 76 66 eb 3f 16 96 7c 3f 38 e1 7d 3f 9e fb 7c 3f
       1.8390644 0.9866651 0.9917178 0.9882144
0000d0 da 31 7e 3f 00 00 80 3f f2 1e 7d 3f 87 10 cb 3f
       0.9929482 1.0 0.98875344 1.5864419
0000e0 19 80 7e 3f bb df df 3f 10 e7 7a 3f d9 c7 ce 3f
       0.9941421 1.7490152 0.98008823 1.6154739
0000f0 e2 01 d8 3f 72 76 7e 3f a7 08 7d 3f 59 2e 7e 3f
       1.6875575 0.99399483 0.9884133 0.9928947

batch_norm.bias f4 [64]
000000 ad 19 ee 3d 71 e2 12 be d7 7a 2f be 19 fc e2 bb
       0.11625991 -0.14344193 -0.17136703 -0.006927025
000010 29 e1 5f be 14 e1 ae bc 4d bb 8e bd b7 ee 4e bc
       -0.21863236 -0.02134756 -0.069693185 -0.012630156
000020 d8 c2 02 be 2b 00 b2 3d 1d e9 44 3e 79 b3 02 3e
       -0.1276964 0.08691438 0.1922955 0.12763776
000030 3c e4 e7 3d 38 a6 4e 3d df e9 01 be 21 ef 4a be
       0.11322829 0.050451487 -0.12686871 -0.19817783
000040 36 74 36 be 80 05 1e 3e a8 e4 27 be 2a fa e7 3d
       -0.17817768 0.15431786 -0.16395819 0.11327012
000050 ef 1c 3d bb 6f b8 bc 3d 45 39 24 3d ba e0 11 be
       -0.0028856357 0.092148654 0.04009368 -0.14245883
000060 9f 82 00 3e 85 23 d2 3d 8e 80 27 3e 21 5a 32 be
       0.12549828 0.10260681 0.16357633 -0.17417194
000070 aa fb 8a be fa 8d 1e be eb 01 19 be bd 43 42 be
       -0.2714513 -0.15483847 -0.14942138 -0.18971153
000080 b7 6a 16 bd b4 1f 55 bd dd 19 19 be 2b 93 1a bc
       -0.036722865 -0.052032188 -0.14951272 -0.009434502
000090 76 bd 57 be d6 0e 1c 3e 92 6a 06 bd f4 7a b1 ba
       -0.21068367 0.15240034 -0.032816477 -0.0013540671
0000a0 30 c4 28 be 75 61 85 bd c5 cf 0d be 1b 47 7f bd
       -0.1648109 -0.06512729 -0.13848789 -0.06232367
0000b0 a8 f7 06 be 57 00 09 be e1 54 e9 3d 34 7d 53 3c
       -0.13180411 -0.13379036 0.113931425 0.012908269
0000c0 28 83 82 bc 4b be c6 bd 73 e3 f0 bd bb 0f 28 3e
       -0.01593168 -0.09704264 -0.117621325 0.1641225
0000d0 6b fb 1b 3e db 07 da 3d 01 4c 00 be 42 6a be 3d
       0.15232627 0.106460296 -0.12528993 0.09297611
0000e0 e7 51 0b be 80 0e b8 3d c1 67 43 3e 52 35 36 3d
       -0.13605462 0.08987141 0.19082548 0.044484444
0000f0 dd 61 af 3d fb 0b 0e 3e 31 e2 55 3e 8b 45 fd 3d
       0.08563588 0.13871758 0.20887066 0.1236678

batch_norm.running_mean f4 [64]
000000 90 f2 33 1b 04 00 00 00 04 00 00 00 cb 0f 91 40
       1.4884909e-22 6e-45 6e-45 4.533178
000010 0d 67 7a 40 07 42 cc 3f b8 2a a1 40 81 7d 7a 40
       3.9125397 1.595765 5.0364647 3.9139102
000020 04 00 00 00 a8 6d 87 40 04 00 00 00 29 67 27 40
       6e-45 4.232136 6e-45 2.6156714
000030 04 00 00 00 40 21 11 41 04 00 00 00 04 00 00 00
       6e-45 9.070618 6e-45 6e-45
000040 04 00 00 00 04 00 00 00 d0 fd 3d 40 e7 2e 6d 40
       6e-45 6e-45 2.9686165 3.7059877
000050 d1 b1 cd 3f 16 0b 56 40 24 ca 8f 40 d9 d9 a1 3f
       1.606989 3.3444266 4.4934254 1.2644607
000060 04 00 00 00 b7 e3 b8 40 04 00 00 00 04 00 00 00
       6e-45 5.777797 6e-45 6e-45
000070 b7 52 c8 3b 00 00 00 00 04 00 00 00 04 00 00 00
       0.006113376 0.0 6e-45 6e-45
000080 5d 5c 42 40 27 dc 41 40 5c 74 c6 11 d3 91 9d 40
       3.0368874 3.029062 3.1310604e-28 4.924051
000090 6e 39 33 40 04 00 00 00 e3 2b e9 3f 04 00 00 00
       2.8003802 6e-45 1.8216518 6e-45
0000a0 b4 93 00 00 7b 3f 2d 40 ef 6e f5 3f ea b8 0e 35
       5.2986e-41 2.7069995 1.9174479 5.316821e-07
0000b0 84 3f e5 3f 04 00 00 00 00 00 00 00 5e df 7a 3f
       1.7910008 6e-45 0.0 0.9799708
0000c0 79 f3 71 40 04 00 00 00 04 00 00 00 04 00 00 00
       3.7804854 6e-45 6e-45 6e-45
0000d0 04 00 00 00 00 00 00 00 04 00 00 00 e2 12 79 40
       6e-45 0.0 6e-45 3.8917775
0000e0 04 00 00 00 01 3d b7 3f 04 00 00 00 1e 48 fe 40
       6e-45 1.4315492 6e-45 7.9463034
0000f0 5b 02 db 40 04 00 00 00 04 00 00 00 04 00 00 00
       6.8440375 6e-45 6e-45 6e-45
