models/倖田來未/classifier_fold2.pth (torch, 991011 bytes, 16 tensors)

conv_layers.0.weight f4 [64, 256, 2]
-0.018835543 0.045260724 -0.07743037 0.06908546 -0.024938975 -0.03880085 -0.09852405 0.06627536
-0.028106416 0.017412364 0.00092029065 -0.052571956 0.041937187 0.02349128 -0.014512067 -0.003490082
0.069043376 -0.017677695 -0.0031553102 0.079211414 0.005658707 -0.021522999 -0.069492884 0.029042866
0.029201735 0.0024744023 0.0032883857 -0.11302195 0.05690955 0.032080706 0.043334976 0.069659844
0.01443008 0.060856145 0.05273025 -0.034295294 -0.030111076 -0.05174188 -0.087466404 -0.02025047
-0.0005789231 0.028742805 0.033022802 0.026351048 -0.010603864 -0.04495982 -0.0054704207 0.03836005
-0.05059581 0.037002426 -0.026371256 0.06777018 0.022769956 -0.11011705 -0.038384143 -0.038625173
0.015025736 -0.046340406 -0.0748164 -0.0024629626 -0.009448033 0.08281541 -0.1203646 -0.0142443245
0.023574857 -0.017814746 -0.045668688 -0.01758223 0.02491457 -0.06991476 0.057739183 -0.035899185
0.033460375 -0.015941627 0.0556033 -0.005497857 -0.045867436 0.0016705551 0.02559284 -0.04044839
-0.036652546 -0.040894102 -0.09821369 -0.06521831 0.09909641 -0.06935222 -0.10859621 -0.0126716755
0.09362269 0.033608235 0.031237679 0.08211248 -0.027880598 0.013027519 -0.0055469302 0.07768328
-0.062239107 -0.06964521 -0.025888417 0.07236809 0.05344836 -0.018973222 -0.047339946 -0.034277424
0.043266393 -0.036457684 -0.03457824 0.09192205 -0.047471046 -0.0054417457 0.022122895 -0.002839209
0.05027906 -0.013075447 0.05329859 0.03162199 0.055828243 0.008664597 0.017147206 -0.013424757
0.018126912 0.006371426 0.053557664 0.001456548 0.03926688 0.06977848 0.09884626 0.00082639797
-0.037280306 -0.07943095 0.079073235 -0.032064117 0.0017426683 -0.04525749 0.032204166 0.0024546143
-0.022520246 0.030830754 0.040291023 -0.023288045 0.09727107 0.06826865 0.062937565 -0.022175886
-0.03242934 0.06524641 -0.03786767 0.11751584 -0.07366402 -0.017293246 -0.031640127 0.09678959
0.12778431 0.006558827 0.016738288 -0.015342053 0.054045193 -0.009337552 -0.0026730741 0.09484875
0.027667228 -0.05194506 0.07652387 0.026498312 -0.051658086 0.046330668 -0.030206354 -0.0023607595
0.023847204 -0.04517776 0.055099428 -0.06156213 -0.03494228 0.033231195 -0.037780177 0.03576522
-0.06109401 0.0031855707 0.048907 -0.14422268 0.08681695 0.039636675 -0.030572515 -0.0073862798
-0.0040268158 -0.012912088 -0.049841326 0.011058156 -0.027121766 0.015144784 0.060769487 0.0094506685
-0.050761215 0.047461934 0.028608875 -0.08457015 0.057419058 -0.021216588 -0.12556042 0.08763741
-0.05717587 0.011836034 0.008474602 -0.027378658 -0.034848742 0.06452959 -0.0488795 0.05262332
-0.037736166 -0.005780836 -0.06747846 -0.06133749 0.0095047215 0.042077187 0.035657577 -0.03203054
-0.03643581 0.0513744 0.003381822 0.06408267 0.012931758 0.11173631 0.026062252 0.07740912
-0.024320763 -0.017166946 0.106312364 0.0046109236 0.0145950485 -0.03096283 -0.03753222 -0.031821035
0.036801964 0.0027415664 0.08558434 0.025755035 -0.044210363 0.026560655 0.070866145 -0.045283545
-0.08332541 -0.017194953 -0.019014075 0.055292264 0.07363703 0.026743801 -0.06152646 -0.028518904
-0.00986666 0.0012442144 -0.0033930333 0.047076393 0.11284999 -0.06283449 0.05245799 -0.017446801
00000000: ff4c 9abc 4f63 393d d093 9ebd ad7c 8d3d
00000010: d24c ccbc a4ed 1ebd fac6 c9bd 60bb 873d
00000020: 6d3f e6bc 60a4 8e3c a93f 713a b155 57bd
00000030: 54c6 2b3d c970 c03c 05c4 6dbc dcb9 64bb
00000040: 9d66 8d3d d0d0 90bc 52c9 4ebb 9839 a23d
00000050: ad6c b93b 0051 b0bc 4952 8ebd 4eeb ed3c
00000060: 7a38 ef3c 9529 223b f581 573b 0d78 e7bd
00000070: fd19 693d 0f67 033d 0480 313d d2a9 8e3d
00000080: 246c 6c3c 4b44 793d adfb 573d 3979 0cbd
00000090: 81ab f6bc 4bef 53bd 9621 b3bd 50e4 a5bc
000000a0: dfc2 17ba 0876 eb3c eb42 073d 27de d73c
000000b0: d4bb 2dbc ca27 38bd 3741 b3bb 6e1f 1d3d
000000c0: 8d3d 4fbd db8f 173d 8808 d8bc 18cb 8a3d
000000d0: 0f88 ba3c 0c85 e1bd b138 1dbd 6e35 1ebd
000000e0: 812e 763c 70cf 3dbd 5739 99bd a869 21bb
000000f0: eccb 1abc 209b a93d b781 f6bd 0761 69bc
00000100: 0f20 c13c 3bf0 91bc 170f 3bbd 9c08 90bc
00000110: a419 cc3c 782f 8fbd ec7f 6c3d 060b 13bd
00000120: bf0d 093d 0498 82bc 49c0 633d 5e27 b4bb
00000130: 7edf 3bbd 87f6 da3a 13a8 d13c 36ad 25bd
00000140: fb20 16bd 9380 27bd 4224 c9bd 2d91 85bd
00000150: 0ff3 ca3d 8908 8ebd b167 debd dc9c 4fbc
00000160: 41bd bf3d caa8 093d 29e6 ff3c 972a a83d
00000170: da65 e4bc 6071 553c 06c3 b5bb 6918 9f3d
00000180: 6fee 7ebd 26a2 8ebd f213 d4bc b935 943d
00000190: abec 5a3d bb6d 9bbc 88e7 41bd 7c66 0cbd
000001a0: 1a38 313d a754 15bd eaa1 0dbd a141 bc3d
000001b0: 0071 42bd ac50 b2bb 133b b53c 0612 3abb
000001c0: 6af1 4d3d 663a 56bc 9f4f 5a3d 0f86 013d
000001d0: 28ac 643d f4f5 0d3c 4c78 8c3c 83f3 5bbc
000001e0: e47e 943c 65c7 d03b 485f 5b3d a4e9 be3a
000001f0: 4fd6 203d 05e8 8e3d e86f ca3d a1a2 583a
00000200: 3cb3 18bd b2ac a2bd 26f1 a13d aa55 03bd
00000210: 3f6a e43a eb5f 39bd 84e8 033d 98dd 203b
00000220: 617c b8bc c790 fc3c 3308 253d 92c6 bebc
00000230: 0e36 c73d 6fd0 8b3d 69e5 803d 34aa b5bc
00000240: a1d4 04bd e99f 853d 211b 1bbd 25ac f03d
00000250: 29dd 96bd 91aa 8dbc 1499 01bd 9f39 c63d
00000260: e4d9 023e 6eeb d63b bc1e 893c 3c5d 7bbc
00000270: 7e5e 5d3d 88fc 18bc be2e 2fbb 1040 c23d
00000280: 62a6 e23c 58c4 54bd 8cb8 9c3d fd12 d93c
00000290: 6e97 53bd 3ac5 3d3d 5173 f7bc f9b6 1abb
000002a0: 365b c33c 510c 39bd f0af 613d 9228 7cbd
000002b0: a31f 0fbd 6f1d 083d 63bf 1abd 8d7e 123d
000002c0: b63d 7abd 02c5 503b b552 483d 1caf 13be
000002d0: 16cd b13d 115a 223d 3673 fabc 9b08 f2bb
000002e0: 61f3 83bb 398d 53bc 6b26 4cbd 452d 353c
000002f0: 772e debc d421 783c 6de9 783d fad6 1a3c
00000300: feea 4fbd 7267 423d 295d ea3c 1d33 adbd
00000310: 3f30 6b3d 69ce adbc e992 00be 3e7b b33d
00000320: 3f31 6abd edeb 413c 0fd9 0a3c 3549 e0bc
00000330: 8ebd 0ebd 1728 843d df35 48bd 8d8b 573d
00000340: 3d91 1abd 2b6d bdbb 2632 8abd 053d 7bbd
00000350: b1b9 1b3c 2159 2c3d ae0d 123d 7532 03bd
00000360: b73d 15bd f66d 523d 8fa1 5d3b c63d 833d
00000370: b9df 533c 02d6 e43d 8180 d53c ac88 9e3d
00000380: 563c c7bc b2a1 8cbc 4cba d93d 3b17 973b
00000390: 1220 6f3c c3a5 fdbc 63bb 19bd c656 02bd
000003a0: a8bd 163d daab 333b d846 af3d 39fc d23c
000003b0: ed15 35bd bb95 d93c 4522 913d 3d7b 39bd
000003c0: 83a6 aabd 6edc 8cbc 68c3 9bbc 247a 623d
000003d0: 03cf 963d d115 db3c 2b03 7cbd 7aa0 e9bc
000003e0: c6a7 21bc e814 a33a a75d 5ebb 2dd3 403d
000003f0: e51d e73d 5eaf 80bd 30de 563d 98ec 8ebc

conv_layers.0.bias f4 [64]
0.011606629 -0.14604308 0.033833288 -0.059672117 0.018143948 -0.10714035 -0.109409586 -0.0074434928
-0.07857572 0.0135197835 0.008079479 0.046017356 0.03650022 -0.040886983 -0.050233185 -0.053020313
0.17066273 0.044579905 0.086471245 -0.037115313 -0.025401495 0.010103814 -0.04725592 -0.014089269
0.0869723 0.029715387 0.00010463518 -0.07270984 -0.059464 -0.06527276 0.006061226 0.082435615
-0.0622401 0.019698123 0.058948077 0.0043823994 -0.00641741 0.062433597 -0.106101416 -0.000394049
-0.08113822 -0.024459852 0.0077765863 0.0019301507 -0.04060493 -0.003443908 -0.016151417 -0.0433063
-0.0020195784 0.070843294 -0.11062767 0.021750128 0.06801893 -0.087560825 0.031329557 0.01929617
-0.09584612 -0.10651426 -0.033028666 -0.038250107 0.093199864 -0.036885116 -0.009966723 -0.06925641
00000000: bb29 3e3c 518c 15be c694 0a3d c06a 74bd
00000010: 9ea2 943c 666c dbbd 2212 e0bd 8be8 f3bb
00000020: 4fec a0bd 1582 5d3c cb5f 043c b27c 3c3d
00000030: 4181 153d 1c79 27bd 50c1 4dbd d42b 59bd
00000040: 36c2 2e3e 6b99 363d d617 b13d 3a06 18bd
00000050: cc16 d0bc 788a 253c 6c8f 41bd add6 66bc
00000060: 891e b23d af6d f33c 966f db38 e6e8 94bd
00000070: 8690 73bd baad 85bd 409d c63b 01d4 a83d
00000080: 7aef 7ebd f55d a13c 8a73 713d 3b9a 8f3b
00000090: 2349 d2bb 5fba 7f3d b34b d9bd 5d98 ceb9
000000a0: cc2b a6bd 0760 c8bc bcd2 fe3b 1cfd fc3a
000000b0: 5b51 26bd 30b3 61bb fa4f 84bc f261 31bd
000000c0: e75a 04bb 4a16 913d c390 e2bd 532d b23c
000000d0: 824d 8b3d 1753 b3bd 6c53 003d 0013 9e3c
000000e0: f84a c4bd 2624 dabd 1149 07bd 25ac 1cbd
000000f0: 92df be3d d914 17bd 774b 23bc 4ed6 8dbd

conv_layers.1.weight f4 [64, 256, 3]
0.018320575 0.02026547 -0.015965717 0.045870297 -0.0054741837 0.035804592 0.018288262 0.096703045
-0.012624826 -0.029851729 -0.01471292 -0.020414108 0.07359745 -0.03031331 0.021035308 -0.05011528
0.008645452 0.08788139 -0.054796405 0.0084881205 -0.03276288 -0.07486197 0.014547946 -0.0005328143
0.007972917 0.0149021605 -0.09258016 -0.075874776 0.0827396 -0.017064618 -0.014993683 -0.05780485
0.017392773 -0.006775855 0.039821956 0.071716405 -0.03352475 0.0010822166 0.084298685 -0.032972638
0.024796056 -0.009234573 -0.019949483 0.021078706 0.04825466 -0.0064308182 0.072360225 0.001709452
0.012987748 0.0009739293 0.06037064 -0.084690005 0.057112902 0.017337846 0.024433358 -0.063410856
-0.023986977 0.043671966 -0.044145353 0.026057234 -0.00051540893 -0.077456445 0.07271034 -0.08688977
0.020491034 -0.01365604 0.08419614 0.012022022 0.059422348 -0.045136523 -0.043034174 0.03023128
-0.11655716 0.1058153 0.029339777 -0.025212212 0.17589459 -0.010437856 -0.05949957 -0.0010746607
0.034800265 -0.03024994 0.05547611 0.023400541 0.0739172 -0.031230865 0.022207672 -0.061704095
0.05199661 -0.07658533 -0.061973024 0.031298183 -0.025648294 0.0027056911 0.038935576 0.0048688226
-0.12316713 0.008838294 -0.079943985 0.1263127 0.01808204 -0.030713523 -0.0017533352 0.025641013
0.0011451893 0.025026187 0.05101914 -0.043484177 -0.014850906 0.02898044 0.07474794 0.022374162
0.003986203 0.031059405 -0.08287144 0.08254763 0.02201012 0.05955651 -0.04191068 -0.0038442048
0.06555 0.044115055 0.03600527 -0.028191747 0.006022403 -0.08671898 0.067784876 -0.021860091
0.05202352 -0.040668745 0.10054992 0.048108514 -0.030425018 -0.017714461 0.020165749 0.04175741
-0.0821849 -0.06745471 0.028863711 -0.027533758 0.07791646 0.015064763 0.076192684 -0.026773052
0.070014365 0.067700155 0.0020039543 -0.009615907 -0.024418395 -0.02991354 -0.05363379 -0.06007874
0.05396902 0.030494828 0.004429208 -0.04014913 0.015404213 -0.024722213 -0.02147354 -0.038704637
0.022634797 0.022159573 0.026068158 0.03140064 0.033966683 0.009060045 0.047205538 -0.032091197
-0.020947434 0.012616801 0.017008098 0.020769011 0.021297636 -0.0065916055 0.06282063 0.06603796
-0.055137232 0.077336885 -0.034571953 -0.060869306 0.077583715 0.03146176 0.07532456 -0.004281375
-0.007938928 0.0075820726 0.023635527 -0.046801858 -0.04030989 0.014438477 -0.0628892 -0.11096296
0.05347673 -0.06482658 -0.0863503 0.06579809 0.10066945 0.040660977 -0.020117616 0.050256684
0.05580572 -0.114476144 0.033766355 -0.029674614 0.026533306 -0.03293286 0.049413636 -0.008791167
-0.04478732 -0.06799779 0.012964363 -0.103226244 0.0029739127 -0.04617686 -0.033884518 0.050643604
0.061761066 -0.022443116 0.0027517613 0.029034475 0.01881526 0.009993946 -0.015712684 0.1021788
-0.024952393 -0.031290185 -0.036275633 -0.09154648 0.053585947 0.11563446 0.04549187 0.042372577
-0.010784511 -0.051404558 0.045539048 0.053736348 -0.048770856 0.08758952 0.07191268 -0.00086189556
-0.0030723528 0.10321538 -0.053138748 0.029447876 -0.03083194 0.031670544 -0.01177715 0.0928368
0.050465155 -0.09703312 0.035497956 0.030972613 -0.04311165 0.13226129 -0.001873225 0.023265388
00000000: 0815 963c c503 a63c 89ca 82bc 7ee2 3b3d
00000010: c860 b3bb d6a7 123d 44d1 953c 3f0c c63d
00000020: 5cd8 4ebc 9d8b f4bc 760e 71bc 7d3b a7bc
00000030: 43ba 963d 9e53 f8bc 3d52 ac3c ae45 4dbd
00000040: a7a5 0d3c 28fb b33d 3272 60bd c211 0b3c
00000050: 5f32 06bd 3c51 99bd 825a 6e3c 90ac 0bba
00000060: d6a0 023c 3128 743c ab9a bdbd 3c64 9bbd
00000070: 6173 a93d 19cb 8bbc 11a8 75bc c7c4 6cbd
00000080: 4a7b 8e3c fe07 debb 591c 233d 0de0 923d
00000090: 4051 09bd 2ad9 8d3a caa4 ac3d 510e 07bd
000000a0: 1921 cb3c 9b4c 17bc 196d a3bc 40ad ac3c
000000b0: aea6 453d 9db9 d2bb 9931 943d b10f e03a
000000c0: 90ca 543c 4a4f 7f3a 3447 773d f471 adbd
000000d0: 38ef 693d 1908 8e3c 7728 c83c 8ddd 81bd
000000e0: 5680 c4bc 60e1 323d c2d1 34bd fb75 d53c
000000f0: 821c 07ba 7ca1 9ebd 29e9 943d 44f3 b1bd
00000100: d0dc a73c 95bd 5fbc 076f ac3d 04f8 443c
00000110: d964 733d 13e1 38bd 9a44 30bd 97a7 f73c
00000120: 85b5 eebd b1b5 d83d f959 f03c d789 cebc
00000130: b61d 343e 8b03 2bbc d2b5 73bd a1db 8cba
00000140: b98a 0e3d b9ce f7bc eb3a 633d 7eb2 bf3c
00000150: e761 973d dfd7 ffbc ddec b53c 6fbd 7cbd
00000160: 66fa 543d c5d8 9cbd 6dd7 7dbd 8632 003d
00000170: 5f1c d2bc f751 313b e97a 1f3d a58a 9f3b
00000180: 0c3f fcbd 7ece 103c acb9 a3bd 1e58 013e
00000190: c920 943c ed9a fbbc 2bd0 e5ba 1a0d d23c
000001a0: 2d1a 963a b803 cd3c 72f9 503d 771c 32bd
000001b0: 3751 73bc 6368 ed3c 7315 993d 054a b73c
000001c0: b29e 823b 4b70 fe3c 80b8 a9bd bb0e a93d
000001d0: 914e b43c 87f1 733d 88aa 2bbd 0eef 7bbb
000001e0: 143f 863d fdb1 343d 437a 133d 61f2 e6bc
000001f0: 9457 c53b b899 b1bd ccd2 8a3d ef13 b3bc
00000200: 9d16 553d 4594 26bd 1eed cd3d 6f0d 453d
00000210: e33d f9bc eb1d 91bc a432 a53c d109 2b3d
00000220: 8f50 a8bd b225 8abd 9773 ec3c 7a8e e1bc
00000230: aa92 9f3d 32d2 763c e90a 9c3d 2953 dbbc
00000240: b163 8f3d 61a6 8a3d c654 033b 0a8c 1dbc
00000250: 1609 c8bc 3e0d f5bc 1baf 5bbd 2015 76bd
00000260: 9e0e 5d3d 4ad0 f93c e422 913b 6a73 24bd
00000270: f461 7c3c 3d86 cabc 47e9 afbc c188 1ebd
00000280: 9c6c b93c fe87 b53c e48c d53c f59d 003d
00000290: a620 0b3d 9570 143c 985a 413d 0f72 03bd
000002a0: f499 abbc b3b6 4e3c 9154 8b3c c623 aa3c
000002b0: 6178 ae3c 65fe d7bb 1aa8 803d e93e 873d
000002c0: 94d7 61bd cd62 9e3d 529b 0dbd 1852 79bd
000002d0: 36e4 9e3d 0cde 003d c343 9a3d c74a 8cbb
000002e0: 4712 02bc 0973 f83b 4b9f c13c 4eb3 3fbd
000002f0: fc1b 25bd 5d8f 6c3c 0ecc 80bd 8c40 e3bd
00000300: 6a0a 5b3d ccc3 84bd 6dd8 b0bd 26c1 863d
00000310: c92b ce3d 208c 263d b3cd a4bc f4d9 4d3d
00000320: 8a94 643d 7872 eabd 974e 0a3d 2d18 f3bc
00000330: 605c d93c 9be4 06bd f465 4a3d d408 10bc
00000340: e972 37bd 6d42 8bbd 7b68 543c 4868 d3bd
00000350: fae5 423b f223 3dbd 7eca 0abd ab6f 4f3d
00000360: 2cf9 7c3d a0da b7bc e556 343b b5d9 ed3c
00000370: 7622 9a3c a6bd 233c e3b7 80bc 1e43 d13d
00000380: f668 ccbc 232a 00bd c295 14bd b97c bbbd
00000390: f07c 5b3d c2d1 ec3d af55 3a3d de8e 2d3d
000003a0: 85b1 30bc 968d 52bd 2787 3a3d a51a 5c3d
000003b0: f3c3 47bd 2262 b33d f546 933d d5f0 61ba
000003c0: 8759 49bb 9662 d33d 04a8 59bd ac3c f13c
000003d0: 4493 fcbc f9b8 013d f3f4 40bc 3821 be3d
000003e0: 8db4 4e3d 4db9 c6bd 4e66 113d 47ba fd3c
000003f0: d795 30bd 816f 073e 0087 f5ba 0e97 be3c

conv_layers.1.bias f4 [64]
-0.14464289 -0.04982573 0.018481392 0.05455151 0.03967963 0.08831345 -0.015689213 0.034162223
0.10078285 -0.013225658 -0.06420517 -0.10050701 0.03444378 -0.08509589 0.044976816 0.09578647
-0.055869136 0.053277418 -0.017029533 -0.072011255 0.07853592 0.045327332 -0.014809894 -0.004876707
0.027522657 -0.033935733 0.006255256 0.010684253 -0.026428187 -0.041657828 -0.039871108 -0.052083075
0.04773104 -0.00429813 -0.1570133 -0.028748985 -0.11129043 -0.0053949994 -0.03672283 0.07393427
-0.076569356 0.005264003 -0.06310025 0.028657079 0.008303519 -0.10246539 -0.111948535 0.0071644047
-0.08490502 -0.042021837 0.023310078 -0.027466912 0.026930638 0.06300447 0.028002977 -0.03082944
-0.005951102 -0.023503128 -0.047397885 0.0015313701 -0.04959513 -0.032842085 -0.024104934 0.0035348625
00000000: 441d 14be 1116 4cbd 4a66 973c 6771 5f3d
00000010: 1c87 223d afdd b43d aa86 80bc b0ed 0b3d
00000020: 3d67 ce3d 6eb0 58bc 007e 83bd 9fd6 cdbd
00000030: ec14 0d3d c146 aebd 9c39 383d b22b c43d
00000040: 09d7 64bd 6c39 5a3d 8581 8bbc a37a 93bd
00000050: 71d7 a03d 27a9 393d 33a5 72bc c9cc 9fbb
00000060: 3277 e13c 3200 0bbd e4f8 cc3b 010d 2f3c
00000070: ed7f d8bc 66a1 2abd e34f 23bd 1055 55bd
00000080: 9f81 433d 54d7 8cbb 18c8 20be fe82 ebbc
00000090: 3dec e3bd 89c8 b0bb ae6a 16bd da6a 973d
000000a0: 65d0 9cbd a87d ac3b b43a 81bd 40c2 ea3c
000000b0: 7c0b 083c 60d9 d1bd 4645 e5bd 62c3 ea3b
000000c0: afe2 adbd 171f 2cbd c7f4 be3c 4a02 e1bc
000000d0: a49d dc3c 7d08 813d 8066 e53c 068e fcbc
000000e0: 7601 c3bb a289 c0bc 4924 42bd 41b8 c83a
000000f0: 4324 4bbd 6c85 06bd b677 c5bc 27a9 673b

conv_layers.2.weight f4 [64, 256, 4]
0.124120295 -0.015501812 -0.02416555 0.015370109 -0.038260326 0.03697336 0.052094866 -0.006914557
-0.0136090545 -0.034349777 -0.001560041 0.10860573 0.03945488 0.03697141 -0.010302784 0.036258135
-0.04214578 0.00018789097 -0.01666702 -0.030642634 0.03231213 -0.04038565 0.040222228 -0.0604565
0.09709614 0.016808862 -0.11017977 -0.010461753 0.017709274 0.0075288825 -0.04153381 0.04485192
0.06641759 0.083622314 -0.0006088437 0.030713627 -0.0868289 0.01131702 -0.071818404 -0.022908114
0.014173433 -0.03129782 -0.003944214 0.00094887055 0.030978955 -0.10403221 0.010746115 0.0059112716
0.029694343 -0.007868967 -0.03350622 -0.0024189604 -0.06009372 -0.10109407 0.008016989 -0.016020222
-0.051466122 0.01823728 -0.026230019 0.03907286 0.021287272 -0.010289484 0.029474465 0.08304389
0.08517383 -0.022099 0.034879092 -0.07412197 -0.007660994 -0.0352279 0.091928504 0.08471414
-0.07486831 -0.016563928 -0.051527433 0.0015375385 0.0058501256 0.020650223 0.070238896 -0.055200294
0.0011901557 -0.013144233 -0.04194908 -0.043905307 0.002099935 -0.0073132413 -0.030344583 0.00555667
-0.023808239 -0.0152540365 -0.045005724 0.038327746 0.0536887 0.038297325 -0.09687151 -0.020779023
0.05844538 -0.1143906 0.10077673 -0.0032990933 0.086436085 -0.03908454 -0.025179308 -0.0555601
0.052552443 -0.005241139 0.02857684 0.02263928 0.043469004 -0.0016471036 -0.034632858 -0.015844997
0.023592282 -0.03634585 -0.012638455 0.023613451 0.025696898 0.033831768 0.018290108 -0.0065920823
0.061295133 0.027192365 0.040549494 -0.020078612 0.018280225 -0.03854931 0.08404421 0.1017291
0.020030458 -0.005071312 -0.0017113788 -0.03307549 -0.055749275 0.04825941 0.031598 -0.017952368
-0.02986695 -0.08198984 -0.044065885 0.03392932 0.005620425 -0.13475625 0.08006221 -0.03917127
0.008047739 -0.033303782 -0.008048251 -0.082732484 -0.11327131 0.034575656 0.07714143 -0.049086276
0.053553686 0.022822428 -0.03303817 0.014709352 -0.027062196 0.060466047 -0.05501289 -0.02863965
-0.013589991 0.04544621 0.015626976 0.030966561 0.011161734 -0.037707914 0.07327294 -0.0088234935
-0.0671016 -0.001672994 0.043888625 0.0090439785 0.027474312 -0.02266649 0.013275131 0.09082458
-0.020709796 -0.04476493 0.0064010876 -0.03440217 -0.0009240282 0.169987 0.012912973 -0.067287646
-0.04859784 0.022415433 0.06685912 -0.036906287 0.028174015 0.02138762 -0.035160642 0.016413989
-0.034156423 0.076000646 -0.02966607 0.01379766 -0.03693316 0.0646494 -0.039098166 0.0602517
0.049115647 -0.10610364 0.015545489 0.07542249 -0.03336367 -0.0013581672 -0.117321655 -0.038391903
0.06864575 0.042487826 0.028470572 0.06989771 0.010167232 -0.03393909 -0.13241622 -0.00871041
-0.021327486 0.047629442 -0.027542295 0.025064006 0.079303645 0.059149154 0.027138483 0.016769713
0.05253985 0.04286934 -0.04580663 0.055006802 -0.02799791 0.05267934 -0.015632538 -0.015815128
0.04406919 0.032368094 -0.02748101 0.07909517 0.009649212 -0.005087113 0.00084285927 -0.032893743
0.02999705 -0.015167813 0.03660052 -0.0039833062 -0.0006807642 -0.013451484 -0.06499538 -0.018852374
0.00680237 0.066411756 0.02959692 -0.009763844 -0.084196255 -0.02920114 0.049424358 0.077011764
00000000: c832 fe3d 50fb 7dbc d5f6 c5bc e9d2 7b3c
00000010: dcb6 1cbd 6171 173d 6d61 553d 8293 e2bb
00000020: 83f8 5ebc 5ab2 0cbd 4a7a ccba ae6c de3d
00000030: 719b 213d 556f 173d 02cd 28bc 6983 143d
00000040: 0ea1 2cbd 9904 4539 4689 88bc 4306 fbbc
00000050: b959 043d 6c6b 25bd 10c0 243d 3ca1 77bd
00000060: 57da c63d bdb2 893c eea5 e1bd c667 2bbc
00000070: 0a13 913c d8b4 f63b 5b1f 2abd a6b6 373d
00000080: f205 883d 2d42 ab3d cf9a 1fba 259b fb3c
00000090: 5ad3 b1bd 066b 393c 8715 93bd cca9 bbbc
000000a0: b037 683c 2532 00bd 773e 81bb a0bd 783a
000000b0: 94c7 fd3c d70e d5bd 7910 303c 57b3 c13b
000000c0: 8d41 f33c d7ec 00bc d13d 09bd 6c87 1ebb
000000d0: d524 76bd 680a cfbd b059 033c d73c 83bc
000000e0: 24ce 52bd 5966 953c 56e0 d6bc dd0a 203d
000000f0: a562 ae3c 3995 28bc 6f74 f13c ea12 aa3d
00000100: 9e6f ae3d f608 b5bc 61dd 0e3d 42cd 97bd
00000110: 1309 fbbb 214b 10bd 0345 bc3d 9b7e ad3d
00000120: 8e54 99bd 13b1 87bc 6e0e 53bd 3b87 c93a
00000130: 69b2 bf3b a82a a93c 69d9 8f3d b419 62bd
00000140: 00ff 9b3a e95a 57bc ccd2 2bbd 0dd6 33bd
00000150: 109f 093b eaa3 efbb 3495 f8bc ba14 b63b
00000160: 7f09 c3bc 11ec 79bc ec57 38bd 8efd 1c3d
00000170: afe8 5b3d a8dd 1c3d 9264 c6bd c538 aabc
00000180: 6c64 6f3d 9e45 eabd 0864 ce3d 9a35 58bb
00000190: 6705 b13d 1c17 20bd d644 cebc fd92 63bd
000001a0: 3b41 573d dcbd abbb fa19 ea3c 0376 b93c
000001b0: 8e0c 323d a0e3 d7ba 2fdb 0dbd 5ecd 81bc
000001c0: 9a44 c13c 63df 14bd 8611 4fbc ff70 c13c
000001d0: 4d82 d23c 2e93 0a3d 23d5 953c 6502 d8bb
000001e0: 9b10 7b3d 86c2 de3c 3a17 263d e77b a4bc
000001f0: 69c0 953c e2e5 1dbd 5f1f ac3d 5957 d03d
00000200: ea16 a43c 402d a6bb 5850 e0ba 2a7a 07bd
00000210: 5a59 64bd a9ab 453d e86c 013d d810 93bc
00000220: 89ab f4bc 4aea a7bd 6e7e 34bd 78f9 0a3d
00000230: 8b2b b83b 8bfd 09be a8f7 a33d 0e72 20bd
00000240: aada 033c 8c69 08bd d0dc 03bc a66f a9bd
00000250: cafa e7bd 349f 0d3d 53fc 9d3d b10e 49bd
00000260: 1c5b 5b3d 1af6 ba3c 0853 07bd 7eff 703c
00000270: 8ab1 ddbc 3fab 773d 3255 61bd b39d eabc
00000280: 8ea8 5ebc ce25 3a3d 2504 803c 96ad fd3c
00000290: b5df 363c 9d73 1abd 2010 963d 6a90 10bc
000002a0: 906c 89bd 5d48 dbba 8fc4 333d 322d 143c
000002b0: cf11 e13c 13af b9bc ef7f 593c 3d02 ba3d
000002c0: 97a7 a9bc 6e5b 37bd 37c0 d13b 4ae9 0cbd
000002d0: 7c3a 72ba 1211 2e3e ef90 533c 1bce 89bd
000002e0: 870e 47bd 92a0 b73c 6fed 883d 0c2b 17bd
000002f0: 31cd e63c 1735 af3c 9b04 10bd a176 863c
00000300: 9be7 0bbd 3aa6 9b3d 4206 f3bc 950f 623c
00000310: 3a47 17bd e866 843d 6625 20bd 7dca 763d
00000320: 7d2d 493d dd4c d9bd 82b2 7e3c 1b77 9a3d
00000330: 58a8 08bd 8704 b2ba 5646 f0bd d440 1dbd
00000340: 2596 8c3d b707 2e3d 1e3b e93c 8826 8f3d
00000350: 7694 263c b703 0bbd 1e98 07be 1cb6 0ebc
00000360: fbb6 aebc 1717 433d 61a0 e1bc 0853 cd3c
00000370: f369 a23d 6246 723d 8651 de3c a360 893c
00000380: 0734 573d c397 2f3d bc9f 3bbd d04e 613d
00000390: df5b e5bc 4bc6 573d cf0f 80bc ba8e 81bc
000003a0: e581 343d 6894 043d db1f e1bc a6fc a13d
000003b0: ba17 1e3c ccb1 a6bb 54f3 5c3a 97bb 06bd
000003c0: 60bc f53c 6b82 78bc 6dea 153d 6586 82bb
000003d0: 5075 32ba 9d63 5cbc 4c1c 85bd 4b70 9abc
000003e0: 6ae6 de3b e302 883d 3d75 f23c 88f8 1fbc
000003f0: 166f acbd 3b37 efbc 3271 4a3d 58b8 9d3d

conv_layers.2.bias f4 [64]
-0.008940781 0.030017082 0.027081687 0.0038151552 -0.016236456 0.013870708 0.06670516 -0.00230358
0.08148355 0.008118646 0.0686885 0.07553202 -0.08842035 0.066442706 -0.027533691 -0.096667156
-0.10037595 -0.023232523 -0.016436895 -0.0060333633 -0.0074820053 -0.0956813 0.08177777 -0.015326437
-0.05814502 0.020099286 0.024927488 -0.09143529 0.026353396 -0.012243181 0.0282564 0.006520423
0.008961083 0.035815157 0.091633774 -0.04486708 -0.0667294 0.005951729 0.06954315 0.04812387
0.062125433 0.04275958 -0.040896464 0.038984332 0.040758483 0.091563016 -0.046664145 0.036223155
0.07847833 -0.0374003 0.02045839 -0.1408011 -0.0792401 -0.091411866 -0.04342481 -0.1099129
0.005792135 0.05859349 -0.067797184 -0.07126798 0.07599683 -0.048256848 0.06351529 0.00846961
00000000: 5a7c 12bc 62e6 f53c 6ada dd3c af07 7a3b
00000010: 5102 85bc f741 633c b79c 883d a9f7 16bb
00000020: d9e0 a63d 1204 053c 8eac 8c3d 88b0 9a3d
00000030: ba15 b5bd 1d13 883d 568e e1bc 6ef9 c5bd
00000040: e891 cdbd 2252 bebc aba6 86bc 85b3 c5bb
00000050: 9c2b f5bb 8ff4 c3bd 1a7b a73d bc1b 7bbc
00000060: 7929 6ebd 42a7 a43c bb34 cc3c 6d42 bbbd
00000070: 14e3 d73c 9f97 48bc f779 e73c 46a9 d53b
00000080: 82d1 123c eab2 123d 7daa bb3d 8bc6 37bd
00000090: 6ca9 88bd b906 c33b a46c 8e3d 891d 453d
000000a0: 3d77 7e3d ab24 2f3d 0d83 27bd 09ae 1f3d
000000b0: 5ef2 263d 6485 bb3d e722 3fbd bb5e 143d
000000c0: 3fb9 a03d 0f31 19bd 5a98 a73c 2a2e 10be
000000d0: a248 a2bd 2536 bbbd 37de 31bd 041a e1bd
000000e0: f3cb bd3b baff 6f3d 40d9 8abd f2f4 91bd
000000f0: 3aa4 9b3d f9a8 45bd 4e14 823d 1ec4 0a3c

conv_layers.3.weight f4 [64, 256, 5]
0.012236659 0.048143417 0.04012524 -0.107181124 0.04779791 -0.06661129 0.13247077 -0.0047792983
0.044284474 0.08085721 0.066856764 -0.012663751 -0.08029634 0.09877681 -0.017726133 0.0025412366
-0.008183179 0.14334494 -0.028609976 0.0212216 -0.017051568 -0.07159053 -0.032215796 0.015897
-0.060657572 0.028559921 0.051508356 0.057507083 -0.023501026 -0.08727668 -0.034609005 -0.044888865
0.06365764 0.13933474 0.015394161 0.017276123 0.013292696 0.0027898343 -0.013629092 0.009872421
-0.017531537 -0.0006804585 -0.060244184 0.0026246316 0.05601422 0.0011911661 -0.014073439 -0.022081725
0.056630917 0.048365984 0.022171931 -0.04623413 -0.06394094 -0.02491883 -0.016795691 -0.0026427007
-0.0064364597 -0.0413183 -0.004097211 -0.09094984 -0.037892386 -0.0075769457 0.09559985 -0.06735674
-0.02418892 -0.041067865 0.045186453 0.056910384 0.08281493 -0.017603138 0.055854592 -0.008724192
-0.08512271 -0.09127424 -0.022641271 0.0028864644 0.04308397 0.072711304 -0.054933444 -0.0074870884
-0.058391023 0.061979167 -0.029703163 0.09830961 -0.08099647 0.024211692 0.0032415364 0.029909337
0.035284586 0.0016307547 -0.038300984 0.09105227 0.034510963 0.014855117 -0.033820007 0.062484995
0.056874588 -0.00903508 0.066234045 0.115268305 0.04323077 -0.11511799 0.026149126 0.100243874
-0.049750376 0.044184793 0.056358855 -0.07367982 0.03136949 0.0037475906 0.04745765 -0.07800659
0.08868012 -0.03549438 -0.013548392 -0.017287942 0.05669351 -0.0061343187 -0.025206445 0.017575251
-0.054974 -0.0037732434 -0.02055014 0.009096214 -0.06317498 0.06013029 0.057457846 0.060043823
0.047876745 0.14139336 -0.044452045 0.02546716 -0.022687647 -0.0065104584 -0.019784197 -0.085364066
-0.00067152624 -0.08301988 -0.045004558 -0.012514032 0.017076219 -0.028932117 -0.00906051 -0.028793264
-0.06219546 -0.042484444 0.018437602 0.04068541 0.074688 -0.10491149 0.12076695 -0.021941397
0.005359804 -0.051258378 -0.005263035 -0.054602757 0.034095027 0.074404 -0.05472998 -0.05187914
0.015340825 0.026848601 -0.0089113 -0.0062203556 -0.0021452876 -0.015195024 -0.1257013 0.016242132
0.071702905 -0.060913518 -0.01757264 -0.010322855 -0.011569613 0.036451302 -0.071025014 0.08090099
0.01256007 -0.04606441 -0.014269398 0.03135004 0.032507755 0.05805626 0.07119729 0.019655064
-0.012513656 -0.061648883 0.00446565 -0.061803345 -0.03365235 0.07216506 -0.04341712 0.06769991
0.027518192 0.03165353 -0.0008963723 0.08028141 -0.04442532 -0.02148527 -0.02871363 0.034399904
0.028633807 0.07767053 -0.042820003 -0.018526813 0.04513072 0.06087158 0.011301863 0.014749286
0.09587868 0.009473573 0.053455394 0.045144428 -0.023222256 0.04957317 0.013413298 0.13308485
-0.022661857 -0.023550937 -0.17322606 -0.12545222 0.14606391 0.026221784 -0.093272656 -0.040867627
-0.06738711 -0.022165997 -0.00595384 -0.015053365 -0.018715965 -0.017153876 -0.03612685 0.017276783
0.036340367 0.03606202 -0.04410469 -0.059698205 0.00597235 0.039704707 0.0019027591 -0.02998605
0.045394935 -0.05467322 -0.008855139 0.067157224 0.004568358 0.004263678 -0.02751377 -0.0048775882
0.00089853065 0.007931874 -0.03685582 0.06667257 0.00982013 0.06107665 -0.088635735 0.045135967
00000000: 457c 483c 0832 453d 5d5a 243d c781 dbbd
00000010: bec7 433d 806b 88bd 6ba6 073e a99b 9cbb
00000020: a363 353d 7798 a53d 33ec 883d 9f7b 4fbc
00000030: 6872 a4bd 7f4b ca3d 6536 91bc e08a 263b
00000040: be12 06bc 04c9 123e 785f eabc ecd8 ad3c
00000050: bbaf 8bbc 0e9e 92bd b6f4 03bd 6d3a 823c
00000060: 1374 78bd 7ff6 e93c 6dfa 523d 8c8c 6b3d
00000070: 3985 c0bc 1ebe b2bd 2cc2 0dbd 63dd 37bd
00000080: f05e 823d c4ad 0e3e cb37 7c3c a886 8d3c
00000090: 9cc9 593c a7d5 363b 8e4c 5fbc efbf 213c
000000a0: 4c9e 8fbc cc60 32ba 9bc2 76bd 0302 2c3b
000000b0: 2b6f 653d e720 9c3a 4894 66bc bce4 b4bc
000000c0: d2f5 673d 691b 463d e9a1 b53c 0060 3dbd
000000d0: 78f3 82bd 9322 ccbc 1e97 89bc 2931 2dbb
000000e0: f0e8 d2bb 613d 29bd e641 86bb e943 babd
000000f0: 0c35 1bbd 0748 f8bb dbc9 c33d 55f2 89bd
00000100: d827 c6bc c736 28bd 6e15 393d dd1a 693d
00000110: e09a a93d 7534 90bc c9c7 643d eaef 0ebc
00000120: d154 aebd fded babd 307a b9bc d62a 3d3b
00000130: d178 303d aae9 943d e401 61bd 4056 f5bb
00000140: 6d2b 6fbd dedd 7d3d 0c54 f3bc 8c56 c93d
00000150: 7ae1 a5bd 9957 c63c f56f 543b 6d04 f53c
00000160: 9286 103d 0cbf d53a 7ee1 1cbd 9d79 ba3d
00000170: 5e5b 0d3d e062 733c d986 0abd 44f0 7f3d
00000180: 54f5 683d df07 14bc b7a5 873d ca11 ec3d
00000190: bf12 313d fbc2 ebbd b136 d63c a94c cd3d
000001a0: 0dc7 4bbd 1dfb 343d 8bd8 663d 72e5 96bd
000001b0: 4b7d 003d 239a 753b f462 423d ebc1 9fbd
000001c0: ec9d b53d 8e62 11bd 13fa 5dbc 719f 8dbc
000001d0: 7437 683d 6502 c9bb bf7d cebc f9f9 8f3c
000001e0: 6b2c 61bd 8548 77bb c458 a8bc 4908 153c
000001f0: e261 81bd 2e4b 763d eb58 6b3d 83f0 753d
00000200: 681a 443d 6cc9 103e 5913 36bd 81a0 d03c
00000210: 72db b9bc af55 d5bb 7812 a2bc 5bd3 aebd
00000220: 5d09 30ba 5406 aabd b356 38bd a807 4dbc
00000230: 6de3 8b3c 0c03 edbc 8972 14bc dadf ebbc
00000240: abc0 7ebd 2b04 2ebd 740a 973c bfa5 263d
00000250: 06f6 983d d6db d6bd aa54 f73d 72be b3bc
00000260: 4ba1 af3b 4ef4 51bd 8a75 acbb 24a7 5fbd
00000270: 3aa7 0b3d 2061 983d 8b2c 60bd 397f 54bd
00000280: 1558 7b3c 99f1 db3c b400 12bc 20d4 cbbb
00000290: f497 0cbb 8df4 78bc d7b7 00be 380e 853c
000002a0: f9d8 923d 7480 79bd 7ff4 8fbc 3121 29bc
000002b0: 798e 3dbc f64d 153d 9075 91bd 6baf a53d
000002c0: c0c8 4d3c 09ae 3cbd 31ca 69bc e668 003d
000002d0: da26 053d 67cc 6d3d e3cf 913d a803 a13c
000002e0: 1406 4dbc 8a83 7cbd 9654 923b 8125 7dbd
000002f0: 0cd7 09bd 46cb 933d 26d6 31bd 40a6 8a3d
00000300: d56d e13c 22a7 013d 87fa 6aba 946a a43d
00000310: 53f7 35bd e001 b0bc d938 ebbc eae6 0c3d
00000320: 7291 ea3c ba11 9f3d 0764 2fbd 8bc5 97bc
00000330: fdda 383d 7a54 793d 732b 393c fda6 713c
00000340: 0b5c c43d 0c37 1b3c 0bf4 5a3d 5de9 383d
00000350: 9a3c bebc 3c0d 4b3d 73c3 5b3c 6547 083e
00000360: 5ca5 b9bc e5ed c0bc 2c62 31be 8c76 00be
00000370: c791 153e 11cf d63c bc05 bfbd d064 27bd
00000380: 4102 8abd 7795 b5bc 6e18 c3bb 64a2 76bc
00000390: 3952 99bc 4986 8cbc bff9 13bd 0a88 8d3c
000003a0: a3d9 143d c5b5 133d 1fa7 34bd 1b86 74bd
000003b0: b4b3 c33b 67a1 223d 0066 f93a 4ea5 f5bc
000003c0: 0af0 393d 07f1 5fbd 2515 11bc ba89 893d
000003d0: 2ab2 953b 53b6 8b3b 8f64 e1bc 2dd4 9fbb
000003e0: 5f8b 6b3a b1f4 013c 21f6 16bd a18b 883d
000003f0: 9ce4 203c 822b 7a3d a786 b5bd 7ee0 383d

conv_layers.3.bias f4 [64]
-0.1242109 -0.028518226 -0.034824487 0.012556047 -0.03793111 -0.00070150476 0.03904831 -0.054646518
-0.054700006 0.06770778 -0.091214694 -0.024816154 0.023165429 -0.07919259 0.101965725 -0.055554222
-0.061293203 -0.020777306 -0.040163532 0.018344099 0.05388971 -0.020720147 -0.0067345016 -0.027027875
-0.1086502 -0.15007682 0.10137664 -0.003698606 0.02045846 -0.11298257 -0.10601149 0.065875605
0.12551887 0.048324432 -0.100022726 -0.06253194 -0.03750779 -0.036496066 -0.0134845665 -0.08977699
-0.04293843 -0.11345098 0.0054048067 0.009531817 -0.023865476 0.0030617523 -0.042627826 -0.010028361
-0.018493457 -0.033382732 -0.016759912 0.06744237 -0.038256973 0.037984073 0.034736566 -0.15558971
-0.054092526 -0.06753456 0.062476058 0.012578037 -0.0321738 0.07604598 -0.016500399 -0.0693295
00000000: 4962 febd 0e9f e9bc 1fa4 0ebd e1b7 4d3c
00000010: a75d 1bbd 30e5 37ba 1ff1 1f3d 07d5 5fbd
00000020: 1d0d 60bd 60aa 8a3d c5ce babd 3f4b cbbc
00000030: 6dc5 bd3c ba2f a2bd 68d3 d03d d38c 63bd
00000040: 950e 7bbd 2b35 aabc 8482 24bd 5d46 963c
00000050: 75bb 5c3d 4cbd a9bc 18ad dcbb 9069 ddbc
00000060: ff83 debd bdad 19be 8e9e cf3d 5064 72bb
00000070: 8098 a73c 6863 e7bd 8d1c d9bd cae9 863d
00000080: 0588 003e d7ef 453d b7d8 ccbd bf10 80bd
00000090: c5a1 19bd e67c 15bd 5fee 5cbc 00dd b7bd
000000a0: 35e0 2fbd fd58 e8bd ce1a b13b 572b 1c3c
000000b0: 8881 c3bc aea7 483b 849a 2ebd ff4d 24bc
000000c0: 977f 97bc 55bc 08bd 154c 89bc 3a1f 8a3d
000000d0: 58b3 1cbd 3095 1b3d ee47 0e3d e952 1fbe
000000e0: 2090 5dbd 8f4f 8abd e5e6 7f3d 1c14 4e3c
000000f0: adc8 03bd ffbd 9b3d d82b 87bc a0fc 8dbd

fc1.weight f4 [64, 256]
-0.043131944 0.02250637 -0.02235101 -0.0015814281 -0.070623495 0.029343126 0.07533427 0.0018269041
-0.02869071 -0.027699143 -0.026737742 -0.04312505 -0.008145658 -0.06343783 0.04175659 -0.0125009855
-0.058961593 -0.030118939 -0.009175387 -0.006226664 -0.004404169 0.03235809 -0.0050190603 -0.07095862
0.004523798 -0.038038585 0.04806604 -0.044469774 0.022203682 0.0034976108 -0.07000742 -0.017390601
-0.027852116 -0.023887532 -0.060757283 0.03475831 -0.012079206 -0.07776612 -0.06831999 0.031395726
-0.015394833 -0.01655046 0.046683077 -0.027914047 -0.034587666 -0.022347212 0.021865122 -0.033417594
-0.07173632 0.0015511548 -0.031554703 -0.034254253 -0.026595399 0.02219669 0.060723435 -0.03341432
-0.02817138 0.0312041 0.010646361 0.0076234746 0.024029817 -0.06554635 -0.024670742 0.029572608
-0.039089568 -0.006418204 0.04932765 -0.07209351 -0.013681727 0.012741764 -0.065819636 0.012306333
-0.010781779 -0.0487635 -0.020512618 -0.035202846 -0.010332127 0.045071803 -0.045471724 0.023117976
0.026445454 -0.05417579 0.01630698 -0.05442581 -0.01688737 0.035227202 0.0037985435 0.012476535
-0.03158234 0.0016661021 0.026497494 -0.04758211 0.007036004 -0.051095862 0.0021161062 0.048240513
0.015399876 0.048507176 -0.04446523 -0.00032837014 0.005198443 -0.03630861 0.028193453 0.001301036
0.01679402 0.047449797 -0.053342044 -0.06915563 0.0063852044 -0.024509476 -0.03688221 -0.01747888
-0.013378621 0.008493692 0.022306029 -0.000765046 -0.05920342 0.0042823837 -0.008364303 -0.014895889
-0.028431566 -0.03808862 0.008410829 0.038798895 -0.043088645 -0.047666177 -0.009433121 -0.02589744
-0.05364307 0.036811236 0.008729039 0.010117269 -0.06045127 -0.06685138 -0.013542903 0.03608314
0.02207294 -0.058424506 -0.0022144287 -0.00020852752 -0.044172917 -0.0085654305 0.003528503 -0.018712644
0.05078572 0.04168905 0.039732706 0.027468234 -0.011193236 -0.018239018 -0.0652891 -0.019245772
-0.07330481 0.008839508 -0.019054763 -0.015448648 -0.017144274 -0.063117 0.03836962 -0.049878724
0.036171053 0.040940247 -0.023201313 -0.017132059 -0.040858693 -0.055924315 -0.026403684 -0.056476947
0.031011045 0.012722732 -0.061045893 -0.013521797 -0.028490549 -0.033565566 -0.0619009 0.049043942
-0.02912055 0.010350357 -0.013801723 0.026106399 0.008398113 -0.011616957 0.0344512 -0.025676647
-0.052993517 -0.061221156 -0.0077768266 -0.049237084 -0.066941716 0.013466538 -0.0018757466 -0.00039272205
0.0067214286 -0.04225912 -0.054614905 -0.05966658 -0.028572679 -0.06550808 -0.05157568 0.024808919
0.0093547655 -0.053855155 -0.004685655 0.031656343 0.037978217 -0.04989049 -0.030430969 0.010692071
-0.005021015 0.013801735 0.0064762365 0.04641918 0.01456281 -0.07176675 -0.017629022 -0.048348878
0.020975657 0.0111129815 -0.03357051 -0.032706946 0.02353851 0.015791092 0.055302206 -0.02519396
0.0104904575 0.008145345 -0.025944717 -0.046052385 -0.0408315 0.007997153 -0.065129265 0.024474226
-0.02019311 0.017587043 -0.067584395 -0.0323092 -0.033477716 -0.014812762 0.0027195362 -0.05120536
0.032043822 -0.052826796 0.000652094 -0.04942747 -0.05336051 -0.019420689 0.01763975 0.04928539
-0.02282996 0.0004450056 -0.04822857 -0.06064389 0.056035727 -0.042195525 0.029363584 0.027135542
00000000: 1fab 30bd 475f b83c 7719 b7bc ec47 cfba
00000010: 0da3 90bd ff60 f03c db48 9a3d bb74 ef3a
00000020: c808 ebbc 50e9 e2bc 1c09 dbbc e4a3 30bd
00000030: 5e75 05bc b1eb 81bd f508 2b3d efd0 4cbc
00000040: b681 71bd febb f6bc 5d54 16bc 0b09 ccbb
00000050: d950 90bb eb89 043d ee76 a4bb c152 91bd
00000060: 5e3c 943b 59ce 1bbd e5e0 443d f025 36bd
00000070: 7fe4 b53c 2c38 653b 0d60 8fbd bc76 8ebc
00000080: 1f2a e4bc c9af c3bc a1dc 78bd bb5e 0e3d
00000090: dde7 45bc d843 9fbd 5aeb 8bbd ce98 003d
000000a0: 9c3a 7cbc d594 87bc c136 3f3d 00ac e4bc
000000b0: ccab 0dbd 8011 b7bc 7c1e b33c e3e0 08bd
000000c0: 7eea 92bd 1e50 cb3a 813f 01bd 304e 0cbd
000000d0: 98de d9bc d5d5 b53c 23b9 783d 74dd 08bd
000000e0: aac7 e6bc be9f ff3c 136e 2e3c 57ce f93b
000000f0: 2eda c43c 2a3d 86bd 4c1a cabc 4142 f23c
00000100: 621c 20bd cc4f d2bb ca0b 4a3d c3a5 93bd
00000110: 5329 60bc d5c2 503c 72cc 86bd 80a0 493c
00000120: 0fa6 30bc 3cbc 47bd 140a a8bc dc30 10bd
00000130: 1548 29bc 369d 383d 8f40 3abd e961 bd3c
00000140: 23a4 d83c 6fe7 5dbd 3796 853c 99ed 5ebd
00000150: 6257 8abc 664a 103d fcf0 783b 616a 4c3c
00000160: 7c5c 01bd 1c61 da3a 4611 d93c 75e5 42bd
00000170: 488e e63b e549 51bd 5fae 0a3b d897 453d
00000180: c34f 7c3c 76af 463d 2c21 36bd 1829 acb9
00000190: b357 aa3b 56b8 14bd f5f5 e63c 8687 aa3a
000001a0: 9d93 893c b85a 423d 307d 5abd 78a1 8dbd
000001b0: fa3a d13b 19c8 c8bc cd11 17bd de2f 8fbc
000001c0: 0132 5bbc 2029 0b3c 22bb b63c 5e8d 48ba
000001d0: 497f 72bd 3d53 8c3b 6e0a 09bc e30d 74bc
000001e0: 51e9 e8bc d002 1cbd 93cd 093c 97eb 1e3d
000001f0: b87d 30bd 9c3d 43bd 618d 1abc de26 d4bc
00000200: d6b8 5bbd 61c7 163d 3e04 0f3c e7c2 253c
00000210: c09b 77bd 60e9 88bd 0de3 5dbc eacb 133d
00000220: 4fd2 b43c 894e 6fbd f31f 11bb 2ea8 5ab9
00000230: a9ee 34bd 0556 0cbc 753e 673b 424b 99bc
00000240: b004 503d 23c2 2a3d c3be 223d 1005 e13c
00000250: d663 37bc fe69 95bc 4bb6 85bd 4fa9 9dbc
00000260: d520 96bd 95d3 103c bc18 9cbc 531c 7dbc
00000270: 2672 8cbc 7c43 81bd 7629 1d3d a24d 4cbd
00000280: 1928 143d f6b0 273d ae10 bebc 8858 8cbc
00000290: 725b 27bd e510 65bd 8a4c d8bc 5f54 67bd
000002a0: e00a fe3c 0173 503c 420b 7abd 878a 5dbc
000002b0: 0365 e9bc 0c7c 09bd cc8b 7dbd 4de2 483d
000002c0: 388e eebc 8b94 293c 9f20 62bc 16dd d53c
000002d0: 3d98 093c 0d55 3ebc b41c 0d3d d557 d2bc
000002e0: bb0f 59bd 09c3 7abd c0d4 febb d3ac 49bd
000002f0: bd18 89bd c1a2 5c3c 9ddb f5ba 43e6 cdb9
00000300: 6e3f dc3b e617 2dbd e1b3 5fbd f264 74bd
00000310: 4011 eabc 1a29 86bd 0541 53bd 133c cb3c
00000320: bb44 193c 3997 5cbd 1f8a 99bb 15aa 013d
00000330: 0c8f 1b3d f859 4cbd 5e4a f9bc cc2d 2f3c
00000340: 5487 a4bb ac20 623c 9c36 d43b 0a22 3e3d
00000350: da98 6e3c 72fa 92bd bd6a 90bc 7909 46bd
00000360: 24d5 ab3c 3913 363c 3b81 09bd b8f7 05bd
00000370: d5d3 c03c 525c 813c 9184 623d 9063 cebc
00000380: 2be0 2b3c 0e74 053c 048a d4bc 6da1 3cbd
00000390: ee3e 27bd 7e06 033c 7e62 85bd 2c7e c83c
000003a0: 056c a5bc b412 903c b069 8abd a756 04bd
000003b0: ee1f 09bd 3ab1 72bc 3f3a 323b b6bc 51bd
000003c0: 6240 033d e960 58bd 4af1 2a3a 7574 4abd
000003d0: 8d90 5abd 2318 9fbc 3d81 903c 7adf 493d
000003e0: e505 bbbc a44f e939 528b 45bd ba65 78bd
000003f0: b885 653d 37d5 2cbd e68b f03c 5b4b de3c

fc1.bias f4 [64]
-0.055846997 -0.13396047 0.010740087 -0.010762833 -0.036808003 -0.16915941 -0.0044752923 -0.066240795
0.015058279 -0.087154076 0.0442109 0.039430182 -0.05245072 -0.04473234 0.018178858 -0.0049785483
0.028056037 0.007983855 0.028462356 -0.035287786 -0.06653839 -0.06331539 0.10478098 0.033675633
-0.053137045 -0.012604072 0.0025054247 0.003270664 0.045846727 -0.038963314 -0.057203293 -0.01975857
-0.06483217 0.055539306 -0.057453312 0.012866911 -0.072736226 -0.020733787 0.041844066 -0.09937891
0.013030857 -0.078368746 -0.0012139252 0.027038744 0.05685555 -0.051309604 -0.027177732 0.059226785
0.034821194 -0.057322532 0.028960595 -0.06655521 0.062348954 0.04967457 0.06545309 -0.032920256
0.015305081 0.103491955 -0.049343027 -0.04715331 0.07306597 0.006299517 -0.059176594 -0.004260264
00000000: d2bf 64bd ef2c 09be 31f7 2f3c 9856 30bc
00000010: fdc3 16bd 2038 2dbe 79a5 92bb 41a9 87bd
00000020: 00b7 763c d67d b2bd 7d16 353d 8b81 213d
00000030: 91d6 56bd 4239 37bd d4eb 943c 1723 a3bb
00000040: c6d5 e53c b7ce 023c e329 e93c ed89 10bd
00000050: 4845 88bd 80ab 81bd 6997 d63d 76ef 093d
00000060: 3ba6 59bd 4f81 4ebc 0d32 243b a358 563b
00000070: c7c9 3b3d ff97 1fbd 004e 6abd b9dc a1bc
00000080: bbc6 84bd 2f7d 633d 2a54 6bbd bccf 523c
00000090: bbf6 94bd e7d9 a9bc af64 2b3d 2c87 cbbd
000000a0: 607f 553c cb7f a0bd 921c 9fba 5b80 dd3c
000000b0: 5de1 683d 052a 52bd d6a3 debc c997 723d
000000c0: aba0 0e3d 08cb 6abd c53e ed3c 194e 88bd
000000d0: 9e61 7f3d 9077 4b3d 450c 863d 64d7 06bd
000000e0: 2ac2 7a3c 97f3 d33d ea1b 4abd d423 41bd
000000f0: 9ca3 953d 2e6c ce3b 2863 72bd af99 8bbb

batch_norm.weight f4 [64]
1.0041747 1.5013824 0.9895798 1.5182731 1.3458949 1.698487 0.98824036 1.4132465
0.99399465 1.9160485 1.5540553 2.0761843 0.99375737 1.5118378 0.9876125 1.3823178
1.6051393 1.4720566 1.5237137 1.9257296 1.2448006 0.98729116 1.4923267 0.99629575
0.99458086 0.9920229 0.9908163 1.0984925 1.3022242 1.194323 1.7247406 1.4623238
0.9928452 1.518529 1.3543947 1.5815184 1.4047985 1.4981992 1.3622714 1.3858563
1.0155498 0.9756988 1.4139972 1.4089898 1.592191 0.9946629 1.3524189 1.3120736
0.9940166 1.2841427 0.99172056 0.9915996 1.5670849 1.0 1.4834669 1.5077443
1.1394447 1.4118454 0.9939945 1.7481987 1.952422 0.97403723 0.98800707 1.4264292
00000000: cc88 803f 4c2d c03f 1a55 7d3f c656 c23f
00000010: 4946 ac3f 0668 d93f 52fd 7c3f 43e5 b43f
00000020: 6f76 7e3f 1441 f53f 49eb c63f 34e0 0440
00000030: e266 7e3f e783 c13f 2cd4 7c3f caef b03f
00000040: 3475 cd3f 5a6c bc3f 0d09 c33f 4f7e f63f
00000050: a055 9f3f 1dbf 7c3f 9004 bf3f 3d0d 7f3f
00000060: da9c 7e3f 36f5 7d3f 23a6 7d3f 679b 8c3f
00000070: 48af a63f 93df 983f 4dc4 dc3f 6d2d bb3f
00000080: 1a2b 7e3f 295f c23f ce5c ad3f 326f ca3f
00000090: 70d0 b33f fec4 bf3f e95e ae3f bd63 b13f
000000a0: 89fd 813f 66c7 793f dcfd b43f c759 b43f
000000b0: eacc cb3f 3aa2 7e3f 101c ad3f 07f2 a73f
000000c0: df77 7e3f ca5e a43f 66e1 7d3f 79d9 7d3f
000000d0: 3d96 c83f 0000 803f 3ee2 bd3f c4fd c03f
000000e0: 53d9 913f 5ab7 b43f 6c76 7e3f fac4 df3f
000000f0: f7e8 f93f 815a 793f 08ee 7c3f 3b95 b63f

batch_norm.bias f4 [64]
0.06111838 0.0029463698 0.053204644 -0.013872046 -0.0068039848 0.008153907 -0.035668347 -0.0062365104
0.0023939938 0.0028209507 0.001376789 -0.006255522 0.056922328 0.007819639 0.027553963 -0.009837683
-0.008964175 -0.033299208 -0.0033103297 -0.02461484 0.006903683 -0.007505682 -0.0150821395 -0.0003912372
0.015661493 -0.03149422 -0.025080957 -0.018071715 0.0067273546 -0.011312386 0.014936246 -0.001983216
-0.03106596 -0.03860449 -0.029340083 -0.008430643 -0.009840252 0.021216778 0.0003485087 -0.024756286
-0.045919567 -0.0042950767 -0.005391004 -0.0012143272 0.0019403716 -0.0004050484 -0.043582592 -0.035038423
-0.0034602857 -0.017045375 -0.052310396 0.056735985 -0.0056184046 0.0014816436 -0.03237711 -0.004465989
-0.005614405 0.0004843487 0.014486729 -0.019037519 -0.008460941 0.0140234595 0.08796915 -0.002810193
00000000: 4457 7a3d e217 413b 1ded 593d 9447 63bc
00000010: f6f3 debb f797 053c f918 12bd a45b ccbb
00000020: 8de4 1c3b b3df 383b 5f75 b43a 1ffb ccbb
00000030: 6327 693d f11d 003c d9b8 e13c 3c2e 21bc
00000040: 7ade 12bc c064 08bd 1ef2 58bb 10a5 c9bc
00000050: 4a38 e23b 39f2 f5bb 141b 77bc f81e cdb9
00000060: 884c 803c 1500 01bd 9476 cdbc 220b 94bc
00000070: 2471 dc3b 9657 39bc 28b7 743c d8f8 01bb
00000080: 0a7e febc be1f 1ebd 9d5a f0bc ae20 0abc
00000090: 0239 21bc cfce ad3c 0cb8 b639 b2cd cabc
000000a0: 2816 3cbd b7bd 8cbb 05a7 b0bb 0f2a 9fba
000000b0: 1154 fe3a ad5c d4b9 a983 32bd 7384 0fbd
000000c0: f6c5 62bb bea2 8bbc 6d43 56bd fe63 683d
000000d0: 981a b8bb b633 c23a dc9d 04bd 6e57 92bb
000000e0: 0bf9 b7bb 2ff0 fd39 bf59 6d3c 92f4 9bbc
000000f0: c29f 0abc a7c2 653c 2b29 b43d 372b 38bb

batch_norm.running_mean f4 [64]
6e-45 6e-45 6e-45 6e-45 6e-45 6e-45 6e-45 6e-45
6e-45 6e-45 6e-45 6e-45 6e-45 6e-45 6e-45 6e-45
6e-45 6e-45 6e-45 6e-45 6e-45 6e-45 6e-45 6e-45
6e-45 6e-45 6e-45 6e-45 6e-45 6e-45 6e-45 6e-45
6e-45 6e-45 6e-45 6e-45 6e-45 6e-45 6e-45 6e-45
6e-45 6e-45 6e-45 6e-45 6e-45 6e-45 6e-45 6e-45
6e-45 6e-45 6e-45 6e-45 6e-45 0.0 6e-45 6e-45
8.498029e-05 6e-45 6e-45 6e-45 6e-45 6e-45 6e-45 6e-45
00000000: 0400 0000 0400 0000 0400 0000 0400 0000
00000010: 0400 0000 0400 0000 0400 0000 0400 0000
00000020: 0400 0000 0400 0000 0400 0000 0400 0000
00000030: 0400 0000 0400 0000 0400 0000 0400 0000
00000040: 0400 0000 0400 0000 0400 0000 0400 0000
00000050: 0400 0000 0400 0000 0400 0000 0400 0000
00000060: 0400 0000 0400 0000 0400 0000 0400 0000
00000070: 0400 0000 0400 0000 0400 0000 0400 0000
00000080: 0400 0000 0400 0000 0400 0000 0400 0000
00000090: 0400 0000 0400 0000 0400 0000 0400 0000
000000a0: 0400 0000 0400 0000 0400 0000 0400 0000
000000b0: 0400 0000 0400 0000 0400 0000 0400 0000
000000c0: 0400 0000 0400 0000 0400 0000 0400 0000
000000d0: 0400 0000 0000 0000 0400 0000 0400 0000
000000e0: 7237 b238 0400 0000 0400 0000 0400 0000
000000f0: 0400 0000 0400 0000 0400 0000 0400 0000

batch_norm.running_var f4 [64]
6e-45 6e-45 6e-45 6e-45 6e-45 6e-45 6e-45 6e-45
6e-45 6e-45 6e-45 6e-45 6e-45 6e-45 6e-45 6e-45
6e-45 6e-45 6e-45 6e-45 6e-45 6e-45 6e-45 6e-45
6e-45 6e-45 6e-45 6e-45 6e-45 6e-45 6e-45 6e-45
6e-45 6e-45 6e-45 6e-45 6e-45 6e-45 6e-45 6e-45
6e-45 6e-45 6e-45 6e-45 6e-45 6e-45 6e-45 6e-45
6e-45 6e-45 6e-45 6e-45 6e-45 6e-45 6e-45 6e-45
2.1473685e-05 6e-45 6e-45 6e-45 6e-45 6e-45 6e-45 6e-45
00000000: 0400 0000 0400 0000 0400 0000 0400 0000
00000010: 0400 0000 0400 0000 0400 0000 0400 0000
00000020: 0400 0000 0400 0000 0400 0000 0400 0000
00000030: 0400 0000 0400 0000 0400 0000 0400 0000
00000040: 0400 0000 0400 0000 0400 0000 0400 0000
00000050: 0400 0000 0400 0000 0400 0000 0400 0000
00000060: 0400 0000 0400 0000 0400 0000 0400 0000
00000070: 0400 0000 0400 0000 0400 0000 0400 0000
00000080: 0400 0000 0400 0000 0400 0000 0400 0000
00000090: 0400 0000 0400 0000 0400 0000 0400 0000
000000a0: 0400 0000 0400 0000 0400 0000 0400 0000
000000b0: 0400 0000 0400 0000 0400 0000 0400 0000
000000c0: 0400 0000 0400 0000 0400 0000 0400 0000
000000d0: 0400 0000 0400 0000 0400 0000 0400 0000
000000e0: 6322 b437 0400 0000 0400 0000 0400 0000
000000f0: 0400 0000 0400 0000 0400 0000 0400 0000

fc2.weight f4 [2, 64]
0.041162588 0.012701593 0.07433047 -0.05814912 0.15125753 0.11142945 0.11042901 0.0069628935
-0.012269841 0.3410229 -0.092869386 0.17750508 -0.013087074 -0.08345705 0.008002528 -0.020266376
0.0069324286 -0.106232524 0.092295155 -0.3689945 0.014860459 0.01726694 0.08431616 -0.016725268
0.008081107 -0.03891687 -0.07798256 0.04468845 0.05868626 0.009426885 0.11682368 -0.07236826
-0.07451774 0.13919371 0.037504386 0.09932185 0.0011644287 -0.08597891 0.0020524305 0.02402104
0.11842139 -0.073789164 0.025682438 -0.0012739827 -0.050315574 0.017742004 -0.04619489 0.021655718
-0.07702458 0.03568649 -0.045559835 -0.027826488 0.08578336 -0.017908879 0.056500144 -0.049859162
-0.0030378283 -0.039458692 0.00017173469 -0.0711494 0.4177023 -0.06232663 -0.14179222 0.1898243
-0.022842849 0.01859556 -0.03208556 -0.08588114 -0.031526737 -0.010570639 0.039052647 -0.009908533
-0.00748194 -0.3360486 -0.09011158 -0.3460065 0.06088201 -0.067817576 0.04365889 0.048934657
0.024770219 -0.037031915 0.08619425 0.4042869 -0.065672696 0.0032860253 0.053299684 -0.015945466
-0.023240738 -0.015280476 -0.027805826 0.008568033 0.045229994 0.07303269 -0.061676983 -0.07631896
-0.02312494 0.0619753 -0.02117216 0.08505694 0.020834543 -0.00444518 0.0027536186 -0.050216172
0.027311686 -0.06512397 0.014889205 0.01416749 -0.05543294 0.017062439 0.03983915 -0.050522424
-0.070726626 0.06973057 0.030326232 0.04345659 0.07403196 -0.014974977 -0.006608375 -0.058807842
-0.108926706 -0.038404886 -0.029502565 -0.033083715 -0.28282222 -0.090556525 -0.09034782 -0.09763502
00000000: 1a9a 283d 581a 503c 933a 983d c62d 6ebd
00000010: 41e3 1a3e 2035 e43d 9b28 e23d fc28 e43b
00000020: 7107 49bc 8e9a ae3e 4e32 bebd e4c3 353e
00000030: 2b6b 56bc 88eb aabd 091d 033c ac05 a6bc
00000040: 6d29 e33b 7090 d9bd 3e05 bd3d d9ec bcbe
00000050: 4879 733c 6673 8d3c f3ad ac3d 6e03 89bc
00000060: 9f66 043c 4c67 1fbd 52b5 9fbd 3c0b 373d
00000070: 0161 703d 3973 1a3c 4141 ef3d cf35 94bd
00000080: c29c 98bd cc88 0e3e 339e 193d 4169 cb3d
00000090: be9f 983a b615 b0bd 1282 063b c6c7 c43c
000000a0: ea86 f23d c61e 97bd fa63 d23c c4fb a6ba
000000b0: b417 4ebd ae57 913c da36 3dbd 5567 b13c
000000c0: 10bf 9dbd ff2b 123d f39c 3abd 60f4 e3bc
000000d0: 30af af3d a4b5 92bc b26c 673d 1f39 4cbd
000000e0: 4d16 47bb 709f 21bd ae13 3439 c7b6 91bd
000000f0: 13dd d53e 354a 7fbd fb31 11be 4d61 423e
00000100: ed20 bbbc b755 983c 266c 03bd 73e2 afbd
00000110: 2e22 01bd 7930 2dbc abf5 1f3d 6657 22bc
00000120: 102b f5bb 900e acbe 6c8c b8bd c427 b1be
00000130: 6a5f 793d f1e3 8abd aad3 323d b56f 483d
00000140: eaea ca3c c7ae 17bd 9c86 b03d b1fe ce3e
00000150: 687f 86bd 5b5a 573b c550 5a3d 11a0 82bc
00000160: 5c63 bebc f65a 7abc 0bc9 e3bc ef60 0c3c
00000170: 1643 393d 2a92 953d 01a1 7cbd 1d4d 9cbd
00000180: 8470 bdbc d0d9 7d3d 3d71 adbc 5532 ae3d
00000190: 34ad aa3c dfa8 91bb 0e76 343b 79af 4dbd
000001a0: c2bc df3c b75f 85bd daf1 733c c31e 683c
000001b0: a70d 63bd 87c6 8b3c 602e 233d 9af0 4ebd
000001c0: 1fd9 90bd e7ce 8e3d b86e f83c 8aff 313d
000001d0: 119e 973d 9b59 75bc 118b d8bb 7ee0 70bd
000001e0: f714 dfbd 714e 1dbd 5daf f1bc ca82 07bd
000001f0: 13ce 90be b375 b9bd 4708 b9bd dff4 c7bd

fc2.bias f4 [2]
0.047103837 0.05007686
00000000: f4ef 403d 651d 4d3d
