models/星野源/classifier_fold3.pth (torch, 991011 bytes, 16 tensors)

conv_layers.0.weight f4 [64, 256, 2]
000000 6a ab 82 ba 7e 2f 37 3d 3e 94 93 bd 3b 62 82 3d
       -0.0009969298 0.044723026 -0.07206009 0.06366392
000010 a6 43 9c bc 27 55 b4 bc 9a 73 e1 bd 93 e6 6b 3d
       -0.019075226 -0.02201326 -0.110083774 0.05759294
000020 69 b5 41 bd 6b 74 76 3c c1 66 43 38 63 c5 17 bd
       -0.047292147 0.015042405 4.658732e-05 -0.037053477
000030 75 d3 c1 3c 59 01 ce 3c 26 d6 d3 bb 70 7f 61 bc
       0.0236604 0.025147127 -0.0064647375 -0.013763294
000040 58 1d 4a 3d bb ea 6a bc 2a 59 92 bb 8d 57 b7 3d
       0.04934439 -0.014338191 -0.0044661956 0.08952246
000050 1b 47 6a 3c c8 3d d7 bc 29 35 96 bd 3a 30 37 3c
       0.014299179 -0.026274577 -0.07334358 0.011180932
000060 d9 4a 3c 3c 58 90 a6 39 e8 a3 0e 3c d0 48 ca bd
       0.011492454 0.00031769532 0.0087060705 -0.09877169
000070 77 1e 65 3d 95 85 ae 3c b1 42 4b 3d 4b b5 91 3d
       0.055937257 0.021303931 0.04962415 0.07114657
000080 99 5b 8d 3c b6 71 4c 3d d8 a2 49 3d bf 40 57 bd
       0.017255591 0.04991313 0.049227566 -0.05255198
000090 09 d9 42 bd 66 bf 58 bd 6c d8 bb bd 24 c4 86 bc
       -0.047570262 -0.052916907 -0.091721386 -0.016450949
0000a0 fa b5 27 bb dc 3d e9 3c 3a d3 a5 3c da 8a 33 3c
       -0.0025590644 0.02847188 0.020242322 0.010958398
0000b0 a8 a3 95 bc 2b 10 23 bd bc 7b 01 bc 0c d1 5e 3d
       -0.018266514 -0.03981034 -0.007903036 0.05439858
0000c0 27 fb 27 bd c3 92 95 3c 8e b1 df bc ec f9 a9 3d
       -0.041011002 0.018258458 -0.027306344 0.08299622
0000d0 e8 d8 50 3c 64 79 cf bd c0 09 29 bd 58 4f 21 bd
       0.012747027 -0.10130575 -0.041269064 -0.03938231
0000e0 a2 bf b0 3c 77 61 e8 bc 9c 62 93 bd a7 eb 77 3b
       0.021575753 -0.028366787 -0.071965426 0.0037829669
0000f0 47 3b a4 bb 1d e4 a1 3d 22 52 db bd af c8 07 bd
       -0.005011949 0.07904837 -0.10709025 -0.03315037
000100 ce dd 8e 3c 25 54 e1 bc 36 1c 0d bd e6 71 61 bc
       0.01743975 -0.027505944 -0.034450732 -0.013760066
000110 8a 6f d0 3c 53 07 64 bd b9 29 90 3d bb 30 08 bd
       0.025443811 -0.055671047 0.07039208 -0.033249598
000120 0f 58 6d 3c 31 a8 cd bc eb af 17 3d fd e2 b0 bb
       0.014486327 -0.025104614 0.037033003 -0.005398153
000130 8c 2f 83 bd 3c fe 28 ba ef 75 0e 3d d8 0b b2 bc
       -0.06405553 -0.0006446575 0.03478044 -0.021734163
000140 f0 c7 58 bd cd e9 1c bd 3b 13 de bd 34 9c 80 bd
       -0.05292505 -0.038308907 -0.10843512 -0.062797934
000150 81 3e c5 3d 02 f0 86 bd 1f 9a c0 bd f7 92 99 bc
       0.09631062 -0.065887466 -0.09404396 -0.018746836
000160 b7 02 af 3d 6b f8 e3 3c cd 2a 22 3d c8 5b 99 3d
       0.0854544 0.027828416 0.0395916 0.07488209
000170 77 c8 43 bd 5f 1d 10 3c 0d d9 bc 3b 82 23 99 3d
       -0.0477986 0.008796065 0.005763179 0.07477476
000180 31 77 58 bd ca 0d 8c bd 20 31 07 bd 24 00 6c 3d
       -0.052848045 -0.068385676 -0.033005834 0.05761732
000190 20 3e 3f 3d c3 38 bc bc fb 79 56 bd ce 86 11 bd
       0.046690106 -0.022976285 -0.052362423 -0.03552895
0001a0 0c 48 54 3d ed fc 90 bc 20 19 d8 bc 64 1c 9b 3d
       0.05182652 -0.01769873 -0.026379168 0.075737745
0001b0 17 21 01 bd 38 fa 1b bc e2 e3 9f 3c db 08 50 bb
       -0.031525698 -0.009520106 0.019517843 -0.003174356
0001c0 08 5c 30 3d 71 c0 5d bc ca 5f 3c 3d ea 99 4d 3d
       0.043056518 -0.013534651 0.04598979 0.050195612
0001d0 54 38 74 3d d0 3f 08 3c 02 ec 4a 3c 86 34 b2 bb
       0.05962403 0.008315995 0.01238537 -0.00543839
0001e0 ff 2c a1 3c bb 51 4f 3c a2 04 31 3d 05 86 8e 3b
       0.019674776 0.012653763 0.04321731 0.0043494725
0001f0 20 b2 39 3d 49 a4 81 3d 0c ae b6 3d 02 79 6e bc
       0.04533589 0.06330163 0.089199156 -0.014555218
000200 59 12 0c bd dc 49 b3 bd 2d 0d c0 3d 96 ca e3 bc
       -0.034197185 -0.08754322 0.09377513 -0.027806561
000210 b0 20 55 39 38 b5 27 bd 25 03 99 3c ac c3 14 3b
       0.0002032544 -0.040944308 0.018678257 0.0022699637
000220 8e d6 b2 bc ed a8 99 3c 10 a3 6e 3d 49 5f 26 bd
       -0.021830823 0.018757308 0.058260977 -0.040618215
000230 81 5f aa 3d 3f 9e 71 3d 13 d3 69 3d a9 93 cf bc
       0.08318997 0.058988806 0.05708606 -0.025338965
000240 75 8e d5 bc c1 02 6d 3d 8f c0 20 bd 64 be c9 3d
       -0.026068905 0.057863954 -0.03924614 0.09850767
000250 82 26 a0 bd a1 d5 06 bd 75 82 8f bc 6f 6d d3 3d
       -0.07819845 -0.032918576 -0.017518261 0.10323607
000260 65 70 09 3e 38 6d bc 3c 6c eb 29 3b 9e 47 70 bc
       0.13421781 0.023001298 0.0025927676 -0.014665512
000270 92 c8 7b 3d ae a7 81 bc 51 ab 19 ba 15 bc 9f 3d
       0.061470576 -0.015827026 -0.0005862015 0.07799546
000280 1b ab 1f 3d 84 80 0a bd bc d5 84 3d c9 09 27 3d
       0.03898154 -0.03381397 0.06486079 0.040780816
000290 07 34 0f bd f8 7c 82 3d 37 46 12 bd 2b 9c a7 bb
       -0.034961727 0.06371492 -0.035711493 -0.005115052
0002a0 27 d5 03 3c 69 0d 13 bd 18 9c 62 3d f3 50 60 bd
       0.008046425 -0.03590146 0.055324644 -0.0547647
0002b0 62 b1 43 bd ce 06 e3 3c e8 36 1f bd cc ae e0 3c
       -0.047776587 0.027713206 -0.038870722 0.0274271
0002c0 db 99 72 bd 9c 3b e6 3b 34 ec 65 3d 96 92 0a be
       -0.05922876 0.007026149 0.056133464 -0.1353248
0002d0 48 bb 9f 3d 79 bf 0f 3d 84 c7 2b bd d9 3e 0b bc
       0.07799393 0.035094712 -0.04193832 -0.008498871
0002e0 5d 99 0c 3c 2d 6e 2a bb ee ed 3a bd d2 9d aa 3c
       0.0085814865 -0.0026005611 -0.045637064 0.020827208
0002f0 76 c7 8b bc bd 57 0c bb d6 80 67 3d 0d 79 43 bb
       -0.017062884 -0.00214146 0.056519352 -0.002982679
000300 ed 0e 08 bd 21 53 6c 3d 1e 8b 68 3c f4 48 87 bd
       -0.03321736 0.057696465 0.014193324 -0.066057116
000310 4a e5 69 3d 03 a1 a2 bc c6 f2 da bd d6 26 c2 3d
       0.057103433 -0.019852167 -0.106908366 0.094800636
000320 44 73 48 bd d3 62 6f 3b 24 fa 4a 3c a7 8a 13 bd
       -0.04893805 0.003652741 0.01238874 -0.0360209
000330 cd 2f 00 bd 06 bf 5c 3d 33 0e 11 bd b2 45 34 3d
       -0.031295586 0.05389311 -0.035413932 0.04401178
000340 2c 87 ee bc 91 b9 bd 3b 68 1b 67 bd 40 07 63 bd
       -0.02911719 0.0057899435 -0.05642262 -0.055426836
000350 94 61 54 3c 01 cb 5c 3d 18 8c 47 3d 80 e6 53 bd
       0.012962718 0.053904537 0.04871759 -0.051733494
000360 62 b3 4a bd 57 0d 3c 3d 40 d8 e7 3a 31 06 4f 3d
       -0.04948748 0.04591116 0.0017688349 0.050543014
000370 36 2e b0 3c 94 49 d6 3d 31 78 8d 3c 1a b5 98 3d
       0.02150641 0.10463253 0.017269226 0.074564174
000380 57 92 01 bd 28 33 c4 bc 73 46 cd 3d 47 75 a3 3c
       -0.0316337 -0.023950174 0.10023203 0.019953383
000390 02 de 2a 3c df 92 49 bc 7d 52 01 bd 89 87 ca bc
       0.010428907 -0.012303083 -0.031572808 -0.024722831
0003a0 bc 61 1f 3d 04 54 b0 bb 7d 2b 9f 3d 1b 3e 2d 3c
       0.038911566 -0.005381109 0.077719666 0.010573889
0003b0 43 f0 1e bd e0 c0 d9 3c bd 20 92 3d f7 0c 66 bd
       -0.03880335 0.026581228 0.071351506 -0.056164708
0003c0 35 a9 9a bd 74 be 0d bc 54 e5 28 bb 28 c2 21 3d
       -0.07551805 -0.008651365 -0.0025771456 0.039491802
0003d0 e0 5d a9 3d 2c f1 ad 3c bf 89 5c bd 5f 40 13 bc
       0.08269858 0.021233164 -0.053842302 -0.008987515
0003e0 76 ac f6 bb 91 c6 50 3c 87 73 84 bc 43 f4 30 3d
       -0.007527883 0.012742654 -0.016168369 0.043201696
0003f0 90 1b e7 3d fb e5 99 bd 54 bb 63 3d 07 0b 57 bc
       0.11284554 -0.075145684 0.055598572 -0.013125188

conv_layers.0.bias f4 [64]
000000 ca 58 dc bb 9d fa 0c be 54 1e e1 3c 43 13 90 bd
       -0.0067244517 -0.13767476 0.027480282 -0.07034924
000010 0f 06 a8 3c 9f ca d3 bd 46 d0 d0 bd 60 9d 4a bc
       0.020510701 -0.10341381 -0.10195975 -0.012366623
000020 c1 09 90 bd 49 f7 aa 3c 48 9e d3 ba 3d 5a 55 3d
       -0.070331104 0.020869868 -0.0016145194 0.05208801
000030 d9 f0 cc 3c 0e 19 28 bd ac 4b 4d bd 51 31 71 bd
       0.025017189 -0.04103952 -0.050120994 -0.058884922
000040 48 65 20 3e 04 9d 4f 3d ee dc 9f 3d eb b9 f0 bc
       0.15663636 0.05068685 0.07805811 -0.029385528
000050 8d 85 da bc 7c 19 a7 ba 19 be 12 bd b0 8e af bc
       -0.02667501 -0.0012748684 -0.035825823 -0.021430343
000060 6a 85 b0 3d 46 7f 15 3d 93 ec 72 bc 03 d5 ac bd
       0.08619197 0.03649833 -0.0148269115 -0.08439066
000070 bc c6 5f bd be 6d 9f bd de 5b cc 3a d7 87 9f 3d
       -0.054632887 -0.077846035 0.0015591343 0.07789581
000080 05 cf 65 bd 2f 91 f4 3b f5 85 4c 3d aa 67 0f bc
       -0.056105632 0.0074635963 0.04993244 -0.008752743
000090 c8 48 44 bc 2a e0 51 3d 84 53 e8 bd 4a 2b 36 3c
       -0.011980243 0.05123917 -0.11344054 0.011118719
0000a0 97 5e ad bd f9 f2 1c bd 0c 17 42 3c 1c b4 13 bc
       -0.08465307 -0.038317654 0.011846315 -0.009015109
0000b0 29 a0 07 bd c3 d7 75 bb b7 c4 c0 bc 2c 5c 5f bd
       -0.033111725 -0.0037512637 -0.023531301 -0.05453126
0000c0 43 b1 00 bc 53 a3 98 3d 8f 5e d8 bd 5d 1c 1d 3c
       -0.0078547625 0.074530266 -0.105649106 0.009589282
0000d0 93 a5 60 3d 6f 94 ca bd d9 48 fa 3c 75 77 da 3c
       0.054845404 -0.09891593 0.030552315 0.02666829
0000e0 09 62 b8 bd ab c4 df bd 87 7b a5 bc 89 77 3b bd
       -0.09003074 -0.10926183 -0.020200504 -0.045768294
0000f0 ff b7 cd 3d 29 2b 15 bd 20 98 4b bc 5d 55 9a bd
       0.1004486 -0.036418114 -0.012426406 -0.07535813

conv_layers.1.weight f4 [64, 256, 3]
000000 b4 d0 0f 3c 69 3f f7 3c eb 37 d2 bc ac 3b 22 3d
       0.008777786 0.030181604 -0.02566143 0.03960769
000010 d1 2e 77 bc 68 d3 2b 3d 1b 6d cf 3c 15 20 b0 3d
       -0.0150868455 0.04194966 0.02532058 0.08599869
000020 2b 4a b1 bb 5e a2 c5 bc b9 8b e6 bb 9e 1f ef bc
       -0.005410453 -0.024125274 -0.007035699 -0.029189881
000030 12 01 8c 3d 9a f0 b7 bc 66 c9 6e 3c e4 cc 29 bd
       0.06836142 -0.022453595 0.014574384 -0.041455165
000040 56 cb 7b 3c 1c a5 c6 3d b8 44 7b bd 4a de 92 3c
       0.015368303 0.09699461 -0.061344832 0.017928261
000050 da 8b 29 bd f3 82 a8 bd 23 a0 10 3c 62 5c 9b 3b
       -0.04139314 -0.082281016 0.008827242 0.0047412375
000060 7f 87 9e 3c bc c3 b9 3b a9 24 ac bd ec 29 a7 bd
       0.019351719 0.0056690853 -0.0840543 -0.08162293
000070 bb 0e a2 3d aa 40 dc bc a7 9e a6 bb 1a 2c 81 bd
       0.07912966 -0.026886303 -0.005084831 -0.0630724
000080 13 ee 2b 3c 2d 6b 40 3b 5a b8 07 3d 3a 65 84 3d
       0.010493773 0.0029360757 0.033134796 0.0646462
000090 c9 a9 1e bd 51 47 a0 bb cf 2f a0 3d 00 1b dc bc
       -0.03873614 -0.004891314 0.07821619 -0.026868343
0000a0 c2 4c 03 3d 46 3f 7b bc 63 ad e8 bc 08 27 65 3c
       0.032055624 -0.01533491 -0.02840299 0.013986357
0000b0 bd 6d 2c 3d fb b3 98 3a ba dd 7e 3d 36 05 dd bb
       0.042096842 0.0011650318 0.062223174 -0.006745006
0000c0 12 e3 2b 3b 81 0e 23 3c 87 3c 87 3d d6 72 a0 bd
       0.0026227874 0.0099521885 0.066033415 -0.07834403
0000d0 ae 63 89 3d 61 e0 bc 3c 1f 20 8f 3c 6c b8 69 bd
       0.067084655 0.023056211 0.017471371 -0.057060644
0000e0 ee b9 78 bc 0b 60 1d 3d 69 80 4e bd 05 9d 10 3d
       -0.015181048 0.03842167 -0.05041543 0.035305995
0000f0 bd e4 90 3b a1 58 8c bd f5 04 87 3d a2 0a a6 bd
       0.004421799 -0.06852842 0.06592742 -0.08107497
000100 6b 47 ee 3c 67 61 00 bc 24 38 97 3d 4d d0 b3 3c
       0.02908679 -0.0078357225 0.07383755 0.021949911
000110 f6 c1 50 3d a4 25 4c bd e0 1e 52 bd 06 eb c9 3c
       0.050966226 -0.049840584 -0.051298976 0.0246482
000120 b8 cb e0 bd 3b 58 cc 3d d4 2b 1e 3d 85 0d fc bc
       -0.10976356 0.09977766 0.038616017 -0.030768165
000130 01 5a 2b 3e bb c9 9f bc 14 0c 8a bd 43 bc cb 3b
       0.16733553 -0.019505372 -0.06740585 0.006217511
000140 b7 6f d9 3c fd c2 14 bd d2 3d 84 3d be 4b 02 3d
       0.026542528 -0.036318768 0.06457104 0.031810515
000150 9d 04 a8 3d ab e3 29 bd fe 55 85 3c bc d0 91 bd
       0.08204005 -0.041476887 0.016276356 -0.07119891
000160 08 c6 7d 3d ba 96 a8 bd 0f 1a 92 bd d9 9e 17 3d
       0.061956435 -0.08231874 -0.071338765 0.037016723
000170 01 e8 84 bc c2 13 50 3c 82 be 09 3d f5 12 3a 3c
       -0.01622391 0.012700023 0.033628948 0.011357059
000180 79 49 ee bd d8 12 8c 3c a0 c7 95 bd ac 87 ec 3d
       -0.116351075 0.01709883 -0.07313466 0.11549315
000190 5a 25 3c 3c 84 63 ba bc 78 56 ee 3b aa 9a 00 3d
       0.011483515 -0.02275253 0.0072734915 0.0313975
0001a0 48 05 fb bb aa 61 97 3c 1a 39 35 3d a5 42 50 bd
       -0.0076605417 0.018479187 0.04424391 -0.050844807
0001b0 cc 63 8d bb 8b f3 18 3d 23 c4 8a 3d 10 dc 89 3c
       -0.004314875 0.037341636 0.06775691 0.016828567
0001c0 2e 6e 51 3c f3 18 c0 3c 41 de b7 bd d5 d1 bd 3d
       0.012782617 0.023449397 -0.089779384 0.09268538
0001d0 15 54 7a 3c c6 18 4f 3d d8 dd 53 bd 42 7d 31 bc
       0.015278836 0.050560735 -0.05172524 -0.010833086
0001e0 31 b8 6f 3d aa 83 4e 3d a7 e9 32 3d 0b ad 93 bc
       0.058525268 0.050418533 0.04367986 -0.01802685
0001f0 7f 53 84 3c cb b4 9e bd 82 07 9f 3d 90 fc 88 bc
       0.016153095 -0.07749327 0.07765104 -0.016721994
000200 d5 0b 34 3d ab 18 0e bd 3e e4 bb 3d 4d a7 66 3d
       0.043956596 -0.034691494 0.09174393 0.056311894
000210 27 d9 b8 bc 3b e7 4e bc 86 40 ee 3c 81 c3 07 3d
       -0.022564484 -0.012628372 0.029083502 0.03314543
000220 af dd b9 bd fa 41 69 bd 74 33 21 3d bf 12 b8 bc
       -0.09075486 -0.056947686 0.03935571 -0.022469876
000230 1b a5 ab 3d 2f d8 95 3b 01 fb ae 3d ea d5 b0 bc
       0.08381101 0.0045728902 0.08543969 -0.021586377
000240 3c a5 9d 3d 90 57 98 3d 20 8a 05 3c 4d 7e d0 ba
       0.076975316 0.07438576 0.008150607 -0.0015906781
000250 d9 a5 73 bc a6 51 13 bd 96 65 3d bd ab 15 59 bd
       -0.014871084 -0.035966538 -0.046239458 -0.05299918
000260 83 bb 43 3d e9 ba 11 3d 29 44 52 3c 78 4d 43 bd
       0.047786247 0.035578642 0.012833633 -0.0476813
000270 56 db b6 3c 89 cd 9a bc 8a a2 f4 bc 3b bd 40 bd
       0.022321384 -0.018896835 -0.02986266 -0.047055464
000280 12 b7 03 3d fa 93 ef 3c cf 4f 8b 3c b5 6a ab 3c
       0.03215701 0.029245365 0.01700583 0.020924905
000290 91 04 2f 3d 84 0c 52 3b 13 03 62 3d 39 70 cc bc
       0.042728964 0.0032050917 0.055178713 -0.024955856
0002a0 60 d1 f3 bc 55 ca 92 3b 2f bd c4 3c 04 19 ea 3c
       -0.029762924 0.0044796863 0.024015991 0.028576382
0002b0 da b5 de 3c f4 4a 2d 3b 9e 14 55 3d 46 2a 96 3d
       0.027186323 0.002644238 0.052021615 0.07332282
0002c0 10 bb 79 bd 64 49 92 3d 86 6a da bc 21 ff 4d bd
       -0.060969412 0.071429044 -0.026662122 -0.050292138
0002d0 3b 10 ae 3d 11 6c cd 3c 0a d9 a5 3d cb d9 bc 3b
       0.084991895 0.025075944 0.080980375 0.0057632676
0002e0 67 65 15 3b c0 07 10 bb 92 36 53 3c 49 61 63 bd
       0.0022796036 -0.0021977276 0.012891429 -0.0555127
0002f0 10 6c f6 bc 0a f7 c2 3c d3 75 5c bd 65 88 f5 bd
       -0.030080825 0.023799438 -0.053823303 -0.11988906
000300 c2 a4 30 3d 11 74 94 bd 79 d9 a2 bd b4 72 96 3d
       0.043125875 -0.072487004 -0.07951636 0.07346097
000310 9c 2b de 3d 16 47 0c 3d a5 50 2e bc a1 f0 74 3d
       0.108481616 0.03424748 -0.010639344 0.059799794
000320 7e 3e 4b 3d 85 11 df bd ac c6 28 3d a6 d0 10 bd
       0.049620144 -0.108920135 0.041205093 -0.035355233
000330 a7 54 0b 3d 45 0c c4 bc c7 c1 21 3d 47 32 19 bb
       0.034016278 -0.023931632 0.03949144 -0.0023375915
000340 8b 6b 4f bd af b1 6b bd ae 16 9e 3c 64 b8 c3 bd
       -0.05063967 -0.0575425 0.019297924 -0.09556654
000350 a0 c4 23 3c af 59 63 bd 5e 8c 32 bd 10 0a 32 3d
       0.0099956095 -0.05550545 -0.043590896 0.043466628
000360 f1 12 63 3d d9 4f fc bc 69 6d 04 3c 9d 68 b3 3c
       0.055437986 -0.030799793 0.008082726 0.02190047
000370 4a a9 eb 3c 48 30 8a 3c ef 2e b3 bc 86 cd e3 3d
       0.028767247 0.016868725 -0.021872966 0.11123185
000380 a2 b1 93 bc c4 56 18 bd f2 f8 32 bd ba 4d ad bd
       -0.018029038 -0.03719212 -0.043694444 -0.08462091
000390 1e 1e 40 3d 2b 83 db 3d f5 f6 12 3d 15 bb 47 3d
       0.046903722 0.10718378 0.035880048 0.0487624
0003a0 97 14 98 bc 42 c4 6a bd c9 15 57 3d 63 75 37 3d
       -0.018564506 -0.057316072 0.05251101 0.044789683
0003b0 5e f7 68 bd 2b 54 a3 3d 35 e2 a6 3d 94 98 0a 3c
       -0.056876533 0.07975038 0.08148614 0.008459229
0003c0 00 5e c8 3b e4 de be 3d 16 c7 7a bd a6 0c a2 3c
       0.0061147213 0.09319857 -0.06122502 0.019781422
0003d0 c3 83 d4 bc 32 1e cd 3c 8d 6a b6 bc 13 0b ca 3d
       -0.025941735 0.025038812 -0.022267604 0.098653935
0003e0 49 52 28 3d c4 08 ba bd d2 63 39 3d a1 27 1f 3d
       0.0410941 -0.09083703 0.04526121 0.038856152
0003f0 c5 f5 0c bd c9 3a 0e 3e 71 b0 08 bc 7e c7 f3 3c
       -0.03441407 0.13889612 -0.008342848 0.029758211

conv_layers.1.bias f4 [64]
000000 ef 40 0a be 67 05 3d bd 4f af 77 3c e6 24 74 3d
       -0.13501333 -0.04614773 0.01511748 0.0596055
000010 49 5c f9 3c 1f 69 9b 3d d6 27 ce bc bc ba d9 3c
       0.030439513 0.0758841 -0.02516548 0.0265783
000020 3c f8 b7 3d 95 b3 46 bc 16 9d 66 bd 07 e1 bd bd
       0.08982894 -0.012127777 -0.056302153 -0.09271436
000030 36 0e 2d 3d a1 4b a2 bd 9e 38 39 3d 14 a3 bb 3d
       0.04224988 -0.07924581 0.04522001 0.09161964
000040 c0 15 53 bd 26 4b 6d 3d bc 3e f0 bb cc df a2 bd
       -0.051534414 0.057932995 -0.0073316973 -0.07952842
000050 fa 2c 98 3d 18 ee 4e 3d 02 22 e5 bb 00 bc 0a bc
       0.074304536 0.050520033 -0.0069925794 -0.008467674
000060 c3 f5 1d 3d aa 69 95 bc ea 40 28 3c 96 3a fb 3b
       0.038564455 -0.018238861 0.010269383 0.007666896
000070 4b fb b4 bc be 98 2c bd 6c f6 09 bd fc eb 44 bd
       -0.022092482 -0.042137854 -0.03368227 -0.048076615
000080 2e e6 06 3d e6 1f 4b bc f4 a6 1b be 85 e8 b5 bc
       0.03293436 -0.012397742 -0.15200406 -0.0222056
000090 a9 e1 d2 bd 75 30 58 bc 5c 51 47 bd 8b a3 95 3d
       -0.102969475 -0.013195147 -0.048661575 0.07306584
0000a0 11 5a 88 bd 10 63 6b 3c 54 4c 70 bd 74 9b 06 3d
       -0.06657804 0.01436688 -0.058666542 0.032863095
0000b0 7c 6e ad 3c ce 78 e8 bd 14 5a de bd db 03 68 bb
       0.021170847 -0.11351167 -0.10857025 -0.0035402689
0000c0 0b 54 b6 bd fc 7f 49 bd fb e3 c0 3c af 3f e6 bc
       -0.08902749 -0.04919432 0.02354621 -0.028106539
0000d0 95 b3 28 3d 61 9b 51 3d c3 53 81 3c d6 d5 d4 bc
       0.041186888 0.05117357 0.015787011 -0.025980871
0000e0 2e a1 0f bc 9b 36 0a bd 2d af 70 bd e1 c9 e7 3b
       -0.008766456 -0.033743482 -0.05876081 0.0070736264
0000f0 17 d2 5d bd 80 4a d7 bc a0 26 e2 bc f8 53 1e 3c
       -0.054155435 -0.026280642 -0.027606308 0.009663574

conv_layers.2.weight f4 [64, 256, 4]
000000 3f ad e5 3d 99 bc 39 bc 0f 36 ce bc b0 31 96 3c
       0.11214685 -0.011336469 -0.025172262 0.01833424
000010 0c 39 d1 bc 92 c7 f9 3c c6 aa 20 3d 7c f2 a3 bc
       -0.025539897 0.03049067 0.039225362 -0.020013086
000020 ae 12 85 bc ba 7f af bc 03 3d 15 3b 21 ee c5 3d
       -0.016244259 -0.02142321 0.0022771962 0.0966456
000030 c1 90 57 3d 99 fb c3 3c a8 6a bc bc 29 6a c2 3c
       0.052628282 0.023923682 -0.023000076 0.023732262
000040 55 04 24 bd ef 76 62 3b fe fc 58 bb 39 f9 08 bd
       -0.040043194 0.0034555753 -0.003310978 -0.033440802
000050 cb f4 36 3d 16 be 17 bd f7 4e 17 3d 4c 6e 43 bd
       0.044667047 -0.037046514 0.03694054 -0.04771261
000060 7a fa cc 3d 76 d2 a2 3b b1 4e da bd 36 21 bd bc
       0.10008712 0.0049689366 -0.106595404 -0.023087125
000070 29 58 aa 3c 82 a2 2c 3c 2b 30 5a bd 8f f9 3c 3d
       0.020793991 0.010536792 -0.053268593 0.046136435
000080 14 ef 5b 3d 56 bc 91 3d 07 a9 bf bb ac 35 de 3c
       0.0536948 0.07116 -0.005849007 0.027125202
000090 d3 3e aa bd 92 5b c2 3c a3 84 8d bd 92 dd a3 bc
       -0.08312764 0.023725305 -0.06910064 -0.020003114
0000a0 f2 21 4c 3c e2 6b 99 bc 0c f9 fb 3b 77 ce 57 3c
       0.012459265 -0.0187282 0.007689601 0.013171784
0000b0 e0 1d 32 3d 2e 2c d1 bd 0f e5 bb 3c ca 9d 0e 3b
       0.043485522 -0.10213505 0.022936372 0.002176153
0000c0 8d 3f 05 3d 76 6c 15 bc 97 47 1f bd f6 a9 e9 bb
       0.03253131 -0.009120097 -0.038886633 -0.0071308566
0000d0 80 bd 94 bd 8b 42 d2 bd a8 7a ac 3c f4 8b 3a bb
       -0.07262707 -0.10266598 0.02105458 -0.0028464766
0000e0 7c 30 7c bd df 04 00 3d e5 48 8d bc bb 15 14 3d
       -0.061569676 0.031254645 -0.017246673 0.036153536
0000f0 fd 9e 97 3c d2 39 ea bb 50 8e e9 3c de db 91 3d
       0.018508429 -0.007148006 0.028510243 0.071220145
000100 33 75 b4 3d 46 e2 0d bd cb d9 ac 3c b8 76 99 bd
       0.088114165 -0.03463962 0.021099946 -0.07493347
000110 28 ac b1 3b 1d f9 ba bc 6f f6 a1 3d b1 04 b3 3d
       0.005422134 -0.022823865 0.079083316 0.08741129
000120 ba ca 93 bd bb 05 a2 bc a7 3c 64 bd b4 52 e7 ba
       -0.072164014 -0.019778123 -0.055721905 -0.0017648549
000130 7a f4 9a 3c 03 ca 02 3c 60 b0 aa 3d 68 c9 67 bd
       0.018915404 0.007982734 0.08334422 -0.05658856
000140 5e 3f 2b bc 1d d1 85 bc f8 74 39 bd 24 5f fb bc
       -0.01045212 -0.016335065 -0.045277566 -0.030685015
000150 96 39 76 3c 1e 47 33 bc ce 74 30 bd e0 d5 f8 bb
       0.015028378 -0.010942249 -0.043080144 -0.0075938553
000160 c3 7c 11 bd 51 97 3a bc 49 9e 6b bd a3 07 2a 3d
       -0.035519373 -0.011388616 -0.057524 0.04151119
000170 eb a8 4b 3d a5 44 0d 3d cf c3 ac bd 8d 03 bc bc
       0.04972164 0.034489293 -0.08435785 -0.022950912
000180 b9 6a 92 3d b6 2b d0 bd 9b 9b c7 3d 2a 56 cc bb
       0.07149262 -0.10164587 0.09746476 -0.0062358575
000190 68 6e 99 3d b9 6f 1f bd 4c a9 b4 bc 73 fa 8b bd
       0.074917614 -0.038924906 -0.022053383 -0.06834879
0001a0 69 22 84 3d 29 43 94 bc 30 ed 89 3c ba c7 dd 3c
       0.06451876 -0.01809843 0.016836733 0.027072776
0001b0 49 66 26 3d ec 91 71 bc d6 8d 1e bd 65 a3 88 bb
       0.04062489 -0.014744263 -0.038709484 -0.004169869
0001c0 85 5e a2 3c 5e 8c 08 bd f7 04 2d 3a 61 73 18 3d
       0.019820461 -0.03333699 0.0006600166 0.03721941
0001d0 57 2b eb 3c 75 7a ad 3c 2e 76 ff 3c b4 36 d8 3b
       0.02870719 0.021176556 0.031184282 0.006598318
0001e0 79 de 80 3d 79 13 fa 3c 9b 03 5a 3d 35 e1 db bb
       0.06292433 0.030526863 0.053226095 -0.0067101964
0001f0 a3 02 aa 3c 73 88 11 bd e9 39 92 3d 05 89 d6 3d
       0.02075321 -0.03553052 0.07139952 0.10475353
000200 f7 95 7e 3c 0b ba 49 bc 62 1d 72 bc 01 55 3b bd
       0.015538684 -0.0123124225 -0.014777513 -0.045735363
000210 a0 95 8b bd c1 87 79 3d 88 b6 bf 3c 12 41 1c bc
       -0.06815648 0.06092048 0.023402467 -0.009536998
000220 cd af 2e bd 23 e7 91 bd a8 13 25 bd 6b 3b ab 3c
       -0.042648125 -0.07124164 -0.04030195 0.020902356
000230 20 e9 13 3c cd 12 06 be 6d c5 bc 3d 90 11 30 bd
       0.009027749 -0.1309311 0.092173435 -0.0429855
000240 6f 0d 1e 3b 0a 5d f0 bc bc d8 3c bc 8c 6c ae bd
       0.0024116894 -0.02934124 -0.011526283 -0.085167974
000250 07 20 e0 bd 84 24 b3 3c 44 85 95 3d 2b dc 5b bd
       -0.10943609 0.021867998 0.07300809 -0.053676765
000260 33 68 4a 3d ee 8e 0a 3d 3d e0 a7 bc e6 f9 40 3c
       0.04941578 0.033827715 -0.020492667 0.01177833
000270 ce f2 be bc 11 5d 85 3d 5e 41 2e bd 4a 9d 83 bc
       -0.023309138 0.06511892 -0.042542808 -0.016066212
000280 5e e5 44 bc a2 27 2d 3d 45 84 99 3b 93 8e 12 3d
       -0.012017576 0.042274125 0.004684957 0.0357805
000290 9a 64 c2 3c 40 df 4d bd 89 87 b0 3d ad 78 25 bc
       0.023729611 -0.050261736 0.08619601 -0.010099572
0002a0 af 3a a7 bd 3b f1 9c bb ea 33 47 3d 85 1d 51 bb
       -0.0816549 -0.004789499 0.048633493 -0.0031908464
0002b0 27 2b 18 3d 24 d7 a2 bc b7 d8 01 3c bc 7d b0 3d
       0.03715053 -0.019877978 0.007925204 0.08617732
0002c0 de 38 05 bc d1 f0 46 bd ed c3 42 3b 1a e5 19 bd
       -0.008131234 -0.048569504 0.0029718832 -0.037572004
0002d0 98 50 3d 3c e6 fd 2a 3e 9a 18 28 3c d0 50 5b bd
       0.01155486 0.16698417 0.010259772 -0.053543866
0002e0 8a 3a 6c bd 7c 3f 0e 3d 6b 72 5d 3d 8c 21 4d bd
       -0.057673015 0.034728512 0.054064196 -0.05008082
0002f0 d1 3b 01 3d 6c 60 ce 3c 7a 48 06 bd d6 af 9b 3c
       0.031551186 0.025192462 -0.032783963 0.019004744
000300 63 74 ae bc 51 5e ab 3d 89 f8 d7 bc e9 75 89 3c
       -0.021295732 0.08367599 -0.026363628 0.016779857
000310 a2 75 23 bd e7 64 7b 3d 66 5a 2d bd fa 26 6b 3d
       -0.039907105 0.061375525 -0.04232254 0.057410218
000320 ec c9 3d 3d b7 a0 f2 bd c7 d1 47 3c 3b 6d 94 3d
       0.046335146 -0.1184706 0.012196011 0.072473966
000330 44 f7 3b bd 2b 43 b5 bb 80 8a ee bd b2 51 2e bd
       -0.045890108 -0.0055316887 -0.116475105 -0.04255838
000340 c5 a5 86 3d 83 99 3a 3d 87 97 06 3d aa 51 97 3d
       0.06574587 0.045556556 0.03285935 0.07388623
000350 e6 c1 56 3c e5 31 ad bc af 58 14 be b5 8a ac bc
       0.013107752 -0.021141956 -0.14486955 -0.021062234
000360 60 7c 8e bc ef 2d 72 3d dd 94 61 bc 1a c9 b3 3c
       -0.017393291 0.059125837 -0.013768402 0.021946479
000370 95 fe 8c 3d 10 55 50 3d 95 fb 7c 3c 8f 1c 8f 3b
       0.06884495 0.050862372 0.015440841 0.004367418
000380 9b d9 20 3d df 16 23 3d d4 4b 6f bd 31 0a 2e 3d
       0.039270025 0.039816733 -0.058421925 0.042490188
000390 aa 9e fc bc 98 89 24 3d 92 74 93 bc d6 ed 1f bb
       -0.030837376 0.040170282 -0.017999921 -0.0024403236
0003a0 12 17 00 3d 6b 9b a1 3c 32 13 6c bc 70 13 9c 3d
       0.031272 0.01972743 -0.014408873 0.07620895
0003b0 bc ef 3c 3c 85 02 05 bc db 2f 05 bb 8c 30 9f bc
       0.0115317665 -0.0081182765 -0.0020322714 -0.019432329
0003c0 2f 07 c8 3c 6d 6f 93 bc c7 25 c1 3c 25 58 03 bb
       0.024417488 -0.017997468 0.023577584 -0.0020041552
0003d0 08 b4 7c bb 3c 05 a1 bc 78 96 80 bd dc d7 87 bc
       -0.0038559455 -0.019655816 -0.062787 -0.016582422
0003e0 67 fc 9b 3c 9e ab 8f 3d 48 d6 d9 3c 2d 35 6b 3b
       0.019041253 0.07015155 0.026591435 0.003588985
0003f0 74 91 c6 bd b6 8b 2a bd 34 03 17 3d 79 d5 83 3d
       -0.09695712 -0.041637145 0.03686829 0.06437201

conv_layers.2.bias f4 [64]
000000 c8 fe 41 bc 53 df 1a 3d 85 32 9f 3c 04 cd 9d b8
       -0.01184053 0.037810635 0.01943327 -7.5245305e-05
000010 ed 52 e8 bc 9b ce 91 3c 6a fb 91 3d f0 73 d2 bb
       -0.028359855 0.017798712 0.071280316 -0.0064225122
000020 e9 fe 94 3d 5d 70 d7 bb 27 c6 6a 3d 5a 36 9d 3d
       0.07275183 -0.006574674 0.05731788 0.07676382
000030 f6 f6 a0 bd 16 89 70 3d d2 4f a1 bc ec ba e0 bd
       -0.07859604 0.058724485 -0.019691382 -0.109731525
000040 7d 80 e3 bd cb 3f ea bc 4b a1 ab bc 4d 66 86 bc
       -0.111084916 -0.028594872 -0.020950934 -0.016406203
000050 75 dc f4 bb c2 fa b9 bd 54 a6 9d 3d d8 a8 cd bc
       -0.0074725696 -0.090810314 0.0769774 -0.025104925
000060 30 27 2e bd a8 47 8a 3c 68 56 61 3c 89 b0 bb bd
       -0.04251784 0.016879871 0.013753511 -0.09164531
000070 d0 6f 86 3c 7c 8f 49 bc 56 1f c1 3c 84 fc ac bb
       0.016410738 -0.012302276 0.023574512 -0.0052791256
000080 50 e1 9e 3b 4f 7c 21 3d b8 f9 cd 3d 57 a0 2b bd
       0.0048486367 0.03942519 0.10057396 -0.04190096
000090 67 51 71 bd 06 c1 20 bc 8c da 7c 3d 29 ba 5b 3d
       -0.058915522 -0.009811645 0.06173186 0.053644333
0000a0 12 81 5f 3d b0 50 12 3d fa 68 0e bd 1b c1 12 3d
       0.05456645 0.03572148 -0.034768082 0.03582869
0000b0 71 b6 02 3d 8e ab d6 3d f5 c5 43 bd 18 9f 1b 3d
       0.03191227 0.1048194 -0.04779621 0.03799352
0000c0 02 95 9e 3d 37 7b 01 bd bc 2f 4f 3c bc fa 0b be
       0.07743265 -0.031611647 0.012645658 -0.13669866
0000d0 f9 1b a7 bd bd 52 d8 bd 01 5e 12 bd 23 e3 d4 bd
       -0.08159632 -0.10562656 -0.03573418 -0.103948854
0000e0 8a 14 c8 3a 0c 3f 6b 3d e2 7a 76 bd 33 f5 70 bd
       0.001526491 0.057433173 -0.060175784 -0.05882759
0000f0 0c 61 b5 3d 7e 76 2c bd ea 00 85 3d 03 30 1a bb
       0.08856401 -0.04210519 0.06494315 -0.0023527152

conv_layers.3.weight f4 [64, 256, 5]
000000 80 ba 91 3b 87 6b 65 3d 4b 6e 04 3d 84 43 cb bd
       0.0044472814 0.05601075 0.032331746 -0.09924987
000010 35 38 64 3d 55 6f 70 bd 61 88 0f 3e 23 5c 50 bc
       0.055717666 -0.058699924 0.14016868 -0.01271728
000020 fd ea 14 3d cf 4a b5 3d 03 5f 71 3d 88 7f 9b bb
       0.036356915 0.08852159 0.0589285 -0.0047454275
000030 0c 39 94 bd 49 05 ba 3d df d4 d1 bc f8 3a a3 bb
       -0.07237443 0.09083039 -0.0256142 -0.004981395
000040 95 0d 84 bc 48 af 0a 3e bc a6 15 bd 27 cd ee 3c
       -0.016119758 0.13543427 -0.036535963 0.029150559
000050 51 6e cc bc d2 b2 82 bd 66 0b c7 bc 56 47 03 3c
       -0.024954947 -0.063817635 -0.024297427 0.008012613
000060 98 79 8c bd 5d 48 15 3d db be 32 3d 31 c3 85 3d
       -0.0685913 0.036445964 0.043639045 0.065313704
000070 74 88 7f bc 1c a4 a2 bd 48 7e da bc 58 5c 58 bd
       -0.015596498 -0.07941458 -0.026671544 -0.05282244
000080 13 a2 92 3d 88 ae 06 3e 96 c2 f5 3b 5e 96 ce 3c
       0.071598195 0.13152516 0.007500003 0.025218185
000090 f8 01 ae 3c 2a da a7 bb 24 dc ba bb 61 08 0b 3b
       0.021241173 -0.0051224427 -0.0057025123 0.002121471
0000a0 b8 7b d0 bc 2d d7 0a bc cd 61 56 bd cd 4d 2c 3c
       -0.025449619 -0.0084741535 -0.052339364 0.010516596
0000b0 18 f8 82 3d 0f 3d 15 3c 98 8c d0 bb 13 d6 67 bc
       0.063949764 0.009108796 -0.0063644163 -0.01415016
0000c0 c8 40 84 3d 63 8e 66 3d f8 ad 69 3c 21 d8 1c bd
       0.064576685 0.056288134 0.014262669 -0.038292054
0000d0 a6 f3 65 bd 78 4a 8b bc e1 9e 11 bc 84 47 aa 3b
       -0.056140564 -0.017003283 -0.008887977 0.0051965136
0000e0 46 73 68 bc a7 db 08 bd dd 3d 45 bc 4f bf c4 bd
       -0.01418764 -0.0334126 -0.012038675 -0.09606802
0000f0 61 30 3a bd 87 1f 7d bc 22 df d3 3d fd 27 9a bd
       -0.045456294 -0.015449411 0.103452936 -0.075271584
000100 fc 14 85 bc c2 91 48 bd 4d df 18 3d 41 ce 84 3d
       -0.016245358 -0.04896713 0.03732233 0.06484652
000110 bb cf b9 3d 31 11 d1 bc a9 bb 80 3d 1f 7e 5a ba
       0.090728246 -0.025520893 0.06285793 -0.00083348335
000120 04 2f 9e bd 17 30 cb bd 21 cd 70 bc 20 32 a5 bb
       -0.07723811 -0.09921282 -0.014697344 -0.0050413758
000130 31 fd 50 3d 0e f7 84 3d 71 57 80 bd 41 11 ee 39
       0.051022712 0.064924344 -0.06266678 0.00045407753
000140 fd a2 4e bd 8b 79 5d 3d eb 65 df bc 5d 88 b9 3d
       -0.050448406 0.05407099 -0.027270278 0.09059212
000150 af a2 95 bd 3a 63 03 3d 6c 57 98 bb fe 1b b4 3c
       -0.0730642 0.03207705 -0.0046490934 0.021986004
000160 8c e1 30 3d d6 8b cd bb f1 1d 3d bd f7 3e aa 3d
       0.04318385 -0.0062727733 -0.046171132 0.08312791
000170 3d 51 da 3c 69 6a e2 3b 13 1c d4 bc b7 39 90 3d
       0.026650066 0.0069096577 -0.025892293 0.07042258
000180 0d b2 48 3d ad 79 99 ba 08 d6 6e 3d fa f7 db 3d
       0.048997927 -0.0011709236 0.058309585 0.10740657
000190 2d a5 10 3d 4a 06 fc bd 0b ba 09 3d 82 4e bd 3d
       0.035313774 -0.12305887 0.03362469 0.0924349
0001a0 79 cc 6a bd 76 30 15 3d 24 53 46 3d c5 cc a6 bd
       -0.057323907 0.03642317 0.048419133 -0.081445254
0001b0 6e f9 bf 3c cb a7 87 bb 88 fc 21 3d 86 b2 8f bd
       0.023434367 -0.0041398755 0.039547473 -0.070164725
0001c0 df d2 c5 3d 0f dd 31 bd 9d 5b be bb 80 ab 19 bc
       0.09659361 -0.04342371 -0.005809261 -0.009379268
0001d0 03 8a 83 3d 87 b0 4a bc fb c1 07 bd aa e7 d0 3c
       0.06422808 -0.012371189 -0.03314398 0.025501091
0001e0 46 ba 80 bd 7c 14 88 3b 8c 3b e9 bc 3a 05 8a 3c
       -0.06285529 0.0041528326 -0.028470777 0.016848195
0001f0 35 7d 62 bd ee 58 8b 3d 6d d8 85 3d 19 29 8b 3d
       -0.055295188 0.06804071 0.065354206 0.06794948
000200 0e 98 23 3d 0f b5 18 3e 54 95 15 bd 8a 90 8f 3c
       0.039939933 0.14912818 -0.036519364 0.017524976
000210 b7 11 72 bc ba 37 b6 3a 75 58 43 bc 0b 9e 9e bd
       -0.014774731 0.0013902106 -0.011922945 -0.07744988
000220 a5 a6 0c bc a7 d8 99 bd b2 17 18 bd a0 91 9b bb
       -0.008584653 -0.07512026 -0.037131973 -0.0047475845
000230 cc bd 15 3c cf ec ab bc d7 f3 9c ba b3 28 15 bd
       0.009139489 -0.020986943 -0.0011974525 -0.036415767
000240 46 a1 8f bd 47 85 0e bd ff 3b 2c 3c aa 20 47 3d
       -0.07013182 -0.034795072 0.010512351 0.048615135
000250 30 18 a9 3d 23 af c6 bd 6d 5c e8 3d a1 54 66 bc
       0.082565665 -0.097013734 0.11345754 -0.014058263
000260 c3 c8 54 3c 7a ad 31 bd 17 f4 2e 3b 9b 13 41 bd
       0.012987318 -0.04337833 0.0026695782 -0.047137838
000270 42 1f 2c 3d a8 1e 88 3d e7 b6 3f bd 78 a6 74 bd
       0.042021997 0.06646472 -0.04680529 -0.05972907
000280 f9 d9 f5 3b af 18 9b 3c c6 b9 89 bc 51 bf d9 3a
       0.007502791 0.018932668 -0.016812216 0.0016612803
000290 80 ec bd 3b be 3c ee bb af 3c f1 bd f2 6a 08 3c
       0.0057960153 -0.0072704246 -0.117791526 0.008326279
0002a0 9e 77 83 3d ba 05 59 bd 48 ed d0 bc 3d 7f 1e bb
       0.064192995 -0.052983977 -0.02550377 -0.0024184727
0002b0 28 37 6f bb 3b 38 ee 3c bb b3 a1 bd 1a 81 95 3d
       -0.0036501382 0.029079547 -0.07895609 0.07300015
0002c0 2c be a7 3c 73 29 1c bd b1 16 b2 bc c2 e3 bf 3c
       0.020476423 -0.038125467 -0.021739336 0.023424033
0002d0 96 37 c9 3c 7f 6e 4d 3d 53 a0 81 3d b4 fe e1 3c
       0.024562638 0.050154205 0.063294075 0.027587272
0002e0 e9 55 a5 bc 81 34 5e bd 4c 7a 5e bb bf ea 5c bd
       -0.020182567 -0.05424929 -0.0033947406 -0.05393481
0002f0 98 46 2a bd 4f 8e 83 3d ac 74 11 bd 10 d3 74 3d
       -0.04157123 0.064236276 -0.035511658 0.059771597
000300 0e 39 11 3d 4e 95 c2 3c 01 70 e5 3b b6 a9 b4 3d
       0.035454802 0.023752835 0.0070018773 0.08821432
000310 76 75 15 bd e4 fc 5d bc f6 f4 15 bd ce 10 29 3d
       -0.036488973 -0.013549063 -0.036610566 0.04127579
000320 21 be 14 3d b1 cd 8e 3d 82 16 39 bd 4c 67 2d bc
       0.036314134 0.06972826 -0.04518748 -0.01058371
000330 fb d9 58 3d 6a d4 8c 3d 0d ca 5c 3b e7 bf b9 3c
       0.052942257 0.06876452 0.0033689768 0.022674514
000340 92 22 b4 3d 60 cc ca 3a 7e 7d 3a 3d 11 69 18 3d
       0.08795656 0.0015472285 0.045529835 0.037209574
000350 3d 3a fd bc 59 96 2a 3d 1f 94 b3 3b 57 29 00 3e
       -0.03091156 0.04164729 0.005480304 0.1251577
000360 2d 24 71 bc 91 f0 00 bd 51 7f 39 be 06 aa f0 bd
       -0.014718098 -0.031479422 -0.18114974 -0.117511794
000370 ef 80 0d 3e da 1c 96 3c b2 2f cf bd dc 20 07 bd
       0.13818716 0.018324304 -0.10116519 -0.03299032
000380 ad dd 73 bd 68 47 69 bc 36 f0 e1 3a c6 50 bc bc
       -0.05953758 -0.014238216 0.0017237726 -0.022987735
000390 21 e6 30 bc 11 64 cd bc ff 65 34 bd 35 1d cd 3c
       -0.0107970545 -0.02507213 -0.044042584 0.025038341
0003a0 f0 9e e8 3c 0b a8 e6 3c c3 1c 55 bd a3 fa 53 bd
       0.0283961 0.028156301 -0.052029382 -0.051752698
0003b0 be 34 62 3c 04 4b 02 3d df 07 1f 3c e6 2d b5 bc
       0.01380652 0.03180982 0.009706466 -0.022116613
0003c0 49 5e 5a 3d 24 df 3f bd 36 5d 89 bc 86 c0 99 3d
       0.053312574 -0.046843663 -0.01676808 0.07507424
0003d0 df 94 5b bb ef 72 6f bb b8 37 11 bd 7e cb 50 bc
       -0.0033505482 -0.0036537012 -0.03545353 -0.012743829
0003e0 e2 56 10 3c 44 f5 80 3c b8 5b 2f bd d4 a3 70 3d
       0.008809777 0.015741952 -0.04281208 0.05874999
0003f0 c4 03 04 3b d1 b7 59 3d df 49 a5 bd 6c 6c 18 3d
       0.0020143846 0.053153817 -0.080707304 0.037212774

conv_layers.3.bias f4 [64]
000000 7d 4b 07 be 55 7d f4 bc a3 99 f2 bc bf 0b 7e 3c
       -0.1321239 -0.02984492 -0.029614275 0.01550573
000010 66 10 09 bd 12 f3 09 3b 77 48 19 3d 80 95 30 bd
       -0.033462904 0.0021049422 0.037422623 -0.043111324
000020 67 7f 40 bd 03 6b 9d 3d 4b 7d ae bd 64 86 5e bc
       -0.0469965 0.076864265 -0.085199915 -0.013581846
000030 69 fe 9d 3c 20 14 b2 bd 20 fc d7 3d 43 85 43 bd
       0.019286351 -0.08695245 0.10546136 -0.04773451
000040 71 d1 56 bd 51 03 5d bc 94 fd 03 bd 3f 7f aa 3c
       -0.052445833 -0.01348956 -0.032224253 0.020812629
000050 6b 09 2d 3d 15 61 53 bc 79 5b 6c bc a2 8f 19 bd
       0.04224531 -0.012901564 -0.014426106 -0.037490495
000060 f3 a0 ed bd 30 4a 19 be 23 6c c1 3d d8 a8 df bb
       -0.11602964 -0.14969707 0.094444536 -0.0068255477
000070 f7 52 8a 3c 7a 48 f7 bd 10 43 c9 bd c3 af 7a 3d
       0.016885264 -0.12074371 -0.09827244 0.061202776
000080 76 4d f1 3d 40 88 75 3d f2 1b dd bd 76 53 90 bd
       0.117823526 0.05994439 -0.10796346 -0.07047169
000090 c0 78 39 bd 07 ba 4d bd c3 f7 87 bc 6b 74 b1 bd
       -0.04528117 -0.050226238 -0.016597634 -0.08664783
0000a0 72 dc 4f bd dd e8 f7 bd e9 40 55 bc fa 0d 0c 3c
       -0.050747342 -0.12104962 -0.013015964 0.008548254
0000b0 af ab 45 bc 49 02 da bb cc 11 10 bd f5 8a 0b bb
       -0.012064858 -0.0066531044 -0.035173222 -0.0021292542
0000c0 36 02 c4 bb ec 91 d0 bc 33 4c 4d bc 3d 00 77 3d
       -0.005981709 -0.025460206 -0.012530374 0.06030296
0000d0 68 b6 10 bd f4 49 f8 3c 8c 60 01 3d eb 5e 17 be
       -0.035330206 0.030308701 0.031586215 -0.14782302
0000e0 dc 1b 79 bd e0 f9 7a bd 02 60 62 3d d3 3a 9d 3b
       -0.060817584 -0.061273456 0.05526734 0.004798272
0000f0 f4 4a 23 bd 76 f1 94 3d 82 53 c7 bc 29 6f 89 bd
       -0.039866403 0.072726175 -0.024331812 -0.06710655

fc1.weight f4 [64, 256]
000000 1f ab 30 bd 47 5f b8 3c 77 19 b7 bc ec 47 cf ba
       -0.043131944 0.02250637 -0.02235101 -0.0015814281
000010 0d a3 90 bd ff 60 f0 3c db 48 9a 3d bb 74 ef 3a
       -0.070623495 0.029343126 0.07533427 0.0018269041
000020 c8 08 eb bc 50 e9 e2 bc 1c 09 db bc e4 a3 30 bd
       -0.02869071 -0.027699143 -0.026737742 -0.04312505
000030 5e 75 05 bc b1 eb 81 bd f5 08 2b 3d ef d0 4c bc
       -0.008145658 -0.06343783 0.04175659 -0.0125009855
000040 b6 81 71 bd fe bb f6 bc 5d 54 16 bc 0b 09 cc bb
       -0.058961593 -0.030118939 -0.009175387 -0.006226664
000050 d9 50 90 bb eb 89 04 3d ee 76 a4 bb c1 52 91 bd
       -0.004404169 0.03235809 -0.0050190603 -0.07095862
000060 5e 3c 94 3b 59 ce 1b bd e5 e0 44 3d f0 25 36 bd
       0.004523798 -0.038038585 0.04806604 -0.044469774
000070 7f e4 b5 3c 2c 38 65 3b 0d 60 8f bd bc 76 8e bc
       0.022203682 0.0034976108 -0.07000742 -0.017390601
000080 1f 2a e4 bc c9 af c3 bc a1 dc 78 bd bb 5e 0e 3d
       -0.027852116 -0.023887532 -0.060757283 0.03475831
000090 dd e7 45 bc d8 43 9f bd 5a eb 8b bd ce 98 00 3d
       -0.012079206 -0.07776612 -0.06831999 0.031395726
0000a0 9c 3a 7c bc d5 94 87 bc c1 36 3f 3d 00 ac e4 bc
       -0.015394833 -0.01655046 0.046683077 -0.027914047
0000b0 cc ab 0d bd 80 11 b7 bc 7c 1e b3 3c e3 e0 08 bd
       -0.034587666 -0.022347212 0.021865122 -0.033417594
0000c0 7e ea 92 bd 1e 50 cb 3a 81 3f 01 bd 30 4e 0c bd
       -0.07173632 0.0015511548 -0.031554703 -0.034254253
0000d0 98 de d9 bc d5 d5 b5 3c 23 b9 78 3d 74 dd 08 bd
       -0.026595399 0.02219669 0.060723435 -0.03341432
0000e0 aa c7 e6 bc be 9f ff 3c 13 6e 2e 3c 57 ce f9 3b
       -0.02817138 0.0312041 0.010646361 0.0076234746
0000f0 2e da c4 3c 2a 3d 86 bd 4c 1a ca bc 41 42 f2 3c
       0.024029817 -0.06554635 -0.024670742 0.029572608
000100 62 1c 20 bd cc 4f d2 bb ca 0b 4a 3d c3 a5 93 bd
       -0.039089568 -0.006418204 0.04932765 -0.07209351
000110 53 29 60 bc d5 c2 50 3c 72 cc 86 bd 80 a0 49 3c
       -0.013681727 0.012741764 -0.065819636 0.012306333
000120 0f a6 30 bc 3c bc 47 bd 14 0a a8 bc dc 30 10 bd
       -0.010781779 -0.0487635 -0.020512618 -0.035202846
000130 15 48 29 bc 36 9d 38 3d 8f 40 3a bd e9 61 bd 3c
       -0.010332127 0.045071803 -0.045471724 0.023117976
000140 23 a4 d8 3c 6f e7 5d bd 37 96 85 3c 99 ed 5e bd
       0.026445454 -0.05417579 0.01630698 -0.05442581
000150 62 57 8a bc 66 4a 10 3d fc f0 78 3b 61 6a 4c 3c
       -0.01688737 0.035227202 0.0037985435 0.012476535
000160 7c 5c 01 bd 1c 61 da 3a 46 11 d9 3c 75 e5 42 bd
       -0.03158234 0.0016661021 0.026497494 -0.04758211
000170 48 8e e6 3b e5 49 51 bd 5f ae 0a 3b d8 97 45 3d
       0.007036004 -0.051095862 0.0021161062 0.048240513
000180 c3 4f 7c 3c 76 af 46 3d 2c 21 36 bd 18 29 ac b9
       0.015399876 0.048507176 -0.04446523 -0.00032837014
000190 b3 57 aa 3b 56 b8 14 bd f5 f5 e6 3c 86 87 aa 3a
       0.005198443 -0.03630861 0.028193453 0.001301036
0001a0 9d 93 89 3c b8 5a 42 3d 30 7d 5a bd 78 a1 8d bd
       0.01679402 0.047449797 -0.053342044 -0.06915563
0001b0 fa 3a d1 3b 19 c8 c8 bc cd 11 17 bd de 2f 8f bc
       0.0063852044 -0.024509476 -0.03688221 -0.01747888
0001c0 01 32 5b bc 20 29 0b 3c 22 bb b6 3c 5e 8d 48 ba
       -0.013378621 0.008493692 0.022306029 -0.000765046
0001d0 49 7f 72 bd 3d 53 8c 3b 6e 0a 09 bc e3 0d 74 bc
       -0.05920342 0.0042823837 -0.008364303 -0.014895889
0001e0 51 e9 e8 bc d0 02 1c bd 93 cd 09 3c 97 eb 1e 3d
       -0.028431566 -0.03808862 0.008410829 0.038798895
0001f0 b8 7d 30 bd 9c 3d 43 bd 61 8d 1a bc de 26 d4 bc
       -0.043088645 -0.047666177 -0.009433121 -0.02589744
000200 d6 b8 5b bd 61 c7 16 3d 3e 04 0f 3c e7 c2 25 3c
       -0.05364307 0.036811236 0.008729039 0.010117269
000210 c0 9b 77 bd 60 e9 88 bd 0d e3 5d bc ea cb 13 3d
       -0.06045127 -0.06685138 -0.013542903 0.03608314
000220 4f d2 b4 3c 89 4e 6f bd f3 1f 11 bb 2e a8 5a b9
       0.02207294 -0.058424506 -0.0022144287 -0.00020852752
000230 a9 ee 34 bd 05 56 0c bc 75 3e 67 3b 42 4b 99 bc
       -0.044172917 -0.0085654305 0.003528503 -0.018712644
000240 b0 04 50 3d 23 c2 2a 3d c3 be 22 3d 10 05 e1 3c
       0.05078572 0.04168905 0.039732706 0.027468234
000250 d6 63 37 bc fe 69 95 bc 4b b6 85 bd 4f a9 9d bc
       -0.011193236 -0.018239018 -0.0652891 -0.019245772
000260 d5 20 96 bd 95 d3 10 3c bc 18 9c bc 53 1c 7d bc
       -0.07330481 0.008839508 -0.019054763 -0.015448648
000270 26 72 8c bc 7c 43 81 bd 76 29 1d 3d a2 4d 4c bd
       -0.017144274 -0.063117 0.03836962 -0.049878724
000280 19 28 14 3d f6 b0 27 3d ae 10 be bc 88 58 8c bc
       0.036171053 0.040940247 -0.023201313 -0.017132059
000290 72 5b 27 bd e5 10 65 bd 8a 4c d8 bc 5f 54 67 bd
       -0.040858693 -0.055924315 -0.026403684 -0.056476947
0002a0 e0 0a fe 3c 01 73 50 3c 42 0b 7a bd 87 8a 5d bc
       0.031011045 0.012722732 -0.061045893 -0.013521797
0002b0 03 65 e9 bc 0c 7c 09 bd cc 8b 7d bd 4d e2 48 3d
       -0.028490549 -0.033565566 -0.0619009 0.049043942
0002c0 38 8e ee bc 8b 94 29 3c 9f 20 62 bc 16 dd d5 3c
       -0.02912055 0.010350357 -0.013801723 0.026106399
0002d0 3d 98 09 3c 0d 55 3e bc b4 1c 0d 3d d5 57 d2 bc
       0.008398113 -0.011616957 0.0344512 -0.025676647
0002e0 bb 0f 59 bd 09 c3 7a bd c0 d4 fe bb d3 ac 49 bd
       -0.052993517 -0.061221156 -0.0077768266 -0.049237084
0002f0 bd 18 89 bd c1 a2 5c 3c 9d db f5 ba 43 e6 cd b9
       -0.066941716 0.013466538 -0.0018757466 -0.00039272205
000300 6e 3f dc 3b e6 17 2d bd e1 b3 5f bd f2 64 74 bd
       0.0067214286 -0.04225912 -0.054614905 -0.05966658
000310 40 11 ea bc 1a 29 86 bd 05 41 53 bd 13 3c cb 3c
       -0.028572679 -0.06550808 -0.05157568 0.024808919
000320 bb 44 19 3c 39 97 5c bd 1f 8a 99 bb 15 aa 01 3d
       0.0093547655 -0.053855155 -0.004685655 0.031656343
000330 0c 8f 1b 3d f8 59 4c bd 5e 4a f9 bc cc 2d 2f 3c
       0.037978217 -0.04989049 -0.030430969 0.010692071
000340 54 87 a4 bb ac 20 62 3c 9c 36 d4 3b 0a 22 3e 3d
       -0.005021015 0.013801735 0.0064762365 0.04641918
000350 da 98 6e 3c 72 fa 92 bd bd 6a 90 bc 79 09 46 bd
       0.01456281 -0.07176675 -0.017629022 -0.048348878
000360 24 d5 ab 3c 39 13 36 3c 3b 81 09 bd b8 f7 05 bd
       0.020975657 0.0111129815 -0.03357051 -0.032706946
000370 d5 d3 c0 3c 52 5c 81 3c 91 84 62 3d 90 63 ce bc
       0.02353851 0.015791092 0.055302206 -0.02519396
000380 2b e0 2b 3c 0e 74 05 3c 04 8a d4 bc 6d a1 3c bd
       0.0104904575 0.008145345 -0.025944717 -0.046052385
000390 ee 3e 27 bd 7e 06 03 3c 7e 62 85 bd 2c 7e c8 3c
       -0.0408315 0.007997153 -0.065129265 0.024474226
0003a0 05 6c a5 bc b4 12 90 3c b0 69 8a bd a7 56 04 bd
       -0.02019311 0.017587043 -0.067584395 -0.0323092
0003b0 ee 1f 09 bd 3a b1 72 bc 3f 3a 32 3b b6 bc 51 bd
       -0.033477716 -0.014812762 0.0027195362 -0.05120536
0003c0 62 40 03 3d e9 60 58 bd 4a f1 2a 3a 75 74 4a bd
       0.032043822 -0.052826796 0.000652094 -0.04942747
0003d0 8d 90 5a bd 23 18 9f bc 3d 81 90 3c 7a df 49 3d
       -0.05336051 -0.019420689 0.01763975 0.04928539
0003e0 e5 05 bb bc a4 4f e9 39 52 8b 45 bd ba 65 78 bd
       -0.02282996 0.0004450056 -0.04822857 -0.06064389
0003f0 b8 85 65 3d 37 d5 2c bd e6 8b f0 3c 5b 4b de 3c
       0.056035727 -0.042195525 0.029363584 0.027135542

fc1.bias f4 [64]
000000 d2 bf 64 bd ef 2c 09 be 31 f7 2f 3c 98 56 30 bc
       -0.055846997 -0.13396047 0.010740087 -0.010762833
000010 fd c3 16 bd 20 38 2d be 79 a5 92 bb 41 a9 87 bd
       -0.036808003 -0.16915941 -0.0044752923 -0.066240795
000020 00 b7 76 3c d6 7d b2 bd 7d 16 35 3d 8b 81 21 3d
       0.015058279 -0.087154076 0.0442109 0.039430182
000030 91 d6 56 bd 42 39 37 bd d4 eb 94 3c 17 23 a3 bb
       -0.05245072 -0.04473234 0.018178858 -0.0049785483
000040 00 ee 07 3d b7 ce 02 3c e3 29 e9 3c ed 89 10 bd
       0.03318596 0.007983855 0.028462356 -0.035287786
000050 48 45 88 bd 80 ab 81 bd 69 97 d6 3d 76 ef 09 3d
       -0.06653839 -0.06331539 0.10478098 0.033675633
000060 3b a6 59 bd 4f 81 4e bc 0d 32 24 3b a3 58 56 3b
       -0.053137045 -0.012604072 0.0025054247 0.003270664
000070 c7 c9 3b 3d ff 97 1f bd 00 4e 6a bd b9 dc a1 bc
       0.045846727 -0.038963314 -0.057203293 -0.01975857
000080 bb c6 84 bd 2f 7d 63 3d 2a 54 6b bd bc cf 52 3c
       -0.06483217 0.055539306 -0.057453312 0.012866911
000090 bb f6 94 bd e7 d9 a9 bc af 64 2b 3d 2c 87 cb bd
       -0.072736226 -0.020733787 0.041844066 -0.09937891
0000a0 60 7f 55 3c cb 7f a0 bd 92 1c 9f ba 5b 80 dd 3c
       0.013030857 -0.078368746 -0.0012139252 0.027038744
0000b0 5d e1 68 3d 05 2a 52 bd d6 a3 de bc c9 97 72 3d
       0.05685555 -0.051309604 -0.027177732 0.059226785
0000c0 ab a0 0e 3d 08 cb 6a bd c5 3e ed 3c 19 4e 88 bd
       0.034821194 -0.057322532 0.028960595 -0.06655521
0000d0 9e 61 7f 3d 90 77 4b 3d 45 0c 86 3d 64 d7 06 bd
       0.062348954 0.04967457 0.06545309 -0.032920256
0000e0 42 07 98 3c 97 f3 d3 3d ea 1b 4a bd d4 23 41 bd
       0.018558148 0.103491955 -0.049343027 -0.04715331
0000f0 9c a3 95 3d 2e 6c ce 3b 28 63 72 bd af 99 8b bb
       0.07306597 0.006299517 -0.059176594 -0.004260264

batch_norm.weight f4 [64]
000000 cc 88 80 3f 4c 2d c0 3f 1a 55 7d 3f c6 56 c2 3f
       1.0041747 1.5013824 0.9895798 1.5182731
000010 49 46 ac 3f 06 68 d9 3f 52 fd 7c 3f 43 e5 b4 3f
       1.3458949 1.698487 0.98824036 1.4132465
000020 6f 76 7e 3f 14 41 f5 3f 49 eb c6 3f 34 e0 04 40
       0.99399465 1.9160485 1.5540553 2.0761843
000030 e2 66 7e 3f e7 83 c1 3f 2c d4 7c 3f ca ef b0 3f
       0.99375737 1.5118378 0.9876125 1.3823178
000040 17 1e ce 3f 5a 6c bc 3f 0d 09 c3 3f 4f 7e f6 3f
       1.6102933 1.4720566 1.5237137 1.9257296
000050 a0 55 9f 3f 1d bf 7c 3f 90 04 bf 3f 3d 0d 7f 3f
       1.2448006 0.98729116 1.4923267 0.99629575
000060 da 9c 7e 3f 36 f5 7d 3f 23 a6 7d 3f 67 9b 8c 3f
       0.99458086 0.9920229 0.9908163 1.0984925
000070 48 af a6 3f 93 df 98 3f 4d c4 dc 3f 6d 2d bb 3f
       1.3022242 1.194323 1.7247406 1.4623238
000080 1a 2b 7e 3f 29 5f c2 3f ce 5c ad 3f 32 6f ca 3f
       0.9928452 1.518529 1.3543947 1.5815184
000090 70 d0 b3 3f fe c4 bf 3f e9 5e ae 3f bd 63 b1 3f
       1.4047985 1.4981992 1.3622714 1.3858563
0000a0 89 fd 81 3f 66 c7 79 3f dc fd b4 3f c7 59 b4 3f
       1.0155498 0.9756988 1.4139972 1.4089898
0000b0 ea cc cb 3f 3a a2 7e 3f 10 1c ad 3f 07 f2 a7 3f
       1.592191 0.9946629 1.3524189 1.3120736
0000c0 df 77 7e 3f ca 5e a4 3f 66 e1 7d 3f 79 d9 7d 3f
       0.9940166 1.2841427 0.99172056 0.9915996
0000d0 3d 96 c8 3f 00 00 80 3f 3e e2 bd 3f c4 fd c0 3f
       1.5670849 1.0 1.4834669 1.5077443
0000e0 01 0b 7b 3f 5a b7 b4 3f 6c 76 7e 3f fa c4 df 3f
       0.98063666 1.4118454 0.9939945 1.7481987
0000f0 f7 e8 f9 3f 81 5a 79 3f 08 ee 7c 3f 3b 95 b6 3f
       1.952422 0.97403723 0.98800707 1.4264292

batch_norm.bias f4 [64]
000000 71 8e 5e 3d 72 7f 1a ba 6d a7 03 3b 6f f2 8f b9
       0.05433506 -0.00058936246 0.0020088807 -0.00027455713
000010 40 6f d7 bb 66 14 09 3b a8 21 5d bc aa ae 3f bd
       -0.0065745413 0.00209167 -0.013496794 -0.046797432
000020 98 c6 8d 3a 6c 90 bc 3c a1 d8 27 3b 42 c0 3c 3c
       0.0010816632 0.023018084 0.0025611299 0.011520447
000030 cf c4 28 3d f0 d6 6b bc 7e 37 1b 3d 2d 42 86 bc
       0.041203316 -0.014394507 0.03789472 -0.016388977
000040 4e 80 32 3d 35 30 27 ba a5 39 b7 bc 5e a4 16 bc
       0.043579392 -0.0006377728 -0.022366354 -0.009194462
000050 2f d9 0c 3c a0 9e 49 3d b9 26 a7 bb 51 24 50 3c
       0.0085967025 0.049223542 -0.0051010516 0.012703971
000060 07 49 39 3d b0 e1 70 bd 2d b5 28 b9 e9 05 c6 3b
       0.04523566 -0.058808982 -0.00016089222 0.006043185
000070 26 e5 5e bc ed b8 37 bd 09 d1 26 bc b6 5b 7e 3b
       -0.013604438 -0.044854093 -0.010181674 0.0038811988
000080 cb 60 b1 bc a5 0f 5a 3c a1 e4 46 bb c6 2e 43 bc
       -0.0216526 0.013309394 -0.0030348676 -0.011913007
000090 0b 2c c1 b9 d2 18 2b 3d ae dc ef 3b ec ad f5 bc
       -0.00036844643 0.041771717 0.0073200082 -0.029990159
0000a0 9e 51 f5 bc 33 f6 91 3d 4a 0e da ba f0 e1 0f 3d
       -0.029946145 0.07127037 -0.0016636339 0.03512758
0000b0 c7 6e 00 bc fb 73 48 39 df 22 9c ba 8c a7 10 bd
       -0.007838911 0.00019116692 -0.0011912248 -0.035316035
0000c0 76 d5 75 bd 05 e6 25 bd 11 45 54 bd 16 14 8e 3d
       -0.060018025 -0.040502567 -0.05182368 0.06937425
0000d0 eb b0 11 bc 70 8a 25 bc e6 64 6a bd 35 2b 1c 3c
       -0.008892278 -0.010103807 -0.05722513 0.009531786
0000e0 19 c6 87 bd 98 d6 f1 3b 50 8d d6 3c 0c 72 2d 3b
       -0.06629581 0.007380318 0.02619043 0.0026465682
0000f0 d8 fa 89 bb cd ec 18 3c c4 bb b4 3d 55 ed ed 3a
       -0.004210811 0.009333801 0.08824876 0.0018152395

batch_norm.running_mean f4 [64]
000000 04 00 00 00 04 00 00 00 04 00 00 00 50 70 30 01
       6e-45 6e-45 6e-45 3.2406675e-38
000010 04 00 00 00 04 00 00 00 04 00 00 00 04 00 00 00
       6e-45 6e-45 6e-45 6e-45
000020 04 00 00 00 c7 a4 c6 04 04 00 00 00 04 00 00 00
       6e-45 4.67009e-36 6e-45 6e-45
000030 04 00 00 00 04 00 00 00 04 00 00 00 04 00 00 00
       6e-45 6e-45 6e-45 6e-45
000040 a2 65 52 00 b2 77 19 01 04 00 00 00 48 15 00 01
       7.56697e-39 2.818754e-38 6e-45 2.3525156e-38
000050 04 00 00 00 04 00 00 00 04 00 00 00 04 00 00 00
       6e-45 6e-45 6e-45 6e-45
000060 04 00 00 00 04 00 00 00 04 00 00 00 04 00 00 00
       6e-45 6e-45 6e-45 6e-45
000070 04 00 00 00 04 00 00 00 04 00 00 00 ea a9 2a 00
       6e-45 6e-45 6e-45 3.918045e-39
000080 04 00 00 00 39 4c d6 01 04 00 00 00 a6 0a d4 01
       6e-45 7.872056e-38 6e-45 7.789178e-38
000090 04 00 00 00 04 00 00 00 04 00 00 00 04 00 00 00
       6e-45 6e-45 6e-45 6e-45
0000a0 04 00 00 00 04 00 00 00 04 00 00 00 04 00 00 00
       6e-45 6e-45 6e-45 6e-45
0000b0 04 00 00 00 04 00 00 00 04 00 00 00 04 00 00 00
       6e-45 6e-45 6e-45 6e-45
0000c0 04 00 00 00 04 00 00 00 04 00 00 00 04 00 00 00
       6e-45 6e-45 6e-45 6e-45
0000d0 04 00 00 00 00 00 00 00 04 00 00 00 04 00 00 00
       6e-45 0.0 6e-45 6e-45
0000e0 71 88 42 00 04 00 00 00 04 00 00 00 04 00 00 00
       6.110089e-39 6e-45 6e-45 6e-45
0000f0 04 00 00 00 04 00 00 00 04 00 00 00 04 00 00 00
       6e-45 6e-45 6e-45 6e-45
