models/Official髭男dism/classifier_fold3.pth (torch, 991011 bytes, 16 tensors)

conv_layers.0.weight f4 [64, 256, 2]
-0.030099055 0.09564469 0.030016633 0.04086623 -0.0062686955 -0.084437504 -0.10160026 0.093379766
-0.015270014 -0.084211476 -0.11175715 -0.100707285 -0.08665291 0.008354339 -0.017113067 0.014607794
0.13755763 0.04703791 -0.0108178 -0.05417678 0.008457359 -0.061172977 -0.07172516 -0.07334413
0.0316374 -0.029056674 -0.00030750796 0.028729426 0.048726507 0.006791148 -0.011594091 -0.017725853
0.08594385 0.112372704 -0.03512588 -0.016171237 -0.028437493 -0.0026154048 -0.06881459 -0.035770167
0.05286345 -0.021932973 -0.021489028 -0.07185465 0.094543695 -0.031546395 0.04558223 0.020581285
0.075458705 0.08572962 0.12139282 0.08200783 0.03858549 -0.0009729665 0.0042747 -0.0035489935
0.01835035 -0.051194195 -0.135309 0.013464788 0.019282904 0.08663727 0.017361183 -0.07988227
0.09106411 0.10586102 0.04210548 0.08392255 -0.07477241 -0.002058504 0.0047314186 0.08168152
-0.021917196 -0.044325437 -0.067602284 -0.07284645 -0.0011272768 0.011930371 0.024001429 0.031258747
-0.10117188 0.08111814 -0.007535109 -0.012461743 0.018869389 0.055859685 -0.09367708 -0.08814671
-0.011117298 -0.0033102287 0.020663785 0.0070507145 -0.025430579 -0.067196555 -0.00050471886 -0.029314281
0.05126041 0.067338206 -0.1140355 0.014334603 0.037984017 -0.043729793 -0.018779783 -0.07285909
-0.010869441 0.035980307 0.009980407 -0.043524493 0.020312866 -0.050587058 -0.067133114 -0.025825234
0.08038633 -0.02684972 0.04397121 0.023072166 -0.05202814 -0.022280585 0.037357412 -0.00667099
0.06494092 0.010252623 -0.076415256 -0.13068938 -0.05979286 0.0324645 0.034975458 0.068130195
-0.01803047 -0.04715078 0.037392642 0.04585995 0.08294511 -0.06350764 0.04946187 -0.070109844
-0.0015981667 -0.07084002 -0.06535201 0.07598891 0.12090367 -0.13781224 0.06375111 -0.0043488056
-0.055768967 -0.03173256 0.0423826 0.00074676314 -0.030710666 -0.0006538414 -0.09918191 0.046845462
-0.01690353 -0.0051606186 -0.039767805 0.08021661 0.026260165 -0.054033436 -0.03736123 0.016225593
0.009011356 0.0034259476 -0.0792659 -0.061419383 -0.011161321 0.021930583 -0.0040932614 -0.025436476
-0.10312141 0.05819421 0.022086011 0.030068222 -0.07278022 0.055054944 0.058250148 -0.040898915
0.019260174 -0.059956852 0.13942641 0.021269869 0.10221478 0.06457429 -0.020403039 -0.022157481
-0.037150968 -0.00075982476 0.09930115 0.027693277 0.07188453 0.027472697 -0.08906125 -0.11433342
-0.06964419 0.018669596 -0.009775793 0.04177995 -0.039096277 0.017211344 0.008828594 0.009214803
0.04993386 -0.05468026 0.02756194 -0.07138994 -0.0162114 0.0158657 0.018879304 0.09312551
0.0047648633 -0.05989887 -0.046473365 0.035201356 -0.060697712 0.012605166 0.06619015 -0.0470458
-0.050206292 0.020453239 0.121702 0.017126992 -0.058817875 0.0327941 -0.016410617 0.017397184
-0.12368618 -0.048572347 0.0554369 0.0004540109 0.055938408 -0.061407797 0.005647629 0.028716195
0.143692 0.011317281 0.07085102 -0.054422524 0.026392177 0.03353474 0.053591724 -0.053369623
-0.07303901 0.05999068 0.06270084 0.051123124 0.029550046 0.093962066 0.1726567 -0.035594784
-0.0039086193 -0.014850755 -0.05087097 -0.053239726 -0.018103529 -0.026670998 0.01688199 0.06050133
00000000: 4b92 f6bc 5de1 c33d 71e5 f53c 5963 273d
00000010: a169 cdbb 92ed acbd cc13 d0bd e43d bf3d
00000020: 152f 7abc 1177 acbd efe0 e4bd 9f3f cebd
00000030: 1577 b1bd a3e0 083c b430 8cbc 8755 6f3c
00000040: e8db 0c3e d3aa 403d 243d 31bc 79e8 5dbd
00000050: bc90 0a3c 8490 7abd a4e4 92bd 7235 96bd
00000060: 3896 013d 4308 eebc 0539 a1b9 f959 eb3c
00000070: 7295 473d 4788 de3b 24f5 3dbc cf35 91bc
00000080: 5403 b03d a923 e63d 28e0 0fbd 8b79 84bc
00000090: bff5 e8bc 3667 2bbb aaee 8cbd bd83 12bd
000000a0: 5887 583d c7ac b3bc c209 b0bc 8828 93bd
000000b0: 20a0 c13d cb36 01bd 6fb4 3a3d 159a a83c
000000c0: 188a 9a3d 0393 af3d cc9c f83d b9f3 a73d
000000d0: d20b 1e3d ad0e 7fba c812 8c3b 3b96 68bb
000000e0: 7953 963c 01b1 51bd 718e 0abe 6a9b 5c3c
000000f0: 2ef7 9d3c e26e b13d 0a39 8e3c 5199 a3bd
00000100: d27f ba3d aacd d83d cc76 2c3d 96df ab3d
00000110: 4722 99bd f7e7 06bb 040a 9b3b a448 a73d
00000120: b18b b3bc 978e 35bd 1173 8abd 8530 95bd
00000130: 22c1 93ba 9a77 433c a59e c43c 2c09 003d
00000140: 3433 cfbd 4421 a63d 13e9 f6bb 572c 4cbc
00000150: fa93 9a3c 20cd 643d c5d9 bfbd 4386 b4bd
00000160: 5425 36bc 6cf0 58bb 1947 a93c ae09 e73b
00000170: ca53 d0bc 599e 89bd 1c4f 04ba 8124 f0bc
00000180: 70f6 513d 9de8 893d 728b e9bd afdb 6a3c
00000190: 2195 1b3d 031e 33bd 0fd8 99bc 2637 95bd
000001a0: bd15 32bc 1660 133d dc84 233c bd46 32bd
000001b0: 2b67 a63c 6034 4fbd 167d 89bd 718f d3bc
000001c0: 97a1 a43d f2f3 dbbc 281b 343d d701 bd3c
000001d0: 751b 55bd c685 b6bc 1604 193d 5298 dabb
000001e0: bfff 843d 9efa 273c 9a7f 9cbd 70d3 05be
000001f0: 5ce9 74bd 7ff9 043d 6d42 0f3d d887 8b3d
00000200: a3b4 93bc 2d21 41bd 0729 193d a5d7 3b3d
00000210: 20df a93d 4b10 82bd 8898 4a3d c095 8fbd
00000220: 9379 d1ba 9314 91bd 46d7 85bd 13a0 9b3d
00000230: 589c f73d a71e 0dbe f18f 823d 6d80 8ebb
00000240: 006e 64bd 00fa 01bd 6199 2d3d 6dc2 433a
00000250: ef94 fbbc 8e66 2bba e31f cbbd 07e1 3f3d
00000260: 4679 8abc 681a a9bb 91e3 22bd 9b48 a43d
00000270: 8f1f d73c 2a52 5dbd 1708 19bd 89eb 843c
00000280: 5ea4 133c dd85 603b 2956 a2bd e492 7bbd
00000290: f9dd 36bc c4a7 b33c c420 86bb 2860 d0bc
000002a0: 5131 d3bd 0d5d 6e3d b9ed b43c a251 f63c
000002b0: cc0d 95bd 4b81 613d b597 6e3d 9f85 27bd
000002c0: 83c7 9d3c 5195 75bd ccc5 0e3e 263e ae3c
000002d0: fc55 d13d 863f 843d 4624 a7bc 9b83 b5bc
000002e0: 9d2b 18bd fa2e 47ba 675e cb3d 03dd e23c
000002f0: 3238 933d 6c0e e13c bf65 b6bd a427 eabd
00000300: 9da1 8ebd fbf0 983c a62a 20bc 7421 2b3d
00000310: 6b23 20bd cefe 8c3c cfa5 103c aff9 163c
00000320: 7287 4c3d 69f8 5fbd 94c9 e13c e434 92bd
00000330: c5cd 84bc c9f8 813c c5a8 9a3c 96b8 be3d
00000340: 9222 9c3b 8458 75bd db5a 3ebd 4c2f 103d
00000350: 2a9e 78bd e685 4e3c b48e 873d 19b3 40bd
00000360: 1da5 4dbd 8d8d a73c e63e f93d e84d 8c3c
00000370: 03eb 70bd 1b53 063d 8f6f 86bc 8a84 8e3c
00000380: 2e4f fdbd ccf3 46bd ce11 633d 5008 ee39
00000390: ac1f 653d be86 7bbd bf0f b93b 3a3e eb3c
000003a0: ff23 133e 1e6c 393c 571a 913d 27ea 5ebd
000003b0: 6834 d83c b95b 093d ff82 5b3d 1b9a 5abd
000003c0: 7a95 95bd cab8 753d 4c69 803d 7b66 513d
000003d0: f012 f23c 2f6f c03d ebcc 303e d6cb 11bd
000003e0: e013 80bb 9550 73bc 145e 50bd e611 5abd
000003f0: da4d 94bc 237d dabc 194c 8a3c 3ed0 773d

conv_layers.0.bias f4 [64]
-0.11074708 0.008582202 -0.09539923 -0.03298299 0.08078795 0.06569559 -0.12503433 0.024989221
-0.012257691 -0.07250815 -0.008419672 0.055269934 -0.12221821 0.028213114 0.06953628 0.0017197909
-0.061527193 -0.019643972 0.0045913504 0.04123437 -0.06384354 0.057170603 0.047220126 0.058074437
0.019564876 -0.17402004 0.012822273 -0.037031304 -0.11285417 -0.04732191 -0.015203035 0.08427174
-0.13877153 0.09670898 -0.0037685127 0.03222793 0.11104611 -0.073239416 -0.07998221 -0.012054783
0.015590603 -0.121349975 0.07213888 -0.0935129 -0.023132164 0.00073665654 0.04250106 0.049709078
-0.012497365 0.009455954 -0.030003492 -0.054397237 -0.028402166 -0.023294747 -0.019838294 -0.10626676
-0.032850396 -0.06808831 0.06525326 -0.12693654 0.089592546 -0.057991106 -0.025999215 -0.06486855
00000000: 5dcf e2bd 5d9c 0c3c ac60 c3bd 2c19 07bd
00000010: 2774 a53d 698b 863d 0009 00be 32b6 cc3c
00000020: 7bd4 48bc 277f 94bd aaf2 09bc ba62 623d
00000030: 8a4d fabd 301f e73c 0a69 8e3d 9b6a e13a
00000040: f003 7cbd 65ec a0bc 0a73 963b 5fe5 283d
00000050: 67c0 82bd b92b 6a3d e469 413d 76df 6d3d
00000060: 8546 a03c 4f32 32be 8314 523c 23ae 17bd
00000070: 1620 e7bd 9ed4 41bd 2716 79bc a996 ac3d
00000080: 201a 0ebe 5c0f c63d 27f9 76bb 6f01 043d
00000090: 256c e33d 8cfe 95bd b7cd a3bd 6d81 45bc
000000a0: bb6f 7f3c 5686 f8bd 8dbd 933d b183 bfbd
000000b0: aa7f bdbc 2f1c 413a 9715 2e3d bf9b 4b3d
000000c0: bfc1 4cbc 25ed 1a3c e2c9 f5bc a3cf 5ebd
000000d0: a9ab e8bc a0d4 bebc eb83 a2bc 63a2 d9bd
000000e0: 238e 06bd e271 8bbd 80a3 853d a7fb 01be
000000f0: 4c7c b73d 1588 6dbd 4efc d4bc cdd9 84bd

conv_layers.1.weight f4 [64, 256, 3]
-0.04543297 0.015046477 0.058605637 0.04615994 0.026158558 0.09428101 0.008427656 0.020601204
0.080197506 -0.0010077291 0.008661008 0.008099388 0.027985197 -0.103558406 0.074784055 0.0762095
-0.029990673 0.0061424305 0.017808445 0.031219535 0.026989572 0.039921533 0.022940753 0.059277155
0.008994708 -0.11305741 -0.09205006 0.09550426 -0.026564961 -0.013450818 -0.0708648 -0.13716228
-0.1340617 0.063219026 -0.009877382 0.10088763 -0.051567394 0.055746917 0.06934224 0.056594413
-0.0012620884 -0.08007137 0.049777143 0.028901083 -0.045601778 0.057213977 0.05554284 0.023814077
-0.025133558 -0.06726784 0.025766693 0.04187405 -0.0056946394 0.05677879 0.054341305 -0.012922817
-0.025957225 -0.013938248 -0.041000284 0.017891852 0.014202522 0.17461255 0.12682284 0.10739077
-0.05188031 -0.008768268 0.027616702 -0.06363489 0.060438562 -0.059903234 0.09736401 -0.061962508
-0.05535376 0.049570058 -0.045449477 0.04631078 0.017558333 -0.064642705 -0.059072204 -0.030273652
-0.0080286665 0.009743404 0.01605528 -0.07767565 0.0078842705 -0.028226336 -0.021444302 -0.082387224
-0.023400448 -0.105507925 0.0063453033 -0.0011510428 0.03267672 -0.048334077 0.028096648 0.014944044
-0.2852688 0.0094966 -0.0958744 0.04614409 0.058915563 -0.04686661 -0.03490775 0.036949698
0.06493129 -0.034143478 0.14719097 0.012597829 -0.0819127 -0.0850781 -0.05507751 0.017607875
0.010364516 -0.0040371954 -0.045893088 0.06348334 0.1261063 -0.049978577 -0.0039489795 -0.004982643
0.13341391 -0.05046055 0.039875824 0.025396997 -0.009322078 0.0135802785 0.1322915 0.015895886
-0.026994253 0.0031455155 -0.04593856 -0.018224807 -0.11137797 0.020270009 -0.054663092 -0.030354677
-0.0019888335 -0.084834926 0.07597528 -0.0322545 0.028367575 -0.02192947 0.052586164 -0.030898241
0.01909002 0.050166227 -0.10773985 0.061540827 0.034881044 -0.010864676 -0.045513432 0.09008808
-0.06266744 -0.060530398 -0.04931625 -0.049830034 -0.0024826191 -0.091304414 -0.010484825 -0.03350779
-0.027303452 -0.13074629 -0.0023308387 0.055187773 0.033643022 -0.10335496 -0.001788875 -0.015013761
0.02075345 0.01474381 0.10582577 -0.11228496 0.017608525 0.06251266 0.11320774 0.033195056
0.01230048 0.06987541 -0.029792886 -0.064871885 0.037085004 -0.074302346 0.0025341809 0.046034634
-0.14950864 -0.024180885 -0.06188494 0.07071375 -0.051162966 0.012644904 -0.046998054 0.049268253
0.019026244 -0.015000436 -0.043298956 0.12616132 -0.0009986504 -0.024236249 0.016729062 -0.046077628
0.012186674 -0.064520456 0.016016724 -0.07386097 -0.02507303 0.08015127 0.13705803 -0.03975936
-0.046847057 -0.1067491 0.002334134 -0.073329076 -0.08916884 0.1290249 0.025769679 0.02474397
0.06568354 -0.14412981 -0.033853207 0.08925274 0.0557186 -0.028974023 -0.021249518 -0.06855037
0.01610341 -0.052732356 -0.048803672 -0.044081364 -0.0692052 0.09920953 0.03225003 0.06834586
0.034893755 -0.022349726 -0.046723567 0.03532705 -0.041668657 0.015991349 0.04042475 -0.072767265
-0.07006748 -0.004493693 -0.012254516 -0.010813734 -0.056334116 0.07889977 -0.011446285 0.0398714
0.030590987 -0.06493905 0.09281551 0.061803184 0.070622206 -0.06551262 0.025116142 0.059346367
00000000: ec17 3abd 8085 763c 770c 703d 3512 3d3d
00000010: 794a d63c 6716 c13d 2714 0a3c dbc3 a83c
00000020: 973e a43d c715 84ba e7e6 0d3c 4cb3 043c
00000030: 3641 e53c 6e16 d4bd 6228 993d ba13 9c3d
00000040: 00af f5bc 7146 c93b 04e3 913c 1cc0 ff3c
00000050: 3c19 dd3c c384 233d 3fee bb3c 9acc 723d
00000060: 8a5e 133c a58a e7bd be84 bcbd bd97 c33d
00000070: c39e d9bc d260 5cbc 9021 91bd 4574 0cbe
00000080: 7847 09be fa78 813d bed4 21bc 2c9e ce3d
00000090: 5538 53bd e156 643d 4e03 8e3d 8bcf 673d
000000a0: a96c a5ba 75fc a3bd 1ee3 4b3d f7c1 ec3c
000000b0: eec8 3abd 3459 6a3d e480 633d bd15 c33c
000000c0: e4e4 cdbc b9c3 89bd ac14 d33c 2084 2b3d
000000d0: 199a babb e090 683d fd94 5e3d 39ba 53bc
000000e0: 3fa4 d4bc 405d 64bc eaef 27bd ef91 923c
000000f0: b2b1 683c a2cd 323e d9dd 013e b1ef db3d
00000100: 7380 54bd c8a8 0fbc 6c3c e23c 0253 82bd
00000110: 6d8e 773d 185d 75bd c866 c73d 66cc 7dbd
00000120: a0ba 62bd f909 4b3d 3b29 3abd 5fb0 3d3d
00000130: 7ed6 8f3c 6563 84bd b2f5 71bd 7300 f8bc
00000140: ab8a 03bc cca2 1f3c 5d86 833c 6914 9fbd
00000150: 072d 013c eb3a e7bc f6ab afbc a2ba a8bd
00000160: 4cb2 bfbc 8a14 d8bd 43ec cf3b 96de 96ba
00000170: 06d8 053d f4f9 45bd f12a e63c ddd7 743c
00000180: c10e 92be a197 1b3c cc59 c4bd 9601 3d3d
00000190: 7251 713d 34f7 3fbd 6efb 0ebd 9158 173d
000001a0: b2fa 843d 08da 0bbd 3bb9 163e 2067 4e3c
000001b0: d8c1 a7bd 6d3d aebd f598 61bd 643e 903c
000001c0: eecf 293c 734a 84bb 64fa 3bbd 8e03 823d
000001d0: 0322 013e 56b6 4cbd 7166 81bb 7045 a3bb
000001e0: a89d 083e b9af 4ebd d554 233d 5d0d d03c
000001f0: a1bb 18bc d17f 5e3c 6c77 073e 1738 823c
00000200: 0d23 ddbc fe24 4e3b 122a 3cbd 314c 95bc
00000210: 221a e4bd 4a0d a63c 68e6 5fbd 5faa f8bc
00000220: 1757 02bb efbd adbd ed98 9b3d 4b1d 04bd
00000230: 1e63 e83c 6fa5 b3bc 9764 573d 4f1e fdbc
00000240: ac62 9c3c 1a7b 4d3d b6a6 dcbd 3c12 7c3d
00000250: 6ddf 0e3d c101 32bc 4b6c 3abd 1980 b83d
00000260: c957 80bd b9ee 77bd d6ff 49bd 941a 4cbd
00000270: 70b3 22bb cffd babd 8bc8 2bbc 773f 09bd
00000280: 7dab dfbc 5be2 05be fcc0 18bb 930c 623d
00000290: 44cd 093d c4ab d3bd af78 eaba 47fc 75bc
000002a0: 2403 aa3c 0590 713c 2ebb d83d a8f5 e5bd
000002b0: c13f 903c a306 803d 76d9 e73d 8af7 073d
000002c0: f487 493c d71a 8f3d 3610 f4bc 8ddb 84bd
000002d0: 72e6 173d d42b 98bd 8014 263b d08e 3c3d
000002e0: cb18 19be fe16 c6bc 107b 7dbd 5fd2 903d
000002f0: 4290 51bd 922c 4f3c 0881 40bd 82cd 493d
00000300: eddc 9b3c 64c4 75bc 3f5a 31bd 6f30 013e
00000310: 26e5 82ba 198b c6bc 630b 893c e5bb 3cbd
00000320: 9eaa 473c 4d23 84bd 8135 833c 6c44 97bd
00000330: f465 cdbc 5926 a43d f158 0c3e b6da 22bd
00000340: b3e2 3fbd 469f dabd 45f8 183b 8e2d 96bd
00000350: 279e b6bd 1a1f 043e ef1a d33c deb3 ca3c
00000360: 1885 863d c496 13be a9a9 0abd 24ca b63d
00000370: 3039 643d ee5a edbc 7813 aebc 2364 8cbd
00000380: 4ceb 833c e2fd 57bd 5ce6 47bd a98e 34bd
00000390: 75bb 8dbd 5e2e cb3d 9c18 043d eaf8 8b3d
000003a0: c1ec 0e3d c616 b7bc 3661 3fbd 19b3 103d
000003b0: c1ac 2abd 4a00 833c 6c94 253d 0107 95bd
000003c0: 8a7f 8fbd d43f 93bb 2ac7 48bc 162c 31bc
000003d0: 9abe 66bd 3496 a13d 3389 3bbc 3150 233d
000003e0: f399 fa3c c4fe 84bd 0f16 be3d 5625 7d3d
000003f0: 60a2 903d 7b2b 86bd 5ec0 cd3c 2d15 733d

conv_layers.1.bias f4 [64]
-0.07241711 0.006048294 -0.039702196 -0.056080673 -0.026412418 -0.0030661642 0.019334702 0.12814055
-0.028665667 -0.004365119 0.0058657564 0.024264287 -0.10474563 -0.006994234 -0.08525444 -0.023305085
-0.018060733 -0.079807505 -0.03018164 0.00021724708 -0.010811852 -0.0014260791 0.02539141 -0.070229016
0.12635645 -0.04047961 -0.004641204 -0.032354083 0.054642536 -0.052153517 -0.09619443 0.07536105
0.07049778 -0.04656176 -0.10174948 0.06902505 -0.13459525 0.080450565 0.002180485 0.035519388
-0.054965574 0.032924842 0.044005148 -0.012386572 0.096005656 -0.057999633 -0.08939236 -0.012126457
0.022544144 0.053084534 0.062478118 0.023907267 -0.04759555 0.055239823 0.015751354 0.077001594
0.039807893 -0.030209923 -0.11012754 -0.11929207 0.0019949728 0.024877908 -0.01337753 -0.06990961
00000000: 6c4f 94bd c430 c63b c59e 22bd d9b4 65bd
00000010: db5e d8bc b3f1 48bb cf63 9e3c 4737 033e
00000020: 43d4 eabc 4609 8fbb 8835 c03b e6c5 c63c
00000030: e084 d6bd e32f e5bb e199 aebd 4eea bebc
00000040: 1af4 93bc 1e72 a3bd 7d3f f7bc d2cc 6339
00000050: 3224 31bc 46eb baba a501 d03c 3bd4 8fbd
00000060: 9663 013e f3cd 25bd 3e15 98bb b785 04bd
00000070: dad0 5f3d ed9e 55bd 9601 c5bd e556 9a3d
00000080: 2461 903d 8bb7 3ebd 0862 d0bd 015d 8d3d
00000090: 56d3 09be 44c3 a43d 78e6 0e3b c77c 113d
000000a0: 9523 61bd 33dc 063d be3e 343d 0cf1 4abc
000000b0: 9d9e c43d 0691 6dbd 5713 b7bd 0cae 46bc
000000c0: 7fae b83c 2b6f 593d 0ee9 7f3d 2cd9 c33c
000000d0: 8df3 42bd 2743 623d fc08 813c 03b3 9d3d
000000e0: 9a0d 233d cd7a f7bc 8c8a e1bd 674f f4bd
000000f0: 17be 023b c1cc cb3c 6d2d 5bbc c52c 8fbd

conv_layers.2.weight f4 [64, 256, 4]
0.03548583 -0.12491944 0.0396784 -0.014338258 -0.04538313 0.1457626 0.051733784 -0.016335556
-0.021893304 0.016235532 -0.067110725 -0.042852223 0.05357765 -0.07793259 -0.008947111 -0.027080236
-0.055231992 -0.036618475 -0.070009194 -0.04745622 -0.024616905 0.03516905 -0.012470083 -0.08486897
0.072856784 -0.022875495 0.05702747 0.04538277 0.032054327 0.035599507 0.062424496 0.0028606632
0.06512569 -0.08741933 -0.06405067 0.0005412297 0.0010270092 9.468044e-06 -0.09994335 0.0307046
0.087397695 0.0044576437 0.038680267 -0.00048290216 -0.0048282505 -0.03487453 0.04172268 0.012562911
-0.022625647 0.058269862 -0.061789047 0.058713913 -0.060601696 0.040797736 0.06888028 0.003845581
-0.050513163 0.00555311 -0.0144352885 -0.018836617 0.032588784 0.05883302 0.028682088 0.046949133
-0.07764634 0.054478273 0.05082689 0.028215485 -0.012449222 -0.09241227 -0.044340007 0.0424537
-0.011244683 0.03334013 0.015211839 0.06943955 -0.06617997 0.0061523207 -0.08019243 0.05119213
-0.025968146 -0.0023761874 -0.0077687064 0.13017198 -0.040250294 -0.080745555 0.13321245 0.10278856
-0.06943579 0.09632041 -0.015879877 0.11146858 0.039112296 0.10650559 -0.06388249 -0.055770144
-0.043260463 -0.038792353 -0.0033427433 0.07315398 0.014334711 -0.09595421 0.05699353 0.051551633
0.023996027 -0.09575558 -0.024378711 0.118408605 0.03617953 -0.05798632 -0.056293573 0.105904214
-0.14817135 0.044717602 -0.08123208 -0.07022183 -0.032489568 -0.0691672 -0.08691759 0.10430071
0.052070238 -0.045375016 0.092307344 -0.029820304 -0.090596326 -0.007837476 0.06698273 0.0046224776
0.13353372 0.008315566 -0.0063175214 0.043136004 -0.03857646 0.04513205 -0.02542248 -0.03142546
0.020645067 -0.022717018 -0.053802766 -0.033533126 0.03580265 0.051108226 0.078862034 -0.082873136
-0.042155802 0.12747583 0.059033427 -0.10838438 -0.034802437 0.058070496 -0.01756319 -0.10739222
-0.045852203 0.071420275 0.093485914 0.091184765 0.0046586883 0.08855148 -0.06007319 0.01861739
0.03619888 0.038312793 0.05166766 0.020594956 -0.02482992 -0.14278162 0.030358842 -0.01260267
-0.06663261 0.07417258 -0.03827726 -0.039451797 -0.03036372 0.0013813754 -0.0009166711 0.059601214
0.08680866 0.031294715 -0.0065133376 0.013701853 -0.02939959 -0.02012471 0.016402397 0.016770989
-0.019401839 0.033315606 0.005544162 0.0037825878 0.02345209 -0.025042878 0.12231696 -0.019304646
-0.012349067 0.049837727 -0.0152333295 0.018290196 0.0020162428 0.08811216 0.012796631 0.033155292
0.08562123 -0.10905874 -0.11426431 0.06652616 0.038246844 0.03891801 0.06753562 0.065481186
-0.0063158916 0.04181808 -0.010238872 0.010231743 -0.009045393 -0.06194202 0.01952931 -0.06238915
0.03579835 -0.022413136 -0.025978701 -0.075581536 -0.0083464 -0.101014 0.040321685 0.074996695
-0.016839206 0.022385495 -0.06785137 -0.003837371 -0.10094451 0.050086163 0.02554866 -0.0059338626
0.036953453 0.0810943 -0.030468618 0.07891667 0.047893118 0.02603522 0.12933986 -0.037594657
-0.060656756 0.065535575 -0.06591827 -0.057354257 -0.011131302 0.06827281 0.054106504 0.08141274
-0.026370192 0.029770048 0.060867008 0.020593105 0.069745645 0.0058449167 0.053719312 0.12332621
00000000: 9759 113d c3d5 ffbd d185 223d 03eb 6abc
00000010: a9e3 39bd ca42 153e cee6 533d 25d2 85bc
00000020: 9659 b3bc 6100 853c 5971 89bd d085 2fbd
00000030: 3d74 5b3d 1f9b 9fbd e796 12bc 5fd7 ddbc
00000040: f13a 62bd 41fd 15bd fb60 8fbd 7461 42bd
00000050: 64a9 c9bc 6c0d 103d 524f 4cbc c8cf adbd
00000060: f035 953d 6465 bbbc a395 693d 49e3 393d
00000070: 664b 033d cad0 113d d4b0 7f3d f779 3b3b
00000080: 9e60 853d e808 b3bd ff2c 83bd 4fe1 0d3a
00000090: b69c 863a f0d8 1e37 19af ccbd 3788 fb3c
000000a0: 90fd b23d 6d11 923b 336f 1e3d 082e fdb9
000000b0: 4d36 9ebb 98d8 0ebd 67e5 2a3d abd4 4d3c
000000c0: 6c59 b9bc 61ac 6e3d 8316 7dbd 007e 703d
000000d0: 7c39 78bd 871b 273d 1b11 8d3d 2506 7c3b
000000e0: e4e6 4ebd ddf6 b53b fd81 6cbc 404f 9abc
000000f0: d17b 053d e5fa 703d b3f6 ea3c bc4d 403d
00000100: 0b05 9fbd 9c24 5f3d db2f 503d 2924 e73c
00000110: d2f7 4bbc a542 bdbd de9d 35bd eee3 2d3d
00000120: 9e3b 38bc a98f 083d 143b 793c 5336 8e3d
00000130: 5d89 87bd 6899 c93b ee3b a4bd d7ae 513d
00000140: 26bb d4bc cfb9 1bbb a290 febb ce4b 053e
00000150: 7edd 24bd ed5d a5bd d868 083e cf82 d23d
00000160: 5a34 8ebd a343 c53d 8416 82bc a449 e43d
00000170: 3734 203d 9a1f da3d d3d4 82bd 3c6f 64bd
00000180: e231 31bd bbe4 1ebd ed11 5bbb c1d1 953d
00000190: 23dc 6a3c a483 c4bd 0c72 693d ce27 533d
000001a0: 5193 c43c 801b c4bd ddb5 c7bc 3680 f23d
000001b0: fd30 143d 1083 6dbd 1794 66bd 4fe4 d83d
000001c0: 3bba 17be ce29 373d 015d a6bd 76d0 8fbd
000001d0: c813 05bd 88a7 8dbd d901 b2bd 9c9b d53d
000001e0: 9a47 553d 27db 39bd a20b bd3d b649 f4bc
000001f0: 918a b9bd c268 00bc 3e2e 893d 2778 973b
00000200: 10bd 083e 033e 083c 3603 cfbb 61af 303d
00000210: 5a02 1ebd 62dc 383d ce42 d0bc fcb7 00bd
00000220: d81f a93c 0a19 babc 4a60 5cbd 085a 09bd
00000230: cda5 123d dc56 513d 6b82 a13d 64b9 a9bd
00000240: 90ab 2cbd 0689 023e 09cd 713d a1f8 ddbd
00000250: 008d 0ebd 54db 6d3d aee0 8fbc 74f0 dbbd
00000260: 85cf 3bbd cb44 923d 8b75 bf3d 14bf ba3d
00000270: e9a7 983b 7a5a b53d 4e0f 76bd 7f83 983c
00000280: 4745 143d e0ed 1c3d 78a1 533d c1b6 a83c
00000290: 1e68 cbbc 5835 12be 1bb3 f83c 6e7b 4ebc
000002a0: ae76 88bd cbe7 973d 9ec8 1cbd 3598 21bd
000002b0: 56bd f8bc 440f b53a c24c 70ba 6720 743d
000002c0: bdc8 b13d e32e 003d d66d d5bb bd7d 603c
000002d0: 69d7 f0bc 93dc a4bc 525e 863c 5063 893c
000002e0: 9bf0 9ebc f275 083d cdab b53b 4be5 773b
000002f0: 991e c03c b926 cdbc 5081 fa3d c724 9ebc
00000300: be53 4abc a522 4c3d 3795 79bc 52d5 953c
00000310: f122 043b 2674 b43d f6a8 513c d8cd 073d
00000320: 2f5a af3d 305a dfbd 6803 eabd de3e 883d
00000330: b9a8 1c3d 7e68 1f3d 1d50 8a3d 001b 863d
00000340: 8af5 cebb 6f49 2b3d f1c0 27bc 0aa3 273c
00000350: 2133 14bc eab6 7dbd eefb 9f3c c48b 7fbd
00000360: 4aa1 123d c19b b7bc 49d1 d4bc 7eca 9abd
00000370: 57bf 08bc 6ee0 cebd 5a28 253d de97 993d
00000380: 60f2 89bc c961 b73c a9f5 8abd 677c 7bbb
00000390: ffbb cebd 2627 4d3d 6c4b d13c d970 c2bb
000003a0: 815c 173d c514 a63d 5399 f9bc 109f a13d
000003b0: 932b 443d d047 d53c ab71 043e dbfc 19bd
000003c0: 3873 78bd 8437 863d 2800 87bd 4cec 6abd
000003d0: 1160 36bc 9dd2 8b3d c89e 5d3d b9bb a63d
000003e0: 4d06 d8bc 51e0 f33c af4f 793d dfb2 a83c
000003f0: ced6 8e3d b786 bf3b c808 5c3d 7492 fc3d

conv_layers.2.bias f4 [64]
-0.095643215 -0.07661858 -0.047109388 0.0048609874 -0.0050445893 0.010891704 -0.015249475 0.013898803
-0.029154493 0.052768312 0.07016119 -0.07887441 0.023979113 -0.10344632 -0.021967944 0.0031579062
-0.08138412 -0.029079476 -0.18209468 -0.041869517 -0.00062130834 -0.10669167 0.07818648 0.041645672
0.103458494 0.03589661 -0.043502077 -0.045221258 -0.043302283 -0.0056120884 -0.08533454 0.023615932
-0.13787876 0.015646243 -0.0424728 -0.06553723 0.015668312 -0.019415637 -0.06286543 -0.0010733693
-0.03709335 0.06632065 -0.03471917 0.049571835 0.0751532 -0.070547216 -0.1830971 -0.08390779
0.051417544 -0.04122648 -0.042952936 -0.091434814 -0.1825642 -0.049253076 -0.010297553 0.013098385
-0.047365203 -0.016160343 -0.06260675 0.05232304 0.010461333 -0.047524802 0.10014057 -0.0014608143
00000000: 97e0 c3bd 34ea 9cbd c6f5 40bd eb48 9f3b
00000010: 154d a5bb 1e73 323c efd8 79bc ceb7 633c
00000020: 67d5 eebc 9623 583d acb0 8f3d e888 a1bd
00000030: d86f c43c aadb d3bd 1ef6 b3bc e0f4 4e3b
00000040: b8ac a6bd 1538 eebc 0777 3abe 5f7f 2bbd
00000050: 4cdf 22ba 2a81 dabd 3c20 a03d a794 2a3d
00000060: 0ce2 d33d 5308 133d 3c2f 32bd ed39 39bd
00000070: bc5d 31bd 9ce5 b7bb e0c3 aebd 3376 c13c
00000080: 1730 0dbe 8d2c 803c f5f7 2dbd 6238 86bd
00000090: d55a 803c 8b0d 9fbc 97bf 80bd 4cb0 8cba
000000a0: 32ef 17bd 1fd3 873d b035 0ebd d60b 4b3d
000000b0: ece9 993d 0f7b 90bd ce7d 3bbe d9d7 abbd
000000c0: 349b 523d 19dd 28bd 6bef 2fbd 2d42 bbbd
000000d0: 1cf2 3abe 98bd 49bd 11b7 28bc 9c9a 563c
000000e0: 0402 42bd b262 84bc f837 80bd af50 563d
000000f0: 0366 2b3c 5ea9 42bd 8016 cd3d cb78 bfba

conv_layers.3.weight f4 [64, 256, 5]
-0.018383661 -0.058994886 0.021906745 -0.041717097 0.047846884 0.035466984 0.08342478 -0.04508613
0.08374165 0.046364162 0.044206608 0.056042958 -0.08083525 0.025481243 -0.08128995 0.0012303708
-0.050143693 -0.0892721 0.081375025 -0.06311568 0.0031535774 -0.023560734 0.022666601 0.027387507
0.026452702 -0.041378256 -0.03167685 0.08649085 0.0050034327 -0.058202352 0.037285626 0.03463643
0.062896386 0.0019210946 -0.081568934 -0.012222188 -0.015181942 0.015564912 0.06114431 -0.04650436
0.0007262204 -0.06450013 0.069993116 -0.1449532 0.07041792 -0.03742404 -0.04039427 0.06908306
0.071818866 -0.086803705 -0.09247377 0.0045442004 -0.06753882 0.0180229 -0.01640381 0.027178911
0.09285852 0.018289207 0.041929197 -0.017956574 0.021041775 -0.16365807 0.07204737 0.021493241
-0.043433003 -0.007239661 0.02603993 0.0012350599 0.03186339 -0.055889666 -0.02248403 0.07391041
-0.063771516 -0.03424903 0.0033646098 0.059790026 0.033879723 -0.09607828 -0.08793763 -0.06496858
0.027056666 -0.062869795 0.06833117 0.03631492 -0.09098187 0.13422742 0.024502294 -0.019838614
0.0057874653 0.028409643 0.10196704 -0.02589256 -0.008562579 -0.0055514625 0.13033882 0.07333504
-0.041905902 -0.08376007 0.02874891 -0.011504193 -0.03198356 0.04131773 -0.13251978 0.1239636
0.03279451 -0.0051510017 0.016732851 -0.005233119 -0.0025940465 -0.11329675 -0.0034147436 0.019561011
-0.040445454 -0.03846076 -0.07653008 0.022873787 0.026535582 0.0182387 0.056793146 0.1154179
-0.0056862924 0.056237906 0.014662889 0.052363265 -0.053346198 -0.011672657 -0.16651644 0.0449547
0.012882109 -0.117078565 -0.01558881 -0.08634448 -0.052457 0.02608257 -0.09535602 -0.04835176
-0.06129738 -0.09302223 -0.01427593 -0.094837494 -0.10291703 -0.025184195 -0.058380708 0.038468696
-0.03129889 0.0047456194 0.013787933 -0.0047624274 -0.008240742 -0.051843427 0.07378925 0.025737584
0.05132527 -0.028472867 -0.056631807 0.09740711 -0.007172307 0.01461634 -0.0053642844 -0.028692197
-0.09817416 0.028433176 0.047431473 0.079626806 0.017614372 0.043529056 -0.120570816 0.021895729
-0.010550167 0.08620429 -0.090969115 0.047727652 -0.026881043 0.037144676 -0.020971512 -0.02409671
0.053391155 0.000690105 -0.10865705 0.037502073 -0.04237664 0.0033970778 -0.007707776 -0.016153926
0.016640656 -0.09865811 -0.035714436 -0.03618939 -0.05479923 -0.020423796 0.053699892 0.07354159
0.00017247995 -0.06460203 -0.099988654 0.056400783 -0.0039737797 0.035963412 0.016542345 -0.035956398
0.06077045 0.13061628 0.008355145 -0.027316049 0.0094050225 0.05576138 -0.046570722 0.028551979
0.017468678 -0.027513754 0.10848087 0.030585809 -0.010505503 0.031008044 -0.06835195 0.019516371
-0.026517903 0.055370964 -0.0066725886 -0.07053168 0.090335086 0.049369097 0.073446296 0.066795975
-0.14286932 0.08186232 -0.069816604 -0.06602274 -0.0076805074 -0.0125148725 0.07539989 0.06372056
0.045083098 0.004021844 -0.013328514 0.092568725 -0.07662896 0.087282315 0.10524797 -0.07483107
-0.06921081 0.0018903946 -0.00781427 -0.02662324 0.069053985 0.05040132 -0.059231732 -0.029422216
-0.1095379 -0.06939913 0.035059743 -0.021639202 -0.14761823 0.080053836 -0.030107802 0.027453825
00000000: 5599 96bc 9fa4 71bd c675 b33c 8cdf 2abd
00000010: 18fb 433d d445 113d 9cda aa3d 3cac 38bd
00000020: be80 ab3d 59e8 3d3d fd11 353d 4d8d 653d
00000030: f48c a5bd 0abe d03c 587b a6bd 6544 a13a
00000040: 7963 4dbd 4ad4 b6bd f3a7 a63d cb42 81bd
00000050: 40ac 4e3b 7102 c1bc 4faf b93c c45b e03c
00000060: 56b3 d83c 3f7c 29bd 96bf 01bd 1d22 b13d
00000070: d6f3 a33b 9765 6ebd d0b8 183d eede 0d3d
00000080: d2cf 803d 3dcd fb3a 9d0d a7bd 923f 48bc
00000090: aebd 78bc f903 7f3c 7572 7a3d 5b7b 3ebd
000000a0: d35f 3e3a a518 84bd 8d58 8f3d 9d6e 14be
000000b0: 4537 903d f349 19bd 7674 25bd 6b7b 8d3d
000000c0: c515 933d 24c6 b1bd e362 bdbd 84e7 943b
000000d0: cb51 8abd c3a4 933c 4861 86bc 4fa6 de3c
000000e0: 9c2c be3d 3fd3 953c f3bd 2b3d aa19 93bc
000000f0: cd5f ac3c fb95 27be 928d 933d 9812 b03c
00000100: cee6 31bd ae3a edbb b151 d53c bce1 a13a
00000110: 3083 023d 90ec 64bd 6e30 b8bc 575e 973d
00000120: a49a 82bd b648 0cbd c980 5c3b 63e6 743d
00000130: 77c5 0a3d b0c4 c4bd a518 b4bd 3f0e 85bd
00000140: f1a5 dd3c e1c1 80bd 36f1 8b3d f4be 143d
00000150: b454 babd ea72 093e 09b9 c83c 9784 a2bc
00000160: c7a4 bd3b 57bb e83c 18d4 d03d a21c d4bc
00000170: 0f4a 0cbc 0be9 b5bb 8a77 053e ae30 963d
00000180: 86a5 2bbd 668a abbd d682 eb3c 157c 3cbc
00000190: 3201 03bd c83c 293d 44b3 07be a1e0 fd3d
000001a0: 8953 063d bcc9 a8bb 5513 893c 957a abbb
000001b0: e100 2abb 2008 e8bd e4c9 5fbb 6a3e a03c
000001c0: 22aa 25bd 0889 1dbd cdbb 9cbd cf61 bb3c
000001d0: 2661 d93c 5469 953c ee9f 683d 3860 ec3d
000001e0: 1454 babb b859 663d 9d3c 703c dd7a 563d
000001f0: 8b81 5abd ac3e 3fbc 4983 2abe 6b22 383d
00000200: 7b0f 533c e3c6 efbd 3568 7fbc 60d5 b0bd
00000210: 27dd 56bd 1dab d53c 044a c3bd 7f0c 46bd
00000220: f612 7bbd 7082 bebd 97e5 69bc 293a c2bd
00000230: 2ac6 d2bd 164f cebc 9c20 6fbd 5a91 1d3d
00000240: 4433 00bd 2481 9b3b c8e6 613c 230e 9cbb
00000250: 2d04 07bc c659 54bd d11e 973d a0d7 d23c
00000260: 723a 523d ee3f e9bc c1f6 67bd 617d c73d
00000270: ac05 ebbb 6079 6f3c e1c6 afbb e60b ebbc
00000280: 890f c9bd b1ec e83c 8147 423d 6113 a33d
00000290: 044c 903c 864b 323d d5ed f6bd ac5e b33c
000002a0: 9cda 2cbc e08b b03d 044e babd 127e 433d
000002b0: a235 dcbc 0425 183d 73cc abbc 7766 c5bc
000002c0: afb0 5a3d 2ae8 343a 9687 debd c69b 193d
000002d0: 2193 2dbd 82a1 5e3b 8391 fcbb 3d55 84bc
000002e0: fc51 883c 430d cabd 4d49 12bd 533b 14bd
000002f0: 2875 60bd ce4f a7bc 6bf4 5b3d f99c 963d
00000300: bcdb 3439 124e 84bd dac6 ccbd 8204 673d
00000310: 7b36 82bb 5f4e 133d d083 873c 0447 13bd
00000320: 6fea 783d 46c0 053e 05e4 083c e8c5 dfbc
00000330: 8617 1a3c 0b66 643d f1c0 3ebd d7e5 e93c
00000340: 791a 8f3c 8664 e1bc 382b de3d 178f fa3c
00000350: 461f 2cbc 9504 fe3c 1bfc 8bbd cce0 9f3c
00000360: 133c d9bc aacc 623d bba5 dabb ea72 90bd
00000370: 9a01 b93d 4037 4a3d 036b 963d 54cc 883d
00000380: 564c 12be 6fa7 a73d 02fc 8ebd ee36 87bd
00000390: c4ac fbbb 2e0b 4dbc 426b 9a3d ed7f 823d
000003a0: 0ea9 383d acc9 833b d75f 5abc ac94 bd3d
000003b0: a5ef 9cbd 12c1 b23d 3f8c d73d 0841 99bd
000003c0: 66be 8dbd 1ec7 f73a 6d07 00bc fb18 dabc
000003d0: 2d6c 8d3d 9d71 4e3d f99c 72bd dc06 f1bc
000003e0: 6855 e0bd 2221 8ebd ce9a 0f3d b244 b1bc
000003f0: 3c29 17be 44f3 a33d a3a4 f6bc d8e6 e03c

conv_layers.3.bias f4 [64]
-0.13972965 -0.04691203 0.03254655 -0.035519518 0.02794886 0.003803653 -0.019756217 -0.0054755327
-0.0007817479 -0.121005364 -0.07827835 -0.009723836 0.044386897 0.005098164 -0.09547068 -0.05919028
-0.042026747 -0.12404576 -0.0008864682 -0.13754264 -0.10141027 0.009224151 0.01593932 -0.04359763
-0.04531354 0.017650776 0.050204128 -0.008624768 -0.07621801 0.04589683 -0.031074932 0.008059682
0.101001166 0.0199992 -0.036840513 -0.0285448 -0.06549577 -0.030866621 0.029512327 -0.09180534
0.06426491 -0.035661463 0.10633326 0.09896339 0.09423925 -0.089891806 0.048342336 -0.034534823
0.045203153 0.051318754 -0.07433162 -0.085124746 -0.05044879 -0.22751456 0.06676598 -0.021571945
0.049700435 -0.09955733 -0.014323032 0.055008937 -0.011862292 -0.0065225065 -0.10426904 -0.040155683
00000000: 4a15 0fbe d426 40bd 884f 053d ea7c 11bd
00000010: 02f5 e43c b546 793b cad7 a1bc 196c b3bb
00000020: 37ee 4cba a9d1 f7bd 6650 a0bd b950 1fbc
00000030: 09cf 353d 800e a73b 2286 c3bd 8271 72bd
00000040: 3d24 2cbd b40b febd e061 68ba fad7 0cbe
00000050: 30b0 cfbd e520 173c 2d93 823c 6e93 32bd
00000060: b19a 39bd 5c98 903c d8a2 4d3d e64e 0dbc
00000070: 3018 9cbd 50fe 3b3d db90 febc c20c 043c
00000080: b3d9 ce3d 5dd5 a33c 14e6 16bd c9d6 e9bc
00000090: a522 86bd ffdb fcbc d6c3 f13c 7004 bcbd
000000a0: 529d 833d c111 12bd 41c5 d93d 51ad ca3d
000000b0: 8200 c13d 3219 b8bd 9d02 463d 6374 0dbd
000000c0: f126 393d 9d33 523d 2d3b 98bd e255 aebd
000000d0: 64a3 4ebd 94f9 68be 9abc 883d a6b7 b0bc
000000e0: af92 4b3d b7e4 cbbd 27ab 6abc 0d51 613d
000000f0: 0f5a 42bc c0ba d5bb 028b d5bd 497a 24bd

fc1.weight f4 [64, 256]
-0.04068149 0.013399786 -0.012775077 -0.009942956 -0.064175606 0.02124533 0.05251272 -0.0056665326
-0.038015835 -0.012398567 -0.026797783 -0.056404047 -0.0012967511 -0.054212242 0.03600097 -0.041418727
-0.04772318 -0.020781368 0.00015118603 0.0048386375 -0.004676857 0.019893615 0.0050921827 -0.06950958
0.009365908 -0.053553957 0.04597197 -0.03640066 0.021698609 0.010204765 -0.060607586 -0.009928829
-0.040590953 -0.013180969 -0.06928167 0.028407168 -0.0025495673 -0.074269116 -0.06364813 0.026687607
-0.0021399625 -0.00840204 0.057644956 -0.024234835 -0.03921661 -0.028816966 0.01696983 -0.02338879
-0.079625405 -0.00065210764 -0.025032995 -0.03917806 -0.035188813 0.022255683 0.044619374 -0.026984533
-0.015977358 0.04772129 0.015358565 0.017331123 0.007083909 -0.07248981 -0.027016122 0.025478674
-0.031902548 0.01296615 0.036591 -0.055593252 -0.007834066 0.024920462 -0.05577623 0.010026795
-0.013729548 -0.03644838 -0.02221308 -0.038499787 0.0017396718 0.03699913 -0.027119514 0.033698957
0.030569378 -0.03942887 0.0068683443 -0.048919808 -0.014679773 0.0336584 0.0104804775 0.011722501
-0.025092363 0.010990299 0.027048105 -0.04837491 -0.0008504547 -0.06163859 -0.014579592 0.056471948
0.02914999 0.051961828 -0.043394715 -0.0097962385 0.01804281 -0.037809093 0.021138795 0.0074490234
0.011286922 0.049896084 -0.073802166 -0.05781367 0.001871665 -0.013938067 -0.046292998 -0.019607406
-0.005094251 0.015329735 0.0113445055 -0.00012991345 -0.06315904 0.013126968 -0.024683455 -0.0053349407
-0.023584224 -0.043582655 0.016620476 0.025593488 -0.03861523 -0.055158164 0.006897631 -0.020384295
-0.062283203 0.041569557 -0.0062106075 0.02358474 -0.053344205 -0.06290873 -0.022598268 0.03973494
0.02175659 -0.04753663 0.005391207 0.008703043 -0.07560306 -0.010598849 0.001844257 -0.020301046
0.044927377 0.04774646 0.041829403 0.032367226 -0.0052103754 0.0028107932 -0.059924614 -0.033057578
-0.056368325 0.011375822 -0.023038283 -0.003921558 -0.018094616 -0.06454238 0.03466046 -0.047376215
0.04884149 0.03910885 -0.03180289 -0.022488134 -0.041895013 -0.056147672 -0.0109314 -0.06304634
0.041252088 0.009235983 -0.05188264 -0.020568512 -0.03998271 -0.016448053 -0.05718904 0.058435373
-0.026283985 0.005402913 -0.022130053 0.033350535 0.00997371 -0.019323155 0.031141484 -0.046688005
-0.038237065 -0.06736023 -0.023986366 -0.0653977 -0.07209727 0.007771017 -0.0029773125 0.005439332
0.017010568 -0.031250462 -0.083171755 -0.036091432 -0.03482101 -0.059205335 -0.0140924025 -0.00046818054
0.008834567 -0.06316919 -0.0044593015 0.03789505 0.048116144 -0.06335258 -0.021112004 0.006534131
-0.0071503543 0.00065080513 0.004786253 0.051270723 0.006419 -0.08690906 0.00036807876 -0.0675415
0.0124379285 -0.004539166 -0.029003745 -0.034912046 0.03681487 0.008648676 0.049910687 -0.014558654
0.014643161 0.040033232 -0.02642156 -0.04263668 -0.044877756 0.0067278487 -0.07571039 0.01402172
-0.02310493 0.010434964 -0.044707645 -0.02513154 -0.0343529 -0.023785515 0.0046468843 -0.048504286
0.024868133 -0.040037207 -0.0005822088 -0.044873714 -0.0447538 -0.03530263 0.02734924 0.05212419
-0.022560278 -0.027754847 -0.044970695 -0.06064596 0.05209102 -0.041060243 0.038479455 0.0055254437
00000000: a2a1 26bd c78a 5b3c 8e4e 51bc c8e7 22bc
00000010: 806e 83bd b00a ae3c 9417 573d 52ae b9bb
00000020: 7eb6 1bbd 5c23 4bbc 0687 dbbc ee07 67bd
00000030: bff7 a9ba a80d 5ebd c175 133d afa6 29bd
00000040: 6279 43bd b03d aabc b187 1e39 6f8d 9e3b
00000050: 5240 99bb eff7 a23c 53dc a63b 0a5b 8ebd
00000060: 7773 193c 655b 5bbd 1b4d 3c3d dc18 15bd
00000070: 48c1 b13c e331 273c a93f 78bd 87ac 22bc
00000080: b342 26bd fef4 57bc 8ce3 8dbd 26b6 e83c
00000090: a416 27bb 681a 98bd f359 82bd f89f da3c
000000a0: 9d3e 0cbb b6a8 09bc 1e1d 6c3d 2288 c6bc
000000b0: 99a1 20bd 8f11 ecbc 5004 8b3c d999 bfbc
000000c0: a512 a3bd 34f2 2aba ff11 cdbc 2c79 20bd
000000d0: 2522 10bd 8d51 b63c cec2 363d ab0e ddbc
000000e0: f3e2 82bc 6677 433d 7ea2 7b3c 00fa 8d3c
000000f0: 2320 e83b 8a75 94bd ea50 ddbc a7b8 d03c
00000100: 3fac 02bd fa6f 543c 72e0 153d c0b5 63bd
00000110: 745a 00bc ff25 cc3c 9e75 64bd 6d47 243c
00000120: e6f1 60bc e64a 15bd 35f8 b5bc f4b1 1dbd
00000130: b305 e43a 668c 173d be29 debc eb07 0a3d
00000140: a26c fa3c 2b80 21bd d90f e13b 2360 48bd
00000150: 6e83 70bc 64dd 093d 4fb6 2b3c bc0f 403c
00000160: 808e cdbc a810 343c fd93 dd3c c524 46bd
00000170: 0cf1 5eba bf78 7cbd 3edf 6ebc 214f 673d
00000180: f6cb ee3c edd5 543d a8be 31bd 6780 20bc
00000190: 84ce 933c b5dd 1abd 442b ad3c f016 f43b
000001a0: c8ec 383c d65f 4c3d 9725 97bd 07ce 6cbd
000001b0: a852 f53a 7d5c 64bc ba9d 3dbd b69f a0bc
000001c0: aded a6bb 9229 7b3c 4ede 393c 6039 08b9
000001d0: 8759 81bd 7f12 573c f534 cabc bad0 aebb
000001e0: b433 c1bc ba83 32bd aa27 883c 6fa9 d13c
000001f0: 012b 1ebd 87ed 61bd 8605 e23b f7fc a6bc
00000200: ac1c 7fbd d744 2a3d 5a82 cbbb c934 c13c
00000210: 747f 5abd 4bd6 80bd 0120 b9bc 1bc1 223d
00000220: e03a b23c c5b5 42bd b9a8 b03b 3597 0e3c
00000230: c7d5 9abd cba6 2dbc ffba f13a 614e a6bc
00000240: c505 383d cb91 433d 4f55 2b3d 7f93 043d
00000250: ccbb aabb 4935 383b 8373 75bd 6267 07bd
00000260: 79e2 66bd a861 3a3c c8ba bcbc 6a80 80bb
00000270: 293b 94bc cc2e 84bd 20f8 0d3d 900d 42bd
00000280: 040e 483d 9a30 203d bf43 02bd 0939 b8bc
00000290: 1b9a 2bbd 1afb 65bd 9d19 33bc 711e 81bd
000002a0: f3f7 283d 8552 173c e482 54bd 4c7f a8bc
000002b0: e9c4 23bd 11be 86bc 0e3f 6abd ee59 6f3d
000002c0: 8351 d7bc eb0a b13b 164a b5bc 929a 083d
000002d0: c668 233c 984b 9ebc 6d1c ff3c ec3b 3fbd
000002e0: 789e 1cbd 29f4 89bd 0e7f c4bc 3bef 85bd
000002f0: bca7 93bd 04a4 fe3b 041f 43bb 6d3c b23b
00000300: bf59 8b3c 7c00 00bd f455 aabd 9cd4 13bd
00000310: 7aa0 0ebd 4b81 72bd d2e3 66bc 2176 f5b9
00000320: dcbe 103c d95e 81bd 551f 92bb d737 1b3d
00000330: 6f15 453d ffbe 81bd 15f3 acbc 431c d63b
00000340: 854d eabb cb9a 2a3a 00d6 9c3b 4001 523d
00000350: 7a56 d23b 61fd b1bd b2fa c039 3353 8abd
00000360: 74c8 4b3c 49bd 94bb 4399 edbc efff 0ebd
00000370: 30cb 163d 2db3 0d3c 266f 4c3d 6c87 6ebc
00000380: dee9 6f3c e3f9 233d 0772 d8bc cda3 2ebd
00000390: bdd1 37bd 4975 dc3b 0d0e 9bbd 5bbb 653c
000003a0: 8d46 bdbc 69f7 2a3c 5d1f 37bd a9e0 cdbc
000003b0: a0b5 0cbd d7d9 c2bc e444 983b 6eac 46bd
000003c0: 41b8 cb3c 0efe 23bd 5f9f 18ba 80cd 37bd
000003d0: c34f 37bd 7e99 10bd 830b e03c 2d80 553d
000003e0: 55d0 b8bc 225e e3bc 3133 38bd e667 78bd
000003f0: 655d 553d c92e 28bd a29c 1d3d c80e b53b

fc1.bias f4 [64]
-0.04989427 0.0030767592 0.015862955 -0.05014258 0.05000053 0.047791526 0.08467504 0.119473256
0.005365776 0.053459313 0.021822317 0.016979054 -0.057457417 0.02245844 0.01943906 0.0399597
-0.018192299 0.028734466 -0.12775762 0.091990836 0.00025218222 -0.1016714 0.083087444 0.03221429
-0.054550093 0.008926119 0.0010584609 0.020330073 -0.0100496495 -0.05139666 -0.05808148 0.00747604
-0.021619158 0.05964986 -0.08586137 0.089592725 -0.024459403 -0.04343111 0.07056606 -0.0015179581
0.012668674 -0.05966907 0.020985946 -0.0007551548 0.09828298 -0.060574595 -0.028328948 0.09410936
0.04839087 -0.06867315 0.025562862 -0.071738586 0.026459428 0.044348765 0.017662931 0.027048748
0.029986566 0.057807844 -0.056797344 0.056712575 0.03012224 0.0262514 -0.043391917 -0.010609987
00000000: ef5d 4cbd 74a3 493b 07f3 813c 4e62 4dbd
00000010: 5bcd 4c3d 0cc1 433d 1b6a ad3d 65ae f43d
00000020: 64d3 af3b 27f8 5a3d b7c4 b23c a817 8b3c
00000030: 7858 6bbd c3fa b73c aa3e 9f3c c8ac 233d
00000040: 0408 95bc 8b64 eb3c e5d2 02be b165 bc3d
00000050: 5337 8439 1839 d0bd c029 aa3d 22f3 033d
00000060: eb6f 5fbd db3e 123c 0ebc 8a3a 418b a63c
00000070: 49a7 24bc 4e85 52bd d9e6 6dbd 92f9 f43b
00000080: a91a b1bc 6953 743d 16d8 afbd 647c b73d
00000090: 165f c8bc d2e4 31bd f084 903d 39f6 c6ba
000000a0: 4590 4f3c 8e67 74bd b8ea ab3c 95f5 45ba
000000b0: 9648 c93d 111d 78bd 1c12 e8bc 68bc c03d
000000c0: 8135 463d 82a4 8cbd 3569 d13c aeeb 92bd
000000d0: 71c1 d83c 0da7 353d dab1 903c 5695 dd3c
000000e0: 63a6 f53c ebc7 6c3d 55a4 68bd 724b 683d
000000f0: eac2 f63c 2d0d d73c b9bb 31bd 83d5 2dbc

batch_norm.weight f4 [64]
0.96680826 1.7556187 0.9783061 1.8213136 1.8786963 2.26462 2.0277817 1.6460931
0.9686465 1.7537546 0.98395544 1.8217331 0.9881811 1.767344 0.988873 0.99399465
0.99321216 1.0447156 2.3440537 2.371931 1.8825566 2.0303564 2.346107 0.98133343
0.9908561 1.6946888 0.99029034 0.97088706 1.7048422 0.9926446 0.993407 0.98643667
2.2573988 1.6300893 0.9710068 1.865099 2.111499 0.989218 2.0798266 1.0662729
1.0047526 1.9155649 2.498908 1.8091018 1.8528223 0.9864355 1.0 1.8257802
1.9425035 0.9866651 0.9917178 0.9882144 0.9929482 0.9887832 0.98875344 1.8066672
0.9941421 1.8372368 0.98008823 1.9325069 2.0262442 0.99399483 1.8305149 0.9928947
00000000: bf80 773f 1db8 e03f 4572 7a3f ce20 e93f
00000010: 1f79 f03f 89ef 1040 2dc7 0140 2eb3 d23f
00000020: 38f9 773f 087b e03f 81e4 7b3f 8d2e e93f
00000030: 70f9 7c3f 5438 e23f c826 7d3f 6f76 7e3f
00000040: 2743 7e3f 3eb9 853f fa04 1640 b8cd 1740
00000050: 9df7 f03f 5cf1 0140 9e26 1640 ab38 7b3f
00000060: bfa8 7d3f 90eb d83f ab83 7d3f 0e8c 783f
00000070: 4538 da3f f51d 7e3f ec4f 7e3f 1d87 7c3f
00000080: 3979 1040 c4a6 d03f e793 783f 90bb ee3f
00000090: cd22 0740 643d 7d3f e11b 0540 a17b 883f
000000a0: bc9b 803f 3b31 f53f 1cee 1f40 a690 e73f
000000b0: 4829 ed3f 0987 7c3f 0000 803f 2ab3 e93f
000000c0: f4a3 f83f 1696 7c3f 38e1 7d3f 9efb 7c3f
000000d0: da31 7e3f e520 7d3f f21e 7d3f df40 e73f
000000e0: 1980 7e3f 932a eb3f 10e7 7a3f 635c f73f
000000f0: fcad 0140 7276 7e3f 504e ea3f 592e 7e3f

batch_norm.bias f4 [64]
0.1100445 -0.033129994 -0.05475643 0.025222436 0.03767655 0.011948049 -0.01530991 -0.005028871
0.005565763 0.037953775 0.13854125 0.034610346 0.02714537 0.04893539 0.004446618 -0.05463281
-0.06792935 0.080523 0.014718347 0.015864657 -0.0009015725 -0.0036983902 0.018473383 -0.10574569
0.04799722 -1.2243256e-05 0.06447735 -0.09900466 -0.01806232 -0.07239793 -0.037685845 -0.14632875
0.003855745 0.003374073 0.036736082 0.050076045 0.03575083 0.13655259 0.0006601898 0.014403267
-0.036725946 0.0024083934 -0.006278936 -0.050963927 -0.020788142 -0.08541841 0.037806362 0.05012565
-0.001253875 -0.002110362 -0.040847756 0.062098112 0.050221153 0.004422036 0.01183048 0.024973186
-0.0065036686 0.050829902 0.10759089 0.008457548 0.024333876 0.09543497 0.004861349 0.011911675
00000000: 035f e13d 51b3 07bd 4748 60bd 489f ce3c
00000010: ba52 1a3d c0c1 433c 6bd6 7abc 3ac9 a4bb
00000020: 0161 b63b 6b75 1b3d c2dd 0d3e 94c3 0d3d
00000030: f85f de3c 7a70 483d efb4 913b a7c6 5fbd
00000040: 8b1e 8bbd 3ee9 a43d 3925 713c 99f6 813c
00000050: 8257 6cba b160 72bb 7e55 973c 3291 d8bd
00000060: bc98 443d 6268 4db7 b30c 843d f5c2 cabd
00000070: 6ef7 93bc 5e45 94bd 795c 1abd 34d7 15be
00000080: abb0 7c3b 8d1f 5d3b 9378 163d 8a1c 4d3d
00000090: 766f 123d 71d4 0b3e 9610 2d3a aefb 6b3c
000000a0: f26d 16bd 23d6 1d3b 88bf cdbb 8dbf 50bd
000000b0: e54b aabc d9ef aebd d8da 1a3d 8e50 4d3d
000000c0: 1059 a4ba 004e 0abb fa4f 27bd 975a 7e3d
000000d0: b2b4 4d3d bae6 903b a1d4 413c 9194 cc3c
000000e0: ba1c d5bb 0433 503d 9d58 dc3d 8791 0a3c
000000f0: d657 c73c 6973 c33d f34b 9f3b 3029 433c

batch_norm.running_mean f4 [64]
6e-45 7.5299726 6e-45 6e-45 6e-45 6e-45 6e-45 6e-45
6e-45 6e-45 6e-45 6e-45 6e-45 6e-45 6e-45 6e-45
6e-45 2.4515853e-23 6e-45 2.9304419 6e-45 6e-45 3.4276672e-23 6e-45
6e-45 6e-45 6e-45 6e-45 6e-45 6e-45 6e-45 6e-45
6e-45 6e-45 6e-45 6e-45 6e-45 6e-45 6e-45 2.672145e-23
6e-45 6e-45 6.043858 6e-45 6e-45 6e-45 0.0 6e-45
6e-45 6e-45 6e-45 6e-45 6e-45 6e-45 6e-45 6e-45
6e-45 6e-45 6e-45 6e-45 6e-45 6e-45 2.4603865 6e-45
00000000: 0400 0000 89f5 f040 0400 0000 0400 0000
00000010: 0400 0000 0400 0000 0400 0000 0400 0000
00000020: 0400 0000 0400 0000 0400 0000 0400 0000
00000030: 0400 0000 0400 0000 0400 0000 0400 0000
00000040: 0400 0000 501a ed19 0400 0000 5c8c 3b40
00000050: 0400 0000 0400 0000 77c0 251a 0400 0000
00000060: 0400 0000 0400 0000 0400 0000 0400 0000
00000070: 0400 0000 0400 0000 0400 0000 0400 0000
00000080: 0400 0000 0400 0000 0400 0000 0400 0000
00000090: 0400 0000 0400 0000 0400 0000 8e37 011a
000000a0: 0400 0000 0400 0000 4967 c140 0400 0000
000000b0: 0400 0000 0400 0000 0000 0000 0400 0000
000000c0: 0400 0000 0400 0000 0400 0000 0400 0000
000000d0: 0400 0000 0400 0000 0400 0000 0400 0000
000000e0: 0400 0000 0400 0000 0400 0000 0400 0000
000000f0: 0400 0000 0400 0000 f976 1d40 0400 0000

batch_norm.running_var f4 [64]
6e-45 10.140706 6e-45 6e-45 6e-45 6e-45 6e-45 6e-45
6e-45 6e-45 6e-45 6e-45 6e-45 6e-45 6e-45 6e-45
6e-45 7.4742665e-23 6e-45 8.550376 6e-45 6e-45 7.7987436e-24 6e-45
6e-45 6e-45 6e-45 6e-45 6e-45 6e-45 6e-45 6e-45
6e-45 6e-45 6e-45 6e-45 6e-45 6e-45 6e-45 8.879616e-23
6e-45 6e-45 9.970713 6e-45 6e-45 6e-45 6e-45 6e-45
6e-45 6e-45 6e-45 6e-45 6e-45 6e-45 6e-45 6e-45
6e-45 6e-45 6e-45 6e-45 6e-45 6e-45 5.995639 6e-45
00000000: 0400 0000 5540 2241 0400 0000 0400 0000
00000010: 0400 0000 0400 0000 0400 0000 0400 0000
00000020: 0400 0000 0400 0000 0400 0000 0400 0000
00000030: 0400 0000 0400 0000 0400 0000 0400 0000
00000040: 0400 0000 78b7 b41a 0400 0000 57ce 0841
00000050: 0400 0000 0400 0000 82d9 1619 0400 0000
00000060: 0400 0000 0400 0000 0400 0000 0400 0000
00000070: 0400 0000 0400 0000 0400 0000 0400 0000
00000080: 0400 0000 0400 0000 0400 0000 0400 0000
00000090: 0400 0000 0400 0000 0400 0000 29b2 d61a
000000a0: 0400 0000 0400 0000 0a88 1f41 0400 0000
000000b0: 0400 0000 0400 0000 0400 0000 0400 0000
000000c0: 0400 0000 0400 0000 0400 0000 0400 0000
000000d0: 0400 0000 0400 0000 0400 0000 0400 0000
000000e0: 0400 0000 0400 0000 0400 0000 0400 0000
000000f0: 0400 0000 0400 0000 46dc bf40 0400 0000

fc2.weight f4 [2, 64]
0.010660094 -0.6093384 -0.037359238 -0.17548002 -0.097030975 0.14443778 0.16301773 0.08328158
0.048785016 -0.02736519 0.069852345 0.027816825 0.022487672 -0.03959989 -0.04147958 -0.027986275
-0.07211937 -0.0765622 -0.39498448 -0.49287146 -0.043097958 0.14497744 0.6501683 0.02596492
-0.008238315 0.06784967 0.07868306 -0.045545325 -0.016379166 -0.0789255 0.024485148 -0.07534349
0.13368434 0.01894078 -0.0487991 -0.2635605 -0.36200318 0.018112963 -0.39859077 -0.12235184
-0.024450561 -0.09770964 -0.5763834 0.120787285 0.17843643 -0.023944438 0.019529836 -0.20521991
-0.18907602 -0.01748113 0.030799948 0.010993344 -0.029908624 0.072515614 -0.10210993 -0.121898234
-0.06791454 -0.04898443 -0.068089105 0.220656 -0.19996674 -0.03524098 -0.51412284 -0.007880596
0.07852661 0.7726551 -0.010195624 0.20534828 0.15303761 -0.2254805 -0.22393425 0.08776928
0.03762035 -0.102502935 0.070388615 -0.010269346 -0.0144441435 -0.08422222 -0.05036775 -0.04721568
-0.088553175 0.0066704117 0.42425513 0.42558977 -0.04146105 -0.1691794 -0.67900836 -0.04806167
0.0877371 0.06786072 0.05978818 -0.009806032 -0.032968864 -0.10594781 -0.005939809 -0.111475185
0.012779973 0.023045005 0.02369336 0.20601887 0.35730767 0.08497454 0.39419904 -0.02185913
-0.018617075 -0.09207321 0.37306532 -0.09858013 -0.001581978 -0.085211866 0.043187875 -0.039920826
0.09916565 -0.013285026 0.019743767 -0.003569067 -0.0010002729 0.064486146 -0.084092356 -0.038400244
-0.06344861 0.085936464 -0.043120574 -0.2077575 0.00013672283 0.01841456 0.51664716 0.002315782
00000000: ada7 2e3c 9afd 1bbf 0006 19bd 09b1 33be
00000010: 2db8 c6bd 7fe7 133e 1fee 263e 888f aa3d
00000020: ccd2 473d f72c e0bc bf0e 8f3d 1ce0 e33c
00000030: 1138 b83c 7f33 22bd 7ee6 29bd 7943 e5bc
00000040: 52b3 93bd a5cc 9cbd 683b cabe a659 fcbe
00000050: 7c87 30bd f774 143e 6e71 263f 62b4 d43c
00000060: fff9 06bc c5f4 8a3d 9624 a13d bc8d 3abd
00000070: 9a2d 86bc b1a3 a1bd 1495 c83c b04d 9abd
00000080: 8ce4 083e b229 9b3c 91e1 47bd 67f1 86be
00000090: 7b58 b9be a361 943c 1714 ccbe 9a93 fabd
000000a0: 8b4c c8bc fe1b c8bd dd8d 13bf 535f f73d
000000b0: 0ab8 363e 2027 c4bc 09fd 9f3c 2b25 52be
000000c0: 259d 41be 9634 8fbc 2c50 fc3c 6d1d 343c
000000d0: ee02 f5bc 1183 943d 031f d1bd c8a5 f9bd
000000e0: c716 8bbd e6a3 48bd 4d72 8bbd a5f3 613e
000000f0: 15c4 4cbe d958 10bd 8e9d 03bf 9e1d 01bc
00000100: 8fd2 a03d bacc 453f 8c0b 27bc d246 523e
00000110: e4b5 1c3e 5ce4 66be 054f 65be 61c0 b33d
00000120: cc17 1a3d 0fed d1bd e827 903d c240 28bc
00000130: 21a7 6cbc b37c acbd 6a4e 4ebd 3b65 41bd
00000140: 5e5b b5bd 7893 da3b f837 d93e e7e6 d93e
00000150: 10d3 29bd 5d3d 2dbe 7ed3 2dbf 50dc 44bd
00000160: 82af b33d 90fa 8a3d 73e4 743d 7ba9 20bc
00000170: 5c0a 07bd 2afb d8bd bba2 c2bb 1a4d e4bd
00000180: 1863 513c e1c8 bc3c 9418 c23c 9cf6 523e
00000190: 08f1 b63e 2207 ae3d 75d4 c93e eb11 b3bc
000001a0: d682 98bc e190 bcbd 6b02 bf3e 61e4 c9bd
000001b0: 605a cfba 8f83 aebd c5e5 303d 0584 23bd
000001c0: 5c17 cb3d 70a9 59bc aebd a13c 02e7 69bb
000001d0: 971b 83ba 5011 843d 9d38 acbd 9349 1dbd
000001e0: 58f1 81bd 75ff af3d 339f 30bd 62be 54be
000001f0: 415d 0f39 22da 963c fd42 043f 60c4 173b

fc2.bias f4 [2]
0.04420234 -0.041682992
00000000: 830d 353d c9bb 2abd
