models/ヨルシカ/classifier_fold1.pth (torch, 991011 bytes, 16 tensors)

conv_layers.0.weight f4 [64, 256, 2]
000000 47 65 d4 3c e6 b8 4d 3d 6a 99 23 bc 30 e4 b3 3d
       0.025927199 0.05022516 -0.009985307 0.08783758
000010 3f 16 7f 3b 59 20 a2 3c ff 9a 49 bd c1 d3 a3 3d
       0.0038923172 0.019790815 -0.04922008 0.07999373
000020 9e 0b 39 ba 7c f5 ba 3c 40 9b ac bc 2a e2 89 bd
       -0.0007058921 0.022822134 -0.021070123 -0.067325905
000030 48 e9 de 3c 2f ce ab 3c 3f 78 67 3c fa 21 1f 3c
       0.027210847 0.02097234 0.01412779 0.0097126905
000040 f1 22 e3 3d c8 38 19 bd c5 f0 2c bd 8b 7d 86 3d
       0.11090649 -0.037407666 -0.042221803 0.06566914
000050 df f1 96 3c 7c e7 0d 3c d9 14 87 bd a0 af c5 3c
       0.01842588 0.008661147 -0.06595773 0.024131596
000060 75 21 05 bc da 59 a6 bd d5 1e 5f bb af 33 88 bd
       -0.008125653 -0.081226066 -0.0034045477 -0.06650483
000070 47 3c 21 3c f4 97 04 3d ad a5 4c 3d 28 0e 35 3d
       0.009841031 0.032371476 0.04996269 0.044202954
000080 9d e0 78 3d d4 56 50 3d 5b bb b2 3c 17 12 ee bc
       0.060761083 0.050864056 0.021817854 -0.02906136
000090 d1 f9 50 bd 1b c9 98 bc ea a3 8e bd 47 e7 4e bd
       -0.051019493 -0.018650582 -0.06964858 -0.050513532
0000a0 fb 58 25 bd 62 12 a6 3c 7c 9e d3 3a 06 1b 36 bc
       -0.04036806 0.020272437 0.0016145254 -0.011114841
0000b0 b6 b7 c8 bb 0b 0f e5 3c 9a d8 31 3d 0a 36 43 3d
       -0.0061254157 0.027961275 0.043419458 0.047658958
0000c0 fe 1e 2f 3d 57 17 30 3c 26 e1 a1 3b 48 15 08 3d
       0.042754166 0.010747752 0.00494017 0.03322342
0000d0 22 5d 31 3d 1b 1a e9 bd be 40 34 bc 49 67 06 bd
       0.04330171 -0.11381932 -0.011001764 -0.032813344
0000e0 5b 0e aa 3c c4 2a 1c 3c 7c 6b 8c bd e3 51 12 bc
       0.020758798 0.0095316805 -0.068564385 -0.008930656
0000f0 13 ba 08 3c 0d 2b d8 3c cd df 9f bd cd fc 5d bc
       0.008345145 0.026387716 -0.078063585 -0.013549042
000100 d3 a0 ab bc 44 d2 ea bc fb 29 13 bd 4b c7 ca 3c
       -0.02095071 -0.028664716 -0.035928708 0.024753233
000110 cc 14 87 bc d8 5a d8 bb ae f1 01 3d e9 f7 23 3c
       -0.016489409 -0.0066026263 0.031724624 0.010007837
000120 c7 67 d6 3c 6c 1a 1e bd ef 48 2d 3d 11 a9 6f 3d
       0.026172532 -0.038599417 0.042305883 0.058510844
000130 4d bd c1 3a 06 a1 43 3c 72 c2 ae 3c 3d 77 d5 bc
       0.0014781147 0.011940246 0.021332953 -0.026057834
000140 8f 7f 0d bd f4 57 ab bb c2 22 ce bc 37 00 6c bd
       -0.034545477 -0.0052289907 -0.025163058 -0.057617392
000150 2d 0f e5 3d 0f f8 b4 bd d0 01 b8 bd 85 68 17 3c
       0.11184535 -0.08836376 -0.08984721 0.009241228
000160 36 d0 37 3a 72 b7 1b 3b 46 48 92 3d 51 a9 cf 3d
       0.0007011922 0.0023760465 0.07142691 0.101397164
000170 9e 30 1f 3d 22 68 9f bd 3c 3f 6c 3c 1c 91 95 3b
       0.038864724 -0.07783534 0.014419373 0.0045644175
000180 6b 95 b7 bc 91 d4 d9 bc 50 1b 8b bc 1b 13 00 3d
       -0.022410115 -0.026590617 -0.016980797 0.03126822
000190 38 ba 8c 3c 7e f5 86 3d ad bd 1f bd d0 26 d7 bc
       0.01717864 0.06589793 -0.03899925 -0.026263624
0001a0 fa b4 25 bc 10 77 a7 3b 9f 56 62 bc 95 d1 e2 3c
       -0.010113949 0.005110629 -0.013814597 0.027687827
0001b0 ba 64 29 bd ab b8 32 bd 55 67 ff 3c 85 1f 0e bd
       -0.041355826 -0.043633144 0.031177202 -0.034698028
0001c0 83 66 3a 3d f9 ab c4 3b bf 18 81 3d 13 6e a3 bc
       0.04550792 0.006001946 0.06303548 -0.019949948
0001d0 35 58 7a bb 58 23 95 3b 74 b5 e7 3c f8 d1 2d bd
       -0.0038199548 0.0045513324 0.028284766 -0.04243657
0001e0 cf 1e 8a 3c be 3c b8 3c dc 67 fc 3b 19 72 78 bd
       0.016860394 0.022489902 0.0077028107 -0.060655687
0001f0 be fc 5e 3c 7a 95 8a 3d f5 f8 fe 3b d0 f2 28 3c
       0.013610063 0.06766792 0.007781143 0.010311797
000200 92 c0 2e bd 0f 77 a1 bd 0c 6e 92 3d 3a f7 7f bd
       -0.042664118 -0.07884037 0.07149896 -0.062491633
000210 d3 16 cc bc 56 d2 57 bd c7 f1 50 3d 17 27 52 3b
       -0.024913227 -0.052690826 0.051011827 0.0032066756
000220 ab 73 63 3d 2d 75 35 bc d3 17 f8 3c 6b b6 ac 3c
       0.05553023 -0.0110753 0.030284798 0.021083077
000230 39 1e d0 3d e1 14 69 bc 9d 25 a6 3c 0e d7 ac 3c
       0.101620145 -0.014226169 0.020281607 0.02109864
000240 f9 f1 83 3c 3a 62 88 3d 88 ab 89 3c 98 64 20 3d
       0.016106592 0.0665936 0.016805425 0.039158434
000250 5a 61 97 bd 64 0b 83 bc 51 c0 83 bd dc e0 ab 3d
       -0.07391615 -0.015996642 -0.06433166 0.08392498
000260 95 db cd 3d 43 73 d0 bb 24 2e bf 3b dd c5 9c 3c
       0.100516476 -0.0063613965 0.005834358 0.019137317
000270 67 d0 91 3d 01 fd de 3b 8d ab 1d bb 18 a7 c1 3c
       0.07119828 0.0068050628 -0.002405855 0.023639247
000280 a0 bd 66 3d 38 98 d6 bc 20 64 4f 3d a3 02 03 bd
       0.056333184 -0.02619563 0.050632596 -0.031984936
000290 3f 01 41 bd df 47 17 3c 89 30 36 bd 7b b7 22 bd
       -0.04712033 0.009233444 -0.04447988 -0.03972576
0002a0 d9 a6 b3 bc a0 9d 84 bc 81 02 7f 3b b6 e9 12 bd
       -0.021930145 -0.016188443 0.0038911405 -0.035867415
0002b0 80 69 a7 bc 15 31 80 3d e7 9b 9c b9 47 0e 18 3c
       -0.020436049 0.06259362 -0.00029870795 0.009280748
0002c0 87 21 a0 bd 33 e3 6e bc 51 9e 50 3d 45 89 01 be
       -0.07818895 -0.014580536 0.050932232 -0.1265002
0002d0 8a 65 58 3d 01 5c 21 3d 77 f0 4b 3d e9 ae 02 bd
       0.05283121 0.039394382 0.049789872 -0.03190509
0002e0 00 14 66 bc a2 9c d7 3b 4b ef 0d bd 82 5d 51 3c
       -0.014042854 0.0065799514 -0.034652036 0.012778642
0002f0 87 82 3d 3a 29 ac 83 3a 25 b3 30 3d 69 2a cf bd
       0.0007229228 0.0010045815 0.043139596 -0.10115511
000300 4b 27 90 bd ab b8 96 3d 6b 10 20 bd 2e e9 2d bd
       -0.070387445 0.07359441 -0.039078157 -0.042458706
000310 c8 a0 80 3d 40 06 70 bd 2a 34 d0 bd 3b d2 f1 3c
       0.062806666 -0.05859971 -0.101661995 0.029519191
000320 de 58 e5 3c e2 32 76 bc 8b 4d 5b 3c 18 f1 99 bd
       0.027996477 -0.01502678 0.013385187 -0.07516688
000330 81 c5 29 bd 9d 45 30 3d df 60 86 b9 7d 04 79 3d
       -0.04144812 0.04303514 -0.00025630646 0.060795296
000340 3c 78 60 bc 61 b2 b8 bb ff 8b 85 bd dc 1f 44 bd
       -0.013700541 -0.005636499 -0.06520843 -0.047881946
000350 22 6d 7a bc f3 1e 2e 3d dc 91 d7 3d 2e 0e 52 bd
       -0.015284808 0.042509984 0.10525867 -0.051283054
000360 21 e2 b8 bc 03 27 68 3d c5 fc 92 3d 6b fc 11 3c
       -0.022568764 0.05667783 0.07177118 0.008910279
000370 a8 12 64 3d 58 f2 44 3d a1 78 44 3c fd 62 d1 3d
       0.055681854 0.04808268 0.011991651 0.10223959
000380 24 7d 90 bd f1 f0 c7 bc 86 3e cb 3d 39 11 3b 3c
       -0.07055119 -0.024406882 0.09924035 0.01141768
000390 91 34 50 bd 11 77 81 3c 53 3b 1f bd 22 b9 c0 bc
       -0.05083138 0.015803846 -0.038874935 -0.023525778
0003a0 b2 85 6f 3d ab 4c f5 bc 71 4d 0b 3d 12 8a 04 3c
       0.05847711 -0.029943785 0.0340094 0.008089559
0003b0 f4 8b b0 3c a9 7a 1f 3c 28 a6 29 3d 34 66 69 bc
       0.02155111 0.009733834 0.041418225 -0.0142455585
0003c0 12 05 6e bd 35 b0 1f 3d 4a b8 5e 3b 5f 17 f4 3c
       -0.058110304 0.038986403 0.0033984357 0.0297963
0003d0 5b 86 cf 3d be 8e 6c 3c 73 d2 14 bd f4 86 b1 bc
       0.10133048 0.014438329 -0.036333513 -0.021670796
0003e0 95 ca 1e 3d 75 6a 60 bd a8 1d a0 bd ce a3 05 3c
       0.038767416 -0.054789025 -0.078181565 0.00815673
0003f0 9d 37 b2 3d ea b6 8b bd 0a d3 a4 3d 9e 67 8c bd
       0.08702014 -0.068219975 0.08048065 -0.06855701

conv_layers.0.bias f4 [64]
000000 44 59 3a 3d ea 5a 2a bd 0a 47 1a bd b5 13 95 bc
       0.045495287 -0.04159061 -0.037665404 -0.018197874
000010 46 79 63 bc 66 fe 2c bd 44 78 49 bd 47 01 a1 bd
       -0.013883894 -0.0422348 -0.04918696 -0.07861572
000020 9f 2f f2 bd 1e d3 0f bc 41 85 91 bc 1c e9 9f 3d
       -0.11825489 -0.008778362 -0.017763736 0.07808134
000030 15 55 3c 3d c8 a2 1e 3d 8d aa 31 bc 42 e6 ef bc
       0.045979578 0.03872946 -0.010843885 -0.0292846
000040 40 f2 a8 3d 55 31 16 3b af bb 00 3d 7f d3 e6 3b
       0.082493305 0.0022917588 0.03142899 0.0070442553
000050 77 91 ae bb 29 9f 5f 3d e0 95 d1 3b fd 64 58 3d
       -0.0053273994 0.054595146 0.0063960403 0.052830685
000060 7a b3 45 3d 76 a1 c8 bc 91 89 22 bd 83 61 56 bc
       0.048266865 -0.024491053 -0.039681975 -0.013084772
000070 f2 9f 48 bc 15 35 3c bd 82 f2 66 3d ed 43 98 3c
       -0.012245165 -0.04594906 0.056383617 0.018587077
000080 65 cf e7 bb 02 7d 51 3d 5b 8e 1b 3c 58 dc 15 3d
       -0.007074284 0.051144607 0.009494389 0.03658709
000090 6f f8 1e 3d 75 84 c5 3d c4 7d 64 bd fb 2e d3 3c
       0.038811143 0.09644405 -0.055784002 0.025779238
0000a0 54 e9 42 bd c6 1c aa bd d6 98 94 bc 58 1d 50 bd
       -0.0475858 -0.08306269 -0.018139284 -0.050809234
0000b0 c3 fe 12 bd 20 56 f7 3c 24 39 80 3c fe 77 22 3c
       -0.03588749 0.030192435 0.015652247 0.009916304
0000c0 53 c5 94 bd 21 eb 84 3b 06 6d 2d bd 13 e4 02 3d
       -0.07264199 0.00405635 -0.0423403 0.03195579
0000d0 68 2f fe 3c 4d a5 76 bd a5 f6 85 bc 46 18 46 3c
       0.031028464 -0.060216237 -0.01635296 0.012090748
0000e0 06 4c bf bd 26 cc 88 bd 11 40 39 3d ff 39 4a bc
       -0.09340672 -0.06679563 0.045227114 -0.012342929
0000f0 d3 c1 9e 3d 48 01 19 bd 49 fa 77 bd 32 78 11 bd
       0.07751813 -0.037354738 -0.060541425 -0.035515018

conv_layers.1.weight f4 [64, 256, 3]
000000 1a 67 9a 3b 85 48 07 3c 73 9f db bb ca a4 80 3c
       0.0047119977 0.008257036 -0.0067023574 0.015703578
000010 01 52 dd bc 9b 69 43 3d 00 89 23 3b ff 20 a8 3d
       -0.027016642 0.047708135 0.0024953485 0.082094185
000020 88 21 0d 3c 8a c2 b4 3c 4d f5 07 bc 47 53 a0 bc
       0.0086139515 0.02206542 -0.00829823 -0.01957096
000030 38 9e 7d 3d 3f 59 6d bc 44 da 24 3c 53 84 a9 3c
       0.061918467 -0.01448661 0.010061804 0.02069298
000040 21 e2 17 bc 54 e3 86 3d 96 e1 ef bc fc 89 cf 3b
       -0.009270222 0.06586328 -0.029282372 0.0063335877
000050 b8 c3 8a bc 0a 62 51 bd da bb 26 bd 50 91 07 bc
       -0.01693903 -0.051118888 -0.040706493 -0.008274391
000060 47 35 38 3c 0e 8e 60 3b 2a 0d 6f bd 0e b0 97 bd
       0.011243171 0.0034264359 -0.058362164 -0.07406627
000070 60 3b 47 3d 34 a3 7b 3c 02 f6 77 bd c1 4f 1f bd
       0.04864061 0.015358735 -0.060537346 -0.03889442
000080 cb 93 1d bd b4 b4 a9 3b c6 99 aa 3c 53 41 89 3d
       -0.038471024 0.005179012 0.020825278 0.06701913
000090 5c 2c a8 bc cd 1c 9d 3c 9b e1 e1 3c e9 5e 29 bd
       -0.020528965 0.019178772 0.027573397 -0.04135028
0000a0 6d 1b d3 3c 76 83 8f ba 60 66 af 3c 59 87 6b 3d
       0.025769914 -0.0010949213 0.02141112 0.057502124
0000b0 87 4e 3b 3d 07 e6 03 bd 3b 44 9b 3d 43 65 9b 3c
       0.045729186 -0.032201793 0.07581373 0.018969184
0000c0 4b e2 88 3c 2e b2 c0 bc c7 74 8d 3d d1 b6 a2 bd
       0.016709467 -0.023522463 0.06907039 -0.07945026
0000d0 f1 d1 58 3d 0b 0d 13 3d 54 a3 78 3b 8b f3 1b bd
       0.05293459 0.03590111 0.0037939148 -0.038074058
0000e0 06 d0 29 bc 10 fc 41 3c 35 68 03 bd e8 58 99 3d
       -0.010364538 0.011839882 -0.0320818 0.07487661
0000f0 46 2b 71 bd bb 03 2b bc f6 fa c1 3d 4a 86 82 bd
       -0.05887916 -0.010437901 0.09471695 -0.0637327
000100 c1 2e 75 3d ac d4 68 3c e4 bd 25 3d 68 a9 2a 3c
       0.05985904 0.014210861 0.040464297 0.010416366
000110 df 51 73 3b 86 bd de bc f9 19 27 bd 13 8f 60 bb
       0.0037127656 -0.027189981 -0.040796254 -0.0034264966
000120 8a 0f 3e bd 85 d8 a1 3d 9d f9 31 3c b7 86 16 3d
       -0.046401538 0.07902626 0.010862735 0.036749568
000130 53 f9 f4 3d 0c 7a 12 3d f9 a2 60 bd 92 6b 36 bb
       0.11961617 0.035760924 -0.054842923 -0.0027835113
000140 c1 8a 4c 3d 2c f6 41 bc 22 91 a4 3d 59 f9 3a 3d
       0.049937014 -0.011838477 0.080354944 0.045647953
000150 99 7e 30 3d 90 8b 6a bc d5 8a ae 3c a4 c0 7f bd
       0.043089483 -0.014315501 0.021306435 -0.062439576
000160 b6 bf 1b 3d 9f 2e b2 bd d5 cc 9a bd da fe 2f 3d
       0.038024627 -0.087002985 -0.075586 0.042967655
000170 68 a2 fa bb 51 ee 2b 3d d8 27 c5 3c e3 94 c5 3c
       -0.007648755 0.041975323 0.02406685 0.024118846
000180 b1 2e a9 bd b1 fd 9a ba 4d 16 a6 bd ef 7f 83 3d
       -0.08260859 -0.0011824874 -0.08109722 0.06420886
000190 61 c6 ba bb fd 87 59 bc 4c ef 8f 3c 47 f3 46 bc
       -0.005699918 -0.013277051 0.01757016 -0.012142963
0001a0 b4 ac d8 3c 52 e4 71 3d d4 63 da 3d 3f bf 05 bb
       0.026449539 0.059055634 0.10663572 -0.002040818
0001b0 c5 3d 02 bd 25 02 a5 3c 19 a4 49 3d 51 59 12 3d
       -0.03179719 0.020142624 0.04922876 0.03572971
0001c0 2a 5a 4d 3d 89 76 01 3d d0 ad d7 bc 5c 34 a7 3d
       0.050134815 0.031607185 -0.026327997 0.08164284
0001d0 7a 06 1d 3d 75 2c aa bc 96 ca ba 3b 78 65 ee 3c
       0.038336255 -0.020773152 0.0057004197 0.029101118
0001e0 83 91 0a 3d 07 5e 30 3d 99 cc d2 3c d7 dc 48 bd
       0.033830177 0.04305842 0.025732325 -0.049038734
0001f0 bd 78 9e 3c 47 0f 64 bd 8f 7a ca 3d 81 e6 3d bd
       0.019344682 -0.055678632 0.098866574 -0.046362404
000200 68 bb c9 3c 9d f8 bb bc 72 05 8b 3d 05 08 31 3d
       0.024625495 -0.022945696 0.06788148 0.04322054
000210 49 38 15 bd ce ff aa bc f8 99 9f 3c cb 0e a2 3c
       -0.03643063 -0.02087393 0.019482598 0.019782444
000220 fd 56 40 bc 2e 8b 6c bc 3d c3 6a 3d ac 3e 92 3c
       -0.01173949 -0.01443748 0.0573151 0.01785215
000230 46 a4 cc 3a 91 ff fb 3b 18 4c 5d 3d e0 f2 ab bc
       0.0015612922 0.007690378 0.054027647 -0.020989835
000240 89 22 93 3b 88 fa 69 ba 7b 97 b9 3c 6e fe 20 3d
       0.004490201 -0.00089255767 0.02265524 0.039305143
000250 65 7d 90 3c a1 69 61 bd 20 50 c8 bc 78 2e 2d bd
       0.017637918 -0.055032376 -0.02445227 -0.042280644
000260 7c d6 89 3c 54 d2 80 3d 6b 2e 0c bc d9 54 b5 bc
       0.016825907 0.06290117 -0.008555989 -0.022135185
000270 a1 e5 2f 3b 69 f2 6c 3b b5 14 84 3b 70 0f 61 bd
       0.002683975 0.003615523 0.004030789 -0.054946363
000280 0e eb c2 3c d7 2c 0f bd a8 c7 86 3b dd 89 34 3d
       0.023793723 -0.034954872 0.0041131563 0.04407679
000290 86 a9 05 3d 81 d0 69 bc 81 34 b4 3d 6a 80 36 bc
       0.032632373 -0.014270903 0.08799077 -0.011139015
0002a0 c3 74 14 3c ad 4c 23 bd ff fd 78 3d b6 c4 1b 3d
       0.009061041 -0.039868046 0.060789105 0.038029395
0002b0 29 42 10 3d 8f d0 8d bc d5 be 9c 3d 60 c7 12 bd
       0.035219345 -0.017311363 0.07653586 -0.03583467
0002c0 1a 4a 21 bd d3 fe dd 3d 82 76 ed bc f3 d8 69 bd
       -0.03937731 0.108396195 -0.028987173 -0.057091665
0002d0 2e 31 23 3d 14 13 4d 3d 5f 15 84 3d d3 83 2a 3c
       0.039841823 0.050067022 0.06449389 0.010407406
0002e0 74 bc 48 bc 76 2b 9c 3c f9 a5 95 bc 78 03 5c bd
       -0.012251962 0.019063693 -0.018267618 -0.053714246
0002f0 b3 36 83 bd 48 7c 89 bb 1d f6 54 bd 16 1a 90 bd
       -0.064069174 -0.0041957237 -0.051992524 -0.070362255
000300 c6 40 ec bc a9 02 e4 bc c1 59 9c bc 19 16 a9 3d
       -0.02883948 -0.0278333 -0.019085767 0.08256168
000310 bd bc 02 3e 3e 62 bf bc 5b 2a 07 bb 9f d4 0e 3d
       0.1276731 -0.023362275 -0.002062461 0.03487074
000320 78 73 bd 3c 7d a9 c4 bd f7 c4 42 3c f2 82 57 bd
       0.023126349 -0.0960264 0.01188778 -0.052615114
000330 d6 e2 7a 3b 99 a2 b9 3c bd 55 2b 3d 41 03 07 3c
       0.0038282177 0.02266054 0.041829813 0.008240522
000340 f2 7c 2f bd df 8d 95 bd bd 4d 04 3a 19 48 ae bd
       -0.042843767 -0.073024504 0.00050469843 -0.08509845
000350 23 86 fa 3a 4b 8f a8 3c b8 64 0e bc a7 44 38 3d
       0.0019113462 0.02057614 -0.008691005 0.044987347
000360 1e 7e 4f 3d e4 dc 28 bd d8 1f 03 3c b4 23 78 3d
       0.050657384 -0.041226283 0.008003198 0.060580924
000370 71 72 fa 3c b6 76 14 3c c4 e1 13 bd 60 07 5a 3d
       0.030572148 0.009061506 -0.03610398 0.05322969
000380 30 12 25 3b 80 31 f3 bb 0e 8e a9 bc 3a 2c 4c bd
       0.0025187843 -0.0074216723 -0.02069762 -0.049846865
000390 42 78 dd bc f6 68 c9 3d 9d 72 1b 3c 89 8d 3d 3d
       -0.027034882 0.09834473 0.009487775 0.046277557
0003a0 7d e9 52 bd a8 bd eb bc 51 10 54 3d fb c6 92 3c
       -0.051492203 -0.028776959 0.051773373 0.017917147
0003b0 32 9a b8 bd 63 d3 be 3c 18 e2 1c 3d 3e 8d 88 bc
       -0.090137854 0.023294156 0.038301557 -0.016668912
0003c0 a2 bd 15 bb 59 b9 19 3d f8 51 24 bd 3e 25 a1 3d
       -0.0022848626 0.037530277 -0.040117234 0.078684315
0003d0 a0 9e 04 bd 9f 3c 9c 3d de 7a 7b bd 9c 09 b8 3d
       -0.03237784 0.0762875 -0.061396472 0.08986208
0003e0 c3 94 0f bc 39 ec 5e bd 25 95 b5 3d 80 ed 95 3d
       -0.008763495 -0.0544245 0.08866338 0.0732069
0003f0 e8 75 ab bb 10 78 ab 3d de 13 ee 3c ec 19 d3 3a
       -0.0052325614 0.083725095 0.029062208 0.0016105748

conv_layers.1.bias f4 [64]
000000 ea 2c 3e bd d7 f1 a1 bd bf ec d6 3c ed 97 b5 39
       -0.046429552 -0.079074554 0.026235936 0.00034636204
000010 79 46 0f 3d 37 6b 87 3c 5a 08 00 3c ea 16 a2 3d
       0.034979317 0.016530616 0.007814491 0.07914527
000020 6a 2c 01 3d 1b 89 1b 3d 0f 0a 2d bc 21 6d 09 bd
       0.031536497 0.03797255 -0.01056148 -0.03355134
000030 95 fa 8d bc b2 36 38 bd 95 d9 06 bd 23 a7 0c 3d
       -0.0173314 -0.044974037 -0.032922346 0.03433908
000040 8e c6 1d bc db f4 4c 3b 96 56 3f bd b0 71 6a bc
       -0.009629859 0.0031273875 -0.046713434 -0.014309332
000050 74 a3 25 3c e4 f9 df 3c 45 e5 82 3c ac 9f 8e bc
       0.010109771 0.027340837 0.015978465 -0.017410122
000060 a9 31 d0 3b 02 71 78 bd 2c 3d eb bc 3a 24 f8 bc
       0.006353576 -0.060654648 -0.028715692 -0.030290712
000070 e9 27 18 bd a0 c3 6e bd 01 f4 d3 bc 35 4c b9 3a
       -0.037147436 -0.05829203 -0.025873186 0.0014137091
000080 ef ed 5a 3d 5f d4 e3 3c 19 1a 29 bd e9 2a e9 bc
       0.053449567 0.027811227 -0.041284654 -0.028462844
000090 99 79 49 bd ed c1 7a 3c fe d0 f4 bc 65 af 7a 3d
       -0.04918823 0.015305025 -0.029884811 0.061202426
0000a0 9d f7 c4 bd 0c 97 dc bc 36 f3 07 bc c7 09 3d 3d
       -0.09617541 -0.026927494 -0.008297732 0.046151903
0000b0 5d e8 55 3d 40 00 b6 bc 4f b3 71 bd ec 7b 68 3d
       0.052223552 -0.022216916 -0.059008893 0.056758806
0000c0 63 71 06 bd 29 df 62 ba 42 2a 8b 39 c4 12 15 bc
       -0.032822978 -0.0008654469 0.0002654363 -0.009098712
0000d0 1e b9 99 bc 93 b6 9c 3d 3b 12 30 3d 8f d5 b0 bd
       -0.018765029 0.07652011 0.042986136 -0.08634483
0000e0 e9 2f 11 3d 0e ba 70 3c 42 f4 d8 bc c1 b7 3b bd
       0.03544608 0.014692796 -0.026483659 -0.04582954
0000f0 52 44 c4 3c a3 a0 1f 3c 0f 04 1b 3c 3a a5 08 bd
       0.023958359 0.009742889 0.009461417 -0.033360697

conv_layers.2.weight f4 [64, 256, 4]
000000 af f4 38 3d 66 f8 18 bd b3 16 2e bc 51 3a 89 bc
       0.045155223 -0.037346266 -0.010625529 -0.01675144
000010 2e cc 25 3c c8 ec 88 3d e3 90 a6 3c 60 aa 38 3b
       0.010119481 0.066857874 0.02033276 0.0028177723
000020 28 a4 3c bd 72 99 b6 3c 2c 07 e9 bc 24 e0 d4 3b
       -0.04605499 0.022289965 -0.028445803 0.006496446
000030 6d 78 d6 3c c6 70 07 3d c0 d2 86 bd 85 ec 96 bc
       0.02618047 0.033066534 -0.06583166 -0.018423328
000040 9e c6 4e bd bf fc c7 3c 78 f8 9a 3b f2 d1 65 bd
       -0.050482385 0.02441251 0.004729327 -0.056108423
000050 f0 f0 82 3d 28 32 f6 bc d0 b6 0c bd 34 64 01 bd
       0.063936114 -0.030053213 -0.03435403 -0.0315897
000060 de d8 19 3c 03 f1 91 3c f4 bc 8a bd c7 ac 24 bd
       0.009390084 0.017815119 -0.06774321 -0.040203836
000070 03 6f 94 3d 19 43 9b 3c 18 4d c9 3a c7 b2 42 3d
       0.07247736 0.018952893 0.0015358059 0.047533777
000080 79 05 35 3d 4e de 95 3d b8 38 95 ba 23 51 16 bc
       0.044194672 0.07317792 -0.0011384701 -0.009174618
000090 b3 f2 cb bd 7e 75 ae bb 81 a2 1e bd db 7e 81 bd
       -0.099584006 -0.0053240648 -0.038729195 -0.06323024
0000a0 4a 02 57 3c f3 19 8d bc d4 25 95 bc ce 84 aa bc
       0.013123104 -0.017224288 -0.018206514 -0.02081528
0000b0 94 f3 f5 3c 8b 02 ba bd 15 71 50 bb 97 59 b2 3c
       0.030023374 -0.09082516 -0.0031805683 0.021771235
0000c0 a9 90 23 3d 2c fd ca bc 3d 64 a0 bc d7 0c 92 3c
       0.03993288 -0.024778925 -0.019579047 0.017828388
0000d0 79 6f ba bb da bf 47 bd 98 71 09 bd 4e f5 18 bd
       -0.005689558 -0.04876695 -0.033555597 -0.037343316
0000e0 20 80 28 bd 5f b2 ba bb 60 02 10 bd 22 b9 51 3d
       -0.041137815 -0.005697533 -0.035158515 0.051201947
0000f0 7e 22 3d bc 46 e1 44 3c 35 8f 44 bc 92 91 c0 3c
       -0.011543868 0.0120166 -0.011997034 0.023506913
000100 f5 23 63 3d 43 41 43 bd 38 91 02 3c a4 50 87 bc
       0.055454213 -0.04766966 0.007969193 -0.016517945
000110 ce fa 66 3d c1 91 01 3c fe b2 44 3d 04 b2 6e 3d
       0.05639153 0.007908286 0.048022263 0.058275238
000120 bd 7a 12 bd 09 1f 78 bc 33 b0 c9 bc 3d 71 89 bb
       -0.035761584 -0.015144118 -0.024620151 -0.0041944073
000130 2a 7d f9 ba 97 0d 78 3d 4a e9 7a 3d 10 60 4f bd
       -0.0019034494 0.060559835 0.061257638 -0.05062872
000140 cc fa 7a bd 51 7a 97 3c 09 1d 91 bd b7 2d 46 bc
       -0.061274335 0.018490942 -0.07085616 -0.01209586
000150 48 ae c8 bb 59 f3 03 3d bc fa ba bc 54 59 26 3c
       -0.0061242916 0.032214496 -0.022824638 0.010153133
000160 e9 c0 35 bd 8d b6 7c bd 1f 56 8d bd 69 9e dd 3d
       -0.044373427 -0.06169753 -0.06901192 0.1082123
000170 ba c1 71 3d 5f bf 61 bc 27 e8 bb bd f4 a1 01 3d
       0.059022643 -0.013778537 -0.09175139 0.03164859
000180 d8 2c 1c 3d ba bb d7 bd a0 e8 c9 3c 89 5c 18 3c
       0.038128704 -0.10533853 0.024647057 0.009299406
000190 05 13 3b bc 9d 6f 40 bd 7a 8d 90 3a 38 01 96 bd
       -0.011418109 -0.046981443 0.0011028491 -0.07324451
0001a0 fa 42 7f 3d fe 10 ea bc aa e4 17 3d 2f 8b eb 3c
       0.062319733 -0.028572556 0.037083305 0.028752891
0001b0 d5 94 4e 3d 37 9d 05 bd 91 0f 2a bc 60 cf 04 bc
       0.050434906 -0.032620635 -0.010379688 -0.008106083
0001c0 34 4f 2c bb 16 e4 ec bc 12 f7 3e bc fd 0a 55 3d
       -0.0026292326 -0.028917354 -0.011655586 0.052012432
0001d0 2f 2c da 3c f4 fa f4 bb 9d cc 81 3c 2a 92 aa 3c
       0.026632397 -0.007476205 0.015844638 0.02082165
0001e0 d8 94 e2 3a 7e 13 0d 3c dd f5 e1 3c 13 7b ba bd
       0.001728679 0.008610604 0.027583057 -0.09105506
0001f0 ca 08 6e 3d 29 cf 27 bd 69 9c 3b 3d ed e8 9c 3d
       0.05811385 -0.040969048 0.04580346 0.076616146
000200 f7 d9 2d 3b 4c 4b 7b bb 28 b2 52 bc 79 7d 68 bc
       0.0026527622 -0.003834444 -0.012859859 -0.014190071
000210 80 f2 01 bd f7 8b 6d 3d 55 cd 80 3c 2c 3e 2a bb
       -0.031725407 0.05799481 0.01572291 -0.0025976999
000220 ec a2 e9 bc 13 ca 91 bd 34 4d 85 bb f6 9b 1c 3d
       -0.02852007 -0.07118621 -0.004068041 0.038234673
000230 16 62 f6 bc 45 bc cc bd 06 83 91 3d 4e c8 ad 3c
       -0.030076068 -0.09996847 0.07105069 0.021213677
000240 05 f1 66 3c d4 f0 69 3c 53 ce cc 3b 72 e5 77 bd
       0.0140955495 0.014278609 0.0062501817 -0.06052155
000250 c2 aa f7 bd b8 df fd 3b af 31 c7 3d 0a 86 b9 bc
       -0.12093116 0.0077476166 0.09726273 -0.022646923
000260 ad d3 80 bb f2 33 44 3d f6 e0 6b 3c 1b 5c 29 bc
       -0.0039314837 0.0479011 0.014396897 -0.010336901
000270 e9 49 15 3c 50 dd 0b 3d 41 f7 e3 b9 a3 05 7d bc
       0.00911186 0.034146607 -0.00043481032 -0.015443238
000280 4a ef f6 3c 2d 89 d6 3c 11 88 86 3d 1c e8 bf 3d
       0.030143399 0.026188457 0.06568921 0.09370443
000290 3d 46 c2 bb 36 69 69 bd 98 c6 9a 3d bd 43 b3 bc
       -0.005928783 -0.056985103 0.0755741 -0.021882886
0002a0 8e 34 97 bc d9 b6 cc 3c ee e5 06 3d f1 52 84 3b
       -0.018457677 0.024989532 0.03293412 0.0040382077
0002b0 c4 4a 05 3d 1e 27 de 3c c9 0e 07 bc 52 62 8b 3d
       0.032542005 0.027118262 -0.008243271 0.068058625
0002c0 07 71 26 bd 02 87 00 bd 93 f1 46 bc 0a be 02 bd
       -0.040635135 -0.031378753 -0.012142557 -0.031919517
0002d0 eb 33 10 bd a9 7b 26 3e db 3e f8 3b 94 94 26 bd
       -0.035205763 0.1625811 0.0075758523 -0.04066904
0002e0 c4 a5 5e bd c2 61 21 bc ee 71 50 3d 52 25 6d bb
       -0.054357305 -0.009849967 0.0508899 -0.0036185575
0002f0 f1 6f 27 3c ab 74 20 bd c5 70 aa bc d3 a8 6f bc
       0.01021956 -0.039173763 -0.020805726 -0.014627653
000300 63 19 34 3c ba a1 d6 bb a1 eb 50 bd 4a 01 23 3d
       0.010992381 -0.006550041 -0.051005963 0.03979615
000310 6f 73 59 bc 57 67 6c 3d d1 c3 dc bc 04 79 76 3d
       -0.01327215 0.05771574 -0.026948841 0.060174003
000320 f9 cd 83 3c fb 6e c8 bd d5 bb 68 bd 8a dd f2 bb
       0.016089426 -0.09786793 -0.056819756 -0.0074116634
000330 4e 3b b8 bc a0 8f 02 bd e7 76 9f bd f5 88 e4 bb
       -0.022489216 -0.031875253 -0.07786351 -0.0069743344
000340 51 35 ea 3d 6a 0b 6a 3d 79 b1 f9 3b d0 e3 90 3c
       0.114359505 0.05713979 0.0076200333 0.017686754
000350 50 79 a5 bc ee cc cd bc 9c 24 bd bd b9 60 b8 bd
       -0.020199448 -0.025122132 -0.09235498 -0.090028234
000360 5c e8 8c 3b 6e ff a6 ba e5 5e 90 3c 0c e4 b6 bc
       0.0043001603 -0.0012740919 0.017623374 -0.022325538
000370 2f 58 73 3d a6 33 bc 3b a4 45 dc 3c d5 13 74 3d
       0.05941027 0.0057434617 0.026888676 0.059589226
000380 fd 0a 0f 3d 6e ac 8b 3d e7 22 09 bd 07 2b 42 3b
       0.03492259 0.06819998 -0.03348055 0.0029627697
000390 78 c8 5d bd 63 7d 18 3b 9e 0e 97 bc 95 ab bb 3c
       -0.05414626 0.0023268096 -0.018439587 0.022908965
0003a0 bc ef 38 3b 85 ff 87 3c c6 9b d7 bc 18 36 3e 3d
       0.0028219065 0.016601333 -0.026319396 0.046438307
0003b0 cf 1e 2a 3d 20 a5 dd bb 2b 78 0b bc d2 b2 1f 3d
       0.041533288 -0.006764069 -0.008512537 0.038988896
0003c0 b8 38 95 3d c7 50 9e 3c a7 27 4e bc d9 d2 bb bb
       0.07286209 0.019325627 -0.012582696 -0.005731922
0003d0 a2 18 2a bc b7 86 5b 3c 81 d9 1f bc e6 31 90 bc
       -0.0103818495 0.013398818 -0.009756447 -0.017601918
0003e0 f9 97 47 3d 0a a9 6f 3d 8c 2c 7b 3d 93 7c f0 bc
       0.048728917 0.058510818 0.06132178 -0.029356277
0003f0 da 65 72 bd 69 e6 fb bc da 30 35 3d db 95 c4 3c
       -0.059179164 -0.030749517 0.04423604 0.023997238

conv_layers.2.bias f4 [64]
000000 ed 79 dd 3c d1 4e ea 3b a4 b8 10 bd 79 7f 10 bc
       0.027035678 0.007150509 -0.035332337 -0.008819454
000010 7f 98 4f bd 3b e5 b4 bc 9b 26 3c 3b 35 c0 6c 3b
       -0.05068254 -0.022081962 0.0028709534 0.0036125307
000020 e3 a8 f3 3c 6f 71 4a 3d 5f 00 87 3c d8 8b 50 3c
       0.029743617 0.049424585 0.01647967 0.012728654
000030 d0 d2 d6 bc 61 e7 90 3c 79 84 49 bc 10 42 9e bd
       -0.02622357 0.017688455 -0.01229965 -0.07727444
000040 c2 e4 20 bd 20 6e f6 3c c8 26 73 bd 31 8e 04 bd
       -0.03928066 0.030081809 -0.059363157 -0.032362167
000050 9e d3 3e bd 43 68 c5 bc 0f e5 4f 3d 69 b9 3b 3d
       -0.046588533 -0.024097567 0.050755557 0.045831118
000060 47 56 fe bd eb 84 93 3c c7 44 b8 3c db 3f 6e 3c
       -0.124188 0.018007716 0.022493733 0.0145415915
000070 c0 3e 6c 3d 96 29 f4 3c 1e 7c 4a bd 9d e7 29 3c
       0.05767703 0.029804986 -0.049434774 0.010370162
000080 ff d7 07 3d 3b b5 25 3c 6d 70 94 3d 62 63 e0 bc
       0.033164974 0.0101140095 0.07248006 -0.02739114
000090 0c 94 75 bd 40 37 56 3d 21 13 b5 3c 0d 27 30 bc
       -0.05995564 0.052298784 0.022103848 -0.010751498
0000a0 8a 01 2e bc 8b b9 8f 3d b4 76 69 bd f7 2e 98 3d
       -0.010620484 0.070178114 -0.05699797 0.07430833
0000b0 1f 84 0d 3c 02 ab 54 3d 18 2d e9 bb 4f 03 a2 bc
       0.008637457 0.0519209 -0.0071159713 -0.019776968
0000c0 22 89 ae 3d fd e8 34 3d fd 18 da 3c 6d 7b 37 bd
       0.0852225 0.044167507 0.026623243 -0.044795442
0000d0 74 b2 d8 bc 30 43 4b bd bf 1a a3 ba c2 5d 8d bd
       -0.02645228 -0.049624622 -0.0012443884 -0.069026485
0000e0 0c 87 09 3c 83 fe 1a 3c 90 67 23 3b 9a b1 ae bc
       0.008394014 0.009460094 0.0024933554 -0.021324921
0000f0 91 25 07 3d 61 de 2a bc e9 06 3c 3d 19 1c 50 3d
       0.03299481 -0.010428996 0.045905028 0.050808046

conv_layers.3.weight f4 [64, 256, 5]
000000 50 eb cb 3c 50 31 26 3d e6 55 93 3c 06 54 21 bd
       0.02489248 0.04057437 0.017985296 -0.03938677
000010 1a a7 86 3d 38 08 64 bd b2 da a9 3d 1b 87 40 bd
       0.06574841 -0.0556719 0.08293666 -0.047003847
000020 b7 37 8b 3c ee 6b 4b 3d 9f 46 32 3d 16 32 1a 3c
       0.01699434 0.049663477 0.04352438 0.0094113555
000030 02 85 78 bd ec 3d c7 3d 8d 3c 26 bc e9 2a 25 3d
       -0.06067372 0.097286075 -0.010146272 0.040324125
000040 b4 b7 c1 bc 17 e1 d2 3d 11 ad b6 3c cb 75 00 bb
       -0.023647167 0.10296839 0.022299321 -0.001960146
000050 35 a6 1b 3c 39 39 a9 bd c1 0e 91 bd de 8c db 3c
       0.009500076 -0.082628675 -0.07082892 0.02680057
000060 b2 e6 f3 bc 09 02 8b 3d 79 a8 dc 3c 93 4e 49 3d
       -0.02977309 0.067874976 0.026935803 0.0491472
000070 cf 3c e2 3b 02 0a da bc 55 47 d9 3c 7b 4f fa bc
       0.0069042216 -0.0266161 0.026523272 -0.030555477
000080 0d 09 26 3d 6d 78 f2 3d 94 5a 29 3d 32 5d d4 3c
       0.040535975 0.11839376 0.041346148 0.025923345
000090 19 09 6b 3d 96 91 c3 3b 9c d6 60 3d 7a ac 4c bc
       0.057381723 0.005968283 0.054892167 -0.0124922935
0000a0 38 35 8a bd ce e6 dc bb 0c 1f a2 bd b7 c3 79 3c
       -0.06748432 -0.0067413813 -0.07916078 0.015244416
0000b0 cd bc 91 3d 6c ae 66 3d 01 09 23 3c 66 71 63 bc
       0.07116089 0.056318685 0.009950877 -0.013882017
0000c0 2a a5 92 3d 83 a0 d3 3c 50 20 c2 3c a7 a0 35 3a
       0.07160409 0.025833374 0.023697048 0.0006928541
0000d0 19 3a 9f bd 8b fb 00 3d 77 a3 03 bd 85 07 89 bc
       -0.07774753 0.03148989 -0.032138314 -0.016727218
0000e0 e8 20 59 3c e2 25 09 3c 34 2e 18 bd 89 2b 8f bd
       0.013252474 0.008370848 -0.037153438 -0.069907255
0000f0 d3 84 63 bb 42 40 12 bd 06 ff bf 3c 33 03 2b bd
       -0.003471662 -0.035705812 0.023437034 -0.041751098
000100 02 e6 00 3d 71 39 f3 b9 c5 3a e9 3c 37 07 69 3c
       0.031469353 -0.0004639137 0.028470406 0.014222912
000110 48 a1 64 3d b7 1a 18 bd c9 a7 e1 3c db 34 c6 3b
       0.055817872 -0.037134852 0.027545827 0.0060487813
000120 f9 31 fa bc 14 1c ee bd e7 9d 28 bd c6 50 b1 ba
       -0.030541407 -0.11626449 -0.041166212 -0.0013528101
000130 de 76 b8 3c e7 c2 1c 3d 46 45 53 3c dc 29 e9 bc
       0.022517618 0.03827181 0.012894934 -0.028462343
000140 74 d3 0f bd f1 58 b1 bc 93 0c 08 3c 96 44 7a 3d
       -0.035113767 -0.021648856 0.008303779 0.061100565
000150 fb 4b 38 bd 20 0a d8 bb 9f 4b 3f bd 04 33 2c 3d
       -0.044994336 -0.006593004 -0.046702977 0.04204084
000160 7a 31 d3 3c dc 07 09 ba fd 99 0b bd d5 1d 6b 3c
       0.025780428 -0.00052273064 -0.0340824 0.014350374
000170 d7 7f ff bb 73 28 b9 bc 1c 00 b8 3c 32 c6 e9 3c
       -0.007797222 -0.022602296 0.02246099 0.02853689
000180 ff c6 3a 3d 13 8f 1c bc 20 af 19 3d 10 df 37 3d
       0.045599934 -0.009555596 0.037520528 0.044890463
000190 6d a8 59 3d df 52 cd bd 2a 80 33 3d ac 01 81 3d
       0.05313914 -0.10025572 0.0438234 0.06299147
0001a0 9a 0d e2 bc ef 9a ce 3b ba 6c 33 3c 0b c1 ce bd
       -0.027594376 0.0063050906 0.010951215 -0.10095414
0001b0 67 ee 12 3d 98 5d 20 3b 8d b0 61 bc 00 7b 26 bd
       0.03587189 0.0024469849 -0.013775003 -0.040644646
0001c0 24 40 dd 3b 80 80 82 bd 64 ed 4a bc 8e 50 db 3a
       0.006752031 -0.06372166 -0.0123857 0.0016732381
0001d0 bd 45 8c 3d ef 13 40 bd 7a 63 50 3d 28 20 08 bc
       0.06849239 -0.04689401 0.05087612 -0.008308448
0001e0 20 de af bd 95 af a5 3b 05 b0 78 bc a6 67 f8 39
       -0.08587289 0.0050563314 -0.015178685 0.0004737947
0001f0 73 97 86 bd 2d 47 2a 3d fa b6 38 3c 5d 3b 4b 3d
       -0.065718554 0.041571785 0.011274094 0.04961716
000200 97 56 09 3d eb ec bd 3d b4 2a 8d bc 1e 18 1f 3c
       0.033529844 0.09273704 -0.017232276 0.00971034
000210 6e b1 66 bc 5e 06 60 bd c1 bf 40 3c b3 73 51 bd
       -0.0140803885 -0.054693572 0.011764468 -0.05113573
000220 84 23 95 bc cc 2a da bd 8c 55 5e 3c 81 26 b5 bc
       -0.018205412 -0.10652694 0.013570201 -0.022113087
000230 a5 34 70 3c 8a 0d 41 bd e2 3c 10 bd 76 c1 bb bc
       0.014660989 -0.047132052 -0.035214312 -0.022919398
000240 8b 9a b6 bd 51 ca 15 bd 35 fc 4f 3c 14 f2 19 bd
       -0.089161955 -0.036569897 0.012694408 -0.03758438
000250 9c 1e 1c 3d d6 90 a2 bd 85 bf f8 3c 1f ae e2 bc
       0.03811513 -0.079377815 0.030364761 -0.027670918
000260 3a 9a fe bc dd 62 ff ba 42 03 a1 bd 13 93 d4 bc
       -0.0310794 -0.001948442 -0.078619495 -0.025949037
000270 04 6c b2 bb b1 20 4f 3d 61 d4 e2 bc 58 c1 61 bd
       -0.0054450054 0.050568286 -0.02768916 -0.055116028
000280 7c 9b e5 bb 5d 3e 28 bd d0 2f 11 bd 12 f0 c4 3c
       -0.0070070606 -0.0410751 -0.03544599 0.024040256
000290 8a 05 19 bc 97 16 49 bb e4 eb 31 bd fe 60 f8 3c
       -0.0093396995 -0.003068363 -0.043437853 0.030319687
0002a0 86 df 95 3d e9 34 2c bd 67 58 8b bc 87 46 21 bc
       0.07318024 -0.042042647 -0.017009927 -0.009843475
0002b0 40 96 a7 bc d1 cb dc bb c2 cd 2c bd 97 ad 8b bc
       -0.020457387 -0.006738164 -0.042188413 -0.017050548
0002c0 4a 6a 60 3b a6 39 9a bc 3e 12 52 3d d8 51 28 bd
       0.003424304 -0.018826317 0.05128693 -0.041093677
0002d0 3b ae 3f bd 54 ad 8b 3d 67 4b 23 3c 4a 50 d7 3c
       -0.04679702 0.06820169 0.009966708 0.026283402
0002e0 ac 8b 17 bd 3e 03 90 bd e9 4a 3c bc d1 e7 5a bd
       -0.036998436 -0.070318684 -0.011492469 -0.053443734
0002f0 46 b9 5c 3a e3 69 98 3d 20 9e be bc 55 ff f4 3b
       0.0008419942 0.07442071 -0.02326876 0.007476727
000300 4a 84 d2 3c a7 b9 ec 3c a8 0a a8 bc aa 1c e0 3d
       0.025697846 0.02889712 -0.020512894 0.10942967
000310 29 61 03 bd b8 0e 7c bd 72 fc a2 3c c3 75 d7 3c
       -0.03207508 -0.061537474 0.019895766 0.02630127
000320 c3 68 15 bc 4d 7a d2 3c 0e 13 a4 bc db 18 62 bd
       -0.009119215 0.025693083 -0.020028617 -0.055199485
000330 d6 a6 6f 3d 8f 77 3f 3d a3 3e 88 bc 1d 2a 9d bc
       0.058508717 0.04674488 -0.01663143 -0.01918512
000340 e8 60 9e 3c 27 84 97 39 58 22 90 bb 18 0e 7f 3c
       0.019333318 0.00028899426 -0.0043986253 0.015567325
000350 4b 44 bc bc 84 04 b1 3c 57 d4 27 bd b2 25 40 3d
       -0.022981783 0.021608599 -0.040973987 0.04691095
000360 ec b4 3f bc 5d c8 83 bd b5 61 77 bd 40 16 97 bd
       -0.01170085 -0.06434701 -0.060395915 -0.07377291
000370 0b 8c 83 3d a2 3a ec bb eb 4e f0 bd 5b f4 d8 bc
       0.064231955 -0.007209138 -0.117338024 -0.026483705
000380 71 8c 74 bd a4 d1 b9 bc 64 ae f8 bc 0f 8d 7a 3b
       -0.059704248 -0.022682972 -0.030356593 0.003823105
000390 60 a6 09 3d 60 52 8e bc 5b 7e b6 3c 3d f5 07 3d
       0.033605933 -0.017373264 0.022277048 0.03319286
0003a0 38 4e a8 3d 78 f3 92 3d 47 56 8d bd 77 73 03 3c
       0.08218044 0.07175344 -0.06901222 0.008023134
0003b0 4b 38 f0 3a fa ba 0f 3d 4b 66 4f 3d 51 e8 6d 3b
       0.0018327323 0.035090424 0.050634664 0.0036301801
0003c0 b7 ff 24 bc 8e bd be bc 44 0a 08 3d c1 c2 d2 bc
       -0.010070733 -0.023283746 0.033212915 -0.025727632
0003d0 5c 56 9a bc f6 6f 2c bc 59 6b 8e bd b0 dd 22 bc
       -0.018840007 -0.01052474 -0.06954069 -0.00994055
0003e0 08 3d 2c 3c 3d 77 c5 bc 61 68 97 bc 5c 74 55 3d
       0.010512598 -0.024104709 -0.018482389 0.052112922
0003f0 61 df 25 3d 49 d9 ee 3c 14 c6 30 bd bc 40 3b 3c
       0.040496234 0.029156344 -0.043157652 0.011429008

conv_layers.3.bias f4 [64]
000000 45 4c 07 be c8 76 29 bd 1c 53 d2 bd 6e 4a b5 bb
       -0.13212688 -0.041373044 -0.10269758 -0.0055325544
000010 13 aa 9c bd 48 8d 23 bc 7a 2b 39 bc 1e 10 c4 bd
       -0.076496266 -0.009982415 -0.0113018695 -0.095733866
000020 9b c1 7d bc 8e de 9b 3c d3 3f 17 bd 57 06 63 3c
       -0.015488054 0.01902702 -0.036926102 0.013856492
000030 65 b2 93 3a 55 fd 91 bd d3 4d 99 3d f4 a2 cc 3c
       0.0011268376 -0.071283974 0.07485547 0.024980046
000040 60 8f 3c bd c7 36 8e 3c cb 90 85 bc 63 ef ba 3c
       -0.04603517 0.017360104 -0.016304394 0.022819227
000050 63 0b 3e bb 11 d8 9c bc d6 e1 9e bc b9 78 46 3c
       -0.0028998486 -0.019145997 -0.019394796 0.012113743
000060 00 87 79 3b cb ec c2 bd ad 6b 5e 3d e3 ec d4 3c
       0.003807485 -0.09517821 0.054301906 0.025991863
000070 1c b9 c9 3b 88 fa 96 bd c1 b6 03 bd bc ac f2 3c
       0.0061561 -0.07372004 -0.03215671 0.029623382
000080 57 8a 86 3d 58 8d fe 3c c3 4c de bd b7 3b 1e bd
       0.06569355 0.031073257 -0.10854485 -0.038631167
000090 1a 70 ea 3b 24 68 f1 bc 09 0d 2d bd 77 4a f5 bc
       0.007154477 -0.029468603 -0.04224876 -0.029942734
0000a0 d4 b9 27 bc 5f 53 6d bd bc e0 f7 b9 6a ef f5 3a
       -0.010237176 -0.057940837 -0.0004727895 0.0018763368
0000b0 f1 cb 19 bd f5 ee 03 3c bd f2 4c bc 86 d2 98 bc
       -0.03754801 0.008052577 -0.012509045 -0.018655073
0000c0 ec fc 2f bd 7b ca a7 bc c8 25 d1 bb 5a ce 4f 3b
       -0.042965814 -0.020482292 -0.0063826777 0.0031708688
0000d0 e8 1b 51 3c 77 7d a5 bb 39 0b 85 bc 48 74 bb bd
       0.012763001 -0.005050357 -0.016240703 -0.09153038
0000e0 1e 35 a1 bc f4 c7 17 bc fb 07 20 3d 9e 55 d9 bc
       -0.019678649 -0.009263981 0.03907011 -0.026530083
0000f0 35 8c 86 bc 92 8c 64 ba f9 1e 76 bd 64 74 a6 bc
       -0.016424278 -0.00087184564 -0.06008813 -0.020319171

fc1.weight f4 [64, 256]
000000 1f ab 30 bd 47 5f b8 3c 77 19 b7 bc ec 47 cf ba
       -0.043131944 0.02250637 -0.02235101 -0.0015814281
000010 0d a3 90 bd ff 60 f0 3c db 48 9a 3d bb 74 ef 3a
       -0.070623495 0.029343126 0.07533427 0.0018269041
000020 c8 08 eb bc 50 e9 e2 bc 1c 09 db bc e4 a3 30 bd
       -0.02869071 -0.027699143 -0.026737742 -0.04312505
000030 5e 75 05 bc b1 eb 81 bd f5 08 2b 3d ef d0 4c bc
       -0.008145658 -0.06343783 0.04175659 -0.0125009855
000040 b6 81 71 bd fe bb f6 bc 5d 54 16 bc 0b 09 cc bb
       -0.058961593 -0.030118939 -0.009175387 -0.006226664
000050 d9 50 90 bb eb 89 04 3d ee 76 a4 bb c1 52 91 bd
       -0.004404169 0.03235809 -0.0050190603 -0.07095862
000060 5e 3c 94 3b 59 ce 1b bd e5 e0 44 3d f0 25 36 bd
       0.004523798 -0.038038585 0.04806604 -0.044469774
000070 7f e4 b5 3c 2c 38 65 3b 0d 60 8f bd bc 76 8e bc
       0.022203682 0.0034976108 -0.07000742 -0.017390601
000080 1f 2a e4 bc c9 af c3 bc a1 dc 78 bd bb 5e 0e 3d
       -0.027852116 -0.023887532 -0.060757283 0.03475831
000090 dd e7 45 bc d8 43 9f bd 5a eb 8b bd ce 98 00 3d
       -0.012079206 -0.07776612 -0.06831999 0.031395726
0000a0 9c 3a 7c bc d5 94 87 bc c1 36 3f 3d 00 ac e4 bc
       -0.015394833 -0.01655046 0.046683077 -0.027914047
0000b0 cc ab 0d bd 80 11 b7 bc 7c 1e b3 3c e3 e0 08 bd
       -0.034587666 -0.022347212 0.021865122 -0.033417594
0000c0 7e ea 92 bd 1e 50 cb 3a 81 3f 01 bd 30 4e 0c bd
       -0.07173632 0.0015511548 -0.031554703 -0.034254253
0000d0 98 de d9 bc d5 d5 b5 3c 23 b9 78 3d 74 dd 08 bd
       -0.026595399 0.02219669 0.060723435 -0.03341432
0000e0 aa c7 e6 bc be 9f ff 3c 13 6e 2e 3c 57 ce f9 3b
       -0.02817138 0.0312041 0.010646361 0.0076234746
0000f0 2e da c4 3c 2a 3d 86 bd 4c 1a ca bc 41 42 f2 3c
       0.024029817 -0.06554635 -0.024670742 0.029572608
000100 62 1c 20 bd cc 4f d2 bb ca 0b 4a 3d c3 a5 93 bd
       -0.039089568 -0.006418204 0.04932765 -0.07209351
000110 53 29 60 bc d5 c2 50 3c 72 cc 86 bd 80 a0 49 3c
       -0.013681727 0.012741764 -0.065819636 0.012306333
000120 0f a6 30 bc 3c bc 47 bd 14 0a a8 bc dc 30 10 bd
       -0.010781779 -0.0487635 -0.020512618 -0.035202846
000130 15 48 29 bc 36 9d 38 3d 8f 40 3a bd e9 61 bd 3c
       -0.010332127 0.045071803 -0.045471724 0.023117976
000140 23 a4 d8 3c 6f e7 5d bd 37 96 85 3c 99 ed 5e bd
       0.026445454 -0.05417579 0.01630698 -0.05442581
000150 62 57 8a bc 66 4a 10 3d fc f0 78 3b 61 6a 4c 3c
       -0.01688737 0.035227202 0.0037985435 0.012476535
000160 7c 5c 01 bd 1c 61 da 3a 46 11 d9 3c 75 e5 42 bd
       -0.03158234 0.0016661021 0.026497494 -0.04758211
000170 48 8e e6 3b e5 49 51 bd 5f ae 0a 3b d8 97 45 3d
       0.007036004 -0.051095862 0.0021161062 0.048240513
000180 c3 4f 7c 3c 76 af 46 3d 2c 21 36 bd 18 29 ac b9
       0.015399876 0.048507176 -0.04446523 -0.00032837014
000190 b3 57 aa 3b 56 b8 14 bd f5 f5 e6 3c 86 87 aa 3a
       0.005198443 -0.03630861 0.028193453 0.001301036
0001a0 9d 93 89 3c b8 5a 42 3d 30 7d 5a bd 78 a1 8d bd
       0.01679402 0.047449797 -0.053342044 -0.06915563
0001b0 fa 3a d1 3b 19 c8 c8 bc cd 11 17 bd de 2f 8f bc
       0.0063852044 -0.024509476 -0.03688221 -0.01747888
0001c0 01 32 5b bc 20 29 0b 3c 22 bb b6 3c 5e 8d 48 ba
       -0.013378621 0.008493692 0.022306029 -0.000765046
0001d0 49 7f 72 bd 3d 53 8c 3b 6e 0a 09 bc e3 0d 74 bc
       -0.05920342 0.0042823837 -0.008364303 -0.014895889
0001e0 51 e9 e8 bc d0 02 1c bd 93 cd 09 3c 97 eb 1e 3d
       -0.028431566 -0.03808862 0.008410829 0.038798895
0001f0 b8 7d 30 bd 9c 3d 43 bd 61 8d 1a bc de 26 d4 bc
       -0.043088645 -0.047666177 -0.009433121 -0.02589744
000200 d6 b8 5b bd 61 c7 16 3d 3e 04 0f 3c e7 c2 25 3c
       -0.05364307 0.036811236 0.008729039 0.010117269
000210 c0 9b 77 bd 60 e9 88 bd 0d e3 5d bc ea cb 13 3d
       -0.06045127 -0.06685138 -0.013542903 0.03608314
000220 4f d2 b4 3c 89 4e 6f bd f3 1f 11 bb 2e a8 5a b9
       0.02207294 -0.058424506 -0.0022144287 -0.00020852752
000230 a9 ee 34 bd 05 56 0c bc 75 3e 67 3b 42 4b 99 bc
       -0.044172917 -0.0085654305 0.003528503 -0.018712644
000240 b0 04 50 3d 23 c2 2a 3d c3 be 22 3d 10 05 e1 3c
       0.05078572 0.04168905 0.039732706 0.027468234
000250 d6 63 37 bc fe 69 95 bc 4b b6 85 bd 4f a9 9d bc
       -0.011193236 -0.018239018 -0.0652891 -0.019245772
000260 d5 20 96 bd 95 d3 10 3c bc 18 9c bc 53 1c 7d bc
       -0.07330481 0.008839508 -0.019054763 -0.015448648
000270 26 72 8c bc 7c 43 81 bd 76 29 1d 3d a2 4d 4c bd
       -0.017144274 -0.063117 0.03836962 -0.049878724
000280 19 28 14 3d f6 b0 27 3d ae 10 be bc 88 58 8c bc
       0.036171053 0.040940247 -0.023201313 -0.017132059
000290 72 5b 27 bd e5 10 65 bd 8a 4c d8 bc 5f 54 67 bd
       -0.040858693 -0.055924315 -0.026403684 -0.056476947
0002a0 e0 0a fe 3c 01 73 50 3c 42 0b 7a bd 87 8a 5d bc
       0.031011045 0.012722732 -0.061045893 -0.013521797
0002b0 03 65 e9 bc 0c 7c 09 bd cc 8b 7d bd 4d e2 48 3d
       -0.028490549 -0.033565566 -0.0619009 0.049043942
0002c0 38 8e ee bc 8b 94 29 3c 9f 20 62 bc 16 dd d5 3c
       -0.02912055 0.010350357 -0.013801723 0.026106399
0002d0 3d 98 09 3c 0d 55 3e bc b4 1c 0d 3d d5 57 d2 bc
       0.008398113 -0.011616957 0.0344512 -0.025676647
0002e0 bb 0f 59 bd 09 c3 7a bd c0 d4 fe bb d3 ac 49 bd
       -0.052993517 -0.061221156 -0.0077768266 -0.049237084
0002f0 bd 18 89 bd c1 a2 5c 3c 9d db f5 ba 43 e6 cd b9
       -0.066941716 0.013466538 -0.0018757466 -0.00039272205
000300 6e 3f dc 3b e6 17 2d bd e1 b3 5f bd f2 64 74 bd
       0.0067214286 -0.04225912 -0.054614905 -0.05966658
000310 40 11 ea bc 1a 29 86 bd 05 41 53 bd 13 3c cb 3c
       -0.028572679 -0.06550808 -0.05157568 0.024808919
000320 bb 44 19 3c 39 97 5c bd 1f 8a 99 bb 15 aa 01 3d
       0.0093547655 -0.053855155 -0.004685655 0.031656343
000330 0c 8f 1b 3d f8 59 4c bd 5e 4a f9 bc cc 2d 2f 3c
       0.037978217 -0.04989049 -0.030430969 0.010692071
000340 54 87 a4 bb ac 20 62 3c 9c 36 d4 3b 0a 22 3e 3d
       -0.005021015 0.013801735 0.0064762365 0.04641918
000350 da 98 6e 3c 72 fa 92 bd bd 6a 90 bc 79 09 46 bd
       0.01456281 -0.07176675 -0.017629022 -0.048348878
000360 24 d5 ab 3c 39 13 36 3c 3b 81 09 bd b8 f7 05 bd
       0.020975657 0.0111129815 -0.03357051 -0.032706946
000370 d5 d3 c0 3c 52 5c 81 3c 91 84 62 3d 90 63 ce bc
       0.02353851 0.015791092 0.055302206 -0.02519396
000380 2b e0 2b 3c 0e 74 05 3c 04 8a d4 bc 6d a1 3c bd
       0.0104904575 0.008145345 -0.025944717 -0.046052385
000390 ee 3e 27 bd 7e 06 03 3c 7e 62 85 bd 2c 7e c8 3c
       -0.0408315 0.007997153 -0.065129265 0.024474226
0003a0 05 6c a5 bc b4 12 90 3c b0 69 8a bd a7 56 04 bd
       -0.02019311 0.017587043 -0.067584395 -0.0323092
0003b0 ee 1f 09 bd 3a b1 72 bc 3f 3a 32 3b b6 bc 51 bd
       -0.033477716 -0.014812762 0.0027195362 -0.05120536
0003c0 62 40 03 3d e9 60 58 bd 4a f1 2a 3a 75 74 4a bd
       0.032043822 -0.052826796 0.000652094 -0.04942747
0003d0 8d 90 5a bd 23 18 9f bc 3d 81 90 3c 7a df 49 3d
       -0.05336051 -0.019420689 0.01763975 0.04928539
0003e0 e5 05 bb bc a4 4f e9 39 52 8b 45 bd ba 65 78 bd
       -0.02282996 0.0004450056 -0.04822857 -0.06064389
0003f0 b8 85 65 3d 37 d5 2c bd e6 8b f0 3c 5b 4b de 3c
       0.056035727 -0.042195525 0.029363584 0.027135542

fc1.bias f4 [64]
000000 d2 bf 64 bd ef 2c 09 be 31 f7 2f 3c 15 92 90 bb
       -0.055846997 -0.13396047 0.010740087 -0.0044119456
000010 11 06 3c bc b6 c6 21 be 79 a5 92 bb 41 a9 87 bd
       -0.011476056 -0.15798458 -0.0044752923 -0.066240795
000020 00 b7 76 3c a0 2c 2a 3d 7d 16 35 3d 10 ec c3 3d
       0.015058279 0.041546464 0.0442109 0.0956651
000030 91 d6 56 bd 42 39 37 bd d4 eb 94 3c 17 23 a3 bb
       -0.05245072 -0.04473234 0.018178858 -0.0049785483
000040 79 92 1c 3d 75 86 7a 3c e3 29 e9 3c e4 af a1 bc
       0.038225625 0.015290846 0.028462356 -0.019737191
000050 48 45 88 bd 80 ab 81 bd 69 97 d6 3d 76 ef 09 3d
       -0.06653839 -0.06331539 0.10478098 0.033675633
000060 3b a6 59 bd 4f 81 4e bc 0d 32 24 3b a3 58 56 3b
       -0.053137045 -0.012604072 0.0025054247 0.003270664
000070 c7 c9 3b 3d 83 d5 fa bc 00 4e 6a bd 91 81 6d bc
       0.045846727 -0.030619388 -0.057203293 -0.014496223
000080 bb c6 84 bd c6 24 6a 3d b0 b8 41 bd ad 3e 8d 3c
       -0.06483217 0.057163976 -0.047295272 0.0172418
000090 bb f6 94 bd e7 d9 a9 bc af 64 2b 3d d3 86 bb bd
       -0.072736226 -0.020733787 0.041844066 -0.09156575
0000a0 60 7f 55 3c cb 7f a0 bd 92 1c 9f ba 5b 80 dd 3c
       0.013030857 -0.078368746 -0.0012139252 0.027038744
0000b0 da 8a 7f 3d 05 2a 52 bd d6 a3 de bc c9 97 72 3d
       0.06238828 -0.051309604 -0.027177732 0.059226785
0000c0 ab a0 0e 3d 08 cb 6a bd c5 3e ed 3c 19 4e 88 bd
       0.034821194 -0.057322532 0.028960595 -0.06655521
0000d0 9e 61 7f 3d 90 77 4b 3d 45 0c 86 3d 8f b8 dc bc
       0.062348954 0.04967457 0.06545309 -0.026943473
0000e0 b2 5e e1 3c 97 f3 d3 3d ea 1b 4a bd d4 23 41 bd
       0.027510975 0.103491955 -0.049343027 -0.04715331
0000f0 66 5f f4 3d 2e 6c ce 3b 28 63 72 bd 02 ff 1a 3b
       0.11932258 0.006299517 -0.059176594 0.0023650532

batch_norm.weight f4 [64]
000000 cc 88 80 3f 4c 2d c0 3f 1a 55 7d 3f b7 27 c3 3f
       1.0041747 1.5013824 0.9895798 1.5246495
000010 27 90 a8 3f 92 fa d9 3f 52 fd 7c 3f 43 e5 b4 3f
       1.3168992 1.7029593 0.98824036 1.4132465
000020 6f 76 7e 3f 9b 59 e0 3f 49 eb c6 3f a2 5e fa 3f
       0.99399465 1.7527345 1.5540553 1.956013
000030 e2 66 7e 3f e7 83 c1 3f 2c d4 7c 3f ca ef b0 3f
       0.99375737 1.5118378 0.9876125 1.3823178
000040 05 76 ce 3f 0b 1e bd 3f 0d 09 c3 3f 95 77 c7 3f
       1.6129767 1.4774793 1.5237137 1.5583369
000050 a0 55 9f 3f 1d bf 7c 3f 90 04 bf 3f 3d 0d 7f 3f
       1.2448006 0.98729116 1.4923267 0.99629575
000060 da 9c 7e 3f 36 f5 7d 3f 23 a6 7d 3f 67 9b 8c 3f
       0.99458086 0.9920229 0.9908163 1.0984925
000070 48 af a6 3f cb 42 98 3f 4d c4 dc 3f 0c da bb 3f
       1.3022242 1.1895384 1.7247406 1.4675918
000080 1a 2b 7e 3f c7 2f c3 3f a2 a9 ae 3f 17 40 cb 3f
       0.9928452 1.5248955 1.3645518 1.5878934
000090 70 d0 b3 3f fe c4 bf 3f e9 5e ae 3f ea 35 b3 3f
       1.4047985 1.4981992 1.3622714 1.4000828
0000a0 89 fd 81 3f 66 c7 79 3f dc fd b4 3f c7 59 b4 3f
       1.0155498 0.9756988 1.4139972 1.4089898
0000b0 99 88 cc 3f 3a a2 7e 3f 10 1c ad 3f 07 f2 a7 3f
       1.5979186 0.9946629 1.3524189 1.3120736
0000c0 df 77 7e 3f ca 5e a4 3f 66 e1 7d 3f 79 d9 7d 3f
       0.9940166 1.2841427 0.99172056 0.9915996
0000d0 3d 96 c8 3f 00 00 80 3f 3e e2 bd 3f 90 c1 c1 3f
       1.5670849 1.0 1.4834669 1.5137196
0000e0 71 5d 7d 3f 5a b7 b4 3f 6c 76 7e 3f fa c4 df 3f
       0.98970705 1.4118454 0.9939945 1.7481987
0000f0 f6 53 e9 3f 81 5a 79 3f 08 ee 7c 3f ba 07 b8 3f
       1.8228748 0.97403723 0.98800707 1.4377358

batch_norm.bias f4 [64]
000000 8c e9 e0 3d 54 0a 39 bd 58 39 11 3e 61 81 85 3c
       0.109820455 -0.045175865 0.14182031 0.016297044
000010 ec 92 9c 3d 4b cf 94 bc 8f 03 1f be a7 61 19 bd
       0.076452106 -0.018165251 -0.15528701 -0.037446644
000020 fb 76 0e be 92 16 8d 3d 92 88 35 bc bc d7 5e 3d
       -0.13912575 0.068890706 -0.011079924 0.05440496
000030 73 61 1c 3e b8 5e 19 3b 40 05 bb 3d 41 54 1a bd
       0.15271549 0.0023402404 0.09131861 -0.037678007
000040 7b 4d 80 bd 3e cf 1e bd 21 c2 af bd 28 2f 58 bc
       -0.06264778 -0.03877186 -0.08581949 -0.013194837
000050 a6 59 11 3d 06 1a ea 3d 92 c5 9f 3c 91 cf 9d bd
       0.035485886 0.11430745 0.019503389 -0.07705606
000060 11 f0 41 3d ad 09 f1 bd 21 bc ee 3c d8 a1 c0 3d
       0.047348086 -0.11769424 0.029142441 0.09405869
000070 d8 91 15 be 74 07 87 bd ed 63 63 3c 86 3a e0 3c
       -0.14606416 -0.065932184 0.013878805 0.027371656
000080 5b 42 fe bd 38 29 1d bd df e8 15 bd 20 35 05 bd
       -0.12415 -0.038369387 -0.036599036 -0.032521367
000090 9c 48 2d bd 12 de b0 3d 10 c7 0b 3d b5 5f fa bc
       -0.042305574 0.086361066 0.034125388 -0.030563215
0000a0 98 ad 26 be 98 a6 dd 3d 65 b9 81 bd ef 46 87 3c
       -0.16277158 0.10822791 -0.06334189 0.016513316
0000b0 86 1c ee bb 61 e1 18 be b3 0c c0 3d ba 63 ba 3a
       -0.007266584 -0.14929725 0.09377422 0.0014220395
0000c0 4a 92 1c be 90 80 5c ba cc 9f 9e bd 78 66 06 3e
       -0.1529018 -0.0008411491 -0.077453226 0.13125026
0000d0 a6 04 e0 3c e1 d6 6e 3d 88 04 a2 bc 19 06 36 3d
       0.027345967 0.058310393 -0.019777551 0.04443941
0000e0 bc c7 b8 bd 5e d2 82 3d 2b 8b bf 3d ef 11 09 3d
       -0.09022471 0.063877806 0.09352716 0.03346437
0000f0 7d ea c7 3d 04 a1 d4 3d a3 62 36 3e 8f b7 61 3d
       0.09761522 0.10382274 0.17811064 0.055106696

batch_norm.running_mean f4 [64]
000000 8d 52 83 20 04 00 00 00 04 00 00 00 04 00 00 00
       2.224689e-19 6e-45 6e-45 6e-45
000010 92 c4 1f 40 68 0d a8 21 04 00 00 00 04 00 00 00
       2.4963727 1.1387671e-18 6e-45 6e-45
000020 04 00 00 00 c7 5a 1c 41 04 00 00 00 eb 04 19 41
       6e-45 9.772162 6e-45 9.563701
000030 04 00 00 00 b6 5f 00 00 04 00 00 00 04 00 00 00
       6e-45 3.4335e-41 6e-45 6e-45
000040 b9 78 00 00 04 00 00 00 04 00 00 00 fe d3 ce 39
       4.3307e-41 6e-45 6e-45 0.00039449328
000050 04 00 00 00 e2 22 00 00 04 00 00 00 04 00 00 00
       6e-45 1.2514e-41 6e-45 6e-45
000060 04 00 00 00 04 00 00 00 04 00 00 00 98 0d 58 01
       6e-45 6e-45 6e-45 3.9682687e-38
000070 04 00 00 00 04 00 00 00 50 ef 02 00 04 00 00 00
       6e-45 6e-45 2.6952e-40 6e-45
000080 04 00 00 00 04 00 00 00 04 00 00 00 04 00 00 00
       6e-45 6e-45 6e-45 6e-45
000090 04 00 00 00 04 00 00 00 e1 6c 7c 05 04 00 00 00
       6e-45 6e-45 1.1868981e-35 6e-45
0000a0 9b f8 76 17 04 00 00 00 d3 12 00 00 04 00 00 00
       7.980067e-25 6e-45 6.753e-42 6e-45
0000b0 11 00 00 00 04 00 00 00 04 00 00 00 04 00 00 00
       2.4e-44 6e-45 6e-45 6e-45
0000c0 04 00 00 00 04 00 00 00 04 00 00 00 04 00 00 00
       6e-45 6e-45 6e-45 6e-45
0000d0 04 00 00 00 00 00 00 00 04 00 00 00 c3 6d 58 08
       6e-45 0.0 6e-45 6.512916e-34
0000e0 04 00 00 00 04 00 00 00 04 00 00 00 f7 b8 9e 04
       6e-45 6e-45 6e-45 3.7315485e-36
0000f0 96 40 23 41 04 00 00 00 04 00 00 00 84 fa b0 36
       10.203268 6e-45 6e-45 5.2743726e-06
