models/ヨルシカ/classifier_fold3.pth (torch, 991011 bytes, 16 tensors)

conv_layers.0.weight f4 [64, 256, 2]
000000 68 fe c7 3a 41 eb 34 3d 89 99 60 bc 31 26 42 3d
       0.0015258314 0.044169668 -0.013708481 0.047399703
000010 7d ea 96 bc 77 61 2e bd 7a e9 b6 bd 91 58 31 3d
       -0.01842236 -0.04257342 -0.08931251 0.043297354
000020 63 ec b0 bc c4 77 3a bd 41 a2 d3 bd 3d 88 f5 bd
       -0.021597093 -0.045524374 -0.10333682 -0.11988876
000030 ad 21 4b bc e7 d8 88 3b d7 fe c0 3c 7f 60 1f bd
       -0.012398166 0.0041762474 0.023559017 -0.038910385
000040 e7 29 b2 3d 8b 0e dc 3c c5 f8 7c bc f7 08 6c 3c
       0.086993985 0.026862403 -0.015440171 0.014406434
000050 16 88 b6 3c e9 6b 14 bd a9 6a 95 bd 64 63 8f bd
       0.022281688 -0.036235724 -0.072957344 -0.07001379
000060 f9 79 1a 3d 51 90 d5 bc 0c 9a 79 3b ac 5c 08 3d
       0.03771398 -0.026069792 0.0038086204 0.033291504
000070 6d 4a f4 3c df 57 84 3b 8a 62 67 3c 28 19 02 3b
       0.029820645 0.0040387954 0.014122615 0.001985142
000080 9e 46 83 3d 48 80 9a 3d b5 87 18 bd 6e a7 89 3b
       0.064099535 0.07543999 -0.037238795 0.0042008674
000090 dd 76 46 bd 93 d9 8f bb c8 7b 86 bd cc 2e f7 bc
       -0.0484532 -0.0043899505 -0.06566578 -0.030173682
0000a0 bb f7 1e 3d f7 c9 e7 bc 5b 2f 82 bc c6 af 22 bd
       0.038810473 -0.028294547 -0.015891721 -0.039718412
0000b0 ea 26 40 3d e1 64 a2 bc e2 ba 20 3d bd 3c 96 3c
       0.04691211 -0.019823493 0.039240725 0.01833951
0000c0 af 70 de 3c a3 27 a0 3d 31 f3 c0 3d 48 c8 92 3c
       0.027153341 0.0782006 0.09421385 0.017917767
0000d0 ad a0 83 3c 06 c0 47 bd 09 50 11 3d e4 a0 3e bc
       0.016067827 -0.048767112 0.035476718 -0.011635039
0000e0 02 2f d6 3b 1d a7 e5 bb ed e8 fd bd 06 04 06 bc
       0.0065363655 -0.007008447 -0.12397943 -0.00817967
0000f0 cc 9a 6c bc 9d 69 e6 3c 4b e2 60 3c 05 ae 85 bd
       -0.014441203 0.028126532 0.013725827 -0.06527332
000100 fb ac 81 3d a1 b4 a6 3d 65 41 3a 3c 41 90 7a 3d
       0.063318215 0.08139921 0.01136813 0.061172727
000110 da a0 55 bd 61 fe d4 3c b3 a6 10 3c 67 64 89 3d
       -0.052155353 0.026000204 0.008828807 0.06708603
000120 86 a4 d8 3a c7 aa 52 bd c1 9b 95 bc d3 82 22 bd
       0.0016528524 -0.051432397 -0.018262746 -0.039675545
000130 42 74 40 3d 77 27 9e 3a c8 79 bd 3c d5 31 bb bc
       0.046985872 0.0012066205 0.023129359 -0.02285091
000140 cf 33 9a bd b7 87 9e 3d 8a 79 84 b9 f7 cc 18 bd
       -0.07529413 0.07740729 -0.00025267556 -0.037304845
000150 f7 26 06 3c ad 34 38 3d 0a f5 80 bd fb 55 90 bd
       0.008188001 0.04497211 -0.062967375 -0.070476495
000160 ab c0 a1 bd 9d e3 91 3c 69 5c 4f 3d d8 ac 18 3c
       -0.078980766 0.01780873 0.05062524 0.009318553
000170 04 d9 b3 bb 2a b5 93 bd 0c 72 5a bc 8a 83 f1 bb
       -0.0054885168 -0.07212289 -0.013332855 -0.007370417
000180 a7 dd 2c 3d 0b 6a fa 3b 06 e7 d1 bd 29 95 e3 3c
       0.04220357 0.007642036 -0.10249142 0.027781086
000190 40 de 33 3d 26 df 8a bd 5b 5f d2 bb 38 f1 1d bd
       0.043913126 -0.067808434 -0.0064200587 -0.038560122
0001a0 ea 75 b5 bc f8 4f a1 3c c7 da ca bc 6b e3 26 bd
       -0.022150952 0.019691452 -0.024762524 -0.040744226
0001b0 a0 4a c6 3c a0 4f 39 bd 5b ca 0e bd 80 cd 10 bd
       0.024205506 -0.045241952 -0.03486095 -0.03535223
0001c0 80 a0 20 3d 01 fe ec bc 1b c5 9d 3d 03 65 82 bb
       0.039215565 -0.028929712 0.077036105 -0.0039793267
0001d0 53 dc 25 bd 5e 04 e5 bc be 19 12 3d db 65 86 bc
       -0.04049332 -0.027956184 0.03566908 -0.01640599
0001e0 8f 23 19 3d a6 7e 1c 3d a6 86 9e bd 58 40 d3 bd
       0.037387427 0.03820672 -0.07740526 -0.10315007
0001f0 8c ee 10 bd 5c f6 10 3d 64 49 7e 3d 93 10 bf bb
       -0.035383746 0.035391197 0.06208171 -0.005830833
000200 59 22 2b bd e0 6b 87 bd 4f ca 80 3c f9 49 af 3b
       -0.041780803 -0.066123724 0.015721468 0.0053493944
000210 4b 94 24 3d 24 05 81 bd b0 cc be 3c 9b 68 48 bd
       0.040180486 -0.062998086 0.023290962 -0.048927885
000220 39 87 c5 3c 80 64 97 bd f7 af 37 bd ef d3 54 3d
       0.02411233 -0.07392216 -0.044845548 0.051959928
000230 19 8b 85 3d 52 79 85 bd 47 f1 44 3d f2 db 87 bb
       0.065206714 -0.06517281 0.048081663 -0.0041460926
000240 9e 39 ec bc 03 64 8f bc a9 8c ad 3b a1 32 82 3c
       -0.028836068 -0.017503744 0.005296309 0.015893282
000250 35 16 36 bd 70 e9 df bc f8 54 88 bd 8e 19 71 3b
       -0.044454772 -0.027332991 -0.066568315 0.0036788913
000260 98 cf 9f 3c 42 16 a2 3c 7e 3c e7 bc 40 a7 ac 3d
       0.019508168 0.019786004 -0.028227087 0.08430338
000270 b6 48 42 bc 7e 4e 80 bd 7c 92 bd bc 3a e8 05 3c
       -0.011858156 -0.06264971 -0.023141138 0.008173043
000280 e4 e5 c5 3c 3b 9b 12 bc d1 27 44 bd 86 56 25 bd
       0.024157472 -0.008948143 -0.047889534 -0.04036572
000290 70 84 66 3c ad b7 fa 3c 02 e4 f5 3b 9d 01 0c bd
       0.0140696615 0.030605162 0.0075039873 -0.034181226
0002a0 9c 7b 9c bd 4f cb 22 3d ab ce fe 3b 8d 35 d2 3c
       -0.07640764 0.03974467 0.0077761016 0.0256603
0002b0 45 57 43 bd 55 ab 68 bc da 6a 21 3d 8f c8 a8 bc
       -0.04769065 -0.014201005 0.039408542 -0.020603446
0002c0 d5 48 bf b9 ca 26 9e bc 2b 35 b9 3d 0e a9 02 bd
       -0.00036484623 -0.019305605 0.09043344 -0.031899504
0002d0 30 cd a1 3d 7e b6 a2 3d 44 b9 9f bc 9d 98 d1 bc
       0.079004645 0.07944964 -0.019497521 -0.025585467
0002e0 00 20 9c bc 1f c5 11 bd 06 7f 7e 3d ee 6e ee 3c
       -0.019058228 -0.03558838 0.062132858 0.02910563
0002f0 7f 0f bc 3c 45 1e af bc 2c c6 85 bd 9e 10 de bd
       0.022956608 -0.021376738 -0.06531939 -0.10843013
000300 fe 76 9a bd 3f f5 da bb d8 6e a6 3a 4b 82 74 3d
       -0.07542227 -0.0066820676 0.0012697829 0.05969457
000310 c8 13 dc 3c 34 b3 86 bc 68 81 c7 bb 5f 88 b6 3b
       0.026864901 -0.016442873 -0.0060884245 0.005570456
000320 62 c0 c4 3c 51 da 90 bd 32 62 21 3d f3 3b 7e bd
       0.024017517 -0.070728905 0.039400287 -0.06206889
000330 7f e4 ba ba e0 ea 05 3c 63 f5 37 3d 71 d0 9d 3d
       -0.0014258771 0.008173674 0.044911753 0.07705773
000340 4c 8a cc ba ee 42 0f bd 0b 42 43 bd 27 1d 56 3d
       -0.001560518 -0.03497594 -0.047670405 0.052273896
000350 3b 20 6d bd 8c cd 10 3c 72 86 45 3d ac fd 05 bc
       -0.057892065 0.008838069 0.04822392 -0.008178156
000360 dc 1c 70 bd 2f 14 a9 3c 97 85 a1 3d 07 02 d4 bc
       -0.058621272 0.020639507 0.07886808 -0.025879873
000370 77 ba bf 3a eb 53 82 3c e4 f0 3a 3c 95 25 f8 3c
       0.0014627714 0.015909156 0.011409972 0.030291358
000380 96 29 f2 bd fd a8 a2 bc 15 04 24 3d e5 d2 13 3c
       -0.11824338 -0.01985597 0.040042955 0.009022449
000390 0c a8 bf 3c 8e b7 16 bd a3 53 23 3d 6c b8 6c 3c
       0.02339556 -0.036796145 0.039874684 0.0144482665
0003a0 79 9e 94 3d 75 a8 4b 3c b5 39 a3 3d 74 9a 44 bd
       0.07256789 0.0124303 0.07969991 -0.04799886
0003b0 2f ed 58 3c 96 31 2a 3d 2a e0 6e 3d ba bf a4 bb
       0.013240143 0.041551195 0.05831925 -0.0050277384
0003c0 dc 7d 99 bd 14 d4 ef 3c 90 ee 64 3d bd ff 26 3d
       -0.07494709 0.029275931 0.055891573 0.040771235
0003d0 c0 83 29 3d 76 08 5c 3d 30 18 11 3e 95 51 30 bd
       0.041385412 0.053719006 0.14169383 -0.043046553
0003e0 06 a3 9d 3c 3d 46 2a 3c 6a df c4 bc cd 4d 1b bd
       0.019242775 0.010392723 -0.024032313 -0.037915993
0003f0 44 f6 2e bd 3b da 82 bc 0d 48 bb 3c a5 ea 28 3d
       -0.042715326 -0.015973201 0.022861505 0.0412394

conv_layers.0.bias f4 [64]
000000 8d 83 23 bd c0 57 b9 3d fb d8 9e bc 88 a2 7b bd
       -0.03992038 0.0904994 -0.019390574 -0.0614343
000010 96 61 af 3d f0 fe 04 3d 8a cb 70 bd 45 55 6c bc
       0.08563535 0.03246969 -0.05878786 -0.014424627
000020 2f be 7c bd f6 b0 f9 bd 96 e0 8b 3d 6e 68 4e 3d
       -0.06170481 -0.12191956 0.06829946 0.05039256
000030 45 04 90 3c a1 b2 8e 3b 2d 9a f9 bb df 42 3d bc
       0.01758016 0.0043547903 -0.007617256 -0.011551588
000040 42 d2 bc 3a 44 d2 40 3d 7d ed cb 3d b8 0e f8 bc
       0.0014405923 0.047075525 0.09957407 -0.030280456
000050 a4 09 a3 3c 06 7b 08 3e 5a 25 30 3b d8 c7 83 3b
       0.019902058 0.1332818 0.0026877732 0.004021626
000060 ba 62 b0 3d ac 11 32 bd 3f c1 22 3d 08 12 ab bc
       0.086125806 -0.043473884 0.039735075 -0.020882621
000070 33 b8 70 bd 43 9d 99 bc 51 83 9c bc 33 5b 19 3d
       -0.058769416 -0.018751746 -0.019105585 0.03744049
000080 d4 ad d7 bd a0 52 d3 3d 5f 12 8b bd 5a a0 12 3d
       -0.10531202 0.10318494 -0.067906134 0.035797454
000090 62 8a 8a 3d 46 21 f0 bb 58 66 4c bd 23 9b da 3d
       0.06764676 -0.0073281853 -0.04990229 0.10674121
0000a0 9e b6 29 bc 64 cc 6a bd a4 f9 7d 3c 3e 8c c0 bc
       -0.010358481 -0.05732383 0.0155014135 -0.023504373
0000b0 0a f7 07 3d 89 fb 74 3b 7e 77 14 bd d7 15 2b 3c
       0.03319458 0.0037381372 -0.03624677 0.010442219
0000c0 66 b4 8b bd 5b 7b 7e 3c 9c e2 19 3d a2 72 e6 3c
       -0.06821518 0.01553234 0.037569627 0.028130833
0000d0 7d 42 a8 bd 9d 4e 28 3b ce 18 31 3d 3a b8 23 3d
       -0.08215807 0.0025681623 0.043236546 0.039970614
0000e0 76 a6 24 bd 6a 7c 23 bd 82 18 dc 3d 97 67 55 3d
       -0.040197812 -0.039913572 0.10746862 0.052100744
0000f0 ca 6a 90 3c 52 80 01 be 7f e5 bf bc 66 d1 74 bd
       0.017629046 -0.12646607 -0.023424862 -0.05977001

conv_layers.1.weight f4 [64, 256, 3]
000000 6a 52 1c bd 75 76 7f 3c 4a a1 03 3d da 77 3d 3d
       -0.038164534 0.015592207 0.03213624 0.046256877
000010 c8 04 99 3d 07 8a e7 3c 49 6f 94 bd 44 a6 46 3d
       0.07471615 0.028264059 -0.072477885 0.048498407
000020 a2 35 41 3d a7 68 21 3d f1 8b 2b bc 0d 7a d5 bc
       0.04717029 0.039406445 -0.010470376 -0.026059175
000030 cf 60 42 bd a2 e9 e2 bc e1 3b 9f 3d 2a 78 c7 3d
       -0.047455605 -0.027699295 0.07775093 0.09739716
000040 50 8b 73 3c 27 25 b2 3c 07 8e 61 bd a5 51 9d bc
       0.014864758 0.021746231 -0.05506709 -0.01920397
000050 e9 b3 37 3d 7c 79 01 bd 3e ed b9 3c 4d e6 fa 3c
       0.04484931 -0.031609997 0.022696134 0.030627394
000060 c3 60 ab 3c 7d fb 97 bd 15 56 16 bd c2 26 91 3d
       0.020920163 -0.074210145 -0.036703188 0.070874706
000070 d6 61 f4 3c fb 1f de bc 04 3d 4b bd 2c eb ec bd
       0.029831808 -0.027114859 -0.049618736 -0.11568293
000080 b8 33 76 bd eb a1 bf 3c ef fe de bc 57 4c 00 3d
       -0.060107917 0.023392638 -0.027221171 0.031322803
000090 9b d6 1e bc ec 48 ea 3c 3f 6c a7 3d 1f 10 94 3d
       -0.009694721 0.028599225 0.08174943 0.07229637
0000a0 28 a5 3b 3c 00 6b 4b bd f2 a1 80 3c 3c ec 07 3c
       0.011452951 -0.04966259 0.015702222 0.008296069
0000b0 92 dd af bc c4 cb b3 3c e3 2e 30 3d eb a6 bb bc
       -0.021467958 0.021947749 0.043013465 -0.022906741
0000c0 07 55 b3 3c 2d 8c 28 bd cf 1d 15 3d d7 62 42 3d
       0.02189113 -0.041149307 0.03640538 0.047457542
0000d0 b6 26 26 bd 0d 79 c9 3c 03 75 85 bb 6c dd 16 bd
       -0.04056426 0.024593854 -0.004072787 -0.036832258
0000e0 c6 07 1c bd 5c ad 01 3d a1 a2 fd 3c 17 56 78 3d
       -0.03809335 0.03165947 0.030961337 0.060628977
0000f0 31 aa 46 bd d8 3d 26 3e 66 26 fd 3d 36 07 ed 3c
       -0.04850215 0.16234529 0.123608395 0.028934103
000100 00 d5 fa bc c4 f3 fa bb 45 b8 20 3d 2f 29 20 bd
       -0.030619144 -0.0076584537 0.039238233 -0.039101776
000110 a7 b7 4b 3d 38 e2 08 bd 4b c5 18 3d ab 59 32 bc
       0.04973569 -0.033418864 0.03729753 -0.010885636
000120 86 66 76 bd e2 b5 a3 3d 6a f9 4a bc 4a db 6f 3c
       -0.060156368 0.07993676 -0.0123885665 0.014639685
000130 e3 01 2a 3d ad b5 db bb 93 17 91 bd 8b 67 22 bd
       0.041505706 -0.006705007 -0.070845746 -0.039649528
000140 90 94 9f bb 0c 43 8c 3d 50 30 9a 3c 3a b4 2f bd
       -0.004870005 0.06848726 0.018821865 -0.042896487
000150 cc 79 0d bd 59 09 0a bd ff b4 8d bd 5b 98 72 3c
       -0.034539983 -0.03370032 -0.06919288 0.014806832
000160 61 23 5e 3b 25 c5 74 bd fc b3 32 bc 5f c9 15 3d
       0.00338956 -0.059758324 -0.010907169 0.036568996
000170 35 90 28 bd 11 74 af bc a8 ea f3 3c a2 78 2c bc
       -0.04115315 -0.02141765 0.029774979 -0.010526808
000180 1b 85 59 be e3 44 b7 bb 6c ea 51 bd ea 57 74 3d
       -0.21242182 -0.0055929287 -0.051248953 0.059654154
000190 bc 29 2d 3d c1 4d 1f bd 30 44 19 3c 32 d8 02 bd
       0.04227613 -0.03889251 0.009354636 -0.03194446
0001a0 cc b4 96 3b 6d 76 a1 bc 82 f8 c2 3d 0a 45 43 3d
       0.0045991894 -0.01970979 0.09520055 0.047673263
0001b0 48 20 db bc 6d 2b 07 bd be 48 16 bd 38 32 5c bc
       -0.026748791 -0.0330004 -0.036690466 -0.013439707
0001c0 24 3f e4 bc 57 0b 73 3c 3f 51 18 bd db c0 ca 3d
       -0.027862139 0.014834247 -0.037186857 0.099000655
0001d0 f4 5b 74 3d de 98 52 bc 31 ae 93 bc dd dd b9 bc
       0.059658006 -0.012853829 -0.018027397 -0.0226888
0001e0 27 2c d3 3d ea 4d 73 bd 9a 6e 04 3c c4 41 d7 3c
       0.10311156 -0.059400477 0.00808301 0.026276477
0001f0 34 7b 16 3c 83 23 16 bd 26 db 8f 3d df 4f 80 bb
       0.009184647 -0.03665496 0.07024221 -0.0039157714
000200 9c 10 49 bd ca d3 d4 bc b4 30 ed bc 45 f0 8a 3b
       -0.049088106 -0.025979895 -0.028953888 0.004240068
000210 43 51 db bd 65 34 02 3c 46 99 6c bd 6d 82 e3 3b
       -0.10708859 0.007947062 -0.05776336 0.006943038
000220 3d f6 c6 3c 15 6e 1d bd 03 4d 63 3d c4 cf e1 3c
       0.024287337 -0.03843506 0.055493366 0.02756489
000230 49 83 84 3d 25 34 84 3d 42 5c a7 3d c8 e1 f3 bb
       0.06470353 0.06455258 0.08171894 -0.0074426867
000240 bd bc fd bc bb c1 49 3c 0f 1a 5e bd d6 9d 8f 3d
       -0.030973786 0.012314255 -0.05422407 0.07012527
000250 a2 1e 64 3c fe 39 80 bd 70 27 63 bd 38 ef fa 3d
       0.013923319 -0.06261061 -0.055457532 0.122526586
000260 28 ba 92 bc 1a 56 a4 3c 97 4e 27 bd 3b 49 99 bc
       -0.017911032 0.020060588 -0.040846433 -0.018711677
000270 14 bb 02 3b 76 43 9d bd 29 da 9d 3c c4 a4 4d bd
       0.0019947933 -0.07678883 0.019269066 -0.05020596
000280 e6 d8 48 bd 90 e5 b1 bd af 69 2a ba 35 01 2e 3c
       -0.049034975 -0.08686364 -0.00065007334 0.010620405
000290 f3 4e 30 3d e2 b7 9b bd 5f 49 2f 3c fa 34 62 bd
       0.04304404 -0.07603432 0.010698645 -0.055226304
0002a0 4c ca 0f 3c 2d 87 f8 bc 55 a7 67 3d 1f 16 fd bc
       0.008776259 -0.030337894 0.056556065 -0.030894337
0002b0 d3 e0 01 bd 3a 43 78 3c 3f 41 ac 3d c1 fd af 3c
       -0.03170855 0.015152747 0.08410882 0.021483304
0002c0 28 05 45 b9 d0 35 d5 3d f2 8d 49 bd 70 28 24 bc
       -0.00018789305 0.104106545 -0.049207635 -0.010019407
0002d0 94 77 f1 3c 34 5c 77 bc 9f 46 54 bd d8 5f a6 3d
       0.029475965 -0.0150976665 -0.051825162 0.081237495
0002e0 78 0c e5 bd 41 3a 9c bc b7 ed b2 bc 12 ae ec bc
       -0.11184019 -0.019070746 -0.021841867 -0.028891597
0002f0 08 9b 16 bc 9e ad 5d bc 07 c4 49 bd 73 c2 8f 3a
       -0.009192236 -0.013530163 -0.049259212 0.0010967985
000300 ee 63 0c 3d d0 f7 19 bd 48 69 8a bc 15 15 93 3d
       0.034274988 -0.037589848 -0.016895905 0.071817555
000310 bc 01 b2 3c f2 fc aa 3c 2a 9a 10 bb 73 10 54 3c
       0.021729343 0.020872567 -0.0022064545 0.012943375
000320 e9 5d 4a bd be 95 be bd f4 36 08 3d 09 c9 00 bc
       -0.049405966 -0.09305905 0.033255532 -0.0078604305
000330 b2 f6 40 3b 30 31 a3 3d db 79 d8 3d d8 b6 be 3c
       0.0029443917 0.07968366 0.10570117 0.023280546
000340 99 95 fe bc 4a 1a e6 bd 9f 3a 78 3c e7 c6 1c bd
       -0.031077193 -0.11235483 0.015150695 -0.038275626
000350 6c 91 45 bd 62 94 bc 3d 7c a2 ba bc 1b 6e d0 3c
       -0.04823439 0.09207989 -0.022782557 0.025443127
000360 c5 29 f7 3c 6d d7 87 bd 4b 85 bc 3c e9 95 b0 3d
       0.030171284 -0.06632886 0.023012778 0.08622343
000370 40 cf 67 3d c6 63 5c bd 73 16 42 ba 9e fc 24 bd
       0.056594133 -0.05380609 -0.0007403858 -0.040279977
000380 49 8c 4d bd 87 ea cc bc 62 52 5a 3c 27 e2 e6 bc
       -0.050182614 -0.025014175 0.013325306 -0.02818401
000390 f3 32 35 bc d0 a1 54 3d 97 11 1d 3d 3a b5 94 3d
       -0.0110595105 0.05191213 0.038346853 0.07261129
0003a0 bf d9 3f 3c 8f f8 0a bc 56 93 87 bd da 34 68 3d
       0.01170963 -0.008482113 -0.06619899 0.05669103
0003b0 49 6a 22 bd 26 3c e1 3c 06 78 84 3d 0e df 14 bd
       -0.039652143 0.027494501 0.06468205 -0.036345534
0003c0 e3 73 fb 3c 42 09 39 bc 7f d9 95 bd 03 67 0d 3d
       0.030694908 -0.011293711 -0.07316875 0.034522068
0003d0 28 35 73 bd e3 9a 6b 3d 46 a2 42 bd ed 19 91 3c
       -0.059376866 0.05752076 -0.047518037 0.017712558
0003e0 1b 3e 8a bb c8 c6 05 bd cf b6 d7 3d 28 d2 ed 3c
       -0.0042188293 -0.032660276 0.10532915 0.029030874
0003f0 b8 8b 5f 3c b8 76 a7 bc 11 f6 a0 3d bc 54 7d 3b
       0.013644151 -0.020442352 0.078594334 0.0038655242

conv_layers.1.bias f4 [64]
000000 c9 18 0a be 42 df f8 bb e0 27 84 bd 59 60 cc bb
       -0.13486017 -0.007594974 -0.06452918 -0.0062370715
000010 e0 7c 7a 3c 13 4c 2b 3d d0 a6 9a 3d cd f1 c3 3d
       0.015288562 0.041820597 0.07551348 0.09567604
000020 c8 f7 fc bb 75 54 01 3c f7 b2 3b bc 85 7c b1 3d
       -0.0077199675 0.007893671 -0.011456243 0.08666328
000030 46 55 d6 3b fc 6c 88 bd a7 9f b8 bd 85 64 60 bd
       0.006540927 -0.06661412 -0.09014826 -0.054783363
000040 34 33 90 bd 53 d1 67 3c f7 8b a3 3b af fc 8c bd
       -0.07041016 0.014149028 0.0049910503 -0.06884133
000050 ba a4 32 3c 3a 99 bc bb 1d 77 df 3d d3 16 5e bd
       0.010903532 -0.0057555707 0.10911391 -0.054220986
000060 bd 52 ca 3d 69 70 a9 3c 3b 51 8a 3d 25 42 cc bb
       0.09879062 0.020683484 0.06753775 -0.006233471
000070 65 d3 9f 3d 5e 10 fb 3c a5 9e 65 bd 91 1b 00 3d
       0.07803992 0.030647453 -0.0560595 0.03127629
000080 e6 d3 53 3d f2 15 0d 3d f8 50 3b bd 15 78 1d bb
       0.051715754 0.034444757 -0.045731515 -0.0024027873
000090 d5 b6 46 bd ae 8a 75 3d 11 68 4f 3d c3 99 12 3c
       -0.048514206 0.05994671 0.050636355 0.008947792
0000a0 3e 63 25 bd b6 00 23 3c ab 41 1f 3d 19 4b 3d 3c
       -0.040377848 0.0099489 0.038880985 0.011553549
0000b0 f3 73 e6 3c 1b 79 0d bd 4e 66 62 bc f5 1f 21 3d
       0.02813146 -0.034539323 -0.013818337 0.039337117
0000c0 14 68 38 bc 36 ff f9 3c dc 1e a4 3d 78 a8 e2 bb
       -0.011255283 0.030517202 0.080136985 -0.0069170557
0000d0 68 2c 82 3c ca a1 70 bc 69 9e f5 ba 3d 41 3d 3d
       0.015890315 -0.014687011 -0.0018739227 0.046204794
0000e0 f6 7a 8e 3d 61 9f 08 3d 96 21 06 bd 5e b9 80 bd
       0.06957047 0.03335512 -0.032746874 -0.06285356
0000f0 f3 06 82 3d 55 62 98 3c 1f df 84 bd a4 d3 bf bd
       0.06348982 0.018601576 -0.064878695 -0.09366539

conv_layers.2.weight f4 [64, 256, 4]
000000 05 47 29 3d 07 e7 87 bd 5d 92 9c 3c f9 2c 4a ba
       0.041327495 -0.06635862 0.01911276 -0.000771239
000010 1b c5 33 bd b9 ce 38 3e e1 d4 40 3d 9e 39 31 bb
       -0.043889146 0.18047608 0.047078017 -0.00270424
000020 d2 7a 8c bd 69 d1 84 3c b4 c6 47 bc 8e 07 ca 3c
       -0.068593636 0.016213136 -0.012193371 0.024661805
000030 ea 8b 80 3d 4e 4e 35 bd bd 9b 0d bd f2 78 13 bd
       0.062766865 -0.04426413 -0.03457235 -0.036004014
000040 5d cf 4f bd f1 24 84 bc e7 f3 d0 bd d5 c6 f0 bc
       -0.050734866 -0.016130896 -0.10202771 -0.029391686
000050 bb a0 bb bc b1 a3 41 3c 81 30 c9 bc 5b b9 18 bd
       -0.02290379 0.011818812 -0.024559261 -0.037286144
000060 13 08 30 3d a7 ca e8 3b f2 b6 b7 3b fb ee 9b 3b
       0.04297645 0.007104236 0.0056065256 0.0047587133
000070 3c 61 c0 3d 97 12 89 3d 4b b6 30 3d 9d 8c d9 bb
       0.09393546 0.06692999 0.043142598 -0.006639077
000080 14 74 0b 3d fa 26 b4 bc 2f 0e 85 bd 26 8b d6 ba
       0.034046248 -0.021991242 -0.06496846 -0.0016368374
000090 53 10 57 3b 38 e8 03 3d e1 7b c4 bc 58 79 51 3d
       0.0032816126 0.032203883 -0.023984851 0.051141113
0000a0 8d ad bd 3d 75 28 27 3b 5f 8d 33 bc 72 b0 97 bd
       0.09261618 0.0025506292 -0.010958998 -0.07406701
0000b0 9e ba 31 bd c0 1a cc ba 91 a0 02 3d fa 94 ab 3c
       -0.043390863 -0.0015571937 0.03189141 0.020945061
0000c0 1b 0c 5f 3b 37 86 8c 3d f8 17 93 bd ac fa dd 3c
       0.0034034315 0.06861537 -0.07182306 0.027097069
0000d0 d8 03 44 bd 75 9b 12 3d 51 25 98 3d 8f 47 99 bc
       -0.04785523 0.035792787 0.074289925 -0.01871088
0000e0 15 a3 22 bd 10 26 52 3b 69 23 b1 3c 7a 5b 94 bd
       -0.03970631 0.0032066144 0.02162333 -0.0724401
0000f0 e1 65 6c bb 4d af a9 3a 5a 13 51 3d d9 3e 4a 3c
       -0.0036071467 0.001294592 0.051043846 0.012344086
000100 94 8d 96 bd 05 81 2c 3d d1 34 85 3d af 75 04 3d
       -0.07351223 0.04211523 0.065042146 0.032338794
000110 ac a3 dd 3c dc 85 2b bd bd c3 db bc 09 81 e9 3c
       0.027055584 -0.041875705 -0.026826734 0.028503912
000120 15 14 ad bc 19 83 6d 3c 92 40 32 bd 78 c2 6d 3c
       -0.02112774 0.014496588 -0.04351861 0.014511697
000130 2e ab fd bc 58 79 54 3d 49 e1 1a bd 0e 9a ff 3c
       -0.030965414 0.051873535 -0.037812505 0.031201389
000140 b1 84 91 bd d3 c3 62 3c a3 79 b1 bc bf 22 51 3d
       -0.07105387 0.013840633 -0.021664446 0.051058527
000150 0d ae 26 bc 96 3b 4c bd 8d 3d a7 3d 13 3b 6e 3d
       -0.010173333 -0.049861513 0.08166037 0.058161806
000160 f4 f0 80 bd c9 cd 2e 3d 0b ed 69 bd 80 0c 0f 3d
       -0.06295958 0.04267672 -0.057110827 0.03492403
000170 d7 6b d1 3c 7f a9 71 3d f4 ce c1 bd 99 f6 0e bd
       0.025564117 0.058999535 -0.09463301 -0.034903143
000180 da 32 b6 bc 5f 59 37 bd 6d f0 8c bc 82 74 c3 3d
       -0.022241045 -0.044762965 -0.017204488 0.095437065
000190 8b 73 eb 3c 40 9d b9 bc 9b 0b 29 3d dd 6c f1 3c
       0.028741619 -0.02265799 0.041270833 0.029470855
0001a0 3f be 5c bb f5 cb 94 bd aa 35 c4 bc 3c 30 e1 3c
       -0.0033682731 -0.07265464 -0.02395137 0.02748882
0001b0 9c b5 84 3c bd 58 80 bd 6b 6c 06 bd 1a f1 7e 3d
       0.01619988 -0.062669255 -0.03281824 0.06224165
0001c0 7d 1a c2 bd cf 43 13 b9 6d 60 4d bd ca 8d 6e bc
       -0.094777085 -0.00014044273 -0.050140787 -0.014560172
0001d0 7b 5d eb ba 58 3c 12 bd a0 55 a5 bd 23 bc 7e 3d
       -0.0017956936 -0.03570208 -0.08072972 0.06219114
0001e0 96 05 69 3d 76 49 90 bd cb 27 87 3d 86 c0 83 bd
       0.056890093 -0.070452616 0.06599387 -0.06433205
0001f0 bb 20 98 bc fa 0a 99 bc 25 a8 6d 3d c9 7e 50 bc
       -0.018570295 -0.018681992 0.058021683 -0.01272554
000200 f0 a0 27 3d c2 61 d1 bc 2f cc 22 bd 7f a5 52 3d
       0.040924966 -0.02555931 -0.039745506 0.05142736
000210 2c 50 fa bb 76 87 a3 3c f8 e8 f2 3c 10 b3 3d 3b
       -0.0076389518 0.019962054 0.029652104 0.002894584
000220 0e e8 54 3c db 93 47 bd d6 83 b8 bc c3 4d 07 bd
       0.012994779 -0.04872499 -0.022523802 -0.033033144
000230 95 73 a5 3c e1 10 e5 bc de b3 e0 3d b3 8b 0a bd
       0.020196715 -0.02796215 0.10971807 -0.033824634
000240 76 86 66 bd b1 95 4d 3d 99 52 1b 3d bb 73 f5 bd
       -0.056280576 0.050191585 0.03792057 -0.119849645
000250 d4 40 3b bd c8 52 95 3d 95 50 bf bc 90 5c c7 bd
       -0.04571612 0.0729118 -0.023353854 -0.09734452
000260 5d fb 30 bd 7a 9b 56 3d 61 0a 80 3d 37 43 a4 3d
       -0.04320847 0.052394368 0.062519796 0.08020633
000270 d0 9e 5a 3c 55 83 59 3d b1 b5 b7 bd 41 84 6f bc
       0.013343528 0.053103764 -0.08970202 -0.014618934
000280 2b 5f 67 3c 05 ce dc 3b 7f c7 c3 3c 52 3a 84 3c
       0.014121811 0.0067384266 0.023898838 0.01614109
000290 89 f9 91 bd 8d ae f1 bd 25 50 b0 3d 92 0b 94 bc
       -0.07127673 -0.11800871 0.08609036 -0.018071923
0002a0 4d 8c a3 bd 4f 4b 82 3c d6 6d 67 3c 4f db 3c bd
       -0.079857446 0.01590505 0.014125308 -0.046107586
0002b0 8e 6d 3e bc d3 43 de bb de 69 30 3c eb 03 04 3d
       -0.0116228 -0.0067829876 0.010767428 0.0322303
0002c0 7b 05 3f 3d 2a fd 5f 3c 8e ab a0 3c 09 e5 d9 3b
       0.046636086 0.013671199 0.019613054 0.0066496176
0002d0 20 16 d9 bc 16 1b 56 bc fa 9b af 3d cb 65 ff bb
       -0.026499808 -0.013067981 0.08574672 -0.007794117
0002e0 37 a1 90 bc b8 79 6b 3d f9 47 89 bc 1b 47 7b 3c
       -0.017654998 0.057489127 -0.016757952 0.015336777
0002f0 24 70 2f bd a3 c0 3c 39 44 7c b8 3d 3d 4e 0a bc
       -0.042831555 0.0001800084 0.09008077 -0.008441505
000300 45 f6 8d bd 38 06 0b 3c 68 8c ea bc e0 35 59 3b
       -0.06931738 0.008485369 -0.028631404 0.0033143684
000310 84 0a 29 3d 2c ac af bb 53 51 2b 3d f4 ff 66 3d
       0.041269794 -0.0053611007 0.041825604 0.05639644
000320 5e 09 c0 3d 12 ae d1 bd 8c cb 7c bd 1c ec a0 3d
       0.09376787 -0.102382794 -0.061717555 0.07857534
000330 91 87 53 3d 03 63 8c bc 94 5b 23 3c 45 2a 4a 3d
       0.051642958 -0.017137056 0.009970564 0.049356718
000340 c0 24 dd 3c cc c2 a3 3d cc 56 3e b8 1d 83 de bd
       0.026995063 0.07996139 -4.5380366e-05 -0.108648516
000350 b6 9a 22 3d 8a 49 fd bd 66 b6 a9 3c c7 4a 57 bd
       0.039698325 -0.12367542 0.020716857 -0.052561548
000360 63 2b ee bc d6 34 30 bd d0 58 c1 bc d6 c8 45 bc
       -0.029073423 -0.04301914 -0.02360192 -0.012071809
000370 43 d0 43 3c 95 f7 16 bd 5d 51 30 bc 94 38 59 3d
       0.011951509 -0.036857206 -0.010761586 0.053032473
000380 27 42 05 bc 3b c2 72 3c cc 51 82 bd 1a a6 0a bc
       -0.008133448 0.014816816 -0.06363258 -0.008462453
000390 78 9c a6 bd 12 0c dd bc 07 c3 4d 3d c8 8e 66 3b
       -0.08135313 -0.026983295 0.05023482 0.003518032
0003a0 fa 4a 80 3d 17 92 e5 3c 63 fb f7 bc f4 7d 86 3d
       0.06264301 0.028023763 -0.030271238 0.065669924
0003b0 ef e3 de 3c 6e 54 e0 bc 6c d1 c6 3d 69 b7 81 bd
       0.027208297 -0.02738401 0.09707913 -0.06333811
0003c0 08 04 e4 bc 20 67 a8 bc 80 2e c7 bc bf 53 73 bd
       -0.027833953 -0.020556986 -0.024314165 -0.05940604
0003d0 49 6c b2 3c a8 f0 3c 3d 03 aa e3 bc 18 be c4 3b
       0.02178015 0.046127945 -0.027791029 0.0060041063
0003e0 03 05 33 3c c2 4c 01 3c f7 2e b1 3d b4 b5 9a 3c
       0.010926488 0.007891836 0.08651536 0.01888547
0003f0 1d 5a fd bc 6a 94 85 3c f1 39 5f 3d 63 11 31 3d
       -0.030926758 0.01630612 0.054498617 0.043229472

conv_layers.2.bias f4 [64]
000000 74 71 be bd ac 84 03 3c 49 f5 1a 3d 0f a1 90 3d
       -0.09298983 0.008027237 0.03783158 0.070619695
000010 2e fa 75 bd 2f a1 f4 bd 33 ea c9 bd b4 d9 28 3c
       -0.060053043 -0.11944806 -0.09859123 0.010305811
000020 97 f8 4c 3d 0a 3e 46 bb 6d 1a d9 3d c9 8f d1 bd
       0.05004176 -0.003024938 0.106007434 -0.10232503
000030 c3 67 8b 3b c0 4b d4 bd 1f f1 03 bd d7 3d 5a 3c
       0.0042543127 -0.10366011 -0.032212373 0.013320408
000040 2f 0a 14 bd 07 c1 a7 3c 25 51 a3 bd 8c 86 f5 3b
       -0.036142524 0.020477785 -0.079744615 0.007492846
000050 bd b4 83 bd bf 46 b7 bd 82 4e 5a 3d 17 09 96 3d
       -0.064309575 -0.089490406 0.053297527 0.073259525
000060 4e c7 63 3d 9b 36 37 bd 8f 1c cc bd 09 2c b6 3c
       0.055609994 -0.04472981 -0.099663846 0.022237794
000070 eb bc 40 bd cf b9 bf 3b 4f 77 bf bd 6f 1e 82 3d
       -0.047055166 0.0058510075 -0.09348928 0.06353461
000080 f7 e8 85 3d a3 bf 50 bb e9 92 df bd 66 76 47 bd
       0.06538575 -0.0031852506 -0.10916693 -0.048696898
000090 cc be da bb 6d 90 b1 bc 2c 85 e6 bc 50 9d bc bb
       -0.006675577 -0.021675313 -0.028139673 -0.005756058
0000a0 90 49 b0 bd e5 cc c1 3d c9 82 d4 3c 59 d2 ad 3c
       -0.08607781 0.09462909 0.02594127 0.021218466
0000b0 ba 22 8b 3d 44 88 1a bd 78 ad f7 bd d9 f8 0d be
       0.06793733 -0.03772761 -0.120936334 -0.13864459
0000c0 c8 5b a6 3d a8 91 07 bd 7a a8 7d bd 31 73 d6 bc
       0.08122975 -0.033097893 -0.06192825 -0.026177974
0000d0 ec 02 2c bc dc 8b 32 39 9f 16 b8 3c 38 49 9e 3d
       -0.0104987435 0.00017027505 0.022471724 0.07728809
0000e0 68 f3 6a 3d 43 9b 45 3c 07 59 0e bc c7 93 c4 3c
       0.057361037 0.012060943 -0.008688218 0.023996247
0000f0 63 03 d6 bc 17 cd 5f bd 1e 76 18 3d 4b 5d ac 3d
       -0.026124662 -0.05463895 0.03722202 0.08416232

conv_layers.3.weight f4 [64, 256, 5]
000000 9d be 2b bc 88 0c 96 bd ff 93 a1 bb 31 00 08 bc
       -0.0104824575 -0.07326609 -0.0049309726 -0.008300827
000010 12 e5 b0 3c f2 f4 56 3c 5e f7 0a 3d b1 51 67 bc
       0.021593604 0.013119923 0.033927314 -0.014118598
000020 01 f6 d8 3c 33 79 c3 3c b1 51 85 3d 5a 04 45 3c
       0.026484491 0.023861503 0.06509722 0.012024963
000030 b1 cb 8b bd 44 34 b8 3c 35 2c 3d bd 37 53 3b bc
       -0.068259604 0.02248586 -0.046184737 -0.011433414
000040 72 93 f0 bc fb d2 60 bc 61 3e 88 3a a0 12 3a bd
       -0.029367182 -0.013722177 0.0010394567 -0.04542792
000050 21 5d 49 3c fd 63 2f 3c b1 2c d9 bc 29 f6 25 b8
       0.01229027 0.010704991 -0.026510568 -3.956832e-05
000060 58 ea 5f bc 1e c2 09 bd 2a e6 85 3b f2 85 77 3d
       -0.013666712 -0.03363239 0.0040862756 0.060430475
000070 f9 c3 f7 bc 02 d7 02 bd a6 d8 2a 3d 00 b7 c7 3c
       -0.030244814 -0.03194333 0.04171052 0.024379253
000080 2e 9e 94 3d a8 2a 89 3c b7 6e f8 bc 8b c2 4f 3d
       0.07256733 0.016743973 -0.03032623 0.05072264
000090 d7 84 0a 3d 0c 1f 2d 3d f6 c6 e9 3b 66 27 49 bd
       0.033818092 0.042265937 0.0071343137 -0.04910984
0000a0 11 f5 d3 bc b0 2d dc 3c ee c0 24 3c f6 6b 9c bd
       -0.025873693 0.026877254 0.010055764 -0.076377794
0000b0 2e 09 23 3d 99 72 22 3d 0a 69 1a bc 79 40 b0 3b
       0.039803676 0.03966007 -0.009424457 0.0053787795
0000c0 f4 a3 80 3d 76 e1 60 bd 3d f5 77 bd 95 2d be 3c
       0.062812716 -0.054902516 -0.06053661 0.023215095
0000d0 4e 57 8d bd 6a 89 05 3c 87 dc 56 bd fc c7 27 3d
       -0.06901418 0.008150438 -0.052456405 0.040962204
0000e0 4b e7 fd 3c 64 0e ce bb eb 6e 4f bc 15 26 cf 3b
       0.030994078 -0.0062883366 -0.012660722 0.0063216784
0000f0 28 a9 11 3d 86 f8 a9 bd ee 70 84 3d c7 3a e2 bc
       0.03556171 -0.08299355 0.06466852 -0.027615918
000100 97 66 c6 bc 48 3d 08 bd 03 38 1f 3d 2f 2f 82 3c
       -0.02421884 -0.033261567 0.038871776 0.01589164
000110 26 57 89 bc c6 84 6e bd 94 18 9b 3c 01 66 76 3d
       -0.016765188 -0.05823209 0.018932618 0.060155872
000120 6d 6c 03 bd 06 f0 85 bd 95 35 da bc 3d bf b8 3c
       -0.032085825 -0.065399215 -0.026636878 0.022552127
000130 f6 58 95 3c d1 ea 62 bd bc 31 ac bd 5a b7 dd bc
       0.018230896 -0.05539972 -0.084079236 -0.027064968
000140 e2 8a 02 bd e9 62 82 bd e0 a3 bf 3b 3d f5 a2 3d
       -0.03187073 -0.06366522 0.005848393 0.07956932
000150 b6 f0 85 bd 7e 44 fc 3c a8 03 0a bd 1d b1 13 bd
       -0.065400526 0.030794378 -0.033694893 -0.03605758
000160 2f 1c bd bd 7a 52 45 39 78 0a 8c 3d f2 2c 06 bd
       -0.09233891 0.00018818109 0.06837934 -0.032757707
000170 0d c4 92 bc 07 07 eb 3c 4c 23 8e 3d 0f df 8f 3c
       -0.01791575 0.028689874 0.06940326 0.017562417
000180 ed a3 85 bc f0 3f 8b bd 1f 5a d6 bc 7a 4f cc bb
       -0.016313517 -0.067993045 -0.02616602 -0.0062350603
000190 72 22 c5 3c 2b fc c2 bc 32 0c 20 bd 97 1a 6c 3d
       0.024064276 -0.023801884 -0.03907413 0.057642546
0001a0 c5 ca a2 3a 2c ef 3f bd c0 b8 de bc 67 7f 27 bd
       0.0012420049 -0.04685895 -0.027187705 -0.040892985
0001b0 eb 47 13 3c 9c 06 82 bd 86 8c d9 bc f2 e9 da 3c
       0.008989315 -0.06348917 -0.026556265 0.026722882
0001c0 8f 87 12 bd 48 b5 25 bd dd 35 cb bc df 8a 33 3d
       -0.03577381 -0.040456086 -0.024805957 0.04383361
0001d0 ff 8b 2b 3d b6 15 4c 3c ba 1a 9b 3c 65 28 0e 3c
       0.041881558 0.012456348 0.018933643 0.008676623
0001e0 c6 05 16 bd 44 d5 d3 38 12 37 31 bd 0b eb d4 3c
       -0.0366266 0.00010100988 -0.04326541 0.025990983
0001f0 72 4e 7e bb c8 04 33 3d d9 55 65 bd ef ef c0 bb
       -0.0038804081 0.04370573 -0.055990074 -0.0058879773
000200 41 55 cb 3c 53 1a 1a bd fc e8 a4 3c b9 38 11 bd
       0.024820926 -0.03762276 0.020130627 -0.035454486
000210 26 58 c8 bd 74 88 90 bb ae dd 79 bd 0a 92 fb bc
       -0.09782438 -0.0044107977 -0.061002426 -0.030709285
000220 12 57 9c bd 66 09 3c bd b5 56 aa 3b 31 db b0 bb
       -0.07633795 -0.0459074 0.0051983246 -0.0053972234
000230 bf 78 52 bd b9 ee 15 bd d2 26 18 3b b0 5e 0c 3b
       -0.051384684 -0.036604617 0.0023216498 0.0021418743
000240 a9 7f bb b9 4b 1f 4a bd 47 01 54 3d 05 c9 57 bc
       -0.00035762534 -0.04934625 0.05175903 -0.013170485
000250 c9 b1 92 bb 2e 2c a1 bc 4d d5 39 3d a0 91 2b bd
       -0.00447676 -0.019674387 0.045369435 -0.041886926
000260 3a 8e 47 ba d6 d8 02 3c 36 b3 73 bd eb b8 14 3d
       -0.0007612441 0.007986268 -0.05949708 0.036309164
000270 5c c7 23 3b 19 64 19 3b c9 8e b5 3b cc 82 03 3c
       0.0024990654 0.002340561 0.005540703 0.00802679
000280 7e 15 91 bd e6 76 74 3c 1d 85 15 3d d1 e1 98 3d
       -0.070841774 0.014920926 0.0365039 0.07464946
000290 38 6d 11 bc e3 21 79 3d 6b bf 3c bd b0 b4 3f 3b
       -0.008876137 0.060823333 -0.046080988 0.0029251985
0002a0 e2 a0 e1 3c c5 5c 1b 3d 18 41 08 bd d6 59 e7 3c
       0.027542535 0.03793027 -0.033265203 0.02824108
0002b0 f1 f7 cd bc 28 7a 89 3d 44 f3 08 bd 15 5a d6 bc
       -0.025142642 0.067127526 -0.03343512 -0.026166001
0002c0 a0 e5 ea 3b 36 d0 35 3c 12 96 55 bd a6 b8 6d 3d
       0.0071684867 0.011097005 -0.05214507 0.058037423
0002d0 58 19 c7 bc 61 ea 58 3a 00 35 d8 3c 3f 4b 98 3b
       -0.024304077 0.0008274671 0.02639246 0.004647642
0002e0 76 e3 43 bd 3b fd 19 bd 95 0a 8b bd 2d da 4d 3c
       -0.047824346 -0.037595015 -0.06789128 0.012564224
0002f0 16 0e 99 bd 0a 2a 93 3b c6 6d 1a 3d 96 0f e5 3b
       -0.0747339 0.0044910954 0.037702344 0.0069903834
000300 65 5f 47 3b 2b 2c ca bd d9 6b 16 bd 7f 75 03 3d
       0.003042185 -0.098717056 -0.036723945 0.032094475
000310 5d 20 f8 3a 30 89 18 3d 72 e6 95 3c 00 37 eb bb
       0.0018930543 0.037240207 0.018298361 -0.0071781874
000320 d2 07 2e 3c 85 84 2e 3d 67 b8 57 bc 0e 0f 67 bd
       0.010621982 0.04260685 -0.013166524 -0.05641084
000330 eb c0 2a 3c cb 9f 04 3c 69 f8 63 bc cd bd 46 3d
       0.010421972 0.008094738 -0.013914206 0.048520852
000340 29 a8 13 bd 8e 10 a5 3c f5 77 e4 3c 1f ef b1 3c
       -0.036049042 0.020149495 0.027889231 0.021720467
000350 48 60 37 3c 9e 2e 50 bc a9 63 f3 bc d4 2e 28 3d
       0.011192389 -0.012706427 -0.029710608 0.041060284
000360 b5 47 36 bd 83 61 93 3c f9 8c de bc f9 f8 c5 3c
       -0.04450198 0.017990833 -0.02716683 0.024166571
000370 be c7 6c 3d f8 eb 76 3d 8f 02 33 3d e0 01 5e 3d
       0.057807676 0.06028363 0.043703612 0.054201007
000380 c4 63 cf bd 11 fc 58 3c 78 0e 86 bc b9 b5 37 bc
       -0.10126451 0.013243691 -0.016364321 -0.01121276
000390 43 74 07 3d 15 c4 2f bd b6 d3 ea 3c bc b6 4f 3d
       0.03306986 -0.042911608 0.028665405 0.05071138
0003a0 f0 b3 14 3d 7c a8 af bc ae ea 53 bc 95 37 c2 3d
       0.036304414 -0.021442644 -0.01293437 0.09483258
0003b0 ef 83 d6 bc f5 6b 8c 3d d7 0f d0 3d aa a8 3f bd
       -0.026185958 0.06856529 0.10159271 -0.04679171
0003c0 d4 be 17 bd c4 69 8b 3d 77 9e 85 bc ed 70 78 bc
       -0.037047222 0.068072826 -0.016310913 -0.015163642
0003d0 76 3b 50 3b 28 d9 59 3d b2 da d3 bc 80 27 a9 bc
       0.0031773723 0.053185612 -0.025861118 -0.020648718
0003e0 fd 9e a0 bd 33 5c 1d bc de 82 0b bc 47 c8 ab 3b
       -0.078428246 -0.009604502 -0.008515088 0.005242381
0003f0 fa 9d 3d bc 23 9e 59 3d c1 36 44 bd 66 f4 36 bc
       -0.011573309 0.053129327 -0.04790378 -0.011166668

conv_layers.3.bias f4 [64]
000000 ae 05 4e be f3 70 a3 bc 7c a6 58 3d d8 c5 bb bd
       -0.20119354 -0.01995132 0.052893147 -0.09168595
000010 2b 58 b4 bc 63 2c ee 3b 30 b2 2c bd 51 94 13 ba
       -0.022014698 0.007268475 -0.04216212 -0.0005629706
000020 a9 80 27 3d 56 a7 0f be d1 32 82 bd 3d 94 78 3c
       0.040894184 -0.14028677 -0.06357349 0.0151720615
000030 b6 fc ee 3c df 40 f9 bc 66 4d 29 3d 44 37 aa 3b
       0.029173236 -0.03042644 0.04133358 0.0051945765
000040 1c 63 ba bd 76 b6 9b bd 94 10 f8 bd 11 a3 aa bd
       -0.09100935 -0.07603161 -0.12112537 -0.08331884
000050 20 79 12 bd aa ee fd 3b d0 00 83 bc 89 00 53 3c
       -0.035760045 0.0077493982 -0.015991598 0.012878546
000060 bd 67 e6 bc 7b 79 b7 39 65 58 aa 3d f7 77 1a bc
       -0.028125638 0.0003499499 0.08317641 -0.009428016
000070 1d cc b5 bd 1e 96 61 3b 1e e9 33 bd 94 ea 3f 3b
       -0.08876822 0.0034421752 -0.04392349 0.0029284107
000080 f9 36 ec 3d 6f 40 c0 bc 96 4f 44 b9 1c e4 87 3d
       0.11533923 -0.023468224 -0.00018721665 0.06635305
000090 d4 e7 9e 3a d7 57 95 bc 71 bf ae 3d 21 d9 81 bd
       0.0012123534 -0.018230362 0.08532608 -0.06340242
0000a0 28 72 b2 3d 60 1c 9c 3c 83 ff 4d 3c 05 7e 55 3d
       0.0871318 0.019056499 0.012573126 0.052122135
0000b0 de cf 81 3d 2b 18 bb bd 9b 1e 9d 3d 81 ee e1 bb
       0.06338476 -0.09135469 0.07671853 -0.006894887
0000c0 87 92 70 3d 84 bb 27 3d 3b 79 96 bd 2f 58 8a bd
       0.05873349 0.040950313 -0.073473416 -0.06755101
0000d0 42 d7 1e bd 57 21 23 be 87 3d 5f 3d bb e2 1a bc
       -0.038779505 -0.15930687 0.054502036 -0.009453471
0000e0 63 5d aa bc 8d 1f 5a bd 12 71 19 3d 1a bd 64 bd
       -0.020796483 -0.053252745 0.037461348 -0.055844404
0000f0 b3 48 13 3c f4 f6 d5 bc 86 dd 6a 3d 3a dd 32 bc
       0.008989501 -0.026118733 0.057340167 -0.010917002

fc1.weight f4 [64, 256]
000000 a2 a1 26 bd c7 8a 5b 3c 8e 4e 51 bc c8 e7 22 bc
       -0.04068149 0.013399786 -0.012775077 -0.009942956
000010 80 6e 83 bd b0 0a ae 3c 94 17 57 3d 52 ae b9 bb
       -0.064175606 0.02124533 0.05251272 -0.0056665326
000020 7e b6 1b bd 5c 23 4b bc 06 87 db bc ee 07 67 bd
       -0.038015835 -0.012398567 -0.026797783 -0.056404047
000030 bf f7 a9 ba a8 0d 5e bd c1 75 13 3d af a6 29 bd
       -0.0012967511 -0.054212242 0.03600097 -0.041418727
000040 62 79 43 bd b0 3d aa bc b1 87 1e 39 6f 8d 9e 3b
       -0.04772318 -0.020781368 0.00015118603 0.0048386375
000050 52 40 99 bb ef f7 a2 3c 53 dc a6 3b 0a 5b 8e bd
       -0.004676857 0.019893615 0.0050921827 -0.06950958
000060 77 73 19 3c 65 5b 5b bd 1b 4d 3c 3d dc 18 15 bd
       0.009365908 -0.053553957 0.04597197 -0.03640066
000070 48 c1 b1 3c e3 31 27 3c a9 3f 78 bd 87 ac 22 bc
       0.021698609 0.010204765 -0.060607586 -0.009928829
000080 b3 42 26 bd fe f4 57 bc 8c e3 8d bd 26 b6 e8 3c
       -0.040590953 -0.013180969 -0.06928167 0.028407168
000090 a4 16 27 bb 68 1a 98 bd f3 59 82 bd f8 9f da 3c
       -0.0025495673 -0.074269116 -0.06364813 0.026687607
0000a0 9d 3e 0c bb b6 a8 09 bc 1e 1d 6c 3d 22 88 c6 bc
       -0.0021399625 -0.00840204 0.057644956 -0.024234835
0000b0 99 a1 20 bd 8f 11 ec bc 50 04 8b 3c d9 99 bf bc
       -0.03921661 -0.028816966 0.01696983 -0.02338879
0000c0 a5 12 a3 bd 34 f2 2a ba ff 11 cd bc 2c 79 20 bd
       -0.079625405 -0.00065210764 -0.025032995 -0.03917806
0000d0 25 22 10 bd 8d 51 b6 3c ce c2 36 3d ab 0e dd bc
       -0.035188813 0.022255683 0.044619374 -0.026984533
0000e0 f3 e2 82 bc 66 77 43 3d 7e a2 7b 3c 00 fa 8d 3c
       -0.015977358 0.04772129 0.015358565 0.017331123
0000f0 23 20 e8 3b 8a 75 94 bd ea 50 dd bc a7 b8 d0 3c
       0.007083909 -0.07248981 -0.027016122 0.025478674
000100 3f ac 02 bd fa 6f 54 3c 72 e0 15 3d c0 b5 63 bd
       -0.031902548 0.01296615 0.036591 -0.055593252
000110 74 5a 00 bc ff 25 cc 3c 9e 75 64 bd 6d 47 24 3c
       -0.007834066 0.024920462 -0.05577623 0.010026795
000120 e6 f1 60 bc e6 4a 15 bd 35 f8 b5 bc f4 b1 1d bd
       -0.013729548 -0.03644838 -0.02221308 -0.038499787
000130 b3 05 e4 3a 66 8c 17 3d be 29 de bc eb 07 0a 3d
       0.0017396718 0.03699913 -0.027119514 0.033698957
000140 a2 6c fa 3c 2b 80 21 bd d9 0f e1 3b 23 60 48 bd
       0.030569378 -0.03942887 0.0068683443 -0.048919808
000150 6e 83 70 bc 64 dd 09 3d 4f b6 2b 3c bc 0f 40 3c
       -0.014679773 0.0336584 0.0104804775 0.011722501
000160 80 8e cd bc a8 10 34 3c fd 93 dd 3c c5 24 46 bd
       -0.025092363 0.010990299 0.027048105 -0.04837491
000170 0c f1 5e ba bf 78 7c bd 3e df 6e bc 21 4f 67 3d
       -0.0008504547 -0.06163859 -0.014579592 0.056471948
000180 f6 cb ee 3c ed d5 54 3d a8 be 31 bd 67 80 20 bc
       0.02914999 0.051961828 -0.043394715 -0.0097962385
000190 84 ce 93 3c b5 dd 1a bd 44 2b ad 3c f0 16 f4 3b
       0.01804281 -0.037809093 0.021138795 0.0074490234
0001a0 c8 ec 38 3c d6 5f 4c 3d 97 25 97 bd 07 ce 6c bd
       0.011286922 0.049896084 -0.073802166 -0.05781367
0001b0 a8 52 f5 3a 7d 5c 64 bc ba 9d 3d bd b6 9f a0 bc
       0.001871665 -0.013938067 -0.046292998 -0.019607406
0001c0 ad ed a6 bb 92 29 7b 3c 4e de 39 3c 60 39 08 b9
       -0.005094251 0.015329735 0.0113445055 -0.00012991345
0001d0 87 59 81 bd 7f 12 57 3c f5 34 ca bc ba d0 ae bb
       -0.06315904 0.013126968 -0.024683455 -0.0053349407
0001e0 b4 33 c1 bc ba 83 32 bd aa 27 88 3c 6f a9 d1 3c
       -0.023584224 -0.043582655 0.016620476 0.025593488
0001f0 01 2b 1e bd 87 ed 61 bd 86 05 e2 3b f7 fc a6 bc
       -0.03861523 -0.055158164 0.006897631 -0.020384295
000200 ac 1c 7f bd d7 44 2a 3d 5a 82 cb bb c9 34 c1 3c
       -0.062283203 0.041569557 -0.0062106075 0.02358474
000210 74 7f 5a bd 4b d6 80 bd 01 20 b9 bc 1b c1 22 3d
       -0.053344205 -0.06290873 -0.022598268 0.03973494
000220 e0 3a b2 3c c5 b5 42 bd b9 a8 b0 3b 35 97 0e 3c
       0.02175659 -0.04753663 0.005391207 0.008703043
000230 c7 d5 9a bd cb a6 2d bc ff ba f1 3a 61 4e a6 bc
       -0.07560306 -0.010598849 0.001844257 -0.020301046
000240 c5 05 38 3d cb 91 43 3d 4f 55 2b 3d 7f 93 04 3d
       0.044927377 0.04774646 0.041829403 0.032367226
000250 cc bb aa bb 49 35 38 3b 83 73 75 bd 62 67 07 bd
       -0.0052103754 0.0028107932 -0.059924614 -0.033057578
000260 79 e2 66 bd a8 61 3a 3c c8 ba bc bc 6a 80 80 bb
       -0.056368325 0.011375822 -0.023038283 -0.003921558
000270 29 3b 94 bc cc 2e 84 bd 20 f8 0d 3d 90 0d 42 bd
       -0.018094616 -0.06454238 0.03466046 -0.047376215
000280 04 0e 48 3d 9a 30 20 3d bf 43 02 bd 09 39 b8 bc
       0.04884149 0.03910885 -0.03180289 -0.022488134
000290 1b 9a 2b bd 1a fb 65 bd 9d 19 33 bc 71 1e 81 bd
       -0.041895013 -0.056147672 -0.0109314 -0.06304634
0002a0 f3 f7 28 3d 85 52 17 3c e4 82 54 bd 4c 7f a8 bc
       0.041252088 0.009235983 -0.05188264 -0.020568512
0002b0 e9 c4 23 bd 11 be 86 bc 0e 3f 6a bd ee 59 6f 3d
       -0.03998271 -0.016448053 -0.05718904 0.058435373
0002c0 83 51 d7 bc eb 0a b1 3b 16 4a b5 bc 92 9a 08 3d
       -0.026283985 0.005402913 -0.022130053 0.033350535
0002d0 c6 68 23 3c 98 4b 9e bc 6d 1c ff 3c ec 3b 3f bd
       0.00997371 -0.019323155 0.031141484 -0.046688005
0002e0 78 9e 1c bd 29 f4 89 bd 0e 7f c4 bc 3b ef 85 bd
       -0.038237065 -0.06736023 -0.023986366 -0.0653977
0002f0 bc a7 93 bd 04 a4 fe 3b 04 1f 43 bb 6d 3c b2 3b
       -0.07209727 0.007771017 -0.0029773125 0.005439332
000300 bf 59 8b 3c 7c 00 00 bd f4 55 aa bd 9c d4 13 bd
       0.017010568 -0.031250462 -0.083171755 -0.036091432
000310 7a a0 0e bd 4b 81 72 bd d2 e3 66 bc 21 76 f5 b9
       -0.03482101 -0.059205335 -0.0140924025 -0.00046818054
000320 dc be 10 3c d9 5e 81 bd 55 1f 92 bb d7 37 1b 3d
       0.008834567 -0.06316919 -0.0044593015 0.03789505
000330 6f 15 45 3d ff be 81 bd 15 f3 ac bc 43 1c d6 3b
       0.048116144 -0.06335258 -0.021112004 0.006534131
000340 85 4d ea bb cb 9a 2a 3a 00 d6 9c 3b 40 01 52 3d
       -0.0071503543 0.00065080513 0.004786253 0.051270723
000350 7a 56 d2 3b 61 fd b1 bd b2 fa c0 39 33 53 8a bd
       0.006419 -0.08690906 0.00036807876 -0.0675415
000360 74 c8 4b 3c 49 bd 94 bb 43 99 ed bc ef ff 0e bd
       0.0124379285 -0.004539166 -0.029003745 -0.034912046
000370 30 cb 16 3d 2d b3 0d 3c 26 6f 4c 3d 6c 87 6e bc
       0.03681487 0.008648676 0.049910687 -0.014558654
000380 de e9 6f 3c e3 f9 23 3d 07 72 d8 bc cd a3 2e bd
       0.014643161 0.040033232 -0.02642156 -0.04263668
000390 bd d1 37 bd 49 75 dc 3b 0d 0e 9b bd 5b bb 65 3c
       -0.044877756 0.0067278487 -0.07571039 0.01402172
0003a0 8d 46 bd bc 69 f7 2a 3c 5d 1f 37 bd a9 e0 cd bc
       -0.02310493 0.010434964 -0.044707645 -0.02513154
0003b0 a0 b5 0c bd d7 d9 c2 bc e4 44 98 3b 6e ac 46 bd
       -0.0343529 -0.023785515 0.0046468843 -0.048504286
0003c0 41 b8 cb 3c 0e fe 23 bd 5f 9f 18 ba 80 cd 37 bd
       0.024868133 -0.040037207 -0.0005822088 -0.044873714
0003d0 c3 4f 37 bd 7e 99 10 bd 83 0b e0 3c 2d 80 55 3d
       -0.0447538 -0.03530263 0.02734924 0.05212419
0003e0 55 d0 b8 bc 22 5e e3 bc 31 33 38 bd e6 67 78 bd
       -0.022560278 -0.027754847 -0.044970695 -0.06064596
0003f0 65 5d 55 3d c9 2e 28 bd a2 9c 1d 3d c8 0e b5 3b
       0.05209102 -0.041060243 0.038479455 0.0055254437

fc1.bias f4 [64]
000000 ef 5d 4c bd 69 5e 74 bd 3c 4e 78 3c 27 ad f4 3c
       -0.04989427 -0.05966035 0.015155371 0.029867722
000010 e0 08 01 3d 54 63 f6 3c dd e5 ce 3d 04 9e e4 3d
       0.031502604 0.03007666 0.10102437 0.111629516
000020 64 d3 af 3b 5d 4f 91 3d b7 c4 b2 3c d2 6c a1 3d
       0.005365776 0.070952155 0.021822317 0.07882084
000030 10 6a 57 bd d1 1c 34 3d aa 3e 9f 3c c8 ac 23 3d
       -0.052591383 0.043972794 0.01943906 0.0399597
000040 04 08 95 bc 85 5e f9 3b 59 29 1b 3d f8 20 c2 3d
       -0.018192299 0.0076101446 0.03788123 0.094789445
000050 7a 9b 9a bb b4 09 96 3c d5 19 f5 3d 22 f3 03 3d
       -0.0047182413 0.018315174 0.11967818 0.03221429
000060 eb 6f 5f bd 61 47 4e 3d 0e bc 8a 3a 41 8b a6 3c
       -0.054550093 0.05036104 0.0010584609 0.020330073
000070 95 8f eb 3d dc 63 34 bd d9 e6 6d bd ac 34 41 3c
       0.115019955 -0.044040546 -0.05808148 0.011792343
000080 c7 c1 7c bc 6b 41 fb 3d 16 d8 af bd 36 f4 9a 3d
       -0.0154270595 0.12268337 -0.08586137 0.07566111
000090 7b 92 0c bc a8 61 1c bd e2 b6 8f 3d bb f8 21 bc
       -0.008579846 -0.03817907 0.07017304 -0.009885962
0000a0 45 90 4f 3c f1 2a 8f bc eb c2 0a 3c 2a 9f 89 3b
       0.012668674 -0.01747653 0.008469324 0.004199882
0000b0 80 4d 11 3e 11 1d 78 bd 1c 12 e8 bc e5 08 f2 3d
       0.1418972 -0.060574595 -0.028328948 0.11818103
0000c0 17 6f ea 3d 82 a4 8c bd 35 69 d1 3c ae eb 92 bd
       0.1144697 -0.06867315 0.025562862 -0.071738586
0000d0 71 c1 d8 3c 90 77 4b 3d da b1 90 3c ad 4c 5d 3d
       0.026459428 0.04967457 0.017662931 0.0540282
0000e0 63 a6 f5 3c 0e 85 da 3d 55 a4 68 bd cf 9c 51 3d
       0.029986566 0.106699094 -0.056797344 0.051174935
0000f0 6c 80 59 3d 2d 0d d7 3c 9c 0a 69 bd 83 d5 2d bc
       0.05310099 0.0262514 -0.056894884 -0.010609987

batch_norm.weight f4 [64]
000000 bf 80 77 3f 23 0f 7e 3f 6f 76 7e 3f 9f a0 de 3f
       0.96680826 0.99241847 0.99399465 1.7392768
000010 57 96 d3 3f 9a 78 e7 3f a2 1e df 3f a1 a4 d4 3f
       1.6530255 1.808368 1.7431223 1.6612741
000020 38 f9 77 3f e6 38 d8 3f 81 e4 7b 3f a9 d3 e5 3f
       0.9686465 1.6892364 0.98395544 1.7955219
000030 1c 5e 7e 3f e2 45 e4 3f c8 26 7d 3f 6f 76 7e 3f
       0.9936235 1.7833827 0.988873 0.99399465
000040 27 43 7e 3f 8e 75 7e 3f 52 14 dd 3f 25 85 ca 3f
       0.99321216 0.99398124 1.7271826 1.5821882
000050 2a 1a e1 3f 72 ae d0 3f 26 88 ce 3f ab 38 7b 3f
       1.758611 1.6303236 1.6135299 0.98133343
000060 bf a8 7d 3f be d0 e0 3f ab 83 7d 3f 0e 8c 78 3f
       0.9908561 1.7563703 0.99029034 0.97088706
000070 18 7a d4 3f 00 00 80 3f ec 4f 7e 3f 75 dd 7d 3f
       1.659976 1.0 0.993407 0.9916604
000080 68 89 f0 3f 3e 22 db 3f e7 93 78 3f d0 c1 db 3f
       1.8791933 1.7119825 0.9710068 1.7168522
000090 37 6c dd 3f 6d 76 7e 3f f1 44 c5 3f 20 0b 7b 3f
       1.729865 0.99399453 1.5411664 0.9806385
0000a0 bc 9b 80 3f f5 04 d8 3f 00 4c d8 3f 33 1e dc 3f
       1.0047526 1.6876513 1.6898193 1.7196716
0000b0 6f 5c ca 3f 09 87 7c 3f 00 00 80 3f 8e 2d d6 3f
       1.5809458 0.9864355 1.0 1.6732652
0000c0 41 01 e3 3f 16 96 7c 3f 38 e1 7d 3f 9e fb 7c 3f
       1.7734758 0.9866651 0.9917178 0.9882144
0000d0 da 31 7e 3f 00 00 80 3f f2 1e 7d 3f 90 a1 cb 3f
       0.9929482 1.0 0.98875344 1.590868
0000e0 19 80 7e 3f b6 06 d2 3f 10 e7 7a 3f 9a ad d7 3f
       0.9941421 1.6408298 0.98008823 1.6849854
0000f0 7c 07 e1 3f 72 76 7e 3f a7 08 7d 3f 59 2e 7e 3f
       1.7580409 0.99399483 0.9884133 0.9928947

batch_norm.bias f4 [64]
000000 a1 bc f0 3d 6c e2 0c be 78 2d 2a be 05 81 5b bc
       0.11754728 -0.13758248 -0.16618907 -0.01339746
000010 9e 20 5a be 37 21 fd bc c5 fd 9a bd 46 f6 81 bc
       -0.21301505 -0.030899627 -0.07567934 -0.015864503
000020 44 f5 fb bd 99 f7 d4 3d fa b6 49 3e 97 d7 e6 3d
       -0.1230264 0.10398788 0.19698706 0.11271589
000030 7a 39 cd 3d 23 8e 64 3d 28 7c 08 be 55 81 47 be
       0.100207284 0.055799615 -0.13328612 -0.1948293
000040 4d ee 39 be b1 7e 1e 3e d1 0e 33 be 19 db f5 3d
       -0.18157311 0.15478016 -0.17486121 0.1200468
000050 d4 97 40 bc fe 59 b4 3d 12 04 34 3c 59 3e 02 be
       -0.011754949 0.08806227 0.010987299 -0.12719096
000060 12 92 e5 3d 7e 65 c4 3d d0 fd 26 3e 12 89 30 be
       0.11209501 0.095896706 0.1630776 -0.17239788
000070 ae 9e 85 be da 2d 1a be 32 e5 21 be 3f ef 3f be
       -0.26097625 -0.15056553 -0.15810087 -0.18743609
000080 45 2d 39 bd 51 05 65 bd c2 cf 1e be 58 be 02 bc
       -0.045209188 -0.055913273 -0.15508941 -0.007979952
000090 fb 85 65 be 5f db 1f 3e 88 0e dd bc 36 04 03 bb
       -0.2241439 0.15611027 -0.026984468 -0.0019991524
0000a0 38 f0 26 be 8a 27 5b bd 5d 15 15 be 8a 28 7a bd
       -0.16302574 -0.053504504 -0.1455893 -0.061073817
0000b0 94 95 05 be f0 bf 0e be 9e 22 f1 3d fe 28 7f 3c
       -0.13045341 -0.13940406 0.11774181 0.015573738
0000c0 c0 7d b4 3b 85 21 d6 bd 8a d7 06 be f6 4e 19 3e
       0.0055081546 -0.10455612 -0.13168159 0.14971527
0000d0 07 fa 15 3e 48 6d f5 3d b6 7e 04 be 6e da ac 3d
       0.14646159 0.11983734 -0.12938961 0.084401
0000e0 32 fb 03 be f7 b1 de 3d 62 c4 41 3e 17 23 25 3d
       -0.12888792 0.10873788 0.1892257 0.040316667
0000f0 b6 a2 b2 3d d0 84 13 3e b4 fe 5e 3e 11 55 de 3d
       0.08722441 0.14406133 0.21776849 0.10856069

batch_norm.running_mean f4 [64]
000000 1b a6 87 22 04 00 00 00 04 00 00 00 81 c5 52 40
       3.6767694e-18 6e-45 6e-45 3.2933047
000010 9a 07 2f 3a 7b eb c6 3f c7 a6 9b 40 5f 25 8c 40
       0.0006676853 1.5540613 4.8641086 4.379562
000020 04 00 00 00 5c 43 a4 3a 04 00 00 00 bf 04 83 3e
       6e-45 0.0012532282 6e-45 0.25589558
000030 04 00 00 00 bb e3 9d 40 04 00 00 00 04 00 00 00
       6e-45 4.934049 6e-45 6e-45
000040 04 00 00 00 04 00 00 00 d4 b2 dd 3f 79 74 a7 40
       6e-45 6e-45 1.7320199 5.232968
000050 d4 75 89 40 26 ae fa 3f 05 2a 98 40 04 00 00 00
       4.2956333 1.9584396 4.7551293 6e-45
000060 04 00 00 00 db ef c7 3f 04 00 00 00 04 00 00 00
       6e-45 1.5620073 6e-45 6e-45
000070 16 20 d6 3f 00 00 00 00 04 00 00 00 04 00 00 00
       1.6728542 0.0 6e-45 6e-45
000080 e6 c3 bb 3f 3e 2f a1 3f 92 99 15 19 ab e8 a2 3f
       1.4669158 1.2592542 7.734133e-24 1.2727255
000090 37 78 9b 3f 04 00 00 00 35 0f 6b 40 04 00 00 00
       1.2146062 6e-45 3.6728032 6e-45
0000a0 2d af de 03 52 ec d9 40 93 ee 9a 3f 58 f1 ca 3f
       1.3088206e-36 6.8100977 1.2104057 1.5854902
0000b0 f0 51 71 40 04 00 00 00 00 00 00 00 9d 2d a6 3f
       3.770626 6e-45 0.0 1.298267
0000c0 86 87 1d 40 04 00 00 00 04 00 00 00 04 00 00 00
       2.4613967 6e-45 6e-45 6e-45
0000d0 04 00 00 00 00 00 00 00 04 00 00 00 9c 6f f0 40
       6e-45 0.0 6e-45 7.513624
0000e0 04 00 00 00 89 19 95 3f 04 00 00 00 57 97 88 40
       6e-45 1.1648418 6e-45 4.268474
0000f0 3d 0d ab 3f 04 00 00 00 04 00 00 00 04 00 00 00
       1.3363415 6e-45 6e-45 6e-45
