models/ヨルシカ/classifier_fold4.pth (torch, 991011 bytes, 16 tensors)

conv_layers.0.weight f4 [64, 256, 2]
00000000: fbea 2f3c 93bc 3c3d 5ba9 25bc 0b10 193d
00000010: 22c5 b5bc 5abf 35bd 9335 bbbd f0f8 293d
00000020: 00d4 f4bc 77c1 5bbd f327 d0bd 6eaa fcbd
00000030: fc82 54bc 097b d5bb a312 213d 88a5 13bd
00000040: 1589 8b3d 0bdc 263d 4343 19bb cd30 bd3c
00000050: d027 163d 3cfc 06bd 04ed b0bd c927 abbd
00000060: 24ac d53c a191 babc 4506 113c ed0f aa3c
00000070: 6fed ed3c 5056 3b3c 424c a83b 33e7 d63b
00000080: 0c2e 873d 9b4b 963d 973b b3bc 0b45 403a
00000090: 6a02 46bd f587 63bb e912 94bd 92c9 a7bc
000000a0: 0070 573d c123 a8bc 7880 9dbc 7b2b 30bd
000000b0: 2f08 243d 0e47 c1bc c09c 163d dc89 ff3c
000000c0: 2a73 d53c bdbe a23d b48e c43d e787 9f3c
000000d0: a7f3 c63c 98b7 28bd 4f73 773c 369c 6ebc
000000e0: 07bb 073c 9141 57bc 2804 07be e271 77bc
000000f0: 2d5d 8bbc 0d8e 003d f78f e6ba 7877 6abd
00000100: 2d5d 4b3d 88a1 a83d cb20 6f3c a8fa 943d
00000110: b8a5 6abd d35a b23c ccbc 873c 82ff 8a3d
00000120: 6bb3 5d3b 2449 4cbd 35b5 08bd 8d9f 06bd
00000130: 82b6 353d 19a2 843b e0cc b73c 81c1 c4bc
00000140: 2665 98bd a14d 893d a630 5a3c c0f6 2cbd
00000150: 0d06 7db9 ed5c 523d 5fa3 87bd 7764 94bd
00000160: d136 b2bd 3b51 993c 3a20 e03c 7d01 8b3c
00000170: d5df 843a 1608 90bd 3358 8aba 63f2 efbb
00000180: 5003 1e3d ed4a 5eba 0450 dbbd f435 a83c
00000190: d5c0 163d 3df0 73bd 4f38 f43b c27b 3cbd
000001a0: 5a61 dabc 8261 503c 470c e7bc b8ac 05bd
000001b0: b498 d93c 58b6 2abd 8206 4abd 2c14 4fbd
000001c0: 225f 193d 475f 65bc b8cd 9b3d 2011 b9bb
000001d0: 7e72 4fbd 45b7 abbc 36cc 8c3c 1fb9 3ebc
000001e0: 00f0 253d a5fa e73c 227e a7bd 62cf dcbd
000001f0: 6fba 3abd 8023 1f3d 87c7 6a3d 919e 313b
00000200: c179 34bd 05e8 8cbd 8ecd fd3b c033 963b
00000210: bc61 3e3d 5744 92bd 9759 3c3c 39b1 24bd
00000220: 9427 0c3d 9b54 8bbd aea1 27bd 212c 683d
00000230: 3094 a63d 73c7 9fbd 18d7 2f3d d454 053c
00000240: 28b6 59bd b21c 2dbc b7b1 893b c362 d73b
00000250: d2a0 70bd 0529 fdbc 2446 83bd b4f6 be3c
00000260: 8d3c d23c 6801 283b c96e 32bd c09c 983d
00000270: c842 64bb c4ce 74bd a412 98bc f0bd bd3c
00000280: b70d 5c3c 9fee 87bc 0401 5ebd 85fc 53bd
00000290: 54d6 b03b f37f c63c d923 633c 6265 1ebd
000002a0: e705 95bd 69ca 513d ae88 be3c 641a d93c
000002b0: 0662 19bd fc06 95bc 03a2 263d 7624 aabc
000002c0: c86f b4ba a0ee d6bc 6aa6 c83d 04d5 26bd
000002d0: 0096 ac3d b101 973d e447 f8bc 72bb c9bc
000002e0: e9cc d1bb ecbf 35bd 6d16 7a3d 04e4 1e3d
000002f0: ea87 093d dc5a b5bc ca87 77bd 8bea dbbd
00000300: eeee 2cbd ce57 b4ba 7e82 40ba f1aa 663d
00000310: e0e0 ac3c d811 6839 81e0 96b8 6afb ba3b
00000320: 583b f53c 05d9 8cbd 7939 363d dd8f 86bd
00000330: cdc3 a13a c241 613c 7b17 103d 2a16 9c3d
00000340: 713f aebb 5d00 08bd 9a9f 16bd 7910 863d
00000350: 2a06 92bd 2cc7 773c a80c 533d 8ba6 64bc
00000360: a396 96bd 64e8 813c 04c2 b03d 564b cebc
00000370: aac3 53bb 3084 a53c ba68 b03b 31ba fb3c
00000380: f4b1 e6bd 7a9e b5bc ada0 1a3d 0bd8 ea3b
00000390: 8727 dd3c 48a3 0bbd 30a6 1b3d 13de 3d3c
000003a0: 842f 973d a19d 6b3c 5f24 a03d b363 41bd
000003b0: 35cf fb3b 1e3f 383d 373a 993d 25e2 b03a
000003c0: 07ad a7bd d269 043d e9e1 fb3c 9e85 213d
000003d0: 3944 373d a0e4 643d 6806 133e c317 f4bc
000003e0: 983f 063c 42cb 0a3c f8b1 fdbc 87cf 50bd
000003f0: 6251 02bd df9e c7bc 348c f23c 92f5 403d
0.010737176 0.046078276 -0.010111178 0.037368815 -0.022188727 -0.04437194 -0.09141078 0.04149717
-0.029886246 -0.0536513 -0.1016387 -0.123371944 -0.012970682 -0.006514911 0.039324414 -0.036046535
0.06813256 0.040737193 -0.0023386038 0.02309456 0.036659062 -0.032955393 -0.08638957 -0.08357198
0.02608306 -0.02277452 0.008851592 0.020759547 0.029043881 0.011434153 0.0051360438 0.006558323
0.066005796 0.07338639 -0.021879 0.0007334507 -0.048342146 -0.0034718488 -0.07230169 -0.020481858
0.052597046 -0.020524861 -0.019226298 -0.043010216 0.040046867 -0.023593452 0.036770582 0.031193666
0.026055891 0.07946537 0.09597531 0.019473983 0.024286104 -0.041190714 0.015103175 -0.014563611
0.008284337 -0.013138191 -0.13185179 -0.015102835 -0.017012203 0.03138547 -0.0017590512 -0.05724284
0.049649406 0.08233935 0.014595221 0.072743714 -0.057286948 0.021771824 0.016569518 0.067870155
0.0033828865 -0.04987444 -0.033375937 -0.032867003 0.044363506 0.004047644 0.02243656 -0.024018051
-0.074411675 0.0670426 0.013317263 -0.042227507 -0.00024130214 0.051358152 -0.066229574 -0.07245725
-0.08701862 0.018715492 0.027359117 0.016968483 0.0010137508 -0.07032792 -0.001055485 -0.007322596
0.038577378 -0.0008479793 -0.10708621 0.02053354 0.036804993 -0.05955528 0.0074530016 -0.046016462
-0.026657749 0.01271856 -0.028204096 -0.03263542 0.026562072 -0.041677803 -0.049322613 -0.050556347
0.03744424 -0.013999767 0.07607597 -0.0056477934 -0.050646298 -0.020961413 0.01718722 -0.011640816
0.040512085 0.028317759 -0.08178355 -0.10781743 -0.045587953 0.038852215 0.05731919 0.002710257
-0.044061426 -0.06880192 0.0077454513 0.004583806 0.046479926 -0.07141941 0.011495969 -0.040208075
0.034217432 -0.068032466 -0.040925674 0.05668271 0.08133733 -0.07801714 0.04292974 0.0081379
-0.053152233 -0.0105659235 0.0042020935 0.0065730526 -0.05874712 -0.030903349 -0.06409863 0.023310997
0.025663638 0.0025635604 -0.043562684 0.07451773 -0.0034829844 -0.0597675 -0.018563576 0.023161858
0.013431004 -0.016593276 -0.054200187 -0.051754493 0.0053966437 0.024230933 0.013863527 -0.038670905
-0.072765164 0.051218424 0.023258533 0.026501842 -0.037446998 -0.018191807 0.04068185 -0.020769339
-0.0013766224 -0.026236832 0.09797366 -0.04073049 0.08427048 0.073733695 -0.030307718 -0.024625514
-0.006402601 -0.044372484 0.061056543 0.03879167 0.033576883 -0.022138052 -0.060432233 -0.10738095
-0.04222005 -0.0013759078 -0.00073436636 0.056315366 0.021103323 0.00022131891 -7.1943745e-05 0.0057062404
0.029935524 -0.06877331 0.044488404 -0.065704085 0.0012341678 0.013748588 0.035178643 0.07621415
-0.0053176214 -0.03320347 -0.0367733 0.06546111 -0.07130082 0.01512317 0.05152574 -0.013955723
-0.073529504 0.015857883 0.086307555 -0.025182407 -0.003231267 0.020204633 0.005383578 0.030728431
-0.112644106 -0.022170294 0.03775089 0.0071668676 0.026996387 -0.034091264 0.038000286 0.011588591
0.0738211 0.014380843 0.07819437 -0.04721422 0.007684613 0.04498207 0.07481807 0.0013495131
-0.08187299 0.03232748 0.03074737 0.039434068 0.044742797 0.055882096 0.14357913 -0.029796487
0.008193873 0.008471312 -0.030968651 -0.050979163 -0.031815894 -0.024367748 0.02960787 0.047109194

conv_layers.0.bias f4 [64]
00000000: 2977 b0bc fc24 d03d e778 24bd 418e 56bd
00000010: cbb1 c93d 0e29 113d f7fd 87bd c8c9 293b
00000020: 5814 a7bd b3f3 eebd 3441 633d 03e6 4b3d
00000030: a7fc 153d d872 c83c 986e 95bc df7a ecbc
00000040: d0e4 d2bb 1a27 0d3d 2f77 b03d 4df7 bfbc
00000050: fe8b af3b ce74 033e 446a c13c d5dd 743c
00000060: 26e5 a83d 75e8 85bd 513b 183d 6878 fdbc
00000070: f728 70bd 38df 65bb c344 1b3b ad4b 1c3d
00000080: 0be8 c9bd 3f2e b63d f602 76bd 8087 3a3d
00000090: e11e ad3d c28a e8bc 002b 52bd 5b36 b73d
000000a0: 2791 ebbc e7be 99bd 0b1c a2bb afe6 16bd
000000b0: 56d5 463c 50bb 12bb 22c8 2ebd 90c2 b23c
000000c0: 2fd1 5abd afa3 e0bb 2796 343d 4d1f e83c
000000d0: 6e04 7fbd e251 333c a53b cf3c bac6 c33c
000000e0: 384c e5bc 0316 01bd 8f3b d13d f71c 413d
000000f0: 1fba f23c 07ec 06be 85bc 83bc e065 26bd
-0.021541195 0.10163304 -0.040154364 -0.052381758 0.098483644 0.035439543 -0.06640237 0.0025907625
-0.08158177 -0.11667576 0.055482104 0.049779903 0.0366179 0.024468824 -0.018241212 -0.028867183
-0.006435968 0.03446112 0.086164825 -0.023433352 0.0053572645 0.12837526 0.023610242 0.014945467
0.082468316 -0.06538478 0.037165944 -0.030941203 -0.058632817 -0.0035075676 0.0023692108 0.038158108
-0.09858712 0.088955395 -0.060061418 0.04553938 0.08453155 -0.028386477 -0.05131054 0.08945914
-0.028755737 -0.07507115 -0.0049471906 -0.03684109 0.012135824 -0.002238948 -0.04267133 0.02182129
-0.05342215 -0.00685545 0.04408851 0.028335238 -0.062260084 0.010944815 0.025296995 0.023898471
-0.027990445 -0.031515133 0.10216438 0.047146764 0.029629765 -0.13175975 -0.016081104 -0.0406245

conv_layers.1.weight f4 [64, 256, 3]
00000000: 79ea 02bd d9fb a43c dec9 443c 4baa 053d
00000010: 0dbc 943d 9b71 f33c 6fd2 9abd 8638 653d
00000020: 07dc 6b3d 436e 3e3d 259d 763a d260 90bc
00000030: d079 12bd 4926 5dbc 93b3 8f3d e054 dd3d
00000040: b2f2 053c 7672 ed39 61c0 85bd 0455 96bc
00000050: 72e7 273d 1830 2bbd 4fa5 013c cd8f 093d
00000060: 4b1d e03c 7936 93bd b86b 00bd 3be6 7e3d
00000070: 6f0a ca3c 8827 fdbc 5b31 5dbd f71c e3bd
00000080: 738b 73bd 06c6 3f3d 920b 21bd 2fb0 bc3c
00000090: 027e 7abc d39a f73c bfe4 ac3d ac82 4e3d
000000a0: f6f0 863c 407a 5fbd 9765 cc3b ae83 083c
000000b0: c971 89bc bec0 033d 3ca5 5d3d 78ef 8ebc
000000c0: 1faa b43c 6c75 2fbd dc2c 233d d387 473d
000000d0: 8ddd f0bc cc24 943c d665 75bc 73ae 29bd
000000e0: cc88 3cbd 2d35 ff3c 2ee8 9c3c 43d9 6d3d
000000f0: ab9f 55bd 57ca 313e 9c99 ec3d 4159 d63c
00000100: a9b8 f4bc 3a90 0cbc 7b33 273d f219 f5bc
00000110: 55fb 603d 8682 0dbd 77e5 0e3d e82f f1bb
00000120: 2e0e 81bd 777c 7f3d b4de 7fbc 3111 603c
00000130: 5a89 183d b0dc c23b d437 8bbd 015d 24bd
00000140: 4150 fb3a 81d5 8b3d d2ed c93c 6861 3bbd
00000150: 4d44 b9bc b3a7 bdbc ca32 47bd 74f3 563c
00000160: 1a4d 883c 4050 5bbd e33b 3dbc e709 123d
00000170: b586 0bbd 6ec6 b6bc b834 1b3d 2c07 9bbc
00000180: c87e 68be ba60 87bc e4a1 85bd e0f7 683d
00000190: 8c26 053d d8d4 00bd f067 013c 850e fbbc
000001a0: f47c 4bbc 0b83 d0bc 8b78 dd3d 7ba0 563d
000001b0: 6632 e0bc 5c53 09bd 5c88 0ebd 6b43 73bc
000001c0: 9aa5 c3bc 3b3f be3c 8f73 1cbd f96c d53d
000001d0: b343 4a3d 8396 eabc ca66 0dbc 15fa b1bc
000001e0: 2e19 c93d 67ce 8abd 256e e1bb 9ed6 ef3c
000001f0: 3da8 563a 95f1 35bd c2e0 a33d e7a1 b53b
00000200: 2693 69bd 715d bbbc 6d6f e0bc e5f8 553c
00000210: e07f debd f0c2 3a3c 7c37 50bd dcf5 4a3c
00000220: 8752 b93c 6da6 10bd 8d70 573d 9310 bf3c
00000230: 7bbf 633d 725f 8d3d 80bd b73d 1532 a7bb
00000240: 73b4 0abd 10c5 4e3b e36e 4abd 18f6 953d
00000250: 8ceb e93c 04ab 93bd 4e60 1dbd 96e0 083e
00000260: 3147 20bc 377a d93c 0eb8 36bd e768 d5bc
00000270: a1e5 b13b c754 8abd f9f2 593c 7a26 52bd
00000280: 84a0 80bd 59ad aebd a9a9 ca3b e513 c53c
00000290: 9335 283d 783b 9ebd 0a63 703b f8c9 87bd
000002a0: 9342 9fb9 2a1c 97bc d193 803d c705 0bbd
000002b0: 1ced e9bc 7581 4d3c afff b83d 70a0 d33b
000002c0: 23f9 293c 4cc6 c13d b6d5 68bd 6abd 86bc
000002d0: 9e16 8c3c 017d 17bc 46d8 f4bc 8689 ac3d
000002e0: 1e0a d1bd cd1a c5bc 56c1 c9bc ace3 eabc
000002f0: ecd0 c7ba d030 88bc 6efe 69bd b13e 333c
00000300: 758e 9e3c 57d4 1bbd f04a 2c3b d4df 983d
00000310: f05a 423c 10bb 9e3c 02cc 92ba 1ccb dbba
00000320: 5c60 39bd c9f4 b3bd 3cc2 d73c f639 243a
00000330: c089 3bbc 8ce2 923d bcf0 c63d b99f cd3c
00000340: 52b0 bfbc 94b6 e5bd 4149 503c cd55 9dbd
00000350: 5048 6bbd a768 c13d 9d05 95bc 6274 733c
00000360: 7ba1 bf3c 4ec5 89bd 3978 193d 10ac ad3d
00000370: da9b 553d eeda 5ebd bad1 0bbc 5f76 4fbd
00000380: c81a 71bd a193 e7bc d644 143c 1ddd a0bc
00000390: 15fc 90b9 ced7 583d f471 113d 5185 8b3d
000003a0: 148c 18bc 8782 49bc a6c3 5dbd efa8 4f3d
000003b0: 0956 4fbd c88c 6e3c 9eb5 7f3d c7af 22bd
000003c0: 731f e03c a925 0fbc 9e22 8abd a7b9 1e3d
000003d0: b4ff 29bd 292e 823d e845 0bbd 4f38 163d
000003e0: 43b3 8c3a 1c47 1ebd 2e7c 073e c92d 043d
000003f0: 81c0 883c dc9c a6bc bd01 9e3d 6698 013c
-0.03196189 0.020139622 0.0120110195 0.032633107 0.0726243 0.029717257 -0.07559668 0.055962108
0.05758288 0.046491873 0.00094075716 -0.017624293 -0.0357607 -0.013497897 0.07016673 0.10807204
0.008175539 0.00045289443 -0.06530834 -0.018351085 0.040992208 -0.041793913 0.007912948 0.033584405
0.027357718 -0.07188124 -0.03135273 0.062231284 0.024663178 -0.030902639 -0.054002147 -0.11089509
-0.05945916 0.04681971 -0.039317675 0.02303323 -0.015288832 0.030225193 0.08442067 0.050417587
0.016472321 -0.054559946 0.0062376964 0.008332176 -0.01677789 0.032166235 0.054112658 -0.017448172
0.022053776 -0.04283659 0.039837703 0.048713516 -0.029402519 0.018083952 -0.014977893 -0.041426133
-0.046028897 0.031153286 0.01915368 0.058068525 -0.052154224 0.17362343 0.11552736 0.026165606
-0.02987321 -0.008579308 0.04082058 -0.029919598 0.05492719 -0.034548305 0.034886803 -0.007360447
-0.06301533 0.06237456 -0.015617061 0.013675974 0.037240364 0.005946718 -0.06797758 -0.040127758
0.0019173698 0.06827832 0.024649534 -0.04574719 -0.022615576 -0.023151254 -0.04863242 0.013119567
0.016638327 -0.05354333 -0.011549923 0.035653975 -0.034064014 -0.022311416 0.037892073 -0.018924318
-0.22704613 -0.016525615 -0.06525019 0.056877017 0.032507464 -0.031452984 0.007898316 -0.030646572
-0.012419928 -0.025453111 0.10814007 0.05239914 -0.027367782 -0.033526763 -0.03479801 -0.014847617
-0.023882676 0.02322351 -0.038196143 0.104211755 0.04938097 -0.028636223 -0.008630464 -0.021725694
0.09819256 -0.067776494 -0.0068795853 0.029277142 0.00081885216 -0.044419844 0.080018535 0.005542982
-0.057025097 -0.022871705 -0.027396882 0.013059829 -0.10864234 0.011399016 -0.050834164 0.012387719
0.02262236 -0.035314966 0.05259757 0.023323333 0.055602532 0.069029704 0.08971691 -0.005102406
-0.033863496 0.0031550564 -0.049422156 0.07322329 0.0285547 -0.07210353 -0.03842192 0.13366923
-0.009782598 0.026547534 -0.044609122 -0.026050998 0.005428985 -0.06754451 0.013302558 -0.051306225
-0.06280616 -0.08529157 0.006184776 0.024057338 0.041066717 -0.077261865 0.0036680126 -0.06630319
-0.00030376445 -0.018446047 0.06278194 -0.033941057 -0.028555445 0.012543072 0.09033143 0.0064583346
0.01037434 0.0946165 -0.056844436 -0.016447742 0.017100628 -0.009246112 -0.029888283 0.08424668
-0.10207008 -0.024060631 -0.024628323 -0.028673016 -0.0015244759 -0.016624838 -0.05712741 0.01094024
0.019355038 -0.0380443 0.0026289783 0.07464567 0.0118625015 0.019376308 -0.0011199715 -0.0016768905
-0.04525791 -0.087869234 0.026337735 0.00062647404 -0.011446416 0.07172117 0.09713885 0.025100576
-0.023399506 -0.11216465 0.012712778 -0.07682381 -0.05744201 0.09443789 -0.018191153 0.014859291
0.02339243 -0.06727086 0.03746817 0.08480084 0.052150585 -0.054408006 -0.008533889 -0.050649997
-0.05886343 -0.028268637 0.009049615 -0.019636685 -0.00027653636 0.052940182 0.035509065 0.068125375
-0.009310741 -0.012299187 -0.054141663 0.050698217 -0.05061916 0.014559932 0.062429063 -0.039718416
0.027358746 -0.008737006 -0.06744884 0.03875127 -0.041503623 0.063564606 -0.034002215 0.036674794
0.0010734576 -0.038642034 0.13230965 0.032270227 0.016693356 -0.020338468 0.07715175 0.00790987

conv_layers.1.bias f4 [64]
00000000: f3bf 08be a329 b5bc d888 78bd 9c86 b3ba
00000010: 98eb d63c 02b5 3e3d 5d44 a33d 8cf7 e23d
00000020: 892b 74bc e396 a63b f7af db3b f010 963d
00000030: 1f5b 61bc 51f9 40bd 156c d4bd ddee 51bd
00000040: 4205 a2bd d226 433c a0f0 16bc 9313 8bbd
00000050: 39f5 423c d158 b3bb b326 003e a8bf 83bd
00000060: cb76 c13d 76cd ce3c daee 763d 344a 1abb
00000070: 47e2 823d 4f4e e53c 8213 59bd dbd9 a33c
00000080: c734 033d 61e1 9b3c c48f debc e84e cabb
00000090: 0551 26bd d491 5d3d fd53 043d 727b 18b9
000000a0: ffd8 1bbd 51ab 913b fd3b 203d 3ec1 f63c
000000b0: 5a83 333d 5b91 a0bc 1c31 17bc 6362 3c3d
000000c0: caa1 3cbc eaf3 973c 3d7b 6a3d 5ad1 323b
000000d0: 82d2 b53c 191c 87bc 4b7c 293c 097d d13c
000000e0: ebff a63d e365 bc3c 2beb 58bd 7b3e 98bd
000000f0: c102 913d 06b7 383d 5ea5 2dbd 35ae a5bd
-0.13354473 -0.02211458 -0.06067738 -0.0013696733 0.026235387 0.04655934 0.07972024 0.11082372
-0.014902958 0.005083905 0.0067043263 0.07327449 -0.013754635 -0.047112767 -0.103721775 -0.05125319
-0.07911159 0.011911111 -0.009212643 -0.06790843 0.011899286 -0.005473234 0.12514763 -0.0643304
0.09446486 0.025244456 0.06028638 -0.0023542764 0.06390815 0.027991442 -0.05299712 0.020001343
0.032032754 0.019028367 -0.027168162 -0.006173957 -0.04060461 0.05409415 0.03230666 -0.00014541837
-0.03804874 0.0044454713 0.03911971 0.030121442 0.04382644 -0.01960056 -0.009228017 0.045992266
-0.011513183 0.018548924 0.057246435 0.0027285428 0.022195105 -0.01649289 0.010344575 0.025572317
0.08154281 0.022997802 -0.05295865 -0.07433792 0.070806034 0.04509642 -0.042394035 -0.08089868

conv_layers.2.weight f4 [64, 256, 4]
00000000: c8f1 173d 6011 79bd ea2c 143c de74 3b3c
00000010: 71e1 12bd c1ee 353e cc8f 403d 062a e6bb
00000020: b79a 75bd d7e0 f83c 7c4b 413c c0bf be3c
00000030: 624c 643d a577 29bd 0207 e4bc 7d54 0cbd
00000040: 1794 32bd 65cf 05bc 971e cfbd 6b67 18bd
00000050: e9fa b2bc 0ced 193c 694e 0bbd f728 19bd
00000060: a6c4 3e3d cc35 843b 7b06 163c dd71 d7ba
00000070: 2d88 a23d 7fec 893d 7852 3c3d 5189 54bc
00000080: 5956 4e3d aa0c c9bc 521d 91bd d333 35bc
00000090: 404c 14bb 991a 183d b816 cabc 9d34 443d
000000a0: 9d9e b33d 702c 3f3c 0d0c 8abc 59ff 83bd
000000b0: 4204 05bd 0ca8 28bc 5e98 e53c caa1 0a3c
000000c0: 23ec 75bb 0af2 8f3d 8d96 7abd 818a d43c
000000d0: 22b9 5fbd 1fb2 d93c 787c a43d 94b8 7cbc
000000e0: 2a93 cbbc a4d1 c13c 8800 853c 17e6 92bd
000000f0: 9d7b ce3a c3f5 2dbc e54c 143d ac57 b83c
00000100: 606f 7abd 9348 023d cdde 9e3d 359e 393d
00000110: e6b3 c83c d6bc 4ebd 4707 03bd 3f8f cc3c
00000120: e221 7abc 9554 113c 8cd5 38bd 0392 e53c
00000130: 6727 27bd 3927 1f3d 8eac 0fbd 0df0 0b3d
00000140: bee0 99bd 5e10 943c b971 d7bc ac87 3e3d
00000150: 01fc 9fbc a5c6 5fbd 7d51 8a3d f006 533d
00000160: 1686 8bbd 11b5 2a3d cdd7 63bd 2580 ea3c
00000170: 1ffb c53c 0a75 753d 42ab 94bd 148f d0bc
00000180: 7f0b 7bbc 420e 4bbd d1f4 fdbc 46ed a43d
00000190: 4dd3 d93c 6758 9bbc b7a5 013d 712f 2d3d
000001a0: 8742 4abc 08ea afbd df12 6ebc 7a8f cb3c
000001b0: 24d7 e13c 49d2 6abd 26da dabc d656 963d
000001c0: 1027 d4bd aa33 16bc 40c2 53bd 366f 0fbc
000001d0: 681c 3cbc c3bc 6bbd 6dd1 8cbd 45cd 3a3d
000001e0: c0a4 773d 4f77 8dbd 2e09 5d3d bb24 8ebd
000001f0: 5aa5 e7bc b825 c3bc d021 4b3d fde6 8bbc
00000200: 00b7 303d 3da9 25bd b0cb 25bd 9150 433d
00000210: 7e4c 32bc c254 6d3c ff48 0f3d 0d6c a53a
00000220: 1ea6 c03c 5a7f 33bd 0a3d 08bd 6335 a0bc
00000230: 5bc7 8b3c df04 02bd 566c c73d 9214 0fbd
00000240: bee9 33bd d317 453d df71 f83c e50a c1bd
00000250: 2617 3cbd 5acc 9a3d 30c0 c4bc 953b c2bd
00000260: e7e3 13bd 52e0 623d bf16 8e3d de7a 983d
00000270: 5016 953c cdf5 803d e9ba c9bd 642d 3abb
00000280: 8ca8 f23c 3076 4e3a ef5b 373d 4665 b53c
00000290: a673 6bbd bd32 04be 7c1c 8a3d eb21 08bd
000002a0: 16ad 91bd 9828 de3c b4a6 80bc 4ed0 3ebd
000002b0: b0b4 83bb a46e 98bc 4f67 db3b 54b0 e23c
000002c0: abd7 663d f1f7 8a3c 5300 503c cfc5 f43a
000002d0: 40aa 06bd 1cd6 c8bc 69a0 b83d 4a58 42bc
000002e0: 49c3 4ebc 7d42 863d 7fb3 24bc 726c 933c
000002f0: 2ecc 39bd 11e9 33bb 2813 d33d 7303 69bb
00000300: 9fde 89bd f2d6 bdbb 27be b0bc 8744 faba
00000310: 058d 573d 4f16 453b 75c0 1c3d 78d1 363d
00000320: 03f5 8d3d 2f5d b2bd 1eed b1bd cc2c b43d
00000330: 3955 2b3d 56d6 bf3b 0b30 4f3a a446 4d3d
00000340: e338 bb3c 018b 953d d15e acbb 77a1 d3bd
00000350: d24b 113d 5510 f0bd 21bd 8a3c 413e 47bd
00000360: 820d d9bc c010 48bd 48f3 c3bb 73cd 6dbc
00000370: 0bac d8ba d2da 58bd 39a7 98bc 4675 843d
00000380: e2fe 5bbc 436a 283c 8345 7cbd 8ad8 ad3b
00000390: 5fc5 b3bd 7eac 14bc 1cb6 3d3d 869a dd3b
000003a0: 345e 5f3d 4874 c63c 6206 19bd ff7d 8a3d
000003b0: 4dc9 933c 081f f6bc 3cbb ca3d 43d5 8cbd
000003c0: c06d 13bd 8050 7abc 0819 a4bc 4a8b 5abd
000003d0: ab33 d23a c655 7f3d 4b9d dabc 5815 853c
000003e0: 021f 1fbb 421f e53b 38f1 ac3d bea2 7c3c
000003f0: dc45 16bd 1c1b 973c 0c9b 743d 9b95 463d
0.037095815 -0.060807586 0.0090439115 0.0114414375 -0.03585953 0.17766859 0.047012135 -0.0070240526
-0.059962 0.03038065 0.011797782 0.023284793 0.055736907 -0.041373868 -0.027835373 -0.03426026
-0.04359826 -0.0081671225 -0.101132564 -0.037208002 -0.021848159 0.009394895 -0.034010325 -0.037392583
0.046574257 0.0040347334 0.0091568185 -0.0016437132 0.0793613 0.06734561 0.045977086 -0.012972192
0.050375316 -0.024542172 -0.070856705 -0.011059719 -0.0022628456 0.03713474 -0.024669036 0.04790174
0.087704875 0.01166831 -0.01685145 -0.06445188 -0.032474764 -0.010293972 0.028026756 0.008461425
-0.0037524782 0.07028587 -0.061178733 0.02594495 -0.054619916 0.026574193 0.08031553 -0.015424866
-0.024850447 0.023659535 0.016235605 -0.071727924 0.0015753392 -0.010617676 0.036206145 0.022502743
-0.06114137 0.031807493 0.077573396 0.045316894 0.024499845 -0.050473057 -0.031989362 0.024970649
-0.015266867 0.008870264 -0.04512553 0.028023725 -0.04080906 0.038855765 -0.03507667 0.034164477
-0.07513569 0.01807421 -0.026299344 0.046516106 -0.019529345 -0.0546328 0.06753824 0.051520288
-0.06812684 0.041676585 -0.055625726 0.028625557 0.024167595 0.05992607 -0.07259227 -0.02545885
-0.015322565 -0.049574144 -0.031000527 0.08053069 0.026590014 -0.018963052 0.03165218 0.04228157
-0.012344963 -0.0858956 -0.014530866 0.024848688 0.027568407 -0.05732945 -0.02671535 0.073407814
-0.10359013 -0.009167591 -0.051698923 -0.008754542 -0.011481382 -0.057553064 -0.06875882 0.045605917
0.060459852 -0.06907522 0.053963833 -0.069405995 -0.028277088 -0.023821697 0.049592793 -0.017077917
0.043143272 -0.0404446 -0.040477455 0.047684256 -0.010882495 0.01448554 0.034981724 0.0012620703
0.02351671 -0.043822624 -0.033261336 -0.019556707 0.017062834 -0.031742927 0.0973746 -0.034931727
-0.043924086 0.048118424 0.030327735 -0.09425906 -0.045920514 0.07558508 -0.024017423 -0.094840206
-0.036106016 0.05538971 0.06937932 0.0744531 0.018199116 0.06296883 -0.098501034 -0.0028408403
0.029621385 0.00078758877 0.04476541 0.022143018 -0.057483338 -0.1290998 0.06743714 -0.03323547
-0.07113092 0.027118966 -0.01570449 -0.046585374 -0.0040193424 -0.018607445 0.006695665 0.02767197
0.05635802 0.01696393 0.01269539 0.0018674674 -0.032877207 -0.024516158 0.09014971 -0.01186187
-0.012619802 0.065556504 -0.010052561 0.017996047 -0.045360737 -0.002745215 0.10306388 -0.0035555034
-0.06731915 -0.0057934457 -0.021575047 -0.0019093909 0.05262472 0.0030073111 0.03826948 0.04463336
0.06931498 -0.087091796 -0.08687805 0.08797607 0.04182932 0.0058544083 0.00079035823 0.050116196
0.022854274 0.073019035 -0.0052603264 -0.10333531 0.0354727 -0.11721865 0.016935887 -0.048643354
-0.026495699 -0.0488441 -0.005979929 -0.014514315 -0.0016530765 -0.05294306 -0.018634425 0.06467681
-0.013427468 0.010279241 -0.06158973 0.0053053545 -0.0877788 -0.0090743285 0.04631625 0.0067628054
0.0545332 0.02422537 -0.037359603 0.06762313 0.018040324 -0.030044094 0.098989934 -0.06876614
-0.035993338 -0.015277982 -0.020031467 -0.053355493 0.0016037127 0.06233766 -0.026686331 0.016245529
-0.0024279957 0.0069922516 0.08444446 0.01541966 -0.036687717 0.018445544 0.059718177 0.04848252

conv_layers.2.bias f4 [64]
00000000: 44ad acbd f1f1 4b3c 0939 173d fb7f 993d
00000010: 168b 78bd 9d24 debd bd5f cabd 2546 c43b
00000020: a52b 443d 206e 8ebc a0fd e23d 85f4 b9bd
00000030: f5c1 893c 9547 b4bd 8d2d 07bd a99d 253c
00000040: 3023 32bd f59e 023d d386 9cbd e021 c43b
00000050: 6ad2 45bd d1a1 abbd 2e50 283d f10b 963d
00000060: ed5a 503d 8e3e 16bd d0a4 c5bd 8b91 0a3d
00000070: 3e6f b7bc fb12 9c3b 5dcd c0bd b938 463d
00000080: 51a6 9b3d 0229 583b 551c e2bd 8305 2dbd
00000090: 37f8 d03b 0a4a 81bc 4294 19bd 2ce3 e5bc
000000a0: 5d5e b0bd f19c a43d 04a6 2b3c d759 923c
000000b0: 16fb 853d 2a94 ecbc f6f3 f6bd ba91 0bbe
000000c0: 8e2f bc3d 28f8 81bc a597 8dbd 5364 0abd
000000d0: 2047 fe3a da61 2cbc e913 3e3d 84ae a63d
000000e0: 78b1 353d 770e 85bb 653f 10bd da1c e43c
000000f0: d43f 19bb 5985 62bd 6724 093d 2740 b93d
-0.08431485 0.01244782 0.036919627 0.074951135 -0.060679518 -0.10846827 -0.09881542 0.005989807
0.047893185 -0.017386496 0.110835314 -0.090798415 0.016816119 -0.08802716 -0.033002425 0.01010839
-0.04349059 0.031889874 -0.07642903 0.0059854835 -0.04829637 -0.083804734 0.04109209 0.073264964
0.050867964 -0.03668075 -0.09650576 0.033830207 -0.022391912 0.004763005 -0.0941417 0.04839394
0.07600082 0.0032983427 -0.1104056 -0.042241585 0.0063772458 -0.015782375 -0.037494905 -0.028062426
-0.08611748 0.08037747 0.010476593 0.017865105 0.065420315 -0.028879244 -0.120582506 -0.13629809
0.09188758 -0.0158654 -0.069136895 -0.033787083 0.0019399859 -0.0105213765 0.046405707 0.08138755
0.0443587 -0.0040605622 -0.035216708 0.027845789 -0.0023383992 -0.05530295 0.03348198 0.09045439

conv_layers.3.weight f4 [64, 256, 5]
00000000: e505 72bb e079 82bd 2549 073b 2711 2bbc
00000010: 3799 6d3c 8cc3 523c dad6 c43c 7f19 e3bb
00000020: 3a5e ee3c d308 863b 8e27 963d c2ac d43c
00000030: 5ee8 85bd 15b0 b23c e030 29bd 4f8c 7c3b
00000040: 7fb4 d0bc efd2 8fbc d699 5bbc 6549 42bd
00000050: b48a 953c c601 9f3c ea43 b1bc 5d1d 3dbb
00000060: baa3 21bc a1b7 debc 1fe8 b23a 15d8 7d3d
00000070: b0e0 13bd 2b18 0cbd c085 013d 0a7a 0c3d
00000080: e7c1 9a3d 4347 e03c 79e5 ebbc a0dd 293d
00000090: 16ef ed3c 148a 523d ebba d73b 6a8f 3dbd
000000a0: 3284 a1bc bfb0 b13c 95a1 dabb 27fd a5bd
000000b0: 921e 3d3d ad23 d43c cda2 6bbb e940 023c
000000c0: d997 7b3d 4e64 4fbd 644d 96bd 9026 f63c
000000d0: 23d6 6dbd de3b a1bb 92d1 5fbd c3b7 1f3d
000000e0: 902a 133d f162 aabb 7093 72bc bd81 b83b
000000f0: 301b 023d fa3f a9bd ef6b 933d 1ca6 f3bc
00000100: dd83 18bd d18c a6bc 7d15 5b3d 30b1 6f3c
00000110: 29d1 c6bc bdf7 58bd 4cd0 b03c 8e3e 413d
00000120: dc71 43bd 06a9 a9bd b498 d1bc 6afe ea3c
00000130: 150b d53c 6ee7 56bd 1ce4 b9bd 2db6 08bd
00000140: b31e 16bd 427c 8cbd 1f63 c1bb 3039 b93d
00000150: a020 72bd cd40 ea3c 0c6b fbbc adf3 24bd
00000160: 4dc1 babd e4b2 4fbb 3b09 883d 180b fbbc
00000170: 0d80 a1bc 4f33 193d 8f66 843d 6414 a53c
00000180: 0f77 8abc 322c 62bd ba26 01bd c9bd 513b
00000190: e277 863c 09fc 15bd 176e 53bd ea00 643d
000001a0: f05b 623c 5137 3ebd de46 42bc d62c 23bd
000001b0: 4093 963b 5406 7fbd 0cbb f2bc afcd 013d
000001c0: d8e5 3fbd c09b 23bd 0464 03bd fd92 0b3d
000001d0: e165 053d 6a93 403c 5860 6f3c 4369 703c
000001e0: 0114 0dbd 084b 573a 75a8 3cbd 4b83 153d
000001f0: 197a 0e3b ef46 d93c 1070 57bd 2dc4 cdb8
00000200: c29b 843c 07a7 2abd a916 c03c 6e90 b7bc
00000210: bf78 ccbd c7a3 14bc fff6 78bd 2928 e8bc
00000220: bd1c 9bbd 99bd 3dbd d7a4 0f3c 1b26 0338
00000230: 8fe1 e2bc f7c1 16bd 02b4 42b9 6de4 62bc
00000240: 288b 2c3b 453c 47bd 87ac 4b3d 6a1b 94bc
00000250: e357 823c 1a11 bfbc 7289 033d afe7 b4bc
00000260: 7fe8 ddba 7863 483b c2df 87bd 44a8 293d
00000270: 118e 5a3c 208d 783c 1c84 5239 6dd1 803a
00000280: 92a6 78bd 5576 153c 0c10 183d 7e1d 983d
00000290: da46 52bc b090 703d 87ca 3bbd b049 1cbc
000002a0: af66 003d 1cda 163d 7470 14bd db56 0f3d
000002b0: 5b5c c5bc cc46 953d 1014 fdbc a966 19bd
000002c0: 1e16 193b 4273 623c 6ace 46bd deab 743d
000002d0: c7b7 1bbc eb8f e23b b9bf be3c 90db 473c
000002e0: 252b 49bd e35c 2bbd 9f41 85bd bf19 b33c
000002f0: 032d 89bd 51bd e53b 9a54 1c3d 55ba af3b
00000300: 48f9 e03b 6cd6 aabd c9c6 0bbd 34ec 9d3c
00000310: 9fd6 88bb ac43 133d ff7d c53b 0093 35bc
00000320: efd5 823b 2870 843d 08a6 a5bb f634 5fbd
00000330: efe5 c33c f351 47bb dbeb a5bb 8d43 2e3d
00000340: 0971 dabc ad0c fd3c cbfd c23c 72b3 be3c
00000350: a384 0b3c bbcf 38bc c64c c6bc ad52 f43c
00000360: d191 45bd cb30 0c3d f1cd f9bc 2c3c ed3c
00000370: 4e8c 673d d722 2a3d 0f04 443d 0c09 5a3d
00000380: 056b c8bd c930 833c 9ab7 a4bc d3d7 1ebb
00000390: a9ba b23c 866f 09bd 3ce9 eb3c 8b60 723d
000003a0: e797 da3c 9954 a3bc ae83 51bc 5e5a bb3d
000003b0: 15f3 e9bc 0c70 673d 6f2e d03d 1c5f 4ebd
000003c0: a974 1fbd 5d4e 853d 0c6c 4ebc 1f04 76bc
000003d0: c899 013c c1f3 643d 695d eabc 3b7a 0bbd
000003e0: ad04 a2bd fc89 b6bb 19d0 8abc f637 2abc
000003f0: af59 46bc e3f3 513d 5f2e 59bd bbf9 d53b
-0.0036929783 -0.06370902 0.0020642963 -0.010441101 0.014501861 0.012864005 0.02402823 -0.0069305296
0.029097665 0.0040904074 0.07331763 0.025961284 -0.06538461 0.021812478 -0.041306376 0.003853578
-0.025476692 -0.017556636 -0.013403377 -0.047433276 0.018254615 0.019410025 -0.02163883 -0.0028856613
-0.009865696 -0.02718717 0.00136495 0.06197365 -0.03610295 -0.034202736 0.031621695 0.034296073
0.07556515 0.02737773 -0.028795945 0.041471124 0.02904467 0.051401213 0.0065835617 -0.04627935
-0.019716356 0.021690724 -0.006672094 -0.081049256 0.046171732 0.025895918 -0.003595519 0.007950046
0.06142411 -0.050632767 -0.0733898 0.030047685 -0.058065545 -0.004920467 -0.05464322 0.03899361
0.035929263 -0.005199783 -0.01480566 0.0056307004 0.03176421 -0.08264156 0.07198321 -0.029742293
-0.03723513 -0.020330818 0.05348729 0.014629647 -0.024269657 -0.052970637 0.021583699 0.047178797
-0.047716007 -0.08284192 -0.02558551 0.028685767 0.02600626 -0.052466802 -0.090767115 -0.03337686
-0.03665037 -0.06859638 -0.0059017087 0.09044111 -0.059113145 0.028595353 -0.030690692 -0.04027145
-0.091189004 -0.003169232 0.066423856 -0.030644938 -0.01971438 0.037402447 0.06464874 0.020151325
-0.016902475 -0.05521793 -0.031531073 0.003200399 0.016414586 -0.036617313 -0.05161866 0.055664934
0.013815865 -0.046439473 -0.011857716 -0.03983768 0.0045951903 -0.062261894 -0.029630207 0.031690296
-0.046850055 -0.039943457 -0.032077804 0.034075726 0.032567862 0.011753896 0.0146103725 0.014673534
-0.034442905 0.00082127796 -0.04605909 0.036502164 0.0021740256 0.026523082 -0.052597106 -9.811702e-05
0.016187552 -0.041663196 0.023448305 -0.022407737 -0.09983968 -0.009072251 -0.06078243 -0.028339462
-0.07573841 -0.046323393 0.008767328 3.1268322e-05 -0.027695445 -0.036806073 -0.0001856834 -0.013848406
0.002632806 -0.048641462 0.04972508 -0.018079478 0.015911048 -0.023323584 0.0321135 -0.022083132
-0.0016930251 0.0030576866 -0.06634475 0.041420236 0.013339535 0.015170366 0.00020076375 0.0009828039
-0.06070573 0.009122451 0.03712468 0.074275 -0.012834275 0.058731735 -0.045847442 -0.009539053
0.031347927 0.0368291 -0.036240056 0.03499494 -0.02409189 0.07288894 -0.030893356 -0.03745142
0.002335913 0.013821425 -0.048536696 0.059734218 -0.009504265 0.006914129 0.02328478 0.012198344
-0.04911341 -0.04183663 -0.06506657 0.021862863 -0.066980384 0.0070110937 0.03816662 0.0053627887
0.006865654 -0.08341679 -0.034125123 0.01927767 -0.0041759755 0.03595321 0.006026983 -0.011082411
0.003992788 0.064667046 -0.005055193 -0.054493867 0.023913352 -0.0030413836 -0.0050635166 0.04254489
-0.026665227 0.030889833 0.023802659 0.023278926 0.00851551 -0.011279996 -0.02420653 0.02982458
-0.048234764 0.03422622 -0.030493708 0.028959356 0.05653029 0.041537132 0.047855433 0.053231284
-0.09786037 0.016014474 -0.02010708 -0.0024237528 0.021817522 -0.033553623 0.028797738 0.0591741
0.02668376 -0.0199378 -0.012787743 0.091480955 -0.028558293 0.05650334 0.101651065 -0.050383672
-0.038929615 0.06509087 -0.012599003 -0.015015631 0.007910199 0.055896524 -0.028608995 -0.034052115
-0.07911048 -0.0055706482 -0.016944932 -0.010389319 -0.012106343 0.05125798 -0.05302274 0.0065300143

conv_layers.3.bias f4 [64]
00000000: 2f65 4dbe f519 bdbc 3749 413d e3ad a5bd
00000010: fe86 15bd f452 1b3b 39c1 7abd 222d 3fbc
00000020: c1df e53c 404e 1dbe bff1 60bd b30a 9e3c
00000030: 60ac c23c 2027 ecbc 6950 563d a5a1 e4ba
00000040: 3aa1 a2bd 3d63 61bd 0b87 07be 8331 85bd
00000050: d569 2bbd 44a4 39bc 9087 95bc 1dd2 463c
00000060: fa89 80bc 6aa8 46ba 05e4 973d 2245 e4bb
00000070: 2b96 c5bd fae5 0e3c 8cd5 3cbd 6ba6 943c
00000080: 244c d43d d8c9 08bd 9a43 28bc c80b a13d
00000090: 7b40 183c f57a f1bc 7606 863d 7c12 7fbd
000000a0: 18f7 a63d 074e 623c abfe 303c f3ca 643d
000000b0: 2297 553d d974 b0bd 3cdb b33d 6496 8fbb
000000c0: 8089 5e3d 8677 983c e7c7 90bd bc86 75bd
000000d0: f68c 1abd 883c 1dbe b997 313d 37fc 97bc
000000e0: 9e9b 9fbc 4601 11bd 4c0f 433d 3ecd 89bd
000000f0: 159b be3b f7c8 8ebc 2e65 1f3d 8b3c 813b
-0.2005813 -0.023083666 0.047188964 -0.08089807 -0.03650569 0.0023700567 -0.061219428 -0.011668475
0.028060796 -0.15361881 -0.054918047 0.019292211 0.023763835 -0.02882725 0.05232278 -0.0017443193
-0.07940908 -0.05502628 -0.13235109 -0.06503584 -0.041848976 -0.011330668 -0.018253118 0.012135056
-0.015690792 -0.0007578196 0.07416538 -0.006966249 -0.09647783 0.008721823 -0.04610209 0.01814576
0.10366085 -0.03339562 -0.010270024 0.07863575 0.009292717 -0.029477576 0.06544201 -0.062273487
0.08152598 0.0138125485 0.010802905 0.05585761 0.052146085 -0.08616037 0.0878205 -0.0043819416
0.05433035 0.01861168 -0.07069378 -0.059942946 -0.037732087 -0.15355122 0.043357585 -0.018552883
-0.019483384 -0.035401605 0.04762201 -0.067286 0.005816827 -0.017429812 0.03891485 0.003943985

fc1.weight f4 [64, 256]
00000000: a2a1 26bd c78a 5b3c 8e4e 51bc c8e7 22bc
00000010: 806e 83bd b00a ae3c 9417 573d 52ae b9bb
00000020: 7eb6 1bbd 5c23 4bbc 0687 dbbc ee07 67bd
00000030: bff7 a9ba a80d 5ebd c175 133d afa6 29bd
00000040: 6279 43bd b03d aabc b187 1e39 6f8d 9e3b
00000050: 5240 99bb eff7 a23c 53dc a63b 0a5b 8ebd
00000060: 7773 193c 655b 5bbd 1b4d 3c3d dc18 15bd
00000070: 48c1 b13c e331 273c a93f 78bd 87ac 22bc
00000080: b342 26bd fef4 57bc 8ce3 8dbd 26b6 e83c
00000090: a416 27bb 681a 98bd f359 82bd f89f da3c
000000a0: 9d3e 0cbb b6a8 09bc 1e1d 6c3d 2288 c6bc
000000b0: 99a1 20bd 8f11 ecbc 5004 8b3c d999 bfbc
000000c0: a512 a3bd 34f2 2aba ff11 cdbc 2c79 20bd
000000d0: 2522 10bd 8d51 b63c cec2 363d ab0e ddbc
000000e0: f3e2 82bc 6677 433d 7ea2 7b3c 00fa 8d3c
000000f0: 2320 e83b 8a75 94bd ea50 ddbc a7b8 d03c
00000100: 3fac 02bd fa6f 543c 72e0 153d c0b5 63bd
00000110: 745a 00bc ff25 cc3c 9e75 64bd 6d47 243c
00000120: e6f1 60bc e64a 15bd 35f8 b5bc f4b1 1dbd
00000130: b305 e43a 668c 173d be29 debc eb07 0a3d
00000140: a26c fa3c 2b80 21bd d90f e13b 2360 48bd
00000150: 6e83 70bc 64dd 093d 4fb6 2b3c bc0f 403c
00000160: 808e cdbc a810 343c fd93 dd3c c524 46bd
00000170: 0cf1 5eba bf78 7cbd 3edf 6ebc 214f 673d
00000180: f6cb ee3c edd5 543d a8be 31bd 6780 20bc
00000190: 84ce 933c b5dd 1abd 442b ad3c f016 f43b
000001a0: c8ec 383c d65f 4c3d 9725 97bd 07ce 6cbd
000001b0: a852 f53a 7d5c 64bc ba9d 3dbd b69f a0bc
000001c0: aded a6bb 9229 7b3c 4ede 393c 6039 08b9
000001d0: 8759 81bd 7f12 573c f534 cabc bad0 aebb
000001e0: b433 c1bc ba83 32bd aa27 883c 6fa9 d13c
000001f0: 012b 1ebd 87ed 61bd 8605 e23b f7fc a6bc
00000200: ac1c 7fbd d744 2a3d 5a82 cbbb c934 c13c
00000210: 747f 5abd 4bd6 80bd 0120 b9bc 1bc1 223d
00000220: e03a b23c c5b5 42bd b9a8 b03b 3597 0e3c
00000230: c7d5 9abd cba6 2dbc ffba f13a 614e a6bc
00000240: c505 383d cb91 433d 4f55 2b3d 7f93 043d
00000250: ccbb aabb 4935 383b 8373 75bd 6267 07bd
00000260: 79e2 66bd a861 3a3c c8ba bcbc 6a80 80bb
00000270: 293b 94bc cc2e 84bd 20f8 0d3d 900d 42bd
00000280: 040e 483d 9a30 203d bf43 02bd 0939 b8bc
00000290: 1b9a 2bbd 1afb 65bd 9d19 33bc 711e 81bd
000002a0: f3f7 283d 8552 173c e482 54bd 4c7f a8bc
000002b0: e9c4 23bd 11be 86bc 0e3f 6abd ee59 6f3d
000002c0: 8351 d7bc eb0a b13b 164a b5bc 929a 083d
000002d0: c668 233c 984b 9ebc 6d1c ff3c ec3b 3fbd
000002e0: 789e 1cbd 29f4 89bd 0e7f c4bc 3bef 85bd
000002f0: bca7 93bd 04a4 fe3b 041f 43bb 6d3c b23b
00000300: bf59 8b3c 7c00 00bd f455 aabd 9cd4 13bd
00000310: 7aa0 0ebd 4b81 72bd d2e3 66bc 2176 f5b9
00000320: dcbe 103c d95e 81bd 551f 92bb d737 1b3d
00000330: 6f15 453d ffbe 81bd 15f3 acbc 431c d63b
00000340: 854d eabb cb9a 2a3a 00d6 9c3b 4001 523d
00000350: 7a56 d23b 61fd b1bd b2fa c039 3353 8abd
00000360: 74c8 4b3c 49bd 94bb 4399 edbc efff 0ebd
00000370: 30cb 163d 2db3 0d3c 266f 4c3d 6c87 6ebc
00000380: dee9 6f3c e3f9 233d 0772 d8bc cda3 2ebd
00000390: bdd1 37bd 4975 dc3b 0d0e 9bbd 5bbb 653c
000003a0: 8d46 bdbc 69f7 2a3c 5d1f 37bd a9e0 cdbc
000003b0: a0b5 0cbd d7d9 c2bc e444 983b 6eac 46bd
000003c0: 41b8 cb3c 0efe 23bd 5f9f 18ba 80cd 37bd
000003d0: c34f 37bd 7e99 10bd 830b e03c 2d80 553d
000003e0: 55d0 b8bc 225e e3bc 3133 38bd e667 78bd
000003f0: 655d 553d c92e 28bd a29c 1d3d c80e b53b
-0.04068149 0.013399786 -0.012775077 -0.009942956 -0.064175606 0.02124533 0.05251272 -0.0056665326
-0.038015835 -0.012398567 -0.026797783 -0.056404047 -0.0012967511 -0.054212242 0.03600097 -0.041418727
-0.04772318 -0.020781368 0.00015118603 0.0048386375 -0.004676857 0.019893615 0.0050921827 -0.06950958
0.009365908 -0.053553957 0.04597197 -0.03640066 0.021698609 0.010204765 -0.060607586 -0.009928829
-0.040590953 -0.013180969 -0.06928167 0.028407168 -0.0025495673 -0.074269116 -0.06364813 0.026687607
-0.0021399625 -0.00840204 0.057644956 -0.024234835 -0.03921661 -0.028816966 0.01696983 -0.02338879
-0.079625405 -0.00065210764 -0.025032995 -0.03917806 -0.035188813 0.022255683 0.044619374 -0.026984533
-0.015977358 0.04772129 0.015358565 0.017331123 0.007083909 -0.07248981 -0.027016122 0.025478674
-0.031902548 0.01296615 0.036591 -0.055593252 -0.007834066 0.024920462 -0.05577623 0.010026795
-0.013729548 -0.03644838 -0.02221308 -0.038499787 0.0017396718 0.03699913 -0.027119514 0.033698957
0.030569378 -0.03942887 0.0068683443 -0.048919808 -0.014679773 0.0336584 0.0104804775 0.011722501
-0.025092363 0.010990299 0.027048105 -0.04837491 -0.0008504547 -0.06163859 -0.014579592 0.056471948
0.02914999 0.051961828 -0.043394715 -0.0097962385 0.01804281 -0.037809093 0.021138795 0.0074490234
0.011286922 0.049896084 -0.073802166 -0.05781367 0.001871665 -0.013938067 -0.046292998 -0.019607406
-0.005094251 0.015329735 0.0113445055 -0.00012991345 -0.06315904 0.013126968 -0.024683455 -0.0053349407
-0.023584224 -0.043582655 0.016620476 0.025593488 -0.03861523 -0.055158164 0.006897631 -0.020384295
-0.062283203 0.041569557 -0.0062106075 0.02358474 -0.053344205 -0.06290873 -0.022598268 0.03973494
0.02175659 -0.04753663 0.005391207 0.008703043 -0.07560306 -0.010598849 0.001844257 -0.020301046
0.044927377 0.04774646 0.041829403 0.032367226 -0.0052103754 0.0028107932 -0.059924614 -0.033057578
-0.056368325 0.011375822 -0.023038283 -0.003921558 -0.018094616 -0.06454238 0.03466046 -0.047376215
0.04884149 0.03910885 -0.03180289 -0.022488134 -0.041895013 -0.056147672 -0.0109314 -0.06304634
0.041252088 0.009235983 -0.05188264 -0.020568512 -0.03998271 -0.016448053 -0.05718904 0.058435373
-0.026283985 0.005402913 -0.022130053 0.033350535 0.00997371 -0.019323155 0.031141484 -0.046688005
-0.038237065 -0.06736023 -0.023986366 -0.0653977 -0.07209727 0.007771017 -0.0029773125 0.005439332
0.017010568 -0.031250462 -0.083171755 -0.036091432 -0.03482101 -0.059205335 -0.0140924025 -0.00046818054
0.008834567 -0.06316919 -0.0044593015 0.03789505 0.048116144 -0.06335258 -0.021112004 0.006534131
-0.0071503543 0.00065080513 0.004786253 0.051270723 0.006419 -0.08690906 0.00036807876 -0.0675415
0.0124379285 -0.004539166 -0.029003745 -0.034912046 0.03681487 0.008648676 0.049910687 -0.014558654
0.014643161 0.040033232 -0.02642156 -0.04263668 -0.044877756 0.0067278487 -0.07571039 0.01402172
-0.02310493 0.010434964 -0.044707645 -0.02513154 -0.0343529 -0.023785515 0.0046468843 -0.048504286
0.024868133 -0.040037207 -0.0005822088 -0.044873714 -0.0447538 -0.03530263 0.02734924 0.05212419
-0.022560278 -0.027754847 -0.044970695 -0.06064596 0.05209102 -0.041060243 0.038479455 0.0055254437

fc1.bias f4 [64]
00000000: ef5d 4cbd 695e 74bd 3c4e 783c 3fc5 e33c
00000010: 9915 343d ca1b 933c 0bad 9a3d cf79 e93d
00000020: 64d3 af3b 4da1 d03d b7c4 b23c 256e 873d
00000030: 106a 57bd 57ae 413d aa3e 9f3c c8ac 233d
00000040: 0408 95bc 855e f93b b8a8 573d 2dd1 ba3d
00000050: 3b51 f0bb bb69 443c d29c cc3d 29e8 d23c
00000060: eb6f 5fbd b847 313d 0ebc 8a3a 418b a63c
00000070: 3087 e53d dc63 34bd d9e6 6dbd ac34 413c
00000080: 09a3 4abc 725c ef3d 16d8 afbd 7289 ad3d
00000090: 6634 7dbc a861 1cbd f05f 9d3d bbf8 21bc
000000a0: 4590 4f3c 9e45 36bc a19f a03c b3b5 f13b
000000b0: b823 133e 111d 78bd 1c12 e8bc 5239 063e
000000c0: b415 ef3d 82a4 8cbd 3569 d13c aeeb 92bd
000000d0: 71c1 d83c 9077 4b3d dab1 903c eb64 193d
000000e0: 63a6 f53c 2520 c93d 55a4 68bd fe1d 4b3d
000000f0: d93a 653d 2d0d d73c 9c0a 69bd 83d5 2dbc
-0.04989427 -0.05966035 0.015155371 0.027804015 0.04396591 0.017957587 0.075525366 0.11400186
0.005365776 0.10187016 0.021822317 0.06612805 -0.052591383 0.047285404 0.01943906 0.0399597
-0.018192299 0.0076101446 0.052651137 0.09121928 -0.007333902 0.011988099 0.099908486 0.025745468
-0.054550093 0.043281287 0.0010584609 0.020330073 0.112074256 -0.044040546 -0.05808148 0.011792343
-0.012367972 0.116875544 -0.08586137 0.08473481 -0.015454387 -0.03817907 0.07684314 -0.009885962
0.012668674 -0.0111249965 0.019607367 0.0073763966 0.14369094 -0.060574595 -0.028328948 0.13107803
0.116740614 -0.06867315 0.025562862 -0.071738586 0.026459428 0.04967457 0.017662931 0.03744976
0.029986566 0.09820584 -0.056797344 0.04958915 0.055964325 0.0262514 -0.056894884 -0.010609987

batch_norm.weight f4 [64]
00000000: bf80 773f 230f 7e3f 6f76 7e3f 2967 de3f
00000010: 4569 de3f 8c3f e93f 33e2 e03f 8980 da3f
00000020: 38f9 773f 2432 d73f 81e4 7b3f 2dfd e53f
00000030: 1c5e 7e3f e7b2 e43f c826 7d3f 6f76 7e3f
00000040: 2743 7e3f 8e75 7e3f ccf9 de3f 8132 cc3f
00000050: 023a e23f cfca cf3f a99e d13f 5c90 793f
00000060: bfa8 7d3f 1ed7 e13f ab83 7d3f 0e8c 783f
00000070: 28c0 d53f 0000 803f ec4f 7e3f 75dd 7d3f
00000080: b876 f13f d12e dc3f e793 783f 4605 dd3f
00000090: 532e dd3f 6d76 7e3f 500c c53f 200b 7b3f
000000a0: bc9b 803f e6df d73f 790b d93f e3f2 dc3f
000000b0: 48b1 ca3f 0987 7c3f 0000 803f 4050 d73f
000000c0: 49ba e33f 1696 7c3f 38e1 7d3f 9efb 7c3f
000000d0: da31 7e3f 0000 803f f21e 7d3f 5882 ca3f
000000e0: 1980 7e3f 0056 d43f 10e7 7a3f 59f6 d83f
000000f0: 9bc0 e13f 7276 7e3f a708 7d3f 592e 7e3f
0.96680826 0.99241847 0.99399465 1.7375232 1.7375876 1.8222518 1.756903 1.7070476
0.9686465 1.6812177 0.98395544 1.7967888 0.9936235 1.7867097 0.988873 0.99399465
0.99321216 0.99398124 1.7419982 1.5952913 1.7673953 1.6233767 1.6376544 0.974859
0.9908561 1.7643774 0.99029034 0.97088706 1.6699266 1.0 0.993407 0.9916604
1.8864355 1.7201787 0.9710068 1.7267234 1.7279762 0.99399453 1.5394382 0.9806385
1.0047526 1.6865203 1.6956626 1.7261623 1.5835352 0.9864355 1.0 1.6821365
1.7791225 0.9866651 0.9917178 0.9882144 0.9929482 1.0 0.98875344 1.5821028
0.9941421 1.6588745 0.98008823 1.6950179 1.7636904 0.99399483 0.9884133 0.9928947

batch_norm.bias f4 [64]
00000000: 3ba1 f43d 1c28 11be 3e63 2ebe 1753 f43b
00000010: d601 64be 4279 00bd 8d5c aebd 41d9 b2bb
00000020: 97f9 01be e12f d03d cb55 493e 249b 073e
00000030: b4b8 e43d 15be 513d 1472 fbbd 3f5f 45be
00000040: 7270 38be 71f7 1a3e 855b 38be 1477 f63d
00000050: 1057 d8bb 7b86 ae3d 0709 3e3c 74bc 0cbe
00000060: 7ff3 de3d c558 c43d affb 2d3e 3295 2fbe
00000070: bcb1 83be c54e 19be 8b72 1fbe 148c 40be
00000080: 8bcb 14bd 9e26 62bd c3b9 12be d362 6cbc
00000090: dc84 64be 595d 1f3e be1e eebc 6f0d 9fbb
000000a0: 817f 30be 2f9f 8dbd 608a 0fbe eb9b 5ebd
000000b0: feb7 f6bd 297b 11be 263c eb3d 8bb4 de3b
000000c0: 3ad4 023b bd5d cdbd d835 01be 63e2 263e
000000d0: 5001 1c3e b63e ea3d 6b8d 13be d8ee ae3d
000000e0: a6ec 0cbe 26af f03d 16fa 453e 51e1 0e3d
000000f0: 02a4 bd3d e890 133e 6a94 583e 6d0b de3d
0.11944815 -0.14175457 -0.17030045 0.007456194 -0.22266325 -0.03136564 -0.085137464 -0.0054580276
-0.12692867 0.10165382 0.19661634 0.13242775 0.11168042 0.051206667 -0.12277618 -0.19274615
-0.18011644 0.15133454 -0.18003662 0.12034431 -0.0066021755 0.08521744 0.011598832 -0.13743764
0.10886287 0.09587244 0.16990541 -0.17146757 -0.25721538 -0.14971454 -0.15571038 -0.18803436
-0.036326926 -0.05521261 -0.14328675 -0.014427858 -0.22316307 0.15562953 -0.029067393 -0.0048538963
-0.17236139 -0.069151275 -0.1401763 -0.054347914 -0.120468125 -0.14207138 0.11486082 0.0067964247
0.0019962923 -0.10027645 -0.12618196 0.16297297 0.15234876 0.114377424 -0.14409415 0.085416496
-0.13762149 0.11752157 0.19333681 0.034882847 0.09259798 0.14410746 0.21150365 0.10842023

batch_norm.running_mean f4 [64]
00000000: 5b6e 5f21 0400 0000 0400 0000 9d8d 8440
00000010: ae92 8340 48df cb3f d6c4 e03f 3cd4 ec40
00000020: 0400 0000 15f2 8040 0400 0000 d23e 413a
00000030: 0400 0000 68ad ac40 0400 0000 0400 0000
00000040: 0400 0000 0400 0000 6515 0f40 40d3 3740
00000050: 8623 b33f 861f 2b40 a146 6040 0cb4 7334
00000060: 0400 0000 c525 bc3f 0400 0000 0400 0000
00000070: f759 da3f 0000 0000 0400 0000 0400 0000
00000080: e0c7 8f3f b9df 913f 0169 f617 c80b 7c40
00000090: cdf4 923f 0400 0000 7847 1b40 0400 0000
000000a0: 1165 b702 57f3 0641 9d26 9740 2f1a af3f
000000b0: 4f72 7240 0400 0000 0000 0000 b0e4 7240
000000c0: 0d50 ab3f 0400 0000 0400 0000 0400 0000
000000d0: 0400 0000 0000 0000 0400 0000 fae2 8f3e
000000e0: 0400 0000 1fb2 9b3f 0400 0000 eae8 9740
000000f0: f513 8f40 0400 0000 0400 0000 0400 0000
7.5701393e-19 6e-45 6e-45 4.142287 4.111655 1.5927515 1.756007 7.4009075
6e-45 4.029551 6e-45 0.00073717267 6e-45 5.3961678 6e-45 6e-45
6e-45 6e-45 2.2356808 2.8722687 1.3995216 2.673799 3.5043108 2.2696639e-07
6e-45 1.4699026 6e-45 6e-45 1.7058705 0.0 6e-45 6e-45
1.1232872 1.13964 1.5923884e-24 3.938219 1.1480957 6e-45 2.426237 6e-45
2.6947443e-37 8.434409 4.7234635 1.3679866 3.7882268 6e-45 0.0 3.795208
1.3383805 6e-45 6e-45 6e-45 6e-45 0.0 6e-45 0.28102857
6e-45 1.2163733 6e-45 4.747182 4.471186 6e-45 6e-45 6e-45

batch_norm.running_var f4 [64]
00000000: b4e8 801f 0400 0000 0400 0000 68f1 8e40
00000010: 8a4e ee3f 7407 e53f d1a9 9f3f d8e1 de3f
00000020: 0400 0000 d940 1240 0400 0000 d913 db39
00000030: 0400 0000 582d be40 0400 0000 0400 0000
00000040: 0400 0000 0400 0000 7cf7 2440 6c70 2040
00000050: d10d eb3f 6921 da3f 844e 0c40 1dc6 e532
00000060: 0400 0000 e8d5 0340 0400 0000 0400 0000
00000070: c211 2d40 0400 0000 0400 0000 0400 0000
00000080: b97e a43f 96b4 a63f 559f a217 97e4 fb3f
00000090: 6989 883f 0400 0000 14a5 6a3f 0400 0000
000000a0: 906d 0202 d732 cb40 2721 b43f c9b6 b03f
000000b0: 72ae 2840 0400 0000 0400 0000 d3a4 db3f
000000c0: 0da1 a93f 0400 0000 0400 0000 0400 0000
000000d0: 0400 0000 0400 0000 0400 0000 d943 883f
000000e0: 0400 0000 cf82 943f 0400 0000 3d96 c93f
000000f0: 5019 0a40 0400 0000 0400 0000 0400 0000
5.4595084e-20 6e-45 6e-45 4.4669685 1.8617718 1.78929 1.2473699 1.7412672
6e-45 2.285208 6e-45 0.00041785723 6e-45 5.943035 6e-45 6e-45
6e-45 6e-45 2.5776052 2.5068617 1.8363591 1.7041446 2.1922922 2.67492e-08
6e-45 2.0599308 6e-45 6e-45 2.7042089 6e-45 6e-45 6e-45
1.2851173 1.302386 1.0509226e-24 1.9679135 1.0666934 6e-45 0.9165814 6e-45
9.582334e-38 6.349956 1.4072617 1.3805782 2.6356473 6e-45 6e-45 1.7159675
1.3252274 6e-45 6e-45 6e-45 6e-45 6e-45 6e-45 1.0645705
6e-45 1.160242 6e-45 1.5748974 2.157795 6e-45 6e-45 6e-45

fc2.weight f4 [2, 64]
00000000: dd9a a6bd 5eea bbbc 382f e2bd 8bf5 18bd
00000010: 4a99 4b3d dae1 e13d 99c1 9b3d dd3d 5dbd
00000020: 0d47 85bd 9f22 63bd 2478 9bbd 297d 153c
00000030: bd72 b03d f519 493d 37b0 893d 726b 69bd
00000040: 6f42 97bd 2848 d13c be8b e53d c089 c73d
00000050: 555f 283c 5c24 09bd 659e cf3b 1921 443d
00000060: af3f e7bc 58aa 04be 1e01 813d 4c44 aa3c
00000070: d295 14bd f5d3 f4bd 77cd 98bd ecc6 15bc
00000080: bad8 8dbd 6afb b9bd 8dcb bfbc 81e7 053e
00000090: f5f3 0abe 70b6 a9bd b14c ab3d a4e0 aebc
000000a0: 64af c43d 67d4 593d abdc 083d 5360 173e
000000b0: 7d6b 65bd 638c 11bd 3813 80bd 6c51 d6bd
000000c0: c8eb 763d bb85 a13d c734 863b 383b 693d
000000d0: 0378 10bd d5b1 ba3b 1692 9abd cf76 dc3d
000000e0: 0132 07be de7d 5fbd 357a c4bc 470d bb3c
000000f0: ca16 f13d c0e5 34bb f679 dabd 8448 ec3d
00000100: 356d 57bd 7f14 d33d aac0 d33d 7ba2 f1bd
00000110: 97b3 76bc a154 b2bc d133 6f3c 3184 e7bd
00000120: 61f4 393d 7474 e83b 6257 953b 6439 f4bb
00000130: 1ec2 a93d 41c0 f9bd 93ae ed3c 914e 9bbd
00000140: 76ad d1bd 555b b53c df93 cebd a90c 4cbd
00000150: 0f86 c3bd 7172 2a3d 8d79 e5bd 67c4 b33d
00000160: fdb9 2abd 3055 a03c 5784 eabd c4e1 e43d
00000170: f5fa ac3d be07 213d 391c dbbd 18d8 d33d
00000180: ca4c ae3d 6097 093e da79 b03d d02f dbbd
00000190: 7cef 613d 202b c83d 310b b83d 61dd adbd
000001a0: 54de a7bb 9adf 933d d9a4 ebbd ce1a 11bd
000001b0: 7051 6a3d 06ec 9dbd f303 ae3d c914 0a3d
000001c0: 2247 f33d 6a72 da3c 5753 8ebd e68a aabc
000001d0: 86a5 e8bd d148 af3d 2016 d33d 7d16 b9bd
000001e0: bfaf 833d ed59 0d3d 3bf9 83bd 5aa1 19be
000001f0: 6186 a5bd 921b d13c d8c8 bebd 9350 73bd
-0.081350066 -0.022938903 -0.110441625 -0.037343543 0.049706735 0.11029406 0.07605285 -0.054014076
-0.065076925 -0.05545294 -0.075912744 0.009124079 0.086156346 0.04909702 0.067230634 -0.056987233
-0.07385718 0.025547102 0.11208294 0.097430706 0.010276635 -0.03348194 0.006336021 0.047883127
-0.028228609 -0.12955606 0.06299041 0.02078452 -0.036275692 -0.1195449 -0.07461064 -0.009141665
-0.06926103 -0.090811566 -0.02341249 0.13076593 -0.13569625 -0.0828675 0.08364237 -0.021347351
0.096037656 0.05318108 0.03341357 0.14782839 -0.056010712 -0.035534274 -0.06253666 -0.10464749
0.060283452 0.07886835 0.004095647 0.05694124 -0.035270702 0.0056974688 -0.07547395 0.107648484
-0.13202669 -0.054563396 -0.023984054 0.02283348 0.11771925 -0.0027602762 -0.106677935 0.11537269
-0.052594382 0.10306644 0.10339482 -0.11798569 -0.015057466 -0.02176887 0.014599756 -0.113045104
0.045399074 0.0070939604 0.004557536 -0.0074531306 0.08288978 -0.12194873 0.029013908 -0.07583345
-0.10238163 0.022138277 -0.10086798 -0.04981676 -0.09547054 0.041613046 -0.112048246 0.08777695
-0.04168128 0.01957187 -0.11451023 0.11175874 0.08446304 0.039314024 -0.106987424 0.10343951
0.0851074 0.13436651 0.08616991 -0.10702479 0.05516003 0.097738504 0.089865096 -0.0848949
-0.005122939 0.07220383 -0.115060516 -0.035425954 0.05720657 -0.077110335 0.08496847 0.03371123
0.11878802 0.026665885 -0.069494896 -0.020818185 -0.11359696 0.085588105 0.103069544 -0.090374924
0.06430005 0.034509588 -0.06444021 -0.15002957 -0.08082271 0.025525842 -0.09315652 -0.059403013

fc2.bias f4 [2]
00000000: 0440 33bd 25d1 8c3d
-0.043762222 0.06875829
