models/ヨルシカ/classifier_fold1.pth (torch, 991011 bytes, 16 tensors)

conv_layers.0.weight f4 [64, 256, 2]
0.0022852907 0.041899472 -0.016911557 0.039858766 -0.020526415 -0.03696765 -0.08248443 0.056095853
-0.018629488 -0.046154816 -0.099394 -0.11768313 -0.019355582 -0.0035830773 0.04158993 -0.03484348
0.076758005 0.048511464 -0.016447164 0.01979328 0.026955916 -0.040329654 -0.0858375 -0.08436944
0.045728374 -0.029835409 0.021674557 0.017046997 0.012553022 0.007978667 0.0058905426 -0.009683527
0.06409255 0.07351535 -0.049145237 0.005298122 -0.0417179 -0.0011988071 -0.064650856 -0.040117856
0.05075278 -0.037251636 -0.026871227 -0.038222887 0.034650557 -0.00717302 0.032637563 0.021317108
0.024929019 0.07895555 0.107389934 0.029297853 0.028383736 -0.027168961 0.020840341 -0.0015798771
0.013491264 -0.007677734 -0.12779056 -0.009240125 -0.014501099 0.031137994 0.007920794 -0.05777594
0.07157763 0.07506372 0.01727664 0.06668447 -0.0403733 0.027227053 0.014954209 0.057561427
0.0073338784 -0.04797478 -0.029260943 -0.030954743 0.04930463 0.003432371 0.027546598 -0.028556447
-0.08207877 0.06956035 0.010752697 -0.03306763 -0.006528103 0.03883905 -0.06584933 -0.066173784
-0.06177407 0.012872581 0.04623157 0.020368777 0.0074520605 -0.06906852 -0.0034890415 0.0053097955
0.030546721 -0.0051333974 -0.1088509 0.0013481849 0.034797836 -0.050475236 0.0007795603 -0.051087633
-0.03438238 0.019671477 -0.04466464 -0.032426246 0.017176816 -0.050401147 -0.044966146 -0.039501145
0.03443402 -0.018466119 0.07855796 -0.001274485 -0.04894643 -0.032272004 0.020442838 -0.017595125
0.03594991 0.034820482 -0.07826222 -0.10604134 -0.036790807 0.03203149 0.050284125 -0.014841489
-0.031238416 -0.06401834 0.004275019 -0.0046170675 0.03504233 -0.065338634 0.0226735 -0.051311757
0.020006457 -0.07609696 -0.05510755 0.053585466 0.08827109 -0.08057974 0.05901775 -0.0037741386
-0.049345504 -0.003984168 -0.0063873744 -0.0016265841 -0.045124378 -0.023672607 -0.0791815 0.011010409
0.019692408 0.014435989 -0.020822024 0.08614947 0.0013342472 -0.06725219 -0.0068251444 0.014241694
0.025724431 -0.016177384 -0.034020163 -0.040000368 0.008132241 0.022283023 0.027762346 -0.03323951
-0.07139183 0.049506497 0.019090632 0.035591755 -0.033897527 -0.027147114 0.022143569 -0.01819242
-0.0013469466 -0.03389703 0.09942065 -0.046466444 0.08242183 0.08660434 -0.033141315 -0.02310695
-0.020088414 -0.033063937 0.053738534 0.03912362 0.016069282 -0.01901352 -0.050833896 -0.108798124
-0.05218213 0.00032358454 0.004144465 0.06450366 0.020918762 -0.017567692 -0.00297182 0.0054514282
0.027188756 -0.06860418 0.046134774 -0.07737505 -0.010265372 0.0068357256 0.020251151 0.07952663
-0.00523837 -0.03123189 -0.059950706 0.05075682 -0.070322886 0.015758181 0.042430986 -0.0065104105
-0.071969025 0.023574978 0.08749833 -0.026127033 -0.00519348 0.023221454 0.009810556 0.02847389
-0.10825083 -0.022884158 0.032129776 -0.0031209898 0.032412183 -0.038009487 0.04323243 0.019163825
0.07775246 0.0062525235 0.07786952 -0.05228786 0.010961413 0.043169796 0.07323677 -0.005732643
-0.099424206 0.024996767 0.0461797 0.041344054 0.06236935 0.05214302 0.12433596 -0.022139857
0.0013539093 0.013306807 -0.03782895 -0.0520598 -0.029923787 -0.023585461 0.03047291 0.041169435
00000000: d1c4 153b c89e 2b3d 1b8a 8abc f242 233d
00000010: 0327 a8bc 646b 17bd 99ed a8bd c4c4 653d
00000020: de9c 98bc d50c 3dbd 158f cbbd da03 f1bd
00000030: 998f 9ebc 10d2 6abb 345a 2a3d 09b8 0ebd
00000040: 4d33 9d3d f5b3 463d 34bc 86bc 8425 a23c
00000050: a7d2 dc3c b530 25bd 92cb afbd e3c9 acbd
00000060: ad4d 3b3d 6369 f4bc d78e b13c 25a6 8b3c
00000070: 31ab 4d3c f4b8 023c 7405 c13b a8a7 1ebc
00000080: f442 833d 378f 963d 844c 49bd de9b ad3b
00000090: 64e0 2abd 4b21 9dba ab67 84bd 9f52 24bd
000000a0: 26e2 4f3d 2c95 18bd 0c21 dcbc 9a8f 1cbd
000000b0: beed 0d3d a70b ebbb f7ae 053d 37a1 ae3c
000000c0: f137 cc3c 73b3 a13d 41ef db3d 0d02 f03c
000000d0: 0285 e83c 7191 debc 5db9 aa3c e113 cfba
000000e0: 760a 5d3c 8095 fbbb 87db 02be e563 17bc
000000f0: 0496 6dbc 1b15 ff3c 38c6 013c 77a6 6cbd
00000100: 4b97 923d 02bb 993d bd87 8d3c de91 883d
00000110: 795e 25bd 450b df3c 8002 753c 88c5 6b3d
00000120: 0851 f03b 3481 44bd a5b4 efbc cd94 fdbc
00000130: a7f3 493d a1f1 603b 67a9 e13c 36ef e9bc
00000140: ea18 a8bd a875 8e3d 142c 303c ec71 07bd
00000150: b2e9 d5bb b215 1f3d 03dc 86bd 1f86 87bd
00000160: cf06 7dbd 85e7 523c 515d 3d3d 6cdc a63c
00000170: 6a30 f43b cc73 8dbd 67a8 64bb cbfd ad3b
00000180: 1e3d fa3c 0f36 a8bb 38ed debd 94b5 b03a
00000190: 2d88 0e3d 1fbf 4ebd 685b 4c3a 4441 51bd
000001a0: 8ad4 0cbd 1426 a13c 45f2 36bd 62d1 04bd
000001b0: 65b6 8c3c 6f71 4ebd 6c2e 38bd f4cb 21bd
000001c0: b00a 0d3d 4246 97bc ffe2 a03d 9f0c a7ba
000001d0: 0d7c 48bd a62f 04bd bd77 a73c a723 90bc
000001e0: 3640 133d ec9f 0e3d f147 a0bd 342c d9bd
000001f0: f5b1 16bd 7433 033d baf6 4d3d b729 73bc
00000200: b5e7 ffbc 0c1c 83bd 7515 8c3b c54a 97bb
00000210: 8c88 0f3d 43d0 85bd c7bd b93c 472c 52bd
00000220: 95e4 a33c b9d8 9bbd 74b8 61bd 6f7c 5b3d
00000230: 79c7 b43d fe06 a5bd 99bc 713d 8a57 77bb
00000240: 831e 4abd a08d 82bb 2e4d d1bb 1b33 d5ba
00000250: 57d4 38bd 0eed c1bc e929 a2bd 0165 343c
00000260: f951 a13c ed84 6c3c f392 aabc 226f b03d
00000270: e8e1 ae3a 84bb 89bd 76a5 dfbb fe55 693c
00000280: 0bbc d23c 6f86 84bc ba58 0bbd 6dd7 23bd
00000290: 173d 053c e38a b63c dc6d e33c 2726 08bd
000002a0: e135 92bd 53c7 4a3d f563 9c3c a9c8 113d
000002b0: 22d8 0abd a063 debc 6e66 b53c 4508 95bc
000002c0: 078c b0ba 9dd7 0abd 0e9d cb3d 9953 3ebd
000002d0: c7cc a83d 9e5d b13d 30bf 07bd c94a bdbc
000002e0: 7590 a4bc 0d6e 07bd f01c 5c3d 1740 203d
000002f0: baa3 833c 3ec2 9bbc 3437 50bd 8dd1 debd
00000300: eebc 55bd c8a6 a939 4bce 873b 7f1a 843d
00000310: d35d ab3c 1fea 8fbc dec2 42bb e5a1 b23b
00000320: f4ba de3c 5980 8cbd d1f7 3c3d cf76 9ebd
00000330: 1730 28bc 39fe df3b bee5 a53c dcde a23d
00000340: a2a6 abbb 05da ffbc df8e 75bd 62e6 4f3d
00000350: 7205 90bd 4d17 813c 1dcc 2d3d 4855 d5bb
00000360: 7f64 93bd 5020 c13c 5332 b33d 5c08 d6bc
00000370: 112e aabb eb3a be3c 74bc 203c 1342 e93c
00000380: 9cb2 ddbd 8f77 bbbc 839a 033d 8589 4cbb
00000390: a3c2 043d d6af 1bbd 7d14 313d 74fd 9c3c
000003a0: af3c 9f3d f8e1 cc3b 0e7a 9f3d cc2b 56bd
000003b0: 8097 333c d0d2 303d 29fd 953d e5d8 bbbb
000003c0: eb9e cbbd 05c6 cc3c ed26 3d3d 6258 293d
000003d0: 0177 7f3d eb93 553d daa3 fe3d a55e b5bc
000003e0: a875 b13a cb04 5a3c 87f2 1abd a83c 55bd
000003f0: bb22 f5bc 4c36 c1bc 53a2 f93c 48a1 283d

conv_layers.0.bias f4 [64]
-0.014995192 0.08765014 -0.031002138 -0.039213136 0.09126671 0.04581672 -0.06419712 0.007304463
-0.07793836 -0.11545471 0.060500864 0.042612262 0.027201716 0.01471009 -0.020798668 -0.034540582
-0.010611232 0.043244462 0.099199854 -0.032024607 0.01064526 0.113326274 0.017826822 0.0138584655
0.084682845 -0.062419288 0.033407584 -0.031859044 -0.059944727 -0.0024451448 0.0026978657 0.028134387
-0.09617166 0.08899543 -0.063710555 0.046663832 0.08229459 -0.024477556 -0.04291588 0.08773533
-0.029930707 -0.06928163 0.0026023688 -0.031528734 0.018205035 -0.0103154285 -0.04079991 0.029389743
-0.058661867 0.0075554163 0.043151163 0.017621659 -0.06677945 0.01901644 0.02029894 0.018429354
-0.032118317 -0.028967205 0.09410286 0.037795827 0.025887663 -0.12527557 -0.01306008 -0.034874212
00000000: 65ae 75bc eb81 b33d 32f8 fdbc f49d 20bd
00000010: 0aea ba3d 50aa 3b3d c879 83bd 475a ef3b
00000020: 269e 9fbd 8573 ecbd c1cf 773d 328a 2e3d
00000030: 22d6 de3c 9702 713c f861 aabc 6d7a 0dbd
00000040: bcda 2dbc 1b21 313d 4b29 cb3d 3c2c 03bd
00000050: 7569 2e3c 9b17 e83d 8e09 923c 9e0e 633c
00000060: 336e ad3d 5eab 7fbd 64d6 083d a17e 02bd
00000070: 9a88 75bd b93e 20bb adce 303b 167a e63c
00000080: a6f5 c4bd 3c43 b63d ae7a 82bd 9322 3f3d
00000090: 118a a83d 2885 c8bc 90c8 2fbd 95ae b33d
000000a0: 3e31 f5bc 87e3 8dbd 818c 2a3b 4624 01bd
000000b0: ba22 953c 0b02 29bc ce1d 27bd c2c2 f03c
000000c0: 6d47 70bd 6d93 f73b 46bf 303d 4c5b 903c
000000d0: aac3 88bd 5dc8 9b3c f649 a63c 28f9 963c
000000e0: 7f8e 03bd a24c edbc 00b9 c03d cccf 1a3d
000000f0: 5d12 d43c 3d48 00be f2f9 55bc 43d8 0ebd

conv_layers.1.weight f4 [64, 256, 3]
-0.038011294 0.015801681 0.024209566 0.03071383 0.08069513 0.030221408 -0.05228034 0.07138964
0.060929354 0.051205754 0.011317011 -0.018314194 -0.041763768 -0.030234372 0.06873928 0.099340394
-0.009572919 0.013869569 -0.054327212 -0.020467374 0.042875633 -0.036730792 0.021017442 0.02501669
0.026166882 -0.08400204 -0.03042101 0.051417526 0.041738186 -0.037446845 -0.045187294 -0.11780509
-0.069026865 0.031402744 -0.030339124 0.012601994 -0.009831063 0.0310041 0.076367825 0.062485427
0.007327516 -0.045732982 0.0011558052 0.017994128 -0.036200978 0.033901468 0.039323766 -0.040130705
0.020835679 -0.046542935 0.05396861 0.07205622 -0.033787735 0.007031286 -0.0038049077 -0.04891055
-0.0386346 0.037372857 0.022105368 0.048953485 -0.05672976 0.17057309 0.10545937 0.02357541
-0.028204115 -0.0042422293 0.036480047 -0.034500204 0.042368133 -0.041782543 0.028202008 -0.010378245
-0.05205964 0.059215505 -0.01038789 0.005617524 0.03245634 -0.0029517554 -0.06557 -0.032815237
-0.0049437103 0.06882558 0.013792854 -0.053339083 -0.027376624 -0.023220021 -0.05869718 0.009740136
0.011630568 -0.063049644 -0.0041878116 0.042120345 -0.0291333 -0.027095556 0.041689847 -0.006029706
-0.21295029 0.0033518549 -0.052887056 0.067088224 0.040037595 -0.047235586 0.0013410944 -0.03132884
0.012848365 -0.03249855 0.10543062 0.046615683 -0.012526155 -0.031856764 -0.02508107 -0.010211597
-0.011331851 0.010665 -0.035398826 0.10720635 0.06894435 -0.025166186 -0.017282683 -0.018650651
0.10880723 -0.0503412 -0.0026505883 0.031515785 0.0028307862 -0.04172024 0.08117282 0.0072071278
-0.046703186 -0.01561883 -0.02424971 0.0024134524 -0.10229787 0.023312911 -0.062438354 0.02404641
0.021212056 -0.035964474 0.05233032 0.029326547 0.06479516 0.059706826 0.076489955 0.0048994166
-0.04568883 0.0034775983 -0.052444357 0.060708262 0.018468114 -0.06308533 -0.032030273 0.13760552
-0.0048921043 0.030979281 -0.047844615 -0.035729643 0.0046348376 -0.08582272 0.017101021 -0.054531578
-0.060394846 -0.084893465 0.014223049 0.013397839 0.04897258 -0.07700606 0.0006740363 -0.049930416
0.0059495675 -0.022592256 0.06503923 -0.02730422 -0.030961614 0.009529375 0.08613482 0.01910738
0.0033571052 0.10510795 -0.054861777 -0.029402742 0.021993667 -0.0135797085 -0.039672915 0.07965606
-0.108985275 -0.023359085 -0.028974218 -0.013042385 0.00021007659 -0.01179749 -0.053418104 -0.0065059527
0.046270855 -0.029416416 -0.01592098 0.06714787 0.033746365 0.01713039 0.0063436953 0.007122938
-0.032601245 -0.09035796 0.035661783 0.0048759505 -0.007767454 0.08094812 0.10601775 0.036755882
-0.038125917 -0.11061106 0.009166549 -0.055727974 -0.048414648 0.10640405 -0.026966378 0.025086697
0.01852528 -0.056898315 0.030465104 0.073832326 0.037646763 -0.049184214 -0.004136721 -0.042974327
-0.045770176 -0.028593874 -0.0047545275 -0.029585643 -0.0033979774 0.06929361 0.026560163 0.073627174
0.0012558466 -0.0067704073 -0.05084157 0.046933185 -0.04568979 0.020415988 0.062503375 -0.04716468
0.02382488 -0.011904555 -0.059050046 0.037797764 -0.035428766 0.059765223 -0.053737894 0.036047567
0.004411682 -0.036432534 0.12863445 0.024627835 0.020950988 -0.02241294 0.05870836 0.0041393787
00000000: bbb1 1bbd 8772 813c 2453 c63c 929b fb3c
00000010: 7d43 a53d e392 f73c e923 56bd bb34 923d
00000020: 0f91 793d 20bd 513d fc6a 393c a607 96bc
00000030: 7c10 2bbd 13ae f7bc 2ec7 8c3d fa72 cb3d
00000040: bcd7 1cbc 303d 633c 3686 5ebd 32ab a7bc
00000050: 5c9e 2f3d 0773 16bd c52c ac3c cdef cc3c
00000060: ee5b d63c 4309 acbd 7b35 f9bc 2f9b 523d
00000070: a9f5 2a3d dd61 19bd 5016 39bd cc43 f1bd
00000080: f55d 8dbd 2aa0 003d c189 f8bc 9878 4e3c
00000090: 7812 21bc 4ffc fd3c bc66 9c3d b8f0 7f3d
000000a0: a91b f03b 8252 3bbd 637e 973a 6c68 933c
000000b0: 7a47 14bd 44dc 0a3d f511 213d 1860 24bd
000000c0: 96af aa3c cea3 3ebd 300e 5d3d 3692 933d
000000d0: 0265 0abd b466 e63b c25b 79bb 6e56 48bd
000000e0: 503f 1ebd 4814 193d 5116 b53c 7383 483d
000000f0: 775d 68bd b6aa 2e3e 15fb d73d 3821 c13c
00000100: 510c e7bc 6602 8bbb 1a6c 153d 1650 0dbd
00000110: 358a 2d3d 2c24 2bbd e607 e73c 8409 2abc
00000120: 7d3c 55bd f58b 723d f831 2abc 3513 b83b
00000130: f0f0 043d 3d72 41bb 9049 86bd 4569 06bd
00000140: d9fe a1bb 6df4 8c3d 6cfb 613c 157a 5abd
00000150: f144 e0bc ea37 bebc 746c 70bd 1795 1f3c
00000160: 238e 3e3c 2c20 81bd e939 89bb 6286 2c3d
00000170: f5a8 eebc 80f7 ddbc f9c2 2a3d d794 c5bb
00000180: a40f 5abe cbaa 5b3b 19a0 58bd 8d65 893d
00000190: 76fe 233d 1a7a 41bd a9c7 af3a ab52 00bd
000001a0: f381 523c 331d 05bd 02ec d73d 16f0 3e3d
000001b0: 813a 4dbc 3d7c 02bd d176 cdbc 8b4e 27bc
000001c0: 3aa9 39bc 41bc 2e3c 5cfe 10bd 018f db3d
000001d0: b232 8d3d 5129 cebc 6a94 8dbc 40c9 98bc
000001e0: 53d6 de3d 9332 4ebd 7eb5 2dbb b216 013d
000001f0: b684 393b d8e2 2abd ef3d a63d c529 ec3b
00000200: d74b 3fbd 1fe6 7fbc 54a7 c6bc 032b 1e3b
00000210: 8c81 d1bd b8fa be3c 5cbf 7fbd fafc c43c
00000220: e8c4 ad3c 7c4f 13bd 5158 563d 3a3e f03c
00000230: 53b3 843d 258f 743d c4a6 9c3d 498b a03b
00000240: 3624 3bbd 6be8 633b e5cf 56bd 3aa9 783d
00000250: 714a 973c e232 81bd 2d32 03bd 76e8 0c3e
00000260: f24d a0bb 43c8 fd3c b7f8 43bd 3f59 12bd
00000270: d6df 973b d2c3 afbd 7117 8c3c 815c 5fbd
00000280: 9660 77bd a0dc adbd cb07 693c 9c82 5b3c
00000290: 7997 483d 5ab5 9dbd cfb1 303a d683 4cbd
000002a0: 97f4 c23b 6513 b9bc 4a33 853d 19ad dfbc
000002b0: 36a3 fdbc 1821 1c3c 7467 b03d 1587 9c3c
000002c0: e102 5c3b d642 d73d beb6 60bd 05de f0bc
000002d0: 102c b43c 6d7d 5ebc 1180 22bd b722 a33d
000002e0: ac33 dfbd 8d5b bfbc 575b edbc baaf 55bc
000002f0: 0148 5c39 424a 41bc f1cc 5abd e32f d5bb
00000300: 8286 3d3d b2fa f0bc b76c 82bc d384 893d
00000310: a139 0a3d 0855 8c3c c6de cf3b 8967 e93b
00000320: e288 05bd 980d b9bd 1712 123d 70c6 9f3b
00000330: 2086 febb 21c8 a53d d61f d93d 568d 163d
00000340: ec29 1cbd 0d88 e2bd 4b2f 163c 0443 64bd
00000350: 704e 46bd 5eea d93d 98e8 dcbc 9e82 cd3c
00000360: 54c2 973c 350e 69bd f491 f93c 6735 973d
00000370: 7e33 1a3d 6375 49bd 558d 87bb d905 30bd
00000380: 8279 3bbd b33d eabc decb 9bbb 975d f2bc
00000390: 9ab0 5ebb cfe9 8d3d b394 d93c d8c9 963d
000003a0: 389b a43a 4bda ddbb 403f 50bd 033d 403d
000003b0: 3825 3bbd 6e3f a73c c501 803d c02f 41bd
000003c0: 652c c33c 530b 43bc 76de 71bd d4d1 1a3d
000003d0: c11d 11bd 61cc 743d 441c 5cbd 9da6 133d
000003e0: df8f 903b 483a 15bd c0b8 033e 50c0 c93c
000003f0: 68a1 ab3c 589b b7bc 2d78 703d a0a3 873b

conv_layers.1.bias f4 [64]
-0.14197873 -0.024322715 -0.059736628 0.0049525644 0.027092848 0.038764 0.07563045 0.096795656
-0.014444554 0.009845004 0.0019103216 0.08145139 -0.011716431 -0.0418599 -0.103112884 -0.0533171
-0.066662036 0.016378453 0.00079510873 -0.065374956 0.007399581 -0.0017895476 0.1089351 -0.0678863
0.08986395 0.017948007 0.048234046 -0.011522622 0.053333838 0.029723259 -0.048303638 0.014026319
0.045105226 0.029493608 -0.0368387 0.008920487 -0.045640554 0.052556083 0.024372274 -0.0011511303
-0.051095404 0.010069564 0.03747974 0.026482128 0.05237293 -0.017475931 -0.009018247 0.04576302
-0.018268818 0.027711675 0.061884042 0.009579841 0.022811607 -0.007341851 0.0045075 0.034371678
0.08797873 0.028332248 -0.05595302 -0.08131215 0.064905085 0.03497166 -0.044107627 -0.08036216
00000000: df62 11be 6e40 c7bc 65ae 74bd 1f49 a23b
00000010: d2f1 dd3c 00c7 1e3d 23e4 9a3d cd3c c63d
00000020: daa8 6cbc f14c 213c c263 fa3a fdcf a63d
00000030: 46f6 3fbc 4975 2bbd d92c d3bd 0863 5abd
00000040: 1b86 88bd 1b2c 863c d86e 503a 4ee3 85bd
00000050: 2f78 f23b 418f eaba 5e19 df3d f907 8bbd
00000060: 970a b83d b307 933c 1091 453d 61c9 3cbc
00000070: 9574 5a3d 317e f33c 09da 45bd a5ce 653c
00000080: 42c0 383d 949c f13c 2de4 16bd 3c27 123c
00000090: 97f1 3abd 0c45 573d 5da8 c73c 86e1 96ba
000000a0: 6a49 51bd d0fa 243c 5b84 193d 0cf1 d83c
000000b0: ff84 563d af29 8fbc 45c1 13bc 0172 3b3d
000000c0: 7da8 95bc 9803 e33c 1f7a 7d3d c4f4 1c3c
000000d0: 68df ba3c e993 f0bb a7b3 933b 51c9 0c3d
000000e0: 312e b43d 0819 e83c fe2e 65bd fc86 a6bd
000000f0: f5ec 843d 713e 0f3d 33aa 34bd eb94 a4bd

conv_layers.2.weight f4 [64, 256, 4]
0.033965338 -0.07779021 0.018031744 0.0033868602 -0.047619887 0.1871566 0.055264484 0.007322578
-0.061802533 0.019277824 0.012360469 0.028025744 0.05725435 -0.038008872 -0.026284792 -0.032853644
-0.045502175 -0.016023938 -0.08823234 -0.04189481 -0.024976328 0.0040202006 -0.035711013 -0.04786165
0.034802176 -0.00035199663 0.008388368 0.008636082 0.076267496 0.06783231 0.03916595 -0.025111474
0.035296794 -0.021274293 -0.07031663 -0.0032777952 0.0009644955 0.028961632 -0.021911817 0.037546
0.10031401 0.020941008 0.0007968026 -0.07725929 -0.050387662 -0.020412922 0.028252607 0.01667417
-0.009681092 0.06339021 -0.068349965 0.027164377 -0.05441379 0.026288813 0.077664115 -0.013133605
-0.03225254 0.02117374 0.016138287 -0.072250545 -0.0070615592 -0.018130053 0.042217642 0.004495101
-0.05175787 0.017850893 0.067905985 0.028303958 0.01673332 -0.037521154 -0.037597794 0.031357225
-0.024680076 0.003869112 -0.042712104 0.009892162 -0.023815107 0.049098026 -0.03810033 0.032400038
-0.08038831 0.023429062 -0.0069740447 0.043043286 -0.017511413 -0.053454235 0.07842463 0.06052422
-0.0720025 0.06093614 -0.059334707 0.024339559 0.03295685 0.07028655 -0.071894355 -0.03341252
-0.035025306 -0.029060887 -0.0145970555 0.094960466 0.026593257 -0.038501255 0.029056916 0.044349343
0.016425716 -0.07032173 -0.012698542 0.03153741 0.020172048 -0.05776578 -0.036852837 0.078126796
-0.101367414 -0.0072179283 -0.049817894 -0.012981698 0.0016556222 -0.053355888 -0.08753581 0.060585976
0.048009377 -0.07641564 0.079368584 -0.07261723 -0.036023647 -0.028778845 0.037106764 -0.0037582808
0.05476809 -0.021293204 -0.043113172 0.05254712 -0.003571991 0.020136269 0.021473765 0.010624034
0.035210487 -0.054547787 -0.019539192 -0.018263359 0.014278511 -0.0307845 0.096044295 -0.03050375
-0.057002127 0.052311294 0.02986837 -0.11191278 -0.060722396 0.072483264 -0.042346388 -0.090590626
-0.045283634 0.0635516 0.07194748 0.082185164 0.012293414 0.038107436 -0.09333758 -0.024679294
0.025979416 -0.0055416855 0.04211257 0.0196594 -0.06719323 -0.13745973 0.07910005 -0.029642224
-0.08301085 0.01906811 -0.0023316406 -0.058440853 -0.01109997 -0.0073850476 -0.0018295811 0.03158048
0.04123404 0.013723684 0.0286683 -0.0020824156 -0.012974714 -0.014791753 0.077908665 -0.014535133
-0.01999422 0.06080772 -0.007927423 0.023364661 -0.045347374 -0.0058997776 0.10315638 -0.010470025
-0.04181763 -8.941373e-05 -0.014968298 0.005445476 0.0489237 -3.3934478e-07 0.047035303 0.049789306
0.078804635 -0.08009059 -0.06768655 0.08078666 0.05030606 -0.013219575 0.007205537 0.0365592
0.011559318 0.07099921 -0.003937126 -0.10538483 0.04140411 -0.09875898 0.0002692499 -0.046654083
-0.01900733 -0.061927665 -0.015531463 -0.016094925 0.007508129 -0.053259432 -0.017648866 0.06286114
-0.0026826703 -0.014431691 -0.053949986 0.0030562673 -0.07512391 -0.015920447 0.03529646 0.011968112
0.04204183 0.026181303 -0.045814544 0.06575169 0.032897312 -0.023240661 0.08139885 -0.07153339
-0.0468938 -0.010064117 -0.013823303 -0.05227013 0.0137090925 0.043176826 -0.039316665 0.0057271766
0.02253404 0.007528668 0.07903824 0.021005077 -0.025108963 0.03681556 0.05541703 0.041266013
00000000: 3d1f 0b3d 7950 9fbd 4fb7 933c 16f6 5d3b
00000010: 120d 43bd fba5 3f3e 035d 623d 3df2 ef3b
00000020: a724 7dbd 87ec 9d3c 9183 4a3c 3f96 e53c
00000030: 8a83 6a3d 31af 1bbd 3453 d7bc 8b91 06bd
00000040: 7d60 3abd a244 83bc 28b3 b4bd e499 2bbd
00000050: 289b ccbc e3bb 833b b645 12bd 940a 44bd
00000060: ba8c 0e3d 308c b8b9 5e6f 093c 5a7e 0d3c
00000070: 2232 9c3d abeb 8a3d 7a6c 203d 94b6 cdbc
00000080: 5f93 103d 6d47 aebc 2a02 90bd 47d0 56bb
00000090: 33d6 7c3a f240 ed3c 6980 b3bc d6c9 193d
000000a0: 6f71 cd3d 7a8c ab3c 84e0 503a 1e3a 9ebd
000000b0: 4b63 4ebd 0039 a7bc 0372 e73c 4598 883c
000000c0: 719d 1ebc bad2 813d 11fb 8bbd d487 de3c
000000d0: ffe0 5ebd a35b d73c 5d0e 9f3d 552e 57bc
000000e0: 3d1b 04bd 8d74 ad3c 7134 843c 18f8 93bd
000000f0: a764 e7bb 7a85 94bc 68ec 2c3d a44b 933b
00000100: 0f00 54bd 093c 923c 4b12 8b3d b4dd e73c
00000110: 5114 893c c8af 19bd 2500 1abd 6f70 003d
00000120: df2d cabc ee90 7d3b e3f2 2ebd bc12 223c
00000130: e617 c3bc 031b 493d 170f 1cbd e7b5 043d
00000140: a0a2 a4bd 4eee bf3c 8786 e4bb 284e 303d
00000150: 1874 8fbc d4f2 5abd 189d a03d 3fe8 773d
00000160: 0c76 93bd 2d98 793d f308 73bd c163 c73c
00000170: c3fd 063d 65f2 8f3d 593d 93bd 91db 08bd
00000180: b276 0fbd 1911 eebc 7d28 6fbc a27a c23d
00000190: 1ada d93c 7eb3 1dbd c508 ee3c a8a7 353d
000001a0: 398f 863c d704 90bd 8c0d 50bc 5f2d 013d
000001b0: da3f a53c cf9b 6cbd 00f3 16bd f100 a03d
000001c0: b899 cfbd 5f84 ecbb d90d 4cbd 30b1 54bc
000001d0: 7601 d93a b48b 5abd fa45 b3bd 0029 783d
000001e0: 7ba5 443d ce7f 9cbd ff8b a23d 58b8 94bd
000001f0: 888d 13bd 9dc1 ebbc 43fd 173d 7d4d 76bb
00000200: 8154 603d 166f aebc 7097 30bd a63b 573d
00000210: 1118 6abb d1f4 a43c c0e9 af3c 6e10 2e3c
00000220: df38 103d 806d 5fbd a810 a0bc 0a9d 95bc
00000230: 6af0 693c c72f fcbc dfb2 c43d 00e3 f9bc
00000240: 107b 69bd 5e44 563d 83ae f43c 8732 e5bd
00000250: 0cb8 78bd 1b72 943d 6873 2dbd 9487 b9bd
00000260: 557b 39bd 5727 823d 3359 933d b250 a83d
00000270: 516a 493c 8b16 1c3d c627 bfbd 3b2c cabc
00000280: c9d2 d43c 0797 b5bb 3b7e 2c3d c00c a13c
00000290: 9b9c 89bd 3ec2 0cbe 35ff a13d 40d4 f2bc
000002a0: 9801 aabd ba34 9c3c 70ce 18bb ad5f 6fbd
000002b0: a6dc 35bc 45fe f1bb 8ece efba 895a 013d
000002c0: 06e5 283d 4dd9 603c c8d9 ea3c 2379 08bb
000002d0: e593 54bc 1c59 72bc 948e 9f3d c424 6ebc
000002e0: ebca a3bc 8411 793d 06e2 01bc 3f67 bf3c
000002f0: 2bbe 39bd ec52 c1bb a743 d33d 788a 2bbc
00000300: f748 2bbd a183 bbb8 983d 75bc f76f b23b
00000310: 3864 483d 312f b6b4 17a8 403d dfef 4b3d
00000320: 5364 a13d 8906 a4bd 3f9f 8abd 7a73 a53d
00000330: ba0d 4e3d eb96 58bc 6d1c ec3b 1abf 153d
00000340: 4b63 3d3c 0968 913d 0203 81bb 00d4 d7bd
00000350: 5b97 293d 2642 cabd 1c2a 8d39 5a18 3fbd
00000360: 43b5 9bbc dda7 7dbd ad77 7ebc 81d9 83bc
00000370: c006 f63b 9026 5abd 5b94 90bc 57bd 803d
00000380: bdcf 2fbb e672 6cbc a9fa 5cbd a84b 483b
00000390: 91da 99bd 996b 82bc 0593 103d e615 443c
000003a0: 0e34 2c3d 2c7a d63c 08a8 3bbd d2a8 863d
000003b0: 55bf 063d 3363 bebc 71b4 a63d 1980 92bd
000003c0: b713 40bd f7e3 24bc 237b 62bc 3419 56bd
000003d0: 1a9c 603c 2fda 303d 830a 21bd 0aab bb3b
000003e0: 4f99 b83c 0bb3 f63b cdde a13d d712 ac3c
000003f0: 50b1 cdbc eacb 163d f8fc 623d 8d06 293d

conv_layers.2.bias f4 [64]
-0.07994919 0.0071280617 0.032628015 0.06441059 -0.05735222 -0.107305884 -0.10210114 0.020143393
0.055200465 -0.012623088 0.10536136 -0.09516779 0.014698202 -0.09134394 -0.015519643 0.008940335
-0.049017794 0.03233066 -0.072676145 0.0028069941 -0.049024206 -0.08088798 0.043358274 0.075605705
0.049700756 -0.028391803 -0.0823269 0.028884409 -0.018233275 0.014042351 -0.087073416 0.054538004
0.062934935 0.00033974723 -0.10485015 -0.047370754 0.014618564 -0.008774389 -0.04833614 -0.01838477
-0.072781265 0.079091445 0.02196536 0.009692579 0.05966322 -0.033825494 -0.12379931 -0.13454244
0.08588472 -0.022518199 -0.0744663 -0.03618159 -0.0037329798 -0.0030977472 0.04566369 0.07764136
0.051261198 0.023368405 -0.03459053 0.031002041 -0.008123328 -0.04738973 0.024457045 0.08800222
00000000: 67bc a3bd 8492 e93b f4a4 053d b3e9 833d
00000010: 29ea 6abd 30c3 dbbd 671a d1bd c203 a53c
00000020: e219 623d 12d1 4ebc b2c7 d73d 55e7 c2bd
00000030: bad0 703c 8812 bbbd 1a46 7ebc 7c7a 123c
00000040: e2c6 48bd 276d 043d 3bd7 94bd 8cf5 373b
00000050: 9bcd 48bd 99a8 a5bd 7298 313d 2ad7 9a3d
00000060: 0593 4b3d ed95 e8bc 019b a8bd ff9e ec3c
00000070: f35d 95bc e411 663c 8c53 b2bd 3e63 5f3d
00000080: 08e4 803d 1a20 b239 adbb d6bd d607 42bd
00000090: b482 6f3c 74c2 0fbc 1efc 45bd a89b 96bc
000000a0: 580e 95bd b2fa a13d b3f0 b33c 9fcd 1e3c
000000b0: 6c61 743d 9a8c 0abd 7e8a fdbd 7ec5 09be
000000c0: 54e4 af3d 1678 b8bc ca81 98bd 2633 14bd
000000d0: 02a5 74bb 9303 4bbb d909 3b3d 6f02 9f3d
000000e0: 43f7 513d 196f bf3c cdae 0dbd fef7 fd3c
000000f0: b517 05bc bc1b 42bd 245a c83c 823a b43d

conv_layers.3.weight f4 [64, 256, 5]
-0.008702861 -0.05688118 0.013073788 -0.008931322 0.018512985 0.0022295716 0.03105298 -0.007196717
0.039084792 0.020915205 0.05854297 0.027811216 -0.056638565 0.017815515 -0.048214518 -0.0067576296
-0.023341008 -0.014336084 -0.0031697536 -0.040270258 0.0076588662 0.0037775915 -0.027042119 -0.013603067
-0.016078673 -0.013418461 0.006023995 0.06061368 -0.02035871 -0.038531825 0.024924245 0.021011425
0.06929784 0.0038677044 -0.021003662 0.060414474 0.027061963 0.048043665 0.008063188 -0.04997794
-0.026970062 0.030943602 0.0026636303 -0.08471185 0.042789496 0.027438048 -0.02453957 -0.0007185955
0.058278084 -0.06413182 -0.074567884 0.023935016 -0.060522802 -0.005928168 -0.043519977 0.039780833
0.04619887 0.009673064 -0.01468951 -0.013399735 0.021552907 -0.086858824 0.07319341 -0.021855077
-0.019198583 -0.03428042 0.032112595 0.014962008 -0.017279536 -0.045816608 0.0200632 0.065537445
-0.03451098 -0.060469512 -0.033409238 0.02874652 0.03659675 -0.04890071 -0.084917165 -0.0327873
-0.019440914 -0.06388992 0.004007702 0.09079991 -0.07000458 0.037770573 -0.019139735 -0.037327453
-0.08523364 0.0031022776 0.0640347 -0.036625516 -0.020502375 0.030377924 0.0597438 0.0149748055
-0.006044964 -0.053042687 -0.037641034 0.012797255 0.015693592 -0.030560452 -0.034075517 0.04763633
0.0075313393 -0.04106474 -0.023815505 -0.054676045 0.0043251915 -0.064934835 -0.020080611 0.029100636
-0.046641294 -0.04206826 -0.0495627 0.0432001 0.036776528 0.0076652803 0.028300589 0.00800382
-0.037441168 0.0004994738 -0.052457184 0.030412171 -0.010370061 0.038565405 -0.05999462 -0.005395226
0.01974046 -0.027396254 0.029909056 -0.033304445 -0.104398206 -0.00771119 -0.05029351 -0.027259145
-0.069123074 -0.040630195 0.009835764 -0.011477044 -0.03590473 -0.034466933 0.0132869035 -0.002283855
0.0081769135 -0.041325867 0.061691854 -0.015407072 0.0029270728 -0.027811602 0.043189142 -0.027357368
-0.010996371 -0.006310127 -0.062627666 0.04753259 0.011314025 0.01873167 0.009261419 0.0012934092
-0.06723608 0.0050658057 0.04996763 0.079745 -0.013503819 0.0642062 -0.056756657 0.019316634
0.03742116 0.052728318 -0.039440762 0.02084205 -0.019331926 0.073369645 -0.04263753 -0.040848892
0.007352985 0.0023436565 -0.04532073 0.041265424 -0.01726305 -0.009603981 0.022722894 -7.907879e-05
-0.051679812 -0.049782414 -0.05969418 0.01977639 -0.086919874 0.010924503 0.036323633 0.01644111
0.011194958 -0.084048204 -0.045291454 0.024213143 0.008217532 0.031195624 0.0104719605 -0.012316959
-0.0025322647 0.06579803 -0.0012824803 -0.054963466 0.017267717 0.0072364067 -0.0035208757 0.051408567
-0.042482503 0.022153528 0.04051671 0.02208383 0.007828235 -0.012389888 -0.04335149 0.033100996
-0.055311307 0.031838883 -0.028038912 0.02028794 0.05614885 0.057503648 0.039362583 0.04313901
-0.10189488 0.0075709703 -0.03173633 -0.0046228985 0.03190355 -0.02374765 0.03275596 0.052915916
0.02695804 -0.013325975 -0.029740633 0.10036413 -0.030338725 0.047111157 0.10482959 -0.037209805
-0.039478738 0.05990371 -0.019909112 -0.005738381 0.003922997 0.07108744 -0.031570565 -0.0235054
-0.073716566 -0.02574981 -0.005958486 0.00024513635 -0.012858599 0.043714978 -0.035487376 0.0026894012
00000000: 7296 0ebc 3dfc 68bd 7133 563c ae54 12bc
00000010: 8ba8 973c 011e 123b d262 fe3c 70d2 ebbb
00000020: 6017 203d 5d56 ab3c c1ca 6f3d 59d4 e33c
00000030: d7fd 67bd d8f1 913c 967c 45bd 1b6f ddbb
00000040: a435 bfbc e5e1 6abc a4bb 4fbb 6df2 24bd
00000050: 3af7 fa3b 7891 773b 6f87 ddbc 66df 5ebc
00000060: 6cb7 83bc 1bd9 5bbc ef64 c53b 0d46 783d
00000070: 4fc7 a6bc 8cd3 1dbd ee2d cc3c 2720 ac3c
00000080: 07ec 8d3d 5079 7d3b df0f acbc 2b75 773d
00000090: 0db1 dd3c 6fc9 443d 761b 043c abb5 4cbd
000000a0: 52f0 dcbc 707d fd3c 4d90 2e3b 687d adbd
000000b0: 0a44 2f3d c2c5 e03c 3507 c9bc 2160 3cba
000000c0: 00b5 6e3d 8b57 83bd 0cb7 98bd 5e13 c43c
000000d0: c2e6 77bd 1441 c2bb 0142 32bd 3af1 223d
000000e0: 073b 3d3d c57b 1e3c 45ac 70bc 908a 5bbc
000000f0: b98f b03c 0ae3 b1bd 6de6 953d 6b09 b3bc
00000100: 5946 9dbc a069 0cbd 7f88 033d 3623 753c
00000110: d08d 8dbc 32aa 3bbd 945b a43c 7f38 863d
00000120: 635b 0dbd e1ae 77bd 20d8 08bd d27d eb3c
00000130: 79e6 153d 1c4c 48bd 0de9 adbd fa4b 06bd
00000140: 8d42 9fbc b8d8 82bd 0b53 833b 4ef5 b93d
00000150: 905e 8fbd 51b5 1a3d efca 9cbc ace4 18bd
00000160: fa8e aebd 954f 4b3b a024 833d a304 16bd
00000170: 99f4 a7bc 20db f83c eab5 743d e358 753c
00000180: d514 c6bb 4a43 59bd 7c2d 1abd 94ab 513c
00000190: d98f 803c ea59 fabc c592 0bbd 501e 433d
000001a0: 74c9 f63b 8033 28bd bc18 c3bc fdf3 5fbd
000001b0: 56ba 8d3b 8efc 84bd 1880 a4bc 7564 ee3c
000001c0: f10a 3fbd c54f 2cbd 4202 4bbd 97f2 303d
000001d0: fca2 163d 082d fb3b a3d6 e73c 7422 033c
000001e0: e95b 19bd 1fef 023a 58dd 56bd f222 f93c
000001f0: 30e7 29bc c2f6 1d3d ebbc 75bd 70ca b0bb
00000200: bfb6 a13c 1c6e e0bc d603 f53c 3e6a 08bd
00000210: bace d5bd 26ae fcbb 9100 4ebd 924e dfbc
00000220: 6690 8dbd d96b 26bd 2f26 213c 360a 3cbc
00000230: d710 13bd 332d 0dbd 50b1 593c bbac 15bb
00000240: 76f8 053c 5045 29bd 99b0 7c3d f26d 7cbc
00000250: 22d4 3f3b 28d5 e3bc 19e7 303d 8f1c e0bc
00000260: 1f2a 34bc 2fc5 cebb ef42 80bd 88b1 423d
00000270: 765e 393c 2973 993c 35bd 173c 9c87 a93a
00000280: 12b3 89bd 0fff a53b dcaa 4c3d 5951 a33d
00000290: 1f3f 5dbc 8a7e 833d ab79 68bd eb3d 9e3c
000002a0: ee46 193d a6f9 573d a38c 21bd f2bc aa3c
000002b0: fd5d 9ebc d342 963d b1a4 2ebd 2b51 27bd
000002c0: 4ff1 f03b 0898 193b 3ba2 39bd ef05 293d
000002d0: 3d6b 8dbc 045a 1dbc 5d25 ba3c 1ad7 a5b8
000002e0: 36ae 53bd a5e8 4bbd e281 74bd 1902 a23c
000002f0: 0c03 b2bd b0fc 323c 17c8 143d 82af 863c
00000300: 0f6b 373c 7721 acbd 8883 39bd a45a c63c
00000310: d4a2 063c f78d ff3c 9692 2b3c 12cd 49bc
00000320: 5af4 25bb 1ec1 863d e618 a8ba 5f21 61bd
00000330: 0775 8d3c 611f ed3b 7ebe 66bb ca91 523d
00000340: 2202 2ebd 517b b53c daf4 253d 26e9 b43c
00000350: ff41 003c f5fe 4abc 5591 31bd e994 073d
00000360: 1c8e 62bd 7d69 023d dcb1 e5bc e532 a63c
00000370: 56fc 653d f288 6b3d a93a 213d 88b2 303d
00000380: 43ae d0bd e715 f83b f4fd 01bd af7b 97bb
00000390: 4cad 023d 6f8a c2bc 1d2b 063d 5cbe 583d
000003a0: 1cd7 dc3c 3155 5abc a1a2 f3bc b68b cd3d
000003b0: eb88 f8bc a1f7 403d e5b0 d63d 4f69 18bd
000003c0: 75b4 21bd 985d 753d 6f18 a3bc 0709 bcbb
000003d0: 7c8c 803b 4b96 913d 2350 01bd 668e c0bc
000003e0: b6f8 96bd 44f1 d2bc 673f c3bb a585 8039
000003f0: e0ac 52bc 7a0e 333d 365b 11bd aa40 303b

conv_layers.3.bias f4 [64]
-0.20426254 -0.023426775 0.047049392 -0.084508665 -0.032717366 0.010048642 -0.056083042 -0.017288553
0.028376507 -0.1615707 -0.04823052 0.029651329 0.014107108 -0.030790523 0.047855143 0.0007305792
-0.083365105 -0.054856595 -0.1369687 -0.059508663 -0.03641195 -0.0024477446 -0.015262889 0.0123551525
-0.009414326 -0.008403561 0.06356508 -0.00020942558 -0.09613236 0.011383412 -0.038566753 0.010775087
0.10168928 -0.032577313 -0.009609475 0.06928773 0.0047399104 -0.030526891 0.06028143 -0.057013903
0.08485209 0.0037758998 0.02035221 0.053847004 0.046501163 -0.088155046 0.09280257 0.0032425004
0.0513507 0.013715732 -0.063948125 -0.054837354 -0.023133893 -0.13511889 0.035387635 -0.022840466
-0.030207716 -0.034036938 0.043530248 -0.053457126 0.015079932 -0.013388949 0.03974103 -0.007692637
00000000: 332a 51be 82e9 bfbc ddb6 403d e112 adbd
00000010: a502 06bd 0fa3 243c 55b7 65bd b9a0 8dbc
00000020: d975 e83c ca72 25be 5e8d 45bd 58e7 f23c
00000030: 8021 673c 683c fcbc c103 443d 5784 3f3a
00000040: 53bb aabd 4fb1 60bd 8641 0cbe 5bbf 73bd
00000050: b224 15bd 576a 20bb 3211 7abc 446d 4a3c
00000060: 8c3e 1abc 17af 09bc 692e 823d 4099 5bb9
00000070: 0be1 c4bd 7e81 3a3c 2cf8 1dbd fe89 303c
00000080: 7842 d03d ca6f 05bd 0f71 1dbc bae6 8d3d
00000090: 4051 9b3b 8813 fabc a9e9 763d 6987 69bd
000000a0: efc6 ad3d 1675 773b aeb9 a63c ad8e 5c3d
000000b0: 0178 3e3d a28a b4bd 460f be3d 2180 543b
000000c0: 1d55 523d f3b7 603c 3cf7 82bd 229d 60bd
000000d0: 4a83 bdbc 9b5c 0abe a0f2 103d ee1b bbbc
000000e0: 2c76 f7bc 516a 0bbd c64c 323d dcf5 5abd
000000f0: d211 773c 535d 5bbc 7ec7 223d 8412 fcbb

fc1.weight f4 [64, 256]
-0.04068149 0.013399786 -0.012775077 -0.009942956 -0.064175606 0.02124533 0.05251272 -0.0056665326
-0.038015835 -0.012398567 -0.026797783 -0.056404047 -0.0012967511 -0.054212242 0.03600097 -0.041418727
-0.04772318 -0.020781368 0.00015118603 0.0048386375 -0.004676857 0.019893615 0.0050921827 -0.06950958
0.009365908 -0.053553957 0.04597197 -0.03640066 0.021698609 0.010204765 -0.060607586 -0.009928829
-0.040590953 -0.013180969 -0.06928167 0.028407168 -0.0025495673 -0.074269116 -0.06364813 0.026687607
-0.0021399625 -0.00840204 0.057644956 -0.024234835 -0.03921661 -0.028816966 0.01696983 -0.02338879
-0.079625405 -0.00065210764 -0.025032995 -0.03917806 -0.035188813 0.022255683 0.044619374 -0.026984533
-0.015977358 0.04772129 0.015358565 0.017331123 0.007083909 -0.07248981 -0.027016122 0.025478674
-0.031902548 0.01296615 0.036591 -0.055593252 -0.007834066 0.024920462 -0.05577623 0.010026795
-0.013729548 -0.03644838 -0.02221308 -0.038499787 0.0017396718 0.03699913 -0.027119514 0.033698957
0.030569378 -0.03942887 0.0068683443 -0.048919808 -0.014679773 0.0336584 0.0104804775 0.011722501
-0.025092363 0.010990299 0.027048105 -0.04837491 -0.0008504547 -0.06163859 -0.014579592 0.056471948
0.02914999 0.051961828 -0.043394715 -0.0097962385 0.01804281 -0.037809093 0.021138795 0.0074490234
0.011286922 0.049896084 -0.073802166 -0.05781367 0.001871665 -0.013938067 -0.046292998 -0.019607406
-0.005094251 0.015329735 0.0113445055 -0.00012991345 -0.06315904 0.013126968 -0.024683455 -0.0053349407
-0.023584224 -0.043582655 0.016620476 0.025593488 -0.03861523 -0.055158164 0.006897631 -0.020384295
-0.062283203 0.041569557 -0.0062106075 0.02358474 -0.053344205 -0.06290873 -0.022598268 0.03973494
0.02175659 -0.04753663 0.005391207 0.008703043 -0.07560306 -0.010598849 0.001844257 -0.020301046
0.044927377 0.04774646 0.041829403 0.032367226 -0.0052103754 0.0028107932 -0.059924614 -0.033057578
-0.056368325 0.011375822 -0.023038283 -0.003921558 -0.018094616 -0.06454238 0.03466046 -0.047376215
0.04884149 0.03910885 -0.03180289 -0.022488134 -0.041895013 -0.056147672 -0.0109314 -0.06304634
0.041252088 0.009235983 -0.05188264 -0.020568512 -0.03998271 -0.016448053 -0.05718904 0.058435373
-0.026283985 0.005402913 -0.022130053 0.033350535 0.00997371 -0.019323155 0.031141484 -0.046688005
-0.038237065 -0.06736023 -0.023986366 -0.0653977 -0.07209727 0.007771017 -0.0029773125 0.005439332
0.017010568 -0.031250462 -0.083171755 -0.036091432 -0.03482101 -0.059205335 -0.0140924025 -0.00046818054
0.008834567 -0.06316919 -0.0044593015 0.03789505 0.048116144 -0.06335258 -0.021112004 0.006534131
-0.0071503543 0.00065080513 0.004786253 0.051270723 0.006419 -0.08690906 0.00036807876 -0.0675415
0.0124379285 -0.004539166 -0.029003745 -0.034912046 0.03681487 0.008648676 0.049910687 -0.014558654
0.014643161 0.040033232 -0.02642156 -0.04263668 -0.044877756 0.0067278487 -0.07571039 0.01402172
-0.02310493 0.010434964 -0.044707645 -0.02513154 -0.0343529 -0.023785515 0.0046468843 -0.048504286
0.024868133 -0.040037207 -0.0005822088 -0.044873714 -0.0447538 -0.03530263 0.02734924 0.05212419
-0.022560278 -0.027754847 -0.044970695 -0.06064596 0.05209102 -0.041060243 0.038479455 0.0055254437
00000000: a2a1 26bd c78a 5b3c 8e4e 51bc c8e7 22bc
00000010: 806e 83bd b00a ae3c 9417 573d 52ae b9bb
00000020: 7eb6 1bbd 5c23 4bbc 0687 dbbc ee07 67bd
00000030: bff7 a9ba a80d 5ebd c175 133d afa6 29bd
00000040: 6279 43bd b03d aabc b187 1e39 6f8d 9e3b
00000050: 5240 99bb eff7 a23c 53dc a63b 0a5b 8ebd
00000060: 7773 193c 655b 5bbd 1b4d 3c3d dc18 15bd
00000070: 48c1 b13c e331 273c a93f 78bd 87ac 22bc
00000080: b342 26bd fef4 57bc 8ce3 8dbd 26b6 e83c
00000090: a416 27bb 681a 98bd f359 82bd f89f da3c
000000a0: 9d3e 0cbb b6a8 09bc 1e1d 6c3d 2288 c6bc
000000b0: 99a1 20bd 8f11 ecbc 5004 8b3c d999 bfbc
000000c0: a512 a3bd 34f2 2aba ff11 cdbc 2c79 20bd
000000d0: 2522 10bd 8d51 b63c cec2 363d ab0e ddbc
000000e0: f3e2 82bc 6677 433d 7ea2 7b3c 00fa 8d3c
000000f0: 2320 e83b 8a75 94bd ea50 ddbc a7b8 d03c
00000100: 3fac 02bd fa6f 543c 72e0 153d c0b5 63bd
00000110: 745a 00bc ff25 cc3c 9e75 64bd 6d47 243c
00000120: e6f1 60bc e64a 15bd 35f8 b5bc f4b1 1dbd
00000130: b305 e43a 668c 173d be29 debc eb07 0a3d
00000140: a26c fa3c 2b80 21bd d90f e13b 2360 48bd
00000150: 6e83 70bc 64dd 093d 4fb6 2b3c bc0f 403c
00000160: 808e cdbc a810 343c fd93 dd3c c524 46bd
00000170: 0cf1 5eba bf78 7cbd 3edf 6ebc 214f 673d
00000180: f6cb ee3c edd5 543d a8be 31bd 6780 20bc
00000190: 84ce 933c b5dd 1abd 442b ad3c f016 f43b
000001a0: c8ec 383c d65f 4c3d 9725 97bd 07ce 6cbd
000001b0: a852 f53a 7d5c 64bc ba9d 3dbd b69f a0bc
000001c0: aded a6bb 9229 7b3c 4ede 393c 6039 08b9
000001d0: 8759 81bd 7f12 573c f534 cabc bad0 aebb
000001e0: b433 c1bc ba83 32bd aa27 883c 6fa9 d13c
000001f0: 012b 1ebd 87ed 61bd 8605 e23b f7fc a6bc
00000200: ac1c 7fbd d744 2a3d 5a82 cbbb c934 c13c
00000210: 747f 5abd 4bd6 80bd 0120 b9bc 1bc1 223d
00000220: e03a b23c c5b5 42bd b9a8 b03b 3597 0e3c
00000230: c7d5 9abd cba6 2dbc ffba f13a 614e a6bc
00000240: c505 383d cb91 433d 4f55 2b3d 7f93 043d
00000250: ccbb aabb 4935 383b 8373 75bd 6267 07bd
00000260: 79e2 66bd a861 3a3c c8ba bcbc 6a80 80bb
00000270: 293b 94bc cc2e 84bd 20f8 0d3d 900d 42bd
00000280: 040e 483d 9a30 203d bf43 02bd 0939 b8bc
00000290: 1b9a 2bbd 1afb 65bd 9d19 33bc 711e 81bd
000002a0: f3f7 283d 8552 173c e482 54bd 4c7f a8bc
000002b0: e9c4 23bd 11be 86bc 0e3f 6abd ee59 6f3d
000002c0: 8351 d7bc eb0a b13b 164a b5bc 929a 083d
000002d0: c668 233c 984b 9ebc 6d1c ff3c ec3b 3fbd
000002e0: 789e 1cbd 29f4 89bd 0e7f c4bc 3bef 85bd
000002f0: bca7 93bd 04a4 fe3b 041f 43bb 6d3c b23b
00000300: bf59 8b3c 7c00 00bd f455 aabd 9cd4 13bd
00000310: 7aa0 0ebd 4b81 72bd d2e3 66bc 2176 f5b9
00000320: dcbe 103c d95e 81bd 551f 92bb d737 1b3d
00000330: 6f15 453d ffbe 81bd 15f3 acbc 431c d63b
00000340: 854d eabb cb9a 2a3a 00d6 9c3b 4001 523d
00000350: 7a56 d23b 61fd b1bd b2fa c039 3353 8abd
00000360: 74c8 4b3c 49bd 94bb 4399 edbc efff 0ebd
00000370: 30cb 163d 2db3 0d3c 266f 4c3d 6c87 6ebc
00000380: dee9 6f3c e3f9 233d 0772 d8bc cda3 2ebd
00000390: bdd1 37bd 4975 dc3b 0d0e 9bbd 5bbb 653c
000003a0: 8d46 bdbc 69f7 2a3c 5d1f 37bd a9e0 cdbc
000003b0: a0b5 0cbd d7d9 c2bc e444 983b 6eac 46bd
000003c0: 41b8 cb3c 0efe 23bd 5f9f 18ba 80cd 37bd
000003d0: c34f 37bd 7e99 10bd 830b e03c 2d80 553d
000003e0: 55d0 b8bc 225e e3bc 3133 38bd e667 78bd
000003f0: 655d 553d c92e 28bd a29c 1d3d c80e b53b

fc1.bias f4 [64]
-0.04989427 -0.05966035 0.015155371 0.025965283 0.04649066 0.028810868 0.09948667 0.1126464
0.005365776 0.09482443 0.021822317 0.057575554 -0.052591383 0.030447949 0.01943906 0.0399597
-0.018192299 0.0076101446 0.032552514 0.08097834 -0.009761659 0.022692394 0.1052587 0.03221429
-0.054550093 0.042997316 0.0010584609 0.020330073 0.11123123 -0.044040546 -0.05808148 0.011792343
-0.012983297 0.12018067 -0.08586137 0.08250442 -0.0117179975 -0.03817907 0.07307694 -0.009885962
0.012668674 -0.013937518 -0.005390663 -0.0027220205 0.13553461 -0.060574595 -0.028328948 0.12396197
0.10442569 -0.06867315 0.025562862 -0.071738586 0.026459428 0.04967457 0.017662931 0.0408557
0.029986566 0.10385484 -0.056797344 0.04523744 0.021918552 0.0262514 -0.056894884 -0.010609987
00000000: ef5d 4cbd 695e 74bd 3c4e 783c 25b5 d43c
00000010: fe6c 3e3d c504 ec3c abbf cb3d 28b3 e63d
00000020: 64d3 af3b 5033 c23d b7c4 b23c 58d4 6b3d
00000030: 106a 57bd fa6d f93c aa3e 9f3c c8ac 233d
00000040: 0408 95bc 855e f93b c955 053d f9d7 a53d
00000050: 5eef 1fbc 66e5 b93c e091 d73d 22f3 033d
00000060: eb6f 5fbd f41d 303d 0ebc 8a3a 418b a63c
00000070: 33cd e33d dc63 34bd d9e6 6dbd ac34 413c
00000080: e5b7 54bc 4821 f63d 16d8 afbd 14f8 a83d
00000090: d8fc 3fbc a861 1cbd 5da9 953d bbf8 21bc
000000a0: 4590 4f3c 305a 64bc 29a4 b0bb ed63 32bb
000000b0: 96c9 0a3e 111d 78bd 1c12 e8bc c6df fd3d
000000c0: 23dd d53d 82a4 8cbd 3569 d13c aeeb 92bd
000000d0: 71c1 d83c 9077 4b3d dab1 903c 4e58 273d
000000e0: 63a6 f53c d9b1 d43d 55a4 68bd e54a 393d
000000f0: 898e b33c 2d0d d73c 9c0a 69bd 83d5 2dbc

batch_norm.weight f4 [64]
0.96680826 0.99241847 0.99399465 1.7815692 1.7806472 1.8287096 1.7897332 1.7504812
0.9686465 1.682781 0.98395544 1.7958114 0.9936235 1.7892709 0.988873 0.99399465
0.99321216 0.99398124 1.7359542 1.5935678 1.7823427 1.6295327 1.6699686 0.98133343
0.9908561 1.7813362 0.99029034 0.97088706 1.6781385 1.0 0.993407 0.9916604
1.8906307 1.733369 0.9710068 1.7371912 1.7391759 0.99399453 1.5395513 0.9806385
1.0047526 1.6846178 1.707353 1.7291822 1.585341 0.9864355 1.0 1.6986494
1.8047389 0.9866651 0.9917178 0.9882144 0.9929482 1.0 0.98875344 1.5944861
0.9941421 1.6777416 0.98008823 1.6938349 1.7743763 0.99399483 0.9884133 0.9928947
00000000: bf80 773f 230f 7e3f 6f76 7e3f 760a e43f
00000010: 3fec e33f 2813 ea3f fa15 e53f c50f e03f
00000020: 38f9 773f 5e65 d73f 81e4 7b3f 26dd e53f
00000030: 1c5e 7e3f d406 e53f c826 7d3f 6f76 7e3f
00000040: 2743 7e3f 8e75 7e3f bf33 de3f 08fa cb3f
00000050: ce23 e43f 8794 d03f 88c1 d53f ab38 7b3f
00000060: bfa8 7d3f d302 e43f ab83 7d3f 0e8c 783f
00000070: 3ecd d63f 0000 803f ec4f 7e3f 75dd 7d3f
00000080: 3000 f23f 09df dd3f e793 783f 485c de3f
00000090: 519d de3f 6d76 7e3f 0410 c53f 200b 7b3f
000000a0: bc9b 803f 8ea1 d73f 8b8a da3f d855 dd3f
000000b0: 74ec ca3f 0987 7c3f 0000 803f 586d d93f
000000c0: af01 e73f 1696 7c3f 38e1 7d3f 9efb 7c3f
000000d0: da31 7e3f 0000 803f f21e 7d3f 1f18 cc3f
000000e0: 1980 7e3f 3dc0 d63f 10e7 7a3f 95cf d83f
000000f0: c31e e33f 7276 7e3f a708 7d3f 592e 7e3f

batch_norm.bias f4 [64]
0.10396461 -0.13991304 -0.15848224 0.023986723 -0.22619121 -0.02621598 -0.07212555 0.018509528
-0.12677035 0.095840074 0.18667999 0.14323446 0.11180903 0.042565282 -0.13605258 -0.19046862
-0.16847351 0.16036454 -0.1700515 0.12924173 -0.005441428 0.08032616 0.024954578 -0.1249144
0.12173789 0.08090002 0.16957332 -0.16673113 -0.25965807 -0.14579523 -0.1572337 -0.20319214
-0.03189489 -0.05753273 -0.15267868 -0.010044126 -0.21280056 0.1519046 -0.032294326 0.00539839
-0.16454886 -0.062417053 -0.14327328 -0.060391173 -0.11790424 -0.13697006 0.12700975 0.00511843
-0.0029138927 -0.10574369 -0.13554433 0.15625197 0.1501872 0.11170085 -0.13602635 0.09713014
-0.122772835 0.111805886 0.1899421 0.057207998 0.07351476 0.1306882 0.20839986 0.10080818
00000000: 66eb d43d 5d45 0fbe 2b49 22be ce7f c43c
00000010: ab9e 67be e5c2 d6bc 8fb6 93bd 4ba1 973c
00000020: 16d0 01be cd47 c43d 0a29 3f3e 0eac 123e
00000030: 22fc e43d ef58 2e3d 5e51 0bbe 350a 43be
00000040: 5284 2cbe 9a36 243e fb21 2ebe f257 043e
00000050: 024e b2bb 0b82 a43d 8b6d cc3c 1fd3 ffbd
00000060: b751 f93d e9ae a53d a1a4 2d3e 91bb 2abe
00000070: e7f1 84be 584b 15be df01 21be 9a11 50be
00000080: 37a4 02bd 71a7 6bbd cd57 1cbe 1e90 24bc
00000090: 64e8 59be e18c 1b3e 0e47 04bd fae4 b03b
000000a0: 7f7f 28be 06a9 7fbd 3bb6 12be bc5c 77bd
000000b0: c777 f1bd e141 0cbe d80e 023e 81b8 a73b
000000c0: 02f7 3ebb 2690 d8bd 22cc 0abe 8400 203e
000000d0: acca 193e 6ac3 e43d 7e4a 0bbe 2bec c63d
000000e0: 5370 fbbd 7cfa e43d 2f80 423e ef52 6a3d
000000f0: e88e 963d 21d3 053e c666 553e 8574 ce3d

batch_norm.running_mean f4 [64]
1.3603597e-21 6e-45 6e-45 1.4464233 2.305444 2.2265704 2.9113588 5.355715
6e-45 4.28529 6e-45 2.9812882e-06 6e-45 3.1807761 6e-45 6e-45
6e-45 6e-45 1.7031821 1.7341229 1.3494608 1.18348 1.4408404 6e-45
6e-45 1.3316603 6e-45 6e-45 1.4405917 0.0 6e-45 6e-45
1.0820733 1.4093493 2.8615348e-27 3.0390499 0.942915 6e-45 2.7817345 6e-45
4.84248e-40 4.468645 1.1518809 1.4075835 1.8441756 6e-45 0.0 1.1379471
1.2614423 6e-45 6e-45 6e-45 6e-45 0.0 6e-45 3.986348
6e-45 1.2181519 6e-45 1.435624 1.6810907 6e-45 6e-45 6e-45
00000000: 5e92 cd1c 0400 0000 0400 0000 6624 b93f
00000010: 658c 1340 2180 0e40 b453 3a40 0462 ab40
00000020: 0400 0000 1821 8940 0400 0000 2412 4836
00000030: 0400 0000 d691 4b40 0400 0000 0400 0000
00000040: 0400 0000 0400 0000 df01 da3f bdf7 dd3f
00000050: 22bb ac3f 467c 973f 756d b83f 0400 0000
00000060: 0400 0000 d873 aa3f 0400 0000 0400 0000
00000070: 4f65 b83f 0000 0000 0400 0000 0400 0000
00000080: 6181 8a3f 8f65 b43f d2b6 6213 cb7f 4240
00000090: e162 713f 0400 0000 f007 3240 0400 0000
000000a0: e345 0500 24ff 8e40 d570 933f b22b b43f
000000b0: f20d ec3f 0400 0000 0000 0000 40a8 913f
000000c0: f176 a13f 0400 0000 0400 0000 0400 0000
000000d0: 0400 0000 0000 0000 0400 0000 5320 7f40
000000e0: 0400 0000 67ec 9b3f 0400 0000 87c2 b73f
000000f0: fb2d d73f 0400 0000 0400 0000 0400 0000

batch_norm.running_var f4 [64]
9.8107785e-23 6e-45 6e-45 2.2627473 2.0910232 1.8175616 1.5991007 2.198998
6e-45 2.2203777 6e-45 1.7632555e-06 6e-45 3.5816903 6e-45 6e-45
6e-45 6e-45 2.4168553 2.105724 1.9952303 0.9124286 1.8351449 6e-45
6e-45 1.8168982 6e-45 6e-45 2.0471988 6e-45 6e-45 6e-45
1.1983011 1.838289 1.8885157e-27 2.3984675 0.8504417 6e-45 0.8014526 6e-45
1.72196e-40 3.964222 1.2716751 1.7872119 1.5956849 6e-45 6e-45 1.1057312
1.361255 6e-45 6e-45 6e-45 6e-45 6e-45 6e-45 3.638862
6e-45 1.2106626 6e-45 1.4899395 2.2419996 6e-45 6e-45 6e-45
00000000: c735 ed1a 0400 0000 0400 0000 dad0 1040
00000010: 53d3 0540 dca5 e83f 55af cc3f 62bc 0c40
00000020: 0400 0000 ab1a 0e40 0400 0000 ffa8 ec35
00000030: 0400 0000 6a3a 6540 0400 0000 0400 0000
00000040: 0400 0000 0400 0000 c2ad 1a40 2fc4 0640
00000050: b563 ff3f ec94 693f 07e6 ea3f 0400 0000
00000060: 0400 0000 1f90 e83f 0400 0000 0400 0000
00000070: 4e05 0340 0400 0000 0400 0000 0400 0000
00000080: ee61 993f 0e4d eb3f a69f 1513 7e80 1940
00000090: 8cb6 593f 0400 0000 ff2b 4d3f 0400 0000
000000a0: 03e0 0100 d0b5 7d40 40c6 a23f 5cc3 e43f
000000b0: 673f cc3f 0400 0000 0400 0000 9a88 8d3f
000000c0: 9b3d ae3f 0400 0000 0400 0000 0400 0000
000000d0: 0400 0000 0400 0000 0400 0000 1de3 6840
000000e0: 0400 0000 fef6 9a3f 0400 0000 56b6 be3f
000000f0: ec7c 0f40 0400 0000 0400 0000 0400 0000

fc2.weight f4 [2, 64]
-0.055419166 -0.021138366 -0.098654546 -0.01321391 0.068735205 0.11095207 0.08788405 -0.04551108
-0.064953275 -0.05738441 -0.06516049 0.00862128 0.08995757 0.051655162 0.08138588 -0.059410103
-0.08481502 0.012748442 0.10607822 0.09613036 0.014606844 -0.04100478 0.023385933 0.05975519
-0.017638255 -0.1393308 0.06269992 0.02551413 -0.04181235 -0.11573857 -0.07297373 -0.023973878
-0.07275693 -0.09956382 -0.032896135 0.13745603 -0.14428161 -0.079138905 0.08747645 -0.027238393
0.08828987 0.061336316 0.038960665 0.1486069 -0.058255058 -0.040506322 -0.07484804 -0.115243815
0.05187515 0.084508106 0.013746541 0.050565466 -0.037308276 0.00820814 -0.0674693 0.120897315
-0.117288776 -0.06423734 -0.026130704 0.020599237 0.12442126 0.009667766 -0.10143906 0.107738435
-0.07852527 0.10126592 0.09160777 -0.14211528 -0.034085922 -0.022426931 0.0027685526 -0.12154809
0.045275368 0.009025403 -0.006194794 -0.0069503314 0.07908854 -0.12450691 0.014858688 -0.07341057
-0.09142377 0.03493689 -0.094863266 -0.048516437 -0.09980074 0.04913588 -0.12909812 0.07590495
-0.052271686 0.029346656 -0.11421975 0.10702918 0.08999966 0.03550775 -0.1086243 0.11827174
0.08860325 0.1431188 0.09565355 -0.11371489 0.06374539 0.09400987 0.08603104 -0.079003915
0.0026248659 0.06404859 -0.12060762 -0.036204353 0.059450924 -0.07213831 0.09727982 0.044307616
0.12719631 0.021026177 -0.07914574 -0.014442406 -0.11155942 0.083077446 0.0950649 -0.10362375
0.049562056 0.04418353 -0.062293578 -0.14779535 -0.08752471 0.013097781 -0.0983954 -0.05176877
00000000: 35ff 62bd 5e2a adbc 650b cabd 287f 58bc
00000010: 0bc5 8c3d d73a e33d 8efc b33d d469 3abd
00000020: 3906 85bd ea0b 6bbd dd72 85bd 4540 0d3c
00000030: ad3b b83d 5d94 533d a4ad a63d 0258 73bd
00000040: 7fb3 adbd d7de 503c 8a3f d93d ffdf c43d
00000050: 8b51 6f3c a1f4 27bd db93 bf3c dcc1 743d
00000060: 1a7e 90bc bcac 0ebe d168 803d 0203 d13c
00000070: 6d43 2bbd 5808 edbd 4073 95bd de64 c4bc
00000080: 9601 95bd 1ee8 cbbd 19be 06bd 46c1 0c3e
00000090: 8fbe 13be 9413 a2bd da26 b33d 0d23 dfbc
000000a0: 52d1 b43d ca3b 7b3d 3895 1f3d 682c 183e
000000b0: db9c 6ebd f5e9 25bd ee49 99bd f304 ecbd
000000c0: 0a7b 543d 9612 ad3d 2c39 613c bc1d 4f3d
000000d0: 90d0 18bd 6f7b 063c 582d 8abd 0399 f73d
000000e0: 1935 f0bd de8e 83bd 0f10 d6bc bbbf a83c
000000f0: 93d0 fe3d 8d65 1e3c 48bf cfbd f8a5 dc3d
00000100: dbd1 a0bd 8264 cf3d db9c bb3d ab86 11be
00000110: ae9d 0bbd afb8 b7bc 9b70 353b 34ee f8bd
00000120: aa72 393d 49df 133c b3fd cabb 9bbf e3bb
00000130: 2cf9 a13d 7bfd febd db71 733c 4858 96bd
00000140: 633c bbbd fc19 0f3d ac47 c2bd 2cb9 46bd
00000150: 5564 ccbd b442 493d 4c32 04be 0e74 9b3d
00000160: d61a 56bd 6668 f03c 0bec e9bd 1d32 db3d
00000170: be51 b83d 9370 113d 6b76 debd 7438 f23d
00000180: 9f75 b53d bc8d 123e 02e6 c33d 5ae3 e8bd
00000190: f18c 823d 3f88 c03d 0b31 b03d cecc a1bd
000001a0: f105 2c3b e82b 833d 2101 f7bd 044b 14bd
000001b0: d082 733d 40bd 93bd a43a c73d e77b 353d
000001c0: c03f 023e 173f ac3c 2917 a2bd d79f 6cbc
000001d0: 4479 e4bd 8224 aa3d 63b1 c23d b038 d4bd
000001e0: 9501 4b3d caf9 343d 8d27 7fbd aa57 17be
000001f0: 2840 b3bd 1398 563c 8783 c9bd 7d0b 54bd

fc2.bias f4 [2]
-0.04259565 0.06759176
00000000: c778 2ebd 8c6d 8a3d
