models/SEKAI NO OWARI/classifier_fold4.pth (torch, 991712 bytes, 16 tensors)

conv_layers.0.weight f4 [64, 256, 2]
0	0xbc39d13c	-0.011341389
1	0x3d2ffc0d	0.042964984
2	0x3ba1d6f2	0.0049389536
3	0x3d752d09	0.059857402
4	0xbc8c07a6	-0.01709349
5	0xbd133f8f	-0.035949286
6	0xbdbc852d	-0.09205089
7	0x3d406e4c	0.046980187
8	0xbb253db0	-0.002521377
9	0xbd360014	-0.04443367
10	0xbdddd8fb	-0.10832401
11	0xbdde7329	-0.10861809
12	0x3b0d4679	0.0021556898
13	0x3be83700	0.0070866346
14	0x3d179fda	0.03701768
15	0xbd0a74ad	-0.033802677
16	0x3db81034	0.089874655
17	0x3cae9e7a	0.021315802
18	0xbcc1f2e2	-0.023675386
19	0x3c30dc27	0.010794676
20	0x3cd35872	0.02579901
21	0xbd2e9982	-0.042626865
22	0xbdadc93c	-0.08485648
23	0xbda040ee	-0.07824884
24	0x3d2bd37f	0.041949745
25	0xbd3065cd	-0.043065835
26	0x3c30cf11	0.010791556
27	0x3d3dfa82	0.04638148
28	0x3ce65225	0.028115341
29	0xbca4d184	-0.020119436
30	0x3c982b67	0.018575383
31	0x3bee52fc	0.007273076
32	0x3da1b855	0.07896487
33	0x3dbe0eea	0.092801884
34	0xbcf31cfb	-0.029676905
35	0xbc09c9ee	-0.00840996
36	0xbd5ce32e	-0.053927593
37	0xbbe15b53	-0.006877342
38	0xbd50218f	-0.050813254
39	0xbd056009	-0.03256229
40	0x3d308c25	0.043102402
41	0xbd01e5b7	-0.031713214
42	0xbc92d521	-0.017923893
43	0xbd3add1d	-0.045621026
44	0x3d30e56c	0.043187544
45	0xbc4dfb05	-0.012572055
46	0x3cfd373b	0.030910125
47	0x3d0e67e6	0.034767054
48	0x3c6de788	0.014520533
49	0x3d8e1ad8	0.06938714
50	0x3dd2256f	0.10261046
51	0x3d1a504a	0.037674226
52	0x3bf669c8	0.0075199343
53	0xbd1c13a1	-0.038104657
54	0x3d17662b	0.03696267
55	0xbc474e70	-0.012164697
56	0x3c9ac57c	0.018892996
57	0xba723809	-0.0009239917
58	0xbdeabb6d	-0.1146153
59	0x3b3004cb	0.0026858326
60	0xbbb24e54	-0.0054414663
61	0x3d611b9e	0.05495798
62	0x3abeaa08	0.0014546523
63	0xbd9ecf93	-0.077544354
64	0x3d879426	0.06620054
65	0x3d8ecbec	0.06972489
66	0x3c34650f	0.011010422
67	0x3d81a507	0.063303046
68	0xbd483f14	-0.04888828
69	0x3c6a7b49	0.01431162
70	0x3c3e0d5c	0.011599865
71	0x3d8d9982	0.06914045
72	0x3bb87bdb	0.005629999
73	0xbd65ec3a	-0.056133486
74	0xbcc78f8b	-0.024360439
75	0xbd0f26f5	-0.03494926
76	0x3d2e5a21	0.042566422
77	0xbb1db974	-0.0024066838
78	0x3cb8e54d	0.022570277
79	0xbc91f5a6	-0.01781733
80	0xbdabb1c5	-0.08383516
81	0x3da26232	0.079288855
82	0x3c922384	0.0178392
83	0xbcfc30cc	-0.030784987
84	0xbc1f2f13	-0.009715813
85	0x3d3eaf92	0.046554156
86	0xbd5744e1	-0.052555922
87	0xbd8a10f3	-0.06741514
88	0xbd9f4899	-0.07777519
89	0x3cc07dfc	0.023497574
90	0x3d00b569	0.031423006
91	0x3c756383	0.014977339
92	0x3a136fcf	0.0005624266
93	0xbda8fdf2	-0.08251561
94	0xbc6150ff	-0.013752221
95	0xbcb6f697	-0.02233438
96	0x3cc5761b	0.024104169
97	0x3cd8f351	0.02648321
98	0xbdbfad1c	-0.0935919
99	0x3cd6e0d2	0.02623025
100	0x3d2bdab2	0.04195661
101	0xbd4702bd	-0.048586596
102	0xbc90a800	-0.017658234
103	0xbd6596ae	-0.056051902
104	0xbd2bf070	-0.041977346
105	0xbb864e2b	-0.004098674
106	0xbd00ea75	-0.031473596
107	0xbd2a8f1a	-0.04164038
108	0x3c8ce0d1	0.017197045
109	0xbd6bd8b8	-0.057579726
110	0xbd468981	-0.048470978
111	0xbce3abec	-0.02779194
112	0x3d1369ae	0.035989456
113	0xbd2a8744	-0.041632906
114	0x3d93a2ad	0.07208762
115	0x3b969bbd	0.004596202
116	0xbd869cf8	-0.06572908
117	0xbc82418b	-0.015900394
118	0x3c6b07c0	0.014345109
119	0xbc409a22	-0.011755498
120	0x3d21cd9b	0.03950272
121	0x3d2c70a4	0.04209961
122	0xbdb894d5	-0.090127625
123	0xbde02e4f	-0.10946333
124	0xbd10c89b	-0.035347562
125	0x3d32b5d5	0.04363044
126	0x3d96811e	0.07348846
127	0xba7e9f93	-0.00097131095
128	0xbc80a0a3	-0.015701598
129	0xbd7a8bc7	-0.06116846
130	0x3c031011	0.007999436
131	0x3c069b21	0.008215697
132	0x3cb899de	0.022534307
133	0xbd7e3ae6	-0.06206789
134	0x3c2de665	0.010614012
135	0xbd319fa1	-0.043365125
136	0x3d030b1e	0.031993024
137	0xbd8f339e	-0.06992267
138	0xbd11f2a8	-0.035631806
139	0x3d5bf598	0.053701013
140	0x3db4925e	0.0881698
141	0xbd4715cf	-0.048604783
142	0x3d1c17df	0.038108703
143	0xbbda9219	-0.006670248
144	0xbcd5ceaa	-0.026099522
145	0xbc217ac6	-0.009855932
146	0xbc6eb983	-0.014570597
147	0x3c4868d8	0.012232028
148	0xbd4ae2b3	-0.049532603
149	0xbd3962aa	-0.04526011
150	0xbd9705fa	-0.07374187
151	0x3cb4c7b7	0.022067888
152	0x3c966900	0.018360615
153	0x3cc436a2	0.023951832
154	0xbd1a5282	-0.03767634
155	0x3d8f37c0	0.06993055
156	0x3ae64b24	0.0017570001
157	0xbd73ee3b	-0.059553366
158	0xbc09a091	-0.008400098
159	0x3cb42d61	0.021994295
160	0x3cdeab9d	0.027181441
161	0xbcf45722	-0.029826704
162	0xbd4d3363	-0.050097834
163	0xbd4c21a7	-0.04983678
164	0x3c409644	0.011754576
165	0x3d43437e	0.047671787
166	0x3ccf05d1	0.025271328
167	0xbcc308e8	-0.023807958
168	0xbd9a5a09	-0.07536704
169	0x3d2da221	0.042390946
170	0x3caf7ed4	0.021422781
171	0x3cd32100	0.025772572
172	0xbcd62bb6	-0.02614389
173	0xbc09df3d	-0.008415041
174	0x3d267967	0.040643122
175	0xbccabc14	-0.024747886
176	0xbc84d665	-0.016215513
177	0xbcfef697	-0.031123443
178	0x3dcea1e4	0.10089472
179	0xbd16b83e	-0.0367968
180	0x3db03026	0.086029336
181	0x3da851f3	0.082187556
182	0xbd11b18d	-0.035569716
183	0xbc50a2bc	-0.012734111
184	0xbbe21b39	-0.006900218
185	0xbd315f83	-0.043303978
186	0x3d6f7a01	0.05846596
187	0x3ce3380d	0.027736688
188	0x3d19d1b3	0.0375535
189	0xbd260ca0	-0.040539384
190	0xbd80659f	-0.06269383
191	0xbdd23b04	-0.102651626
192	0xbd89e80e	-0.06733714
193	0x3b5b95b2	0.0033505973
194	0x3a791650	0.0009501921
195	0x3d3fc27d	0.046816338
196	0x3d314065	0.043274302
197	0xbc1ce306	-0.009575611
198	0x3bf5187a	0.0074797245
199	0x3caab5cc	0.02083864
200	0x3c85a644	0.016314633
201	0xbd8a9a51	-0.06767715
202	0x3d1e6389	0.038669143
203	0xbd9c57ed	-0.07633958
204	0xbaa75481	-0.0012766273
205	0x3c61db97	0.013785264
206	0x3d07040a	0.032962836
207	0x3d9dcae9	0.07704718
208	0xb8b5ae98	-8.663273e-05
209	0xbc7c26f6	-0.015390148
210	0xbd594cbe	-0.053051703
211	0x3d84e581	0.06489087
212	0xbd8298a6	-0.06376772
213	0x3c7abb7f	0.015303492
214	0x3d5ae0ee	0.053437166
215	0xbb8238b5	-0.003974045
216	0xbd9b25ac	-0.07575545
217	0x3c5ed269	0.01359997
218	0x3d9fb2cd	0.077977754
219	0xbca3c923	-0.01999337
220	0xbc53751f	-0.012906342
221	0x3ce0e438	0.027452573
222	0x3bde725d	0.0067885355
223	0x3cc3c5a6	0.023897957
224	0xbdfb4c44	-0.12270406
225	0xbc203310	-0.009777799
226	0x3c9497b9	0.018138753
227	0xbb9499d9	-0.0045349416
228	0x3d0a99fc	0.033838257
229	0xbd102080	-0.035187244
230	0x3cdac589	0.02670552
231	0xbbed4b78	-0.0072416626
232	0x3d93163e	0.07181977
233	0x3c855c98	0.016279504
234	0x3d998df7	0.07497781
235	0xbd162a70	-0.036661565
236	0x3c6419a3	0.013922128
237	0x3d03bb27	0.032160904
238	0x3d9349ed	0.071918346
239	0x3b091d8a	0.0020922148
240	0xbdd8a8bb	-0.10579058
241	0x3cff8705	0.031192312
242	0x3d5db409	0.054126773
243	0x3d35d723	0.044394623
244	0x3d3cfc79	0.046139214
245	0x3d9d2157	0.07672375
246	0x3e000b77	0.12504373
247	0xbd02e8a0	-0.03196013
248	0x3cc88f7b	0.02448248
249	0x3ce02a7c	0.027364008
250	0xbd147b91	-0.036250655
251	0xbd3913f6	-0.04518505
252	0xbc80581c	-0.015667014
253	0xbcf5a57a	-0.029986132
254	0x3cb2b5da	0.02181523
255	0x3d2adaba	0.0417125

conv_layers.0.bias f4 [64]
0	0xbd07b1dd	-0.033128608
1	0x3dca9882	0.0989237
2	0xbcd94a8c	-0.026524805
3	0xbd5f7880	-0.054558277
4	0x3db75935	0.08952562
5	0x3cf1c34b	0.029512068
6	0xbd72e978	-0.059304684
7	0xbc8aee2d	-0.016959274
8	0xbd9b7f5f	-0.075926535
9	0xbdf8818d	-0.12134085
10	0x3d84e11a	0.06488247
11	0x3d75025b	0.0598167
12	0x3d01fa51	0.03173286
13	0x3c726440	0.014794409
14	0xbc5de174	-0.013542522
15	0xbcabed8b	-0.020987293
16	0xbbc4482c	-0.005990049
17	0x3d221aef	0.039576467
18	0x3dbbf651	0.091778405
19	0xbcc1f0dc	-0.023674421
20	0x3cbd3ca0	0.023100197
21	0x3dfb0254	0.122563034
22	0x3c3f9ec3	0.011695567
23	0x3c661281	0.014042498
24	0x3da92298	0.08258551
25	0xbd53c400	-0.051700592
26	0x3d1e77a7	0.038688328
27	0xbd097721	-0.033560876
28	0xbdc7b40e	-0.097511396
29	0xbcebf39f	-0.028802691
30	0xbc38344a	-0.011242935
31	0x3ce873d1	0.028375538
32	0xbdbb848b	-0.0915614
33	0x3dbc83bf	0.09204816
34	0xbd8ded56	-0.06930034
35	0x3d267169	0.0406355
36	0x3d9a6d3e	0.075403675
37	0xbccccc2f	-0.024999706
38	0xbd5ca8d9	-0.053871963
39	0x3ddbd4d6	0.107339546
40	0xbc9582cd	-0.018250847
41	0xbd867f95	-0.06567303
42	0x3beeceb1	0.007287823
43	0xbd02bd16	-0.031918608
44	0x3c99f539	0.01879369
45	0xbbd453fc	-0.0064797383
46	0xbd4efd34	-0.050534442
47	0x3ca4d13c	0.020119302
48	0xbd60d27c	-0.054888234
49	0x3c2233cf	0.009900047
50	0x3d15fe02	0.036619194
51	0x3ce64528	0.028109148
52	0xbd9b5f20	-0.07586503
53	0x3be5f4c3	0.0070177033
54	0x3d35b6ec	0.0443639
55	0x3d1c1d4a	0.03811387
56	0xbcf0ecd9	-0.029409813
57	0xbd2e85fb	-0.042608242
58	0x3dda03b9	0.10645241
59	0x3d62e374	0.055392697
60	0x3ce0ccf8	0.027441487
61	0xbe02d1fc	-0.12775415
62	0xbc9e79aa	-0.019345123
63	0xbd28f3f2	-0.04124827

conv_layers.1.weight f4 [64, 256, 3]
0	0xbd364e5d	-0.044508327
1	0x3ccf38ea	0.025295693
2	0x3d0cc523	0.03436769
3	0x3d42fce7	0.047604468
4	0x3dac4760	0.08412051
5	0x3c68d4a9	0.014210858
6	0xbd878d95	-0.066188015
7	0x3d4a4b4d	0.04938822
8	0x3d1883ca	0.03723506
9	0x3d7c4c4e	0.061596207
10	0x3c87cf26	0.016578268
11	0xbd56594e	-0.05233126
12	0xbd1a2ffa	-0.03764341
13	0xbd3c2558	-0.04593405
14	0x3dab4881	0.083634384
15	0x3de2eeff	0.11080741
16	0x3caf533d	0.021401996
17	0x3d01f38d	0.03172641
18	0xbd5fd226	-0.054643773
19	0xbd238a87	-0.03992703
20	0x3d6dab14	0.05802448
21	0xbd2531cf	-0.040330704
22	0x3ccee986	0.025257837
23	0x3ccc9907	0.024975313
24	0x3d28cf42	0.04121328
25	0xbdacf49f	-0.08445095
26	0xbd337c34	-0.04381962
27	0x3d99671b	0.07490369
28	0x3c03de16	0.008048555
29	0xbc11f968	-0.008909561
30	0xbd1eed2d	-0.038800407
31	0xbe07b737	-0.13253485
32	0xbd87b416	-0.066261455
33	0x3c22d66b	0.009938817
34	0xbc745585	-0.014912968
35	0x3ca0ff02	0.019652847
36	0xbce4e53c	-0.027941339
37	0xbb771320	-0.0037700608
38	0x3daab19f	0.0833466
39	0x3da30d6d	0.07961545
40	0xbc5e8263	-0.013580891
41	0xbd1fac16	-0.038982473
42	0xbbf9dc4d	-0.007625139
43	0x3c3b6843	0.011438432
44	0xbcd05afd	-0.025434012
45	0x3c6c4e25	0.014422928
46	0x3d95790f	0.07298481
47	0xbd0cf0fe	-0.034409516
48	0x3bfd94c0	0.0077386796
49	0xbc65f748	-0.014036007
50	0x3d05a3b7	0.032626834
51	0x3d3d4a05	0.04621317
52	0xbd13d5eb	-0.03609268
53	0x3c8a7c10	0.01690486
54	0x3ad20029	0.0016021776
55	0xbd36a284	-0.04458858
56	0xbd14120e	-0.03615003
57	0x3c8e4399	0.017366217
58	0x3cf2b45a	0.029627014
59	0x3d95008b	0.07275494
60	0xbd4f2818	-0.050575346
61	0x3e0db7aa	0.13839594
62	0x3dfc79ef	0.123279445
63	0x3d4a71e2	0.049425013
64	0xbd43ddf5	-0.047819097
65	0xbc2f2d39	-0.010691934
66	0x3d5716e7	0.052512076
67	0xbbbc272d	-0.005741975
68	0x3d2c35fc	0.04204367
69	0xbd5ba27a	-0.053621747
70	0x3d41229a	0.04715214
71	0xbc80aa1d	-0.015706116
72	0xbd65042c	-0.05591218
73	0x3d98adf4	0.07455054
74	0xbc809af8	-0.015698895
75	0x3b8fa8c1	0.0043841307
76	0x3d1b9743	0.03798605
77	0xbb68cab4	-0.003552121
78	0xbd819382	-0.06326963
79	0xbd5707fa	-0.05249784
80	0xbb7925f0	-0.0038016997
81	0x3d58e5cc	0.052953526
82	0x3c11e0bc	0.0089036785
83	0xbd3afea0	-0.045652986
84	0xbcad6c3f	-0.02116978
85	0xbd2d0447	-0.042240407
86	0xbda876a8	-0.08225757
87	0x3c732663	0.014840695
88	0x3cc7da49	0.024396079
89	0xbd8876f8	-0.066633165
90	0x3a0e3b8c	0.00054257433
91	0xbbde6572	-0.0067869956
92	0xbcb5fa6d	-0.022214139
93	0xbd15fcaf	-0.03661793
94	0x3d77aff6	0.060470544
95	0xbbac3e33	-0.005256438
96	0xbe52a2bd	-0.20569892
97	0x3a452ddd	0.0007521788
98	0xbd7ca965	-0.061684985
99	0x3d22a816	0.03971108
100	0x3cb0e2f2	0.021592591
101	0xbd164659	-0.036688183
102	0x3c1a74c5	0.009427254
103	0xbce04241	-0.027375342
104	0xbc1b3d21	-0.0094750235
105	0xbcf74fe1	-0.030189456
106	0x3dd4c337	0.10388797
107	0x3d348045	0.04406764
108	0xbc2f28f7	-0.010690919
109	0xbc89d654	-0.016825832
110	0xbd5dba83	-0.05413295
111	0x399c87b5	0.00029855748
112	0xbc14afd5	-0.009075125
113	0x3c8f919e	0.01752549
114	0xbd2495d6	-0.040181957
115	0x3dc5e44b	0.09662684
116	0x3d7842ab	0.060610455
117	0xbcadf6ca	-0.021235842
118	0xbc2a0c87	-0.010378963
119	0xbd2b0fc5	-0.041763086
120	0x3dbcba57	0.09215229
121	0xbd79e7cb	-0.06101207
122	0x3ce807aa	0.028323967
123	0x3cf57b12	0.029965911
124	0xbb8c68e6	-0.004284966
125	0xbca01187	-0.019539608
126	0x3dad9415	0.0847551
127	0xbb973770	-0.004614763
128	0xbd77007d	-0.0603032
129	0xbd1aaca8	-0.037762314
130	0x3c01e51f	0.007928162
131	0x3c70fc06	0.014708525
132	0xbdd50a88	-0.10402399
133	0x3c08babe	0.008345304
134	0xbd7738fc	-0.06035708
135	0x3cafdf0f	0.021468667
136	0x3d27d5d0	0.040975392
137	0xbd679e9a	-0.05654774
138	0x3d355675	0.044271905
139	0x3d02e66d	0.031958032
140	0x3d84b5c9	0.06479985
141	0x3cd7b124	0.026329584
142	0x3dd76b8b	0.10518559
143	0xbb826067	-0.003978777
144	0xbc2bbf6e	-0.010482652
145	0x3b99e77b	0.004696784
146	0xbd3caa2f	-0.046060737
147	0x3daf4268	0.08557588
148	0x3c127e69	0.008941271
149	0xbd84c7bb	-0.06483408
150	0xbd258f26	-0.04041972
151	0x3e07a52e	0.13246605
152	0xbbb9fdf3	-0.005676025
153	0x3ce1abd0	0.027547747
154	0xbd7859c4	-0.060632482
155	0xbc7d3ccb	-0.015456389
156	0x3c02c796	0.007982155
157	0xbd862b29	-0.06551201
158	0xbb917a27	-0.0044396105
159	0xbd2792a3	-0.040911328
160	0xbd3167b6	-0.043311797
161	0xbdb7b758	-0.08970517
162	0x3bde0f30	0.006776713
163	0x3ac3ff16	0.0014953341
164	0x3d4937a2	0.04912532
165	0xbd949df5	-0.072566904
166	0x3caaa327	0.02082975
167	0xbd7881d0	-0.060670674
168	0xbc3138bf	-0.010816752
169	0xbcbd9819	-0.023143815
170	0x3d80d8be	0.0629134
171	0xbd686985	-0.056741256
172	0xbcd3de8a	-0.02586295
173	0xbc39038e	-0.011292351
174	0x3daaed78	0.08346075
175	0x3c312b4c	0.010813545
176	0x3c5181a3	0.012787255
177	0x3dbec8cc	0.09315643
178	0xbd30c9a6	-0.043161057
179	0xbc0d3105	-0.008617644
180	0xbc5739af	-0.013136311
181	0xbc879eb8	-0.016555175
182	0xbd1433f9	-0.036182377
183	0x3d9637fb	0.07334896
184	0xbdbbac7f	-0.091637604
185	0xbb89a58d	-0.0042006434
186	0xbd8b3a50	-0.067982316
187	0xbc821dfe	-0.015883442
188	0xbc8a0a34	-0.016850568
189	0x3b0a7e90	0.0021132566
190	0xbd65c036	-0.05609151
191	0xba22cff8	-0.00062107993
192	0x3cd24e24	0.025672026
193	0xbcc33671	-0.02382967
194	0xbba3e879	-0.005002078
195	0x3dbaa576	0.091135904
196	0x3aea9083	0.0017895851
197	0x3c893ac3	0.016751653
198	0xbc79c4e1	-0.0152446935
199	0x3bb66ae2	0.0055669406
200	0xbd255e48	-0.040373117
201	0xbdfb3e72	-0.1226777
202	0x3ce6ba22	0.028164927
203	0xbcc89520	-0.02448517
204	0xbc57bc24	-0.013167415
205	0x3d9b77db	0.0759122
206	0x3db95d69	0.0905102
207	0x3c87b8be	0.016567584
208	0xbd50f5f8	-0.051015824
209	0xbde6641a	-0.112495616
210	0x3c2826bc	0.010263141
211	0xbd1e0c3d	-0.03858589
212	0xbd42c968	-0.047555357
213	0x3dd4ec2d	0.103966095
214	0xbce5b0d5	-0.028038422
215	0x3cc00709	0.023440855
216	0x3ca10fd5	0.01966087
217	0xbd55feb4	-0.052244857
218	0x3d363ff0	0.04449457
219	0x3da31ce7	0.07964497
220	0x3d26a47f	0.04068422
221	0xbd285756	-0.041098915
222	0xb90cfa2f	-0.00013444641
223	0xbd1661c9	-0.03671435
224	0xbcd36967	-0.025807096
225	0xbcda61ae	-0.026657905
226	0xbccd7b7a	-0.025083292
227	0xbcc6fef5	-0.024291495
228	0x3b133f90	0.0022468306
229	0x3d1a2ea5	0.03764214
230	0x3d30086e	0.04297679
231	0x3d98e11d	0.07464812
232	0xb9d28011	-0.00040149738
233	0xbc5a6186	-0.013328915
234	0xbd1c943a	-0.038227297
235	0x3d2c87d6	0.04212173
236	0xbc8def92	-0.01732615
237	0x3c7f30c7	0.015575594
238	0x3d47fa95	0.048822958
239	0xbd18a6ff	-0.037268635
240	0x3c234fa5	0.009967719
241	0xbc705172	-0.014667856
242	0xbdce30a8	-0.10067874
243	0x3cd26c73	0.025686478
244	0xbd418add	-0.04725157
245	0x3d1d1c19	0.038356874
246	0xbc3a613a	-0.01137572
247	0x3c848160	0.016174972
248	0xbc0af161	-0.008480401
249	0xbd520397	-0.051272955
250	0x3dff2933	0.1245903
251	0x3d1ed685	0.0387788
252	0x3ca776ca	0.020442385
253	0xbcfe8ef8	-0.031074032
254	0x3d995483	0.074868225
255	0x3c3bab69	0.011454442

conv_layers.1.bias f4 [64]
0	0xbe11648f	-0.14198516
1	0xbc2599fd	-0.010107514
2	0xbd8ef881	-0.06980992
3	0x3c633973	0.013868677
4	0x3c9e7e06	0.019347202
5	0x3d091282	0.033464916
6	0x3d9adb57	0.07561367
7	0x3dc9500b	0.0982972
8	0xbc83dd37	-0.016096694
9	0x3b14bf08	0.0022696871
10	0xbce397ba	-0.02778231
11	0x3d96f05f	0.07370066
12	0xba8f4fee	-0.0010933855
13	0xbd45bded	-0.04827683
14	0xbdd1c7b3	-0.10243168
15	0xbd36694a	-0.044534005
16	0xbd961f2f	-0.073301665
17	0x3d0c8e3f	0.034315344
18	0x39a881ff	0.00032140312
19	0xbd8b8949	-0.068132944
20	0x3b98a468	0.0046582706
21	0xbbfcdc34	-0.00771668
22	0x3df4a509	0.119455405
23	0xbd42951b	-0.04750548
24	0x3dbc5062	0.09195019
25	0x3cc16f6d	0.023612702
26	0x3d5b9558	0.053609222
27	0xbba894be	-0.0051446846
28	0x3d8baebc	0.06820437
29	0x3cd087db	0.025455406
30	0xbd49b4a9	-0.049244557
31	0x3d192c63	0.037395846
32	0x3d185254	0.03718789
33	0x3cdc1551	0.026865633
34	0xbc795552	-0.015218096
35	0x3ae5f29e	0.0017543619
36	0xbd2aad3d	-0.04166912
37	0x3d71e225	0.05905356
38	0x3d263f35	0.040587623
39	0xbc07d0b7	-0.008289508
40	0xbd36c794	-0.044623926
41	0x3a442bad	0.0007483315
42	0x3d597358	0.053088516
43	0x3cc518a2	0.024059597
44	0x3d140d7d	0.036145676
45	0xbd284679	-0.041082833
46	0xbb50a8c4	-0.0031838873
47	0x3d888385	0.0666571
48	0xbc83fcc8	-0.016111746
49	0x3cb59d25	0.022169659
50	0x3da878b2	0.08226146
51	0x3bb0a2b4	0.0053904895
52	0x3c93fcc4	0.018064864
53	0xbb31806f	-0.002708461
54	0xbba97b60	-0.005172178
55	0x3d1da868	0.038490683
56	0x3d7420e7	0.05960169
57	0x3cffa4ca	0.031206507
58	0xbd3c10dc	-0.045914516
59	0xbdb4e6b9	-0.08833069
60	0x3d8c9cd9	0.06865854
61	0x3c8faad4	0.017537512
62	0xbd46f6f6	-0.048575364
63	0xbdc86615	-0.097850956

conv_layers.2.weight f4 [64, 256, 4]
0	0x3d0a9572	0.03383393
1	0xbdabb849	-0.08384759
2	0xbaecbe46	-0.0018062077
3	0xbb9e4dd8	-0.004831057
4	0xbd7590af	-0.059952434
5	0x3e4207ac	0.18948239
6	0x3d729298	0.059221834
7	0xba2ec772	-0.0006667293
8	0xbdb14560	-0.0865581
9	0x3c8d759d	0.017267996
10	0xbc00e130	-0.007866189
11	0x3d1e7609	0.038686786
12	0x3d77cf66	0.060500525
13	0xbcb812a0	-0.022469819
14	0xbd057cd8	-0.032589763
15	0xbd040b78	-0.0322375
16	0xbd7fe69a	-0.06247578
17	0xbb3cb5b5	-0.002879483
18	0xbdbca4bc	-0.09211108
19	0xbd112149	-0.035432134
20	0xbcf77859	-0.030208753
21	0x3c440753	0.011964637
22	0xbd48c6f4	-0.04901786
23	0xbd60c7ea	-0.054878153
24	0x3d7204c5	0.05908658
25	0x3c1ec18c	0.0096897
26	0x3c865058	0.016395733
27	0x3b4c2a6d	0.0031153217
28	0x3d7871db	0.060655456
29	0x3d3b0253	0.045656513
30	0x3d5a3596	0.05327376
31	0xbb47ccb2	-0.0030486998
32	0x3d39cd05	0.045361537
33	0xbcb2fc53	-0.021848833
34	0xbd92d1b3	-0.07168903
35	0xbd162198	-0.03665313
36	0xbbe18fb9	-0.006883588
37	0x3d28f8b7	0.041252818
38	0xbceb43a9	-0.028718786
39	0x3c767fac	0.015045088
40	0x3dc09916	0.09404199
41	0x3d13779e	0.036002748
42	0xbc0b4bd0	-0.008501962
43	0xbd99b86e	-0.0750588
44	0xbd55d3e9	-0.052204046
45	0xbb1d1a44	-0.0023971954
46	0x3c3596f4	0.011083353
47	0x3c8d7fff	0.017272947
48	0x3c99e2c5	0.01878489
49	0x3d7c42c1	0.0615871
50	0xbd78fdfb	-0.06078909
51	0x3d4d3a26	0.050104283
52	0xbd643e9c	-0.05572377
53	0x3d04878c	0.03235583
54	0x3d8d17c3	0.06889298
55	0xbd00fa20	-0.031488538
56	0xbd5391af	-0.051652607
57	0xbb1e7c50	-0.0024182983
58	0x3d1b4479	0.037907097
59	0xbd8a6a9c	-0.067586154
60	0xbc060635	-0.008180191
61	0x3c338ba8	0.01095859
62	0x3d0afe82	0.033934124
63	0x3d03538f	0.03206211
64	0xbd63b9df	-0.055597182
65	0x3d121c72	0.03567166
66	0x3d9921eb	0.074771725
67	0x3d280ccf	0.04102784
68	0x3cd5eff9	0.026115404
69	0xbd2ccc53	-0.042187046
70	0xbce2992e	-0.027660932
71	0x3d1298ca	0.035790242
72	0xba479cb6	-0.00076145993
73	0xba14fc36	-0.00056833343
74	0xbd4daa34	-0.050211146
75	0x3ce10410	0.027467757
76	0xbcad0005	-0.021118173
77	0x3d3126e4	0.04324998
78	0xbcf17432	-0.029474352
79	0x3d1586b6	0.036505423
80	0xbdb48d4b	-0.08816012
81	0x3c66942a	0.014073411
82	0xbc988309	-0.01861717
83	0x3d2e8bc9	0.04261378
84	0xbca089c6	-0.019596945
85	0xbd5466b1	-0.051855747
86	0x3d88971c	0.06669447
87	0x3cfede94	0.031111993
88	0xbd862ecd	-0.06551895
89	0x3ccd61f6	0.025071125
90	0xbd2dcb12	-0.04242999
91	0x3d304aaf	0.043039974
92	0x3cf2d672	0.029643271
93	0x3da71237	0.08157771
94	0xbdab2700	-0.08357048
95	0xbc59711c	-0.013271596
96	0xbc6cd29d	-0.014454511
97	0xbd1db682	-0.03850413
98	0xbd291576	-0.041280232
99	0x3ddf309c	0.108979434
100	0x3d3c96de	0.046042316
101	0xbd06cc5a	-0.03290973
102	0x3d39da80	0.045374393
103	0x3cec5c78	0.028852686
104	0x3c386191	0.01125373
105	0xbda0dc03	-0.07854464
106	0xbc996263	-0.018723672
107	0x3c646e9e	0.013942389
108	0x3c92d676	0.017924529
109	0xbd7f40ae	-0.062317543
110	0xbd32764e	-0.043569855
111	0x3d72218f	0.059114035
112	0xbdef8e67	-0.11697083
113	0x3a84d266	0.0010133504
114	0xbd3db660	-0.046316504
115	0x3910dc87	0.00013815063
116	0xbcc2fe34	-0.023802854
117	0xbd273d0a	-0.040829696
118	0xbd68fceb	-0.056881826
119	0x3d8105a9	0.06299908
120	0x3d8ae464	0.06781843
121	0xbd804c8e	-0.06264602
122	0x3da7b3cd	0.08188591
123	0xbd9c31e2	-0.07626702
124	0xbd268866	-0.040657423
125	0xbcf04ba1	-0.029332938
126	0x3d92607d	0.0714731
127	0x3c42161d	0.0118460925
128	0x3d432d07	0.047650363
129	0xbcde5e0e	-0.027144458
130	0xbd29d222	-0.041460164
131	0x3d0b0b08	0.033946067
132	0xbc2ba45b	-0.010476197
133	0x3c03a770	0.008035526
134	0x3d506b45	0.05088355
135	0xbbd21f24	-0.0064124037
136	0x3d1dddbc	0.03854154
137	0xbd807bb2	-0.06273593
138	0xbd0c07b5	-0.034187037
139	0xbca43f6e	-0.020049777
140	0x3ccabf69	0.024749475
141	0xbcbc5ff8	-0.02299498
142	0x3dc790af	0.09744393
143	0xbd230f77	-0.03980967
144	0xbd40550a	-0.0469561
145	0x3d4f056e	0.050542288
146	0x3cbb062e	0.022830095
147	0xbdccace6	-0.09993915
148	0xbd662adb	-0.056193214
149	0x3dad09df	0.084491484
150	0xbcdf02bc	-0.027222984
151	0xbdbd0617	-0.09229677
152	0xbd1204bb	-0.035649043
153	0x3d358baa	0.044322647
154	0x3d9d197f	0.076708786
155	0x3d707431	0.05870456
156	0x3c558664	0.0130325295
157	0x3d7166e2	0.058936007
158	0xbdb50f7a	-0.088408425
159	0xbadd5f96	-0.0016889449
160	0x3c592588	0.013253577
161	0xb9e88dc3	-0.0004435611
162	0x3d30f9ce	0.043206982
163	0x3ca95c50	0.0206739
164	0xbd801e8a	-0.06255825
165	0xbdec33ef	-0.11533343
166	0x3d993b65	0.07482032
167	0xbce8ae67	-0.028403474
168	0xbd44d6ea	-0.04805652
169	0x3bc781dd	0.006088479
170	0x3b5f8d3f	0.003411129
171	0xbd3b30df	-0.045700904
172	0xbbeba97d	-0.0071918354
173	0xbb9d3533	-0.0047976016
174	0xba374242	-0.0006990769
175	0x3cff53b2	0.031167839
176	0x3d67ac62	0.05656088
177	0x3c18acbb	0.009318526
178	0x3c444a30	0.011980578
179	0x3c14dd1e	0.009085922
180	0xbc895ac5	-0.016766915
181	0xbc44291b	-0.011972691
182	0x3d9a6ad2	0.075399056
183	0xbc9548bb	-0.018223157
184	0xbc910cb3	-0.01770625
185	0x3d7a1248	0.06105259
186	0xbcb5fc49	-0.022215025
187	0xba288268	-0.00064281235
188	0xbd561c22	-0.052272923
189	0x3bbedf91	0.005824991
190	0x3dd087cf	0.101821534
191	0xbc57d67e	-0.0131736975
192	0xbd61d7c1	-0.0551374
193	0x3c2427e3	0.010019275
194	0xbbfd85c9	-0.0077368957
195	0x3c3cd8bf	0.011526286
196	0x3d5b2afc	0.05350779
197	0xbc96de48	-0.018416539
198	0x3d382630	0.044958293
199	0x3cc60d77	0.024176342
200	0x3d809051	0.06277526
201	0xbd9d6494	-0.076851994
202	0xbda46c33	-0.0802845
203	0x3deb938e	0.11502753
204	0x3d3a0cf7	0.04542252
205	0xbb881193	-0.0041524856
206	0xbc3e0a14	-0.0115990825
207	0x3d8737ad	0.06602416
208	0x3cb62c0d	0.022237802
209	0x3d9ab9a4	0.075549394
210	0xbbdf6ff2	-0.006818765
211	0xbdd02f30	-0.1016525
212	0x3d66751d	0.05626403
213	0xbe006725	-0.12539347
214	0x3bfe1558	0.007754009
215	0xbd6793ea	-0.056537546
216	0xbd32e12a	-0.043671764
217	0xbd2b40c1	-0.0418098
218	0xbc8b9b21	-0.017041745
219	0xbcad279b	-0.02113705
220	0x3c65052d	0.013978285
221	0xbd51750a	-0.051137008
222	0xbca111da	-0.019661833
223	0x3d5b103b	0.053482275
224	0xbc47057c	-0.012147304
225	0x3c387124	0.011257444
226	0xbcf6dcfb	-0.030134669
227	0xbc46d63a	-0.0121360365
228	0xbd8e5f5d	-0.06951783
229	0xbca8dbfb	-0.020612707
230	0x3d2e231e	0.04251396
231	0x3ca44781	0.020053627
232	0x3d81d981	0.06340314
233	0x3c866196	0.016403954
234	0xbd3b54b4	-0.045735076
235	0x3d9de957	0.07710522
236	0x3d0141d6	0.031556927
237	0xbce5e9cf	-0.02806559
238	0x3df3ffc2	0.11914016
239	0xbd726b1b	-0.059184175
240	0xbd999f07	-0.07501035
241	0xbc6409f9	-0.013918393
242	0xb9acad32	-0.00032935437
243	0xbd6e3b86	-0.058162235
244	0x3ca774b3	0.020441389
245	0x3d6674b0	0.056263626
246	0xbcd28614	-0.025698699
247	0x3d24379c	0.040092096
248	0x3bac0af7	0.0052503305
249	0xbb63117b	-0.003464787
250	0x3dab52ed	0.08365426
251	0x3c3f1ca1	0.0116645405
252	0xbc0291d9	-0.007969343
253	0x3bee0733	0.007264042
254	0x3d5202e6	0.051272295
255	0x3d784352	0.060611077

conv_layers.2.bias f4 [64]
0	0xbda8eba9	-0.082480736
1	0xbb7997ff	-0.0038084981
2	0x3cf8f94a	0.030392308
3	0x3d851fd9	0.06500215
4	0xbd6d9308	-0.058001548
5	0xbde72050	-0.1128546
6	0xbddf32fc	-0.108983964
7	0x3c8671e0	0.016411722
8	0x3d370daf	0.044690784
9	0xbb8d35cb	-0.004309391
10	0x3dd84a75	0.105610766
11	0xbde7302e	-0.112884864
12	0x3c81d290	0.015847474
13	0xbdb30c49	-0.087425776
14	0xbcd7ad2a	-0.026327688
15	0x3c05e6a3	0.008172664
16	0xbd3f9392	-0.046771593
17	0x3d17329e	0.036913507
18	0xbd90e652	-0.0707518
19	0x3c0132b8	0.007885627
20	0xbd649e27	-0.05581489
21	0xbdb832a1	-0.08994032
22	0x3d2f9162	0.042863257
23	0x3d920558	0.071299255
24	0x3d46ddb8	0.04855129
25	0xbd2bedc9	-0.041974816
26	0xbdc45150	-0.09585822
27	0x3cdb79bb	0.026791444
28	0xbd3da5d5	-0.046300728
29	0xbb7b17ef	-0.0038313826
30	0xbdc2272e	-0.09480129
31	0x3d6eb410	0.05827719
32	0x3d96313c	0.073336095
33	0xbc27c312	-0.0102393795
34	0xbdd6f03d	-0.104950406
35	0xbd4ef1b9	-0.050523493
36	0x3b698704	0.0035633454
37	0xbca13687	-0.019679321
38	0xbd35c9d9	-0.04438195
39	0xbca44162	-0.020050708
40	0xbd9a0e98	-0.07522315
41	0x3db6c2bf	0.089238636
42	0x3cc3043c	0.02380573
43	0x3c9a7038	0.018852338
44	0x3d858cf6	0.06521027
45	0xbd0d486d	-0.0344929
46	0xbdf6a326	-0.12042837
47	0xbe0afa28	-0.1357199
48	0x3d9b545e	0.07584451
49	0xbce4f742	-0.027949933
50	0xbd810c47	-0.0630117
51	0xbd01e496	-0.031712137
52	0xbb89ccd8	-0.0042053275
53	0xbb14c5d1	-0.0022700916
54	0x3cf23121	0.029564442
55	0x3db33ce3	0.087518476
56	0x3d64ccae	0.05585926
57	0x3c36a2a3	0.011147174
58	0xbcc8b63c	-0.024500959
59	0x3d0d71b0	0.03453225
60	0xbc251137	-0.010074905
61	0xbd87f02e	-0.066376075
62	0x3d1a85a1	0.037725095
63	0x3db87bce	0.09007989

conv_layers.3.weight f4 [64, 256, 5]
0	0xbc986850	-0.018604428
1	0xbd75fe2d	-0.060056854
2	0x3b3f16b7	0.0029157826
3	0xbc894074	-0.016754366
4	0xbb20589d	-0.002446688
5	0x3c820d98	0.015875623
6	0x3cc0d1c0	0.023537517
7	0xbc3ea83f	-0.011636793
8	0x3d148dca	0.036268033
9	0xbbebbbaf	-0.0071940045
10	0x3d7a7101	0.061142925
11	0x3c962586	0.01832844
12	0xbd434b23	-0.047679078
13	0x3cef7747	0.02923168
14	0xbd1e3ae7	-0.038630392
15	0xbb65179d	-0.0034956702
16	0xbcb2dd06	-0.021833908
17	0xbc4a9b57	-0.0123661375
18	0x3c199597	0.009374044
19	0xbd171693	-0.036886763
20	0xbc264e44	-0.010150496
21	0x3c0be338	0.00853806
22	0xbcfb734a	-0.030694623
23	0xbb8054f2	-0.0039163763
24	0xbcb22c10	-0.021749526
25	0xbceeb680	-0.029139757
26	0x3c24402c	0.010025065
27	0x3d929324	0.07156971
28	0xbd1d697d	-0.03843068
29	0xbd2d51d7	-0.042314377
30	0x3d0417c0	0.032249212
31	0x3ccf1b37	0.025281532
32	0x3d7e0472	0.062015958
33	0x3b58f684	0.003310592
34	0xbc9bb9f0	-0.01900956
35	0x3d24d20d	0.040239383
36	0x3d2e915b	0.04261909
37	0x3d24e485	0.040256996
38	0x3cbfa48b	0.02339389
39	0xbd177060	-0.036972404
40	0xbce07e31	-0.027403923
41	0x3cdd6f6a	0.027030665
42	0xba544e02	-0.0008098782
43	0xbdcad32c	-0.09903559
44	0x3d35538f	0.04426914
45	0x3cdd8523	0.027041024
46	0xbaee8446	-0.001819738
47	0x3c59c240	0.013290942
48	0x3d810474	0.062996775
49	0xbd5bc19e	-0.053651445
50	0xbd8c7acf	-0.068593614
51	0x3d222023	0.03958143
52	0xbd8878fd	-0.06663702
53	0x3bc7ff91	0.006103464
54	0xbd56edee	-0.052473
55	0x3cb7e24f	0.02244678
56	0x3d63cc9d	0.055615056
57	0x3b81351a	0.003943098
58	0xbc590b6e	-0.013247354
59	0xbc34b5f1	-0.011029706
60	0x3cd4acb9	0.025961267
61	0xbda66b63	-0.08125951
62	0x3d8ae618	0.06782168
63	0xbd0084a2	-0.03137649
64	0xbccbb8ce	-0.024868395
65	0xbd004ee6	-0.031325243
66	0x3d2b8070	0.041870534
67	0x3afaea07	0.0019143232
68	0xbb9eab0e	-0.0048421687
69	0xbd1cec23	-0.038311135
70	0x3c3f0c4c	0.011660647
71	0x3d8be52e	0.06830822
72	0xbd3085e7	-0.04309645
73	0xbdb17ac8	-0.08665997
74	0xbcc8f3bb	-0.024530282
75	0x3c76d8de	0.015066354
76	0x3d21a6e9	0.03946582
77	0xbd666599	-0.056249235
78	0xbdb59c3b	-0.08867689
79	0xbcf18fcb	-0.029487511
80	0xbcf1abb7	-0.029500825
81	0xbd8cd323	-0.06876209
82	0x3c25d884	0.010122422
83	0x3dbab741	0.09116984
84	0xbd82c867	-0.0638588
85	0x3d274def	0.040845808
86	0xbcd7a805	-0.026325235
87	0xbd32cabe	-0.04365038
88	0xbda5d5ea	-0.080974415
89	0x3c094509	0.008378276
90	0x3d4cdabb	0.050013285
91	0xbd24fe7d	-0.04028176
92	0xbc9bac95	-0.019003192
93	0x3d24985a	0.040184356
94	0x3d6a77cc	0.057243153
95	0x3c845ad5	0.016156593
96	0xbc1f4778	-0.009721629
97	0xbd44b601	-0.048025135
98	0xbcec5491	-0.028848918
99	0x3c110037	0.008850149
100	0x3ca9ecf8	0.020742878
101	0xbd08db5c	-0.033412322
102	0xbd304455	-0.043033917
103	0x3d7f7b3e	0.062373392
104	0x3c4d09f8	0.012514584
105	0xbd78e527	-0.06076541
106	0xbc838a46	-0.016057145
107	0xbd295059	-0.04133639
108	0xbaff5727	-0.001948093
109	0xbd868fff	-0.06570434
110	0xbcf6f098	-0.03014402
111	0x3c93d30e	0.018044975
112	0xbd617c31	-0.05505008
113	0xbd5b2a9a	-0.053507425
114	0xbd3834b8	-0.04497215
115	0x3d39e92c	0.045388386
116	0x3d364376	0.04449793
117	0x3c320a29	0.01086668
118	0x3c6060f0	0.013694987
119	0x3be6d030	0.007043861
120	0xbd313470	-0.0432629
121	0x3a8ec7aa	0.0010893245
122	0xbd7deabd	-0.061991442
123	0x3ca6b7ba	0.02035128
124	0xbcd294b8	-0.02570568
125	0x3cfd4279	0.030915486
126	0xbd65ffca	-0.056152143
127	0xbc5d6cc0	-0.013514698
128	0x3ca707c9	0.020389454
129	0xbd0099a7	-0.031396534
130	0x3caeb9f5	0.021328906
131	0xbc86af02	-0.016440872
132	0xbdbd07ae	-0.092299804
133	0xbc12937f	-0.008946299
134	0xbd3190e4	-0.04335107
135	0xbcea746f	-0.028619973
136	0xbd8e5bd0	-0.069511056
137	0xbd01d23a	-0.03169463
138	0x3c85aeae	0.016318645
139	0x39989610	0.00029103504
140	0xbd18da8e	-0.037317805
141	0xbd407acb	-0.046992105
142	0xbbda8926	-0.0066691814
143	0x3b5535ed	0.0032533363
144	0x3c623b5d	0.013808099
145	0xbd4ade86	-0.04952862
146	0x3d0c2025	0.034210343
147	0xbc70a955	-0.014688809
148	0xb9d8dd40	-0.00041363575
149	0xbc9f0893	-0.019413268
150	0x3d33fb4b	0.043940824
151	0xbca33152	-0.019920979
152	0xbc0a8d53	-0.008456546
153	0x3bc873cd	0.00611732
154	0xbd904854	-0.070450455
155	0x3d093220	0.03349507
156	0x3b3c4f20	0.0028733686
157	0x3ccd252a	0.025042135
158	0xbae83891	-0.0017717053
159	0x3bc32a5e	0.0059559783
160	0xbd7f87fa	-0.062385537
161	0x3bb3eecd	0.0054911138
162	0x3d1edd38	0.03878519
163	0x3d8d16ad	0.06889091
164	0xbcba14bd	-0.022714967
165	0x3d807c2a	0.062736824
166	0xbd62936d	-0.055316377
167	0x3c13a3d5	0.009011229
168	0x3d1df145	0.03856017
169	0x3d4d0c0b	0.050060313
170	0xbd07324e	-0.03300696
171	0x3cd7e81d	0.026355797
172	0xbcca7ff7	-0.024719222
173	0x3d890da7	0.06692057
174	0xbd72beef	-0.05926412
175	0xbd2ee615	-0.042699892
176	0xbbe070b6	-0.0068493737
177	0x3be31eb8	0.006931152
178	0xbd3cf11c	-0.046128377
179	0x3d336231	0.043794814
180	0xbccffcba	-0.025389064
181	0x3b431100	0.0029764771
182	0x3c734fe4	0.01485059
183	0x3baafeec	0.0052183773
184	0xbd510860	-0.051033378
185	0xbd229ee8	-0.039702326
186	0xbda578b2	-0.080796614
187	0x3cb29d16	0.02180342
188	0xbda4a2cc	-0.080388635
189	0x3c1473f9	0.009060853
190	0x3d14fefd	0.03637599
191	0x3c44b98d	0.012007129
192	0x3a666bf4	0.000878989
193	0xbd918836	-0.07106058
194	0xbd085966	-0.033288382
195	0x3c6bbaf3	0.014387834
196	0x3bd53751	0.0065068384
197	0x3d1e47a6	0.038642548
198	0x3c20e12e	0.009819312
199	0xbca48e49	-0.020087378
200	0x3c867e0a	0.016417522
201	0x3d6b68e5	0.057473082
202	0xbc489966	-0.012243604
203	0xbd817a0b	-0.06322106
204	0x3cc831c9	0.024437802
205	0x3c1b31bb	0.009472306
206	0xbc12579c	-0.0089320205
207	0x3d19d41c	0.0375558
208	0xbd105e24	-0.03524603
209	0x3d08252c	0.033238575
210	0x3d21c171	0.03949112
211	0x3cfa6e64	0.030570216
212	0x3ab75ae6	0.0013988882
213	0xbc4ad046	-0.012378758
214	0xbcf994b5	-0.030466417
215	0x3cb4754b	0.022028586
216	0xbd4f8afa	-0.050669648
217	0x3cde325a	0.027123619
218	0xbcace690	-0.021106035
219	0x3c829a22	0.015942637
220	0x3d5c0836	0.053718768
221	0x3d71baf1	0.05901617
222	0x3d0fc5b4	0.035100654
223	0x3d227834	0.039665416
224	0xbdec1324	-0.11527088
225	0x3c7460dc	0.014915671
226	0xbc87880e	-0.016544368
227	0xbb71a752	-0.0036873412
228	0x3cefdda6	0.029280495
229	0xbd057acc	-0.03258781
230	0x3d05d655	0.032675106
231	0x3d598e6e	0.053114347
232	0x3d0eac18	0.03483209
233	0xbc300c8c	-0.010745179
234	0xbc7bbac6	-0.0153643545
235	0x3dde9d34	0.10869828
236	0xbd424d11	-0.047436778
237	0x3d634eae	0.055494957
238	0x3db6625f	0.089054815
239	0xbd07af48	-0.033126146
240	0xbcf611a6	-0.030037712
241	0x3d739775	0.059470613
242	0xbc76e305	-0.015068774
243	0xbc82cdb4	-0.015967228
244	0x3b859d86	0.004077616
245	0x3d45d1fe	0.048295967
246	0xbca26571	-0.019823762
247	0xbc733430	-0.014843985
248	0xbd991c3f	-0.07476091
249	0xbc69c5e7	-0.014268375
250	0xbb282e1d	-0.0025662251
251	0xbb4e41ed	-0.00314724
252	0xbc786fda	-0.015163386
253	0x3d778095	0.06042536
254	0xbd650597	-0.055913534
255	0xbc77903f	-0.015110075

conv_layers.3.bias f4 [64]
0	0xbe4dfa9b	-0.2011513
1	0xbc441051	-0.011966781
2	0x3d6b8f3c	0.057509646
3	0xbdaeafa3	-0.08529594
4	0xbd0438e4	-0.032280818
5	0x3caea6bc	0.02131974
6	0xbd63aea5	-0.055586476
7	0xbba1827b	-0.0049288846
8	0x3d2f0582	0.042729862
9	0xbe1dd184	-0.15411955
10	0xbd3fa6ef	-0.04679006
11	0x3d03155c	0.03200279
12	0x3ce68f36	0.02814446
13	0xbd020eef	-0.031752523
14	0x3d222d17	0.039593782
15	0x3afa9244	0.0019117077
16	0xbdae6bba	-0.08516641
17	0xbd77a4ae	-0.060459785
18	0xbe01ffc0	-0.12695217
19	0xbd93da8a	-0.072194174
20	0xbcdf963d	-0.027293319
21	0x3c1e3b5d	0.009657708
22	0xbce2f655	-0.02770535
23	0x3c4c2e43	0.0124622015
24	0xbc92efa5	-0.017936537
25	0xbb0807c6	-0.0020756586
26	0x3d9cc254	0.07654253
27	0xbc19b966	-0.009382581
28	0xbdbd167f	-0.092328064
29	0x3c05d563	0.008168551
30	0xbd37817e	-0.044801228
31	0x3c572ae2	0.013132783
32	0x3de4054f	0.11133825
33	0xbcc4520d	-0.023964906
34	0xbc001646	-0.00781781
35	0x3da651c4	0.08121064
36	0x3bc57ed1	0.0060270806
37	0xbb36f87a	-0.00279191
38	0x3d9c39a7	0.07628184
39	0xbd86696f	-0.065630786
40	0x3db11607	0.086467795
41	0x3c8bcb1f	0.01706463
42	0x3c2eeef9	0.010677093
43	0x3d7ae96c	0.061257765
44	0x3d817e49	0.06322915
45	0xbdbae409	-0.091255255
46	0x3dac31d4	0.084079415
47	0xbb43dc39	-0.0029885902
48	0x3d5a8f52	0.053359337
49	0x3cf82e8e	0.030295637
50	0xbd8fadf6	-0.07015602
51	0xbd8821e9	-0.06647093
52	0xbd0ade2f	-0.033903297
53	0xbe1d4301	-0.15357591
54	0x3d41b1e6	0.047288798
55	0xbc7393e5	-0.014866804
56	0xbcb21b74	-0.021741606
57	0xbd5ffb99	-0.0546833
58	0x3d0df99c	0.034661874
59	0xbd4c77ff	-0.049919125
60	0x3c15b601	0.009137631
61	0xbccef793	-0.025264537
62	0x3d4a6cdf	0.049420234
63	0x3a952839	0.0011379785

fc1.weight f4 [64, 256]
0	0xbd26a1a2	-0.04068149
1	0x3c5b8ac7	0.013399786
2	0xbc514e8e	-0.012775077
3	0xbc22e7c8	-0.009942956
4	0xbd836e80	-0.064175606
5	0x3cae0ab0	0.02124533
6	0x3d571794	0.05251272
7	0xbbb9ae52	-0.0056665326
8	0xbd1bb67e	-0.038015835
9	0xbc4b235c	-0.012398567
10	0xbcdb8706	-0.026797783
11	0xbd6707ee	-0.056404047
12	0xbaa9f7bf	-0.0012967511
13	0xbd5e0da8	-0.054212242
14	0x3d1375c1	0.03600097
15	0xbd29a6af	-0.041418727
16	0xbd437962	-0.04772318
17	0xbcaa3db0	-0.020781368
18	0x391e87b1	0.00015118603
19	0x3b9e8d6f	0.0048386375
20	0xbb994052	-0.004676857
21	0x3ca2f7ef	0.019893615
22	0x3ba6dc53	0.0050921827
23	0xbd8e5b0a	-0.06950958
24	0x3c197377	0.009365908
25	0xbd5b5b65	-0.053553957
26	0x3d3c4d1b	0.04597197
27	0xbd1518dc	-0.03640066
28	0x3cb1c148	0.021698609
29	0x3c2731e3	0.010204765
30	0xbd783fa9	-0.060607586
31	0xbc22ac87	-0.009928829
32	0xbd2642b3	-0.040590953
33	0xbc57f4fe	-0.013180969
34	0xbd8de38c	-0.06928167
35	0x3ce8b626	0.028407168
36	0xbb2716a4	-0.0025495673
37	0xbd981a68	-0.074269116
38	0xbd8259f3	-0.06364813
39	0x3cda9ff8	0.026687607
40	0xbb0c3e9d	-0.0021399625
41	0xbc09a8b6	-0.00840204
42	0x3d6c1d1e	0.057644956
43	0xbcc68822	-0.024234835
44	0xbd20a199	-0.03921661
45	0xbcec118f	-0.028816966
46	0x3c8b0450	0.01696983
47	0xbcbf99d9	-0.02338879
48	0xbda312a5	-0.079625405
49	0xba2af234	-0.00065210764
50	0xbccd11ff	-0.025032995
51	0xbd20792c	-0.03917806
52	0xbd102225	-0.035188813
53	0x3cb6518d	0.022255683
54	0x3d36c2ce	0.044619374
55	0xbcdd0eab	-0.026984533
56	0xbc82e2f3	-0.015977358
57	0x3d437766	0.04772129
58	0x3c7ba27e	0.015358565
59	0x3c8dfa00	0.017331123
60	0x3be82023	0.007083909
61	0xbd94758a	-0.07248981
62	0xbcdd50ea	-0.027016122
63	0x3cd0b8a7	0.025478674
64	0xbd02ac3f	-0.031902548
65	0x3c546ffa	0.01296615
66	0x3d15e072	0.036591
67	0xbd63b5c0	-0.055593252
68	0xbc005a74	-0.007834066
69	0x3ccc25ff	0.024920462
70	0xbd64759e	-0.05577623
71	0x3c24476d	0.010026795
72	0xbc60f1e6	-0.013729548
73	0xbd154ae6	-0.03644838
74	0xbcb5f835	-0.02221308
75	0xbd1db1f4	-0.038499787
76	0x3ae405b3	0.0017396718
77	0x3d178c66	0.03699913
78	0xbcde29be	-0.027119514
79	0x3d0a07eb	0.033698957
80	0x3cfa6ca2	0.030569378
81	0xbd21802b	-0.03942887
82	0x3be10fd9	0.0068683443
83	0xbd486023	-0.048919808
84	0xbc70836e	-0.014679773
85	0x3d09dd64	0.0336584
86	0x3c2bb64f	0.0104804775
87	0x3c400fbc	0.011722501
88	0xbccd8e80	-0.025092363
89	0x3c3410a8	0.010990299
90	0x3cdd93fd	0.027048105
91	0xbd4624c5	-0.04837491
92	0xba5ef10c	-0.0008504547
93	0xbd7c78bf	-0.06163859
94	0xbc6edf3e	-0.014579592
95	0x3d674f21	0.056471948
96	0x3ceecbf6	0.02914999
97	0x3d54d5ed	0.051961828
98	0xbd31bea8	-0.043394715
99	0xbc208067	-0.0097962385
100	0x3c93ce84	0.01804281
101	0xbd1addb5	-0.037809093
102	0x3cad2b44	0.021138795
103	0x3bf416f0	0.0074490234
104	0x3c38ecc8	0.011286922
105	0x3d4c5fd6	0.049896084
106	0xbd972597	-0.073802166
107	0xbd6cce07	-0.05781367
108	0x3af552a8	0.001871665
109	0xbc645c7d	-0.013938067
110	0xbd3d9dba	-0.046292998
111	0xbca09fb6	-0.019607406
112	0xbba6edad	-0.005094251
113	0x3c7b2992	0.015329735
114	0x3c39de4e	0.0113445055
115	0xb9083960	-0.00012991345
116	0xbd815987	-0.06315904
117	0x3c57127f	0.013126968
118	0xbcca34f5	-0.024683455
119	0xbbaed0ba	-0.0053349407
120	0xbcc133b4	-0.023584224
121	0xbd3283ba	-0.043582655
122	0x3c8827aa	0.016620476
123	0x3cd1a96f	0.025593488
124	0xbd1e2b01	-0.03861523
125	0xbd61ed87	-0.055158164
126	0x3be20586	0.006897631
127	0xbca6fcf7	-0.020384295
128	0xbd7f1cac	-0.062283203
129	0x3d2a44d7	0.041569557
130	0xbbcb825a	-0.0062106075
131	0x3cc134c9	0.02358474
132	0xbd5a7f74	-0.053344205
133	0xbd80d64b	-0.06290873
134	0xbcb92001	-0.022598268
135	0x3d22c11b	0.03973494
136	0x3cb23ae0	0.02175659
137	0xbd42b5c5	-0.04753663
138	0x3bb0a8b9	0.005391207
139	0x3c0e9735	0.008703043
140	0xbd9ad5c7	-0.07560306
141	0xbc2da6cb	-0.010598849
142	0x3af1baff	0.001844257
143	0xbca64e61	-0.020301046
144	0x3d3805c5	0.044927377
145	0x3d4391cb	0.04774646
146	0x3d2b554f	0.041829403
147	0x3d04937f	0.032367226
148	0xbbaabbcc	-0.0052103754
149	0x3b383549	0.0028107932
150	0xbd757383	-0.059924614
151	0xbd076762	-0.033057578
152	0xbd66e279	-0.056368325
153	0x3c3a61a8	0.011375822
154	0xbcbcbac8	-0.023038283
155	0xbb80806a	-0.003921558
156	0xbc943b29	-0.018094616
157	0xbd842ecc	-0.06454238
158	0x3d0df820	0.03466046
159	0xbd420d90	-0.047376215
160	0x3d480e04	0.04884149
161	0x3d20309a	0.03910885
162	0xbd0243bf	-0.03180289
163	0xbcb83909	-0.022488134
164	0xbd2b9a1b	-0.041895013
165	0xbd65fb1a	-0.056147672
166	0xbc33199d	-0.0109314
167	0xbd811e71	-0.06304634
168	0x3d28f7f3	0.041252088
169	0x3c175285	0.009235983
170	0xbd5482e4	-0.05188264
171	0xbca87f4c	-0.020568512
172	0xbd23c4e9	-0.03998271
173	0xbc86be11	-0.016448053
174	0xbd6a3f0e	-0.05718904
175	0x3d6f59ee	0.058435373
176	0xbcd75183	-0.026283985
177	0x3bb10aeb	0.005402913
178	0xbcb54a16	-0.022130053
179	0x3d089a92	0.033350535
180	0x3c2368c6	0.00997371
181	0xbc9e4b98	-0.019323155
182	0x3cff1c6d	0.031141484
183	0xbd3f3bec	-0.046688005
184	0xbd1c9e78	-0.038237065
185	0xbd89f429	-0.06736023
186	0xbcc47f0e	-0.023986366
187	0xbd85ef3b	-0.0653977
188	0xbd93a7bc	-0.07209727
189	0x3bfea404	0.007771017
190	0xbb431f04	-0.0029773125
191	0x3bb23c6d	0.005439332
192	0x3c8b59bf	0.017010568
193	0xbd00007c	-0.031250462
194	0xbdaa55f4	-0.083171755
195	0xbd13d49c	-0.036091432
196	0xbd0ea07a	-0.03482101
197	0xbd72814b	-0.059205335
198	0xbc66e3d2	-0.0140924025
199	0xb9f57621	-0.00046818054
200	0x3c10bedc	0.008834567
201	0xbd815ed9	-0.06316919
202	0xbb921f55	-0.0044593015
203	0x3d1b37d7	0.03789505
204	0x3d45156f	0.048116144
205	0xbd81beff	-0.06335258
206	0xbcacf315	-0.021112004
207	0x3bd61c43	0.006534131
208	0xbbea4d85	-0.0071503543
209	0x3a2a9acb	0.00065080513
210	0x3b9cd600	0.004786253
211	0x3d520140	0.051270723
212	0x3bd2567a	0.006419
213	0xbdb1fd61	-0.08690906
214	0x39c0fab2	0.00036807876
215	0xbd8a5333	-0.0675415
216	0x3c4bc874	0.0124379285
217	0xbb94bd49	-0.004539166
218	0xbced9943	-0.029003745
219	0xbd0effef	-0.034912046
220	0x3d16cb30	0.03681487
221	0x3c0db32d	0.008648676
222	0x3d4c6f26	0.049910687
223	0xbc6e876c	-0.014558654
224	0x3c6fe9de	0.014643161
225	0x3d23f9e3	0.040033232
226	0xbcd87207	-0.02642156
227	0xbd2ea3cd	-0.04263668
228	0xbd37d1bd	-0.044877756
229	0x3bdc7549	0.0067278487
230	0xbd9b0e0d	-0.07571039
231	0x3c65bb5b	0.01402172
232	0xbcbd468d	-0.02310493
233	0x3c2af769	0.010434964
234	0xbd371f5d	-0.044707645
235	0xbccde0a9	-0.02513154
236	0xbd0cb5a0	-0.0343529
237	0xbcc2d9d7	-0.023785515
238	0x3b9844e4	0.0046468843
239	0xbd46ac6e	-0.048504286
240	0x3ccbb841	0.024868133
241	0xbd23fe0e	-0.040037207
242	0xba189f5f	-0.0005822088
243	0xbd37cd80	-0.044873714
244	0xbd374fc3	-0.0447538
245	0xbd10997e	-0.03530263
246	0x3ce00b83	0.02734924
247	0x3d55802d	0.05212419
248	0xbcb8d055	-0.022560278
249	0xbce35e22	-0.027754847
250	0xbd383331	-0.044970695
251	0xbd7867e6	-0.06064596
252	0x3d555d65	0.05209102
253	0xbd282ec9	-0.041060243
254	0x3d1d9ca2	0.038479455
255	0x3bb50ec8	0.0055254437

fc1.bias f4 [64]
0	0xbd4c5def	-0.04989427
1	0xbd745e69	-0.05966035
2	0x3c784e3c	0.015155371
3	0x3c356ed6	0.011073789
4	0x3d143151	0.036179844
5	0x3d1dff2f	0.03857344
6	0x3dd9562d	0.1061214
7	0x3dc586a7	0.096448235
8	0x3bafd364	0.005365776
9	0x3db4dbdf	0.088309996
10	0x3cb2c4b7	0.021822317
11	0x3dae30da	0.085054114
12	0xbd576a10	-0.052591383
13	0x3d316159	0.04330573
14	0x3c9f3eaa	0.01943906
15	0x3d23acc8	0.0399597
16	0xbc950804	-0.018192299
17	0x3bf95e85	0.0076101446
18	0x3d86e3cf	0.0658642
19	0x3dc01666	0.09379272
20	0xbc1fec8c	-0.009760987
21	0x3ba9c5a6	0.0051810322
22	0x3ddc9fe6	0.10772686
23	0x3d03f322	0.03221429
24	0xbd5f6feb	-0.054550093
25	0x3d059bd1	0.0326193
26	0x3a8abc0e	0.0010584609
27	0x3ca68b41	0.020330073
28	0x3dba80dd	0.0910661
29	0xbd3463dc	-0.044040546
30	0xbd6de6d9	-0.05808148
31	0x3c4134ac	0.011792343
32	0xbcf95b89	-0.030439155
33	0x3df50a06	0.119648024
34	0xbdafd816	-0.08586137
35	0x3da24ccf	0.07924806
36	0xbc46e0f9	-0.012138599
37	0xbd1c61a8	-0.03817907
38	0x3d91c3fa	0.07117458
39	0xbc21f8bb	-0.009885962
40	0x3c4f9045	0.012668674
41	0xbc91a6c6	-0.01777972
42	0x3cc2e21d	0.02378946
43	0x3c7c7d22	0.015410693
44	0x3df51715	0.11967293
45	0xbd781d11	-0.060574595
46	0xbce8121c	-0.028328948
47	0x3dec62ef	0.115423076
48	0x3dd5d849	0.10441644
49	0xbd8ca482	-0.06867315
50	0x3cd16935	0.025562862
51	0xbd92ebae	-0.071738586
52	0x3cd8c171	0.026459428
53	0x3d4b7790	0.04967457
54	0x3c90b1da	0.017662931
55	0x3d4d8bc3	0.050182115
56	0x3cf5a663	0.029986566
57	0x3dcfec4d	0.10152493
58	0xbd68a455	-0.056797344
59	0x3d5c8ab3	0.05384321
60	0x3cd665e3	0.02617163
61	0x3cd70d2d	0.0262514
62	0xbd690a9c	-0.056894884
63	0xbc2dd583	-0.010609987

batch_norm.weight f4 [64]
0	0x3f7780bf	0.96680826
1	0x3f7e0f23	0.99241847
2	0x3f7e766f	0.99399465
3	0x3fe11375	1.7584063
4	0x3fd3ced0	1.6547489
5	0x3fe8e55d	1.8194996
6	0x3fe1bb96	1.7635372
7	0x3fd30b71	1.6487867
8	0x3f77f938	0.9686465
9	0x3fd81651	1.688181
10	0x3f7be481	0.98395544
11	0x3fe4f723	1.788792
12	0x3f7e5e1c	0.9936235
13	0x3fe3b24b	1.7788786
14	0x3f7d26c8	0.988873
15	0x3f7e766f	0.99399465
16	0x3f7e4327	0.99321216
17	0x3f7e758e	0.99398124
18	0x3fe2b964	1.7712827
19	0x3fd21530	1.6412716
20	0x3fe4684f	1.7844332
21	0x3fcf3826	1.618901
22	0x3fd5d742	1.6706316
23	0x3f7b38ab	0.98133343
24	0x3f7da8bf	0.9908561
25	0x3fe58f1f	1.7934302
26	0x3f7d83ab	0.99029034
27	0x3f788c0e	0.97088706
28	0x3fd45495	1.6588312
29	0x3f800000	1.0
30	0x3f7e4fec	0.993407
31	0x3f7ddd75	0.9916604
32	0x3ff347da	1.9006302
33	0x3fd41f40	1.6572037
34	0x3f7893e7	0.9710068
35	0x3fdd337f	1.728134
36	0x3fd45070	1.6587048
37	0x3f7e766d	0.99399453
38	0x3fc69541	1.5514299
39	0x3f7b0b20	0.9806385
40	0x3f809bbc	1.0047526
41	0x3fd7293e	1.6809461
42	0x3fd9b5e1	1.700863
43	0x3fdd6451	1.7296239
44	0x3fc9e7fc	1.5773921
45	0x3f7c8709	0.9864355
46	0x3f800000	1.0
47	0x3fd86163	1.690472
48	0x3fe52352	1.7901404
49	0x3f7c9616	0.9866651
50	0x3f7de138	0.9917178
51	0x3f7cfb9e	0.9882144
52	0x3f7e31da	0.9929482
53	0x3f800000	1.0
54	0x3f7d1ef2	0.98875344
55	0x3fca9488	1.5826578
56	0x3f7e8019	0.9941421
57	0x3fdaa4fc	1.7081599
58	0x3f7ae710	0.98008823
59	0x3fd7d438	1.6861639
60	0x3fe4b311	1.7867147
61	0x3f7e7672	0.99399483
62	0x3f7d08a7	0.9884133
63	0x3f7e2e59	0.9928947

batch_norm.bias f4 [64]
0	0x3ded00a6	0.11572389
1	0xbe0821f0	-0.13294196
2	0xbe27a45e	-0.16371295
3	0x3bd4e20e	0.0064966744
4	0xbe58a480	-0.21156502
5	0xbd266a36	-0.040628634
6	0xbd95d60a	-0.07316215
7	0xbc0d3213	-0.008617896
8	0xbdfaa91a	-0.12239285
9	0x3dc0ff5a	0.094237044
10	0x3e4baa2d	0.19889136
11	0x3e020006	0.12695321
12	0x3de3e30e	0.111272916
13	0x3d204894	0.039131716
14	0xbe059499	-0.13044967
15	0xbe45bad9	-0.19309558
16	0xbe379d5a	-0.17931119
17	0x3e21eb22	0.15812352
18	0xbe2e7222	-0.17035726
19	0x3de585e2	0.11207177
20	0xbc12b1f9	-0.008953565
21	0x3da7de7e	0.08196734
22	0x3c78a4d9	0.0151760215
23	0xbe0e61d2	-0.13904503
24	0x3ddb06ae	0.106946334
25	0x3dc0f9c7	0.09422641
26	0x3e2aedd9	0.16692294
27	0xbe3165aa	-0.17323938
28	0xbe8690e6	-0.26282424
29	0xbe1e382c	-0.15451115
30	0xbe15cdcc	-0.14629287
31	0xbe3ff4d8	-0.18745744
32	0xbce8d19b	-0.02842026
33	0xbd7738d8	-0.060356945
34	0xbe1de324	-0.15418679
35	0xbc36a9c6	-0.011148876
36	0xbe6fb391	-0.23408343
37	0x3e18005e	0.1484389
38	0xbd0fd6a2	-0.0351168
39	0xbc175092	-0.009235518
40	0xbe26395a	-0.16232815
41	0xbd5e70e9	-0.0543069
42	0xbe152dc5	-0.14568241
43	0xbd7f8627	-0.062383797
44	0xbe07cb24	-0.13261086
45	0xbe107db6	-0.14110455
46	0x3df785b3	0.12086048
47	0x3c15a2bd	0.009133038
48	0x3b8aef2f	0.0042399387
49	0xbde4b9fb	-0.111682855
50	0xbdfc3fa5	-0.12316827
51	0x3e1fec8e	0.15617582
52	0x3e216d96	0.1576446
53	0x3dd8c1da	0.10583849
54	0xbe058608	-0.1303941
55	0x3d9c6217	0.07635897
56	0xbe028469	-0.12745823
57	0x3de30476	0.11084835
58	0x3e457c6a	0.19285741
59	0x3d2706ae	0.040777855
60	0x3da8097b	0.08204933
61	0x3e091d20	0.13390017
62	0x3e55d7f3	0.2088316
63	0x3dfb6a9f	0.12276196

batch_norm.running_mean f4 [64]
0	0x200624a8	1.136237e-19
1	0x00000004	6e-45
2	0x00000004	6e-45
3	0x3fedca55	1.8577372
4	0x377bbd61	1.5004859e-05
5	0x400d475d	2.2074807
6	0x3fec8080	1.8476715
7	0x389bc193	7.427032e-05
8	0x00000004	6e-45
9	0x4088a743	4.2704177
10	0x00000004	6e-45
11	0x40a4f6c6	5.1551237
12	0x00000004	6e-45
13	0x405f8eb8	3.4930859
14	0x00000004	6e-45
15	0x00000004	6e-45
16	0x00000004	6e-45
17	0x00000004	6e-45
18	0x402d498d	2.7076142
19	0x402cef2d	2.7020981
20	0x3ffe29c2	1.9856493
21	0x408cb7c1	4.397431
22	0x3fe5a7d1	1.7941839
23	0x00000004	6e-45
24	0x00000004	6e-45
25	0x3fbb71ab	1.4644064
26	0x00000004	6e-45
27	0x00000004	6e-45
28	0x3fb6ac1d	1.4271275
29	0x00000000	0.0
30	0x00000004	6e-45
31	0x00000004	6e-45
32	0x3fa00c13	1.2503685
33	0x3fb63320	1.4234352
34	0x1693f077	2.3900886e-25
35	0x3fbe8c22	1.4886515
36	0x40c290a7	6.0801578
37	0x00000004	6e-45
38	0x40602f81	3.5028994
39	0x00000004	6e-45
40	0x015c3667	4.044665e-38
41	0x40b4c984	5.649599
42	0x3fb89f42	1.4423602
43	0x400b2782	2.1742864
44	0x3fb0dadc	1.381679
45	0x00000004	6e-45
46	0x00000000	0.0
47	0x3f9b27bd	1.2121502
48	0x4097b439	4.74075
49	0x00000004	6e-45
50	0x00000004	6e-45
51	0x00000004	6e-45
52	0x00000004	6e-45
53	0x00000000	0.0
54	0x00000004	6e-45
55	0x404db7ea	3.2143502
56	0x00000004	6e-45
57	0x40254c28	2.5827732
58	0x00000004	6e-45
59	0x3fdfe656	1.7492168
60	0x3fb8b50f	1.4430255
61	0x00000004	6e-45
62	0x00000004	6e-45
63	0x00000004	6e-45

batch_norm.running_var f4 [64]
0	0x1e1ac9d2	8.1944276e-21
1	0x00000004	6e-45
2	0x00000004	6e-45
3	0x3ff20164	1.8906674
4	0x370d13b1	8.40884e-06
5	0x3fd66742	1.6750262
6	0x3f837890	1.0271168
7	0x3809a2d3	3.2814987e-05
8	0x00000004	6e-45
9	0x3f86b45e	1.0523794
10	0x00000004	6e-45
11	0x3f8fd76c	1.1237617
12	0x00000004	6e-45
13	0x3fe47f47	1.7851342
14	0x00000004	6e-45
15	0x00000004	6e-45
16	0x00000004	6e-45
17	0x00000004	6e-45
18	0x4024644b	2.5686214
19	0x40027720	2.0385208
20	0x40013beb	2.019282
21	0x3f90f83c	1.1325755
22	0x3fdb57df	1.7136191
23	0x00000004	6e-45
24	0x00000004	6e-45
25	0x3fec2761	1.8449517
26	0x00000004	6e-45
27	0x00000004	6e-45
28	0x3fd2a827	1.6457566
29	0x00000004	6e-45
30	0x00000004	6e-45
31	0x00000004	6e-45
32	0x3fb17b53	1.386576
33	0x3f9171a6	1.1362808
34	0x16434517	1.5773775e-25
35	0x3fd398c1	1.6530992
36	0x3fb679ce	1.4255922
37	0x00000004	6e-45
38	0x3f7b628e	0.9819726
39	0x00000004	6e-45
40	0x009c9cbd	1.4382565e-38
41	0x3fdba15c	1.7158618
42	0x3f912236	1.1338565
43	0x3fca788c	1.5818038
44	0x3f867bf3	1.0506576
45	0x00000004	6e-45
46	0x00000004	6e-45
47	0x3f79883f	0.9747352
48	0x3f9c438f	1.2208117
49	0x00000004	6e-45
50	0x00000004	6e-45
51	0x00000004	6e-45
52	0x00000004	6e-45
53	0x00000004	6e-45
54	0x00000004	6e-45
55	0x3fd358a7	1.651143
56	0x00000004	6e-45
57	0x3fd2ff92	1.6484244
58	0x00000004	6e-45
59	0x3f912cf8	1.1341848
60	0x3fce95f2	1.613951
61	0x00000004	6e-45
62	0x00000004	6e-45
63	0x00000004	6e-45
