models/ZARD/classifier_fold3.pth (torch, 991011 bytes, 16 tensors)

conv_layers.0.weight f4 [64, 256, 2]
00000000: 86d8 8bbc 1024 303d 8fa7 c1bd 3e9f a43d
00000010: 47ba 2bbd bfa0 b8bc 686e ddbd 14e2 893d
00000020: cbe6 04bd 597b 843c e3ba 8d3c ba0f 4cbd
00000030: b6c7 cb3c 0306 f93b aecb 89bc 5cbd e7bb
00000040: 1426 6d3d f59c d3bb 80d5 383c 3583 a63d
00000050: a124 ad3c 2872 c2bc ff0f 86bd 91cc dc3c
00000060: 6fd3 f13c 0651 d6b8 78b8 023c 8bce d3bd
00000070: 48c4 733d 4a1a 753c ecd4 1b3d a606 b23d
00000080: 6404 853c 47a6 313d e80f 863d eabd 19bd
00000090: 5e43 41bd c2f7 48bd fe99 90bd 247b b4bc
000000a0: c975 2b3a 50e4 463c 368a f53c a2cb cc3c
000000b0: 672d dcbc 7f26 73bd cd8c edbb 0d89 5f3d
000000c0: b078 10bd cd2a a53c f1e1 28bd 466b a83d
000000d0: 6e1d b03c 9366 dcbd 63c5 16bd ccae 63bd
000000e0: b2a6 c03c d296 1abd 3de6 8fbd 7009 03bc
000000f0: 7a9b 3cbc 36df cc3d 00cd f2bd 0e1c 85bc
00000100: d864 5d3c 166d 0ebd 7e7e 40bd 0737 9fbc
00000110: d51f 0a3c 411c 80bd 4ab1 963d 03db 3fbd
00000120: ab59 e13c bafe 8cbc 616b 233d 827b b6bc
00000130: 3bf0 7abd 88ac c2ba 32c2 b53c ac78 c1bc
00000140: 8b57 5bbd ae17 cabc 8825 a6bd 2918 8dbd
00000150: 3ec2 ed3d 6e9c 85bd fc70 bbbd 8b39 37bc
00000160: 4f46 bc3d af4a 363d d091 463d 296e ac3d
00000170: 3996 38bd 87d3 a23c dc45 603b 8d7a 7f3d
00000180: 1454 3bbd a9c6 8abd 57e9 dfbc 9acb 623d
00000190: a4d0 143d 7fbf 91bc 3c9b 82bd 9b92 0fbd
000001a0: 7317 783d 719d 05bd 3e7b 06bd 970b 993d
000001b0: 16e2 f8bc 16ac 423c bd07 aa3b 3814 383c
000001c0: 156a 093d b880 3d3b 52a6 873d 6a6c 3e3d
000001d0: 9786 923d 790a 273c c671 083d 2d3a 73bc
000001e0: 5cc6 0f3d ee81 7c39 4e4c 4a3d 0761 61bb
000001f0: 53a1 dd3c 654b 913d 28d9 a73d b09a 85bc
00000200: ea90 29bd 0f67 b0bd 97d4 c33d 4234 efbc
00000210: f9e8 833b cec3 7fbd 01fc 763c e4f4 9b3c
00000220: f12f 1ebd 913b 613c 6be0 5f3d 3a64 25bd
00000230: 458d c13d 903e ae3d 1fea 3b3d a977 a0bc
00000240: abf7 48bd 01b6 8a3d 49f3 dbbc 6207 ed3d
00000250: dd09 69bd 80a4 9abc 19e0 6fbc 5300 a33d
00000260: 447d 143e cb60 f93b 7804 c7b9 9e12 5cba
00000270: 3133 173d 3e75 ffbb 7c68 8cbb 931f a13d
00000280: 9a54 ec3c 59f7 0ebd 49ff 973d 15f1 043d
00000290: cb68 4bbd a812 803d ce18 f2bc df11 90bc
000002a0: 1778 b13c 9a8f 31bd ab9d 673d 35c1 a2bd
000002b0: 2776 55bd eea0 4e3d 94ef 26bd f7fe 983c
000002c0: 9b8b 34bd 610c 9b3c 4da5 503d 15dd 10be
000002d0: fc26 a93d 1184 2e3d 72e2 efbc 1a01 ee3b
000002e0: 7195 abbc 3f7f 05bc 3886 54bd 2f19 523c
000002f0: 85df 37bd 229a 553c 0a60 733d 9184 f8bb
00000300: aedb 0dbd 9391 843d 27fa d43c b145 8abd
00000310: 451a 8c3d 11c1 87bb 88f0 ecbd ba2a ae3d
00000320: 3031 24bd f4c1 163c 1ca0 9b3b fa59 36bd
00000330: cf36 0cbd df04 443d 41a1 3ebd 5024 153d
00000340: c365 aabc 1136 62bb c82f 4dbd 76dd 80bd
00000350: 635d d73c c637 343d 102e 2e3d ad39 1abd
00000360: 8e67 1bbd 75b3 5e3d e2bf ec3a 2a72 813d
00000370: dd98 693c 544a e73d ffc4 e83c 4380 973d
00000380: a092 ffbb 49d0 10bc b649 e43d 3131 003c
00000390: a942 013d 0d32 a5bc 6feb a9bc f3d7 48bd
000003a0: 7abd a53c de49 ab3a 192d ac3d a8c0 ca3c
000003b0: c412 3ebd 1765 2f3d 2407 983d 70eb 7ebd
000003c0: 111b 87bd 93a0 9bbc 945f 16bb 99a3 343d
000003d0: c2cc 9b3d 074b 333d 1e05 a0bd 1204 90bc
000003e0: d598 68bc 70e0 963c 0c97 a1bb 99d3 483d
000003f0: 4ecf ec3d 5289 a3bd 92d4 0d3d dc00 0abd
-0.01707102 0.043003142 -0.094557874 0.080381855 -0.041925695 -0.022537587 -0.10812074 0.06732574
-0.032446664 0.016172098 0.017301029 -0.049819686 0.024875503 0.0075995936 -0.016820755 -0.007072134
0.057897642 -0.0064579197 0.011281371 0.081304945 0.02113563 -0.023736075 -0.0654602 0.026953014
0.029519765 -0.00010219407 0.007978551 -0.10342129 0.05951336 0.014959881 0.038044855 0.08692674
0.016237445 0.043371465 0.065460026 -0.03753463 -0.047183387 -0.049064405 -0.07060622 -0.022031374
0.00065406837 0.012139395 0.02997313 0.024999443 -0.026877118 -0.059362885 -0.007249451 0.05457406
-0.035271347 0.02016201 -0.0412311 0.08223586 0.021498408 -0.10761752 -0.036809336 -0.05558662
0.023516987 -0.03774149 -0.07026336 -0.007997856 -0.011511678 0.100035116 -0.11855507 -0.01624873
0.013512813 -0.034772 -0.046995632 -0.019435419 0.008430441 -0.06255389 0.07358034 -0.046839725
0.027508577 -0.017211307 0.039897326 -0.02227569 -0.061264258 -0.0014852444 0.022187326 -0.023617111
-0.053550284 -0.024669494 -0.08112627 -0.06889374 0.116093144 -0.06523977 -0.091524094 -0.011183153
0.09193098 0.044504818 0.0484789 0.08419449 -0.04506514 0.019876255 0.0034221327 0.062372733
-0.04573448 -0.06776173 -0.027332945 0.05536995 0.036331788 -0.017791508 -0.06377265 -0.035051923
0.060569238 -0.03262085 -0.032832377 0.07472914 -0.030381244 0.011881849 0.0051889108 0.011235289
0.033548433 0.0028915834 0.0662352 0.04649011 0.07154577 0.010195368 0.033311628 -0.014845413
0.03510128 0.00024080995 0.049389176 -0.0034390108 0.027054464 0.070944585 0.08195716 -0.016309112
-0.041397966 -0.08613407 0.09562033 -0.029199723 0.0040255752 -0.062442593 0.015074731 0.019037671
-0.03861994 0.013747112 0.05465738 -0.040378787 0.09450773 0.085080266 0.045877572 -0.019588308
-0.04906432 0.06772996 -0.026849406 0.11573674 -0.056894172 -0.018877268 -0.014640831 0.07959046
0.1450091 0.0076104156 -0.00037959567 -0.0008395108 0.036914054 -0.007795959 -0.0042849164 0.078673504
0.028848935 -0.034903858 0.07421739 0.032456476 -0.049660485 0.062535584 -0.029552843 -0.017586647
0.021663709 -0.04334984 0.05654685 -0.079470076 -0.052114632 0.050446443 -0.040755823 0.018676264
-0.04407845 0.018926801 0.050938893 -0.14146836 0.08259389 0.042606417 -0.029282782 0.007263315
-0.020945283 -0.008148014 -0.051885813 0.012823387 -0.0448909 0.013037236 0.05941776 -0.0075841625
-0.03463333 0.064730786 0.025998188 -0.06751574 0.06840948 -0.0041428884 -0.11569315 0.08504243
-0.04008597 0.0092015155 0.004749311 -0.044519402 -0.034231957 0.047856208 -0.046540502 0.036411583
-0.020800477 -0.003451709 -0.050094396 -0.0629224 0.026289647 0.043998502 0.042524397 -0.03765266
-0.037940554 0.054370362 0.0018062557 0.06320603 0.014257637 0.11293474 0.028414248 0.07397511
-0.0077994615 -0.008838722 0.11146872 0.007824228 0.031557713 -0.020165468 -0.020742146 -0.04903407
0.020231951 0.0013068279 0.08407039 0.024750069 -0.046404615 0.042821016 0.07423237 -0.06223625
-0.065969594 -0.018997466 -0.0022945153 0.04410133 0.07607414 0.043772724 -0.07813476 -0.017580066
-0.014196594 0.018417567 -0.0049313363 0.04902992 0.11562978 -0.07985176 0.03462655 -0.033692226

conv_layers.0.bias f4 [64]
00000000: 34f7 1a3c 48e3 05be 7a5e 013d 44eb 7cbd
00000010: de5b 1a3c 3f19 d7bd f1e1 dcbd 5158 1fbc
00000020: 5d2d b1bd 6069 623c 46fa 8c3c 7094 423d
00000030: b899 0b3d 5f83 04bd d2ab 57bd c51c 61bd
00000040: 491e 2c3e 5515 3f3d 4934 ac3d de73 0fbd
00000050: 5b9e c6bc 44eb fa3b 8695 39bd e2bf ebbc
00000060: 82cf c13d 443f 253d a833 1bbb 5081 99bd
00000070: f4cf 6bbd 82a5 8abd 07f9 753c 6be1 a33d
00000080: 9bda 90bd 681b 8e3c f65b 8a3d e51d fa3a
00000090: 8e1b 0cbc 7270 773d 0c6b e6bd 7ea8 283c
000000a0: 2138 a9bd c3ec dbbc 748f 92bb 017f 93ba
000000b0: 90bb cfbc ce91 a03b 0a60 e6bb 1533 3bbd
000000c0: 9297 91bb 0166 953d 9eda debd 4c61 363c
000000d0: 5337 863d cc8a b8bd d03a 243d 6d3b 2f3c
000000e0: 47da c0bd 7993 c8bd a5fd 29bd 6c94 26bd
000000f0: 9a51 c13d dd8c 4fbd 966c 4fbc fe0e 93bd
0.009458352 -0.13074982 0.03158424 -0.061747804 0.009421317 -0.10502862 -0.107852824 -0.009725646
-0.086512305 0.013819069 0.017209183 0.047504842 0.034082144 -0.032351848 -0.052654095 -0.054959077
0.16808428 0.046651203 0.0840841 -0.03502261 -0.024245432 0.0076574404 -0.045308612 -0.02877802
0.09463407 0.040343538 -0.0023681913 -0.074953675 -0.057571366 -0.06769849 0.015012986 0.080019794
-0.07072946 0.017347053 0.067558214 0.0019082396 -0.008551491 0.06040997 -0.11250886 0.010294078
-0.08262659 -0.026846295 -0.0044726674 -0.001125306 -0.025357991 0.004900194 -0.0070304917 -0.045703012
-0.0044431174 0.07294846 -0.10881542 0.011131596 0.06553521 -0.090108484 0.04009515 0.010695321
-0.09416633 -0.09793753 -0.04150166 -0.04066889 0.094393924 -0.050671447 -0.012660166 -0.07180594

conv_layers.1.weight f4 [64, 256, 3]
00000000: f9a5 3d3c f82f 583c e8f2 07bc 9352 1c3d
00000010: e6ea f03a 378b 303d f8d7 1a3c 73bb b83d
00000020: d495 9bbb 1d91 aebc cb72 b7bb 0a96 59bc
00000030: 12e8 833d d2c6 17bd 517f 443c 2892 29bd
00000040: d939 6c3b 036b a43d 2a44 46bd 0b5b 033a
00000050: 746c cdbc 9fcc a9bd 63bc b83c 78dc 0d3c
00000060: 9507 813b 4755 c03c 54ff c9bd 5474 8cbd
00000070: 29d0 b43d 95ec 23bc 8b42 c5bc 87f5 84bd
00000080: 5be6 173c a333 62bc 3841 453d a64d 813d
00000090: 9080 27bd 2c7c 123c da53 9b3d e0f6 ecbc
000000a0: 0264 8f3c c2df 8cbc 69a0 4cbc 2b0b ea3c
000000b0: 27bf 253d 559e 53bc 5671 813d 3947 213c
000000c0: cd65 a73c 1dd3 e7bb a0d2 8d3d 505e bbbd
000000d0: 3a5d 873d 30f3 cb3c 4aab 033d b0f9 92bd
000000e0: 221f 02bd 0c7d 123d f2f4 13bd 8f0b 973c
000000f0: 4ebb 0d3c 47c9 adbd da01 843d 1452 c0bd
00000100: c947 5b3c 3367 d0bb b641 bd3d 53d9 563b
00000110: 2162 8b3d 3b6f 57bd dcc0 13bd 2399 ba3c
00000120: 8fb4 ddbd 0bed c63d 02ac a63c 526f 0bbd
00000130: 7da8 2b3e 1a04 12bb 81b9 56bd dc6e c73b
00000140: f1a3 283d 87fb aebc 6013 463d c45f 793c
00000150: 5839 a43d ebe2 23bd 6572 703c 833b 8cbd
00000160: 5751 323d 9d09 abbd 9c6a 90bd 834d c93c
00000170: 3e93 0cbd b6ba c7bb 7c0b 423d 8831 463c
00000180: 021e ebbd 1376 c639 228f 92bd 046a f13d
00000190: cc6b 1c3c bc3c debc 9008 8c3b 5ac8 8e3c
000001a0: b5ea 123c 0228 b63c a5bc 693d af1a 51bd
000001b0: 4917 b5bc 3a02 a63c 116f 8a3d 6ca3 f83c
000001c0: 9679 94bb c759 bd3c 8726 b9bd b556 9b3d
000001d0: 9ff6 5c3c cff7 583d f0d4 0bbd 3a0c 2cbc
000001e0: f0d8 703d 50ed 183d 5487 383d 23d9 10bd
000001f0: d7db 6e3c b68b c1bd 0941 9c3d caca 4cbc
00000200: 9ad8 793d 6029 08bd 11d2 bb3d b0d4 233d
00000210: 041d d8bc 33db 3ebc a849 343c c0bb 473d
00000220: abdf 97bd 4f11 9dbd 736d 163d 4573 a0bc
00000230: 22bc ae3d 0ed0 c53c 8835 8a3d 4603 a1bc
00000240: 2368 9d3d e79c 763d 1ebe 2f3c 1123 2dbb
00000250: a580 00bd 27a2 1bbd 1e7d 3bbd bfab 5abd
00000260: 2e81 3b3d ab56 b73c 2ac9 33bb a72e 48bd
00000270: 25e8 c93c f788 0abd 9075 50bc 6215 fabc
00000280: 3db8 633c 28b9 f23c 705d 993c b8e8 243d
00000290: 747e d13c 7aaa 9239 e71d 1e3d 045b c0bc
000002a0: f295 f3bc e285 ad3c 789a d03c 11e9 673c
000002b0: f517 753c f0fd 60bc 7a10 8d3d f0c2 943d
000002c0: 6c96 80bd 6e1c 903d b054 d2bc 5cfe 8bbd
000002d0: e487 8c3d e3b7 1b3d 99d5 ac3d ab6d 54bc
000002e0: 8887 843a 0dea 823c 9c27 013d f889 1cbd
000002f0: e251 49bd 28c9 af3c 2357 65bd eee5 d3bd
00000300: 7955 483d ce88 95bd 0ce9 9ebd c1f3 6d3d
00000310: 0f47 bc3d 1585 053d 5857 5cbc dc66 2e3d
00000320: 6776 453d 626b f9bd c945 db3c 2b7c 18bd
00000330: 178e 093d 1a6a 23bd 0929 6e3d 45c7 88b9
00000340: 365c 57bd 2425 9dbd 73c7 bb3b e6d5 c4bd
00000350: 29c3 223c 0923 1fbd 2792 debc c14d 2e3d
00000360: 2239 8c3d a85c 00bd 1f3b 223c 0442 af3c
00000370: e5b8 443c cbf0 883c c8e6 c4bc f6f0 be3d
00000380: ad1f 91bc 9582 cbbc 097a e2bc d3e4 a9bd
00000390: f97f 7f3d 6d6e fa3d 4150 5e3d 1ca4 0c3d
000003a0: 88eb 7dbb 0827 6fbd 4745 583d 94c0 7e3d
000003b0: ac13 2dbd 9a77 c03d 4c38 823d 8261 18bc
000003c0: 2ae5 45bc 3a43 c53d fb5b 39bd 2f54 173d
000003d0: df4b b4bc e793 c13c 49fa 91bc 433b b03d
000003e0: 737d 713d 30d3 b5bd caf8 f03c 6077 093d
000003f0: c8b5 11bd 5098 003e 86f9 32bc ec7e 003d
0.0115752155 0.01319503 -0.008297659 0.038164686 0.0018380552 0.043101516 0.009450905 0.09020128
-0.0047480855 -0.02130943 -0.005598401 -0.013280401 0.06440748 -0.037054844 0.011993245 -0.04139915
0.0036045222 0.08028223 -0.04840485 0.000501082 -0.025076129 -0.082909815 0.022550767 0.008658521
0.0039376714 0.023478163 -0.09863153 -0.06858125 0.08828766 -0.010005136 -0.024079582 -0.06492143
0.00927123 -0.013806256 0.0481579 0.063136384 -0.04089409 0.008940738 0.07584353 -0.028926313
0.017503742 -0.01719654 -0.012489417 0.028569778 0.0404655 -0.012916167 0.06320445 0.009843641
0.020434285 -0.007074727 0.06924939 -0.09148848 0.066095784 0.024896234 0.032145776 -0.0717653
-0.03176797 0.035763785 -0.03612227 0.018438129 0.008650614 -0.08485656 0.06445666 -0.09390655
0.013383814 -0.0063599586 0.09241049 0.0032783344 0.06805826 -0.052596312 -0.036072597 0.0227781
-0.108254544 0.09713181 0.020345692 -0.03404171 0.16763492 -0.0022280277 -0.052423004 0.0060862135
0.04117197 -0.021360172 0.04835832 0.015220586 0.0801875 -0.040011328 0.014675711 -0.068472885
0.043534603 -0.08351443 -0.07051584 0.024573093 -0.03432011 -0.0060952557 0.047374234 0.01209677
-0.11480333 0.00037853475 -0.07156207 0.11787799 0.009547185 -0.02712857 0.0042734817 0.01742952
0.008967091 0.022235874 0.05706467 -0.051050838 -0.02210583 0.020264734 0.067594655 0.030351363
-0.0045310957 0.023114098 -0.09040552 0.075848974 0.013486533 0.052970704 -0.03413862 -0.010500962
0.058800638 0.037335694 0.045050934 -0.035363328 0.014578781 -0.09450476 0.07629592 -0.012499521
0.060997583 -0.033242583 0.09170926 0.039997756 -0.026381023 -0.011648941 0.011003889 0.048763037
-0.07415708 -0.07669317 0.036725473 -0.019586215 0.08531977 0.02414706 0.067484915 -0.019654881
0.07685878 0.060208227 0.01072648 -0.0026418606 -0.031372685 -0.037996437 -0.045773618 -0.053386446
0.045777492 0.022380194 -0.0027433136 -0.048872616 0.024646828 -0.033822026 -0.012723342 -0.030527774
0.013898906 0.029629305 0.018721312 0.040261 0.025572993 0.00027974305 0.038602736 -0.0234809
-0.029734585 0.021182004 0.025464281 0.014154688 0.014959325 -0.013732418 0.06887908 0.07263744
-0.06278691 0.070366725 -0.025675148 -0.068356246 0.068618566 0.038017165 0.08439178 -0.0129656
0.0010111192 0.015980745 0.031531915 -0.038217515 -0.049150355 0.021458223 -0.055991303 -0.1034659
0.048909638 -0.07301484 -0.07759294 0.05809379 0.09193241 0.03259762 -0.013448559 0.042578563
0.04820862 -0.12178685 0.026766675 -0.03722779 0.033582773 -0.03989611 0.058144603 -0.0002608841
-0.052578174 -0.076731 0.0057305633 -0.096111104 0.009934225 -0.03885177 -0.0271693 0.04255462
0.06846835 -0.031338364 0.009901791 0.021393783 0.012006973 0.016716382 -0.024035826 0.093233034
-0.0177153 -0.02484254 -0.027646082 -0.08295598 0.062377904 0.12228093 0.054275755 0.034336194
-0.0038745124 -0.058386832 0.052800443 0.062195376 -0.04225509 0.09397812 0.06358394 -0.009300591
-0.012078563 0.09631963 -0.045253735 0.036945518 -0.022008834 0.023630096 -0.01781954 0.08605053
0.05895753 -0.088781714 0.029415507 0.03356111 -0.03557375 0.12558103 -0.010923749 0.031371042

conv_layers.1.bias f4 [64]
00000000: 0034 1dbe 359a 43bd 3715 473c affa 663d
00000010: a951 d63c 2976 b03d b27a d6bc cdc4 2d3d
00000020: 3551 ca3d be74 98bc 157c 7fbd f7d8 d3bd
00000030: 5dab d23c 27ee aabd 4f9e 5d3d 3145 bf3d
00000040: 937b 5cbd 6b0b 623d 58a0 79bc 3980 98bd
00000050: 27a4 933d b61b 403d 33a5 72bc 5823 543b
00000060: 34a0 f23c a975 02bd 80d6 083c 1298 9d3c
00000070: 7f62 0ebd cfc9 04bd 74d6 1dbd 50b3 4cbd
00000080: 1ec7 353d 0619 d4bb 1b0b 11be 2a7d 19bd
00000090: ff8b cfbd d8c8 acb9 c1e5 1ebd 2d97 a93d
000000a0: 68af 8ebd 3ceb 6abb ef9f 79bd c5fc fb3c
000000b0: c11d 263c b3ec c0bd 5f8c f1bd 4171 a53b
000000c0: c27f a6bd 401f 17bd ac8a fd3c 1233 98bc
000000d0: 63a8 eb3c c9ea 923d dce7 163d fa22 ecbc
000000e0: 5e4c 383b d5e4 0abd 3353 4abd 879b e1bb
000000f0: 8fad 54bd 8f73 fcbc f64b 1dbd 4b64 223c
-0.15351868 -0.047754485 0.012151054 0.056391414 0.026161985 0.08616287 -0.026181553 0.042424012
0.0987877 -0.018610355 -0.062374193 -0.10344117 0.025716478 -0.08346205 0.054106053 0.09339369
-0.053828787 0.05518667 -0.015235983 -0.074463315 0.07209044 0.046901427 -0.014809894 0.00323697
0.029617406 -0.03185049 0.008351922 0.019237552 -0.034761902 -0.032419022 -0.038534597 -0.049975693
0.044379346 -0.0064727096 -0.14164393 -0.03747288 -0.10134124 -0.00032956037 -0.03879333 0.082807876
-0.0696705 -0.0035845777 -0.06094354 0.030760178 0.01013893 -0.09420147 -0.11794352 0.0050489013
-0.081298366 -0.036895037 0.030949913 -0.01857904 0.028766816 0.07173688 0.036842212 -0.028825272
0.002812169 -0.033909637 -0.04939575 -0.0068849954 -0.05192333 -0.030816821 -0.03840252 0.009911607

conv_layers.2.weight f4 [64, 256, 4]
00000000: cb19 073e e708 bfbc 9ef9 02bd a6fe bd3c
00000010: 559e f9bc e26d 373d 0f59 353d ba4f afb9
00000020: 0d93 afbc 8afd d9bc 43a1 19bc 9e60 ee3d
00000030: a07f 3f3d 6dc3 313d 6bbf 2fbb 5b78 e93c
00000040: 27fc 0cbd 74c7 013c 26a0 19bc 81f4 babc
00000050: e39a c83c 712f 06bd e486 443d 3292 8bbd
00000060: e7df b63d 64fa c13c 19b0 f1bd f52d 95bc
00000070: a219 223c 6d87 7b3c 4a49 0abd 3e9a 573d
00000080: fadc 973d 553f bb3d 9919 00bc 29a4 1b3d
00000090: 96d6 c1bd 93b7 693b ceb0 83bd 5fc6 fbbc
000000a0: dc3b b43c 5c57 c0bc 5e34 7d3b 9fb0 0f3c
000000b0: 374e bf3c 45f0 e4bd bf18 443b 417e 603c
000000c0: 7ced 183d 0091 7bbc e28b d2bc c1e4 af3b
000000d0: 7634 86bd 564d bfbd 337b 6639 beb2 bdbc
000000e0: 5c29 33bd f789 d53c be51 0bbd 02f7 ff3c
000000f0: 8226 5d3c e362 22bb 8832 183d 4e11 ba3d
00000100: aa6d 9e3d 0c09 f4bc b200 de3c 77d0 a7bd
00000110: 147e 3439 99a4 e0bc c2d7 cb3d eb71 bd3d
00000120: c650 89bd c148 0fbc 9ff3 72bd a319 cdbb
00000130: cecc fbba ae8d 523c 87dc 9f3d a813 42bd
00000140: 29d9 123c 5c30 aebb 01ad 4bbd 9fb3 53bd
00000150: 8233 babb 0705 f839 c4b8 b8bc a7dd 5a3c
00000160: 874d 96bc 4d04 f4bb 3709 58bd ac05 fb3c
00000170: 9eb8 7a3d 115b 3c3d da64 b6bd 5d73 54bc
00000180: f709 503d 7763 dabd a078 dd3d d722 36bc
00000190: 480a a13d 5203 40bd cda4 06bd fa66 44bd
000001a0: 6392 373d 81a6 253b d101 153d 20bf 743c
000001b0: 32e7 1c3d d537 633b 31da 2dbd 18f7 c1bc
000001c0: a4aa 833c d3b2 e9bc 57f2 9fbc c72a 833c
000001d0: 2179 923c d04b d53c c29b 2e3c b8d1 973a
000001e0: 797e 8d3d cc63 0f3d 8bf3 453d b414 49bc
000001f0: 9ac8 2e3c 4fbf fcbc b315 9c3d 6160 e03d
00000200: b318 e43c 17f3 2e3b 6f12 9c3b 734b 27bd
00000210: ad56 44bd 8b9c 253d 0756 213d 3fd6 25bc
00000220: cfdf b4bc f0f5 b7bd 4970 54bd 220f d73c
00000230: b8eb 99ba 02fe 11be afa2 b33d 9ef1 14bd
00000240: 53a4 813c 445c 28bd 8a33 a2b9 3d6b 99bd
00000250: 08bc f7bd 0735 db3c 2d23 8e3d 2511 69bd
00000260: cfd1 3c3d 23d1 fa3c 66d8 26bd 7166 b83c
00000270: 9138 9ebc 5dd4 8a3d 8e82 41bd 28bc aabc
00000280: f976 adbc e69f 1a3d 3fe2 ff3b c99f 1e3d
00000290: dd7d 5a3b fab7 23bd 9515 a63d d33a 87ba
000002a0: 6271 99bd 4d50 c73b 4fc8 533d 8189 a23a
000002b0: 3318 a13c e980 73bc 2be5 ac3c 9f03 aa3d
000002c0: 0194 e9bc 3f9b 17bd 7ae1 683c da74 14bd
000002d0: 1cb0 e13b 6f14 263e b1d4 a93c 91bd 99bd
000002e0: a213 67bd 6e4d 6f3c 54e3 713d 51d9 36bd
000002f0: 41ad a63c 6482 5e3c 4bc9 2dbd 1135 0e3c
00000300: 9dd1 d7bc e9af 8b3d 2802 b3bc b850 c53b
00000310: 6a29 37bd 76c5 683d 9828 00bd eded 563d
00000320: e2eb 683d 9d4a c9bd 13f7 fc3b be73 8a3d
00000330: 145b d1bc 776a d33b 5c18 00be ca7d fabc
00000340: 666e 9c3d 7708 4e3d 77a5 143d c36c 7e3d
00000350: 9582 1a3b 2bfd 2abd 549b 0fbe d243 87bc
00000360: 3d46 5dbc 6219 233d e98b a1bc 1abb 063d
00000370: b7fc ad3d 42c4 883d 624a 9e3c 5069 c93c
00000380: fbcf 753d 11a7 4f3d f0b1 5bbd 79aa 803d
00000390: ffa6 a6bc d38b 773d 7e07 06bc 1b09 05bc
000003a0: 2e7e 533d ef98 243d a449 a1bc e4a4 923d
000003b0: 688a f73a 6a42 4fbc 06a5 0c3c f24b cdbc
000003c0: 32b8 1a3d 20c2 f2bb 7db9 353d 482a 713b
000003d0: cbe7 0abc 8778 c2bb 8a79 6abd d283 35bc
000003e0: 4b1d 6f3c 9bf8 6f3d c6c5 b53c 73ed 8fbc
000003f0: e16a 9cbd 4a99 b0bc d163 2a3d a5d0 8d3d
0.13193433 -0.023319675 -0.031976335 0.023192715 -0.030471006 0.044782527 0.044274386 -0.00033438002
-0.021432424 -0.026610155 -0.009376827 0.11639522 0.046752572 0.043399263 -0.0026816975 0.028499773
-0.03442016 0.0079210885 -0.009376561 -0.022821667 0.024487918 -0.032760087 0.047980204 -0.06814994
0.08929425 0.023678966 -0.11801166 -0.01821039 0.009893807 0.015352112 -0.0337613 0.05263733
0.07415195 0.09142939 -0.007818603 0.037998352 -0.09464757 0.0035662397 -0.06430207 -0.03073424
0.0220012 -0.023479156 0.003863595 0.008770137 0.023352725 -0.1117864 0.0029921976 0.013701976
0.037335858 -0.015354395 -0.025701467 0.0053678458 -0.06552975 -0.093409225 0.00021980405 -0.02315652
-0.043740615 0.026066763 -0.034013502 0.031245712 0.0134979505 -0.002477818 0.037157565 0.09085332
0.077357605 -0.02978947 0.02709994 -0.081940584 0.00017213105 -0.027422236 0.09953262 0.09250244
-0.067048594 -0.008745373 -0.059314366 -0.0062591597 -0.0019210817 0.012851162 0.07805734 -0.047382027
0.008962908 -0.0053158235 -0.049725536 -0.051684972 -0.0056824097 0.00047305992 -0.02254904 0.01335851
-0.018347515 -0.0074468018 -0.052743163 0.030642353 0.06121122 0.045985285 -0.08905955 -0.012966958
0.050790753 -0.10663503 0.10814023 -0.011116705 0.07863289 -0.046878166 -0.03287201 -0.04794977
0.04481734 0.0025276246 0.036378685 0.014938146 0.038306423 0.003467073 -0.04244441 -0.023677394
0.016072579 -0.028527653 -0.019524736 0.016011609 0.017880024 0.026037127 0.010657253 0.0011582887
0.06908888 0.035007283 0.048327964 -0.012273002 0.010667944 -0.030852942 0.07621326 0.10955883
0.027843809 0.0026695186 0.0047629396 -0.04084344 -0.047934223 0.040432494 0.039388683 -0.010121881
-0.022079377 -0.08982456 -0.051864896 0.026252333 -0.0011743223 -0.14257053 0.08771264 -0.036363237
0.015825426 -0.041103616 -0.00030937447 -0.07491157 -0.12096411 0.026758684 0.06940303 -0.056901116
0.046098527 0.030617302 -0.040733717 0.022509785 -0.019314082 0.06778786 -0.047243647 -0.020841673
-0.021174895 0.037750147 0.007808953 0.0387266 0.003333918 -0.039970376 0.08109585 -0.0010317214
-0.07492329 0.0060825706 0.0517047 0.0012400598 0.01966486 -0.014862278 0.02110537 0.08301472
-0.028512957 -0.03701329 0.014213914 -0.03624425 0.006887449 0.16218732 0.020731302 -0.0750686
-0.056415208 0.014605863 0.059054688 -0.044640843 0.020346286 0.013580892 -0.042428296 0.008679644
-0.026345069 0.068206616 -0.021851614 0.0060215853 -0.04471723 0.05682894 -0.031288713 0.052472997
0.05686558 -0.098286845 0.007719883 0.06760357 -0.025556125 0.0064519006 -0.12509292 -0.030577559
0.07638244 0.05030104 0.036290612 0.062115442 0.0023576368 -0.041745346 -0.14024097 -0.016511831
-0.013505516 0.03981913 -0.019720035 0.032893278 0.08495467 0.06678058 0.019322578 0.02458635
0.0600128 0.050696436 -0.05363649 0.06282515 -0.020343302 0.06043608 -0.008180497 -0.008119847
0.051634006 0.04018491 -0.019688435 0.07160357 0.0018885853 -0.012650112 0.0085842665 -0.025060628
0.03777332 -0.0074083954 0.04436635 0.0036798883 -0.008478115 -0.005934778 -0.057244815 -0.011078792
0.014594386 0.058586698 0.022189032 -0.01756928 -0.07637573 -0.021557469 0.0415991 0.069245614

conv_layers.2.bias f4 [64]
00000000: 7bf1 93ba 53de af3c 43e1 053d 6557 4c3c
00000010: 02ae 96bc 1b28 833c 7081 8c3d 8732 af3b
00000020: 6ca7 973d f179 9e3b ad17 5e3d 6d86 883d
00000030: 2371 a6bd fc39 9a3d b338 07bd 7c3c cabd
00000040: a0ca d1bd 87f7 72bc f6ae 0ebc 6241 273b
00000050: 23dc 81bc 1fa1 bfbd 9270 b93d a9a9 ddbb
00000060: 2826 69bd 31e8 903c 8343 b93c b7eb ccbd
00000070: bb7a 103d 4d46 90bc 251b d33c d9bb 7a3b
00000080: 72b4 913c 98a0 dd3c 78f7 bf3d 7d04 5abd
00000090: b700 8fbd 2e00 623b a279 9f3d df0a 233d
000000a0: 4f80 8e3d a0eb 523d 52bd 4cbd d622 433d
000000b0: 7f5f 493d b4b5 bf3d a77f 7cbd de72 e03c
000000c0: 51b7 ac3d 0e20 3dbd 9a19 ca3c 7118 0ebe
000000d0: cbdc 90bd 38ad c0bd 26e5 32bd 3dfe ddbd
000000e0: 15f2 703c 7133 8a3d 6dd1 9abd 23b8 9bbd
000000f0: e081 9f3d d130 3dbd 7fdf 5f3d b175 b03b
-0.0011287177 0.021468317 0.03268553 0.012472008 -0.01839352 0.016010335 0.06860626 0.0053465995
0.0740498 0.004836314 0.054221798 0.06666265 -0.08127048 0.07530591 -0.033013057 -0.09874818
-0.10243726 -0.014829523 -0.008708706 0.002552115 -0.01585204 -0.09356903 0.09054674 -0.00676461
-0.056921154 0.017688842 0.0226152 -0.100058965 0.035273295 -0.017611647 0.02576978 0.0038258939
0.017786238 0.027054116 0.09373373 -0.053226937 -0.06982558 0.003448497 0.077868715 0.03980529
0.06958067 0.05149424 -0.049985237 0.047640644 0.049163338 0.09360829 -0.061645176 0.027398523
0.08433402 -0.046173148 0.02467041 -0.13876511 -0.07073363 -0.09408039 -0.043675564 -0.10839508
0.014706154 0.06748093 -0.07559476 -0.07603481 0.077884436 -0.046189133 0.0546565 0.0053851237

conv_layers.3.weight f4 [64, 256, 5]
00000000: 1d00 903b c45d 653d 173a 443d 1f95 ebbd
00000010: 1aa1 233d 6463 98bd 2e2b 0d3e 82f1 4ebc
00000020: e53b 153d 9184 953d ffe2 713d 9be5 a3bb
00000030: c47a 95bd 0a7d ba3d 2a70 d0bc c142 333c
00000040: 0194 82bc c1d1 0a3e 7e17 15bd de12 5c3c
00000050: c0c9 1ebc 2493 82bd 64fd c7bc ff6c c23c
00000060: c25a 58bd f250 143d ad41 333d 1e54 853d
00000070: 326e 80bc 65b8 a2bd c9ac 2dbd 063d 57bd
00000080: 2357 923d efba 063e 4716 fa3b df55 cd3c
00000090: aa59 ad3c 6946 a7bb 9217 b0bc ab75 033b
000000a0: ff1a bfbc a5ed c63b 5efc 8abd ec16 2a3c
000000b0: 619a 823d f158 093c cea6 b3bc c3dc f5bc
000000c0: 42ca 473d d9ef 253d f187 f53c 032a 1dbd
000000d0: 20df 65bd 058e 8cbc 1b05 14bc 07d5 2bbc
000000e0: d845 b53a e64a 49bd 084b 6f3b 7665 aabd
000000f0: 0285 f6bc 5a2f 8b39 e3c8 b33d ede9 74bd
00000100: 5f32 88bc 12b3 48bd 59fb 1a3d fca0 843d
00000110: c1af b93d f3c1 1fbc b5b2 443d 6679 87bc
00000120: b039 bebd 20da aabd ce55 72bc 6f65 303c
00000130: 2943 503d cfc0 a43d 954e 80bd 4318 79bc
00000140: 4b93 87bd 7cee 5d3d 5ac1 b3bc c53f b93d
00000150: 41f8 b5bd a95f 013d d109 363c e038 b43c
00000160: eaa4 e03c 3c31 ccbb 249f 3cbd 2c6e aa3d
00000170: f35f 2d3d 7faf b93c a50f d5bc 6ef5 8f3d
00000180: 7f87 843d f6d6 89bc f0af 973d 031c fc3d
00000190: 963b 113d a39f fbbd 4429 0b3d 604e dd3d
000001a0: 8ac3 2bbd df19 553d dc69 833d 94f7 86bd
000001b0: 2398 c03c 94bc 86bb af21 233d 29f6 aebd
000001c0: d099 c53d a32b 31bd 288f aebc bebe 1abc
000001d0: 5315 843d 3b9e 63bc be11 8ebc fa65 d03c
000001e0: d379 44bd d547 3dbc fc5a 50bc 42aa 8a3c
000001f0: aab0 62bd 7aed 563d 3df9 843d 94cd 8a3d
00000200: ef13 243d d4c7 083e 2c1a 16bd a37d 913c
00000210: eeec f0bc 8cd3 67bc d4a6 e0bc 18d9 bebd
00000220: aa2c 0bbc 6f06 9abd f5d7 18bd dd19 9ebb
00000230: edac 203c f532 17bd 5f46 9eba 9784 abbc
00000240: 0893 5ebd afa9 4dbd f8a5 d73c dfd9 463d
00000250: f00e a93d ecc2 c6bd 9da6 033e c996 68bc
00000260: 8952 583c 7dd4 31bd 9811 293b 9cd5 7fbd
00000270: 2bdb 2b3d 7352 883d 1123 80bd d898 74bd
00000280: fbc1 c13c e885 9c3c 5915 90ba 96eb 65bc
00000290: 8227 23bc 9443 f2bb 6862 f1bd e8e9 c03c
000002a0: d347 9d3d aba2 64bd d240 cfbc 2ae9 95bc
000002b0: fb81 75bb f3be ea3c d56c a1bd 77ea b43d
000002c0: 8fee 883c 7ee4 5bbd 254e d6bb b511 203d
000002d0: 1fab 253d 00ec 863d 56b6 a13d f9e0 e03c
000002e0: f796 9abb f4d1 8dbd 0683 5abb b734 5dbd
000002f0: 5a84 d5bc b555 a33d 959f 50bd f1c2 9a3d
00000300: 56c2 103d 45b0 213d a1e9 e23b 7071 b43d
00000310: 2144 16bd e62a efbc 7855 abbc 9ad8 2c3d
00000320: cd92 aa3c 11c1 ae3d 117c 0fbd 8e3b d5bc
00000330: fc1f 1a3d 29a0 8c3d 751a 9d3c cdc0 093c
00000340: 7a67 d43d 4ec9 8d3c 95d3 7a3d b783 183d
00000350: bd24 febc 1054 2b3d 5fbd b93b 304a 103e
00000360: 73ac f9bc 3cda 80bc 95af 29be f387 f1bd
00000370: 1a97 1d3e c31b 9b3c 3457 cabd 076d 07bd
00000380: bb0c 74bd 2de1 6bbc 0356 61bc ce8a b9bc
00000390: 49b9 31bc 6a21 18bc c4d4 33bd afb3 183c
000003a0: 5d65 e83c ea0b e73c e9d6 54bd 78ba 89bd
000003b0: 7a9d d6ba 120c 423d 923f c3bb cc05 1bbd
000003c0: 4c87 593d 85e8 7fbd fa96 abba 0206 733d
000003d0: 4172 55bb ebe5 453c 9d37 10bd 81a0 413b
000003e0: d82b 0f3c e133 813c 66d6 36bd 3908 713d
000003f0: 77d9 1c3b 9b27 8d3d cd74 a5bd 081a 193d
0.0043945448 0.055997625 0.04790696 -0.11503052 0.03994856 -0.07440832 0.13786003 -0.012630822
0.036434073 0.07300676 0.05905437 -0.0050017363 -0.07298806 0.091058806 -0.025444109 0.010941208
-0.015939714 0.13556577 -0.036399357 0.013432233 -0.009691656 -0.06375721 -0.024412818 0.023733614
-0.05282093 0.036210008 0.043763805 0.06510185 -0.015677545 -0.07945327 -0.04240111 -0.05254843
0.07145526 0.13157247 0.00763205 0.02506536 0.02116092 -0.005104829 -0.021495614 0.002005915
-0.023328302 0.00607081 -0.067864165 0.010381442 0.06377102 0.008383022 -0.021930125 -0.030012494
0.048776872 0.04051194 0.029972048 -0.038370144 -0.05612099 -0.017157564 -0.00903442 -0.010487801
0.0013830019 -0.049143694 0.0036513228 -0.083201334 -0.03009272 0.00026547426 0.087785505 -0.0597934
-0.016625581 -0.0489989 0.03783736 0.06476018 0.090667255 -0.009750831 0.04802199 -0.01653738
-0.09288347 -0.08342385 -0.014790965 0.010766371 0.0508453 0.08044588 -0.06264988 -0.015203538
-0.06619891 0.054182515 -0.021942783 0.09045366 -0.08885241 0.03158537 0.011110739 0.021999776
0.027422387 -0.006231455 -0.046050206 0.08321795 0.042327832 0.02266669 -0.026008436 0.07029234
0.06471156 -0.016826134 0.07406604 0.1231003 0.035457216 -0.12286308 0.0339749 0.108059645
-0.041934527 0.052026626 0.064166754 -0.065901905 0.023510044 -0.0041118357 0.039827045 -0.08543045
0.09648478 -0.043254506 -0.021308497 -0.009444891 0.0644938 -0.013892706 -0.017342445 0.025439251
-0.047967743 -0.011552771 -0.012717005 0.016926888 -0.05534426 0.05247257 0.06492851 0.06777492
0.040058073 0.13357478 -0.036646053 0.017760104 -0.029409852 -0.014149558 -0.0274233 -0.09318751
-0.008494535 -0.07520758 -0.037315328 -0.0048248605 0.009806854 -0.03691383 -0.0012075416 -0.020937247
-0.05433944 -0.05021065 0.026324257 0.04854762 0.08254802 -0.09705147 0.12856527 -0.014196106
0.013203272 -0.043415535 0.002579784 -0.062459573 0.04195706 0.06656351 -0.062566884 -0.059716076
0.023652067 0.01910682 -0.001099269 -0.014033219 -0.00995815 -0.00739331 -0.11786348 0.023549035
0.07679715 -0.055819195 -0.025299463 -0.018299658 -0.0037461508 0.028655505 -0.07882086 0.08833783
0.016715316 -0.053684704 -0.0065400773 0.039079387 0.040446397 0.06587982 0.07896106 0.027451025
-0.0047177034 -0.06924811 -0.0033342256 -0.05400535 -0.026064087 0.07975332 -0.05093344 0.07556713
0.035341583 0.039474744 0.0069248234 0.08810699 -0.036686067 -0.02919526 -0.020914778 0.042198755
0.020821953 0.08532918 -0.03503043 -0.026029374 0.03762816 0.068664856 0.019177655 0.008407784
0.10371299 0.017307904 0.061236937 0.037234988 -0.031023378 0.041828215 0.0056683267 0.140908
-0.030477738 -0.015729062 -0.16570885 -0.117935084 0.15389672 0.018934136 -0.09879914 -0.03306296
-0.059582453 -0.014396948 -0.013753417 -0.022649195 -0.010847398 -0.00928531 -0.04390408 0.009320184
0.028368646 0.028203923 -0.051962767 -0.06725019 -0.0016373836 0.047374792 -0.005958506 -0.037847325
0.053107545 -0.062477607 -0.0013091259 0.0593319 -0.0032569321 0.0120787425 -0.035209287 0.002954513
0.0087384805 0.015771808 -0.04463806 0.058845732 0.002393333 0.0689232 -0.080789186 0.03737834

conv_layers.3.bias f4 [64]
00000000: 3650 eebd fa91 a9bc 34cd 32bd ed52 133c
00000010: 9993 12bd 641b 10bc 4802 423d 07d5 5fbd
00000020: a1ae 6dbd 2327 5a3d 5aca b6bd 16f2 e2bc
00000030: 6dc5 bd3c cfb8 97bd fee9 c03d 02c3 80bd
00000040: 08c5 5abd cb3d 9dbc f0c6 48bd 1126 d83c
00000050: 8e17 543d 4d00 e9bc 21ea 0d3b 790e f1bc
00000060: b20a cdbd 8dc6 19be 859a d83d 6bf3 853b
00000070: 08f8 933c dfab d5bd 962b d5bd 9096 823d
00000080: b2a3 093e f5a5 223d 99dc bcbd 775b 6abd
00000090: c5a1 19bd 2727 21bd 497e 06bc fe92 c9bd
000000a0: 35e0 2fbd fd58 e8bd 1872 473b dc17 963c
000000b0: f988 b5bc aea7 483b 2736 0ebd d43a 93bc
000000c0: 9774 debc 3fc2 2cbd 5a86 6fbc 3a30 853d
000000d0: 711a 40bd f03e 3b3d 832b 313d 00b8 21be
000000e0: 8012 3fbd d644 88bd b98c 903d b0e5 a63c
000000f0: b116 c3bc 39e2 ac3d cd10 11bc add4 9ebd
-0.11636393 -0.02069949 -0.04365273 0.008991939 -0.03578529 -0.008795593 0.047365457 -0.054646518
-0.058027867 0.05325998 -0.08925314 -0.027703326 0.023165429 -0.07408296 0.094196305 -0.06287195
-0.05341056 -0.019194504 -0.049017847 0.026385339 0.051780276 -0.028442526 0.0021654444 -0.029425846
-0.100118056 -0.15017147 0.10576347 0.0040878556 0.018062606 -0.104331724 -0.10408704 0.06376374
0.13441351 0.03970905 -0.09221763 -0.057216134 -0.03750779 -0.03934398 -0.00820882 -0.0984249
-0.04293843 -0.11345098 0.0030432995 0.018321924 -0.02216004 0.0030617523 -0.034719612 -0.017972387
-0.027155204 -0.042177435 -0.014619434 0.06503339 -0.046900216 0.04571432 0.043254387 -0.15792847
-0.046648502 -0.066537544 0.07058091 0.020373195 -0.023814531 0.08441586 -0.008854103 -0.077554084

fc1.weight f4 [64, 256]
00000000: 1fab 30bd 475f b83c 7719 b7bc ec47 cfba
00000010: 0da3 90bd ff60 f03c db48 9a3d bb74 ef3a
00000020: c808 ebbc 50e9 e2bc 1c09 dbbc e4a3 30bd
00000030: 5e75 05bc b1eb 81bd f508 2b3d efd0 4cbc
00000040: b681 71bd febb f6bc 5d54 16bc 0b09 ccbb
00000050: d950 90bb eb89 043d ee76 a4bb c152 91bd
00000060: 5e3c 943b 59ce 1bbd e5e0 443d f025 36bd
00000070: 7fe4 b53c 2c38 653b 0d60 8fbd bc76 8ebc
00000080: 1f2a e4bc c9af c3bc a1dc 78bd bb5e 0e3d
00000090: dde7 45bc d843 9fbd 5aeb 8bbd ce98 003d
000000a0: 9c3a 7cbc d594 87bc c136 3f3d 00ac e4bc
000000b0: ccab 0dbd 8011 b7bc 7c1e b33c e3e0 08bd
000000c0: 7eea 92bd 1e50 cb3a 813f 01bd 304e 0cbd
000000d0: 98de d9bc d5d5 b53c 23b9 783d 74dd 08bd
000000e0: aac7 e6bc be9f ff3c 136e 2e3c 57ce f93b
000000f0: 2eda c43c 2a3d 86bd 4c1a cabc 4142 f23c
00000100: 621c 20bd cc4f d2bb ca0b 4a3d c3a5 93bd
00000110: 5329 60bc d5c2 503c 72cc 86bd 80a0 493c
00000120: 0fa6 30bc 3cbc 47bd 140a a8bc dc30 10bd
00000130: 1548 29bc 369d 383d 8f40 3abd e961 bd3c
00000140: 23a4 d83c 6fe7 5dbd 3796 853c 99ed 5ebd
00000150: 6257 8abc 664a 103d fcf0 783b 616a 4c3c
00000160: 7c5c 01bd 1c61 da3a 4611 d93c 75e5 42bd
00000170: 488e e63b e549 51bd 5fae 0a3b d897 453d
00000180: c34f 7c3c 76af 463d 2c21 36bd 1829 acb9
00000190: b357 aa3b 56b8 14bd f5f5 e63c 8687 aa3a
000001a0: 9d93 893c b85a 423d 307d 5abd 78a1 8dbd
000001b0: fa3a d13b 19c8 c8bc cd11 17bd de2f 8fbc
000001c0: 0132 5bbc 2029 0b3c 22bb b63c 5e8d 48ba
000001d0: 497f 72bd 3d53 8c3b 6e0a 09bc e30d 74bc
000001e0: 51e9 e8bc d002 1cbd 93cd 093c 97eb 1e3d
000001f0: b87d 30bd 9c3d 43bd 618d 1abc de26 d4bc
00000200: d6b8 5bbd 61c7 163d 3e04 0f3c e7c2 253c
00000210: c09b 77bd 60e9 88bd 0de3 5dbc eacb 133d
00000220: 4fd2 b43c 894e 6fbd f31f 11bb 2ea8 5ab9
00000230: a9ee 34bd 0556 0cbc 753e 673b 424b 99bc
00000240: b004 503d 23c2 2a3d c3be 223d 1005 e13c
00000250: d663 37bc fe69 95bc 4bb6 85bd 4fa9 9dbc
00000260: d520 96bd 95d3 103c bc18 9cbc 531c 7dbc
00000270: 2672 8cbc 7c43 81bd 7629 1d3d a24d 4cbd
00000280: 1928 143d f6b0 273d ae10 bebc 8858 8cbc
00000290: 725b 27bd e510 65bd 8a4c d8bc 5f54 67bd
000002a0: e00a fe3c 0173 503c 420b 7abd 878a 5dbc
000002b0: 0365 e9bc 0c7c 09bd cc8b 7dbd 4de2 483d
000002c0: 388e eebc 8b94 293c 9f20 62bc 16dd d53c
000002d0: 3d98 093c 0d55 3ebc b41c 0d3d d557 d2bc
000002e0: bb0f 59bd 09c3 7abd c0d4 febb d3ac 49bd
000002f0: bd18 89bd c1a2 5c3c 9ddb f5ba 43e6 cdb9
00000300: 6e3f dc3b e617 2dbd e1b3 5fbd f264 74bd
00000310: 4011 eabc 1a29 86bd 0541 53bd 133c cb3c
00000320: bb44 193c 3997 5cbd 1f8a 99bb 15aa 013d
00000330: 0c8f 1b3d f859 4cbd 5e4a f9bc cc2d 2f3c
00000340: 5487 a4bb ac20 623c 9c36 d43b 0a22 3e3d
00000350: da98 6e3c 72fa 92bd bd6a 90bc 7909 46bd
00000360: 24d5 ab3c 3913 363c 3b81 09bd b8f7 05bd
00000370: d5d3 c03c 525c 813c 9184 623d 9063 cebc
00000380: 2be0 2b3c 0e74 053c 048a d4bc 6da1 3cbd
00000390: ee3e 27bd 7e06 033c 7e62 85bd 2c7e c83c
000003a0: 056c a5bc b412 903c b069 8abd a756 04bd
000003b0: ee1f 09bd 3ab1 72bc 3f3a 323b b6bc 51bd
000003c0: 6240 033d e960 58bd 4af1 2a3a 7574 4abd
000003d0: 8d90 5abd 2318 9fbc 3d81 903c 7adf 493d
000003e0: e505 bbbc a44f e939 528b 45bd ba65 78bd
000003f0: b885 653d 37d5 2cbd e68b f03c 5b4b de3c
-0.043131944 0.02250637 -0.02235101 -0.0015814281 -0.070623495 0.029343126 0.07533427 0.0018269041
-0.02869071 -0.027699143 -0.026737742 -0.04312505 -0.008145658 -0.06343783 0.04175659 -0.0125009855
-0.058961593 -0.030118939 -0.009175387 -0.006226664 -0.004404169 0.03235809 -0.0050190603 -0.07095862
0.004523798 -0.038038585 0.04806604 -0.044469774 0.022203682 0.0034976108 -0.07000742 -0.017390601
-0.027852116 -0.023887532 -0.060757283 0.03475831 -0.012079206 -0.07776612 -0.06831999 0.031395726
-0.015394833 -0.01655046 0.046683077 -0.027914047 -0.034587666 -0.022347212 0.021865122 -0.033417594
-0.07173632 0.0015511548 -0.031554703 -0.034254253 -0.026595399 0.02219669 0.060723435 -0.03341432
-0.02817138 0.0312041 0.010646361 0.0076234746 0.024029817 -0.06554635 -0.024670742 0.029572608
-0.039089568 -0.006418204 0.04932765 -0.07209351 -0.013681727 0.012741764 -0.065819636 0.012306333
-0.010781779 -0.0487635 -0.020512618 -0.035202846 -0.010332127 0.045071803 -0.045471724 0.023117976
0.026445454 -0.05417579 0.01630698 -0.05442581 -0.01688737 0.035227202 0.0037985435 0.012476535
-0.03158234 0.0016661021 0.026497494 -0.04758211 0.007036004 -0.051095862 0.0021161062 0.048240513
0.015399876 0.048507176 -0.04446523 -0.00032837014 0.005198443 -0.03630861 0.028193453 0.001301036
0.01679402 0.047449797 -0.053342044 -0.06915563 0.0063852044 -0.024509476 -0.03688221 -0.01747888
-0.013378621 0.008493692 0.022306029 -0.000765046 -0.05920342 0.0042823837 -0.008364303 -0.014895889
-0.028431566 -0.03808862 0.008410829 0.038798895 -0.043088645 -0.047666177 -0.009433121 -0.02589744
-0.05364307 0.036811236 0.008729039 0.010117269 -0.06045127 -0.06685138 -0.013542903 0.03608314
0.02207294 -0.058424506 -0.0022144287 -0.00020852752 -0.044172917 -0.0085654305 0.003528503 -0.018712644
0.05078572 0.04168905 0.039732706 0.027468234 -0.011193236 -0.018239018 -0.0652891 -0.019245772
-0.07330481 0.008839508 -0.019054763 -0.015448648 -0.017144274 -0.063117 0.03836962 -0.049878724
0.036171053 0.040940247 -0.023201313 -0.017132059 -0.040858693 -0.055924315 -0.026403684 -0.056476947
0.031011045 0.012722732 -0.061045893 -0.013521797 -0.028490549 -0.033565566 -0.0619009 0.049043942
-0.02912055 0.010350357 -0.013801723 0.026106399 0.008398113 -0.011616957 0.0344512 -0.025676647
-0.052993517 -0.061221156 -0.0077768266 -0.049237084 -0.066941716 0.013466538 -0.0018757466 -0.00039272205
0.0067214286 -0.04225912 -0.054614905 -0.05966658 -0.028572679 -0.06550808 -0.05157568 0.024808919
0.0093547655 -0.053855155 -0.004685655 0.031656343 0.037978217 -0.04989049 -0.030430969 0.010692071
-0.005021015 0.013801735 0.0064762365 0.04641918 0.01456281 -0.07176675 -0.017629022 -0.048348878
0.020975657 0.0111129815 -0.03357051 -0.032706946 0.02353851 0.015791092 0.055302206 -0.02519396
0.0104904575 0.008145345 -0.025944717 -0.046052385 -0.0408315 0.007997153 -0.065129265 0.024474226
-0.02019311 0.017587043 -0.067584395 -0.0323092 -0.033477716 -0.014812762 0.0027195362 -0.05120536
0.032043822 -0.052826796 0.000652094 -0.04942747 -0.05336051 -0.019420689 0.01763975 0.04928539
-0.02282996 0.0004450056 -0.04822857 -0.06064389 0.056035727 -0.042195525 0.029363584 0.027135542

fc1.bias f4 [64]
00000000: d2bf 64bd ef2c 09be 31f7 2f3c 9856 30bc
00000010: fdc3 16bd 2038 2dbe 79a5 92bb 41a9 87bd
00000020: 00b7 763c d67d b2bd 7d16 353d 8b81 213d
00000030: 91d6 56bd 4239 37bd d4eb 943c 1723 a3bb
00000040: c6d5 e53c b7ce 023c e329 e93c ed89 10bd
00000050: 4845 88bd 80ab 81bd 6997 d63d 76ef 093d
00000060: 3ba6 59bd 4f81 4ebc 0d32 243b a358 563b
00000070: c7c9 3b3d ff97 1fbd 004e 6abd b9dc a1bc
00000080: bbc6 84bd 2f7d 633d 2a54 6bbd bccf 523c
00000090: bbf6 94bd e7d9 a9bc af64 2b3d 2c87 cbbd
000000a0: 607f 553c cb7f a0bd 921c 9fba 5b80 dd3c
000000b0: 5de1 683d 052a 52bd d6a3 debc c997 723d
000000c0: aba0 0e3d 08cb 6abd c53e ed3c 194e 88bd
000000d0: 9e61 7f3d 9077 4b3d 450c 863d 64d7 06bd
000000e0: c84b 903c 97f3 d33d ea1b 4abd d423 41bd
000000f0: 9ca3 953d 2e6c ce3b 2863 72bd af99 8bbb
-0.055846997 -0.13396047 0.010740087 -0.010762833 -0.036808003 -0.16915941 -0.0044752923 -0.066240795
0.015058279 -0.087154076 0.0442109 0.039430182 -0.05245072 -0.04473234 0.018178858 -0.0049785483
0.028056037 0.007983855 0.028462356 -0.035287786 -0.06653839 -0.06331539 0.10478098 0.033675633
-0.053137045 -0.012604072 0.0025054247 0.003270664 0.045846727 -0.038963314 -0.057203293 -0.01975857
-0.06483217 0.055539306 -0.057453312 0.012866911 -0.072736226 -0.020733787 0.041844066 -0.09937891
0.013030857 -0.078368746 -0.0012139252 0.027038744 0.05685555 -0.051309604 -0.027177732 0.059226785
0.034821194 -0.057322532 0.028960595 -0.06655521 0.062348954 0.04967457 0.06545309 -0.032920256
0.01761426 0.103491955 -0.049343027 -0.04715331 0.07306597 0.006299517 -0.059176594 -0.004260264

batch_norm.weight f4 [64]
00000000: cc88 803f 4c2d c03f 1a55 7d3f c656 c23f
00000010: 4946 ac3f 0668 d93f 52fd 7c3f 43e5 b43f
00000020: 6f76 7e3f 1441 f53f 49eb c63f 34e0 0440
00000030: e266 7e3f e783 c13f 2cd4 7c3f caef b03f
00000040: 3475 cd3f 5a6c bc3f 0d09 c33f 4f7e f63f
00000050: a055 9f3f 1dbf 7c3f 9004 bf3f 3d0d 7f3f
00000060: da9c 7e3f 36f5 7d3f 23a6 7d3f 679b 8c3f
00000070: 48af a63f 93df 983f 4dc4 dc3f 6d2d bb3f
00000080: 1a2b 7e3f 295f c23f ce5c ad3f 326f ca3f
00000090: 70d0 b33f fec4 bf3f e95e ae3f bd63 b13f
000000a0: 89fd 813f 66c7 793f dcfd b43f c759 b43f
000000b0: eacc cb3f 3aa2 7e3f 101c ad3f 07f2 a73f
000000c0: df77 7e3f ca5e a43f 66e1 7d3f 79d9 7d3f
000000d0: 3d96 c83f 0000 803f 3ee2 bd3f c4fd c03f
000000e0: c87e 8f3f 5ab7 b43f 6c76 7e3f fac4 df3f
000000f0: f7e8 f93f 815a 793f 08ee 7c3f 3b95 b63f
1.0041747 1.5013824 0.9895798 1.5182731 1.3458949 1.698487 0.98824036 1.4132465
0.99399465 1.9160485 1.5540553 2.0761843 0.99375737 1.5118378 0.9876125 1.3823178
1.6051393 1.4720566 1.5237137 1.9257296 1.2448006 0.98729116 1.4923267 0.99629575
0.99458086 0.9920229 0.9908163 1.0984925 1.3022242 1.194323 1.7247406 1.4623238
0.9928452 1.518529 1.3543947 1.5815184 1.4047985 1.4981992 1.3622714 1.3858563
1.0155498 0.9756988 1.4139972 1.4089898 1.592191 0.9946629 1.3524189 1.3120736
0.9940166 1.2841427 0.99172056 0.9915996 1.5670849 1.0 1.4834669 1.5077443
1.1210566 1.4118454 0.9939945 1.7481987 1.952422 0.97403723 0.98800707 1.4264292

batch_norm.bias f4 [64]
00000000: 6239 af3d 1541 3f3b 48e4 173d 82bb bc3c
00000010: 4ff8 bb38 272b 173c f06f 73bd 87d8 9f3c
00000020: bb52 2fb9 db5a c9bb 90a8 a9ba 0b59 87bc
00000030: a0d0 2d3d 9ca3 913a 624d 703c 099d a03a
00000040: 9d73 6c3a 0697 ba3a 8ccb 8f3b 50a9 18bc
00000050: 6007 fb3c 7fd5 f339 d762 ce38 114c a6bb
00000060: da3c 093c d05a 2bbd 9290 09bd 3857 2aba
00000070: 6f2f 82ba bfbc bf3b 4a47 86bc 8f8a c23b
00000080: 28aa 24bd 4fc4 02bd 9033 19bd 77b7 ecba
00000090: 48c7 9a3a 431d ef3c dd53 82bb 44e2 91bc
000000a0: 7290 b23b 32ab 06bc ed6e 16ba 67f6 deb9
000000b0: 785d d63a 2d4e 09bd 2601 afbc 73e6 03bc
000000c0: 8292 d2bb fea0 14bb c528 33bd e50e 2a3d
000000d0: 8bc2 f1bc 74c6 0cbc abfd 0ebd d04f 2fbc
000000e0: 40e0 2a3a 0b70 573b 865f 0c3b 7036 d4b8
000000f0: 9675 3dba 0627 27ba 97c8 973d 691e 833a
0.08555867 0.002918308 0.03708294 0.02303863 8.963106e-05 0.009226597 -0.059432924 0.019512428
-0.0001672012 -0.006144864 -0.0012943912 -0.016521951 0.04243529 0.0011111381 0.014666887 0.0012253831
0.0009019913 0.0014235682 0.0043882784 -0.009317711 0.030643165 0.0004650764 9.841256e-05 -0.005074986
0.008376325 -0.041834652 -0.03358514 -0.0006497982 -0.0009932349 0.0058513577 -0.016391415 0.0059369276
-0.040201336 -0.031925496 -0.03740269 -0.0018060048 0.0011808658 0.029188758 -0.0039772824 -0.017808087
0.005449348 -0.008219527 -0.0005738575 -0.00042526724 0.001635476 -0.03352182 -0.021362852 -0.008050549
-0.0064261565 -0.0022678967 -0.043740053 0.04151811 -0.02951171 -0.008592237 -0.034909885 -0.010700181
0.0006518401 0.003287318 0.002141924 -0.000101190875 -0.00072272995 -0.00063763594 0.07411306 0.001000357

batch_norm.running_mean f4 [64]
00000000: 0400 0000 0400 0000 0400 0000 0400 0000
00000010: 0400 0000 0400 0000 0400 0000 0400 0000
00000020: 0400 0000 0400 0000 0400 0000 0400 0000
00000030: 0400 0000 0400 0000 0400 0000 0400 0000
00000040: 0400 0000 0400 0000 0400 0000 0400 0000
00000050: 0400 0000 0400 0000 0400 0000 0400 0000
00000060: 0400 0000 0400 0000 0400 0000 0400 0000
00000070: 0400 0000 0400 0000 0400 0000 0400 0000
00000080: 0400 0000 0400 0000 0400 0000 0400 0000
00000090: 0400 0000 0400 0000 0400 0000 0400 0000
000000a0: 0400 0000 0400 0000 0400 0000 0400 0000
000000b0: 0400 0000 0400 0000 0400 0000 0400 0000
000000c0: 0400 0000 0400 0000 0400 0000 0400 0000
000000d0: 0400 0000 0000 0000 0400 0000 0400 0000
000000e0: 945f ff15 0400 0000 0400 0000 0400 0000
000000f0: 0400 0000 0400 0000 0400 0000 0400 0000
6e-45 6e-45 6e-45 6e-45 6e-45 6e-45 6e-45 6e-45
6e-45 6e-45 6e-45 6e-45 6e-45 6e-45 6e-45 6e-45
6e-45 6e-45 6e-45 6e-45 6e-45 6e-45 6e-45 6e-45
6e-45 6e-45 6e-45 6e-45 6e-45 6e-45 6e-45 6e-45
6e-45 6e-45 6e-45 6e-45 6e-45 6e-45 6e-45 6e-45
6e-45 6e-45 6e-45 6e-45 6e-45 6e-45 6e-45 6e-45
6e-45 6e-45 6e-45 6e-45 6e-45 0.0 6e-45 6e-45
1.03144475e-25 6e-45 6e-45 6e-45 6e-45 6e-45 6e-45 6e-45

batch_norm.running_var f4 [64]
00000000: 0400 0000 0400 0000 0400 0000 0400 0000
00000010: 0400 0000 0400 0000 0400 0000 0400 0000
00000020: 0400 0000 0400 0000 0400 0000 0400 0000
00000030: 0400 0000 0400 0000 0400 0000 0400 0000
00000040: 0400 0000 0400 0000 0400 0000 0400 0000
00000050: 0400 0000 0400 0000 0400 0000 0400 0000
00000060: 0400 0000 0400 0000 0400 0000 0400 0000
00000070: 0400 0000 0400 0000 0400 0000 0400 0000
00000080: 0400 0000 0400 0000 0400 0000 0400 0000
00000090: 0400 0000 0400 0000 0400 0000 0400 0000
000000a0: 0400 0000 0400 0000 0400 0000 0400 0000
000000b0: 0400 0000 0400 0000 0400 0000 0400 0000
000000c0: 0400 0000 0400 0000 0400 0000 0400 0000
000000d0: 0400 0000 0400 0000 0400 0000 0400 0000
000000e0: a92b dc16 0400 0000 0400 0000 0400 0000
000000f0: 0400 0000 0400 0000 0400 0000 0400 0000
6e-45 6e-45 6e-45 6e-45 6e-45 6e-45 6e-45 6e-45
6e-45 6e-45 6e-45 6e-45 6e-45 6e-45 6e-45 6e-45
6e-45 6e-45 6e-45 6e-45 6e-45 6e-45 6e-45 6e-45
6e-45 6e-45 6e-45 6e-45 6e-45 6e-45 6e-45 6e-45
6e-45 6e-45 6e-45 6e-45 6e-45 6e-45 6e-45 6e-45
6e-45 6e-45 6e-45 6e-45 6e-45 6e-45 6e-45 6e-45
6e-45 6e-45 6e-45 6e-45 6e-45 6e-45 6e-45 6e-45
3.557047e-25 6e-45 6e-45 6e-45 6e-45 6e-45 6e-45 6e-45

fc2.weight f4 [2, 64]
00000000: e4cd 8c3d 75ae 503c 796b 6e3d a7a8 c2bd
00000010: 3951 7a3d 641b bd3d a069 093e ede8 abbc
00000020: 8a10 1fbc 8b44 953e eeb5 b8bd 15f2 0e3e
00000030: 0640 7bbb 172f 9dbd 668c 393c 39fe 673c
00000040: bfb1 753c 8332 90bd d290 ad3d 8b04 99be
00000050: 819b 60bd 34f6 2f3c 08b5 8c3d 4660 39bc
00000060: 223a 503a a344 68bd e21d b1bd 1c78 df3c
00000070: 4d7b 513d c78f 413d affe ce3d ac2c 8cbd
00000080: 1dc6 aebd 7eb1 073e 38a5 3a3d 4f1b b93d
00000090: efbe 683c 9489 babd cca3 d13b b8d7 5e3c
000000a0: 5d15 8a3d 5918 9fbd e0e0 aa3c 932f e13b
000000b0: 9ce4 51bd ea0d 84bc a2da c4bc c160 cabb
000000c0: f470 a4bd 039c 4e3d 175d 1ebd a68f 88bc
000000d0: 8094 4e3d f0cd ccbc 109d 723d df09 33bd
000000e0: cd7f 67bd 47ea 2cbd 2c23 89bc 084f 56bd
000000f0: e96b aa3e 90dc 9dbd e4fd 0bbe 9464 0c3e
00000100: 3592 4ebd 950b 983c 20c5 82bc 4fa1 48bd
00000110: 9219 703d ca9c 0b3c 6e81 7a3c 79c7 933c
00000120: 5b8c 24bc 8bb8 92be c908 bebd e3be 9dbe
00000130: 7878 533d 5ea0 98bd bc37 253d 35b5 6d3c
00000140: 56dc 883c 4635 95bd fbfa bf3d 6516 ab3e
00000150: 31d8 833b d9c6 203c 4521 8d3d 68f3 aebc
00000160: d1b1 82bc 786c 243b ba26 9ebc fcce d43c
00000170: cb28 583d 4031 103d f81b 3cbd 3d56 a4bd
00000180: ab95 49bc 869b 8c3d 1c7f efbc 4580 c03d
00000190: d35e ff3b 7c99 2c3a 059e d0ba 6c01 23bd
000001a0: c960 a03d 4bcc 7abd 0c7c a13c 1b4f c53b
000001b0: ce40 5fbd 2296 503d cac9 903c 76e1 b9bc
000001c0: 3a27 8abd c62d 613d 27ef bf3c 134d 043d
000001d0: 0503 e03d de28 01bc 1d06 19bc e007 85bd
000001e0: 991b 63bd 9603 12bd 1648 4ebc 58a1 54bd
000001f0: d6b9 4abe 2f3e 9bbd a470 c3bd b0f6 37bd
0.06875208 0.012736906 0.058207963 -0.09504824 0.061112616 0.0923374 0.13419199 -0.020985091
-0.009708533 0.29153857 -0.09019075 0.13959534 -0.0038337721 -0.07674997 0.0113249775 0.0141597325
0.014995991 -0.07040884 0.08474888 -0.2988628 -0.0548358 0.010739852 0.068704665 -0.011314457
0.0007943233 -0.056706082 -0.08648278 0.027278952 0.05114298 0.047256257 0.10107171 -0.06844458
-0.08533881 0.13251302 0.04556772 0.09038412 0.014205678 -0.09108272 0.0063977 0.013601236
0.06742356 -0.07768316 0.020859182 0.0068721264 -0.05124341 -0.016119916 -0.024030033 -0.0061760847
-0.080293566 0.050441753 -0.038662996 -0.01667006 0.05043459 -0.025000542 0.059231818 -0.043710586
-0.056518365 -0.04221561 -0.016740404 -0.052321464 0.33285454 -0.077080846 -0.1367107 0.13710243
-0.050432403 0.01856021 -0.015963137 -0.04898196 0.058618136 0.008521268 0.0152896475 0.018039452
-0.010043229 -0.2865642 -0.092790194 -0.30809698 0.05162856 -0.074524626 0.040336356 0.014508535
0.016706627 -0.07285552 0.093740426 0.33415523 0.0040235748 0.009813034 0.06891111 -0.0213563
-0.01595393 0.0025089066 -0.019305576 0.025977604 0.05277328 0.03520322 -0.04592511 -0.08024261
-0.01230375 0.06865601 -0.029235415 0.093994655 0.0077932863 0.000658415 -0.0015916234 -0.039796278
0.0783096 -0.061229985 0.01971247 0.006021393 -0.054505162 0.050924428 0.017674346 -0.022690516
-0.06745763 0.054975294 0.023429466 0.032300066 0.10938076 -0.007883279 -0.009339836 -0.06495643
-0.05544624 -0.03564795 -0.012590429 -0.051911682 -0.19797453 -0.0758022 -0.09542969 -0.044912994

fc2.bias f4 [2]
00000000: 4162 5d3d e8aa 303d
0.05404878 0.04313174
