models/ONE OK ROCK/classifier_fold4.pth (torch, 991712 bytes, 16 tensors)

conv_layers.0.weight f4 [64, 256, 2]
-0.031954132 0.122775294 0.03721554 0.054535862 -0.0057938914 -0.10557663 -0.077155635 0.10082846
-0.02485845 -0.09412668 -0.12450314 -0.09412259 -0.08504702 0.011530277 -0.021792883 0.023978021
0.15146485 0.030516569 -0.044446956 -0.0410202 0.024035942 -0.08722708 -0.09368558 -0.061135698
0.030461187 -0.038938373 0.0066754078 0.011669604 0.061729804 -0.027047789 -0.026016898 -0.0048210085
0.09484194 0.12553786 -0.043085665 -0.031850763 -0.0056802086 0.0073060784 -0.076390535 -0.064586565
0.046675783 -0.029405296 -0.034884863 -0.041501828 0.12614755 -0.018927297 0.058672734 0.029226512
0.08978371 0.07749087 0.11948251 0.10752969 0.07705772 -0.012580023 -0.023052875 -0.024713466
0.048412755 -0.088357344 -0.12720393 -0.012766241 0.059508815 0.043598037 0.049283408 -0.0804954
0.09207803 0.1283879 0.039072216 0.052681338 -0.046717014 0.042209692 0.011516824 0.09769403
0.0002620628 -0.070173696 -0.028588539 -0.10530713 -0.014649097 0.006039089 0.021903818 0.03053143
-0.11748095 0.07349029 0.0034070557 -0.029459767 0.015429921 0.06379021 -0.10875205 -0.118567966
-0.024286589 0.0029758269 0.03596697 -0.040022533 -0.065589905 -0.027705766 -0.000605958 -0.039560594
0.07272695 0.057111096 -0.12586589 0.01575646 0.061851323 -0.060132954 -0.019287955 -0.05202438
-0.0041551674 0.020893928 0.009630971 -0.058857948 0.009384554 -0.07894042 -0.05062825 0.011805566
0.10947716 -0.03135897 0.035316702 0.022898234 -0.052469674 0.016699849 0.011375646 0.0027430456
0.07919482 0.031167671 -0.04502243 -0.11668495 -0.051388964 0.020459889 0.06067839 0.04525632
-0.013493338 -0.07182446 0.04143665 0.05941073 0.10253058 -0.07379772 0.07418266 -0.04839926
0.0012103879 -0.043338854 -0.040756352 0.07967815 0.087522 -0.11321351 0.057287715 0.027000746
-0.06551155 -0.018481115 0.030954177 0.01785963 -0.033829585 0.006654531 -0.08140766 0.05432727
-0.036796566 0.008823117 0.013443675 0.07180785 0.006366509 -0.028143153 -0.040544827 0.008121716
0.024140222 0.005098152 -0.0524994 -0.045810014 -0.033177502 0.042561825 -0.0012596704 -0.0022730033
-0.095406584 0.06393526 0.038709454 0.05145217 -0.109086126 0.058214255 0.050728206 -0.055471852
0.032950703 -0.06593864 0.1342369 0.0014823179 0.09956103 0.06963078 0.0056077526 -0.020667126
-0.036465798 -0.018473616 0.09776031 0.044189475 0.0982908 0.014375124 -0.103974976 -0.13325725
-0.08198949 0.02731716 -0.031428777 0.07026107 -0.051841654 -0.00817956 0.0172221 0.034737546
0.060279083 -0.052364618 0.05828398 -0.05491053 -0.0077653164 0.014842022 0.016759753 0.091196865
0.023984216 -0.07400495 -0.019383015 0.04549116 -0.09338882 0.023033114 0.078857645 -0.03423164
-0.04413672 0.019584442 0.13329339 0.022107186 -0.06481715 0.019718464 -0.0042711142 0.030598957
-0.13035072 -0.045458127 0.07460809 0.007824525 0.064563565 -0.07362315 0.049330782 0.03339873
0.11021755 0.01593781 0.064921245 -0.07676027 0.036194522 0.041491605 0.026031392 -0.054287173
-0.035085034 0.034435287 0.047994632 0.023335215 0.01740127 0.10148692 0.14411718 -0.01879237
0.023059553 -0.008350223 -0.06972509 -0.06644061 -0.015054882 -0.030450117 0.0076436084 0.04335658
00000000: 56e2 02bd 9d71 fb3d 526f 183d ff60 5f3d
00000010: afda bdbb 8f38 d8bd c603 9ebd 277f ce3d
00000020: f3a3 cbbc 7dc5 c0bd 81fb febd 58c3 c0bd
00000030: 222d aebd 7de9 3c3c fd86 b2bc 8e6d c43c
00000040: 9a19 1b3e e2fd f93c 030e 36bd cc04 28bd
00000050: 06e7 c43c 1ca4 b2bd 3ade bfbd 6d69 7abd
00000060: bd89 f93c d87d 1fbd 61bd da3b de31 3f3c
00000070: 64d8 7c3d 5393 ddbc 6421 d5bc 8df9 9dbb
00000080: 7e3c c23d ff8c 003e 987a 30bd f275 02bd
00000090: 0b21 babb d467 ef3b a472 9cbd f645 84bd
000000a0: 1b2f 3f3d 60e3 f0bc 6ee3 0ebd d2fd 29bd
000000b0: d32c 013e 6b0d 9bbc d252 703d 706c ef3c
000000c0: 86e0 b73d 89b3 9e3d 3fb3 f43d 8738 dc3d
000000d0: 70d0 9d3d 711c 4ebc 62d9 bcbc e573 cabc
000000e0: 744c 463d b2f4 b4bd bf41 02be 7f29 51bc
000000f0: 84bf 733d db93 323d 66dd 493d c6da a4bd
00000100: 6893 bc3d 1e78 033e 300a 203d 63c8 573d
00000110: 575a 3fbd 12e4 2c3d 10b1 3c3c cf13 c83d
00000120: 7965 8939 3ab7 8fbd 8332 eabc 44ab d7bd
00000130: c402 70bc 8de3 c53b a36f b33c 0d1d fa3c
00000140: da99 f0bd 1482 963d e948 5f3b 9c55 f1bc
00000150: c8cd 7c3c 71a4 823d 65b9 debd c3d3 f2bd
00000160: abf4 c6bc 1706 433b 1a52 133d abee 23bd
00000170: 0054 86bd 34f7 e2bc 27d9 1eba 4a0a 22bd
00000180: def1 943d 53ed 693d fde2 00be b113 813c
00000190: d057 7d3d f94d 76bd c601 9ebc 8417 55bd
000001a0: 1228 88bb be29 ab3c 38cb 1d3c 0815 71bd
000001b0: acc1 193c 84ab a1bd 915f 4fbd 226c 413c
000001c0: 9035 e03d 4372 00bd 3fa8 103d 1495 bb3c
000001d0: 71ea 56bd 1fce 883c eb60 3a3c abc4 333b
000001e0: e530 a23d 5853 ff3c 7169 38bd 85f8 eebd
000001f0: 3c7d 52bd 7f9b a73c e789 783d b15e 393d
00000200: 2913 5dbc b418 93bd 7ab9 293d aa58 733d
00000210: 8dfb d13d 4223 97bd 14ed 973d 4d3e 46bd
00000220: e1a5 9e3a 1584 31bd 22f0 26bd 4c2e a33d
00000230: bc3e b33d 7cdc e7bd 86a6 6a3d ab30 dd3c
00000240: eb2a 86bd b565 97bc 9d93 fd3c 5c4e 923c
00000250: e490 0abd 410e da3b 0fb9 a6bd 4586 5e3d
00000260: ffb7 16bd d68e 103c dc42 5c3c fe0f 933d
00000270: 269e d03b 788c e6bc 5512 26bd f210 053c
00000280: b7c1 c53c 660e a73b 9c09 57bd 48a3 3bbd
00000290: 22e5 07bd 4f55 2e3d 861b a5ba abf6 14bb
000002a0: 8764 c3bd 7df0 823d ce8d 1e3d 83bf 523d
000002b0: 8c68 dfbd 1272 6e3d 61c8 4f3d 7436 63bd
000002c0: 51f7 063d d60a 87bd 6675 093e 564a c23a
000002d0: a7e6 cb3d 959a 8e3d 3dc1 b73b 1b4e a9bc
000002e0: 295d 15bd fb55 97bc 8f36 c83d 0600 353d
000002f0: b04c c93d a485 6b3c d5f0 d4bd 9774 08be
00000300: 1bea a7bd 3dc8 df3c 76bb 00bd 09e5 8f3d
00000310: ea57 54bd 9003 06bc 5d15 8d3c f548 0e3d
00000320: 33e7 763d 487c 56bd 2fbb 6e3d dde9 60bd
00000330: 3274 febb f42b 733c c04b 893c 6cc5 ba3d
00000340: 8c7a c43c e88f 97bd 21c9 9ebc f054 3a3d
00000350: a342 bfbd f1af bc3c 1e80 a13d 7a36 0cbd
00000360: b5c8 34bd 8d6f a03c 107e 083e 211a b53c
00000370: dbbe 84bd 9e88 a13c b4f4 8bbb aaaa fa3c
00000380: a97a 05be 4d32 3abd 20cc 983d 7032 003c
00000390: e739 843d bcc7 96bd 130f 4a3d 1bcd 083d
000003a0: bdb9 e13d 0390 823c 6ef5 843d 7d34 9dbd
000003b0: b540 143d 1af3 293d c93f d53c 3a5c 5ebd
000003c0: 53b5 0fbd 040c 0d3d 0596 443d 7e29 bf3c
000003d0: 1c8d 8e3c 60d8 cf3d 7493 133e 75f2 99bc
000003e0: 63e7 bc3c 60cf 08bc 07cc 8ebd 0412 88bd
000003f0: c0a8 76bc 8672 f9bc 3c77 fa3b ab96 313d

conv_layers.0.bias f4 [64]
-0.09821102 0.029587913 -0.087031774 0.0016449015 0.09069271 0.06822075 -0.12716883 0.015722455
-0.037704363 -0.08114955 -0.011026484 0.055359926 -0.12264379 0.031786483 0.058449104 0.011836743
-0.050886534 -0.031069443 0.0015411275 0.03565635 -0.04495423 0.06495153 0.029101172 0.05546609
0.0066882716 -0.13217257 0.011422795 -0.062486336 -0.1837618 -0.05388146 -0.023515249 0.08282739
-0.1467883 0.08641673 -0.009371046 0.03920172 0.11291205 -0.074615024 -0.07661839 -0.012935212
0.03025699 -0.11299145 0.07852726 -0.09374854 -0.016662689 -0.0077495235 0.027781349 0.059733134
-0.032105617 0.0056514903 -0.015918935 -0.046875797 -0.060539067 -0.022999808 -0.006117965 -0.0802049
-0.05633024 -0.07192198 0.06694111 -0.10281955 0.09828285 -0.036664933 -0.048584953 -0.07321942
00000000: dc22 c9bd 5a62 f23c b73d b2bd bc99 d73a
00000010: 19bd b93d 52b7 8b3d 8c38 02be 61cc 803c
00000020: e46f 1abd bc31 a6bd 6da8 34bc 17c1 623d
00000030: ab2c fbbd 8b32 023d 5468 6f3d e6ee 413c
00000040: 666e 50bd 5885 febc a8ff c93a 650c 123d
00000050: ed21 38bd 4f05 853d 9565 ee3c 6930 633d
00000060: 4a29 db3b 3f58 07be ad26 3b3c acf1 7fbd
00000070: 0e2c 3cbe ceb2 5cbd 0da3 c0bc 68a1 a93d
00000080: ac4f 16be 41fb b03d 0489 19bc fc91 203d
00000090: 6f3e e73d c3cf 98bd 1aea 9cbd 36ee 53bc
000000a0: 82dd f73c 1068 e7bd e6d2 a03d 3cff bfbd
000000b0: 3180 88bc b7ef fdbb b695 e33c bbaa 743d
000000c0: 2e81 03bd 2330 b93b 6d68 82bc d600 40bd
000000d0: d0f7 77bd 186a bcbc 3679 c8bb 7742 a4bd
000000e0: 8aba 66bd d54b 93bd 6c18 893d 0e93 d2bd
000000f0: 8548 c93d f82d 16bd 0401 47bd 10f4 95bd

conv_layers.1.weight f4 [64, 256, 3]
-0.0771471 0.041126728 0.051621556 0.024592461 0.025536057 0.08912232 -0.0032298286 0.026845874
0.083649226 0.002791026 0.0015871755 -0.025236908 0.020481734 -0.09139771 0.080904245 0.0711622
-0.016498514 0.014648315 0.018534176 0.0057605836 0.03736588 0.026474493 0.009354822 0.067361414
0.030465288 -0.051344123 -0.07396067 0.09320523 -0.016226448 0.009443995 -0.08769587 -0.1341956
-0.16165152 0.07736276 0.011438633 0.09956115 -0.059455853 0.040643264 0.04131393 0.055078246
-0.019447513 -0.09407654 0.06309433 0.04953615 -0.0630817 0.04442885 0.026487725 0.0075949295
-0.019761877 -0.06627794 0.026967363 0.037534505 -0.017796168 0.0527294 0.04644337 -0.024158973
0.004155583 -0.029468533 -0.0045068758 0.017967802 0.03365839 0.14824633 0.13619304 0.11535643
-0.02816544 -0.019093078 0.035837207 -0.066451535 0.024742385 -0.08097352 0.08755549 -0.05076823
-0.032149494 0.040204156 -0.046911985 0.07040741 0.0271799 -0.051883202 -0.092344746 -0.024279637
-0.011775715 0.013763555 0.037899192 -0.05083974 -0.0035087294 -0.04363957 -0.07738797 -0.08503206
-0.019007226 -0.08731944 -0.013890832 0.0257645 0.039941147 -0.07024211 0.020443492 0.034060948
-0.28215024 -0.0035222431 -0.10385195 0.057745438 0.03224336 -0.018926343 -0.04497614 0.034824397
0.045400172 -0.031161841 0.14505413 0.032586854 -0.084503405 -0.081745155 -0.06523061 0.028203769
0.017940626 -0.04105493 -0.043432616 0.09507794 0.13061802 -0.04431614 -0.017807567 -0.0023944536
0.15329532 -0.06677273 0.008398756 0.03984704 0.03981046 -0.008706203 0.1439417 0.020990334
-0.0400297 0.01771574 -0.039907955 -0.00082680816 -0.093100995 0.026944261 -0.047818497 -0.0052900366
0.013369901 -0.06995811 0.11157761 -0.021003222 0.04828883 -0.010469514 0.08078508 -0.024217192
0.039852697 0.068169065 -0.10199466 0.07906871 0.055290908 -0.021634117 -0.06273645 0.13308649
-0.04925501 -0.067907855 -0.052365616 -0.0785679 0.0011223365 -0.09564855 0.0015507565 -0.026771719
-0.04039374 -0.1350775 -0.015580791 0.06048697 0.056092933 -0.07861791 -0.016075833 -0.009611623
0.026143968 -0.009536487 0.10277462 -0.10716887 0.010601044 0.06811649 0.11885244 -0.005276378
0.00015441902 0.06870025 -0.057124842 -0.048524983 0.016049795 -0.10267161 -0.013491738 0.04565528
-0.19518484 -0.0481761 -0.07320743 0.073593214 -0.04276093 0.008403084 -0.04116263 0.030501215
0.009167756 0.0012626677 -0.052413784 0.11159934 0.0004042217 -0.029635198 0.000120032244 -0.04736966
-6.778657e-05 -0.064406216 0.02313336 -0.103760734 -0.033399947 0.09720448 0.1393048 -0.011108067
-0.04893427 -0.096208304 0.0034354301 -0.1238847 -0.10548538 0.102110565 0.026135892 0.017963536
0.0539986 -0.14700188 -0.0077661746 0.06983319 0.02470714 -0.03134045 -0.025369773 -0.081024885
-0.002542456 -0.040243693 -0.08088376 -0.03677384 -0.069919735 0.090986356 0.016749324 0.052458838
0.044649336 -0.02275751 -0.04240298 0.027324235 -0.067860045 0.031658705 0.056153085 -0.06029944
-0.05148619 -0.013625852 -0.0133989 -0.002907766 -0.076669864 0.07073261 0.00065570953 0.034738235
0.036043383 -0.03665108 0.082449034 0.052887373 0.084510416 -0.08194618 0.050947092 0.06898002
00000000: 4cff 9dbd 8074 283d 2071 533d 2176 c93c
00000010: fe30 d13c c385 b63d 88ab 53bb e1eb db3c
00000020: 4950 ab3d a5e9 363b c608 d03a a2bd cebc
00000030: 4fc9 a73c b92e bbbd 20b1 a53d 7dbd 913d
00000040: e427 87bc 7cff 6f3c fcd4 973c 47c3 bc3b
00000050: f70c 193d 09e1 d83c f844 193c c8f4 893d
00000060: 5792 f93c 374e 52bd b178 97bd 62e2 be3d
00000070: 54ed 84bc fcba 1a3c e499 b3bd 926a 09be
00000080: fa87 25be 5e70 9e3d 1b69 3b3c b7e6 cb3d
00000090: fb87 73bd 8d79 263d cc38 293d ba99 613d
000000a0: 6450 9fbc 33ab c0bd 9a37 813d 6be6 4a3d
000000b0: fa30 81bd 07fb 353d c9fc d83c e3de f83b
000000c0: a9e3 a1bc bbbc 87bd a9ea dc3c c8bd 193d
000000d0: 45c9 91bc c9fa 573d 673b 3e3d 0ae9 c5bc
000000e0: 8f2b 883b fe67 f1bc 6aae 93bb 3631 933c
000000f0: 61dd 093d e3cd 173e 3076 0b3e fe3f ec3d
00000100: 35bb e6bc 1669 9cbc 09ca 123d be17 88bd
00000110: 8bb0 ca3c 72d5 a5bd 4b50 b33d 59f2 4fbd
00000120: 30af 03bd 1dad 243d c826 40bd c331 903d
00000130: 62a8 de3c 7b83 54bd 3e1f bdbd 17e6 c6bc
00000140: eeee 40bc 8980 613c 2f3c 1b3d 553d 50bd
00000150: b6f2 65bb 68bf 32bd 967d 9ebd 4a25 aebd
00000160: 0bb5 9bbc 89d4 b2bd 5f96 63bc 1310 d33c
00000170: 5499 233d 18db 8fbd 1c79 a73c 7e83 0b3d
00000180: ff75 90be 6fd5 66bb 55b0 d4bd 7b86 6c3d
00000190: 9d11 043d 6b0b 9bbc e738 38bd 07a4 0e3d
000001a0: 88f5 393d 1e47 ffbc 1289 143e cb79 053d
000001b0: 1f10 adbd 016a a7bd a097 85bd 970b e73c
000001c0: 38f8 923c 3729 28bd 66e6 31bd 39b8 c23d
000001d0: bbc0 053e d784 35bd 2de1 91bc 44ec 1cbb
000001e0: 73f9 1c3e 24c0 88bd f09a 093c a636 233d
000001f0: 4b10 233d 76a4 0ebc 7465 133e ecf3 ab3c
00000200: 2ff6 23bd 9920 913c 8676 23bd 28be 58ba
00000210: bcab bebd 36ba dc3c 54dd 43bd 0b58 adbb
00000220: 6e0d 5b3c 3346 8fbd cd82 e43d f30e acbc
00000230: 82ca 453d 5388 2bbc a672 a53d 2263 c6bc
00000240: 953c 233d 399c 8b3d 94e2 d0bd c7ee a13d
00000250: b878 623d 083a b1bc f87b 80bd d347 083e
00000260: 9fbf 49bd 4613 8bbd 547d 56bd 35e8 a0bd
00000270: 5d1b 933a 63e3 c3bd c142 cb3a 5d50 dbbc
00000280: e873 25bd c251 0abe 9346 7fbc 2fc1 773d
00000290: b4c1 653d 6d02 a1bd 77b1 83bc 127a 1dbc
000002a0: e02b d63c ed3e 1cbc 807b d23d 5a7b dbbd
000002b0: 00b0 2d3c a980 8b3d e868 f33d 77e5 acbb
000002c0: 8aeb 2139 b7b2 8c3d bdfb 69bd 22c2 46bd
000002d0: dc7a 833c 7e45 d2bd 730c 5dbc 0801 3b3d
000002e0: 89de 47be 4d54 45bd c7ed 95bd 0ab8 963d
000002f0: 1626 2fbd 17ad 093c 259a 28bd afdd f93c
00000300: 5b34 163c 1980 a53a d6af 56bd 328e e43d
00000310: b8ed d339 84c5 f2bc d2b9 fb38 b006 42bd
00000320: a328 8eb8 68e7 83bd 2c82 bd3c 8280 d4bd
00000330: 62ce 08bd 2413 c73d eba5 0e3e 9cfe 35bc
00000340: 4d6f 48bd dc08 c5bd f424 613b 43b7 fdbd
00000350: b808 d8bd 581f d13d f01a d63c 4428 933c
00000360: a32d 5d3d a987 16be 657b febb b404 8f3d
00000370: a166 ca3c d85e 00bd 45d4 cfbc 60f0 a5bd
00000380: 559f 26bb 92d6 24bd 62a6 a5bd 2ba0 16bd
00000390: 1432 8fbd 0e57 ba3d e135 893c 14df 563d
000003a0: 39e2 363d f56d babc bfae 2dbd 13d7 df3c
000003b0: 35fa 8abd 8fac 013d c700 663d 8cfc 76bd
000003c0: 2fe3 52bd f73e 5fbc 0f87 5bbc 3890 3ebb
000003d0: 1705 9dbd 42dc 903d ece3 2b3a ae49 0e3d
000003e0: 3aa2 133d 711f 16bd 0adb a83d 6ea0 583d
000003f0: cc13 ad3d 66d3 a7bd e6ad 503d 6645 8d3d

conv_layers.1.bias f4 [64]
-0.0869945 0.032710586 -0.03204933 -0.052504733 -0.033052374 -0.036262866 0.018896893 0.12714857
-0.017917076 0.0016152262 0.021147793 0.033756386 -0.08029004 -0.022107618 -0.09382797 -0.022340538
-0.022885598 -0.08510034 -0.02683332 -0.02598542 -0.005391643 -0.0006382156 0.04191509 -0.081234224
0.12960763 -0.020207873 0.0022339525 -0.029236795 0.0563447 -0.04854935 -0.06368726 0.07734097
0.046109293 -0.05387495 -0.093335934 0.06669039 -0.122523956 0.11943025 0.0014034967 0.046442997
-0.043328486 0.012040741 0.06706154 -0.0075357063 0.10920674 -0.055562682 -0.085613884 -0.01409492
0.010836898 0.08274677 0.05492293 0.028191432 -0.03858327 0.05610065 0.018716002 0.066044584
0.043040913 -0.02935126 -0.10497331 -0.11262669 -0.000912837 0.032422762 -0.036707025 -0.08249907
00000000: 2c2a b2bd 89fb 053d 2946 03bd 340f 57bd
00000010: ed61 07bd 5f88 14bd a8cd 9a3c 3c33 023e
00000020: d5c6 92bc ffb5 d33a 233e ad3c 2344 0a3d
00000030: 1b6f a4bd 091b b5bc e128 c0bd 8103 b7bc
00000040: 947a bbbc 1649 aebd 8dd1 dbbc 60df d4bc
00000050: 61ac b0bb ed4d 27ba 28af 2b3d 215e a6bd
00000060: ddb7 043e fb8a a5bc 8167 123b 0182 efbc
00000070: b3c9 663d afdb 46bd 776e 82bd f164 9e3d
00000080: 19dd 3c3d fbab 5cbd e926 bfbd f994 883d
00000090: d7ed fabd d997 f43d 89f5 b73a 033b 3e3d
000000a0: 3679 31bd 8746 453c 9057 893d 16ee f6bb
000000b0: c9a7 df3d b295 63bd 5556 afbd 61ee 66bc
000000c0: 3f8d 313c 2377 a93d def6 603d b8f1 e63c
000000d0: 7e09 1ebd ccc9 653d 4d52 993c 6242 873d
000000e0: ab4b 303d 0e72 f0bc 3ffc d6bd d2a8 e6bd
000000f0: 744b 6fba bbcd 043d 1b5a 16bd 46f5 a8bd

conv_layers.2.weight f4 [64, 256, 4]
0.028479178 -0.10782845 0.032477774 -0.03319869 -0.07776133 0.16260909 0.06568468 -0.032712758
-0.0073146503 -0.018435555 -0.039594408 -0.017212832 0.049281955 -0.077116124 -0.022997063 -0.026192274
-0.0513997 -0.05392971 -0.05378908 -0.020780874 -0.0480495 0.02568974 0.004575651 -0.105610885
0.09706609 -0.0605268 0.04452246 0.05549879 0.049192827 0.045995735 0.0697928 0.013788557
0.05314648 -0.078326665 -0.094222076 -0.014407928 -0.0017202308 0.0034252817 -0.07647129 0.041127797
0.105875716 -0.032097116 0.054746106 -0.0058009364 -0.03163959 -0.022927882 0.052312993 0.0058135274
-0.035392497 0.10162299 -0.07344292 0.078940995 -0.05554946 0.016985813 0.07302501 0.008680973
-0.059019707 0.01648585 -0.021155255 -0.048132822 0.051239 0.059890054 0.043065794 0.018952327
-0.08545013 0.080383494 0.08296489 0.04912941 -0.018306136 -0.09985095 -0.0849466 0.024069117
0.022981038 0.014208074 0.008720129 0.071413115 -0.046471953 0.00325172 -0.06493908 0.056533415
-0.02084956 -0.007700955 -0.023436539 0.11880388 -0.06312836 -0.070332564 0.115600854 0.09533245
-0.031924877 0.100710645 -0.024537133 0.108884186 0.0014047195 0.11018397 -0.028587997 -0.057352394
-0.025007866 -0.0302034 -0.020110112 0.10264151 -0.04521695 -0.09174586 0.056524493 0.076794446
0.05629603 -0.11334685 -0.007661781 0.10637821 0.0388681 -0.028763242 -0.09897744 0.104370825
-0.1220379 0.022619335 -0.061532915 -0.07755102 -0.009684087 -0.07807012 -0.0797625 0.11344511
0.07403636 -0.03131151 0.0970455 -0.053566564 -0.09670198 -0.0039424817 0.06924676 -0.008240076
0.14586662 0.0014567692 0.009695111 0.059890617 -0.021915887 0.03674422 0.011175595 -0.036209207
0.038208973 0.014832143 -0.040333126 -0.030022902 0.03559116 0.05580889 0.08202682 -0.08760429
-0.014993416 0.14609978 0.04541637 -0.1293985 -0.04370559 0.067742445 -0.030911006 -0.112553224
-0.079611875 0.08108093 0.075314604 0.12467353 0.047135364 0.12136493 -0.06798705 -0.0021406033
0.027888052 0.0475779 0.03735427 0.040006544 -0.037419662 -0.15858679 0.022332199 0.009588691
-0.06873874 0.09444405 -0.032919094 -0.06664386 -0.022187985 0.02118855 0.0009963008 0.06620799
0.040877167 0.0740644 0.028871967 0.024765695 -0.010213437 -0.034593984 0.031240078 0.030533265
-0.029911952 0.0142366 -0.0007247699 0.0008131026 -0.018858133 -0.03156326 0.13103381 -0.004316502
-0.005175616 0.070329264 0.014111852 0.018288663 -0.028967693 0.09077321 0.014473028 0.03331829
0.08888056 -0.12655361 -0.10472418 0.047552995 0.032994602 0.0410146 0.04398059 0.04581003
0.0007438343 0.06171202 -0.049693372 -0.0103156045 -0.04204772 -0.06498497 0.036636498 -0.06710554
0.019872455 -0.03225079 -0.027267706 -0.06244474 -0.0067422055 -0.08428942 0.041237872 0.09105568
-0.029070485 0.013316276 -0.04293367 -0.023235183 -0.09500868 0.047318425 0.007872844 0.015716929
0.018040776 0.0648987 -0.018657712 0.08585168 0.064378925 0.025527207 0.12220605 -0.016219674
-0.056850385 0.063561074 -0.06771947 -0.06123822 0.00046478733 0.06253713 0.052721582 0.06295179
-0.0406523 0.021743115 0.043454956 0.0028182736 0.09294569 0.013898466 0.06651854 0.1119673
00000000: 2a4d e93c 2ad5 dcbd 6a07 053d 59fb 07bd
00000010: 5541 9fbd ff82 263e b185 863d d0fd 05bd
00000020: bcaf efbb 2906 97bc bf2d 22bd ed01 8dbc
00000030: e0db 493d 0fef 9dbd 5664 bcbc 2e91 d6bc
00000040: 7e88 52bd 66e5 5cbd f051 5cbd a73c aabc
00000050: 8dcf 44bd 4a73 d23c 58ef 953b 854a d8bd
00000060: 96ca c63d f3ea 77bd 2f5d 363d b352 633d
00000070: 6b7e 493d 0666 3c3d 87ef 8e3d 66e9 613c
00000080: 20b0 593d bb69 a0bd 81f7 c0bd 3b0f 6cbc
00000090: 5e79 e1ba b17a 603b fb9c 9cbd 9f75 283d
000000a0: 5ed5 d83d 4478 03bd 743d 603d c815 bebb
000000b0: 8498 01bd 41d3 bbbc 2646 563d 677f be3b
000000c0: b9f7 10bd b71f d03d 3e69 96bd d1ab a13d
000000d0: d587 63bd d525 8b3c 238e 953d a43a 0e3c
000000e0: a6be 71bd 550d 873c c94d adbc ec26 45bd
000000f0: fcdf 513d 464f 753d c265 303d e941 9b3c
00000100: 7a00 afbd 1aa0 a43d 7fe9 a93d ec3b 493d
00000110: c0f6 95bc a87e ccbd 7cf8 adbd 992c c53c
00000120: bb42 bc3c fbc8 683c dfde 0e3c 0a41 923d
00000130: 6059 3ebd cf1a 553b c8fe 84bd 958f 673d
00000140: b2cc aabc 4b58 fcbb fcfd bfbc 734f f33d
00000150: 7149 81bd 850a 90bd 24c0 ec3d a93d c33d
00000160: a9c3 02bd 6241 ce3d 1902 c9bc acfe de3d
00000170: 911e b83a 22a8 e13d 6031 eabc 58ea 6abd
00000180: 4cdd ccbc 1f6d f7bc f6bd a4bc b635 d23d
00000190: 6935 39bd 41e5 bbbd 3a86 673d 6846 9d3d
000001a0: aa96 663d 6522 e8bd ad0f fbbb d2dc d93d
000001b0: 2834 1f3d e4a0 ebbc afb4 cabd 5fc0 d53d
000001c0: 02ef f9bd 2f4c b93c f009 7cbd 12d3 9ebd
000001d0: 01aa 1ebc 3ae3 9fbd 865a a3bd e955 e83d
000001e0: 60a0 973d 7f40 00bd cbbf c63d 9d68 5bbd
000001f0: b00b c6bd ef2f 81bb 3fd1 8d3d 6201 07bc
00000200: 0f5e 153e 10f1 be3a 3ed8 1e3c dd4f 753d
00000210: f288 b3bc 1b81 163d d819 373c 1b50 14bd
00000220: 0381 1c3d 8402 733c 5934 25bd 97f2 f5bc
00000230: 09c8 113d dd97 643d adfd a73d e169 b3bd
00000240: f2a6 75bc 2e9b 153e 8406 3a3d 0a81 04be
00000250: a204 33bd 8dbc 8a3d 1439 fdbc 4e82 e6bd
00000260: 8d0b a3bd c20d a63d 8b3e 9a3d d654 ff3d
00000270: 0311 413d 2d8e f83d cb3c 8bbd 5d49 0cbb
00000280: 7c75 e43c 0be1 423d cb00 193d e7dd 233d
00000290: 5c45 19bd 9364 22be 04f2 b63c e319 1d3c
000002a0: e6c6 8cbd e26b c13d 2cd6 06bd 937c 88bd
000002b0: 94c3 b5bc 9c93 ad3c 4f96 823a 0e98 873d
000002c0: d16e 273d 13af 973d e784 ec3c 6de1 ca3c
000002d0: 4256 27bc 6cb2 0dbd 31eb ff3c e620 fa3c
000002e0: e909 f5bc a140 693c 7cfe 3dba 6426 553a
000002f0: 5f7c 9abc 7a48 01bd ba2d 063e 7171 8dbb
00000300: 3798 a9bb ca08 903d 6635 673c 1bd2 953c
00000310: a84d edbc 4ee7 b93d 4720 6d3c c278 083d
00000320: 0307 b63d 4597 01be a279 d6bd eec6 423d
00000330: 5925 073d edfe 273d fe24 343d 4ca3 3b3d
00000340: e0fd 423a bec5 7c3d 478b 4bbd c802 29bc
00000350: 3b3a 2cbd d716 85bd 2710 163d a16e 89bd
00000360: 8fcb a23c 6819 04bd 8660 dfbc 0ec6 7fbd
00000370: b8ed dcbb ee9f acbd 0be9 283d 667b ba3d
00000380: 3a25 eebc 822c 5a3c 37db 2fbd b657 bebc
00000390: e993 c2bd f7d0 413d 1afd 003c cac0 803c
000003a0: 40ca 933c 9ce9 843d 0fd8 98bc 01d3 af3d
000003b0: 19d9 833d 6f1e d13c 2a47 fa3d 1fdf 84bc
000003c0: f3db 68bd 4f2c 823d 81b0 8abd eed4 7abd
000003d0: b3ae f339 7813 803d 96f2 573d deec 803d
000003e0: 0783 26bd 9e1e b23c d3fd 313d c9b2 383b
000003f0: 4f5a be3d 64b6 633c df3a 883d 1d4f e53d

conv_layers.2.bias f4 [64]
-0.10212431 -0.07445256 -0.037713844 -0.0076545654 -0.011918831 0.006300501 0.012482111 0.03218708
-0.022315811 0.04143259 0.06184253 -0.08137259 0.0012262657 -0.10743875 -0.02197498 0.003726702
-0.07344577 -0.030241566 -0.19529109 -0.04275258 -0.001948445 -0.10669197 0.07865943 0.057249263
0.10784653 0.027572697 -0.043380786 -0.04947566 -0.057552185 -0.006715858 -0.09241509 0.033191327
-0.119611494 -0.007839709 -0.050923314 -0.06871266 0.01084034 -0.019660316 -0.061692886 -0.012904868
-0.02296259 0.067656025 -0.037673235 0.057007816 0.078381516 -0.07788274 -0.18149766 -0.09191726
0.047580753 -0.053881183 -0.050361365 -0.099109545 -0.17153941 -0.042577587 -0.007996961 0.034900613
-0.04625401 -0.005502968 -0.076068446 0.040037975 0.0055808397 -0.05473249 0.07316782 0.012549261
00000000: 8d26 d1bd 957a 98bd d579 1abd 26d3 fabb
00000010: 3347 43bc 6f74 ce3b c581 4c3c 99d6 033d
00000020: a6cf b6bc 38b5 293d 984e 7d3d aca6 a6bd
00000030: a6ba a03a d908 dcbd e004 b4bc af3b 743b
00000040: bc6a 96bd 29bd f7bc 63fa 47be 541d 2fbd
00000050: f762 ffba 5281 dabd 3218 a13d 347e 6a3d
00000060: a4de dc3d 23e0 e13c 0db0 31bd fda6 4abd
00000070: d7bb 6bbd b310 dcbb 1f44 bdbd a1f3 073d
00000080: dff6 f4bd 1f72 00bc f794 50bd 39b9 8cbd
00000090: ae9b 313c ac0e a1bc aeb1 7cbd f16e 53bc
000000a0: 0b1c bcbc 3e8f 8a3d 404f 1abd 0781 693d
000000b0: 7d86 a03d fc80 9fbd 86da 39be 1e3f bcbd
000000c0: 09e4 423d 84b2 5cbd b847 4ebd f2f9 cabd
000000d0: 07a8 2fbe d665 2ebd af05 03bc f2f3 0e3d
000000e0: d874 3dbd 3e52 b4bb c6c9 9bbd dcfe 233d
000000f0: 7adf b63b 2d2f 60bd 03d9 953d 6a9b 4d3c

conv_layers.3.weight f4 [64, 256, 5]
-0.03507452 -0.061153993 0.0045303535 -0.046801098 0.060148634 0.044494465 0.09103073 -0.030850882
0.086429715 0.032263767 0.02070485 0.06958268 -0.080672525 0.009331328 -0.06976225 0.013126862
-0.042328563 -0.07562817 0.062266055 -0.02385666 -0.01698788 -0.016955491 0.008021759 0.038463973
0.03340388 -0.06136799 -0.026068876 0.07325019 -0.0011857491 -0.04725302 0.025284918 0.07349953
0.0945654 0.0073328423 -0.073067926 -0.012291367 -0.019382795 0.023669772 0.07720266 -0.045840815
0.01704384 -0.057641264 0.059179675 -0.11151687 0.039212953 -0.055415295 -0.026192801 0.084138125
0.08480659 -0.08902087 -0.110976286 0.022792332 -0.08244628 -0.03253663 -0.058869243 0.012359511
0.074373655 0.02150473 0.032421995 -0.032612797 0.045428853 -0.15989229 0.0737965 0.04423416
-0.0020491637 -0.0141611695 -0.004826562 0.0075346055 0.0025980468 -0.06470423 -0.0054207495 0.05229173
-0.054438435 -0.059856508 -0.012385258 0.075095646 0.031914886 -0.09922981 -0.10219174 -0.026917703
0.0050073415 -0.03321676 0.05487943 0.036199354 -0.07826115 0.15010566 -0.01941151 -0.032859407
-0.025466243 0.03543707 0.10442759 -0.0027423122 -0.0043677245 0.03053155 0.09061637 0.11322119
-0.02821718 -0.10199035 0.026902186 0.0208974 -0.014161329 0.014943322 -0.12815303 0.13848698
0.03241037 -0.016755374 0.009328134 -0.035201732 -0.01818038 -0.0871942 -0.033974797 0.019230777
-0.025620172 -0.060716037 -0.08325588 0.022549774 0.018745964 0.0073558874 0.07511525 0.08793988
0.00054705155 0.05725549 0.016901482 0.057006817 -0.046259526 -0.0040005147 -0.14593123 0.079721205
0.0075223963 -0.11239441 -0.004508782 -0.0761709 -0.06883457 0.036567148 -0.06328771 -0.05965918
-0.079604544 -0.08691523 0.020000633 -0.102138676 -0.079150565 -0.007992735 -0.033757377 0.07151715
-0.027803048 -0.0029146648 0.048759222 -0.017946871 -0.025891423 -0.031825084 0.050990745 0.010715912
0.009299746 -0.034520417 -0.053162392 0.06335167 -0.0071573113 0.02609006 -0.010815097 -0.016462257
-0.10502416 0.0419698 0.025692249 0.10056498 0.029514203 0.04941716 -0.09426728 0.03932392
-0.011927717 0.0843982 -0.08376996 0.047666393 -0.014162114 0.05052075 -0.037403334 -0.057475854
0.057548717 -0.003127575 -0.09572289 0.042778805 0.0076318798 0.020689089 -0.021788694 0.012758868
0.01124256 -0.088581614 -0.0180188 -0.018202674 -0.030344289 -0.019187838 0.09574986 0.06337606
-0.020044453 -0.032284938 -0.085509285 0.07421183 -0.029300246 0.043086823 0.025639242 -0.05492806
0.063495226 0.10674405 0.0015821274 -0.015109098 -0.022198865 0.04149978 -0.043111663 -0.014782195
0.0035241868 -0.00426151 0.08820007 0.005980963 -0.04987425 0.028903827 -0.064807735 -0.013312145
-0.029507833 0.092986085 0.003248076 -0.057336107 0.088363275 0.02124223 0.05985258 0.04133492
-0.13151664 0.12439503 -0.06214629 -0.077496625 -0.012107693 -0.0030879823 0.052242387 0.03248591
0.042005982 0.021369807 -0.005150088 0.0688121 -0.07285776 0.07015336 0.14702708 -0.06506702
-0.07551526 0.0093908245 -0.02397032 -0.010121124 0.03864354 0.057438683 -0.06313657 -0.056920774
-0.11703192 -0.048202746 0.03370034 -0.026566902 -0.13782753 0.08301983 -0.047840074 0.047360692
00000000: 4daa 0fbd 9c7c 7abd 5c73 943b 82b2 3fbd
00000010: 6a5e 763d d43f 363d 526e ba3d fdba fcbc
00000020: 1002 b13d 0327 043d 389d a93c 5d81 8e3d
00000030: a337 a5bd 6de2 183c 83df 8ebd 0d12 573c
00000040: b760 2dbd f1e2 9abd b10a 7f3d 0b6f c3bc
00000050: 2b2a 8bbc 3ee6 8abc b26d 033c 668c 1d3d
00000060: 82d2 083d 005d 7bbd 658e d5bc 3204 963d
00000070: 236b 9bba 628c 41bd 5122 cf3c ec86 963d
00000080: 81ab c13d 5748 f03b a3a4 95bd bb61 49bc
00000090: abc8 9ebc 1ce7 c13c 6e1c 9e3d 94c3 3bbd
000000a0: 869f 8b3c 3f19 6cbd 6366 723d f562 e4bd
000000b0: c39d 203d 26fb 62bd 4992 d6bc 9c50 ac3d
000000c0: 14af ad3d 9350 b6bd 8947 e3bd fcb6 ba3c
000000d0: 98d9 a8bd 2145 05bd e020 71bd 8c7f 4a3c
000000e0: 3751 983d b02a b03c edcc 043d ff94 05bd
000000f0: 9b13 3a3d ceba 23be 9f22 973d e12e 353d
00000100: 434b 06bb 4004 68bc 2328 9ebb dae4 f63b
00000110: fe43 2a3b a783 84bd 8ba0 b1bb da2f 563d
00000120: d6fa 5ebd 192c 75bd 8aeb 4abc bfcb 993d
00000130: 2fb9 023d 0039 cbbd e749 d1bd 8482 dcbc
00000140: a014 a43b 4c0e 08bd 41c9 603d c645 143d
00000150: 6247 a0bd 4cb5 193e e304 9fbc 9697 06bd
00000160: 959e d0bc 7626 113d 22de d53d 5db8 33bb
00000170: 211f 8fbb 4d1d fa3c 1395 b93d 83e0 e73d
00000180: b727 e7bc 51e0 d0bd f961 dc3c 0631 ab3c
00000190: eb04 68bc d6d4 743c 8c3a 03be 88cf 0d3e
000001a0: bcc0 043d 9142 89bc 08d5 183c b12f 10bd
000001b0: 05ef 94bc df92 b2bd 2829 0bbd dd89 9d3c
000001c0: 65e1 d1bc 61b1 78bd 0f82 aabd 4eba b83c
000001d0: 2391 993c a809 f13b 06d6 993d d319 b43d
000001e0: 0268 0f3a bc84 6a3d fa74 8a3c fb7f 693d
000001f0: a17a 3dbd c016 83bb ff6e 15be df44 a33d
00000200: 6f7e f63b 0a2f e6bd 68be 93bb 7dff 9bbd
00000210: 24f9 8cbd 6fc7 153d fd9c 81bd 2f5d 74bd
00000220: b507 a3bd 9d00 b2bd 5ed8 a33c 152e d1bd
00000230: b119 a2bd f6f3 02bc 2d45 0abd 9577 923d
00000240: 38c3 e3bc f603 3fbb c0b7 473d 5105 93bc
00000250: 401a d4bc 055b 02bd acdb 503d cb91 2f3c
00000260: f65d 183c 4865 0dbd cfc0 59bd 85be 813d
00000270: e187 eabb d2ba d53c ce31 31bc dbdb 86bc
00000280: e816 d7bd 86e8 2b3d 8d78 d23c 03f5 cd3d
00000290: c5c7 f13c a669 4a3d 340f c1bd 1e12 213d
000002a0: 796c 43bc f7d8 ac3d 968f abbd d63d 433d
000002b0: 3608 68bc d9ee 4e3d 3d34 19bd cd6b 6bbd
000002c0: 34b8 6b3d 00f8 4cbb 5d0a c4bd d438 2f3d
000002d0: d914 fa3b 2a7c a93c 347e b2bc 920a 513c
000002e0: b732 383c 476a b5bd 2a9c 93bc c61d 95bc
000002f0: 9694 f8bc d02f 9dbc 8118 c43d 4fcb 813d
00000300: 4434 a4bc 363d 04bd 7e1f afbd 5ffc 973d
00000310: 1207 f0bc cf7b 303d 6309 d23c 3ffc 60bd
00000320: c909 823d a09c da3d 635f cf3a 268c 77bc
00000330: 65da b5bc acfb 293d db95 30bd 0531 72bc
00000340: 0bf6 663b 23a4 8bbb 3da2 b43d f4fb c33b
00000350: f148 4cbd b8c7 ec3c ebb9 84bd 2f1b 5abc
00000360: 69ba f1bc 7d6f be3d acdd 543b 44d9 6abd
00000370: cef7 b43d 2f04 ae3c fb27 753d ce4e 293d
00000380: 4cac 06be d2c2 fe3d 1c8d 7ebd 8db6 9ebd
00000390: 585f 46bc bf5f 4abb 1dfc 553d f20f 053d
000003a0: 770e 2c3d bc0f af3c 12c2 a8bb 5ced 8c3d
000003b0: 7336 95bd 91ac 8f3d 448e 163e dc41 85bd
000003c0: bfa7 9abd f9db 193c 685d c4bc 12d3 25bc
000003d0: b048 1e3d d344 6b3d bf4d 81bd c225 69bd
000003e0: 6eae efbd 3e70 45bd 5e09 0a3d d5a2 d9bc
000003f0: a922 0dbe 4d06 aa3d f4f3 43bd 49fd 413d

conv_layers.3.bias f4 [64]
-0.13772751 -0.048778865 0.038914684 -0.035673577 0.019938327 0.004877881 -0.020301081 -0.00026925016
0.016075961 -0.13423203 -0.069744304 -0.0036820485 0.05351583 0.013360828 -0.07945452 -0.057188176
-0.054907557 -0.12412442 -0.010514846 -0.11004843 -0.09036789 0.01277399 -0.0014372015 -0.049085632
-0.04908059 0.016836274 0.051937796 -0.006380803 -0.076438606 0.056797788 -0.030924618 0.011577213
0.09048054 0.006992303 -0.040106285 -0.026027435 -0.05541751 -0.0327137 0.02071723 -0.07891173
0.067507625 -0.032375157 0.10290182 0.10516083 0.10192531 -0.089624636 0.047221903 -0.038110197
0.049944993 0.050513748 -0.06279667 -0.0908737 -0.055769846 -0.22366363 0.06900835 -0.024250863
0.054553 -0.1121898 -0.010972274 0.05898159 -0.013217309 -0.013881134 -0.0969327 -0.0520829
00000000: 7108 0dbe 59cc 47bd 0165 1f3d 751e 12bd
00000010: b455 a33c a2d6 9f3b 744e a6bc 252a 8db9
00000020: bcb1 833c 1f74 09be 1ad6 8ebd 864e 71bb
00000030: 6a33 5b3d 60e7 5a3c 0db9 a2bd 263e 6abd
00000040: bfe6 60bd f234 febd 7646 2cbc 1261 e1bd
00000050: cd12 b9bd ff49 513c 7b60 bcba 040e 49bd
00000060: bb08 49bd 3aec 893c babc 543d 0e16 d1bb
00000070: d88b 9cbd cca4 683d a055 fdbc 5aae 3d3c
00000080: dd4d b93d b01f e53b 7d46 24bd 7d37 d5bc
00000090: 79fd 62bd cdfe 05bd 2eb7 a93c 799c a1bd
000000a0: 7041 8a3d d09b 04bd 30be d23d 905e d73d
000000b0: 38be d03d 1f8d b7bd c16b 413d 7019 1cbd
000000c0: 1f93 4c3d 81e7 4e3d 8a9b 80bd fe1b babd
000000d0: ec6e 64bd 1408 65be 4054 8d3d bfa9 c6bc
000000e0: f772 5f3d c4c3 e5bd 0dc5 33bc ae96 713d
000000f0: 698d 58bc b26d 63bc a784 c6bd e154 55bd

fc1.weight f4 [64, 256]
-0.04068149 0.013399786 -0.012775077 -0.009942956 -0.064175606 0.02124533 0.05251272 -0.0056665326
-0.038015835 -0.012398567 -0.026797783 -0.056404047 -0.0012967511 -0.054212242 0.03600097 -0.041418727
-0.04772318 -0.020781368 0.00015118603 0.0048386375 -0.004676857 0.019893615 0.0050921827 -0.06950958
0.009365908 -0.053553957 0.04597197 -0.03640066 0.021698609 0.010204765 -0.060607586 -0.009928829
-0.040590953 -0.013180969 -0.06928167 0.028407168 -0.0025495673 -0.074269116 -0.06364813 0.026687607
-0.0021399625 -0.00840204 0.057644956 -0.024234835 -0.03921661 -0.028816966 0.01696983 -0.02338879
-0.079625405 -0.00065210764 -0.025032995 -0.03917806 -0.035188813 0.022255683 0.044619374 -0.026984533
-0.015977358 0.04772129 0.015358565 0.017331123 0.007083909 -0.07248981 -0.027016122 0.025478674
-0.031902548 0.01296615 0.036591 -0.055593252 -0.007834066 0.024920462 -0.05577623 0.010026795
-0.013729548 -0.03644838 -0.02221308 -0.038499787 0.0017396718 0.03699913 -0.027119514 0.033698957
0.030569378 -0.03942887 0.0068683443 -0.048919808 -0.014679773 0.0336584 0.0104804775 0.011722501
-0.025092363 0.010990299 0.027048105 -0.04837491 -0.0008504547 -0.06163859 -0.014579592 0.056471948
0.02914999 0.051961828 -0.043394715 -0.0097962385 0.01804281 -0.037809093 0.021138795 0.0074490234
0.011286922 0.049896084 -0.073802166 -0.05781367 0.001871665 -0.013938067 -0.046292998 -0.019607406
-0.005094251 0.015329735 0.0113445055 -0.00012991345 -0.06315904 0.013126968 -0.024683455 -0.0053349407
-0.023584224 -0.043582655 0.016620476 0.025593488 -0.03861523 -0.055158164 0.006897631 -0.020384295
-0.062283203 0.041569557 -0.0062106075 0.02358474 -0.053344205 -0.06290873 -0.022598268 0.03973494
0.02175659 -0.04753663 0.005391207 0.008703043 -0.07560306 -0.010598849 0.001844257 -0.020301046
0.044927377 0.04774646 0.041829403 0.032367226 -0.0052103754 0.0028107932 -0.059924614 -0.033057578
-0.056368325 0.011375822 -0.023038283 -0.003921558 -0.018094616 -0.06454238 0.03466046 -0.047376215
0.04884149 0.03910885 -0.03180289 -0.022488134 -0.041895013 -0.056147672 -0.0109314 -0.06304634
0.041252088 0.009235983 -0.05188264 -0.020568512 -0.03998271 -0.016448053 -0.05718904 0.058435373
-0.026283985 0.005402913 -0.022130053 0.033350535 0.00997371 -0.019323155 0.031141484 -0.046688005
-0.038237065 -0.06736023 -0.023986366 -0.0653977 -0.07209727 0.007771017 -0.0029773125 0.005439332
0.017010568 -0.031250462 -0.083171755 -0.036091432 -0.03482101 -0.059205335 -0.0140924025 -0.00046818054
0.008834567 -0.06316919 -0.0044593015 0.03789505 0.048116144 -0.06335258 -0.021112004 0.006534131
-0.0071503543 0.00065080513 0.004786253 0.051270723 0.006419 -0.08690906 0.00036807876 -0.0675415
0.0124379285 -0.004539166 -0.029003745 -0.034912046 0.03681487 0.008648676 0.049910687 -0.014558654
0.014643161 0.040033232 -0.02642156 -0.04263668 -0.044877756 0.0067278487 -0.07571039 0.01402172
-0.02310493 0.010434964 -0.044707645 -0.02513154 -0.0343529 -0.023785515 0.0046468843 -0.048504286
0.024868133 -0.040037207 -0.0005822088 -0.044873714 -0.0447538 -0.03530263 0.02734924 0.05212419
-0.022560278 -0.027754847 -0.044970695 -0.06064596 0.05209102 -0.041060243 0.038479455 0.0055254437
00000000: a2a1 26bd c78a 5b3c 8e4e 51bc c8e7 22bc
00000010: 806e 83bd b00a ae3c 9417 573d 52ae b9bb
00000020: 7eb6 1bbd 5c23 4bbc 0687 dbbc ee07 67bd
00000030: bff7 a9ba a80d 5ebd c175 133d afa6 29bd
00000040: 6279 43bd b03d aabc b187 1e39 6f8d 9e3b
00000050: 5240 99bb eff7 a23c 53dc a63b 0a5b 8ebd
00000060: 7773 193c 655b 5bbd 1b4d 3c3d dc18 15bd
00000070: 48c1 b13c e331 273c a93f 78bd 87ac 22bc
00000080: b342 26bd fef4 57bc 8ce3 8dbd 26b6 e83c
00000090: a416 27bb 681a 98bd f359 82bd f89f da3c
000000a0: 9d3e 0cbb b6a8 09bc 1e1d 6c3d 2288 c6bc
000000b0: 99a1 20bd 8f11 ecbc 5004 8b3c d999 bfbc
000000c0: a512 a3bd 34f2 2aba ff11 cdbc 2c79 20bd
000000d0: 2522 10bd 8d51 b63c cec2 363d ab0e ddbc
000000e0: f3e2 82bc 6677 433d 7ea2 7b3c 00fa 8d3c
000000f0: 2320 e83b 8a75 94bd ea50 ddbc a7b8 d03c
00000100: 3fac 02bd fa6f 543c 72e0 153d c0b5 63bd
00000110: 745a 00bc ff25 cc3c 9e75 64bd 6d47 243c
00000120: e6f1 60bc e64a 15bd 35f8 b5bc f4b1 1dbd
00000130: b305 e43a 668c 173d be29 debc eb07 0a3d
00000140: a26c fa3c 2b80 21bd d90f e13b 2360 48bd
00000150: 6e83 70bc 64dd 093d 4fb6 2b3c bc0f 403c
00000160: 808e cdbc a810 343c fd93 dd3c c524 46bd
00000170: 0cf1 5eba bf78 7cbd 3edf 6ebc 214f 673d
00000180: f6cb ee3c edd5 543d a8be 31bd 6780 20bc
00000190: 84ce 933c b5dd 1abd 442b ad3c f016 f43b
000001a0: c8ec 383c d65f 4c3d 9725 97bd 07ce 6cbd
000001b0: a852 f53a 7d5c 64bc ba9d 3dbd b69f a0bc
000001c0: aded a6bb 9229 7b3c 4ede 393c 6039 08b9
000001d0: 8759 81bd 7f12 573c f534 cabc bad0 aebb
000001e0: b433 c1bc ba83 32bd aa27 883c 6fa9 d13c
000001f0: 012b 1ebd 87ed 61bd 8605 e23b f7fc a6bc
00000200: ac1c 7fbd d744 2a3d 5a82 cbbb c934 c13c
00000210: 747f 5abd 4bd6 80bd 0120 b9bc 1bc1 223d
00000220: e03a b23c c5b5 42bd b9a8 b03b 3597 0e3c
00000230: c7d5 9abd cba6 2dbc ffba f13a 614e a6bc
00000240: c505 383d cb91 433d 4f55 2b3d 7f93 043d
00000250: ccbb aabb 4935 383b 8373 75bd 6267 07bd
00000260: 79e2 66bd a861 3a3c c8ba bcbc 6a80 80bb
00000270: 293b 94bc cc2e 84bd 20f8 0d3d 900d 42bd
00000280: 040e 483d 9a30 203d bf43 02bd 0939 b8bc
00000290: 1b9a 2bbd 1afb 65bd 9d19 33bc 711e 81bd
000002a0: f3f7 283d 8552 173c e482 54bd 4c7f a8bc
000002b0: e9c4 23bd 11be 86bc 0e3f 6abd ee59 6f3d
000002c0: 8351 d7bc eb0a b13b 164a b5bc 929a 083d
000002d0: c668 233c 984b 9ebc 6d1c ff3c ec3b 3fbd
000002e0: 789e 1cbd 29f4 89bd 0e7f c4bc 3bef 85bd
000002f0: bca7 93bd 04a4 fe3b 041f 43bb 6d3c b23b
00000300: bf59 8b3c 7c00 00bd f455 aabd 9cd4 13bd
00000310: 7aa0 0ebd 4b81 72bd d2e3 66bc 2176 f5b9
00000320: dcbe 103c d95e 81bd 551f 92bb d737 1b3d
00000330: 6f15 453d ffbe 81bd 15f3 acbc 431c d63b
00000340: 854d eabb cb9a 2a3a 00d6 9c3b 4001 523d
00000350: 7a56 d23b 61fd b1bd b2fa c039 3353 8abd
00000360: 74c8 4b3c 49bd 94bb 4399 edbc efff 0ebd
00000370: 30cb 163d 2db3 0d3c 266f 4c3d 6c87 6ebc
00000380: dee9 6f3c e3f9 233d 0772 d8bc cda3 2ebd
00000390: bdd1 37bd 4975 dc3b 0d0e 9bbd 5bbb 653c
000003a0: 8d46 bdbc 69f7 2a3c 5d1f 37bd a9e0 cdbc
000003b0: a0b5 0cbd d7d9 c2bc e444 983b 6eac 46bd
000003c0: 41b8 cb3c 0efe 23bd 5f9f 18ba 80cd 37bd
000003d0: c34f 37bd 7e99 10bd 830b e03c 2d80 553d
000003e0: 55d0 b8bc 225e e3bc 3133 38bd e667 78bd
000003f0: 655d 553d c92e 28bd a29c 1d3d c80e b53b

fc1.bias f4 [64]
-0.04989427 -0.02789677 0.015862955 -0.05014258 0.05000053 0.047791526 0.08467504 0.119473256
0.005365776 0.053459313 0.021822317 0.016979054 -0.057457417 0.02245844 0.01943906 0.0399597
-0.018192299 0.028734466 -0.12775762 0.10359353 0.00025218222 -0.1016714 0.06741499 0.03221429
-0.054550093 0.008926119 0.0010584609 0.017058183 -0.0100496495 -0.05139666 -0.05808148 0.00747604
-0.021619158 0.05964986 -0.08586137 0.089592725 -0.024459403 -0.04343111 0.07056606 -0.007206218
0.012668674 -0.05966907 0.058176596 -0.0007551548 0.09828298 -0.060574595 -0.028328948 0.09410936
0.04839087 -0.06867315 0.025562862 -0.071738586 0.026459428 0.044348765 0.017662931 0.027048748
0.029986566 0.057807844 -0.056797344 0.056712575 0.03012224 0.0262514 -0.039206117 -0.010609987
00000000: ef5d 4cbd c487 e4bc 07f3 813c 4e62 4dbd
00000010: 5bcd 4c3d 0cc1 433d 1b6a ad3d 65ae f43d
00000020: 64d3 af3b 27f8 5a3d b7c4 b23c a817 8b3c
00000030: 7858 6bbd c3fa b73c aa3e 9f3c c8ac 233d
00000040: 0408 95bc 8b64 eb3c e5d2 02be d828 d43d
00000050: 5337 8439 1839 d0bd df10 8a3d 22f3 033d
00000060: eb6f 5fbd db3e 123c 0ebc 8a3a 9abd 8b3c
00000070: 49a7 24bc 4e85 52bd d9e6 6dbd 92f9 f43b
00000080: a91a b1bc 6953 743d 16d8 afbd 647c b73d
00000090: 165f c8bc d2e4 31bd f084 903d 2322 ecbb
000000a0: 4590 4f3c 8e67 74bd 954a 6e3d 95f5 45ba
000000b0: 9648 c93d 111d 78bd 1c12 e8bc 68bc c03d
000000c0: 8135 463d 82a4 8cbd 3569 d13c aeeb 92bd
000000d0: 71c1 d83c 0da7 353d dab1 903c 5695 dd3c
000000e0: 63a6 f53c ebc7 6c3d 55a4 68bd 724b 683d
000000f0: eac2 f63c 2d0d d73c 9896 20bd 83d5 2dbc

batch_norm.weight f4 [64]
0.96680826 1.7987282 0.9783061 1.8213136 1.8786963 2.26462 2.0277817 1.6460931
0.9686465 1.7537546 0.98395544 1.8217331 0.9881811 1.767344 0.988873 0.99399465
0.99321216 1.0447156 2.3440537 2.4460387 1.8825566 2.0303564 2.3326874 0.98133343
0.9908561 1.6946888 0.99029034 0.9711265 1.7048422 0.9926446 0.993407 0.98643667
2.2573988 1.6300893 0.9710068 1.865099 2.111499 0.989218 2.0798266 1.0735763
1.0047526 1.9155649 2.545345 1.8091018 1.8528223 0.9864355 1.0 1.8257802
1.9425035 0.9866651 0.9917178 0.9882144 0.9929482 0.9887832 0.98875344 1.8066672
0.9941421 1.8372368 0.98008823 1.9325069 2.0262442 0.99399483 1.9661658 0.9928947
00000000: bf80 773f ba3c e63f 4572 7a3f ce20 e93f
00000010: 1f79 f03f 89ef 1040 2dc7 0140 2eb3 d23f
00000020: 38f9 773f 087b e03f 81e4 7b3f 8d2e e93f
00000030: 70f9 7c3f 5438 e23f c826 7d3f 6f76 7e3f
00000040: 2743 7e3f 3eb9 853f fa04 1640 e68b 1c40
00000050: 9df7 f03f 5cf1 0140 c04a 1540 ab38 7b3f
00000060: bfa8 7d3f 90eb d83f ab83 7d3f bf9b 783f
00000070: 4538 da3f f51d 7e3f ec4f 7e3f 1d87 7c3f
00000080: 3979 1040 c4a6 d03f e793 783f 90bb ee3f
00000090: cd22 0740 643d 7d3f e11b 0540 f36a 893f
000000a0: bc9b 803f 3b31 f53f efe6 2240 a690 e73f
000000b0: 4829 ed3f 0987 7c3f 0000 803f 2ab3 e93f
000000c0: f4a3 f83f 1696 7c3f 38e1 7d3f 9efb 7c3f
000000d0: da31 7e3f e520 7d3f f21e 7d3f df40 e73f
000000e0: 1980 7e3f 932a eb3f 10e7 7a3f 635c f73f
000000f0: fcad 0140 7276 7e3f 52ab fb3f 592e 7e3f

batch_norm.bias f4 [64]
0.028743906 0.0027842396 -0.0017257363 -0.022158865 -0.024716396 0.0038422751 -0.023577152 -0.0040886793
0.0058208443 0.030410742 0.03413663 0.0035003903 -0.0027635144 -0.0032653152 -0.026785418 -0.004598808
0.0004730343 0.026934057 0.01107887 0.0004651544 0.009991906 -0.0039592567 0.0107817445 -0.00058929925
-0.013646781 0.001620484 -0.0032898525 -0.042058516 0.006042856 -0.0014487442 -0.011056632 -0.010960288
0.005571426 0.03941966 0.03385175 0.029718256 0.013412055 0.0336549 -0.012451119 0.00041480598
-0.0058420287 0.035520416 0.019070813 -0.009581788 -0.035122663 -0.0066394377 0.02124532 -0.0032006165
0.0010852873 0.026530217 -0.0025100228 -0.0036339376 -0.0015491225 -0.00063998264 -0.0028153597 0.001463022
0.001156714 -0.0014589755 0.023286866 -0.009824625 0.022555614 0.041943762 0.008693291 0.0036827913
00000000: 5778 eb3c ca77 363b 1a32 e2ba 8286 b5bc
00000010: 0a7a cabc aece 7b3b df24 c1bc 54fa 85bb
00000020: c8bc be3b f31f f93c dad2 0b3d ce66 653b
00000030: 141c 35bb e6fe 55bb 186d dbbc 99b1 96bb
00000040: 9701 f839 d0a4 dc3c 2684 353c f7df f339
00000050: 17b5 233c a7bc 81bb eaa5 303c 347b 1aba
00000060: c096 5fbc 6c66 d43a 919a 57bb 8d45 2cbd
00000070: 2603 c63b cae3 bdba e026 35bc c892 33bc
00000080: 8290 b63b 8276 213d 22a8 0a3d b373 f33c
00000090: 3cbe 5b3c b8d9 093d c7ff 4bbc 517a d939
000000a0: 7d6e bfbb db7d 113d 653a 9c3c effc 1cbc
000000b0: c8dc 0fbd a48f d9bb aa0a ae3c 6fc1 51bb
000000c0: 3340 8e3a e655 d93c 327f 24bb 5b27 6ebb
000000d0: ed0b cbba 82c4 27ba e681 38bb dfc2 bf3a
000000e0: e29c 973a 183b bfba 19c4 be3c 77f7 20bc
000000f0: 8dc6 b83c 39cd 2b3d 4e6e 0e3c fc5a 713b

batch_norm.running_mean f4 [64]
6e-45 6e-45 6e-45 6e-45 6e-45 6e-45 6e-45 6e-45
6e-45 6e-45 6e-45 6e-45 6e-45 6e-45 6e-45 6e-45
6e-45 6e-45 6e-45 6e-45 6e-45 6e-45 6e-45 6e-45
6e-45 6e-45 6e-45 6e-45 6e-45 6e-45 6e-45 6e-45
6e-45 6e-45 6e-45 6e-45 6e-45 6e-45 6e-45 6e-45
6e-45 6e-45 6e-45 6e-45 6e-45 6e-45 0.0 6e-45
6e-45 6e-45 6e-45 6e-45 6e-45 6e-45 6e-45 6e-45
6e-45 6e-45 6e-45 6e-45 6e-45 6e-45 6e-45 6e-45
00000000: 0400 0000 0400 0000 0400 0000 0400 0000
00000010: 0400 0000 0400 0000 0400 0000 0400 0000
00000020: 0400 0000 0400 0000 0400 0000 0400 0000
00000030: 0400 0000 0400 0000 0400 0000 0400 0000
00000040: 0400 0000 0400 0000 0400 0000 0400 0000
00000050: 0400 0000 0400 0000 0400 0000 0400 0000
00000060: 0400 0000 0400 0000 0400 0000 0400 0000
00000070: 0400 0000 0400 0000 0400 0000 0400 0000
00000080: 0400 0000 0400 0000 0400 0000 0400 0000
00000090: 0400 0000 0400 0000 0400 0000 0400 0000
000000a0: 0400 0000 0400 0000 0400 0000 0400 0000
000000b0: 0400 0000 0400 0000 0000 0000 0400 0000
000000c0: 0400 0000 0400 0000 0400 0000 0400 0000
000000d0: 0400 0000 0400 0000 0400 0000 0400 0000
000000e0: 0400 0000 0400 0000 0400 0000 0400 0000
000000f0: 0400 0000 0400 0000 0400 0000 0400 0000

batch_norm.running_var f4 [64]
6e-45 6e-45 6e-45 6e-45 6e-45 6e-45 6e-45 6e-45
6e-45 6e-45 6e-45 6e-45 6e-45 6e-45 6e-45 6e-45
6e-45 6e-45 6e-45 6e-45 6e-45 6e-45 6e-45 6e-45
6e-45 6e-45 6e-45 6e-45 6e-45 6e-45 6e-45 6e-45
6e-45 6e-45 6e-45 6e-45 6e-45 6e-45 6e-45 6e-45
6e-45 6e-45 6e-45 6e-45 6e-45 6e-45 6e-45 6e-45
6e-45 6e-45 6e-45 6e-45 6e-45 6e-45 6e-45 6e-45
6e-45 6e-45 6e-45 6e-45 6e-45 6e-45 6e-45 6e-45
00000000: 0400 0000 0400 0000 0400 0000 0400 0000
00000010: 0400 0000 0400 0000 0400 0000 0400 0000
00000020: 0400 0000 0400 0000 0400 0000 0400 0000
00000030: 0400 0000 0400 0000 0400 0000 0400 0000
00000040: 0400 0000 0400 0000 0400 0000 0400 0000
00000050: 0400 0000 0400 0000 0400 0000 0400 0000
00000060: 0400 0000 0400 0000 0400 0000 0400 0000
00000070: 0400 0000 0400 0000 0400 0000 0400 0000
00000080: 0400 0000 0400 0000 0400 0000 0400 0000
00000090: 0400 0000 0400 0000 0400 0000 0400 0000
000000a0: 0400 0000 0400 0000 0400 0000 0400 0000
000000b0: 0400 0000 0400 0000 0400 0000 0400 0000
000000c0: 0400 0000 0400 0000 0400 0000 0400 0000
000000d0: 0400 0000 0400 0000 0400 0000 0400 0000
000000e0: 0400 0000 0400 0000 0400 0000 0400 0000
000000f0: 0400 0000 0400 0000 0400 0000 0400 0000

fc2.weight f4 [2, 64]
0.057339508 -0.50422204 -0.025727546 -0.090703845 -0.037492722 0.042517178 0.06377411 0.08962263
0.037533395 -0.034805764 0.07331361 0.012239445 0.0012320539 -0.06516202 -0.0727076 -0.039236832
-0.079800785 -0.048977394 -0.19585373 -0.39433426 -0.05300698 0.02211828 0.42567337 -0.01041668
0.053403 0.06625154 0.06594711 0.007965113 -0.01868557 -0.09389356 0.02032294 -0.10136559
0.06769134 -0.016399978 -0.046404745 -0.16769269 -0.23177318 0.050566673 -0.19505432 -0.07245497
-0.026610687 -0.13115804 -0.5178994 0.03793283 0.17612308 -0.048006866 0.01771474 -0.11940971
-0.050308444 -0.040821392 0.027620489 0.0064013414 -0.013934196 0.069734976 -0.09589609 -0.08152618
-0.06451175 0.017037801 -0.061149076 0.032147523 -0.15042126 0.0094476035 -0.48103523 -0.0065184226
0.03184631 0.66753876 -0.02182653 0.12057146 0.093499385 -0.12355926 -0.12469027 0.0814282
0.0488714 -0.09506356 0.066926315 0.0053075724 0.006811239 -0.058660198 -0.019138511 -0.03596461
-0.08087106 -0.020915274 0.22512406 0.32705277 -0.031552464 -0.04632047 -0.45451444 -0.011679325
0.026095625 0.069458745 0.072523795 -0.063315675 -0.030661996 -0.09097906 -0.0017772628 -0.08545244
0.07877287 0.058385488 0.021298273 0.11015014 0.22707728 0.052519914 0.1906619 -0.07175624
-0.016456582 -0.05862511 0.3145791 -0.01572497 0.0007326506 -0.061148666 0.045002107 -0.12573151
-0.039602157 0.01005487 0.022923969 0.0010222804 -0.01697512 0.06726666 -0.09030631 -0.078773074
-0.06685115 0.019913638 -0.050061587 -0.019248633 -0.049409296 -0.026274828 0.48355892 0.00095339335
00000000: d5dc 6a3d b214 01bf 93c2 d2bc f0c2 b9bd
00000010: f891 19bd 7e26 2e3d 009c 823d 128c b73d
00000020: 9ebc 193d 7d90 0ebd 7225 963d f487 483c
00000030: de7c a13a aa73 85bd b9e7 94bd cdb6 20bd
00000040: 986e a3bd 859c 48bd e18d 48be 2ee6 c9be
00000050: d91d 59bd 6531 b53c dcf1 d93e b9aa 2abc
00000060: 1bbd 5a3d e3ae 873d 470f 873d 1b80 023c
00000070: 7b12 99bc 444b c0bd 4b7c a63c c398 cfbd
00000080: c2a1 8a3d 3f59 86bc e712 3ebd a2b7 2bbe
00000090: f355 6dbe 001f 4f3d 52bc 47be 4563 94bd
000000a0: a8fe d9bc 4b4e 06be 0e95 04bf 755f 1b3d
000000b0: 9c59 343e d9a2 44bd 811e 913c 148d f4bd
000000c0: 3a10 4ebd 5534 27bd 5d44 e23c 58c2 d13b
000000d0: 414c 64bc 36d1 8e3d 2b65 c4bd 33f7 a6bd
000000e0: bd1e 84bd dc92 8b3c 7477 7abd 1fad 033d
000000f0: 0808 1abe 1fca 1a3c 404a f6be 7e98 d5bb
00000100: 4771 023d d2e3 2a3f 8dcd b2bc 2bee f63d
00000110: 9b7c bf3d a30c fdbd 9d5d ffbd d4c3 a63d
00000120: 612d 483d afb0 c2bd aa10 893d 25eb ad3b
00000130: d030 df3b ad45 70bd 5ec8 9cbc a04f 13bd
00000140: ba9f a5bd 8256 abbc ec86 663e 7673 a73e
00000150: 283d 01bd 88ba 3dbd 1eb6 e8be a45a 3fbc
00000160: 7ec6 d53c 6340 8e3d 5b87 943d a6ab 81bd
00000170: de2e fbbc 3b53 babd 0bf3 e8ba b001 afbd
00000180: ac53 a13d 9f25 6f3d b779 ae3c 6696 e13d
00000190: f286 683e 1f1f 573d e03c 433e f0f4 92bd
000001a0: f4cf 86bc e220 70bd 8310 a13e a7d1 80bc
000001b0: 590f 403a 0677 7abd 2154 383d c3bf 00be
000001c0: df35 22bd 2ebd 243c 0ccb bb3c 0afe 853a
000001d0: 680f 8bbc 1ac3 893d 84f2 b8bd c753 a1bd
000001e0: 41e9 88bd ed21 a33c 610d 4dbd 4faf 9dbc
000001f0: 6761 4abd 4f3e d7bc 0995 f73e 25ed 793a

fc2.bias f4 [2]
0.02236456 -0.019846562
00000000: e235 b73c 4295 a2bc
