models/ONE OK ROCK/classifier_fold4.pth (torch, 991011 bytes, 16 tensors)

conv_layers.0.weight f4 [64, 256, 2]
00000000: 01c7 203d 1c19 953d 4259 e1bc 6c52 8e3d
00000010: 3542 e7bb 2a77 c0bb 2972 7fbd a452 c23d
00000020: 503e 753b 4413 e83c b689 8cbc 04c9 52bd
00000030: c5dc b73c 7882 913c 7c2c 133d 35fb a43c
00000040: a989 cc3d 442c 1bbc a198 a3bb 78df 893d
00000050: ba02 473d aa54 933b 3387 1bbd aed2 0c3d
00000060: 812c 4f3c 0f1a 41bd 6392 b6bc 09ed 9dbd
00000070: b086 263d 13a8 273d 23a0 e03c 7099 383d
00000080: a9f8 263d 2a74 723d 179a 843c af9e 6ebd
00000090: 9698 8ebd 0371 2bbd e110 8cbd 3c13 48bd
000000a0: 0901 a9bc 3600 5e3c a562 aabc e3d3 f9b9
000000b0: 0670 dabb 9cea 543c 31a4 ac3c 0bc5 633d
000000c0: 3486 4e3c ed3e 633c 6035 d4bc 428f 703d
000000d0: 7cf8 c03c 7569 abbd 91cf 13bb 57b0 61bc
000000e0: a409 a93b 98c1 d13c 89b3 60bd 4f84 573c
000000f0: 96f8 d43a 0c23 243d d749 dabd 117a 5dbc
00000100: 02e4 2fbb e774 3cbc bcd5 73bd 206d a83c
00000110: 60b4 413c b435 bdbc e0d9 cf3c 9607 86bb
00000120: 9489 5dbb 7aba 3fbd 2b21 f53c 5de9 1f3d
00000130: e2d8 8cbc 7868 26bc 777e 113d 0578 23bd
00000140: 0d81 b8bc 2cc3 82bc e3bf 3ebd b9ec b4bd
00000150: bd2d 083e 1ca1 bfbd 43e1 d7bd 71b0 933c
00000160: 9bb5 493d 6adf 863c 960b 4e3d 01a6 8e3d
00000170: 4b71 853c 600f 70bd 65fe 8e3c bbc3 853c
00000180: c087 17bd 7c10 1dbd 57d0 a73b 4bc0 2f3d
00000190: 2fd3 673d d751 8d3d 0a10 50bd ee84 d0bc
000001a0: 122b 29bc eb31 24bb f17a 19bc 04eb 833d
000001b0: f158 1abd c317 6abd a955 e33c 77e5 baba
000001c0: b034 223d a8c2 823b 64f9 983d 9ccb 1abb
000001d0: 4738 43ba 9988 253d 4b4b 36ba 2f64 35bd
000001e0: 7d49 143d e29f 1e3c 8f22 1dbc f5ff 16bd
000001f0: cbf8 103d d064 a23d 4310 c33c 3ddf 823c
00000200: c731 babc d2b5 8fbd 5f62 993d a54d 0cbd
00000210: 3bd0 9fba 2f59 2ebd 2f09 893d aef4 693c
00000220: f233 383d f518 143c e491 b33c b578 633c
00000230: 8ed3 993d 712e d43b b919 7eba 404d 343c
00000240: c729 22bb ff20 833d 6527 15bc 9223 363d
00000250: 6d91 9bbd 4b8e 40bc e22e 84bd 3f1e c73d
00000260: c30b e33d 118e ae3b 7425 1b3b d677 de3c
00000270: c678 5c3d 8e39 063c 5d2c 0f3c c2c8 283d
00000280: 1f8c 993d a430 b1bc d2bc 6a3d 17e7 19bc
00000290: 6929 50bd 19e4 803c 1dc2 34bd 7f8e 4abd
000002a0: ea3e fbbb 8ed5 35bd 8efe 463d bbfb c1bc
000002b0: 4c01 24bd b6dc 443d 734b e5bc 962e 09bc
000002c0: bf7e d3bd 4ba0 9bbc 677f e13c 9776 f0bd
000002d0: 9ac3 763d 8752 513d aeda 063d a3c0 9ebb
000002e0: d5d0 13bc 6488 1a3c af77 1cbd 2f35 523c
000002f0: 91f6 10bc e91c 463a d1ef ee3c 127a 82bd
00000300: 0e8c c4bd 3eda 3c3d 5f7b 15bd 304b 8fbd
00000310: 425b 3b3d a3cc 58bd 27df e4bd 84d0 743d
00000320: 3dad 7f3c 3fcc ccb9 c283 173d 97db 93bd
00000330: a94c 58bd 51ff 8a3d cd13 ba3c 8aab 8d3d
00000340: 8c7a efbc 15b1 ca3b 843b b2bd 063d 4dbd
00000350: c4dc 18bb 963c 143d d010 bd3d 8700 63bd
00000360: 249d a7bb 438b 973d 6c48 543d df7a 993c
00000370: 3439 243d 932b 773d 1c30 d83c 85eb bc3d
00000380: 2a26 66bd 80e4 b4bc 67f5 5a3d 2a2d aabb
00000390: 13d8 d5bc 38f4 bc3a ae6c 28bd 9590 b6bc
000003a0: 5615 0a3d ec4a 07bc c34f 803d 51ff a43c
000003b0: c3db 0d3c a765 c13b 4d8f 7d3c 2dae 58bd
000003c0: feb9 b9bd 4f8a 303d 7c3d d53c 20ae 493d
000003d0: 564b 903d be43 8c3c bca1 89bd 5503 87bc
000003e0: 966a c83c e7f2 2fbd 487a bfbc 51d8 033c
000003f0: 40ed d73d 22a1 91bd 3ec2 a43d c434 4dbd
0.039252285 0.0728018 -0.027508382 0.069493145 -0.007057453 -0.0058735805 -0.06236473 0.09488419
0.0037421174 0.028329499 -0.01715551 -0.051461235 0.022444138 0.017762408 0.035931095 0.020139316
0.09987194 -0.009471003 -0.00499256 0.067320764 0.048586585 0.0044961767 -0.037970733 0.034380607
0.012644888 -0.047143992 -0.0222866 -0.077112265 0.04065579 0.040931772 0.02742011 0.045068204
0.040764485 0.059192814 0.016186757 -0.0582568 -0.06962697 -0.041855823 -0.06839157 -0.04884647
-0.020630376 0.013549855 -0.02079899 -0.0004765085 -0.0066661863 0.012995388 0.021074386 0.055607837
0.012605239 0.013869983 -0.025904357 0.05873037 0.023555987 -0.08369724 -0.002255414 -0.013774953
0.00515862 0.025605008 -0.054858718 0.013154103 0.0016248401 0.040072486 -0.10658615 -0.013517872
-0.0026838784 -0.011502481 -0.059530005 0.020559847 0.01182279 -0.023096897 0.025372446 -0.00409026
-0.0033803927 -0.046808697 0.029923042 0.039040912 -0.017193262 -0.010156743 0.035520997 -0.03990938
-0.022522474 -0.015962206 -0.046569716 -0.08834214 0.13298698 -0.09356901 -0.10541012 0.01802847
0.049245458 0.016463954 0.050304018 0.069652565 0.016289374 -0.058608413 0.01745529 0.016328683
-0.036994696 -0.0383458 0.0051212716 0.042907994 0.056597885 0.06900375 -0.050796546 -0.02545401
-0.01032521 -0.0025054167 -0.00936769 0.0644131 -0.037682477 -0.057151567 0.027750807 -0.001425906
0.039601028 0.00399049 0.074694425 -0.0023619896 -0.00074470456 0.040413473 -0.00069539686 -0.044284996
0.036202896 0.009681674 -0.009590759 -0.036865193 0.035393517 0.07929385 0.023811465 0.015975589
-0.022728814 -0.07017101 0.07489466 -0.034253735 -0.0012192795 -0.04256552 0.06691205 0.014279528
0.044971414 0.009039153 0.021920152 0.013883759 0.07511054 0.006475263 -0.0009693164 0.011004746
-0.002474414 0.06402778 -0.009103631 0.044467516 -0.07596097 -0.011752675 -0.06454255 0.09722566
0.11086228 0.005326994 0.0023673447 0.027156752 0.053826116 0.008192433 0.008738604 0.041207083
0.07497429 -0.021629639 0.05730898 -0.009393475 -0.05082074 0.015733765 -0.044130433 -0.0494523
-0.007667412 -0.044393115 0.048582606 -0.023679605 -0.0400403 0.04806205 -0.027990079 -0.008372923
-0.10326909 -0.018997332 0.02752657 -0.11741369 0.060245134 0.051104095 0.032923393 -0.0048447414
-0.009021957 0.009431932 -0.038200077 0.012830063 -0.0088478485 0.00075574085 0.029167088 -0.06370939
-0.09597026 0.04610657 -0.03649461 -0.06996763 0.045741327 -0.05292953 -0.111753754 0.05976917
0.015605268 -0.00039062087 0.03699089 -0.07219618 -0.052807484 0.06786979 0.02271452 0.06917484
-0.02923324 0.0061856606 -0.08702758 -0.050107025 -0.0023324946 0.03619059 0.09231722 -0.055420425
-0.005115168 0.07399609 0.05182688 0.018735347 0.040093616 0.06034429 0.026390128 0.09224609
-0.05618874 -0.022081614 0.05345669 -0.0051933723 -0.026104009 0.0014416045 -0.04111927 -0.022285739
0.033711754 -0.008257609 0.06265213 0.020141276 0.008658352 0.0059020105 0.01547606 -0.052900482
-0.09068678 0.04310065 0.026030295 0.049238324 0.07045619 0.017122146 -0.067203015 -0.016481081
0.024464887 -0.04295626 -0.023373738 0.008047179 0.10543299 -0.07110812 0.08044861 -0.05009915

conv_layers.0.bias f4 [64]
00000000: 1052 4d3d 3451 13bd eb0e 35bd 95f6 06bd
00000010: 7f4a 09bd 3b3a 00bd c535 38bd 70d0 abbd
00000020: a03c c9bd 43bb c8bc 9066 09bd fc2f 8e3d
00000030: bd3d 323d a5a1 e53c ccbe 29bb 8804 efbb
00000040: 0deb 9f3d 6877 ad3c 2c5a 393c 6768 5f3c
00000050: b059 023c 09ce 893d d376 6e3c be50 693d
00000060: 34d8 0f3d b879 efbc 2a05 31bd 86ac c7bb
00000070: 5851 19bc a037 13bd 0f35 6f3d 227a b83c
00000080: acb4 bbbc e677 563d ebaf 863b 8199 3f3d
00000090: 1411 533d 38d9 c93d 293f 6ebd 7773 e83b
000000a0: 8738 0abd 3955 b7bd 722f 09bd 365e 36bd
000000b0: 888c 30bd a7d8 0a3d 55b4 df3c 66d4 163b
000000c0: b185 97bd 2566 4b3b 1b5e dabc 7077 383d
000000d0: 1932 1e3d 9e69 6abd 651c 68bc c5a1 8dbb
000000e0: 35bc 98bd 9a1a 86bd 7676 273d a92b e7bb
000000f0: a5f1 483d 9f85 2abd 37b3 8abd a43a cdbc
0.05012709 -0.035966113 -0.04420368 -0.032950003 -0.03351831 -0.031305533 -0.044973154 -0.08389366
-0.098260164 -0.024503356 -0.033545077 0.06942746 0.04351591 0.02803118 -0.0025901077 -0.0072942413
0.07808504 0.021175101 0.011313003 0.013635731 0.0079559535 0.06728751 0.014554697 0.056961767
0.035118297 -0.029232845 -0.043217815 -0.0060935644 -0.009357773 -0.03594172 0.05840021 0.022519175
-0.0229133 0.052360438 0.0041103265 0.046777252 0.05152996 0.09855884 -0.058165703 0.0070938426
-0.033745315 -0.08951802 -0.033492513 -0.04452344 -0.04310277 0.033898022 0.027307669 0.0023014783
-0.073985465 0.0031036225 -0.026656201 0.04503578 0.038621996 -0.05722963 -0.014166926 -0.004322263
-0.07457773 -0.065480426 0.040884458 -0.0070547652 0.049058575 -0.041631337 -0.06772464 -0.025052376

conv_layers.1.weight f4 [64, 256, 3]
00000000: f418 58bc 7fee 5cbc d99b f5bc ae47 563c
00000010: 1dec a0bc a9b0 b33d 9008 a8bb 6332 b13d
00000020: a71b e33c 81db aabc 1c24 a1ba e4c3 0abc
00000030: 1b4c a73d b1f8 b6bb 8d4e 073d 1cdb 47bc
00000040: a18c 32bc 3a25 473d b187 28bc 325d a93b
00000050: 0916 93bc 7bbf 8cbd 41eb e5bc 1acc 843c
00000060: 72ba 083d 344a 09b9 7d73 a8bd 184c 85bd
00000070: f2b1 143d 0594 9d3c d1ce 0ebd 37eb 0ebd
00000080: 3f1a cf3a f882 b43b ed4a 993c 2e65 893d
00000090: 068b 07bd ca0e 273d 66d8 113d 08ae 64bc
000000a0: 6e6c ef3c e591 42bc 6e04 733c 265d ac3c
000000b0: beb3 353d fc44 6abd f32e 7c3d 5364 94ba
000000c0: 25d8 8bbb 0e92 c4bc dc9a 1b3d ffb7 b7bd
000000d0: f193 823d 60e4 083d 8941 083d 5387 3cbd
000000e0: a59e 513c adab 5cbc 9cdb 6439 5867 543d
000000f0: f6f9 27bd ac88 09bd f504 783d ead3 aabd
00000100: a4cb 6c3d 1404 873b 83a3 1e3d c1e1 43bc
00000110: 8d21 acbc 0855 3dbd 647e 34bd 24f3 b83b
00000120: f0bb 64bd 1952 ab3d 5b38 323d c572 163d
00000130: ede7 1e3e 473c 003d 5be4 43bd 8291 0abb
00000140: d276 023d 28d6 0fbd be58 923d 5649 4d3d
00000150: 3fd0 6b3d c5ac 8dbc 4c1b e73c 00dc 8cbd
00000160: f95b dc3c c70a bcbd f8de 4bbd 3139 303d
00000170: 6c75 313d 9b6b dc3c 4c9f 373d 4d0d 113d
00000180: 91cf 9abd 28ec b9bb e493 abbd 203f a83d
00000190: cffa 07bc b9c0 6ebd 3520 013d 813d c7bb
000001a0: b8f4 2d3c e5c3 583d f7e4 fa3d 8272 f6b8
000001b0: 347e 09bd db2b 423d b9cd 233d 70c5 813c
000001c0: 1e8a 773d 3612 323d c695 20bd ae13 d33d
000001d0: 35ab 983d 2574 adbc 8938 8cbb c31c 123c
000001e0: fb11 013d 2406 393d ba92 6a3c 4d71 27bd
000001f0: 5604 5e3c d0d5 bdbd d873 b83d d5e6 80bd
00000200: cbf6 ff3a d308 efbc 9e86 913d a897 8c3d
00000210: fe7a e9bc a9b2 3cbd b050 953c 8686 083d
00000220: 7523 10bb c87a 403b 181c 553d 1682 d63b
00000230: a9a1 a43c 3ff7 edbb e04a 3a3d 6414 90bc
00000240: 1000 0d3d ce59 40bb 8ad2 44ba 71d7 da3c
00000250: cf2e b8bc 205c cfbd b193 1dbd cbd4 91bd
00000260: 031a 003d 3c0d 113d 3a74 babc 66ff e2bc
00000270: 7c0f 69bc 8ac1 933c 3587 94ba 9448 49bd
00000280: 190c 9e3c d31b 213c 03fb 7abc b4e9 263d
00000290: 067a 753d f100 e83b 949a d53d 9baf ecbc
000002a0: 2d3c b13c 2fed 2cbd ae40 493d 038c 833c
000002b0: 6d4b e83c 1250 9cbc d08c 8e3d 83cc 0fbd
000002c0: 0242 c0bc 65af 953d 64c8 33bd 7e02 80bd
000002d0: b45d 063d c846 c33c 4047 153d 5546 d53c
000002e0: 24c5 17bd 216a c53c df7d 0bbd 059d 8cbd
000002f0: 1458 6cbd b302 c93c cbb3 8cbd 8220 57bd
00000300: 9f14 1dbd f6cc 62bd 6534 d7bc af6a ab3d
00000310: 1016 023e 965e c93b 99f6 bdbb bfe4 0f3d
00000320: ae7c f6bb 06b8 ccbd 9736 d53c 42be 79bd
00000330: 3086 da3c 67cd 7d3c f889 a73b 4a14 913c
00000340: 7367 63bd 6205 97bd 975e 183d f8f6 89bd
00000350: 90f3 6e3c 5ddc bf3c ac11 95bc b8b3 483d
00000360: 2e48 643d f7de 82bd 4097 a13c 18ba 503d
00000370: 7f35 983c 60a0 d23c 4110 81bd 1e93 a43d
00000380: 0a85 c13b 974a 56bb a1a8 19bd 610f 94bd
00000390: 3bf2 20bd 449a e33d 8e04 c1bc f141 513d
000003a0: 528c 23bd b094 54bd a2e4 703d 1bd9 ad3c
000003b0: 6856 9cbd 08a5 d03c 9cf6 183d 6e1e 12bd
000003c0: 2c17 b63b 3a83 1b3d 7688 8cbc c690 7f3d
000003d0: b343 25bd bdc5 a13d cfa8 76bd 9a01 cb3d
000003e0: 8b7d 13bd 2511 87bd dd25 913d b286 4c3d
000003f0: a9c2 e13a ded2 c23d e5de 353d 44a7 073c
-0.013189543 -0.013484596 -0.02998154 0.013078613 -0.019643838 0.087739296 -0.005127974 0.08652189
0.027723147 -0.02085662 -0.0012294087 -0.0084695555 0.08168813 -0.0055838455 0.033033896 -0.012198236
-0.010897786 0.048619486 -0.010286258 0.0051685805 -0.017954843 -0.068724595 -0.02806628 0.016210604
0.033380933 -0.00013092981 -0.08225153 -0.06508654 0.036302514 0.01923562 -0.034865204 -0.034892287
0.0015800669 0.0055087768 0.018712485 0.067087516 -0.033091567 0.04078559 0.035606764 -0.013957508
0.029226508 -0.011875604 0.014832599 0.02104051 0.04436087 -0.057194695 0.06156821 -0.0011321403
-0.00426771 -0.023995426 0.037989482 -0.08970641 0.06375874 0.03342092 0.033265624 -0.046027493
0.012794171 -0.013468665 0.00021825585 0.05185637 -0.041009866 -0.033577606 0.060551602 -0.08341201
0.057811394 0.004120359 0.038730156 -0.011955679 -0.021012092 -0.04622367 -0.044065848 0.005644219
-0.055843294 0.08365268 0.043510776 0.036730547 0.1551816 0.031307485 -0.0478252 -0.0021143858
0.031851597 -0.035116345 0.071458325 0.050118767 0.057571646 -0.017294297 0.028211258 -0.06877899
0.026899325 -0.09181743 -0.049773186 0.043023292 0.043324873 0.026906779 0.04482965 0.035413075
-0.075591214 -0.005673904 -0.08377817 0.08215165 -0.0082995435 -0.058289263 0.031524856 -0.00608033
0.0106174275 0.052921195 0.12250703 -0.00011751523 -0.033567622 0.047405105 0.039991114 0.015841216
0.060434453 0.0434744 -0.039205335 0.10306488 0.0745453 -0.021173546 -0.0042792005 0.00891799
0.031511288 0.04517187 0.014317209 -0.040879536 0.013550838 -0.09269297 0.090064704 -0.06294028
0.0019528506 -0.029179012 0.07105754 0.06864864 -0.02850103 -0.04606882 0.018226951 0.033331417
-0.002199379 0.0029370058 0.052028745 0.006546269 0.020096617 -0.00726214 0.045481563 -0.017587848
0.034423888 -0.0029350403 -0.00075081794 0.026714059 -0.022483258 -0.10124993 -0.038470928 -0.07120665
0.031274807 0.035413012 -0.0227605 -0.027709674 -0.014224883 0.018036623 -0.0011331799 -0.04914148
0.019292878 0.009833294 -0.015318635 0.04075022 0.059930824 0.0070801903 0.10429874 -0.028892329
0.02163514 -0.042218383 0.04913395 0.016057974 0.028356278 -0.01908115 0.069604516 -0.035107147
-0.023468975 0.073088445 -0.04389228 -0.06250475 0.032804206 0.023837462 0.036444902 0.026034513
-0.037053242 0.024098458 -0.034055587 -0.068658866 -0.057701185 0.02453742 -0.0687023 -0.052521236
-0.038349744 -0.055371247 -0.0262701 0.08369958 0.12703729 0.0061453087 -0.005797219 0.03513026
-0.007522187 -0.09996037 0.026027007 -0.06097246 0.026675314 0.015490866 0.0051128827 0.01770987
-0.05551858 -0.073740736 0.037199583 -0.06736559 0.014584437 0.023420507 -0.018196903 0.04899952
0.0557329 -0.063901834 0.019725442 0.050958723 0.018580196 0.025711238 -0.06301928 0.08035873
0.005905752 -0.0032698268 -0.037514333 -0.07229496 -0.03929351 0.11113408 -0.023561742 0.051088277
-0.03992874 -0.051899612 0.05881179 0.021221688 -0.07633668 0.025469318 0.03734456 -0.03567355
0.0055569615 0.037966944 -0.017154913 0.062393926 -0.040347766 0.07899044 -0.060219582 0.09912415
-0.0360084 -0.06595067 0.070873 0.049933143 0.0017224151 0.09512876 0.044402022 0.008279625

conv_layers.1.bias f4 [64]
00000000: 2eb5 a2bd 41f5 b2bd 3dc6 193c c90e 80bc
00000010: 7f8c 4b3d 2a81 883c 8fdf 3b3c 6cee b63d
00000020: 00ac 0d3d 7138 573d cefc 3cbc f0c4 b0bc
00000030: 9e3f e0bc cdda 12bd 724a bebc cab6 0d3d
00000040: b338 07b9 454e 813b 67fe 36bd 7742 e5bc
00000050: f79a 633c b1f2 983c ba3d cb3c 3ce6 18bd
00000060: e66e 14bc ea7d 7fbd b426 cfbc 2c5d 11bd
00000070: 280d 38bd a643 9dbd 226a 89bc 83b3 4eba
00000080: fdd4 8e3d 3374 303d 1118 fabc 13ed 67bc
00000090: cbf3 36bd 7d13 f63c 752f f8bc c3a9 6e3d
000000a0: b373 ddbd bd8d e4bc 733e a6bb 41f2 603d
000000b0: da4f 863d 5a4f f5bc 09e3 82bd 22c1 6c3d
000000c0: 6c73 1ebd b1e1 5b3c 9c90 54bc a9b3 a83a
000000d0: d508 19bc 0031 9d3d 95ad 643d ac90 bebd
000000e0: 7a23 ce3c 5325 653c 5627 a6bc 4424 70bd
000000f0: 83dd 023d 75b5 a83c 7ea8 df3b ffdf 04bd
-0.079447135 -0.08738185 0.009385643 -0.01563205 0.049694534 0.016663153 0.011466875 0.08932194
0.03458786 0.05254406 -0.011534883 -0.021578282 -0.027374085 -0.035853196 -0.023228858 0.03459815
-0.00012895725 0.003946098 -0.04467621 -0.027985794 0.013891927 0.018670412 0.024809707 -0.037328944
-0.009059643 -0.06237594 -0.02528701 -0.035489246 -0.04493442 -0.076789185 -0.01677424 -0.00078850257
0.06974218 0.043079566 -0.030529054 -0.014155644 -0.044666093 0.03003859 -0.030296067 0.058267366
-0.108130835 -0.027899617 -0.0050733625 0.05491853 0.06558199 -0.029945064 -0.0639096 0.057801373
-0.038684294 0.013420508 -0.012973931 0.0012870926 -0.009340485 0.07675362 0.055829603 -0.09304938
0.0251634 0.01398595 -0.020282429 -0.058628336 0.03194953 0.020594338 0.0068255058 -0.03244018

conv_layers.2.weight f4 [64, 256, 4]
00000000: 5622 963d d860 1abd 1f08 56bc 90ff 1abc
00000010: d12f 82ba f64e a43d 605f 003d 0a9b 3dbc
00000020: 00ac 30ba 15e1 473d 5182 a1bc 7a28 973c
00000030: cc93 3f3d 3302 483d 4c0f a7bd 075e d0bc
00000040: eb76 4dbd f60c 733c 5811 35bc a18c 89bd
00000050: 2ba8 b73d 2ca0 31bd 42cb 07bd fe07 4ebd
00000060: abdc cd3c 8a53 5a3c b292 9ebd ceb6 f1bc
00000070: a6c3 a33d 3e72 da3c 4908 fdbc 076f ed3c
00000080: af45 0f3d 6712 b53d 954a a83b 6b19 103d
00000090: f43f c8bd 0e71 ebbb 2612 7fbd 0b8d 5bbd
000000a0: c78b 143d 7458 12bc 4e8b 95bc 4e6a 1dbd
000000b0: cb6e 303d 589c d7bd 0c7a 813c 9722 a0bb
000000c0: ada3 133d e5d7 68bd 6278 b8bc b95c 49bc
000000d0: e04d ddbc 1321 69bd ed62 b7bc 79e6 febc
000000e0: e283 84bd 7c48 21bb ae6b 3cbd 443f 683d
000000f0: 7d3d a93a 411a e73c 8769 073c 1c62 113d
00000100: 651f 3f3d 4a6e 09bd 4680 5ebc 31cf 33bd
00000110: d201 473d 2b5e f73b a7c5 883d 6e00 ac3d
00000120: 1c42 89bd f859 a0bc b2d2 0bbd e830 31bc
00000130: 2904 713c 4b83 5c3d 3468 8d3d f79c 86bd
00000140: 57f0 8cbd e3ba bc3c 322b 93bd a74d 4abb
00000150: e1a1 073b 2f39 dd3c 703f 8cbc 5c09 8bbc
00000160: 3302 5fbd 9df4 86bd 52d5 bbbd 24d4 aa3d
00000170: ed95 923d a633 0c3c f02e b2bd c402 8f3c
00000180: 9404 323d bc68 f8bd 5e29 403d 3ae1 f63b
00000190: 8ec2 8439 3178 3dbd fd0b 783c 20f4 85bd
000001a0: 03b4 9d3d 1658 1abd 0164 39bb 5633 0d3d
000001b0: 80cf 943d b4ba b9bc 6db6 8dbc f428 1b3c
000001c0: 0600 0e3d 1ecd b6bc c6a3 493a ef8c 943d
000001d0: 725e ca3c 321c 5ebc dd08 003d 2a2b bb3c
000001e0: d9b6 4f3c 1913 e939 a3f9 703d 49a2 b9bd
000001f0: 0b0d 473d 5cc1 0cbd 59f0 463d 4ef9 863d
00000200: 28d1 083d 5262 83b9 f0e0 f2bc adec 45bd
00000210: f489 76bd bb01 8e3d dd12 e13c 4386 a0bb
00000220: fa84 e0bc fa78 4cbd 0911 3abc 4442 2d3d
00000230: 7025 2abd 9794 c9bd 6abb ce3d 80a9 073c
00000240: a4cc e93b 2982 c93c dadd 88bc 222d 94bd
00000250: cea6 04be 542a c73c 1ae9 b83d 34d5 2fbd
00000260: 924d a9bb 35f2 683d 1d1c 5e3b 60ec 2fbc
00000270: 3183 12bc 2335 ef3c 2d66 9f3b d59b 52ba
00000280: e14c cc3b cf1f ee3c c85e 813d 39ad b93d
00000290: 105e 423c 5cfc 80bd 26f8 a63d 77f7 11bd
000002a0: 9148 4abc e076 c23b e1cf 2d3d 09a4 fd3b
000002b0: 9e74 273d 85a2 9e3b c2f7 0abc 1d9e fd3c
000002c0: b496 a3bc b085 8bbc 4609 db3b fb07 46bd
000002d0: e7b4 67bc d1d7 323e 6dff 66bb d57b 25bd
000002e0: 0b9a 69bd f663 e03b 42d0 553d 00e9 dcbb
000002f0: 8df9 5f3c 2bf6 27bd 5e88 9ebc 7d74 00bd
00000300: 76b6 86bb bf71 c4bc 330d 10bd 7ca7 3e3d
00000310: e10a e6bc cc37 4e3d 1042 13bd 53f7 993d
00000320: cc31 f73c 98ad c2bd dd8e 46bd 3e3b ad3a
00000330: 580c 0fbd 7f00 7bbc a52a bbbd bddf 643c
00000340: 8572 ca3d 87c1 993d 2739 163c 000d 813c
00000350: 28f2 65bc 2d2d fbbb d140 d7bd 5234 a5bd
00000360: c162 94bc befa 193d 3572 223d 48cb 2a3b
00000370: 5caa 433d b70d 203c e904 3f3d 1388 1b3d
00000380: 17bc 1b3d e78c 9f3d cb9a f8bc dc59 f83c
00000390: 083d 45bd ef39 893c 13a1 aebc 6d1c 6c3c
000003a0: 2be6 023d 4add bc3c e3fc d6bb aa7a 943d
000003b0: b8b4 953d ffe3 c0bb 34fd 2cba da7f 863c
000003c0: eddd 653d 8b29 553c 7e2a 8bbc 1a17 ccbc
000003d0: 1876 603c b096 8abb 6eb3 6ebd b1ea aebc
000003e0: 645a 363d b6e3 ae3d 1fc7 733d d969 cd3b
000003f0: 74f9 a0bd dd6b 57bd 4427 1c3d 39c4 2c3d
0.07330768 -0.037690014 -0.01306346 -0.009460345 -0.0009932463 0.08022873 0.031340957 -0.011572609
-0.0006739497 0.04879864 -0.01971546 0.018451918 0.04677181 0.048830222 -0.081572145 -0.02543546
-0.050162237 0.014834633 -0.011051498 -0.06716276 0.08967622 -0.043365642 -0.033152826 -0.05030059
0.025129637 0.013325581 -0.07742824 -0.029506113 0.07996301 0.026665803 -0.03088774 0.028983606
0.034978565 0.088414006 0.005135844 0.03518049 -0.09777823 -0.007185108 -0.062273167 -0.053601306
0.036266115 -0.008932222 -0.018254902 -0.03843146 0.04307441 -0.10527867 0.015805267 -0.004886936
0.036044765 -0.056846518 -0.02251834 -0.012290173 -0.027014673 -0.056916308 -0.022386039 -0.031115757
-0.06470467 -0.0024609854 -0.04600113 0.05670096 0.0012912002 0.028210761 0.008264906 0.035493955
0.0466608 -0.033552445 -0.013580387 -0.043898765 0.04858572 0.0075490675 0.06678324 0.083985195
-0.067020625 -0.01957415 -0.03413648 -0.010814883 0.0147104645 0.05383615 0.06904641 -0.065729074
-0.06881779 0.023038333 -0.07185973 -0.0030869038 0.0020695853 0.027004806 -0.017120093 -0.016972236
-0.054445457 -0.06589625 -0.09171547 0.08341244 0.07157502 0.008557236 -0.08700359 0.017457373
0.043461397 -0.121293515 0.04691445 0.0075341733 0.00025321956 -0.0462572 0.015139577 -0.06540704
0.0770035 -0.03768166 -0.0028288367 0.034472786 0.0726614 -0.022672035 -0.017298901 0.009470213
0.03466799 -0.022314604 0.00076919456 0.072534434 0.024703238 -0.013556527 0.031258453 0.02284773
0.012677872 0.00044455452 0.058831822 -0.090641566 0.048596423 -0.03436409 0.048569057 0.0659052
0.033402592 -0.0002505952 -0.029648274 -0.048321415 -0.060190156 0.06933924 0.027474815 -0.0048988177
-0.027407158 -0.04992006 -0.011356601 0.042299524 -0.04153961 -0.098427944 0.1009434 0.008280158
0.0071349908 0.024598198 -0.01670735 -0.07235171 -0.12954256 0.024312176 0.090288356 -0.042927936
-0.005166718 0.05687161 0.0033891269 -0.010737509 -0.008942411 0.029200142 0.004864475 -0.0008034085
0.0062347506 0.029067902 0.06316906 0.09066243 0.011863247 -0.06298134 0.08152799 -0.03563639
-0.012346403 0.005934581 0.042434577 0.007740502 0.0408827 0.004841151 -0.008481922 0.030959183
-0.019969322 -0.01703152 0.006684455 -0.048347455 -0.014142252 0.1746514 -0.003524746 -0.0404013
-0.057031672 0.006847854 0.052200563 -0.006741643 0.013670337 -0.04100625 -0.019352134 -0.031361092
-0.0041111065 -0.02398002 -0.035168838 0.046546444 -0.02808136 0.05034618 -0.035951674 0.075178765
0.030175112 -0.09505767 -0.04847609 0.0013216508 -0.03492388 -0.0153199425 -0.09138993 0.013969359
0.09885124 0.075076155 0.0091689 0.01575327 -0.014034785 -0.0076652975 -0.105104096 -0.0806662
-0.018113496 0.037592642 0.039659698 0.0026061106 0.04776989 0.009768895 0.046635542 0.037971567
0.038021173 0.07790547 -0.030347249 0.030316286 -0.048153907 0.016751258 -0.02131704 0.014411074
0.031957787 0.023054738 -0.006560908 0.07249959 0.0730986 -0.0058865543 -0.00065990095 0.016418386
0.056119848 0.013010393 -0.016988035 -0.02491336 0.013700031 -0.004229389 -0.058276586 -0.021352144
0.044519797 0.08539526 0.05951607 0.0062687215 -0.078600794 -0.0525931 0.038123384 0.04217932

conv_layers.2.bias f4 [64]
00000000: 5058 133d aa41 55ba c1d6 2bbd c210 97bc
00000010: 0e26 86bd ccbd 24bc 497a 933b 3d89 ba3b
00000020: 4476 d63c 116f 2f3d c25d 833c f51a 973c
00000030: c307 bcbc 8182 333c 7f5a 633c ac7c 8fbd
00000040: d3a1 90bd dd04 1a3d 7618 72bd a344 65bd
00000050: 9ab1 40bd 0360 74bb 3a4c 673d 1261 3b3d
00000060: 94ac edbd c9e2 853c 562a 253d 8b29 a73c
00000070: e32d 7a3d f4d6 013d 8995 31bd 2270 f73c
00000080: 67ac d53c 555a 6b3b f292 6f3d c084 01bc
00000090: efc1 08bd 16c8 173d a771 873c 2304 8539
000000a0: 7730 39bc 77f1 aa3d 450e abbd d5de b93d
000000b0: 8a4c ddbb 6f52 483d f62f fa3a a4d7 2fbc
000000c0: b6bc cd3d 69c3 123d d0f9 493d eba4 35bd
000000d0: 7ebc 92bc 7ee5 4bbd e1f7 a63c cb80 9ebd
000000e0: cf60 d6bb 46fa 8c3b 3d06 17bb 797a a5bc
000000f0: 637a 0d3d f786 ce3b dd32 1b3d 284b 583d
0.035972893 -0.000813509 -0.041952852 -0.018440608 -0.06550227 -0.010055017 0.0045006615 0.0056926296
0.02617944 0.04283053 0.016035918 0.018445471 -0.02295292 0.0109564075 0.013876556 -0.07006201
-0.070621155 0.037602294 -0.05910536 -0.05597366 -0.047044374 -0.0037288673 0.05646918 0.04574687
-0.11605182 0.016343491 0.040323578 0.020405551 0.061078917 0.031699136 -0.0433555 0.030204836
0.026083184 0.0035911996 0.058489747 -0.007905185 -0.033388074 0.03705605 0.016533686 0.0002537082
-0.011303059 0.08346837 -0.08352331 0.09075705 -0.006753509 0.04890674 0.001908778 -0.010732565
0.100457594 0.03583089 0.049310505 -0.04434673 -0.017912146 -0.049779408 0.02038187 -0.07739409
-0.006542302 0.004302296 -0.002304449 -0.020200001 0.034540545 0.00630271 0.037890304 0.05280605

conv_layers.3.weight f4 [64, 256, 5]
00000000: 25de d63c 1fe2 183d eb11 d83c fc6e 28bd
00000010: a72b 7e3d b051 71bd 0d49 a03d fcb3 0ebd
00000020: 28dd ed3c 3787 423d 9de0 173d 9637 fb3c
00000030: d3a9 81bd e6df ac3d 4b0e ecbc 5ecf 1a3d
00000040: dfb9 3abc 93aa e03d 3dab 8a3b c8f0 7e3c
00000050: 8d80 6e3c 4ddf 74bd 4d91 99bd d7b2 223d
00000060: 7472 74bd d2ce 4e3d 2321 233d 709d 963c
00000070: 1e44 e7bb f145 e8bc 75b6 853c 9e78 1bbd
00000080: 1242 6d3d 5d07 a43d 07f1 5abc 666b 573d
00000090: 3df8 573d 3603 cfbb eeba 883d 2e41 483c
000000a0: 2ffe 3ebd 264f ecbb 64b6 43bd 62d3 65bb
000000b0: 40ba 7a3d 8fb5 753d 2f09 ebba bb2b 34bc
000000c0: f344 8d3d be04 223d 1249 cb3c dfeb 573c
000000d0: 6258 bcbd 9a2e 293d e063 2ebd 1469 43bc
000000e0: a33c e33b 0adf 9cbc 4f5c 2abd 536c b4bd
000000f0: c1f3 083c 0984 31bd 1710 0c3d 39e0 d4bc
00000100: 4d05 333d b22b b2bc 1099 c93c bc45 2d3d
00000110: 1df9 803d 1372 e9bc 72ea 4d3d abd0 643c
00000120: 02b3 40bd fa08 c6bd 578e aebc f76d 06bd
00000130: 7d55 eb3c 02d2 223d f508 f9bc b119 09bc
00000140: e08a 28bc 0280 76bc 9073 bb3c 5ce0 923d
00000150: 92a8 dbbc 5752 36bc 31ca 64bd 7e03 b53c
00000160: fcde 743d 4e47 323c f86a e2bc 4a3c 1d3d
00000170: dbbb 623c c843 d9bc 1d12 ea3b 8ca9 463d
00000180: f49a 1b3d f2b1 fdbc 344a 8b3d 1323 823d
00000190: 5b6a 333d c705 edbd f747 c33c 0cbf a03d
000001a0: e74a d7bc 7000 debc 7a67 af3a 2169 c1bd
000001b0: 699c 823c 460a d0bc 331b f83c 5b92 24bd
000001c0: da5b 9e3c 92da 69bd a31b fcba 50ef 9abc
000001d0: e71c 8f3d 5db6 24bd e341 103d ee10 bdbb
000001e0: d855 a4bd a848 413d f0d5 a8bc 569f acbc
000001f0: 573c 98bd 17db 7d3d 01b1 af3c 8cd3 983d
00000200: 4235 eb3c a9bf d73d e8c9 2fbc 4ae5 c03b
00000210: 43d2 acbc 3e17 5fbd 01bf 083d bae4 91bd
00000220: fe3e 2bbc f246 c7bd 30c0 00bd 5871 a4bc
00000230: 1b6a f43c 022a 9dbc ca14 26bd adeb bfbc
00000240: 53e5 8fbd 5a88 0abd 5f13 043d c7c8 91bb
00000250: fe98 713d 6a1e 83bd 1ac0 0d3d 287c 0cbd
00000260: 8401 acbc 36ac 9dbc e2eb aabd 6e46 28bd
00000270: a129 0abd 3f67 b03c 6d9b 10bd d305 4ebd
00000280: 39d8 a13c 3096 c7bc 4e5c a1ba 0448 083d
00000290: ffdd 25bb b623 62b9 6f84 afbd 459f ba3c
000002a0: a209 a33d cc56 26bd 71d7 a3bc 3805 66bc
000002b0: 7b8d b7bb 68fa e2bc 46ad 77bd 0a81 863b
000002c0: 2e5f 6f3b 98f3 eebc 23ed 663c 2352 10bd
000002d0: 62c5 06bd 436b 6d3d a32d 073d 7515 7e3c
000002e0: 40a2 2dbd add4 15bd 3b61 d2bc 771d 07bd
000002f0: 2447 16bd fb0a 973d 801f 08bd cac3 2f3c
00000300: f641 563d a364 1f3d 1991 04bd 66c1 f33d
00000310: b397 2bbd 9c9a 58bd 29ab 3d3c c3b0 0a3d
00000320: f7d7 723a cdb9 e73c 467e fdbc db02 38bd
00000330: 7688 513d 4138 473d b272 c3bc 6ad9 29bd
00000340: 4b3c 073d 12a5 c7bc 7f00 923b 6fde 7e3b
00000350: 8203 4fbd 62b8 433c 3e71 bfbc d67d 913d
00000360: dece a0bb ee6b 4cbd c869 a6bd 7b06 97bd
00000370: 4b90 603d c914 05bc 7600 c6bd 5dc9 09bd
00000380: bb12 81bd 0ea4 b9bc 0ece 13bd 7d66 dc3b
00000390: aa34 4a3d ad53 34bd 58c7 2a3c e144 4d3d
000003a0: 62ce a83d 4798 243d bf96 9dbd 5e46 ca3b
000003b0: 43a5 9c3c f3c7 513d bd44 103d e6a1 d33b
000003c0: c240 4fbc 7aeb 2fbc 2f46 123d 95bf 14bc
000003d0: 69a9 eabc 8571 2fbc 4ee9 77bd 2703 17bb
000003e0: d482 19bb 3f98 11b9 a02d 94bc 621c 6b3d
000003f0: 9e4c 3b3d 854a e33c b8c7 06bd 32e6 3f3c
0.026228974 0.03732502 0.026375731 -0.041121468 0.06205335 -0.058915794 0.07826433 -0.034839615
0.02903612 0.047492232 0.037079442 0.030666154 -0.063312195 0.08441143 -0.02881541 0.037795417
-0.011396854 0.109700345 0.004231839 0.015560336 0.014557016 -0.05978327 -0.07498417 0.039721336
-0.059679464 0.050490208 0.039826524 0.018385619 -0.0070576807 -0.028353663 0.016322354 -0.037956826
0.057924338 0.08009217 -0.013363129 0.052592658 0.052726973 -0.0063175214 0.06676279 0.012222571
-0.046629127 -0.0072115837 -0.047781363 -0.003506862 0.061212778 0.0599876 -0.0017931814 -0.010996754
0.06897917 0.039555304 0.024815116 0.013178795 -0.09196545 0.04130421 -0.042575717 -0.011926908
0.0069347187 -0.019149322 -0.04159194 -0.08809724 0.008358897 -0.04333881 0.034195032 -0.025985824
0.043706227 -0.021749351 0.024609119 0.042302832 0.062975146 -0.028496778 0.050272413 0.013965766
-0.047045715 -0.09669681 -0.021308107 -0.032819714 0.028727287 0.03975106 -0.030399779 -0.008367942
-0.010287017 -0.015045168 0.022882253 0.071716994 -0.026813779 -0.01112803 -0.055856887 0.022096392
0.059782967 0.010881258 -0.027638897 0.038387574 0.013838734 -0.026521578 0.0071432726 0.048501536
0.03798957 -0.03096864 0.068012625 0.06354346 0.0438026 -0.115733676 0.023838026 0.07848939
-0.026280833 -0.027099818 0.0013382279 -0.0944388 0.015943723 -0.025395524 0.030286407 -0.040178638
0.019330908 -0.05709321 -0.0019234311 -0.018912941 0.069879346 -0.040212978 0.035219084 -0.0057698404
-0.08024186 0.04718843 -0.020609826 -0.021072071 -0.07433384 0.06197652 0.021446707 0.07462224
0.028711919 0.10534603 -0.010729291 0.0058867084 -0.021096354 -0.054465525 0.03338528 -0.07123704
-0.01045203 -0.097303286 -0.031433284 -0.020073578 0.029835751 -0.01918507 -0.04054717 -0.023427809
-0.07026162 -0.03382144 0.032245036 -0.0044489834 0.058983795 -0.064022854 0.03460703 -0.034298092
-0.020996816 -0.019247156 -0.08345772 -0.041082792 -0.033731107 0.021533607 -0.035304476 -0.050298523
0.019756423 -0.024363607 -0.0012310834 0.033271804 -0.0025309322 -0.00021566343 -0.085701816 0.022781024
0.07960822 -0.04061012 -0.020000191 -0.01403933 -0.0056015826 -0.027707294 -0.06046798 0.004104738
0.0036525237 -0.029168889 0.014094624 -0.03523458 -0.032903083 0.05796362 0.033002507 0.015508045
-0.04239106 -0.036579777 -0.025681129 -0.032987084 -0.03668894 0.07375141 -0.033233166 0.010727832
0.052309 0.038914334 -0.03236494 0.11902122 -0.04189272 -0.052881822 0.011576452 0.03385998
0.00092637487 0.028286839 -0.030944 -0.0449246 0.05115553 0.048637632 -0.023858402 -0.041467108
0.033016484 -0.024370704 0.0044556255 0.0038889905 -0.050540455 0.011945816 -0.023369428 0.071040794
-0.004907473 -0.049907617 -0.08125645 -0.07374283 0.05482511 -0.008122631 -0.09668057 -0.0336393
-0.06302401 -0.022661235 -0.03608518 0.0067260847 0.04936663 -0.044025112 0.010423504 0.050114516
0.082424894 0.040184285 -0.07694768 0.006172939 0.019121772 0.051216077 0.035221804 0.006458509
-0.012649717 -0.010737294 0.035711464 -0.00907888 -0.028645234 -0.0107082175 -0.06052523 -0.002304265
-0.0023423927 -0.00013884994 -0.018088162 0.057400115 0.045727365 0.027745495 -0.03290531 0.011712598

conv_layers.3.bias f4 [64]
00000000: 90b9 21be 924c 4ebd 48c7 e1bd 65a0 92bb
00000010: 2dde 90bd 8823 91bc 54f5 6cbc 8cc3 c7bd
00000020: 8aa4 2e3c 0c05 5f3c 39b6 f9bc 8d65 7b3c
00000030: 64a2 28bc 7215 58bd e2f8 843d 06c8 0c3d
00000040: 2346 97bd 960e 273d e569 1939 6ea4 243d
00000050: a5c8 9dbb b9ac ebbc 1369 06bd faf4 483c
00000060: 5b04 473c 98df c4bd 5821 2f3d 374f 513d
00000070: 3531 bdbc 6005 83bd 3974 abbc 67b5 e63c
00000080: 715a 763d c9b4 df3c f90c b3bd 266a fbbc
00000090: 2ff4 bdba ee70 8cbc bcdf 45bd ce3f babc
000000a0: 5ca3 eeba c0b5 63bd fba6 aaba daaa 0cbb
000000b0: 33a3 81bd 0579 9b3b 72fa 843b 1a97 99b9
000000c0: 8d9e 8abd cb3e 56bd af91 6a3c 5ff0 9536
000000d0: a253 a53c b5e7 0ebc 5c99 3cbd 7ca7 98bd
000000e0: aa33 3fbc 5b27 1cbc 846f 403d 4f8d 09bd
000000f0: 9f63 11bb f8a7 a8ba 61d0 8dbd 14a4 8dbc
-0.15793443 -0.050365992 -0.11024338 -0.004474687 -0.07073627 -0.017717138 -0.014462788 -0.097540945
0.010659346 0.013612043 -0.030482398 0.015344036 -0.010292623 -0.052754827 0.06492783 0.034370445
-0.073864244 0.040785395 0.00014630666 0.040195875 -0.0048151785 -0.028768884 -0.03281505 0.012265438
0.0121470345 -0.096129596 0.04275641 0.051100936 -0.023094753 -0.063975096 -0.020929443 0.028162671
0.060144845 0.027307885 -0.08742709 -0.030690264 -0.0014492328 -0.017143693 -0.048309073 -0.022735503
-0.0018206644 -0.055593252 -0.0013019735 -0.002146414 -0.06329956 0.0047446513 0.0040581757 -0.00029295014
-0.067685224 -0.052305978 0.01431696 4.468529e-06 0.02018148 -0.008722235 -0.046044692 -0.0745382
-0.0116700325 -0.009530867 0.04698135 -0.033582028 -0.0022184623 -0.0012867441 -0.06924511 -0.017290153

fc1.weight f4 [64, 256]
00000000: 1fab 30bd 475f b83c 7719 b7bc ec47 cfba
00000010: 0da3 90bd ff60 f03c db48 9a3d bb74 ef3a
00000020: c808 ebbc 50e9 e2bc 1c09 dbbc e4a3 30bd
00000030: 5e75 05bc b1eb 81bd f508 2b3d efd0 4cbc
00000040: b681 71bd febb f6bc 5d54 16bc 0b09 ccbb
00000050: d950 90bb eb89 043d ee76 a4bb c152 91bd
00000060: 5e3c 943b 59ce 1bbd e5e0 443d f025 36bd
00000070: 7fe4 b53c 2c38 653b 0d60 8fbd bc76 8ebc
00000080: 1f2a e4bc c9af c3bc a1dc 78bd bb5e 0e3d
00000090: dde7 45bc d843 9fbd 5aeb 8bbd ce98 003d
000000a0: 9c3a 7cbc d594 87bc c136 3f3d 00ac e4bc
000000b0: ccab 0dbd 8011 b7bc 7c1e b33c e3e0 08bd
000000c0: 7eea 92bd 1e50 cb3a 813f 01bd 304e 0cbd
000000d0: 98de d9bc d5d5 b53c 23b9 783d 74dd 08bd
000000e0: aac7 e6bc be9f ff3c 136e 2e3c 57ce f93b
000000f0: 2eda c43c 2a3d 86bd 4c1a cabc 4142 f23c
00000100: 621c 20bd cc4f d2bb ca0b 4a3d c3a5 93bd
00000110: 5329 60bc d5c2 503c 72cc 86bd 80a0 493c
00000120: 0fa6 30bc 3cbc 47bd 140a a8bc dc30 10bd
00000130: 1548 29bc 369d 383d 8f40 3abd e961 bd3c
00000140: 23a4 d83c 6fe7 5dbd 3796 853c 99ed 5ebd
00000150: 6257 8abc 664a 103d fcf0 783b 616a 4c3c
00000160: 7c5c 01bd 1c61 da3a 4611 d93c 75e5 42bd
00000170: 488e e63b e549 51bd 5fae 0a3b d897 453d
00000180: c34f 7c3c 76af 463d 2c21 36bd 1829 acb9
00000190: b357 aa3b 56b8 14bd f5f5 e63c 8687 aa3a
000001a0: 9d93 893c b85a 423d 307d 5abd 78a1 8dbd
000001b0: fa3a d13b 19c8 c8bc cd11 17bd de2f 8fbc
000001c0: 0132 5bbc 2029 0b3c 22bb b63c 5e8d 48ba
000001d0: 497f 72bd 3d53 8c3b 6e0a 09bc e30d 74bc
000001e0: 51e9 e8bc d002 1cbd 93cd 093c 97eb 1e3d
000001f0: b87d 30bd 9c3d 43bd 618d 1abc de26 d4bc
00000200: d6b8 5bbd 61c7 163d 3e04 0f3c e7c2 253c
00000210: c09b 77bd 60e9 88bd 0de3 5dbc eacb 133d
00000220: 4fd2 b43c 894e 6fbd f31f 11bb 2ea8 5ab9
00000230: a9ee 34bd 0556 0cbc 753e 673b 424b 99bc
00000240: b004 503d 23c2 2a3d c3be 223d 1005 e13c
00000250: d663 37bc fe69 95bc 4bb6 85bd 4fa9 9dbc
00000260: d520 96bd 95d3 103c bc18 9cbc 531c 7dbc
00000270: 2672 8cbc 7c43 81bd 7629 1d3d a24d 4cbd
00000280: 1928 143d f6b0 273d ae10 bebc 8858 8cbc
00000290: 725b 27bd e510 65bd 8a4c d8bc 5f54 67bd
000002a0: e00a fe3c 0173 503c 420b 7abd 878a 5dbc
000002b0: 0365 e9bc 0c7c 09bd cc8b 7dbd 4de2 483d
000002c0: 388e eebc 8b94 293c 9f20 62bc 16dd d53c
000002d0: 3d98 093c 0d55 3ebc b41c 0d3d d557 d2bc
000002e0: bb0f 59bd 09c3 7abd c0d4 febb d3ac 49bd
000002f0: bd18 89bd c1a2 5c3c 9ddb f5ba 43e6 cdb9
00000300: 6e3f dc3b e617 2dbd e1b3 5fbd f264 74bd
00000310: 4011 eabc 1a29 86bd 0541 53bd 133c cb3c
00000320: bb44 193c 3997 5cbd 1f8a 99bb 15aa 013d
00000330: 0c8f 1b3d f859 4cbd 5e4a f9bc cc2d 2f3c
00000340: 5487 a4bb ac20 623c 9c36 d43b 0a22 3e3d
00000350: da98 6e3c 72fa 92bd bd6a 90bc 7909 46bd
00000360: 24d5 ab3c 3913 363c 3b81 09bd b8f7 05bd
00000370: d5d3 c03c 525c 813c 9184 623d 9063 cebc
00000380: 2be0 2b3c 0e74 053c 048a d4bc 6da1 3cbd
00000390: ee3e 27bd 7e06 033c 7e62 85bd 2c7e c83c
000003a0: 056c a5bc b412 903c b069 8abd a756 04bd
000003b0: ee1f 09bd 3ab1 72bc 3f3a 323b b6bc 51bd
000003c0: 6240 033d e960 58bd 4af1 2a3a 7574 4abd
000003d0: 8d90 5abd 2318 9fbc 3d81 903c 7adf 493d
000003e0: e505 bbbc a44f e939 528b 45bd ba65 78bd
000003f0: b885 653d 37d5 2cbd e68b f03c 5b4b de3c
-0.043131944 0.02250637 -0.02235101 -0.0015814281 -0.070623495 0.029343126 0.07533427 0.0018269041
-0.02869071 -0.027699143 -0.026737742 -0.04312505 -0.008145658 -0.06343783 0.04175659 -0.0125009855
-0.058961593 -0.030118939 -0.009175387 -0.006226664 -0.004404169 0.03235809 -0.0050190603 -0.07095862
0.004523798 -0.038038585 0.04806604 -0.044469774 0.022203682 0.0034976108 -0.07000742 -0.017390601
-0.027852116 -0.023887532 -0.060757283 0.03475831 -0.012079206 -0.07776612 -0.06831999 0.031395726
-0.015394833 -0.01655046 0.046683077 -0.027914047 -0.034587666 -0.022347212 0.021865122 -0.033417594
-0.07173632 0.0015511548 -0.031554703 -0.034254253 -0.026595399 0.02219669 0.060723435 -0.03341432
-0.02817138 0.0312041 0.010646361 0.0076234746 0.024029817 -0.06554635 -0.024670742 0.029572608
-0.039089568 -0.006418204 0.04932765 -0.07209351 -0.013681727 0.012741764 -0.065819636 0.012306333
-0.010781779 -0.0487635 -0.020512618 -0.035202846 -0.010332127 0.045071803 -0.045471724 0.023117976
0.026445454 -0.05417579 0.01630698 -0.05442581 -0.01688737 0.035227202 0.0037985435 0.012476535
-0.03158234 0.0016661021 0.026497494 -0.04758211 0.007036004 -0.051095862 0.0021161062 0.048240513
0.015399876 0.048507176 -0.04446523 -0.00032837014 0.005198443 -0.03630861 0.028193453 0.001301036
0.01679402 0.047449797 -0.053342044 -0.06915563 0.0063852044 -0.024509476 -0.03688221 -0.01747888
-0.013378621 0.008493692 0.022306029 -0.000765046 -0.05920342 0.0042823837 -0.008364303 -0.014895889
-0.028431566 -0.03808862 0.008410829 0.038798895 -0.043088645 -0.047666177 -0.009433121 -0.02589744
-0.05364307 0.036811236 0.008729039 0.010117269 -0.06045127 -0.06685138 -0.013542903 0.03608314
0.02207294 -0.058424506 -0.0022144287 -0.00020852752 -0.044172917 -0.0085654305 0.003528503 -0.018712644
0.05078572 0.04168905 0.039732706 0.027468234 -0.011193236 -0.018239018 -0.0652891 -0.019245772
-0.07330481 0.008839508 -0.019054763 -0.015448648 -0.017144274 -0.063117 0.03836962 -0.049878724
0.036171053 0.040940247 -0.023201313 -0.017132059 -0.040858693 -0.055924315 -0.026403684 -0.056476947
0.031011045 0.012722732 -0.061045893 -0.013521797 -0.028490549 -0.033565566 -0.0619009 0.049043942
-0.02912055 0.010350357 -0.013801723 0.026106399 0.008398113 -0.011616957 0.0344512 -0.025676647
-0.052993517 -0.061221156 -0.0077768266 -0.049237084 -0.066941716 0.013466538 -0.0018757466 -0.00039272205
0.0067214286 -0.04225912 -0.054614905 -0.05966658 -0.028572679 -0.06550808 -0.05157568 0.024808919
0.0093547655 -0.053855155 -0.004685655 0.031656343 0.037978217 -0.04989049 -0.030430969 0.010692071
-0.005021015 0.013801735 0.0064762365 0.04641918 0.01456281 -0.07176675 -0.017629022 -0.048348878
0.020975657 0.0111129815 -0.03357051 -0.032706946 0.02353851 0.015791092 0.055302206 -0.02519396
0.0104904575 0.008145345 -0.025944717 -0.046052385 -0.0408315 0.007997153 -0.065129265 0.024474226
-0.02019311 0.017587043 -0.067584395 -0.0323092 -0.033477716 -0.014812762 0.0027195362 -0.05120536
0.032043822 -0.052826796 0.000652094 -0.04942747 -0.05336051 -0.019420689 0.01763975 0.04928539
-0.02282996 0.0004450056 -0.04822857 -0.06064389 0.056035727 -0.042195525 0.029363584 0.027135542

fc1.bias f4 [64]
00000000: d2bf 64bd ef2c 09be 31f7 2f3c 1592 90bb
00000010: c559 97bc 3a34 1dbe 79a5 92bb 41a9 87bd
00000020: 00b7 763c 2072 c0bd 7d16 353d 34c1 8f3d
00000030: 91d6 56bd 4239 37bd d4eb 943c 1723 a3bb
00000040: 7992 1c3d 7586 7a3c e329 e93c cfdf b4bc
00000050: 4845 88bd 80ab 81bd 6997 d63d 76ef 093d
00000060: 3ba6 59bd 4f81 4ebc 0d32 243b a358 563b
00000070: c7c9 3b3d 83d5 fabc 004e 6abd 9181 6dbc
00000080: bbc6 84bd c624 6a3d b0b8 41bd ad3e 8d3c
00000090: bbf6 94bd e7d9 a9bc af64 2b3d d386 bbbd
000000a0: 607f 553c cb7f a0bd 921c 9fba 5b80 dd3c
000000b0: da8a 7f3d 052a 52bd d6a3 debc c997 723d
000000c0: aba0 0e3d 08cb 6abd c53e ed3c 194e 88bd
000000d0: 9e61 7f3d 9077 4b3d 450c 863d 64d7 06bd
000000e0: b25e e13c 97f3 d33d ea1b 4abd d423 41bd
000000f0: 72de 043e 2e6c ce3b 2863 72bd af99 8bbb
-0.055846997 -0.13396047 0.010740087 -0.0044119456 -0.018475423 -0.15351954 -0.0044752923 -0.066240795
0.015058279 -0.093967676 0.0442109 0.070192724 -0.05245072 -0.04473234 0.018178858 -0.0049785483
0.038225625 0.015290846 0.028462356 -0.022079377 -0.06653839 -0.06331539 0.10478098 0.033675633
-0.053137045 -0.012604072 0.0025054247 0.003270664 0.045846727 -0.030619388 -0.057203293 -0.014496223
-0.06483217 0.057163976 -0.047295272 0.0172418 -0.072736226 -0.020733787 0.041844066 -0.09156575
0.013030857 -0.078368746 -0.0012139252 0.027038744 0.06238828 -0.051309604 -0.027177732 0.059226785
0.034821194 -0.057322532 0.028960595 -0.06655521 0.062348954 0.04967457 0.06545309 -0.032920256
0.027510975 0.103491955 -0.049343027 -0.04715331 0.12975481 0.006299517 -0.059176594 -0.004260264

batch_norm.weight f4 [64]
00000000: cc88 803f 4c2d c03f 1a55 7d3f b727 c33f
00000010: bd0b aa3f 5d64 da3f 52fd 7c3f 43e5 b43f
00000020: 6f76 7e3f 6237 e83f 49eb c63f c4d4 0240
00000030: e266 7e3f e783 c13f 2cd4 7c3f caef b03f
00000040: 0576 ce3f 0b1e bd3f 0d09 c33f 9c57 c63f
00000050: a055 9f3f 1dbf 7c3f 9004 bf3f 3d0d 7f3f
00000060: da9c 7e3f 36f5 7d3f 23a6 7d3f 679b 8c3f
00000070: 48af a63f cb42 983f 4dc4 dc3f 0cda bb3f
00000080: 1a2b 7e3f c72f c33f a2a9 ae3f 1740 cb3f
00000090: 70d0 b33f fec4 bf3f e95e ae3f ea35 b33f
000000a0: 89fd 813f 66c7 793f dcfd b43f c759 b43f
000000b0: 9988 cc3f 3aa2 7e3f 101c ad3f 07f2 a73f
000000c0: df77 7e3f ca5e a43f 66e1 7d3f 79d9 7d3f
000000d0: 3d96 c83f 0000 803f 3ee2 bd3f c4fd c03f
000000e0: 715d 7d3f 5ab7 b43f 6c76 7e3f fac4 df3f
000000f0: 1c68 f23f 815a 793f 08ee 7c3f 3b95 b63f
1.0041747 1.5013824 0.9895798 1.5246495 1.3284832 1.7061878 0.98824036 1.4132465
0.99399465 1.8141901 1.5540553 2.0442362 0.99375737 1.5118378 0.9876125 1.3823178
1.6129767 1.4774793 1.5237137 1.5495486 1.2448006 0.98729116 1.4923267 0.99629575
0.99458086 0.9920229 0.9908163 1.0984925 1.3022242 1.1895384 1.7247406 1.4675918
0.9928452 1.5248955 1.3645518 1.5878934 1.4047985 1.4981992 1.3622714 1.4000828
1.0155498 0.9756988 1.4139972 1.4089898 1.5979186 0.9946629 1.3524189 1.3120736
0.9940166 1.2841427 0.99172056 0.9915996 1.5670849 1.0 1.4834669 1.5077443
0.98970705 1.4118454 0.9939945 1.7481987 1.8938022 0.97403723 0.98800707 1.4264292

batch_norm.bias f4 [64]
00000000: 652e b13d bf4f b1bc 7688 113e 7110 2e3d
00000010: ac38 313d 8402 86bc af27 46be ab1f 83bd
00000020: 3867 28be 9ed1 823d f5a3 a23b c53d 673d
00000030: 9b54 333e f347 013d 8e88 e93d 1892 053c
00000040: 9fdf 61bc 04ff 083b 2277 d9bd 0302 d53c
00000050: 6001 bf3b 39b5 b53d 2c2a 1b3d 1df1 81bd
00000060: 2920 123d 9812 0dbe 31e8 253d 823d fc3d
00000070: d08a 06be 5c21 f0bc ff09 27bc fa4b 693d
00000080: 42ac e2bd 19cc e0bc 870b 79bc 7977 62bc
00000090: 9242 0a39 b174 bd3d 13f6 abbc afe1 5dbd
000000a0: 6426 35be 71ba fa3d cf13 4bbd 7a6e 1c3d
000000b0: 3753 fcbc ab20 ebbd b061 df3d 73d5 f3bc
000000c0: 7545 27be 10a0 773c 392f b3bd d200 233e
000000d0: 0736 04ba 774d 893d 0853 2ebb d786 d83c
000000e0: 005e fcbd 51cb c03d ec26 dd3d 9690 23bc
000000f0: ff44 863d d92f cc3d e111 453e c9ad 4b3c
0.08651427 -0.021644471 0.14212212 0.04249615 0.043266937 -0.016358621 -0.19351076 -0.064025246
-0.16445625 0.063876376 0.004963393 0.056455392 0.17512743 0.031562757 0.11402999 0.008152507
-0.013786226 0.0020903954 -0.10618426 0.026001936 0.0058290213 0.08872456 0.037882015 -0.06344817
0.0356752 -0.13776624 0.040504638 0.12316419 -0.1313889 -0.029312782 -0.010195254 0.056957223
-0.11068012 -0.027441071 -0.015200502 -0.01382243 0.00013185505 0.09250773 -0.02099136 -0.054170307
-0.17690426 0.12242592 -0.049579438 0.038191296 -0.030801399 -0.1148084 0.10907304 -0.029764866
-0.1633509 0.0151138455 -0.087492414 0.15918282 -0.0005043451 0.06704228 -0.0026599783 0.026431484
-0.123226166 0.094137795 0.107984394 -0.009983202 0.06556129 0.09970064 0.19245102 0.01243157

batch_norm.running_mean f4 [64]
00000000: 1f00 0000 0400 0000 0400 0000 0400 0000
00000010: 6cc3 3640 4511 413b 0400 0000 0400 0000
00000020: 0400 0000 a728 ac40 0400 0000 a3e0 7d41
00000030: 0400 0000 0400 0000 0400 0000 0400 0000
00000040: 0400 0000 0400 0000 0400 0000 ae49 af29
00000050: 0400 0000 0400 0000 0400 0000 0400 0000
00000060: 0400 0000 0400 0000 0400 0000 0400 0000
00000070: 0400 0000 0400 0000 0400 0000 0400 0000
00000080: 0400 0000 0400 0000 0400 0000 0400 0000
00000090: 0400 0000 0400 0000 0400 0000 0400 0000
000000a0: 0400 0000 0400 0000 0400 0000 0400 0000
000000b0: 0400 0000 0400 0000 0400 0000 0400 0000
000000c0: 0400 0000 0400 0000 0400 0000 0400 0000
000000d0: 0400 0000 0000 0000 0400 0000 bdbf 8216
000000e0: 0400 0000 0400 0000 0400 0000 0400 0000
000000f0: 9449 6f41 0400 0000 0400 0000 1444 1619
4.3e-44 6e-45 6e-45 6e-45 2.8556776 0.0029459756 6e-45 6e-45
6e-45 5.3799624 6e-45 15.867343 6e-45 6e-45 6e-45 6e-45
6e-45 6e-45 6e-45 7.7843426e-14 6e-45 6e-45 6e-45 6e-45
6e-45 6e-45 6e-45 6e-45 6e-45 6e-45 6e-45 6e-45
6e-45 6e-45 6e-45 6e-45 6e-45 6e-45 6e-45 6e-45
6e-45 6e-45 6e-45 6e-45 6e-45 6e-45 6e-45 6e-45
6e-45 6e-45 6e-45 6e-45 6e-45 0.0 6e-45 2.1123637e-25
6e-45 6e-45 6e-45 6e-45 14.955463 6e-45 6e-45 7.7685665e-24

batch_norm.running_var f4 [64]
00000000: 0400 0000 0400 0000 0400 0000 0400 0000
00000010: c3f3 5540 2f70 f43b 0400 0000 0400 0000
00000020: 0400 0000 921f 9e41 0400 0000 fea4 f241
00000030: 0400 0000 0400 0000 0400 0000 0400 0000
00000040: 0400 0000 0400 0000 0400 0000 ea71 8c26
00000050: 0400 0000 0400 0000 0400 0000 0400 0000
00000060: 0400 0000 0400 0000 0400 0000 0400 0000
00000070: 0400 0000 0400 0000 0400 0000 0400 0000
00000080: 0400 0000 0400 0000 0400 0000 0400 0000
00000090: 0400 0000 0400 0000 0400 0000 0400 0000
000000a0: 0400 0000 0400 0000 0400 0000 0400 0000
000000b0: 0400 0000 0400 0000 0400 0000 0400 0000
000000c0: 0400 0000 0400 0000 0400 0000 0400 0000
000000d0: 0400 0000 0400 0000 0400 0000 fd98 b513
000000e0: 0400 0000 0400 0000 0400 0000 0400 0000
000000f0: 7077 0042 0400 0000 0400 0000 f25e 9d18
6e-45 6e-45 6e-45 6e-45 3.343003 0.0074596624 6e-45 6e-45
6e-45 19.765415 6e-45 30.330563 6e-45 6e-45 6e-45 6e-45
6e-45 6e-45 6e-45 9.745328e-16 6e-45 6e-45 6e-45 6e-45
6e-45 6e-45 6e-45 6e-45 6e-45 6e-45 6e-45 6e-45
6e-45 6e-45 6e-45 6e-45 6e-45 6e-45 6e-45 6e-45
6e-45 6e-45 6e-45 6e-45 6e-45 6e-45 6e-45 6e-45
6e-45 6e-45 6e-45 6e-45 6e-45 6e-45 6e-45 4.584168e-27
6e-45 6e-45 6e-45 6e-45 32.11664 6e-45 6e-45 4.067942e-24

fc2.weight f4 [2, 64]
00000000: 8299 d23c 5668 98bd 2e77 61bc 1f13 99be
00000010: b553 8c3e 217a 8d3e 07b7 133e 9fbf e33d
00000020: 46a6 233d 02a5 ee3e d61f b1bd 6d87 9a3e
00000030: 4e7a 37bd 7c06 27be ad47 67bc 575c 7ebd
00000040: 71ba b1bd 4ee7 dabd ab26 113e 5ec7 87be
00000050: bf0e 0f3e 69c1 1d3c 943d 49bd 88d0 15bc
00000060: 4206 933b a6c9 d13c a44f e7bd a1a3 04be
00000070: 4cda 5a3d f4c4 e9bc 41eb 893e 9f27 4ebe
00000080: ecec 27bd 6cf5 623d 8ee3 a8bd 932f 48bc
00000090: c4ac 3abd 0477 30be 430b 903d 0936 f23d
000000a0: a7e2 133e e27b e2bd 2678 57bd 18ee fdbd
000000b0: fbfa 3c3e e5ad 003d 8838 79bd d48d 213d
000000c0: 6c8e 9cbc b8f4 253d ddc6 e43c 63fe 37bd
000000d0: edf1 363e f885 39bd 3072 e53c 9147 26bc
000000e0: 8855 3cbc 5eba 2bbe e636 3ebd a652 263e
000000f0: de0f 033f 2563 c7bd 093e 1dbe a1f4 c93e
00000100: 7b15 f2bb df80 d83d 5a67 653d b7a9 1e3e
00000110: 970c 1ebe b4ac 33be 7152 ab3b 3dc8 e9bd
00000120: dd8d 74bd 0119 ecbe ea9e c5bd 3fcd f0be
00000130: b19f bd3d 19ec 413c 99b6 863d a7e4 b93d
00000140: c3a7 f23d 7b01 15bd b77c 163d 42d9 993e
00000150: a516 43be b8fd 323c 953a 3f3e 23bb c0bc
00000160: daf0 a0bc 9f71 a3bd 6a83 ea3b 8b2c 3b3e
00000170: 43c9 4e3d a151 e33d 035e 5bbe e898 573d
00000180: 4c05 68bd f441 153e 4056 ca3d c750 493e
00000190: f563 8a3d f6bd a73d 9733 86bd fded 13be
000001a0: 2a2b ac3a ea08 e8bc 44d3 be3d 172b 0c3e
000001b0: 3da2 94be a510 5e3b 2130 5f3d 73e5 8bbd
000001c0: 52ba 03be 96ea 843d 79c9 30bd 5704 783d
000001d0: 7c59 9abc 2853 4b3c 2644 b33c 97c3 c9bd
000001e0: 56c3 cdbd eafd b73d 4427 8c3c 6387 88be
000001f0: b510 c1be 276f 63bd a8ef a0bd 26c1 9abe
0.025707964 -0.074417755 -0.013761325 -0.298974 0.27407613 0.2763224 0.14425288 0.11120533
0.039953493 0.46610266 -0.0864865 0.30181447 -0.044794373 -0.16311067 -0.01411621 -0.06209978
-0.08678139 -0.10688649 0.14174907 -0.26519293 0.13970469 0.009628632 -0.04913099 -0.009143956
0.00448683 0.025608849 -0.11294487 -0.12953044 0.05343084 -0.028536297 0.26937297 -0.20132302
-0.04099743 0.055409834 -0.082465276 -0.012218374 -0.04557492 -0.17232901 0.07033398 0.11826713
0.1444193 -0.11058785 -0.052604817 -0.123989284 0.18455116 0.03141584 -0.060844928 0.0394419
-0.01911088 0.040516585 0.027926857 -0.044920336 0.17865725 -0.04529378 0.02800855 -0.010148899
-0.011495002 -0.16770312 -0.046439074 0.16242465 0.51196086 -0.09735707 -0.15355696 0.3944445
-0.0073878146 0.10571455 0.056006767 0.15494429 -0.1543449 -0.1754635 0.0052283336 -0.114151455
-0.059705604 -0.46112826 -0.09649451 -0.4703159 0.09258974 0.011836075 0.065777965 0.09076815
0.11848404 -0.036378365 0.03674003 0.30048567 -0.19051607 0.010924749 0.18674691 -0.023526734
-0.019646097 -0.07980656 0.007156779 0.1827871 0.050484907 0.11099554 -0.21422581 0.052636057
-0.056645676 0.1457594 0.09879732 0.1965972 0.067573465 0.08190529 -0.06552809 -0.14446254
0.0013135422 -0.028324563 0.093176395 0.13688312 -0.29030028 0.0033884433 0.05448926 -0.06830873
-0.12864044 0.06490056 -0.04316089 0.060551014 -0.018841498 0.012409963 0.021883082 -0.09851759
-0.10047023 0.08983977 0.017108567 -0.26665792 -0.3770806 -0.055525925 -0.07858211 -0.30225486

fc2.bias f4 [2]
00000000: 16c9 793c cecd a73d
0.0152456965 0.08193551
