models/BTS/classifier_fold1.pth (torch, 991712 bytes, 16 tensors)

conv_layers.0.weight f4 [64, 256, 2]
00000000: 62a0 01bd 7b2f fd3d 0a77 113d 8b15 633d
00000010: a8d6 cebb 24c9 d7bd e1c6 9cbd 671f cf3d
00000020: 1d01 bfbc a31d c2bd 861e ffbd fadc c1bd
00000030: e256 b0bd c39b 413c 6769 b8bc a767 d13c
00000040: 60eb 1a3e 49bf f73c 51ab 37bd ab14 24bd
00000050: f21c c23c f145 b3bd 901a c0bd ca74 7bbd
00000060: e6b9 f13c f3b5 1fbd 4ce2 e23b b9ac 2f3c
00000070: 3407 803d e5d1 e4bc 83b3 e2bc 1fb5 98bb
00000080: 948d c03d a59b 013e 8738 2fbd b85e fabc
00000090: 16c0 debb 2358 e13b fb84 9fbd b077 85bd
000000a0: c242 413d 04d5 f4bc 1de7 0bbd 213c 25bd
000000b0: 69be 013e 49d3 98bc b429 713d 34fd e33c
000000c0: 49ef b73d df6c 9d3d 263b f53d 1540 dd3d
000000d0: b05c 9e3d bc4e 4cbc 36d3 c2bc 97fb cbbc
000000e0: fdac 433d a90c b7bd 5517 03be 5070 64bc
000000f0: 05bb 763d 9f6f 2f3d 29d4 483d a983 a3bd
00000100: 0d45 bd3d 83ef 033e a1b5 263d 0d9c 573d
00000110: 4c63 38bd 4d7b 2e3d 4819 5d3c 57b1 c73d
00000120: b26e 71b9 6a6f 90bd aa71 dfbc 60d5 d7bd
00000130: 5d44 6fbc 45b3 b43b 1315 ba3c 6b03 f73c
00000140: 3bab f1bd 67a0 963d 66ff 3b3b b75c f6bc
00000150: cccc 823c 6518 833d afef dabd 520e f3bd
00000160: 8dcf d2bc 1d96 293b 4cdf 0f3d 54ba 2abd
00000170: c363 87bd 90cc d9bc 54c3 abba 18f7 1cbd
00000180: c146 943d d619 6c3d e85a 01be 01a4 753c
00000190: f6a3 7f3d ffb9 79bd 7ced 9abc 6696 55bd
000001a0: f844 9ebb d2bc ac3c 18c9 183c 0bcc 6fbd
000001b0: 6e13 193c 3f8f a2bd 4a17 53bd f60f 463c
000001c0: 6640 df3d abe5 fdbc 0407 133d 11b8 b63c
000001d0: 9877 56bd 1899 7e3c 5a29 373c a5ac d339
000001e0: b276 a33d 3749 043d 051d 39bd c7fe ecbd
000001f0: 30ad 51bd 899f 9c3c a739 7e3d fd57 3b3d
00000200: 942a 61bc 2215 92bd ca0a 2a3d 546b 703d
00000210: 95a6 d23d baf1 98bd c4b9 993d f042 4abd
00000220: 1faf 933a 83db 2cbd a36a 25bd 575d 9f3d
00000230: 2fb0 b13d be19 e7bd 98d1 653d eaff da3c
00000240: a89b 89bd 7f50 8dbc e5b0 fb3c 0e82 953c
00000250: f7ff 06bd 29ea e73b edf5 a5bd 241d 603d
00000260: 7bb3 14bd 2fbb 1e3c ece3 753c d840 913d
00000270: a083 e13b 29a6 e5bc 9cdd 2abd 2805 f63b
00000280: e5b2 cc3c fe38 aa3b da06 52bd 2500 3ebd
00000290: 66b3 0abd 5721 313d 64f0 c6ba ef29 16bb
000002a0: d223 c0bd 848b 813d f456 1f3d 311d 543d
000002b0: 0c57 e0bd 843a 6b3d b63f 4e3d 1b65 64bd
000002c0: 554b 0a3d 39b7 86bd 1bb5 0a3e 9dc4 44b9
000002d0: ab4b cb3d 4e7f 913d 90f6 c83b d903 a9bc
000002e0: 38b6 0dbd 3f95 90bc 8be1 c83d 5501 383d
000002f0: 900a c93d 1f4e 6a3c 7a09 d5bd dffa 08be
00000300: a838 a7bd 6f8a d53c dd74 01bd 8409 923d
00000310: 3c61 53bd 4dd8 0abc 3724 823c 5175 0c3d
00000320: 1356 753d 2ed7 4ebd 4899 6b3d 0fbd 5bbd
00000330: 80f0 0dbc 87f3 753c 5c04 883c 4364 ba3d
00000340: 3374 c53c f9ec 97bd ad19 a5bc 480d 3a3d
00000350: d6a7 bfbd d056 ba3c 2303 a03d 51b9 0dbd
00000360: 6a92 38bd 8a2d 9d3c c67f 083e 438f ba3c
00000370: 3b16 88bd 2d7f 9c3c f3c9 53bb cd4a 003d
00000380: d695 05be 058d 39bd 8c4e 9b3d e889 1d3c
00000390: 1372 873d 188c 96bd 5b0a 503d c341 093d
000003a0: a239 e03d 7675 793c 58f2 863d fdd0 9dbd
000003b0: b2f1 113d 24e4 2c3d 263b d43c 56fa 5dbd
000003c0: 2308 09bd 0f26 0f3d 3f52 403d c172 c23c
000003d0: 8ee2 943c 9ce4 cc3d f437 123e bb49 97bc
000003e0: 267e c73c 8fd8 0abc a28d 8ebd abf7 89bd
000003f0: 6419 6cbc 305c ffbc ced8 ff3b 7755 2d3d
-0.031647094 0.12362572 0.035513915 0.055440467 -0.00631221 -0.105364114 -0.07655121 0.101134114
-0.02331596 -0.09478309 -0.12456994 -0.09465976 -0.086103216 0.011816922 -0.022511197 0.02556212
0.15128851 0.030242579 -0.044841114 -0.040058773 0.023695443 -0.08753575 -0.093800664 -0.061390676
0.029507589 -0.03899188 0.0069239493 0.010722333 0.06251374 -0.027932117 -0.027673488 -0.004660263
0.09402004 0.1265703 -0.042778518 -0.030562744 -0.006797801 0.006876962 -0.07789036 -0.06516969
0.047182806 -0.02988673 -0.034155954 -0.040340547 0.12670292 -0.018655436 0.05887766 0.027830698
0.08981187 0.07686781 0.11974172 0.10803238 0.077325225 -0.012469944 -0.023782354 -0.02490024
0.047772396 -0.089379616 -0.12801869 -0.013942793 0.06023695 0.04283106 0.049030457 -0.079840966
0.09241686 0.12884335 0.04070056 0.052639056 -0.045016572 0.042598058 0.013494797 0.09750622
-0.00023024788 -0.070525005 -0.027275879 -0.10538745 -0.014603701 0.0055145347 0.022715127 0.030152997
-0.11800238 0.07354813 0.0028686165 -0.030073507 0.015966795 0.06401137 -0.10690247 -0.11867966
-0.025733734 0.0025876828 0.035125062 -0.041681603 -0.06610825 -0.0265868 -0.0013104477 -0.038321584
0.07240058 0.057641827 -0.12632334 0.014992715 0.062412225 -0.060968395 -0.01891207 -0.052145384
-0.004829999 0.02108613 0.009325288 -0.0585442 0.009343011 -0.07937478 -0.051535882 0.012088766
0.10900955 -0.030993303 0.035895362 0.022304567 -0.052360147 0.01553943 0.011179293 0.00040373686
0.07981624 0.032296386 -0.04519369 -0.115720324 -0.051190555 0.019119041 0.0620667 0.04573821
-0.013743062 -0.07132937 0.041514196 0.058696106 0.10285679 -0.07467981 0.07506135 -0.049380243
0.00112674 -0.04220153 -0.0403849 0.07781475 0.086761825 -0.11284207 0.056108087 0.026733357
-0.06719142 -0.017250298 0.030723998 0.018250491 -0.03295895 0.0070774746 -0.08103547 0.05471529
-0.03630398 0.009688183 0.015007954 0.07092446 0.006882146 -0.028033333 -0.04171525 0.007507939
0.024987647 0.0051947823 -0.051276065 -0.046386857 -0.033862494 0.043244686 -0.0015177843 -0.0022913178
-0.09381832 0.063254386 0.038901284 0.05178565 -0.10954103 0.05742885 0.05035373 -0.055760484
0.03376325 -0.06577916 0.13545649 -0.00018765261 0.09926542 0.071043596 0.006132908 -0.020631718
-0.034597605 -0.017649291 0.09808644 0.044923145 0.09816468 0.014300852 -0.10402198 -0.1337695
-0.08165103 0.026066987 -0.03160559 0.07130721 -0.0516064 -0.008474422 0.01588641 0.03429157
0.05989654 -0.05049818 0.057519227 -0.053647097 -0.008663297 0.015011675 0.016603641 0.09101155
0.02410326 -0.07418246 -0.020153845 0.045422822 -0.09358184 0.022746474 0.07813098 -0.03460056
-0.045061506 0.019186754 0.13329992 0.02277339 -0.06644865 0.01910361 -0.0032316416 0.031321336
-0.13045439 -0.045300502 0.07583341 0.009615399 0.06613555 -0.073509395 0.050791126 0.03350998
0.109484926 0.015225759 0.06589192 -0.07705877 0.03563089 0.04220976 0.02590711 -0.054193817
-0.033455025 0.034948405 0.046953436 0.02373636 0.018174436 0.10004541 0.14279157 -0.018467775
0.024352144 -0.008474483 -0.06960608 -0.06736692 -0.0144103505 -0.031171888 0.0078078276 0.042317834

conv_layers.0.bias f4 [64]
00000000: 72e9 cabd 1d7b e93c b73d b2bd bc99 d73a
00000010: b783 b93d 9d07 8e3d 8c38 02be 61cc 803c
00000020: e46f 1abd 68fb a5bd 431e 28bc 41ac 613d
00000030: ab2c fbbd 8b32 023d e98e 6f3d a784 393c
00000040: 666e 50bd 5885 febc a0eb 093b 3454 133d
00000050: 7408 3bbd 7940 843d 4487 e93c 6930 633d
00000060: 3ae8 f93b 3f58 07be e22f 333c e56a 7dbd
00000070: c0ca 3cbe ceb2 5cbd 0da3 c0bc 68a1 a93d
00000080: cc90 15be 8d5a b23d ff79 21bc fc91 203d
00000090: 8455 e63d c3cf 98bd 1aea 9cbd 877c 63bc
000000a0: e4ac f93c 0838 e7bd e6d2 a03d d1d4 c0bd
000000b0: 3180 88bc b7ef fdbb 990a e53c bbaa 743d
000000c0: 2e81 03bd 87a9 ac3b 768d 85bc d600 40bd
000000d0: 703c 78bd 4a45 b3bc 3679 c8bb 7742 a4bd
000000e0: 8aba 66bd 7cc9 93bd 4cb7 883d b0ff d3bd
000000f0: efff c83d f82d 16bd 2f08 4abd 10f4 95bd
-0.099078074 0.028501088 -0.087031774 0.0016449015 0.09058326 0.06935046 -0.12716883 0.015722455
-0.037704363 -0.081045926 -0.010261121 0.055095915 -0.12264379 0.031786483 0.0584859 0.011323131
-0.050886534 -0.031069443 0.0021044984 0.035968974 -0.04566236 0.0645761 0.028506882 0.05546609
0.0076265605 -0.13217257 0.010936709 -0.06186952 -0.18436718 -0.05388146 -0.023515249 0.08282739
-0.14606017 0.087086774 -0.009855746 0.03920172 0.112467796 -0.074615024 -0.07661839 -0.01388467
0.030477948 -0.11289984 0.07852726 -0.094155915 -0.016662689 -0.0077495235 0.027959155 0.059733134
-0.032105617 0.0052692327 -0.016302805 -0.046875797 -0.060604513 -0.021883626 -0.006117965 -0.0802049
-0.05633024 -0.072161645 0.06675586 -0.10351503 0.098144405 -0.036664933 -0.04932421 -0.07321942

conv_layers.1.weight f4 [64, 256, 3]
00000000: b106 9ebd 0c86 283d ac82 533d 5d38 c93c
00000010: 8556 d13c 248f b63d 513e 52bb 1af4 db3c
00000020: 5352 ab3d 6bd7 363b 0dc8 d03a aeb1 cebc
00000030: 78e4 a73c 5b35 bbbd 7eaa a53d debb 913d
00000040: 5e3d 87bc 84d4 6f3c 90eb 973c 05f0 bc3b
00000050: 8d12 193d 19fc d83c 17d2 193c 6906 8a3d
00000060: a182 f93c 8c53 52bd 587b 97bd 86e4 be3d
00000070: 37c5 84bc 360b 1b3c 1b9d b3bd 136c 09be
00000080: 7b89 25be 4b75 9e3d 4755 3b3c 40e4 cb3d
00000090: ee85 73bd 8a78 263d c937 293d d791 613d
000000a0: d977 9fbc 0ab5 c0bd e832 813d 1fd4 4a3d
000000b0: 1d3a 81bd d6e8 353d f702 d93c acf7 f83b
000000c0: dbbf a1bc e7b1 87bd 0c16 dd3c 9c97 193d
000000d0: ae91 91bc 9416 583d 9541 3e3d 01fa c5bc
000000e0: 9fe7 873b 8f6c f1bc 200c 94bb c819 933c
000000f0: 04dd 093d 80cb 173e cd73 0b3e f831 ec3d
00000100: be89 e6bc 9f37 9cbc 0bd3 123d 1915 88bd
00000110: 1fbb ca3c 9bdb a5bd 1441 b33d cd10 50bd
00000120: 4ecc 03bd 90a0 243d 5533 40bd 9437 903d
00000130: 68bc de3c 7a79 54bd 9632 bdbd e0e1 c6bc
00000140: 7ce6 40bc eb64 613c 9638 1b3d ee40 50bd
00000150: e106 64bb ded4 32bd 4f88 9ebd a525 aebd
00000160: 3de7 9bbc 12e1 b2bd f93d 63bc b4f0 d23c
00000170: a589 233d 2ad1 8fbd 9493 a73c b990 0b3d
00000180: 9876 90be d844 66bb d3ab d4bd a081 6c3d
00000190: d210 043d 060d 9bbc aa37 38bd aaab 0e3d
000001a0: 2bfd 393d 850b ffbc 2e88 143e 2c76 053d
000001b0: 9b02 adbd 726d a7bd 119b 85bd d723 e73c
000001c0: 28f5 923c be2a 28bd 67ce 31bd feb2 c23d
000001d0: 1cbe 053e 4e87 35bd 12f0 91bc 7d63 1dbb
000001e0: 26fa 1c3e 9abf 88bd 5a9f 093c ea38 233d
000001f0: f003 233d eed5 0ebc 6961 133e 7efc ab3c
00000200: e9f1 23bd 7a36 913c aa78 23bd 6d47 59ba
00000210: f59e bebd ebaa dc3c f7e4 43bd 5c57 adbb
00000220: 6f78 5a3c d058 8fbd 9c6f e43d 81df abbc
00000230: 38e2 453d 4200 2bbc f37f a53d f02d c6bc
00000240: 413a 233d 84a1 8b3d 49dd d0bd c0e8 a13d
00000250: 1d69 623d 4359 b1bc e76e 80bd 8a43 083e
00000260: cdd0 49bd 2b1b 8bbd a67f 56bd 5be9 a0bd
00000270: 3b24 923a 8ae1 c3bd bcb9 cb3a 3f6f dbbc
00000280: c56d 25bd 3b50 0abe eaab 7ebc 98b8 773d
00000290: 1db9 653d 5616 a1bd 6ca6 83bc fa63 1dbc
000002a0: 7103 d63c 2c22 1cbc 157f d23d 007e dbbd
000002b0: 3f80 2d3c b37a 8b3d 5d70 f33d 2dab adbb
000002c0: bc34 0939 a0bd 8c3d 6e34 6abd d3fa 46bd
000002d0: 47bb 833c 8439 d2bd 9eac 5cbc 2001 3b3d
000002e0: 83d9 47be 2e40 45bd 17ff 95bd 82a9 963d
000002f0: 2e43 2fbd 5457 093c 9390 28bd d7f0 f93c
00000300: 3c3d 163c aabb a63a ffa5 56bd 2792 e43d
00000310: d2a7 cc39 9be2 f2bc 215d e138 ef18 42bd
00000320: 54ad b2b8 b2de 83bd 2659 bd3c c38a d4bd
00000330: 82b7 08bd 351f c73d f3ab 0e3e 7fd0 35bc
00000340: 139a 48bd 401e c5bd 1e21 5f3b 9cb3 fdbd
00000350: 1105 d8bd 7b0f d13d 8610 d63c da1d 933c
00000360: 4438 5d3d 1381 16be 29a8 fdbb 8afd 8e3d
00000370: 0976 ca3c 2857 00bd 6616 d0bc 34ec a5bd
00000380: 7f19 26bb acd4 24bd 93a2 a5bd 8898 16bd
00000390: 1337 8fbd fc5f ba3d 9c59 893c 1cd4 563d
000003a0: f5cf 363d 8992 babc 3b9b 2dbd 47db df3c
000003b0: 2cf9 8abd 0096 013d 6cf4 653d e708 77bd
000003c0: 45e1 52bd 9237 5fbc aa7f 5bbc a0ae 3dbb
000003d0: dd0a 9dbd 7cd6 903d f85c 243a 8657 0e3d
000003e0: 12b0 133d ca30 16bd e0da a83d 1aa0 583d
000003f0: b70c ad3d 4bda a7bd 18a0 503d 724e 8d3d
-0.0771612 0.041143462 0.05163829 0.024563009 0.025553951 0.08914021 -0.00320806 0.026849795
0.083653115 0.0027899395 0.001592876 -0.025231209 0.020494685 -0.09141036 0.080891594 0.07115911
-0.016508754 0.01463807 0.018544942 0.0057659172 0.037371207 0.026487397 0.009388468 0.06739504
0.030457797 -0.051349208 -0.07396573 0.09320931 -0.01620732 0.009463122 -0.087702 -0.13420133
-0.16165726 0.077372156 0.011433906 0.099556446 -0.059453897 0.0406423 0.041312966 0.055070724
-0.019466328 -0.094095305 0.06308538 0.0495187 -0.06309912 0.044411503 0.026490672 0.007597884
-0.019744804 -0.06625729 0.026988052 0.0374981 -0.01776966 0.052755907 0.046449263 -0.024167063
0.0041474844 -0.02947071 -0.004518047 0.01795663 0.033658043 0.14823723 0.13618393 0.11532968
-0.028141852 -0.019069491 0.035845798 -0.06644649 0.02474743 -0.08098527 0.08752647 -0.050797272
-0.032177262 0.040192187 -0.046923954 0.07041851 0.027189448 -0.05187366 -0.09238164 -0.024277627
-0.011773702 0.013756971 0.03789576 -0.05084317 -0.003479414 -0.043660037 -0.077408426 -0.08503274
-0.019031161 -0.08734335 -0.013869756 0.025749542 0.03992619 -0.07022317 0.020456113 0.034073565
-0.2821548 -0.003513625 -0.10384335 0.057740808 0.032242604 -0.018927108 -0.04497496 0.03483168
0.045407455 -0.031133423 0.14505073 0.0325834 -0.084477626 -0.08175172 -0.06523717 0.028215332
0.017939165 -0.041056387 -0.04340973 0.09506796 0.13060802 -0.04431849 -0.01781467 -0.0024015598
0.15329799 -0.0667717 0.008399809 0.0398492 0.039798677 -0.008717997 0.14392628 0.020994421
-0.040025625 0.017726172 -0.039909996 -0.00082885363 -0.093076624 0.026936969 -0.04782578 -0.005289955
0.013334378 -0.069993615 0.111541 -0.020980598 0.048311442 -0.010437073 0.08081045 -0.024191827
0.039850477 0.06817916 -0.10198457 0.07905722 0.055276025 -0.021649009 -0.06271153 0.13307014
-0.049271394 -0.06792291 -0.05236783 -0.07857009 0.0011149714 -0.095645025 0.0015543024 -0.026786445
-0.040387888 -0.13507168 -0.015543917 0.060478777 0.05608474 -0.07865588 -0.016070567 -0.009606356
0.026124688 -0.009529632 0.10278145 -0.10717392 0.010589658 0.068105124 0.11886666 -0.0052999468
0.00013084983 0.068721056 -0.057178907 -0.04857905 0.016080512 -0.102648765 -0.0134688895 0.04565537
-0.19516568 -0.04815691 -0.07324045 0.0735655 -0.042788677 0.008382637 -0.0411535 0.03051035
0.009169873 0.0012720723 -0.0524044 0.11160689 0.00039034948 -0.02964907 0.00010746183 -0.04738706
-8.519986e-05 -0.0643896 0.023113798 -0.10378029 -0.03337813 0.09722749 0.13932781 -0.011097073
-0.04897506 -0.0962491 0.003404684 -0.123877734 -0.10547841 0.10208031 0.026130926 0.01795857
0.054008737 -0.14697675 -0.0077409935 0.069819525 0.024714487 -0.03133312 -0.025401305 -0.08101693
-0.0025344787 -0.040241882 -0.08087649 -0.03676656 -0.069929264 0.09100339 0.016766362 0.052448377
0.044631917 -0.022774952 -0.042384367 0.02732624 -0.06785807 0.03163719 0.056141302 -0.060311224
-0.051484365 -0.013624089 -0.013397137 -0.0028943196 -0.07668088 0.0707216 0.0006269957 0.034751438
0.036056586 -0.036667623 0.08244872 0.05288706 0.08449691 -0.08195933 0.050933927 0.06899728

conv_layers.1.bias f4 [64]
00000000: 1e33 b2bd 89fb 053d da8c 01bd 340f 57bd
00000010: e4a0 04bd 5f88 14bd b4cc 973c 3c33 023e
00000020: d5c6 92bc ffb5 d33a 58ec a53c 2344 0a3d
00000030: 1b6f a4bd 091b b5bc e128 c0bd 06f8 b6bc
00000040: ba52 bebc 654d afbd 60be dfbc c648 d3bc
00000050: 61ac b0bb ed4d 27ba 28af 2b3d 215e a6bd
00000060: 17bb 053e fb8a a5bc 1ef5 e13a 0182 efbc
00000070: 6d5f 6a3d 252a 45bd 847f 81bd f164 9e3d
00000080: 2fdd 3f3d a378 5dbd a75e bfbd a6ec 863d
00000090: 63ba fbbd 595d f43d 6442 a23a 679a 3d3d
000000a0: 3679 31bd 8746 453c 87d0 883d a8e2 d0bb
000000b0: 8f41 df3d b295 63bd a47f b1bd 61ee 66bc
000000c0: 3f8d 313c fffc a93d 05e0 5e3d b8f1 e63c
000000d0: 7e09 1ebd 9a60 633d 4d52 993c 6242 873d
000000e0: ab4b 303d 0e72 f0bc 3ffc d6bd d2a8 e6bd
000000f0: 744b 6fba bbcd 043d 8cae 16bd 46f5 a8bd
-0.08701156 0.032710586 -0.031628467 -0.052504733 -0.03238 -0.036262866 0.018530227 0.12714857
-0.017917076 0.0016152262 0.020254299 0.033756386 -0.08029004 -0.022107618 -0.09382797 -0.022335064
-0.023232806 -0.08559684 -0.027312458 -0.025791537 -0.005391643 -0.0006382156 0.04191509 -0.081234224
0.1305965 -0.020207873 0.0017239188 -0.029236795 0.05721991 -0.048135895 -0.0632315 0.07734097
0.046841796 -0.054070126 -0.093442254 0.06588106 -0.1229141 0.11931867 0.0012379405 0.046289828
-0.043328486 0.012040741 0.066803984 -0.006374676 0.10901176 -0.055562682 -0.08666924 -0.01409492
0.010836898 0.08300208 0.05441286 0.028191432 -0.03858327 0.05551205 0.018716002 0.066044584
0.043040913 -0.02935126 -0.10497331 -0.11262669 -0.000912837 0.032422762 -0.036787555 -0.08249907

conv_layers.2.weight f4 [64, 256, 4]
00000000: 64aa e73c e659 dcbd eefd 053d d504 07bd
00000010: 1a14 a0bd b5c4 263e 2e09 873d d8f6 04bd
00000020: bbc7 e5bb da8e 96bc 1bf2 21bd 9e8a 8cbc
00000030: 46cb 493d f9c3 9dbd f1b7 bbbc c9e4 d5bc
00000040: eac7 51bd d4a1 5dbd 5e0e 5dbd 83b5 abbc
00000050: 13ff 44bd c140 d13c 2025 913b 2697 d8bd
00000060: 051b c73d 359a 77bd edad 363d 71a3 633d
00000070: 593e 4a3d fd42 3e3d 02de 8f3d 445d 693c
00000080: 513f 593d 4890 a0bd 0e1e c1bd d643 6dbc
00000090: eead d9ba 95ff 713b d610 9cbd e98d 293d
000000a0: f2a6 d83d 51cf 03bd 67e6 5f3d 57ce c0bb
000000b0: 850b 01bd b962 bcbc 70fe 553d 8d41 bc3b
000000c0: a8d9 10bd 4518 d03d b070 96bd 5fa4 a13d
000000d0: 6cf9 63bd e4fd 883c 2a04 953d b9ea 093c
000000e0: 4e45 72bd b50b 853c 694f afbc b727 46bd
000000f0: 9fe0 503d 467c 753d c292 303d e99b 9b3c
00000100: cf82 aebd 2637 a53d 8b80 aa3d 046a 4a3d
00000110: b0f8 99bc b9bf cbbd 8d39 adbd 6428 c83c
00000120: 72f5 bc3c e5e1 663c c9f7 0c3c 2a04 923d
00000130: 9d7a 3ebd 79ae 4a3b 2a52 85bd d1e8 663d
00000140: 84d7 aabc 1350 00bc ef0f c1bc f50a f33d
00000150: 2a0a 82bd 805f 8fbd 296b ed3d aee8 c33d
00000160: 7242 02bd a467 ce3d 0369 c8bc ee24 df3d
00000170: 4b26 a23a 0fd8 e03d b571 edbc 808a 6cbd
00000180: 1bfb cfbc 3ad2 f8bc 1123 a6bc 74dc d13d
00000190: b08f 38bd a99d bbbd 6c15 683d 008e 9d3d
000001a0: 228f 643d 0713 e8bd b619 fabb 30ec d93d
000001b0: c8d0 1e3d 9d09 ecbc d9ce cabd 35a6 d53d
000001c0: 341d f9bd 3ff6 b63c eb34 7dbd 8c68 9fbd
000001d0: 96d4 1ebc a390 a0bd ef07 a4bd 80a8 e73d
000001e0: 183a 983d e11d 01bd 1a51 c63d ff45 5cbd
000001f0: b880 c5bd 37a2 76bb 2a2f 8e3d f411 04bc
00000200: 534c 153e ae1e cf3a eedd 203c 4ad1 753d
00000210: b215 b4bc 5975 163d c0ea 363c dd5b 14bd
00000220: 6493 1c3d 73ba 743c 5dc6 24bd 9c16 f5bc
00000230: b55f 133d 3463 643d 5fe3 a73d 2f84 b3bd
00000240: 39d5 6fbc 5e82 153e 35a3 393d da99 04be
00000250: 1658 32bd 5cb1 8a3d e065 fdbc 7f8d e6bd
00000260: 6365 a2bd fcc2 a53d c5f3 993d 100a ff3d
00000270: f5ec 403d a558 f83d 5372 8bbd 47fb 12bb
00000280: 2cc7 e43c 22f1 423d e210 193d feed 233d
00000290: 5124 19bd 8290 22be 7192 b53c b45a 1a3c
000002a0: 2439 8dbd ec8a c13d 0b98 06bd 895d 88bd
000002b0: 5b8b b4bc 3455 ad3c 635f 7d3a 7788 873d
000002c0: b3cf 283d 2078 973d 0ea9 eb3c 9405 ca3c
000002d0: 3051 27bc e8a7 0fbd 3000 fc3c e535 f63c
000002e0: 4c11 f9bc 2c64 6e3c fd8a d7b9 afaf 933a
000002f0: 1fe2 96bc 1eb4 ffbc 5289 063e fefd 81bb
00000300: daa7 aabb 7954 903d ec92 693c db00 973c
00000310: 26a5 eebc 1c79 b93d 8cae 693c 539c 073d
00000320: 66bb b63d c5d3 01be a1f2 d6bd ecd4 413d
00000330: 2546 063d 1fdd 273d 3003 343d 7e81 3b3d
00000340: 4f42 273a a0fb 7c3d 6555 4bbd 2b2b 28bc
00000350: 3c14 2dbd 95ea 84bd ab68 163d 5f42 89bd
00000360: 87d9 a63c b194 04bd 2157 e0bc ad20 80bd
00000370: 1d9c edbb 0b78 acbd d038 293d 49a3 ba3d
00000380: 3e5a f0bc 46ca 5b3c cb73 2fbd d688 bdbc
00000390: 51ba c2bd 1a27 413d 37ab fc3b 14da 7e3c
000003a0: 4770 953c b83e 843d a683 9bbc 1d28 af3d
000003b0: 2271 843d 4864 cb3c 9ed8 f83d 4699 8abc
000003c0: a125 67bd 43d2 823d 8d0a 8abd 0789 79bd
000003d0: 7974 f439 19a0 803d dd0b 593d 7f79 813d
000003e0: 1958 28bd 5601 af3c 346f 303d 78c8 1f3b
000003f0: fac4 bd3d d9da 653c 707f 883d ae93 e53d
0.02827949 -0.10759334 0.03271287 -0.032963593 -0.07816334 0.16285975 0.06593548 -0.03246197
-0.007012335 -0.018378664 -0.03953753 -0.017155942 0.049266122 -0.077033944 -0.022914859 -0.02611007
-0.051216044 -0.05410941 -0.05396878 -0.020960575 -0.04809482 0.025543572 0.0044294745 -0.10575704
0.097219504 -0.060449798 0.044599462 0.05557579 0.049375866 0.046450604 0.070247665 0.014243428
0.0530389 -0.078400195 -0.094295606 -0.014481505 -0.0016607621 0.003692602 -0.07620399 0.0413951
0.10578717 -0.032180134 0.05466309 -0.0058839726 -0.031505127 -0.022996293 0.052244604 0.005745119
-0.035363823 0.10160879 -0.07345712 0.078926794 -0.05565779 0.016722627 0.07276185 0.008417779
-0.059148125 0.016240934 -0.02140017 -0.04837772 0.050995465 0.05993297 0.04310871 0.018995242
-0.085210435 0.08067159 0.08325299 0.04941751 -0.018795341 -0.099486776 -0.084582426 0.024433322
0.023066256 0.014091943 0.008603998 0.071297005 -0.046503652 0.0030926748 -0.06509812 0.056374375
-0.020854719 -0.007831591 -0.023567168 0.11867324 -0.06349595 -0.07000637 0.11592705 0.095658645
-0.03180165 0.10078362 -0.024464136 0.10895716 0.0012371031 0.1097871 -0.028984884 -0.05774927
-0.025388291 -0.030373681 -0.020280393 0.10247126 -0.045058906 -0.09160931 0.056661054 0.076931
0.055800565 -0.11331754 -0.0076324595 0.10640752 0.038773328 -0.028813178 -0.09902734 0.10432092
-0.12163773 0.022334216 -0.061818045 -0.077836126 -0.009694239 -0.07840087 -0.08009326 0.11311436
0.074329555 -0.031522635 0.09683438 -0.05377769 -0.09643692 -0.0037633309 0.069425896 -0.008060921
0.14579897 0.001580199 0.009818537 0.060014047 -0.021983001 0.036733005 0.011164367 -0.03622042
0.0382265 0.014937031 -0.040228236 -0.029918008 0.035979945 0.05575867 0.081976645 -0.087654464
-0.014638239 0.14600512 0.045321662 -0.12949315 -0.043541037 0.0677211 -0.030932367 -0.11257457
-0.07929494 0.08093831 0.075171985 0.12453091 0.04710098 0.121262826 -0.06808915 -0.0022427605
0.027927004 0.047593243 0.037369616 0.04002189 -0.03738815 -0.15875438 0.022164555 0.009421039
-0.06895664 0.09450325 -0.032859843 -0.066584654 -0.022039106 0.021158792 0.0009665398 0.066178255
0.041213702 0.07395959 0.028767135 0.024660863 -0.010212228 -0.035072237 0.030761808 0.030054996
-0.030403756 0.01455025 -0.0004111155 0.0011267568 -0.01841837 -0.031213816 0.13138321 -0.003967046
-0.0052079977 0.07047362 0.01425622 0.018433025 -0.029131483 0.09056303 0.014262807 0.033108067
0.08922462 -0.1267844 -0.104954965 0.0473222 0.03278174 0.040982362 0.043948352 0.04577779
0.0006380425 0.061763406 -0.049641985 -0.010264198 -0.042255625 -0.064900555 0.036720913 -0.067021124
0.020367397 -0.032368366 -0.027385296 -0.062562324 -0.007251276 -0.08421334 0.041313946 0.091131754
-0.029339906 0.013414925 -0.04283504 -0.023136538 -0.09508193 0.04715643 0.00771084 0.015554924
0.018242015 0.06457275 -0.018983673 0.08552573 0.06466891 0.024828091 0.121506914 -0.01691879
-0.05643237 0.063877605 -0.06740294 -0.060921695 0.00046626086 0.06280536 0.05298983 0.06322002
-0.04109964 0.021362942 0.0430748 0.0024380963 0.09266086 0.014029228 0.06664932 0.11209808

conv_layers.2.bias f4 [64]
00000000: 55a4 d1bd 957a 98bd b371 1cbd 26d3 fabb
00000010: 3347 43bc 4266 c33b c581 4c3c 9bdf 013d
00000020: a6cf b6bc 38b5 293d 2817 7b3d aca6 a6bd
00000030: a6ba a03a 3ae2 dcbd e004 b4bc af3b 743b
00000040: bc6a 96bd 29bd f7bc 0f6b 48be 541d 2fbd
00000050: f762 ffba 5281 dabd 3218 a13d 347e 6a3d
00000060: 1762 de3d e4b6 e23c 8159 31bd fda6 4abd
00000070: 59d6 68bd b310 dcbb 1f44 bdbd a1f3 073d
00000080: e581 f3bd 8521 02bc f794 50bd 39b9 8cbd
00000090: ae9b 313c ac0e a1bc aeb1 7cbd f16e 53bc
000000a0: 0b1c bcbc 3e8f 8a3d 404f 1abd 3457 683d
000000b0: 7d86 a03d fc80 9fbd c96d 38be 8eea bbbd
000000c0: fe94 483d 04b5 5fbd b847 4ebd f2f9 cabd
000000d0: 07a8 2fbe d665 2ebd af05 03bc 8ba9 0d3d
000000e0: d874 3dbd a4fd a8bb c6c9 9bbd dcfe 233d
000000f0: 7adf b63b 2d2f 60bd 8670 9a3d 6a9b 4d3c
-0.10236422 -0.07445256 -0.03819437 -0.0076545654 -0.011918831 0.005963118 0.012482111 0.031707387
-0.022315811 0.04143259 0.06130138 -0.08137259 0.0012262657 -0.10785337 -0.02197498 0.003726702
-0.07344577 -0.030241566 -0.1957209 -0.04275258 -0.001948445 -0.10669197 0.07865943 0.057249263
0.10858553 0.0276751 -0.04329825 -0.04947566 -0.056845043 -0.006715858 -0.09241509 0.033191327
-0.1189001 -0.007942562 -0.050923314 -0.06871266 0.01084034 -0.019660316 -0.061692886 -0.012904868
-0.02296259 0.067656025 -0.037673235 0.05672379 0.078381516 -0.07788274 -0.1801063 -0.09175597
0.048970215 -0.05461599 -0.050361365 -0.099109545 -0.17153941 -0.042577587 -0.007996961 0.034585517
-0.04625401 -0.0051571894 -0.076068446 0.040037975 0.0055808397 -0.05473249 0.075409934 0.012549261

conv_layers.3.weight f4 [64, 256, 5]
00000000: 4daa 0fbd 9c7c 7abd 5c73 943b 82b2 3fbd
00000010: 6a5e 763d d43f 363d 526e ba3d fdba fcbc
00000020: 1002 b13d 0327 043d 389d a93c 5d81 8e3d
00000030: a337 a5bd 6de2 183c 83df 8ebd 0d12 573c
00000040: b760 2dbd f1e2 9abd b10a 7f3d 0b6f c3bc
00000050: 2b2a 8bbc 3ee6 8abc b26d 033c 668c 1d3d
00000060: 82d2 083d 005d 7bbd 658e d5bc 3204 963d
00000070: 236b 9bba 628c 41bd 5122 cf3c ec86 963d
00000080: 81ab c13d 5748 f03b a3a4 95bd bb61 49bc
00000090: abc8 9ebc 1ce7 c13c 6e1c 9e3d 94c3 3bbd
000000a0: 869f 8b3c 3f19 6cbd 6366 723d f562 e4bd
000000b0: c39d 203d 26fb 62bd 4992 d6bc 9c50 ac3d
000000c0: 14af ad3d 9350 b6bd 8947 e3bd fcb6 ba3c
000000d0: 98d9 a8bd 2145 05bd e020 71bd 8c7f 4a3c
000000e0: 3751 983d b02a b03c edcc 043d ff94 05bd
000000f0: 9b13 3a3d ceba 23be 9f22 973d e12e 353d
00000100: 434b 06bb 4004 68bc 2328 9ebb dae4 f63b
00000110: fe43 2a3b a783 84bd 8ba0 b1bb da2f 563d
00000120: d6fa 5ebd 192c 75bd 8aeb 4abc bfcb 993d
00000130: 2fb9 023d 0039 cbbd e749 d1bd 8482 dcbc
00000140: a014 a43b 4c0e 08bd 41c9 603d c645 143d
00000150: 6247 a0bd 4cb5 193e e304 9fbc 9697 06bd
00000160: 959e d0bc 7626 113d 22de d53d 5db8 33bb
00000170: 211f 8fbb 4d1d fa3c 1395 b93d 83e0 e73d
00000180: b727 e7bc 51e0 d0bd f961 dc3c 0631 ab3c
00000190: eb04 68bc d6d4 743c 8c3a 03be 88cf 0d3e
000001a0: bcc0 043d 9142 89bc 08d5 183c b12f 10bd
000001b0: 05ef 94bc df92 b2bd 2829 0bbd dd89 9d3c
000001c0: 65e1 d1bc 61b1 78bd 0f82 aabd 4eba b83c
000001d0: 2391 993c a809 f13b 06d6 993d d319 b43d
000001e0: 0268 0f3a bc84 6a3d fa74 8a3c fb7f 693d
000001f0: a17a 3dbd c016 83bb ff6e 15be df44 a33d
00000200: 6f7e f63b 0a2f e6bd 68be 93bb 7dff 9bbd
00000210: 24f9 8cbd 6fc7 153d fd9c 81bd 2f5d 74bd
00000220: b507 a3bd 9d00 b2bd 5ed8 a33c 152e d1bd
00000230: b119 a2bd f6f3 02bc 2d45 0abd 9577 923d
00000240: 38c3 e3bc f603 3fbb c0b7 473d 5105 93bc
00000250: 401a d4bc 055b 02bd acdb 503d cb91 2f3c
00000260: f65d 183c 4865 0dbd cfc0 59bd 85be 813d
00000270: e187 eabb d2ba d53c ce31 31bc dbdb 86bc
00000280: e816 d7bd 86e8 2b3d 8d78 d23c 03f5 cd3d
00000290: c5c7 f13c a669 4a3d 340f c1bd 1e12 213d
000002a0: 796c 43bc f7d8 ac3d 968f abbd d63d 433d
000002b0: 3608 68bc d9ee 4e3d 3d34 19bd cd6b 6bbd
000002c0: 34b8 6b3d 00f8 4cbb 5d0a c4bd d438 2f3d
000002d0: d914 fa3b 2a7c a93c 347e b2bc 920a 513c
000002e0: b732 383c 476a b5bd 2a9c 93bc c61d 95bc
000002f0: 9694 f8bc d02f 9dbc 8118 c43d 4fcb 813d
00000300: 4434 a4bc 363d 04bd 7e1f afbd 5ffc 973d
00000310: 1207 f0bc cf7b 303d 6309 d23c 3ffc 60bd
00000320: c909 823d a09c da3d 635f cf3a 268c 77bc
00000330: 65da b5bc acfb 293d db95 30bd 0531 72bc
00000340: 0bf6 663b 23a4 8bbb 3da2 b43d f4fb c33b
00000350: f148 4cbd b8c7 ec3c ebb9 84bd 2f1b 5abc
00000360: 69ba f1bc 7d6f be3d acdd 543b 44d9 6abd
00000370: cef7 b43d 2f04 ae3c fb27 753d ce4e 293d
00000380: 4cac 06be d2c2 fe3d 1c8d 7ebd 8db6 9ebd
00000390: 585f 46bc bf5f 4abb 1dfc 553d f20f 053d
000003a0: 770e 2c3d bc0f af3c 12c2 a8bb 5ced 8c3d
000003b0: 7336 95bd 91ac 8f3d 448e 163e dc41 85bd
000003c0: bfa7 9abd f9db 193c 685d c4bc 12d3 25bc
000003d0: b048 1e3d d344 6b3d bf4d 81bd c225 69bd
000003e0: 6eae efbd 3e70 45bd 5e09 0a3d d5a2 d9bc
000003f0: a922 0dbe 4d06 aa3d f4f3 43bd 49fd 413d
-0.03507452 -0.061153993 0.0045303535 -0.046801098 0.060148634 0.044494465 0.09103073 -0.030850882
0.086429715 0.032263767 0.02070485 0.06958268 -0.080672525 0.009331328 -0.06976225 0.013126862
-0.042328563 -0.07562817 0.062266055 -0.02385666 -0.01698788 -0.016955491 0.008021759 0.038463973
0.03340388 -0.06136799 -0.026068876 0.07325019 -0.0011857491 -0.04725302 0.025284918 0.07349953
0.0945654 0.0073328423 -0.073067926 -0.012291367 -0.019382795 0.023669772 0.07720266 -0.045840815
0.01704384 -0.057641264 0.059179675 -0.11151687 0.039212953 -0.055415295 -0.026192801 0.084138125
0.08480659 -0.08902087 -0.110976286 0.022792332 -0.08244628 -0.03253663 -0.058869243 0.012359511
0.074373655 0.02150473 0.032421995 -0.032612797 0.045428853 -0.15989229 0.0737965 0.04423416
-0.0020491637 -0.0141611695 -0.004826562 0.0075346055 0.0025980468 -0.06470423 -0.0054207495 0.05229173
-0.054438435 -0.059856508 -0.012385258 0.075095646 0.031914886 -0.09922981 -0.10219174 -0.026917703
0.0050073415 -0.03321676 0.05487943 0.036199354 -0.07826115 0.15010566 -0.01941151 -0.032859407
-0.025466243 0.03543707 0.10442759 -0.0027423122 -0.0043677245 0.03053155 0.09061637 0.11322119
-0.02821718 -0.10199035 0.026902186 0.0208974 -0.014161329 0.014943322 -0.12815303 0.13848698
0.03241037 -0.016755374 0.009328134 -0.035201732 -0.01818038 -0.0871942 -0.033974797 0.019230777
-0.025620172 -0.060716037 -0.08325588 0.022549774 0.018745964 0.0073558874 0.07511525 0.08793988
0.00054705155 0.05725549 0.016901482 0.057006817 -0.046259526 -0.0040005147 -0.14593123 0.079721205
0.0075223963 -0.11239441 -0.004508782 -0.0761709 -0.06883457 0.036567148 -0.06328771 -0.05965918
-0.079604544 -0.08691523 0.020000633 -0.102138676 -0.079150565 -0.007992735 -0.033757377 0.07151715
-0.027803048 -0.0029146648 0.048759222 -0.017946871 -0.025891423 -0.031825084 0.050990745 0.010715912
0.009299746 -0.034520417 -0.053162392 0.06335167 -0.0071573113 0.02609006 -0.010815097 -0.016462257
-0.10502416 0.0419698 0.025692249 0.10056498 0.029514203 0.04941716 -0.09426728 0.03932392
-0.011927717 0.0843982 -0.08376996 0.047666393 -0.014162114 0.05052075 -0.037403334 -0.057475854
0.057548717 -0.003127575 -0.09572289 0.042778805 0.0076318798 0.020689089 -0.021788694 0.012758868
0.01124256 -0.088581614 -0.0180188 -0.018202674 -0.030344289 -0.019187838 0.09574986 0.06337606
-0.020044453 -0.032284938 -0.085509285 0.07421183 -0.029300246 0.043086823 0.025639242 -0.05492806
0.063495226 0.10674405 0.0015821274 -0.015109098 -0.022198865 0.04149978 -0.043111663 -0.014782195
0.0035241868 -0.00426151 0.08820007 0.005980963 -0.04987425 0.028903827 -0.064807735 -0.013312145
-0.029507833 0.092986085 0.003248076 -0.057336107 0.088363275 0.02124223 0.05985258 0.04133492
-0.13151664 0.12439503 -0.06214629 -0.077496625 -0.012107693 -0.0030879823 0.052242387 0.03248591
0.042005982 0.021369807 -0.005150088 0.0688121 -0.07285776 0.07015336 0.14702708 -0.06506702
-0.07551526 0.0093908245 -0.02397032 -0.010121124 0.03864354 0.057438683 -0.06313657 -0.056920774
-0.11703192 -0.048202746 0.03370034 -0.026566902 -0.13782753 0.08301983 -0.047840074 0.047360692

conv_layers.3.bias f4 [64]
00000000: 7108 0dbe 59cc 47bd 0165 1f3d 751e 12bd
00000010: b455 a33c a2d6 9f3b 744e a6bc 252a 8db9
00000020: bcb1 833c 1f74 09be 1ad6 8ebd 864e 71bb
00000030: 7c83 5e3d 60e7 5a3c 0db9 a2bd a016 67bd
00000040: bfe6 60bd 2b32 febd 3fa2 20bc 1261 e1bd
00000050: cd12 b9bd 5d6a 433c 87b2 9fb9 f299 44bd
00000060: 2346 4bbd 3aec 893c babc 543d 0e16 d1bb
00000070: d88b 9cbd 44f0 643d a055 fdbc 5aae 3d3c
00000080: dd4d b93d b01f e53b 7d46 24bd 7d37 d5bc
00000090: 36ca 64bd cdfe 05bd 2eb7 a93c 799c a1bd
000000a0: 7041 8a3d d09b 04bd 30be d23d 210d d83d
000000b0: bfc7 d43d 1f8d b7bd c16b 413d 58cf 1fbd
000000c0: 2565 493d a849 4e3d 8a9b 80bd 6278 b9bd
000000d0: ec6e 64bd 01a2 65be 4054 8d3d bfa9 c6bc
000000e0: f772 5f3d 2657 e4bd 0dc5 33bc 9aa9 6e3d
000000f0: 35d9 41bc b26d 63bc 1335 c6bd e154 55bd
-0.13772751 -0.048778865 0.038914684 -0.035673577 0.019938327 0.004877881 -0.020301081 -0.00026925016
0.016075961 -0.13423203 -0.069744304 -0.0036820485 0.054324612 0.013360828 -0.07945452 -0.05641806
-0.054907557 -0.124119125 -0.0098043075 -0.11004843 -0.09036789 0.011927214 -0.00030459856 -0.047998376
-0.049627434 0.016836274 0.051937796 -0.006380803 -0.076438606 0.055893198 -0.030924618 0.011577213
0.09048054 0.006992303 -0.040106285 -0.026027435 -0.055856906 -0.0327137 0.02071723 -0.07891173
0.067507625 -0.032375157 0.10290182 0.10549379 0.10389661 -0.089624636 0.047221903 -0.039016098
0.049168725 0.050363213 -0.06279667 -0.09056164 -0.055769846 -0.22425081 0.06900835 -0.024250863
0.054553 -0.11149435 -0.010972274 0.058267213 -0.011831571 -0.013881134 -0.09678092 -0.0520829

fc1.weight f4 [64, 256]
00000000: a2a1 26bd c78a 5b3c 8e4e 51bc c8e7 22bc
00000010: 806e 83bd b00a ae3c 9417 573d 52ae b9bb
00000020: 7eb6 1bbd 5c23 4bbc 0687 dbbc ee07 67bd
00000030: bff7 a9ba a80d 5ebd c175 133d afa6 29bd
00000040: 6279 43bd b03d aabc b187 1e39 6f8d 9e3b
00000050: 5240 99bb eff7 a23c 53dc a63b 0a5b 8ebd
00000060: 7773 193c 655b 5bbd 1b4d 3c3d dc18 15bd
00000070: 48c1 b13c e331 273c a93f 78bd 87ac 22bc
00000080: b342 26bd fef4 57bc 8ce3 8dbd 26b6 e83c
00000090: a416 27bb 681a 98bd f359 82bd f89f da3c
000000a0: 9d3e 0cbb b6a8 09bc 1e1d 6c3d 2288 c6bc
000000b0: 99a1 20bd 8f11 ecbc 5004 8b3c d999 bfbc
000000c0: a512 a3bd 34f2 2aba ff11 cdbc 2c79 20bd
000000d0: 2522 10bd 8d51 b63c cec2 363d ab0e ddbc
000000e0: f3e2 82bc 6677 433d 7ea2 7b3c 00fa 8d3c
000000f0: 2320 e83b 8a75 94bd ea50 ddbc a7b8 d03c
00000100: 3fac 02bd fa6f 543c 72e0 153d c0b5 63bd
00000110: 745a 00bc ff25 cc3c 9e75 64bd 6d47 243c
00000120: e6f1 60bc e64a 15bd 35f8 b5bc f4b1 1dbd
00000130: b305 e43a 668c 173d be29 debc eb07 0a3d
00000140: a26c fa3c 2b80 21bd d90f e13b 2360 48bd
00000150: 6e83 70bc 64dd 093d 4fb6 2b3c bc0f 403c
00000160: 808e cdbc a810 343c fd93 dd3c c524 46bd
00000170: 0cf1 5eba bf78 7cbd 3edf 6ebc 214f 673d
00000180: f6cb ee3c edd5 543d a8be 31bd 6780 20bc
00000190: 84ce 933c b5dd 1abd 442b ad3c f016 f43b
000001a0: c8ec 383c d65f 4c3d 9725 97bd 07ce 6cbd
000001b0: a852 f53a 7d5c 64bc ba9d 3dbd b69f a0bc
000001c0: aded a6bb 9229 7b3c 4ede 393c 6039 08b9
000001d0: 8759 81bd 7f12 573c f534 cabc bad0 aebb
000001e0: b433 c1bc ba83 32bd aa27 883c 6fa9 d13c
000001f0: 012b 1ebd 87ed 61bd 8605 e23b f7fc a6bc
00000200: ac1c 7fbd d744 2a3d 5a82 cbbb c934 c13c
00000210: 747f 5abd 4bd6 80bd 0120 b9bc 1bc1 223d
00000220: e03a b23c c5b5 42bd b9a8 b03b 3597 0e3c
00000230: c7d5 9abd cba6 2dbc ffba f13a 614e a6bc
00000240: c505 383d cb91 433d 4f55 2b3d 7f93 043d
00000250: ccbb aabb 4935 383b 8373 75bd 6267 07bd
00000260: 79e2 66bd a861 3a3c c8ba bcbc 6a80 80bb
00000270: 293b 94bc cc2e 84bd 20f8 0d3d 900d 42bd
00000280: 040e 483d 9a30 203d bf43 02bd 0939 b8bc
00000290: 1b9a 2bbd 1afb 65bd 9d19 33bc 711e 81bd
000002a0: f3f7 283d 8552 173c e482 54bd 4c7f a8bc
000002b0: e9c4 23bd 11be 86bc 0e3f 6abd ee59 6f3d
000002c0: 8351 d7bc eb0a b13b 164a b5bc 929a 083d
000002d0: c668 233c 984b 9ebc 6d1c ff3c ec3b 3fbd
000002e0: 789e 1cbd 29f4 89bd 0e7f c4bc 3bef 85bd
000002f0: bca7 93bd 04a4 fe3b 041f 43bb 6d3c b23b
00000300: bf59 8b3c 7c00 00bd f455 aabd 9cd4 13bd
00000310: 7aa0 0ebd 4b81 72bd d2e3 66bc 2176 f5b9
00000320: dcbe 103c d95e 81bd 551f 92bb d737 1b3d
00000330: 6f15 453d ffbe 81bd 15f3 acbc 431c d63b
00000340: 854d eabb cb9a 2a3a 00d6 9c3b 4001 523d
00000350: 7a56 d23b 61fd b1bd b2fa c039 3353 8abd
00000360: 74c8 4b3c 49bd 94bb 4399 edbc efff 0ebd
00000370: 30cb 163d 2db3 0d3c 266f 4c3d 6c87 6ebc
00000380: dee9 6f3c e3f9 233d 0772 d8bc cda3 2ebd
00000390: bdd1 37bd 4975 dc3b 0d0e 9bbd 5bbb 653c
000003a0: 8d46 bdbc 69f7 2a3c 5d1f 37bd a9e0 cdbc
000003b0: a0b5 0cbd d7d9 c2bc e444 983b 6eac 46bd
000003c0: 41b8 cb3c 0efe 23bd 5f9f 18ba 80cd 37bd
000003d0: c34f 37bd 7e99 10bd 830b e03c 2d80 553d
000003e0: 55d0 b8bc 225e e3bc 3133 38bd e667 78bd
000003f0: 655d 553d c92e 28bd a29c 1d3d c80e b53b
-0.04068149 0.013399786 -0.012775077 -0.009942956 -0.064175606 0.02124533 0.05251272 -0.0056665326
-0.038015835 -0.012398567 -0.026797783 -0.056404047 -0.0012967511 -0.054212242 0.03600097 -0.041418727
-0.04772318 -0.020781368 0.00015118603 0.0048386375 -0.004676857 0.019893615 0.0050921827 -0.06950958
0.009365908 -0.053553957 0.04597197 -0.03640066 0.021698609 0.010204765 -0.060607586 -0.009928829
-0.040590953 -0.013180969 -0.06928167 0.028407168 -0.0025495673 -0.074269116 -0.06364813 0.026687607
-0.0021399625 -0.00840204 0.057644956 -0.024234835 -0.03921661 -0.028816966 0.01696983 -0.02338879
-0.079625405 -0.00065210764 -0.025032995 -0.03917806 -0.035188813 0.022255683 0.044619374 -0.026984533
-0.015977358 0.04772129 0.015358565 0.017331123 0.007083909 -0.07248981 -0.027016122 0.025478674
-0.031902548 0.01296615 0.036591 -0.055593252 -0.007834066 0.024920462 -0.05577623 0.010026795
-0.013729548 -0.03644838 -0.02221308 -0.038499787 0.0017396718 0.03699913 -0.027119514 0.033698957
0.030569378 -0.03942887 0.0068683443 -0.048919808 -0.014679773 0.0336584 0.0104804775 0.011722501
-0.025092363 0.010990299 0.027048105 -0.04837491 -0.0008504547 -0.06163859 -0.014579592 0.056471948
0.02914999 0.051961828 -0.043394715 -0.0097962385 0.01804281 -0.037809093 0.021138795 0.0074490234
0.011286922 0.049896084 -0.073802166 -0.05781367 0.001871665 -0.013938067 -0.046292998 -0.019607406
-0.005094251 0.015329735 0.0113445055 -0.00012991345 -0.06315904 0.013126968 -0.024683455 -0.0053349407
-0.023584224 -0.043582655 0.016620476 0.025593488 -0.03861523 -0.055158164 0.006897631 -0.020384295
-0.062283203 0.041569557 -0.0062106075 0.02358474 -0.053344205 -0.06290873 -0.022598268 0.03973494
0.02175659 -0.04753663 0.005391207 0.008703043 -0.07560306 -0.010598849 0.001844257 -0.020301046
0.044927377 0.04774646 0.041829403 0.032367226 -0.0052103754 0.0028107932 -0.059924614 -0.033057578
-0.056368325 0.011375822 -0.023038283 -0.003921558 -0.018094616 -0.06454238 0.03466046 -0.047376215
0.04884149 0.03910885 -0.03180289 -0.022488134 -0.041895013 -0.056147672 -0.0109314 -0.06304634
0.041252088 0.009235983 -0.05188264 -0.020568512 -0.03998271 -0.016448053 -0.05718904 0.058435373
-0.026283985 0.005402913 -0.022130053 0.033350535 0.00997371 -0.019323155 0.031141484 -0.046688005
-0.038237065 -0.06736023 -0.023986366 -0.0653977 -0.07209727 0.007771017 -0.0029773125 0.005439332
0.017010568 -0.031250462 -0.083171755 -0.036091432 -0.03482101 -0.059205335 -0.0140924025 -0.00046818054
0.008834567 -0.06316919 -0.0044593015 0.03789505 0.048116144 -0.06335258 -0.021112004 0.006534131
-0.0071503543 0.00065080513 0.004786253 0.051270723 0.006419 -0.08690906 0.00036807876 -0.0675415
0.0124379285 -0.004539166 -0.029003745 -0.034912046 0.03681487 0.008648676 0.049910687 -0.014558654
0.014643161 0.040033232 -0.02642156 -0.04263668 -0.044877756 0.0067278487 -0.07571039 0.01402172
-0.02310493 0.010434964 -0.044707645 -0.02513154 -0.0343529 -0.023785515 0.0046468843 -0.048504286
0.024868133 -0.040037207 -0.0005822088 -0.044873714 -0.0447538 -0.03530263 0.02734924 0.05212419
-0.022560278 -0.027754847 -0.044970695 -0.06064596 0.05209102 -0.041060243 0.038479455 0.0055254437

fc1.bias f4 [64]
00000000: ef5d 4cbd c487 e4bc 07f3 813c 4e62 4dbd
00000010: 5bcd 4c3d 0cc1 433d 1b6a ad3d 65ae f43d
00000020: 64d3 af3b 27f8 5a3d b7c4 b23c a817 8b3c
00000030: 7858 6bbd c3fa b73c aa3e 9f3c c8ac 233d
00000040: 0408 95bc 8b64 eb3c e5d2 02be d828 d43d
00000050: 5337 8439 1839 d0bd df10 8a3d 22f3 033d
00000060: eb6f 5fbd db3e 123c 0ebc 8a3a 9abd 8b3c
00000070: 49a7 24bc 4e85 52bd d9e6 6dbd 92f9 f43b
00000080: a91a b1bc 6953 743d 16d8 afbd 647c b73d
00000090: 165f c8bc d2e4 31bd f084 903d f3ad 3fbc
000000a0: 4590 4f3c 8e67 74bd 954a 6e3d 95f5 45ba
000000b0: 9648 c93d 111d 78bd 1c12 e8bc 68bc c03d
000000c0: 8135 463d 82a4 8cbd 3569 d13c aeeb 92bd
000000d0: 71c1 d83c 0da7 353d dab1 903c 5695 dd3c
000000e0: 63a6 f53c ebc7 6c3d 55a4 68bd 724b 683d
000000f0: eac2 f63c 2d0d d73c 9896 20bd 83d5 2dbc
-0.04989427 -0.02789677 0.015862955 -0.05014258 0.05000053 0.047791526 0.08467504 0.119473256
0.005365776 0.053459313 0.021822317 0.016979054 -0.057457417 0.02245844 0.01943906 0.0399597
-0.018192299 0.028734466 -0.12775762 0.10359353 0.00025218222 -0.1016714 0.06741499 0.03221429
-0.054550093 0.008926119 0.0010584609 0.017058183 -0.0100496495 -0.05139666 -0.05808148 0.00747604
-0.021619158 0.05964986 -0.08586137 0.089592725 -0.024459403 -0.04343111 0.07056606 -0.011699188
0.012668674 -0.05966907 0.058176596 -0.0007551548 0.09828298 -0.060574595 -0.028328948 0.09410936
0.04839087 -0.06867315 0.025562862 -0.071738586 0.026459428 0.044348765 0.017662931 0.027048748
0.029986566 0.057807844 -0.056797344 0.056712575 0.03012224 0.0262514 -0.039206117 -0.010609987

batch_norm.weight f4 [64]
00000000: bf80 773f ba3c e63f 4572 7a3f ce20 e93f
00000010: 1f79 f03f 89ef 1040 2dc7 0140 2eb3 d23f
00000020: 38f9 773f 087b e03f 81e4 7b3f 8d2e e93f
00000030: 70f9 7c3f 5438 e23f c826 7d3f 6f76 7e3f
00000040: 2743 7e3f 3eb9 853f fa04 1640 e68b 1c40
00000050: 9df7 f03f 5cf1 0140 c04a 1540 ab38 7b3f
00000060: bfa8 7d3f 90eb d83f ab83 7d3f bf9b 783f
00000070: 4538 da3f f51d 7e3f ec4f 7e3f 1d87 7c3f
00000080: 3979 1040 c4a6 d03f e793 783f 90bb ee3f
00000090: cd22 0740 643d 7d3f e11b 0540 cbb3 883f
000000a0: bc9b 803f 3b31 f53f efe6 2240 a690 e73f
000000b0: 4829 ed3f 0987 7c3f 0000 803f 2ab3 e93f
000000c0: f4a3 f83f 1696 7c3f 38e1 7d3f 9efb 7c3f
000000d0: da31 7e3f e520 7d3f f21e 7d3f df40 e73f
000000e0: 1980 7e3f 932a eb3f 10e7 7a3f 635c f73f
000000f0: fcad 0140 7276 7e3f 52ab fb3f 592e 7e3f
0.96680826 1.7987282 0.9783061 1.8213136 1.8786963 2.26462 2.0277817 1.6460931
0.9686465 1.7537546 0.98395544 1.8217331 0.9881811 1.767344 0.988873 0.99399465
0.99321216 1.0447156 2.3440537 2.4460387 1.8825566 2.0303564 2.3326874 0.98133343
0.9908561 1.6946888 0.99029034 0.9711265 1.7048422 0.9926446 0.993407 0.98643667
2.2573988 1.6300893 0.9710068 1.865099 2.111499 0.989218 2.0798266 1.0679868
1.0047526 1.9155649 2.545345 1.8091018 1.8528223 0.9864355 1.0 1.8257802
1.9425035 0.9866651 0.9917178 0.9882144 0.9929482 0.9887832 0.98875344 1.8066672
0.9941421 1.8372368 0.98008823 1.9325069 2.0262442 0.99399483 1.9661658 0.9928947

batch_norm.bias f4 [64]
00000000: da9b 073a b0df 7539 71a0 063b 91b4 62bc
00000010: 0958 6dbc b3cb 24bb cbf1 9f3a c817 a0b9
00000020: 946a a2bc 5b85 353d f6d4 84b9 44a4 ea3b
00000030: 8cc9 533a 86cb bcbc 0266 18bb b8d1 3ab9
00000040: 9b83 20bb d01f d63a d09b c83a 9227 be3c
00000050: ae2f a33b 4b49 a03b 20a4 d83c 0710 5d3a
00000060: deae 333c e666 8abb 4b31 053c 7d5b dc3a
00000070: 929d f1ba 0522 613b abcb c5bb 3769 3e38
00000080: 09ab 34ba 9072 44ba 391a f3b7 1b79 153b
00000090: e58b 213a f254 9e3a 8b7e 7839 a542 84b8
000000a0: ec15 72ba 5958 683a f29b 50ba 1f6e 5ebb
000000b0: c235 8cbc f823 8dba 5947 bb3c 2ac8 e7bb
000000c0: 9b0e 723a 78c0 5dbc b0dc 90ba 91fc f5b9
000000d0: 0878 9f3a 21c0 0ebb e1b4 acbc 6fff 48ba
000000e0: d195 7a3b 36be e9ba 5f61 023d 017c 2cbb
000000f0: 9c74 4bbd 6f88 273c d170 53bc bb25 78b9
0.0005173065 0.00023448351 0.0020542408 -0.013836996 -0.014486321 -0.0025145828 0.0012202797 -0.00030535297
-0.019826211 0.04431663 -0.0002533567 0.0071606953 0.0008079044 -0.023046266 -0.002325416 -0.00017816469
-0.0024492505 0.0016336385 0.0015305225 0.023212228 0.004980049 0.0048915497 0.026445448 0.0008432869
0.010966985 -0.004223692 0.008129428 0.0016811934 -0.00184338 0.0034352553 -0.006036242 4.539752e-05
-0.00068919413 -0.0007493878 -2.8980068e-05 0.002280778 0.00061625085 0.0012079759 0.00023698264 -6.306664e-05
-0.0009234834 0.00088632625 -0.0007957808 -0.003394015 -0.017115477 -0.0010768166 0.02286117 -0.007073422
0.0009233744 -0.013534658 -0.0011052098 -0.00046918218 0.0012166509 -0.0021781998 -0.021082344 -0.0007667457
0.003823627 -0.0017833177 0.03183114 -0.002631903 -0.049671754 0.010225399 -0.0129053155 -0.00023665179

batch_norm.running_mean f4 [64]
00000000: 0400 0000 0400 0000 0400 0000 0400 0000
00000010: 0400 0000 0400 0000 0400 0000 0400 0000
00000020: 0400 0000 0400 0000 0400 0000 0400 0000
00000030: 0400 0000 0400 0000 0400 0000 0400 0000
00000040: 0400 0000 0400 0000 0400 0000 0400 0000
00000050: 0400 0000 0400 0000 0400 0000 0400 0000
00000060: 0400 0000 0400 0000 0400 0000 0400 0000
00000070: 0400 0000 0400 0000 0400 0000 0400 0000
00000080: 0400 0000 0400 0000 0400 0000 0400 0000
00000090: 0400 0000 0400 0000 0400 0000 0400 0000
000000a0: 0400 0000 0400 0000 0400 0000 0400 0000
000000b0: 0400 0000 0400 0000 0000 0000 0400 0000
000000c0: 0400 0000 0400 0000 0400 0000 0400 0000
000000d0: 0400 0000 0400 0000 0400 0000 0400 0000
000000e0: 0400 0000 0400 0000 0400 0000 0400 0000
000000f0: 0400 0000 0400 0000 0400 0000 0400 0000
6e-45 6e-45 6e-45 6e-45 6e-45 6e-45 6e-45 6e-45
6e-45 6e-45 6e-45 6e-45 6e-45 6e-45 6e-45 6e-45
6e-45 6e-45 6e-45 6e-45 6e-45 6e-45 6e-45 6e-45
6e-45 6e-45 6e-45 6e-45 6e-45 6e-45 6e-45 6e-45
6e-45 6e-45 6e-45 6e-45 6e-45 6e-45 6e-45 6e-45
6e-45 6e-45 6e-45 6e-45 6e-45 6e-45 0.0 6e-45
6e-45 6e-45 6e-45 6e-45 6e-45 6e-45 6e-45 6e-45
6e-45 6e-45 6e-45 6e-45 6e-45 6e-45 6e-45 6e-45

batch_norm.running_var f4 [64]
00000000: 0400 0000 0400 0000 0400 0000 0400 0000
00000010: 0400 0000 0400 0000 0400 0000 0400 0000
00000020: 0400 0000 0400 0000 0400 0000 0400 0000
00000030: 0400 0000 0400 0000 0400 0000 0400 0000
00000040: 0400 0000 0400 0000 0400 0000 0400 0000
00000050: 0400 0000 0400 0000 0400 0000 0400 0000
00000060: 0400 0000 0400 0000 0400 0000 0400 0000
00000070: 0400 0000 0400 0000 0400 0000 0400 0000
00000080: 0400 0000 0400 0000 0400 0000 0400 0000
00000090: 0400 0000 0400 0000 0400 0000 0400 0000
000000a0: 0400 0000 0400 0000 0400 0000 0400 0000
000000b0: 0400 0000 0400 0000 0400 0000 0400 0000
000000c0: 0400 0000 0400 0000 0400 0000 0400 0000
000000d0: 0400 0000 0400 0000 0400 0000 0400 0000
000000e0: 0400 0000 0400 0000 0400 0000 0400 0000
000000f0: 0400 0000 0400 0000 0400 0000 0400 0000
6e-45 6e-45 6e-45 6e-45 6e-45 6e-45 6e-45 6e-45
6e-45 6e-45 6e-45 6e-45 6e-45 6e-45 6e-45 6e-45
6e-45 6e-45 6e-45 6e-45 6e-45 6e-45 6e-45 6e-45
6e-45 6e-45 6e-45 6e-45 6e-45 6e-45 6e-45 6e-45
6e-45 6e-45 6e-45 6e-45 6e-45 6e-45 6e-45 6e-45
6e-45 6e-45 6e-45 6e-45 6e-45 6e-45 6e-45 6e-45
6e-45 6e-45 6e-45 6e-45 6e-45 6e-45 6e-45 6e-45
6e-45 6e-45 6e-45 6e-45 6e-45 6e-45 6e-45 6e-45

fc2.weight f4 [2, 64]
00000000: f984 343d 5bb4 a73d f438 b2bc 0670 ee3c
00000010: 76df 2d3d a345 30bd 28ba 01bd 1fc8 af3d
00000020: b315 813d b404 a9bc a91c 903d cd71 643c
00000030: 6733 a03b 5316 21bd 4094 32bd b0fa 17bd
00000040: 9883 9fbd 8473 08bd 2867 843c 71a8 2abc
00000050: f591 41bd 9105 8cbc d167 27bd d328 44bc
00000060: 3dbb 4f3d f8c5 973d c578 7a3d 90f5 d4bc
00000070: 7418 bbbc 3e32 b6bd 8128 543b 8632 bfbd
00000080: b9e5 963d f7dd b13c 820e 70bc d768 debc
00000090: d96b e3ba 77fc 4d3d 2f2a 20bb 268c 93bd
000000a0: 3fcb a8bc ae44 bebd 6892 cebd 3690 6d3c
000000b0: 6413 d83d bb29 64bd 255f 0d3c e573 ecbd
000000c0: e963 34bd e3c2 ecbc 874e d93c 7ebd 533b
000000d0: d29d 88bc babd 903d db7d 93bd 9db3 a5bd
000000e0: 4b6b 8ebd 4b84 893c 199e c2bc 6151 0d3c
000000f0: 5329 19be ed67 e83a 3b4a 3fbc 92cd 26bb
00000100: 5cc9 383d 50c4 a63d 1959 d3bc d3b4 473a
00000110: b01f 5e3c 87ad 1bbd 4895 efbc c887 ae3d
00000120: 617d bf3c a1b8 dfbd 3b1a 8f3d 5525 6c3b
00000130: 7fb2 4e3b 470c adbd 189f 45bd 980a 1cbd
00000140: 7d8a a9bd a7d4 15bd 2cbf 563c 74ed 68bd
00000150: 19c9 18bd 73f4 e8bb de0f 453c 86db 25bc
00000160: abc8 eb3c 6952 7c3d b959 9e3d 4978 f0bc
00000170: 8726 d9bc 466c c4bd 55d0 7a3c 2b68 bfbd
00000180: 5a0f 953d 8713 a63c 6d4d 2bbc a7f9 f8bc
00000190: ed0f 42bb 9542 583d 3d72 ffba 75cb 93bd
000001a0: c002 b8bc 7768 c6bd d9d4 d1bd 3d97 fc3b
000001b0: 1b20 923d 74f0 5abd 2a8a 5d3d 23cc 04be
000001c0: 3ae2 3bbd e053 f4ba 0ec0 c43c 7e62 893b
000001d0: 822f 69bc 0cd6 873d 13d9 e9bd a597 a2bd
000001e0: 9138 7dbd 3c32 a53c c31b b3bd 9d05 8c3b
000001f0: 2edb 4dbd 5e62 98bc 2c9e 683c 07e3 45bb
0.044072125 0.08188697 -0.021755673 0.029106151 0.042449437 -0.04303516 -0.031671673 0.08583092
0.06302967 -0.020632125 0.070367165 0.013943148 0.00488894 -0.03932793 -0.043598413 -0.03710431
-0.077887714 -0.03331329 0.01616247 -0.010416136 -0.047258336 -0.017092498 -0.04087049 -0.011972624
0.050715674 0.074108064 0.06115033 -0.025996 -0.022838809 -0.08896302 0.0032372775 -0.093358085
0.07368035 0.021712286 -0.014651896 -0.0271496 -0.0017350867 0.050289597 -0.0024439206 -0.072044656
-0.020604728 -0.09290443 -0.100865185 0.014499715 0.105505735 -0.05570386 0.008628641 -0.11545543
-0.044040594 -0.028901523 0.026526703 0.003230899 -0.016676817 0.070674375 -0.072017394 -0.08090899
-0.06954058 0.016786715 -0.023757027 0.008625359 -0.1495717 0.0017731168 -0.011675413 -0.002545212
0.045113906 0.081429124 -0.025799321 0.00076181925 0.01355736 -0.038007285 -0.029245988 0.08521992
0.023375215 -0.10923887 0.06987425 0.0036032994 0.0031539497 -0.08449607 -0.048247427 -0.03809604
-0.08278368 -0.036579754 0.013107102 -0.056867078 -0.037301157 -0.0071092187 0.012027709 -0.010123139
0.02878221 0.06160203 0.07731957 -0.029354231 -0.02650763 -0.09590964 0.015308459 -0.0934604
0.07278319 0.020272983 -0.010455471 -0.030392481 -0.0029611543 0.052797873 -0.0019489002 -0.07216541
-0.022462249 -0.09687894 -0.102456756 0.0077084587 0.0713503 -0.05345197 0.05408684 -0.12968497
-0.045870043 -0.0018640719 0.02401736 0.0041926494 -0.014232518 0.06632623 -0.11418357 -0.0793908
-0.061821524 0.020165555 -0.087455295 0.00427313 -0.050257854 -0.018601593 0.014197867 -0.0030195133

fc2.bias f4 [2]
00000000: 8886 d03b ce72 7cbb
0.0063636936 -0.0038520577
