models/BTS/classifier_fold2.pth (torch, 991712 bytes, 16 tensors)

conv_layers.0.weight f4 [64, 256, 2]
00000000: f82f 6d3b 9a87 3d3d 216d f3bb 08e9 3d3d
00000010: a4bf 26bd f45c 53bd 4a8b abbd 920d 613d
00000020: f0ed 1fbc 7270 39bd 59c4 cebd 19b9 ddbd
00000030: 5de2 52bb 813f 19bc 38f8 ea3c b706 01bd
00000040: 8960 c53d 0323 3f3d 56b1 9cbc e76a 843c
00000050: 9324 0a3d 4bd2 1bbd ef76 a4bd 03c8 a0bd
00000060: 7564 173d fe86 23bd 3730 b8bb 4c13 8f3c
00000070: 8b01 cb3c ea29 15bc ae31 993b b19a 183a
00000080: 923d 713d d8b3 943d 90a9 29bd 03de d4ba
00000090: 1e56 4cbd ea5d beba 496f 40bd ab7c 49bd
000000a0: 5593 163d 1c8e f7bc d988 35bc 9483 0bbd
000000b0: 6f2b 253d 2240 44bc c2a6 363d 8f25 823c
000000c0: f096 b03c bb53 963d 05ac e63d 7149 0b3d
000000d0: 4feb 303c 903e 17bd d624 bb3c b674 a23b
000000e0: 3ef0 21bb 6701 b7bb 667f 0fbe 0909 12bc
000000f0: b994 34bc 9679 2e3d ee79 813a 53d1 78bd
00000100: ee26 873d e820 b13d 9091 743c c430 643d
00000110: 4bb5 42bd 684a d03c ef53 0d3c 2828 983d
00000120: 0f79 093c 2ca4 43bd a9a2 eebc f8f9 dcbc
00000130: c187 313d 65a6 67bb 1839 1c3d 963f abbc
00000140: 645f b6bd ee0d 943d 8fe8 cd37 a20a 39bd
00000150: c562 05bb 5977 233d 9346 87bd 0830 80bd
00000160: a564 a0bd 85d1 703c f261 113d 16e2 8d3b
00000170: a7cc 113c 6436 88bd 0f67 a9bc 903e 243b
00000180: 42fd b03c b40a cbba ee89 b8bd d396 a83c
00000190: b4fb 523d 216c 6abd 6560 893b 976a 45bd
000001a0: d14a 05bd c680 493c 19bd e7bc 0b90 17bd
000001b0: 3c7b ad3c 7167 6cbd 2d91 05bd 6f86 a2bc
000001c0: c2fa 1a3d 35a4 f4bc a717 bf3d c60a 4b3b
000001d0: b569 37bd cbc7 ccbc 6d71 053d 947e 89bc
000001e0: 7769 0d3d 3e80 f03c 9570 8dbd 2fde d0bd
000001f0: 1ae2 03bd aae5 d23c 0b18 a03d a1fe e33a
00000200: d920 17bd d1f1 9dbd 5992 2e3c 83a0 513c
00000210: 99d7 083d 5b82 7bbd 3c5b 7b3c eabb 54bd
00000220: ca55 d43c 8d4e 8fbd 35fb 39bd 36a0 603d
00000230: 5f23 b23d 59f7 65bd 7e25 4b3d 51d3 3c3b
00000240: 32eb 3abd 37d2 98bc 98f0 dc3a e314 173c
00000250: ce6e 7abd fa26 13bd 3644 94bd ddce 5d3c
00000260: 4ed6 743c 5526 b53c 55f8 18bd 4891 8e3d
00000270: 4066 67bc 456c 9ebd 3db1 b5bb 840d 283c
00000280: 507a ba3c db3e 23bc 7743 24bd 821d 16bd
00000290: 1aa1 8bba 057f 1a3d 2838 5b3c c1da 10bd
000002a0: c9df 89bd 8e66 ed3c e68e d43c 5d2d d13c
000002b0: 4e42 eabc 8ae4 00bc 39ad 183d 2037 d0bc
000002c0: 4c46 023b 371f cbbc 56ab bc3d 829a 1cbd
000002d0: 1565 b63d 58f6 b43d 8f10 edbc f315 bbbc
000002e0: 03fe dcbc 3a64 23bd 3c7d 583d 53d0 9e3c
000002f0: a884 9f3c 83d9 f2bc 6270 4cbd fd42 e2bd
00000300: b1c3 69bd 3ac5 61bb 269a 8c3a c8d5 893d
00000310: e2d7 9d3c b46d 93bc 7f9a 61bc e64b b53b
00000320: 095c 8f3c 90c9 92bd c860 813d cbf9 99bd
00000330: de7c 19b9 b07a a53b aa7f 223d 23b3 943d
00000340: 0ccf 613a 3064 11bd 2c20 37bd ecbc 6f3d
00000350: df3f 8bbd f690 c43b 93b0 2f3d 64e1 25bc
00000360: 6efc 68bd 95f7 013d 9cfb b33d d388 82bc
00000370: 7c19 6c3b b22e d23c 6a41 4f3c dd4a 123d
00000380: f762 e1bd 9e6c d5bc 8ce7 e73c 26c4 5e3c
00000390: e530 b53c fa47 26bd c0aa 183d b254 a538
000003a0: a2f6 a93d 0e5b 153c b76a ae3d 9d1e 38bd
000003b0: cddf 4e3c b7d6 fb3c e9fa 6e3d f760 93bb
000003c0: 9382 c3bd e3f4 8d3c 12e3 753d 81ba 543d
000003d0: 654f 4c3d 15ff 4c3d e38a 1c3e 65b3 b7bc
000003e0: 2df8 5e3c d3f7 943c a1ea 37bd b9f6 49bd
000003f0: e11b cbbc ec55 d5bc 7b6e 103d 0fb4 0a3d
0.0036191922 0.046271898 -0.0074287807 0.046364814 -0.040710106 -0.05160232 -0.08376177 0.054944582
-0.009761319 -0.04527325 -0.10096044 -0.1082632 -0.003217838 -0.009353519 0.028682813 -0.031500544
0.09637553 0.04666425 -0.01912753 0.016164256 0.033726286 -0.038042348 -0.08030497 -0.07850649
0.036961038 -0.03992366 -0.005620982 0.017465256 0.02478101 -0.009104231 0.0046751117 0.00058213907
0.05889661 0.07260865 -0.041421473 -0.0016240481 -0.049886815 -0.0014523838 -0.04698113 -0.04919116
0.0367616 -0.03021913 -0.01107999 -0.03406103 0.040324625 -0.011978181 0.044592626 0.01588705
0.021556348 0.07340189 0.11263279 0.034005586 0.010798289 -0.0369249 0.022844713 0.0049577607
-0.0024709846 -0.005584884 -0.14013442 -0.008913287 -0.011021786 0.042596422 0.0009878257 -0.060746502
0.06599222 0.086488545 0.014927283 0.05571057 -0.047536176 0.025426105 0.008625968 0.07429534
0.008390679 -0.04776399 -0.029130297 -0.026974663 0.043342356 -0.0035346982 0.038140386 -0.020904344
-0.08904913 0.072292194 2.4546198e-05 -0.045176156 -0.002035306 0.03990874 -0.06605258 -0.06259161
-0.078316964 0.014698391 0.0354938 0.00432993 0.008898891 -0.06650999 -0.020679025 0.0025061704
0.021605138 -0.0015490861 -0.09010683 0.020579731 0.051509574 -0.057232026 0.0041923993 -0.048197355
-0.032542054 0.012298768 -0.028288411 -0.037002604 0.021176927 -0.057715837 -0.032609154 -0.019839494
0.037836798 -0.029863456 0.09330683 0.0030981763 -0.044778544 -0.024997612 0.032578874 -0.01678399
0.034524407 0.029358026 -0.06906239 -0.10198628 -0.03219805 0.025744278 0.07817086 0.0017394611
-0.03689656 -0.077121384 0.010655009 0.012794617 0.033408735 -0.061403614 0.015341576 -0.05193702
0.025919814 -0.06997404 -0.045405585 0.05484029 0.08698153 -0.056144092 0.049596302 0.0028812478
-0.045634456 -0.018654926 0.001685637 0.009221288 -0.061140828 -0.035925843 -0.07239573 0.01353809
0.014943672 0.022113005 -0.037346203 0.06961304 -0.014123499 -0.077354945 -0.00554481 0.010257129
0.022763401 -0.009963716 -0.040103402 -0.036649235 -0.001065287 0.03771879 0.013380088 -0.03536487
-0.06732137 0.028979566 0.025947046 0.025534326 -0.02859607 -0.007866988 0.037274573 -0.02541691
0.0019878326 -0.024795158 0.09212367 -0.038233288 0.089059986 0.08836049 -0.02893856 -0.022837615
-0.026976591 -0.039890505 0.052853808 0.019386446 0.019472435 -0.029644733 -0.049911864 -0.11047933
-0.05707139 -0.0034449832 0.0010727092 0.06730229 0.01926798 -0.017996646 -0.013769745 0.0055327294
0.01749994 -0.07167351 0.06317288 -0.07518347 -0.00014637734 0.005050026 0.03967253 0.0726073
0.0008613921 -0.035495937 -0.044708416 0.05852978 -0.06799292 0.005998726 0.042893004 -0.010124538
-0.05688136 0.031730253 0.08788225 -0.015934383 0.0036025932 0.025657032 0.012649873 0.035715926
-0.11005204 -0.02605277 0.028308652 0.01359657 0.022118041 -0.040595986 0.037272215 7.883589e-05
0.082989946 0.009115947 0.08516448 -0.04495107 0.0126266 0.030742032 0.058344755 -0.004497643
-0.095463894 0.017328685 0.060031004 0.051935676 0.049880404 0.050047953 0.15287356 -0.02242441
0.013608974 0.018184578 -0.044901494 -0.04930756 -0.024793567 -0.026041947 0.035261612 0.033863124

conv_layers.0.bias f4 [64]
00000000: 0671 4ebc 2a04 cc3d 0487 8ebc 6a64 70bd
00000010: a4cb da3d 4024 ec3c 931e 8bbd e94d 4a3c
00000020: adab 93bd 024c 03be ec1e 4d3d b9ed 5e3d
00000030: 27aa 523c 5873 0a3b b65f 95bb 5705 1bbd
00000040: 7624 9ebb 7b67 d73c bc05 ba3d fad1 b2bc
00000050: b148 603c 75a7 e73d 361a afbb 0eec 97bb
00000060: 480c a13d 1b72 65bd 8e1b 363d ae47 2dbc
00000070: d91c 4abd bbf4 a0bb 3305 a2bc d99d 273d
00000080: 3544 bfbd 3882 eb3d 8ca8 a0bd 3a6b 3b3d
00000090: fd45 7b3d 9ee2 05bb 3340 36bd 643a d63d
000000a0: 1119 07bc dc89 9bbd 652f 1dbb 151d f7bc
000000b0: d97a eb3c 6b85 fb3b 60ee 1bbd 1d71 ad3c
000000c0: 79f8 76bd 34d3 60bb 2962 823d 8fc9 ce3c
000000d0: 2197 8abd d415 aa3c 81eb 053d ff7a 013d
000000e0: 7693 49bd 89f6 00bd 89cb b13d 3e66 453d
000000f0: d538 2f3c af80 04be 3a4e e4bb 6035 71bd
-0.012600189 0.09961732 -0.017398365 -0.058689512 0.106833726 0.02882588 -0.06792941 0.012347677
-0.07210479 -0.12821963 0.050078318 0.05442593 0.01285795 0.002112588 -0.004558529 -0.03784689
-0.004826124 0.02629446 0.09083125 -0.02182864 0.013689206 0.11311237 -0.0053437008 -0.004636294
0.078636706 -0.056017023 0.044459872 -0.010576172 -0.049343918 -0.0049119866 -0.01977787 0.04092202
-0.09339181 0.11499447 -0.07844648 0.045756556 0.061346043 -0.0020429264 -0.04449482 0.10460356
-0.008245722 -0.07594654 -0.0023984548 -0.030165235 0.028745102 0.007675817 -0.03806913 0.0211721
-0.060295556 -0.0034305574 0.06366379 0.025242595 -0.06767107 0.020762362 0.032695297 0.03161144
-0.049212895 -0.031485114 0.086813994 0.04819321 0.010694702 -0.12939714 -0.006967333 -0.058888793

conv_layers.1.weight f4 [64, 256, 3]
00000000: be9d 2fbd e3d1 813c a8e9 073d 4fdd 883d
00000010: 435f 943d 8515 d73c 13e8 92bd 49ad 3f3d
00000020: 6cbb 293d 1142 893d 8e54 333c fb6c 44bd
00000030: 8470 2dbd 7387 efbc e8d6 903d cb5d d63d
00000040: 11eb 0e3c 0b53 953c 8dab 49bd b514 bfbc
00000050: 7318 283d 40e4 17bd 8db4 843c 94b8 053d
00000060: cb3d 803c 389c aabd 96d9 1ebd 233c 873d
00000070: 3d1c ac3c 633f 0fbd af6a 7bbd 5227 fbbd
00000080: b143 6bbd 660b 623c dd33 a6bc cc0f f53c
00000090: 2ee0 a1bc 4233 e93c cd09 aa3d 93ed 7d3d
000000a0: bb99 9d3b b2c5 62bd d03d a2bb 3352 943c
000000b0: 0b14 49bc 400d c53c 9eb4 6e3d a72a f5bc
000000c0: bf09 d33c ea4a d0bc e502 253d 01ec 6f3d
000000d0: 23d1 b1bc c4ba 183d c223 7dbb 0076 41bd
000000e0: b03b 0fbd 8a17 f73c f445 f43c 453a 793d
000000f0: a641 65bd 9f92 1d3e ef0a c13d e5ff ea3c
00000100: 1efa 24bd 0c2e 91bc c1ef 373d b468 f1bc
00000110: c68a 523d 48a7 19bd d932 103d 7b5f 72bc
00000120: 9a07 86bd cdc0 633d b415 d7bb 1dda d73b
00000130: ca2b bb3c 2325 91bc 7b58 64bd 63fe d6bc
00000140: 87f0 19bb 767f a53d 7e63 e83c 78b4 5fbd
00000150: 715e 14bd 959d a8bc f3b0 72bd fdc5 923c
00000160: 6bba 883c c383 5abd 8f64 3db9 7c49 b33c
00000170: 0b1c f5bc 648a 84bc bb6f f43c a8ce 69bc
00000180: b393 66be 884c 31bc 46c8 73bd ef8a 693d
00000190: f9d4 2e3d 9113 29bd 1b0e f33b e4e8 c2bc
000001a0: 9cec 96bb 3c18 84bc 7047 ce3d 7710 523d
000001b0: dccc 75bc c651 d7bc 5a33 07bd f4ee 90bb
000001c0: 2446 9bbc a044 7d3b 9774 20bd afc2 cf3d
000001d0: c9cc 813d 39f1 4cbc fb9a f2bc a9ae 27bb
000001e0: 212e bb3d d1e9 83bd 9893 663c 132f 893c
000001f0: b721 37bc 602f bfbc 3c6a b63d 4308 c23b
00000200: ce98 16bd 00c0 25bc aac8 74bb 0c85 3d3c
00000210: 597e d6bd 06ba cd3b b815 7dbd edb9 beba
00000220: 40f4 083d bb71 33bd e812 4b3d 752b 753c
00000230: 1598 303d c494 1c3d d3f1 c13d 6a84 4f3b
00000240: 21fd 0dbd 9b67 133c 9012 21bd c7a9 743d
00000250: aeb0 7b3c 46dc 88bd fe95 18bd 34f7 0a3e
00000260: f7ac f1b8 654a 0f3d d72f 3abd abbe 1abc
00000270: df80 b8b9 2648 92bd cbea 7f3c fb7b 44bd
00000280: 2119 26bd 584a bbbd 56c4 dcb8 b457 8e3c
00000290: e6fd 373d ecba 99bd 676e 4d3c f9bf 6bbd
000002a0: e30d 863c 44ec 69bc d5b5 313d dbc9 15bd
000002b0: 3400 15bd 93ed 143c 5471 a33d 7fed b23b
000002c0: 31d2 a8bb 5720 ce3d 6b01 6ebd bd0d 13bc
000002d0: d27e 3f3c a40d 47bc b15d 04bd d35e 943d
000002e0: 3f22 e3bd 630b 3bbc 7a83 f5bc d18e 52bc
000002f0: 68b2 1fbc f12d f1bb 6909 74bd 86e1 e8bb
00000300: b2e5 903c 4ce7 41bd 48f9 49bb 0574 aa3d
00000310: ad5e 4c3c b43d 963c 40d2 65bb 635d 133c
00000320: 144c 43bd 83c6 e6bd 7c43 933c a715 9dbc
00000330: 79a5 afbc dbb4 9b3d 025e b33d 14d0 483c
00000340: d375 0dbd c02f eabd e76e df3b de63 7cbd
00000350: d24d 51bd 9106 f03d 6df9 a6bc f6e2 483c
00000360: de75 fa3c 4d86 32bd 1a92 ef3c 62f9 b23d
00000370: 60b5 163d 61df 40bd d316 d0ba 13b3 2dbd
00000380: fed8 1abd 79f2 ebbc 0a29 173c f9c0 debc
00000390: ea93 0e3c 93bb 6b3d 3976 193d 9304 673d
000003a0: bdcd 54ba 8550 10bb abd8 5fbd 8081 5b3d
000003b0: c98a 1bbd ec06 0a3c d902 8d3d 5097 fdbc
000003c0: 087b 023d f05c 16bc 9bb1 8abd e2be 343d
000003d0: b76a 2fbd 9691 783d 9c80 d8bc 7fd8 a63c
000003e0: cb67 5fbc 600d 20bd 93dc f03d a48a bb3c
000003f0: 0b9f bb3c 0769 a3bc f6f9 973d ff14 e13a
-0.042875044 0.015847152 0.033181816 0.06682836 0.07244732 0.026255378 -0.07173171 0.046796117
0.041438505 0.06702054 0.010945452 -0.047955494 -0.04234363 -0.029239392 0.0707224 0.10467108
0.008723036 0.018228075 -0.04923587 -0.023325304 0.04103894 -0.03708291 0.016199375 0.03264673
0.015654465 -0.083305776 -0.038781725 0.06603267 0.021009559 -0.03497256 -0.06138104 -0.12263359
-0.057437602 0.013796663 -0.020288402 0.02991476 -0.019760218 0.028466824 0.083026506 0.061994147
0.004809586 -0.05536432 -0.0049512163 0.018105602 -0.012272845 0.02405417 0.05827772 -0.029927565
0.025761483 -0.025426347 0.040285964 0.05857468 -0.02170617 0.03728749 -0.003862605 -0.047231674
-0.03496903 0.030162591 0.029818512 0.060846586 -0.05597081 0.15387963 0.094259135 0.028686473
-0.040277593 -0.017722152 0.04490638 -0.029468872 0.051401876 -0.037513047 0.035204742 -0.014793272
-0.06544419 0.05560379 -0.0065638665 0.0065872804 0.022848029 -0.017717903 -0.055748444 -0.026244348
-0.0023489313 0.08080952 0.028367754 -0.054615468 -0.03622288 -0.020582953 -0.059250783 0.017916674
0.016690454 -0.053348314 -0.00018061906 0.021885626 -0.029920598 -0.016179271 0.029838433 -0.014270462
-0.2251728 -0.010821469 -0.059517168 0.057017263 0.042683575 -0.041278426 0.007417453 -0.023792692
-0.0046058428 -0.016124837 0.10072219 0.051285233 -0.015002456 -0.02628411 -0.033007957 -0.0044230167
-0.018954344 0.003864564 -0.03917369 0.10144555 0.06337888 -0.012508684 -0.029614916 -0.0025586283
0.09139658 -0.06441081 0.014073275 0.01674608 -0.011177472 -0.02333802 0.08906981 0.005921395
-0.03676682 -0.010116577 -0.003735105 0.011567365 -0.10473318 0.0062782792 -0.06178829 -0.001455126
0.03343606 -0.043809634 0.049578577 0.014963974 0.043113787 0.03822781 0.094699524 0.0031664618
-0.03466523 0.008996869 -0.039324343 0.059732225 0.015361948 -0.06682639 -0.03725242 0.13570863
-0.00011523993 0.034983058 -0.04545578 -0.009444873 -0.0003519123 -0.071426675 0.015619944 -0.0479698
-0.04055131 -0.09145039 -0.00010526988 0.017375804 0.04491987 -0.07506356 0.012538529 -0.057556126
0.016364044 -0.0142775215 0.0433863 -0.036569458 -0.036377147 0.009089845 0.079806 0.0054604406
-0.00515201 0.10064762 -0.05810682 -0.008975443 0.011687951 -0.012149248 -0.032315914 0.07244649
-0.11090516 -0.011416289 -0.02996992 -0.012851433 -0.009747125 -0.007360213 -0.059579287 -0.0071069626
0.017687652 -0.047339723 -0.003081875 0.0832291 0.012473744 0.01833997 -0.0035067946 0.008994433
-0.047679976 -0.11268332 0.017976515 -0.019175364 -0.021441208 0.07602855 0.08758165 0.012256641
-0.034536194 -0.11434889 0.0068186405 -0.06161868 -0.051099606 0.117200024 -0.020382607 0.012261143
0.030573782 -0.04358511 0.029244471 0.08738972 0.036794066 -0.04708803 -0.0015875943 -0.042407107
-0.037804596 -0.028802143 0.009226093 -0.027191626 0.008702258 0.05755193 0.03746626 0.056400847
-0.00081178156 -0.002202065 -0.05464999 0.053590298 -0.037974153 0.008424502 0.06885309 -0.03095594
0.031855613 -0.009177431 -0.06772157 0.044127353 -0.04282638 0.060685717 -0.026428513 0.020366905
-0.013635586 -0.039075255 0.11760821 0.022893257 0.022902986 -0.019947542 0.07420723 0.0017172395

conv_layers.1.bias f4 [64]
00000000: 1850 13be def7 50bc 5d3f 4abd 3bf5 c53b
00000010: 3e13 c13c a007 103d 0de5 b23d 12c7 b33d
00000020: bec8 ee39 c248 4738 a527 e43b ae9b a93d
00000030: b69a b63b 025e 66bd f98e a5bd 8e67 64bd
00000040: e207 95bd ecb0 8d3c 434a 5c3c b6ac 94bd
00000050: 3ba5 823c 9611 27bc 12f2 e23d 7c37 73bd
00000060: dc67 9e3d 054d c93c b2fb 8d3d cf33 febb
00000070: e3d1 9c3d 1504 d23c a0aa 66bd 1b45 b33c
00000080: 1954 493d ea15 e43c 634c 27bd a4f5 08bc
00000090: 15f6 30bd dfef 8c3d 9cf3 583d 53c3 96bb
000000a0: 3256 3bbd 14c3 153c 08b3 e53c e467 f03c
000000b0: c271 293d f819 4abc 55e8 50bc 95c1 503d
000000c0: bc8e 0dbd f958 7f3c 1500 823d 70f1 87bb
000000d0: 3f05 ac3a ec89 89bc 0547 4b3c 5bb9 013d
000000e0: 9ba9 b63d 04c9 3e3d c7cc 09bd aac3 4dbd
000000f0: 5ba0 733d 0a07 063d 0a54 3dbd 320f b6bd
-0.14386022 -0.012754409 -0.049376834 0.0060411966 0.023568746 0.03516352 0.08735094 0.08778204
0.00045544462 4.751306e-05 0.006962734 0.08281647 0.005572642 -0.056241997 -0.080839105 -0.05576282
-0.07276894 0.017296277 0.01344544 -0.072595045 0.015947929 -0.010197064 0.110813275 -0.059379086
0.07734653 0.024572859 0.06932773 -0.007757641 0.0765722 0.025636712 -0.056315064 0.021883538
0.049152467 0.02784248 -0.040844332 -0.008359347 -0.043203432 0.06881689 0.0529667 -0.004600921
-0.0457365 0.0091407485 0.02803947 0.029346414 0.041368254 -0.012335293 -0.012750705 0.050965864
-0.03455995 0.015585178 0.06347672 -0.0041486546 0.0013124122 -0.0167894 0.012407069 0.03167091
0.089190684 0.046578422 -0.033642557 -0.050235428 0.0594791 0.032721557 -0.046222724 -0.08889617

conv_layers.2.weight f4 [64, 256, 4]
00000000: e9f3 643c 370a a9bd c511 40bb 9c9d 573c
00000010: 9c51 9cbc 15eb 3f3e e20d 843d 9f43 9b3c
00000020: b903 89bd 67a9 ca3c 1295 8bbb fb8d a33c
00000030: 5258 933d b55e 58bd 4fde b0bc d5a0 10bd
00000040: 7d68 4fbd 5e3f 643c f459 d3bd e251 1cbd
00000050: a768 10bd 751e 7c3c 4792 3dbd 50a3 1cbd
00000060: eb29 7d3d 81c9 153c d7ee 133d b5e7 8fbb
00000070: 50e6 bb3d 1f90 733d 4dae 023d 25d4 8dbb
00000080: 8445 1c3d 19bc c9bc c6b8 a3bd 041f 11bd
00000090: 99de f8bb 9bb1 123d 4a8a 0bbd 0d42 f53c
000000a0: 60c7 be3d f1cb 0c3d 2a15 76bc 3fc4 9abd
000000b0: 31da 50bd f65e bfba 4d14 683c b816 af3c
000000c0: 60a0 2bbb 810b 843d ac62 95bd 6547 b93c
000000d0: 4685 40bd 0e8f 8b3c 20e8 bd3d 6bcd 1cbd
000000e0: 35c8 34bd f455 553c e66e 873c afab 93bd
000000f0: 26e1 48bb 6247 84bc dfe5 1a3d 5f16 4d3c
00000100: 4d41 7dbd 3a05 ca3c 716d 9b3d 32d7 453d
00000110: 261d c33c 195b 24bd 67f8 cabc 6466 a03c
00000120: cf86 9cbc 2751 be3b 5d29 36bd 401b d03c
00000130: 1b82 4cbd 5f68 453d 68be cdbc 5fa7 fc3c
00000140: 1f9f 6cbd 93de 7f3c bc9c b4bc 5aab 4c3d
00000150: e076 8ebc 0e79 8ebd a6c6 9c3d d703 6f3d
00000160: 6a05 64bd fcbf 293d e99a 4cbd 243b 363d
00000170: e2d3 c83c b733 953d a0a7 acbd a5c6 cdbb
00000180: 2187 6dbb 65df 28bd 0c14 f9bc 76c4 d03d
00000190: b193 053d cac6 b6bc 5114 163d c84b e93c
000001a0: 0583 223b 4d27 b3bd 5132 9bbc 768e dd3c
000001b0: 0251 8d3c 3e76 5abd dfc4 32bd c389 9b3d
000001c0: c4be dfbd 935c 30bc 7946 48bd 49a7 a1bc
000001d0: c4fa 8cbc 1921 4dbd aed8 b1bd 4e6f 7c3d
000001e0: cb36 663d b46a a3bd 86bc 9b3d 984c 93bd
000001f0: db04 01bd a945 f3bc 204e 323d 298f 7bbc
00000200: 8a3c 3e3d a2e7 42bd db67 53bd 4ea9 633d
00000210: 99a4 71bb cb35 f43b 694a 2d3d 38b2 6c3c
00000220: 8d9e c93c 6f1a 24bd ee80 60bc 7939 dabc
00000230: 3c79 963c 62ae 05bd 9f18 dc3d db63 e0bc
00000240: 6c80 36bd d9df 4b3d bacc bc3c a959 eabd
00000250: 1ff2 4fbd 89d3 ab3d d896 7cbc 26d4 b4bd
00000260: 30b3 35bd 78de 873d 39ae a03d 81b5 9a3d
00000270: fc1b ef3b 8f8a 503d 3d6d c3bd b795 fabb
00000280: c76a a23c 61d9 ae3b 83ac 4e3d 0b05 ac3b
00000290: ae66 76bd 289f f3bd 8270 a13d c838 12bd
000002a0: 299a 8ebd 17fc e73c 86c7 5bbc de44 35bd
000002b0: 05cb b9bc bffb 8cbc 1075 f9ba 1161 e43c
000002c0: b44a 323d 51f2 e73b 5544 f23b 899f 6aba
000002d0: 3ae0 edbc e634 07bd ca5e bb3d b4d5 a6bc
000002e0: b7fb 9cbc 60b0 923d 5c2b 39bc 2835 8d3c
000002f0: 3f8f 3dbd cf76 9abc 8f1a c73d dd72 1cbc
00000300: 85ff 36bd 8f14 093c aff9 9abc 3d30 803c
00000310: bce4 243d fdf6 5fbb c054 bb3c 2396 133d
00000320: eba2 a53d 8df1 abbd dc35 9abd 2b2e aa3d
00000330: 57df 6f3d 4d0d b6bb 2f86 3fbb ba7a 583d
00000340: 019d eb3c e3a4 7e3d 0915 4e3b bb16 c8bd
00000350: a02e df3c a625 d9bd b534 233c ce41 61bd
00000360: ec56 e5bc 3e02 3ebd d6ae 01bd d039 a9bc
00000370: f453 5c3b 494b 38bd 80fe 85bc 0f34 533d
00000380: dab0 70bc ed81 9b3c f68c 64bd 2250 7cbc
00000390: 9d3a a5bd f016 d5bc bdab 2d3d f188 f63b
000003a0: 4cb6 933d 695b d23b eb6f 28bd 0166 9a3d
000003b0: 3806 b33c 48e1 e4bc 3b6d ca3d 3c0b 5dbd
000003c0: 6323 0cbd bd05 b2bc 9f56 18bd 7a9f 27bd
000003d0: cef9 4a3c 77ec 633d 2d3d d6bc febd a83c
000003e0: 3278 383c e802 95bb 155c ad3d c3b4 c23c
000003f0: 7dad ccbc 02ab e43c ae1a 463d c0b4 803d
0.013974168 -0.082539015 -0.0029307466 0.013160136 -0.019081883 0.1874202 0.064479604 0.018953143
-0.06690163 0.02473898 -0.004259714 0.019965163 0.0719458 -0.052824695 -0.02159038 -0.03530963
-0.050636757 0.013931124 -0.103198916 -0.038164027 -0.035256054 0.015388121 -0.04628208 -0.038241684
0.061807554 0.009142281 0.036116447 -0.0043916353 0.09174788 0.059463616 0.031904507 -0.004328268
0.038152233 -0.024625825 -0.07994227 -0.03542997 -0.007594895 0.03581391 -0.03406743 0.029938722
0.093153715 0.03437418 -0.015019694 -0.07556962 -0.050989334 -0.0014600444 0.014164996 0.021373138
-0.002618812 0.06447507 -0.07294211 0.022617051 -0.0470021 0.017035987 0.0927279 -0.03828184
-0.044136245 0.013020981 0.016532373 -0.072104804 -0.0030651777 -0.01614732 0.03781688 0.012517541
-0.061829854 0.024660695 0.07589234 0.04830093 0.02381761 -0.04012594 -0.02477665 0.019580074
-0.01910725 0.005808014 -0.04447304 0.025403619 -0.049928766 0.04819524 -0.025115207 0.030841528
-0.057768937 0.015617031 -0.022047393 0.0499681 -0.017390668 -0.06956683 0.07655077 0.05835327
-0.055669226 0.041442856 -0.04995242 0.044489995 0.024515096 0.072852544 -0.084304094 -0.006279784
-0.0036243873 -0.04122867 -0.030405067 0.10193722 0.032611553 -0.022311587 0.03664047 0.028478518
0.0024797332 -0.087477304 -0.018944891 0.02704547 0.017250542 -0.05333542 -0.043644782 0.07594635
-0.109250575 -0.010764259 -0.048895333 -0.019733088 -0.017209418 -0.050080393 -0.086839065 0.061629586
0.0562046 -0.079793364 0.07604317 -0.071923435 -0.03149877 -0.029696302 0.043531537 -0.015353956
0.046444453 -0.047584184 -0.051612716 0.055581383 -0.003687179 0.0074527017 0.04230729 0.014446788
0.024611736 -0.04006427 -0.013702614 -0.026638733 0.018368356 -0.032637008 0.107468836 -0.027391365
-0.044556066 0.049774025 0.02304684 -0.114428826 -0.050768014 0.083899565 -0.015416823 -0.088295266
-0.04436034 0.066342294 0.0784573 0.075541504 0.007297037 0.05091339 -0.0954232 -0.007647242
0.019826306 0.005335972 0.05045749 0.0052496246 -0.060156517 -0.11895591 0.07882787 -0.035698682
-0.069629975 0.028318448 -0.013414269 -0.04425513 -0.022679815 -0.017209886 -0.001903208 0.027878316
0.043528274 0.007078447 0.0073933997 -0.0008950164 -0.029037584 -0.033009432 0.09148939 -0.020365573
-0.019162996 0.07162547 -0.011301842 0.017237261 -0.04627919 -0.01885548 0.097218625 -0.00954887
-0.044677276 0.008366718 -0.018917887 0.015648002 0.0402572 -0.0034174316 0.02286756 0.036031853
0.08087715 -0.083956815 -0.07529804 0.08309587 0.058562603 -0.005555785 -0.0029224267 0.052851416
0.028761389 0.062168967 0.0031445643 -0.097699605 0.027243912 -0.10602884 0.009961297 -0.054994397
-0.02799555 -0.046388857 -0.031660877 -0.02065745 0.0033619376 -0.044993673 -0.016356707 0.05156332
-0.014690602 0.018982852 -0.055798493 -0.0153999645 -0.0806782 -0.026011914 0.04240011 0.007523649
0.07212505 0.0064195883 -0.04112236 0.07538987 0.021853551 -0.027939454 0.09884115 -0.053965792
-0.034213435 -0.021731252 -0.037191983 -0.040923573 0.01238866 0.055645432 -0.026152218 0.020598408
0.011259126 -0.0045474656 0.08464829 0.023767835 -0.02498507 0.027913574 0.048365287 0.06284475

conv_layers.2.bias f4 [64]
00000000: 1f21 a5bd caec 9a3c 552b 113d 55f1 573d
00000010: ce13 99bd 95a1 01be 1072 e6bd 200f 333c
00000020: 0644 493d d745 a23b c32d f83d 4e79 edbd
00000030: 6f56 cd3c 7602 e2bd 7217 1fbd 2a0b 0b3c
00000040: e661 c3bc 2de5 033d f97b 97bd 3391 9d3b
00000050: afdf 7abd 16fb 96bd 8f36 443d 4796 a83d
00000060: 4851 323d 2f51 b2bc 15b4 bcbd 68ae da3c
00000070: 3607 f3bc dea6 b13c 087c abbd ff88 5a3d
00000080: c7bf 983d f023 3c3c 4e08 f7bd 7dd0 12bd
00000090: ee32 eabb e214 49bc 99b6 f7bc 8287 c3bc
000000a0: 7175 acbd cff9 9c3d e0aa 7c3c bb0a 783b
000000b0: 710f 553d 1513 e1bc e653 d5bd 4251 13be
000000c0: 4db1 b93d 2fac 56bc 0d2e b1bd 82e6 5abc
000000d0: f342 bbbc 9a91 9c3c d378 553d bfcc 983d
000000e0: df1a 6e3d 9ca8 033d 1a42 f6bc d483 533c
000000f0: df86 a7bc aaef 83bd 2a52 a03c 7593 b23d
-0.08062958 0.018911738 0.035441715 0.052720387 -0.074744806 -0.12659295 -0.112522244 0.010928899
0.049137138 0.004952173 0.12118103 -0.11595403 0.025065629 -0.11035626 -0.03884072 0.008486548
-0.023850393 0.03220098 -0.07396693 0.004808569 -0.061248478 -0.073721096 0.047903594 0.08231788
0.043534547 -0.021767227 -0.092140354 0.026694492 -0.029666524 0.021686014 -0.083732665 0.053353306
0.074584536 0.011483178 -0.12062131 -0.03584336 -0.0071471846 -0.012273045 -0.030238437 -0.023868326
-0.08420838 0.07664835 0.015421599 0.0037848193 0.05201668 -0.02747492 -0.10416393 -0.14386466
0.090670206 -0.013102575 -0.086513616 -0.013360621 -0.022859072 0.019112397 0.05211718 0.07460927
0.058131095 0.03214322 -0.030060817 0.012909848 -0.020450054 -0.06442197 0.019570429 0.087195314

conv_layers.3.weight f4 [64, 256, 5]
00000000: 5e34 cabb 352c 81bd d3cf 4cba 6c15 78bc
00000010: d8e1 1b3c 3836 1bbc 06d8 ef3c cf2f 90bc
00000020: 07a5 213d b109 613c 406e 863d 76a0 343c
00000030: fc92 74bd c5fa e23c 1700 3ebd eea2 13bc
00000040: db22 5bbc a214 24bc a0e1 793a 4fa3 0bbd
00000050: 6fd9 a63b 3116 563c 2da4 21bd 70cb 10bc
00000060: d705 52bc 2191 d5bc ddc9 053c 0e07 823d
00000070: 3776 fbbc 03b6 20bd 2f52 023d f683 dd3c
00000080: aafc 9f3d c6bc f33a c27a e4bc 5d5e 433d
00000090: 10e7 e23c 149e 423d d055 163c 092d 36bd
000000a0: b2dd f0bc 27ab 223d 4469 42ba e0da b7bd
000000b0: 3100 303d 372d 243d e333 8cbc 89f5 e83b
000000c0: eaaa 253d 034e 86bd eb0b 96bd 6d68 db3c
000000d0: 4f19 85bd 9285 ffba 7265 51bd b896 fa3c
000000e0: b90e 123d 1800 44bc 8079 7dbc dee6 89ba
000000f0: 7396 fc3c df16 91bd 9727 843d 1306 d0bc
00000100: d175 03bd 2d65 d3bc f08a 543d 8d16 8d3c
00000110: c05e 91bc f27b 32bd 56ec e13c 144e 883d
00000120: 51a6 2abd 11d9 97bd ad8b bbbc 56b8 d63c
00000130: 0134 aa3c b382 64bd 8088 b4bd 009c 2fbd
00000140: f57e d9bc 03ad 7abd bb37 643b 6a38 c33d
00000150: 1029 7ebd e505 313d 8b37 a0bc b672 04bd
00000160: f18d 9bbd 2a8f 913c 722b 703d 1609 24bd
00000170: 8d50 94bc 3037 b53c d753 863d ccfc 853c
00000180: f884 0ebc 5b1a 7cbd a117 a5bc b914 65b8
00000190: 8454 863c a872 e1bc c83d 1fbd 2e82 873d
000001a0: 4d3c 2f3c e163 76bd 7ccd 8dbc e1e3 5cbd
000001b0: 7444 213c 6450 99bd f40e 06bd 0dc4 c53c
000001c0: 3283 4bbd 7189 4fbd a7c5 febc 88c4 0f3d
000001d0: 94ee 113d 0d72 d8b8 25c2 b83c dd92 163c
000001e0: 9032 44bd 3dc6 83bb ca34 50bd 0612 c73c
000001f0: d8f5 78bc 20d7 cb3c 35ee 81bd 5e8a 50bc
00000200: 98b2 bb3c c7d0 01bd 255d c23c 0b90 c2bc
00000210: 1b12 b5bd 83bd dcbb 102a 57bd 1ce4 f2bc
00000220: 7fcc 9cbd 0419 45bd 448e e93a 3458 baba
00000230: fc9f f9bc c20a 56bd 22e6 6f3c 984f 13bb
00000240: a6ce d2ba 26a6 66bd 6b40 4e3d 4444 a4bb
00000250: 5528 9fba c4fd d6bc 97ab 543d cf67 c4bc
00000260: fe1d c63b ab18 3e3c 1b85 8abd 222e 103d
00000270: 4f3b 653a 15f8 f43b 9ff3 703c 6b95 933a
00000280: 8fc3 97bd 6b5d 9b3b 2a2b 283d 8d96 a43d
00000290: 7427 acbc 4900 8d3d 878d 32bd d34a 6c3b
000002a0: a11d 313d 3cf4 3b3d 2839 19bd 4e89 ff3c
000002b0: 3182 cabc d1a6 863d 7c32 42bd c910 1abd
000002c0: b8cc 25bb ea1b bb3b 8e27 4ebd 5647 1e3d
000002d0: 7bb4 b0bc cba4 a13b f877 db3c 4667 a73b
000002e0: 6377 75bd d644 32bd 8eb2 7dbd 8bae 563c
000002f0: ce5f a0bd 4fc5 f6bb 4783 2e3d a456 d63c
00000300: 4cad 463c e744 a9bd 83df 39bd 66b1 ed3b
00000310: 1e98 4f3c 653b 233d 991a 9ebb df56 5ebc
00000320: fb02 303c 6aa7 383d 5568 e23b 2f0b 83bd
00000330: ba32 283c 22d6 373c 1849 b6bb 130e 4b3d
00000340: a49b cfbc 6acb 9d3c 9f49 fc3c 892c 023d
00000350: 238b 183b f7f4 143a b3c5 06bd 34a0 143d
00000360: 72da 69bd fe3d bd3c ce3a d3bc 60b5 703c
00000370: 539a 533d b978 693d 68dd 253d 6fb4 6b3d
00000380: f4fa e5bd 029a 243c 3040 86bc 2d76 3abc
00000390: 6232 133d 1639 06bd d8d5 f73c 76e3 673d
000003a0: 0ab0 b93c b3cc 25bc c645 a7bc 6115 d93d
000003b0: 5a09 f1bc ea24 863d 172b ba3d ad48 1ebd
000003c0: bca6 09bd 1d8b 5f3d e7a2 bbbc 3fcd a6bc
000003d0: f7f5 6c3c e432 703d d2a8 c0bc 7d84 03bd
000003e0: 72ce a4bd fb37 82bc ce60 a1bb 97c7 a7bb
000003f0: 5c25 85bc 6788 693d ae5e 41bd acd7 943a
-0.0061707934 -0.0630726 -0.00078129506 -0.015141826 0.009514295 -0.009473376 0.029277813 -0.017600922
0.039464023 0.013735221 0.06563997 0.011024585 -0.059710488 0.027707467 -0.046386804 -0.009011013
-0.013375009 -0.010014685 0.0009532217 -0.03409129 0.005091838 0.013066814 -0.03946321 -0.008837566
-0.012818775 -0.02607018 0.008165804 0.06349002 -0.030696018 -0.03923608 0.031816658 0.027040463
0.07811864 0.0018595688 -0.027890567 0.047697414 0.02769807 0.047514036 0.009175733 -0.044476543
-0.029402588 0.039714005 -0.00074161985 -0.08977294 0.042968933 0.040082183 -0.017114585 0.007109348
0.0404462 -0.06557848 -0.07326492 0.026783193 -0.06498968 -0.0019494763 -0.051122136 0.030589446
0.035658572 -0.011962913 -0.015470862 -0.0010521074 0.030833459 -0.070844404 0.06452864 -0.025393521
-0.03209478 -0.02580508 0.051890314 0.017222667 -0.017745376 -0.043575235 0.027578514 0.06655517
-0.041662518 -0.07414449 -0.022893751 0.026210945 0.02077675 -0.055788707 -0.08815098 -0.042873383
-0.026549796 -0.061200153 0.0034823257 0.095322445 -0.06205088 0.043218512 -0.019557735 -0.03233596
-0.075954325 0.017768461 0.058635183 -0.040047728 -0.018104816 0.022121042 0.0655896 0.016355895
-0.008698694 -0.061548572 -0.020152869 -5.4617154e-05 0.016397722 -0.027520493 -0.03887728 0.06616627
0.010695529 -0.060153846 -0.017309897 -0.05392826 0.009842981 -0.074860364 -0.032729104 0.024141336
-0.049685664 -0.050668184 -0.031100107 0.035099536 0.035627916 -0.00010320926 0.022553513 0.009190288
-0.047899783 -0.0040214346 -0.050831594 0.024300586 -0.0151953325 0.024882853 -0.063442625 -0.012728302
0.022912309 -0.031693246 0.023726055 -0.023750326 -0.08841344 -0.0067364587 -0.05253035 -0.029649787
-0.07656192 -0.04811956 0.0017818888 -0.001421696 -0.030471794 -0.052256353 0.01464227 -0.0022477861
-0.0016083315 -0.056310795 0.050354403 -0.0050130207 -0.0012142757 -0.026244052 0.051921453 -0.023975281
0.006046056 0.011602561 -0.06763669 0.035200246 0.00087444944 0.0074758627 0.014706521 0.001125974
-0.07410347 0.004741361 0.04105679 0.08036528 -0.021014906 0.0688482 -0.043592002 0.003605534
0.043241147 0.045887217 -0.037408024 0.031193402 -0.024720283 0.065747865 -0.047411427 -0.037613664
-0.0025299024 0.0057101147 -0.05033069 0.03864225 -0.021570435 0.004932975 0.026790604 0.0051087467
-0.05992831 -0.04352268 -0.06193786 0.013103138 -0.07830773 -0.0075308452 0.042605665 0.02616436
0.012126278 -0.08265095 -0.045379173 0.0072538136 0.012670545 0.039851565 -0.004824948 -0.013570516
0.010742898 0.045081533 0.00690941 -0.063986175 0.010266 0.011220487 -0.0055629127 0.04957397
-0.02534277 0.019262034 0.030796824 0.031780753 0.0023276291 0.00056822546 -0.032903384 0.036285594
-0.05709309 0.02310085 -0.025784876 0.014691681 0.051660847 0.056999896 0.040494353 0.05754512
-0.11229506 0.010046484 -0.016388029 -0.011380714 0.03593672 -0.032769285 0.030253336 0.056613408
0.02266695 -0.010119605 -0.020419013 0.10599781 -0.029423404 0.065500095 0.0909025 -0.038643528
-0.033606276 0.05457603 -0.022904826 -0.02036154 0.014462939 0.058642283 -0.023518 -0.032108773
-0.08047189 -0.015895834 -0.00492487 -0.0051202285 -0.016253166 0.05701485 -0.047209434 0.0011355779

conv_layers.3.bias f4 [64]
00000000: acc6 4fbe 9a9c f4bc 773e 113d caa5 c0bd
00000010: 3944 10bd cc2e 533b 5639 7abd a3c1 92bc
00000020: c641 a03c 5d81 2cbe 1640 08bd 6589 983c
00000030: a8cd db3b abc0 e3bc 1411 593d aeb3 933c
00000040: f680 cbbd 98dd 82bd 15b6 edbd aade 81bd
00000050: 55c1 b4bc 53ad 4fbc 6e20 6bbc 5046 c13c
00000060: 9187 adbc bdfb 96bc 14a9 5f3d 8b99 68bc
00000070: d965 c5bd 8d73 af3a 5a4a dfbc f229 983b
00000080: 1247 df3d a2a2 15bd 2f85 293c 7ddc 923d
00000090: 5c6b 433c 4af7 3abc f8e0 963d 0824 66bd
000000a0: 7eb2 b03d d93d 853c 3107 543c 9c96 133d
000000b0: 17f6 433d d135 b9bd 147c b53d af17 2fbb
000000c0: f1f5 3f3d 31dc ed3c dc63 6fbd 6727 87bd
000000d0: 63f3 07bd 03d1 0dbe d2e5 333d 8bc9 0dbd
000000e0: 6e8a b7bc bc4e efbc 7294 633d 7d49 58bd
000000f0: 9e56 c73c 12d1 d5bc 6288 463d 8ac5 37ba
-0.20290631 -0.02985983 0.03545996 -0.09406622 -0.035221312 0.0032223938 -0.061089836 -0.017914599
0.019562613 -0.16846223 -0.033264242 0.018620202 0.0067078657 -0.027801832 0.052994803 0.018030014
-0.09936707 -0.06389922 -0.11606995 -0.06341298 -0.022064844 -0.012675601 -0.014350994 0.023593098
-0.021182807 -0.018430585 0.054604605 -0.014196764 -0.096385665 0.0013385877 -0.027257133 0.004643672
0.109022275 -0.03653205 0.010346695 0.07170961 0.011927452 -0.011411497 0.07367128 -0.056186706
0.08627795 0.016264843 0.012941168 0.036032304 0.04784211 -0.09043468 0.08861557 -0.0026716997
0.046865407 0.02903566 -0.058444843 -0.06599312 -0.033191096 -0.13849263 0.043920346 -0.034616034
-0.022404876 -0.029212348 0.05556149 -0.05280446 0.024333294 -0.026100669 0.04846991 -0.00070103316

fc1.weight f4 [64, 256]
00000000: a2a1 26bd c78a 5b3c 8e4e 51bc c8e7 22bc
00000010: 806e 83bd b00a ae3c 9417 573d 52ae b9bb
00000020: 7eb6 1bbd 5c23 4bbc 0687 dbbc ee07 67bd
00000030: bff7 a9ba a80d 5ebd c175 133d afa6 29bd
00000040: 6279 43bd b03d aabc b187 1e39 6f8d 9e3b
00000050: 5240 99bb eff7 a23c 53dc a63b 0a5b 8ebd
00000060: 7773 193c 655b 5bbd 1b4d 3c3d dc18 15bd
00000070: 48c1 b13c e331 273c a93f 78bd 87ac 22bc
00000080: b342 26bd fef4 57bc 8ce3 8dbd 26b6 e83c
00000090: a416 27bb 681a 98bd f359 82bd f89f da3c
000000a0: 9d3e 0cbb b6a8 09bc 1e1d 6c3d 2288 c6bc
000000b0: 99a1 20bd 8f11 ecbc 5004 8b3c d999 bfbc
000000c0: a512 a3bd 34f2 2aba ff11 cdbc 2c79 20bd
000000d0: 2522 10bd 8d51 b63c cec2 363d ab0e ddbc
000000e0: f3e2 82bc 6677 433d 7ea2 7b3c 00fa 8d3c
000000f0: 2320 e83b 8a75 94bd ea50 ddbc a7b8 d03c
00000100: 3fac 02bd fa6f 543c 72e0 153d c0b5 63bd
00000110: 745a 00bc ff25 cc3c 9e75 64bd 6d47 243c
00000120: e6f1 60bc e64a 15bd 35f8 b5bc f4b1 1dbd
00000130: b305 e43a 668c 173d be29 debc eb07 0a3d
00000140: a26c fa3c 2b80 21bd d90f e13b 2360 48bd
00000150: 6e83 70bc 64dd 093d 4fb6 2b3c bc0f 403c
00000160: 808e cdbc a810 343c fd93 dd3c c524 46bd
00000170: 0cf1 5eba bf78 7cbd 3edf 6ebc 214f 673d
00000180: f6cb ee3c edd5 543d a8be 31bd 6780 20bc
00000190: 84ce 933c b5dd 1abd 442b ad3c f016 f43b
000001a0: c8ec 383c d65f 4c3d 9725 97bd 07ce 6cbd
000001b0: a852 f53a 7d5c 64bc ba9d 3dbd b69f a0bc
000001c0: aded a6bb 9229 7b3c 4ede 393c 6039 08b9
000001d0: 8759 81bd 7f12 573c f534 cabc bad0 aebb
000001e0: b433 c1bc ba83 32bd aa27 883c 6fa9 d13c
000001f0: 012b 1ebd 87ed 61bd 8605 e23b f7fc a6bc
00000200: ac1c 7fbd d744 2a3d 5a82 cbbb c934 c13c
00000210: 747f 5abd 4bd6 80bd 0120 b9bc 1bc1 223d
00000220: e03a b23c c5b5 42bd b9a8 b03b 3597 0e3c
00000230: c7d5 9abd cba6 2dbc ffba f13a 614e a6bc
00000240: c505 383d cb91 433d 4f55 2b3d 7f93 043d
00000250: ccbb aabb 4935 383b 8373 75bd 6267 07bd
00000260: 79e2 66bd a861 3a3c c8ba bcbc 6a80 80bb
00000270: 293b 94bc cc2e 84bd 20f8 0d3d 900d 42bd
00000280: 040e 483d 9a30 203d bf43 02bd 0939 b8bc
00000290: 1b9a 2bbd 1afb 65bd 9d19 33bc 711e 81bd
000002a0: f3f7 283d 8552 173c e482 54bd 4c7f a8bc
000002b0: e9c4 23bd 11be 86bc 0e3f 6abd ee59 6f3d
000002c0: 8351 d7bc eb0a b13b 164a b5bc 929a 083d
000002d0: c668 233c 984b 9ebc 6d1c ff3c ec3b 3fbd
000002e0: 789e 1cbd 29f4 89bd 0e7f c4bc 3bef 85bd
000002f0: bca7 93bd 04a4 fe3b 041f 43bb 6d3c b23b
00000300: bf59 8b3c 7c00 00bd f455 aabd 9cd4 13bd
00000310: 7aa0 0ebd 4b81 72bd d2e3 66bc 2176 f5b9
00000320: dcbe 103c d95e 81bd 551f 92bb d737 1b3d
00000330: 6f15 453d ffbe 81bd 15f3 acbc 431c d63b
00000340: 854d eabb cb9a 2a3a 00d6 9c3b 4001 523d
00000350: 7a56 d23b 61fd b1bd b2fa c039 3353 8abd
00000360: 74c8 4b3c 49bd 94bb 4399 edbc efff 0ebd
00000370: 30cb 163d 2db3 0d3c 266f 4c3d 6c87 6ebc
00000380: dee9 6f3c e3f9 233d 0772 d8bc cda3 2ebd
00000390: bdd1 37bd 4975 dc3b 0d0e 9bbd 5bbb 653c
000003a0: 8d46 bdbc 69f7 2a3c 5d1f 37bd a9e0 cdbc
000003b0: a0b5 0cbd d7d9 c2bc e444 983b 6eac 46bd
000003c0: 41b8 cb3c 0efe 23bd 5f9f 18ba 80cd 37bd
000003d0: c34f 37bd 7e99 10bd 830b e03c 2d80 553d
000003e0: 55d0 b8bc 225e e3bc 3133 38bd e667 78bd
000003f0: 655d 553d c92e 28bd a29c 1d3d c80e b53b
-0.04068149 0.013399786 -0.012775077 -0.009942956 -0.064175606 0.02124533 0.05251272 -0.0056665326
-0.038015835 -0.012398567 -0.026797783 -0.056404047 -0.0012967511 -0.054212242 0.03600097 -0.041418727
-0.04772318 -0.020781368 0.00015118603 0.0048386375 -0.004676857 0.019893615 0.0050921827 -0.06950958
0.009365908 -0.053553957 0.04597197 -0.03640066 0.021698609 0.010204765 -0.060607586 -0.009928829
-0.040590953 -0.013180969 -0.06928167 0.028407168 -0.0025495673 -0.074269116 -0.06364813 0.026687607
-0.0021399625 -0.00840204 0.057644956 -0.024234835 -0.03921661 -0.028816966 0.01696983 -0.02338879
-0.079625405 -0.00065210764 -0.025032995 -0.03917806 -0.035188813 0.022255683 0.044619374 -0.026984533
-0.015977358 0.04772129 0.015358565 0.017331123 0.007083909 -0.07248981 -0.027016122 0.025478674
-0.031902548 0.01296615 0.036591 -0.055593252 -0.007834066 0.024920462 -0.05577623 0.010026795
-0.013729548 -0.03644838 -0.02221308 -0.038499787 0.0017396718 0.03699913 -0.027119514 0.033698957
0.030569378 -0.03942887 0.0068683443 -0.048919808 -0.014679773 0.0336584 0.0104804775 0.011722501
-0.025092363 0.010990299 0.027048105 -0.04837491 -0.0008504547 -0.06163859 -0.014579592 0.056471948
0.02914999 0.051961828 -0.043394715 -0.0097962385 0.01804281 -0.037809093 0.021138795 0.0074490234
0.011286922 0.049896084 -0.073802166 -0.05781367 0.001871665 -0.013938067 -0.046292998 -0.019607406
-0.005094251 0.015329735 0.0113445055 -0.00012991345 -0.06315904 0.013126968 -0.024683455 -0.0053349407
-0.023584224 -0.043582655 0.016620476 0.025593488 -0.03861523 -0.055158164 0.006897631 -0.020384295
-0.062283203 0.041569557 -0.0062106075 0.02358474 -0.053344205 -0.06290873 -0.022598268 0.03973494
0.02175659 -0.04753663 0.005391207 0.008703043 -0.07560306 -0.010598849 0.001844257 -0.020301046
0.044927377 0.04774646 0.041829403 0.032367226 -0.0052103754 0.0028107932 -0.059924614 -0.033057578
-0.056368325 0.011375822 -0.023038283 -0.003921558 -0.018094616 -0.06454238 0.03466046 -0.047376215
0.04884149 0.03910885 -0.03180289 -0.022488134 -0.041895013 -0.056147672 -0.0109314 -0.06304634
0.041252088 0.009235983 -0.05188264 -0.020568512 -0.03998271 -0.016448053 -0.05718904 0.058435373
-0.026283985 0.005402913 -0.022130053 0.033350535 0.00997371 -0.019323155 0.031141484 -0.046688005
-0.038237065 -0.06736023 -0.023986366 -0.0653977 -0.07209727 0.007771017 -0.0029773125 0.005439332
0.017010568 -0.031250462 -0.083171755 -0.036091432 -0.03482101 -0.059205335 -0.0140924025 -0.00046818054
0.008834567 -0.06316919 -0.0044593015 0.03789505 0.048116144 -0.06335258 -0.021112004 0.006534131
-0.0071503543 0.00065080513 0.004786253 0.051270723 0.006419 -0.08690906 0.00036807876 -0.0675415
0.0124379285 -0.004539166 -0.029003745 -0.034912046 0.03681487 0.008648676 0.049910687 -0.014558654
0.014643161 0.040033232 -0.02642156 -0.04263668 -0.044877756 0.0067278487 -0.07571039 0.01402172
-0.02310493 0.010434964 -0.044707645 -0.02513154 -0.0343529 -0.023785515 0.0046468843 -0.048504286
0.024868133 -0.040037207 -0.0005822088 -0.044873714 -0.0447538 -0.03530263 0.02734924 0.05212419
-0.022560278 -0.027754847 -0.044970695 -0.06064596 0.05209102 -0.041060243 0.038479455 0.0055254437

fc1.bias f4 [64]
00000000: ef5d 4cbd 695e 74bd 3c4e 783c 85a4 993c
00000010: 9ca0 1c3d baa6 fa3c 8ed9 d53d 0ee9 e83d
00000020: 64d3 af3b 1122 a63d b7c4 b23c b9c7 9d3d
00000030: 106a 57bd 8e70 ee3c aa3e 9f3c c8ac 233d
00000040: 0408 95bc 855e f93b fc3c 873d 4c4a c43d
00000050: f14a 26bc 0cab bb38 89ac e33d 22f3 033d
00000060: eb6f 5fbd 3c20 273d 0ebc 8a3a 418b a63c
00000070: da41 e53d dc63 34bd d9e6 6dbd ac34 413c
00000080: 7768 b1bc d491 f63d 16d8 afbd 163c b03d
00000090: 731e f8bc a861 1cbd b7c6 8a3d bbf8 21bc
000000a0: 4590 4f3c 26f5 d2bc 90eb bf3c ec81 dcbb
000000b0: 37ed 083e 111d 78bd 1c12 e8bc 49aa e43d
000000c0: 8e6b e33d 82a4 8cbd 3569 d13c aeeb 92bd
000000d0: 71c1 d83c 9077 4b3d dab1 903c d34a 443d
000000e0: 63a6 f53c 4adb c73d 55a4 68bd 51b9 693d
000000f0: e2f7 653d 2d0d d73c 9c0a 69bd 83d5 2dbc
-0.04989427 -0.05966035 0.015155371 0.018755207 0.038239107 0.03059708 0.10441886 0.11372577
0.005365776 0.081119664 0.021822317 0.0770411 -0.052591383 0.029106405 0.01943906 0.0399597
-0.018192299 0.0076101446 0.06603429 0.095844835 -0.010149703 8.948715e-05 0.11116893 0.03221429
-0.054550093 0.040802225 0.0010584609 0.020330073 0.11194201 -0.044040546 -0.05808148 0.011792343
-0.021656258 0.12039533 -0.08586137 0.086052105 -0.030287957 -0.03817907 0.06776183 -0.009885962
0.012668674 -0.025751662 0.023427755 -0.006729355 0.1337174 -0.060574595 -0.028328948 0.11165292
0.11104499 -0.06867315 0.025562862 -0.071738586 0.026459428 0.04967457 0.017662931 0.04792292
0.029986566 0.09758623 -0.056797344 0.057061497 0.056144603 0.0262514 -0.056894884 -0.010609987

batch_norm.weight f4 [64]
00000000: bf80 773f 230f 7e3f 6f76 7e3f 4ad1 d73f
00000010: dd31 d43f d699 e03f 9e2f dd3f e925 d33f
00000020: 38f9 773f 6260 d93f 81e4 7b3f 5b26 eb3f
00000030: 1c5e 7e3f 78dd e33f c826 7d3f 6f76 7e3f
00000040: 2743 7e3f 8e75 7e3f 4508 de3f 2cd3 cc3f
00000050: bd1b dd3f 7bfc cf3f a317 cf3f ab38 7b3f
00000060: bfa8 7d3f 4e75 e03f ab83 7d3f 0e8c 783f
00000070: ab14 d73f 0000 803f ec4f 7e3f 75dd 7d3f
00000080: 190b f43f b91f d33f e793 783f 2190 d83f
00000090: 720d d73f 6d76 7e3f 3f54 ca3f 200b 7b3f
000000a0: bc9b 803f 8d21 d93f a85c d53f 81d7 d93f
000000b0: 5737 ca3f 0987 7c3f 0000 803f 3679 d43f
000000c0: 5222 e03f 1696 7c3f 38e1 7d3f 9efb 7c3f
000000d0: da31 7e3f 0000 803f f21e 7d3f 4c74 cc3f
000000e0: 1980 7e3f 6b29 d03f 10e7 7a3f f158 d43f
000000f0: 8d7f dd3f 7276 7e3f a708 7d3f 592e 7e3f
0.96680826 0.99241847 0.99399465 1.6860745 1.6577717 1.7546947 1.7280157 1.6495944
0.9686465 1.6982539 0.98395544 1.837108 0.9936235 1.7801962 0.988873 0.99399465
0.99321216 0.99398124 1.7346274 1.6001945 1.727409 1.6248926 1.6179088 0.98133343
0.9908561 1.7535799 0.99029034 0.97088706 1.6803182 1.0 0.993407 0.9916604
1.9065887 1.6494056 0.9710068 1.6918985 1.6800978 0.99399453 1.580696 0.9806385
1.0047526 1.6963364 1.6668901 1.7018892 1.5798138 0.9864355 1.0 1.6599491
1.7510474 0.9866651 0.9917178 0.9882144 0.9929482 1.0 0.98875344 1.5972991
0.9941421 1.626264 0.98008823 1.6589643 1.730455 0.99399483 0.9884133 0.9928947

batch_norm.bias f4 [64]
00000000: 6d2b f53d 9aea 07be e644 2abe bd8a 12bc
00000010: 1dcb 68be a881 18bd 8834 a4bd 655b 01bb
00000020: 0c7c f6bd e13e db3d 2c3f 573e a981 f23d
00000030: 4a6c f63d 4240 3b3d c37d 10be de97 47be
00000040: b984 39be 1cda 253e dbdd 36be a06f e23d
00000050: d983 80bc 4b00 ac3d 7231 143c eb8b 0abe
00000060: d405 e63d e464 d43d b02d 293e 539f 27be
00000070: dc3b 85be 4a52 17be 4b7c 1bbe 13f9 47be
00000080: 47a1 2bbd 0bbe 49bd 0120 1bbe 9180 50bc
00000090: 7ebf 65be 9853 273e 646d 02bd 2606 f4bb
000000a0: 5989 27be 737b 62bd db55 20be 5f3a 8bbd
000000b0: 0942 e8bd 6d7d 13be 4173 053e 89d8 7a3c
000000c0: f1f5 2a3b de4d d5bd 9c1d 08be 88ca 1a3e
000000d0: bb42 1b3e edb6 f13d cce5 08be 5d69 b33d
000000e0: 809c 07be 5901 e73d d3e3 3f3e da44 143d
000000f0: 0a65 ad3d 0625 1c3e 44a3 5d3e de5e de3d
0.119711734 -0.13273087 -0.16627845 -0.008944211 -0.22733732 -0.037233025 -0.08017832 -0.0019738313
-0.12035379 0.107053526 0.21020192 0.11841137 0.12032373 0.045715578 -0.14110474 -0.19491526
-0.18117036 0.16196483 -0.17858069 0.11056447 -0.01568787 0.083984934 0.009044992 -0.13529937
0.112315804 0.10370806 0.16521335 -0.16369371 -0.26022232 -0.14777485 -0.15184133 -0.19528608
-0.041901853 -0.049253505 -0.15148927 -0.012725965 -0.2243633 0.16340482 -0.031842604 -0.007447022
-0.16360988 -0.05529351 -0.15657751 -0.06798243 -0.1134072 -0.14403315 0.13032247 0.015310415
0.0026086534 -0.104152426 -0.13292545 0.15116322 0.15162174 0.118024684 -0.1336891 0.08760331
-0.13243294 0.11279554 0.18739252 0.036198474 0.08466537 0.15248498 0.21644312 0.10857938

batch_norm.running_mean f4 [64]
00000000: 8cd7 f225 0400 0000 0400 0000 e39f ec3f
00000010: cfe2 5f3d a961 363f d952 3540 eccd 9140
00000020: 0400 0000 c95f 4c40 0400 0000 aef0 f83f
00000030: 0400 0000 c4c0 d43d 0400 0000 0400 0000
00000040: 0400 0000 0400 0000 6c49 5640 5133 0740
00000050: e90f 8b3f 80b7 cf40 42dc ee3f 0400 0000
00000060: 0400 0000 8c4a d93f 0400 0000 0400 0000
00000070: 842a 2840 0000 0000 0400 0000 0400 0000
00000080: 5df3 ce3f 9453 5840 a5e8 851c f905 1640
00000090: 4b49 063e 0400 0000 358c ee3f 0400 0000
000000a0: da53 4707 fda6 653e 3702 3b40 c582 e13f
000000b0: c01f 6140 0400 0000 0000 0000 ad80 f03f
000000c0: 270c 4640 0400 0000 0400 0000 0400 0000
000000d0: 0400 0000 0000 0000 0400 0000 3ffd f43f
000000e0: 0400 0000 8339 8e40 0400 0000 03fe 0140
000000f0: 95fd ef3f 0400 0000 0400 0000 0400 0000
4.2126368e-16 6e-45 6e-45 1.8486294 0.05465966 0.7124277 2.8331816 4.556387
6e-45 3.1933463 6e-45 1.944845 6e-45 0.103883296 6e-45 6e-45
6e-45 6e-45 3.3482313 2.112507 1.086423 6.49115 1.8660967 6e-45
6e-45 1.6975875 6e-45 6e-45 2.627595 0.0 6e-45 6e-45
1.6168019 3.3801012 8.861339e-22 2.3441145 0.13113897 6e-45 1.8636538 6e-45
1.4995738e-34 0.22426982 2.9220102 1.7618033 3.5175629 6e-45 0.0 1.8789269
3.0944917 6e-45 6e-45 6e-45 6e-45 0.0 6e-45 1.9139785
6e-45 4.4445205 6e-45 2.0311286 1.8749262 6e-45 6e-45 6e-45

batch_norm.running_var f4 [64]
00000000: af1b 0c24 0400 0000 0400 0000 89d1 1040
00000010: 29c5 f93c 03e1 c03e 1892 683f 50ce 483f
00000020: 0400 0000 d9ff a03f 0400 0000 f374 1040
00000030: 0400 0000 7211 3e3d 0400 0000 0400 0000
00000040: 0400 0000 0400 0000 3362 0640 0433 d53f
00000050: ee98 573f 7fdd 2d40 30fd ac3f 0400 0000
00000060: 0400 0000 2062 c23f 0400 0000 0400 0000
00000070: c896 1c40 0400 0000 0400 0000 0400 0000
00000080: 432f c63f 5657 c63f 1dc0 301c ac7f b33f
00000090: ee81 883d 0400 0000 d7d4 5c3f 0400 0000
000000a0: 51c2 8d06 6f2a 2a3e edc5 893f 3cc0 903f
000000b0: 19c2 933f 0400 0000 0400 0000 a271 323f
000000c0: bfb0 6f3f 0400 0000 0400 0000 0400 0000
000000d0: 0400 0000 0400 0000 0400 0000 3f51 0140
000000e0: 0400 0000 2211 dd3f 0400 0000 70ed 853f
000000f0: c750 b23f 0400 0000 0400 0000 0400 0000
3.038111e-17 6e-45 6e-45 2.262789 0.030489521 0.3767167 0.9084792 0.7843981
6e-45 1.2578079 6e-45 2.257138 6e-45 0.046403356 6e-45 6e-45
6e-45 6e-45 2.0997436 1.6656194 0.8421773 2.716644 1.3514767 6e-45
6e-45 1.5186195 6e-45 6e-45 2.446703 6e-45 6e-45 6e-45
1.5483173 1.5495403 5.8481816e-22 1.4023337 0.06665407 6e-45 0.8626227 6e-45
5.332383e-35 0.1661775 1.0763527 1.1308665 1.1543609 6e-45 6e-45 0.6970464
0.9362907 6e-45 6e-45 6e-45 6e-45 6e-45 6e-45 2.0205839
6e-45 1.7270854 6e-45 1.0463085 1.3930901 6e-45 6e-45 6e-45

fc2.weight f4 [2, 64]
00000000: 2d1a a6bd 5e86 63bc 73e1 d9bd af2e 6abd
00000010: 6aef 853c b0d0 7b3d 953e 843d d29e 97bd
00000020: 8ab9 6fbd 8429 98bd aaf8 b7bd 3f2a bfbc
00000030: 0de0 a13d 2754 2b3d 5323 b13d 8dee 64bd
00000040: 69fc 94bd f321 5a3c 6255 db3d 1c81 d33d
00000050: b422 f6bb 981f 0ebd 9836 43bb 12a5 4d3d
00000060: 7796 dcbc 6aa1 febd 01a7 6e3d 53be eb3c
00000070: 02e9 3ebd 8ed0 f0bd 649a a1bd 33af 85bc
00000080: 27f2 b4bd 7f23 ecbc 912d 01bd f855 d03d
00000090: 89c0 b8bd 02d5 b9bd 85b2 2a3d a74b 9bbc
000000a0: 7623 b23d dd96 0d3d 5a2f 5d3c eeac 053e
000000b0: e5e3 52bd 0bbf 09bd 32e1 9fbd 5aa0 b5bd
000000c0: 89d9 8e3d cef5 a83d 0479 2f3c 1608 393d
000000d0: f3cb 13bd de91 053b 605a 85bd 7f36 fc3d
000000e0: 0ce1 01be aa9c e1bc e9ef f2bc fa2e b0bb
000000f0: 2654 bc3d 76b9 2cbc 4b63 e3bd 008f ec3d
00000100: 8b6e 58bd b38a c03d e572 cb3d e605 c9bd
00000110: 5de9 953c 7291 dd3c 01a6 d53c 5084 bebd
00000120: cc1f 1f3d f87d d43c df57 973c 77da cc3c
00000130: cf54 b83d 5cdd eabd 3dc4 1f3c 018d 9dbd
00000140: 7df3 d3bd 3ec9 0c3d 845d c4bd 66fb 63bd
00000150: f817 9fbd ac6d 2f3d ee65 d2bd 6f02 af3d
00000160: 980e 30bd 4e10 6b3c b4d6 e0bd 4483 d43d
00000170: 8d24 c23d f400 193d 4c4f d2bd 0b8b e23d
00000180: 3466 d53d 343c 943d bc1d c13d c6b6 9fbd
00000190: ec82 1e3c b349 d83d 4eff 063e a4c2 b2bd
000001a0: 82e0 803b 5dfe b93d 6fdc c2bd 739a 94bc
000001b0: dac9 573d bad2 a1bd eed1 cd3d 4e65 913c
000001c0: 7de3 df3d 1db2 bc3c 2bdf 9bbd 3f49 14bc
000001d0: 85fb e6bd 65c7 b63d 6ade bd3d 2dd6 d8bd
000001e0: ac1b 723d 2953 f53b 9ab7 70bd 6d7c f9bd
000001f0: 7987 61bd ce6d 083d 83df b5bd 91dd 73bd
-0.081104614 -0.013887016 -0.10638704 -0.057173427 0.016349513 0.061478317 0.06457249 -0.074033394
-0.058526553 -0.074297935 -0.08982976 -0.023335574 0.079040624 0.0418283 0.08649316 -0.055891562
-0.07274706 0.013313758 0.10709645 0.1032736 -0.007511461 -0.0346981 -0.002978718 0.05020625
-0.026927216 -0.12433131 0.058264736 0.028777277 -0.046608932 -0.11758529 -0.07890776 -0.016318893
-0.088352494 -0.02882552 -0.031537596 0.10172647 -0.09021098 -0.09073831 0.041674156 -0.018956972
0.0869817 0.034567703 0.013500059 0.13054249 -0.05148687 -0.03362946 -0.078066245 -0.08868475
0.06975085 0.082500085 0.010710005 0.045173727 -0.036083173 0.0020381133 -0.06511378 0.12315082
-0.12683505 -0.027540524 -0.029655414 -0.005376694 0.091957375 -0.010542264 -0.11102923 0.115507126
-0.052839797 0.09401455 0.09934024 -0.09815578 0.018299753 0.027046893 0.026080133 -0.0930258
0.038848683 0.025938973 0.018474517 0.025006516 0.09000551 -0.11468002 0.009751377 -0.0769291
-0.10349176 0.034371607 -0.09588149 -0.055659674 -0.077682436 0.0428292 -0.10273348 0.08545386
-0.042982668 0.014347149 -0.10978451 0.103765994 0.09479628 0.037354425 -0.10269031 0.110616766
0.10419884 0.07238045 0.094294995 -0.07798533 0.009674769 0.10560932 0.13183329 -0.08728531
0.0039330134 0.09081719 -0.095147006 -0.018140053 0.052682735 -0.07901521 0.100498065 0.017748501
0.10932062 0.02303415 -0.07610925 -0.009050666 -0.11278442 0.0892475 0.09270938 -0.10587726
0.05910842 0.00748672 -0.058768846 -0.121819355 -0.055060837 0.033307843 -0.08880522 -0.059537474

fc2.bias f4 [2]
00000000: 4853 45bd c8da 953d
-0.048175126 0.0731712
